…
I - Label min-max:  tensor(0) tensor(4) data number in dataset:  tensor([ 25307,  62469,  89431, 179673, 216085, 215850, 196560,  78000,  12894,
         23181,  58125,  65426,  24581,  10536,  81979, 171577])
I - Initializing model TCNv6
I - Number of Model Parameters: 646479
I - Model output shape:  torch.Size([3, 16, 5, 16])
I - Model summary
==========================================================================================
Layer (type:depth-idx)                   Output Shape              Param #
==========================================================================================
TCNv6                                    [3, 16, 5, 16]            --
├─FusedConv2dBNReLU: 1-1                 [16, 64, 64, 64]          3,142
│    └─OutputShiftSqueeze: 2-1           --                        --
│    └─One: 2-2                          [1]                       --
│    └─OutputScale: 2-3                  --                        --
│    └─Empty: 2-4                        [64, 48, 1, 1]            --
│    └─Empty: 2-5                        [64, 48, 1, 1]            --
│    └─Empty: 2-6                        [64]                      --
│    └─Empty: 2-7                        [64]                      --
│    └─BatchNorm2d: 2-8                  [16, 64, 64, 64]          --
│    └─Scaler: 2-9                       [16, 64, 64, 64]          --
│    └─ReLU: 2-10                        [16, 64, 64, 64]          --
│    └─Empty: 2-11                       [16, 64, 64, 64]          --
│    └─Clamp: 2-12                       [16, 64, 64, 64]          --
├─FusedConv2dBNReLU: 1-2                 [16, 64, 64, 64]          36,934
│    └─OutputShiftSqueeze: 2-13          --                        --
│    └─One: 2-14                         [1]                       --
│    └─OutputScale: 2-15                 --                        --
│    └─Empty: 2-16                       [64, 64, 3, 3]            --
│    └─Empty: 2-17                       [64, 64, 3, 3]            --
│    └─Empty: 2-18                       [64]                      --
│    └─Empty: 2-19                       [64]                      --
│    └─BatchNorm2d: 2-20                 [16, 64, 64, 64]          --
│    └─Scaler: 2-21                      [16, 64, 64, 64]          --
│    └─ReLU: 2-22                        [16, 64, 64, 64]          --
│    └─Empty: 2-23                       [16, 64, 64, 64]          --
│    └─Clamp: 2-24                       [16, 64, 64, 64]          --
├─FusedConv2dBNReLU: 1-3                 [16, 64, 64, 64]          4,166
│    └─OutputShiftSqueeze: 2-25          --                        --
│    └─One: 2-26                         [1]                       --
│    └─OutputScale: 2-27                 --                        --
│    └─Empty: 2-28                       [64, 64, 1, 1]            --
│    └─Empty: 2-29                       [64, 64, 1, 1]            --
│    └─Empty: 2-30                       [64]                      --
│    └─Empty: 2-31                       [64]                      --
│    └─BatchNorm2d: 2-32                 [16, 64, 64, 64]          --
│    └─Scaler: 2-33                      [16, 64, 64, 64]          --
│    └─ReLU: 2-34                        [16, 64, 64, 64]          --
│    └─Empty: 2-35                       [16, 64, 64, 64]          --
│    └─Clamp: 2-36                       [16, 64, 64, 64]          --
├─FusedConv2dBNReLU: 1-4                 [16, 64, 64, 64]          36,934
│    └─OutputShiftSqueeze: 2-37          --                        --
│    └─One: 2-38                         [1]                       --
│    └─OutputScale: 2-39                 --                        --
│    └─Empty: 2-40                       [64, 64, 3, 3]            --
│    └─Empty: 2-41                       [64, 64, 3, 3]            --
│    └─Empty: 2-42                       [64]                      --
│    └─Empty: 2-43                       [64]                      --
│    └─BatchNorm2d: 2-44                 [16, 64, 64, 64]          --
│    └─Scaler: 2-45                      [16, 64, 64, 64]          --
│    └─ReLU: 2-46                        [16, 64, 64, 64]          --
│    └─Empty: 2-47                       [16, 64, 64, 64]          --
│    └─Clamp: 2-48                       [16, 64, 64, 64]          --
├─FusedMaxPoolConv2dBNReLU: 1-5          [16, 64, 32, 32]          36,934
│    └─MaxPool2d: 2-49                   [16, 64, 32, 32]          --
│    └─Empty: 2-50                       [16, 64, 32, 32]          --
│    └─Empty: 2-51                       [16, 64, 32, 32]          --
│    └─OutputShiftSqueeze: 2-52          --                        --
│    └─One: 2-53                         [1]                       --
│    └─OutputScale: 2-54                 --                        --
│    └─Empty: 2-55                       [64, 64, 3, 3]            --
│    └─Empty: 2-56                       [64, 64, 3, 3]            --
│    └─Empty: 2-57                       [64]                      --
│    └─Empty: 2-58                       [64]                      --
│    └─BatchNorm2d: 2-59                 [16, 64, 32, 32]          --
│    └─Scaler: 2-60                      [16, 64, 32, 32]          --
│    └─ReLU: 2-3489                      [16, 64, 32, 32]          --
│    └─ReLU: 2-62                        [16, 64, 32, 32]          --
│    └─Empty: 2-63                       [16, 64, 32, 32]          --
│    └─Clamp: 2-64                       [16, 64, 32, 32]          --
├─FusedConv2dBNReLU: 1-6                 [16, 64, 32, 32]          36,934
│    └─OutputShiftSqueeze: 2-65          --                        --
│    └─One: 2-66                         [1]                       --
│    └─OutputScale: 2-67                 --                        --
│    └─Empty: 2-68                       [64, 64, 3, 3]            --
│    └─Empty: 2-69                       [64, 64, 3, 3]            --
│    └─Empty: 2-70                       [64]                      --
│    └─Empty: 2-71                       [64]                      --
│    └─BatchNorm2d: 2-72                 [16, 64, 32, 32]          --
│    └─Scaler: 2-73                      [16, 64, 32, 32]          --
│    └─ReLU: 2-74                        [16, 64, 32, 32]          --
│    └─Empty: 2-75                       [16, 64, 32, 32]          --
│    └─Clamp: 2-76                       [16, 64, 32, 32]          --
├─FusedMaxPoolConv2dBNReLU: 1-7          [16, 64, 16, 16]          36,934
│    └─MaxPool2d: 2-77                   [16, 64, 16, 16]          --
│    └─Empty: 2-78                       [16, 64, 16, 16]          --
│    └─Empty: 2-79                       [16, 64, 16, 16]          --
│    └─OutputShiftSqueeze: 2-80          --                        --
│    └─One: 2-81                         [1]                       --
│    └─OutputScale: 2-82                 --                        --
│    └─Empty: 2-83                       [64, 64, 3, 3]            --
│    └─Empty: 2-84                       [64, 64, 3, 3]            --
│    └─Empty: 2-85                       [64]                      --
│    └─Empty: 2-86                       [64]                      --
│    └─BatchNorm2d: 2-87                 [16, 64, 16, 16]          --
│    └─Scaler: 2-88                      [16, 64, 16, 16]          --
│    └─ReLU: 2-89                        [16, 64, 16, 16]          --
│    └─Empty: 2-90                       [16, 64, 16, 16]          --
│    └─Clamp: 2-91                       [16, 64, 16, 16]          --
│    └─ReLU: 2-3516                      [16, 64, 16, 16]          --
├─FusedConv2dBNReLU: 1-8                 [16, 64, 16, 16]          36,934
│    └─OutputShiftSqueeze: 2-93          --                        --
│    └─One: 2-94                         [1]                       --
│    └─OutputScale: 2-95                 --                        --
│    └─Empty: 2-96                       [64, 64, 3, 3]            --
│    └─Empty: 2-97                       [64, 64, 3, 3]            --
│    └─Empty: 2-98                       [64]                      --
│    └─Empty: 2-99                       [64]                      --
│    └─BatchNorm2d: 2-100                [16, 64, 16, 16]          --
│    └─Scaler: 2-101                     [16, 64, 16, 16]          --
│    └─ReLU: 2-102                       [16, 64, 16, 16]          --
│    └─Empty: 2-103                      [16, 64, 16, 16]          --
│    └─Clamp: 2-104                      [16, 64, 16, 16]          --
├─FusedMaxPoolConv2dBNReLU: 1-9          [16, 64, 8, 8]            36,934
│    └─MaxPool2d: 2-105                  [16, 64, 8, 8]            --
│    └─Empty: 2-106                      [16, 64, 8, 8]            --
│    └─Empty: 2-107                      [16, 64, 8, 8]            --
│    └─OutputShiftSqueeze: 2-108         --                        --
│    └─One: 2-109                        [1]                       --
│    └─OutputScale: 2-110                --                        --
│    └─Empty: 2-111                      [64, 64, 3, 3]            --
│    └─Empty: 2-112                      [64, 64, 3, 3]            --
│    └─Empty: 2-113                      [64]                      --
│    └─Empty: 2-114                      [64]                      --
│    └─BatchNorm2d: 2-115                [16, 64, 8, 8]            --
│    └─Scaler: 2-116                     [16, 64, 8, 8]            --
│    └─ReLU: 2-117                       [16, 64, 8, 8]            --
│    └─Empty: 2-118                      [16, 64, 8, 8]            --
│    └─Clamp: 2-119                      [16, 64, 8, 8]            --
├─FusedConv2dBNReLU: 1-10                [16, 64, 8, 8]            4,166
│    └─OutputShiftSqueeze: 2-120         --                        --
│    └─One: 2-121                        [1]                       --
├─FusedMaxPoolConv2dBNReLU: 1            --                        --
│    └─ReLU: 2-3543                      [16, 64, 8, 8]            --
├─FusedConv2dBNReLU: 1                   --                        --
│    └─OutputScale: 2-123                --                        --
│    └─Empty: 2-124                      [64, 64, 1, 1]            --
│    └─Empty: 2-125                      [64, 64, 1, 1]            --
│    └─Empty: 2-126                      [64]                      --
│    └─Empty: 2-127                      [64]                      --
│    └─BatchNorm2d: 2-128                [16, 64, 8, 8]            --
│    └─Scaler: 2-129                     [16, 64, 8, 8]            --
│    └─ReLU: 2-130                       [16, 64, 8, 8]            --
│    └─Empty: 2-131                      [16, 64, 8, 8]            --
│    └─Clamp: 2-132                      [16, 64, 8, 8]            --
├─FusedMaxPoolConv2dBNReLU: 1-11         [16, 64, 8, 8]            36,934
│    └─MaxPool2d: 2-133                  [16, 64, 8, 8]            --
│    └─Empty: 2-134                      [16, 64, 8, 8]            --
│    └─Empty: 2-135                      [16, 64, 8, 8]            --
│    └─OutputShiftSqueeze: 2-136         --                        --
│    └─One: 2-137                        [1]                       --
│    └─OutputScale: 2-138                --                        --
│    └─Empty: 2-139                      [64, 64, 3, 3]            --
│    └─Empty: 2-140                      [64, 64, 3, 3]            --
│    └─Empty: 2-141                      [64]                      --
│    └─Empty: 2-142                      [64]                      --
│    └─BatchNorm2d: 2-143                [16, 64, 8, 8]            --
│    └─Scaler: 2-144                     [16, 64, 8, 8]            --
│    └─ReLU: 2-145                       [16, 64, 8, 8]            --
│    └─Empty: 2-146                      [16, 64, 8, 8]            --
│    └─Clamp: 2-147                      [16, 64, 8, 8]            --
├─FusedMaxPoolConv2dBNReLU: 1-12         [16, 64, 4, 4]            36,934
│    └─MaxPool2d: 2-148                  [16, 64, 4, 4]            --
│    └─Empty: 2-149                      [16, 64, 4, 4]            --
│    └─Empty: 2-150                      [16, 64, 4, 4]            --
│    └─OutputShiftSqueeze: 2-151         --                        --
│    └─One: 2-152                        [1]                       --
├─FusedMaxPoolConv2dBNReLU: 1            --                        --
│    └─ReLU: 2-3570                      [16, 64, 8, 8]            --
├─FusedMaxPoolConv2dBNReLU: 1            --                        --
│    └─OutputScale: 2-154                --                        --
│    └─Empty: 2-155                      [64, 64, 3, 3]            --
│    └─Empty: 2-156                      [64, 64, 3, 3]            --
│    └─Empty: 2-157                      [64]                      --
│    └─Empty: 2-158                      [64]                      --
│    └─BatchNorm2d: 2-159                [16, 64, 4, 4]            --
│    └─Scaler: 2-160                     [16, 64, 4, 4]            --
│    └─ReLU: 2-161                       [16, 64, 4, 4]            --
│    └─Empty: 2-162                      [16, 64, 4, 4]            --
│    └─Clamp: 2-163                      [16, 64, 4, 4]            --
├─FusedConv2dBNReLU: 1-13                [16, 64, 4, 4]            4,166
│    └─OutputShiftSqueeze: 2-164         --                        --
│    └─One: 2-165                        [1]                       --
│    └─OutputScale: 2-166                --                        --
│    └─Empty: 2-167                      [64, 64, 1, 1]            --
│    └─Empty: 2-168                      [64, 64, 1, 1]            --
├─FusedMaxPoolConv2dBNReLU: 1            --                        --
│    └─ReLU: 2-3585                      [16, 64, 4, 4]            --
├─FusedConv2dBNReLU: 1                   --                        --
│    └─Empty: 2-170                      [64]                      --
│    └─Empty: 2-171                      [64]                      --
│    └─BatchNorm2d: 2-172                [16, 64, 4, 4]            --
│    └─Scaler: 2-173                     [16, 64, 4, 4]            --
│    └─ReLU: 2-174                       [16, 64, 4, 4]            --
│    └─Empty: 2-175                      [16, 64, 4, 4]            --
│    └─Clamp: 2-176                      [16, 64, 4, 4]            --
├─FusedMaxPoolConv2dBNReLU: 1-14         [16, 64, 4, 4]            36,934
│    └─MaxPool2d: 2-177                  [16, 64, 4, 4]            --
│    └─Empty: 2-178                      [16, 64, 4, 4]            --
│    └─Empty: 2-179                      [16, 64, 4, 4]            --
│    └─OutputShiftSqueeze: 2-180         --                        --
│    └─One: 2-181                        [1]                       --
│    └─OutputScale: 2-182                --                        --
│    └─Empty: 2-183                      [64, 64, 3, 3]            --
│    └─Empty: 2-184                      [64, 64, 3, 3]            --
│    └─Empty: 2-185                      [64]                      --
│    └─Empty: 2-186                      [64]                      --
│    └─BatchNorm2d: 2-187                [16, 64, 4, 4]            --
│    └─Scaler: 2-188                     [16, 64, 4, 4]            --
│    └─ReLU: 2-189                       [16, 64, 4, 4]            --
│    └─Empty: 2-190                      [16, 64, 4, 4]            --
│    └─Clamp: 2-191                      [16, 64, 4, 4]            --
├─FusedMaxPoolConv2dBNReLU: 1-15         [16, 64, 2, 2]            4,166
│    └─MaxPool2d: 2-192                  [16, 64, 2, 2]            --
│    └─Empty: 2-193                      [16, 64, 2, 2]            --
│    └─Empty: 2-194                      [16, 64, 2, 2]            --
│    └─OutputShiftSqueeze: 2-195         --                        --
│    └─One: 2-196                        [1]                       --
│    └─OutputScale: 2-197                --                        --
│    └─Empty: 2-198                      [64, 64, 1, 1]            --
│    └─Empty: 2-199                      [64, 64, 1, 1]            --
├─FusedMaxPoolConv2dBNReLU: 1            --                        --
│    └─ReLU: 2-3612                      [16, 64, 4, 4]            --
├─FusedMaxPoolConv2dBNReLU: 1            --                        --
│    └─Empty: 2-201                      [64]                      --
│    └─Empty: 2-202                      [64]                      --
│    └─BatchNorm2d: 2-203                [16, 64, 2, 2]            --
│    └─Scaler: 2-204                     [16, 64, 2, 2]            --
│    └─ReLU: 2-205                       [16, 64, 2, 2]            --
│    └─Empty: 2-206                      [16, 64, 2, 2]            --
│    └─Clamp: 2-207                      [16, 64, 2, 2]            --
├─FusedConv2dBNReLU: 1-16                [16, 64, 2, 2]            4,166
│    └─OutputShiftSqueeze: 2-208         --                        --
│    └─One: 2-209                        [1]                       --
│    └─OutputScale: 2-210                --                        --
│    └─Empty: 2-211                      [64, 64, 1, 1]            --
│    └─Empty: 2-212                      [64, 64, 1, 1]            --
│    └─Empty: 2-213                      [64]                      --
│    └─Empty: 2-214                      [64]                      --
│    └─BatchNorm2d: 2-215                [16, 64, 2, 2]            --
├─FusedMaxPoolConv2dBNReLU: 1            --                        --
│    └─ReLU: 2-3627                      [16, 64, 2, 2]            --
├─FusedConv2dBNReLU: 1                   --                        --
│    └─Scaler: 2-217                     [16, 64, 2, 2]            --
│    └─ReLU: 2-218                       [16, 64, 2, 2]            --
│    └─Empty: 2-219                      [16, 64, 2, 2]            --
│    └─Clamp: 2-220                      [16, 64, 2, 2]            --
├─FusedMaxPoolConv2dBNReLU: 1-17         [16, 64, 2, 2]            36,934
│    └─MaxPool2d: 2-221                  [16, 64, 2, 2]            --
│    └─Empty: 2-222                      [16, 64, 2, 2]            --
│    └─Empty: 2-223                      [16, 64, 2, 2]            --
│    └─OutputShiftSqueeze: 2-224         --                        --
│    └─One: 2-225                        [1]                       --
│    └─OutputScale: 2-226                --                        --
│    └─Empty: 2-227                      [64, 64, 3, 3]            --
│    └─Empty: 2-228                      [64, 64, 3, 3]            --
│    └─Empty: 2-229                      [64]                      --
│    └─Empty: 2-230                      [64]                      --
│    └─BatchNorm2d: 2-231                [16, 64, 2, 2]            --
│    └─Scaler: 2-232                     [16, 64, 2, 2]            --
│    └─ReLU: 2-233                       [16, 64, 2, 2]            --
│    └─Empty: 2-234                      [16, 64, 2, 2]            --
│    └─Clamp: 2-235                      [16, 64, 2, 2]            --
├─FusedConv2dBNReLU: 1-18                [16, 64, 64, 64]          (recursive)
│    └─OutputShiftSqueeze: 2-236         --                        --
│    └─One: 2-237                        [1]                       --
│    └─OutputScale: 2-238                --                        --
│    └─Empty: 2-239                      [64, 48, 1, 1]            --
│    └─Empty: 2-240                      [64, 48, 1, 1]            --
│    └─Empty: 2-241                      [64]                      --
│    └─Empty: 2-242                      [64]                      --
│    └─BatchNorm2d: 2-243                [16, 64, 64, 64]          --
│    └─Scaler: 2-244                     [16, 64, 64, 64]          --
│    └─ReLU: 2-245                       [16, 64, 64, 64]          --
│    └─Empty: 2-246                      [16, 64, 64, 64]          --
├─FusedMaxPoolConv2dBNReLU: 1            --                        --
│    └─ReLU: 2-3654                      [16, 64, 2, 2]            --
├─FusedConv2dBNReLU: 1                   --                        --
│    └─Clamp: 2-248                      [16, 64, 64, 64]          --
├─FusedConv2dBNReLU: 1-19                [16, 64, 64, 64]          (recursive)
│    └─OutputShiftSqueeze: 2-249         --                        --
│    └─One: 2-250                        [1]                       --
│    └─OutputScale: 2-251                --                        --
│    └─Empty: 2-252                      [64, 64, 3, 3]            --
│    └─Empty: 2-253                      [64, 64, 3, 3]            --
│    └─Empty: 2-254                      [64]                      --
│    └─Empty: 2-255                      [64]                      --
│    └─BatchNorm2d: 2-256                [16, 64, 64, 64]          --
│    └─Scaler: 2-257                     [16, 64, 64, 64]          --
│    └─ReLU: 2-258                       [16, 64, 64, 64]          --
│    └─Empty: 2-259                      [16, 64, 64, 64]          --
│    └─Clamp: 2-260                      [16, 64, 64, 64]          --
├─FusedConv2dBNReLU: 1-20                [16, 64, 64, 64]          (recursive)
│    └─OutputShiftSqueeze: 2-261         --                        --
│    └─One: 2-262                        [1]                       --
│    └─OutputScale: 2-263                --                        --
│    └─Empty: 2-264                      [64, 64, 1, 1]            --
│    └─Empty: 2-265                      [64, 64, 1, 1]            --
│    └─Empty: 2-266                      [64]                      --
│    └─Empty: 2-267                      [64]                      --
│    └─BatchNorm2d: 2-268                [16, 64, 64, 64]          --
│    └─Scaler: 2-269                     [16, 64, 64, 64]          --
│    └─ReLU: 2-270                       [16, 64, 64, 64]          --
│    └─Empty: 2-271                      [16, 64, 64, 64]          --
│    └─Clamp: 2-272                      [16, 64, 64, 64]          --
├─FusedConv2dBNReLU: 1-21                [16, 64, 64, 64]          (recursive)
│    └─OutputShiftSqueeze: 2-273         --                        --
│    └─One: 2-274                        [1]                       --
│    └─OutputScale: 2-275                --                        --
│    └─Empty: 2-276                      [64, 64, 3, 3]            --
│    └─Empty: 2-277                      [64, 64, 3, 3]            --
│    └─Empty: 2-278                      [64]                      --
│    └─Empty: 2-279                      [64]                      --
│    └─BatchNorm2d: 2-280                [16, 64, 64, 64]          --
│    └─Scaler: 2-281                     [16, 64, 64, 64]          --
│    └─ReLU: 2-282                       [16, 64, 64, 64]          --
│    └─Empty: 2-283                      [16, 64, 64, 64]          --
│    └─Clamp: 2-284                      [16, 64, 64, 64]          --
├─FusedMaxPoolConv2dBNReLU: 1-22         [16, 64, 32, 32]          (recursive)
│    └─MaxPool2d: 2-285                  [16, 64, 32, 32]          --
│    └─Empty: 2-286                      [16, 64, 32, 32]          --
│    └─Empty: 2-287                      [16, 64, 32, 32]          --
│    └─OutputShiftSqueeze: 2-288         --                        --
│    └─One: 2-289                        [1]                       --
│    └─OutputScale: 2-290                --                        --
│    └─Empty: 2-291                      [64, 64, 3, 3]            --
│    └─Empty: 2-292                      [64, 64, 3, 3]            --
│    └─Empty: 2-293                      [64]                      --
│    └─Empty: 2-294                      [64]                      --
│    └─BatchNorm2d: 2-295                [16, 64, 32, 32]          --
│    └─Scaler: 2-296                     [16, 64, 32, 32]          --
│    └─ReLU: 2-297                       [16, 64, 32, 32]          --
│    └─Empty: 2-298                      [16, 64, 32, 32]          --
│    └─Clamp: 2-299                      [16, 64, 32, 32]          --
├─FusedConv2dBNReLU: 1-23                [16, 64, 32, 32]          (recursive)
│    └─OutputShiftSqueeze: 2-300         --                        --
│    └─One: 2-301                        [1]                       --
│    └─OutputScale: 2-302                --                        --
│    └─Empty: 2-303                      [64, 64, 3, 3]            --
│    └─Empty: 2-304                      [64, 64, 3, 3]            --
│    └─Empty: 2-305                      [64]                      --
│    └─Empty: 2-306                      [64]                      --
│    └─BatchNorm2d: 2-307                [16, 64, 32, 32]          --
│    └─Scaler: 2-308                     [16, 64, 32, 32]          --
│    └─ReLU: 2-309                       [16, 64, 32, 32]          --
│    └─Empty: 2-310                      [16, 64, 32, 32]          --
│    └─Clamp: 2-311                      [16, 64, 32, 32]          --
├─FusedMaxPoolConv2dBNReLU: 1-24         [16, 64, 16, 16]          (recursive)
│    └─MaxPool2d: 2-312                  [16, 64, 16, 16]          --
│    └─Empty: 2-313                      [16, 64, 16, 16]          --
│    └─Empty: 2-314                      [16, 64, 16, 16]          --
│    └─OutputShiftSqueeze: 2-315         --                        --
│    └─One: 2-316                        [1]                       --
│    └─OutputScale: 2-317                --                        --
│    └─Empty: 2-318                      [64, 64, 3, 3]            --
│    └─Empty: 2-319                      [64, 64, 3, 3]            --
│    └─Empty: 2-320                      [64]                      --
│    └─Empty: 2-321                      [64]                      --
│    └─BatchNorm2d: 2-322                [16, 64, 16, 16]          --
│    └─Scaler: 2-323                     [16, 64, 16, 16]          --
│    └─ReLU: 2-324                       [16, 64, 16, 16]          --
│    └─Empty: 2-325                      [16, 64, 16, 16]          --
│    └─Clamp: 2-326                      [16, 64, 16, 16]          --
├─FusedConv2dBNReLU: 1-25                [16, 64, 16, 16]          (recursive)
│    └─OutputShiftSqueeze: 2-327         --                        --
│    └─One: 2-328                        [1]                       --
│    └─OutputScale: 2-329                --                        --
│    └─Empty: 2-330                      [64, 64, 3, 3]            --
│    └─Empty: 2-331                      [64, 64, 3, 3]            --
│    └─Empty: 2-332                      [64]                      --
│    └─Empty: 2-333                      [64]                      --
│    └─BatchNorm2d: 2-334                [16, 64, 16, 16]          --
│    └─Scaler: 2-335                     [16, 64, 16, 16]          --
│    └─ReLU: 2-336                       [16, 64, 16, 16]          --
│    └─Empty: 2-337                      [16, 64, 16, 16]          --
│    └─Clamp: 2-338                      [16, 64, 16, 16]          --
├─FusedMaxPoolConv2dBNReLU: 1-26         [16, 64, 8, 8]            (recursive)
│    └─MaxPool2d: 2-339                  [16, 64, 8, 8]            --
│    └─Empty: 2-340                      [16, 64, 8, 8]            --
│    └─Empty: 2-341                      [16, 64, 8, 8]            --
│    └─OutputShiftSqueeze: 2-342         --                        --
│    └─One: 2-343                        [1]                       --
│    └─OutputScale: 2-344                --                        --
│    └─Empty: 2-345                      [64, 64, 3, 3]            --
│    └─Empty: 2-346                      [64, 64, 3, 3]            --
│    └─Empty: 2-347                      [64]                      --
│    └─Empty: 2-348                      [64]                      --
│    └─BatchNorm2d: 2-349                [16, 64, 8, 8]            --
│    └─Scaler: 2-350                     [16, 64, 8, 8]            --
│    └─ReLU: 2-351                       [16, 64, 8, 8]            --
│    └─Empty: 2-352                      [16, 64, 8, 8]            --
│    └─Clamp: 2-353                      [16, 64, 8, 8]            --
├─FusedConv2dBNReLU: 1-27                [16, 64, 8, 8]            (recursive)
│    └─OutputShiftSqueeze: 2-354         --                        --
│    └─One: 2-355                        [1]                       --
│    └─OutputScale: 2-356                --                        --
│    └─Empty: 2-357                      [64, 64, 1, 1]            --
│    └─Empty: 2-358                      [64, 64, 1, 1]            --
│    └─Empty: 2-359                      [64]                      --
│    └─Empty: 2-360                      [64]                      --
│    └─BatchNorm2d: 2-361                [16, 64, 8, 8]            --
│    └─Scaler: 2-362                     [16, 64, 8, 8]            --
│    └─ReLU: 2-363                       [16, 64, 8, 8]            --
│    └─Empty: 2-364                      [16, 64, 8, 8]            --
│    └─Clamp: 2-365                      [16, 64, 8, 8]            --
├─FusedMaxPoolConv2dBNReLU: 1-28         [16, 64, 8, 8]            (recursive)
│    └─MaxPool2d: 2-366                  [16, 64, 8, 8]            --
│    └─Empty: 2-367                      [16, 64, 8, 8]            --
│    └─Empty: 2-368                      [16, 64, 8, 8]            --
│    └─OutputShiftSqueeze: 2-369         --                        --
│    └─One: 2-370                        [1]                       --
│    └─OutputScale: 2-371                --                        --
│    └─Empty: 2-372                      [64, 64, 3, 3]            --
│    └─Empty: 2-373                      [64, 64, 3, 3]            --
│    └─Empty: 2-374                      [64]                      --
│    └─Empty: 2-375                      [64]                      --
│    └─BatchNorm2d: 2-376                [16, 64, 8, 8]            --
│    └─Scaler: 2-377                     [16, 64, 8, 8]            --
│    └─ReLU: 2-378                       [16, 64, 8, 8]            --
│    └─Empty: 2-379                      [16, 64, 8, 8]            --
│    └─Clamp: 2-380                      [16, 64, 8, 8]            --
├─FusedMaxPoolConv2dBNReLU: 1-29         [16, 64, 4, 4]            (recursive)
│    └─MaxPool2d: 2-381                  [16, 64, 4, 4]            --
│    └─Empty: 2-382                      [16, 64, 4, 4]            --
│    └─Empty: 2-383                      [16, 64, 4, 4]            --
│    └─OutputShiftSqueeze: 2-384         --                        --
│    └─One: 2-385                        [1]                       --
│    └─OutputScale: 2-386                --                        --
│    └─Empty: 2-387                      [64, 64, 3, 3]            --
│    └─Empty: 2-388                      [64, 64, 3, 3]            --
│    └─Empty: 2-389                      [64]                      --
│    └─Empty: 2-390                      [64]                      --
│    └─BatchNorm2d: 2-391                [16, 64, 4, 4]            --
│    └─Scaler: 2-392                     [16, 64, 4, 4]            --
│    └─ReLU: 2-393                       [16, 64, 4, 4]            --
│    └─Empty: 2-394                      [16, 64, 4, 4]            --
│    └─Clamp: 2-395                      [16, 64, 4, 4]            --
├─FusedConv2dBNReLU: 1-30                [16, 64, 4, 4]            (recursive)
│    └─OutputShiftSqueeze: 2-396         --                        --
│    └─One: 2-397                        [1]                       --
│    └─OutputScale: 2-398                --                        --
│    └─Empty: 2-399                      [64, 64, 1, 1]            --
│    └─Empty: 2-400                      [64, 64, 1, 1]            --
│    └─Empty: 2-401                      [64]                      --
│    └─Empty: 2-402                      [64]                      --
│    └─BatchNorm2d: 2-403                [16, 64, 4, 4]            --
│    └─Scaler: 2-404                     [16, 64, 4, 4]            --
│    └─ReLU: 2-405                       [16, 64, 4, 4]            --
│    └─Empty: 2-406                      [16, 64, 4, 4]            --
│    └─Clamp: 2-407                      [16, 64, 4, 4]            --
├─FusedMaxPoolConv2dBNReLU: 1-31         [16, 64, 4, 4]            (recursive)
│    └─MaxPool2d: 2-408                  [16, 64, 4, 4]            --
│    └─Empty: 2-409                      [16, 64, 4, 4]            --
│    └─Empty: 2-410                      [16, 64, 4, 4]            --
│    └─OutputShiftSqueeze: 2-411         --                        --
│    └─One: 2-412                        [1]                       --
│    └─OutputScale: 2-413                --                        --
│    └─Empty: 2-414                      [64, 64, 3, 3]            --
│    └─Empty: 2-415                      [64, 64, 3, 3]            --
│    └─Empty: 2-416                      [64]                      --
│    └─Empty: 2-417                      [64]                      --
│    └─BatchNorm2d: 2-418                [16, 64, 4, 4]            --
│    └─Scaler: 2-419                     [16, 64, 4, 4]            --
│    └─ReLU: 2-420                       [16, 64, 4, 4]            --
│    └─Empty: 2-421                      [16, 64, 4, 4]            --
│    └─Clamp: 2-422                      [16, 64, 4, 4]            --
├─FusedMaxPoolConv2dBNReLU: 1-32         [16, 64, 2, 2]            (recursive)
│    └─MaxPool2d: 2-423                  [16, 64, 2, 2]            --
│    └─Empty: 2-424                      [16, 64, 2, 2]            --
│    └─Empty: 2-425                      [16, 64, 2, 2]            --
│    └─OutputShiftSqueeze: 2-426         --                        --
│    └─One: 2-427                        [1]                       --
│    └─OutputScale: 2-428                --                        --
│    └─Empty: 2-429                      [64, 64, 1, 1]            --
│    └─Empty: 2-430                      [64, 64, 1, 1]            --
│    └─Empty: 2-431                      [64]                      --
│    └─Empty: 2-432                      [64]                      --
│    └─BatchNorm2d: 2-433                [16, 64, 2, 2]            --
│    └─Scaler: 2-434                     [16, 64, 2, 2]            --
│    └─ReLU: 2-435                       [16, 64, 2, 2]            --
│    └─Empty: 2-436                      [16, 64, 2, 2]            --
│    └─Clamp: 2-437                      [16, 64, 2, 2]            --
├─FusedConv2dBNReLU: 1-33                [16, 64, 2, 2]            (recursive)
│    └─OutputShiftSqueeze: 2-438         --                        --
│    └─One: 2-439                        [1]                       --
│    └─OutputScale: 2-440                --                        --
│    └─Empty: 2-441                      [64, 64, 1, 1]            --
│    └─Empty: 2-442                      [64, 64, 1, 1]            --
│    └─Empty: 2-443                      [64]                      --
│    └─Empty: 2-444                      [64]                      --
│    └─BatchNorm2d: 2-445                [16, 64, 2, 2]            --
│    └─Scaler: 2-446                     [16, 64, 2, 2]            --
│    └─ReLU: 2-447                       [16, 64, 2, 2]            --
│    └─Empty: 2-448                      [16, 64, 2, 2]            --
│    └─Clamp: 2-449                      [16, 64, 2, 2]            --
├─FusedMaxPoolConv2dBNReLU: 1-34         [16, 64, 2, 2]            (recursive)
│    └─MaxPool2d: 2-450                  [16, 64, 2, 2]            --
│    └─Empty: 2-451                      [16, 64, 2, 2]            --
│    └─Empty: 2-452                      [16, 64, 2, 2]            --
│    └─OutputShiftSqueeze: 2-453         --                        --
│    └─One: 2-454                        [1]                       --
│    └─OutputScale: 2-455                --                        --
│    └─Empty: 2-456                      [64, 64, 3, 3]            --
│    └─Empty: 2-457                      [64, 64, 3, 3]            --
│    └─Empty: 2-458                      [64]                      --
│    └─Empty: 2-459                      [64]                      --
│    └─BatchNorm2d: 2-460                [16, 64, 2, 2]            --
│    └─Scaler: 2-461                     [16, 64, 2, 2]            --
│    └─ReLU: 2-462                       [16, 64, 2, 2]            --
│    └─Empty: 2-463                      [16, 64, 2, 2]            --
│    └─Clamp: 2-464                      [16, 64, 2, 2]            --
├─FusedConv2dBNReLU: 1-35                [16, 64, 64, 64]          (recursive)
│    └─OutputShiftSqueeze: 2-465         --                        --
│    └─One: 2-466                        [1]                       --
│    └─OutputScale: 2-467                --                        --
│    └─Empty: 2-468                      [64, 48, 1, 1]            --
│    └─Empty: 2-469                      [64, 48, 1, 1]            --
│    └─Empty: 2-470                      [64]                      --
│    └─Empty: 2-471                      [64]                      --
│    └─BatchNorm2d: 2-472                [16, 64, 64, 64]          --
│    └─Scaler: 2-473                     [16, 64, 64, 64]          --
│    └─ReLU: 2-474                       [16, 64, 64, 64]          --
│    └─Empty: 2-475                      [16, 64, 64, 64]          --
│    └─Clamp: 2-476                      [16, 64, 64, 64]          --
├─FusedConv2dBNReLU: 1-36                [16, 64, 64, 64]          (recursive)
│    └─OutputShiftSqueeze: 2-477         --                        --
│    └─One: 2-478                        [1]                       --
│    └─OutputScale: 2-479                --                        --
│    └─Empty: 2-480                      [64, 64, 3, 3]            --
│    └─Empty: 2-481                      [64, 64, 3, 3]            --
│    └─Empty: 2-482                      [64]                      --
│    └─Empty: 2-483                      [64]                      --
│    └─BatchNorm2d: 2-484                [16, 64, 64, 64]          --
│    └─Scaler: 2-485                     [16, 64, 64, 64]          --
│    └─ReLU: 2-486                       [16, 64, 64, 64]          --
│    └─Empty: 2-487                      [16, 64, 64, 64]          --
│    └─Clamp: 2-488                      [16, 64, 64, 64]          --
├─FusedConv2dBNReLU: 1-37                [16, 64, 64, 64]          (recursive)
│    └─OutputShiftSqueeze: 2-489         --                        --
│    └─One: 2-490                        [1]                       --
│    └─OutputScale: 2-491                --                        --
│    └─Empty: 2-492                      [64, 64, 1, 1]            --
│    └─Empty: 2-493                      [64, 64, 1, 1]            --
│    └─Empty: 2-494                      [64]                      --
│    └─Empty: 2-495                      [64]                      --
│    └─BatchNorm2d: 2-496                [16, 64, 64, 64]          --
│    └─Scaler: 2-497                     [16, 64, 64, 64]          --
│    └─ReLU: 2-498                       [16, 64, 64, 64]          --
│    └─Empty: 2-499                      [16, 64, 64, 64]          --
│    └─Clamp: 2-500                      [16, 64, 64, 64]          --
├─FusedConv2dBNReLU: 1-38                [16, 64, 64, 64]          (recursive)
│    └─OutputShiftSqueeze: 2-501         --                        --
│    └─One: 2-502                        [1]                       --
│    └─OutputScale: 2-503                --                        --
│    └─Empty: 2-504                      [64, 64, 3, 3]            --
│    └─Empty: 2-505                      [64, 64, 3, 3]            --
│    └─Empty: 2-506                      [64]                      --
│    └─Empty: 2-507                      [64]                      --
│    └─BatchNorm2d: 2-508                [16, 64, 64, 64]          --
│    └─Scaler: 2-509                     [16, 64, 64, 64]          --
│    └─ReLU: 2-510                       [16, 64, 64, 64]          --
│    └─Empty: 2-511                      [16, 64, 64, 64]          --
│    └─Clamp: 2-512                      [16, 64, 64, 64]          --
├─FusedMaxPoolConv2dBNReLU: 1-39         [16, 64, 32, 32]          (recursive)
│    └─MaxPool2d: 2-513                  [16, 64, 32, 32]          --
│    └─Empty: 2-514                      [16, 64, 32, 32]          --
│    └─Empty: 2-515                      [16, 64, 32, 32]          --
│    └─OutputShiftSqueeze: 2-516         --                        --
│    └─One: 2-517                        [1]                       --
│    └─OutputScale: 2-518                --                        --
│    └─Empty: 2-519                      [64, 64, 3, 3]            --
│    └─Empty: 2-520                      [64, 64, 3, 3]            --
│    └─Empty: 2-521                      [64]                      --
│    └─Empty: 2-522                      [64]                      --
│    └─BatchNorm2d: 2-523                [16, 64, 32, 32]          --
│    └─Scaler: 2-524                     [16, 64, 32, 32]          --
│    └─ReLU: 2-525                       [16, 64, 32, 32]          --
│    └─Empty: 2-526                      [16, 64, 32, 32]          --
│    └─Clamp: 2-527                      [16, 64, 32, 32]          --
├─FusedConv2dBNReLU: 1-40                [16, 64, 32, 32]          (recursive)
│    └─OutputShiftSqueeze: 2-528         --                        --
│    └─One: 2-529                        [1]                       --
│    └─OutputScale: 2-530                --                        --
│    └─Empty: 2-531                      [64, 64, 3, 3]            --
│    └─Empty: 2-532                      [64, 64, 3, 3]            --
│    └─Empty: 2-533                      [64]                      --
│    └─Empty: 2-534                      [64]                      --
│    └─BatchNorm2d: 2-535                [16, 64, 32, 32]          --
│    └─Scaler: 2-536                     [16, 64, 32, 32]          --
│    └─ReLU: 2-537                       [16, 64, 32, 32]          --
│    └─Empty: 2-538                      [16, 64, 32, 32]          --
│    └─Clamp: 2-539                      [16, 64, 32, 32]          --
├─FusedMaxPoolConv2dBNReLU: 1-41         [16, 64, 16, 16]          (recursive)
│    └─MaxPool2d: 2-540                  [16, 64, 16, 16]          --
│    └─Empty: 2-541                      [16, 64, 16, 16]          --
│    └─Empty: 2-542                      [16, 64, 16, 16]          --
│    └─OutputShiftSqueeze: 2-543         --                        --
│    └─One: 2-544                        [1]                       --
│    └─OutputScale: 2-545                --                        --
│    └─Empty: 2-546                      [64, 64, 3, 3]            --
│    └─Empty: 2-547                      [64, 64, 3, 3]            --
│    └─Empty: 2-548                      [64]                      --
│    └─Empty: 2-549                      [64]                      --
│    └─BatchNorm2d: 2-550                [16, 64, 16, 16]          --
│    └─Scaler: 2-551                     [16, 64, 16, 16]          --
│    └─ReLU: 2-552                       [16, 64, 16, 16]          --
│    └─Empty: 2-553                      [16, 64, 16, 16]          --
│    └─Clamp: 2-554                      [16, 64, 16, 16]          --
├─FusedConv2dBNReLU: 1-42                [16, 64, 16, 16]          (recursive)
│    └─OutputShiftSqueeze: 2-555         --                        --
│    └─One: 2-556                        [1]                       --
│    └─OutputScale: 2-557                --                        --
│    └─Empty: 2-558                      [64, 64, 3, 3]            --
│    └─Empty: 2-559                      [64, 64, 3, 3]            --
│    └─Empty: 2-560                      [64]                      --
│    └─Empty: 2-561                      [64]                      --
│    └─BatchNorm2d: 2-562                [16, 64, 16, 16]          --
│    └─Scaler: 2-563                     [16, 64, 16, 16]          --
│    └─ReLU: 2-564                       [16, 64, 16, 16]          --
│    └─Empty: 2-565                      [16, 64, 16, 16]          --
│    └─Clamp: 2-566                      [16, 64, 16, 16]          --
├─FusedMaxPoolConv2dBNReLU: 1-43         [16, 64, 8, 8]            (recursive)
│    └─MaxPool2d: 2-567                  [16, 64, 8, 8]            --
│    └─Empty: 2-568                      [16, 64, 8, 8]            --
│    └─Empty: 2-569                      [16, 64, 8, 8]            --
│    └─OutputShiftSqueeze: 2-570         --                        --
│    └─One: 2-571                        [1]                       --
│    └─OutputScale: 2-572                --                        --
│    └─Empty: 2-573                      [64, 64, 3, 3]            --
│    └─Empty: 2-574                      [64, 64, 3, 3]            --
│    └─Empty: 2-575                      [64]                      --
│    └─Empty: 2-576                      [64]                      --
│    └─BatchNorm2d: 2-577                [16, 64, 8, 8]            --
│    └─Scaler: 2-578                     [16, 64, 8, 8]            --
│    └─ReLU: 2-579                       [16, 64, 8, 8]            --
│    └─Empty: 2-580                      [16, 64, 8, 8]            --
│    └─Clamp: 2-581                      [16, 64, 8, 8]            --
├─FusedConv2dBNReLU: 1-44                [16, 64, 8, 8]            (recursive)
│    └─OutputShiftSqueeze: 2-582         --                        --
│    └─One: 2-583                        [1]                       --
│    └─OutputScale: 2-584                --                        --
│    └─Empty: 2-585                      [64, 64, 1, 1]            --
│    └─Empty: 2-586                      [64, 64, 1, 1]            --
│    └─Empty: 2-587                      [64]                      --
│    └─Empty: 2-588                      [64]                      --
│    └─BatchNorm2d: 2-589                [16, 64, 8, 8]            --
│    └─Scaler: 2-590                     [16, 64, 8, 8]            --
│    └─ReLU: 2-591                       [16, 64, 8, 8]            --
│    └─Empty: 2-592                      [16, 64, 8, 8]            --
│    └─Clamp: 2-593                      [16, 64, 8, 8]            --
├─FusedMaxPoolConv2dBNReLU: 1-45         [16, 64, 8, 8]            (recursive)
│    └─MaxPool2d: 2-594                  [16, 64, 8, 8]            --
│    └─Empty: 2-595                      [16, 64, 8, 8]            --
│    └─Empty: 2-596                      [16, 64, 8, 8]            --
│    └─OutputShiftSqueeze: 2-597         --                        --
│    └─One: 2-598                        [1]                       --
│    └─OutputScale: 2-599                --                        --
│    └─Empty: 2-600                      [64, 64, 3, 3]            --
│    └─Empty: 2-601                      [64, 64, 3, 3]            --
│    └─Empty: 2-602                      [64]                      --
│    └─Empty: 2-603                      [64]                      --
│    └─BatchNorm2d: 2-604                [16, 64, 8, 8]            --
│    └─Scaler: 2-605                     [16, 64, 8, 8]            --
│    └─ReLU: 2-606                       [16, 64, 8, 8]            --
│    └─Empty: 2-607                      [16, 64, 8, 8]            --
│    └─Clamp: 2-608                      [16, 64, 8, 8]            --
├─FusedMaxPoolConv2dBNReLU: 1-46         [16, 64, 4, 4]            (recursive)
│    └─MaxPool2d: 2-609                  [16, 64, 4, 4]            --
│    └─Empty: 2-610                      [16, 64, 4, 4]            --
│    └─Empty: 2-611                      [16, 64, 4, 4]            --
│    └─OutputShiftSqueeze: 2-612         --                        --
│    └─One: 2-613                        [1]                       --
│    └─OutputScale: 2-614                --                        --
│    └─Empty: 2-615                      [64, 64, 3, 3]            --
│    └─Empty: 2-616                      [64, 64, 3, 3]            --
│    └─Empty: 2-617                      [64]                      --
│    └─Empty: 2-618                      [64]                      --
│    └─BatchNorm2d: 2-619                [16, 64, 4, 4]            --
│    └─Scaler: 2-620                     [16, 64, 4, 4]            --
│    └─ReLU: 2-621                       [16, 64, 4, 4]            --
│    └─Empty: 2-622                      [16, 64, 4, 4]            --
│    └─Clamp: 2-623                      [16, 64, 4, 4]            --
├─FusedConv2dBNReLU: 1-47                [16, 64, 4, 4]            (recursive)
│    └─OutputShiftSqueeze: 2-624         --                        --
│    └─One: 2-625                        [1]                       --
│    └─OutputScale: 2-626                --                        --
│    └─Empty: 2-627                      [64, 64, 1, 1]            --
│    └─Empty: 2-628                      [64, 64, 1, 1]            --
│    └─Empty: 2-629                      [64]                      --
│    └─Empty: 2-630                      [64]                      --
│    └─BatchNorm2d: 2-631                [16, 64, 4, 4]            --
│    └─Scaler: 2-632                     [16, 64, 4, 4]            --
│    └─ReLU: 2-633                       [16, 64, 4, 4]            --
│    └─Empty: 2-634                      [16, 64, 4, 4]            --
│    └─Clamp: 2-635                      [16, 64, 4, 4]            --
├─FusedMaxPoolConv2dBNReLU: 1-48         [16, 64, 4, 4]            (recursive)
│    └─MaxPool2d: 2-636                  [16, 64, 4, 4]            --
│    └─Empty: 2-637                      [16, 64, 4, 4]            --
│    └─Empty: 2-638                      [16, 64, 4, 4]            --
│    └─OutputShiftSqueeze: 2-639         --                        --
│    └─One: 2-640                        [1]                       --
│    └─OutputScale: 2-641                --                        --
│    └─Empty: 2-642                      [64, 64, 3, 3]            --
│    └─Empty: 2-643                      [64, 64, 3, 3]            --
│    └─Empty: 2-644                      [64]                      --
│    └─Empty: 2-645                      [64]                      --
│    └─BatchNorm2d: 2-646                [16, 64, 4, 4]            --
│    └─Scaler: 2-647                     [16, 64, 4, 4]            --
│    └─ReLU: 2-648                       [16, 64, 4, 4]            --
│    └─Empty: 2-649                      [16, 64, 4, 4]            --
│    └─Clamp: 2-650                      [16, 64, 4, 4]            --
├─FusedMaxPoolConv2dBNReLU: 1-49         [16, 64, 2, 2]            (recursive)
│    └─MaxPool2d: 2-651                  [16, 64, 2, 2]            --
│    └─Empty: 2-652                      [16, 64, 2, 2]            --
│    └─Empty: 2-653                      [16, 64, 2, 2]            --
│    └─OutputShiftSqueeze: 2-654         --                        --
│    └─One: 2-655                        [1]                       --
│    └─OutputScale: 2-656                --                        --
│    └─Empty: 2-657                      [64, 64, 1, 1]            --
│    └─Empty: 2-658                      [64, 64, 1, 1]            --
│    └─Empty: 2-659                      [64]                      --
│    └─Empty: 2-660                      [64]                      --
│    └─BatchNorm2d: 2-661                [16, 64, 2, 2]            --
│    └─Scaler: 2-662                     [16, 64, 2, 2]            --
│    └─ReLU: 2-663                       [16, 64, 2, 2]            --
│    └─Empty: 2-664                      [16, 64, 2, 2]            --
│    └─Clamp: 2-665                      [16, 64, 2, 2]            --
├─FusedConv2dBNReLU: 1-50                [16, 64, 2, 2]            (recursive)
│    └─OutputShiftSqueeze: 2-666         --                        --
│    └─One: 2-667                        [1]                       --
│    └─OutputScale: 2-668                --                        --
│    └─Empty: 2-669                      [64, 64, 1, 1]            --
│    └─Empty: 2-670                      [64, 64, 1, 1]            --
│    └─Empty: 2-671                      [64]                      --
│    └─Empty: 2-672                      [64]                      --
│    └─BatchNorm2d: 2-673                [16, 64, 2, 2]            --
│    └─Scaler: 2-674                     [16, 64, 2, 2]            --
│    └─ReLU: 2-675                       [16, 64, 2, 2]            --
│    └─Empty: 2-676                      [16, 64, 2, 2]            --
│    └─Clamp: 2-677                      [16, 64, 2, 2]            --
├─FusedMaxPoolConv2dBNReLU: 1-51         [16, 64, 2, 2]            (recursive)
│    └─MaxPool2d: 2-678                  [16, 64, 2, 2]            --
│    └─Empty: 2-679                      [16, 64, 2, 2]            --
│    └─Empty: 2-680                      [16, 64, 2, 2]            --
│    └─OutputShiftSqueeze: 2-681         --                        --
│    └─One: 2-682                        [1]                       --
│    └─OutputScale: 2-683                --                        --
│    └─Empty: 2-684                      [64, 64, 3, 3]            --
│    └─Empty: 2-685                      [64, 64, 3, 3]            --
│    └─Empty: 2-686                      [64]                      --
│    └─Empty: 2-687                      [64]                      --
│    └─BatchNorm2d: 2-688                [16, 64, 2, 2]            --
│    └─Scaler: 2-689                     [16, 64, 2, 2]            --
│    └─ReLU: 2-690                       [16, 64, 2, 2]            --
│    └─Empty: 2-691                      [16, 64, 2, 2]            --
│    └─Clamp: 2-692                      [16, 64, 2, 2]            --
├─FusedConv2dBNReLU: 1-52                [16, 64, 64, 64]          (recursive)
│    └─OutputShiftSqueeze: 2-693         --                        --
│    └─One: 2-694                        [1]                       --
│    └─OutputScale: 2-695                --                        --
│    └─Empty: 2-696                      [64, 48, 1, 1]            --
│    └─Empty: 2-697                      [64, 48, 1, 1]            --
│    └─Empty: 2-698                      [64]                      --
│    └─Empty: 2-699                      [64]                      --
│    └─BatchNorm2d: 2-700                [16, 64, 64, 64]          --
│    └─Scaler: 2-701                     [16, 64, 64, 64]          --
│    └─ReLU: 2-702                       [16, 64, 64, 64]          --
│    └─Empty: 2-703                      [16, 64, 64, 64]          --
│    └─Clamp: 2-704                      [16, 64, 64, 64]          --
├─FusedConv2dBNReLU: 1-53                [16, 64, 64, 64]          (recursive)
│    └─OutputShiftSqueeze: 2-705         --                        --
│    └─One: 2-706                        [1]                       --
│    └─OutputScale: 2-707                --                        --
│    └─Empty: 2-708                      [64, 64, 3, 3]            --
│    └─Empty: 2-709                      [64, 64, 3, 3]            --
│    └─Empty: 2-710                      [64]                      --
│    └─Empty: 2-711                      [64]                      --
│    └─BatchNorm2d: 2-712                [16, 64, 64, 64]          --
│    └─Scaler: 2-713                     [16, 64, 64, 64]          --
│    └─ReLU: 2-714                       [16, 64, 64, 64]          --
│    └─Empty: 2-715                      [16, 64, 64, 64]          --
│    └─Clamp: 2-716                      [16, 64, 64, 64]          --
├─FusedConv2dBNReLU: 1-54                [16, 64, 64, 64]          (recursive)
│    └─OutputShiftSqueeze: 2-717         --                        --
│    └─One: 2-718                        [1]                       --
│    └─OutputScale: 2-719                --                        --
│    └─Empty: 2-720                      [64, 64, 1, 1]            --
│    └─Empty: 2-721                      [64, 64, 1, 1]            --
│    └─Empty: 2-722                      [64]                      --
│    └─Empty: 2-723                      [64]                      --
│    └─BatchNorm2d: 2-724                [16, 64, 64, 64]          --
│    └─Scaler: 2-725                     [16, 64, 64, 64]          --
│    └─ReLU: 2-726                       [16, 64, 64, 64]          --
│    └─Empty: 2-727                      [16, 64, 64, 64]          --
│    └─Clamp: 2-728                      [16, 64, 64, 64]          --
├─FusedConv2dBNReLU: 1-55                [16, 64, 64, 64]          (recursive)
│    └─OutputShiftSqueeze: 2-729         --                        --
│    └─One: 2-730                        [1]                       --
│    └─OutputScale: 2-731                --                        --
│    └─Empty: 2-732                      [64, 64, 3, 3]            --
│    └─Empty: 2-733                      [64, 64, 3, 3]            --
│    └─Empty: 2-734                      [64]                      --
│    └─Empty: 2-735                      [64]                      --
│    └─BatchNorm2d: 2-736                [16, 64, 64, 64]          --
│    └─Scaler: 2-737                     [16, 64, 64, 64]          --
│    └─ReLU: 2-738                       [16, 64, 64, 64]          --
│    └─Empty: 2-739                      [16, 64, 64, 64]          --
│    └─Clamp: 2-740                      [16, 64, 64, 64]          --
├─FusedMaxPoolConv2dBNReLU: 1-56         [16, 64, 32, 32]          (recursive)
│    └─MaxPool2d: 2-741                  [16, 64, 32, 32]          --
│    └─Empty: 2-742                      [16, 64, 32, 32]          --
│    └─Empty: 2-743                      [16, 64, 32, 32]          --
│    └─OutputShiftSqueeze: 2-744         --                        --
│    └─One: 2-745                        [1]                       --
│    └─OutputScale: 2-746                --                        --
│    └─Empty: 2-747                      [64, 64, 3, 3]            --
│    └─Empty: 2-748                      [64, 64, 3, 3]            --
│    └─Empty: 2-749                      [64]                      --
│    └─Empty: 2-750                      [64]                      --
│    └─BatchNorm2d: 2-751                [16, 64, 32, 32]          --
│    └─Scaler: 2-752                     [16, 64, 32, 32]          --
│    └─ReLU: 2-753                       [16, 64, 32, 32]          --
│    └─Empty: 2-754                      [16, 64, 32, 32]          --
│    └─Clamp: 2-755                      [16, 64, 32, 32]          --
├─FusedConv2dBNReLU: 1-57                [16, 64, 32, 32]          (recursive)
│    └─OutputShiftSqueeze: 2-756         --                        --
│    └─One: 2-757                        [1]                       --
│    └─OutputScale: 2-758                --                        --
│    └─Empty: 2-759                      [64, 64, 3, 3]            --
│    └─Empty: 2-760                      [64, 64, 3, 3]            --
│    └─Empty: 2-761                      [64]                      --
│    └─Empty: 2-762                      [64]                      --
│    └─BatchNorm2d: 2-763                [16, 64, 32, 32]          --
│    └─Scaler: 2-764                     [16, 64, 32, 32]          --
│    └─ReLU: 2-765                       [16, 64, 32, 32]          --
│    └─Empty: 2-766                      [16, 64, 32, 32]          --
│    └─Clamp: 2-767                      [16, 64, 32, 32]          --
├─FusedMaxPoolConv2dBNReLU: 1-58         [16, 64, 16, 16]          (recursive)
│    └─MaxPool2d: 2-768                  [16, 64, 16, 16]          --
│    └─Empty: 2-769                      [16, 64, 16, 16]          --
│    └─Empty: 2-770                      [16, 64, 16, 16]          --
│    └─OutputShiftSqueeze: 2-771         --                        --
│    └─One: 2-772                        [1]                       --
│    └─OutputScale: 2-773                --                        --
│    └─Empty: 2-774                      [64, 64, 3, 3]            --
│    └─Empty: 2-775                      [64, 64, 3, 3]            --
│    └─Empty: 2-776                      [64]                      --
│    └─Empty: 2-777                      [64]                      --
│    └─BatchNorm2d: 2-778                [16, 64, 16, 16]          --
│    └─Scaler: 2-779                     [16, 64, 16, 16]          --
│    └─ReLU: 2-780                       [16, 64, 16, 16]          --
│    └─Empty: 2-781                      [16, 64, 16, 16]          --
│    └─Clamp: 2-782                      [16, 64, 16, 16]          --
├─FusedConv2dBNReLU: 1-59                [16, 64, 16, 16]          (recursive)
│    └─OutputShiftSqueeze: 2-783         --                        --
│    └─One: 2-784                        [1]                       --
│    └─OutputScale: 2-785                --                        --
│    └─Empty: 2-786                      [64, 64, 3, 3]            --
│    └─Empty: 2-787                      [64, 64, 3, 3]            --
│    └─Empty: 2-788                      [64]                      --
│    └─Empty: 2-789                      [64]                      --
│    └─BatchNorm2d: 2-790                [16, 64, 16, 16]          --
│    └─Scaler: 2-791                     [16, 64, 16, 16]          --
│    └─ReLU: 2-792                       [16, 64, 16, 16]          --
│    └─Empty: 2-793                      [16, 64, 16, 16]          --
│    └─Clamp: 2-794                      [16, 64, 16, 16]          --
├─FusedMaxPoolConv2dBNReLU: 1-60         [16, 64, 8, 8]            (recursive)
│    └─MaxPool2d: 2-795                  [16, 64, 8, 8]            --
│    └─Empty: 2-796                      [16, 64, 8, 8]            --
│    └─Empty: 2-797                      [16, 64, 8, 8]            --
│    └─OutputShiftSqueeze: 2-798         --                        --
│    └─One: 2-799                        [1]                       --
│    └─OutputScale: 2-800                --                        --
│    └─Empty: 2-801                      [64, 64, 3, 3]            --
│    └─Empty: 2-802                      [64, 64, 3, 3]            --
│    └─Empty: 2-803                      [64]                      --
│    └─Empty: 2-804                      [64]                      --
│    └─BatchNorm2d: 2-805                [16, 64, 8, 8]            --
│    └─Scaler: 2-806                     [16, 64, 8, 8]            --
│    └─ReLU: 2-807                       [16, 64, 8, 8]            --
│    └─Empty: 2-808                      [16, 64, 8, 8]            --
│    └─Clamp: 2-809                      [16, 64, 8, 8]            --
├─FusedConv2dBNReLU: 1-61                [16, 64, 8, 8]            (recursive)
│    └─OutputShiftSqueeze: 2-810         --                        --
│    └─One: 2-811                        [1]                       --
│    └─OutputScale: 2-812                --                        --
│    └─Empty: 2-813                      [64, 64, 1, 1]            --
│    └─Empty: 2-814                      [64, 64, 1, 1]            --
│    └─Empty: 2-815                      [64]                      --
│    └─Empty: 2-816                      [64]                      --
│    └─BatchNorm2d: 2-817                [16, 64, 8, 8]            --
│    └─Scaler: 2-818                     [16, 64, 8, 8]            --
│    └─ReLU: 2-819                       [16, 64, 8, 8]            --
│    └─Empty: 2-820                      [16, 64, 8, 8]            --
│    └─Clamp: 2-821                      [16, 64, 8, 8]            --
├─FusedMaxPoolConv2dBNReLU: 1-62         [16, 64, 8, 8]            (recursive)
│    └─MaxPool2d: 2-822                  [16, 64, 8, 8]            --
│    └─Empty: 2-823                      [16, 64, 8, 8]            --
│    └─Empty: 2-824                      [16, 64, 8, 8]            --
│    └─OutputShiftSqueeze: 2-825         --                        --
│    └─One: 2-826                        [1]                       --
│    └─OutputScale: 2-827                --                        --
│    └─Empty: 2-828                      [64, 64, 3, 3]            --
│    └─Empty: 2-829                      [64, 64, 3, 3]            --
│    └─Empty: 2-830                      [64]                      --
│    └─Empty: 2-831                      [64]                      --
│    └─BatchNorm2d: 2-832                [16, 64, 8, 8]            --
│    └─Scaler: 2-833                     [16, 64, 8, 8]            --
│    └─ReLU: 2-834                       [16, 64, 8, 8]            --
│    └─Empty: 2-835                      [16, 64, 8, 8]            --
│    └─Clamp: 2-836                      [16, 64, 8, 8]            --
├─FusedMaxPoolConv2dBNReLU: 1-63         [16, 64, 4, 4]            (recursive)
│    └─MaxPool2d: 2-837                  [16, 64, 4, 4]            --
│    └─Empty: 2-838                      [16, 64, 4, 4]            --
│    └─Empty: 2-839                      [16, 64, 4, 4]            --
│    └─OutputShiftSqueeze: 2-840         --                        --
│    └─One: 2-841                        [1]                       --
│    └─OutputScale: 2-842                --                        --
│    └─Empty: 2-843                      [64, 64, 3, 3]            --
│    └─Empty: 2-844                      [64, 64, 3, 3]            --
│    └─Empty: 2-845                      [64]                      --
│    └─Empty: 2-846                      [64]                      --
│    └─BatchNorm2d: 2-847                [16, 64, 4, 4]            --
│    └─Scaler: 2-848                     [16, 64, 4, 4]            --
│    └─ReLU: 2-849                       [16, 64, 4, 4]            --
│    └─Empty: 2-850                      [16, 64, 4, 4]            --
│    └─Clamp: 2-851                      [16, 64, 4, 4]            --
├─FusedConv2dBNReLU: 1-64                [16, 64, 4, 4]            (recursive)
│    └─OutputShiftSqueeze: 2-852         --                        --
│    └─One: 2-853                        [1]                       --
│    └─OutputScale: 2-854                --                        --
│    └─Empty: 2-855                      [64, 64, 1, 1]            --
│    └─Empty: 2-856                      [64, 64, 1, 1]            --
│    └─Empty: 2-857                      [64]                      --
│    └─Empty: 2-858                      [64]                      --
│    └─BatchNorm2d: 2-859                [16, 64, 4, 4]            --
│    └─Scaler: 2-860                     [16, 64, 4, 4]            --
│    └─ReLU: 2-861                       [16, 64, 4, 4]            --
│    └─Empty: 2-862                      [16, 64, 4, 4]            --
│    └─Clamp: 2-863                      [16, 64, 4, 4]            --
├─FusedMaxPoolConv2dBNReLU: 1-65         [16, 64, 4, 4]            (recursive)
│    └─MaxPool2d: 2-864                  [16, 64, 4, 4]            --
│    └─Empty: 2-865                      [16, 64, 4, 4]            --
│    └─Empty: 2-866                      [16, 64, 4, 4]            --
│    └─OutputShiftSqueeze: 2-867         --                        --
│    └─One: 2-868                        [1]                       --
│    └─OutputScale: 2-869                --                        --
│    └─Empty: 2-870                      [64, 64, 3, 3]            --
│    └─Empty: 2-871                      [64, 64, 3, 3]            --
│    └─Empty: 2-872                      [64]                      --
│    └─Empty: 2-873                      [64]                      --
│    └─BatchNorm2d: 2-874                [16, 64, 4, 4]            --
│    └─Scaler: 2-875                     [16, 64, 4, 4]            --
│    └─ReLU: 2-876                       [16, 64, 4, 4]            --
│    └─Empty: 2-877                      [16, 64, 4, 4]            --
│    └─Clamp: 2-878                      [16, 64, 4, 4]            --
├─FusedMaxPoolConv2dBNReLU: 1-66         [16, 64, 2, 2]            (recursive)
│    └─MaxPool2d: 2-879                  [16, 64, 2, 2]            --
│    └─Empty: 2-880                      [16, 64, 2, 2]            --
│    └─Empty: 2-881                      [16, 64, 2, 2]            --
│    └─OutputShiftSqueeze: 2-882         --                        --
│    └─One: 2-883                        [1]                       --
│    └─OutputScale: 2-884                --                        --
│    └─Empty: 2-885                      [64, 64, 1, 1]            --
│    └─Empty: 2-886                      [64, 64, 1, 1]            --
│    └─Empty: 2-887                      [64]                      --
│    └─Empty: 2-888                      [64]                      --
│    └─BatchNorm2d: 2-889                [16, 64, 2, 2]            --
│    └─Scaler: 2-890                     [16, 64, 2, 2]            --
│    └─ReLU: 2-891                       [16, 64, 2, 2]            --
│    └─Empty: 2-892                      [16, 64, 2, 2]            --
│    └─Clamp: 2-893                      [16, 64, 2, 2]            --
├─FusedConv2dBNReLU: 1-67                [16, 64, 2, 2]            (recursive)
│    └─OutputShiftSqueeze: 2-894         --                        --
│    └─One: 2-895                        [1]                       --
│    └─OutputScale: 2-896                --                        --
│    └─Empty: 2-897                      [64, 64, 1, 1]            --
│    └─Empty: 2-898                      [64, 64, 1, 1]            --
│    └─Empty: 2-899                      [64]                      --
│    └─Empty: 2-900                      [64]                      --
│    └─BatchNorm2d: 2-901                [16, 64, 2, 2]            --
│    └─Scaler: 2-902                     [16, 64, 2, 2]            --
│    └─ReLU: 2-903                       [16, 64, 2, 2]            --
│    └─Empty: 2-904                      [16, 64, 2, 2]            --
│    └─Clamp: 2-905                      [16, 64, 2, 2]            --
├─FusedMaxPoolConv2dBNReLU: 1-68         [16, 64, 2, 2]            (recursive)
│    └─MaxPool2d: 2-906                  [16, 64, 2, 2]            --
│    └─Empty: 2-907                      [16, 64, 2, 2]            --
│    └─Empty: 2-908                      [16, 64, 2, 2]            --
│    └─OutputShiftSqueeze: 2-909         --                        --
│    └─One: 2-910                        [1]                       --
│    └─OutputScale: 2-911                --                        --
│    └─Empty: 2-912                      [64, 64, 3, 3]            --
│    └─Empty: 2-913                      [64, 64, 3, 3]            --
│    └─Empty: 2-914                      [64]                      --
│    └─Empty: 2-915                      [64]                      --
│    └─BatchNorm2d: 2-916                [16, 64, 2, 2]            --
│    └─Scaler: 2-917                     [16, 64, 2, 2]            --
│    └─ReLU: 2-918                       [16, 64, 2, 2]            --
│    └─Empty: 2-919                      [16, 64, 2, 2]            --
│    └─Clamp: 2-920                      [16, 64, 2, 2]            --
├─FusedConv2dBNReLU: 1-69                [16, 64, 64, 64]          (recursive)
│    └─OutputShiftSqueeze: 2-921         --                        --
│    └─One: 2-922                        [1]                       --
│    └─OutputScale: 2-923                --                        --
│    └─Empty: 2-924                      [64, 48, 1, 1]            --
│    └─Empty: 2-925                      [64, 48, 1, 1]            --
│    └─Empty: 2-926                      [64]                      --
│    └─Empty: 2-927                      [64]                      --
│    └─BatchNorm2d: 2-928                [16, 64, 64, 64]          --
│    └─Scaler: 2-929                     [16, 64, 64, 64]          --
│    └─ReLU: 2-930                       [16, 64, 64, 64]          --
│    └─Empty: 2-931                      [16, 64, 64, 64]          --
│    └─Clamp: 2-932                      [16, 64, 64, 64]          --
├─FusedConv2dBNReLU: 1-70                [16, 64, 64, 64]          (recursive)
│    └─OutputShiftSqueeze: 2-933         --                        --
│    └─One: 2-934                        [1]                       --
│    └─OutputScale: 2-935                --                        --
│    └─Empty: 2-936                      [64, 64, 3, 3]            --
│    └─Empty: 2-937                      [64, 64, 3, 3]            --
│    └─Empty: 2-938                      [64]                      --
│    └─Empty: 2-939                      [64]                      --
│    └─BatchNorm2d: 2-940                [16, 64, 64, 64]          --
│    └─Scaler: 2-941                     [16, 64, 64, 64]          --
│    └─ReLU: 2-942                       [16, 64, 64, 64]          --
│    └─Empty: 2-943                      [16, 64, 64, 64]          --
│    └─Clamp: 2-944                      [16, 64, 64, 64]          --
├─FusedConv2dBNReLU: 1-71                [16, 64, 64, 64]          (recursive)
│    └─OutputShiftSqueeze: 2-945         --                        --
│    └─One: 2-946                        [1]                       --
│    └─OutputScale: 2-947                --                        --
│    └─Empty: 2-948                      [64, 64, 1, 1]            --
│    └─Empty: 2-949                      [64, 64, 1, 1]            --
│    └─Empty: 2-950                      [64]                      --
│    └─Empty: 2-951                      [64]                      --
│    └─BatchNorm2d: 2-952                [16, 64, 64, 64]          --
│    └─Scaler: 2-953                     [16, 64, 64, 64]          --
│    └─ReLU: 2-954                       [16, 64, 64, 64]          --
│    └─Empty: 2-955                      [16, 64, 64, 64]          --
│    └─Clamp: 2-956                      [16, 64, 64, 64]          --
├─FusedConv2dBNReLU: 1-72                [16, 64, 64, 64]          (recursive)
│    └─OutputShiftSqueeze: 2-957         --                        --
│    └─One: 2-958                        [1]                       --
│    └─OutputScale: 2-959                --                        --
│    └─Empty: 2-960                      [64, 64, 3, 3]            --
│    └─Empty: 2-961                      [64, 64, 3, 3]            --
│    └─Empty: 2-962                      [64]                      --
│    └─Empty: 2-963                      [64]                      --
│    └─BatchNorm2d: 2-964                [16, 64, 64, 64]          --
│    └─Scaler: 2-965                     [16, 64, 64, 64]          --
│    └─ReLU: 2-966                       [16, 64, 64, 64]          --
│    └─Empty: 2-967                      [16, 64, 64, 64]          --
│    └─Clamp: 2-968                      [16, 64, 64, 64]          --
├─FusedMaxPoolConv2dBNReLU: 1-73         [16, 64, 32, 32]          (recursive)
│    └─MaxPool2d: 2-969                  [16, 64, 32, 32]          --
│    └─Empty: 2-970                      [16, 64, 32, 32]          --
│    └─Empty: 2-971                      [16, 64, 32, 32]          --
│    └─OutputShiftSqueeze: 2-972         --                        --
│    └─One: 2-973                        [1]                       --
│    └─OutputScale: 2-974                --                        --
│    └─Empty: 2-975                      [64, 64, 3, 3]            --
│    └─Empty: 2-976                      [64, 64, 3, 3]            --
│    └─Empty: 2-977                      [64]                      --
│    └─Empty: 2-978                      [64]                      --
│    └─BatchNorm2d: 2-979                [16, 64, 32, 32]          --
│    └─Scaler: 2-980                     [16, 64, 32, 32]          --
│    └─ReLU: 2-981                       [16, 64, 32, 32]          --
│    └─Empty: 2-982                      [16, 64, 32, 32]          --
│    └─Clamp: 2-983                      [16, 64, 32, 32]          --
├─FusedConv2dBNReLU: 1-74                [16, 64, 32, 32]          (recursive)
│    └─OutputShiftSqueeze: 2-984         --                        --
│    └─One: 2-985                        [1]                       --
│    └─OutputScale: 2-986                --                        --
│    └─Empty: 2-987                      [64, 64, 3, 3]            --
│    └─Empty: 2-988                      [64, 64, 3, 3]            --
│    └─Empty: 2-989                      [64]                      --
│    └─Empty: 2-990                      [64]                      --
│    └─BatchNorm2d: 2-991                [16, 64, 32, 32]          --
│    └─Scaler: 2-992                     [16, 64, 32, 32]          --
│    └─ReLU: 2-993                       [16, 64, 32, 32]          --
│    └─Empty: 2-994                      [16, 64, 32, 32]          --
│    └─Clamp: 2-995                      [16, 64, 32, 32]          --
├─FusedMaxPoolConv2dBNReLU: 1-75         [16, 64, 16, 16]          (recursive)
│    └─MaxPool2d: 2-996                  [16, 64, 16, 16]          --
│    └─Empty: 2-997                      [16, 64, 16, 16]          --
│    └─Empty: 2-998                      [16, 64, 16, 16]          --
│    └─OutputShiftSqueeze: 2-999         --                        --
│    └─One: 2-1000                       [1]                       --
│    └─OutputScale: 2-1001               --                        --
│    └─Empty: 2-1002                     [64, 64, 3, 3]            --
│    └─Empty: 2-1003                     [64, 64, 3, 3]            --
│    └─Empty: 2-1004                     [64]                      --
│    └─Empty: 2-1005                     [64]                      --
│    └─BatchNorm2d: 2-1006               [16, 64, 16, 16]          --
│    └─Scaler: 2-1007                    [16, 64, 16, 16]          --
│    └─ReLU: 2-1008                      [16, 64, 16, 16]          --
│    └─Empty: 2-1009                     [16, 64, 16, 16]          --
│    └─Clamp: 2-1010                     [16, 64, 16, 16]          --
├─FusedConv2dBNReLU: 1-76                [16, 64, 16, 16]          (recursive)
│    └─OutputShiftSqueeze: 2-1011        --                        --
│    └─One: 2-1012                       [1]                       --
│    └─OutputScale: 2-1013               --                        --
│    └─Empty: 2-1014                     [64, 64, 3, 3]            --
│    └─Empty: 2-1015                     [64, 64, 3, 3]            --
│    └─Empty: 2-1016                     [64]                      --
│    └─Empty: 2-1017                     [64]                      --
│    └─BatchNorm2d: 2-1018               [16, 64, 16, 16]          --
│    └─Scaler: 2-1019                    [16, 64, 16, 16]          --
│    └─ReLU: 2-1020                      [16, 64, 16, 16]          --
│    └─Empty: 2-1021                     [16, 64, 16, 16]          --
│    └─Clamp: 2-1022                     [16, 64, 16, 16]          --
├─FusedMaxPoolConv2dBNReLU: 1-77         [16, 64, 8, 8]            (recursive)
│    └─MaxPool2d: 2-1023                 [16, 64, 8, 8]            --
│    └─Empty: 2-1024                     [16, 64, 8, 8]            --
│    └─Empty: 2-1025                     [16, 64, 8, 8]            --
│    └─OutputShiftSqueeze: 2-1026        --                        --
│    └─One: 2-1027                       [1]                       --
│    └─OutputScale: 2-1028               --                        --
│    └─Empty: 2-1029                     [64, 64, 3, 3]            --
│    └─Empty: 2-1030                     [64, 64, 3, 3]            --
│    └─Empty: 2-1031                     [64]                      --
│    └─Empty: 2-1032                     [64]                      --
│    └─BatchNorm2d: 2-1033               [16, 64, 8, 8]            --
│    └─Scaler: 2-1034                    [16, 64, 8, 8]            --
│    └─ReLU: 2-1035                      [16, 64, 8, 8]            --
│    └─Empty: 2-1036                     [16, 64, 8, 8]            --
│    └─Clamp: 2-1037                     [16, 64, 8, 8]            --
├─FusedConv2dBNReLU: 1-78                [16, 64, 8, 8]            (recursive)
│    └─OutputShiftSqueeze: 2-1038        --                        --
│    └─One: 2-1039                       [1]                       --
│    └─OutputScale: 2-1040               --                        --
│    └─Empty: 2-1041                     [64, 64, 1, 1]            --
│    └─Empty: 2-1042                     [64, 64, 1, 1]            --
│    └─Empty: 2-1043                     [64]                      --
│    └─Empty: 2-1044                     [64]                      --
│    └─BatchNorm2d: 2-1045               [16, 64, 8, 8]            --
│    └─Scaler: 2-1046                    [16, 64, 8, 8]            --
│    └─ReLU: 2-1047                      [16, 64, 8, 8]            --
│    └─Empty: 2-1048                     [16, 64, 8, 8]            --
│    └─Clamp: 2-1049                     [16, 64, 8, 8]            --
├─FusedMaxPoolConv2dBNReLU: 1-79         [16, 64, 8, 8]            (recursive)
│    └─MaxPool2d: 2-1050                 [16, 64, 8, 8]            --
│    └─Empty: 2-1051                     [16, 64, 8, 8]            --
│    └─Empty: 2-1052                     [16, 64, 8, 8]            --
│    └─OutputShiftSqueeze: 2-1053        --                        --
│    └─One: 2-1054                       [1]                       --
│    └─OutputScale: 2-1055               --                        --
│    └─Empty: 2-1056                     [64, 64, 3, 3]            --
│    └─Empty: 2-1057                     [64, 64, 3, 3]            --
│    └─Empty: 2-1058                     [64]                      --
│    └─Empty: 2-1059                     [64]                      --
│    └─BatchNorm2d: 2-1060               [16, 64, 8, 8]            --
│    └─Scaler: 2-1061                    [16, 64, 8, 8]            --
│    └─ReLU: 2-1062                      [16, 64, 8, 8]            --
│    └─Empty: 2-1063                     [16, 64, 8, 8]            --
│    └─Clamp: 2-1064                     [16, 64, 8, 8]            --
├─FusedMaxPoolConv2dBNReLU: 1-80         [16, 64, 4, 4]            (recursive)
│    └─MaxPool2d: 2-1065                 [16, 64, 4, 4]            --
│    └─Empty: 2-1066                     [16, 64, 4, 4]            --
│    └─Empty: 2-1067                     [16, 64, 4, 4]            --
│    └─OutputShiftSqueeze: 2-1068        --                        --
│    └─One: 2-1069                       [1]                       --
│    └─OutputScale: 2-1070               --                        --
│    └─Empty: 2-1071                     [64, 64, 3, 3]            --
│    └─Empty: 2-1072                     [64, 64, 3, 3]            --
│    └─Empty: 2-1073                     [64]                      --
│    └─Empty: 2-1074                     [64]                      --
│    └─BatchNorm2d: 2-1075               [16, 64, 4, 4]            --
│    └─Scaler: 2-1076                    [16, 64, 4, 4]            --
│    └─ReLU: 2-1077                      [16, 64, 4, 4]            --
│    └─Empty: 2-1078                     [16, 64, 4, 4]            --
│    └─Clamp: 2-1079                     [16, 64, 4, 4]            --
├─FusedConv2dBNReLU: 1-81                [16, 64, 4, 4]            (recursive)
│    └─OutputShiftSqueeze: 2-1080        --                        --
│    └─One: 2-1081                       [1]                       --
│    └─OutputScale: 2-1082               --                        --
│    └─Empty: 2-1083                     [64, 64, 1, 1]            --
│    └─Empty: 2-1084                     [64, 64, 1, 1]            --
│    └─Empty: 2-1085                     [64]                      --
│    └─Empty: 2-1086                     [64]                      --
│    └─BatchNorm2d: 2-1087               [16, 64, 4, 4]            --
│    └─Scaler: 2-1088                    [16, 64, 4, 4]            --
│    └─ReLU: 2-1089                      [16, 64, 4, 4]            --
│    └─Empty: 2-1090                     [16, 64, 4, 4]            --
│    └─Clamp: 2-1091                     [16, 64, 4, 4]            --
├─FusedMaxPoolConv2dBNReLU: 1-82         [16, 64, 4, 4]            (recursive)
│    └─MaxPool2d: 2-1092                 [16, 64, 4, 4]            --
│    └─Empty: 2-1093                     [16, 64, 4, 4]            --
│    └─Empty: 2-1094                     [16, 64, 4, 4]            --
│    └─OutputShiftSqueeze: 2-1095        --                        --
│    └─One: 2-1096                       [1]                       --
│    └─OutputScale: 2-1097               --                        --
│    └─Empty: 2-1098                     [64, 64, 3, 3]            --
│    └─Empty: 2-1099                     [64, 64, 3, 3]            --
│    └─Empty: 2-1100                     [64]                      --
│    └─Empty: 2-1101                     [64]                      --
│    └─BatchNorm2d: 2-1102               [16, 64, 4, 4]            --
│    └─Scaler: 2-1103                    [16, 64, 4, 4]            --
│    └─ReLU: 2-1104                      [16, 64, 4, 4]            --
│    └─Empty: 2-1105                     [16, 64, 4, 4]            --
│    └─Clamp: 2-1106                     [16, 64, 4, 4]            --
├─FusedMaxPoolConv2dBNReLU: 1-83         [16, 64, 2, 2]            (recursive)
│    └─MaxPool2d: 2-1107                 [16, 64, 2, 2]            --
│    └─Empty: 2-1108                     [16, 64, 2, 2]            --
│    └─Empty: 2-1109                     [16, 64, 2, 2]            --
│    └─OutputShiftSqueeze: 2-1110        --                        --
│    └─One: 2-1111                       [1]                       --
│    └─OutputScale: 2-1112               --                        --
│    └─Empty: 2-1113                     [64, 64, 1, 1]            --
│    └─Empty: 2-1114                     [64, 64, 1, 1]            --
│    └─Empty: 2-1115                     [64]                      --
│    └─Empty: 2-1116                     [64]                      --
│    └─BatchNorm2d: 2-1117               [16, 64, 2, 2]            --
│    └─Scaler: 2-1118                    [16, 64, 2, 2]            --
│    └─ReLU: 2-1119                      [16, 64, 2, 2]            --
│    └─Empty: 2-1120                     [16, 64, 2, 2]            --
│    └─Clamp: 2-1121                     [16, 64, 2, 2]            --
├─FusedConv2dBNReLU: 1-84                [16, 64, 2, 2]            (recursive)
│    └─OutputShiftSqueeze: 2-1122        --                        --
│    └─One: 2-1123                       [1]                       --
│    └─OutputScale: 2-1124               --                        --
│    └─Empty: 2-1125                     [64, 64, 1, 1]            --
│    └─Empty: 2-1126                     [64, 64, 1, 1]            --
│    └─Empty: 2-1127                     [64]                      --
│    └─Empty: 2-1128                     [64]                      --
│    └─BatchNorm2d: 2-1129               [16, 64, 2, 2]            --
│    └─Scaler: 2-1130                    [16, 64, 2, 2]            --
│    └─ReLU: 2-1131                      [16, 64, 2, 2]            --
│    └─Empty: 2-1132                     [16, 64, 2, 2]            --
│    └─Clamp: 2-1133                     [16, 64, 2, 2]            --
├─FusedMaxPoolConv2dBNReLU: 1-85         [16, 64, 2, 2]            (recursive)
│    └─MaxPool2d: 2-1134                 [16, 64, 2, 2]            --
│    └─Empty: 2-1135                     [16, 64, 2, 2]            --
│    └─Empty: 2-1136                     [16, 64, 2, 2]            --
│    └─OutputShiftSqueeze: 2-1137        --                        --
│    └─One: 2-1138                       [1]                       --
│    └─OutputScale: 2-1139               --                        --
│    └─Empty: 2-1140                     [64, 64, 3, 3]            --
│    └─Empty: 2-1141                     [64, 64, 3, 3]            --
│    └─Empty: 2-1142                     [64]                      --
│    └─Empty: 2-1143                     [64]                      --
│    └─BatchNorm2d: 2-1144               [16, 64, 2, 2]            --
│    └─Scaler: 2-1145                    [16, 64, 2, 2]            --
│    └─ReLU: 2-1146                      [16, 64, 2, 2]            --
│    └─Empty: 2-1147                     [16, 64, 2, 2]            --
│    └─Clamp: 2-1148                     [16, 64, 2, 2]            --
├─FusedConv2dBNReLU: 1-86                [16, 64, 64, 64]          (recursive)
│    └─OutputShiftSqueeze: 2-1149        --                        --
│    └─One: 2-1150                       [1]                       --
│    └─OutputScale: 2-1151               --                        --
│    └─Empty: 2-1152                     [64, 48, 1, 1]            --
│    └─Empty: 2-1153                     [64, 48, 1, 1]            --
│    └─Empty: 2-1154                     [64]                      --
│    └─Empty: 2-1155                     [64]                      --
│    └─BatchNorm2d: 2-1156               [16, 64, 64, 64]          --
│    └─Scaler: 2-1157                    [16, 64, 64, 64]          --
│    └─ReLU: 2-1158                      [16, 64, 64, 64]          --
│    └─Empty: 2-1159                     [16, 64, 64, 64]          --
│    └─Clamp: 2-1160                     [16, 64, 64, 64]          --
├─FusedConv2dBNReLU: 1-87                [16, 64, 64, 64]          (recursive)
│    └─OutputShiftSqueeze: 2-1161        --                        --
│    └─One: 2-1162                       [1]                       --
│    └─OutputScale: 2-1163               --                        --
│    └─Empty: 2-1164                     [64, 64, 3, 3]            --
│    └─Empty: 2-1165                     [64, 64, 3, 3]            --
│    └─Empty: 2-1166                     [64]                      --
│    └─Empty: 2-1167                     [64]                      --
│    └─BatchNorm2d: 2-1168               [16, 64, 64, 64]          --
│    └─Scaler: 2-1169                    [16, 64, 64, 64]          --
│    └─ReLU: 2-1170                      [16, 64, 64, 64]          --
│    └─Empty: 2-1171                     [16, 64, 64, 64]          --
│    └─Clamp: 2-1172                     [16, 64, 64, 64]          --
├─FusedConv2dBNReLU: 1-88                [16, 64, 64, 64]          (recursive)
│    └─OutputShiftSqueeze: 2-1173        --                        --
│    └─One: 2-1174                       [1]                       --
│    └─OutputScale: 2-1175               --                        --
│    └─Empty: 2-1176                     [64, 64, 1, 1]            --
│    └─Empty: 2-1177                     [64, 64, 1, 1]            --
│    └─Empty: 2-1178                     [64]                      --
│    └─Empty: 2-1179                     [64]                      --
│    └─BatchNorm2d: 2-1180               [16, 64, 64, 64]          --
│    └─Scaler: 2-1181                    [16, 64, 64, 64]          --
│    └─ReLU: 2-1182                      [16, 64, 64, 64]          --
│    └─Empty: 2-1183                     [16, 64, 64, 64]          --
│    └─Clamp: 2-1184                     [16, 64, 64, 64]          --
├─FusedConv2dBNReLU: 1-89                [16, 64, 64, 64]          (recursive)
│    └─OutputShiftSqueeze: 2-1185        --                        --
│    └─One: 2-1186                       [1]                       --
│    └─OutputScale: 2-1187               --                        --
│    └─Empty: 2-1188                     [64, 64, 3, 3]            --
│    └─Empty: 2-1189                     [64, 64, 3, 3]            --
│    └─Empty: 2-1190                     [64]                      --
│    └─Empty: 2-1191                     [64]                      --
│    └─BatchNorm2d: 2-1192               [16, 64, 64, 64]          --
│    └─Scaler: 2-1193                    [16, 64, 64, 64]          --
│    └─ReLU: 2-1194                      [16, 64, 64, 64]          --
│    └─Empty: 2-1195                     [16, 64, 64, 64]          --
│    └─Clamp: 2-1196                     [16, 64, 64, 64]          --
├─FusedMaxPoolConv2dBNReLU: 1-90         [16, 64, 32, 32]          (recursive)
│    └─MaxPool2d: 2-1197                 [16, 64, 32, 32]          --
│    └─Empty: 2-1198                     [16, 64, 32, 32]          --
│    └─Empty: 2-1199                     [16, 64, 32, 32]          --
│    └─OutputShiftSqueeze: 2-1200        --                        --
│    └─One: 2-1201                       [1]                       --
│    └─OutputScale: 2-1202               --                        --
│    └─Empty: 2-1203                     [64, 64, 3, 3]            --
│    └─Empty: 2-1204                     [64, 64, 3, 3]            --
│    └─Empty: 2-1205                     [64]                      --
│    └─Empty: 2-1206                     [64]                      --
│    └─BatchNorm2d: 2-1207               [16, 64, 32, 32]          --
│    └─Scaler: 2-1208                    [16, 64, 32, 32]          --
│    └─ReLU: 2-1209                      [16, 64, 32, 32]          --
│    └─Empty: 2-1210                     [16, 64, 32, 32]          --
│    └─Clamp: 2-1211                     [16, 64, 32, 32]          --
├─FusedConv2dBNReLU: 1-91                [16, 64, 32, 32]          (recursive)
│    └─OutputShiftSqueeze: 2-1212        --                        --
│    └─One: 2-1213                       [1]                       --
│    └─OutputScale: 2-1214               --                        --
│    └─Empty: 2-1215                     [64, 64, 3, 3]            --
│    └─Empty: 2-1216                     [64, 64, 3, 3]            --
│    └─Empty: 2-1217                     [64]                      --
│    └─Empty: 2-1218                     [64]                      --
│    └─BatchNorm2d: 2-1219               [16, 64, 32, 32]          --
│    └─Scaler: 2-1220                    [16, 64, 32, 32]          --
│    └─ReLU: 2-1221                      [16, 64, 32, 32]          --
│    └─Empty: 2-1222                     [16, 64, 32, 32]          --
│    └─Clamp: 2-1223                     [16, 64, 32, 32]          --
├─FusedMaxPoolConv2dBNReLU: 1-92         [16, 64, 16, 16]          (recursive)
│    └─MaxPool2d: 2-1224                 [16, 64, 16, 16]          --
│    └─Empty: 2-1225                     [16, 64, 16, 16]          --
│    └─Empty: 2-1226                     [16, 64, 16, 16]          --
│    └─OutputShiftSqueeze: 2-1227        --                        --
│    └─One: 2-1228                       [1]                       --
│    └─OutputScale: 2-1229               --                        --
│    └─Empty: 2-1230                     [64, 64, 3, 3]            --
│    └─Empty: 2-1231                     [64, 64, 3, 3]            --
│    └─Empty: 2-1232                     [64]                      --
│    └─Empty: 2-1233                     [64]                      --
│    └─BatchNorm2d: 2-1234               [16, 64, 16, 16]          --
│    └─Scaler: 2-1235                    [16, 64, 16, 16]          --
│    └─ReLU: 2-1236                      [16, 64, 16, 16]          --
│    └─Empty: 2-1237                     [16, 64, 16, 16]          --
│    └─Clamp: 2-1238                     [16, 64, 16, 16]          --
├─FusedConv2dBNReLU: 1-93                [16, 64, 16, 16]          (recursive)
│    └─OutputShiftSqueeze: 2-1239        --                        --
│    └─One: 2-1240                       [1]                       --
│    └─OutputScale: 2-1241               --                        --
│    └─Empty: 2-1242                     [64, 64, 3, 3]            --
│    └─Empty: 2-1243                     [64, 64, 3, 3]            --
│    └─Empty: 2-1244                     [64]                      --
│    └─Empty: 2-1245                     [64]                      --
│    └─BatchNorm2d: 2-1246               [16, 64, 16, 16]          --
│    └─Scaler: 2-1247                    [16, 64, 16, 16]          --
│    └─ReLU: 2-1248                      [16, 64, 16, 16]          --
│    └─Empty: 2-1249                     [16, 64, 16, 16]          --
│    └─Clamp: 2-1250                     [16, 64, 16, 16]          --
├─FusedMaxPoolConv2dBNReLU: 1-94         [16, 64, 8, 8]            (recursive)
│    └─MaxPool2d: 2-1251                 [16, 64, 8, 8]            --
│    └─Empty: 2-1252                     [16, 64, 8, 8]            --
│    └─Empty: 2-1253                     [16, 64, 8, 8]            --
│    └─OutputShiftSqueeze: 2-1254        --                        --
│    └─One: 2-1255                       [1]                       --
│    └─OutputScale: 2-1256               --                        --
│    └─Empty: 2-1257                     [64, 64, 3, 3]            --
│    └─Empty: 2-1258                     [64, 64, 3, 3]            --
│    └─Empty: 2-1259                     [64]                      --
│    └─Empty: 2-1260                     [64]                      --
│    └─BatchNorm2d: 2-1261               [16, 64, 8, 8]            --
│    └─Scaler: 2-1262                    [16, 64, 8, 8]            --
│    └─ReLU: 2-1263                      [16, 64, 8, 8]            --
│    └─Empty: 2-1264                     [16, 64, 8, 8]            --
│    └─Clamp: 2-1265                     [16, 64, 8, 8]            --
├─FusedConv2dBNReLU: 1-95                [16, 64, 8, 8]            (recursive)
│    └─OutputShiftSqueeze: 2-1266        --                        --
│    └─One: 2-1267                       [1]                       --
│    └─OutputScale: 2-1268               --                        --
│    └─Empty: 2-1269                     [64, 64, 1, 1]            --
│    └─Empty: 2-1270                     [64, 64, 1, 1]            --
│    └─Empty: 2-1271                     [64]                      --
│    └─Empty: 2-1272                     [64]                      --
│    └─BatchNorm2d: 2-1273               [16, 64, 8, 8]            --
│    └─Scaler: 2-1274                    [16, 64, 8, 8]            --
│    └─ReLU: 2-1275                      [16, 64, 8, 8]            --
│    └─Empty: 2-1276                     [16, 64, 8, 8]            --
│    └─Clamp: 2-1277                     [16, 64, 8, 8]            --
├─FusedMaxPoolConv2dBNReLU: 1-96         [16, 64, 8, 8]            (recursive)
│    └─MaxPool2d: 2-1278                 [16, 64, 8, 8]            --
│    └─Empty: 2-1279                     [16, 64, 8, 8]            --
│    └─Empty: 2-1280                     [16, 64, 8, 8]            --
│    └─OutputShiftSqueeze: 2-1281        --                        --
│    └─One: 2-1282                       [1]                       --
│    └─OutputScale: 2-1283               --                        --
│    └─Empty: 2-1284                     [64, 64, 3, 3]            --
│    └─Empty: 2-1285                     [64, 64, 3, 3]            --
│    └─Empty: 2-1286                     [64]                      --
│    └─Empty: 2-1287                     [64]                      --
│    └─BatchNorm2d: 2-1288               [16, 64, 8, 8]            --
│    └─Scaler: 2-1289                    [16, 64, 8, 8]            --
│    └─ReLU: 2-1290                      [16, 64, 8, 8]            --
│    └─Empty: 2-1291                     [16, 64, 8, 8]            --
│    └─Clamp: 2-1292                     [16, 64, 8, 8]            --
├─FusedMaxPoolConv2dBNReLU: 1-97         [16, 64, 4, 4]            (recursive)
│    └─MaxPool2d: 2-1293                 [16, 64, 4, 4]            --
│    └─Empty: 2-1294                     [16, 64, 4, 4]            --
│    └─Empty: 2-1295                     [16, 64, 4, 4]            --
│    └─OutputShiftSqueeze: 2-1296        --                        --
│    └─One: 2-1297                       [1]                       --
│    └─OutputScale: 2-1298               --                        --
│    └─Empty: 2-1299                     [64, 64, 3, 3]            --
│    └─Empty: 2-1300                     [64, 64, 3, 3]            --
│    └─Empty: 2-1301                     [64]                      --
│    └─Empty: 2-1302                     [64]                      --
│    └─BatchNorm2d: 2-1303               [16, 64, 4, 4]            --
│    └─Scaler: 2-1304                    [16, 64, 4, 4]            --
│    └─ReLU: 2-1305                      [16, 64, 4, 4]            --
│    └─Empty: 2-1306                     [16, 64, 4, 4]            --
│    └─Clamp: 2-1307                     [16, 64, 4, 4]            --
├─FusedConv2dBNReLU: 1-98                [16, 64, 4, 4]            (recursive)
│    └─OutputShiftSqueeze: 2-1308        --                        --
│    └─One: 2-1309                       [1]                       --
│    └─OutputScale: 2-1310               --                        --
│    └─Empty: 2-1311                     [64, 64, 1, 1]            --
│    └─Empty: 2-1312                     [64, 64, 1, 1]            --
│    └─Empty: 2-1313                     [64]                      --
│    └─Empty: 2-1314                     [64]                      --
│    └─BatchNorm2d: 2-1315               [16, 64, 4, 4]            --
│    └─Scaler: 2-1316                    [16, 64, 4, 4]            --
│    └─ReLU: 2-1317                      [16, 64, 4, 4]            --
│    └─Empty: 2-1318                     [16, 64, 4, 4]            --
│    └─Clamp: 2-1319                     [16, 64, 4, 4]            --
├─FusedMaxPoolConv2dBNReLU: 1-99         [16, 64, 4, 4]            (recursive)
│    └─MaxPool2d: 2-1320                 [16, 64, 4, 4]            --
│    └─Empty: 2-1321                     [16, 64, 4, 4]            --
│    └─Empty: 2-1322                     [16, 64, 4, 4]            --
│    └─OutputShiftSqueeze: 2-1323        --                        --
│    └─One: 2-1324                       [1]                       --
│    └─OutputScale: 2-1325               --                        --
│    └─Empty: 2-1326                     [64, 64, 3, 3]            --
│    └─Empty: 2-1327                     [64, 64, 3, 3]            --
│    └─Empty: 2-1328                     [64]                      --
│    └─Empty: 2-1329                     [64]                      --
│    └─BatchNorm2d: 2-1330               [16, 64, 4, 4]            --
│    └─Scaler: 2-1331                    [16, 64, 4, 4]            --
│    └─ReLU: 2-1332                      [16, 64, 4, 4]            --
│    └─Empty: 2-1333                     [16, 64, 4, 4]            --
│    └─Clamp: 2-1334                     [16, 64, 4, 4]            --
├─FusedMaxPoolConv2dBNReLU: 1-100        [16, 64, 2, 2]            (recursive)
│    └─MaxPool2d: 2-1335                 [16, 64, 2, 2]            --
│    └─Empty: 2-1336                     [16, 64, 2, 2]            --
│    └─Empty: 2-1337                     [16, 64, 2, 2]            --
│    └─OutputShiftSqueeze: 2-1338        --                        --
│    └─One: 2-1339                       [1]                       --
│    └─OutputScale: 2-1340               --                        --
│    └─Empty: 2-1341                     [64, 64, 1, 1]            --
│    └─Empty: 2-1342                     [64, 64, 1, 1]            --
│    └─Empty: 2-1343                     [64]                      --
│    └─Empty: 2-1344                     [64]                      --
│    └─BatchNorm2d: 2-1345               [16, 64, 2, 2]            --
│    └─Scaler: 2-1346                    [16, 64, 2, 2]            --
│    └─ReLU: 2-1347                      [16, 64, 2, 2]            --
│    └─Empty: 2-1348                     [16, 64, 2, 2]            --
│    └─Clamp: 2-1349                     [16, 64, 2, 2]            --
├─FusedConv2dBNReLU: 1-101               [16, 64, 2, 2]            (recursive)
│    └─OutputShiftSqueeze: 2-1350        --                        --
│    └─One: 2-1351                       [1]                       --
│    └─OutputScale: 2-1352               --                        --
│    └─Empty: 2-1353                     [64, 64, 1, 1]            --
│    └─Empty: 2-1354                     [64, 64, 1, 1]            --
│    └─Empty: 2-1355                     [64]                      --
│    └─Empty: 2-1356                     [64]                      --
│    └─BatchNorm2d: 2-1357               [16, 64, 2, 2]            --
│    └─Scaler: 2-1358                    [16, 64, 2, 2]            --
│    └─ReLU: 2-1359                      [16, 64, 2, 2]            --
│    └─Empty: 2-1360                     [16, 64, 2, 2]            --
│    └─Clamp: 2-1361                     [16, 64, 2, 2]            --
├─FusedMaxPoolConv2dBNReLU: 1-102        [16, 64, 2, 2]            (recursive)
│    └─MaxPool2d: 2-1362                 [16, 64, 2, 2]            --
│    └─Empty: 2-1363                     [16, 64, 2, 2]            --
│    └─Empty: 2-1364                     [16, 64, 2, 2]            --
│    └─OutputShiftSqueeze: 2-1365        --                        --
│    └─One: 2-1366                       [1]                       --
│    └─OutputScale: 2-1367               --                        --
│    └─Empty: 2-1368                     [64, 64, 3, 3]            --
│    └─Empty: 2-1369                     [64, 64, 3, 3]            --
│    └─Empty: 2-1370                     [64]                      --
│    └─Empty: 2-1371                     [64]                      --
│    └─BatchNorm2d: 2-1372               [16, 64, 2, 2]            --
│    └─Scaler: 2-1373                    [16, 64, 2, 2]            --
│    └─ReLU: 2-1374                      [16, 64, 2, 2]            --
│    └─Empty: 2-1375                     [16, 64, 2, 2]            --
│    └─Clamp: 2-1376                     [16, 64, 2, 2]            --
├─FusedConv2dBNReLU: 1-103               [16, 64, 64, 64]          (recursive)
│    └─OutputShiftSqueeze: 2-1377        --                        --
│    └─One: 2-1378                       [1]                       --
│    └─OutputScale: 2-1379               --                        --
│    └─Empty: 2-1380                     [64, 48, 1, 1]            --
│    └─Empty: 2-1381                     [64, 48, 1, 1]            --
│    └─Empty: 2-1382                     [64]                      --
│    └─Empty: 2-1383                     [64]                      --
│    └─BatchNorm2d: 2-1384               [16, 64, 64, 64]          --
│    └─Scaler: 2-1385                    [16, 64, 64, 64]          --
│    └─ReLU: 2-1386                      [16, 64, 64, 64]          --
│    └─Empty: 2-1387                     [16, 64, 64, 64]          --
│    └─Clamp: 2-1388                     [16, 64, 64, 64]          --
├─FusedConv2dBNReLU: 1-104               [16, 64, 64, 64]          (recursive)
│    └─OutputShiftSqueeze: 2-1389        --                        --
│    └─One: 2-1390                       [1]                       --
│    └─OutputScale: 2-1391               --                        --
│    └─Empty: 2-1392                     [64, 64, 3, 3]            --
│    └─Empty: 2-1393                     [64, 64, 3, 3]            --
│    └─Empty: 2-1394                     [64]                      --
│    └─Empty: 2-1395                     [64]                      --
│    └─BatchNorm2d: 2-1396               [16, 64, 64, 64]          --
│    └─Scaler: 2-1397                    [16, 64, 64, 64]          --
│    └─ReLU: 2-1398                      [16, 64, 64, 64]          --
│    └─Empty: 2-1399                     [16, 64, 64, 64]          --
│    └─Clamp: 2-1400                     [16, 64, 64, 64]          --
├─FusedConv2dBNReLU: 1-105               [16, 64, 64, 64]          (recursive)
│    └─OutputShiftSqueeze: 2-1401        --                        --
│    └─One: 2-1402                       [1]                       --
│    └─OutputScale: 2-1403               --                        --
│    └─Empty: 2-1404                     [64, 64, 1, 1]            --
│    └─Empty: 2-1405                     [64, 64, 1, 1]            --
│    └─Empty: 2-1406                     [64]                      --
│    └─Empty: 2-1407                     [64]                      --
│    └─BatchNorm2d: 2-1408               [16, 64, 64, 64]          --
│    └─Scaler: 2-1409                    [16, 64, 64, 64]          --
│    └─ReLU: 2-1410                      [16, 64, 64, 64]          --
│    └─Empty: 2-1411                     [16, 64, 64, 64]          --
│    └─Clamp: 2-1412                     [16, 64, 64, 64]          --
├─FusedConv2dBNReLU: 1-106               [16, 64, 64, 64]          (recursive)
│    └─OutputShiftSqueeze: 2-1413        --                        --
│    └─One: 2-1414                       [1]                       --
│    └─OutputScale: 2-1415               --                        --
│    └─Empty: 2-1416                     [64, 64, 3, 3]            --
│    └─Empty: 2-1417                     [64, 64, 3, 3]            --
│    └─Empty: 2-1418                     [64]                      --
│    └─Empty: 2-1419                     [64]                      --
│    └─BatchNorm2d: 2-1420               [16, 64, 64, 64]          --
│    └─Scaler: 2-1421                    [16, 64, 64, 64]          --
│    └─ReLU: 2-1422                      [16, 64, 64, 64]          --
│    └─Empty: 2-1423                     [16, 64, 64, 64]          --
│    └─Clamp: 2-1424                     [16, 64, 64, 64]          --
├─FusedMaxPoolConv2dBNReLU: 1-107        [16, 64, 32, 32]          (recursive)
│    └─MaxPool2d: 2-1425                 [16, 64, 32, 32]          --
│    └─Empty: 2-1426                     [16, 64, 32, 32]          --
│    └─Empty: 2-1427                     [16, 64, 32, 32]          --
│    └─OutputShiftSqueeze: 2-1428        --                        --
│    └─One: 2-1429                       [1]                       --
│    └─OutputScale: 2-1430               --                        --
│    └─Empty: 2-1431                     [64, 64, 3, 3]            --
│    └─Empty: 2-1432                     [64, 64, 3, 3]            --
│    └─Empty: 2-1433                     [64]                      --
│    └─Empty: 2-1434                     [64]                      --
│    └─BatchNorm2d: 2-1435               [16, 64, 32, 32]          --
│    └─Scaler: 2-1436                    [16, 64, 32, 32]          --
│    └─ReLU: 2-1437                      [16, 64, 32, 32]          --
│    └─Empty: 2-1438                     [16, 64, 32, 32]          --
│    └─Clamp: 2-1439                     [16, 64, 32, 32]          --
├─FusedConv2dBNReLU: 1-108               [16, 64, 32, 32]          (recursive)
│    └─OutputShiftSqueeze: 2-1440        --                        --
│    └─One: 2-1441                       [1]                       --
│    └─OutputScale: 2-1442               --                        --
│    └─Empty: 2-1443                     [64, 64, 3, 3]            --
│    └─Empty: 2-1444                     [64, 64, 3, 3]            --
│    └─Empty: 2-1445                     [64]                      --
│    └─Empty: 2-1446                     [64]                      --
│    └─BatchNorm2d: 2-1447               [16, 64, 32, 32]          --
│    └─Scaler: 2-1448                    [16, 64, 32, 32]          --
│    └─ReLU: 2-1449                      [16, 64, 32, 32]          --
│    └─Empty: 2-1450                     [16, 64, 32, 32]          --
│    └─Clamp: 2-1451                     [16, 64, 32, 32]          --
├─FusedMaxPoolConv2dBNReLU: 1-109        [16, 64, 16, 16]          (recursive)
│    └─MaxPool2d: 2-1452                 [16, 64, 16, 16]          --
│    └─Empty: 2-1453                     [16, 64, 16, 16]          --
│    └─Empty: 2-1454                     [16, 64, 16, 16]          --
│    └─OutputShiftSqueeze: 2-1455        --                        --
│    └─One: 2-1456                       [1]                       --
│    └─OutputScale: 2-1457               --                        --
│    └─Empty: 2-1458                     [64, 64, 3, 3]            --
│    └─Empty: 2-1459                     [64, 64, 3, 3]            --
│    └─Empty: 2-1460                     [64]                      --
│    └─Empty: 2-1461                     [64]                      --
│    └─BatchNorm2d: 2-1462               [16, 64, 16, 16]          --
│    └─Scaler: 2-1463                    [16, 64, 16, 16]          --
│    └─ReLU: 2-1464                      [16, 64, 16, 16]          --
│    └─Empty: 2-1465                     [16, 64, 16, 16]          --
│    └─Clamp: 2-1466                     [16, 64, 16, 16]          --
├─FusedConv2dBNReLU: 1-110               [16, 64, 16, 16]          (recursive)
│    └─OutputShiftSqueeze: 2-1467        --                        --
│    └─One: 2-1468                       [1]                       --
│    └─OutputScale: 2-1469               --                        --
│    └─Empty: 2-1470                     [64, 64, 3, 3]            --
│    └─Empty: 2-1471                     [64, 64, 3, 3]            --
│    └─Empty: 2-1472                     [64]                      --
│    └─Empty: 2-1473                     [64]                      --
│    └─BatchNorm2d: 2-1474               [16, 64, 16, 16]          --
│    └─Scaler: 2-1475                    [16, 64, 16, 16]          --
│    └─ReLU: 2-1476                      [16, 64, 16, 16]          --
│    └─Empty: 2-1477                     [16, 64, 16, 16]          --
│    └─Clamp: 2-1478                     [16, 64, 16, 16]          --
├─FusedMaxPoolConv2dBNReLU: 1-111        [16, 64, 8, 8]            (recursive)
│    └─MaxPool2d: 2-1479                 [16, 64, 8, 8]            --
│    └─Empty: 2-1480                     [16, 64, 8, 8]            --
│    └─Empty: 2-1481                     [16, 64, 8, 8]            --
│    └─OutputShiftSqueeze: 2-1482        --                        --
│    └─One: 2-1483                       [1]                       --
│    └─OutputScale: 2-1484               --                        --
│    └─Empty: 2-1485                     [64, 64, 3, 3]            --
│    └─Empty: 2-1486                     [64, 64, 3, 3]            --
│    └─Empty: 2-1487                     [64]                      --
│    └─Empty: 2-1488                     [64]                      --
│    └─BatchNorm2d: 2-1489               [16, 64, 8, 8]            --
│    └─Scaler: 2-1490                    [16, 64, 8, 8]            --
│    └─ReLU: 2-1491                      [16, 64, 8, 8]            --
│    └─Empty: 2-1492                     [16, 64, 8, 8]            --
│    └─Clamp: 2-1493                     [16, 64, 8, 8]            --
├─FusedConv2dBNReLU: 1-112               [16, 64, 8, 8]            (recursive)
│    └─OutputShiftSqueeze: 2-1494        --                        --
│    └─One: 2-1495                       [1]                       --
│    └─OutputScale: 2-1496               --                        --
│    └─Empty: 2-1497                     [64, 64, 1, 1]            --
│    └─Empty: 2-1498                     [64, 64, 1, 1]            --
│    └─Empty: 2-1499                     [64]                      --
│    └─Empty: 2-1500                     [64]                      --
│    └─BatchNorm2d: 2-1501               [16, 64, 8, 8]            --
│    └─Scaler: 2-1502                    [16, 64, 8, 8]            --
│    └─ReLU: 2-1503                      [16, 64, 8, 8]            --
│    └─Empty: 2-1504                     [16, 64, 8, 8]            --
│    └─Clamp: 2-1505                     [16, 64, 8, 8]            --
├─FusedMaxPoolConv2dBNReLU: 1-113        [16, 64, 8, 8]            (recursive)
│    └─MaxPool2d: 2-1506                 [16, 64, 8, 8]            --
│    └─Empty: 2-1507                     [16, 64, 8, 8]            --
│    └─Empty: 2-1508                     [16, 64, 8, 8]            --
│    └─OutputShiftSqueeze: 2-1509        --                        --
│    └─One: 2-1510                       [1]                       --
│    └─OutputScale: 2-1511               --                        --
│    └─Empty: 2-1512                     [64, 64, 3, 3]            --
│    └─Empty: 2-1513                     [64, 64, 3, 3]            --
│    └─Empty: 2-1514                     [64]                      --
│    └─Empty: 2-1515                     [64]                      --
│    └─BatchNorm2d: 2-1516               [16, 64, 8, 8]            --
│    └─Scaler: 2-1517                    [16, 64, 8, 8]            --
│    └─ReLU: 2-1518                      [16, 64, 8, 8]            --
│    └─Empty: 2-1519                     [16, 64, 8, 8]            --
│    └─Clamp: 2-1520                     [16, 64, 8, 8]            --
├─FusedMaxPoolConv2dBNReLU: 1-114        [16, 64, 4, 4]            (recursive)
│    └─MaxPool2d: 2-1521                 [16, 64, 4, 4]            --
│    └─Empty: 2-1522                     [16, 64, 4, 4]            --
│    └─Empty: 2-1523                     [16, 64, 4, 4]            --
│    └─OutputShiftSqueeze: 2-1524        --                        --
│    └─One: 2-1525                       [1]                       --
│    └─OutputScale: 2-1526               --                        --
│    └─Empty: 2-1527                     [64, 64, 3, 3]            --
│    └─Empty: 2-1528                     [64, 64, 3, 3]            --
│    └─Empty: 2-1529                     [64]                      --
│    └─Empty: 2-1530                     [64]                      --
│    └─BatchNorm2d: 2-1531               [16, 64, 4, 4]            --
│    └─Scaler: 2-1532                    [16, 64, 4, 4]            --
│    └─ReLU: 2-1533                      [16, 64, 4, 4]            --
│    └─Empty: 2-1534                     [16, 64, 4, 4]            --
│    └─Clamp: 2-1535                     [16, 64, 4, 4]            --
├─FusedConv2dBNReLU: 1-115               [16, 64, 4, 4]            (recursive)
│    └─OutputShiftSqueeze: 2-1536        --                        --
│    └─One: 2-1537                       [1]                       --
│    └─OutputScale: 2-1538               --                        --
│    └─Empty: 2-1539                     [64, 64, 1, 1]            --
│    └─Empty: 2-1540                     [64, 64, 1, 1]            --
│    └─Empty: 2-1541                     [64]                      --
│    └─Empty: 2-1542                     [64]                      --
│    └─BatchNorm2d: 2-1543               [16, 64, 4, 4]            --
│    └─Scaler: 2-1544                    [16, 64, 4, 4]            --
│    └─ReLU: 2-1545                      [16, 64, 4, 4]            --
│    └─Empty: 2-1546                     [16, 64, 4, 4]            --
│    └─Clamp: 2-1547                     [16, 64, 4, 4]            --
├─FusedMaxPoolConv2dBNReLU: 1-116        [16, 64, 4, 4]            (recursive)
│    └─MaxPool2d: 2-1548                 [16, 64, 4, 4]            --
│    └─Empty: 2-1549                     [16, 64, 4, 4]            --
│    └─Empty: 2-1550                     [16, 64, 4, 4]            --
│    └─OutputShiftSqueeze: 2-1551        --                        --
│    └─One: 2-1552                       [1]                       --
│    └─OutputScale: 2-1553               --                        --
│    └─Empty: 2-1554                     [64, 64, 3, 3]            --
│    └─Empty: 2-1555                     [64, 64, 3, 3]            --
│    └─Empty: 2-1556                     [64]                      --
│    └─Empty: 2-1557                     [64]                      --
│    └─BatchNorm2d: 2-1558               [16, 64, 4, 4]            --
│    └─Scaler: 2-1559                    [16, 64, 4, 4]            --
│    └─ReLU: 2-1560                      [16, 64, 4, 4]            --
│    └─Empty: 2-1561                     [16, 64, 4, 4]            --
│    └─Clamp: 2-1562                     [16, 64, 4, 4]            --
├─FusedMaxPoolConv2dBNReLU: 1-117        [16, 64, 2, 2]            (recursive)
│    └─MaxPool2d: 2-1563                 [16, 64, 2, 2]            --
│    └─Empty: 2-1564                     [16, 64, 2, 2]            --
│    └─Empty: 2-1565                     [16, 64, 2, 2]            --
│    └─OutputShiftSqueeze: 2-1566        --                        --
│    └─One: 2-1567                       [1]                       --
│    └─OutputScale: 2-1568               --                        --
│    └─Empty: 2-1569                     [64, 64, 1, 1]            --
│    └─Empty: 2-1570                     [64, 64, 1, 1]            --
│    └─Empty: 2-1571                     [64]                      --
│    └─Empty: 2-1572                     [64]                      --
│    └─BatchNorm2d: 2-1573               [16, 64, 2, 2]            --
│    └─Scaler: 2-1574                    [16, 64, 2, 2]            --
│    └─ReLU: 2-1575                      [16, 64, 2, 2]            --
│    └─Empty: 2-1576                     [16, 64, 2, 2]            --
│    └─Clamp: 2-1577                     [16, 64, 2, 2]            --
├─FusedConv2dBNReLU: 1-118               [16, 64, 2, 2]            (recursive)
│    └─OutputShiftSqueeze: 2-1578        --                        --
│    └─One: 2-1579                       [1]                       --
│    └─OutputScale: 2-1580               --                        --
│    └─Empty: 2-1581                     [64, 64, 1, 1]            --
│    └─Empty: 2-1582                     [64, 64, 1, 1]            --
│    └─Empty: 2-1583                     [64]                      --
│    └─Empty: 2-1584                     [64]                      --
│    └─BatchNorm2d: 2-1585               [16, 64, 2, 2]            --
│    └─Scaler: 2-1586                    [16, 64, 2, 2]            --
│    └─ReLU: 2-1587                      [16, 64, 2, 2]            --
│    └─Empty: 2-1588                     [16, 64, 2, 2]            --
│    └─Clamp: 2-1589                     [16, 64, 2, 2]            --
├─FusedMaxPoolConv2dBNReLU: 1-119        [16, 64, 2, 2]            (recursive)
│    └─MaxPool2d: 2-1590                 [16, 64, 2, 2]            --
│    └─Empty: 2-1591                     [16, 64, 2, 2]            --
│    └─Empty: 2-1592                     [16, 64, 2, 2]            --
│    └─OutputShiftSqueeze: 2-1593        --                        --
│    └─One: 2-1594                       [1]                       --
│    └─OutputScale: 2-1595               --                        --
│    └─Empty: 2-1596                     [64, 64, 3, 3]            --
│    └─Empty: 2-1597                     [64, 64, 3, 3]            --
│    └─Empty: 2-1598                     [64]                      --
│    └─Empty: 2-1599                     [64]                      --
│    └─BatchNorm2d: 2-1600               [16, 64, 2, 2]            --
│    └─Scaler: 2-1601                    [16, 64, 2, 2]            --
│    └─ReLU: 2-1602                      [16, 64, 2, 2]            --
│    └─Empty: 2-1603                     [16, 64, 2, 2]            --
│    └─Clamp: 2-1604                     [16, 64, 2, 2]            --
├─FusedConv2dBNReLU: 1-120               [16, 64, 64, 64]          (recursive)
│    └─OutputShiftSqueeze: 2-1605        --                        --
│    └─One: 2-1606                       [1]                       --
│    └─OutputScale: 2-1607               --                        --
│    └─Empty: 2-1608                     [64, 48, 1, 1]            --
│    └─Empty: 2-1609                     [64, 48, 1, 1]            --
│    └─Empty: 2-1610                     [64]                      --
│    └─Empty: 2-1611                     [64]                      --
│    └─BatchNorm2d: 2-1612               [16, 64, 64, 64]          --
│    └─Scaler: 2-1613                    [16, 64, 64, 64]          --
│    └─ReLU: 2-1614                      [16, 64, 64, 64]          --
│    └─Empty: 2-1615                     [16, 64, 64, 64]          --
│    └─Clamp: 2-1616                     [16, 64, 64, 64]          --
├─FusedConv2dBNReLU: 1-121               [16, 64, 64, 64]          (recursive)
│    └─OutputShiftSqueeze: 2-1617        --                        --
│    └─One: 2-1618                       [1]                       --
│    └─OutputScale: 2-1619               --                        --
│    └─Empty: 2-1620                     [64, 64, 3, 3]            --
│    └─Empty: 2-1621                     [64, 64, 3, 3]            --
│    └─Empty: 2-1622                     [64]                      --
│    └─Empty: 2-1623                     [64]                      --
│    └─BatchNorm2d: 2-1624               [16, 64, 64, 64]          --
│    └─Scaler: 2-1625                    [16, 64, 64, 64]          --
│    └─ReLU: 2-1626                      [16, 64, 64, 64]          --
│    └─Empty: 2-1627                     [16, 64, 64, 64]          --
│    └─Clamp: 2-1628                     [16, 64, 64, 64]          --
├─FusedConv2dBNReLU: 1-122               [16, 64, 64, 64]          (recursive)
│    └─OutputShiftSqueeze: 2-1629        --                        --
│    └─One: 2-1630                       [1]                       --
│    └─OutputScale: 2-1631               --                        --
│    └─Empty: 2-1632                     [64, 64, 1, 1]            --
│    └─Empty: 2-1633                     [64, 64, 1, 1]            --
│    └─Empty: 2-1634                     [64]                      --
│    └─Empty: 2-1635                     [64]                      --
│    └─BatchNorm2d: 2-1636               [16, 64, 64, 64]          --
│    └─Scaler: 2-1637                    [16, 64, 64, 64]          --
│    └─ReLU: 2-1638                      [16, 64, 64, 64]          --
│    └─Empty: 2-1639                     [16, 64, 64, 64]          --
│    └─Clamp: 2-1640                     [16, 64, 64, 64]          --
├─FusedConv2dBNReLU: 1-123               [16, 64, 64, 64]          (recursive)
│    └─OutputShiftSqueeze: 2-1641        --                        --
│    └─One: 2-1642                       [1]                       --
│    └─OutputScale: 2-1643               --                        --
│    └─Empty: 2-1644                     [64, 64, 3, 3]            --
│    └─Empty: 2-1645                     [64, 64, 3, 3]            --
│    └─Empty: 2-1646                     [64]                      --
│    └─Empty: 2-1647                     [64]                      --
│    └─BatchNorm2d: 2-1648               [16, 64, 64, 64]          --
│    └─Scaler: 2-1649                    [16, 64, 64, 64]          --
│    └─ReLU: 2-1650                      [16, 64, 64, 64]          --
│    └─Empty: 2-1651                     [16, 64, 64, 64]          --
│    └─Clamp: 2-1652                     [16, 64, 64, 64]          --
├─FusedMaxPoolConv2dBNReLU: 1-124        [16, 64, 32, 32]          (recursive)
│    └─MaxPool2d: 2-1653                 [16, 64, 32, 32]          --
│    └─Empty: 2-1654                     [16, 64, 32, 32]          --
│    └─Empty: 2-1655                     [16, 64, 32, 32]          --
│    └─OutputShiftSqueeze: 2-1656        --                        --
│    └─One: 2-1657                       [1]                       --
│    └─OutputScale: 2-1658               --                        --
│    └─Empty: 2-1659                     [64, 64, 3, 3]            --
│    └─Empty: 2-1660                     [64, 64, 3, 3]            --
│    └─Empty: 2-1661                     [64]                      --
│    └─Empty: 2-1662                     [64]                      --
│    └─BatchNorm2d: 2-1663               [16, 64, 32, 32]          --
│    └─Scaler: 2-1664                    [16, 64, 32, 32]          --
│    └─ReLU: 2-1665                      [16, 64, 32, 32]          --
│    └─Empty: 2-1666                     [16, 64, 32, 32]          --
│    └─Clamp: 2-1667                     [16, 64, 32, 32]          --
├─FusedConv2dBNReLU: 1-125               [16, 64, 32, 32]          (recursive)
│    └─OutputShiftSqueeze: 2-1668        --                        --
│    └─One: 2-1669                       [1]                       --
│    └─OutputScale: 2-1670               --                        --
│    └─Empty: 2-1671                     [64, 64, 3, 3]            --
│    └─Empty: 2-1672                     [64, 64, 3, 3]            --
│    └─Empty: 2-1673                     [64]                      --
│    └─Empty: 2-1674                     [64]                      --
│    └─BatchNorm2d: 2-1675               [16, 64, 32, 32]          --
│    └─Scaler: 2-1676                    [16, 64, 32, 32]          --
│    └─ReLU: 2-1677                      [16, 64, 32, 32]          --
│    └─Empty: 2-1678                     [16, 64, 32, 32]          --
│    └─Clamp: 2-1679                     [16, 64, 32, 32]          --
├─FusedMaxPoolConv2dBNReLU: 1-126        [16, 64, 16, 16]          (recursive)
│    └─MaxPool2d: 2-1680                 [16, 64, 16, 16]          --
│    └─Empty: 2-1681                     [16, 64, 16, 16]          --
│    └─Empty: 2-1682                     [16, 64, 16, 16]          --
│    └─OutputShiftSqueeze: 2-1683        --                        --
│    └─One: 2-1684                       [1]                       --
│    └─OutputScale: 2-1685               --                        --
│    └─Empty: 2-1686                     [64, 64, 3, 3]            --
│    └─Empty: 2-1687                     [64, 64, 3, 3]            --
│    └─Empty: 2-1688                     [64]                      --
│    └─Empty: 2-1689                     [64]                      --
│    └─BatchNorm2d: 2-1690               [16, 64, 16, 16]          --
│    └─Scaler: 2-1691                    [16, 64, 16, 16]          --
│    └─ReLU: 2-1692                      [16, 64, 16, 16]          --
│    └─Empty: 2-1693                     [16, 64, 16, 16]          --
│    └─Clamp: 2-1694                     [16, 64, 16, 16]          --
├─FusedConv2dBNReLU: 1-127               [16, 64, 16, 16]          (recursive)
│    └─OutputShiftSqueeze: 2-1695        --                        --
│    └─One: 2-1696                       [1]                       --
│    └─OutputScale: 2-1697               --                        --
│    └─Empty: 2-1698                     [64, 64, 3, 3]            --
│    └─Empty: 2-1699                     [64, 64, 3, 3]            --
│    └─Empty: 2-1700                     [64]                      --
│    └─Empty: 2-1701                     [64]                      --
│    └─BatchNorm2d: 2-1702               [16, 64, 16, 16]          --
│    └─Scaler: 2-1703                    [16, 64, 16, 16]          --
│    └─ReLU: 2-1704                      [16, 64, 16, 16]          --
│    └─Empty: 2-1705                     [16, 64, 16, 16]          --
│    └─Clamp: 2-1706                     [16, 64, 16, 16]          --
├─FusedMaxPoolConv2dBNReLU: 1-128        [16, 64, 8, 8]            (recursive)
│    └─MaxPool2d: 2-1707                 [16, 64, 8, 8]            --
│    └─Empty: 2-1708                     [16, 64, 8, 8]            --
│    └─Empty: 2-1709                     [16, 64, 8, 8]            --
│    └─OutputShiftSqueeze: 2-1710        --                        --
│    └─One: 2-1711                       [1]                       --
│    └─OutputScale: 2-1712               --                        --
│    └─Empty: 2-1713                     [64, 64, 3, 3]            --
│    └─Empty: 2-1714                     [64, 64, 3, 3]            --
│    └─Empty: 2-1715                     [64]                      --
│    └─Empty: 2-1716                     [64]                      --
│    └─BatchNorm2d: 2-1717               [16, 64, 8, 8]            --
│    └─Scaler: 2-1718                    [16, 64, 8, 8]            --
│    └─ReLU: 2-1719                      [16, 64, 8, 8]            --
│    └─Empty: 2-1720                     [16, 64, 8, 8]            --
│    └─Clamp: 2-1721                     [16, 64, 8, 8]            --
├─FusedConv2dBNReLU: 1-129               [16, 64, 8, 8]            (recursive)
│    └─OutputShiftSqueeze: 2-1722        --                        --
│    └─One: 2-1723                       [1]                       --
│    └─OutputScale: 2-1724               --                        --
│    └─Empty: 2-1725                     [64, 64, 1, 1]            --
│    └─Empty: 2-1726                     [64, 64, 1, 1]            --
│    └─Empty: 2-1727                     [64]                      --
│    └─Empty: 2-1728                     [64]                      --
│    └─BatchNorm2d: 2-1729               [16, 64, 8, 8]            --
│    └─Scaler: 2-1730                    [16, 64, 8, 8]            --
│    └─ReLU: 2-1731                      [16, 64, 8, 8]            --
│    └─Empty: 2-1732                     [16, 64, 8, 8]            --
│    └─Clamp: 2-1733                     [16, 64, 8, 8]            --
├─FusedMaxPoolConv2dBNReLU: 1-130        [16, 64, 8, 8]            (recursive)
│    └─MaxPool2d: 2-1734                 [16, 64, 8, 8]            --
│    └─Empty: 2-1735                     [16, 64, 8, 8]            --
│    └─Empty: 2-1736                     [16, 64, 8, 8]            --
│    └─OutputShiftSqueeze: 2-1737        --                        --
│    └─One: 2-1738                       [1]                       --
│    └─OutputScale: 2-1739               --                        --
│    └─Empty: 2-1740                     [64, 64, 3, 3]            --
│    └─Empty: 2-1741                     [64, 64, 3, 3]            --
│    └─Empty: 2-1742                     [64]                      --
│    └─Empty: 2-1743                     [64]                      --
│    └─BatchNorm2d: 2-1744               [16, 64, 8, 8]            --
│    └─Scaler: 2-1745                    [16, 64, 8, 8]            --
│    └─ReLU: 2-1746                      [16, 64, 8, 8]            --
│    └─Empty: 2-1747                     [16, 64, 8, 8]            --
│    └─Clamp: 2-1748                     [16, 64, 8, 8]            --
├─FusedMaxPoolConv2dBNReLU: 1-131        [16, 64, 4, 4]            (recursive)
│    └─MaxPool2d: 2-1749                 [16, 64, 4, 4]            --
│    └─Empty: 2-1750                     [16, 64, 4, 4]            --
│    └─Empty: 2-1751                     [16, 64, 4, 4]            --
│    └─OutputShiftSqueeze: 2-1752        --                        --
│    └─One: 2-1753                       [1]                       --
│    └─OutputScale: 2-1754               --                        --
│    └─Empty: 2-1755                     [64, 64, 3, 3]            --
│    └─Empty: 2-1756                     [64, 64, 3, 3]            --
│    └─Empty: 2-1757                     [64]                      --
│    └─Empty: 2-1758                     [64]                      --
│    └─BatchNorm2d: 2-1759               [16, 64, 4, 4]            --
│    └─Scaler: 2-1760                    [16, 64, 4, 4]            --
│    └─ReLU: 2-1761                      [16, 64, 4, 4]            --
│    └─Empty: 2-1762                     [16, 64, 4, 4]            --
│    └─Clamp: 2-1763                     [16, 64, 4, 4]            --
├─FusedConv2dBNReLU: 1-132               [16, 64, 4, 4]            (recursive)
│    └─OutputShiftSqueeze: 2-1764        --                        --
│    └─One: 2-1765                       [1]                       --
│    └─OutputScale: 2-1766               --                        --
│    └─Empty: 2-1767                     [64, 64, 1, 1]            --
│    └─Empty: 2-1768                     [64, 64, 1, 1]            --
│    └─Empty: 2-1769                     [64]                      --
│    └─Empty: 2-1770                     [64]                      --
│    └─BatchNorm2d: 2-1771               [16, 64, 4, 4]            --
│    └─Scaler: 2-1772                    [16, 64, 4, 4]            --
│    └─ReLU: 2-1773                      [16, 64, 4, 4]            --
│    └─Empty: 2-1774                     [16, 64, 4, 4]            --
│    └─Clamp: 2-1775                     [16, 64, 4, 4]            --
├─FusedMaxPoolConv2dBNReLU: 1-133        [16, 64, 4, 4]            (recursive)
│    └─MaxPool2d: 2-1776                 [16, 64, 4, 4]            --
│    └─Empty: 2-1777                     [16, 64, 4, 4]            --
│    └─Empty: 2-1778                     [16, 64, 4, 4]            --
│    └─OutputShiftSqueeze: 2-1779        --                        --
│    └─One: 2-1780                       [1]                       --
│    └─OutputScale: 2-1781               --                        --
│    └─Empty: 2-1782                     [64, 64, 3, 3]            --
│    └─Empty: 2-1783                     [64, 64, 3, 3]            --
│    └─Empty: 2-1784                     [64]                      --
│    └─Empty: 2-1785                     [64]                      --
│    └─BatchNorm2d: 2-1786               [16, 64, 4, 4]            --
│    └─Scaler: 2-1787                    [16, 64, 4, 4]            --
│    └─ReLU: 2-1788                      [16, 64, 4, 4]            --
│    └─Empty: 2-1789                     [16, 64, 4, 4]            --
│    └─Clamp: 2-1790                     [16, 64, 4, 4]            --
├─FusedMaxPoolConv2dBNReLU: 1-134        [16, 64, 2, 2]            (recursive)
│    └─MaxPool2d: 2-1791                 [16, 64, 2, 2]            --
│    └─Empty: 2-1792                     [16, 64, 2, 2]            --
│    └─Empty: 2-1793                     [16, 64, 2, 2]            --
│    └─OutputShiftSqueeze: 2-1794        --                        --
│    └─One: 2-1795                       [1]                       --
│    └─OutputScale: 2-1796               --                        --
│    └─Empty: 2-1797                     [64, 64, 1, 1]            --
│    └─Empty: 2-1798                     [64, 64, 1, 1]            --
│    └─Empty: 2-1799                     [64]                      --
│    └─Empty: 2-1800                     [64]                      --
│    └─BatchNorm2d: 2-1801               [16, 64, 2, 2]            --
│    └─Scaler: 2-1802                    [16, 64, 2, 2]            --
│    └─ReLU: 2-1803                      [16, 64, 2, 2]            --
│    └─Empty: 2-1804                     [16, 64, 2, 2]            --
│    └─Clamp: 2-1805                     [16, 64, 2, 2]            --
├─FusedConv2dBNReLU: 1-135               [16, 64, 2, 2]            (recursive)
│    └─OutputShiftSqueeze: 2-1806        --                        --
│    └─One: 2-1807                       [1]                       --
│    └─OutputScale: 2-1808               --                        --
│    └─Empty: 2-1809                     [64, 64, 1, 1]            --
│    └─Empty: 2-1810                     [64, 64, 1, 1]            --
│    └─Empty: 2-1811                     [64]                      --
│    └─Empty: 2-1812                     [64]                      --
│    └─BatchNorm2d: 2-1813               [16, 64, 2, 2]            --
│    └─Scaler: 2-1814                    [16, 64, 2, 2]            --
│    └─ReLU: 2-1815                      [16, 64, 2, 2]            --
│    └─Empty: 2-1816                     [16, 64, 2, 2]            --
│    └─Clamp: 2-1817                     [16, 64, 2, 2]            --
├─FusedMaxPoolConv2dBNReLU: 1-136        [16, 64, 2, 2]            (recursive)
│    └─MaxPool2d: 2-1818                 [16, 64, 2, 2]            --
│    └─Empty: 2-1819                     [16, 64, 2, 2]            --
│    └─Empty: 2-1820                     [16, 64, 2, 2]            --
│    └─OutputShiftSqueeze: 2-1821        --                        --
│    └─One: 2-1822                       [1]                       --
│    └─OutputScale: 2-1823               --                        --
│    └─Empty: 2-1824                     [64, 64, 3, 3]            --
│    └─Empty: 2-1825                     [64, 64, 3, 3]            --
│    └─Empty: 2-1826                     [64]                      --
│    └─Empty: 2-1827                     [64]                      --
│    └─BatchNorm2d: 2-1828               [16, 64, 2, 2]            --
│    └─Scaler: 2-1829                    [16, 64, 2, 2]            --
│    └─ReLU: 2-1830                      [16, 64, 2, 2]            --
│    └─Empty: 2-1831                     [16, 64, 2, 2]            --
│    └─Clamp: 2-1832                     [16, 64, 2, 2]            --
├─FusedConv2dBNReLU: 1-137               [16, 64, 64, 64]          (recursive)
│    └─OutputShiftSqueeze: 2-1833        --                        --
│    └─One: 2-1834                       [1]                       --
│    └─OutputScale: 2-1835               --                        --
│    └─Empty: 2-1836                     [64, 48, 1, 1]            --
│    └─Empty: 2-1837                     [64, 48, 1, 1]            --
│    └─Empty: 2-1838                     [64]                      --
│    └─Empty: 2-1839                     [64]                      --
│    └─BatchNorm2d: 2-1840               [16, 64, 64, 64]          --
│    └─Scaler: 2-1841                    [16, 64, 64, 64]          --
│    └─ReLU: 2-1842                      [16, 64, 64, 64]          --
│    └─Empty: 2-1843                     [16, 64, 64, 64]          --
│    └─Clamp: 2-1844                     [16, 64, 64, 64]          --
├─FusedConv2dBNReLU: 1-138               [16, 64, 64, 64]          (recursive)
│    └─OutputShiftSqueeze: 2-1845        --                        --
│    └─One: 2-1846                       [1]                       --
│    └─OutputScale: 2-1847               --                        --
│    └─Empty: 2-1848                     [64, 64, 3, 3]            --
│    └─Empty: 2-1849                     [64, 64, 3, 3]            --
│    └─Empty: 2-1850                     [64]                      --
│    └─Empty: 2-1851                     [64]                      --
│    └─BatchNorm2d: 2-1852               [16, 64, 64, 64]          --
│    └─Scaler: 2-1853                    [16, 64, 64, 64]          --
│    └─ReLU: 2-1854                      [16, 64, 64, 64]          --
│    └─Empty: 2-1855                     [16, 64, 64, 64]          --
│    └─Clamp: 2-1856                     [16, 64, 64, 64]          --
├─FusedConv2dBNReLU: 1-139               [16, 64, 64, 64]          (recursive)
│    └─OutputShiftSqueeze: 2-1857        --                        --
│    └─One: 2-1858                       [1]                       --
│    └─OutputScale: 2-1859               --                        --
│    └─Empty: 2-1860                     [64, 64, 1, 1]            --
│    └─Empty: 2-1861                     [64, 64, 1, 1]            --
│    └─Empty: 2-1862                     [64]                      --
│    └─Empty: 2-1863                     [64]                      --
│    └─BatchNorm2d: 2-1864               [16, 64, 64, 64]          --
│    └─Scaler: 2-1865                    [16, 64, 64, 64]          --
│    └─ReLU: 2-1866                      [16, 64, 64, 64]          --
│    └─Empty: 2-1867                     [16, 64, 64, 64]          --
│    └─Clamp: 2-1868                     [16, 64, 64, 64]          --
├─FusedConv2dBNReLU: 1-140               [16, 64, 64, 64]          (recursive)
│    └─OutputShiftSqueeze: 2-1869        --                        --
│    └─One: 2-1870                       [1]                       --
│    └─OutputScale: 2-1871               --                        --
│    └─Empty: 2-1872                     [64, 64, 3, 3]            --
│    └─Empty: 2-1873                     [64, 64, 3, 3]            --
│    └─Empty: 2-1874                     [64]                      --
│    └─Empty: 2-1875                     [64]                      --
│    └─BatchNorm2d: 2-1876               [16, 64, 64, 64]          --
│    └─Scaler: 2-1877                    [16, 64, 64, 64]          --
│    └─ReLU: 2-1878                      [16, 64, 64, 64]          --
│    └─Empty: 2-1879                     [16, 64, 64, 64]          --
│    └─Clamp: 2-1880                     [16, 64, 64, 64]          --
├─FusedMaxPoolConv2dBNReLU: 1-141        [16, 64, 32, 32]          (recursive)
│    └─MaxPool2d: 2-1881                 [16, 64, 32, 32]          --
│    └─Empty: 2-1882                     [16, 64, 32, 32]          --
│    └─Empty: 2-1883                     [16, 64, 32, 32]          --
│    └─OutputShiftSqueeze: 2-1884        --                        --
│    └─One: 2-1885                       [1]                       --
│    └─OutputScale: 2-1886               --                        --
│    └─Empty: 2-1887                     [64, 64, 3, 3]            --
│    └─Empty: 2-1888                     [64, 64, 3, 3]            --
│    └─Empty: 2-1889                     [64]                      --
│    └─Empty: 2-1890                     [64]                      --
│    └─BatchNorm2d: 2-1891               [16, 64, 32, 32]          --
│    └─Scaler: 2-1892                    [16, 64, 32, 32]          --
│    └─ReLU: 2-1893                      [16, 64, 32, 32]          --
│    └─Empty: 2-1894                     [16, 64, 32, 32]          --
│    └─Clamp: 2-1895                     [16, 64, 32, 32]          --
├─FusedConv2dBNReLU: 1-142               [16, 64, 32, 32]          (recursive)
│    └─OutputShiftSqueeze: 2-1896        --                        --
│    └─One: 2-1897                       [1]                       --
│    └─OutputScale: 2-1898               --                        --
│    └─Empty: 2-1899                     [64, 64, 3, 3]            --
│    └─Empty: 2-1900                     [64, 64, 3, 3]            --
│    └─Empty: 2-1901                     [64]                      --
│    └─Empty: 2-1902                     [64]                      --
│    └─BatchNorm2d: 2-1903               [16, 64, 32, 32]          --
│    └─Scaler: 2-1904                    [16, 64, 32, 32]          --
│    └─ReLU: 2-1905                      [16, 64, 32, 32]          --
│    └─Empty: 2-1906                     [16, 64, 32, 32]          --
│    └─Clamp: 2-1907                     [16, 64, 32, 32]          --
├─FusedMaxPoolConv2dBNReLU: 1-143        [16, 64, 16, 16]          (recursive)
│    └─MaxPool2d: 2-1908                 [16, 64, 16, 16]          --
│    └─Empty: 2-1909                     [16, 64, 16, 16]          --
│    └─Empty: 2-1910                     [16, 64, 16, 16]          --
│    └─OutputShiftSqueeze: 2-1911        --                        --
│    └─One: 2-1912                       [1]                       --
│    └─OutputScale: 2-1913               --                        --
│    └─Empty: 2-1914                     [64, 64, 3, 3]            --
│    └─Empty: 2-1915                     [64, 64, 3, 3]            --
│    └─Empty: 2-1916                     [64]                      --
│    └─Empty: 2-1917                     [64]                      --
│    └─BatchNorm2d: 2-1918               [16, 64, 16, 16]          --
│    └─Scaler: 2-1919                    [16, 64, 16, 16]          --
│    └─ReLU: 2-1920                      [16, 64, 16, 16]          --
│    └─Empty: 2-1921                     [16, 64, 16, 16]          --
│    └─Clamp: 2-1922                     [16, 64, 16, 16]          --
├─FusedConv2dBNReLU: 1-144               [16, 64, 16, 16]          (recursive)
│    └─OutputShiftSqueeze: 2-1923        --                        --
│    └─One: 2-1924                       [1]                       --
│    └─OutputScale: 2-1925               --                        --
│    └─Empty: 2-1926                     [64, 64, 3, 3]            --
│    └─Empty: 2-1927                     [64, 64, 3, 3]            --
│    └─Empty: 2-1928                     [64]                      --
│    └─Empty: 2-1929                     [64]                      --
│    └─BatchNorm2d: 2-1930               [16, 64, 16, 16]          --
│    └─Scaler: 2-1931                    [16, 64, 16, 16]          --
│    └─ReLU: 2-1932                      [16, 64, 16, 16]          --
│    └─Empty: 2-1933                     [16, 64, 16, 16]          --
│    └─Clamp: 2-1934                     [16, 64, 16, 16]          --
├─FusedMaxPoolConv2dBNReLU: 1-145        [16, 64, 8, 8]            (recursive)
│    └─MaxPool2d: 2-1935                 [16, 64, 8, 8]            --
│    └─Empty: 2-1936                     [16, 64, 8, 8]            --
│    └─Empty: 2-1937                     [16, 64, 8, 8]            --
│    └─OutputShiftSqueeze: 2-1938        --                        --
│    └─One: 2-1939                       [1]                       --
│    └─OutputScale: 2-1940               --                        --
│    └─Empty: 2-1941                     [64, 64, 3, 3]            --
│    └─Empty: 2-1942                     [64, 64, 3, 3]            --
│    └─Empty: 2-1943                     [64]                      --
│    └─Empty: 2-1944                     [64]                      --
│    └─BatchNorm2d: 2-1945               [16, 64, 8, 8]            --
│    └─Scaler: 2-1946                    [16, 64, 8, 8]            --
│    └─ReLU: 2-1947                      [16, 64, 8, 8]            --
│    └─Empty: 2-1948                     [16, 64, 8, 8]            --
│    └─Clamp: 2-1949                     [16, 64, 8, 8]            --
├─FusedConv2dBNReLU: 1-146               [16, 64, 8, 8]            (recursive)
│    └─OutputShiftSqueeze: 2-1950        --                        --
│    └─One: 2-1951                       [1]                       --
│    └─OutputScale: 2-1952               --                        --
│    └─Empty: 2-1953                     [64, 64, 1, 1]            --
│    └─Empty: 2-1954                     [64, 64, 1, 1]            --
│    └─Empty: 2-1955                     [64]                      --
│    └─Empty: 2-1956                     [64]                      --
│    └─BatchNorm2d: 2-1957               [16, 64, 8, 8]            --
…
│    └─Empty: 2-3358                     [16, 64, 4, 4]            --
│    └─Clamp: 2-3359                     [16, 64, 4, 4]            --
├─FusedConv2dBNReLU: 1-251               [16, 64, 4, 4]            (recursive)
│    └─OutputShiftSqueeze: 2-3360        --                        --
│    └─One: 2-3361                       [1]                       --
│    └─OutputScale: 2-3362               --                        --
│    └─Empty: 2-3363                     [64, 64, 1, 1]            --
│    └─Empty: 2-3364                     [64, 64, 1, 1]            --
│    └─Empty: 2-3365                     [64]                      --
│    └─Empty: 2-3366                     [64]                      --
│    └─BatchNorm2d: 2-3367               [16, 64, 4, 4]            --
│    └─Scaler: 2-3368                    [16, 64, 4, 4]            --
│    └─ReLU: 2-3369                      [16, 64, 4, 4]            --
│    └─Empty: 2-3370                     [16, 64, 4, 4]            --
│    └─Clamp: 2-3371                     [16, 64, 4, 4]            --
├─FusedMaxPoolConv2dBNReLU: 1-252        [16, 64, 4, 4]            (recursive)
│    └─MaxPool2d: 2-3372                 [16, 64, 4, 4]            --
│    └─Empty: 2-3373                     [16, 64, 4, 4]            --
│    └─Empty: 2-3374                     [16, 64, 4, 4]            --
│    └─OutputShiftSqueeze: 2-3375        --                        --
│    └─One: 2-3376                       [1]                       --
│    └─OutputScale: 2-3377               --                        --
│    └─Empty: 2-3378                     [64, 64, 3, 3]            --
│    └─Empty: 2-3379                     [64, 64, 3, 3]            --
│    └─Empty: 2-3380                     [64]                      --
│    └─Empty: 2-3381                     [64]                      --
│    └─BatchNorm2d: 2-3382               [16, 64, 4, 4]            --
│    └─Scaler: 2-3383                    [16, 64, 4, 4]            --
│    └─ReLU: 2-3384                      [16, 64, 4, 4]            --
│    └─Empty: 2-3385                     [16, 64, 4, 4]            --
│    └─Clamp: 2-3386                     [16, 64, 4, 4]            --
├─FusedMaxPoolConv2dBNReLU: 1-253        [16, 64, 2, 2]            (recursive)
│    └─MaxPool2d: 2-3387                 [16, 64, 2, 2]            --
│    └─Empty: 2-3388                     [16, 64, 2, 2]            --
│    └─Empty: 2-3389                     [16, 64, 2, 2]            --
│    └─OutputShiftSqueeze: 2-3390        --                        --
│    └─One: 2-3391                       [1]                       --
│    └─OutputScale: 2-3392               --                        --
│    └─Empty: 2-3393                     [64, 64, 1, 1]            --
│    └─Empty: 2-3394                     [64, 64, 1, 1]            --
│    └─Empty: 2-3395                     [64]                      --
│    └─Empty: 2-3396                     [64]                      --
│    └─BatchNorm2d: 2-3397               [16, 64, 2, 2]            --
│    └─Scaler: 2-3398                    [16, 64, 2, 2]            --
│    └─ReLU: 2-3399                      [16, 64, 2, 2]            --
│    └─Empty: 2-3400                     [16, 64, 2, 2]            --
│    └─Clamp: 2-3401                     [16, 64, 2, 2]            --
├─FusedConv2dBNReLU: 1-254               [16, 64, 2, 2]            (recursive)
│    └─OutputShiftSqueeze: 2-3402        --                        --
│    └─One: 2-3403                       [1]                       --
│    └─OutputScale: 2-3404               --                        --
│    └─Empty: 2-3405                     [64, 64, 1, 1]            --
│    └─Empty: 2-3406                     [64, 64, 1, 1]            --
│    └─Empty: 2-3407                     [64]                      --
│    └─Empty: 2-3408                     [64]                      --
│    └─BatchNorm2d: 2-3409               [16, 64, 2, 2]            --
│    └─Scaler: 2-3410                    [16, 64, 2, 2]            --
│    └─ReLU: 2-3411                      [16, 64, 2, 2]            --
│    └─Empty: 2-3412                     [16, 64, 2, 2]            --
│    └─Clamp: 2-3413                     [16, 64, 2, 2]            --
├─FusedMaxPoolConv2dBNReLU: 1-255        [16, 64, 2, 2]            (recursive)
│    └─MaxPool2d: 2-3414                 [16, 64, 2, 2]            --
│    └─Empty: 2-3415                     [16, 64, 2, 2]            --
│    └─Empty: 2-3416                     [16, 64, 2, 2]            --
│    └─OutputShiftSqueeze: 2-3417        --                        --
│    └─One: 2-3418                       [1]                       --
│    └─OutputScale: 2-3419               --                        --
│    └─Empty: 2-3420                     [64, 64, 3, 3]            --
│    └─Empty: 2-3421                     [64, 64, 3, 3]            --
│    └─Empty: 2-3422                     [64]                      --
│    └─Empty: 2-3423                     [64]                      --
│    └─BatchNorm2d: 2-3424               [16, 64, 2, 2]            --
│    └─Scaler: 2-3425                    [16, 64, 2, 2]            --
│    └─ReLU: 2-3426                      [16, 64, 2, 2]            --
│    └─Empty: 2-3427                     [16, 64, 2, 2]            --
│    └─Clamp: 2-3428                     [16, 64, 2, 2]            --
├─FusedConv2dBNReLU: 1-256               [16, 64, 64, 64]          (recursive)
│    └─OutputShiftSqueeze: 2-3429        --                        --
│    └─One: 2-3430                       [1]                       --
│    └─OutputScale: 2-3431               --                        --
│    └─Empty: 2-3432                     [64, 48, 1, 1]            --
│    └─Empty: 2-3433                     [64, 48, 1, 1]            --
│    └─Empty: 2-3434                     [64]                      --
│    └─Empty: 2-3435                     [64]                      --
│    └─BatchNorm2d: 2-3436               [16, 64, 64, 64]          --
│    └─Scaler: 2-3437                    [16, 64, 64, 64]          --
│    └─ReLU: 2-3438                      [16, 64, 64, 64]          --
│    └─Empty: 2-3439                     [16, 64, 64, 64]          --
│    └─Clamp: 2-3440                     [16, 64, 64, 64]          --
├─FusedConv2dBNReLU: 1-257               [16, 64, 64, 64]          (recursive)
│    └─OutputShiftSqueeze: 2-3441        --                        --
│    └─One: 2-3442                       [1]                       --
│    └─OutputScale: 2-3443               --                        --
│    └─Empty: 2-3444                     [64, 64, 3, 3]            --
│    └─Empty: 2-3445                     [64, 64, 3, 3]            --
│    └─Empty: 2-3446                     [64]                      --
│    └─Empty: 2-3447                     [64]                      --
│    └─BatchNorm2d: 2-3448               [16, 64, 64, 64]          --
│    └─Scaler: 2-3449                    [16, 64, 64, 64]          --
│    └─ReLU: 2-3450                      [16, 64, 64, 64]          --
│    └─Empty: 2-3451                     [16, 64, 64, 64]          --
│    └─Clamp: 2-3452                     [16, 64, 64, 64]          --
├─FusedConv2dBNReLU: 1-258               [16, 64, 64, 64]          (recursive)
│    └─OutputShiftSqueeze: 2-3453        --                        --
│    └─One: 2-3454                       [1]                       --
│    └─OutputScale: 2-3455               --                        --
│    └─Empty: 2-3456                     [64, 64, 1, 1]            --
│    └─Empty: 2-3457                     [64, 64, 1, 1]            --
│    └─Empty: 2-3458                     [64]                      --
│    └─Empty: 2-3459                     [64]                      --
│    └─BatchNorm2d: 2-3460               [16, 64, 64, 64]          --
│    └─Scaler: 2-3461                    [16, 64, 64, 64]          --
│    └─ReLU: 2-3462                      [16, 64, 64, 64]          --
│    └─Empty: 2-3463                     [16, 64, 64, 64]          --
│    └─Clamp: 2-3464                     [16, 64, 64, 64]          --
├─FusedConv2dBNReLU: 1-259               [16, 64, 64, 64]          (recursive)
│    └─OutputShiftSqueeze: 2-3465        --                        --
│    └─One: 2-3466                       [1]                       --
│    └─OutputScale: 2-3467               --                        --
│    └─Empty: 2-3468                     [64, 64, 3, 3]            --
│    └─Empty: 2-3469                     [64, 64, 3, 3]            --
│    └─Empty: 2-3470                     [64]                      --
│    └─Empty: 2-3471                     [64]                      --
│    └─BatchNorm2d: 2-3472               [16, 64, 64, 64]          --
│    └─Scaler: 2-3473                    [16, 64, 64, 64]          --
│    └─ReLU: 2-3474                      [16, 64, 64, 64]          --
│    └─Empty: 2-3475                     [16, 64, 64, 64]          --
│    └─Clamp: 2-3476                     [16, 64, 64, 64]          --
├─FusedMaxPoolConv2dBNReLU: 1-260        [16, 64, 32, 32]          (recursive)
│    └─MaxPool2d: 2-3477                 [16, 64, 32, 32]          --
│    └─Empty: 2-3478                     [16, 64, 32, 32]          --
│    └─Empty: 2-3479                     [16, 64, 32, 32]          --
│    └─OutputShiftSqueeze: 2-3480        --                        --
│    └─One: 2-3481                       [1]                       --
│    └─OutputScale: 2-3482               --                        --
│    └─Empty: 2-3483                     [64, 64, 3, 3]            --
│    └─Empty: 2-3484                     [64, 64, 3, 3]            --
│    └─Empty: 2-3485                     [64]                      --
│    └─Empty: 2-3486                     [64]                      --
│    └─BatchNorm2d: 2-3487               [16, 64, 32, 32]          --
│    └─Scaler: 2-3488                    [16, 64, 32, 32]          --
│    └─ReLU: 2-3489                      [16, 64, 32, 32]          --
│    └─Empty: 2-3490                     [16, 64, 32, 32]          --
│    └─Clamp: 2-3491                     [16, 64, 32, 32]          --
├─FusedConv2dBNReLU: 1-261               [16, 64, 32, 32]          (recursive)
│    └─OutputShiftSqueeze: 2-3492        --                        --
│    └─One: 2-3493                       [1]                       --
│    └─OutputScale: 2-3494               --                        --
│    └─Empty: 2-3495                     [64, 64, 3, 3]            --
│    └─Empty: 2-3496                     [64, 64, 3, 3]            --
│    └─Empty: 2-3497                     [64]                      --
│    └─Empty: 2-3498                     [64]                      --
│    └─BatchNorm2d: 2-3499               [16, 64, 32, 32]          --
│    └─Scaler: 2-3500                    [16, 64, 32, 32]          --
│    └─ReLU: 2-3501                      [16, 64, 32, 32]          --
│    └─Empty: 2-3502                     [16, 64, 32, 32]          --
│    └─Clamp: 2-3503                     [16, 64, 32, 32]          --
├─FusedMaxPoolConv2dBNReLU: 1-262        [16, 64, 16, 16]          (recursive)
│    └─MaxPool2d: 2-3504                 [16, 64, 16, 16]          --
│    └─Empty: 2-3505                     [16, 64, 16, 16]          --
│    └─Empty: 2-3506                     [16, 64, 16, 16]          --
│    └─OutputShiftSqueeze: 2-3507        --                        --
│    └─One: 2-3508                       [1]                       --
│    └─OutputScale: 2-3509               --                        --
│    └─Empty: 2-3510                     [64, 64, 3, 3]            --
│    └─Empty: 2-3511                     [64, 64, 3, 3]            --
│    └─Empty: 2-3512                     [64]                      --
│    └─Empty: 2-3513                     [64]                      --
│    └─BatchNorm2d: 2-3514               [16, 64, 16, 16]          --
│    └─Scaler: 2-3515                    [16, 64, 16, 16]          --
│    └─ReLU: 2-3516                      [16, 64, 16, 16]          --
│    └─Empty: 2-3517                     [16, 64, 16, 16]          --
│    └─Clamp: 2-3518                     [16, 64, 16, 16]          --
├─FusedConv2dBNReLU: 1-263               [16, 64, 16, 16]          (recursive)
│    └─OutputShiftSqueeze: 2-3519        --                        --
│    └─One: 2-3520                       [1]                       --
│    └─OutputScale: 2-3521               --                        --
│    └─Empty: 2-3522                     [64, 64, 3, 3]            --
│    └─Empty: 2-3523                     [64, 64, 3, 3]            --
│    └─Empty: 2-3524                     [64]                      --
│    └─Empty: 2-3525                     [64]                      --
│    └─BatchNorm2d: 2-3526               [16, 64, 16, 16]          --
│    └─Scaler: 2-3527                    [16, 64, 16, 16]          --
│    └─ReLU: 2-3528                      [16, 64, 16, 16]          --
│    └─Empty: 2-3529                     [16, 64, 16, 16]          --
│    └─Clamp: 2-3530                     [16, 64, 16, 16]          --
├─FusedMaxPoolConv2dBNReLU: 1-264        [16, 64, 8, 8]            (recursive)
│    └─MaxPool2d: 2-3531                 [16, 64, 8, 8]            --
│    └─Empty: 2-3532                     [16, 64, 8, 8]            --
│    └─Empty: 2-3533                     [16, 64, 8, 8]            --
│    └─OutputShiftSqueeze: 2-3534        --                        --
│    └─One: 2-3535                       [1]                       --
│    └─OutputScale: 2-3536               --                        --
│    └─Empty: 2-3537                     [64, 64, 3, 3]            --
│    └─Empty: 2-3538                     [64, 64, 3, 3]            --
│    └─Empty: 2-3539                     [64]                      --
│    └─Empty: 2-3540                     [64]                      --
│    └─BatchNorm2d: 2-3541               [16, 64, 8, 8]            --
│    └─Scaler: 2-3542                    [16, 64, 8, 8]            --
│    └─ReLU: 2-3543                      [16, 64, 8, 8]            --
│    └─Empty: 2-3544                     [16, 64, 8, 8]            --
│    └─Clamp: 2-3545                     [16, 64, 8, 8]            --
├─FusedConv2dBNReLU: 1-265               [16, 64, 8, 8]            (recursive)
│    └─OutputShiftSqueeze: 2-3546        --                        --
│    └─One: 2-3547                       [1]                       --
│    └─OutputScale: 2-3548               --                        --
│    └─Empty: 2-3549                     [64, 64, 1, 1]            --
│    └─Empty: 2-3550                     [64, 64, 1, 1]            --
│    └─Empty: 2-3551                     [64]                      --
│    └─Empty: 2-3552                     [64]                      --
│    └─BatchNorm2d: 2-3553               [16, 64, 8, 8]            --
│    └─Scaler: 2-3554                    [16, 64, 8, 8]            --
│    └─ReLU: 2-3555                      [16, 64, 8, 8]            --
│    └─Empty: 2-3556                     [16, 64, 8, 8]            --
│    └─Clamp: 2-3557                     [16, 64, 8, 8]            --
├─FusedMaxPoolConv2dBNReLU: 1-266        [16, 64, 8, 8]            (recursive)
│    └─MaxPool2d: 2-3558                 [16, 64, 8, 8]            --
│    └─Empty: 2-3559                     [16, 64, 8, 8]            --
│    └─Empty: 2-3560                     [16, 64, 8, 8]            --
│    └─OutputShiftSqueeze: 2-3561        --                        --
│    └─One: 2-3562                       [1]                       --
│    └─OutputScale: 2-3563               --                        --
│    └─Empty: 2-3564                     [64, 64, 3, 3]            --
│    └─Empty: 2-3565                     [64, 64, 3, 3]            --
│    └─Empty: 2-3566                     [64]                      --
│    └─Empty: 2-3567                     [64]                      --
│    └─BatchNorm2d: 2-3568               [16, 64, 8, 8]            --
│    └─Scaler: 2-3569                    [16, 64, 8, 8]            --
│    └─ReLU: 2-3570                      [16, 64, 8, 8]            --
│    └─Empty: 2-3571                     [16, 64, 8, 8]            --
│    └─Clamp: 2-3572                     [16, 64, 8, 8]            --
├─FusedMaxPoolConv2dBNReLU: 1-267        [16, 64, 4, 4]            (recursive)
│    └─MaxPool2d: 2-3573                 [16, 64, 4, 4]            --
│    └─Empty: 2-3574                     [16, 64, 4, 4]            --
│    └─Empty: 2-3575                     [16, 64, 4, 4]            --
│    └─OutputShiftSqueeze: 2-3576        --                        --
│    └─One: 2-3577                       [1]                       --
│    └─OutputScale: 2-3578               --                        --
│    └─Empty: 2-3579                     [64, 64, 3, 3]            --
│    └─Empty: 2-3580                     [64, 64, 3, 3]            --
│    └─Empty: 2-3581                     [64]                      --
│    └─Empty: 2-3582                     [64]                      --
│    └─BatchNorm2d: 2-3583               [16, 64, 4, 4]            --
│    └─Scaler: 2-3584                    [16, 64, 4, 4]            --
│    └─ReLU: 2-3585                      [16, 64, 4, 4]            --
│    └─Empty: 2-3586                     [16, 64, 4, 4]            --
│    └─Clamp: 2-3587                     [16, 64, 4, 4]            --
├─FusedConv2dBNReLU: 1-268               [16, 64, 4, 4]            (recursive)
│    └─OutputShiftSqueeze: 2-3588        --                        --
│    └─One: 2-3589                       [1]                       --
│    └─OutputScale: 2-3590               --                        --
│    └─Empty: 2-3591                     [64, 64, 1, 1]            --
│    └─Empty: 2-3592                     [64, 64, 1, 1]            --
│    └─Empty: 2-3593                     [64]                      --
│    └─Empty: 2-3594                     [64]                      --
│    └─BatchNorm2d: 2-3595               [16, 64, 4, 4]            --
│    └─Scaler: 2-3596                    [16, 64, 4, 4]            --
│    └─ReLU: 2-3597                      [16, 64, 4, 4]            --
│    └─Empty: 2-3598                     [16, 64, 4, 4]            --
│    └─Clamp: 2-3599                     [16, 64, 4, 4]            --
├─FusedMaxPoolConv2dBNReLU: 1-269        [16, 64, 4, 4]            (recursive)
│    └─MaxPool2d: 2-3600                 [16, 64, 4, 4]            --
│    └─Empty: 2-3601                     [16, 64, 4, 4]            --
│    └─Empty: 2-3602                     [16, 64, 4, 4]            --
│    └─OutputShiftSqueeze: 2-3603        --                        --
│    └─One: 2-3604                       [1]                       --
│    └─OutputScale: 2-3605               --                        --
│    └─Empty: 2-3606                     [64, 64, 3, 3]            --
│    └─Empty: 2-3607                     [64, 64, 3, 3]            --
│    └─Empty: 2-3608                     [64]                      --
│    └─Empty: 2-3609                     [64]                      --
│    └─BatchNorm2d: 2-3610               [16, 64, 4, 4]            --
│    └─Scaler: 2-3611                    [16, 64, 4, 4]            --
│    └─ReLU: 2-3612                      [16, 64, 4, 4]            --
│    └─Empty: 2-3613                     [16, 64, 4, 4]            --
│    └─Clamp: 2-3614                     [16, 64, 4, 4]            --
├─FusedMaxPoolConv2dBNReLU: 1-270        [16, 64, 2, 2]            (recursive)
│    └─MaxPool2d: 2-3615                 [16, 64, 2, 2]            --
│    └─Empty: 2-3616                     [16, 64, 2, 2]            --
│    └─Empty: 2-3617                     [16, 64, 2, 2]            --
│    └─OutputShiftSqueeze: 2-3618        --                        --
│    └─One: 2-3619                       [1]                       --
│    └─OutputScale: 2-3620               --                        --
│    └─Empty: 2-3621                     [64, 64, 1, 1]            --
│    └─Empty: 2-3622                     [64, 64, 1, 1]            --
│    └─Empty: 2-3623                     [64]                      --
│    └─Empty: 2-3624                     [64]                      --
│    └─BatchNorm2d: 2-3625               [16, 64, 2, 2]            --
│    └─Scaler: 2-3626                    [16, 64, 2, 2]            --
│    └─ReLU: 2-3627                      [16, 64, 2, 2]            --
│    └─Empty: 2-3628                     [16, 64, 2, 2]            --
│    └─Clamp: 2-3629                     [16, 64, 2, 2]            --
├─FusedConv2dBNReLU: 1-271               [16, 64, 2, 2]            (recursive)
│    └─OutputShiftSqueeze: 2-3630        --                        --
│    └─One: 2-3631                       [1]                       --
│    └─OutputScale: 2-3632               --                        --
│    └─Empty: 2-3633                     [64, 64, 1, 1]            --
│    └─Empty: 2-3634                     [64, 64, 1, 1]            --
│    └─Empty: 2-3635                     [64]                      --
│    └─Empty: 2-3636                     [64]                      --
│    └─BatchNorm2d: 2-3637               [16, 64, 2, 2]            --
│    └─Scaler: 2-3638                    [16, 64, 2, 2]            --
│    └─ReLU: 2-3639                      [16, 64, 2, 2]            --
│    └─Empty: 2-3640                     [16, 64, 2, 2]            --
│    └─Clamp: 2-3641                     [16, 64, 2, 2]            --
├─FusedMaxPoolConv2dBNReLU: 1-272        [16, 64, 2, 2]            (recursive)
│    └─MaxPool2d: 2-3642                 [16, 64, 2, 2]            --
│    └─Empty: 2-3643                     [16, 64, 2, 2]            --
│    └─Empty: 2-3644                     [16, 64, 2, 2]            --
│    └─OutputShiftSqueeze: 2-3645        --                        --
│    └─One: 2-3646                       [1]                       --
│    └─OutputScale: 2-3647               --                        --
│    └─Empty: 2-3648                     [64, 64, 3, 3]            --
│    └─Empty: 2-3649                     [64, 64, 3, 3]            --
│    └─Empty: 2-3650                     [64]                      --
│    └─Empty: 2-3651                     [64]                      --
│    └─BatchNorm2d: 2-3652               [16, 64, 2, 2]            --
│    └─Scaler: 2-3653                    [16, 64, 2, 2]            --
│    └─ReLU: 2-3654                      [16, 64, 2, 2]            --
│    └─Empty: 2-3655                     [16, 64, 2, 2]            --
│    └─Clamp: 2-3656                     [16, 64, 2, 2]            --
├─Conv1d: 1-273                          [16, 64, 16]              16,454
│    └─OutputShiftSqueeze: 2-3657        --                        --
│    └─One: 2-3658                       [1]                       --
│    └─OutputScale: 2-3659               --                        --
│    └─Empty: 2-3660                     [64, 256, 1]              --
│    └─Empty: 2-3661                     [64, 256, 1]              --
│    └─Empty: 2-3662                     [64]                      --
│    └─Empty: 2-3663                     [64]                      --
│    └─Scaler: 2-3664                    [16, 64, 16]              --
│    └─Empty: 2-3665                     [16, 64, 16]              --
│    └─Empty: 2-3666                     [16, 64, 16]              --
│    └─Clamp: 2-3667                     [16, 64, 16]              --
├─FusedConv1dBNReLU: 1-274               [16, 64, 16]              12,358
│    └─OutputShiftSqueeze: 2-3668        --                        --
│    └─One: 2-3669                       [1]                       --
│    └─OutputScale: 2-3670               --                        --
│    └─Empty: 2-3671                     [64, 64, 3]               --
│    └─Empty: 2-3672                     [64, 64, 3]               --
│    └─Empty: 2-3673                     [64]                      --
│    └─Empty: 2-3674                     [64]                      --
│    └─BatchNorm1d: 2-3675               [16, 64, 16]              --
│    └─Scaler: 2-3676                    [16, 64, 16]              --
│    └─ReLU: 2-3677                      [16, 64, 16]              --
│    └─Empty: 2-3678                     [16, 64, 16]              --
│    └─Clamp: 2-3679                     [16, 64, 16]              --
├─Conv1d: 1-275                          [16, 64, 16]              4,166
│    └─OutputShiftSqueeze: 2-3680        --                        --
│    └─One: 2-3681                       [1]                       --
│    └─OutputScale: 2-3682               --                        --
│    └─Empty: 2-3683                     [64, 64, 1]               --
│    └─Empty: 2-3684                     [64, 64, 1]               --
│    └─Empty: 2-3685                     [64]                      --
│    └─Empty: 2-3686                     [64]                      --
│    └─Scaler: 2-3687                    [16, 64, 16]              --
│    └─Empty: 2-3688                     [16, 64, 16]              --
│    └─Empty: 2-3689                     [16, 64, 16]              --
│    └─Clamp: 2-3690                     [16, 64, 16]              --
├─Dropout: 1-276                         [16, 64, 16]              --
├─FusedConv1dBNReLU: 1-277               [16, 64, 16]              12,358
│    └─OutputShiftSqueeze: 2-3691        --                        --
│    └─One: 2-3692                       [1]                       --
│    └─OutputScale: 2-3693               --                        --
│    └─Empty: 2-3694                     [64, 64, 3]               --
│    └─Empty: 2-3695                     [64, 64, 3]               --
│    └─Empty: 2-3696                     [64]                      --
│    └─Empty: 2-3697                     [64]                      --
│    └─BatchNorm1d: 2-3698               [16, 64, 16]              --
│    └─Scaler: 2-3699                    [16, 64, 16]              --
│    └─ReLU: 2-3700                      [16, 64, 16]              --
│    └─Empty: 2-3701                     [16, 64, 16]              --
│    └─Clamp: 2-3702                     [16, 64, 16]              --
├─Conv1d: 1-278                          [16, 64, 16]              4,166
│    └─OutputShiftSqueeze: 2-3703        --                        --
│    └─One: 2-3704                       [1]                       --
│    └─OutputScale: 2-3705               --                        --
│    └─Empty: 2-3706                     [64, 64, 1]               --
│    └─Empty: 2-3707                     [64, 64, 1]               --
│    └─Empty: 2-3708                     [64]                      --
│    └─Empty: 2-3709                     [64]                      --
│    └─Scaler: 2-3710                    [16, 64, 16]              --
│    └─Empty: 2-3711                     [16, 64, 16]              --
│    └─Empty: 2-3712                     [16, 64, 16]              --
│    └─Clamp: 2-3713                     [16, 64, 16]              --
├─Dropout: 1-279                         [16, 64, 16]              --
├─FusedConv1dBNReLU: 1-280               [16, 64, 16]              12,358
│    └─OutputShiftSqueeze: 2-3714        --                        --
│    └─One: 2-3715                       [1]                       --
│    └─OutputScale: 2-3716               --                        --
│    └─Empty: 2-3717                     [64, 64, 3]               --
│    └─Empty: 2-3718                     [64, 64, 3]               --
│    └─Empty: 2-3719                     [64]                      --
│    └─Empty: 2-3720                     [64]                      --
│    └─BatchNorm1d: 2-3721               [16, 64, 16]              --
│    └─Scaler: 2-3722                    [16, 64, 16]              --
│    └─ReLU: 2-3723                      [16, 64, 16]              --
│    └─Empty: 2-3724                     [16, 64, 16]              --
│    └─Clamp: 2-3725                     [16, 64, 16]              --
├─Conv1d: 1-281                          [16, 64, 16]              4,166
│    └─OutputShiftSqueeze: 2-3726        --                        --
│    └─One: 2-3727                       [1]                       --
│    └─OutputScale: 2-3728               --                        --
│    └─Empty: 2-3729                     [64, 64, 1]               --
│    └─Empty: 2-3730                     [64, 64, 1]               --
│    └─Empty: 2-3731                     [64]                      --
│    └─Empty: 2-3732                     [64]                      --
│    └─Scaler: 2-3733                    [16, 64, 16]              --
│    └─Empty: 2-3734                     [16, 64, 16]              --
│    └─Empty: 2-3735                     [16, 64, 16]              --
│    └─Clamp: 2-3736                     [16, 64, 16]              --
├─Dropout: 1-282                         [16, 64, 16]              --
├─FusedConv1dBNReLU: 1-283               [16, 64, 16]              12,358
│    └─OutputShiftSqueeze: 2-3737        --                        --
│    └─One: 2-3738                       [1]                       --
│    └─OutputScale: 2-3739               --                        --
│    └─Empty: 2-3740                     [64, 64, 3]               --
│    └─Empty: 2-3741                     [64, 64, 3]               --
│    └─Empty: 2-3742                     [64]                      --
│    └─Empty: 2-3743                     [64]                      --
│    └─BatchNorm1d: 2-3744               [16, 64, 16]              --
│    └─Scaler: 2-3745                    [16, 64, 16]              --
│    └─ReLU: 2-3746                      [16, 64, 16]              --
│    └─Empty: 2-3747                     [16, 64, 16]              --
│    └─Clamp: 2-3748                     [16, 64, 16]              --
├─Conv1d: 1-284                          [16, 64, 16]              4,166
│    └─OutputShiftSqueeze: 2-3749        --                        --
│    └─One: 2-3750                       [1]                       --
│    └─OutputScale: 2-3751               --                        --
│    └─Empty: 2-3752                     [64, 64, 1]               --
│    └─Empty: 2-3753                     [64, 64, 1]               --
│    └─Empty: 2-3754                     [64]                      --
│    └─Empty: 2-3755                     [64]                      --
│    └─Scaler: 2-3756                    [16, 64, 16]              --
│    └─Empty: 2-3757                     [16, 64, 16]              --
│    └─Empty: 2-3758                     [16, 64, 16]              --
│    └─Clamp: 2-3759                     [16, 64, 16]              --
├─Dropout: 1-285                         [16, 64, 16]              --
├─Conv1d: 1-286                          [16, 5, 16]               331
│    └─OutputShiftSqueeze: 2-3760        --                        --
│    └─One: 2-3761                       [1]                       --
│    └─OutputScale: 2-3762               --                        --
│    └─Empty: 2-3763                     [5, 64, 1]                --
│    └─Empty: 2-3764                     [5, 64, 1]                --
│    └─Empty: 2-3765                     [5]                       --
│    └─Empty: 2-3766                     [5]                       --
│    └─Scaler: 2-3767                    [16, 5, 16]               --
│    └─Empty: 2-3768                     [16, 5, 16]               --
│    └─Empty: 2-3769                     [16, 5, 16]               --
│    └─Clamp: 2-3770                     [16, 5, 16]               --
├─Conv1d: 1-287                          [16, 64, 16]              390
│    └─OutputShiftSqueeze: 2-3771        --                        --
│    └─One: 2-3772                       [1]                       --
│    └─OutputScale: 2-3773               --                        --
│    └─Empty: 2-3774                     [64, 5, 1]                --
│    └─Empty: 2-3775                     [64, 5, 1]                --
│    └─Empty: 2-3776                     [64]                      --
│    └─Empty: 2-3777                     [64]                      --
│    └─Scaler: 2-3778                    [16, 64, 16]              --
│    └─Empty: 2-3779                     [16, 64, 16]              --
│    └─Empty: 2-3780                     [16, 64, 16]              --
│    └─Clamp: 2-3781                     [16, 64, 16]              --
├─FusedConv1dBNReLU: 1-288               [16, 64, 16]              12,358
│    └─OutputShiftSqueeze: 2-3782        --                        --
│    └─One: 2-3783                       [1]                       --
│    └─OutputScale: 2-3784               --                        --
│    └─Empty: 2-3785                     [64, 64, 3]               --
│    └─Empty: 2-3786                     [64, 64, 3]               --
│    └─Empty: 2-3787                     [64]                      --
│    └─Empty: 2-3788                     [64]                      --
│    └─BatchNorm1d: 2-3789               [16, 64, 16]              --
│    └─Scaler: 2-3790                    [16, 64, 16]              --
│    └─ReLU: 2-3791                      [16, 64, 16]              --
│    └─Empty: 2-3792                     [16, 64, 16]              --
│    └─Clamp: 2-3793                     [16, 64, 16]              --
├─Conv1d: 1-289                          [16, 64, 16]              4,166
│    └─OutputShiftSqueeze: 2-3794        --                        --
│    └─One: 2-3795                       [1]                       --
│    └─OutputScale: 2-3796               --                        --
│    └─Empty: 2-3797                     [64, 64, 1]               --
│    └─Empty: 2-3798                     [64, 64, 1]               --
│    └─Empty: 2-3799                     [64]                      --
│    └─Empty: 2-3800                     [64]                      --
│    └─Scaler: 2-3801                    [16, 64, 16]              --
│    └─Empty: 2-3802                     [16, 64, 16]              --
│    └─Empty: 2-3803                     [16, 64, 16]              --
│    └─Clamp: 2-3804                     [16, 64, 16]              --
├─Dropout: 1-290                         [16, 64, 16]              --
├─FusedConv1dBNReLU: 1-291               [16, 64, 16]              12,358
│    └─OutputShiftSqueeze: 2-3805        --                        --
│    └─One: 2-3806                       [1]                       --
│    └─OutputScale: 2-3807               --                        --
│    └─Empty: 2-3808                     [64, 64, 3]               --
│    └─Empty: 2-3809                     [64, 64, 3]               --
│    └─Empty: 2-3810                     [64]                      --
│    └─Empty: 2-3811                     [64]                      --
│    └─BatchNorm1d: 2-3812               [16, 64, 16]              --
│    └─Scaler: 2-3813                    [16, 64, 16]              --
│    └─ReLU: 2-3814                      [16, 64, 16]              --
│    └─Empty: 2-3815                     [16, 64, 16]              --
│    └─Clamp: 2-3816                     [16, 64, 16]              --
├─Conv1d: 1-292                          [16, 64, 16]              4,166
│    └─OutputShiftSqueeze: 2-3817        --                        --
│    └─One: 2-3818                       [1]                       --
│    └─OutputScale: 2-3819               --                        --
│    └─Empty: 2-3820                     [64, 64, 1]               --
│    └─Empty: 2-3821                     [64, 64, 1]               --
│    └─Empty: 2-3822                     [64]                      --
│    └─Empty: 2-3823                     [64]                      --
│    └─Scaler: 2-3824                    [16, 64, 16]              --
│    └─Empty: 2-3825                     [16, 64, 16]              --
│    └─Empty: 2-3826                     [16, 64, 16]              --
│    └─Clamp: 2-3827                     [16, 64, 16]              --
├─Dropout: 1-293                         [16, 64, 16]              --
├─FusedConv1dBNReLU: 1-294               [16, 64, 16]              12,358
│    └─OutputShiftSqueeze: 2-3828        --                        --
│    └─One: 2-3829                       [1]                       --
│    └─OutputScale: 2-3830               --                        --
│    └─Empty: 2-3831                     [64, 64, 3]               --
│    └─Empty: 2-3832                     [64, 64, 3]               --
│    └─Empty: 2-3833                     [64]                      --
│    └─Empty: 2-3834                     [64]                      --
│    └─BatchNorm1d: 2-3835               [16, 64, 16]              --
│    └─Scaler: 2-3836                    [16, 64, 16]              --
│    └─ReLU: 2-3837                      [16, 64, 16]              --
│    └─Empty: 2-3838                     [16, 64, 16]              --
│    └─Clamp: 2-3839                     [16, 64, 16]              --
├─Conv1d: 1-295                          [16, 64, 16]              4,166
│    └─OutputShiftSqueeze: 2-3840        --                        --
│    └─One: 2-3841                       [1]                       --
│    └─OutputScale: 2-3842               --                        --
│    └─Empty: 2-3843                     [64, 64, 1]               --
│    └─Empty: 2-3844                     [64, 64, 1]               --
│    └─Empty: 2-3845                     [64]                      --
│    └─Empty: 2-3846                     [64]                      --
│    └─Scaler: 2-3847                    [16, 64, 16]              --
│    └─Empty: 2-3848                     [16, 64, 16]              --
│    └─Empty: 2-3849                     [16, 64, 16]              --
│    └─Clamp: 2-3850                     [16, 64, 16]              --
├─Dropout: 1-296                         [16, 64, 16]              --
├─FusedConv1dBNReLU: 1-297               [16, 64, 16]              12,358
│    └─OutputShiftSqueeze: 2-3851        --                        --
│    └─One: 2-3852                       [1]                       --
│    └─OutputScale: 2-3853               --                        --
│    └─Empty: 2-3854                     [64, 64, 3]               --
│    └─Empty: 2-3855                     [64, 64, 3]               --
│    └─Empty: 2-3856                     [64]                      --
│    └─Empty: 2-3857                     [64]                      --
│    └─BatchNorm1d: 2-3858               [16, 64, 16]              --
│    └─Scaler: 2-3859                    [16, 64, 16]              --
│    └─ReLU: 2-3860                      [16, 64, 16]              --
│    └─Empty: 2-3861                     [16, 64, 16]              --
│    └─Clamp: 2-3862                     [16, 64, 16]              --
├─Conv1d: 1-298                          [16, 64, 16]              4,166
│    └─OutputShiftSqueeze: 2-3863        --                        --
│    └─One: 2-3864                       [1]                       --
│    └─OutputScale: 2-3865               --                        --
│    └─Empty: 2-3866                     [64, 64, 1]               --
│    └─Empty: 2-3867                     [64, 64, 1]               --
│    └─Empty: 2-3868                     [64]                      --
│    └─Empty: 2-3869                     [64]                      --
│    └─Scaler: 2-3870                    [16, 64, 16]              --
│    └─Empty: 2-3871                     [16, 64, 16]              --
│    └─Empty: 2-3872                     [16, 64, 16]              --
│    └─Clamp: 2-3873                     [16, 64, 16]              --
├─Dropout: 1-299                         [16, 64, 16]              --
├─Conv1d: 1-300                          [16, 5, 16]               331
│    └─OutputShiftSqueeze: 2-3874        --                        --
│    └─One: 2-3875                       [1]                       --
│    └─OutputScale: 2-3876               --                        --
│    └─Empty: 2-3877                     [5, 64, 1]                --
│    └─Empty: 2-3878                     [5, 64, 1]                --
│    └─Empty: 2-3879                     [5]                       --
│    └─Empty: 2-3880                     [5]                       --
│    └─Scaler: 2-3881                    [16, 5, 16]               --
│    └─Empty: 2-3882                     [16, 5, 16]               --
│    └─Empty: 2-3883                     [16, 5, 16]               --
│    └─Clamp: 2-3884                     [16, 5, 16]               --
├─Conv1d: 1-301                          [16, 64, 16]              390
│    └─OutputShiftSqueeze: 2-3885        --                        --
│    └─One: 2-3886                       [1]                       --
│    └─OutputScale: 2-3887               --                        --
│    └─Empty: 2-3888                     [64, 5, 1]                --
│    └─Empty: 2-3889                     [64, 5, 1]                --
│    └─Empty: 2-3890                     [64]                      --
│    └─Empty: 2-3891                     [64]                      --
│    └─Scaler: 2-3892                    [16, 64, 16]              --
│    └─Empty: 2-3893                     [16, 64, 16]              --
│    └─Empty: 2-3894                     [16, 64, 16]              --
│    └─Clamp: 2-3895                     [16, 64, 16]              --
├─FusedConv1dBNReLU: 1-302               [16, 64, 16]              12,358
│    └─OutputShiftSqueeze: 2-3896        --                        --
│    └─One: 2-3897                       [1]                       --
│    └─OutputScale: 2-3898               --                        --
│    └─Empty: 2-3899                     [64, 64, 3]               --
│    └─Empty: 2-3900                     [64, 64, 3]               --
│    └─Empty: 2-3901                     [64]                      --
│    └─Empty: 2-3902                     [64]                      --
│    └─BatchNorm1d: 2-3903               [16, 64, 16]              --
│    └─Scaler: 2-3904                    [16, 64, 16]              --
│    └─ReLU: 2-3905                      [16, 64, 16]              --
│    └─Empty: 2-3906                     [16, 64, 16]              --
│    └─Clamp: 2-3907                     [16, 64, 16]              --
├─Conv1d: 1-303                          [16, 64, 16]              4,166
│    └─OutputShiftSqueeze: 2-3908        --                        --
│    └─One: 2-3909                       [1]                       --
│    └─OutputScale: 2-3910               --                        --
│    └─Empty: 2-3911                     [64, 64, 1]               --
│    └─Empty: 2-3912                     [64, 64, 1]               --
│    └─Empty: 2-3913                     [64]                      --
│    └─Empty: 2-3914                     [64]                      --
│    └─Scaler: 2-3915                    [16, 64, 16]              --
│    └─Empty: 2-3916                     [16, 64, 16]              --
│    └─Empty: 2-3917                     [16, 64, 16]              --
│    └─Clamp: 2-3918                     [16, 64, 16]              --
├─Dropout: 1-304                         [16, 64, 16]              --
├─FusedConv1dBNReLU: 1-305               [16, 64, 16]              12,358
│    └─OutputShiftSqueeze: 2-3919        --                        --
│    └─One: 2-3920                       [1]                       --
│    └─OutputScale: 2-3921               --                        --
│    └─Empty: 2-3922                     [64, 64, 3]               --
│    └─Empty: 2-3923                     [64, 64, 3]               --
│    └─Empty: 2-3924                     [64]                      --
│    └─Empty: 2-3925                     [64]                      --
│    └─BatchNorm1d: 2-3926               [16, 64, 16]              --
│    └─Scaler: 2-3927                    [16, 64, 16]              --
│    └─ReLU: 2-3928                      [16, 64, 16]              --
│    └─Empty: 2-3929                     [16, 64, 16]              --
│    └─Clamp: 2-3930                     [16, 64, 16]              --
├─Conv1d: 1-306                          [16, 64, 16]              4,166
│    └─OutputShiftSqueeze: 2-3931        --                        --
│    └─One: 2-3932                       [1]                       --
│    └─OutputScale: 2-3933               --                        --
│    └─Empty: 2-3934                     [64, 64, 1]               --
│    └─Empty: 2-3935                     [64, 64, 1]               --
│    └─Empty: 2-3936                     [64]                      --
│    └─Empty: 2-3937                     [64]                      --
│    └─Scaler: 2-3938                    [16, 64, 16]              --
│    └─Empty: 2-3939                     [16, 64, 16]              --
│    └─Empty: 2-3940                     [16, 64, 16]              --
│    └─Clamp: 2-3941                     [16, 64, 16]              --
├─Dropout: 1-307                         [16, 64, 16]              --
├─FusedConv1dBNReLU: 1-308               [16, 64, 16]              12,358
│    └─OutputShiftSqueeze: 2-3942        --                        --
│    └─One: 2-3943                       [1]                       --
│    └─OutputScale: 2-3944               --                        --
│    └─Empty: 2-3945                     [64, 64, 3]               --
│    └─Empty: 2-3946                     [64, 64, 3]               --
│    └─Empty: 2-3947                     [64]                      --
│    └─Empty: 2-3948                     [64]                      --
│    └─BatchNorm1d: 2-3949               [16, 64, 16]              --
│    └─Scaler: 2-3950                    [16, 64, 16]              --
│    └─ReLU: 2-3951                      [16, 64, 16]              --
│    └─Empty: 2-3952                     [16, 64, 16]              --
│    └─Clamp: 2-3953                     [16, 64, 16]              --
├─Conv1d: 1-309                          [16, 64, 16]              4,166
│    └─OutputShiftSqueeze: 2-3954        --                        --
│    └─One: 2-3955                       [1]                       --
│    └─OutputScale: 2-3956               --                        --
│    └─Empty: 2-3957                     [64, 64, 1]               --
│    └─Empty: 2-3958                     [64, 64, 1]               --
│    └─Empty: 2-3959                     [64]                      --
│    └─Empty: 2-3960                     [64]                      --
│    └─Scaler: 2-3961                    [16, 64, 16]              --
│    └─Empty: 2-3962                     [16, 64, 16]              --
│    └─Empty: 2-3963                     [16, 64, 16]              --
│    └─Clamp: 2-3964                     [16, 64, 16]              --
├─Dropout: 1-310                         [16, 64, 16]              --
├─FusedConv1dBNReLU: 1-311               [16, 64, 16]              12,358
│    └─OutputShiftSqueeze: 2-3965        --                        --
│    └─One: 2-3966                       [1]                       --
│    └─OutputScale: 2-3967               --                        --
│    └─Empty: 2-3968                     [64, 64, 3]               --
│    └─Empty: 2-3969                     [64, 64, 3]               --
│    └─Empty: 2-3970                     [64]                      --
│    └─Empty: 2-3971                     [64]                      --
│    └─BatchNorm1d: 2-3972               [16, 64, 16]              --
│    └─Scaler: 2-3973                    [16, 64, 16]              --
│    └─ReLU: 2-3974                      [16, 64, 16]              --
│    └─Empty: 2-3975                     [16, 64, 16]              --
│    └─Clamp: 2-3976                     [16, 64, 16]              --
├─Conv1d: 1-312                          [16, 64, 16]              4,166
│    └─OutputShiftSqueeze: 2-3977        --                        --
│    └─One: 2-3978                       [1]                       --
│    └─OutputScale: 2-3979               --                        --
│    └─Empty: 2-3980                     [64, 64, 1]               --
│    └─Empty: 2-3981                     [64, 64, 1]               --
│    └─Empty: 2-3982                     [64]                      --
│    └─Empty: 2-3983                     [64]                      --
│    └─Scaler: 2-3984                    [16, 64, 16]              --
│    └─Empty: 2-3985                     [16, 64, 16]              --
│    └─Empty: 2-3986                     [16, 64, 16]              --
│    └─Clamp: 2-3987                     [16, 64, 16]              --
├─Dropout: 1-313                         [16, 64, 16]              --
├─Conv1d: 1-314                          [16, 5, 16]               331
│    └─OutputShiftSqueeze: 2-3988        --                        --
│    └─One: 2-3989                       [1]                       --
│    └─OutputScale: 2-3990               --                        --
│    └─Empty: 2-3991                     [5, 64, 1]                --
│    └─Empty: 2-3992                     [5, 64, 1]                --
│    └─Empty: 2-3993                     [5]                       --
│    └─Empty: 2-3994                     [5]                       --
│    └─Scaler: 2-3995                    [16, 5, 16]               --
│    └─Empty: 2-3996                     [16, 5, 16]               --
│    └─Empty: 2-3997                     [16, 5, 16]               --
│    └─Clamp: 2-3998                     [16, 5, 16]               --
==========================================================================================
Total params: 646,761
Trainable params: 646,479
Non-trainable params: 282
Total mult-adds (M): 0.00
==========================================================================================
Input size (MB): 201.33
Forward/backward pass size (MB): 0.00
Params size (MB): 0.00
Estimated Total Size (MB): 201.33
…
