…
I - Warm Start: Missing Keys ['tcn0.output_shift', 'tcn0.weight_bits', 'tcn0.bias_bits', 'tcn0.quantize_activation', 'tcn0.adjust_output_shift', 'tcn0.shift_quantile', 'tcn0.op.weight', 'tcn0.op.bias']
I - Warm Start: Unexpected Keys ['fc.output_shift', 'fc.weight_bits', 'fc.bias_bits', 'fc.quantize_activation', 'fc.adjust_output_shift', 'fc.shift_quantile', 'fc.op.weight']
I - Model output shape:  torch.Size([16, 5])
I - Model summary
==========================================================================================
Layer (type:depth-idx)                   Output Shape              Param #
==========================================================================================
TCNv18                                   [16, 5]                   --
├─FusedConv2dBNReLU: 1-1                 [16, 128, 64, 64]         6
│    └─ReLU: 2-1719                      [16, 128, 64, 64]         --
│    └─Conv2d: 2-2                       --                        6,272
│    └─BatchNorm2d: 2-1717               [16, 128, 64, 64]         --
│    └─OutputShiftSqueeze: 2-4           --                        --
│    └─One: 2-5                          [1]                       --
│    └─Scaler: 2-1718                    [16, 128, 64, 64]         --
│    └─OutputScale: 2-7                  --                        --
│    └─Empty: 2-8                        [128, 48, 1, 1]           --
│    └─Empty: 2-9                        [128, 48, 1, 1]           --
│    └─Empty: 2-10                       [128]                     --
│    └─Empty: 2-11                       [128]                     --
│    └─BatchNorm2d: 2-12                 [16, 128, 64, 64]         --
│    └─Scaler: 2-13                      [16, 128, 64, 64]         --
│    └─ReLU: 2-14                        [16, 128, 64, 64]         --
│    └─Empty: 2-15                       [16, 128, 64, 64]         --
├─FusedMaxPoolConv2dBNReLU: 1-172        [16, 128, 32, 32]         (recursive)
│    └─ReLU: 2-1734                      [16, 128, 32, 32]         --
│    └─MaxPool2d: 2-1722                 [16, 128, 32, 32]         --
│    └─Conv2d: 2-18                      --                        147,584
│    └─BatchNorm2d: 2-1732               [16, 128, 32, 32]         --
├─FusedConv2dBNReLU: 1                   --                        --
│    └─Clamp: 2-20                       [16, 128, 64, 64]         --
├─FusedMaxPoolConv2dBNReLU: 1-3          [16, 128, 32, 32]         147,590
│    └─Scaler: 2-1733                    [16, 128, 32, 32]         --
│    └─MaxPool2d: 2-22                   [16, 128, 32, 32]         --
│    └─Empty: 2-23                       [16, 128, 32, 32]         --
│    └─Empty: 2-24                       [16, 128, 32, 32]         --
│    └─OutputShiftSqueeze: 2-25          --                        --
│    └─One: 2-26                         [1]                       --
│    └─OutputScale: 2-27                 --                        --
│    └─Empty: 2-28                       [128, 128, 3, 3]          --
│    └─Empty: 2-29                       [128, 128, 3, 3]          --
│    └─Empty: 2-30                       [128]                     --
├─FusedMaxPoolConv2dBNReLU: 1-174        [16, 128, 16, 16]         (recursive)
│    └─ReLU: 2-1749                      [16, 128, 16, 16]         --
│    └─MaxPool2d: 2-1737                 [16, 128, 16, 16]         --
│    └─Conv2d: 2-33                      --                        147,584
│    └─BatchNorm2d: 2-1747               [16, 128, 16, 16]         --
├─FusedMaxPoolConv2dBNReLU: 1            --                        --
│    └─Empty: 2-35                       [128]                     --
│    └─BatchNorm2d: 2-36                 [16, 128, 32, 32]         --
├─FusedMaxPoolConv2dBNReLU: 1            --                        --
│    └─Scaler: 2-1748                    [16, 128, 16, 16]         --
├─FusedMaxPoolConv2dBNReLU: 1            --                        --
│    └─Scaler: 2-38                      [16, 128, 32, 32]         --
│    └─ReLU: 2-39                        [16, 128, 32, 32]         --
│    └─Empty: 2-40                       [16, 128, 32, 32]         --
│    └─Clamp: 2-41                       [16, 128, 32, 32]         --
├─Dropout2d: 1-5                         [16, 128, 32, 32]         --
├─FusedMaxPoolConv2dBNReLU: 1-6          [16, 128, 16, 16]         131,078
│    └─MaxPool2d: 2-42                   [16, 128, 16, 16]         --
│    └─Empty: 2-1738                     [16, 128, 16, 16]         --
│    └─Empty: 2-1739                     [16, 128, 16, 16]         --
│    └─Empty: 2-45                       [16, 128, 16, 16]         --
├─FusedConv2dBNReLU: 1                   --                        --
│    └─ReLU: 2-1761                      [16, 128, 16, 16]         --
│    └─Conv2d: 2-47                      --                        16,512
│    └─BatchNorm2d: 2-1759               [16, 128, 16, 16]         --
├─FusedMaxPoolConv2dBNReLU: 1            --                        --
│    └─Empty: 2-49                       [16, 128, 16, 16]         --
│    └─OutputShiftSqueeze: 2-50          --                        --
├─FusedConv2dBNReLU: 1                   --                        --
│    └─Scaler: 2-1760                    [16, 128, 16, 16]         --
├─FusedMaxPoolConv2dBNReLU: 1            --                        --
│    └─One: 2-52                         [1]                       --
│    └─OutputScale: 2-53                 --                        --
│    └─Empty: 2-54                       [128, 128, 3, 3]          --
│    └─Empty: 2-55                       [128, 128, 3, 3]          --
│    └─Empty: 2-56                       [128]                     --
│    └─Empty: 2-57                       [128]                     --
│    └─BatchNorm2d: 2-58                 [16, 128, 16, 16]         --
│    └─Scaler: 2-59                      [16, 128, 16, 16]         --
│    └─ReLU: 2-60                        [16, 128, 16, 16]         --
├─FusedMaxPoolConv2dBNReLU: 1-176        [16, 128, 16, 16]         (recursive)
│    └─ReLU: 2-1776                      [16, 128, 16, 16]         --
│    └─MaxPool2d: 2-1764                 [16, 128, 16, 16]         --
│    └─Conv2d: 2-63                      --                        147,584
│    └─BatchNorm2d: 2-1774               [16, 128, 16, 16]         --
├─FusedMaxPoolConv2dBNReLU: 1            --                        --
│    └─Empty: 2-65                       [16, 128, 16, 16]         --
│    └─Clamp: 2-66                       [16, 128, 16, 16]         --
├─FusedMaxPoolConv2dBNReLU: 1            --                        --
│    └─Scaler: 2-1775                    [16, 128, 16, 16]         --
├─FusedConv2dBNReLU: 1-8                 [16, 128, 16, 16]         16,518
│    └─OutputShiftSqueeze: 2-68          --                        --
│    └─One: 2-69                         [1]                       --
│    └─OutputScale: 2-70                 --                        --
│    └─Empty: 2-71                       [128, 128, 1, 1]          --
│    └─Empty: 2-72                       [128, 128, 1, 1]          --
│    └─Empty: 2-73                       [128]                     --
│    └─Empty: 2-74                       [128]                     --
│    └─BatchNorm2d: 2-75                 [16, 128, 16, 16]         --
├─FusedMaxPoolConv2dBNReLU: 1-178        [16, 128, 8, 8]           (recursive)
│    └─ReLU: 2-1791                      [16, 128, 8, 8]           --
│    └─MaxPool2d: 2-1779                 [16, 128, 8, 8]           --
│    └─Conv2d: 2-78                      --                        147,584
│    └─BatchNorm2d: 2-1789               [16, 128, 8, 8]           --
├─FusedConv2dBNReLU: 1                   --                        --
│    └─Scaler: 2-80                      [16, 128, 16, 16]         --
│    └─ReLU: 2-81                        [16, 128, 16, 16]         --
├─FusedMaxPoolConv2dBNReLU: 1            --                        --
│    └─Scaler: 2-1790                    [16, 128, 8, 8]           --
├─FusedConv2dBNReLU: 1                   --                        --
│    └─Empty: 2-83                       [16, 128, 16, 16]         --
│    └─Clamp: 2-84                       [16, 128, 16, 16]         --
├─FusedMaxPoolConv2dBNReLU: 1-10         [16, 128, 16, 16]         145,526
│    └─MaxPool2d: 2-85                   [16, 128, 16, 16]         --
│    └─Empty: 2-86                       [16, 128, 16, 16]         --
│    └─Empty: 2-87                       [16, 128, 16, 16]         --
│    └─OutputShiftSqueeze: 2-88          --                        --
├─FusedMaxPoolConv2dBNReLU: 1            --                        --
│    └─Empty: 2-1780                     [16, 128, 8, 8]           --
│    └─Empty: 2-1781                     [16, 128, 8, 8]           --
├─FusedMaxPoolConv2dBNReLU: 1            --                        --
│    └─One: 2-91                         [1]                       --
├─FusedConv2dBNReLU: 1                   --                        --
│    └─ReLU: 2-1803                      [16, 16, 8, 8]            --
│    └─Conv2d: 2-93                      --                        2,064
│    └─BatchNorm2d: 2-1801               [16, 16, 8, 8]            --
├─FusedMaxPoolConv2dBNReLU: 1            --                        --
│    └─OutputScale: 2-95                 --                        --
│    └─Empty: 2-96                       [128, 128, 3, 3]          --
├─FusedConv2dBNReLU: 1                   --                        --
│    └─Scaler: 2-1802                    [16, 16, 8, 8]            --
├─FusedMaxPoolConv2dBNReLU: 1            --                        --
│    └─Empty: 2-98                       [128, 128, 3, 3]          --
│    └─Empty: 2-99                       [128]                     --
│    └─Empty: 2-100                      [128]                     --
│    └─BatchNorm2d: 2-101                [16, 128, 16, 16]         --
│    └─Scaler: 2-102                     [16, 128, 16, 16]         --
│    └─ReLU: 2-103                       [16, 128, 16, 16]         --
│    └─Empty: 2-104                      [16, 128, 16, 16]         --
│    └─Clamp: 2-105                      [16, 128, 16, 16]         --
├─Dropout2d: 1-11                        [16, 128, 16, 16]         --
├─FusedMaxPoolConv2dBNReLU: 1-180        [16, 16, 8, 8]            (recursive)
│    └─ReLU: 2-1818                      [16, 16, 8, 8]            --
│    └─MaxPool2d: 2-1806                 [16, 128, 8, 8]           --
│    └─Conv2d: 2-108                     --                        18,448
│    └─BatchNorm2d: 2-1816               [16, 16, 8, 8]            --
├─FusedMaxPoolConv2dBNReLU: 1-13         [16, 128, 8, 8]           147,590
│    └─MaxPool2d: 2-110                  [16, 128, 8, 8]           --
├─FusedMaxPoolConv2dBNReLU: 1            --                        --
│    └─Scaler: 2-1817                    [16, 16, 8, 8]            --
├─FusedMaxPoolConv2dBNReLU: 1            --                        --
│    └─Empty: 2-112                      [16, 128, 8, 8]           --
│    └─Empty: 2-113                      [16, 128, 8, 8]           --
│    └─OutputShiftSqueeze: 2-114         --                        --
│    └─One: 2-115                        [1]                       --
│    └─OutputScale: 2-116                --                        --
│    └─Empty: 2-117                      [128, 128, 3, 3]          --
│    └─Empty: 2-118                      [128, 128, 3, 3]          --
├─FusedMaxPoolConv2dBNReLU: 1            --                        --
│    └─Empty: 2-1807                     [16, 128, 8, 8]           --
│    └─Empty: 2-1808                     [16, 128, 8, 8]           --
├─FusedMaxPoolConv2dBNReLU: 1            --                        --
│    └─Empty: 2-121                      [128]                     --
│    └─Empty: 2-122                      [128]                     --
│    └─BatchNorm2d: 2-123                [16, 128, 8, 8]           --
│    └─Scaler: 2-124                     [16, 128, 8, 8]           --
│    └─ReLU: 2-125                       [16, 128, 8, 8]           --
│    └─Empty: 2-126                      [16, 128, 8, 8]           --
│    └─Clamp: 2-127                      [16, 128, 8, 8]           --
├─FusedConv2dBNReLU: 1-14                [16, 16, 8, 8]            2,070
├─Conv1d: 1                              --                        --
│    └─Scaler: 2-1828                    [16, 5, 16]               --
├─FusedConv2dBNReLU: 1                   --                        --
│    └─OutputShiftSqueeze: 2-129         --                        --
│    └─One: 2-130                        [1]                       --
│    └─OutputScale: 2-131                --                        --
│    └─Empty: 2-132                      [16, 128, 1, 1]           --
│    └─Empty: 2-133                      [16, 128, 1, 1]           --
│    └─Empty: 2-134                      [16]                      --
│    └─Empty: 2-135                      [16]                      --
│    └─BatchNorm2d: 2-136                [16, 16, 8, 8]            --
│    └─Scaler: 2-137                     [16, 16, 8, 8]            --
│    └─ReLU: 2-138                       [16, 16, 8, 8]            --
│    └─Empty: 2-139                      [16, 16, 8, 8]            --
│    └─Clamp: 2-140                      [16, 16, 8, 8]            --
├─FusedMaxPoolConv2dBNReLU: 1-15         [16, 16, 8, 8]            18,454
│    └─MaxPool2d: 2-141                  [16, 128, 8, 8]           --
│    └─Empty: 2-142                      [16, 128, 8, 8]           --
│    └─Empty: 2-143                      [16, 128, 8, 8]           --
│    └─OutputShiftSqueeze: 2-144         --                        --
│    └─One: 2-145                        [1]                       --
│    └─OutputScale: 2-146                --                        --
│    └─Empty: 2-147                      [16, 128, 3, 3]           --
│    └─Empty: 2-148                      [16, 128, 3, 3]           --
│    └─Empty: 2-149                      [16]                      --
│    └─Empty: 2-150                      [16]                      --
│    └─BatchNorm2d: 2-151                [16, 16, 8, 8]            --
│    └─Scaler: 2-152                     [16, 16, 8, 8]            --
│    └─ReLU: 2-153                       [16, 16, 8, 8]            --
│    └─Empty: 2-154                      [16, 16, 8, 8]            --
│    └─Clamp: 2-155                      [16, 16, 8, 8]            --
├─Dropout2d: 1-16                        [16, 16, 8, 8]            --
├─FusedConv2dBNReLU: 1-17                [16, 128, 64, 64]         (recursive)
│    └─OutputShiftSqueeze: 2-156         --                        --
│    └─One: 2-157                        [1]                       --
│    └─OutputScale: 2-158                --                        --
│    └─Empty: 2-159                      [128, 48, 1, 1]           --
│    └─Empty: 2-160                      [128, 48, 1, 1]           --
│    └─Empty: 2-161                      [128]                     --
│    └─Empty: 2-162                      [128]                     --
│    └─BatchNorm2d: 2-163                [16, 128, 64, 64]         --
│    └─Scaler: 2-164                     [16, 128, 64, 64]         --
│    └─ReLU: 2-165                       [16, 128, 64, 64]         --
│    └─Empty: 2-166                      [16, 128, 64, 64]         --
│    └─Clamp: 2-167                      [16, 128, 64, 64]         --
├─FusedMaxPoolConv2dBNReLU: 1-18         [16, 128, 32, 32]         (recursive)
│    └─MaxPool2d: 2-168                  [16, 128, 32, 32]         --
│    └─Empty: 2-169                      [16, 128, 32, 32]         --
│    └─Empty: 2-170                      [16, 128, 32, 32]         --
│    └─OutputShiftSqueeze: 2-171         --                        --
│    └─One: 2-172                        [1]                       --
│    └─OutputScale: 2-173                --                        --
│    └─Empty: 2-174                      [128, 128, 3, 3]          --
│    └─Empty: 2-175                      [128, 128, 3, 3]          --
│    └─Empty: 2-176                      [128]                     --
│    └─Empty: 2-177                      [128]                     --
│    └─BatchNorm2d: 2-178                [16, 128, 32, 32]         --
│    └─Scaler: 2-179                     [16, 128, 32, 32]         --
│    └─ReLU: 2-180                       [16, 128, 32, 32]         --
│    └─Empty: 2-181                      [16, 128, 32, 32]         --
│    └─Clamp: 2-182                      [16, 128, 32, 32]         --
├─Dropout2d: 1-19                        [16, 128, 32, 32]         --
├─FusedMaxPoolConv2dBNReLU: 1-20         [16, 128, 16, 16]         (recursive)
│    └─MaxPool2d: 2-183                  [16, 128, 16, 16]         --
│    └─Empty: 2-184                      [16, 128, 16, 16]         --
│    └─Empty: 2-185                      [16, 128, 16, 16]         --
│    └─OutputShiftSqueeze: 2-186         --                        --
│    └─One: 2-187                        [1]                       --
│    └─OutputScale: 2-188                --                        --
│    └─Empty: 2-189                      [128, 128, 3, 3]          --
│    └─Empty: 2-190                      [128, 128, 3, 3]          --
│    └─Empty: 2-191                      [128]                     --
│    └─Empty: 2-192                      [128]                     --
│    └─BatchNorm2d: 2-193                [16, 128, 16, 16]         --
│    └─Scaler: 2-194                     [16, 128, 16, 16]         --
│    └─ReLU: 2-195                       [16, 128, 16, 16]         --
│    └─Empty: 2-196                      [16, 128, 16, 16]         --
│    └─Clamp: 2-197                      [16, 128, 16, 16]         --
├─FusedConv2dBNReLU: 1-21                [16, 128, 16, 16]         (recursive)
│    └─OutputShiftSqueeze: 2-198         --                        --
│    └─One: 2-199                        [1]                       --
│    └─OutputScale: 2-200                --                        --
│    └─Empty: 2-201                      [128, 128, 1, 1]          --
│    └─Empty: 2-202                      [128, 128, 1, 1]          --
│    └─Empty: 2-203                      [128]                     --
│    └─Empty: 2-204                      [128]                     --
│    └─BatchNorm2d: 2-205                [16, 128, 16, 16]         --
│    └─Scaler: 2-206                     [16, 128, 16, 16]         --
│    └─ReLU: 2-207                       [16, 128, 16, 16]         --
│    └─Empty: 2-208                      [16, 128, 16, 16]         --
│    └─Clamp: 2-209                      [16, 128, 16, 16]         --
├─FusedMaxPoolConv2dBNReLU: 1-22         [16, 128, 16, 16]         (recursive)
│    └─MaxPool2d: 2-210                  [16, 128, 16, 16]         --
│    └─Empty: 2-211                      [16, 128, 16, 16]         --
│    └─Empty: 2-212                      [16, 128, 16, 16]         --
│    └─OutputShiftSqueeze: 2-213         --                        --
│    └─One: 2-214                        [1]                       --
│    └─OutputScale: 2-215                --                        --
│    └─Empty: 2-216                      [128, 128, 3, 3]          --
│    └─Empty: 2-217                      [128, 128, 3, 3]          --
│    └─Empty: 2-218                      [128]                     --
│    └─Empty: 2-219                      [128]                     --
│    └─BatchNorm2d: 2-220                [16, 128, 16, 16]         --
│    └─Scaler: 2-221                     [16, 128, 16, 16]         --
│    └─ReLU: 2-222                       [16, 128, 16, 16]         --
│    └─Empty: 2-223                      [16, 128, 16, 16]         --
│    └─Clamp: 2-224                      [16, 128, 16, 16]         --
├─Dropout2d: 1-23                        [16, 128, 16, 16]         --
├─FusedMaxPoolConv2dBNReLU: 1-24         [16, 128, 8, 8]           (recursive)
│    └─MaxPool2d: 2-225                  [16, 128, 8, 8]           --
│    └─Empty: 2-226                      [16, 128, 8, 8]           --
│    └─Empty: 2-227                      [16, 128, 8, 8]           --
│    └─OutputShiftSqueeze: 2-228         --                        --
│    └─One: 2-229                        [1]                       --
│    └─OutputScale: 2-230                --                        --
│    └─Empty: 2-231                      [128, 128, 3, 3]          --
│    └─Empty: 2-232                      [128, 128, 3, 3]          --
│    └─Empty: 2-233                      [128]                     --
│    └─Empty: 2-234                      [128]                     --
│    └─BatchNorm2d: 2-235                [16, 128, 8, 8]           --
│    └─Scaler: 2-236                     [16, 128, 8, 8]           --
│    └─ReLU: 2-237                       [16, 128, 8, 8]           --
│    └─Empty: 2-238                      [16, 128, 8, 8]           --
│    └─Clamp: 2-239                      [16, 128, 8, 8]           --
├─FusedConv2dBNReLU: 1-25                [16, 16, 8, 8]            (recursive)
│    └─OutputShiftSqueeze: 2-240         --                        --
│    └─One: 2-241                        [1]                       --
│    └─OutputScale: 2-242                --                        --
│    └─Empty: 2-243                      [16, 128, 1, 1]           --
│    └─Empty: 2-244                      [16, 128, 1, 1]           --
│    └─Empty: 2-245                      [16]                      --
│    └─Empty: 2-246                      [16]                      --
│    └─BatchNorm2d: 2-247                [16, 16, 8, 8]            --
│    └─Scaler: 2-248                     [16, 16, 8, 8]            --
│    └─ReLU: 2-249                       [16, 16, 8, 8]            --
│    └─Empty: 2-250                      [16, 16, 8, 8]            --
│    └─Clamp: 2-251                      [16, 16, 8, 8]            --
├─FusedMaxPoolConv2dBNReLU: 1-26         [16, 16, 8, 8]            (recursive)
│    └─MaxPool2d: 2-252                  [16, 128, 8, 8]           --
│    └─Empty: 2-253                      [16, 128, 8, 8]           --
│    └─Empty: 2-254                      [16, 128, 8, 8]           --
│    └─OutputShiftSqueeze: 2-255         --                        --
│    └─One: 2-256                        [1]                       --
│    └─OutputScale: 2-257                --                        --
│    └─Empty: 2-258                      [16, 128, 3, 3]           --
│    └─Empty: 2-259                      [16, 128, 3, 3]           --
│    └─Empty: 2-260                      [16]                      --
│    └─Empty: 2-261                      [16]                      --
│    └─BatchNorm2d: 2-262                [16, 16, 8, 8]            --
│    └─Scaler: 2-263                     [16, 16, 8, 8]            --
│    └─ReLU: 2-264                       [16, 16, 8, 8]            --
│    └─Empty: 2-265                      [16, 16, 8, 8]            --
│    └─Clamp: 2-266                      [16, 16, 8, 8]            --
├─Dropout2d: 1-27                        [16, 16, 8, 8]            --
├─FusedConv2dBNReLU: 1-28                [16, 128, 64, 64]         (recursive)
│    └─OutputShiftSqueeze: 2-267         --                        --
│    └─One: 2-268                        [1]                       --
│    └─OutputScale: 2-269                --                        --
│    └─Empty: 2-270                      [128, 48, 1, 1]           --
│    └─Empty: 2-271                      [128, 48, 1, 1]           --
│    └─Empty: 2-272                      [128]                     --
│    └─Empty: 2-273                      [128]                     --
│    └─BatchNorm2d: 2-274                [16, 128, 64, 64]         --
│    └─Scaler: 2-275                     [16, 128, 64, 64]         --
│    └─ReLU: 2-276                       [16, 128, 64, 64]         --
│    └─Empty: 2-277                      [16, 128, 64, 64]         --
│    └─Clamp: 2-278                      [16, 128, 64, 64]         --
├─FusedMaxPoolConv2dBNReLU: 1-29         [16, 128, 32, 32]         (recursive)
│    └─MaxPool2d: 2-279                  [16, 128, 32, 32]         --
│    └─Empty: 2-280                      [16, 128, 32, 32]         --
│    └─Empty: 2-281                      [16, 128, 32, 32]         --
│    └─OutputShiftSqueeze: 2-282         --                        --
│    └─One: 2-283                        [1]                       --
│    └─OutputScale: 2-284                --                        --
│    └─Empty: 2-285                      [128, 128, 3, 3]          --
│    └─Empty: 2-286                      [128, 128, 3, 3]          --
│    └─Empty: 2-287                      [128]                     --
│    └─Empty: 2-288                      [128]                     --
│    └─BatchNorm2d: 2-289                [16, 128, 32, 32]         --
│    └─Scaler: 2-290                     [16, 128, 32, 32]         --
│    └─ReLU: 2-291                       [16, 128, 32, 32]         --
│    └─Empty: 2-292                      [16, 128, 32, 32]         --
│    └─Clamp: 2-293                      [16, 128, 32, 32]         --
├─Dropout2d: 1-30                        [16, 128, 32, 32]         --
├─FusedMaxPoolConv2dBNReLU: 1-31         [16, 128, 16, 16]         (recursive)
│    └─MaxPool2d: 2-294                  [16, 128, 16, 16]         --
│    └─Empty: 2-295                      [16, 128, 16, 16]         --
│    └─Empty: 2-296                      [16, 128, 16, 16]         --
│    └─OutputShiftSqueeze: 2-297         --                        --
│    └─One: 2-298                        [1]                       --
│    └─OutputScale: 2-299                --                        --
│    └─Empty: 2-300                      [128, 128, 3, 3]          --
│    └─Empty: 2-301                      [128, 128, 3, 3]          --
│    └─Empty: 2-302                      [128]                     --
│    └─Empty: 2-303                      [128]                     --
│    └─BatchNorm2d: 2-304                [16, 128, 16, 16]         --
│    └─Scaler: 2-305                     [16, 128, 16, 16]         --
│    └─ReLU: 2-306                       [16, 128, 16, 16]         --
│    └─Empty: 2-307                      [16, 128, 16, 16]         --
│    └─Clamp: 2-308                      [16, 128, 16, 16]         --
├─FusedConv2dBNReLU: 1-32                [16, 128, 16, 16]         (recursive)
│    └─OutputShiftSqueeze: 2-309         --                        --
│    └─One: 2-310                        [1]                       --
│    └─OutputScale: 2-311                --                        --
│    └─Empty: 2-312                      [128, 128, 1, 1]          --
│    └─Empty: 2-313                      [128, 128, 1, 1]          --
│    └─Empty: 2-314                      [128]                     --
│    └─Empty: 2-315                      [128]                     --
│    └─BatchNorm2d: 2-316                [16, 128, 16, 16]         --
│    └─Scaler: 2-317                     [16, 128, 16, 16]         --
│    └─ReLU: 2-318                       [16, 128, 16, 16]         --
│    └─Empty: 2-319                      [16, 128, 16, 16]         --
│    └─Clamp: 2-320                      [16, 128, 16, 16]         --
├─FusedMaxPoolConv2dBNReLU: 1-33         [16, 128, 16, 16]         (recursive)
│    └─MaxPool2d: 2-321                  [16, 128, 16, 16]         --
│    └─Empty: 2-322                      [16, 128, 16, 16]         --
│    └─Empty: 2-323                      [16, 128, 16, 16]         --
│    └─OutputShiftSqueeze: 2-324         --                        --
│    └─One: 2-325                        [1]                       --
│    └─OutputScale: 2-326                --                        --
│    └─Empty: 2-327                      [128, 128, 3, 3]          --
│    └─Empty: 2-328                      [128, 128, 3, 3]          --
│    └─Empty: 2-329                      [128]                     --
│    └─Empty: 2-330                      [128]                     --
│    └─BatchNorm2d: 2-331                [16, 128, 16, 16]         --
│    └─Scaler: 2-332                     [16, 128, 16, 16]         --
│    └─ReLU: 2-333                       [16, 128, 16, 16]         --
│    └─Empty: 2-334                      [16, 128, 16, 16]         --
│    └─Clamp: 2-335                      [16, 128, 16, 16]         --
├─Dropout2d: 1-34                        [16, 128, 16, 16]         --
├─FusedMaxPoolConv2dBNReLU: 1-35         [16, 128, 8, 8]           (recursive)
│    └─MaxPool2d: 2-336                  [16, 128, 8, 8]           --
│    └─Empty: 2-337                      [16, 128, 8, 8]           --
│    └─Empty: 2-338                      [16, 128, 8, 8]           --
│    └─OutputShiftSqueeze: 2-339         --                        --
│    └─One: 2-340                        [1]                       --
│    └─OutputScale: 2-341                --                        --
│    └─Empty: 2-342                      [128, 128, 3, 3]          --
│    └─Empty: 2-343                      [128, 128, 3, 3]          --
│    └─Empty: 2-344                      [128]                     --
│    └─Empty: 2-345                      [128]                     --
│    └─BatchNorm2d: 2-346                [16, 128, 8, 8]           --
│    └─Scaler: 2-347                     [16, 128, 8, 8]           --
│    └─ReLU: 2-348                       [16, 128, 8, 8]           --
│    └─Empty: 2-349                      [16, 128, 8, 8]           --
│    └─Clamp: 2-350                      [16, 128, 8, 8]           --
├─FusedConv2dBNReLU: 1-36                [16, 16, 8, 8]            (recursive)
│    └─OutputShiftSqueeze: 2-351         --                        --
│    └─One: 2-352                        [1]                       --
│    └─OutputScale: 2-353                --                        --
│    └─Empty: 2-354                      [16, 128, 1, 1]           --
│    └─Empty: 2-355                      [16, 128, 1, 1]           --
│    └─Empty: 2-356                      [16]                      --
│    └─Empty: 2-357                      [16]                      --
│    └─BatchNorm2d: 2-358                [16, 16, 8, 8]            --
│    └─Scaler: 2-359                     [16, 16, 8, 8]            --
│    └─ReLU: 2-360                       [16, 16, 8, 8]            --
│    └─Empty: 2-361                      [16, 16, 8, 8]            --
│    └─Clamp: 2-362                      [16, 16, 8, 8]            --
├─FusedMaxPoolConv2dBNReLU: 1-37         [16, 16, 8, 8]            (recursive)
│    └─MaxPool2d: 2-363                  [16, 128, 8, 8]           --
│    └─Empty: 2-364                      [16, 128, 8, 8]           --
│    └─Empty: 2-365                      [16, 128, 8, 8]           --
│    └─OutputShiftSqueeze: 2-366         --                        --
│    └─One: 2-367                        [1]                       --
│    └─OutputScale: 2-368                --                        --
│    └─Empty: 2-369                      [16, 128, 3, 3]           --
│    └─Empty: 2-370                      [16, 128, 3, 3]           --
│    └─Empty: 2-371                      [16]                      --
│    └─Empty: 2-372                      [16]                      --
│    └─BatchNorm2d: 2-373                [16, 16, 8, 8]            --
│    └─Scaler: 2-374                     [16, 16, 8, 8]            --
│    └─ReLU: 2-375                       [16, 16, 8, 8]            --
│    └─Empty: 2-376                      [16, 16, 8, 8]            --
│    └─Clamp: 2-377                      [16, 16, 8, 8]            --
├─Dropout2d: 1-38                        [16, 16, 8, 8]            --
├─FusedConv2dBNReLU: 1-39                [16, 128, 64, 64]         (recursive)
│    └─OutputShiftSqueeze: 2-378         --                        --
│    └─One: 2-379                        [1]                       --
│    └─OutputScale: 2-380                --                        --
│    └─Empty: 2-381                      [128, 48, 1, 1]           --
│    └─Empty: 2-382                      [128, 48, 1, 1]           --
│    └─Empty: 2-383                      [128]                     --
│    └─Empty: 2-384                      [128]                     --
│    └─BatchNorm2d: 2-385                [16, 128, 64, 64]         --
│    └─Scaler: 2-386                     [16, 128, 64, 64]         --
│    └─ReLU: 2-387                       [16, 128, 64, 64]         --
│    └─Empty: 2-388                      [16, 128, 64, 64]         --
│    └─Clamp: 2-389                      [16, 128, 64, 64]         --
├─FusedMaxPoolConv2dBNReLU: 1-40         [16, 128, 32, 32]         (recursive)
│    └─MaxPool2d: 2-390                  [16, 128, 32, 32]         --
│    └─Empty: 2-391                      [16, 128, 32, 32]         --
│    └─Empty: 2-392                      [16, 128, 32, 32]         --
│    └─OutputShiftSqueeze: 2-393         --                        --
│    └─One: 2-394                        [1]                       --
│    └─OutputScale: 2-395                --                        --
│    └─Empty: 2-396                      [128, 128, 3, 3]          --
│    └─Empty: 2-397                      [128, 128, 3, 3]          --
│    └─Empty: 2-398                      [128]                     --
│    └─Empty: 2-399                      [128]                     --
│    └─BatchNorm2d: 2-400                [16, 128, 32, 32]         --
│    └─Scaler: 2-401                     [16, 128, 32, 32]         --
│    └─ReLU: 2-402                       [16, 128, 32, 32]         --
│    └─Empty: 2-403                      [16, 128, 32, 32]         --
│    └─Clamp: 2-404                      [16, 128, 32, 32]         --
├─Dropout2d: 1-41                        [16, 128, 32, 32]         --
├─FusedMaxPoolConv2dBNReLU: 1-42         [16, 128, 16, 16]         (recursive)
│    └─MaxPool2d: 2-405                  [16, 128, 16, 16]         --
│    └─Empty: 2-406                      [16, 128, 16, 16]         --
│    └─Empty: 2-407                      [16, 128, 16, 16]         --
│    └─OutputShiftSqueeze: 2-408         --                        --
│    └─One: 2-409                        [1]                       --
│    └─OutputScale: 2-410                --                        --
│    └─Empty: 2-411                      [128, 128, 3, 3]          --
│    └─Empty: 2-412                      [128, 128, 3, 3]          --
│    └─Empty: 2-413                      [128]                     --
│    └─Empty: 2-414                      [128]                     --
│    └─BatchNorm2d: 2-415                [16, 128, 16, 16]         --
│    └─Scaler: 2-416                     [16, 128, 16, 16]         --
│    └─ReLU: 2-417                       [16, 128, 16, 16]         --
│    └─Empty: 2-418                      [16, 128, 16, 16]         --
│    └─Clamp: 2-419                      [16, 128, 16, 16]         --
├─FusedConv2dBNReLU: 1-43                [16, 128, 16, 16]         (recursive)
│    └─OutputShiftSqueeze: 2-420         --                        --
│    └─One: 2-421                        [1]                       --
│    └─OutputScale: 2-422                --                        --
│    └─Empty: 2-423                      [128, 128, 1, 1]          --
│    └─Empty: 2-424                      [128, 128, 1, 1]          --
│    └─Empty: 2-425                      [128]                     --
│    └─Empty: 2-426                      [128]                     --
│    └─BatchNorm2d: 2-427                [16, 128, 16, 16]         --
│    └─Scaler: 2-428                     [16, 128, 16, 16]         --
│    └─ReLU: 2-429                       [16, 128, 16, 16]         --
│    └─Empty: 2-430                      [16, 128, 16, 16]         --
│    └─Clamp: 2-431                      [16, 128, 16, 16]         --
├─FusedMaxPoolConv2dBNReLU: 1-44         [16, 128, 16, 16]         (recursive)
│    └─MaxPool2d: 2-432                  [16, 128, 16, 16]         --
│    └─Empty: 2-433                      [16, 128, 16, 16]         --
│    └─Empty: 2-434                      [16, 128, 16, 16]         --
│    └─OutputShiftSqueeze: 2-435         --                        --
│    └─One: 2-436                        [1]                       --
│    └─OutputScale: 2-437                --                        --
│    └─Empty: 2-438                      [128, 128, 3, 3]          --
│    └─Empty: 2-439                      [128, 128, 3, 3]          --
│    └─Empty: 2-440                      [128]                     --
│    └─Empty: 2-441                      [128]                     --
│    └─BatchNorm2d: 2-442                [16, 128, 16, 16]         --
│    └─Scaler: 2-443                     [16, 128, 16, 16]         --
│    └─ReLU: 2-444                       [16, 128, 16, 16]         --
│    └─Empty: 2-445                      [16, 128, 16, 16]         --
│    └─Clamp: 2-446                      [16, 128, 16, 16]         --
├─Dropout2d: 1-45                        [16, 128, 16, 16]         --
├─FusedMaxPoolConv2dBNReLU: 1-46         [16, 128, 8, 8]           (recursive)
│    └─MaxPool2d: 2-447                  [16, 128, 8, 8]           --
│    └─Empty: 2-448                      [16, 128, 8, 8]           --
│    └─Empty: 2-449                      [16, 128, 8, 8]           --
│    └─OutputShiftSqueeze: 2-450         --                        --
│    └─One: 2-451                        [1]                       --
│    └─OutputScale: 2-452                --                        --
│    └─Empty: 2-453                      [128, 128, 3, 3]          --
│    └─Empty: 2-454                      [128, 128, 3, 3]          --
│    └─Empty: 2-455                      [128]                     --
│    └─Empty: 2-456                      [128]                     --
│    └─BatchNorm2d: 2-457                [16, 128, 8, 8]           --
│    └─Scaler: 2-458                     [16, 128, 8, 8]           --
│    └─ReLU: 2-459                       [16, 128, 8, 8]           --
│    └─Empty: 2-460                      [16, 128, 8, 8]           --
│    └─Clamp: 2-461                      [16, 128, 8, 8]           --
├─FusedConv2dBNReLU: 1-47                [16, 16, 8, 8]            (recursive)
│    └─OutputShiftSqueeze: 2-462         --                        --
│    └─One: 2-463                        [1]                       --
│    └─OutputScale: 2-464                --                        --
│    └─Empty: 2-465                      [16, 128, 1, 1]           --
│    └─Empty: 2-466                      [16, 128, 1, 1]           --
│    └─Empty: 2-467                      [16]                      --
│    └─Empty: 2-468                      [16]                      --
│    └─BatchNorm2d: 2-469                [16, 16, 8, 8]            --
│    └─Scaler: 2-470                     [16, 16, 8, 8]            --
│    └─ReLU: 2-471                       [16, 16, 8, 8]            --
│    └─Empty: 2-472                      [16, 16, 8, 8]            --
│    └─Clamp: 2-473                      [16, 16, 8, 8]            --
├─FusedMaxPoolConv2dBNReLU: 1-48         [16, 16, 8, 8]            (recursive)
│    └─MaxPool2d: 2-474                  [16, 128, 8, 8]           --
│    └─Empty: 2-475                      [16, 128, 8, 8]           --
│    └─Empty: 2-476                      [16, 128, 8, 8]           --
│    └─OutputShiftSqueeze: 2-477         --                        --
│    └─One: 2-478                        [1]                       --
│    └─OutputScale: 2-479                --                        --
│    └─Empty: 2-480                      [16, 128, 3, 3]           --
│    └─Empty: 2-481                      [16, 128, 3, 3]           --
│    └─Empty: 2-482                      [16]                      --
│    └─Empty: 2-483                      [16]                      --
│    └─BatchNorm2d: 2-484                [16, 16, 8, 8]            --
│    └─Scaler: 2-485                     [16, 16, 8, 8]            --
│    └─ReLU: 2-486                       [16, 16, 8, 8]            --
│    └─Empty: 2-487                      [16, 16, 8, 8]            --
│    └─Clamp: 2-488                      [16, 16, 8, 8]            --
├─Dropout2d: 1-49                        [16, 16, 8, 8]            --
├─FusedConv2dBNReLU: 1-50                [16, 128, 64, 64]         (recursive)
│    └─OutputShiftSqueeze: 2-489         --                        --
│    └─One: 2-490                        [1]                       --
│    └─OutputScale: 2-491                --                        --
│    └─Empty: 2-492                      [128, 48, 1, 1]           --
│    └─Empty: 2-493                      [128, 48, 1, 1]           --
│    └─Empty: 2-494                      [128]                     --
│    └─Empty: 2-495                      [128]                     --
│    └─BatchNorm2d: 2-496                [16, 128, 64, 64]         --
│    └─Scaler: 2-497                     [16, 128, 64, 64]         --
│    └─ReLU: 2-498                       [16, 128, 64, 64]         --
│    └─Empty: 2-499                      [16, 128, 64, 64]         --
│    └─Clamp: 2-500                      [16, 128, 64, 64]         --
├─FusedMaxPoolConv2dBNReLU: 1-51         [16, 128, 32, 32]         (recursive)
│    └─MaxPool2d: 2-501                  [16, 128, 32, 32]         --
│    └─Empty: 2-502                      [16, 128, 32, 32]         --
│    └─Empty: 2-503                      [16, 128, 32, 32]         --
│    └─OutputShiftSqueeze: 2-504         --                        --
│    └─One: 2-505                        [1]                       --
│    └─OutputScale: 2-506                --                        --
│    └─Empty: 2-507                      [128, 128, 3, 3]          --
│    └─Empty: 2-508                      [128, 128, 3, 3]          --
│    └─Empty: 2-509                      [128]                     --
│    └─Empty: 2-510                      [128]                     --
│    └─BatchNorm2d: 2-511                [16, 128, 32, 32]         --
│    └─Scaler: 2-512                     [16, 128, 32, 32]         --
│    └─ReLU: 2-513                       [16, 128, 32, 32]         --
│    └─Empty: 2-514                      [16, 128, 32, 32]         --
│    └─Clamp: 2-515                      [16, 128, 32, 32]         --
├─Dropout2d: 1-52                        [16, 128, 32, 32]         --
├─FusedMaxPoolConv2dBNReLU: 1-53         [16, 128, 16, 16]         (recursive)
│    └─MaxPool2d: 2-516                  [16, 128, 16, 16]         --
│    └─Empty: 2-517                      [16, 128, 16, 16]         --
│    └─Empty: 2-518                      [16, 128, 16, 16]         --
│    └─OutputShiftSqueeze: 2-519         --                        --
│    └─One: 2-520                        [1]                       --
│    └─OutputScale: 2-521                --                        --
│    └─Empty: 2-522                      [128, 128, 3, 3]          --
│    └─Empty: 2-523                      [128, 128, 3, 3]          --
│    └─Empty: 2-524                      [128]                     --
│    └─Empty: 2-525                      [128]                     --
│    └─BatchNorm2d: 2-526                [16, 128, 16, 16]         --
│    └─Scaler: 2-527                     [16, 128, 16, 16]         --
│    └─ReLU: 2-528                       [16, 128, 16, 16]         --
│    └─Empty: 2-529                      [16, 128, 16, 16]         --
│    └─Clamp: 2-530                      [16, 128, 16, 16]         --
├─FusedConv2dBNReLU: 1-54                [16, 128, 16, 16]         (recursive)
│    └─OutputShiftSqueeze: 2-531         --                        --
│    └─One: 2-532                        [1]                       --
│    └─OutputScale: 2-533                --                        --
│    └─Empty: 2-534                      [128, 128, 1, 1]          --
│    └─Empty: 2-535                      [128, 128, 1, 1]          --
│    └─Empty: 2-536                      [128]                     --
│    └─Empty: 2-537                      [128]                     --
│    └─BatchNorm2d: 2-538                [16, 128, 16, 16]         --
│    └─Scaler: 2-539                     [16, 128, 16, 16]         --
│    └─ReLU: 2-540                       [16, 128, 16, 16]         --
│    └─Empty: 2-541                      [16, 128, 16, 16]         --
│    └─Clamp: 2-542                      [16, 128, 16, 16]         --
├─FusedMaxPoolConv2dBNReLU: 1-55         [16, 128, 16, 16]         (recursive)
│    └─MaxPool2d: 2-543                  [16, 128, 16, 16]         --
│    └─Empty: 2-544                      [16, 128, 16, 16]         --
│    └─Empty: 2-545                      [16, 128, 16, 16]         --
│    └─OutputShiftSqueeze: 2-546         --                        --
│    └─One: 2-547                        [1]                       --
│    └─OutputScale: 2-548                --                        --
│    └─Empty: 2-549                      [128, 128, 3, 3]          --
│    └─Empty: 2-550                      [128, 128, 3, 3]          --
│    └─Empty: 2-551                      [128]                     --
│    └─Empty: 2-552                      [128]                     --
│    └─BatchNorm2d: 2-553                [16, 128, 16, 16]         --
│    └─Scaler: 2-554                     [16, 128, 16, 16]         --
│    └─ReLU: 2-555                       [16, 128, 16, 16]         --
│    └─Empty: 2-556                      [16, 128, 16, 16]         --
│    └─Clamp: 2-557                      [16, 128, 16, 16]         --
├─Dropout2d: 1-56                        [16, 128, 16, 16]         --
├─FusedMaxPoolConv2dBNReLU: 1-57         [16, 128, 8, 8]           (recursive)
│    └─MaxPool2d: 2-558                  [16, 128, 8, 8]           --
│    └─Empty: 2-559                      [16, 128, 8, 8]           --
│    └─Empty: 2-560                      [16, 128, 8, 8]           --
│    └─OutputShiftSqueeze: 2-561         --                        --
│    └─One: 2-562                        [1]                       --
│    └─OutputScale: 2-563                --                        --
│    └─Empty: 2-564                      [128, 128, 3, 3]          --
│    └─Empty: 2-565                      [128, 128, 3, 3]          --
│    └─Empty: 2-566                      [128]                     --
│    └─Empty: 2-567                      [128]                     --
│    └─BatchNorm2d: 2-568                [16, 128, 8, 8]           --
│    └─Scaler: 2-569                     [16, 128, 8, 8]           --
│    └─ReLU: 2-570                       [16, 128, 8, 8]           --
│    └─Empty: 2-571                      [16, 128, 8, 8]           --
│    └─Clamp: 2-572                      [16, 128, 8, 8]           --
├─FusedConv2dBNReLU: 1-58                [16, 16, 8, 8]            (recursive)
│    └─OutputShiftSqueeze: 2-573         --                        --
│    └─One: 2-574                        [1]                       --
│    └─OutputScale: 2-575                --                        --
│    └─Empty: 2-576                      [16, 128, 1, 1]           --
│    └─Empty: 2-577                      [16, 128, 1, 1]           --
│    └─Empty: 2-578                      [16]                      --
│    └─Empty: 2-579                      [16]                      --
│    └─BatchNorm2d: 2-580                [16, 16, 8, 8]            --
│    └─Scaler: 2-581                     [16, 16, 8, 8]            --
│    └─ReLU: 2-582                       [16, 16, 8, 8]            --
│    └─Empty: 2-583                      [16, 16, 8, 8]            --
│    └─Clamp: 2-584                      [16, 16, 8, 8]            --
├─FusedMaxPoolConv2dBNReLU: 1-59         [16, 16, 8, 8]            (recursive)
│    └─MaxPool2d: 2-585                  [16, 128, 8, 8]           --
│    └─Empty: 2-586                      [16, 128, 8, 8]           --
│    └─Empty: 2-587                      [16, 128, 8, 8]           --
│    └─OutputShiftSqueeze: 2-588         --                        --
│    └─One: 2-589                        [1]                       --
│    └─OutputScale: 2-590                --                        --
│    └─Empty: 2-591                      [16, 128, 3, 3]           --
│    └─Empty: 2-592                      [16, 128, 3, 3]           --
│    └─Empty: 2-593                      [16]                      --
│    └─Empty: 2-594                      [16]                      --
│    └─BatchNorm2d: 2-595                [16, 16, 8, 8]            --
│    └─Scaler: 2-596                     [16, 16, 8, 8]            --
│    └─ReLU: 2-597                       [16, 16, 8, 8]            --
│    └─Empty: 2-598                      [16, 16, 8, 8]            --
│    └─Clamp: 2-599                      [16, 16, 8, 8]            --
├─Dropout2d: 1-60                        [16, 16, 8, 8]            --
├─FusedConv2dBNReLU: 1-61                [16, 128, 64, 64]         (recursive)
│    └─OutputShiftSqueeze: 2-600         --                        --
│    └─One: 2-601                        [1]                       --
│    └─OutputScale: 2-602                --                        --
│    └─Empty: 2-603                      [128, 48, 1, 1]           --
│    └─Empty: 2-604                      [128, 48, 1, 1]           --
│    └─Empty: 2-605                      [128]                     --
│    └─Empty: 2-606                      [128]                     --
│    └─BatchNorm2d: 2-607                [16, 128, 64, 64]         --
│    └─Scaler: 2-608                     [16, 128, 64, 64]         --
│    └─ReLU: 2-609                       [16, 128, 64, 64]         --
│    └─Empty: 2-610                      [16, 128, 64, 64]         --
│    └─Clamp: 2-611                      [16, 128, 64, 64]         --
├─FusedMaxPoolConv2dBNReLU: 1-62         [16, 128, 32, 32]         (recursive)
│    └─MaxPool2d: 2-612                  [16, 128, 32, 32]         --
│    └─Empty: 2-613                      [16, 128, 32, 32]         --
│    └─Empty: 2-614                      [16, 128, 32, 32]         --
│    └─OutputShiftSqueeze: 2-615         --                        --
│    └─One: 2-616                        [1]                       --
│    └─OutputScale: 2-617                --                        --
│    └─Empty: 2-618                      [128, 128, 3, 3]          --
│    └─Empty: 2-619                      [128, 128, 3, 3]          --
│    └─Empty: 2-620                      [128]                     --
│    └─Empty: 2-621                      [128]                     --
│    └─BatchNorm2d: 2-622                [16, 128, 32, 32]         --
│    └─Scaler: 2-623                     [16, 128, 32, 32]         --
│    └─ReLU: 2-624                       [16, 128, 32, 32]         --
│    └─Empty: 2-625                      [16, 128, 32, 32]         --
│    └─Clamp: 2-626                      [16, 128, 32, 32]         --
├─Dropout2d: 1-63                        [16, 128, 32, 32]         --
├─FusedMaxPoolConv2dBNReLU: 1-64         [16, 128, 16, 16]         (recursive)
│    └─MaxPool2d: 2-627                  [16, 128, 16, 16]         --
│    └─Empty: 2-628                      [16, 128, 16, 16]         --
│    └─Empty: 2-629                      [16, 128, 16, 16]         --
│    └─OutputShiftSqueeze: 2-630         --                        --
│    └─One: 2-631                        [1]                       --
│    └─OutputScale: 2-632                --                        --
│    └─Empty: 2-633                      [128, 128, 3, 3]          --
│    └─Empty: 2-634                      [128, 128, 3, 3]          --
│    └─Empty: 2-635                      [128]                     --
│    └─Empty: 2-636                      [128]                     --
│    └─BatchNorm2d: 2-637                [16, 128, 16, 16]         --
│    └─Scaler: 2-638                     [16, 128, 16, 16]         --
│    └─ReLU: 2-639                       [16, 128, 16, 16]         --
│    └─Empty: 2-640                      [16, 128, 16, 16]         --
│    └─Clamp: 2-641                      [16, 128, 16, 16]         --
├─FusedConv2dBNReLU: 1-65                [16, 128, 16, 16]         (recursive)
│    └─OutputShiftSqueeze: 2-642         --                        --
│    └─One: 2-643                        [1]                       --
│    └─OutputScale: 2-644                --                        --
│    └─Empty: 2-645                      [128, 128, 1, 1]          --
│    └─Empty: 2-646                      [128, 128, 1, 1]          --
│    └─Empty: 2-647                      [128]                     --
│    └─Empty: 2-648                      [128]                     --
│    └─BatchNorm2d: 2-649                [16, 128, 16, 16]         --
│    └─Scaler: 2-650                     [16, 128, 16, 16]         --
│    └─ReLU: 2-651                       [16, 128, 16, 16]         --
│    └─Empty: 2-652                      [16, 128, 16, 16]         --
│    └─Clamp: 2-653                      [16, 128, 16, 16]         --
├─FusedMaxPoolConv2dBNReLU: 1-66         [16, 128, 16, 16]         (recursive)
│    └─MaxPool2d: 2-654                  [16, 128, 16, 16]         --
│    └─Empty: 2-655                      [16, 128, 16, 16]         --
│    └─Empty: 2-656                      [16, 128, 16, 16]         --
│    └─OutputShiftSqueeze: 2-657         --                        --
│    └─One: 2-658                        [1]                       --
│    └─OutputScale: 2-659                --                        --
│    └─Empty: 2-660                      [128, 128, 3, 3]          --
│    └─Empty: 2-661                      [128, 128, 3, 3]          --
│    └─Empty: 2-662                      [128]                     --
│    └─Empty: 2-663                      [128]                     --
│    └─BatchNorm2d: 2-664                [16, 128, 16, 16]         --
│    └─Scaler: 2-665                     [16, 128, 16, 16]         --
│    └─ReLU: 2-666                       [16, 128, 16, 16]         --
│    └─Empty: 2-667                      [16, 128, 16, 16]         --
│    └─Clamp: 2-668                      [16, 128, 16, 16]         --
├─Dropout2d: 1-67                        [16, 128, 16, 16]         --
├─FusedMaxPoolConv2dBNReLU: 1-68         [16, 128, 8, 8]           (recursive)
│    └─MaxPool2d: 2-669                  [16, 128, 8, 8]           --
│    └─Empty: 2-670                      [16, 128, 8, 8]           --
│    └─Empty: 2-671                      [16, 128, 8, 8]           --
│    └─OutputShiftSqueeze: 2-672         --                        --
│    └─One: 2-673                        [1]                       --
│    └─OutputScale: 2-674                --                        --
│    └─Empty: 2-675                      [128, 128, 3, 3]          --
│    └─Empty: 2-676                      [128, 128, 3, 3]          --
│    └─Empty: 2-677                      [128]                     --
│    └─Empty: 2-678                      [128]                     --
│    └─BatchNorm2d: 2-679                [16, 128, 8, 8]           --
│    └─Scaler: 2-680                     [16, 128, 8, 8]           --
│    └─ReLU: 2-681                       [16, 128, 8, 8]           --
│    └─Empty: 2-682                      [16, 128, 8, 8]           --
│    └─Clamp: 2-683                      [16, 128, 8, 8]           --
├─FusedConv2dBNReLU: 1-69                [16, 16, 8, 8]            (recursive)
│    └─OutputShiftSqueeze: 2-684         --                        --
│    └─One: 2-685                        [1]                       --
│    └─OutputScale: 2-686                --                        --
│    └─Empty: 2-687                      [16, 128, 1, 1]           --
│    └─Empty: 2-688                      [16, 128, 1, 1]           --
│    └─Empty: 2-689                      [16]                      --
│    └─Empty: 2-690                      [16]                      --
│    └─BatchNorm2d: 2-691                [16, 16, 8, 8]            --
│    └─Scaler: 2-692                     [16, 16, 8, 8]            --
│    └─ReLU: 2-693                       [16, 16, 8, 8]            --
│    └─Empty: 2-694                      [16, 16, 8, 8]            --
│    └─Clamp: 2-695                      [16, 16, 8, 8]            --
├─FusedMaxPoolConv2dBNReLU: 1-70         [16, 16, 8, 8]            (recursive)
│    └─MaxPool2d: 2-696                  [16, 128, 8, 8]           --
│    └─Empty: 2-697                      [16, 128, 8, 8]           --
│    └─Empty: 2-698                      [16, 128, 8, 8]           --
│    └─OutputShiftSqueeze: 2-699         --                        --
│    └─One: 2-700                        [1]                       --
│    └─OutputScale: 2-701                --                        --
│    └─Empty: 2-702                      [16, 128, 3, 3]           --
│    └─Empty: 2-703                      [16, 128, 3, 3]           --
│    └─Empty: 2-704                      [16]                      --
│    └─Empty: 2-705                      [16]                      --
│    └─BatchNorm2d: 2-706                [16, 16, 8, 8]            --
│    └─Scaler: 2-707                     [16, 16, 8, 8]            --
│    └─ReLU: 2-708                       [16, 16, 8, 8]            --
│    └─Empty: 2-709                      [16, 16, 8, 8]            --
│    └─Clamp: 2-710                      [16, 16, 8, 8]            --
├─Dropout2d: 1-71                        [16, 16, 8, 8]            --
├─FusedConv2dBNReLU: 1-72                [16, 128, 64, 64]         (recursive)
│    └─OutputShiftSqueeze: 2-711         --                        --
│    └─One: 2-712                        [1]                       --
│    └─OutputScale: 2-713                --                        --
│    └─Empty: 2-714                      [128, 48, 1, 1]           --
│    └─Empty: 2-715                      [128, 48, 1, 1]           --
│    └─Empty: 2-716                      [128]                     --
│    └─Empty: 2-717                      [128]                     --
│    └─BatchNorm2d: 2-718                [16, 128, 64, 64]         --
│    └─Scaler: 2-719                     [16, 128, 64, 64]         --
│    └─ReLU: 2-720                       [16, 128, 64, 64]         --
│    └─Empty: 2-721                      [16, 128, 64, 64]         --
│    └─Clamp: 2-722                      [16, 128, 64, 64]         --
├─FusedMaxPoolConv2dBNReLU: 1-73         [16, 128, 32, 32]         (recursive)
│    └─MaxPool2d: 2-723                  [16, 128, 32, 32]         --
│    └─Empty: 2-724                      [16, 128, 32, 32]         --
│    └─Empty: 2-725                      [16, 128, 32, 32]         --
│    └─OutputShiftSqueeze: 2-726         --                        --
│    └─One: 2-727                        [1]                       --
│    └─OutputScale: 2-728                --                        --
│    └─Empty: 2-729                      [128, 128, 3, 3]          --
│    └─Empty: 2-730                      [128, 128, 3, 3]          --
│    └─Empty: 2-731                      [128]                     --
│    └─Empty: 2-732                      [128]                     --
│    └─BatchNorm2d: 2-733                [16, 128, 32, 32]         --
│    └─Scaler: 2-734                     [16, 128, 32, 32]         --
│    └─ReLU: 2-735                       [16, 128, 32, 32]         --
│    └─Empty: 2-736                      [16, 128, 32, 32]         --
│    └─Clamp: 2-737                      [16, 128, 32, 32]         --
├─Dropout2d: 1-74                        [16, 128, 32, 32]         --
├─FusedMaxPoolConv2dBNReLU: 1-75         [16, 128, 16, 16]         (recursive)
│    └─MaxPool2d: 2-738                  [16, 128, 16, 16]         --
│    └─Empty: 2-739                      [16, 128, 16, 16]         --
│    └─Empty: 2-740                      [16, 128, 16, 16]         --
│    └─OutputShiftSqueeze: 2-741         --                        --
│    └─One: 2-742                        [1]                       --
│    └─OutputScale: 2-743                --                        --
│    └─Empty: 2-744                      [128, 128, 3, 3]          --
│    └─Empty: 2-745                      [128, 128, 3, 3]          --
│    └─Empty: 2-746                      [128]                     --
│    └─Empty: 2-747                      [128]                     --
│    └─BatchNorm2d: 2-748                [16, 128, 16, 16]         --
│    └─Scaler: 2-749                     [16, 128, 16, 16]         --
│    └─ReLU: 2-750                       [16, 128, 16, 16]         --
│    └─Empty: 2-751                      [16, 128, 16, 16]         --
│    └─Clamp: 2-752                      [16, 128, 16, 16]         --
├─FusedConv2dBNReLU: 1-76                [16, 128, 16, 16]         (recursive)
│    └─OutputShiftSqueeze: 2-753         --                        --
│    └─One: 2-754                        [1]                       --
│    └─OutputScale: 2-755                --                        --
│    └─Empty: 2-756                      [128, 128, 1, 1]          --
│    └─Empty: 2-757                      [128, 128, 1, 1]          --
│    └─Empty: 2-758                      [128]                     --
│    └─Empty: 2-759                      [128]                     --
│    └─BatchNorm2d: 2-760                [16, 128, 16, 16]         --
│    └─Scaler: 2-761                     [16, 128, 16, 16]         --
│    └─ReLU: 2-762                       [16, 128, 16, 16]         --
│    └─Empty: 2-763                      [16, 128, 16, 16]         --
│    └─Clamp: 2-764                      [16, 128, 16, 16]         --
├─FusedMaxPoolConv2dBNReLU: 1-77         [16, 128, 16, 16]         (recursive)
│    └─MaxPool2d: 2-765                  [16, 128, 16, 16]         --
│    └─Empty: 2-766                      [16, 128, 16, 16]         --
│    └─Empty: 2-767                      [16, 128, 16, 16]         --
│    └─OutputShiftSqueeze: 2-768         --                        --
│    └─One: 2-769                        [1]                       --
│    └─OutputScale: 2-770                --                        --
│    └─Empty: 2-771                      [128, 128, 3, 3]          --
│    └─Empty: 2-772                      [128, 128, 3, 3]          --
│    └─Empty: 2-773                      [128]                     --
│    └─Empty: 2-774                      [128]                     --
│    └─BatchNorm2d: 2-775                [16, 128, 16, 16]         --
│    └─Scaler: 2-776                     [16, 128, 16, 16]         --
│    └─ReLU: 2-777                       [16, 128, 16, 16]         --
│    └─Empty: 2-778                      [16, 128, 16, 16]         --
│    └─Clamp: 2-779                      [16, 128, 16, 16]         --
├─Dropout2d: 1-78                        [16, 128, 16, 16]         --
├─FusedMaxPoolConv2dBNReLU: 1-79         [16, 128, 8, 8]           (recursive)
│    └─MaxPool2d: 2-780                  [16, 128, 8, 8]           --
│    └─Empty: 2-781                      [16, 128, 8, 8]           --
│    └─Empty: 2-782                      [16, 128, 8, 8]           --
│    └─OutputShiftSqueeze: 2-783         --                        --
│    └─One: 2-784                        [1]                       --
│    └─OutputScale: 2-785                --                        --
│    └─Empty: 2-786                      [128, 128, 3, 3]          --
│    └─Empty: 2-787                      [128, 128, 3, 3]          --
│    └─Empty: 2-788                      [128]                     --
│    └─Empty: 2-789                      [128]                     --
│    └─BatchNorm2d: 2-790                [16, 128, 8, 8]           --
│    └─Scaler: 2-791                     [16, 128, 8, 8]           --
│    └─ReLU: 2-792                       [16, 128, 8, 8]           --
│    └─Empty: 2-793                      [16, 128, 8, 8]           --
│    └─Clamp: 2-794                      [16, 128, 8, 8]           --
├─FusedConv2dBNReLU: 1-80                [16, 16, 8, 8]            (recursive)
│    └─OutputShiftSqueeze: 2-795         --                        --
│    └─One: 2-796                        [1]                       --
│    └─OutputScale: 2-797                --                        --
│    └─Empty: 2-798                      [16, 128, 1, 1]           --
│    └─Empty: 2-799                      [16, 128, 1, 1]           --
│    └─Empty: 2-800                      [16]                      --
│    └─Empty: 2-801                      [16]                      --
│    └─BatchNorm2d: 2-802                [16, 16, 8, 8]            --
│    └─Scaler: 2-803                     [16, 16, 8, 8]            --
│    └─ReLU: 2-804                       [16, 16, 8, 8]            --
│    └─Empty: 2-805                      [16, 16, 8, 8]            --
│    └─Clamp: 2-806                      [16, 16, 8, 8]            --
├─FusedMaxPoolConv2dBNReLU: 1-81         [16, 16, 8, 8]            (recursive)
│    └─MaxPool2d: 2-807                  [16, 128, 8, 8]           --
│    └─Empty: 2-808                      [16, 128, 8, 8]           --
│    └─Empty: 2-809                      [16, 128, 8, 8]           --
│    └─OutputShiftSqueeze: 2-810         --                        --
│    └─One: 2-811                        [1]                       --
│    └─OutputScale: 2-812                --                        --
│    └─Empty: 2-813                      [16, 128, 3, 3]           --
│    └─Empty: 2-814                      [16, 128, 3, 3]           --
│    └─Empty: 2-815                      [16]                      --
│    └─Empty: 2-816                      [16]                      --
│    └─BatchNorm2d: 2-817                [16, 16, 8, 8]            --
│    └─Scaler: 2-818                     [16, 16, 8, 8]            --
│    └─ReLU: 2-819                       [16, 16, 8, 8]            --
│    └─Empty: 2-820                      [16, 16, 8, 8]            --
│    └─Clamp: 2-821                      [16, 16, 8, 8]            --
├─Dropout2d: 1-82                        [16, 16, 8, 8]            --
├─FusedConv2dBNReLU: 1-83                [16, 128, 64, 64]         (recursive)
│    └─OutputShiftSqueeze: 2-822         --                        --
│    └─One: 2-823                        [1]                       --
│    └─OutputScale: 2-824                --                        --
│    └─Empty: 2-825                      [128, 48, 1, 1]           --
│    └─Empty: 2-826                      [128, 48, 1, 1]           --
│    └─Empty: 2-827                      [128]                     --
│    └─Empty: 2-828                      [128]                     --
│    └─BatchNorm2d: 2-829                [16, 128, 64, 64]         --
│    └─Scaler: 2-830                     [16, 128, 64, 64]         --
│    └─ReLU: 2-831                       [16, 128, 64, 64]         --
│    └─Empty: 2-832                      [16, 128, 64, 64]         --
│    └─Clamp: 2-833                      [16, 128, 64, 64]         --
├─FusedMaxPoolConv2dBNReLU: 1-84         [16, 128, 32, 32]         (recursive)
│    └─MaxPool2d: 2-834                  [16, 128, 32, 32]         --
│    └─Empty: 2-835                      [16, 128, 32, 32]         --
│    └─Empty: 2-836                      [16, 128, 32, 32]         --
│    └─OutputShiftSqueeze: 2-837         --                        --
│    └─One: 2-838                        [1]                       --
│    └─OutputScale: 2-839                --                        --
│    └─Empty: 2-840                      [128, 128, 3, 3]          --
│    └─Empty: 2-841                      [128, 128, 3, 3]          --
│    └─Empty: 2-842                      [128]                     --
│    └─Empty: 2-843                      [128]                     --
│    └─BatchNorm2d: 2-844                [16, 128, 32, 32]         --
│    └─Scaler: 2-845                     [16, 128, 32, 32]         --
│    └─ReLU: 2-846                       [16, 128, 32, 32]         --
│    └─Empty: 2-847                      [16, 128, 32, 32]         --
│    └─Clamp: 2-848                      [16, 128, 32, 32]         --
├─Dropout2d: 1-85                        [16, 128, 32, 32]         --
├─FusedMaxPoolConv2dBNReLU: 1-86         [16, 128, 16, 16]         (recursive)
│    └─MaxPool2d: 2-849                  [16, 128, 16, 16]         --
│    └─Empty: 2-850                      [16, 128, 16, 16]         --
│    └─Empty: 2-851                      [16, 128, 16, 16]         --
│    └─OutputShiftSqueeze: 2-852         --                        --
│    └─One: 2-853                        [1]                       --
│    └─OutputScale: 2-854                --                        --
│    └─Empty: 2-855                      [128, 128, 3, 3]          --
│    └─Empty: 2-856                      [128, 128, 3, 3]          --
│    └─Empty: 2-857                      [128]                     --
│    └─Empty: 2-858                      [128]                     --
│    └─BatchNorm2d: 2-859                [16, 128, 16, 16]         --
│    └─Scaler: 2-860                     [16, 128, 16, 16]         --
│    └─ReLU: 2-861                       [16, 128, 16, 16]         --
│    └─Empty: 2-862                      [16, 128, 16, 16]         --
│    └─Clamp: 2-863                      [16, 128, 16, 16]         --
├─FusedConv2dBNReLU: 1-87                [16, 128, 16, 16]         (recursive)
│    └─OutputShiftSqueeze: 2-864         --                        --
│    └─One: 2-865                        [1]                       --
│    └─OutputScale: 2-866                --                        --
│    └─Empty: 2-867                      [128, 128, 1, 1]          --
│    └─Empty: 2-868                      [128, 128, 1, 1]          --
│    └─Empty: 2-869                      [128]                     --
│    └─Empty: 2-870                      [128]                     --
│    └─BatchNorm2d: 2-871                [16, 128, 16, 16]         --
│    └─Scaler: 2-872                     [16, 128, 16, 16]         --
│    └─ReLU: 2-873                       [16, 128, 16, 16]         --
│    └─Empty: 2-874                      [16, 128, 16, 16]         --
│    └─Clamp: 2-875                      [16, 128, 16, 16]         --
├─FusedMaxPoolConv2dBNReLU: 1-88         [16, 128, 16, 16]         (recursive)
│    └─MaxPool2d: 2-876                  [16, 128, 16, 16]         --
│    └─Empty: 2-877                      [16, 128, 16, 16]         --
│    └─Empty: 2-878                      [16, 128, 16, 16]         --
│    └─OutputShiftSqueeze: 2-879         --                        --
│    └─One: 2-880                        [1]                       --
│    └─OutputScale: 2-881                --                        --
│    └─Empty: 2-882                      [128, 128, 3, 3]          --
│    └─Empty: 2-883                      [128, 128, 3, 3]          --
│    └─Empty: 2-884                      [128]                     --
│    └─Empty: 2-885                      [128]                     --
│    └─BatchNorm2d: 2-886                [16, 128, 16, 16]         --
│    └─Scaler: 2-887                     [16, 128, 16, 16]         --
│    └─ReLU: 2-888                       [16, 128, 16, 16]         --
│    └─Empty: 2-889                      [16, 128, 16, 16]         --
│    └─Clamp: 2-890                      [16, 128, 16, 16]         --
├─Dropout2d: 1-89                        [16, 128, 16, 16]         --
├─FusedMaxPoolConv2dBNReLU: 1-90         [16, 128, 8, 8]           (recursive)
│    └─MaxPool2d: 2-891                  [16, 128, 8, 8]           --
│    └─Empty: 2-892                      [16, 128, 8, 8]           --
│    └─Empty: 2-893                      [16, 128, 8, 8]           --
│    └─OutputShiftSqueeze: 2-894         --                        --
│    └─One: 2-895                        [1]                       --
│    └─OutputScale: 2-896                --                        --
│    └─Empty: 2-897                      [128, 128, 3, 3]          --
│    └─Empty: 2-898                      [128, 128, 3, 3]          --
│    └─Empty: 2-899                      [128]                     --
│    └─Empty: 2-900                      [128]                     --
│    └─BatchNorm2d: 2-901                [16, 128, 8, 8]           --
│    └─Scaler: 2-902                     [16, 128, 8, 8]           --
│    └─ReLU: 2-903                       [16, 128, 8, 8]           --
│    └─Empty: 2-904                      [16, 128, 8, 8]           --
│    └─Clamp: 2-905                      [16, 128, 8, 8]           --
├─FusedConv2dBNReLU: 1-91                [16, 16, 8, 8]            (recursive)
│    └─OutputShiftSqueeze: 2-906         --                        --
│    └─One: 2-907                        [1]                       --
│    └─OutputScale: 2-908                --                        --
│    └─Empty: 2-909                      [16, 128, 1, 1]           --
│    └─Empty: 2-910                      [16, 128, 1, 1]           --
│    └─Empty: 2-911                      [16]                      --
│    └─Empty: 2-912                      [16]                      --
│    └─BatchNorm2d: 2-913                [16, 16, 8, 8]            --
│    └─Scaler: 2-914                     [16, 16, 8, 8]            --
│    └─ReLU: 2-915                       [16, 16, 8, 8]            --
│    └─Empty: 2-916                      [16, 16, 8, 8]            --
│    └─Clamp: 2-917                      [16, 16, 8, 8]            --
├─FusedMaxPoolConv2dBNReLU: 1-92         [16, 16, 8, 8]            (recursive)
│    └─MaxPool2d: 2-918                  [16, 128, 8, 8]           --
│    └─Empty: 2-919                      [16, 128, 8, 8]           --
│    └─Empty: 2-920                      [16, 128, 8, 8]           --
│    └─OutputShiftSqueeze: 2-921         --                        --
│    └─One: 2-922                        [1]                       --
│    └─OutputScale: 2-923                --                        --
│    └─Empty: 2-924                      [16, 128, 3, 3]           --
│    └─Empty: 2-925                      [16, 128, 3, 3]           --
│    └─Empty: 2-926                      [16]                      --
│    └─Empty: 2-927                      [16]                      --
│    └─BatchNorm2d: 2-928                [16, 16, 8, 8]            --
│    └─Scaler: 2-929                     [16, 16, 8, 8]            --
│    └─ReLU: 2-930                       [16, 16, 8, 8]            --
│    └─Empty: 2-931                      [16, 16, 8, 8]            --
│    └─Clamp: 2-932                      [16, 16, 8, 8]            --
├─Dropout2d: 1-93                        [16, 16, 8, 8]            --
├─FusedConv2dBNReLU: 1-94                [16, 128, 64, 64]         (recursive)
│    └─OutputShiftSqueeze: 2-933         --                        --
│    └─One: 2-934                        [1]                       --
│    └─OutputScale: 2-935                --                        --
│    └─Empty: 2-936                      [128, 48, 1, 1]           --
│    └─Empty: 2-937                      [128, 48, 1, 1]           --
│    └─Empty: 2-938                      [128]                     --
│    └─Empty: 2-939                      [128]                     --
│    └─BatchNorm2d: 2-940                [16, 128, 64, 64]         --
│    └─Scaler: 2-941                     [16, 128, 64, 64]         --
│    └─ReLU: 2-942                       [16, 128, 64, 64]         --
│    └─Empty: 2-943                      [16, 128, 64, 64]         --
│    └─Clamp: 2-944                      [16, 128, 64, 64]         --
├─FusedMaxPoolConv2dBNReLU: 1-95         [16, 128, 32, 32]         (recursive)
│    └─MaxPool2d: 2-945                  [16, 128, 32, 32]         --
│    └─Empty: 2-946                      [16, 128, 32, 32]         --
│    └─Empty: 2-947                      [16, 128, 32, 32]         --
│    └─OutputShiftSqueeze: 2-948         --                        --
│    └─One: 2-949                        [1]                       --
│    └─OutputScale: 2-950                --                        --
│    └─Empty: 2-951                      [128, 128, 3, 3]          --
│    └─Empty: 2-952                      [128, 128, 3, 3]          --
│    └─Empty: 2-953                      [128]                     --
│    └─Empty: 2-954                      [128]                     --
│    └─BatchNorm2d: 2-955                [16, 128, 32, 32]         --
│    └─Scaler: 2-956                     [16, 128, 32, 32]         --
│    └─ReLU: 2-957                       [16, 128, 32, 32]         --
│    └─Empty: 2-958                      [16, 128, 32, 32]         --
│    └─Clamp: 2-959                      [16, 128, 32, 32]         --
├─Dropout2d: 1-96                        [16, 128, 32, 32]         --
├─FusedMaxPoolConv2dBNReLU: 1-97         [16, 128, 16, 16]         (recursive)
│    └─MaxPool2d: 2-960                  [16, 128, 16, 16]         --
│    └─Empty: 2-961                      [16, 128, 16, 16]         --
│    └─Empty: 2-962                      [16, 128, 16, 16]         --
│    └─OutputShiftSqueeze: 2-963         --                        --
│    └─One: 2-964                        [1]                       --
│    └─OutputScale: 2-965                --                        --
│    └─Empty: 2-966                      [128, 128, 3, 3]          --
│    └─Empty: 2-967                      [128, 128, 3, 3]          --
│    └─Empty: 2-968                      [128]                     --
│    └─Empty: 2-969                      [128]                     --
│    └─BatchNorm2d: 2-970                [16, 128, 16, 16]         --
│    └─Scaler: 2-971                     [16, 128, 16, 16]         --
│    └─ReLU: 2-972                       [16, 128, 16, 16]         --
│    └─Empty: 2-973                      [16, 128, 16, 16]         --
│    └─Clamp: 2-974                      [16, 128, 16, 16]         --
├─FusedConv2dBNReLU: 1-98                [16, 128, 16, 16]         (recursive)
│    └─OutputShiftSqueeze: 2-975         --                        --
│    └─One: 2-976                        [1]                       --
│    └─OutputScale: 2-977                --                        --
│    └─Empty: 2-978                      [128, 128, 1, 1]          --
│    └─Empty: 2-979                      [128, 128, 1, 1]          --
│    └─Empty: 2-980                      [128]                     --
│    └─Empty: 2-981                      [128]                     --
│    └─BatchNorm2d: 2-982                [16, 128, 16, 16]         --
│    └─Scaler: 2-983                     [16, 128, 16, 16]         --
│    └─ReLU: 2-984                       [16, 128, 16, 16]         --
│    └─Empty: 2-985                      [16, 128, 16, 16]         --
│    └─Clamp: 2-986                      [16, 128, 16, 16]         --
├─FusedMaxPoolConv2dBNReLU: 1-99         [16, 128, 16, 16]         (recursive)
│    └─MaxPool2d: 2-987                  [16, 128, 16, 16]         --
│    └─Empty: 2-988                      [16, 128, 16, 16]         --
│    └─Empty: 2-989                      [16, 128, 16, 16]         --
│    └─OutputShiftSqueeze: 2-990         --                        --
│    └─One: 2-991                        [1]                       --
│    └─OutputScale: 2-992                --                        --
│    └─Empty: 2-993                      [128, 128, 3, 3]          --
│    └─Empty: 2-994                      [128, 128, 3, 3]          --
│    └─Empty: 2-995                      [128]                     --
│    └─Empty: 2-996                      [128]                     --
│    └─BatchNorm2d: 2-997                [16, 128, 16, 16]         --
│    └─Scaler: 2-998                     [16, 128, 16, 16]         --
│    └─ReLU: 2-999                       [16, 128, 16, 16]         --
│    └─Empty: 2-1000                     [16, 128, 16, 16]         --
│    └─Clamp: 2-1001                     [16, 128, 16, 16]         --
├─Dropout2d: 1-100                       [16, 128, 16, 16]         --
├─FusedMaxPoolConv2dBNReLU: 1-101        [16, 128, 8, 8]           (recursive)
│    └─MaxPool2d: 2-1002                 [16, 128, 8, 8]           --
│    └─Empty: 2-1003                     [16, 128, 8, 8]           --
│    └─Empty: 2-1004                     [16, 128, 8, 8]           --
│    └─OutputShiftSqueeze: 2-1005        --                        --
│    └─One: 2-1006                       [1]                       --
│    └─OutputScale: 2-1007               --                        --
│    └─Empty: 2-1008                     [128, 128, 3, 3]          --
│    └─Empty: 2-1009                     [128, 128, 3, 3]          --
│    └─Empty: 2-1010                     [128]                     --
│    └─Empty: 2-1011                     [128]                     --
│    └─BatchNorm2d: 2-1012               [16, 128, 8, 8]           --
│    └─Scaler: 2-1013                    [16, 128, 8, 8]           --
│    └─ReLU: 2-1014                      [16, 128, 8, 8]           --
│    └─Empty: 2-1015                     [16, 128, 8, 8]           --
│    └─Clamp: 2-1016                     [16, 128, 8, 8]           --
├─FusedConv2dBNReLU: 1-102               [16, 16, 8, 8]            (recursive)
│    └─OutputShiftSqueeze: 2-1017        --                        --
│    └─One: 2-1018                       [1]                       --
│    └─OutputScale: 2-1019               --                        --
│    └─Empty: 2-1020                     [16, 128, 1, 1]           --
│    └─Empty: 2-1021                     [16, 128, 1, 1]           --
│    └─Empty: 2-1022                     [16]                      --
│    └─Empty: 2-1023                     [16]                      --
│    └─BatchNorm2d: 2-1024               [16, 16, 8, 8]            --
│    └─Scaler: 2-1025                    [16, 16, 8, 8]            --
│    └─ReLU: 2-1026                      [16, 16, 8, 8]            --
│    └─Empty: 2-1027                     [16, 16, 8, 8]            --
│    └─Clamp: 2-1028                     [16, 16, 8, 8]            --
├─FusedMaxPoolConv2dBNReLU: 1-103        [16, 16, 8, 8]            (recursive)
│    └─MaxPool2d: 2-1029                 [16, 128, 8, 8]           --
│    └─Empty: 2-1030                     [16, 128, 8, 8]           --
│    └─Empty: 2-1031                     [16, 128, 8, 8]           --
│    └─OutputShiftSqueeze: 2-1032        --                        --
│    └─One: 2-1033                       [1]                       --
│    └─OutputScale: 2-1034               --                        --
│    └─Empty: 2-1035                     [16, 128, 3, 3]           --
│    └─Empty: 2-1036                     [16, 128, 3, 3]           --
│    └─Empty: 2-1037                     [16]                      --
│    └─Empty: 2-1038                     [16]                      --
│    └─BatchNorm2d: 2-1039               [16, 16, 8, 8]            --
│    └─Scaler: 2-1040                    [16, 16, 8, 8]            --
│    └─ReLU: 2-1041                      [16, 16, 8, 8]            --
│    └─Empty: 2-1042                     [16, 16, 8, 8]            --
│    └─Clamp: 2-1043                     [16, 16, 8, 8]            --
├─Dropout2d: 1-104                       [16, 16, 8, 8]            --
├─FusedConv2dBNReLU: 1-105               [16, 128, 64, 64]         (recursive)
│    └─OutputShiftSqueeze: 2-1044        --                        --
│    └─One: 2-1045                       [1]                       --
│    └─OutputScale: 2-1046               --                        --
│    └─Empty: 2-1047                     [128, 48, 1, 1]           --
│    └─Empty: 2-1048                     [128, 48, 1, 1]           --
│    └─Empty: 2-1049                     [128]                     --
│    └─Empty: 2-1050                     [128]                     --
│    └─BatchNorm2d: 2-1051               [16, 128, 64, 64]         --
│    └─Scaler: 2-1052                    [16, 128, 64, 64]         --
│    └─ReLU: 2-1053                      [16, 128, 64, 64]         --
│    └─Empty: 2-1054                     [16, 128, 64, 64]         --
│    └─Clamp: 2-1055                     [16, 128, 64, 64]         --
├─FusedMaxPoolConv2dBNReLU: 1-106        [16, 128, 32, 32]         (recursive)
│    └─MaxPool2d: 2-1056                 [16, 128, 32, 32]         --
│    └─Empty: 2-1057                     [16, 128, 32, 32]         --
│    └─Empty: 2-1058                     [16, 128, 32, 32]         --
│    └─OutputShiftSqueeze: 2-1059        --                        --
│    └─One: 2-1060                       [1]                       --
│    └─OutputScale: 2-1061               --                        --
│    └─Empty: 2-1062                     [128, 128, 3, 3]          --
│    └─Empty: 2-1063                     [128, 128, 3, 3]          --
│    └─Empty: 2-1064                     [128]                     --
│    └─Empty: 2-1065                     [128]                     --
│    └─BatchNorm2d: 2-1066               [16, 128, 32, 32]         --
│    └─Scaler: 2-1067                    [16, 128, 32, 32]         --
│    └─ReLU: 2-1068                      [16, 128, 32, 32]         --
│    └─Empty: 2-1069                     [16, 128, 32, 32]         --
│    └─Clamp: 2-1070                     [16, 128, 32, 32]         --
├─Dropout2d: 1-107                       [16, 128, 32, 32]         --
├─FusedMaxPoolConv2dBNReLU: 1-108        [16, 128, 16, 16]         (recursive)
│    └─MaxPool2d: 2-1071                 [16, 128, 16, 16]         --
│    └─Empty: 2-1072                     [16, 128, 16, 16]         --
│    └─Empty: 2-1073                     [16, 128, 16, 16]         --
│    └─OutputShiftSqueeze: 2-1074        --                        --
│    └─One: 2-1075                       [1]                       --
│    └─OutputScale: 2-1076               --                        --
│    └─Empty: 2-1077                     [128, 128, 3, 3]          --
│    └─Empty: 2-1078                     [128, 128, 3, 3]          --
│    └─Empty: 2-1079                     [128]                     --
│    └─Empty: 2-1080                     [128]                     --
│    └─BatchNorm2d: 2-1081               [16, 128, 16, 16]         --
│    └─Scaler: 2-1082                    [16, 128, 16, 16]         --
│    └─ReLU: 2-1083                      [16, 128, 16, 16]         --
│    └─Empty: 2-1084                     [16, 128, 16, 16]         --
│    └─Clamp: 2-1085                     [16, 128, 16, 16]         --
├─FusedConv2dBNReLU: 1-109               [16, 128, 16, 16]         (recursive)
│    └─OutputShiftSqueeze: 2-1086        --                        --
│    └─One: 2-1087                       [1]                       --
│    └─OutputScale: 2-1088               --                        --
│    └─Empty: 2-1089                     [128, 128, 1, 1]          --
│    └─Empty: 2-1090                     [128, 128, 1, 1]          --
│    └─Empty: 2-1091                     [128]                     --
│    └─Empty: 2-1092                     [128]                     --
│    └─BatchNorm2d: 2-1093               [16, 128, 16, 16]         --
│    └─Scaler: 2-1094                    [16, 128, 16, 16]         --
│    └─ReLU: 2-1095                      [16, 128, 16, 16]         --
│    └─Empty: 2-1096                     [16, 128, 16, 16]         --
│    └─Clamp: 2-1097                     [16, 128, 16, 16]         --
├─FusedMaxPoolConv2dBNReLU: 1-110        [16, 128, 16, 16]         (recursive)
│    └─MaxPool2d: 2-1098                 [16, 128, 16, 16]         --
│    └─Empty: 2-1099                     [16, 128, 16, 16]         --
│    └─Empty: 2-1100                     [16, 128, 16, 16]         --
│    └─OutputShiftSqueeze: 2-1101        --                        --
│    └─One: 2-1102                       [1]                       --
│    └─OutputScale: 2-1103               --                        --
│    └─Empty: 2-1104                     [128, 128, 3, 3]          --
│    └─Empty: 2-1105                     [128, 128, 3, 3]          --
│    └─Empty: 2-1106                     [128]                     --
│    └─Empty: 2-1107                     [128]                     --
│    └─BatchNorm2d: 2-1108               [16, 128, 16, 16]         --
│    └─Scaler: 2-1109                    [16, 128, 16, 16]         --
│    └─ReLU: 2-1110                      [16, 128, 16, 16]         --
│    └─Empty: 2-1111                     [16, 128, 16, 16]         --
│    └─Clamp: 2-1112                     [16, 128, 16, 16]         --
├─Dropout2d: 1-111                       [16, 128, 16, 16]         --
├─FusedMaxPoolConv2dBNReLU: 1-112        [16, 128, 8, 8]           (recursive)
│    └─MaxPool2d: 2-1113                 [16, 128, 8, 8]           --
│    └─Empty: 2-1114                     [16, 128, 8, 8]           --
│    └─Empty: 2-1115                     [16, 128, 8, 8]           --
│    └─OutputShiftSqueeze: 2-1116        --                        --
│    └─One: 2-1117                       [1]                       --
│    └─OutputScale: 2-1118               --                        --
│    └─Empty: 2-1119                     [128, 128, 3, 3]          --
│    └─Empty: 2-1120                     [128, 128, 3, 3]          --
│    └─Empty: 2-1121                     [128]                     --
│    └─Empty: 2-1122                     [128]                     --
│    └─BatchNorm2d: 2-1123               [16, 128, 8, 8]           --
│    └─Scaler: 2-1124                    [16, 128, 8, 8]           --
│    └─ReLU: 2-1125                      [16, 128, 8, 8]           --
│    └─Empty: 2-1126                     [16, 128, 8, 8]           --
│    └─Clamp: 2-1127                     [16, 128, 8, 8]           --
├─FusedConv2dBNReLU: 1-113               [16, 16, 8, 8]            (recursive)
│    └─OutputShiftSqueeze: 2-1128        --                        --
│    └─One: 2-1129                       [1]                       --
│    └─OutputScale: 2-1130               --                        --
│    └─Empty: 2-1131                     [16, 128, 1, 1]           --
│    └─Empty: 2-1132                     [16, 128, 1, 1]           --
│    └─Empty: 2-1133                     [16]                      --
│    └─Empty: 2-1134                     [16]                      --
│    └─BatchNorm2d: 2-1135               [16, 16, 8, 8]            --
│    └─Scaler: 2-1136                    [16, 16, 8, 8]            --
│    └─ReLU: 2-1137                      [16, 16, 8, 8]            --
│    └─Empty: 2-1138                     [16, 16, 8, 8]            --
│    └─Clamp: 2-1139                     [16, 16, 8, 8]            --
├─FusedMaxPoolConv2dBNReLU: 1-114        [16, 16, 8, 8]            (recursive)
│    └─MaxPool2d: 2-1140                 [16, 128, 8, 8]           --
│    └─Empty: 2-1141                     [16, 128, 8, 8]           --
│    └─Empty: 2-1142                     [16, 128, 8, 8]           --
│    └─OutputShiftSqueeze: 2-1143        --                        --
│    └─One: 2-1144                       [1]                       --
│    └─OutputScale: 2-1145               --                        --
│    └─Empty: 2-1146                     [16, 128, 3, 3]           --
│    └─Empty: 2-1147                     [16, 128, 3, 3]           --
│    └─Empty: 2-1148                     [16]                      --
│    └─Empty: 2-1149                     [16]                      --
│    └─BatchNorm2d: 2-1150               [16, 16, 8, 8]            --
│    └─Scaler: 2-1151                    [16, 16, 8, 8]            --
│    └─ReLU: 2-1152                      [16, 16, 8, 8]            --
│    └─Empty: 2-1153                     [16, 16, 8, 8]            --
│    └─Clamp: 2-1154                     [16, 16, 8, 8]            --
├─Dropout2d: 1-115                       [16, 16, 8, 8]            --
├─FusedConv2dBNReLU: 1-116               [16, 128, 64, 64]         (recursive)
│    └─OutputShiftSqueeze: 2-1155        --                        --
│    └─One: 2-1156                       [1]                       --
│    └─OutputScale: 2-1157               --                        --
│    └─Empty: 2-1158                     [128, 48, 1, 1]           --
│    └─Empty: 2-1159                     [128, 48, 1, 1]           --
│    └─Empty: 2-1160                     [128]                     --
│    └─Empty: 2-1161                     [128]                     --
│    └─BatchNorm2d: 2-1162               [16, 128, 64, 64]         --
│    └─Scaler: 2-1163                    [16, 128, 64, 64]         --
│    └─ReLU: 2-1164                      [16, 128, 64, 64]         --
│    └─Empty: 2-1165                     [16, 128, 64, 64]         --
│    └─Clamp: 2-1166                     [16, 128, 64, 64]         --
├─FusedMaxPoolConv2dBNReLU: 1-117        [16, 128, 32, 32]         (recursive)
│    └─MaxPool2d: 2-1167                 [16, 128, 32, 32]         --
│    └─Empty: 2-1168                     [16, 128, 32, 32]         --
│    └─Empty: 2-1169                     [16, 128, 32, 32]         --
│    └─OutputShiftSqueeze: 2-1170        --                        --
│    └─One: 2-1171                       [1]                       --
│    └─OutputScale: 2-1172               --                        --
│    └─Empty: 2-1173                     [128, 128, 3, 3]          --
│    └─Empty: 2-1174                     [128, 128, 3, 3]          --
│    └─Empty: 2-1175                     [128]                     --
│    └─Empty: 2-1176                     [128]                     --
│    └─BatchNorm2d: 2-1177               [16, 128, 32, 32]         --
│    └─Scaler: 2-1178                    [16, 128, 32, 32]         --
│    └─ReLU: 2-1179                      [16, 128, 32, 32]         --
│    └─Empty: 2-1180                     [16, 128, 32, 32]         --
│    └─Clamp: 2-1181                     [16, 128, 32, 32]         --
├─Dropout2d: 1-118                       [16, 128, 32, 32]         --
├─FusedMaxPoolConv2dBNReLU: 1-119        [16, 128, 16, 16]         (recursive)
│    └─MaxPool2d: 2-1182                 [16, 128, 16, 16]         --
│    └─Empty: 2-1183                     [16, 128, 16, 16]         --
│    └─Empty: 2-1184                     [16, 128, 16, 16]         --
│    └─OutputShiftSqueeze: 2-1185        --                        --
│    └─One: 2-1186                       [1]                       --
│    └─OutputScale: 2-1187               --                        --
│    └─Empty: 2-1188                     [128, 128, 3, 3]          --
│    └─Empty: 2-1189                     [128, 128, 3, 3]          --
│    └─Empty: 2-1190                     [128]                     --
│    └─Empty: 2-1191                     [128]                     --
│    └─BatchNorm2d: 2-1192               [16, 128, 16, 16]         --
│    └─Scaler: 2-1193                    [16, 128, 16, 16]         --
│    └─ReLU: 2-1194                      [16, 128, 16, 16]         --
│    └─Empty: 2-1195                     [16, 128, 16, 16]         --
│    └─Clamp: 2-1196                     [16, 128, 16, 16]         --
├─FusedConv2dBNReLU: 1-120               [16, 128, 16, 16]         (recursive)
│    └─OutputShiftSqueeze: 2-1197        --                        --
│    └─One: 2-1198                       [1]                       --
│    └─OutputScale: 2-1199               --                        --
│    └─Empty: 2-1200                     [128, 128, 1, 1]          --
│    └─Empty: 2-1201                     [128, 128, 1, 1]          --
│    └─Empty: 2-1202                     [128]                     --
│    └─Empty: 2-1203                     [128]                     --
│    └─BatchNorm2d: 2-1204               [16, 128, 16, 16]         --
│    └─Scaler: 2-1205                    [16, 128, 16, 16]         --
│    └─ReLU: 2-1206                      [16, 128, 16, 16]         --
│    └─Empty: 2-1207                     [16, 128, 16, 16]         --
│    └─Clamp: 2-1208                     [16, 128, 16, 16]         --
├─FusedMaxPoolConv2dBNReLU: 1-121        [16, 128, 16, 16]         (recursive)
│    └─MaxPool2d: 2-1209                 [16, 128, 16, 16]         --
│    └─Empty: 2-1210                     [16, 128, 16, 16]         --
│    └─Empty: 2-1211                     [16, 128, 16, 16]         --
│    └─OutputShiftSqueeze: 2-1212        --                        --
│    └─One: 2-1213                       [1]                       --
│    └─OutputScale: 2-1214               --                        --
│    └─Empty: 2-1215                     [128, 128, 3, 3]          --
│    └─Empty: 2-1216                     [128, 128, 3, 3]          --
│    └─Empty: 2-1217                     [128]                     --
│    └─Empty: 2-1218                     [128]                     --
│    └─BatchNorm2d: 2-1219               [16, 128, 16, 16]         --
│    └─Scaler: 2-1220                    [16, 128, 16, 16]         --
│    └─ReLU: 2-1221                      [16, 128, 16, 16]         --
│    └─Empty: 2-1222                     [16, 128, 16, 16]         --
│    └─Clamp: 2-1223                     [16, 128, 16, 16]         --
├─Dropout2d: 1-122                       [16, 128, 16, 16]         --
├─FusedMaxPoolConv2dBNReLU: 1-123        [16, 128, 8, 8]           (recursive)
│    └─MaxPool2d: 2-1224                 [16, 128, 8, 8]           --
│    └─Empty: 2-1225                     [16, 128, 8, 8]           --
│    └─Empty: 2-1226                     [16, 128, 8, 8]           --
│    └─OutputShiftSqueeze: 2-1227        --                        --
│    └─One: 2-1228                       [1]                       --
│    └─OutputScale: 2-1229               --                        --
│    └─Empty: 2-1230                     [128, 128, 3, 3]          --
│    └─Empty: 2-1231                     [128, 128, 3, 3]          --
│    └─Empty: 2-1232                     [128]                     --
│    └─Empty: 2-1233                     [128]                     --
│    └─BatchNorm2d: 2-1234               [16, 128, 8, 8]           --
│    └─Scaler: 2-1235                    [16, 128, 8, 8]           --
│    └─ReLU: 2-1236                      [16, 128, 8, 8]           --
│    └─Empty: 2-1237                     [16, 128, 8, 8]           --
│    └─Clamp: 2-1238                     [16, 128, 8, 8]           --
├─FusedConv2dBNReLU: 1-124               [16, 16, 8, 8]            (recursive)
│    └─OutputShiftSqueeze: 2-1239        --                        --
│    └─One: 2-1240                       [1]                       --
│    └─OutputScale: 2-1241               --                        --
│    └─Empty: 2-1242                     [16, 128, 1, 1]           --
│    └─Empty: 2-1243                     [16, 128, 1, 1]           --
│    └─Empty: 2-1244                     [16]                      --
│    └─Empty: 2-1245                     [16]                      --
│    └─BatchNorm2d: 2-1246               [16, 16, 8, 8]            --
│    └─Scaler: 2-1247                    [16, 16, 8, 8]            --
│    └─ReLU: 2-1248                      [16, 16, 8, 8]            --
│    └─Empty: 2-1249                     [16, 16, 8, 8]            --
│    └─Clamp: 2-1250                     [16, 16, 8, 8]            --
├─FusedMaxPoolConv2dBNReLU: 1-125        [16, 16, 8, 8]            (recursive)
│    └─MaxPool2d: 2-1251                 [16, 128, 8, 8]           --
│    └─Empty: 2-1252                     [16, 128, 8, 8]           --
│    └─Empty: 2-1253                     [16, 128, 8, 8]           --
│    └─OutputShiftSqueeze: 2-1254        --                        --
│    └─One: 2-1255                       [1]                       --
│    └─OutputScale: 2-1256               --                        --
│    └─Empty: 2-1257                     [16, 128, 3, 3]           --
│    └─Empty: 2-1258                     [16, 128, 3, 3]           --
│    └─Empty: 2-1259                     [16]                      --
│    └─Empty: 2-1260                     [16]                      --
│    └─BatchNorm2d: 2-1261               [16, 16, 8, 8]            --
│    └─Scaler: 2-1262                    [16, 16, 8, 8]            --
│    └─ReLU: 2-1263                      [16, 16, 8, 8]            --
│    └─Empty: 2-1264                     [16, 16, 8, 8]            --
│    └─Clamp: 2-1265                     [16, 16, 8, 8]            --
├─Dropout2d: 1-126                       [16, 16, 8, 8]            --
├─FusedConv2dBNReLU: 1-127               [16, 128, 64, 64]         (recursive)
│    └─OutputShiftSqueeze: 2-1266        --                        --
│    └─One: 2-1267                       [1]                       --
│    └─OutputScale: 2-1268               --                        --
│    └─Empty: 2-1269                     [128, 48, 1, 1]           --
│    └─Empty: 2-1270                     [128, 48, 1, 1]           --
│    └─Empty: 2-1271                     [128]                     --
│    └─Empty: 2-1272                     [128]                     --
│    └─BatchNorm2d: 2-1273               [16, 128, 64, 64]         --
│    └─Scaler: 2-1274                    [16, 128, 64, 64]         --
│    └─ReLU: 2-1275                      [16, 128, 64, 64]         --
│    └─Empty: 2-1276                     [16, 128, 64, 64]         --
│    └─Clamp: 2-1277                     [16, 128, 64, 64]         --
├─FusedMaxPoolConv2dBNReLU: 1-128        [16, 128, 32, 32]         (recursive)
│    └─MaxPool2d: 2-1278                 [16, 128, 32, 32]         --
│    └─Empty: 2-1279                     [16, 128, 32, 32]         --
│    └─Empty: 2-1280                     [16, 128, 32, 32]         --
│    └─OutputShiftSqueeze: 2-1281        --                        --
│    └─One: 2-1282                       [1]                       --
│    └─OutputScale: 2-1283               --                        --
│    └─Empty: 2-1284                     [128, 128, 3, 3]          --
│    └─Empty: 2-1285                     [128, 128, 3, 3]          --
│    └─Empty: 2-1286                     [128]                     --
│    └─Empty: 2-1287                     [128]                     --
│    └─BatchNorm2d: 2-1288               [16, 128, 32, 32]         --
│    └─Scaler: 2-1289                    [16, 128, 32, 32]         --
│    └─ReLU: 2-1290                      [16, 128, 32, 32]         --
│    └─Empty: 2-1291                     [16, 128, 32, 32]         --
│    └─Clamp: 2-1292                     [16, 128, 32, 32]         --
├─Dropout2d: 1-129                       [16, 128, 32, 32]         --
├─FusedMaxPoolConv2dBNReLU: 1-130        [16, 128, 16, 16]         (recursive)
│    └─MaxPool2d: 2-1293                 [16, 128, 16, 16]         --
│    └─Empty: 2-1294                     [16, 128, 16, 16]         --
│    └─Empty: 2-1295                     [16, 128, 16, 16]         --
│    └─OutputShiftSqueeze: 2-1296        --                        --
│    └─One: 2-1297                       [1]                       --
│    └─OutputScale: 2-1298               --                        --
│    └─Empty: 2-1299                     [128, 128, 3, 3]          --
│    └─Empty: 2-1300                     [128, 128, 3, 3]          --
│    └─Empty: 2-1301                     [128]                     --
│    └─Empty: 2-1302                     [128]                     --
│    └─BatchNorm2d: 2-1303               [16, 128, 16, 16]         --
│    └─Scaler: 2-1304                    [16, 128, 16, 16]         --
│    └─ReLU: 2-1305                      [16, 128, 16, 16]         --
│    └─Empty: 2-1306                     [16, 128, 16, 16]         --
│    └─Clamp: 2-1307                     [16, 128, 16, 16]         --
├─FusedConv2dBNReLU: 1-131               [16, 128, 16, 16]         (recursive)
│    └─OutputShiftSqueeze: 2-1308        --                        --
│    └─One: 2-1309                       [1]                       --
│    └─OutputScale: 2-1310               --                        --
│    └─Empty: 2-1311                     [128, 128, 1, 1]          --
│    └─Empty: 2-1312                     [128, 128, 1, 1]          --
│    └─Empty: 2-1313                     [128]                     --
│    └─Empty: 2-1314                     [128]                     --
│    └─BatchNorm2d: 2-1315               [16, 128, 16, 16]         --
│    └─Scaler: 2-1316                    [16, 128, 16, 16]         --
│    └─ReLU: 2-1317                      [16, 128, 16, 16]         --
│    └─Empty: 2-1318                     [16, 128, 16, 16]         --
│    └─Clamp: 2-1319                     [16, 128, 16, 16]         --
├─FusedMaxPoolConv2dBNReLU: 1-132        [16, 128, 16, 16]         (recursive)
│    └─MaxPool2d: 2-1320                 [16, 128, 16, 16]         --
│    └─Empty: 2-1321                     [16, 128, 16, 16]         --
│    └─Empty: 2-1322                     [16, 128, 16, 16]         --
│    └─OutputShiftSqueeze: 2-1323        --                        --
│    └─One: 2-1324                       [1]                       --
│    └─OutputScale: 2-1325               --                        --
│    └─Empty: 2-1326                     [128, 128, 3, 3]          --
│    └─Empty: 2-1327                     [128, 128, 3, 3]          --
│    └─Empty: 2-1328                     [128]                     --
│    └─Empty: 2-1329                     [128]                     --
│    └─BatchNorm2d: 2-1330               [16, 128, 16, 16]         --
│    └─Scaler: 2-1331                    [16, 128, 16, 16]         --
│    └─ReLU: 2-1332                      [16, 128, 16, 16]         --
│    └─Empty: 2-1333                     [16, 128, 16, 16]         --
│    └─Clamp: 2-1334                     [16, 128, 16, 16]         --
├─Dropout2d: 1-133                       [16, 128, 16, 16]         --
├─FusedMaxPoolConv2dBNReLU: 1-134        [16, 128, 8, 8]           (recursive)
│    └─MaxPool2d: 2-1335                 [16, 128, 8, 8]           --
│    └─Empty: 2-1336                     [16, 128, 8, 8]           --
│    └─Empty: 2-1337                     [16, 128, 8, 8]           --
│    └─OutputShiftSqueeze: 2-1338        --                        --
│    └─One: 2-1339                       [1]                       --
│    └─OutputScale: 2-1340               --                        --
│    └─Empty: 2-1341                     [128, 128, 3, 3]          --
│    └─Empty: 2-1342                     [128, 128, 3, 3]          --
│    └─Empty: 2-1343                     [128]                     --
│    └─Empty: 2-1344                     [128]                     --
│    └─BatchNorm2d: 2-1345               [16, 128, 8, 8]           --
│    └─Scaler: 2-1346                    [16, 128, 8, 8]           --
│    └─ReLU: 2-1347                      [16, 128, 8, 8]           --
│    └─Empty: 2-1348                     [16, 128, 8, 8]           --
│    └─Clamp: 2-1349                     [16, 128, 8, 8]           --
├─FusedConv2dBNReLU: 1-135               [16, 16, 8, 8]            (recursive)
│    └─OutputShiftSqueeze: 2-1350        --                        --
│    └─One: 2-1351                       [1]                       --
│    └─OutputScale: 2-1352               --                        --
│    └─Empty: 2-1353                     [16, 128, 1, 1]           --
│    └─Empty: 2-1354                     [16, 128, 1, 1]           --
│    └─Empty: 2-1355                     [16]                      --
│    └─Empty: 2-1356                     [16]                      --
│    └─BatchNorm2d: 2-1357               [16, 16, 8, 8]            --
│    └─Scaler: 2-1358                    [16, 16, 8, 8]            --
│    └─ReLU: 2-1359                      [16, 16, 8, 8]            --
│    └─Empty: 2-1360                     [16, 16, 8, 8]            --
│    └─Clamp: 2-1361                     [16, 16, 8, 8]            --
├─FusedMaxPoolConv2dBNReLU: 1-136        [16, 16, 8, 8]            (recursive)
│    └─MaxPool2d: 2-1362                 [16, 128, 8, 8]           --
│    └─Empty: 2-1363                     [16, 128, 8, 8]           --
│    └─Empty: 2-1364                     [16, 128, 8, 8]           --
│    └─OutputShiftSqueeze: 2-1365        --                        --
│    └─One: 2-1366                       [1]                       --
│    └─OutputScale: 2-1367               --                        --
│    └─Empty: 2-1368                     [16, 128, 3, 3]           --
│    └─Empty: 2-1369                     [16, 128, 3, 3]           --
│    └─Empty: 2-1370                     [16]                      --
│    └─Empty: 2-1371                     [16]                      --
│    └─BatchNorm2d: 2-1372               [16, 16, 8, 8]            --
│    └─Scaler: 2-1373                    [16, 16, 8, 8]            --
│    └─ReLU: 2-1374                      [16, 16, 8, 8]            --
│    └─Empty: 2-1375                     [16, 16, 8, 8]            --
│    └─Clamp: 2-1376                     [16, 16, 8, 8]            --
├─Dropout2d: 1-137                       [16, 16, 8, 8]            --
├─FusedConv2dBNReLU: 1-138               [16, 128, 64, 64]         (recursive)
│    └─OutputShiftSqueeze: 2-1377        --                        --
│    └─One: 2-1378                       [1]                       --
│    └─OutputScale: 2-1379               --                        --
│    └─Empty: 2-1380                     [128, 48, 1, 1]           --
│    └─Empty: 2-1381                     [128, 48, 1, 1]           --
│    └─Empty: 2-1382                     [128]                     --
│    └─Empty: 2-1383                     [128]                     --
│    └─BatchNorm2d: 2-1384               [16, 128, 64, 64]         --
│    └─Scaler: 2-1385                    [16, 128, 64, 64]         --
│    └─ReLU: 2-1386                      [16, 128, 64, 64]         --
│    └─Empty: 2-1387                     [16, 128, 64, 64]         --
│    └─Clamp: 2-1388                     [16, 128, 64, 64]         --
├─FusedMaxPoolConv2dBNReLU: 1-139        [16, 128, 32, 32]         (recursive)
│    └─MaxPool2d: 2-1389                 [16, 128, 32, 32]         --
│    └─Empty: 2-1390                     [16, 128, 32, 32]         --
│    └─Empty: 2-1391                     [16, 128, 32, 32]         --
│    └─OutputShiftSqueeze: 2-1392        --                        --
│    └─One: 2-1393                       [1]                       --
│    └─OutputScale: 2-1394               --                        --
│    └─Empty: 2-1395                     [128, 128, 3, 3]          --
│    └─Empty: 2-1396                     [128, 128, 3, 3]          --
│    └─Empty: 2-1397                     [128]                     --
│    └─Empty: 2-1398                     [128]                     --
│    └─BatchNorm2d: 2-1399               [16, 128, 32, 32]         --
│    └─Scaler: 2-1400                    [16, 128, 32, 32]         --
│    └─ReLU: 2-1401                      [16, 128, 32, 32]         --
│    └─Empty: 2-1402                     [16, 128, 32, 32]         --
│    └─Clamp: 2-1403                     [16, 128, 32, 32]         --
├─Dropout2d: 1-140                       [16, 128, 32, 32]         --
├─FusedMaxPoolConv2dBNReLU: 1-141        [16, 128, 16, 16]         (recursive)
│    └─MaxPool2d: 2-1404                 [16, 128, 16, 16]         --
│    └─Empty: 2-1405                     [16, 128, 16, 16]         --
│    └─Empty: 2-1406                     [16, 128, 16, 16]         --
│    └─OutputShiftSqueeze: 2-1407        --                        --
│    └─One: 2-1408                       [1]                       --
│    └─OutputScale: 2-1409               --                        --
│    └─Empty: 2-1410                     [128, 128, 3, 3]          --
│    └─Empty: 2-1411                     [128, 128, 3, 3]          --
│    └─Empty: 2-1412                     [128]                     --
│    └─Empty: 2-1413                     [128]                     --
│    └─BatchNorm2d: 2-1414               [16, 128, 16, 16]         --
│    └─Scaler: 2-1415                    [16, 128, 16, 16]         --
│    └─ReLU: 2-1416                      [16, 128, 16, 16]         --
│    └─Empty: 2-1417                     [16, 128, 16, 16]         --
│    └─Clamp: 2-1418                     [16, 128, 16, 16]         --
├─FusedConv2dBNReLU: 1-142               [16, 128, 16, 16]         (recursive)
│    └─OutputShiftSqueeze: 2-1419        --                        --
│    └─One: 2-1420                       [1]                       --
│    └─OutputScale: 2-1421               --                        --
│    └─Empty: 2-1422                     [128, 128, 1, 1]          --
│    └─Empty: 2-1423                     [128, 128, 1, 1]          --
│    └─Empty: 2-1424                     [128]                     --
│    └─Empty: 2-1425                     [128]                     --
│    └─BatchNorm2d: 2-1426               [16, 128, 16, 16]         --
│    └─Scaler: 2-1427                    [16, 128, 16, 16]         --
│    └─ReLU: 2-1428                      [16, 128, 16, 16]         --
│    └─Empty: 2-1429                     [16, 128, 16, 16]         --
│    └─Clamp: 2-1430                     [16, 128, 16, 16]         --
├─FusedMaxPoolConv2dBNReLU: 1-143        [16, 128, 16, 16]         (recursive)
│    └─MaxPool2d: 2-1431                 [16, 128, 16, 16]         --
│    └─Empty: 2-1432                     [16, 128, 16, 16]         --
│    └─Empty: 2-1433                     [16, 128, 16, 16]         --
│    └─OutputShiftSqueeze: 2-1434        --                        --
│    └─One: 2-1435                       [1]                       --
│    └─OutputScale: 2-1436               --                        --
│    └─Empty: 2-1437                     [128, 128, 3, 3]          --
│    └─Empty: 2-1438                     [128, 128, 3, 3]          --
│    └─Empty: 2-1439                     [128]                     --
│    └─Empty: 2-1440                     [128]                     --
│    └─BatchNorm2d: 2-1441               [16, 128, 16, 16]         --
│    └─Scaler: 2-1442                    [16, 128, 16, 16]         --
│    └─ReLU: 2-1443                      [16, 128, 16, 16]         --
│    └─Empty: 2-1444                     [16, 128, 16, 16]         --
│    └─Clamp: 2-1445                     [16, 128, 16, 16]         --
├─Dropout2d: 1-144                       [16, 128, 16, 16]         --
├─FusedMaxPoolConv2dBNReLU: 1-145        [16, 128, 8, 8]           (recursive)
│    └─MaxPool2d: 2-1446                 [16, 128, 8, 8]           --
│    └─Empty: 2-1447                     [16, 128, 8, 8]           --
│    └─Empty: 2-1448                     [16, 128, 8, 8]           --
│    └─OutputShiftSqueeze: 2-1449        --                        --
│    └─One: 2-1450                       [1]                       --
│    └─OutputScale: 2-1451               --                        --
│    └─Empty: 2-1452                     [128, 128, 3, 3]          --
│    └─Empty: 2-1453                     [128, 128, 3, 3]          --
│    └─Empty: 2-1454                     [128]                     --
│    └─Empty: 2-1455                     [128]                     --
│    └─BatchNorm2d: 2-1456               [16, 128, 8, 8]           --
│    └─Scaler: 2-1457                    [16, 128, 8, 8]           --
│    └─ReLU: 2-1458                      [16, 128, 8, 8]           --
│    └─Empty: 2-1459                     [16, 128, 8, 8]           --
│    └─Clamp: 2-1460                     [16, 128, 8, 8]           --
├─FusedConv2dBNReLU: 1-146               [16, 16, 8, 8]            (recursive)
│    └─OutputShiftSqueeze: 2-1461        --                        --
│    └─One: 2-1462                       [1]                       --
│    └─OutputScale: 2-1463               --                        --
│    └─Empty: 2-1464                     [16, 128, 1, 1]           --
│    └─Empty: 2-1465                     [16, 128, 1, 1]           --
│    └─Empty: 2-1466                     [16]                      --
│    └─Empty: 2-1467                     [16]                      --
│    └─BatchNorm2d: 2-1468               [16, 16, 8, 8]            --
│    └─Scaler: 2-1469                    [16, 16, 8, 8]            --
│    └─ReLU: 2-1470                      [16, 16, 8, 8]            --
│    └─Empty: 2-1471                     [16, 16, 8, 8]            --
│    └─Clamp: 2-1472                     [16, 16, 8, 8]            --
├─FusedMaxPoolConv2dBNReLU: 1-147        [16, 16, 8, 8]            (recursive)
│    └─MaxPool2d: 2-1473                 [16, 128, 8, 8]           --
│    └─Empty: 2-1474                     [16, 128, 8, 8]           --
│    └─Empty: 2-1475                     [16, 128, 8, 8]           --
│    └─OutputShiftSqueeze: 2-1476        --                        --
│    └─One: 2-1477                       [1]                       --
│    └─OutputScale: 2-1478               --                        --
│    └─Empty: 2-1479                     [16, 128, 3, 3]           --
│    └─Empty: 2-1480                     [16, 128, 3, 3]           --
│    └─Empty: 2-1481                     [16]                      --
│    └─Empty: 2-1482                     [16]                      --
│    └─BatchNorm2d: 2-1483               [16, 16, 8, 8]            --
│    └─Scaler: 2-1484                    [16, 16, 8, 8]            --
│    └─ReLU: 2-1485                      [16, 16, 8, 8]            --
│    └─Empty: 2-1486                     [16, 16, 8, 8]            --
│    └─Clamp: 2-1487                     [16, 16, 8, 8]            --
├─Dropout2d: 1-148                       [16, 16, 8, 8]            --
├─FusedConv2dBNReLU: 1-149               [16, 128, 64, 64]         (recursive)
│    └─OutputShiftSqueeze: 2-1488        --                        --
│    └─One: 2-1489                       [1]                       --
│    └─OutputScale: 2-1490               --                        --
│    └─Empty: 2-1491                     [128, 48, 1, 1]           --
│    └─Empty: 2-1492                     [128, 48, 1, 1]           --
│    └─Empty: 2-1493                     [128]                     --
│    └─Empty: 2-1494                     [128]                     --
│    └─BatchNorm2d: 2-1495               [16, 128, 64, 64]         --
│    └─Scaler: 2-1496                    [16, 128, 64, 64]         --
│    └─ReLU: 2-1497                      [16, 128, 64, 64]         --
│    └─Empty: 2-1498                     [16, 128, 64, 64]         --
│    └─Clamp: 2-1499                     [16, 128, 64, 64]         --
├─FusedMaxPoolConv2dBNReLU: 1-150        [16, 128, 32, 32]         (recursive)
│    └─MaxPool2d: 2-1500                 [16, 128, 32, 32]         --
│    └─Empty: 2-1501                     [16, 128, 32, 32]         --
│    └─Empty: 2-1502                     [16, 128, 32, 32]         --
│    └─OutputShiftSqueeze: 2-1503        --                        --
│    └─One: 2-1504                       [1]                       --
│    └─OutputScale: 2-1505               --                        --
│    └─Empty: 2-1506                     [128, 128, 3, 3]          --
│    └─Empty: 2-1507                     [128, 128, 3, 3]          --
│    └─Empty: 2-1508                     [128]                     --
│    └─Empty: 2-1509                     [128]                     --
│    └─BatchNorm2d: 2-1510               [16, 128, 32, 32]         --
│    └─Scaler: 2-1511                    [16, 128, 32, 32]         --
│    └─ReLU: 2-1512                      [16, 128, 32, 32]         --
│    └─Empty: 2-1513                     [16, 128, 32, 32]         --
│    └─Clamp: 2-1514                     [16, 128, 32, 32]         --
├─Dropout2d: 1-151                       [16, 128, 32, 32]         --
├─FusedMaxPoolConv2dBNReLU: 1-152        [16, 128, 16, 16]         (recursive)
│    └─MaxPool2d: 2-1515                 [16, 128, 16, 16]         --
│    └─Empty: 2-1516                     [16, 128, 16, 16]         --
│    └─Empty: 2-1517                     [16, 128, 16, 16]         --
│    └─OutputShiftSqueeze: 2-1518        --                        --
│    └─One: 2-1519                       [1]                       --
│    └─OutputScale: 2-1520               --                        --
│    └─Empty: 2-1521                     [128, 128, 3, 3]          --
│    └─Empty: 2-1522                     [128, 128, 3, 3]          --
│    └─Empty: 2-1523                     [128]                     --
│    └─Empty: 2-1524                     [128]                     --
│    └─BatchNorm2d: 2-1525               [16, 128, 16, 16]         --
│    └─Scaler: 2-1526                    [16, 128, 16, 16]         --
│    └─ReLU: 2-1527                      [16, 128, 16, 16]         --
│    └─Empty: 2-1528                     [16, 128, 16, 16]         --
│    └─Clamp: 2-1529                     [16, 128, 16, 16]         --
├─FusedConv2dBNReLU: 1-153               [16, 128, 16, 16]         (recursive)
│    └─OutputShiftSqueeze: 2-1530        --                        --
│    └─One: 2-1531                       [1]                       --
│    └─OutputScale: 2-1532               --                        --
│    └─Empty: 2-1533                     [128, 128, 1, 1]          --
│    └─Empty: 2-1534                     [128, 128, 1, 1]          --
│    └─Empty: 2-1535                     [128]                     --
│    └─Empty: 2-1536                     [128]                     --
│    └─BatchNorm2d: 2-1537               [16, 128, 16, 16]         --
│    └─Scaler: 2-1538                    [16, 128, 16, 16]         --
│    └─ReLU: 2-1539                      [16, 128, 16, 16]         --
│    └─Empty: 2-1540                     [16, 128, 16, 16]         --
│    └─Clamp: 2-1541                     [16, 128, 16, 16]         --
├─FusedMaxPoolConv2dBNReLU: 1-154        [16, 128, 16, 16]         (recursive)
│    └─MaxPool2d: 2-1542                 [16, 128, 16, 16]         --
│    └─Empty: 2-1543                     [16, 128, 16, 16]         --
│    └─Empty: 2-1544                     [16, 128, 16, 16]         --
│    └─OutputShiftSqueeze: 2-1545        --                        --
│    └─One: 2-1546                       [1]                       --
│    └─OutputScale: 2-1547               --                        --
│    └─Empty: 2-1548                     [128, 128, 3, 3]          --
│    └─Empty: 2-1549                     [128, 128, 3, 3]          --
│    └─Empty: 2-1550                     [128]                     --
│    └─Empty: 2-1551                     [128]                     --
│    └─BatchNorm2d: 2-1552               [16, 128, 16, 16]         --
│    └─Scaler: 2-1553                    [16, 128, 16, 16]         --
│    └─ReLU: 2-1554                      [16, 128, 16, 16]         --
│    └─Empty: 2-1555                     [16, 128, 16, 16]         --
│    └─Clamp: 2-1556                     [16, 128, 16, 16]         --
├─Dropout2d: 1-155                       [16, 128, 16, 16]         --
├─FusedMaxPoolConv2dBNReLU: 1-156        [16, 128, 8, 8]           (recursive)
│    └─MaxPool2d: 2-1557                 [16, 128, 8, 8]           --
│    └─Empty: 2-1558                     [16, 128, 8, 8]           --
│    └─Empty: 2-1559                     [16, 128, 8, 8]           --
│    └─OutputShiftSqueeze: 2-1560        --                        --
│    └─One: 2-1561                       [1]                       --
│    └─OutputScale: 2-1562               --                        --
│    └─Empty: 2-1563                     [128, 128, 3, 3]          --
│    └─Empty: 2-1564                     [128, 128, 3, 3]          --
│    └─Empty: 2-1565                     [128]                     --
│    └─Empty: 2-1566                     [128]                     --
│    └─BatchNorm2d: 2-1567               [16, 128, 8, 8]           --
│    └─Scaler: 2-1568                    [16, 128, 8, 8]           --
│    └─ReLU: 2-1569                      [16, 128, 8, 8]           --
│    └─Empty: 2-1570                     [16, 128, 8, 8]           --
│    └─Clamp: 2-1571                     [16, 128, 8, 8]           --
├─FusedConv2dBNReLU: 1-157               [16, 16, 8, 8]            (recursive)
│    └─OutputShiftSqueeze: 2-1572        --                        --
│    └─One: 2-1573                       [1]                       --
│    └─OutputScale: 2-1574               --                        --
│    └─Empty: 2-1575                     [16, 128, 1, 1]           --
│    └─Empty: 2-1576                     [16, 128, 1, 1]           --
│    └─Empty: 2-1577                     [16]                      --
│    └─Empty: 2-1578                     [16]                      --
│    └─BatchNorm2d: 2-1579               [16, 16, 8, 8]            --
│    └─Scaler: 2-1580                    [16, 16, 8, 8]            --
│    └─ReLU: 2-1581                      [16, 16, 8, 8]            --
│    └─Empty: 2-1582                     [16, 16, 8, 8]            --
│    └─Clamp: 2-1583                     [16, 16, 8, 8]            --
├─FusedMaxPoolConv2dBNReLU: 1-158        [16, 16, 8, 8]            (recursive)
│    └─MaxPool2d: 2-1584                 [16, 128, 8, 8]           --
│    └─Empty: 2-1585                     [16, 128, 8, 8]           --
│    └─Empty: 2-1586                     [16, 128, 8, 8]           --
│    └─OutputShiftSqueeze: 2-1587        --                        --
│    └─One: 2-1588                       [1]                       --
│    └─OutputScale: 2-1589               --                        --
│    └─Empty: 2-1590                     [16, 128, 3, 3]           --
│    └─Empty: 2-1591                     [16, 128, 3, 3]           --
│    └─Empty: 2-1592                     [16]                      --
│    └─Empty: 2-1593                     [16]                      --
│    └─BatchNorm2d: 2-1594               [16, 16, 8, 8]            --
│    └─Scaler: 2-1595                    [16, 16, 8, 8]            --
│    └─ReLU: 2-1596                      [16, 16, 8, 8]            --
│    └─Empty: 2-1597                     [16, 16, 8, 8]            --
│    └─Clamp: 2-1598                     [16, 16, 8, 8]            --
├─Dropout2d: 1-159                       [16, 16, 8, 8]            --
├─FusedConv2dBNReLU: 1-160               [16, 128, 64, 64]         (recursive)
│    └─OutputShiftSqueeze: 2-1599        --                        --
│    └─One: 2-1600                       [1]                       --
│    └─OutputScale: 2-1601               --                        --
│    └─Empty: 2-1602                     [128, 48, 1, 1]           --
│    └─Empty: 2-1603                     [128, 48, 1, 1]           --
│    └─Empty: 2-1604                     [128]                     --
│    └─Empty: 2-1605                     [128]                     --
│    └─BatchNorm2d: 2-1606               [16, 128, 64, 64]         --
│    └─Scaler: 2-1607                    [16, 128, 64, 64]         --
│    └─ReLU: 2-1608                      [16, 128, 64, 64]         --
│    └─Empty: 2-1609                     [16, 128, 64, 64]         --
│    └─Clamp: 2-1610                     [16, 128, 64, 64]         --
├─FusedMaxPoolConv2dBNReLU: 1-161        [16, 128, 32, 32]         (recursive)
│    └─MaxPool2d: 2-1611                 [16, 128, 32, 32]         --
│    └─Empty: 2-1612                     [16, 128, 32, 32]         --
│    └─Empty: 2-1613                     [16, 128, 32, 32]         --
│    └─OutputShiftSqueeze: 2-1614        --                        --
│    └─One: 2-1615                       [1]                       --
│    └─OutputScale: 2-1616               --                        --
│    └─Empty: 2-1617                     [128, 128, 3, 3]          --
│    └─Empty: 2-1618                     [128, 128, 3, 3]          --
│    └─Empty: 2-1619                     [128]                     --
│    └─Empty: 2-1620                     [128]                     --
│    └─BatchNorm2d: 2-1621               [16, 128, 32, 32]         --
│    └─Scaler: 2-1622                    [16, 128, 32, 32]         --
│    └─ReLU: 2-1623                      [16, 128, 32, 32]         --
│    └─Empty: 2-1624                     [16, 128, 32, 32]         --
│    └─Clamp: 2-1625                     [16, 128, 32, 32]         --
├─Dropout2d: 1-162                       [16, 128, 32, 32]         --
├─FusedMaxPoolConv2dBNReLU: 1-163        [16, 128, 16, 16]         (recursive)
│    └─MaxPool2d: 2-1626                 [16, 128, 16, 16]         --
│    └─Empty: 2-1627                     [16, 128, 16, 16]         --
│    └─Empty: 2-1628                     [16, 128, 16, 16]         --
│    └─OutputShiftSqueeze: 2-1629        --                        --
│    └─One: 2-1630                       [1]                       --
│    └─OutputScale: 2-1631               --                        --
│    └─Empty: 2-1632                     [128, 128, 3, 3]          --
│    └─Empty: 2-1633                     [128, 128, 3, 3]          --
│    └─Empty: 2-1634                     [128]                     --
│    └─Empty: 2-1635                     [128]                     --
│    └─BatchNorm2d: 2-1636               [16, 128, 16, 16]         --
│    └─Scaler: 2-1637                    [16, 128, 16, 16]         --
│    └─ReLU: 2-1638                      [16, 128, 16, 16]         --
│    └─Empty: 2-1639                     [16, 128, 16, 16]         --
│    └─Clamp: 2-1640                     [16, 128, 16, 16]         --
├─FusedConv2dBNReLU: 1-164               [16, 128, 16, 16]         (recursive)
│    └─OutputShiftSqueeze: 2-1641        --                        --
│    └─One: 2-1642                       [1]                       --
│    └─OutputScale: 2-1643               --                        --
│    └─Empty: 2-1644                     [128, 128, 1, 1]          --
│    └─Empty: 2-1645                     [128, 128, 1, 1]          --
│    └─Empty: 2-1646                     [128]                     --
│    └─Empty: 2-1647                     [128]                     --
│    └─BatchNorm2d: 2-1648               [16, 128, 16, 16]         --
│    └─Scaler: 2-1649                    [16, 128, 16, 16]         --
│    └─ReLU: 2-1650                      [16, 128, 16, 16]         --
│    └─Empty: 2-1651                     [16, 128, 16, 16]         --
│    └─Clamp: 2-1652                     [16, 128, 16, 16]         --
├─FusedMaxPoolConv2dBNReLU: 1-165        [16, 128, 16, 16]         (recursive)
│    └─MaxPool2d: 2-1653                 [16, 128, 16, 16]         --
│    └─Empty: 2-1654                     [16, 128, 16, 16]         --
│    └─Empty: 2-1655                     [16, 128, 16, 16]         --
│    └─OutputShiftSqueeze: 2-1656        --                        --
│    └─One: 2-1657                       [1]                       --
│    └─OutputScale: 2-1658               --                        --
│    └─Empty: 2-1659                     [128, 128, 3, 3]          --
│    └─Empty: 2-1660                     [128, 128, 3, 3]          --
│    └─Empty: 2-1661                     [128]                     --
│    └─Empty: 2-1662                     [128]                     --
│    └─BatchNorm2d: 2-1663               [16, 128, 16, 16]         --
│    └─Scaler: 2-1664                    [16, 128, 16, 16]         --
│    └─ReLU: 2-1665                      [16, 128, 16, 16]         --
│    └─Empty: 2-1666                     [16, 128, 16, 16]         --
│    └─Clamp: 2-1667                     [16, 128, 16, 16]         --
├─Dropout2d: 1-166                       [16, 128, 16, 16]         --
├─FusedMaxPoolConv2dBNReLU: 1-167        [16, 128, 8, 8]           (recursive)
│    └─MaxPool2d: 2-1668                 [16, 128, 8, 8]           --
│    └─Empty: 2-1669                     [16, 128, 8, 8]           --
│    └─Empty: 2-1670                     [16, 128, 8, 8]           --
│    └─OutputShiftSqueeze: 2-1671        --                        --
│    └─One: 2-1672                       [1]                       --
│    └─OutputScale: 2-1673               --                        --
│    └─Empty: 2-1674                     [128, 128, 3, 3]          --
│    └─Empty: 2-1675                     [128, 128, 3, 3]          --
│    └─Empty: 2-1676                     [128]                     --
│    └─Empty: 2-1677                     [128]                     --
│    └─BatchNorm2d: 2-1678               [16, 128, 8, 8]           --
│    └─Scaler: 2-1679                    [16, 128, 8, 8]           --
│    └─ReLU: 2-1680                      [16, 128, 8, 8]           --
│    └─Empty: 2-1681                     [16, 128, 8, 8]           --
│    └─Clamp: 2-1682                     [16, 128, 8, 8]           --
├─FusedConv2dBNReLU: 1-168               [16, 16, 8, 8]            (recursive)
│    └─OutputShiftSqueeze: 2-1683        --                        --
│    └─One: 2-1684                       [1]                       --
│    └─OutputScale: 2-1685               --                        --
│    └─Empty: 2-1686                     [16, 128, 1, 1]           --
│    └─Empty: 2-1687                     [16, 128, 1, 1]           --
│    └─Empty: 2-1688                     [16]                      --
│    └─Empty: 2-1689                     [16]                      --
│    └─BatchNorm2d: 2-1690               [16, 16, 8, 8]            --
│    └─Scaler: 2-1691                    [16, 16, 8, 8]            --
│    └─ReLU: 2-1692                      [16, 16, 8, 8]            --
│    └─Empty: 2-1693                     [16, 16, 8, 8]            --
│    └─Clamp: 2-1694                     [16, 16, 8, 8]            --
├─FusedMaxPoolConv2dBNReLU: 1-169        [16, 16, 8, 8]            (recursive)
│    └─MaxPool2d: 2-1695                 [16, 128, 8, 8]           --
│    └─Empty: 2-1696                     [16, 128, 8, 8]           --
│    └─Empty: 2-1697                     [16, 128, 8, 8]           --
│    └─OutputShiftSqueeze: 2-1698        --                        --
│    └─One: 2-1699                       [1]                       --
│    └─OutputScale: 2-1700               --                        --
│    └─Empty: 2-1701                     [16, 128, 3, 3]           --
│    └─Empty: 2-1702                     [16, 128, 3, 3]           --
│    └─Empty: 2-1703                     [16]                      --
│    └─Empty: 2-1704                     [16]                      --
│    └─BatchNorm2d: 2-1705               [16, 16, 8, 8]            --
│    └─Scaler: 2-1706                    [16, 16, 8, 8]            --
│    └─ReLU: 2-1707                      [16, 16, 8, 8]            --
│    └─Empty: 2-1708                     [16, 16, 8, 8]            --
│    └─Clamp: 2-1709                     [16, 16, 8, 8]            --
├─Dropout2d: 1-170                       [16, 16, 8, 8]            --
├─FusedConv2dBNReLU: 1-171               [16, 128, 64, 64]         (recursive)
│    └─OutputShiftSqueeze: 2-1710        --                        --
│    └─One: 2-1711                       [1]                       --
│    └─OutputScale: 2-1712               --                        --
│    └─Empty: 2-1713                     [128, 48, 1, 1]           --
│    └─Empty: 2-1714                     [128, 48, 1, 1]           --
│    └─Empty: 2-1715                     [128]                     --
│    └─Empty: 2-1716                     [128]                     --
│    └─BatchNorm2d: 2-1717               [16, 128, 64, 64]         --
│    └─Scaler: 2-1718                    [16, 128, 64, 64]         --
│    └─ReLU: 2-1719                      [16, 128, 64, 64]         --
│    └─Empty: 2-1720                     [16, 128, 64, 64]         --
│    └─Clamp: 2-1721                     [16, 128, 64, 64]         --
├─FusedMaxPoolConv2dBNReLU: 1-172        [16, 128, 32, 32]         (recursive)
│    └─MaxPool2d: 2-1722                 [16, 128, 32, 32]         --
│    └─Empty: 2-1723                     [16, 128, 32, 32]         --
│    └─Empty: 2-1724                     [16, 128, 32, 32]         --
│    └─OutputShiftSqueeze: 2-1725        --                        --
│    └─One: 2-1726                       [1]                       --
│    └─OutputScale: 2-1727               --                        --
│    └─Empty: 2-1728                     [128, 128, 3, 3]          --
│    └─Empty: 2-1729                     [128, 128, 3, 3]          --
│    └─Empty: 2-1730                     [128]                     --
│    └─Empty: 2-1731                     [128]                     --
│    └─BatchNorm2d: 2-1732               [16, 128, 32, 32]         --
│    └─Scaler: 2-1733                    [16, 128, 32, 32]         --
│    └─ReLU: 2-1734                      [16, 128, 32, 32]         --
│    └─Empty: 2-1735                     [16, 128, 32, 32]         --
│    └─Clamp: 2-1736                     [16, 128, 32, 32]         --
├─Dropout2d: 1-173                       [16, 128, 32, 32]         --
├─FusedMaxPoolConv2dBNReLU: 1-174        [16, 128, 16, 16]         (recursive)
│    └─MaxPool2d: 2-1737                 [16, 128, 16, 16]         --
│    └─Empty: 2-1738                     [16, 128, 16, 16]         --
│    └─Empty: 2-1739                     [16, 128, 16, 16]         --
│    └─OutputShiftSqueeze: 2-1740        --                        --
│    └─One: 2-1741                       [1]                       --
│    └─OutputScale: 2-1742               --                        --
│    └─Empty: 2-1743                     [128, 128, 3, 3]          --
│    └─Empty: 2-1744                     [128, 128, 3, 3]          --
│    └─Empty: 2-1745                     [128]                     --
│    └─Empty: 2-1746                     [128]                     --
│    └─BatchNorm2d: 2-1747               [16, 128, 16, 16]         --
│    └─Scaler: 2-1748                    [16, 128, 16, 16]         --
│    └─ReLU: 2-1749                      [16, 128, 16, 16]         --
│    └─Empty: 2-1750                     [16, 128, 16, 16]         --
│    └─Clamp: 2-1751                     [16, 128, 16, 16]         --
├─FusedConv2dBNReLU: 1-175               [16, 128, 16, 16]         (recursive)
│    └─OutputShiftSqueeze: 2-1752        --                        --
│    └─One: 2-1753                       [1]                       --
│    └─OutputScale: 2-1754               --                        --
│    └─Empty: 2-1755                     [128, 128, 1, 1]          --
│    └─Empty: 2-1756                     [128, 128, 1, 1]          --
│    └─Empty: 2-1757                     [128]                     --
│    └─Empty: 2-1758                     [128]                     --
│    └─BatchNorm2d: 2-1759               [16, 128, 16, 16]         --
│    └─Scaler: 2-1760                    [16, 128, 16, 16]         --
│    └─ReLU: 2-1761                      [16, 128, 16, 16]         --
│    └─Empty: 2-1762                     [16, 128, 16, 16]         --
│    └─Clamp: 2-1763                     [16, 128, 16, 16]         --
├─FusedMaxPoolConv2dBNReLU: 1-176        [16, 128, 16, 16]         (recursive)
│    └─MaxPool2d: 2-1764                 [16, 128, 16, 16]         --
│    └─Empty: 2-1765                     [16, 128, 16, 16]         --
│    └─Empty: 2-1766                     [16, 128, 16, 16]         --
│    └─OutputShiftSqueeze: 2-1767        --                        --
│    └─One: 2-1768                       [1]                       --
│    └─OutputScale: 2-1769               --                        --
│    └─Empty: 2-1770                     [128, 128, 3, 3]          --
│    └─Empty: 2-1771                     [128, 128, 3, 3]          --
│    └─Empty: 2-1772                     [128]                     --
│    └─Empty: 2-1773                     [128]                     --
│    └─BatchNorm2d: 2-1774               [16, 128, 16, 16]         --
│    └─Scaler: 2-1775                    [16, 128, 16, 16]         --
│    └─ReLU: 2-1776                      [16, 128, 16, 16]         --
│    └─Empty: 2-1777                     [16, 128, 16, 16]         --
│    └─Clamp: 2-1778                     [16, 128, 16, 16]         --
├─Dropout2d: 1-177                       [16, 128, 16, 16]         --
├─FusedMaxPoolConv2dBNReLU: 1-178        [16, 128, 8, 8]           (recursive)
│    └─MaxPool2d: 2-1779                 [16, 128, 8, 8]           --
│    └─Empty: 2-1780                     [16, 128, 8, 8]           --
│    └─Empty: 2-1781                     [16, 128, 8, 8]           --
│    └─OutputShiftSqueeze: 2-1782        --                        --
│    └─One: 2-1783                       [1]                       --
│    └─OutputScale: 2-1784               --                        --
│    └─Empty: 2-1785                     [128, 128, 3, 3]          --
│    └─Empty: 2-1786                     [128, 128, 3, 3]          --
│    └─Empty: 2-1787                     [128]                     --
│    └─Empty: 2-1788                     [128]                     --
│    └─BatchNorm2d: 2-1789               [16, 128, 8, 8]           --
│    └─Scaler: 2-1790                    [16, 128, 8, 8]           --
│    └─ReLU: 2-1791                      [16, 128, 8, 8]           --
│    └─Empty: 2-1792                     [16, 128, 8, 8]           --
│    └─Clamp: 2-1793                     [16, 128, 8, 8]           --
├─FusedConv2dBNReLU: 1-179               [16, 16, 8, 8]            (recursive)
│    └─OutputShiftSqueeze: 2-1794        --                        --
│    └─One: 2-1795                       [1]                       --
│    └─OutputScale: 2-1796               --                        --
│    └─Empty: 2-1797                     [16, 128, 1, 1]           --
│    └─Empty: 2-1798                     [16, 128, 1, 1]           --
│    └─Empty: 2-1799                     [16]                      --
│    └─Empty: 2-1800                     [16]                      --
│    └─BatchNorm2d: 2-1801               [16, 16, 8, 8]            --
│    └─Scaler: 2-1802                    [16, 16, 8, 8]            --
│    └─ReLU: 2-1803                      [16, 16, 8, 8]            --
│    └─Empty: 2-1804                     [16, 16, 8, 8]            --
│    └─Clamp: 2-1805                     [16, 16, 8, 8]            --
├─FusedMaxPoolConv2dBNReLU: 1-180        [16, 16, 8, 8]            (recursive)
│    └─MaxPool2d: 2-1806                 [16, 128, 8, 8]           --
│    └─Empty: 2-1807                     [16, 128, 8, 8]           --
│    └─Empty: 2-1808                     [16, 128, 8, 8]           --
│    └─OutputShiftSqueeze: 2-1809        --                        --
│    └─One: 2-1810                       [1]                       --
│    └─OutputScale: 2-1811               --                        --
│    └─Empty: 2-1812                     [16, 128, 3, 3]           --
│    └─Empty: 2-1813                     [16, 128, 3, 3]           --
│    └─Empty: 2-1814                     [16]                      --
│    └─Empty: 2-1815                     [16]                      --
│    └─BatchNorm2d: 2-1816               [16, 16, 8, 8]            --
│    └─Scaler: 2-1817                    [16, 16, 8, 8]            --
│    └─ReLU: 2-1818                      [16, 16, 8, 8]            --
│    └─Empty: 2-1819                     [16, 16, 8, 8]            --
│    └─Clamp: 2-1820                     [16, 16, 8, 8]            --
├─Dropout2d: 1-181                       [16, 16, 8, 8]            --
├─Conv1d: 1-182                          [16, 5, 16]               25,611
│    └─OutputShiftSqueeze: 2-1821        --                        --
│    └─One: 2-1822                       [1]                       --
│    └─OutputScale: 2-1823               --                        --
│    └─Empty: 2-1824                     [5, 1024, 5]              --
│    └─Empty: 2-1825                     [5, 1024, 5]              --
│    └─Empty: 2-1826                     [5]                       --
│    └─Empty: 2-1827                     [5]                       --
│    └─Scaler: 2-1828                    [16, 5, 16]               --
│    └─Empty: 2-1829                     [16, 5, 16]               --
│    └─Empty: 2-1830                     [16, 5, 16]               --
│    └─Clamp: 2-1831                     [16, 5, 16]               --
==========================================================================================
Total params: 659,291
Trainable params: 659,237
Non-trainable params: 54
Total mult-adds (M): 0.00
==========================================================================================
Input size (MB): 201.33
Forward/backward pass size (MB): 0.00
Params size (MB): 2.53
Estimated Total Size (MB): 203.86
…
