…
I - Label min-max:  tensor(0) tensor(3) data number in dataset:  tensor([153264, 195195, 153021,  76223,  84943,  43440, 200255,  43470, 209205,
         19221,  95796, 104615,  31722, 159658])
I - Initializing model TCNv4
I - Number of Model Parameters: 537792
I - Model output shape:  torch.Size([14, 4])
I - Model summary
==========================================================================================
Layer (type:depth-idx)                   Output Shape              Param #
==========================================================================================
TCNv4                                    [14, 4]                   --
├─FusedConv2dBNReLU: 1-1                 [14, 64, 64, 64]          3,142
│    └─OutputShiftSqueeze: 2-1           --                        --
│    └─One: 2-2                          [1]                       --
│    └─OutputScale: 2-3                  --                        --
│    └─Empty: 2-4                        [64, 48, 1, 1]            --
│    └─Empty: 2-5                        [64, 48, 1, 1]            --
│    └─Empty: 2-6                        [64]                      --
│    └─Empty: 2-7                        [64]                      --
│    └─BatchNorm2d: 2-8                  [14, 64, 64, 64]          --
│    └─Scaler: 2-9                       [14, 64, 64, 64]          --
│    └─ReLU: 2-10                        [14, 64, 64, 64]          --
│    └─Empty: 2-11                       [14, 64, 64, 64]          --
│    └─Clamp: 2-12                       [14, 64, 64, 64]          --
├─FusedConv2dBNReLU: 1-2                 [14, 64, 64, 64]          36,934
│    └─OutputShiftSqueeze: 2-13          --                        --
│    └─One: 2-14                         [1]                       --
│    └─OutputScale: 2-15                 --                        --
│    └─Empty: 2-16                       [64, 64, 3, 3]            --
│    └─Empty: 2-17                       [64, 64, 3, 3]            --
│    └─Empty: 2-18                       [64]                      --
│    └─Empty: 2-19                       [64]                      --
│    └─BatchNorm2d: 2-20                 [14, 64, 64, 64]          --
│    └─Scaler: 2-21                      [14, 64, 64, 64]          --
│    └─ReLU: 2-22                        [14, 64, 64, 64]          --
│    └─Empty: 2-23                       [14, 64, 64, 64]          --
│    └─Clamp: 2-24                       [14, 64, 64, 64]          --
├─FusedConv2dBNReLU: 1-3                 [14, 64, 64, 64]          36,934
│    └─OutputShiftSqueeze: 2-25          --                        --
│    └─One: 2-26                         [1]                       --
│    └─OutputScale: 2-27                 --                        --
│    └─Empty: 2-28                       [64, 64, 3, 3]            --
│    └─Empty: 2-29                       [64, 64, 3, 3]            --
│    └─Empty: 2-30                       [64]                      --
│    └─Empty: 2-31                       [64]                      --
│    └─BatchNorm2d: 2-32                 [14, 64, 64, 64]          --
│    └─Scaler: 2-33                      [14, 64, 64, 64]          --
│    └─ReLU: 2-34                        [14, 64, 64, 64]          --
│    └─Empty: 2-35                       [14, 64, 64, 64]          --
│    └─Clamp: 2-36                       [14, 64, 64, 64]          --
├─FusedConv2dBNReLU: 1-4                 [14, 64, 64, 64]          4,166
│    └─OutputShiftSqueeze: 2-37          --                        --
│    └─One: 2-38                         [1]                       --
│    └─OutputScale: 2-39                 --                        --
│    └─Empty: 2-40                       [64, 64, 1, 1]            --
│    └─Empty: 2-41                       [64, 64, 1, 1]            --
│    └─Empty: 2-42                       [64]                      --
│    └─Empty: 2-43                       [64]                      --
│    └─BatchNorm2d: 2-44                 [14, 64, 64, 64]          --
│    └─Scaler: 2-45                      [14, 64, 64, 64]          --
│    └─ReLU: 2-46                        [14, 64, 64, 64]          --
│    └─Empty: 2-47                       [14, 64, 64, 64]          --
│    └─Clamp: 2-48                       [14, 64, 64, 64]          --
├─FusedConv2dBNReLU: 1-5                 [14, 64, 64, 64]          36,934
│    └─OutputShiftSqueeze: 2-49          --                        --
│    └─One: 2-50                         [1]                       --
│    └─OutputScale: 2-51                 --                        --
│    └─Empty: 2-52                       [64, 64, 3, 3]            --
│    └─Empty: 2-53                       [64, 64, 3, 3]            --
│    └─Empty: 2-54                       [64]                      --
│    └─Empty: 2-55                       [64]                      --
│    └─BatchNorm2d: 2-56                 [14, 64, 64, 64]          --
│    └─Scaler: 2-57                      [14, 64, 64, 64]          --
│    └─ReLU: 2-58                        [14, 64, 64, 64]          --
│    └─Empty: 2-59                       [14, 64, 64, 64]          --
│    └─Clamp: 2-60                       [14, 64, 64, 64]          --
├─FusedConv2dBNReLU: 1-6                 [14, 64, 64, 64]          36,934
│    └─OutputShiftSqueeze: 2-61          --                        --
│    └─One: 2-62                         [1]                       --
│    └─OutputScale: 2-63                 --                        --
│    └─Empty: 2-64                       [64, 64, 3, 3]            --
│    └─Empty: 2-65                       [64, 64, 3, 3]            --
│    └─Empty: 2-66                       [64]                      --
│    └─Empty: 2-67                       [64]                      --
│    └─BatchNorm2d: 2-68                 [14, 64, 64, 64]          --
│    └─Scaler: 2-69                      [14, 64, 64, 64]          --
│    └─ReLU: 2-70                        [14, 64, 64, 64]          --
│    └─Empty: 2-71                       [14, 64, 64, 64]          --
│    └─Clamp: 2-72                       [14, 64, 64, 64]          --
├─FusedMaxPoolConv2dBNReLU: 1-7          [14, 64, 32, 32]          36,934
│    └─MaxPool2d: 2-73                   [14, 64, 32, 32]          --
│    └─Empty: 2-74                       [14, 64, 32, 32]          --
│    └─Empty: 2-75                       [14, 64, 32, 32]          --
│    └─OutputShiftSqueeze: 2-76          --                        --
│    └─One: 2-77                         [1]                       --
│    └─OutputScale: 2-78                 --                        --
│    └─Empty: 2-79                       [64, 64, 3, 3]            --
│    └─Empty: 2-80                       [64, 64, 3, 3]            --
│    └─Empty: 2-81                       [64]                      --
│    └─Empty: 2-82                       [64]                      --
│    └─BatchNorm2d: 2-83                 [14, 64, 32, 32]          --
│    └─Scaler: 2-84                      [14, 64, 32, 32]          --
│    └─ReLU: 2-85                        [14, 64, 32, 32]          --
│    └─Empty: 2-86                       [14, 64, 32, 32]          --
│    └─Clamp: 2-87                       [14, 64, 32, 32]          --
├─FusedConv2dBNReLU: 1-8                 [14, 64, 32, 32]          36,934
│    └─OutputShiftSqueeze: 2-88          --                        --
│    └─One: 2-89                         [1]                       --
│    └─OutputScale: 2-90                 --                        --
│    └─Empty: 2-91                       [64, 64, 3, 3]            --
│    └─Empty: 2-92                       [64, 64, 3, 3]            --
│    └─Empty: 2-93                       [64]                      --
│    └─Empty: 2-94                       [64]                      --
│    └─BatchNorm2d: 2-95                 [14, 64, 32, 32]          --
│    └─Scaler: 2-96                      [14, 64, 32, 32]          --
│    └─ReLU: 2-97                        [14, 64, 32, 32]          --
│    └─Empty: 2-98                       [14, 64, 32, 32]          --
│    └─Clamp: 2-99                       [14, 64, 32, 32]          --
├─FusedMaxPoolConv2dBNReLU: 1-9          [14, 64, 16, 16]          36,934
│    └─MaxPool2d: 2-100                  [14, 64, 16, 16]          --
│    └─Empty: 2-101                      [14, 64, 16, 16]          --
│    └─Empty: 2-102                      [14, 64, 16, 16]          --
│    └─OutputShiftSqueeze: 2-103         --                        --
│    └─One: 2-104                        [1]                       --
│    └─OutputScale: 2-105                --                        --
│    └─Empty: 2-106                      [64, 64, 3, 3]            --
│    └─Empty: 2-107                      [64, 64, 3, 3]            --
│    └─Empty: 2-108                      [64]                      --
│    └─Empty: 2-109                      [64]                      --
│    └─BatchNorm2d: 2-110                [14, 64, 16, 16]          --
│    └─Scaler: 2-111                     [14, 64, 16, 16]          --
│    └─ReLU: 2-112                       [14, 64, 16, 16]          --
│    └─Empty: 2-113                      [14, 64, 16, 16]          --
│    └─Clamp: 2-114                      [14, 64, 16, 16]          --
├─FusedConv2dBNReLU: 1-10                [14, 64, 16, 16]          36,934
│    └─OutputShiftSqueeze: 2-115         --                        --
│    └─One: 2-116                        [1]                       --
│    └─OutputScale: 2-117                --                        --
│    └─Empty: 2-118                      [64, 64, 3, 3]            --
│    └─Empty: 2-119                      [64, 64, 3, 3]            --
│    └─Empty: 2-120                      [64]                      --
│    └─Empty: 2-121                      [64]                      --
│    └─BatchNorm2d: 2-122                [14, 64, 16, 16]          --
│    └─Scaler: 2-123                     [14, 64, 16, 16]          --
│    └─ReLU: 2-124                       [14, 64, 16, 16]          --
│    └─Empty: 2-125                      [14, 64, 16, 16]          --
│    └─Clamp: 2-126                      [14, 64, 16, 16]          --
├─FusedMaxPoolConv2dBNReLU: 1-11         [14, 64, 8, 8]            36,934
│    └─MaxPool2d: 2-127                  [14, 64, 8, 8]            --
│    └─Empty: 2-128                      [14, 64, 8, 8]            --
│    └─Empty: 2-129                      [14, 64, 8, 8]            --
│    └─OutputShiftSqueeze: 2-130         --                        --
│    └─One: 2-131                        [1]                       --
│    └─OutputScale: 2-132                --                        --
│    └─Empty: 2-133                      [64, 64, 3, 3]            --
│    └─Empty: 2-134                      [64, 64, 3, 3]            --
│    └─Empty: 2-135                      [64]                      --
│    └─Empty: 2-136                      [64]                      --
│    └─BatchNorm2d: 2-137                [14, 64, 8, 8]            --
│    └─Scaler: 2-138                     [14, 64, 8, 8]            --
│    └─ReLU: 2-139                       [14, 64, 8, 8]            --
│    └─Empty: 2-140                      [14, 64, 8, 8]            --
│    └─Clamp: 2-141                      [14, 64, 8, 8]            --
├─FusedConv2dBNReLU: 1-12                [14, 64, 8, 8]            4,166
│    └─OutputShiftSqueeze: 2-142         --                        --
│    └─One: 2-143                        [1]                       --
│    └─OutputScale: 2-144                --                        --
│    └─Empty: 2-145                      [64, 64, 1, 1]            --
│    └─Empty: 2-146                      [64, 64, 1, 1]            --
│    └─Empty: 2-147                      [64]                      --
│    └─Empty: 2-148                      [64]                      --
│    └─BatchNorm2d: 2-149                [14, 64, 8, 8]            --
│    └─Scaler: 2-150                     [14, 64, 8, 8]            --
│    └─ReLU: 2-151                       [14, 64, 8, 8]            --
│    └─Empty: 2-152                      [14, 64, 8, 8]            --
│    └─Clamp: 2-153                      [14, 64, 8, 8]            --
├─FusedMaxPoolConv2dBNReLU: 1-13         [14, 64, 8, 8]            36,934
│    └─MaxPool2d: 2-154                  [14, 64, 8, 8]            --
│    └─Empty: 2-155                      [14, 64, 8, 8]            --
│    └─Empty: 2-156                      [14, 64, 8, 8]            --
│    └─OutputShiftSqueeze: 2-157         --                        --
│    └─One: 2-158                        [1]                       --
│    └─OutputScale: 2-159                --                        --
│    └─Empty: 2-160                      [64, 64, 3, 3]            --
│    └─Empty: 2-161                      [64, 64, 3, 3]            --
│    └─Empty: 2-162                      [64]                      --
│    └─Empty: 2-163                      [64]                      --
│    └─BatchNorm2d: 2-164                [14, 64, 8, 8]            --
│    └─Scaler: 2-165                     [14, 64, 8, 8]            --
│    └─ReLU: 2-166                       [14, 64, 8, 8]            --
│    └─Empty: 2-167                      [14, 64, 8, 8]            --
│    └─Clamp: 2-168                      [14, 64, 8, 8]            --
├─FusedMaxPoolConv2dBNReLU: 1-14         [14, 64, 4, 4]            36,934
│    └─MaxPool2d: 2-169                  [14, 64, 4, 4]            --
│    └─Empty: 2-170                      [14, 64, 4, 4]            --
│    └─Empty: 2-171                      [14, 64, 4, 4]            --
│    └─OutputShiftSqueeze: 2-172         --                        --
│    └─One: 2-173                        [1]                       --
│    └─OutputScale: 2-174                --                        --
│    └─Empty: 2-175                      [64, 64, 3, 3]            --
│    └─Empty: 2-176                      [64, 64, 3, 3]            --
│    └─Empty: 2-177                      [64]                      --
│    └─Empty: 2-178                      [64]                      --
│    └─BatchNorm2d: 2-179                [14, 64, 4, 4]            --
│    └─Scaler: 2-180                     [14, 64, 4, 4]            --
│    └─ReLU: 2-181                       [14, 64, 4, 4]            --
│    └─Empty: 2-182                      [14, 64, 4, 4]            --
│    └─Clamp: 2-183                      [14, 64, 4, 4]            --
├─FusedConv2dBNReLU: 1-15                [14, 64, 4, 4]            4,166
│    └─OutputShiftSqueeze: 2-184         --                        --
│    └─One: 2-185                        [1]                       --
│    └─OutputScale: 2-186                --                        --
│    └─Empty: 2-187                      [64, 64, 1, 1]            --
│    └─Empty: 2-188                      [64, 64, 1, 1]            --
│    └─Empty: 2-189                      [64]                      --
│    └─Empty: 2-190                      [64]                      --
│    └─BatchNorm2d: 2-191                [14, 64, 4, 4]            --
│    └─Scaler: 2-192                     [14, 64, 4, 4]            --
│    └─ReLU: 2-193                       [14, 64, 4, 4]            --
│    └─Empty: 2-194                      [14, 64, 4, 4]            --
│    └─Clamp: 2-195                      [14, 64, 4, 4]            --
├─FusedMaxPoolConv2dBNReLU: 1-16         [14, 64, 4, 4]            36,934
│    └─MaxPool2d: 2-196                  [14, 64, 4, 4]            --
│    └─Empty: 2-197                      [14, 64, 4, 4]            --
│    └─Empty: 2-198                      [14, 64, 4, 4]            --
│    └─OutputShiftSqueeze: 2-199         --                        --
│    └─One: 2-200                        [1]                       --
│    └─OutputScale: 2-201                --                        --
│    └─Empty: 2-202                      [64, 64, 3, 3]            --
│    └─Empty: 2-203                      [64, 64, 3, 3]            --
│    └─Empty: 2-204                      [64]                      --
│    └─Empty: 2-205                      [64]                      --
│    └─BatchNorm2d: 2-206                [14, 64, 4, 4]            --
│    └─Scaler: 2-207                     [14, 64, 4, 4]            --
│    └─ReLU: 2-208                       [14, 64, 4, 4]            --
│    └─Empty: 2-209                      [14, 64, 4, 4]            --
│    └─Clamp: 2-210                      [14, 64, 4, 4]            --
├─FusedMaxPoolConv2dBNReLU: 1-17         [14, 64, 2, 2]            36,934
│    └─MaxPool2d: 2-211                  [14, 64, 2, 2]            --
│    └─Empty: 2-212                      [14, 64, 2, 2]            --
│    └─Empty: 2-213                      [14, 64, 2, 2]            --
│    └─OutputShiftSqueeze: 2-214         --                        --
│    └─One: 2-215                        [1]                       --
│    └─OutputScale: 2-216                --                        --
│    └─Empty: 2-217                      [64, 64, 3, 3]            --
│    └─Empty: 2-218                      [64, 64, 3, 3]            --
│    └─Empty: 2-219                      [64]                      --
│    └─Empty: 2-220                      [64]                      --
│    └─BatchNorm2d: 2-221                [14, 64, 2, 2]            --
│    └─Scaler: 2-222                     [14, 64, 2, 2]            --
│    └─ReLU: 2-223                       [14, 64, 2, 2]            --
│    └─Empty: 2-224                      [14, 64, 2, 2]            --
│    └─Clamp: 2-225                      [14, 64, 2, 2]            --
├─FusedConv2dBNReLU: 1-18                [14, 64, 2, 2]            4,166
│    └─OutputShiftSqueeze: 2-226         --                        --
│    └─One: 2-227                        [1]                       --
│    └─OutputScale: 2-228                --                        --
│    └─Empty: 2-229                      [64, 64, 1, 1]            --
│    └─Empty: 2-230                      [64, 64, 1, 1]            --
│    └─Empty: 2-231                      [64]                      --
│    └─Empty: 2-232                      [64]                      --
│    └─BatchNorm2d: 2-233                [14, 64, 2, 2]            --
│    └─Scaler: 2-234                     [14, 64, 2, 2]            --
│    └─ReLU: 2-235                       [14, 64, 2, 2]            --
│    └─Empty: 2-236                      [14, 64, 2, 2]            --
│    └─Clamp: 2-237                      [14, 64, 2, 2]            --
├─FusedMaxPoolConv2dBNReLU: 1-19         [14, 64, 2, 2]            36,934
│    └─MaxPool2d: 2-238                  [14, 64, 2, 2]            --
│    └─Empty: 2-239                      [14, 64, 2, 2]            --
│    └─Empty: 2-240                      [14, 64, 2, 2]            --
│    └─OutputShiftSqueeze: 2-241         --                        --
│    └─One: 2-242                        [1]                       --
│    └─OutputScale: 2-243                --                        --
│    └─Empty: 2-244                      [64, 64, 3, 3]            --
│    └─Empty: 2-245                      [64, 64, 3, 3]            --
│    └─Empty: 2-246                      [64]                      --
│    └─Empty: 2-247                      [64]                      --
│    └─BatchNorm2d: 2-248                [14, 64, 2, 2]            --
│    └─Scaler: 2-249                     [14, 64, 2, 2]            --
│    └─ReLU: 2-250                       [14, 64, 2, 2]            --
│    └─Empty: 2-251                      [14, 64, 2, 2]            --
│    └─Clamp: 2-252                      [14, 64, 2, 2]            --
├─FusedConv2dBNReLU: 1-20                [14, 64, 64, 64]          (recursive)
│    └─OutputShiftSqueeze: 2-253         --                        --
│    └─One: 2-254                        [1]                       --
│    └─OutputScale: 2-255                --                        --
│    └─Empty: 2-256                      [64, 48, 1, 1]            --
│    └─Empty: 2-257                      [64, 48, 1, 1]            --
│    └─Empty: 2-258                      [64]                      --
│    └─Empty: 2-259                      [64]                      --
│    └─BatchNorm2d: 2-260                [14, 64, 64, 64]          --
│    └─Scaler: 2-261                     [14, 64, 64, 64]          --
│    └─ReLU: 2-262                       [14, 64, 64, 64]          --
│    └─Empty: 2-263                      [14, 64, 64, 64]          --
│    └─Clamp: 2-264                      [14, 64, 64, 64]          --
├─FusedConv2dBNReLU: 1-21                [14, 64, 64, 64]          (recursive)
│    └─OutputShiftSqueeze: 2-265         --                        --
│    └─One: 2-266                        [1]                       --
│    └─OutputScale: 2-267                --                        --
│    └─Empty: 2-268                      [64, 64, 3, 3]            --
│    └─Empty: 2-269                      [64, 64, 3, 3]            --
│    └─Empty: 2-270                      [64]                      --
│    └─Empty: 2-271                      [64]                      --
│    └─BatchNorm2d: 2-272                [14, 64, 64, 64]          --
│    └─Scaler: 2-273                     [14, 64, 64, 64]          --
│    └─ReLU: 2-274                       [14, 64, 64, 64]          --
│    └─Empty: 2-275                      [14, 64, 64, 64]          --
│    └─Clamp: 2-276                      [14, 64, 64, 64]          --
├─FusedConv2dBNReLU: 1-22                [14, 64, 64, 64]          (recursive)
│    └─OutputShiftSqueeze: 2-277         --                        --
│    └─One: 2-278                        [1]                       --
│    └─OutputScale: 2-279                --                        --
│    └─Empty: 2-280                      [64, 64, 3, 3]            --
│    └─Empty: 2-281                      [64, 64, 3, 3]            --
│    └─Empty: 2-282                      [64]                      --
│    └─Empty: 2-283                      [64]                      --
│    └─BatchNorm2d: 2-284                [14, 64, 64, 64]          --
│    └─Scaler: 2-285                     [14, 64, 64, 64]          --
│    └─ReLU: 2-286                       [14, 64, 64, 64]          --
│    └─Empty: 2-287                      [14, 64, 64, 64]          --
│    └─Clamp: 2-288                      [14, 64, 64, 64]          --
├─FusedConv2dBNReLU: 1-23                [14, 64, 64, 64]          (recursive)
│    └─OutputShiftSqueeze: 2-289         --                        --
│    └─One: 2-290                        [1]                       --
│    └─OutputScale: 2-291                --                        --
│    └─Empty: 2-292                      [64, 64, 1, 1]            --
│    └─Empty: 2-293                      [64, 64, 1, 1]            --
│    └─Empty: 2-294                      [64]                      --
│    └─Empty: 2-295                      [64]                      --
│    └─BatchNorm2d: 2-296                [14, 64, 64, 64]          --
│    └─Scaler: 2-297                     [14, 64, 64, 64]          --
│    └─ReLU: 2-298                       [14, 64, 64, 64]          --
│    └─Empty: 2-299                      [14, 64, 64, 64]          --
│    └─Clamp: 2-300                      [14, 64, 64, 64]          --
├─FusedConv2dBNReLU: 1-24                [14, 64, 64, 64]          (recursive)
│    └─OutputShiftSqueeze: 2-301         --                        --
│    └─One: 2-302                        [1]                       --
│    └─OutputScale: 2-303                --                        --
│    └─Empty: 2-304                      [64, 64, 3, 3]            --
│    └─Empty: 2-305                      [64, 64, 3, 3]            --
│    └─Empty: 2-306                      [64]                      --
│    └─Empty: 2-307                      [64]                      --
│    └─BatchNorm2d: 2-308                [14, 64, 64, 64]          --
│    └─Scaler: 2-309                     [14, 64, 64, 64]          --
│    └─ReLU: 2-310                       [14, 64, 64, 64]          --
│    └─Empty: 2-311                      [14, 64, 64, 64]          --
│    └─Clamp: 2-312                      [14, 64, 64, 64]          --
├─FusedConv2dBNReLU: 1-25                [14, 64, 64, 64]          (recursive)
│    └─OutputShiftSqueeze: 2-313         --                        --
│    └─One: 2-314                        [1]                       --
│    └─OutputScale: 2-315                --                        --
│    └─Empty: 2-316                      [64, 64, 3, 3]            --
│    └─Empty: 2-317                      [64, 64, 3, 3]            --
│    └─Empty: 2-318                      [64]                      --
│    └─Empty: 2-319                      [64]                      --
│    └─BatchNorm2d: 2-320                [14, 64, 64, 64]          --
│    └─Scaler: 2-321                     [14, 64, 64, 64]          --
│    └─ReLU: 2-322                       [14, 64, 64, 64]          --
│    └─Empty: 2-323                      [14, 64, 64, 64]          --
│    └─Clamp: 2-324                      [14, 64, 64, 64]          --
├─FusedMaxPoolConv2dBNReLU: 1-26         [14, 64, 32, 32]          (recursive)
│    └─MaxPool2d: 2-325                  [14, 64, 32, 32]          --
│    └─Empty: 2-326                      [14, 64, 32, 32]          --
│    └─Empty: 2-327                      [14, 64, 32, 32]          --
│    └─OutputShiftSqueeze: 2-328         --                        --
│    └─One: 2-329                        [1]                       --
│    └─OutputScale: 2-330                --                        --
│    └─Empty: 2-331                      [64, 64, 3, 3]            --
│    └─Empty: 2-332                      [64, 64, 3, 3]            --
│    └─Empty: 2-333                      [64]                      --
│    └─Empty: 2-334                      [64]                      --
│    └─BatchNorm2d: 2-335                [14, 64, 32, 32]          --
│    └─Scaler: 2-336                     [14, 64, 32, 32]          --
│    └─ReLU: 2-337                       [14, 64, 32, 32]          --
│    └─Empty: 2-338                      [14, 64, 32, 32]          --
│    └─Clamp: 2-339                      [14, 64, 32, 32]          --
├─FusedConv2dBNReLU: 1-27                [14, 64, 32, 32]          (recursive)
│    └─OutputShiftSqueeze: 2-340         --                        --
│    └─One: 2-341                        [1]                       --
│    └─OutputScale: 2-342                --                        --
│    └─Empty: 2-343                      [64, 64, 3, 3]            --
│    └─Empty: 2-344                      [64, 64, 3, 3]            --
│    └─Empty: 2-345                      [64]                      --
│    └─Empty: 2-346                      [64]                      --
│    └─BatchNorm2d: 2-347                [14, 64, 32, 32]          --
│    └─Scaler: 2-348                     [14, 64, 32, 32]          --
│    └─ReLU: 2-349                       [14, 64, 32, 32]          --
│    └─Empty: 2-350                      [14, 64, 32, 32]          --
│    └─Clamp: 2-351                      [14, 64, 32, 32]          --
├─FusedMaxPoolConv2dBNReLU: 1-28         [14, 64, 16, 16]          (recursive)
│    └─MaxPool2d: 2-352                  [14, 64, 16, 16]          --
│    └─Empty: 2-353                      [14, 64, 16, 16]          --
│    └─Empty: 2-354                      [14, 64, 16, 16]          --
│    └─OutputShiftSqueeze: 2-355         --                        --
│    └─One: 2-356                        [1]                       --
│    └─OutputScale: 2-357                --                        --
│    └─Empty: 2-358                      [64, 64, 3, 3]            --
│    └─Empty: 2-359                      [64, 64, 3, 3]            --
│    └─Empty: 2-360                      [64]                      --
│    └─Empty: 2-361                      [64]                      --
│    └─BatchNorm2d: 2-362                [14, 64, 16, 16]          --
│    └─Scaler: 2-363                     [14, 64, 16, 16]          --
│    └─ReLU: 2-364                       [14, 64, 16, 16]          --
│    └─Empty: 2-365                      [14, 64, 16, 16]          --
│    └─Clamp: 2-366                      [14, 64, 16, 16]          --
├─FusedConv2dBNReLU: 1-29                [14, 64, 16, 16]          (recursive)
│    └─OutputShiftSqueeze: 2-367         --                        --
│    └─One: 2-368                        [1]                       --
│    └─OutputScale: 2-369                --                        --
│    └─Empty: 2-370                      [64, 64, 3, 3]            --
│    └─Empty: 2-371                      [64, 64, 3, 3]            --
│    └─Empty: 2-372                      [64]                      --
│    └─Empty: 2-373                      [64]                      --
│    └─BatchNorm2d: 2-374                [14, 64, 16, 16]          --
│    └─Scaler: 2-375                     [14, 64, 16, 16]          --
│    └─ReLU: 2-376                       [14, 64, 16, 16]          --
│    └─Empty: 2-377                      [14, 64, 16, 16]          --
│    └─Clamp: 2-378                      [14, 64, 16, 16]          --
├─FusedMaxPoolConv2dBNReLU: 1-30         [14, 64, 8, 8]            (recursive)
│    └─MaxPool2d: 2-379                  [14, 64, 8, 8]            --
│    └─Empty: 2-380                      [14, 64, 8, 8]            --
│    └─Empty: 2-381                      [14, 64, 8, 8]            --
│    └─OutputShiftSqueeze: 2-382         --                        --
│    └─One: 2-383                        [1]                       --
│    └─OutputScale: 2-384                --                        --
│    └─Empty: 2-385                      [64, 64, 3, 3]            --
│    └─Empty: 2-386                      [64, 64, 3, 3]            --
│    └─Empty: 2-387                      [64]                      --
│    └─Empty: 2-388                      [64]                      --
│    └─BatchNorm2d: 2-389                [14, 64, 8, 8]            --
│    └─Scaler: 2-390                     [14, 64, 8, 8]            --
│    └─ReLU: 2-391                       [14, 64, 8, 8]            --
│    └─Empty: 2-392                      [14, 64, 8, 8]            --
│    └─Clamp: 2-393                      [14, 64, 8, 8]            --
├─FusedConv2dBNReLU: 1-31                [14, 64, 8, 8]            (recursive)
│    └─OutputShiftSqueeze: 2-394         --                        --
│    └─One: 2-395                        [1]                       --
│    └─OutputScale: 2-396                --                        --
│    └─Empty: 2-397                      [64, 64, 1, 1]            --
│    └─Empty: 2-398                      [64, 64, 1, 1]            --
│    └─Empty: 2-399                      [64]                      --
│    └─Empty: 2-400                      [64]                      --
│    └─BatchNorm2d: 2-401                [14, 64, 8, 8]            --
│    └─Scaler: 2-402                     [14, 64, 8, 8]            --
│    └─ReLU: 2-403                       [14, 64, 8, 8]            --
│    └─Empty: 2-404                      [14, 64, 8, 8]            --
│    └─Clamp: 2-405                      [14, 64, 8, 8]            --
├─FusedMaxPoolConv2dBNReLU: 1-32         [14, 64, 8, 8]            (recursive)
│    └─MaxPool2d: 2-406                  [14, 64, 8, 8]            --
│    └─Empty: 2-407                      [14, 64, 8, 8]            --
│    └─Empty: 2-408                      [14, 64, 8, 8]            --
│    └─OutputShiftSqueeze: 2-409         --                        --
│    └─One: 2-410                        [1]                       --
│    └─OutputScale: 2-411                --                        --
│    └─Empty: 2-412                      [64, 64, 3, 3]            --
│    └─Empty: 2-413                      [64, 64, 3, 3]            --
│    └─Empty: 2-414                      [64]                      --
│    └─Empty: 2-415                      [64]                      --
│    └─BatchNorm2d: 2-416                [14, 64, 8, 8]            --
│    └─Scaler: 2-417                     [14, 64, 8, 8]            --
│    └─ReLU: 2-418                       [14, 64, 8, 8]            --
│    └─Empty: 2-419                      [14, 64, 8, 8]            --
│    └─Clamp: 2-420                      [14, 64, 8, 8]            --
├─FusedMaxPoolConv2dBNReLU: 1-33         [14, 64, 4, 4]            (recursive)
│    └─MaxPool2d: 2-421                  [14, 64, 4, 4]            --
│    └─Empty: 2-422                      [14, 64, 4, 4]            --
│    └─Empty: 2-423                      [14, 64, 4, 4]            --
│    └─OutputShiftSqueeze: 2-424         --                        --
│    └─One: 2-425                        [1]                       --
│    └─OutputScale: 2-426                --                        --
│    └─Empty: 2-427                      [64, 64, 3, 3]            --
│    └─Empty: 2-428                      [64, 64, 3, 3]            --
│    └─Empty: 2-429                      [64]                      --
│    └─Empty: 2-430                      [64]                      --
│    └─BatchNorm2d: 2-431                [14, 64, 4, 4]            --
│    └─Scaler: 2-432                     [14, 64, 4, 4]            --
│    └─ReLU: 2-433                       [14, 64, 4, 4]            --
│    └─Empty: 2-434                      [14, 64, 4, 4]            --
│    └─Clamp: 2-435                      [14, 64, 4, 4]            --
├─FusedConv2dBNReLU: 1-34                [14, 64, 4, 4]            (recursive)
│    └─OutputShiftSqueeze: 2-436         --                        --
│    └─One: 2-437                        [1]                       --
│    └─OutputScale: 2-438                --                        --
│    └─Empty: 2-439                      [64, 64, 1, 1]            --
│    └─Empty: 2-440                      [64, 64, 1, 1]            --
│    └─Empty: 2-441                      [64]                      --
│    └─Empty: 2-442                      [64]                      --
│    └─BatchNorm2d: 2-443                [14, 64, 4, 4]            --
│    └─Scaler: 2-444                     [14, 64, 4, 4]            --
│    └─ReLU: 2-445                       [14, 64, 4, 4]            --
│    └─Empty: 2-446                      [14, 64, 4, 4]            --
│    └─Clamp: 2-447                      [14, 64, 4, 4]            --
├─FusedMaxPoolConv2dBNReLU: 1-35         [14, 64, 4, 4]            (recursive)
│    └─MaxPool2d: 2-448                  [14, 64, 4, 4]            --
│    └─Empty: 2-449                      [14, 64, 4, 4]            --
│    └─Empty: 2-450                      [14, 64, 4, 4]            --
│    └─OutputShiftSqueeze: 2-451         --                        --
│    └─One: 2-452                        [1]                       --
│    └─OutputScale: 2-453                --                        --
│    └─Empty: 2-454                      [64, 64, 3, 3]            --
│    └─Empty: 2-455                      [64, 64, 3, 3]            --
│    └─Empty: 2-456                      [64]                      --
│    └─Empty: 2-457                      [64]                      --
│    └─BatchNorm2d: 2-458                [14, 64, 4, 4]            --
│    └─Scaler: 2-459                     [14, 64, 4, 4]            --
│    └─ReLU: 2-460                       [14, 64, 4, 4]            --
│    └─Empty: 2-461                      [14, 64, 4, 4]            --
│    └─Clamp: 2-462                      [14, 64, 4, 4]            --
├─FusedMaxPoolConv2dBNReLU: 1-36         [14, 64, 2, 2]            (recursive)
│    └─MaxPool2d: 2-463                  [14, 64, 2, 2]            --
│    └─Empty: 2-464                      [14, 64, 2, 2]            --
│    └─Empty: 2-465                      [14, 64, 2, 2]            --
│    └─OutputShiftSqueeze: 2-466         --                        --
│    └─One: 2-467                        [1]                       --
│    └─OutputScale: 2-468                --                        --
│    └─Empty: 2-469                      [64, 64, 3, 3]            --
│    └─Empty: 2-470                      [64, 64, 3, 3]            --
│    └─Empty: 2-471                      [64]                      --
│    └─Empty: 2-472                      [64]                      --
│    └─BatchNorm2d: 2-473                [14, 64, 2, 2]            --
│    └─Scaler: 2-474                     [14, 64, 2, 2]            --
│    └─ReLU: 2-475                       [14, 64, 2, 2]            --
│    └─Empty: 2-476                      [14, 64, 2, 2]            --
│    └─Clamp: 2-477                      [14, 64, 2, 2]            --
├─FusedConv2dBNReLU: 1-37                [14, 64, 2, 2]            (recursive)
│    └─OutputShiftSqueeze: 2-478         --                        --
│    └─One: 2-479                        [1]                       --
│    └─OutputScale: 2-480                --                        --
│    └─Empty: 2-481                      [64, 64, 1, 1]            --
│    └─Empty: 2-482                      [64, 64, 1, 1]            --
│    └─Empty: 2-483                      [64]                      --
│    └─Empty: 2-484                      [64]                      --
│    └─BatchNorm2d: 2-485                [14, 64, 2, 2]            --
│    └─Scaler: 2-486                     [14, 64, 2, 2]            --
│    └─ReLU: 2-487                       [14, 64, 2, 2]            --
│    └─Empty: 2-488                      [14, 64, 2, 2]            --
│    └─Clamp: 2-489                      [14, 64, 2, 2]            --
├─FusedMaxPoolConv2dBNReLU: 1-38         [14, 64, 2, 2]            (recursive)
│    └─MaxPool2d: 2-490                  [14, 64, 2, 2]            --
│    └─Empty: 2-491                      [14, 64, 2, 2]            --
│    └─Empty: 2-492                      [14, 64, 2, 2]            --
│    └─OutputShiftSqueeze: 2-493         --                        --
│    └─One: 2-494                        [1]                       --
│    └─OutputScale: 2-495                --                        --
│    └─Empty: 2-496                      [64, 64, 3, 3]            --
│    └─Empty: 2-497                      [64, 64, 3, 3]            --
│    └─Empty: 2-498                      [64]                      --
│    └─Empty: 2-499                      [64]                      --
│    └─BatchNorm2d: 2-500                [14, 64, 2, 2]            --
│    └─Scaler: 2-501                     [14, 64, 2, 2]            --
│    └─ReLU: 2-502                       [14, 64, 2, 2]            --
│    └─Empty: 2-503                      [14, 64, 2, 2]            --
│    └─Clamp: 2-504                      [14, 64, 2, 2]            --
├─FusedConv2dBNReLU: 1-39                [14, 64, 64, 64]          (recursive)
│    └─OutputShiftSqueeze: 2-505         --                        --
│    └─One: 2-506                        [1]                       --
│    └─OutputScale: 2-507                --                        --
│    └─Empty: 2-508                      [64, 48, 1, 1]            --
│    └─Empty: 2-509                      [64, 48, 1, 1]            --
│    └─Empty: 2-510                      [64]                      --
│    └─Empty: 2-511                      [64]                      --
│    └─BatchNorm2d: 2-512                [14, 64, 64, 64]          --
│    └─Scaler: 2-513                     [14, 64, 64, 64]          --
│    └─ReLU: 2-514                       [14, 64, 64, 64]          --
│    └─Empty: 2-515                      [14, 64, 64, 64]          --
│    └─Clamp: 2-516                      [14, 64, 64, 64]          --
├─FusedConv2dBNReLU: 1-40                [14, 64, 64, 64]          (recursive)
│    └─OutputShiftSqueeze: 2-517         --                        --
│    └─One: 2-518                        [1]                       --
│    └─OutputScale: 2-519                --                        --
│    └─Empty: 2-520                      [64, 64, 3, 3]            --
│    └─Empty: 2-521                      [64, 64, 3, 3]            --
│    └─Empty: 2-522                      [64]                      --
│    └─Empty: 2-523                      [64]                      --
│    └─BatchNorm2d: 2-524                [14, 64, 64, 64]          --
│    └─Scaler: 2-525                     [14, 64, 64, 64]          --
│    └─ReLU: 2-526                       [14, 64, 64, 64]          --
│    └─Empty: 2-527                      [14, 64, 64, 64]          --
│    └─Clamp: 2-528                      [14, 64, 64, 64]          --
├─FusedConv2dBNReLU: 1-41                [14, 64, 64, 64]          (recursive)
│    └─OutputShiftSqueeze: 2-529         --                        --
│    └─One: 2-530                        [1]                       --
│    └─OutputScale: 2-531                --                        --
│    └─Empty: 2-532                      [64, 64, 3, 3]            --
│    └─Empty: 2-533                      [64, 64, 3, 3]            --
│    └─Empty: 2-534                      [64]                      --
│    └─Empty: 2-535                      [64]                      --
│    └─BatchNorm2d: 2-536                [14, 64, 64, 64]          --
│    └─Scaler: 2-537                     [14, 64, 64, 64]          --
│    └─ReLU: 2-538                       [14, 64, 64, 64]          --
│    └─Empty: 2-539                      [14, 64, 64, 64]          --
│    └─Clamp: 2-540                      [14, 64, 64, 64]          --
├─FusedConv2dBNReLU: 1-42                [14, 64, 64, 64]          (recursive)
│    └─OutputShiftSqueeze: 2-541         --                        --
│    └─One: 2-542                        [1]                       --
│    └─OutputScale: 2-543                --                        --
│    └─Empty: 2-544                      [64, 64, 1, 1]            --
│    └─Empty: 2-545                      [64, 64, 1, 1]            --
│    └─Empty: 2-546                      [64]                      --
│    └─Empty: 2-547                      [64]                      --
│    └─BatchNorm2d: 2-548                [14, 64, 64, 64]          --
│    └─Scaler: 2-549                     [14, 64, 64, 64]          --
│    └─ReLU: 2-550                       [14, 64, 64, 64]          --
│    └─Empty: 2-551                      [14, 64, 64, 64]          --
│    └─Clamp: 2-552                      [14, 64, 64, 64]          --
├─FusedConv2dBNReLU: 1-43                [14, 64, 64, 64]          (recursive)
│    └─OutputShiftSqueeze: 2-553         --                        --
│    └─One: 2-554                        [1]                       --
│    └─OutputScale: 2-555                --                        --
│    └─Empty: 2-556                      [64, 64, 3, 3]            --
│    └─Empty: 2-557                      [64, 64, 3, 3]            --
│    └─Empty: 2-558                      [64]                      --
│    └─Empty: 2-559                      [64]                      --
│    └─BatchNorm2d: 2-560                [14, 64, 64, 64]          --
│    └─Scaler: 2-561                     [14, 64, 64, 64]          --
│    └─ReLU: 2-562                       [14, 64, 64, 64]          --
│    └─Empty: 2-563                      [14, 64, 64, 64]          --
│    └─Clamp: 2-564                      [14, 64, 64, 64]          --
├─FusedConv2dBNReLU: 1-44                [14, 64, 64, 64]          (recursive)
│    └─OutputShiftSqueeze: 2-565         --                        --
│    └─One: 2-566                        [1]                       --
│    └─OutputScale: 2-567                --                        --
│    └─Empty: 2-568                      [64, 64, 3, 3]            --
│    └─Empty: 2-569                      [64, 64, 3, 3]            --
│    └─Empty: 2-570                      [64]                      --
│    └─Empty: 2-571                      [64]                      --
│    └─BatchNorm2d: 2-572                [14, 64, 64, 64]          --
│    └─Scaler: 2-573                     [14, 64, 64, 64]          --
│    └─ReLU: 2-574                       [14, 64, 64, 64]          --
│    └─Empty: 2-575                      [14, 64, 64, 64]          --
│    └─Clamp: 2-576                      [14, 64, 64, 64]          --
├─FusedMaxPoolConv2dBNReLU: 1-45         [14, 64, 32, 32]          (recursive)
│    └─MaxPool2d: 2-577                  [14, 64, 32, 32]          --
│    └─Empty: 2-578                      [14, 64, 32, 32]          --
│    └─Empty: 2-579                      [14, 64, 32, 32]          --
│    └─OutputShiftSqueeze: 2-580         --                        --
│    └─One: 2-581                        [1]                       --
│    └─OutputScale: 2-582                --                        --
│    └─Empty: 2-583                      [64, 64, 3, 3]            --
│    └─Empty: 2-584                      [64, 64, 3, 3]            --
│    └─Empty: 2-585                      [64]                      --
│    └─Empty: 2-586                      [64]                      --
│    └─BatchNorm2d: 2-587                [14, 64, 32, 32]          --
│    └─Scaler: 2-588                     [14, 64, 32, 32]          --
│    └─ReLU: 2-589                       [14, 64, 32, 32]          --
│    └─Empty: 2-590                      [14, 64, 32, 32]          --
│    └─Clamp: 2-591                      [14, 64, 32, 32]          --
├─FusedConv2dBNReLU: 1-46                [14, 64, 32, 32]          (recursive)
│    └─OutputShiftSqueeze: 2-592         --                        --
│    └─One: 2-593                        [1]                       --
│    └─OutputScale: 2-594                --                        --
│    └─Empty: 2-595                      [64, 64, 3, 3]            --
│    └─Empty: 2-596                      [64, 64, 3, 3]            --
│    └─Empty: 2-597                      [64]                      --
│    └─Empty: 2-598                      [64]                      --
│    └─BatchNorm2d: 2-599                [14, 64, 32, 32]          --
│    └─Scaler: 2-600                     [14, 64, 32, 32]          --
│    └─ReLU: 2-601                       [14, 64, 32, 32]          --
│    └─Empty: 2-602                      [14, 64, 32, 32]          --
│    └─Clamp: 2-603                      [14, 64, 32, 32]          --
├─FusedMaxPoolConv2dBNReLU: 1-47         [14, 64, 16, 16]          (recursive)
│    └─MaxPool2d: 2-604                  [14, 64, 16, 16]          --
│    └─Empty: 2-605                      [14, 64, 16, 16]          --
│    └─Empty: 2-606                      [14, 64, 16, 16]          --
│    └─OutputShiftSqueeze: 2-607         --                        --
│    └─One: 2-608                        [1]                       --
│    └─OutputScale: 2-609                --                        --
│    └─Empty: 2-610                      [64, 64, 3, 3]            --
│    └─Empty: 2-611                      [64, 64, 3, 3]            --
│    └─Empty: 2-612                      [64]                      --
│    └─Empty: 2-613                      [64]                      --
│    └─BatchNorm2d: 2-614                [14, 64, 16, 16]          --
│    └─Scaler: 2-615                     [14, 64, 16, 16]          --
│    └─ReLU: 2-616                       [14, 64, 16, 16]          --
│    └─Empty: 2-617                      [14, 64, 16, 16]          --
│    └─Clamp: 2-618                      [14, 64, 16, 16]          --
├─FusedConv2dBNReLU: 1-48                [14, 64, 16, 16]          (recursive)
│    └─OutputShiftSqueeze: 2-619         --                        --
│    └─One: 2-620                        [1]                       --
│    └─OutputScale: 2-621                --                        --
│    └─Empty: 2-622                      [64, 64, 3, 3]            --
│    └─Empty: 2-623                      [64, 64, 3, 3]            --
│    └─Empty: 2-624                      [64]                      --
│    └─Empty: 2-625                      [64]                      --
│    └─BatchNorm2d: 2-626                [14, 64, 16, 16]          --
│    └─Scaler: 2-627                     [14, 64, 16, 16]          --
│    └─ReLU: 2-628                       [14, 64, 16, 16]          --
│    └─Empty: 2-629                      [14, 64, 16, 16]          --
│    └─Clamp: 2-630                      [14, 64, 16, 16]          --
├─FusedMaxPoolConv2dBNReLU: 1-49         [14, 64, 8, 8]            (recursive)
│    └─MaxPool2d: 2-631                  [14, 64, 8, 8]            --
│    └─Empty: 2-632                      [14, 64, 8, 8]            --
│    └─Empty: 2-633                      [14, 64, 8, 8]            --
│    └─OutputShiftSqueeze: 2-634         --                        --
│    └─One: 2-635                        [1]                       --
│    └─OutputScale: 2-636                --                        --
│    └─Empty: 2-637                      [64, 64, 3, 3]            --
│    └─Empty: 2-638                      [64, 64, 3, 3]            --
│    └─Empty: 2-639                      [64]                      --
│    └─Empty: 2-640                      [64]                      --
│    └─BatchNorm2d: 2-641                [14, 64, 8, 8]            --
│    └─Scaler: 2-642                     [14, 64, 8, 8]            --
│    └─ReLU: 2-643                       [14, 64, 8, 8]            --
│    └─Empty: 2-644                      [14, 64, 8, 8]            --
│    └─Clamp: 2-645                      [14, 64, 8, 8]            --
├─FusedConv2dBNReLU: 1-50                [14, 64, 8, 8]            (recursive)
│    └─OutputShiftSqueeze: 2-646         --                        --
│    └─One: 2-647                        [1]                       --
│    └─OutputScale: 2-648                --                        --
│    └─Empty: 2-649                      [64, 64, 1, 1]            --
│    └─Empty: 2-650                      [64, 64, 1, 1]            --
│    └─Empty: 2-651                      [64]                      --
│    └─Empty: 2-652                      [64]                      --
│    └─BatchNorm2d: 2-653                [14, 64, 8, 8]            --
│    └─Scaler: 2-654                     [14, 64, 8, 8]            --
│    └─ReLU: 2-655                       [14, 64, 8, 8]            --
│    └─Empty: 2-656                      [14, 64, 8, 8]            --
│    └─Clamp: 2-657                      [14, 64, 8, 8]            --
├─FusedMaxPoolConv2dBNReLU: 1-51         [14, 64, 8, 8]            (recursive)
│    └─MaxPool2d: 2-658                  [14, 64, 8, 8]            --
│    └─Empty: 2-659                      [14, 64, 8, 8]            --
│    └─Empty: 2-660                      [14, 64, 8, 8]            --
│    └─OutputShiftSqueeze: 2-661         --                        --
│    └─One: 2-662                        [1]                       --
│    └─OutputScale: 2-663                --                        --
│    └─Empty: 2-664                      [64, 64, 3, 3]            --
│    └─Empty: 2-665                      [64, 64, 3, 3]            --
│    └─Empty: 2-666                      [64]                      --
│    └─Empty: 2-667                      [64]                      --
│    └─BatchNorm2d: 2-668                [14, 64, 8, 8]            --
│    └─Scaler: 2-669                     [14, 64, 8, 8]            --
│    └─ReLU: 2-670                       [14, 64, 8, 8]            --
│    └─Empty: 2-671                      [14, 64, 8, 8]            --
│    └─Clamp: 2-672                      [14, 64, 8, 8]            --
├─FusedMaxPoolConv2dBNReLU: 1-52         [14, 64, 4, 4]            (recursive)
│    └─MaxPool2d: 2-673                  [14, 64, 4, 4]            --
│    └─Empty: 2-674                      [14, 64, 4, 4]            --
│    └─Empty: 2-675                      [14, 64, 4, 4]            --
│    └─OutputShiftSqueeze: 2-676         --                        --
│    └─One: 2-677                        [1]                       --
│    └─OutputScale: 2-678                --                        --
│    └─Empty: 2-679                      [64, 64, 3, 3]            --
│    └─Empty: 2-680                      [64, 64, 3, 3]            --
│    └─Empty: 2-681                      [64]                      --
│    └─Empty: 2-682                      [64]                      --
│    └─BatchNorm2d: 2-683                [14, 64, 4, 4]            --
│    └─Scaler: 2-684                     [14, 64, 4, 4]            --
│    └─ReLU: 2-685                       [14, 64, 4, 4]            --
│    └─Empty: 2-686                      [14, 64, 4, 4]            --
│    └─Clamp: 2-687                      [14, 64, 4, 4]            --
├─FusedConv2dBNReLU: 1-53                [14, 64, 4, 4]            (recursive)
│    └─OutputShiftSqueeze: 2-688         --                        --
│    └─One: 2-689                        [1]                       --
│    └─OutputScale: 2-690                --                        --
│    └─Empty: 2-691                      [64, 64, 1, 1]            --
│    └─Empty: 2-692                      [64, 64, 1, 1]            --
│    └─Empty: 2-693                      [64]                      --
│    └─Empty: 2-694                      [64]                      --
│    └─BatchNorm2d: 2-695                [14, 64, 4, 4]            --
│    └─Scaler: 2-696                     [14, 64, 4, 4]            --
│    └─ReLU: 2-697                       [14, 64, 4, 4]            --
│    └─Empty: 2-698                      [14, 64, 4, 4]            --
│    └─Clamp: 2-699                      [14, 64, 4, 4]            --
├─FusedMaxPoolConv2dBNReLU: 1-54         [14, 64, 4, 4]            (recursive)
│    └─MaxPool2d: 2-700                  [14, 64, 4, 4]            --
│    └─Empty: 2-701                      [14, 64, 4, 4]            --
│    └─Empty: 2-702                      [14, 64, 4, 4]            --
│    └─OutputShiftSqueeze: 2-703         --                        --
│    └─One: 2-704                        [1]                       --
│    └─OutputScale: 2-705                --                        --
│    └─Empty: 2-706                      [64, 64, 3, 3]            --
│    └─Empty: 2-707                      [64, 64, 3, 3]            --
│    └─Empty: 2-708                      [64]                      --
│    └─Empty: 2-709                      [64]                      --
│    └─BatchNorm2d: 2-710                [14, 64, 4, 4]            --
│    └─Scaler: 2-711                     [14, 64, 4, 4]            --
│    └─ReLU: 2-712                       [14, 64, 4, 4]            --
│    └─Empty: 2-713                      [14, 64, 4, 4]            --
│    └─Clamp: 2-714                      [14, 64, 4, 4]            --
├─FusedMaxPoolConv2dBNReLU: 1-55         [14, 64, 2, 2]            (recursive)
│    └─MaxPool2d: 2-715                  [14, 64, 2, 2]            --
│    └─Empty: 2-716                      [14, 64, 2, 2]            --
│    └─Empty: 2-717                      [14, 64, 2, 2]            --
│    └─OutputShiftSqueeze: 2-718         --                        --
│    └─One: 2-719                        [1]                       --
│    └─OutputScale: 2-720                --                        --
│    └─Empty: 2-721                      [64, 64, 3, 3]            --
│    └─Empty: 2-722                      [64, 64, 3, 3]            --
│    └─Empty: 2-723                      [64]                      --
│    └─Empty: 2-724                      [64]                      --
│    └─BatchNorm2d: 2-725                [14, 64, 2, 2]            --
│    └─Scaler: 2-726                     [14, 64, 2, 2]            --
│    └─ReLU: 2-727                       [14, 64, 2, 2]            --
│    └─Empty: 2-728                      [14, 64, 2, 2]            --
│    └─Clamp: 2-729                      [14, 64, 2, 2]            --
├─FusedConv2dBNReLU: 1-56                [14, 64, 2, 2]            (recursive)
│    └─OutputShiftSqueeze: 2-730         --                        --
│    └─One: 2-731                        [1]                       --
│    └─OutputScale: 2-732                --                        --
│    └─Empty: 2-733                      [64, 64, 1, 1]            --
│    └─Empty: 2-734                      [64, 64, 1, 1]            --
│    └─Empty: 2-735                      [64]                      --
│    └─Empty: 2-736                      [64]                      --
│    └─BatchNorm2d: 2-737                [14, 64, 2, 2]            --
│    └─Scaler: 2-738                     [14, 64, 2, 2]            --
│    └─ReLU: 2-739                       [14, 64, 2, 2]            --
│    └─Empty: 2-740                      [14, 64, 2, 2]            --
│    └─Clamp: 2-741                      [14, 64, 2, 2]            --
├─FusedMaxPoolConv2dBNReLU: 1-57         [14, 64, 2, 2]            (recursive)
│    └─MaxPool2d: 2-742                  [14, 64, 2, 2]            --
│    └─Empty: 2-743                      [14, 64, 2, 2]            --
│    └─Empty: 2-744                      [14, 64, 2, 2]            --
│    └─OutputShiftSqueeze: 2-745         --                        --
│    └─One: 2-746                        [1]                       --
│    └─OutputScale: 2-747                --                        --
│    └─Empty: 2-748                      [64, 64, 3, 3]            --
│    └─Empty: 2-749                      [64, 64, 3, 3]            --
│    └─Empty: 2-750                      [64]                      --
│    └─Empty: 2-751                      [64]                      --
│    └─BatchNorm2d: 2-752                [14, 64, 2, 2]            --
│    └─Scaler: 2-753                     [14, 64, 2, 2]            --
│    └─ReLU: 2-754                       [14, 64, 2, 2]            --
│    └─Empty: 2-755                      [14, 64, 2, 2]            --
│    └─Clamp: 2-756                      [14, 64, 2, 2]            --
├─FusedConv2dBNReLU: 1-58                [14, 64, 64, 64]          (recursive)
│    └─OutputShiftSqueeze: 2-757         --                        --
│    └─One: 2-758                        [1]                       --
│    └─OutputScale: 2-759                --                        --
│    └─Empty: 2-760                      [64, 48, 1, 1]            --
│    └─Empty: 2-761                      [64, 48, 1, 1]            --
│    └─Empty: 2-762                      [64]                      --
│    └─Empty: 2-763                      [64]                      --
│    └─BatchNorm2d: 2-764                [14, 64, 64, 64]          --
│    └─Scaler: 2-765                     [14, 64, 64, 64]          --
│    └─ReLU: 2-766                       [14, 64, 64, 64]          --
│    └─Empty: 2-767                      [14, 64, 64, 64]          --
│    └─Clamp: 2-768                      [14, 64, 64, 64]          --
├─FusedConv2dBNReLU: 1-59                [14, 64, 64, 64]          (recursive)
│    └─OutputShiftSqueeze: 2-769         --                        --
│    └─One: 2-770                        [1]                       --
│    └─OutputScale: 2-771                --                        --
│    └─Empty: 2-772                      [64, 64, 3, 3]            --
│    └─Empty: 2-773                      [64, 64, 3, 3]            --
│    └─Empty: 2-774                      [64]                      --
│    └─Empty: 2-775                      [64]                      --
│    └─BatchNorm2d: 2-776                [14, 64, 64, 64]          --
│    └─Scaler: 2-777                     [14, 64, 64, 64]          --
│    └─ReLU: 2-778                       [14, 64, 64, 64]          --
│    └─Empty: 2-779                      [14, 64, 64, 64]          --
│    └─Clamp: 2-780                      [14, 64, 64, 64]          --
├─FusedConv2dBNReLU: 1-60                [14, 64, 64, 64]          (recursive)
│    └─OutputShiftSqueeze: 2-781         --                        --
│    └─One: 2-782                        [1]                       --
│    └─OutputScale: 2-783                --                        --
│    └─Empty: 2-784                      [64, 64, 3, 3]            --
│    └─Empty: 2-785                      [64, 64, 3, 3]            --
│    └─Empty: 2-786                      [64]                      --
│    └─Empty: 2-787                      [64]                      --
│    └─BatchNorm2d: 2-788                [14, 64, 64, 64]          --
│    └─Scaler: 2-789                     [14, 64, 64, 64]          --
│    └─ReLU: 2-790                       [14, 64, 64, 64]          --
│    └─Empty: 2-791                      [14, 64, 64, 64]          --
│    └─Clamp: 2-792                      [14, 64, 64, 64]          --
├─FusedConv2dBNReLU: 1-61                [14, 64, 64, 64]          (recursive)
│    └─OutputShiftSqueeze: 2-793         --                        --
│    └─One: 2-794                        [1]                       --
│    └─OutputScale: 2-795                --                        --
│    └─Empty: 2-796                      [64, 64, 1, 1]            --
│    └─Empty: 2-797                      [64, 64, 1, 1]            --
│    └─Empty: 2-798                      [64]                      --
│    └─Empty: 2-799                      [64]                      --
│    └─BatchNorm2d: 2-800                [14, 64, 64, 64]          --
│    └─Scaler: 2-801                     [14, 64, 64, 64]          --
│    └─ReLU: 2-802                       [14, 64, 64, 64]          --
│    └─Empty: 2-803                      [14, 64, 64, 64]          --
│    └─Clamp: 2-804                      [14, 64, 64, 64]          --
├─FusedConv2dBNReLU: 1-62                [14, 64, 64, 64]          (recursive)
│    └─OutputShiftSqueeze: 2-805         --                        --
│    └─One: 2-806                        [1]                       --
│    └─OutputScale: 2-807                --                        --
│    └─Empty: 2-808                      [64, 64, 3, 3]            --
│    └─Empty: 2-809                      [64, 64, 3, 3]            --
│    └─Empty: 2-810                      [64]                      --
│    └─Empty: 2-811                      [64]                      --
│    └─BatchNorm2d: 2-812                [14, 64, 64, 64]          --
│    └─Scaler: 2-813                     [14, 64, 64, 64]          --
│    └─ReLU: 2-814                       [14, 64, 64, 64]          --
│    └─Empty: 2-815                      [14, 64, 64, 64]          --
│    └─Clamp: 2-816                      [14, 64, 64, 64]          --
├─FusedConv2dBNReLU: 1-63                [14, 64, 64, 64]          (recursive)
│    └─OutputShiftSqueeze: 2-817         --                        --
│    └─One: 2-818                        [1]                       --
│    └─OutputScale: 2-819                --                        --
│    └─Empty: 2-820                      [64, 64, 3, 3]            --
│    └─Empty: 2-821                      [64, 64, 3, 3]            --
│    └─Empty: 2-822                      [64]                      --
│    └─Empty: 2-823                      [64]                      --
│    └─BatchNorm2d: 2-824                [14, 64, 64, 64]          --
│    └─Scaler: 2-825                     [14, 64, 64, 64]          --
│    └─ReLU: 2-826                       [14, 64, 64, 64]          --
│    └─Empty: 2-827                      [14, 64, 64, 64]          --
│    └─Clamp: 2-828                      [14, 64, 64, 64]          --
├─FusedMaxPoolConv2dBNReLU: 1-64         [14, 64, 32, 32]          (recursive)
│    └─MaxPool2d: 2-829                  [14, 64, 32, 32]          --
│    └─Empty: 2-830                      [14, 64, 32, 32]          --
│    └─Empty: 2-831                      [14, 64, 32, 32]          --
│    └─OutputShiftSqueeze: 2-832         --                        --
│    └─One: 2-833                        [1]                       --
│    └─OutputScale: 2-834                --                        --
│    └─Empty: 2-835                      [64, 64, 3, 3]            --
│    └─Empty: 2-836                      [64, 64, 3, 3]            --
│    └─Empty: 2-837                      [64]                      --
│    └─Empty: 2-838                      [64]                      --
│    └─BatchNorm2d: 2-839                [14, 64, 32, 32]          --
│    └─Scaler: 2-840                     [14, 64, 32, 32]          --
│    └─ReLU: 2-841                       [14, 64, 32, 32]          --
│    └─Empty: 2-842                      [14, 64, 32, 32]          --
│    └─Clamp: 2-843                      [14, 64, 32, 32]          --
├─FusedConv2dBNReLU: 1-65                [14, 64, 32, 32]          (recursive)
│    └─OutputShiftSqueeze: 2-844         --                        --
│    └─One: 2-845                        [1]                       --
│    └─OutputScale: 2-846                --                        --
│    └─Empty: 2-847                      [64, 64, 3, 3]            --
│    └─Empty: 2-848                      [64, 64, 3, 3]            --
│    └─Empty: 2-849                      [64]                      --
│    └─Empty: 2-850                      [64]                      --
│    └─BatchNorm2d: 2-851                [14, 64, 32, 32]          --
│    └─Scaler: 2-852                     [14, 64, 32, 32]          --
│    └─ReLU: 2-853                       [14, 64, 32, 32]          --
│    └─Empty: 2-854                      [14, 64, 32, 32]          --
│    └─Clamp: 2-855                      [14, 64, 32, 32]          --
├─FusedMaxPoolConv2dBNReLU: 1-66         [14, 64, 16, 16]          (recursive)
│    └─MaxPool2d: 2-856                  [14, 64, 16, 16]          --
│    └─Empty: 2-857                      [14, 64, 16, 16]          --
│    └─Empty: 2-858                      [14, 64, 16, 16]          --
│    └─OutputShiftSqueeze: 2-859         --                        --
│    └─One: 2-860                        [1]                       --
│    └─OutputScale: 2-861                --                        --
│    └─Empty: 2-862                      [64, 64, 3, 3]            --
│    └─Empty: 2-863                      [64, 64, 3, 3]            --
│    └─Empty: 2-864                      [64]                      --
│    └─Empty: 2-865                      [64]                      --
│    └─BatchNorm2d: 2-866                [14, 64, 16, 16]          --
│    └─Scaler: 2-867                     [14, 64, 16, 16]          --
│    └─ReLU: 2-868                       [14, 64, 16, 16]          --
│    └─Empty: 2-869                      [14, 64, 16, 16]          --
│    └─Clamp: 2-870                      [14, 64, 16, 16]          --
├─FusedConv2dBNReLU: 1-67                [14, 64, 16, 16]          (recursive)
│    └─OutputShiftSqueeze: 2-871         --                        --
│    └─One: 2-872                        [1]                       --
│    └─OutputScale: 2-873                --                        --
│    └─Empty: 2-874                      [64, 64, 3, 3]            --
│    └─Empty: 2-875                      [64, 64, 3, 3]            --
│    └─Empty: 2-876                      [64]                      --
│    └─Empty: 2-877                      [64]                      --
│    └─BatchNorm2d: 2-878                [14, 64, 16, 16]          --
│    └─Scaler: 2-879                     [14, 64, 16, 16]          --
│    └─ReLU: 2-880                       [14, 64, 16, 16]          --
│    └─Empty: 2-881                      [14, 64, 16, 16]          --
│    └─Clamp: 2-882                      [14, 64, 16, 16]          --
├─FusedMaxPoolConv2dBNReLU: 1-68         [14, 64, 8, 8]            (recursive)
│    └─MaxPool2d: 2-883                  [14, 64, 8, 8]            --
│    └─Empty: 2-884                      [14, 64, 8, 8]            --
│    └─Empty: 2-885                      [14, 64, 8, 8]            --
│    └─OutputShiftSqueeze: 2-886         --                        --
│    └─One: 2-887                        [1]                       --
│    └─OutputScale: 2-888                --                        --
│    └─Empty: 2-889                      [64, 64, 3, 3]            --
│    └─Empty: 2-890                      [64, 64, 3, 3]            --
│    └─Empty: 2-891                      [64]                      --
│    └─Empty: 2-892                      [64]                      --
│    └─BatchNorm2d: 2-893                [14, 64, 8, 8]            --
│    └─Scaler: 2-894                     [14, 64, 8, 8]            --
│    └─ReLU: 2-895                       [14, 64, 8, 8]            --
│    └─Empty: 2-896                      [14, 64, 8, 8]            --
│    └─Clamp: 2-897                      [14, 64, 8, 8]            --
├─FusedConv2dBNReLU: 1-69                [14, 64, 8, 8]            (recursive)
│    └─OutputShiftSqueeze: 2-898         --                        --
│    └─One: 2-899                        [1]                       --
│    └─OutputScale: 2-900                --                        --
│    └─Empty: 2-901                      [64, 64, 1, 1]            --
│    └─Empty: 2-902                      [64, 64, 1, 1]            --
│    └─Empty: 2-903                      [64]                      --
│    └─Empty: 2-904                      [64]                      --
│    └─BatchNorm2d: 2-905                [14, 64, 8, 8]            --
│    └─Scaler: 2-906                     [14, 64, 8, 8]            --
│    └─ReLU: 2-907                       [14, 64, 8, 8]            --
│    └─Empty: 2-908                      [14, 64, 8, 8]            --
│    └─Clamp: 2-909                      [14, 64, 8, 8]            --
├─FusedMaxPoolConv2dBNReLU: 1-70         [14, 64, 8, 8]            (recursive)
│    └─MaxPool2d: 2-910                  [14, 64, 8, 8]            --
│    └─Empty: 2-911                      [14, 64, 8, 8]            --
│    └─Empty: 2-912                      [14, 64, 8, 8]            --
│    └─OutputShiftSqueeze: 2-913         --                        --
│    └─One: 2-914                        [1]                       --
│    └─OutputScale: 2-915                --                        --
│    └─Empty: 2-916                      [64, 64, 3, 3]            --
│    └─Empty: 2-917                      [64, 64, 3, 3]            --
│    └─Empty: 2-918                      [64]                      --
│    └─Empty: 2-919                      [64]                      --
│    └─BatchNorm2d: 2-920                [14, 64, 8, 8]            --
│    └─Scaler: 2-921                     [14, 64, 8, 8]            --
│    └─ReLU: 2-922                       [14, 64, 8, 8]            --
│    └─Empty: 2-923                      [14, 64, 8, 8]            --
│    └─Clamp: 2-924                      [14, 64, 8, 8]            --
├─FusedMaxPoolConv2dBNReLU: 1-71         [14, 64, 4, 4]            (recursive)
│    └─MaxPool2d: 2-925                  [14, 64, 4, 4]            --
│    └─Empty: 2-926                      [14, 64, 4, 4]            --
│    └─Empty: 2-927                      [14, 64, 4, 4]            --
│    └─OutputShiftSqueeze: 2-928         --                        --
│    └─One: 2-929                        [1]                       --
│    └─OutputScale: 2-930                --                        --
│    └─Empty: 2-931                      [64, 64, 3, 3]            --
│    └─Empty: 2-932                      [64, 64, 3, 3]            --
│    └─Empty: 2-933                      [64]                      --
│    └─Empty: 2-934                      [64]                      --
│    └─BatchNorm2d: 2-935                [14, 64, 4, 4]            --
│    └─Scaler: 2-936                     [14, 64, 4, 4]            --
│    └─ReLU: 2-937                       [14, 64, 4, 4]            --
│    └─Empty: 2-938                      [14, 64, 4, 4]            --
│    └─Clamp: 2-939                      [14, 64, 4, 4]            --
├─FusedConv2dBNReLU: 1-72                [14, 64, 4, 4]            (recursive)
│    └─OutputShiftSqueeze: 2-940         --                        --
│    └─One: 2-941                        [1]                       --
│    └─OutputScale: 2-942                --                        --
│    └─Empty: 2-943                      [64, 64, 1, 1]            --
│    └─Empty: 2-944                      [64, 64, 1, 1]            --
│    └─Empty: 2-945                      [64]                      --
│    └─Empty: 2-946                      [64]                      --
│    └─BatchNorm2d: 2-947                [14, 64, 4, 4]            --
│    └─Scaler: 2-948                     [14, 64, 4, 4]            --
│    └─ReLU: 2-949                       [14, 64, 4, 4]            --
│    └─Empty: 2-950                      [14, 64, 4, 4]            --
│    └─Clamp: 2-951                      [14, 64, 4, 4]            --
├─FusedMaxPoolConv2dBNReLU: 1-73         [14, 64, 4, 4]            (recursive)
│    └─MaxPool2d: 2-952                  [14, 64, 4, 4]            --
│    └─Empty: 2-953                      [14, 64, 4, 4]            --
│    └─Empty: 2-954                      [14, 64, 4, 4]            --
│    └─OutputShiftSqueeze: 2-955         --                        --
│    └─One: 2-956                        [1]                       --
│    └─OutputScale: 2-957                --                        --
│    └─Empty: 2-958                      [64, 64, 3, 3]            --
│    └─Empty: 2-959                      [64, 64, 3, 3]            --
│    └─Empty: 2-960                      [64]                      --
│    └─Empty: 2-961                      [64]                      --
│    └─BatchNorm2d: 2-962                [14, 64, 4, 4]            --
│    └─Scaler: 2-963                     [14, 64, 4, 4]            --
│    └─ReLU: 2-964                       [14, 64, 4, 4]            --
│    └─Empty: 2-965                      [14, 64, 4, 4]            --
│    └─Clamp: 2-966                      [14, 64, 4, 4]            --
├─FusedMaxPoolConv2dBNReLU: 1-74         [14, 64, 2, 2]            (recursive)
│    └─MaxPool2d: 2-967                  [14, 64, 2, 2]            --
│    └─Empty: 2-968                      [14, 64, 2, 2]            --
│    └─Empty: 2-969                      [14, 64, 2, 2]            --
│    └─OutputShiftSqueeze: 2-970         --                        --
│    └─One: 2-971                        [1]                       --
│    └─OutputScale: 2-972                --                        --
│    └─Empty: 2-973                      [64, 64, 3, 3]            --
│    └─Empty: 2-974                      [64, 64, 3, 3]            --
│    └─Empty: 2-975                      [64]                      --
│    └─Empty: 2-976                      [64]                      --
│    └─BatchNorm2d: 2-977                [14, 64, 2, 2]            --
│    └─Scaler: 2-978                     [14, 64, 2, 2]            --
│    └─ReLU: 2-979                       [14, 64, 2, 2]            --
│    └─Empty: 2-980                      [14, 64, 2, 2]            --
│    └─Clamp: 2-981                      [14, 64, 2, 2]            --
├─FusedConv2dBNReLU: 1-75                [14, 64, 2, 2]            (recursive)
│    └─OutputShiftSqueeze: 2-982         --                        --
│    └─One: 2-983                        [1]                       --
│    └─OutputScale: 2-984                --                        --
│    └─Empty: 2-985                      [64, 64, 1, 1]            --
│    └─Empty: 2-986                      [64, 64, 1, 1]            --
│    └─Empty: 2-987                      [64]                      --
│    └─Empty: 2-988                      [64]                      --
│    └─BatchNorm2d: 2-989                [14, 64, 2, 2]            --
│    └─Scaler: 2-990                     [14, 64, 2, 2]            --
│    └─ReLU: 2-991                       [14, 64, 2, 2]            --
│    └─Empty: 2-992                      [14, 64, 2, 2]            --
│    └─Clamp: 2-993                      [14, 64, 2, 2]            --
├─FusedMaxPoolConv2dBNReLU: 1-76         [14, 64, 2, 2]            (recursive)
│    └─MaxPool2d: 2-994                  [14, 64, 2, 2]            --
│    └─Empty: 2-995                      [14, 64, 2, 2]            --
│    └─Empty: 2-996                      [14, 64, 2, 2]            --
│    └─OutputShiftSqueeze: 2-997         --                        --
│    └─One: 2-998                        [1]                       --
│    └─OutputScale: 2-999                --                        --
│    └─Empty: 2-1000                     [64, 64, 3, 3]            --
│    └─Empty: 2-1001                     [64, 64, 3, 3]            --
│    └─Empty: 2-1002                     [64]                      --
│    └─Empty: 2-1003                     [64]                      --
│    └─BatchNorm2d: 2-1004               [14, 64, 2, 2]            --
│    └─Scaler: 2-1005                    [14, 64, 2, 2]            --
│    └─ReLU: 2-1006                      [14, 64, 2, 2]            --
│    └─Empty: 2-1007                     [14, 64, 2, 2]            --
│    └─Clamp: 2-1008                     [14, 64, 2, 2]            --
├─FusedConv2dBNReLU: 1-77                [14, 64, 64, 64]          (recursive)
│    └─OutputShiftSqueeze: 2-1009        --                        --
│    └─One: 2-1010                       [1]                       --
│    └─OutputScale: 2-1011               --                        --
│    └─Empty: 2-1012                     [64, 48, 1, 1]            --
│    └─Empty: 2-1013                     [64, 48, 1, 1]            --
│    └─Empty: 2-1014                     [64]                      --
│    └─Empty: 2-1015                     [64]                      --
│    └─BatchNorm2d: 2-1016               [14, 64, 64, 64]          --
│    └─Scaler: 2-1017                    [14, 64, 64, 64]          --
│    └─ReLU: 2-1018                      [14, 64, 64, 64]          --
│    └─Empty: 2-1019                     [14, 64, 64, 64]          --
│    └─Clamp: 2-1020                     [14, 64, 64, 64]          --
├─FusedConv2dBNReLU: 1-78                [14, 64, 64, 64]          (recursive)
│    └─OutputShiftSqueeze: 2-1021        --                        --
│    └─One: 2-1022                       [1]                       --
│    └─OutputScale: 2-1023               --                        --
│    └─Empty: 2-1024                     [64, 64, 3, 3]            --
│    └─Empty: 2-1025                     [64, 64, 3, 3]            --
│    └─Empty: 2-1026                     [64]                      --
│    └─Empty: 2-1027                     [64]                      --
│    └─BatchNorm2d: 2-1028               [14, 64, 64, 64]          --
│    └─Scaler: 2-1029                    [14, 64, 64, 64]          --
│    └─ReLU: 2-1030                      [14, 64, 64, 64]          --
│    └─Empty: 2-1031                     [14, 64, 64, 64]          --
│    └─Clamp: 2-1032                     [14, 64, 64, 64]          --
├─FusedConv2dBNReLU: 1-79                [14, 64, 64, 64]          (recursive)
│    └─OutputShiftSqueeze: 2-1033        --                        --
│    └─One: 2-1034                       [1]                       --
│    └─OutputScale: 2-1035               --                        --
│    └─Empty: 2-1036                     [64, 64, 3, 3]            --
│    └─Empty: 2-1037                     [64, 64, 3, 3]            --
│    └─Empty: 2-1038                     [64]                      --
│    └─Empty: 2-1039                     [64]                      --
│    └─BatchNorm2d: 2-1040               [14, 64, 64, 64]          --
│    └─Scaler: 2-1041                    [14, 64, 64, 64]          --
│    └─ReLU: 2-1042                      [14, 64, 64, 64]          --
│    └─Empty: 2-1043                     [14, 64, 64, 64]          --
│    └─Clamp: 2-1044                     [14, 64, 64, 64]          --
├─FusedConv2dBNReLU: 1-80                [14, 64, 64, 64]          (recursive)
│    └─OutputShiftSqueeze: 2-1045        --                        --
│    └─One: 2-1046                       [1]                       --
│    └─OutputScale: 2-1047               --                        --
│    └─Empty: 2-1048                     [64, 64, 1, 1]            --
│    └─Empty: 2-1049                     [64, 64, 1, 1]            --
│    └─Empty: 2-1050                     [64]                      --
│    └─Empty: 2-1051                     [64]                      --
│    └─BatchNorm2d: 2-1052               [14, 64, 64, 64]          --
│    └─Scaler: 2-1053                    [14, 64, 64, 64]          --
│    └─ReLU: 2-1054                      [14, 64, 64, 64]          --
│    └─Empty: 2-1055                     [14, 64, 64, 64]          --
│    └─Clamp: 2-1056                     [14, 64, 64, 64]          --
├─FusedConv2dBNReLU: 1-81                [14, 64, 64, 64]          (recursive)
│    └─OutputShiftSqueeze: 2-1057        --                        --
│    └─One: 2-1058                       [1]                       --
│    └─OutputScale: 2-1059               --                        --
│    └─Empty: 2-1060                     [64, 64, 3, 3]            --
│    └─Empty: 2-1061                     [64, 64, 3, 3]            --
│    └─Empty: 2-1062                     [64]                      --
│    └─Empty: 2-1063                     [64]                      --
│    └─BatchNorm2d: 2-1064               [14, 64, 64, 64]          --
│    └─Scaler: 2-1065                    [14, 64, 64, 64]          --
│    └─ReLU: 2-1066                      [14, 64, 64, 64]          --
│    └─Empty: 2-1067                     [14, 64, 64, 64]          --
│    └─Clamp: 2-1068                     [14, 64, 64, 64]          --
├─FusedConv2dBNReLU: 1-82                [14, 64, 64, 64]          (recursive)
│    └─OutputShiftSqueeze: 2-1069        --                        --
│    └─One: 2-1070                       [1]                       --
│    └─OutputScale: 2-1071               --                        --
│    └─Empty: 2-1072                     [64, 64, 3, 3]            --
│    └─Empty: 2-1073                     [64, 64, 3, 3]            --
│    └─Empty: 2-1074                     [64]                      --
│    └─Empty: 2-1075                     [64]                      --
│    └─BatchNorm2d: 2-1076               [14, 64, 64, 64]          --
│    └─Scaler: 2-1077                    [14, 64, 64, 64]          --
│    └─ReLU: 2-1078                      [14, 64, 64, 64]          --
│    └─Empty: 2-1079                     [14, 64, 64, 64]          --
│    └─Clamp: 2-1080                     [14, 64, 64, 64]          --
├─FusedMaxPoolConv2dBNReLU: 1-83         [14, 64, 32, 32]          (recursive)
│    └─MaxPool2d: 2-1081                 [14, 64, 32, 32]          --
│    └─Empty: 2-1082                     [14, 64, 32, 32]          --
│    └─Empty: 2-1083                     [14, 64, 32, 32]          --
│    └─OutputShiftSqueeze: 2-1084        --                        --
│    └─One: 2-1085                       [1]                       --
│    └─OutputScale: 2-1086               --                        --
│    └─Empty: 2-1087                     [64, 64, 3, 3]            --
│    └─Empty: 2-1088                     [64, 64, 3, 3]            --
│    └─Empty: 2-1089                     [64]                      --
│    └─Empty: 2-1090                     [64]                      --
│    └─BatchNorm2d: 2-1091               [14, 64, 32, 32]          --
│    └─Scaler: 2-1092                    [14, 64, 32, 32]          --
│    └─ReLU: 2-1093                      [14, 64, 32, 32]          --
│    └─Empty: 2-1094                     [14, 64, 32, 32]          --
│    └─Clamp: 2-1095                     [14, 64, 32, 32]          --
├─FusedConv2dBNReLU: 1-84                [14, 64, 32, 32]          (recursive)
│    └─OutputShiftSqueeze: 2-1096        --                        --
│    └─One: 2-1097                       [1]                       --
│    └─OutputScale: 2-1098               --                        --
│    └─Empty: 2-1099                     [64, 64, 3, 3]            --
│    └─Empty: 2-1100                     [64, 64, 3, 3]            --
│    └─Empty: 2-1101                     [64]                      --
│    └─Empty: 2-1102                     [64]                      --
│    └─BatchNorm2d: 2-1103               [14, 64, 32, 32]          --
│    └─Scaler: 2-1104                    [14, 64, 32, 32]          --
│    └─ReLU: 2-1105                      [14, 64, 32, 32]          --
│    └─Empty: 2-1106                     [14, 64, 32, 32]          --
│    └─Clamp: 2-1107                     [14, 64, 32, 32]          --
├─FusedMaxPoolConv2dBNReLU: 1-85         [14, 64, 16, 16]          (recursive)
│    └─MaxPool2d: 2-1108                 [14, 64, 16, 16]          --
│    └─Empty: 2-1109                     [14, 64, 16, 16]          --
│    └─Empty: 2-1110                     [14, 64, 16, 16]          --
│    └─OutputShiftSqueeze: 2-1111        --                        --
│    └─One: 2-1112                       [1]                       --
│    └─OutputScale: 2-1113               --                        --
│    └─Empty: 2-1114                     [64, 64, 3, 3]            --
│    └─Empty: 2-1115                     [64, 64, 3, 3]            --
│    └─Empty: 2-1116                     [64]                      --
│    └─Empty: 2-1117                     [64]                      --
│    └─BatchNorm2d: 2-1118               [14, 64, 16, 16]          --
│    └─Scaler: 2-1119                    [14, 64, 16, 16]          --
│    └─ReLU: 2-1120                      [14, 64, 16, 16]          --
│    └─Empty: 2-1121                     [14, 64, 16, 16]          --
│    └─Clamp: 2-1122                     [14, 64, 16, 16]          --
├─FusedConv2dBNReLU: 1-86                [14, 64, 16, 16]          (recursive)
│    └─OutputShiftSqueeze: 2-1123        --                        --
│    └─One: 2-1124                       [1]                       --
│    └─OutputScale: 2-1125               --                        --
│    └─Empty: 2-1126                     [64, 64, 3, 3]            --
│    └─Empty: 2-1127                     [64, 64, 3, 3]            --
│    └─Empty: 2-1128                     [64]                      --
│    └─Empty: 2-1129                     [64]                      --
│    └─BatchNorm2d: 2-1130               [14, 64, 16, 16]          --
│    └─Scaler: 2-1131                    [14, 64, 16, 16]          --
│    └─ReLU: 2-1132                      [14, 64, 16, 16]          --
│    └─Empty: 2-1133                     [14, 64, 16, 16]          --
│    └─Clamp: 2-1134                     [14, 64, 16, 16]          --
├─FusedMaxPoolConv2dBNReLU: 1-87         [14, 64, 8, 8]            (recursive)
│    └─MaxPool2d: 2-1135                 [14, 64, 8, 8]            --
│    └─Empty: 2-1136                     [14, 64, 8, 8]            --
│    └─Empty: 2-1137                     [14, 64, 8, 8]            --
│    └─OutputShiftSqueeze: 2-1138        --                        --
│    └─One: 2-1139                       [1]                       --
│    └─OutputScale: 2-1140               --                        --
│    └─Empty: 2-1141                     [64, 64, 3, 3]            --
│    └─Empty: 2-1142                     [64, 64, 3, 3]            --
│    └─Empty: 2-1143                     [64]                      --
│    └─Empty: 2-1144                     [64]                      --
│    └─BatchNorm2d: 2-1145               [14, 64, 8, 8]            --
│    └─Scaler: 2-1146                    [14, 64, 8, 8]            --
│    └─ReLU: 2-1147                      [14, 64, 8, 8]            --
│    └─Empty: 2-1148                     [14, 64, 8, 8]            --
│    └─Clamp: 2-1149                     [14, 64, 8, 8]            --
├─FusedConv2dBNReLU: 1-88                [14, 64, 8, 8]            (recursive)
│    └─OutputShiftSqueeze: 2-1150        --                        --
│    └─One: 2-1151                       [1]                       --
│    └─OutputScale: 2-1152               --                        --
│    └─Empty: 2-1153                     [64, 64, 1, 1]            --
│    └─Empty: 2-1154                     [64, 64, 1, 1]            --
│    └─Empty: 2-1155                     [64]                      --
│    └─Empty: 2-1156                     [64]                      --
│    └─BatchNorm2d: 2-1157               [14, 64, 8, 8]            --
│    └─Scaler: 2-1158                    [14, 64, 8, 8]            --
│    └─ReLU: 2-1159                      [14, 64, 8, 8]            --
│    └─Empty: 2-1160                     [14, 64, 8, 8]            --
│    └─Clamp: 2-1161                     [14, 64, 8, 8]            --
├─FusedMaxPoolConv2dBNReLU: 1-89         [14, 64, 8, 8]            (recursive)
│    └─MaxPool2d: 2-1162                 [14, 64, 8, 8]            --
│    └─Empty: 2-1163                     [14, 64, 8, 8]            --
│    └─Empty: 2-1164                     [14, 64, 8, 8]            --
│    └─OutputShiftSqueeze: 2-1165        --                        --
│    └─One: 2-1166                       [1]                       --
│    └─OutputScale: 2-1167               --                        --
│    └─Empty: 2-1168                     [64, 64, 3, 3]            --
│    └─Empty: 2-1169                     [64, 64, 3, 3]            --
│    └─Empty: 2-1170                     [64]                      --
│    └─Empty: 2-1171                     [64]                      --
│    └─BatchNorm2d: 2-1172               [14, 64, 8, 8]            --
│    └─Scaler: 2-1173                    [14, 64, 8, 8]            --
│    └─ReLU: 2-1174                      [14, 64, 8, 8]            --
│    └─Empty: 2-1175                     [14, 64, 8, 8]            --
│    └─Clamp: 2-1176                     [14, 64, 8, 8]            --
├─FusedMaxPoolConv2dBNReLU: 1-90         [14, 64, 4, 4]            (recursive)
│    └─MaxPool2d: 2-1177                 [14, 64, 4, 4]            --
│    └─Empty: 2-1178                     [14, 64, 4, 4]            --
│    └─Empty: 2-1179                     [14, 64, 4, 4]            --
│    └─OutputShiftSqueeze: 2-1180        --                        --
│    └─One: 2-1181                       [1]                       --
│    └─OutputScale: 2-1182               --                        --
│    └─Empty: 2-1183                     [64, 64, 3, 3]            --
│    └─Empty: 2-1184                     [64, 64, 3, 3]            --
│    └─Empty: 2-1185                     [64]                      --
│    └─Empty: 2-1186                     [64]                      --
│    └─BatchNorm2d: 2-1187               [14, 64, 4, 4]            --
│    └─Scaler: 2-1188                    [14, 64, 4, 4]            --
│    └─ReLU: 2-1189                      [14, 64, 4, 4]            --
│    └─Empty: 2-1190                     [14, 64, 4, 4]            --
│    └─Clamp: 2-1191                     [14, 64, 4, 4]            --
├─FusedConv2dBNReLU: 1-91                [14, 64, 4, 4]            (recursive)
│    └─OutputShiftSqueeze: 2-1192        --                        --
│    └─One: 2-1193                       [1]                       --
│    └─OutputScale: 2-1194               --                        --
│    └─Empty: 2-1195                     [64, 64, 1, 1]            --
│    └─Empty: 2-1196                     [64, 64, 1, 1]            --
│    └─Empty: 2-1197                     [64]                      --
│    └─Empty: 2-1198                     [64]                      --
│    └─BatchNorm2d: 2-1199               [14, 64, 4, 4]            --
│    └─Scaler: 2-1200                    [14, 64, 4, 4]            --
│    └─ReLU: 2-1201                      [14, 64, 4, 4]            --
│    └─Empty: 2-1202                     [14, 64, 4, 4]            --
│    └─Clamp: 2-1203                     [14, 64, 4, 4]            --
├─FusedMaxPoolConv2dBNReLU: 1-92         [14, 64, 4, 4]            (recursive)
│    └─MaxPool2d: 2-1204                 [14, 64, 4, 4]            --
│    └─Empty: 2-1205                     [14, 64, 4, 4]            --
│    └─Empty: 2-1206                     [14, 64, 4, 4]            --
│    └─OutputShiftSqueeze: 2-1207        --                        --
│    └─One: 2-1208                       [1]                       --
│    └─OutputScale: 2-1209               --                        --
│    └─Empty: 2-1210                     [64, 64, 3, 3]            --
│    └─Empty: 2-1211                     [64, 64, 3, 3]            --
│    └─Empty: 2-1212                     [64]                      --
│    └─Empty: 2-1213                     [64]                      --
│    └─BatchNorm2d: 2-1214               [14, 64, 4, 4]            --
│    └─Scaler: 2-1215                    [14, 64, 4, 4]            --
│    └─ReLU: 2-1216                      [14, 64, 4, 4]            --
│    └─Empty: 2-1217                     [14, 64, 4, 4]            --
│    └─Clamp: 2-1218                     [14, 64, 4, 4]            --
├─FusedMaxPoolConv2dBNReLU: 1-93         [14, 64, 2, 2]            (recursive)
│    └─MaxPool2d: 2-1219                 [14, 64, 2, 2]            --
│    └─Empty: 2-1220                     [14, 64, 2, 2]            --
│    └─Empty: 2-1221                     [14, 64, 2, 2]            --
│    └─OutputShiftSqueeze: 2-1222        --                        --
│    └─One: 2-1223                       [1]                       --
│    └─OutputScale: 2-1224               --                        --
│    └─Empty: 2-1225                     [64, 64, 3, 3]            --
│    └─Empty: 2-1226                     [64, 64, 3, 3]            --
│    └─Empty: 2-1227                     [64]                      --
│    └─Empty: 2-1228                     [64]                      --
│    └─BatchNorm2d: 2-1229               [14, 64, 2, 2]            --
│    └─Scaler: 2-1230                    [14, 64, 2, 2]            --
│    └─ReLU: 2-1231                      [14, 64, 2, 2]            --
│    └─Empty: 2-1232                     [14, 64, 2, 2]            --
│    └─Clamp: 2-1233                     [14, 64, 2, 2]            --
├─FusedConv2dBNReLU: 1-94                [14, 64, 2, 2]            (recursive)
│    └─OutputShiftSqueeze: 2-1234        --                        --
│    └─One: 2-1235                       [1]                       --
│    └─OutputScale: 2-1236               --                        --
│    └─Empty: 2-1237                     [64, 64, 1, 1]            --
│    └─Empty: 2-1238                     [64, 64, 1, 1]            --
│    └─Empty: 2-1239                     [64]                      --
│    └─Empty: 2-1240                     [64]                      --
│    └─BatchNorm2d: 2-1241               [14, 64, 2, 2]            --
│    └─Scaler: 2-1242                    [14, 64, 2, 2]            --
│    └─ReLU: 2-1243                      [14, 64, 2, 2]            --
│    └─Empty: 2-1244                     [14, 64, 2, 2]            --
│    └─Clamp: 2-1245                     [14, 64, 2, 2]            --
├─FusedMaxPoolConv2dBNReLU: 1-95         [14, 64, 2, 2]            (recursive)
│    └─MaxPool2d: 2-1246                 [14, 64, 2, 2]            --
│    └─Empty: 2-1247                     [14, 64, 2, 2]            --
│    └─Empty: 2-1248                     [14, 64, 2, 2]            --
│    └─OutputShiftSqueeze: 2-1249        --                        --
│    └─One: 2-1250                       [1]                       --
│    └─OutputScale: 2-1251               --                        --
│    └─Empty: 2-1252                     [64, 64, 3, 3]            --
│    └─Empty: 2-1253                     [64, 64, 3, 3]            --
│    └─Empty: 2-1254                     [64]                      --
│    └─Empty: 2-1255                     [64]                      --
│    └─BatchNorm2d: 2-1256               [14, 64, 2, 2]            --
│    └─Scaler: 2-1257                    [14, 64, 2, 2]            --
│    └─ReLU: 2-1258                      [14, 64, 2, 2]            --
│    └─Empty: 2-1259                     [14, 64, 2, 2]            --
│    └─Clamp: 2-1260                     [14, 64, 2, 2]            --
├─FusedConv2dBNReLU: 1-96                [14, 64, 64, 64]          (recursive)
│    └─OutputShiftSqueeze: 2-1261        --                        --
│    └─One: 2-1262                       [1]                       --
│    └─OutputScale: 2-1263               --                        --
│    └─Empty: 2-1264                     [64, 48, 1, 1]            --
│    └─Empty: 2-1265                     [64, 48, 1, 1]            --
│    └─Empty: 2-1266                     [64]                      --
│    └─Empty: 2-1267                     [64]                      --
│    └─BatchNorm2d: 2-1268               [14, 64, 64, 64]          --
│    └─Scaler: 2-1269                    [14, 64, 64, 64]          --
│    └─ReLU: 2-1270                      [14, 64, 64, 64]          --
│    └─Empty: 2-1271                     [14, 64, 64, 64]          --
│    └─Clamp: 2-1272                     [14, 64, 64, 64]          --
├─FusedConv2dBNReLU: 1-97                [14, 64, 64, 64]          (recursive)
│    └─OutputShiftSqueeze: 2-1273        --                        --
│    └─One: 2-1274                       [1]                       --
│    └─OutputScale: 2-1275               --                        --
│    └─Empty: 2-1276                     [64, 64, 3, 3]            --
│    └─Empty: 2-1277                     [64, 64, 3, 3]            --
│    └─Empty: 2-1278                     [64]                      --
│    └─Empty: 2-1279                     [64]                      --
│    └─BatchNorm2d: 2-1280               [14, 64, 64, 64]          --
│    └─Scaler: 2-1281                    [14, 64, 64, 64]          --
│    └─ReLU: 2-1282                      [14, 64, 64, 64]          --
│    └─Empty: 2-1283                     [14, 64, 64, 64]          --
│    └─Clamp: 2-1284                     [14, 64, 64, 64]          --
├─FusedConv2dBNReLU: 1-98                [14, 64, 64, 64]          (recursive)
│    └─OutputShiftSqueeze: 2-1285        --                        --
│    └─One: 2-1286                       [1]                       --
│    └─OutputScale: 2-1287               --                        --
│    └─Empty: 2-1288                     [64, 64, 3, 3]            --
│    └─Empty: 2-1289                     [64, 64, 3, 3]            --
│    └─Empty: 2-1290                     [64]                      --
│    └─Empty: 2-1291                     [64]                      --
│    └─BatchNorm2d: 2-1292               [14, 64, 64, 64]          --
│    └─Scaler: 2-1293                    [14, 64, 64, 64]          --
│    └─ReLU: 2-1294                      [14, 64, 64, 64]          --
│    └─Empty: 2-1295                     [14, 64, 64, 64]          --
│    └─Clamp: 2-1296                     [14, 64, 64, 64]          --
├─FusedConv2dBNReLU: 1-99                [14, 64, 64, 64]          (recursive)
│    └─OutputShiftSqueeze: 2-1297        --                        --
│    └─One: 2-1298                       [1]                       --
│    └─OutputScale: 2-1299               --                        --
│    └─Empty: 2-1300                     [64, 64, 1, 1]            --
│    └─Empty: 2-1301                     [64, 64, 1, 1]            --
│    └─Empty: 2-1302                     [64]                      --
│    └─Empty: 2-1303                     [64]                      --
│    └─BatchNorm2d: 2-1304               [14, 64, 64, 64]          --
│    └─Scaler: 2-1305                    [14, 64, 64, 64]          --
│    └─ReLU: 2-1306                      [14, 64, 64, 64]          --
│    └─Empty: 2-1307                     [14, 64, 64, 64]          --
│    └─Clamp: 2-1308                     [14, 64, 64, 64]          --
├─FusedConv2dBNReLU: 1-100               [14, 64, 64, 64]          (recursive)
│    └─OutputShiftSqueeze: 2-1309        --                        --
│    └─One: 2-1310                       [1]                       --
│    └─OutputScale: 2-1311               --                        --
│    └─Empty: 2-1312                     [64, 64, 3, 3]            --
│    └─Empty: 2-1313                     [64, 64, 3, 3]            --
│    └─Empty: 2-1314                     [64]                      --
│    └─Empty: 2-1315                     [64]                      --
│    └─BatchNorm2d: 2-1316               [14, 64, 64, 64]          --
│    └─Scaler: 2-1317                    [14, 64, 64, 64]          --
│    └─ReLU: 2-1318                      [14, 64, 64, 64]          --
│    └─Empty: 2-1319                     [14, 64, 64, 64]          --
│    └─Clamp: 2-1320                     [14, 64, 64, 64]          --
├─FusedConv2dBNReLU: 1-101               [14, 64, 64, 64]          (recursive)
│    └─OutputShiftSqueeze: 2-1321        --                        --
│    └─One: 2-1322                       [1]                       --
│    └─OutputScale: 2-1323               --                        --
│    └─Empty: 2-1324                     [64, 64, 3, 3]            --
│    └─Empty: 2-1325                     [64, 64, 3, 3]            --
│    └─Empty: 2-1326                     [64]                      --
│    └─Empty: 2-1327                     [64]                      --
│    └─BatchNorm2d: 2-1328               [14, 64, 64, 64]          --
│    └─Scaler: 2-1329                    [14, 64, 64, 64]          --
│    └─ReLU: 2-1330                      [14, 64, 64, 64]          --
│    └─Empty: 2-1331                     [14, 64, 64, 64]          --
│    └─Clamp: 2-1332                     [14, 64, 64, 64]          --
├─FusedMaxPoolConv2dBNReLU: 1-102        [14, 64, 32, 32]          (recursive)
│    └─MaxPool2d: 2-1333                 [14, 64, 32, 32]          --
│    └─Empty: 2-1334                     [14, 64, 32, 32]          --
│    └─Empty: 2-1335                     [14, 64, 32, 32]          --
│    └─OutputShiftSqueeze: 2-1336        --                        --
│    └─One: 2-1337                       [1]                       --
│    └─OutputScale: 2-1338               --                        --
│    └─Empty: 2-1339                     [64, 64, 3, 3]            --
│    └─Empty: 2-1340                     [64, 64, 3, 3]            --
│    └─Empty: 2-1341                     [64]                      --
│    └─Empty: 2-1342                     [64]                      --
│    └─BatchNorm2d: 2-1343               [14, 64, 32, 32]          --
│    └─Scaler: 2-1344                    [14, 64, 32, 32]          --
│    └─ReLU: 2-1345                      [14, 64, 32, 32]          --
│    └─Empty: 2-1346                     [14, 64, 32, 32]          --
│    └─Clamp: 2-1347                     [14, 64, 32, 32]          --
├─FusedConv2dBNReLU: 1-103               [14, 64, 32, 32]          (recursive)
│    └─OutputShiftSqueeze: 2-1348        --                        --
│    └─One: 2-1349                       [1]                       --
│    └─OutputScale: 2-1350               --                        --
│    └─Empty: 2-1351                     [64, 64, 3, 3]            --
│    └─Empty: 2-1352                     [64, 64, 3, 3]            --
│    └─Empty: 2-1353                     [64]                      --
│    └─Empty: 2-1354                     [64]                      --
│    └─BatchNorm2d: 2-1355               [14, 64, 32, 32]          --
│    └─Scaler: 2-1356                    [14, 64, 32, 32]          --
│    └─ReLU: 2-1357                      [14, 64, 32, 32]          --
│    └─Empty: 2-1358                     [14, 64, 32, 32]          --
│    └─Clamp: 2-1359                     [14, 64, 32, 32]          --
├─FusedMaxPoolConv2dBNReLU: 1-104        [14, 64, 16, 16]          (recursive)
│    └─MaxPool2d: 2-1360                 [14, 64, 16, 16]          --
│    └─Empty: 2-1361                     [14, 64, 16, 16]          --
│    └─Empty: 2-1362                     [14, 64, 16, 16]          --
│    └─OutputShiftSqueeze: 2-1363        --                        --
│    └─One: 2-1364                       [1]                       --
│    └─OutputScale: 2-1365               --                        --
│    └─Empty: 2-1366                     [64, 64, 3, 3]            --
│    └─Empty: 2-1367                     [64, 64, 3, 3]            --
│    └─Empty: 2-1368                     [64]                      --
│    └─Empty: 2-1369                     [64]                      --
│    └─BatchNorm2d: 2-1370               [14, 64, 16, 16]          --
│    └─Scaler: 2-1371                    [14, 64, 16, 16]          --
│    └─ReLU: 2-1372                      [14, 64, 16, 16]          --
│    └─Empty: 2-1373                     [14, 64, 16, 16]          --
│    └─Clamp: 2-1374                     [14, 64, 16, 16]          --
├─FusedConv2dBNReLU: 1-105               [14, 64, 16, 16]          (recursive)
│    └─OutputShiftSqueeze: 2-1375        --                        --
│    └─One: 2-1376                       [1]                       --
│    └─OutputScale: 2-1377               --                        --
│    └─Empty: 2-1378                     [64, 64, 3, 3]            --
│    └─Empty: 2-1379                     [64, 64, 3, 3]            --
│    └─Empty: 2-1380                     [64]                      --
│    └─Empty: 2-1381                     [64]                      --
│    └─BatchNorm2d: 2-1382               [14, 64, 16, 16]          --
│    └─Scaler: 2-1383                    [14, 64, 16, 16]          --
│    └─ReLU: 2-1384                      [14, 64, 16, 16]          --
│    └─Empty: 2-1385                     [14, 64, 16, 16]          --
│    └─Clamp: 2-1386                     [14, 64, 16, 16]          --
├─FusedMaxPoolConv2dBNReLU: 1-106        [14, 64, 8, 8]            (recursive)
│    └─MaxPool2d: 2-1387                 [14, 64, 8, 8]            --
│    └─Empty: 2-1388                     [14, 64, 8, 8]            --
│    └─Empty: 2-1389                     [14, 64, 8, 8]            --
│    └─OutputShiftSqueeze: 2-1390        --                        --
│    └─One: 2-1391                       [1]                       --
│    └─OutputScale: 2-1392               --                        --
│    └─Empty: 2-1393                     [64, 64, 3, 3]            --
│    └─Empty: 2-1394                     [64, 64, 3, 3]            --
│    └─Empty: 2-1395                     [64]                      --
│    └─Empty: 2-1396                     [64]                      --
│    └─BatchNorm2d: 2-1397               [14, 64, 8, 8]            --
│    └─Scaler: 2-1398                    [14, 64, 8, 8]            --
│    └─ReLU: 2-1399                      [14, 64, 8, 8]            --
│    └─Empty: 2-1400                     [14, 64, 8, 8]            --
│    └─Clamp: 2-1401                     [14, 64, 8, 8]            --
├─FusedConv2dBNReLU: 1-107               [14, 64, 8, 8]            (recursive)
│    └─OutputShiftSqueeze: 2-1402        --                        --
│    └─One: 2-1403                       [1]                       --
│    └─OutputScale: 2-1404               --                        --
│    └─Empty: 2-1405                     [64, 64, 1, 1]            --
│    └─Empty: 2-1406                     [64, 64, 1, 1]            --
│    └─Empty: 2-1407                     [64]                      --
│    └─Empty: 2-1408                     [64]                      --
│    └─BatchNorm2d: 2-1409               [14, 64, 8, 8]            --
│    └─Scaler: 2-1410                    [14, 64, 8, 8]            --
│    └─ReLU: 2-1411                      [14, 64, 8, 8]            --
│    └─Empty: 2-1412                     [14, 64, 8, 8]            --
│    └─Clamp: 2-1413                     [14, 64, 8, 8]            --
├─FusedMaxPoolConv2dBNReLU: 1-108        [14, 64, 8, 8]            (recursive)
│    └─MaxPool2d: 2-1414                 [14, 64, 8, 8]            --
│    └─Empty: 2-1415                     [14, 64, 8, 8]            --
│    └─Empty: 2-1416                     [14, 64, 8, 8]            --
│    └─OutputShiftSqueeze: 2-1417        --                        --
│    └─One: 2-1418                       [1]                       --
│    └─OutputScale: 2-1419               --                        --
│    └─Empty: 2-1420                     [64, 64, 3, 3]            --
│    └─Empty: 2-1421                     [64, 64, 3, 3]            --
│    └─Empty: 2-1422                     [64]                      --
│    └─Empty: 2-1423                     [64]                      --
│    └─BatchNorm2d: 2-1424               [14, 64, 8, 8]            --
│    └─Scaler: 2-1425                    [14, 64, 8, 8]            --
│    └─ReLU: 2-1426                      [14, 64, 8, 8]            --
│    └─Empty: 2-1427                     [14, 64, 8, 8]            --
│    └─Clamp: 2-1428                     [14, 64, 8, 8]            --
├─FusedMaxPoolConv2dBNReLU: 1-109        [14, 64, 4, 4]            (recursive)
│    └─MaxPool2d: 2-1429                 [14, 64, 4, 4]            --
│    └─Empty: 2-1430                     [14, 64, 4, 4]            --
│    └─Empty: 2-1431                     [14, 64, 4, 4]            --
│    └─OutputShiftSqueeze: 2-1432        --                        --
│    └─One: 2-1433                       [1]                       --
│    └─OutputScale: 2-1434               --                        --
│    └─Empty: 2-1435                     [64, 64, 3, 3]            --
│    └─Empty: 2-1436                     [64, 64, 3, 3]            --
│    └─Empty: 2-1437                     [64]                      --
│    └─Empty: 2-1438                     [64]                      --
│    └─BatchNorm2d: 2-1439               [14, 64, 4, 4]            --
│    └─Scaler: 2-1440                    [14, 64, 4, 4]            --
│    └─ReLU: 2-1441                      [14, 64, 4, 4]            --
│    └─Empty: 2-1442                     [14, 64, 4, 4]            --
│    └─Clamp: 2-1443                     [14, 64, 4, 4]            --
├─FusedConv2dBNReLU: 1-110               [14, 64, 4, 4]            (recursive)
│    └─OutputShiftSqueeze: 2-1444        --                        --
│    └─One: 2-1445                       [1]                       --
│    └─OutputScale: 2-1446               --                        --
│    └─Empty: 2-1447                     [64, 64, 1, 1]            --
│    └─Empty: 2-1448                     [64, 64, 1, 1]            --
│    └─Empty: 2-1449                     [64]                      --
│    └─Empty: 2-1450                     [64]                      --
│    └─BatchNorm2d: 2-1451               [14, 64, 4, 4]            --
│    └─Scaler: 2-1452                    [14, 64, 4, 4]            --
│    └─ReLU: 2-1453                      [14, 64, 4, 4]            --
│    └─Empty: 2-1454                     [14, 64, 4, 4]            --
│    └─Clamp: 2-1455                     [14, 64, 4, 4]            --
├─FusedMaxPoolConv2dBNReLU: 1-111        [14, 64, 4, 4]            (recursive)
│    └─MaxPool2d: 2-1456                 [14, 64, 4, 4]            --
│    └─Empty: 2-1457                     [14, 64, 4, 4]            --
│    └─Empty: 2-1458                     [14, 64, 4, 4]            --
│    └─OutputShiftSqueeze: 2-1459        --                        --
│    └─One: 2-1460                       [1]                       --
│    └─OutputScale: 2-1461               --                        --
│    └─Empty: 2-1462                     [64, 64, 3, 3]            --
│    └─Empty: 2-1463                     [64, 64, 3, 3]            --
│    └─Empty: 2-1464                     [64]                      --
│    └─Empty: 2-1465                     [64]                      --
│    └─BatchNorm2d: 2-1466               [14, 64, 4, 4]            --
│    └─Scaler: 2-1467                    [14, 64, 4, 4]            --
│    └─ReLU: 2-1468                      [14, 64, 4, 4]            --
│    └─Empty: 2-1469                     [14, 64, 4, 4]            --
│    └─Clamp: 2-1470                     [14, 64, 4, 4]            --
├─FusedMaxPoolConv2dBNReLU: 1-112        [14, 64, 2, 2]            (recursive)
│    └─MaxPool2d: 2-1471                 [14, 64, 2, 2]            --
│    └─Empty: 2-1472                     [14, 64, 2, 2]            --
│    └─Empty: 2-1473                     [14, 64, 2, 2]            --
│    └─OutputShiftSqueeze: 2-1474        --                        --
│    └─One: 2-1475                       [1]                       --
│    └─OutputScale: 2-1476               --                        --
│    └─Empty: 2-1477                     [64, 64, 3, 3]            --
│    └─Empty: 2-1478                     [64, 64, 3, 3]            --
│    └─Empty: 2-1479                     [64]                      --
│    └─Empty: 2-1480                     [64]                      --
│    └─BatchNorm2d: 2-1481               [14, 64, 2, 2]            --
│    └─Scaler: 2-1482                    [14, 64, 2, 2]            --
│    └─ReLU: 2-1483                      [14, 64, 2, 2]            --
│    └─Empty: 2-1484                     [14, 64, 2, 2]            --
│    └─Clamp: 2-1485                     [14, 64, 2, 2]            --
├─FusedConv2dBNReLU: 1-113               [14, 64, 2, 2]            (recursive)
│    └─OutputShiftSqueeze: 2-1486        --                        --
│    └─One: 2-1487                       [1]                       --
│    └─OutputScale: 2-1488               --                        --
│    └─Empty: 2-1489                     [64, 64, 1, 1]            --
│    └─Empty: 2-1490                     [64, 64, 1, 1]            --
│    └─Empty: 2-1491                     [64]                      --
│    └─Empty: 2-1492                     [64]                      --
│    └─BatchNorm2d: 2-1493               [14, 64, 2, 2]            --
│    └─Scaler: 2-1494                    [14, 64, 2, 2]            --
│    └─ReLU: 2-1495                      [14, 64, 2, 2]            --
│    └─Empty: 2-1496                     [14, 64, 2, 2]            --
│    └─Clamp: 2-1497                     [14, 64, 2, 2]            --
├─FusedMaxPoolConv2dBNReLU: 1-114        [14, 64, 2, 2]            (recursive)
│    └─MaxPool2d: 2-1498                 [14, 64, 2, 2]            --
│    └─Empty: 2-1499                     [14, 64, 2, 2]            --
│    └─Empty: 2-1500                     [14, 64, 2, 2]            --
│    └─OutputShiftSqueeze: 2-1501        --                        --
│    └─One: 2-1502                       [1]                       --
│    └─OutputScale: 2-1503               --                        --
│    └─Empty: 2-1504                     [64, 64, 3, 3]            --
│    └─Empty: 2-1505                     [64, 64, 3, 3]            --
│    └─Empty: 2-1506                     [64]                      --
│    └─Empty: 2-1507                     [64]                      --
│    └─BatchNorm2d: 2-1508               [14, 64, 2, 2]            --
│    └─Scaler: 2-1509                    [14, 64, 2, 2]            --
│    └─ReLU: 2-1510                      [14, 64, 2, 2]            --
│    └─Empty: 2-1511                     [14, 64, 2, 2]            --
│    └─Clamp: 2-1512                     [14, 64, 2, 2]            --
├─FusedConv2dBNReLU: 1-115               [14, 64, 64, 64]          (recursive)
│    └─OutputShiftSqueeze: 2-1513        --                        --
│    └─One: 2-1514                       [1]                       --
│    └─OutputScale: 2-1515               --                        --
│    └─Empty: 2-1516                     [64, 48, 1, 1]            --
│    └─Empty: 2-1517                     [64, 48, 1, 1]            --
│    └─Empty: 2-1518                     [64]                      --
│    └─Empty: 2-1519                     [64]                      --
│    └─BatchNorm2d: 2-1520               [14, 64, 64, 64]          --
│    └─Scaler: 2-1521                    [14, 64, 64, 64]          --
│    └─ReLU: 2-1522                      [14, 64, 64, 64]          --
│    └─Empty: 2-1523                     [14, 64, 64, 64]          --
│    └─Clamp: 2-1524                     [14, 64, 64, 64]          --
├─FusedConv2dBNReLU: 1-116               [14, 64, 64, 64]          (recursive)
│    └─OutputShiftSqueeze: 2-1525        --                        --
│    └─One: 2-1526                       [1]                       --
│    └─OutputScale: 2-1527               --                        --
│    └─Empty: 2-1528                     [64, 64, 3, 3]            --
│    └─Empty: 2-1529                     [64, 64, 3, 3]            --
│    └─Empty: 2-1530                     [64]                      --
│    └─Empty: 2-1531                     [64]                      --
│    └─BatchNorm2d: 2-1532               [14, 64, 64, 64]          --
│    └─Scaler: 2-1533                    [14, 64, 64, 64]          --
│    └─ReLU: 2-1534                      [14, 64, 64, 64]          --
│    └─Empty: 2-1535                     [14, 64, 64, 64]          --
│    └─Clamp: 2-1536                     [14, 64, 64, 64]          --
├─FusedConv2dBNReLU: 1-117               [14, 64, 64, 64]          (recursive)
│    └─OutputShiftSqueeze: 2-1537        --                        --
│    └─One: 2-1538                       [1]                       --
│    └─OutputScale: 2-1539               --                        --
│    └─Empty: 2-1540                     [64, 64, 3, 3]            --
│    └─Empty: 2-1541                     [64, 64, 3, 3]            --
│    └─Empty: 2-1542                     [64]                      --
│    └─Empty: 2-1543                     [64]                      --
│    └─BatchNorm2d: 2-1544               [14, 64, 64, 64]          --
│    └─Scaler: 2-1545                    [14, 64, 64, 64]          --
│    └─ReLU: 2-1546                      [14, 64, 64, 64]          --
│    └─Empty: 2-1547                     [14, 64, 64, 64]          --
│    └─Clamp: 2-1548                     [14, 64, 64, 64]          --
├─FusedConv2dBNReLU: 1-118               [14, 64, 64, 64]          (recursive)
│    └─OutputShiftSqueeze: 2-1549        --                        --
│    └─One: 2-1550                       [1]                       --
│    └─OutputScale: 2-1551               --                        --
│    └─Empty: 2-1552                     [64, 64, 1, 1]            --
│    └─Empty: 2-1553                     [64, 64, 1, 1]            --
│    └─Empty: 2-1554                     [64]                      --
│    └─Empty: 2-1555                     [64]                      --
│    └─BatchNorm2d: 2-1556               [14, 64, 64, 64]          --
│    └─Scaler: 2-1557                    [14, 64, 64, 64]          --
│    └─ReLU: 2-1558                      [14, 64, 64, 64]          --
│    └─Empty: 2-1559                     [14, 64, 64, 64]          --
│    └─Clamp: 2-1560                     [14, 64, 64, 64]          --
├─FusedConv2dBNReLU: 1-119               [14, 64, 64, 64]          (recursive)
│    └─OutputShiftSqueeze: 2-1561        --                        --
│    └─One: 2-1562                       [1]                       --
│    └─OutputScale: 2-1563               --                        --
│    └─Empty: 2-1564                     [64, 64, 3, 3]            --
│    └─Empty: 2-1565                     [64, 64, 3, 3]            --
│    └─Empty: 2-1566                     [64]                      --
│    └─Empty: 2-1567                     [64]                      --
│    └─BatchNorm2d: 2-1568               [14, 64, 64, 64]          --
│    └─Scaler: 2-1569                    [14, 64, 64, 64]          --
│    └─ReLU: 2-1570                      [14, 64, 64, 64]          --
│    └─Empty: 2-1571                     [14, 64, 64, 64]          --
│    └─Clamp: 2-1572                     [14, 64, 64, 64]          --
├─FusedConv2dBNReLU: 1-120               [14, 64, 64, 64]          (recursive)
│    └─OutputShiftSqueeze: 2-1573        --                        --
│    └─One: 2-1574                       [1]                       --
│    └─OutputScale: 2-1575               --                        --
│    └─Empty: 2-1576                     [64, 64, 3, 3]            --
│    └─Empty: 2-1577                     [64, 64, 3, 3]            --
│    └─Empty: 2-1578                     [64]                      --
│    └─Empty: 2-1579                     [64]                      --
│    └─BatchNorm2d: 2-1580               [14, 64, 64, 64]          --
│    └─Scaler: 2-1581                    [14, 64, 64, 64]          --
│    └─ReLU: 2-1582                      [14, 64, 64, 64]          --
│    └─Empty: 2-1583                     [14, 64, 64, 64]          --
│    └─Clamp: 2-1584                     [14, 64, 64, 64]          --
├─FusedMaxPoolConv2dBNReLU: 1-121        [14, 64, 32, 32]          (recursive)
│    └─MaxPool2d: 2-1585                 [14, 64, 32, 32]          --
│    └─Empty: 2-1586                     [14, 64, 32, 32]          --
│    └─Empty: 2-1587                     [14, 64, 32, 32]          --
│    └─OutputShiftSqueeze: 2-1588        --                        --
│    └─One: 2-1589                       [1]                       --
│    └─OutputScale: 2-1590               --                        --
│    └─Empty: 2-1591                     [64, 64, 3, 3]            --
│    └─Empty: 2-1592                     [64, 64, 3, 3]            --
│    └─Empty: 2-1593                     [64]                      --
│    └─Empty: 2-1594                     [64]                      --
│    └─BatchNorm2d: 2-1595               [14, 64, 32, 32]          --
│    └─Scaler: 2-1596                    [14, 64, 32, 32]          --
│    └─ReLU: 2-1597                      [14, 64, 32, 32]          --
│    └─Empty: 2-1598                     [14, 64, 32, 32]          --
│    └─Clamp: 2-1599                     [14, 64, 32, 32]          --
├─FusedConv2dBNReLU: 1-122               [14, 64, 32, 32]          (recursive)
│    └─OutputShiftSqueeze: 2-1600        --                        --
│    └─One: 2-1601                       [1]                       --
│    └─OutputScale: 2-1602               --                        --
│    └─Empty: 2-1603                     [64, 64, 3, 3]            --
│    └─Empty: 2-1604                     [64, 64, 3, 3]            --
│    └─Empty: 2-1605                     [64]                      --
│    └─Empty: 2-1606                     [64]                      --
│    └─BatchNorm2d: 2-1607               [14, 64, 32, 32]          --
│    └─Scaler: 2-1608                    [14, 64, 32, 32]          --
│    └─ReLU: 2-1609                      [14, 64, 32, 32]          --
│    └─Empty: 2-1610                     [14, 64, 32, 32]          --
│    └─Clamp: 2-1611                     [14, 64, 32, 32]          --
├─FusedMaxPoolConv2dBNReLU: 1-123        [14, 64, 16, 16]          (recursive)
│    └─MaxPool2d: 2-1612                 [14, 64, 16, 16]          --
│    └─Empty: 2-1613                     [14, 64, 16, 16]          --
│    └─Empty: 2-1614                     [14, 64, 16, 16]          --
│    └─OutputShiftSqueeze: 2-1615        --                        --
│    └─One: 2-1616                       [1]                       --
│    └─OutputScale: 2-1617               --                        --
│    └─Empty: 2-1618                     [64, 64, 3, 3]            --
│    └─Empty: 2-1619                     [64, 64, 3, 3]            --
│    └─Empty: 2-1620                     [64]                      --
│    └─Empty: 2-1621                     [64]                      --
│    └─BatchNorm2d: 2-1622               [14, 64, 16, 16]          --
│    └─Scaler: 2-1623                    [14, 64, 16, 16]          --
│    └─ReLU: 2-1624                      [14, 64, 16, 16]          --
│    └─Empty: 2-1625                     [14, 64, 16, 16]          --
│    └─Clamp: 2-1626                     [14, 64, 16, 16]          --
├─FusedConv2dBNReLU: 1-124               [14, 64, 16, 16]          (recursive)
│    └─OutputShiftSqueeze: 2-1627        --                        --
│    └─One: 2-1628                       [1]                       --
│    └─OutputScale: 2-1629               --                        --
│    └─Empty: 2-1630                     [64, 64, 3, 3]            --
│    └─Empty: 2-1631                     [64, 64, 3, 3]            --
│    └─Empty: 2-1632                     [64]                      --
│    └─Empty: 2-1633                     [64]                      --
│    └─BatchNorm2d: 2-1634               [14, 64, 16, 16]          --
│    └─Scaler: 2-1635                    [14, 64, 16, 16]          --
│    └─ReLU: 2-1636                      [14, 64, 16, 16]          --
│    └─Empty: 2-1637                     [14, 64, 16, 16]          --
│    └─Clamp: 2-1638                     [14, 64, 16, 16]          --
├─FusedMaxPoolConv2dBNReLU: 1-125        [14, 64, 8, 8]            (recursive)
│    └─MaxPool2d: 2-1639                 [14, 64, 8, 8]            --
│    └─Empty: 2-1640                     [14, 64, 8, 8]            --
│    └─Empty: 2-1641                     [14, 64, 8, 8]            --
│    └─OutputShiftSqueeze: 2-1642        --                        --
│    └─One: 2-1643                       [1]                       --
│    └─OutputScale: 2-1644               --                        --
│    └─Empty: 2-1645                     [64, 64, 3, 3]            --
│    └─Empty: 2-1646                     [64, 64, 3, 3]            --
│    └─Empty: 2-1647                     [64]                      --
│    └─Empty: 2-1648                     [64]                      --
│    └─BatchNorm2d: 2-1649               [14, 64, 8, 8]            --
│    └─Scaler: 2-1650                    [14, 64, 8, 8]            --
│    └─ReLU: 2-1651                      [14, 64, 8, 8]            --
│    └─Empty: 2-1652                     [14, 64, 8, 8]            --
│    └─Clamp: 2-1653                     [14, 64, 8, 8]            --
├─FusedConv2dBNReLU: 1-126               [14, 64, 8, 8]            (recursive)
│    └─OutputShiftSqueeze: 2-1654        --                        --
│    └─One: 2-1655                       [1]                       --
│    └─OutputScale: 2-1656               --                        --
│    └─Empty: 2-1657                     [64, 64, 1, 1]            --
│    └─Empty: 2-1658                     [64, 64, 1, 1]            --
│    └─Empty: 2-1659                     [64]                      --
│    └─Empty: 2-1660                     [64]                      --
│    └─BatchNorm2d: 2-1661               [14, 64, 8, 8]            --
│    └─Scaler: 2-1662                    [14, 64, 8, 8]            --
│    └─ReLU: 2-1663                      [14, 64, 8, 8]            --
│    └─Empty: 2-1664                     [14, 64, 8, 8]            --
│    └─Clamp: 2-1665                     [14, 64, 8, 8]            --
├─FusedMaxPoolConv2dBNReLU: 1-127        [14, 64, 8, 8]            (recursive)
│    └─MaxPool2d: 2-1666                 [14, 64, 8, 8]            --
│    └─Empty: 2-1667                     [14, 64, 8, 8]            --
│    └─Empty: 2-1668                     [14, 64, 8, 8]            --
│    └─OutputShiftSqueeze: 2-1669        --                        --
│    └─One: 2-1670                       [1]                       --
│    └─OutputScale: 2-1671               --                        --
│    └─Empty: 2-1672                     [64, 64, 3, 3]            --
│    └─Empty: 2-1673                     [64, 64, 3, 3]            --
│    └─Empty: 2-1674                     [64]                      --
│    └─Empty: 2-1675                     [64]                      --
│    └─BatchNorm2d: 2-1676               [14, 64, 8, 8]            --
│    └─Scaler: 2-1677                    [14, 64, 8, 8]            --
│    └─ReLU: 2-1678                      [14, 64, 8, 8]            --
│    └─Empty: 2-1679                     [14, 64, 8, 8]            --
│    └─Clamp: 2-1680                     [14, 64, 8, 8]            --
├─FusedMaxPoolConv2dBNReLU: 1-128        [14, 64, 4, 4]            (recursive)
│    └─MaxPool2d: 2-1681                 [14, 64, 4, 4]            --
│    └─Empty: 2-1682                     [14, 64, 4, 4]            --
│    └─Empty: 2-1683                     [14, 64, 4, 4]            --
│    └─OutputShiftSqueeze: 2-1684        --                        --
│    └─One: 2-1685                       [1]                       --
│    └─OutputScale: 2-1686               --                        --
│    └─Empty: 2-1687                     [64, 64, 3, 3]            --
│    └─Empty: 2-1688                     [64, 64, 3, 3]            --
│    └─Empty: 2-1689                     [64]                      --
│    └─Empty: 2-1690                     [64]                      --
│    └─BatchNorm2d: 2-1691               [14, 64, 4, 4]            --
│    └─Scaler: 2-1692                    [14, 64, 4, 4]            --
│    └─ReLU: 2-1693                      [14, 64, 4, 4]            --
│    └─Empty: 2-1694                     [14, 64, 4, 4]            --
│    └─Clamp: 2-1695                     [14, 64, 4, 4]            --
├─FusedConv2dBNReLU: 1-129               [14, 64, 4, 4]            (recursive)
│    └─OutputShiftSqueeze: 2-1696        --                        --
│    └─One: 2-1697                       [1]                       --
│    └─OutputScale: 2-1698               --                        --
│    └─Empty: 2-1699                     [64, 64, 1, 1]            --
│    └─Empty: 2-1700                     [64, 64, 1, 1]            --
│    └─Empty: 2-1701                     [64]                      --
│    └─Empty: 2-1702                     [64]                      --
│    └─BatchNorm2d: 2-1703               [14, 64, 4, 4]            --
│    └─Scaler: 2-1704                    [14, 64, 4, 4]            --
│    └─ReLU: 2-1705                      [14, 64, 4, 4]            --
│    └─Empty: 2-1706                     [14, 64, 4, 4]            --
│    └─Clamp: 2-1707                     [14, 64, 4, 4]            --
├─FusedMaxPoolConv2dBNReLU: 1-130        [14, 64, 4, 4]            (recursive)
│    └─MaxPool2d: 2-1708                 [14, 64, 4, 4]            --
│    └─Empty: 2-1709                     [14, 64, 4, 4]            --
│    └─Empty: 2-1710                     [14, 64, 4, 4]            --
│    └─OutputShiftSqueeze: 2-1711        --                        --
│    └─One: 2-1712                       [1]                       --
│    └─OutputScale: 2-1713               --                        --
│    └─Empty: 2-1714                     [64, 64, 3, 3]            --
│    └─Empty: 2-1715                     [64, 64, 3, 3]            --
│    └─Empty: 2-1716                     [64]                      --
│    └─Empty: 2-1717                     [64]                      --
│    └─BatchNorm2d: 2-1718               [14, 64, 4, 4]            --
│    └─Scaler: 2-1719                    [14, 64, 4, 4]            --
│    └─ReLU: 2-1720                      [14, 64, 4, 4]            --
│    └─Empty: 2-1721                     [14, 64, 4, 4]            --
│    └─Clamp: 2-1722                     [14, 64, 4, 4]            --
├─FusedMaxPoolConv2dBNReLU: 1-131        [14, 64, 2, 2]            (recursive)
│    └─MaxPool2d: 2-1723                 [14, 64, 2, 2]            --
│    └─Empty: 2-1724                     [14, 64, 2, 2]            --
│    └─Empty: 2-1725                     [14, 64, 2, 2]            --
│    └─OutputShiftSqueeze: 2-1726        --                        --
│    └─One: 2-1727                       [1]                       --
│    └─OutputScale: 2-1728               --                        --
│    └─Empty: 2-1729                     [64, 64, 3, 3]            --
│    └─Empty: 2-1730                     [64, 64, 3, 3]            --
│    └─Empty: 2-1731                     [64]                      --
│    └─Empty: 2-1732                     [64]                      --
│    └─BatchNorm2d: 2-1733               [14, 64, 2, 2]            --
│    └─Scaler: 2-1734                    [14, 64, 2, 2]            --
│    └─ReLU: 2-1735                      [14, 64, 2, 2]            --
│    └─Empty: 2-1736                     [14, 64, 2, 2]            --
│    └─Clamp: 2-1737                     [14, 64, 2, 2]            --
├─FusedConv2dBNReLU: 1-132               [14, 64, 2, 2]            (recursive)
│    └─OutputShiftSqueeze: 2-1738        --                        --
│    └─One: 2-1739                       [1]                       --
│    └─OutputScale: 2-1740               --                        --
│    └─Empty: 2-1741                     [64, 64, 1, 1]            --
│    └─Empty: 2-1742                     [64, 64, 1, 1]            --
│    └─Empty: 2-1743                     [64]                      --
│    └─Empty: 2-1744                     [64]                      --
│    └─BatchNorm2d: 2-1745               [14, 64, 2, 2]            --
│    └─Scaler: 2-1746                    [14, 64, 2, 2]            --
│    └─ReLU: 2-1747                      [14, 64, 2, 2]            --
│    └─Empty: 2-1748                     [14, 64, 2, 2]            --
│    └─Clamp: 2-1749                     [14, 64, 2, 2]            --
├─FusedMaxPoolConv2dBNReLU: 1-133        [14, 64, 2, 2]            (recursive)
│    └─MaxPool2d: 2-1750                 [14, 64, 2, 2]            --
│    └─Empty: 2-1751                     [14, 64, 2, 2]            --
│    └─Empty: 2-1752                     [14, 64, 2, 2]            --
│    └─OutputShiftSqueeze: 2-1753        --                        --
│    └─One: 2-1754                       [1]                       --
│    └─OutputScale: 2-1755               --                        --
│    └─Empty: 2-1756                     [64, 64, 3, 3]            --
│    └─Empty: 2-1757                     [64, 64, 3, 3]            --
│    └─Empty: 2-1758                     [64]                      --
│    └─Empty: 2-1759                     [64]                      --
│    └─BatchNorm2d: 2-1760               [14, 64, 2, 2]            --
│    └─Scaler: 2-1761                    [14, 64, 2, 2]            --
│    └─ReLU: 2-1762                      [14, 64, 2, 2]            --
│    └─Empty: 2-1763                     [14, 64, 2, 2]            --
│    └─Clamp: 2-1764                     [14, 64, 2, 2]            --
├─FusedConv2dBNReLU: 1-134               [14, 64, 64, 64]          (recursive)
│    └─OutputShiftSqueeze: 2-1765        --                        --
│    └─One: 2-1766                       [1]                       --
│    └─OutputScale: 2-1767               --                        --
│    └─Empty: 2-1768                     [64, 48, 1, 1]            --
│    └─Empty: 2-1769                     [64, 48, 1, 1]            --
│    └─Empty: 2-1770                     [64]                      --
│    └─Empty: 2-1771                     [64]                      --
│    └─BatchNorm2d: 2-1772               [14, 64, 64, 64]          --
│    └─Scaler: 2-1773                    [14, 64, 64, 64]          --
│    └─ReLU: 2-1774                      [14, 64, 64, 64]          --
│    └─Empty: 2-1775                     [14, 64, 64, 64]          --
│    └─Clamp: 2-1776                     [14, 64, 64, 64]          --
├─FusedConv2dBNReLU: 1-135               [14, 64, 64, 64]          (recursive)
│    └─OutputShiftSqueeze: 2-1777        --                        --
│    └─One: 2-1778                       [1]                       --
│    └─OutputScale: 2-1779               --                        --
│    └─Empty: 2-1780                     [64, 64, 3, 3]            --
│    └─Empty: 2-1781                     [64, 64, 3, 3]            --
│    └─Empty: 2-1782                     [64]                      --
│    └─Empty: 2-1783                     [64]                      --
│    └─BatchNorm2d: 2-1784               [14, 64, 64, 64]          --
│    └─Scaler: 2-1785                    [14, 64, 64, 64]          --
│    └─ReLU: 2-1786                      [14, 64, 64, 64]          --
│    └─Empty: 2-1787                     [14, 64, 64, 64]          --
│    └─Clamp: 2-1788                     [14, 64, 64, 64]          --
├─FusedConv2dBNReLU: 1-136               [14, 64, 64, 64]          (recursive)
│    └─OutputShiftSqueeze: 2-1789        --                        --
│    └─One: 2-1790                       [1]                       --
│    └─OutputScale: 2-1791               --                        --
│    └─Empty: 2-1792                     [64, 64, 3, 3]            --
│    └─Empty: 2-1793                     [64, 64, 3, 3]            --
│    └─Empty: 2-1794                     [64]                      --
│    └─Empty: 2-1795                     [64]                      --
│    └─BatchNorm2d: 2-1796               [14, 64, 64, 64]          --
│    └─Scaler: 2-1797                    [14, 64, 64, 64]          --
│    └─ReLU: 2-1798                      [14, 64, 64, 64]          --
│    └─Empty: 2-1799                     [14, 64, 64, 64]          --
│    └─Clamp: 2-1800                     [14, 64, 64, 64]          --
├─FusedConv2dBNReLU: 1-137               [14, 64, 64, 64]          (recursive)
│    └─OutputShiftSqueeze: 2-1801        --                        --
│    └─One: 2-1802                       [1]                       --
│    └─OutputScale: 2-1803               --                        --
│    └─Empty: 2-1804                     [64, 64, 1, 1]            --
│    └─Empty: 2-1805                     [64, 64, 1, 1]            --
│    └─Empty: 2-1806                     [64]                      --
│    └─Empty: 2-1807                     [64]                      --
│    └─BatchNorm2d: 2-1808               [14, 64, 64, 64]          --
│    └─Scaler: 2-1809                    [14, 64, 64, 64]          --
│    └─ReLU: 2-1810                      [14, 64, 64, 64]          --
│    └─Empty: 2-1811                     [14, 64, 64, 64]          --
│    └─Clamp: 2-1812                     [14, 64, 64, 64]          --
├─FusedConv2dBNReLU: 1-138               [14, 64, 64, 64]          (recursive)
│    └─OutputShiftSqueeze: 2-1813        --                        --
│    └─One: 2-1814                       [1]                       --
│    └─OutputScale: 2-1815               --                        --
│    └─Empty: 2-1816                     [64, 64, 3, 3]            --
│    └─Empty: 2-1817                     [64, 64, 3, 3]            --
│    └─Empty: 2-1818                     [64]                      --
│    └─Empty: 2-1819                     [64]                      --
│    └─BatchNorm2d: 2-1820               [14, 64, 64, 64]          --
│    └─Scaler: 2-1821                    [14, 64, 64, 64]          --
│    └─ReLU: 2-1822                      [14, 64, 64, 64]          --
│    └─Empty: 2-1823                     [14, 64, 64, 64]          --
│    └─Clamp: 2-1824                     [14, 64, 64, 64]          --
├─FusedConv2dBNReLU: 1-139               [14, 64, 64, 64]          (recursive)
│    └─OutputShiftSqueeze: 2-1825        --                        --
│    └─One: 2-1826                       [1]                       --
│    └─OutputScale: 2-1827               --                        --
│    └─Empty: 2-1828                     [64, 64, 3, 3]            --
│    └─Empty: 2-1829                     [64, 64, 3, 3]            --
│    └─Empty: 2-1830                     [64]                      --
│    └─Empty: 2-1831                     [64]                      --
│    └─BatchNorm2d: 2-1832               [14, 64, 64, 64]          --
│    └─Scaler: 2-1833                    [14, 64, 64, 64]          --
│    └─ReLU: 2-1834                      [14, 64, 64, 64]          --
│    └─Empty: 2-1835                     [14, 64, 64, 64]          --
│    └─Clamp: 2-1836                     [14, 64, 64, 64]          --
├─FusedMaxPoolConv2dBNReLU: 1-140        [14, 64, 32, 32]          (recursive)
│    └─MaxPool2d: 2-1837                 [14, 64, 32, 32]          --
│    └─Empty: 2-1838                     [14, 64, 32, 32]          --
│    └─Empty: 2-1839                     [14, 64, 32, 32]          --
│    └─OutputShiftSqueeze: 2-1840        --                        --
│    └─One: 2-1841                       [1]                       --
│    └─OutputScale: 2-1842               --                        --
│    └─Empty: 2-1843                     [64, 64, 3, 3]            --
│    └─Empty: 2-1844                     [64, 64, 3, 3]            --
│    └─Empty: 2-1845                     [64]                      --
│    └─Empty: 2-1846                     [64]                      --
│    └─BatchNorm2d: 2-1847               [14, 64, 32, 32]          --
│    └─Scaler: 2-1848                    [14, 64, 32, 32]          --
│    └─ReLU: 2-1849                      [14, 64, 32, 32]          --
│    └─Empty: 2-1850                     [14, 64, 32, 32]          --
│    └─Clamp: 2-1851                     [14, 64, 32, 32]          --
├─FusedConv2dBNReLU: 1-141               [14, 64, 32, 32]          (recursive)
│    └─OutputShiftSqueeze: 2-1852        --                        --
│    └─One: 2-1853                       [1]                       --
│    └─OutputScale: 2-1854               --                        --
│    └─Empty: 2-1855                     [64, 64, 3, 3]            --
│    └─Empty: 2-1856                     [64, 64, 3, 3]            --
│    └─Empty: 2-1857                     [64]                      --
│    └─Empty: 2-1858                     [64]                      --
│    └─BatchNorm2d: 2-1859               [14, 64, 32, 32]          --
│    └─Scaler: 2-1860                    [14, 64, 32, 32]          --
│    └─ReLU: 2-1861                      [14, 64, 32, 32]          --
│    └─Empty: 2-1862                     [14, 64, 32, 32]          --
│    └─Clamp: 2-1863                     [14, 64, 32, 32]          --
├─FusedMaxPoolConv2dBNReLU: 1-142        [14, 64, 16, 16]          (recursive)
│    └─MaxPool2d: 2-1864                 [14, 64, 16, 16]          --
│    └─Empty: 2-1865                     [14, 64, 16, 16]          --
│    └─Empty: 2-1866                     [14, 64, 16, 16]          --
│    └─OutputShiftSqueeze: 2-1867        --                        --
│    └─One: 2-1868                       [1]                       --
│    └─OutputScale: 2-1869               --                        --
│    └─Empty: 2-1870                     [64, 64, 3, 3]            --
│    └─Empty: 2-1871                     [64, 64, 3, 3]            --
│    └─Empty: 2-1872                     [64]                      --
│    └─Empty: 2-1873                     [64]                      --
│    └─BatchNorm2d: 2-1874               [14, 64, 16, 16]          --
│    └─Scaler: 2-1875                    [14, 64, 16, 16]          --
│    └─ReLU: 2-1876                      [14, 64, 16, 16]          --
│    └─Empty: 2-1877                     [14, 64, 16, 16]          --
│    └─Clamp: 2-1878                     [14, 64, 16, 16]          --
├─FusedConv2dBNReLU: 1-143               [14, 64, 16, 16]          (recursive)
│    └─OutputShiftSqueeze: 2-1879        --                        --
│    └─One: 2-1880                       [1]                       --
│    └─OutputScale: 2-1881               --                        --
│    └─Empty: 2-1882                     [64, 64, 3, 3]            --
│    └─Empty: 2-1883                     [64, 64, 3, 3]            --
│    └─Empty: 2-1884                     [64]                      --
│    └─Empty: 2-1885                     [64]                      --
│    └─BatchNorm2d: 2-1886               [14, 64, 16, 16]          --
│    └─Scaler: 2-1887                    [14, 64, 16, 16]          --
│    └─ReLU: 2-1888                      [14, 64, 16, 16]          --
│    └─Empty: 2-1889                     [14, 64, 16, 16]          --
│    └─Clamp: 2-1890                     [14, 64, 16, 16]          --
├─FusedMaxPoolConv2dBNReLU: 1-144        [14, 64, 8, 8]            (recursive)
│    └─MaxPool2d: 2-1891                 [14, 64, 8, 8]            --
│    └─Empty: 2-1892                     [14, 64, 8, 8]            --
│    └─Empty: 2-1893                     [14, 64, 8, 8]            --
│    └─OutputShiftSqueeze: 2-1894        --                        --
│    └─One: 2-1895                       [1]                       --
│    └─OutputScale: 2-1896               --                        --
│    └─Empty: 2-1897                     [64, 64, 3, 3]            --
│    └─Empty: 2-1898                     [64, 64, 3, 3]            --
│    └─Empty: 2-1899                     [64]                      --
│    └─Empty: 2-1900                     [64]                      --
│    └─BatchNorm2d: 2-1901               [14, 64, 8, 8]            --
│    └─Scaler: 2-1902                    [14, 64, 8, 8]            --
│    └─ReLU: 2-1903                      [14, 64, 8, 8]            --
│    └─Empty: 2-1904                     [14, 64, 8, 8]            --
│    └─Clamp: 2-1905                     [14, 64, 8, 8]            --
├─FusedConv2dBNReLU: 1-145               [14, 64, 8, 8]            (recursive)
│    └─OutputShiftSqueeze: 2-1906        --                        --
│    └─One: 2-1907                       [1]                       --
│    └─OutputScale: 2-1908               --                        --
│    └─Empty: 2-1909                     [64, 64, 1, 1]            --
│    └─Empty: 2-1910                     [64, 64, 1, 1]            --
│    └─Empty: 2-1911                     [64]                      --
│    └─Empty: 2-1912                     [64]                      --
│    └─BatchNorm2d: 2-1913               [14, 64, 8, 8]            --
│    └─Scaler: 2-1914                    [14, 64, 8, 8]            --
│    └─ReLU: 2-1915                      [14, 64, 8, 8]            --
│    └─Empty: 2-1916                     [14, 64, 8, 8]            --
│    └─Clamp: 2-1917                     [14, 64, 8, 8]            --
├─FusedMaxPoolConv2dBNReLU: 1-146        [14, 64, 8, 8]            (recursive)
│    └─MaxPool2d: 2-1918                 [14, 64, 8, 8]            --
│    └─Empty: 2-1919                     [14, 64, 8, 8]            --
│    └─Empty: 2-1920                     [14, 64, 8, 8]            --
│    └─OutputShiftSqueeze: 2-1921        --                        --
│    └─One: 2-1922                       [1]                       --
│    └─OutputScale: 2-1923               --                        --
│    └─Empty: 2-1924                     [64, 64, 3, 3]            --
│    └─Empty: 2-1925                     [64, 64, 3, 3]            --
│    └─Empty: 2-1926                     [64]                      --
│    └─Empty: 2-1927                     [64]                      --
│    └─BatchNorm2d: 2-1928               [14, 64, 8, 8]            --
│    └─Scaler: 2-1929                    [14, 64, 8, 8]            --
│    └─ReLU: 2-1930                      [14, 64, 8, 8]            --
│    └─Empty: 2-1931                     [14, 64, 8, 8]            --
│    └─Clamp: 2-1932                     [14, 64, 8, 8]            --
├─FusedMaxPoolConv2dBNReLU: 1-147        [14, 64, 4, 4]            (recursive)
│    └─MaxPool2d: 2-1933                 [14, 64, 4, 4]            --
│    └─Empty: 2-1934                     [14, 64, 4, 4]            --
│    └─Empty: 2-1935                     [14, 64, 4, 4]            --
│    └─OutputShiftSqueeze: 2-1936        --                        --
│    └─One: 2-1937                       [1]                       --
│    └─OutputScale: 2-1938               --                        --
│    └─Empty: 2-1939                     [64, 64, 3, 3]            --
│    └─Empty: 2-1940                     [64, 64, 3, 3]            --
│    └─Empty: 2-1941                     [64]                      --
│    └─Empty: 2-1942                     [64]                      --
│    └─BatchNorm2d: 2-1943               [14, 64, 4, 4]            --
│    └─Scaler: 2-1944                    [14, 64, 4, 4]            --
│    └─ReLU: 2-1945                      [14, 64, 4, 4]            --
│    └─Empty: 2-1946                     [14, 64, 4, 4]            --
│    └─Clamp: 2-1947                     [14, 64, 4, 4]            --
├─FusedConv2dBNReLU: 1-148               [14, 64, 4, 4]            (recursive)
│    └─OutputShiftSqueeze: 2-1948        --                        --
│    └─One: 2-1949                       [1]                       --
│    └─OutputScale: 2-1950               --                        --
│    └─Empty: 2-1951                     [64, 64, 1, 1]            --
│    └─Empty: 2-1952                     [64, 64, 1, 1]            --
│    └─Empty: 2-1953                     [64]                      --
│    └─Empty: 2-1954                     [64]                      --
│    └─BatchNorm2d: 2-1955               [14, 64, 4, 4]            --
│    └─Scaler: 2-1956                    [14, 64, 4, 4]            --
│    └─ReLU: 2-1957                      [14, 64, 4, 4]            --
│    └─Empty: 2-1958                     [14, 64, 4, 4]            --
│    └─Clamp: 2-1959                     [14, 64, 4, 4]            --
├─FusedMaxPoolConv2dBNReLU: 1-149        [14, 64, 4, 4]            (recursive)
│    └─MaxPool2d: 2-1960                 [14, 64, 4, 4]            --
│    └─Empty: 2-1961                     [14, 64, 4, 4]            --
│    └─Empty: 2-1962                     [14, 64, 4, 4]            --
│    └─OutputShiftSqueeze: 2-1963        --                        --
│    └─One: 2-1964                       [1]                       --
│    └─OutputScale: 2-1965               --                        --
│    └─Empty: 2-1966                     [64, 64, 3, 3]            --
…
├─FusedMaxPoolConv2dBNReLU: 1-266        [14, 64, 2, 2]            (recursive)
│    └─MaxPool2d: 2-3514                 [14, 64, 2, 2]            --
│    └─Empty: 2-3515                     [14, 64, 2, 2]            --
│    └─Empty: 2-3516                     [14, 64, 2, 2]            --
│    └─OutputShiftSqueeze: 2-3517        --                        --
│    └─One: 2-3518                       [1]                       --
│    └─OutputScale: 2-3519               --                        --
│    └─Empty: 2-3520                     [64, 64, 3, 3]            --
│    └─Empty: 2-3521                     [64, 64, 3, 3]            --
│    └─Empty: 2-3522                     [64]                      --
│    └─Empty: 2-3523                     [64]                      --
│    └─BatchNorm2d: 2-3524               [14, 64, 2, 2]            --
│    └─Scaler: 2-3525                    [14, 64, 2, 2]            --
│    └─ReLU: 2-3526                      [14, 64, 2, 2]            --
│    └─Empty: 2-3527                     [14, 64, 2, 2]            --
│    └─Clamp: 2-3528                     [14, 64, 2, 2]            --
├─FusedConv2dBNReLU: 1-267               [14, 64, 64, 64]          (recursive)
│    └─OutputShiftSqueeze: 2-3529        --                        --
│    └─One: 2-3530                       [1]                       --
│    └─OutputScale: 2-3531               --                        --
│    └─Empty: 2-3532                     [64, 48, 1, 1]            --
│    └─Empty: 2-3533                     [64, 48, 1, 1]            --
│    └─Empty: 2-3534                     [64]                      --
│    └─Empty: 2-3535                     [64]                      --
│    └─BatchNorm2d: 2-3536               [14, 64, 64, 64]          --
│    └─Scaler: 2-3537                    [14, 64, 64, 64]          --
│    └─ReLU: 2-3538                      [14, 64, 64, 64]          --
│    └─Empty: 2-3539                     [14, 64, 64, 64]          --
│    └─Clamp: 2-3540                     [14, 64, 64, 64]          --
├─FusedConv2dBNReLU: 1-268               [14, 64, 64, 64]          (recursive)
│    └─OutputShiftSqueeze: 2-3541        --                        --
│    └─One: 2-3542                       [1]                       --
│    └─OutputScale: 2-3543               --                        --
│    └─Empty: 2-3544                     [64, 64, 3, 3]            --
│    └─Empty: 2-3545                     [64, 64, 3, 3]            --
│    └─Empty: 2-3546                     [64]                      --
│    └─Empty: 2-3547                     [64]                      --
│    └─BatchNorm2d: 2-3548               [14, 64, 64, 64]          --
│    └─Scaler: 2-3549                    [14, 64, 64, 64]          --
│    └─ReLU: 2-3550                      [14, 64, 64, 64]          --
│    └─Empty: 2-3551                     [14, 64, 64, 64]          --
│    └─Clamp: 2-3552                     [14, 64, 64, 64]          --
├─FusedConv2dBNReLU: 1-269               [14, 64, 64, 64]          (recursive)
│    └─OutputShiftSqueeze: 2-3553        --                        --
│    └─One: 2-3554                       [1]                       --
│    └─OutputScale: 2-3555               --                        --
│    └─Empty: 2-3556                     [64, 64, 3, 3]            --
│    └─Empty: 2-3557                     [64, 64, 3, 3]            --
│    └─Empty: 2-3558                     [64]                      --
│    └─Empty: 2-3559                     [64]                      --
│    └─BatchNorm2d: 2-3560               [14, 64, 64, 64]          --
│    └─Scaler: 2-3561                    [14, 64, 64, 64]          --
│    └─ReLU: 2-3562                      [14, 64, 64, 64]          --
│    └─Empty: 2-3563                     [14, 64, 64, 64]          --
│    └─Clamp: 2-3564                     [14, 64, 64, 64]          --
├─FusedConv2dBNReLU: 1-270               [14, 64, 64, 64]          (recursive)
│    └─OutputShiftSqueeze: 2-3565        --                        --
│    └─One: 2-3566                       [1]                       --
│    └─OutputScale: 2-3567               --                        --
│    └─Empty: 2-3568                     [64, 64, 1, 1]            --
│    └─Empty: 2-3569                     [64, 64, 1, 1]            --
│    └─Empty: 2-3570                     [64]                      --
│    └─Empty: 2-3571                     [64]                      --
│    └─BatchNorm2d: 2-3572               [14, 64, 64, 64]          --
│    └─Scaler: 2-3573                    [14, 64, 64, 64]          --
│    └─ReLU: 2-3574                      [14, 64, 64, 64]          --
│    └─Empty: 2-3575                     [14, 64, 64, 64]          --
│    └─Clamp: 2-3576                     [14, 64, 64, 64]          --
├─FusedConv2dBNReLU: 1-271               [14, 64, 64, 64]          (recursive)
│    └─OutputShiftSqueeze: 2-3577        --                        --
│    └─One: 2-3578                       [1]                       --
│    └─OutputScale: 2-3579               --                        --
│    └─Empty: 2-3580                     [64, 64, 3, 3]            --
│    └─Empty: 2-3581                     [64, 64, 3, 3]            --
│    └─Empty: 2-3582                     [64]                      --
│    └─Empty: 2-3583                     [64]                      --
│    └─BatchNorm2d: 2-3584               [14, 64, 64, 64]          --
│    └─Scaler: 2-3585                    [14, 64, 64, 64]          --
│    └─ReLU: 2-3586                      [14, 64, 64, 64]          --
│    └─Empty: 2-3587                     [14, 64, 64, 64]          --
│    └─Clamp: 2-3588                     [14, 64, 64, 64]          --
├─FusedConv2dBNReLU: 1-272               [14, 64, 64, 64]          (recursive)
│    └─OutputShiftSqueeze: 2-3589        --                        --
│    └─One: 2-3590                       [1]                       --
│    └─OutputScale: 2-3591               --                        --
│    └─Empty: 2-3592                     [64, 64, 3, 3]            --
│    └─Empty: 2-3593                     [64, 64, 3, 3]            --
│    └─Empty: 2-3594                     [64]                      --
│    └─Empty: 2-3595                     [64]                      --
│    └─BatchNorm2d: 2-3596               [14, 64, 64, 64]          --
│    └─Scaler: 2-3597                    [14, 64, 64, 64]          --
│    └─ReLU: 2-3598                      [14, 64, 64, 64]          --
│    └─Empty: 2-3599                     [14, 64, 64, 64]          --
│    └─Clamp: 2-3600                     [14, 64, 64, 64]          --
├─FusedMaxPoolConv2dBNReLU: 1-273        [14, 64, 32, 32]          (recursive)
│    └─MaxPool2d: 2-3601                 [14, 64, 32, 32]          --
│    └─Empty: 2-3602                     [14, 64, 32, 32]          --
│    └─Empty: 2-3603                     [14, 64, 32, 32]          --
│    └─OutputShiftSqueeze: 2-3604        --                        --
│    └─One: 2-3605                       [1]                       --
│    └─OutputScale: 2-3606               --                        --
│    └─Empty: 2-3607                     [64, 64, 3, 3]            --
│    └─Empty: 2-3608                     [64, 64, 3, 3]            --
│    └─Empty: 2-3609                     [64]                      --
│    └─Empty: 2-3610                     [64]                      --
│    └─BatchNorm2d: 2-3611               [14, 64, 32, 32]          --
│    └─Scaler: 2-3612                    [14, 64, 32, 32]          --
│    └─ReLU: 2-3613                      [14, 64, 32, 32]          --
│    └─Empty: 2-3614                     [14, 64, 32, 32]          --
│    └─Clamp: 2-3615                     [14, 64, 32, 32]          --
├─FusedConv2dBNReLU: 1-274               [14, 64, 32, 32]          (recursive)
│    └─OutputShiftSqueeze: 2-3616        --                        --
│    └─One: 2-3617                       [1]                       --
│    └─OutputScale: 2-3618               --                        --
│    └─Empty: 2-3619                     [64, 64, 3, 3]            --
│    └─Empty: 2-3620                     [64, 64, 3, 3]            --
│    └─Empty: 2-3621                     [64]                      --
│    └─Empty: 2-3622                     [64]                      --
│    └─BatchNorm2d: 2-3623               [14, 64, 32, 32]          --
│    └─Scaler: 2-3624                    [14, 64, 32, 32]          --
│    └─ReLU: 2-3625                      [14, 64, 32, 32]          --
│    └─Empty: 2-3626                     [14, 64, 32, 32]          --
│    └─Clamp: 2-3627                     [14, 64, 32, 32]          --
├─FusedMaxPoolConv2dBNReLU: 1-275        [14, 64, 16, 16]          (recursive)
│    └─MaxPool2d: 2-3628                 [14, 64, 16, 16]          --
│    └─Empty: 2-3629                     [14, 64, 16, 16]          --
│    └─Empty: 2-3630                     [14, 64, 16, 16]          --
│    └─OutputShiftSqueeze: 2-3631        --                        --
│    └─One: 2-3632                       [1]                       --
│    └─OutputScale: 2-3633               --                        --
│    └─Empty: 2-3634                     [64, 64, 3, 3]            --
│    └─Empty: 2-3635                     [64, 64, 3, 3]            --
│    └─Empty: 2-3636                     [64]                      --
│    └─Empty: 2-3637                     [64]                      --
│    └─BatchNorm2d: 2-3638               [14, 64, 16, 16]          --
│    └─Scaler: 2-3639                    [14, 64, 16, 16]          --
│    └─ReLU: 2-3640                      [14, 64, 16, 16]          --
│    └─Empty: 2-3641                     [14, 64, 16, 16]          --
│    └─Clamp: 2-3642                     [14, 64, 16, 16]          --
├─FusedConv2dBNReLU: 1-276               [14, 64, 16, 16]          (recursive)
│    └─OutputShiftSqueeze: 2-3643        --                        --
│    └─One: 2-3644                       [1]                       --
│    └─OutputScale: 2-3645               --                        --
│    └─Empty: 2-3646                     [64, 64, 3, 3]            --
│    └─Empty: 2-3647                     [64, 64, 3, 3]            --
│    └─Empty: 2-3648                     [64]                      --
│    └─Empty: 2-3649                     [64]                      --
│    └─BatchNorm2d: 2-3650               [14, 64, 16, 16]          --
│    └─Scaler: 2-3651                    [14, 64, 16, 16]          --
│    └─ReLU: 2-3652                      [14, 64, 16, 16]          --
│    └─Empty: 2-3653                     [14, 64, 16, 16]          --
│    └─Clamp: 2-3654                     [14, 64, 16, 16]          --
├─FusedMaxPoolConv2dBNReLU: 1-277        [14, 64, 8, 8]            (recursive)
│    └─MaxPool2d: 2-3655                 [14, 64, 8, 8]            --
│    └─Empty: 2-3656                     [14, 64, 8, 8]            --
│    └─Empty: 2-3657                     [14, 64, 8, 8]            --
│    └─OutputShiftSqueeze: 2-3658        --                        --
│    └─One: 2-3659                       [1]                       --
│    └─OutputScale: 2-3660               --                        --
│    └─Empty: 2-3661                     [64, 64, 3, 3]            --
│    └─Empty: 2-3662                     [64, 64, 3, 3]            --
│    └─Empty: 2-3663                     [64]                      --
│    └─Empty: 2-3664                     [64]                      --
│    └─BatchNorm2d: 2-3665               [14, 64, 8, 8]            --
│    └─Scaler: 2-3666                    [14, 64, 8, 8]            --
│    └─ReLU: 2-3667                      [14, 64, 8, 8]            --
│    └─Empty: 2-3668                     [14, 64, 8, 8]            --
│    └─Clamp: 2-3669                     [14, 64, 8, 8]            --
├─FusedConv2dBNReLU: 1-278               [14, 64, 8, 8]            (recursive)
│    └─OutputShiftSqueeze: 2-3670        --                        --
│    └─One: 2-3671                       [1]                       --
│    └─OutputScale: 2-3672               --                        --
│    └─Empty: 2-3673                     [64, 64, 1, 1]            --
│    └─Empty: 2-3674                     [64, 64, 1, 1]            --
│    └─Empty: 2-3675                     [64]                      --
│    └─Empty: 2-3676                     [64]                      --
│    └─BatchNorm2d: 2-3677               [14, 64, 8, 8]            --
│    └─Scaler: 2-3678                    [14, 64, 8, 8]            --
│    └─ReLU: 2-3679                      [14, 64, 8, 8]            --
│    └─Empty: 2-3680                     [14, 64, 8, 8]            --
│    └─Clamp: 2-3681                     [14, 64, 8, 8]            --
├─FusedMaxPoolConv2dBNReLU: 1-279        [14, 64, 8, 8]            (recursive)
│    └─MaxPool2d: 2-3682                 [14, 64, 8, 8]            --
│    └─Empty: 2-3683                     [14, 64, 8, 8]            --
│    └─Empty: 2-3684                     [14, 64, 8, 8]            --
│    └─OutputShiftSqueeze: 2-3685        --                        --
│    └─One: 2-3686                       [1]                       --
│    └─OutputScale: 2-3687               --                        --
│    └─Empty: 2-3688                     [64, 64, 3, 3]            --
│    └─Empty: 2-3689                     [64, 64, 3, 3]            --
│    └─Empty: 2-3690                     [64]                      --
│    └─Empty: 2-3691                     [64]                      --
│    └─BatchNorm2d: 2-3692               [14, 64, 8, 8]            --
│    └─Scaler: 2-3693                    [14, 64, 8, 8]            --
│    └─ReLU: 2-3694                      [14, 64, 8, 8]            --
│    └─Empty: 2-3695                     [14, 64, 8, 8]            --
│    └─Clamp: 2-3696                     [14, 64, 8, 8]            --
├─FusedMaxPoolConv2dBNReLU: 1-280        [14, 64, 4, 4]            (recursive)
│    └─MaxPool2d: 2-3697                 [14, 64, 4, 4]            --
│    └─Empty: 2-3698                     [14, 64, 4, 4]            --
│    └─Empty: 2-3699                     [14, 64, 4, 4]            --
│    └─OutputShiftSqueeze: 2-3700        --                        --
│    └─One: 2-3701                       [1]                       --
│    └─OutputScale: 2-3702               --                        --
│    └─Empty: 2-3703                     [64, 64, 3, 3]            --
│    └─Empty: 2-3704                     [64, 64, 3, 3]            --
│    └─Empty: 2-3705                     [64]                      --
│    └─Empty: 2-3706                     [64]                      --
│    └─BatchNorm2d: 2-3707               [14, 64, 4, 4]            --
│    └─Scaler: 2-3708                    [14, 64, 4, 4]            --
│    └─ReLU: 2-3709                      [14, 64, 4, 4]            --
│    └─Empty: 2-3710                     [14, 64, 4, 4]            --
│    └─Clamp: 2-3711                     [14, 64, 4, 4]            --
├─FusedConv2dBNReLU: 1-281               [14, 64, 4, 4]            (recursive)
│    └─OutputShiftSqueeze: 2-3712        --                        --
│    └─One: 2-3713                       [1]                       --
│    └─OutputScale: 2-3714               --                        --
│    └─Empty: 2-3715                     [64, 64, 1, 1]            --
│    └─Empty: 2-3716                     [64, 64, 1, 1]            --
│    └─Empty: 2-3717                     [64]                      --
│    └─Empty: 2-3718                     [64]                      --
│    └─BatchNorm2d: 2-3719               [14, 64, 4, 4]            --
│    └─Scaler: 2-3720                    [14, 64, 4, 4]            --
│    └─ReLU: 2-3721                      [14, 64, 4, 4]            --
│    └─Empty: 2-3722                     [14, 64, 4, 4]            --
│    └─Clamp: 2-3723                     [14, 64, 4, 4]            --
├─FusedMaxPoolConv2dBNReLU: 1-282        [14, 64, 4, 4]            (recursive)
│    └─MaxPool2d: 2-3724                 [14, 64, 4, 4]            --
│    └─Empty: 2-3725                     [14, 64, 4, 4]            --
│    └─Empty: 2-3726                     [14, 64, 4, 4]            --
│    └─OutputShiftSqueeze: 2-3727        --                        --
│    └─One: 2-3728                       [1]                       --
│    └─OutputScale: 2-3729               --                        --
│    └─Empty: 2-3730                     [64, 64, 3, 3]            --
│    └─Empty: 2-3731                     [64, 64, 3, 3]            --
│    └─Empty: 2-3732                     [64]                      --
│    └─Empty: 2-3733                     [64]                      --
│    └─BatchNorm2d: 2-3734               [14, 64, 4, 4]            --
│    └─Scaler: 2-3735                    [14, 64, 4, 4]            --
│    └─ReLU: 2-3736                      [14, 64, 4, 4]            --
│    └─Empty: 2-3737                     [14, 64, 4, 4]            --
│    └─Clamp: 2-3738                     [14, 64, 4, 4]            --
├─FusedMaxPoolConv2dBNReLU: 1-283        [14, 64, 2, 2]            (recursive)
│    └─MaxPool2d: 2-3739                 [14, 64, 2, 2]            --
│    └─Empty: 2-3740                     [14, 64, 2, 2]            --
│    └─Empty: 2-3741                     [14, 64, 2, 2]            --
│    └─OutputShiftSqueeze: 2-3742        --                        --
│    └─One: 2-3743                       [1]                       --
│    └─OutputScale: 2-3744               --                        --
│    └─Empty: 2-3745                     [64, 64, 3, 3]            --
│    └─Empty: 2-3746                     [64, 64, 3, 3]            --
│    └─Empty: 2-3747                     [64]                      --
│    └─Empty: 2-3748                     [64]                      --
│    └─BatchNorm2d: 2-3749               [14, 64, 2, 2]            --
│    └─Scaler: 2-3750                    [14, 64, 2, 2]            --
│    └─ReLU: 2-3751                      [14, 64, 2, 2]            --
│    └─Empty: 2-3752                     [14, 64, 2, 2]            --
│    └─Clamp: 2-3753                     [14, 64, 2, 2]            --
├─FusedConv2dBNReLU: 1-284               [14, 64, 2, 2]            (recursive)
│    └─OutputShiftSqueeze: 2-3754        --                        --
│    └─One: 2-3755                       [1]                       --
│    └─OutputScale: 2-3756               --                        --
│    └─Empty: 2-3757                     [64, 64, 1, 1]            --
│    └─Empty: 2-3758                     [64, 64, 1, 1]            --
│    └─Empty: 2-3759                     [64]                      --
│    └─Empty: 2-3760                     [64]                      --
│    └─BatchNorm2d: 2-3761               [14, 64, 2, 2]            --
│    └─Scaler: 2-3762                    [14, 64, 2, 2]            --
│    └─ReLU: 2-3763                      [14, 64, 2, 2]            --
│    └─Empty: 2-3764                     [14, 64, 2, 2]            --
│    └─Clamp: 2-3765                     [14, 64, 2, 2]            --
├─FusedMaxPoolConv2dBNReLU: 1-285        [14, 64, 2, 2]            (recursive)
│    └─MaxPool2d: 2-3766                 [14, 64, 2, 2]            --
│    └─Empty: 2-3767                     [14, 64, 2, 2]            --
│    └─Empty: 2-3768                     [14, 64, 2, 2]            --
│    └─OutputShiftSqueeze: 2-3769        --                        --
│    └─One: 2-3770                       [1]                       --
│    └─OutputScale: 2-3771               --                        --
│    └─Empty: 2-3772                     [64, 64, 3, 3]            --
│    └─Empty: 2-3773                     [64, 64, 3, 3]            --
│    └─Empty: 2-3774                     [64]                      --
│    └─Empty: 2-3775                     [64]                      --
│    └─BatchNorm2d: 2-3776               [14, 64, 2, 2]            --
│    └─Scaler: 2-3777                    [14, 64, 2, 2]            --
│    └─ReLU: 2-3778                      [14, 64, 2, 2]            --
│    └─Empty: 2-3779                     [14, 64, 2, 2]            --
│    └─Clamp: 2-3780                     [14, 64, 2, 2]            --
├─FusedConv2dBNReLU: 1-286               [14, 64, 64, 64]          (recursive)
│    └─OutputShiftSqueeze: 2-3781        --                        --
│    └─One: 2-3782                       [1]                       --
│    └─OutputScale: 2-3783               --                        --
│    └─Empty: 2-3784                     [64, 48, 1, 1]            --
│    └─Empty: 2-3785                     [64, 48, 1, 1]            --
│    └─Empty: 2-3786                     [64]                      --
│    └─Empty: 2-3787                     [64]                      --
│    └─BatchNorm2d: 2-3788               [14, 64, 64, 64]          --
│    └─Scaler: 2-3789                    [14, 64, 64, 64]          --
│    └─ReLU: 2-3790                      [14, 64, 64, 64]          --
│    └─Empty: 2-3791                     [14, 64, 64, 64]          --
│    └─Clamp: 2-3792                     [14, 64, 64, 64]          --
├─FusedConv2dBNReLU: 1-287               [14, 64, 64, 64]          (recursive)
│    └─OutputShiftSqueeze: 2-3793        --                        --
│    └─One: 2-3794                       [1]                       --
│    └─OutputScale: 2-3795               --                        --
│    └─Empty: 2-3796                     [64, 64, 3, 3]            --
│    └─Empty: 2-3797                     [64, 64, 3, 3]            --
│    └─Empty: 2-3798                     [64]                      --
│    └─Empty: 2-3799                     [64]                      --
│    └─BatchNorm2d: 2-3800               [14, 64, 64, 64]          --
│    └─Scaler: 2-3801                    [14, 64, 64, 64]          --
│    └─ReLU: 2-3802                      [14, 64, 64, 64]          --
│    └─Empty: 2-3803                     [14, 64, 64, 64]          --
│    └─Clamp: 2-3804                     [14, 64, 64, 64]          --
├─FusedConv2dBNReLU: 1-288               [14, 64, 64, 64]          (recursive)
│    └─OutputShiftSqueeze: 2-3805        --                        --
│    └─One: 2-3806                       [1]                       --
│    └─OutputScale: 2-3807               --                        --
│    └─Empty: 2-3808                     [64, 64, 3, 3]            --
│    └─Empty: 2-3809                     [64, 64, 3, 3]            --
│    └─Empty: 2-3810                     [64]                      --
│    └─Empty: 2-3811                     [64]                      --
│    └─BatchNorm2d: 2-3812               [14, 64, 64, 64]          --
│    └─Scaler: 2-3813                    [14, 64, 64, 64]          --
│    └─ReLU: 2-3814                      [14, 64, 64, 64]          --
│    └─Empty: 2-3815                     [14, 64, 64, 64]          --
│    └─Clamp: 2-3816                     [14, 64, 64, 64]          --
├─FusedConv2dBNReLU: 1-289               [14, 64, 64, 64]          (recursive)
│    └─OutputShiftSqueeze: 2-3817        --                        --
│    └─One: 2-3818                       [1]                       --
│    └─OutputScale: 2-3819               --                        --
│    └─Empty: 2-3820                     [64, 64, 1, 1]            --
│    └─Empty: 2-3821                     [64, 64, 1, 1]            --
│    └─Empty: 2-3822                     [64]                      --
│    └─Empty: 2-3823                     [64]                      --
│    └─BatchNorm2d: 2-3824               [14, 64, 64, 64]          --
│    └─Scaler: 2-3825                    [14, 64, 64, 64]          --
│    └─ReLU: 2-3826                      [14, 64, 64, 64]          --
│    └─Empty: 2-3827                     [14, 64, 64, 64]          --
│    └─Clamp: 2-3828                     [14, 64, 64, 64]          --
├─FusedConv2dBNReLU: 1-290               [14, 64, 64, 64]          (recursive)
│    └─OutputShiftSqueeze: 2-3829        --                        --
│    └─One: 2-3830                       [1]                       --
│    └─OutputScale: 2-3831               --                        --
│    └─Empty: 2-3832                     [64, 64, 3, 3]            --
│    └─Empty: 2-3833                     [64, 64, 3, 3]            --
│    └─Empty: 2-3834                     [64]                      --
│    └─Empty: 2-3835                     [64]                      --
│    └─BatchNorm2d: 2-3836               [14, 64, 64, 64]          --
│    └─Scaler: 2-3837                    [14, 64, 64, 64]          --
│    └─ReLU: 2-3838                      [14, 64, 64, 64]          --
│    └─Empty: 2-3839                     [14, 64, 64, 64]          --
│    └─Clamp: 2-3840                     [14, 64, 64, 64]          --
├─FusedConv2dBNReLU: 1-291               [14, 64, 64, 64]          (recursive)
│    └─OutputShiftSqueeze: 2-3841        --                        --
│    └─One: 2-3842                       [1]                       --
│    └─OutputScale: 2-3843               --                        --
│    └─Empty: 2-3844                     [64, 64, 3, 3]            --
│    └─Empty: 2-3845                     [64, 64, 3, 3]            --
│    └─Empty: 2-3846                     [64]                      --
│    └─Empty: 2-3847                     [64]                      --
│    └─BatchNorm2d: 2-3848               [14, 64, 64, 64]          --
│    └─Scaler: 2-3849                    [14, 64, 64, 64]          --
│    └─ReLU: 2-3850                      [14, 64, 64, 64]          --
│    └─Empty: 2-3851                     [14, 64, 64, 64]          --
│    └─Clamp: 2-3852                     [14, 64, 64, 64]          --
├─FusedMaxPoolConv2dBNReLU: 1-292        [14, 64, 32, 32]          (recursive)
│    └─MaxPool2d: 2-3853                 [14, 64, 32, 32]          --
│    └─Empty: 2-3854                     [14, 64, 32, 32]          --
│    └─Empty: 2-3855                     [14, 64, 32, 32]          --
│    └─OutputShiftSqueeze: 2-3856        --                        --
│    └─One: 2-3857                       [1]                       --
│    └─OutputScale: 2-3858               --                        --
│    └─Empty: 2-3859                     [64, 64, 3, 3]            --
│    └─Empty: 2-3860                     [64, 64, 3, 3]            --
│    └─Empty: 2-3861                     [64]                      --
│    └─Empty: 2-3862                     [64]                      --
│    └─BatchNorm2d: 2-3863               [14, 64, 32, 32]          --
│    └─Scaler: 2-3864                    [14, 64, 32, 32]          --
│    └─ReLU: 2-3865                      [14, 64, 32, 32]          --
│    └─Empty: 2-3866                     [14, 64, 32, 32]          --
│    └─Clamp: 2-3867                     [14, 64, 32, 32]          --
├─FusedConv2dBNReLU: 1-293               [14, 64, 32, 32]          (recursive)
│    └─OutputShiftSqueeze: 2-3868        --                        --
│    └─One: 2-3869                       [1]                       --
│    └─OutputScale: 2-3870               --                        --
│    └─Empty: 2-3871                     [64, 64, 3, 3]            --
│    └─Empty: 2-3872                     [64, 64, 3, 3]            --
│    └─Empty: 2-3873                     [64]                      --
│    └─Empty: 2-3874                     [64]                      --
│    └─BatchNorm2d: 2-3875               [14, 64, 32, 32]          --
│    └─Scaler: 2-3876                    [14, 64, 32, 32]          --
│    └─ReLU: 2-3877                      [14, 64, 32, 32]          --
│    └─Empty: 2-3878                     [14, 64, 32, 32]          --
│    └─Clamp: 2-3879                     [14, 64, 32, 32]          --
├─FusedMaxPoolConv2dBNReLU: 1-294        [14, 64, 16, 16]          (recursive)
│    └─MaxPool2d: 2-3880                 [14, 64, 16, 16]          --
│    └─Empty: 2-3881                     [14, 64, 16, 16]          --
│    └─Empty: 2-3882                     [14, 64, 16, 16]          --
│    └─OutputShiftSqueeze: 2-3883        --                        --
│    └─One: 2-3884                       [1]                       --
│    └─OutputScale: 2-3885               --                        --
│    └─Empty: 2-3886                     [64, 64, 3, 3]            --
│    └─Empty: 2-3887                     [64, 64, 3, 3]            --
│    └─Empty: 2-3888                     [64]                      --
│    └─Empty: 2-3889                     [64]                      --
│    └─BatchNorm2d: 2-3890               [14, 64, 16, 16]          --
│    └─Scaler: 2-3891                    [14, 64, 16, 16]          --
│    └─ReLU: 2-3892                      [14, 64, 16, 16]          --
│    └─Empty: 2-3893                     [14, 64, 16, 16]          --
│    └─Clamp: 2-3894                     [14, 64, 16, 16]          --
├─FusedConv2dBNReLU: 1-295               [14, 64, 16, 16]          (recursive)
│    └─OutputShiftSqueeze: 2-3895        --                        --
│    └─One: 2-3896                       [1]                       --
│    └─OutputScale: 2-3897               --                        --
│    └─Empty: 2-3898                     [64, 64, 3, 3]            --
│    └─Empty: 2-3899                     [64, 64, 3, 3]            --
│    └─Empty: 2-3900                     [64]                      --
│    └─Empty: 2-3901                     [64]                      --
│    └─BatchNorm2d: 2-3902               [14, 64, 16, 16]          --
│    └─Scaler: 2-3903                    [14, 64, 16, 16]          --
│    └─ReLU: 2-3904                      [14, 64, 16, 16]          --
│    └─Empty: 2-3905                     [14, 64, 16, 16]          --
│    └─Clamp: 2-3906                     [14, 64, 16, 16]          --
├─FusedMaxPoolConv2dBNReLU: 1-296        [14, 64, 8, 8]            (recursive)
│    └─MaxPool2d: 2-3907                 [14, 64, 8, 8]            --
│    └─Empty: 2-3908                     [14, 64, 8, 8]            --
│    └─Empty: 2-3909                     [14, 64, 8, 8]            --
│    └─OutputShiftSqueeze: 2-3910        --                        --
│    └─One: 2-3911                       [1]                       --
│    └─OutputScale: 2-3912               --                        --
│    └─Empty: 2-3913                     [64, 64, 3, 3]            --
│    └─Empty: 2-3914                     [64, 64, 3, 3]            --
│    └─Empty: 2-3915                     [64]                      --
│    └─Empty: 2-3916                     [64]                      --
│    └─BatchNorm2d: 2-3917               [14, 64, 8, 8]            --
│    └─Scaler: 2-3918                    [14, 64, 8, 8]            --
│    └─ReLU: 2-3919                      [14, 64, 8, 8]            --
│    └─Empty: 2-3920                     [14, 64, 8, 8]            --
│    └─Clamp: 2-3921                     [14, 64, 8, 8]            --
├─FusedConv2dBNReLU: 1-297               [14, 64, 8, 8]            (recursive)
│    └─OutputShiftSqueeze: 2-3922        --                        --
│    └─One: 2-3923                       [1]                       --
│    └─OutputScale: 2-3924               --                        --
│    └─Empty: 2-3925                     [64, 64, 1, 1]            --
│    └─Empty: 2-3926                     [64, 64, 1, 1]            --
│    └─Empty: 2-3927                     [64]                      --
│    └─Empty: 2-3928                     [64]                      --
│    └─BatchNorm2d: 2-3929               [14, 64, 8, 8]            --
│    └─Scaler: 2-3930                    [14, 64, 8, 8]            --
│    └─ReLU: 2-3931                      [14, 64, 8, 8]            --
│    └─Empty: 2-3932                     [14, 64, 8, 8]            --
│    └─Clamp: 2-3933                     [14, 64, 8, 8]            --
├─FusedMaxPoolConv2dBNReLU: 1-298        [14, 64, 8, 8]            (recursive)
│    └─MaxPool2d: 2-3934                 [14, 64, 8, 8]            --
│    └─Empty: 2-3935                     [14, 64, 8, 8]            --
│    └─Empty: 2-3936                     [14, 64, 8, 8]            --
│    └─OutputShiftSqueeze: 2-3937        --                        --
│    └─One: 2-3938                       [1]                       --
│    └─OutputScale: 2-3939               --                        --
│    └─Empty: 2-3940                     [64, 64, 3, 3]            --
│    └─Empty: 2-3941                     [64, 64, 3, 3]            --
│    └─Empty: 2-3942                     [64]                      --
│    └─Empty: 2-3943                     [64]                      --
│    └─BatchNorm2d: 2-3944               [14, 64, 8, 8]            --
│    └─Scaler: 2-3945                    [14, 64, 8, 8]            --
│    └─ReLU: 2-3946                      [14, 64, 8, 8]            --
│    └─Empty: 2-3947                     [14, 64, 8, 8]            --
│    └─Clamp: 2-3948                     [14, 64, 8, 8]            --
├─FusedMaxPoolConv2dBNReLU: 1-299        [14, 64, 4, 4]            (recursive)
│    └─MaxPool2d: 2-3949                 [14, 64, 4, 4]            --
│    └─Empty: 2-3950                     [14, 64, 4, 4]            --
│    └─Empty: 2-3951                     [14, 64, 4, 4]            --
│    └─OutputShiftSqueeze: 2-3952        --                        --
│    └─One: 2-3953                       [1]                       --
│    └─OutputScale: 2-3954               --                        --
│    └─Empty: 2-3955                     [64, 64, 3, 3]            --
│    └─Empty: 2-3956                     [64, 64, 3, 3]            --
│    └─Empty: 2-3957                     [64]                      --
│    └─Empty: 2-3958                     [64]                      --
│    └─BatchNorm2d: 2-3959               [14, 64, 4, 4]            --
│    └─Scaler: 2-3960                    [14, 64, 4, 4]            --
│    └─ReLU: 2-3961                      [14, 64, 4, 4]            --
│    └─Empty: 2-3962                     [14, 64, 4, 4]            --
│    └─Clamp: 2-3963                     [14, 64, 4, 4]            --
├─FusedConv2dBNReLU: 1-300               [14, 64, 4, 4]            (recursive)
│    └─OutputShiftSqueeze: 2-3964        --                        --
│    └─One: 2-3965                       [1]                       --
│    └─OutputScale: 2-3966               --                        --
│    └─Empty: 2-3967                     [64, 64, 1, 1]            --
│    └─Empty: 2-3968                     [64, 64, 1, 1]            --
│    └─Empty: 2-3969                     [64]                      --
│    └─Empty: 2-3970                     [64]                      --
│    └─BatchNorm2d: 2-3971               [14, 64, 4, 4]            --
│    └─Scaler: 2-3972                    [14, 64, 4, 4]            --
│    └─ReLU: 2-3973                      [14, 64, 4, 4]            --
│    └─Empty: 2-3974                     [14, 64, 4, 4]            --
│    └─Clamp: 2-3975                     [14, 64, 4, 4]            --
├─FusedMaxPoolConv2dBNReLU: 1-301        [14, 64, 4, 4]            (recursive)
│    └─MaxPool2d: 2-3976                 [14, 64, 4, 4]            --
│    └─Empty: 2-3977                     [14, 64, 4, 4]            --
│    └─Empty: 2-3978                     [14, 64, 4, 4]            --
│    └─OutputShiftSqueeze: 2-3979        --                        --
│    └─One: 2-3980                       [1]                       --
│    └─OutputScale: 2-3981               --                        --
│    └─Empty: 2-3982                     [64, 64, 3, 3]            --
│    └─Empty: 2-3983                     [64, 64, 3, 3]            --
│    └─Empty: 2-3984                     [64]                      --
│    └─Empty: 2-3985                     [64]                      --
│    └─BatchNorm2d: 2-3986               [14, 64, 4, 4]            --
│    └─Scaler: 2-3987                    [14, 64, 4, 4]            --
│    └─ReLU: 2-3988                      [14, 64, 4, 4]            --
│    └─Empty: 2-3989                     [14, 64, 4, 4]            --
│    └─Clamp: 2-3990                     [14, 64, 4, 4]            --
├─FusedMaxPoolConv2dBNReLU: 1-302        [14, 64, 2, 2]            (recursive)
│    └─MaxPool2d: 2-3991                 [14, 64, 2, 2]            --
│    └─Empty: 2-3992                     [14, 64, 2, 2]            --
│    └─Empty: 2-3993                     [14, 64, 2, 2]            --
│    └─OutputShiftSqueeze: 2-3994        --                        --
│    └─One: 2-3995                       [1]                       --
│    └─OutputScale: 2-3996               --                        --
│    └─Empty: 2-3997                     [64, 64, 3, 3]            --
│    └─Empty: 2-3998                     [64, 64, 3, 3]            --
│    └─Empty: 2-3999                     [64]                      --
│    └─Empty: 2-4000                     [64]                      --
│    └─BatchNorm2d: 2-4001               [14, 64, 2, 2]            --
│    └─Scaler: 2-4002                    [14, 64, 2, 2]            --
│    └─ReLU: 2-4003                      [14, 64, 2, 2]            --
│    └─Empty: 2-4004                     [14, 64, 2, 2]            --
│    └─Clamp: 2-4005                     [14, 64, 2, 2]            --
├─FusedConv2dBNReLU: 1-303               [14, 64, 2, 2]            (recursive)
│    └─OutputShiftSqueeze: 2-4006        --                        --
│    └─One: 2-4007                       [1]                       --
│    └─OutputScale: 2-4008               --                        --
│    └─Empty: 2-4009                     [64, 64, 1, 1]            --
│    └─Empty: 2-4010                     [64, 64, 1, 1]            --
│    └─Empty: 2-4011                     [64]                      --
│    └─Empty: 2-4012                     [64]                      --
│    └─BatchNorm2d: 2-4013               [14, 64, 2, 2]            --
│    └─Scaler: 2-4014                    [14, 64, 2, 2]            --
│    └─ReLU: 2-4015                      [14, 64, 2, 2]            --
│    └─Empty: 2-4016                     [14, 64, 2, 2]            --
│    └─Clamp: 2-4017                     [14, 64, 2, 2]            --
├─FusedMaxPoolConv2dBNReLU: 1-304        [14, 64, 2, 2]            (recursive)
│    └─MaxPool2d: 2-4018                 [14, 64, 2, 2]            --
│    └─Empty: 2-4019                     [14, 64, 2, 2]            --
│    └─Empty: 2-4020                     [14, 64, 2, 2]            --
│    └─OutputShiftSqueeze: 2-4021        --                        --
│    └─One: 2-4022                       [1]                       --
│    └─OutputScale: 2-4023               --                        --
│    └─Empty: 2-4024                     [64, 64, 3, 3]            --
│    └─Empty: 2-4025                     [64, 64, 3, 3]            --
│    └─Empty: 2-4026                     [64]                      --
│    └─Empty: 2-4027                     [64]                      --
│    └─BatchNorm2d: 2-4028               [14, 64, 2, 2]            --
│    └─Scaler: 2-4029                    [14, 64, 2, 2]            --
│    └─ReLU: 2-4030                      [14, 64, 2, 2]            --
│    └─Empty: 2-4031                     [14, 64, 2, 2]            --
│    └─Clamp: 2-4032                     [14, 64, 2, 2]            --
├─Linear: 1-305                          [14, 4]                   1,030
│    └─OutputShiftSqueeze: 2-4033        --                        --
│    └─One: 2-4034                       [1]                       --
│    └─OutputScale: 2-4035               --                        --
│    └─Empty: 2-4036                     [4, 256]                  --
│    └─Empty: 2-4037                     [4, 256]                  --
│    └─Empty: 2-4038                     [14, 4]                   --
│    └─Empty: 2-4039                     [14, 4]                   --
│    └─Clamp: 2-4040                     [14, 4]                   --
├─Linear: 1-306                          [14, 4]                   (recursive)
│    └─OutputShiftSqueeze: 2-4041        --                        --
│    └─One: 2-4042                       [1]                       --
│    └─OutputScale: 2-4043               --                        --
│    └─Empty: 2-4044                     [4, 256]                  --
│    └─Empty: 2-4045                     [4, 256]                  --
│    └─Empty: 2-4046                     [14, 4]                   --
│    └─Empty: 2-4047                     [14, 4]                   --
│    └─Clamp: 2-4048                     [14, 4]                   --
├─Linear: 1-307                          [14, 4]                   (recursive)
│    └─OutputShiftSqueeze: 2-4049        --                        --
│    └─One: 2-4050                       [1]                       --
│    └─OutputScale: 2-4051               --                        --
│    └─Empty: 2-4052                     [4, 256]                  --
│    └─Empty: 2-4053                     [4, 256]                  --
│    └─Empty: 2-4054                     [14, 4]                   --
│    └─Empty: 2-4055                     [14, 4]                   --
│    └─Clamp: 2-4056                     [14, 4]                   --
├─Linear: 1-308                          [14, 4]                   (recursive)
│    └─OutputShiftSqueeze: 2-4057        --                        --
│    └─One: 2-4058                       [1]                       --
│    └─OutputScale: 2-4059               --                        --
│    └─Empty: 2-4060                     [4, 256]                  --
│    └─Empty: 2-4061                     [4, 256]                  --
│    └─Empty: 2-4062                     [14, 4]                   --
│    └─Empty: 2-4063                     [14, 4]                   --
│    └─Clamp: 2-4064                     [14, 4]                   --
├─Linear: 1-309                          [14, 4]                   (recursive)
│    └─OutputShiftSqueeze: 2-4065        --                        --
│    └─One: 2-4066                       [1]                       --
│    └─OutputScale: 2-4067               --                        --
│    └─Empty: 2-4068                     [4, 256]                  --
│    └─Empty: 2-4069                     [4, 256]                  --
│    └─Empty: 2-4070                     [14, 4]                   --
│    └─Empty: 2-4071                     [14, 4]                   --
│    └─Clamp: 2-4072                     [14, 4]                   --
├─Linear: 1-310                          [14, 4]                   (recursive)
│    └─OutputShiftSqueeze: 2-4073        --                        --
│    └─One: 2-4074                       [1]                       --
│    └─OutputScale: 2-4075               --                        --
│    └─Empty: 2-4076                     [4, 256]                  --
│    └─Empty: 2-4077                     [4, 256]                  --
│    └─Empty: 2-4078                     [14, 4]                   --
│    └─Empty: 2-4079                     [14, 4]                   --
│    └─Clamp: 2-4080                     [14, 4]                   --
├─Linear: 1-311                          [14, 4]                   (recursive)
│    └─OutputShiftSqueeze: 2-4081        --                        --
│    └─One: 2-4082                       [1]                       --
│    └─OutputScale: 2-4083               --                        --
│    └─Empty: 2-4084                     [4, 256]                  --
│    └─Empty: 2-4085                     [4, 256]                  --
│    └─Empty: 2-4086                     [14, 4]                   --
│    └─Empty: 2-4087                     [14, 4]                   --
│    └─Clamp: 2-4088                     [14, 4]                   --
├─Linear: 1-312                          [14, 4]                   (recursive)
│    └─OutputShiftSqueeze: 2-4089        --                        --
│    └─One: 2-4090                       [1]                       --
│    └─OutputScale: 2-4091               --                        --
│    └─Empty: 2-4092                     [4, 256]                  --
│    └─Empty: 2-4093                     [4, 256]                  --
│    └─Empty: 2-4094                     [14, 4]                   --
│    └─Empty: 2-4095                     [14, 4]                   --
│    └─Clamp: 2-4096                     [14, 4]                   --
├─Linear: 1-313                          [14, 4]                   (recursive)
│    └─OutputShiftSqueeze: 2-4097        --                        --
│    └─One: 2-4098                       [1]                       --
│    └─OutputScale: 2-4099               --                        --
│    └─Empty: 2-4100                     [4, 256]                  --
│    └─Empty: 2-4101                     [4, 256]                  --
│    └─Empty: 2-4102                     [14, 4]                   --
│    └─Empty: 2-4103                     [14, 4]                   --
│    └─Clamp: 2-4104                     [14, 4]                   --
├─Linear: 1-314                          [14, 4]                   (recursive)
│    └─OutputShiftSqueeze: 2-4105        --                        --
│    └─One: 2-4106                       [1]                       --
│    └─OutputScale: 2-4107               --                        --
│    └─Empty: 2-4108                     [4, 256]                  --
│    └─Empty: 2-4109                     [4, 256]                  --
│    └─Empty: 2-4110                     [14, 4]                   --
│    └─Empty: 2-4111                     [14, 4]                   --
│    └─Clamp: 2-4112                     [14, 4]                   --
├─Linear: 1-315                          [14, 4]                   (recursive)
│    └─OutputShiftSqueeze: 2-4113        --                        --
│    └─One: 2-4114                       [1]                       --
│    └─OutputScale: 2-4115               --                        --
│    └─Empty: 2-4116                     [4, 256]                  --
│    └─Empty: 2-4117                     [4, 256]                  --
│    └─Empty: 2-4118                     [14, 4]                   --
│    └─Empty: 2-4119                     [14, 4]                   --
│    └─Clamp: 2-4120                     [14, 4]                   --
├─Linear: 1-316                          [14, 4]                   (recursive)
│    └─OutputShiftSqueeze: 2-4121        --                        --
│    └─One: 2-4122                       [1]                       --
│    └─OutputScale: 2-4123               --                        --
│    └─Empty: 2-4124                     [4, 256]                  --
│    └─Empty: 2-4125                     [4, 256]                  --
│    └─Empty: 2-4126                     [14, 4]                   --
│    └─Empty: 2-4127                     [14, 4]                   --
│    └─Clamp: 2-4128                     [14, 4]                   --
├─Linear: 1-317                          [14, 4]                   (recursive)
│    └─OutputShiftSqueeze: 2-4129        --                        --
│    └─One: 2-4130                       [1]                       --
│    └─OutputScale: 2-4131               --                        --
│    └─Empty: 2-4132                     [4, 256]                  --
│    └─Empty: 2-4133                     [4, 256]                  --
│    └─Empty: 2-4134                     [14, 4]                   --
│    └─Empty: 2-4135                     [14, 4]                   --
│    └─Clamp: 2-4136                     [14, 4]                   --
├─Linear: 1-318                          [14, 4]                   (recursive)
│    └─OutputShiftSqueeze: 2-4137        --                        --
│    └─One: 2-4138                       [1]                       --
│    └─OutputScale: 2-4139               --                        --
│    └─Empty: 2-4140                     [4, 256]                  --
│    └─Empty: 2-4141                     [4, 256]                  --
│    └─Empty: 2-4142                     [14, 4]                   --
│    └─Empty: 2-4143                     [14, 4]                   --
│    └─Clamp: 2-4144                     [14, 4]                   --
├─Linear: 1-319                          [14, 4]                   (recursive)
│    └─OutputShiftSqueeze: 2-4145        --                        --
│    └─One: 2-4146                       [1]                       --
│    └─OutputScale: 2-4147               --                        --
│    └─Empty: 2-4148                     [4, 256]                  --
│    └─Empty: 2-4149                     [4, 256]                  --
│    └─Empty: 2-4150                     [14, 4]                   --
│    └─Empty: 2-4151                     [14, 4]                   --
│    └─Clamp: 2-4152                     [14, 4]                   --
├─Linear: 1-320                          [14, 4]                   (recursive)
│    └─OutputShiftSqueeze: 2-4153        --                        --
│    └─One: 2-4154                       [1]                       --
│    └─OutputScale: 2-4155               --                        --
│    └─Empty: 2-4156                     [4, 256]                  --
│    └─Empty: 2-4157                     [4, 256]                  --
│    └─Empty: 2-4158                     [14, 4]                   --
│    └─Empty: 2-4159                     [14, 4]                   --
│    └─Clamp: 2-4160                     [14, 4]                   --
==========================================================================================
Total params: 537,912
Trainable params: 537,792
Non-trainable params: 120
Total mult-adds (M): 0.00
==========================================================================================
Input size (MB): 176.16
Forward/backward pass size (MB): 0.00
Params size (MB): 0.00
Estimated Total Size (MB): 176.16
…
