…
I - Label min-max:  tensor(0) tensor(3) data number in dataset:  tensor([ 92444,  88955, 112532, 193003, 163352, 174408, 201719,  44733,  12337,
         94426,  80439,   9374, 199662, 130311,  15776, 172329])
I - Initializing model TCNv4
I - Number of Model Parameters: 537792
I - Model output shape:  torch.Size([16, 4])
I - Model summary
==========================================================================================
Layer (type:depth-idx)                   Output Shape              Param #
==========================================================================================
TCNv4                                    [16, 4]                   --
├─FusedConv2dBNReLU: 1-1                 [16, 64, 64, 64]          3,142
│    └─OutputShiftSqueeze: 2-1           --                        --
│    └─One: 2-2                          [1]                       --
│    └─OutputScale: 2-3                  --                        --
│    └─Empty: 2-4                        [64, 48, 1, 1]            --
│    └─Empty: 2-5                        [64, 48, 1, 1]            --
│    └─Empty: 2-6                        [64]                      --
│    └─Empty: 2-7                        [64]                      --
│    └─BatchNorm2d: 2-8                  [16, 64, 64, 64]          --
│    └─Scaler: 2-9                       [16, 64, 64, 64]          --
│    └─ReLU: 2-10                        [16, 64, 64, 64]          --
│    └─Empty: 2-11                       [16, 64, 64, 64]          --
│    └─Clamp: 2-12                       [16, 64, 64, 64]          --
├─FusedConv2dBNReLU: 1-2                 [16, 64, 64, 64]          36,934
│    └─OutputShiftSqueeze: 2-13          --                        --
│    └─One: 2-14                         [1]                       --
│    └─OutputScale: 2-15                 --                        --
│    └─Empty: 2-16                       [64, 64, 3, 3]            --
│    └─Empty: 2-17                       [64, 64, 3, 3]            --
│    └─Empty: 2-18                       [64]                      --
│    └─Empty: 2-19                       [64]                      --
│    └─BatchNorm2d: 2-20                 [16, 64, 64, 64]          --
│    └─Scaler: 2-21                      [16, 64, 64, 64]          --
│    └─ReLU: 2-22                        [16, 64, 64, 64]          --
│    └─Empty: 2-23                       [16, 64, 64, 64]          --
│    └─Clamp: 2-24                       [16, 64, 64, 64]          --
├─FusedConv2dBNReLU: 1-3                 [16, 64, 64, 64]          36,934
│    └─OutputShiftSqueeze: 2-25          --                        --
│    └─One: 2-26                         [1]                       --
│    └─OutputScale: 2-27                 --                        --
│    └─Empty: 2-28                       [64, 64, 3, 3]            --
│    └─Empty: 2-29                       [64, 64, 3, 3]            --
│    └─Empty: 2-30                       [64]                      --
│    └─Empty: 2-31                       [64]                      --
│    └─BatchNorm2d: 2-32                 [16, 64, 64, 64]          --
│    └─Scaler: 2-33                      [16, 64, 64, 64]          --
│    └─ReLU: 2-34                        [16, 64, 64, 64]          --
│    └─Empty: 2-35                       [16, 64, 64, 64]          --
│    └─Clamp: 2-36                       [16, 64, 64, 64]          --
├─FusedConv2dBNReLU: 1-4                 [16, 64, 64, 64]          4,166
│    └─OutputShiftSqueeze: 2-37          --                        --
│    └─One: 2-38                         [1]                       --
│    └─OutputScale: 2-39                 --                        --
│    └─Empty: 2-40                       [64, 64, 1, 1]            --
│    └─Empty: 2-41                       [64, 64, 1, 1]            --
│    └─Empty: 2-42                       [64]                      --
│    └─Empty: 2-43                       [64]                      --
│    └─BatchNorm2d: 2-44                 [16, 64, 64, 64]          --
│    └─Scaler: 2-45                      [16, 64, 64, 64]          --
│    └─ReLU: 2-46                        [16, 64, 64, 64]          --
│    └─Empty: 2-47                       [16, 64, 64, 64]          --
│    └─Clamp: 2-48                       [16, 64, 64, 64]          --
├─FusedConv2dBNReLU: 1-5                 [16, 64, 64, 64]          36,934
│    └─OutputShiftSqueeze: 2-49          --                        --
│    └─One: 2-50                         [1]                       --
│    └─OutputScale: 2-51                 --                        --
│    └─Empty: 2-52                       [64, 64, 3, 3]            --
│    └─Empty: 2-53                       [64, 64, 3, 3]            --
│    └─Empty: 2-54                       [64]                      --
│    └─Empty: 2-55                       [64]                      --
│    └─BatchNorm2d: 2-56                 [16, 64, 64, 64]          --
│    └─Scaler: 2-57                      [16, 64, 64, 64]          --
│    └─ReLU: 2-58                        [16, 64, 64, 64]          --
│    └─Empty: 2-59                       [16, 64, 64, 64]          --
│    └─Clamp: 2-60                       [16, 64, 64, 64]          --
├─FusedConv2dBNReLU: 1-6                 [16, 64, 64, 64]          36,934
│    └─OutputShiftSqueeze: 2-61          --                        --
│    └─One: 2-62                         [1]                       --
│    └─OutputScale: 2-63                 --                        --
│    └─Empty: 2-64                       [64, 64, 3, 3]            --
│    └─Empty: 2-65                       [64, 64, 3, 3]            --
│    └─Empty: 2-66                       [64]                      --
│    └─Empty: 2-67                       [64]                      --
│    └─BatchNorm2d: 2-68                 [16, 64, 64, 64]          --
│    └─Scaler: 2-69                      [16, 64, 64, 64]          --
│    └─ReLU: 2-70                        [16, 64, 64, 64]          --
│    └─Empty: 2-71                       [16, 64, 64, 64]          --
│    └─Clamp: 2-72                       [16, 64, 64, 64]          --
├─FusedMaxPoolConv2dBNReLU: 1-7          [16, 64, 32, 32]          36,934
│    └─MaxPool2d: 2-73                   [16, 64, 32, 32]          --
│    └─Empty: 2-74                       [16, 64, 32, 32]          --
│    └─Empty: 2-75                       [16, 64, 32, 32]          --
│    └─OutputShiftSqueeze: 2-76          --                        --
│    └─One: 2-77                         [1]                       --
│    └─OutputScale: 2-78                 --                        --
│    └─Empty: 2-79                       [64, 64, 3, 3]            --
│    └─Empty: 2-80                       [64, 64, 3, 3]            --
│    └─Empty: 2-81                       [64]                      --
│    └─Empty: 2-82                       [64]                      --
│    └─BatchNorm2d: 2-83                 [16, 64, 32, 32]          --
│    └─Scaler: 2-84                      [16, 64, 32, 32]          --
│    └─ReLU: 2-85                        [16, 64, 32, 32]          --
│    └─Empty: 2-86                       [16, 64, 32, 32]          --
│    └─Clamp: 2-87                       [16, 64, 32, 32]          --
├─FusedConv2dBNReLU: 1-8                 [16, 64, 32, 32]          36,934
│    └─OutputShiftSqueeze: 2-88          --                        --
│    └─One: 2-89                         [1]                       --
│    └─OutputScale: 2-90                 --                        --
│    └─Empty: 2-91                       [64, 64, 3, 3]            --
│    └─Empty: 2-92                       [64, 64, 3, 3]            --
│    └─Empty: 2-93                       [64]                      --
│    └─Empty: 2-94                       [64]                      --
│    └─BatchNorm2d: 2-95                 [16, 64, 32, 32]          --
│    └─Scaler: 2-96                      [16, 64, 32, 32]          --
│    └─ReLU: 2-97                        [16, 64, 32, 32]          --
│    └─Empty: 2-98                       [16, 64, 32, 32]          --
│    └─Clamp: 2-99                       [16, 64, 32, 32]          --
├─FusedMaxPoolConv2dBNReLU: 1-9          [16, 64, 16, 16]          36,934
│    └─MaxPool2d: 2-100                  [16, 64, 16, 16]          --
│    └─Empty: 2-101                      [16, 64, 16, 16]          --
│    └─Empty: 2-102                      [16, 64, 16, 16]          --
│    └─OutputShiftSqueeze: 2-103         --                        --
│    └─One: 2-104                        [1]                       --
│    └─OutputScale: 2-105                --                        --
│    └─Empty: 2-106                      [64, 64, 3, 3]            --
│    └─Empty: 2-107                      [64, 64, 3, 3]            --
│    └─Empty: 2-108                      [64]                      --
│    └─Empty: 2-109                      [64]                      --
│    └─BatchNorm2d: 2-110                [16, 64, 16, 16]          --
│    └─Scaler: 2-111                     [16, 64, 16, 16]          --
│    └─ReLU: 2-112                       [16, 64, 16, 16]          --
│    └─Empty: 2-113                      [16, 64, 16, 16]          --
│    └─Clamp: 2-114                      [16, 64, 16, 16]          --
├─FusedConv2dBNReLU: 1-10                [16, 64, 16, 16]          36,934
│    └─OutputShiftSqueeze: 2-115         --                        --
│    └─One: 2-116                        [1]                       --
│    └─OutputScale: 2-117                --                        --
│    └─Empty: 2-118                      [64, 64, 3, 3]            --
│    └─Empty: 2-119                      [64, 64, 3, 3]            --
│    └─Empty: 2-120                      [64]                      --
│    └─Empty: 2-121                      [64]                      --
│    └─BatchNorm2d: 2-122                [16, 64, 16, 16]          --
│    └─Scaler: 2-123                     [16, 64, 16, 16]          --
│    └─ReLU: 2-124                       [16, 64, 16, 16]          --
│    └─Empty: 2-125                      [16, 64, 16, 16]          --
│    └─Clamp: 2-126                      [16, 64, 16, 16]          --
├─FusedMaxPoolConv2dBNReLU: 1-11         [16, 64, 8, 8]            36,934
│    └─MaxPool2d: 2-127                  [16, 64, 8, 8]            --
│    └─Empty: 2-128                      [16, 64, 8, 8]            --
│    └─Empty: 2-129                      [16, 64, 8, 8]            --
│    └─OutputShiftSqueeze: 2-130         --                        --
│    └─One: 2-131                        [1]                       --
│    └─OutputScale: 2-132                --                        --
│    └─Empty: 2-133                      [64, 64, 3, 3]            --
│    └─Empty: 2-134                      [64, 64, 3, 3]            --
│    └─Empty: 2-135                      [64]                      --
│    └─Empty: 2-136                      [64]                      --
│    └─BatchNorm2d: 2-137                [16, 64, 8, 8]            --
│    └─Scaler: 2-138                     [16, 64, 8, 8]            --
│    └─ReLU: 2-139                       [16, 64, 8, 8]            --
│    └─Empty: 2-140                      [16, 64, 8, 8]            --
│    └─Clamp: 2-141                      [16, 64, 8, 8]            --
├─FusedConv2dBNReLU: 1-12                [16, 64, 8, 8]            4,166
│    └─OutputShiftSqueeze: 2-142         --                        --
│    └─One: 2-143                        [1]                       --
│    └─OutputScale: 2-144                --                        --
│    └─Empty: 2-145                      [64, 64, 1, 1]            --
│    └─Empty: 2-146                      [64, 64, 1, 1]            --
│    └─Empty: 2-147                      [64]                      --
│    └─Empty: 2-148                      [64]                      --
│    └─BatchNorm2d: 2-149                [16, 64, 8, 8]            --
│    └─Scaler: 2-150                     [16, 64, 8, 8]            --
│    └─ReLU: 2-151                       [16, 64, 8, 8]            --
│    └─Empty: 2-152                      [16, 64, 8, 8]            --
│    └─Clamp: 2-153                      [16, 64, 8, 8]            --
├─FusedMaxPoolConv2dBNReLU: 1-13         [16, 64, 8, 8]            36,934
│    └─MaxPool2d: 2-154                  [16, 64, 8, 8]            --
│    └─Empty: 2-155                      [16, 64, 8, 8]            --
│    └─Empty: 2-156                      [16, 64, 8, 8]            --
│    └─OutputShiftSqueeze: 2-157         --                        --
│    └─One: 2-158                        [1]                       --
│    └─OutputScale: 2-159                --                        --
│    └─Empty: 2-160                      [64, 64, 3, 3]            --
│    └─Empty: 2-161                      [64, 64, 3, 3]            --
│    └─Empty: 2-162                      [64]                      --
│    └─Empty: 2-163                      [64]                      --
│    └─BatchNorm2d: 2-164                [16, 64, 8, 8]            --
│    └─Scaler: 2-165                     [16, 64, 8, 8]            --
│    └─ReLU: 2-166                       [16, 64, 8, 8]            --
│    └─Empty: 2-167                      [16, 64, 8, 8]            --
│    └─Clamp: 2-168                      [16, 64, 8, 8]            --
├─FusedMaxPoolConv2dBNReLU: 1-14         [16, 64, 4, 4]            36,934
│    └─MaxPool2d: 2-169                  [16, 64, 4, 4]            --
│    └─Empty: 2-170                      [16, 64, 4, 4]            --
│    └─Empty: 2-171                      [16, 64, 4, 4]            --
│    └─OutputShiftSqueeze: 2-172         --                        --
│    └─One: 2-173                        [1]                       --
│    └─OutputScale: 2-174                --                        --
│    └─Empty: 2-175                      [64, 64, 3, 3]            --
│    └─Empty: 2-176                      [64, 64, 3, 3]            --
│    └─Empty: 2-177                      [64]                      --
│    └─Empty: 2-178                      [64]                      --
│    └─BatchNorm2d: 2-179                [16, 64, 4, 4]            --
│    └─Scaler: 2-180                     [16, 64, 4, 4]            --
│    └─ReLU: 2-181                       [16, 64, 4, 4]            --
│    └─Empty: 2-182                      [16, 64, 4, 4]            --
│    └─Clamp: 2-183                      [16, 64, 4, 4]            --
├─FusedConv2dBNReLU: 1-15                [16, 64, 4, 4]            4,166
│    └─OutputShiftSqueeze: 2-184         --                        --
│    └─One: 2-185                        [1]                       --
│    └─OutputScale: 2-186                --                        --
│    └─Empty: 2-187                      [64, 64, 1, 1]            --
│    └─Empty: 2-188                      [64, 64, 1, 1]            --
│    └─Empty: 2-189                      [64]                      --
│    └─Empty: 2-190                      [64]                      --
│    └─BatchNorm2d: 2-191                [16, 64, 4, 4]            --
│    └─Scaler: 2-192                     [16, 64, 4, 4]            --
│    └─ReLU: 2-193                       [16, 64, 4, 4]            --
│    └─Empty: 2-194                      [16, 64, 4, 4]            --
│    └─Clamp: 2-195                      [16, 64, 4, 4]            --
├─FusedMaxPoolConv2dBNReLU: 1-16         [16, 64, 4, 4]            36,934
│    └─MaxPool2d: 2-196                  [16, 64, 4, 4]            --
│    └─Empty: 2-197                      [16, 64, 4, 4]            --
│    └─Empty: 2-198                      [16, 64, 4, 4]            --
│    └─OutputShiftSqueeze: 2-199         --                        --
│    └─One: 2-200                        [1]                       --
│    └─OutputScale: 2-201                --                        --
│    └─Empty: 2-202                      [64, 64, 3, 3]            --
│    └─Empty: 2-203                      [64, 64, 3, 3]            --
│    └─Empty: 2-204                      [64]                      --
│    └─Empty: 2-205                      [64]                      --
│    └─BatchNorm2d: 2-206                [16, 64, 4, 4]            --
│    └─Scaler: 2-207                     [16, 64, 4, 4]            --
│    └─ReLU: 2-208                       [16, 64, 4, 4]            --
│    └─Empty: 2-209                      [16, 64, 4, 4]            --
│    └─Clamp: 2-210                      [16, 64, 4, 4]            --
├─FusedMaxPoolConv2dBNReLU: 1-17         [16, 64, 2, 2]            36,934
│    └─MaxPool2d: 2-211                  [16, 64, 2, 2]            --
│    └─Empty: 2-212                      [16, 64, 2, 2]            --
│    └─Empty: 2-213                      [16, 64, 2, 2]            --
│    └─OutputShiftSqueeze: 2-214         --                        --
│    └─One: 2-215                        [1]                       --
│    └─OutputScale: 2-216                --                        --
│    └─Empty: 2-217                      [64, 64, 3, 3]            --
│    └─Empty: 2-218                      [64, 64, 3, 3]            --
│    └─Empty: 2-219                      [64]                      --
│    └─Empty: 2-220                      [64]                      --
│    └─BatchNorm2d: 2-221                [16, 64, 2, 2]            --
│    └─Scaler: 2-222                     [16, 64, 2, 2]            --
│    └─ReLU: 2-223                       [16, 64, 2, 2]            --
│    └─Empty: 2-224                      [16, 64, 2, 2]            --
│    └─Clamp: 2-225                      [16, 64, 2, 2]            --
├─FusedConv2dBNReLU: 1-18                [16, 64, 2, 2]            4,166
│    └─OutputShiftSqueeze: 2-226         --                        --
│    └─One: 2-227                        [1]                       --
│    └─OutputScale: 2-228                --                        --
│    └─Empty: 2-229                      [64, 64, 1, 1]            --
│    └─Empty: 2-230                      [64, 64, 1, 1]            --
│    └─Empty: 2-231                      [64]                      --
│    └─Empty: 2-232                      [64]                      --
│    └─BatchNorm2d: 2-233                [16, 64, 2, 2]            --
│    └─Scaler: 2-234                     [16, 64, 2, 2]            --
│    └─ReLU: 2-235                       [16, 64, 2, 2]            --
│    └─Empty: 2-236                      [16, 64, 2, 2]            --
│    └─Clamp: 2-237                      [16, 64, 2, 2]            --
├─FusedMaxPoolConv2dBNReLU: 1-19         [16, 64, 2, 2]            36,934
│    └─MaxPool2d: 2-238                  [16, 64, 2, 2]            --
│    └─Empty: 2-239                      [16, 64, 2, 2]            --
│    └─Empty: 2-240                      [16, 64, 2, 2]            --
│    └─OutputShiftSqueeze: 2-241         --                        --
│    └─One: 2-242                        [1]                       --
│    └─OutputScale: 2-243                --                        --
│    └─Empty: 2-244                      [64, 64, 3, 3]            --
│    └─Empty: 2-245                      [64, 64, 3, 3]            --
│    └─Empty: 2-246                      [64]                      --
│    └─Empty: 2-247                      [64]                      --
│    └─BatchNorm2d: 2-248                [16, 64, 2, 2]            --
│    └─Scaler: 2-249                     [16, 64, 2, 2]            --
│    └─ReLU: 2-250                       [16, 64, 2, 2]            --
│    └─Empty: 2-251                      [16, 64, 2, 2]            --
│    └─Clamp: 2-252                      [16, 64, 2, 2]            --
├─FusedConv2dBNReLU: 1-20                [16, 64, 64, 64]          (recursive)
│    └─OutputShiftSqueeze: 2-253         --                        --
│    └─One: 2-254                        [1]                       --
│    └─OutputScale: 2-255                --                        --
│    └─Empty: 2-256                      [64, 48, 1, 1]            --
│    └─Empty: 2-257                      [64, 48, 1, 1]            --
│    └─Empty: 2-258                      [64]                      --
│    └─Empty: 2-259                      [64]                      --
│    └─BatchNorm2d: 2-260                [16, 64, 64, 64]          --
│    └─Scaler: 2-261                     [16, 64, 64, 64]          --
│    └─ReLU: 2-262                       [16, 64, 64, 64]          --
│    └─Empty: 2-263                      [16, 64, 64, 64]          --
│    └─Clamp: 2-264                      [16, 64, 64, 64]          --
├─FusedConv2dBNReLU: 1-21                [16, 64, 64, 64]          (recursive)
│    └─OutputShiftSqueeze: 2-265         --                        --
│    └─One: 2-266                        [1]                       --
│    └─OutputScale: 2-267                --                        --
│    └─Empty: 2-268                      [64, 64, 3, 3]            --
│    └─Empty: 2-269                      [64, 64, 3, 3]            --
│    └─Empty: 2-270                      [64]                      --
│    └─Empty: 2-271                      [64]                      --
│    └─BatchNorm2d: 2-272                [16, 64, 64, 64]          --
│    └─Scaler: 2-273                     [16, 64, 64, 64]          --
│    └─ReLU: 2-274                       [16, 64, 64, 64]          --
│    └─Empty: 2-275                      [16, 64, 64, 64]          --
│    └─Clamp: 2-276                      [16, 64, 64, 64]          --
├─FusedConv2dBNReLU: 1-22                [16, 64, 64, 64]          (recursive)
│    └─OutputShiftSqueeze: 2-277         --                        --
│    └─One: 2-278                        [1]                       --
│    └─OutputScale: 2-279                --                        --
│    └─Empty: 2-280                      [64, 64, 3, 3]            --
│    └─Empty: 2-281                      [64, 64, 3, 3]            --
│    └─Empty: 2-282                      [64]                      --
│    └─Empty: 2-283                      [64]                      --
│    └─BatchNorm2d: 2-284                [16, 64, 64, 64]          --
│    └─Scaler: 2-285                     [16, 64, 64, 64]          --
│    └─ReLU: 2-286                       [16, 64, 64, 64]          --
│    └─Empty: 2-287                      [16, 64, 64, 64]          --
│    └─Clamp: 2-288                      [16, 64, 64, 64]          --
├─FusedConv2dBNReLU: 1-23                [16, 64, 64, 64]          (recursive)
│    └─OutputShiftSqueeze: 2-289         --                        --
│    └─One: 2-290                        [1]                       --
│    └─OutputScale: 2-291                --                        --
│    └─Empty: 2-292                      [64, 64, 1, 1]            --
│    └─Empty: 2-293                      [64, 64, 1, 1]            --
│    └─Empty: 2-294                      [64]                      --
│    └─Empty: 2-295                      [64]                      --
│    └─BatchNorm2d: 2-296                [16, 64, 64, 64]          --
│    └─Scaler: 2-297                     [16, 64, 64, 64]          --
│    └─ReLU: 2-298                       [16, 64, 64, 64]          --
│    └─Empty: 2-299                      [16, 64, 64, 64]          --
│    └─Clamp: 2-300                      [16, 64, 64, 64]          --
├─FusedConv2dBNReLU: 1-24                [16, 64, 64, 64]          (recursive)
│    └─OutputShiftSqueeze: 2-301         --                        --
│    └─One: 2-302                        [1]                       --
│    └─OutputScale: 2-303                --                        --
│    └─Empty: 2-304                      [64, 64, 3, 3]            --
│    └─Empty: 2-305                      [64, 64, 3, 3]            --
│    └─Empty: 2-306                      [64]                      --
│    └─Empty: 2-307                      [64]                      --
│    └─BatchNorm2d: 2-308                [16, 64, 64, 64]          --
│    └─Scaler: 2-309                     [16, 64, 64, 64]          --
│    └─ReLU: 2-310                       [16, 64, 64, 64]          --
│    └─Empty: 2-311                      [16, 64, 64, 64]          --
│    └─Clamp: 2-312                      [16, 64, 64, 64]          --
├─FusedConv2dBNReLU: 1-25                [16, 64, 64, 64]          (recursive)
│    └─OutputShiftSqueeze: 2-313         --                        --
│    └─One: 2-314                        [1]                       --
│    └─OutputScale: 2-315                --                        --
│    └─Empty: 2-316                      [64, 64, 3, 3]            --
│    └─Empty: 2-317                      [64, 64, 3, 3]            --
│    └─Empty: 2-318                      [64]                      --
│    └─Empty: 2-319                      [64]                      --
│    └─BatchNorm2d: 2-320                [16, 64, 64, 64]          --
│    └─Scaler: 2-321                     [16, 64, 64, 64]          --
│    └─ReLU: 2-322                       [16, 64, 64, 64]          --
│    └─Empty: 2-323                      [16, 64, 64, 64]          --
│    └─Clamp: 2-324                      [16, 64, 64, 64]          --
├─FusedMaxPoolConv2dBNReLU: 1-26         [16, 64, 32, 32]          (recursive)
│    └─MaxPool2d: 2-325                  [16, 64, 32, 32]          --
│    └─Empty: 2-326                      [16, 64, 32, 32]          --
│    └─Empty: 2-327                      [16, 64, 32, 32]          --
│    └─OutputShiftSqueeze: 2-328         --                        --
│    └─One: 2-329                        [1]                       --
│    └─OutputScale: 2-330                --                        --
│    └─Empty: 2-331                      [64, 64, 3, 3]            --
│    └─Empty: 2-332                      [64, 64, 3, 3]            --
│    └─Empty: 2-333                      [64]                      --
│    └─Empty: 2-334                      [64]                      --
│    └─BatchNorm2d: 2-335                [16, 64, 32, 32]          --
│    └─Scaler: 2-336                     [16, 64, 32, 32]          --
│    └─ReLU: 2-337                       [16, 64, 32, 32]          --
│    └─Empty: 2-338                      [16, 64, 32, 32]          --
│    └─Clamp: 2-339                      [16, 64, 32, 32]          --
├─FusedConv2dBNReLU: 1-27                [16, 64, 32, 32]          (recursive)
│    └─OutputShiftSqueeze: 2-340         --                        --
│    └─One: 2-341                        [1]                       --
│    └─OutputScale: 2-342                --                        --
│    └─Empty: 2-343                      [64, 64, 3, 3]            --
│    └─Empty: 2-344                      [64, 64, 3, 3]            --
│    └─Empty: 2-345                      [64]                      --
│    └─Empty: 2-346                      [64]                      --
│    └─BatchNorm2d: 2-347                [16, 64, 32, 32]          --
│    └─Scaler: 2-348                     [16, 64, 32, 32]          --
│    └─ReLU: 2-349                       [16, 64, 32, 32]          --
│    └─Empty: 2-350                      [16, 64, 32, 32]          --
│    └─Clamp: 2-351                      [16, 64, 32, 32]          --
├─FusedMaxPoolConv2dBNReLU: 1-28         [16, 64, 16, 16]          (recursive)
│    └─MaxPool2d: 2-352                  [16, 64, 16, 16]          --
│    └─Empty: 2-353                      [16, 64, 16, 16]          --
│    └─Empty: 2-354                      [16, 64, 16, 16]          --
│    └─OutputShiftSqueeze: 2-355         --                        --
│    └─One: 2-356                        [1]                       --
│    └─OutputScale: 2-357                --                        --
│    └─Empty: 2-358                      [64, 64, 3, 3]            --
│    └─Empty: 2-359                      [64, 64, 3, 3]            --
│    └─Empty: 2-360                      [64]                      --
│    └─Empty: 2-361                      [64]                      --
│    └─BatchNorm2d: 2-362                [16, 64, 16, 16]          --
│    └─Scaler: 2-363                     [16, 64, 16, 16]          --
│    └─ReLU: 2-364                       [16, 64, 16, 16]          --
│    └─Empty: 2-365                      [16, 64, 16, 16]          --
│    └─Clamp: 2-366                      [16, 64, 16, 16]          --
├─FusedConv2dBNReLU: 1-29                [16, 64, 16, 16]          (recursive)
│    └─OutputShiftSqueeze: 2-367         --                        --
│    └─One: 2-368                        [1]                       --
│    └─OutputScale: 2-369                --                        --
│    └─Empty: 2-370                      [64, 64, 3, 3]            --
│    └─Empty: 2-371                      [64, 64, 3, 3]            --
│    └─Empty: 2-372                      [64]                      --
│    └─Empty: 2-373                      [64]                      --
│    └─BatchNorm2d: 2-374                [16, 64, 16, 16]          --
│    └─Scaler: 2-375                     [16, 64, 16, 16]          --
│    └─ReLU: 2-376                       [16, 64, 16, 16]          --
│    └─Empty: 2-377                      [16, 64, 16, 16]          --
│    └─Clamp: 2-378                      [16, 64, 16, 16]          --
├─FusedMaxPoolConv2dBNReLU: 1-30         [16, 64, 8, 8]            (recursive)
│    └─MaxPool2d: 2-379                  [16, 64, 8, 8]            --
│    └─Empty: 2-380                      [16, 64, 8, 8]            --
│    └─Empty: 2-381                      [16, 64, 8, 8]            --
│    └─OutputShiftSqueeze: 2-382         --                        --
│    └─One: 2-383                        [1]                       --
│    └─OutputScale: 2-384                --                        --
│    └─Empty: 2-385                      [64, 64, 3, 3]            --
│    └─Empty: 2-386                      [64, 64, 3, 3]            --
│    └─Empty: 2-387                      [64]                      --
│    └─Empty: 2-388                      [64]                      --
│    └─BatchNorm2d: 2-389                [16, 64, 8, 8]            --
│    └─Scaler: 2-390                     [16, 64, 8, 8]            --
│    └─ReLU: 2-391                       [16, 64, 8, 8]            --
│    └─Empty: 2-392                      [16, 64, 8, 8]            --
│    └─Clamp: 2-393                      [16, 64, 8, 8]            --
├─FusedConv2dBNReLU: 1-31                [16, 64, 8, 8]            (recursive)
│    └─OutputShiftSqueeze: 2-394         --                        --
│    └─One: 2-395                        [1]                       --
│    └─OutputScale: 2-396                --                        --
│    └─Empty: 2-397                      [64, 64, 1, 1]            --
│    └─Empty: 2-398                      [64, 64, 1, 1]            --
│    └─Empty: 2-399                      [64]                      --
│    └─Empty: 2-400                      [64]                      --
│    └─BatchNorm2d: 2-401                [16, 64, 8, 8]            --
│    └─Scaler: 2-402                     [16, 64, 8, 8]            --
│    └─ReLU: 2-403                       [16, 64, 8, 8]            --
│    └─Empty: 2-404                      [16, 64, 8, 8]            --
│    └─Clamp: 2-405                      [16, 64, 8, 8]            --
├─FusedMaxPoolConv2dBNReLU: 1-32         [16, 64, 8, 8]            (recursive)
│    └─MaxPool2d: 2-406                  [16, 64, 8, 8]            --
│    └─Empty: 2-407                      [16, 64, 8, 8]            --
│    └─Empty: 2-408                      [16, 64, 8, 8]            --
│    └─OutputShiftSqueeze: 2-409         --                        --
│    └─One: 2-410                        [1]                       --
│    └─OutputScale: 2-411                --                        --
│    └─Empty: 2-412                      [64, 64, 3, 3]            --
│    └─Empty: 2-413                      [64, 64, 3, 3]            --
│    └─Empty: 2-414                      [64]                      --
│    └─Empty: 2-415                      [64]                      --
│    └─BatchNorm2d: 2-416                [16, 64, 8, 8]            --
│    └─Scaler: 2-417                     [16, 64, 8, 8]            --
│    └─ReLU: 2-418                       [16, 64, 8, 8]            --
│    └─Empty: 2-419                      [16, 64, 8, 8]            --
│    └─Clamp: 2-420                      [16, 64, 8, 8]            --
├─FusedMaxPoolConv2dBNReLU: 1-33         [16, 64, 4, 4]            (recursive)
│    └─MaxPool2d: 2-421                  [16, 64, 4, 4]            --
│    └─Empty: 2-422                      [16, 64, 4, 4]            --
│    └─Empty: 2-423                      [16, 64, 4, 4]            --
│    └─OutputShiftSqueeze: 2-424         --                        --
│    └─One: 2-425                        [1]                       --
│    └─OutputScale: 2-426                --                        --
│    └─Empty: 2-427                      [64, 64, 3, 3]            --
│    └─Empty: 2-428                      [64, 64, 3, 3]            --
│    └─Empty: 2-429                      [64]                      --
│    └─Empty: 2-430                      [64]                      --
│    └─BatchNorm2d: 2-431                [16, 64, 4, 4]            --
│    └─Scaler: 2-432                     [16, 64, 4, 4]            --
│    └─ReLU: 2-433                       [16, 64, 4, 4]            --
│    └─Empty: 2-434                      [16, 64, 4, 4]            --
│    └─Clamp: 2-435                      [16, 64, 4, 4]            --
├─FusedConv2dBNReLU: 1-34                [16, 64, 4, 4]            (recursive)
│    └─OutputShiftSqueeze: 2-436         --                        --
│    └─One: 2-437                        [1]                       --
│    └─OutputScale: 2-438                --                        --
│    └─Empty: 2-439                      [64, 64, 1, 1]            --
│    └─Empty: 2-440                      [64, 64, 1, 1]            --
│    └─Empty: 2-441                      [64]                      --
│    └─Empty: 2-442                      [64]                      --
│    └─BatchNorm2d: 2-443                [16, 64, 4, 4]            --
│    └─Scaler: 2-444                     [16, 64, 4, 4]            --
│    └─ReLU: 2-445                       [16, 64, 4, 4]            --
│    └─Empty: 2-446                      [16, 64, 4, 4]            --
│    └─Clamp: 2-447                      [16, 64, 4, 4]            --
├─FusedMaxPoolConv2dBNReLU: 1-35         [16, 64, 4, 4]            (recursive)
│    └─MaxPool2d: 2-448                  [16, 64, 4, 4]            --
│    └─Empty: 2-449                      [16, 64, 4, 4]            --
│    └─Empty: 2-450                      [16, 64, 4, 4]            --
│    └─OutputShiftSqueeze: 2-451         --                        --
│    └─One: 2-452                        [1]                       --
│    └─OutputScale: 2-453                --                        --
│    └─Empty: 2-454                      [64, 64, 3, 3]            --
│    └─Empty: 2-455                      [64, 64, 3, 3]            --
│    └─Empty: 2-456                      [64]                      --
│    └─Empty: 2-457                      [64]                      --
│    └─BatchNorm2d: 2-458                [16, 64, 4, 4]            --
│    └─Scaler: 2-459                     [16, 64, 4, 4]            --
│    └─ReLU: 2-460                       [16, 64, 4, 4]            --
│    └─Empty: 2-461                      [16, 64, 4, 4]            --
│    └─Clamp: 2-462                      [16, 64, 4, 4]            --
├─FusedMaxPoolConv2dBNReLU: 1-36         [16, 64, 2, 2]            (recursive)
│    └─MaxPool2d: 2-463                  [16, 64, 2, 2]            --
│    └─Empty: 2-464                      [16, 64, 2, 2]            --
│    └─Empty: 2-465                      [16, 64, 2, 2]            --
│    └─OutputShiftSqueeze: 2-466         --                        --
│    └─One: 2-467                        [1]                       --
│    └─OutputScale: 2-468                --                        --
│    └─Empty: 2-469                      [64, 64, 3, 3]            --
│    └─Empty: 2-470                      [64, 64, 3, 3]            --
│    └─Empty: 2-471                      [64]                      --
│    └─Empty: 2-472                      [64]                      --
│    └─BatchNorm2d: 2-473                [16, 64, 2, 2]            --
│    └─Scaler: 2-474                     [16, 64, 2, 2]            --
│    └─ReLU: 2-475                       [16, 64, 2, 2]            --
│    └─Empty: 2-476                      [16, 64, 2, 2]            --
│    └─Clamp: 2-477                      [16, 64, 2, 2]            --
├─FusedConv2dBNReLU: 1-37                [16, 64, 2, 2]            (recursive)
│    └─OutputShiftSqueeze: 2-478         --                        --
│    └─One: 2-479                        [1]                       --
│    └─OutputScale: 2-480                --                        --
│    └─Empty: 2-481                      [64, 64, 1, 1]            --
│    └─Empty: 2-482                      [64, 64, 1, 1]            --
│    └─Empty: 2-483                      [64]                      --
│    └─Empty: 2-484                      [64]                      --
│    └─BatchNorm2d: 2-485                [16, 64, 2, 2]            --
│    └─Scaler: 2-486                     [16, 64, 2, 2]            --
│    └─ReLU: 2-487                       [16, 64, 2, 2]            --
│    └─Empty: 2-488                      [16, 64, 2, 2]            --
│    └─Clamp: 2-489                      [16, 64, 2, 2]            --
├─FusedMaxPoolConv2dBNReLU: 1-38         [16, 64, 2, 2]            (recursive)
│    └─MaxPool2d: 2-490                  [16, 64, 2, 2]            --
│    └─Empty: 2-491                      [16, 64, 2, 2]            --
│    └─Empty: 2-492                      [16, 64, 2, 2]            --
│    └─OutputShiftSqueeze: 2-493         --                        --
│    └─One: 2-494                        [1]                       --
│    └─OutputScale: 2-495                --                        --
│    └─Empty: 2-496                      [64, 64, 3, 3]            --
│    └─Empty: 2-497                      [64, 64, 3, 3]            --
│    └─Empty: 2-498                      [64]                      --
│    └─Empty: 2-499                      [64]                      --
│    └─BatchNorm2d: 2-500                [16, 64, 2, 2]            --
│    └─Scaler: 2-501                     [16, 64, 2, 2]            --
│    └─ReLU: 2-502                       [16, 64, 2, 2]            --
│    └─Empty: 2-503                      [16, 64, 2, 2]            --
│    └─Clamp: 2-504                      [16, 64, 2, 2]            --
├─FusedConv2dBNReLU: 1-39                [16, 64, 64, 64]          (recursive)
│    └─OutputShiftSqueeze: 2-505         --                        --
│    └─One: 2-506                        [1]                       --
│    └─OutputScale: 2-507                --                        --
│    └─Empty: 2-508                      [64, 48, 1, 1]            --
│    └─Empty: 2-509                      [64, 48, 1, 1]            --
│    └─Empty: 2-510                      [64]                      --
│    └─Empty: 2-511                      [64]                      --
│    └─BatchNorm2d: 2-512                [16, 64, 64, 64]          --
│    └─Scaler: 2-513                     [16, 64, 64, 64]          --
│    └─ReLU: 2-514                       [16, 64, 64, 64]          --
│    └─Empty: 2-515                      [16, 64, 64, 64]          --
│    └─Clamp: 2-516                      [16, 64, 64, 64]          --
├─FusedConv2dBNReLU: 1-40                [16, 64, 64, 64]          (recursive)
│    └─OutputShiftSqueeze: 2-517         --                        --
│    └─One: 2-518                        [1]                       --
│    └─OutputScale: 2-519                --                        --
│    └─Empty: 2-520                      [64, 64, 3, 3]            --
│    └─Empty: 2-521                      [64, 64, 3, 3]            --
│    └─Empty: 2-522                      [64]                      --
│    └─Empty: 2-523                      [64]                      --
│    └─BatchNorm2d: 2-524                [16, 64, 64, 64]          --
│    └─Scaler: 2-525                     [16, 64, 64, 64]          --
│    └─ReLU: 2-526                       [16, 64, 64, 64]          --
│    └─Empty: 2-527                      [16, 64, 64, 64]          --
│    └─Clamp: 2-528                      [16, 64, 64, 64]          --
├─FusedConv2dBNReLU: 1-41                [16, 64, 64, 64]          (recursive)
│    └─OutputShiftSqueeze: 2-529         --                        --
│    └─One: 2-530                        [1]                       --
│    └─OutputScale: 2-531                --                        --
│    └─Empty: 2-532                      [64, 64, 3, 3]            --
│    └─Empty: 2-533                      [64, 64, 3, 3]            --
│    └─Empty: 2-534                      [64]                      --
│    └─Empty: 2-535                      [64]                      --
│    └─BatchNorm2d: 2-536                [16, 64, 64, 64]          --
│    └─Scaler: 2-537                     [16, 64, 64, 64]          --
│    └─ReLU: 2-538                       [16, 64, 64, 64]          --
│    └─Empty: 2-539                      [16, 64, 64, 64]          --
│    └─Clamp: 2-540                      [16, 64, 64, 64]          --
├─FusedConv2dBNReLU: 1-42                [16, 64, 64, 64]          (recursive)
│    └─OutputShiftSqueeze: 2-541         --                        --
│    └─One: 2-542                        [1]                       --
│    └─OutputScale: 2-543                --                        --
│    └─Empty: 2-544                      [64, 64, 1, 1]            --
│    └─Empty: 2-545                      [64, 64, 1, 1]            --
│    └─Empty: 2-546                      [64]                      --
│    └─Empty: 2-547                      [64]                      --
│    └─BatchNorm2d: 2-548                [16, 64, 64, 64]          --
│    └─Scaler: 2-549                     [16, 64, 64, 64]          --
│    └─ReLU: 2-550                       [16, 64, 64, 64]          --
│    └─Empty: 2-551                      [16, 64, 64, 64]          --
│    └─Clamp: 2-552                      [16, 64, 64, 64]          --
├─FusedConv2dBNReLU: 1-43                [16, 64, 64, 64]          (recursive)
│    └─OutputShiftSqueeze: 2-553         --                        --
│    └─One: 2-554                        [1]                       --
│    └─OutputScale: 2-555                --                        --
│    └─Empty: 2-556                      [64, 64, 3, 3]            --
│    └─Empty: 2-557                      [64, 64, 3, 3]            --
│    └─Empty: 2-558                      [64]                      --
│    └─Empty: 2-559                      [64]                      --
│    └─BatchNorm2d: 2-560                [16, 64, 64, 64]          --
│    └─Scaler: 2-561                     [16, 64, 64, 64]          --
│    └─ReLU: 2-562                       [16, 64, 64, 64]          --
│    └─Empty: 2-563                      [16, 64, 64, 64]          --
│    └─Clamp: 2-564                      [16, 64, 64, 64]          --
├─FusedConv2dBNReLU: 1-44                [16, 64, 64, 64]          (recursive)
│    └─OutputShiftSqueeze: 2-565         --                        --
│    └─One: 2-566                        [1]                       --
│    └─OutputScale: 2-567                --                        --
│    └─Empty: 2-568                      [64, 64, 3, 3]            --
│    └─Empty: 2-569                      [64, 64, 3, 3]            --
│    └─Empty: 2-570                      [64]                      --
│    └─Empty: 2-571                      [64]                      --
│    └─BatchNorm2d: 2-572                [16, 64, 64, 64]          --
│    └─Scaler: 2-573                     [16, 64, 64, 64]          --
│    └─ReLU: 2-574                       [16, 64, 64, 64]          --
│    └─Empty: 2-575                      [16, 64, 64, 64]          --
│    └─Clamp: 2-576                      [16, 64, 64, 64]          --
├─FusedMaxPoolConv2dBNReLU: 1-45         [16, 64, 32, 32]          (recursive)
│    └─MaxPool2d: 2-577                  [16, 64, 32, 32]          --
│    └─Empty: 2-578                      [16, 64, 32, 32]          --
│    └─Empty: 2-579                      [16, 64, 32, 32]          --
│    └─OutputShiftSqueeze: 2-580         --                        --
│    └─One: 2-581                        [1]                       --
│    └─OutputScale: 2-582                --                        --
│    └─Empty: 2-583                      [64, 64, 3, 3]            --
│    └─Empty: 2-584                      [64, 64, 3, 3]            --
│    └─Empty: 2-585                      [64]                      --
│    └─Empty: 2-586                      [64]                      --
│    └─BatchNorm2d: 2-587                [16, 64, 32, 32]          --
│    └─Scaler: 2-588                     [16, 64, 32, 32]          --
│    └─ReLU: 2-589                       [16, 64, 32, 32]          --
│    └─Empty: 2-590                      [16, 64, 32, 32]          --
│    └─Clamp: 2-591                      [16, 64, 32, 32]          --
├─FusedConv2dBNReLU: 1-46                [16, 64, 32, 32]          (recursive)
│    └─OutputShiftSqueeze: 2-592         --                        --
│    └─One: 2-593                        [1]                       --
│    └─OutputScale: 2-594                --                        --
│    └─Empty: 2-595                      [64, 64, 3, 3]            --
│    └─Empty: 2-596                      [64, 64, 3, 3]            --
│    └─Empty: 2-597                      [64]                      --
│    └─Empty: 2-598                      [64]                      --
│    └─BatchNorm2d: 2-599                [16, 64, 32, 32]          --
│    └─Scaler: 2-600                     [16, 64, 32, 32]          --
│    └─ReLU: 2-601                       [16, 64, 32, 32]          --
│    └─Empty: 2-602                      [16, 64, 32, 32]          --
│    └─Clamp: 2-603                      [16, 64, 32, 32]          --
├─FusedMaxPoolConv2dBNReLU: 1-47         [16, 64, 16, 16]          (recursive)
│    └─MaxPool2d: 2-604                  [16, 64, 16, 16]          --
│    └─Empty: 2-605                      [16, 64, 16, 16]          --
│    └─Empty: 2-606                      [16, 64, 16, 16]          --
│    └─OutputShiftSqueeze: 2-607         --                        --
│    └─One: 2-608                        [1]                       --
│    └─OutputScale: 2-609                --                        --
│    └─Empty: 2-610                      [64, 64, 3, 3]            --
│    └─Empty: 2-611                      [64, 64, 3, 3]            --
│    └─Empty: 2-612                      [64]                      --
│    └─Empty: 2-613                      [64]                      --
│    └─BatchNorm2d: 2-614                [16, 64, 16, 16]          --
│    └─Scaler: 2-615                     [16, 64, 16, 16]          --
│    └─ReLU: 2-616                       [16, 64, 16, 16]          --
│    └─Empty: 2-617                      [16, 64, 16, 16]          --
│    └─Clamp: 2-618                      [16, 64, 16, 16]          --
├─FusedConv2dBNReLU: 1-48                [16, 64, 16, 16]          (recursive)
│    └─OutputShiftSqueeze: 2-619         --                        --
│    └─One: 2-620                        [1]                       --
│    └─OutputScale: 2-621                --                        --
│    └─Empty: 2-622                      [64, 64, 3, 3]            --
│    └─Empty: 2-623                      [64, 64, 3, 3]            --
│    └─Empty: 2-624                      [64]                      --
│    └─Empty: 2-625                      [64]                      --
│    └─BatchNorm2d: 2-626                [16, 64, 16, 16]          --
│    └─Scaler: 2-627                     [16, 64, 16, 16]          --
│    └─ReLU: 2-628                       [16, 64, 16, 16]          --
│    └─Empty: 2-629                      [16, 64, 16, 16]          --
│    └─Clamp: 2-630                      [16, 64, 16, 16]          --
├─FusedMaxPoolConv2dBNReLU: 1-49         [16, 64, 8, 8]            (recursive)
│    └─MaxPool2d: 2-631                  [16, 64, 8, 8]            --
│    └─Empty: 2-632                      [16, 64, 8, 8]            --
│    └─Empty: 2-633                      [16, 64, 8, 8]            --
│    └─OutputShiftSqueeze: 2-634         --                        --
│    └─One: 2-635                        [1]                       --
│    └─OutputScale: 2-636                --                        --
│    └─Empty: 2-637                      [64, 64, 3, 3]            --
│    └─Empty: 2-638                      [64, 64, 3, 3]            --
│    └─Empty: 2-639                      [64]                      --
│    └─Empty: 2-640                      [64]                      --
│    └─BatchNorm2d: 2-641                [16, 64, 8, 8]            --
│    └─Scaler: 2-642                     [16, 64, 8, 8]            --
│    └─ReLU: 2-643                       [16, 64, 8, 8]            --
│    └─Empty: 2-644                      [16, 64, 8, 8]            --
│    └─Clamp: 2-645                      [16, 64, 8, 8]            --
├─FusedConv2dBNReLU: 1-50                [16, 64, 8, 8]            (recursive)
│    └─OutputShiftSqueeze: 2-646         --                        --
│    └─One: 2-647                        [1]                       --
│    └─OutputScale: 2-648                --                        --
│    └─Empty: 2-649                      [64, 64, 1, 1]            --
│    └─Empty: 2-650                      [64, 64, 1, 1]            --
│    └─Empty: 2-651                      [64]                      --
│    └─Empty: 2-652                      [64]                      --
│    └─BatchNorm2d: 2-653                [16, 64, 8, 8]            --
│    └─Scaler: 2-654                     [16, 64, 8, 8]            --
│    └─ReLU: 2-655                       [16, 64, 8, 8]            --
│    └─Empty: 2-656                      [16, 64, 8, 8]            --
│    └─Clamp: 2-657                      [16, 64, 8, 8]            --
├─FusedMaxPoolConv2dBNReLU: 1-51         [16, 64, 8, 8]            (recursive)
│    └─MaxPool2d: 2-658                  [16, 64, 8, 8]            --
│    └─Empty: 2-659                      [16, 64, 8, 8]            --
│    └─Empty: 2-660                      [16, 64, 8, 8]            --
│    └─OutputShiftSqueeze: 2-661         --                        --
│    └─One: 2-662                        [1]                       --
│    └─OutputScale: 2-663                --                        --
│    └─Empty: 2-664                      [64, 64, 3, 3]            --
│    └─Empty: 2-665                      [64, 64, 3, 3]            --
│    └─Empty: 2-666                      [64]                      --
│    └─Empty: 2-667                      [64]                      --
│    └─BatchNorm2d: 2-668                [16, 64, 8, 8]            --
│    └─Scaler: 2-669                     [16, 64, 8, 8]            --
│    └─ReLU: 2-670                       [16, 64, 8, 8]            --
│    └─Empty: 2-671                      [16, 64, 8, 8]            --
│    └─Clamp: 2-672                      [16, 64, 8, 8]            --
├─FusedMaxPoolConv2dBNReLU: 1-52         [16, 64, 4, 4]            (recursive)
│    └─MaxPool2d: 2-673                  [16, 64, 4, 4]            --
│    └─Empty: 2-674                      [16, 64, 4, 4]            --
│    └─Empty: 2-675                      [16, 64, 4, 4]            --
│    └─OutputShiftSqueeze: 2-676         --                        --
│    └─One: 2-677                        [1]                       --
│    └─OutputScale: 2-678                --                        --
│    └─Empty: 2-679                      [64, 64, 3, 3]            --
│    └─Empty: 2-680                      [64, 64, 3, 3]            --
│    └─Empty: 2-681                      [64]                      --
│    └─Empty: 2-682                      [64]                      --
│    └─BatchNorm2d: 2-683                [16, 64, 4, 4]            --
│    └─Scaler: 2-684                     [16, 64, 4, 4]            --
│    └─ReLU: 2-685                       [16, 64, 4, 4]            --
│    └─Empty: 2-686                      [16, 64, 4, 4]            --
│    └─Clamp: 2-687                      [16, 64, 4, 4]            --
├─FusedConv2dBNReLU: 1-53                [16, 64, 4, 4]            (recursive)
│    └─OutputShiftSqueeze: 2-688         --                        --
│    └─One: 2-689                        [1]                       --
│    └─OutputScale: 2-690                --                        --
│    └─Empty: 2-691                      [64, 64, 1, 1]            --
│    └─Empty: 2-692                      [64, 64, 1, 1]            --
│    └─Empty: 2-693                      [64]                      --
│    └─Empty: 2-694                      [64]                      --
│    └─BatchNorm2d: 2-695                [16, 64, 4, 4]            --
│    └─Scaler: 2-696                     [16, 64, 4, 4]            --
│    └─ReLU: 2-697                       [16, 64, 4, 4]            --
│    └─Empty: 2-698                      [16, 64, 4, 4]            --
│    └─Clamp: 2-699                      [16, 64, 4, 4]            --
├─FusedMaxPoolConv2dBNReLU: 1-54         [16, 64, 4, 4]            (recursive)
│    └─MaxPool2d: 2-700                  [16, 64, 4, 4]            --
│    └─Empty: 2-701                      [16, 64, 4, 4]            --
│    └─Empty: 2-702                      [16, 64, 4, 4]            --
│    └─OutputShiftSqueeze: 2-703         --                        --
│    └─One: 2-704                        [1]                       --
│    └─OutputScale: 2-705                --                        --
│    └─Empty: 2-706                      [64, 64, 3, 3]            --
│    └─Empty: 2-707                      [64, 64, 3, 3]            --
│    └─Empty: 2-708                      [64]                      --
│    └─Empty: 2-709                      [64]                      --
│    └─BatchNorm2d: 2-710                [16, 64, 4, 4]            --
│    └─Scaler: 2-711                     [16, 64, 4, 4]            --
│    └─ReLU: 2-712                       [16, 64, 4, 4]            --
│    └─Empty: 2-713                      [16, 64, 4, 4]            --
│    └─Clamp: 2-714                      [16, 64, 4, 4]            --
├─FusedMaxPoolConv2dBNReLU: 1-55         [16, 64, 2, 2]            (recursive)
│    └─MaxPool2d: 2-715                  [16, 64, 2, 2]            --
│    └─Empty: 2-716                      [16, 64, 2, 2]            --
│    └─Empty: 2-717                      [16, 64, 2, 2]            --
│    └─OutputShiftSqueeze: 2-718         --                        --
│    └─One: 2-719                        [1]                       --
│    └─OutputScale: 2-720                --                        --
│    └─Empty: 2-721                      [64, 64, 3, 3]            --
│    └─Empty: 2-722                      [64, 64, 3, 3]            --
│    └─Empty: 2-723                      [64]                      --
│    └─Empty: 2-724                      [64]                      --
│    └─BatchNorm2d: 2-725                [16, 64, 2, 2]            --
│    └─Scaler: 2-726                     [16, 64, 2, 2]            --
│    └─ReLU: 2-727                       [16, 64, 2, 2]            --
│    └─Empty: 2-728                      [16, 64, 2, 2]            --
│    └─Clamp: 2-729                      [16, 64, 2, 2]            --
├─FusedConv2dBNReLU: 1-56                [16, 64, 2, 2]            (recursive)
│    └─OutputShiftSqueeze: 2-730         --                        --
│    └─One: 2-731                        [1]                       --
│    └─OutputScale: 2-732                --                        --
│    └─Empty: 2-733                      [64, 64, 1, 1]            --
│    └─Empty: 2-734                      [64, 64, 1, 1]            --
│    └─Empty: 2-735                      [64]                      --
│    └─Empty: 2-736                      [64]                      --
│    └─BatchNorm2d: 2-737                [16, 64, 2, 2]            --
│    └─Scaler: 2-738                     [16, 64, 2, 2]            --
│    └─ReLU: 2-739                       [16, 64, 2, 2]            --
│    └─Empty: 2-740                      [16, 64, 2, 2]            --
│    └─Clamp: 2-741                      [16, 64, 2, 2]            --
├─FusedMaxPoolConv2dBNReLU: 1-57         [16, 64, 2, 2]            (recursive)
│    └─MaxPool2d: 2-742                  [16, 64, 2, 2]            --
│    └─Empty: 2-743                      [16, 64, 2, 2]            --
│    └─Empty: 2-744                      [16, 64, 2, 2]            --
│    └─OutputShiftSqueeze: 2-745         --                        --
│    └─One: 2-746                        [1]                       --
│    └─OutputScale: 2-747                --                        --
│    └─Empty: 2-748                      [64, 64, 3, 3]            --
│    └─Empty: 2-749                      [64, 64, 3, 3]            --
│    └─Empty: 2-750                      [64]                      --
│    └─Empty: 2-751                      [64]                      --
│    └─BatchNorm2d: 2-752                [16, 64, 2, 2]            --
│    └─Scaler: 2-753                     [16, 64, 2, 2]            --
│    └─ReLU: 2-754                       [16, 64, 2, 2]            --
│    └─Empty: 2-755                      [16, 64, 2, 2]            --
│    └─Clamp: 2-756                      [16, 64, 2, 2]            --
├─FusedConv2dBNReLU: 1-58                [16, 64, 64, 64]          (recursive)
│    └─OutputShiftSqueeze: 2-757         --                        --
│    └─One: 2-758                        [1]                       --
│    └─OutputScale: 2-759                --                        --
│    └─Empty: 2-760                      [64, 48, 1, 1]            --
│    └─Empty: 2-761                      [64, 48, 1, 1]            --
│    └─Empty: 2-762                      [64]                      --
│    └─Empty: 2-763                      [64]                      --
│    └─BatchNorm2d: 2-764                [16, 64, 64, 64]          --
│    └─Scaler: 2-765                     [16, 64, 64, 64]          --
│    └─ReLU: 2-766                       [16, 64, 64, 64]          --
│    └─Empty: 2-767                      [16, 64, 64, 64]          --
│    └─Clamp: 2-768                      [16, 64, 64, 64]          --
├─FusedConv2dBNReLU: 1-59                [16, 64, 64, 64]          (recursive)
│    └─OutputShiftSqueeze: 2-769         --                        --
│    └─One: 2-770                        [1]                       --
│    └─OutputScale: 2-771                --                        --
│    └─Empty: 2-772                      [64, 64, 3, 3]            --
│    └─Empty: 2-773                      [64, 64, 3, 3]            --
│    └─Empty: 2-774                      [64]                      --
│    └─Empty: 2-775                      [64]                      --
│    └─BatchNorm2d: 2-776                [16, 64, 64, 64]          --
│    └─Scaler: 2-777                     [16, 64, 64, 64]          --
│    └─ReLU: 2-778                       [16, 64, 64, 64]          --
│    └─Empty: 2-779                      [16, 64, 64, 64]          --
│    └─Clamp: 2-780                      [16, 64, 64, 64]          --
├─FusedConv2dBNReLU: 1-60                [16, 64, 64, 64]          (recursive)
│    └─OutputShiftSqueeze: 2-781         --                        --
│    └─One: 2-782                        [1]                       --
│    └─OutputScale: 2-783                --                        --
│    └─Empty: 2-784                      [64, 64, 3, 3]            --
│    └─Empty: 2-785                      [64, 64, 3, 3]            --
│    └─Empty: 2-786                      [64]                      --
│    └─Empty: 2-787                      [64]                      --
│    └─BatchNorm2d: 2-788                [16, 64, 64, 64]          --
│    └─Scaler: 2-789                     [16, 64, 64, 64]          --
│    └─ReLU: 2-790                       [16, 64, 64, 64]          --
│    └─Empty: 2-791                      [16, 64, 64, 64]          --
│    └─Clamp: 2-792                      [16, 64, 64, 64]          --
├─FusedConv2dBNReLU: 1-61                [16, 64, 64, 64]          (recursive)
│    └─OutputShiftSqueeze: 2-793         --                        --
│    └─One: 2-794                        [1]                       --
│    └─OutputScale: 2-795                --                        --
│    └─Empty: 2-796                      [64, 64, 1, 1]            --
│    └─Empty: 2-797                      [64, 64, 1, 1]            --
│    └─Empty: 2-798                      [64]                      --
│    └─Empty: 2-799                      [64]                      --
│    └─BatchNorm2d: 2-800                [16, 64, 64, 64]          --
│    └─Scaler: 2-801                     [16, 64, 64, 64]          --
│    └─ReLU: 2-802                       [16, 64, 64, 64]          --
│    └─Empty: 2-803                      [16, 64, 64, 64]          --
│    └─Clamp: 2-804                      [16, 64, 64, 64]          --
├─FusedConv2dBNReLU: 1-62                [16, 64, 64, 64]          (recursive)
│    └─OutputShiftSqueeze: 2-805         --                        --
│    └─One: 2-806                        [1]                       --
│    └─OutputScale: 2-807                --                        --
│    └─Empty: 2-808                      [64, 64, 3, 3]            --
│    └─Empty: 2-809                      [64, 64, 3, 3]            --
│    └─Empty: 2-810                      [64]                      --
│    └─Empty: 2-811                      [64]                      --
│    └─BatchNorm2d: 2-812                [16, 64, 64, 64]          --
│    └─Scaler: 2-813                     [16, 64, 64, 64]          --
│    └─ReLU: 2-814                       [16, 64, 64, 64]          --
│    └─Empty: 2-815                      [16, 64, 64, 64]          --
│    └─Clamp: 2-816                      [16, 64, 64, 64]          --
├─FusedConv2dBNReLU: 1-63                [16, 64, 64, 64]          (recursive)
│    └─OutputShiftSqueeze: 2-817         --                        --
│    └─One: 2-818                        [1]                       --
│    └─OutputScale: 2-819                --                        --
│    └─Empty: 2-820                      [64, 64, 3, 3]            --
│    └─Empty: 2-821                      [64, 64, 3, 3]            --
│    └─Empty: 2-822                      [64]                      --
│    └─Empty: 2-823                      [64]                      --
│    └─BatchNorm2d: 2-824                [16, 64, 64, 64]          --
│    └─Scaler: 2-825                     [16, 64, 64, 64]          --
│    └─ReLU: 2-826                       [16, 64, 64, 64]          --
│    └─Empty: 2-827                      [16, 64, 64, 64]          --
│    └─Clamp: 2-828                      [16, 64, 64, 64]          --
├─FusedMaxPoolConv2dBNReLU: 1-64         [16, 64, 32, 32]          (recursive)
│    └─MaxPool2d: 2-829                  [16, 64, 32, 32]          --
│    └─Empty: 2-830                      [16, 64, 32, 32]          --
│    └─Empty: 2-831                      [16, 64, 32, 32]          --
│    └─OutputShiftSqueeze: 2-832         --                        --
│    └─One: 2-833                        [1]                       --
│    └─OutputScale: 2-834                --                        --
│    └─Empty: 2-835                      [64, 64, 3, 3]            --
│    └─Empty: 2-836                      [64, 64, 3, 3]            --
│    └─Empty: 2-837                      [64]                      --
│    └─Empty: 2-838                      [64]                      --
│    └─BatchNorm2d: 2-839                [16, 64, 32, 32]          --
│    └─Scaler: 2-840                     [16, 64, 32, 32]          --
│    └─ReLU: 2-841                       [16, 64, 32, 32]          --
│    └─Empty: 2-842                      [16, 64, 32, 32]          --
│    └─Clamp: 2-843                      [16, 64, 32, 32]          --
├─FusedConv2dBNReLU: 1-65                [16, 64, 32, 32]          (recursive)
│    └─OutputShiftSqueeze: 2-844         --                        --
│    └─One: 2-845                        [1]                       --
│    └─OutputScale: 2-846                --                        --
│    └─Empty: 2-847                      [64, 64, 3, 3]            --
│    └─Empty: 2-848                      [64, 64, 3, 3]            --
│    └─Empty: 2-849                      [64]                      --
│    └─Empty: 2-850                      [64]                      --
│    └─BatchNorm2d: 2-851                [16, 64, 32, 32]          --
│    └─Scaler: 2-852                     [16, 64, 32, 32]          --
│    └─ReLU: 2-853                       [16, 64, 32, 32]          --
│    └─Empty: 2-854                      [16, 64, 32, 32]          --
│    └─Clamp: 2-855                      [16, 64, 32, 32]          --
├─FusedMaxPoolConv2dBNReLU: 1-66         [16, 64, 16, 16]          (recursive)
│    └─MaxPool2d: 2-856                  [16, 64, 16, 16]          --
│    └─Empty: 2-857                      [16, 64, 16, 16]          --
│    └─Empty: 2-858                      [16, 64, 16, 16]          --
│    └─OutputShiftSqueeze: 2-859         --                        --
│    └─One: 2-860                        [1]                       --
│    └─OutputScale: 2-861                --                        --
│    └─Empty: 2-862                      [64, 64, 3, 3]            --
│    └─Empty: 2-863                      [64, 64, 3, 3]            --
│    └─Empty: 2-864                      [64]                      --
│    └─Empty: 2-865                      [64]                      --
│    └─BatchNorm2d: 2-866                [16, 64, 16, 16]          --
│    └─Scaler: 2-867                     [16, 64, 16, 16]          --
│    └─ReLU: 2-868                       [16, 64, 16, 16]          --
│    └─Empty: 2-869                      [16, 64, 16, 16]          --
│    └─Clamp: 2-870                      [16, 64, 16, 16]          --
├─FusedConv2dBNReLU: 1-67                [16, 64, 16, 16]          (recursive)
│    └─OutputShiftSqueeze: 2-871         --                        --
│    └─One: 2-872                        [1]                       --
│    └─OutputScale: 2-873                --                        --
│    └─Empty: 2-874                      [64, 64, 3, 3]            --
│    └─Empty: 2-875                      [64, 64, 3, 3]            --
│    └─Empty: 2-876                      [64]                      --
│    └─Empty: 2-877                      [64]                      --
│    └─BatchNorm2d: 2-878                [16, 64, 16, 16]          --
│    └─Scaler: 2-879                     [16, 64, 16, 16]          --
│    └─ReLU: 2-880                       [16, 64, 16, 16]          --
│    └─Empty: 2-881                      [16, 64, 16, 16]          --
│    └─Clamp: 2-882                      [16, 64, 16, 16]          --
├─FusedMaxPoolConv2dBNReLU: 1-68         [16, 64, 8, 8]            (recursive)
│    └─MaxPool2d: 2-883                  [16, 64, 8, 8]            --
│    └─Empty: 2-884                      [16, 64, 8, 8]            --
│    └─Empty: 2-885                      [16, 64, 8, 8]            --
│    └─OutputShiftSqueeze: 2-886         --                        --
│    └─One: 2-887                        [1]                       --
│    └─OutputScale: 2-888                --                        --
│    └─Empty: 2-889                      [64, 64, 3, 3]            --
│    └─Empty: 2-890                      [64, 64, 3, 3]            --
│    └─Empty: 2-891                      [64]                      --
│    └─Empty: 2-892                      [64]                      --
│    └─BatchNorm2d: 2-893                [16, 64, 8, 8]            --
│    └─Scaler: 2-894                     [16, 64, 8, 8]            --
│    └─ReLU: 2-895                       [16, 64, 8, 8]            --
│    └─Empty: 2-896                      [16, 64, 8, 8]            --
│    └─Clamp: 2-897                      [16, 64, 8, 8]            --
├─FusedConv2dBNReLU: 1-69                [16, 64, 8, 8]            (recursive)
│    └─OutputShiftSqueeze: 2-898         --                        --
│    └─One: 2-899                        [1]                       --
│    └─OutputScale: 2-900                --                        --
│    └─Empty: 2-901                      [64, 64, 1, 1]            --
│    └─Empty: 2-902                      [64, 64, 1, 1]            --
│    └─Empty: 2-903                      [64]                      --
│    └─Empty: 2-904                      [64]                      --
│    └─BatchNorm2d: 2-905                [16, 64, 8, 8]            --
│    └─Scaler: 2-906                     [16, 64, 8, 8]            --
│    └─ReLU: 2-907                       [16, 64, 8, 8]            --
│    └─Empty: 2-908                      [16, 64, 8, 8]            --
│    └─Clamp: 2-909                      [16, 64, 8, 8]            --
├─FusedMaxPoolConv2dBNReLU: 1-70         [16, 64, 8, 8]            (recursive)
│    └─MaxPool2d: 2-910                  [16, 64, 8, 8]            --
│    └─Empty: 2-911                      [16, 64, 8, 8]            --
│    └─Empty: 2-912                      [16, 64, 8, 8]            --
│    └─OutputShiftSqueeze: 2-913         --                        --
│    └─One: 2-914                        [1]                       --
│    └─OutputScale: 2-915                --                        --
│    └─Empty: 2-916                      [64, 64, 3, 3]            --
│    └─Empty: 2-917                      [64, 64, 3, 3]            --
│    └─Empty: 2-918                      [64]                      --
│    └─Empty: 2-919                      [64]                      --
│    └─BatchNorm2d: 2-920                [16, 64, 8, 8]            --
│    └─Scaler: 2-921                     [16, 64, 8, 8]            --
│    └─ReLU: 2-922                       [16, 64, 8, 8]            --
│    └─Empty: 2-923                      [16, 64, 8, 8]            --
│    └─Clamp: 2-924                      [16, 64, 8, 8]            --
├─FusedMaxPoolConv2dBNReLU: 1-71         [16, 64, 4, 4]            (recursive)
│    └─MaxPool2d: 2-925                  [16, 64, 4, 4]            --
│    └─Empty: 2-926                      [16, 64, 4, 4]            --
│    └─Empty: 2-927                      [16, 64, 4, 4]            --
│    └─OutputShiftSqueeze: 2-928         --                        --
│    └─One: 2-929                        [1]                       --
│    └─OutputScale: 2-930                --                        --
│    └─Empty: 2-931                      [64, 64, 3, 3]            --
│    └─Empty: 2-932                      [64, 64, 3, 3]            --
│    └─Empty: 2-933                      [64]                      --
│    └─Empty: 2-934                      [64]                      --
│    └─BatchNorm2d: 2-935                [16, 64, 4, 4]            --
│    └─Scaler: 2-936                     [16, 64, 4, 4]            --
│    └─ReLU: 2-937                       [16, 64, 4, 4]            --
│    └─Empty: 2-938                      [16, 64, 4, 4]            --
│    └─Clamp: 2-939                      [16, 64, 4, 4]            --
├─FusedConv2dBNReLU: 1-72                [16, 64, 4, 4]            (recursive)
│    └─OutputShiftSqueeze: 2-940         --                        --
│    └─One: 2-941                        [1]                       --
│    └─OutputScale: 2-942                --                        --
│    └─Empty: 2-943                      [64, 64, 1, 1]            --
│    └─Empty: 2-944                      [64, 64, 1, 1]            --
│    └─Empty: 2-945                      [64]                      --
│    └─Empty: 2-946                      [64]                      --
│    └─BatchNorm2d: 2-947                [16, 64, 4, 4]            --
│    └─Scaler: 2-948                     [16, 64, 4, 4]            --
│    └─ReLU: 2-949                       [16, 64, 4, 4]            --
│    └─Empty: 2-950                      [16, 64, 4, 4]            --
│    └─Clamp: 2-951                      [16, 64, 4, 4]            --
├─FusedMaxPoolConv2dBNReLU: 1-73         [16, 64, 4, 4]            (recursive)
│    └─MaxPool2d: 2-952                  [16, 64, 4, 4]            --
│    └─Empty: 2-953                      [16, 64, 4, 4]            --
│    └─Empty: 2-954                      [16, 64, 4, 4]            --
│    └─OutputShiftSqueeze: 2-955         --                        --
│    └─One: 2-956                        [1]                       --
│    └─OutputScale: 2-957                --                        --
│    └─Empty: 2-958                      [64, 64, 3, 3]            --
│    └─Empty: 2-959                      [64, 64, 3, 3]            --
│    └─Empty: 2-960                      [64]                      --
│    └─Empty: 2-961                      [64]                      --
│    └─BatchNorm2d: 2-962                [16, 64, 4, 4]            --
│    └─Scaler: 2-963                     [16, 64, 4, 4]            --
│    └─ReLU: 2-964                       [16, 64, 4, 4]            --
│    └─Empty: 2-965                      [16, 64, 4, 4]            --
│    └─Clamp: 2-966                      [16, 64, 4, 4]            --
├─FusedMaxPoolConv2dBNReLU: 1-74         [16, 64, 2, 2]            (recursive)
│    └─MaxPool2d: 2-967                  [16, 64, 2, 2]            --
│    └─Empty: 2-968                      [16, 64, 2, 2]            --
│    └─Empty: 2-969                      [16, 64, 2, 2]            --
│    └─OutputShiftSqueeze: 2-970         --                        --
│    └─One: 2-971                        [1]                       --
│    └─OutputScale: 2-972                --                        --
│    └─Empty: 2-973                      [64, 64, 3, 3]            --
│    └─Empty: 2-974                      [64, 64, 3, 3]            --
│    └─Empty: 2-975                      [64]                      --
│    └─Empty: 2-976                      [64]                      --
│    └─BatchNorm2d: 2-977                [16, 64, 2, 2]            --
│    └─Scaler: 2-978                     [16, 64, 2, 2]            --
│    └─ReLU: 2-979                       [16, 64, 2, 2]            --
│    └─Empty: 2-980                      [16, 64, 2, 2]            --
│    └─Clamp: 2-981                      [16, 64, 2, 2]            --
├─FusedConv2dBNReLU: 1-75                [16, 64, 2, 2]            (recursive)
│    └─OutputShiftSqueeze: 2-982         --                        --
│    └─One: 2-983                        [1]                       --
│    └─OutputScale: 2-984                --                        --
│    └─Empty: 2-985                      [64, 64, 1, 1]            --
│    └─Empty: 2-986                      [64, 64, 1, 1]            --
│    └─Empty: 2-987                      [64]                      --
│    └─Empty: 2-988                      [64]                      --
│    └─BatchNorm2d: 2-989                [16, 64, 2, 2]            --
│    └─Scaler: 2-990                     [16, 64, 2, 2]            --
│    └─ReLU: 2-991                       [16, 64, 2, 2]            --
│    └─Empty: 2-992                      [16, 64, 2, 2]            --
│    └─Clamp: 2-993                      [16, 64, 2, 2]            --
├─FusedMaxPoolConv2dBNReLU: 1-76         [16, 64, 2, 2]            (recursive)
│    └─MaxPool2d: 2-994                  [16, 64, 2, 2]            --
│    └─Empty: 2-995                      [16, 64, 2, 2]            --
│    └─Empty: 2-996                      [16, 64, 2, 2]            --
│    └─OutputShiftSqueeze: 2-997         --                        --
│    └─One: 2-998                        [1]                       --
│    └─OutputScale: 2-999                --                        --
│    └─Empty: 2-1000                     [64, 64, 3, 3]            --
│    └─Empty: 2-1001                     [64, 64, 3, 3]            --
│    └─Empty: 2-1002                     [64]                      --
│    └─Empty: 2-1003                     [64]                      --
│    └─BatchNorm2d: 2-1004               [16, 64, 2, 2]            --
│    └─Scaler: 2-1005                    [16, 64, 2, 2]            --
│    └─ReLU: 2-1006                      [16, 64, 2, 2]            --
│    └─Empty: 2-1007                     [16, 64, 2, 2]            --
│    └─Clamp: 2-1008                     [16, 64, 2, 2]            --
├─FusedConv2dBNReLU: 1-77                [16, 64, 64, 64]          (recursive)
│    └─OutputShiftSqueeze: 2-1009        --                        --
│    └─One: 2-1010                       [1]                       --
│    └─OutputScale: 2-1011               --                        --
│    └─Empty: 2-1012                     [64, 48, 1, 1]            --
│    └─Empty: 2-1013                     [64, 48, 1, 1]            --
│    └─Empty: 2-1014                     [64]                      --
│    └─Empty: 2-1015                     [64]                      --
│    └─BatchNorm2d: 2-1016               [16, 64, 64, 64]          --
│    └─Scaler: 2-1017                    [16, 64, 64, 64]          --
│    └─ReLU: 2-1018                      [16, 64, 64, 64]          --
│    └─Empty: 2-1019                     [16, 64, 64, 64]          --
│    └─Clamp: 2-1020                     [16, 64, 64, 64]          --
├─FusedConv2dBNReLU: 1-78                [16, 64, 64, 64]          (recursive)
│    └─OutputShiftSqueeze: 2-1021        --                        --
│    └─One: 2-1022                       [1]                       --
│    └─OutputScale: 2-1023               --                        --
│    └─Empty: 2-1024                     [64, 64, 3, 3]            --
│    └─Empty: 2-1025                     [64, 64, 3, 3]            --
│    └─Empty: 2-1026                     [64]                      --
│    └─Empty: 2-1027                     [64]                      --
│    └─BatchNorm2d: 2-1028               [16, 64, 64, 64]          --
│    └─Scaler: 2-1029                    [16, 64, 64, 64]          --
│    └─ReLU: 2-1030                      [16, 64, 64, 64]          --
│    └─Empty: 2-1031                     [16, 64, 64, 64]          --
│    └─Clamp: 2-1032                     [16, 64, 64, 64]          --
├─FusedConv2dBNReLU: 1-79                [16, 64, 64, 64]          (recursive)
│    └─OutputShiftSqueeze: 2-1033        --                        --
│    └─One: 2-1034                       [1]                       --
│    └─OutputScale: 2-1035               --                        --
│    └─Empty: 2-1036                     [64, 64, 3, 3]            --
│    └─Empty: 2-1037                     [64, 64, 3, 3]            --
│    └─Empty: 2-1038                     [64]                      --
│    └─Empty: 2-1039                     [64]                      --
│    └─BatchNorm2d: 2-1040               [16, 64, 64, 64]          --
│    └─Scaler: 2-1041                    [16, 64, 64, 64]          --
│    └─ReLU: 2-1042                      [16, 64, 64, 64]          --
│    └─Empty: 2-1043                     [16, 64, 64, 64]          --
│    └─Clamp: 2-1044                     [16, 64, 64, 64]          --
├─FusedConv2dBNReLU: 1-80                [16, 64, 64, 64]          (recursive)
│    └─OutputShiftSqueeze: 2-1045        --                        --
│    └─One: 2-1046                       [1]                       --
│    └─OutputScale: 2-1047               --                        --
│    └─Empty: 2-1048                     [64, 64, 1, 1]            --
│    └─Empty: 2-1049                     [64, 64, 1, 1]            --
│    └─Empty: 2-1050                     [64]                      --
│    └─Empty: 2-1051                     [64]                      --
│    └─BatchNorm2d: 2-1052               [16, 64, 64, 64]          --
│    └─Scaler: 2-1053                    [16, 64, 64, 64]          --
│    └─ReLU: 2-1054                      [16, 64, 64, 64]          --
│    └─Empty: 2-1055                     [16, 64, 64, 64]          --
│    └─Clamp: 2-1056                     [16, 64, 64, 64]          --
├─FusedConv2dBNReLU: 1-81                [16, 64, 64, 64]          (recursive)
│    └─OutputShiftSqueeze: 2-1057        --                        --
│    └─One: 2-1058                       [1]                       --
│    └─OutputScale: 2-1059               --                        --
│    └─Empty: 2-1060                     [64, 64, 3, 3]            --
│    └─Empty: 2-1061                     [64, 64, 3, 3]            --
│    └─Empty: 2-1062                     [64]                      --
│    └─Empty: 2-1063                     [64]                      --
│    └─BatchNorm2d: 2-1064               [16, 64, 64, 64]          --
│    └─Scaler: 2-1065                    [16, 64, 64, 64]          --
│    └─ReLU: 2-1066                      [16, 64, 64, 64]          --
│    └─Empty: 2-1067                     [16, 64, 64, 64]          --
│    └─Clamp: 2-1068                     [16, 64, 64, 64]          --
├─FusedConv2dBNReLU: 1-82                [16, 64, 64, 64]          (recursive)
│    └─OutputShiftSqueeze: 2-1069        --                        --
│    └─One: 2-1070                       [1]                       --
│    └─OutputScale: 2-1071               --                        --
│    └─Empty: 2-1072                     [64, 64, 3, 3]            --
│    └─Empty: 2-1073                     [64, 64, 3, 3]            --
│    └─Empty: 2-1074                     [64]                      --
│    └─Empty: 2-1075                     [64]                      --
│    └─BatchNorm2d: 2-1076               [16, 64, 64, 64]          --
│    └─Scaler: 2-1077                    [16, 64, 64, 64]          --
│    └─ReLU: 2-1078                      [16, 64, 64, 64]          --
│    └─Empty: 2-1079                     [16, 64, 64, 64]          --
│    └─Clamp: 2-1080                     [16, 64, 64, 64]          --
├─FusedMaxPoolConv2dBNReLU: 1-83         [16, 64, 32, 32]          (recursive)
│    └─MaxPool2d: 2-1081                 [16, 64, 32, 32]          --
│    └─Empty: 2-1082                     [16, 64, 32, 32]          --
│    └─Empty: 2-1083                     [16, 64, 32, 32]          --
│    └─OutputShiftSqueeze: 2-1084        --                        --
│    └─One: 2-1085                       [1]                       --
│    └─OutputScale: 2-1086               --                        --
│    └─Empty: 2-1087                     [64, 64, 3, 3]            --
│    └─Empty: 2-1088                     [64, 64, 3, 3]            --
│    └─Empty: 2-1089                     [64]                      --
│    └─Empty: 2-1090                     [64]                      --
│    └─BatchNorm2d: 2-1091               [16, 64, 32, 32]          --
│    └─Scaler: 2-1092                    [16, 64, 32, 32]          --
│    └─ReLU: 2-1093                      [16, 64, 32, 32]          --
│    └─Empty: 2-1094                     [16, 64, 32, 32]          --
│    └─Clamp: 2-1095                     [16, 64, 32, 32]          --
├─FusedConv2dBNReLU: 1-84                [16, 64, 32, 32]          (recursive)
│    └─OutputShiftSqueeze: 2-1096        --                        --
│    └─One: 2-1097                       [1]                       --
│    └─OutputScale: 2-1098               --                        --
│    └─Empty: 2-1099                     [64, 64, 3, 3]            --
│    └─Empty: 2-1100                     [64, 64, 3, 3]            --
│    └─Empty: 2-1101                     [64]                      --
│    └─Empty: 2-1102                     [64]                      --
│    └─BatchNorm2d: 2-1103               [16, 64, 32, 32]          --
│    └─Scaler: 2-1104                    [16, 64, 32, 32]          --
│    └─ReLU: 2-1105                      [16, 64, 32, 32]          --
│    └─Empty: 2-1106                     [16, 64, 32, 32]          --
│    └─Clamp: 2-1107                     [16, 64, 32, 32]          --
├─FusedMaxPoolConv2dBNReLU: 1-85         [16, 64, 16, 16]          (recursive)
│    └─MaxPool2d: 2-1108                 [16, 64, 16, 16]          --
│    └─Empty: 2-1109                     [16, 64, 16, 16]          --
│    └─Empty: 2-1110                     [16, 64, 16, 16]          --
│    └─OutputShiftSqueeze: 2-1111        --                        --
│    └─One: 2-1112                       [1]                       --
│    └─OutputScale: 2-1113               --                        --
│    └─Empty: 2-1114                     [64, 64, 3, 3]            --
│    └─Empty: 2-1115                     [64, 64, 3, 3]            --
│    └─Empty: 2-1116                     [64]                      --
│    └─Empty: 2-1117                     [64]                      --
│    └─BatchNorm2d: 2-1118               [16, 64, 16, 16]          --
│    └─Scaler: 2-1119                    [16, 64, 16, 16]          --
│    └─ReLU: 2-1120                      [16, 64, 16, 16]          --
│    └─Empty: 2-1121                     [16, 64, 16, 16]          --
│    └─Clamp: 2-1122                     [16, 64, 16, 16]          --
├─FusedConv2dBNReLU: 1-86                [16, 64, 16, 16]          (recursive)
│    └─OutputShiftSqueeze: 2-1123        --                        --
│    └─One: 2-1124                       [1]                       --
│    └─OutputScale: 2-1125               --                        --
│    └─Empty: 2-1126                     [64, 64, 3, 3]            --
│    └─Empty: 2-1127                     [64, 64, 3, 3]            --
│    └─Empty: 2-1128                     [64]                      --
│    └─Empty: 2-1129                     [64]                      --
│    └─BatchNorm2d: 2-1130               [16, 64, 16, 16]          --
│    └─Scaler: 2-1131                    [16, 64, 16, 16]          --
│    └─ReLU: 2-1132                      [16, 64, 16, 16]          --
│    └─Empty: 2-1133                     [16, 64, 16, 16]          --
│    └─Clamp: 2-1134                     [16, 64, 16, 16]          --
├─FusedMaxPoolConv2dBNReLU: 1-87         [16, 64, 8, 8]            (recursive)
│    └─MaxPool2d: 2-1135                 [16, 64, 8, 8]            --
│    └─Empty: 2-1136                     [16, 64, 8, 8]            --
│    └─Empty: 2-1137                     [16, 64, 8, 8]            --
│    └─OutputShiftSqueeze: 2-1138        --                        --
│    └─One: 2-1139                       [1]                       --
│    └─OutputScale: 2-1140               --                        --
│    └─Empty: 2-1141                     [64, 64, 3, 3]            --
│    └─Empty: 2-1142                     [64, 64, 3, 3]            --
│    └─Empty: 2-1143                     [64]                      --
│    └─Empty: 2-1144                     [64]                      --
│    └─BatchNorm2d: 2-1145               [16, 64, 8, 8]            --
│    └─Scaler: 2-1146                    [16, 64, 8, 8]            --
│    └─ReLU: 2-1147                      [16, 64, 8, 8]            --
│    └─Empty: 2-1148                     [16, 64, 8, 8]            --
│    └─Clamp: 2-1149                     [16, 64, 8, 8]            --
├─FusedConv2dBNReLU: 1-88                [16, 64, 8, 8]            (recursive)
│    └─OutputShiftSqueeze: 2-1150        --                        --
│    └─One: 2-1151                       [1]                       --
│    └─OutputScale: 2-1152               --                        --
│    └─Empty: 2-1153                     [64, 64, 1, 1]            --
│    └─Empty: 2-1154                     [64, 64, 1, 1]            --
│    └─Empty: 2-1155                     [64]                      --
│    └─Empty: 2-1156                     [64]                      --
│    └─BatchNorm2d: 2-1157               [16, 64, 8, 8]            --
│    └─Scaler: 2-1158                    [16, 64, 8, 8]            --
│    └─ReLU: 2-1159                      [16, 64, 8, 8]            --
│    └─Empty: 2-1160                     [16, 64, 8, 8]            --
│    └─Clamp: 2-1161                     [16, 64, 8, 8]            --
├─FusedMaxPoolConv2dBNReLU: 1-89         [16, 64, 8, 8]            (recursive)
│    └─MaxPool2d: 2-1162                 [16, 64, 8, 8]            --
│    └─Empty: 2-1163                     [16, 64, 8, 8]            --
│    └─Empty: 2-1164                     [16, 64, 8, 8]            --
│    └─OutputShiftSqueeze: 2-1165        --                        --
│    └─One: 2-1166                       [1]                       --
│    └─OutputScale: 2-1167               --                        --
│    └─Empty: 2-1168                     [64, 64, 3, 3]            --
│    └─Empty: 2-1169                     [64, 64, 3, 3]            --
│    └─Empty: 2-1170                     [64]                      --
│    └─Empty: 2-1171                     [64]                      --
│    └─BatchNorm2d: 2-1172               [16, 64, 8, 8]            --
│    └─Scaler: 2-1173                    [16, 64, 8, 8]            --
│    └─ReLU: 2-1174                      [16, 64, 8, 8]            --
│    └─Empty: 2-1175                     [16, 64, 8, 8]            --
│    └─Clamp: 2-1176                     [16, 64, 8, 8]            --
├─FusedMaxPoolConv2dBNReLU: 1-90         [16, 64, 4, 4]            (recursive)
│    └─MaxPool2d: 2-1177                 [16, 64, 4, 4]            --
│    └─Empty: 2-1178                     [16, 64, 4, 4]            --
│    └─Empty: 2-1179                     [16, 64, 4, 4]            --
│    └─OutputShiftSqueeze: 2-1180        --                        --
│    └─One: 2-1181                       [1]                       --
│    └─OutputScale: 2-1182               --                        --
│    └─Empty: 2-1183                     [64, 64, 3, 3]            --
│    └─Empty: 2-1184                     [64, 64, 3, 3]            --
│    └─Empty: 2-1185                     [64]                      --
│    └─Empty: 2-1186                     [64]                      --
│    └─BatchNorm2d: 2-1187               [16, 64, 4, 4]            --
│    └─Scaler: 2-1188                    [16, 64, 4, 4]            --
│    └─ReLU: 2-1189                      [16, 64, 4, 4]            --
│    └─Empty: 2-1190                     [16, 64, 4, 4]            --
│    └─Clamp: 2-1191                     [16, 64, 4, 4]            --
├─FusedConv2dBNReLU: 1-91                [16, 64, 4, 4]            (recursive)
│    └─OutputShiftSqueeze: 2-1192        --                        --
│    └─One: 2-1193                       [1]                       --
│    └─OutputScale: 2-1194               --                        --
│    └─Empty: 2-1195                     [64, 64, 1, 1]            --
│    └─Empty: 2-1196                     [64, 64, 1, 1]            --
│    └─Empty: 2-1197                     [64]                      --
│    └─Empty: 2-1198                     [64]                      --
│    └─BatchNorm2d: 2-1199               [16, 64, 4, 4]            --
│    └─Scaler: 2-1200                    [16, 64, 4, 4]            --
│    └─ReLU: 2-1201                      [16, 64, 4, 4]            --
│    └─Empty: 2-1202                     [16, 64, 4, 4]            --
│    └─Clamp: 2-1203                     [16, 64, 4, 4]            --
├─FusedMaxPoolConv2dBNReLU: 1-92         [16, 64, 4, 4]            (recursive)
│    └─MaxPool2d: 2-1204                 [16, 64, 4, 4]            --
│    └─Empty: 2-1205                     [16, 64, 4, 4]            --
│    └─Empty: 2-1206                     [16, 64, 4, 4]            --
│    └─OutputShiftSqueeze: 2-1207        --                        --
│    └─One: 2-1208                       [1]                       --
│    └─OutputScale: 2-1209               --                        --
│    └─Empty: 2-1210                     [64, 64, 3, 3]            --
│    └─Empty: 2-1211                     [64, 64, 3, 3]            --
│    └─Empty: 2-1212                     [64]                      --
│    └─Empty: 2-1213                     [64]                      --
│    └─BatchNorm2d: 2-1214               [16, 64, 4, 4]            --
│    └─Scaler: 2-1215                    [16, 64, 4, 4]            --
│    └─ReLU: 2-1216                      [16, 64, 4, 4]            --
│    └─Empty: 2-1217                     [16, 64, 4, 4]            --
│    └─Clamp: 2-1218                     [16, 64, 4, 4]            --
├─FusedMaxPoolConv2dBNReLU: 1-93         [16, 64, 2, 2]            (recursive)
│    └─MaxPool2d: 2-1219                 [16, 64, 2, 2]            --
│    └─Empty: 2-1220                     [16, 64, 2, 2]            --
│    └─Empty: 2-1221                     [16, 64, 2, 2]            --
│    └─OutputShiftSqueeze: 2-1222        --                        --
│    └─One: 2-1223                       [1]                       --
│    └─OutputScale: 2-1224               --                        --
│    └─Empty: 2-1225                     [64, 64, 3, 3]            --
│    └─Empty: 2-1226                     [64, 64, 3, 3]            --
│    └─Empty: 2-1227                     [64]                      --
│    └─Empty: 2-1228                     [64]                      --
│    └─BatchNorm2d: 2-1229               [16, 64, 2, 2]            --
│    └─Scaler: 2-1230                    [16, 64, 2, 2]            --
│    └─ReLU: 2-1231                      [16, 64, 2, 2]            --
│    └─Empty: 2-1232                     [16, 64, 2, 2]            --
│    └─Clamp: 2-1233                     [16, 64, 2, 2]            --
├─FusedConv2dBNReLU: 1-94                [16, 64, 2, 2]            (recursive)
│    └─OutputShiftSqueeze: 2-1234        --                        --
│    └─One: 2-1235                       [1]                       --
│    └─OutputScale: 2-1236               --                        --
│    └─Empty: 2-1237                     [64, 64, 1, 1]            --
│    └─Empty: 2-1238                     [64, 64, 1, 1]            --
│    └─Empty: 2-1239                     [64]                      --
│    └─Empty: 2-1240                     [64]                      --
│    └─BatchNorm2d: 2-1241               [16, 64, 2, 2]            --
│    └─Scaler: 2-1242                    [16, 64, 2, 2]            --
│    └─ReLU: 2-1243                      [16, 64, 2, 2]            --
│    └─Empty: 2-1244                     [16, 64, 2, 2]            --
│    └─Clamp: 2-1245                     [16, 64, 2, 2]            --
├─FusedMaxPoolConv2dBNReLU: 1-95         [16, 64, 2, 2]            (recursive)
│    └─MaxPool2d: 2-1246                 [16, 64, 2, 2]            --
│    └─Empty: 2-1247                     [16, 64, 2, 2]            --
│    └─Empty: 2-1248                     [16, 64, 2, 2]            --
│    └─OutputShiftSqueeze: 2-1249        --                        --
│    └─One: 2-1250                       [1]                       --
│    └─OutputScale: 2-1251               --                        --
│    └─Empty: 2-1252                     [64, 64, 3, 3]            --
│    └─Empty: 2-1253                     [64, 64, 3, 3]            --
│    └─Empty: 2-1254                     [64]                      --
│    └─Empty: 2-1255                     [64]                      --
│    └─BatchNorm2d: 2-1256               [16, 64, 2, 2]            --
│    └─Scaler: 2-1257                    [16, 64, 2, 2]            --
│    └─ReLU: 2-1258                      [16, 64, 2, 2]            --
│    └─Empty: 2-1259                     [16, 64, 2, 2]            --
│    └─Clamp: 2-1260                     [16, 64, 2, 2]            --
├─FusedConv2dBNReLU: 1-96                [16, 64, 64, 64]          (recursive)
│    └─OutputShiftSqueeze: 2-1261        --                        --
│    └─One: 2-1262                       [1]                       --
│    └─OutputScale: 2-1263               --                        --
│    └─Empty: 2-1264                     [64, 48, 1, 1]            --
│    └─Empty: 2-1265                     [64, 48, 1, 1]            --
│    └─Empty: 2-1266                     [64]                      --
│    └─Empty: 2-1267                     [64]                      --
│    └─BatchNorm2d: 2-1268               [16, 64, 64, 64]          --
│    └─Scaler: 2-1269                    [16, 64, 64, 64]          --
│    └─ReLU: 2-1270                      [16, 64, 64, 64]          --
│    └─Empty: 2-1271                     [16, 64, 64, 64]          --
│    └─Clamp: 2-1272                     [16, 64, 64, 64]          --
├─FusedConv2dBNReLU: 1-97                [16, 64, 64, 64]          (recursive)
│    └─OutputShiftSqueeze: 2-1273        --                        --
│    └─One: 2-1274                       [1]                       --
│    └─OutputScale: 2-1275               --                        --
│    └─Empty: 2-1276                     [64, 64, 3, 3]            --
│    └─Empty: 2-1277                     [64, 64, 3, 3]            --
│    └─Empty: 2-1278                     [64]                      --
│    └─Empty: 2-1279                     [64]                      --
│    └─BatchNorm2d: 2-1280               [16, 64, 64, 64]          --
│    └─Scaler: 2-1281                    [16, 64, 64, 64]          --
│    └─ReLU: 2-1282                      [16, 64, 64, 64]          --
│    └─Empty: 2-1283                     [16, 64, 64, 64]          --
│    └─Clamp: 2-1284                     [16, 64, 64, 64]          --
├─FusedConv2dBNReLU: 1-98                [16, 64, 64, 64]          (recursive)
│    └─OutputShiftSqueeze: 2-1285        --                        --
│    └─One: 2-1286                       [1]                       --
│    └─OutputScale: 2-1287               --                        --
│    └─Empty: 2-1288                     [64, 64, 3, 3]            --
│    └─Empty: 2-1289                     [64, 64, 3, 3]            --
│    └─Empty: 2-1290                     [64]                      --
│    └─Empty: 2-1291                     [64]                      --
│    └─BatchNorm2d: 2-1292               [16, 64, 64, 64]          --
│    └─Scaler: 2-1293                    [16, 64, 64, 64]          --
│    └─ReLU: 2-1294                      [16, 64, 64, 64]          --
│    └─Empty: 2-1295                     [16, 64, 64, 64]          --
│    └─Clamp: 2-1296                     [16, 64, 64, 64]          --
├─FusedConv2dBNReLU: 1-99                [16, 64, 64, 64]          (recursive)
│    └─OutputShiftSqueeze: 2-1297        --                        --
│    └─One: 2-1298                       [1]                       --
│    └─OutputScale: 2-1299               --                        --
│    └─Empty: 2-1300                     [64, 64, 1, 1]            --
│    └─Empty: 2-1301                     [64, 64, 1, 1]            --
│    └─Empty: 2-1302                     [64]                      --
│    └─Empty: 2-1303                     [64]                      --
│    └─BatchNorm2d: 2-1304               [16, 64, 64, 64]          --
│    └─Scaler: 2-1305                    [16, 64, 64, 64]          --
│    └─ReLU: 2-1306                      [16, 64, 64, 64]          --
│    └─Empty: 2-1307                     [16, 64, 64, 64]          --
│    └─Clamp: 2-1308                     [16, 64, 64, 64]          --
├─FusedConv2dBNReLU: 1-100               [16, 64, 64, 64]          (recursive)
│    └─OutputShiftSqueeze: 2-1309        --                        --
│    └─One: 2-1310                       [1]                       --
│    └─OutputScale: 2-1311               --                        --
│    └─Empty: 2-1312                     [64, 64, 3, 3]            --
│    └─Empty: 2-1313                     [64, 64, 3, 3]            --
│    └─Empty: 2-1314                     [64]                      --
│    └─Empty: 2-1315                     [64]                      --
│    └─BatchNorm2d: 2-1316               [16, 64, 64, 64]          --
│    └─Scaler: 2-1317                    [16, 64, 64, 64]          --
│    └─ReLU: 2-1318                      [16, 64, 64, 64]          --
│    └─Empty: 2-1319                     [16, 64, 64, 64]          --
│    └─Clamp: 2-1320                     [16, 64, 64, 64]          --
├─FusedConv2dBNReLU: 1-101               [16, 64, 64, 64]          (recursive)
│    └─OutputShiftSqueeze: 2-1321        --                        --
│    └─One: 2-1322                       [1]                       --
│    └─OutputScale: 2-1323               --                        --
│    └─Empty: 2-1324                     [64, 64, 3, 3]            --
│    └─Empty: 2-1325                     [64, 64, 3, 3]            --
│    └─Empty: 2-1326                     [64]                      --
│    └─Empty: 2-1327                     [64]                      --
│    └─BatchNorm2d: 2-1328               [16, 64, 64, 64]          --
│    └─Scaler: 2-1329                    [16, 64, 64, 64]          --
│    └─ReLU: 2-1330                      [16, 64, 64, 64]          --
│    └─Empty: 2-1331                     [16, 64, 64, 64]          --
│    └─Clamp: 2-1332                     [16, 64, 64, 64]          --
├─FusedMaxPoolConv2dBNReLU: 1-102        [16, 64, 32, 32]          (recursive)
│    └─MaxPool2d: 2-1333                 [16, 64, 32, 32]          --
│    └─Empty: 2-1334                     [16, 64, 32, 32]          --
│    └─Empty: 2-1335                     [16, 64, 32, 32]          --
│    └─OutputShiftSqueeze: 2-1336        --                        --
│    └─One: 2-1337                       [1]                       --
│    └─OutputScale: 2-1338               --                        --
│    └─Empty: 2-1339                     [64, 64, 3, 3]            --
│    └─Empty: 2-1340                     [64, 64, 3, 3]            --
│    └─Empty: 2-1341                     [64]                      --
│    └─Empty: 2-1342                     [64]                      --
│    └─BatchNorm2d: 2-1343               [16, 64, 32, 32]          --
│    └─Scaler: 2-1344                    [16, 64, 32, 32]          --
│    └─ReLU: 2-1345                      [16, 64, 32, 32]          --
│    └─Empty: 2-1346                     [16, 64, 32, 32]          --
│    └─Clamp: 2-1347                     [16, 64, 32, 32]          --
├─FusedConv2dBNReLU: 1-103               [16, 64, 32, 32]          (recursive)
│    └─OutputShiftSqueeze: 2-1348        --                        --
│    └─One: 2-1349                       [1]                       --
│    └─OutputScale: 2-1350               --                        --
│    └─Empty: 2-1351                     [64, 64, 3, 3]            --
│    └─Empty: 2-1352                     [64, 64, 3, 3]            --
│    └─Empty: 2-1353                     [64]                      --
│    └─Empty: 2-1354                     [64]                      --
│    └─BatchNorm2d: 2-1355               [16, 64, 32, 32]          --
│    └─Scaler: 2-1356                    [16, 64, 32, 32]          --
│    └─ReLU: 2-1357                      [16, 64, 32, 32]          --
│    └─Empty: 2-1358                     [16, 64, 32, 32]          --
│    └─Clamp: 2-1359                     [16, 64, 32, 32]          --
├─FusedMaxPoolConv2dBNReLU: 1-104        [16, 64, 16, 16]          (recursive)
│    └─MaxPool2d: 2-1360                 [16, 64, 16, 16]          --
│    └─Empty: 2-1361                     [16, 64, 16, 16]          --
│    └─Empty: 2-1362                     [16, 64, 16, 16]          --
│    └─OutputShiftSqueeze: 2-1363        --                        --
│    └─One: 2-1364                       [1]                       --
│    └─OutputScale: 2-1365               --                        --
│    └─Empty: 2-1366                     [64, 64, 3, 3]            --
│    └─Empty: 2-1367                     [64, 64, 3, 3]            --
│    └─Empty: 2-1368                     [64]                      --
│    └─Empty: 2-1369                     [64]                      --
│    └─BatchNorm2d: 2-1370               [16, 64, 16, 16]          --
│    └─Scaler: 2-1371                    [16, 64, 16, 16]          --
│    └─ReLU: 2-1372                      [16, 64, 16, 16]          --
│    └─Empty: 2-1373                     [16, 64, 16, 16]          --
│    └─Clamp: 2-1374                     [16, 64, 16, 16]          --
├─FusedConv2dBNReLU: 1-105               [16, 64, 16, 16]          (recursive)
│    └─OutputShiftSqueeze: 2-1375        --                        --
│    └─One: 2-1376                       [1]                       --
│    └─OutputScale: 2-1377               --                        --
│    └─Empty: 2-1378                     [64, 64, 3, 3]            --
│    └─Empty: 2-1379                     [64, 64, 3, 3]            --
│    └─Empty: 2-1380                     [64]                      --
│    └─Empty: 2-1381                     [64]                      --
│    └─BatchNorm2d: 2-1382               [16, 64, 16, 16]          --
│    └─Scaler: 2-1383                    [16, 64, 16, 16]          --
│    └─ReLU: 2-1384                      [16, 64, 16, 16]          --
│    └─Empty: 2-1385                     [16, 64, 16, 16]          --
│    └─Clamp: 2-1386                     [16, 64, 16, 16]          --
├─FusedMaxPoolConv2dBNReLU: 1-106        [16, 64, 8, 8]            (recursive)
│    └─MaxPool2d: 2-1387                 [16, 64, 8, 8]            --
│    └─Empty: 2-1388                     [16, 64, 8, 8]            --
│    └─Empty: 2-1389                     [16, 64, 8, 8]            --
│    └─OutputShiftSqueeze: 2-1390        --                        --
│    └─One: 2-1391                       [1]                       --
│    └─OutputScale: 2-1392               --                        --
│    └─Empty: 2-1393                     [64, 64, 3, 3]            --
│    └─Empty: 2-1394                     [64, 64, 3, 3]            --
│    └─Empty: 2-1395                     [64]                      --
│    └─Empty: 2-1396                     [64]                      --
│    └─BatchNorm2d: 2-1397               [16, 64, 8, 8]            --
│    └─Scaler: 2-1398                    [16, 64, 8, 8]            --
│    └─ReLU: 2-1399                      [16, 64, 8, 8]            --
│    └─Empty: 2-1400                     [16, 64, 8, 8]            --
│    └─Clamp: 2-1401                     [16, 64, 8, 8]            --
├─FusedConv2dBNReLU: 1-107               [16, 64, 8, 8]            (recursive)
│    └─OutputShiftSqueeze: 2-1402        --                        --
│    └─One: 2-1403                       [1]                       --
│    └─OutputScale: 2-1404               --                        --
│    └─Empty: 2-1405                     [64, 64, 1, 1]            --
│    └─Empty: 2-1406                     [64, 64, 1, 1]            --
│    └─Empty: 2-1407                     [64]                      --
│    └─Empty: 2-1408                     [64]                      --
│    └─BatchNorm2d: 2-1409               [16, 64, 8, 8]            --
│    └─Scaler: 2-1410                    [16, 64, 8, 8]            --
│    └─ReLU: 2-1411                      [16, 64, 8, 8]            --
│    └─Empty: 2-1412                     [16, 64, 8, 8]            --
│    └─Clamp: 2-1413                     [16, 64, 8, 8]            --
├─FusedMaxPoolConv2dBNReLU: 1-108        [16, 64, 8, 8]            (recursive)
│    └─MaxPool2d: 2-1414                 [16, 64, 8, 8]            --
│    └─Empty: 2-1415                     [16, 64, 8, 8]            --
│    └─Empty: 2-1416                     [16, 64, 8, 8]            --
│    └─OutputShiftSqueeze: 2-1417        --                        --
│    └─One: 2-1418                       [1]                       --
│    └─OutputScale: 2-1419               --                        --
│    └─Empty: 2-1420                     [64, 64, 3, 3]            --
│    └─Empty: 2-1421                     [64, 64, 3, 3]            --
│    └─Empty: 2-1422                     [64]                      --
│    └─Empty: 2-1423                     [64]                      --
│    └─BatchNorm2d: 2-1424               [16, 64, 8, 8]            --
│    └─Scaler: 2-1425                    [16, 64, 8, 8]            --
│    └─ReLU: 2-1426                      [16, 64, 8, 8]            --
│    └─Empty: 2-1427                     [16, 64, 8, 8]            --
│    └─Clamp: 2-1428                     [16, 64, 8, 8]            --
├─FusedMaxPoolConv2dBNReLU: 1-109        [16, 64, 4, 4]            (recursive)
│    └─MaxPool2d: 2-1429                 [16, 64, 4, 4]            --
│    └─Empty: 2-1430                     [16, 64, 4, 4]            --
│    └─Empty: 2-1431                     [16, 64, 4, 4]            --
│    └─OutputShiftSqueeze: 2-1432        --                        --
│    └─One: 2-1433                       [1]                       --
│    └─OutputScale: 2-1434               --                        --
│    └─Empty: 2-1435                     [64, 64, 3, 3]            --
│    └─Empty: 2-1436                     [64, 64, 3, 3]            --
│    └─Empty: 2-1437                     [64]                      --
│    └─Empty: 2-1438                     [64]                      --
│    └─BatchNorm2d: 2-1439               [16, 64, 4, 4]            --
│    └─Scaler: 2-1440                    [16, 64, 4, 4]            --
│    └─ReLU: 2-1441                      [16, 64, 4, 4]            --
│    └─Empty: 2-1442                     [16, 64, 4, 4]            --
│    └─Clamp: 2-1443                     [16, 64, 4, 4]            --
├─FusedConv2dBNReLU: 1-110               [16, 64, 4, 4]            (recursive)
│    └─OutputShiftSqueeze: 2-1444        --                        --
│    └─One: 2-1445                       [1]                       --
│    └─OutputScale: 2-1446               --                        --
│    └─Empty: 2-1447                     [64, 64, 1, 1]            --
│    └─Empty: 2-1448                     [64, 64, 1, 1]            --
│    └─Empty: 2-1449                     [64]                      --
│    └─Empty: 2-1450                     [64]                      --
│    └─BatchNorm2d: 2-1451               [16, 64, 4, 4]            --
│    └─Scaler: 2-1452                    [16, 64, 4, 4]            --
│    └─ReLU: 2-1453                      [16, 64, 4, 4]            --
│    └─Empty: 2-1454                     [16, 64, 4, 4]            --
│    └─Clamp: 2-1455                     [16, 64, 4, 4]            --
├─FusedMaxPoolConv2dBNReLU: 1-111        [16, 64, 4, 4]            (recursive)
│    └─MaxPool2d: 2-1456                 [16, 64, 4, 4]            --
│    └─Empty: 2-1457                     [16, 64, 4, 4]            --
│    └─Empty: 2-1458                     [16, 64, 4, 4]            --
│    └─OutputShiftSqueeze: 2-1459        --                        --
│    └─One: 2-1460                       [1]                       --
│    └─OutputScale: 2-1461               --                        --
│    └─Empty: 2-1462                     [64, 64, 3, 3]            --
│    └─Empty: 2-1463                     [64, 64, 3, 3]            --
│    └─Empty: 2-1464                     [64]                      --
│    └─Empty: 2-1465                     [64]                      --
│    └─BatchNorm2d: 2-1466               [16, 64, 4, 4]            --
│    └─Scaler: 2-1467                    [16, 64, 4, 4]            --
│    └─ReLU: 2-1468                      [16, 64, 4, 4]            --
│    └─Empty: 2-1469                     [16, 64, 4, 4]            --
│    └─Clamp: 2-1470                     [16, 64, 4, 4]            --
├─FusedMaxPoolConv2dBNReLU: 1-112        [16, 64, 2, 2]            (recursive)
│    └─MaxPool2d: 2-1471                 [16, 64, 2, 2]            --
│    └─Empty: 2-1472                     [16, 64, 2, 2]            --
│    └─Empty: 2-1473                     [16, 64, 2, 2]            --
│    └─OutputShiftSqueeze: 2-1474        --                        --
│    └─One: 2-1475                       [1]                       --
│    └─OutputScale: 2-1476               --                        --
│    └─Empty: 2-1477                     [64, 64, 3, 3]            --
│    └─Empty: 2-1478                     [64, 64, 3, 3]            --
│    └─Empty: 2-1479                     [64]                      --
│    └─Empty: 2-1480                     [64]                      --
│    └─BatchNorm2d: 2-1481               [16, 64, 2, 2]            --
│    └─Scaler: 2-1482                    [16, 64, 2, 2]            --
│    └─ReLU: 2-1483                      [16, 64, 2, 2]            --
│    └─Empty: 2-1484                     [16, 64, 2, 2]            --
│    └─Clamp: 2-1485                     [16, 64, 2, 2]            --
├─FusedConv2dBNReLU: 1-113               [16, 64, 2, 2]            (recursive)
│    └─OutputShiftSqueeze: 2-1486        --                        --
│    └─One: 2-1487                       [1]                       --
│    └─OutputScale: 2-1488               --                        --
│    └─Empty: 2-1489                     [64, 64, 1, 1]            --
│    └─Empty: 2-1490                     [64, 64, 1, 1]            --
│    └─Empty: 2-1491                     [64]                      --
│    └─Empty: 2-1492                     [64]                      --
│    └─BatchNorm2d: 2-1493               [16, 64, 2, 2]            --
│    └─Scaler: 2-1494                    [16, 64, 2, 2]            --
│    └─ReLU: 2-1495                      [16, 64, 2, 2]            --
│    └─Empty: 2-1496                     [16, 64, 2, 2]            --
│    └─Clamp: 2-1497                     [16, 64, 2, 2]            --
├─FusedMaxPoolConv2dBNReLU: 1-114        [16, 64, 2, 2]            (recursive)
│    └─MaxPool2d: 2-1498                 [16, 64, 2, 2]            --
│    └─Empty: 2-1499                     [16, 64, 2, 2]            --
│    └─Empty: 2-1500                     [16, 64, 2, 2]            --
│    └─OutputShiftSqueeze: 2-1501        --                        --
│    └─One: 2-1502                       [1]                       --
│    └─OutputScale: 2-1503               --                        --
│    └─Empty: 2-1504                     [64, 64, 3, 3]            --
│    └─Empty: 2-1505                     [64, 64, 3, 3]            --
│    └─Empty: 2-1506                     [64]                      --
│    └─Empty: 2-1507                     [64]                      --
│    └─BatchNorm2d: 2-1508               [16, 64, 2, 2]            --
│    └─Scaler: 2-1509                    [16, 64, 2, 2]            --
│    └─ReLU: 2-1510                      [16, 64, 2, 2]            --
│    └─Empty: 2-1511                     [16, 64, 2, 2]            --
│    └─Clamp: 2-1512                     [16, 64, 2, 2]            --
├─FusedConv2dBNReLU: 1-115               [16, 64, 64, 64]          (recursive)
│    └─OutputShiftSqueeze: 2-1513        --                        --
│    └─One: 2-1514                       [1]                       --
│    └─OutputScale: 2-1515               --                        --
│    └─Empty: 2-1516                     [64, 48, 1, 1]            --
│    └─Empty: 2-1517                     [64, 48, 1, 1]            --
│    └─Empty: 2-1518                     [64]                      --
│    └─Empty: 2-1519                     [64]                      --
│    └─BatchNorm2d: 2-1520               [16, 64, 64, 64]          --
│    └─Scaler: 2-1521                    [16, 64, 64, 64]          --
│    └─ReLU: 2-1522                      [16, 64, 64, 64]          --
│    └─Empty: 2-1523                     [16, 64, 64, 64]          --
│    └─Clamp: 2-1524                     [16, 64, 64, 64]          --
├─FusedConv2dBNReLU: 1-116               [16, 64, 64, 64]          (recursive)
│    └─OutputShiftSqueeze: 2-1525        --                        --
│    └─One: 2-1526                       [1]                       --
│    └─OutputScale: 2-1527               --                        --
│    └─Empty: 2-1528                     [64, 64, 3, 3]            --
│    └─Empty: 2-1529                     [64, 64, 3, 3]            --
│    └─Empty: 2-1530                     [64]                      --
│    └─Empty: 2-1531                     [64]                      --
│    └─BatchNorm2d: 2-1532               [16, 64, 64, 64]          --
│    └─Scaler: 2-1533                    [16, 64, 64, 64]          --
│    └─ReLU: 2-1534                      [16, 64, 64, 64]          --
│    └─Empty: 2-1535                     [16, 64, 64, 64]          --
│    └─Clamp: 2-1536                     [16, 64, 64, 64]          --
├─FusedConv2dBNReLU: 1-117               [16, 64, 64, 64]          (recursive)
│    └─OutputShiftSqueeze: 2-1537        --                        --
│    └─One: 2-1538                       [1]                       --
│    └─OutputScale: 2-1539               --                        --
│    └─Empty: 2-1540                     [64, 64, 3, 3]            --
│    └─Empty: 2-1541                     [64, 64, 3, 3]            --
│    └─Empty: 2-1542                     [64]                      --
│    └─Empty: 2-1543                     [64]                      --
│    └─BatchNorm2d: 2-1544               [16, 64, 64, 64]          --
│    └─Scaler: 2-1545                    [16, 64, 64, 64]          --
│    └─ReLU: 2-1546                      [16, 64, 64, 64]          --
│    └─Empty: 2-1547                     [16, 64, 64, 64]          --
│    └─Clamp: 2-1548                     [16, 64, 64, 64]          --
├─FusedConv2dBNReLU: 1-118               [16, 64, 64, 64]          (recursive)
│    └─OutputShiftSqueeze: 2-1549        --                        --
│    └─One: 2-1550                       [1]                       --
│    └─OutputScale: 2-1551               --                        --
│    └─Empty: 2-1552                     [64, 64, 1, 1]            --
│    └─Empty: 2-1553                     [64, 64, 1, 1]            --
│    └─Empty: 2-1554                     [64]                      --
│    └─Empty: 2-1555                     [64]                      --
│    └─BatchNorm2d: 2-1556               [16, 64, 64, 64]          --
│    └─Scaler: 2-1557                    [16, 64, 64, 64]          --
│    └─ReLU: 2-1558                      [16, 64, 64, 64]          --
│    └─Empty: 2-1559                     [16, 64, 64, 64]          --
│    └─Clamp: 2-1560                     [16, 64, 64, 64]          --
├─FusedConv2dBNReLU: 1-119               [16, 64, 64, 64]          (recursive)
│    └─OutputShiftSqueeze: 2-1561        --                        --
│    └─One: 2-1562                       [1]                       --
│    └─OutputScale: 2-1563               --                        --
│    └─Empty: 2-1564                     [64, 64, 3, 3]            --
│    └─Empty: 2-1565                     [64, 64, 3, 3]            --
│    └─Empty: 2-1566                     [64]                      --
│    └─Empty: 2-1567                     [64]                      --
│    └─BatchNorm2d: 2-1568               [16, 64, 64, 64]          --
│    └─Scaler: 2-1569                    [16, 64, 64, 64]          --
│    └─ReLU: 2-1570                      [16, 64, 64, 64]          --
│    └─Empty: 2-1571                     [16, 64, 64, 64]          --
│    └─Clamp: 2-1572                     [16, 64, 64, 64]          --
├─FusedConv2dBNReLU: 1-120               [16, 64, 64, 64]          (recursive)
│    └─OutputShiftSqueeze: 2-1573        --                        --
│    └─One: 2-1574                       [1]                       --
│    └─OutputScale: 2-1575               --                        --
│    └─Empty: 2-1576                     [64, 64, 3, 3]            --
│    └─Empty: 2-1577                     [64, 64, 3, 3]            --
│    └─Empty: 2-1578                     [64]                      --
│    └─Empty: 2-1579                     [64]                      --
│    └─BatchNorm2d: 2-1580               [16, 64, 64, 64]          --
│    └─Scaler: 2-1581                    [16, 64, 64, 64]          --
│    └─ReLU: 2-1582                      [16, 64, 64, 64]          --
│    └─Empty: 2-1583                     [16, 64, 64, 64]          --
│    └─Clamp: 2-1584                     [16, 64, 64, 64]          --
├─FusedMaxPoolConv2dBNReLU: 1-121        [16, 64, 32, 32]          (recursive)
│    └─MaxPool2d: 2-1585                 [16, 64, 32, 32]          --
│    └─Empty: 2-1586                     [16, 64, 32, 32]          --
│    └─Empty: 2-1587                     [16, 64, 32, 32]          --
│    └─OutputShiftSqueeze: 2-1588        --                        --
│    └─One: 2-1589                       [1]                       --
│    └─OutputScale: 2-1590               --                        --
│    └─Empty: 2-1591                     [64, 64, 3, 3]            --
│    └─Empty: 2-1592                     [64, 64, 3, 3]            --
│    └─Empty: 2-1593                     [64]                      --
│    └─Empty: 2-1594                     [64]                      --
│    └─BatchNorm2d: 2-1595               [16, 64, 32, 32]          --
│    └─Scaler: 2-1596                    [16, 64, 32, 32]          --
│    └─ReLU: 2-1597                      [16, 64, 32, 32]          --
│    └─Empty: 2-1598                     [16, 64, 32, 32]          --
│    └─Clamp: 2-1599                     [16, 64, 32, 32]          --
├─FusedConv2dBNReLU: 1-122               [16, 64, 32, 32]          (recursive)
│    └─OutputShiftSqueeze: 2-1600        --                        --
│    └─One: 2-1601                       [1]                       --
│    └─OutputScale: 2-1602               --                        --
│    └─Empty: 2-1603                     [64, 64, 3, 3]            --
│    └─Empty: 2-1604                     [64, 64, 3, 3]            --
│    └─Empty: 2-1605                     [64]                      --
│    └─Empty: 2-1606                     [64]                      --
│    └─BatchNorm2d: 2-1607               [16, 64, 32, 32]          --
│    └─Scaler: 2-1608                    [16, 64, 32, 32]          --
│    └─ReLU: 2-1609                      [16, 64, 32, 32]          --
│    └─Empty: 2-1610                     [16, 64, 32, 32]          --
│    └─Clamp: 2-1611                     [16, 64, 32, 32]          --
├─FusedMaxPoolConv2dBNReLU: 1-123        [16, 64, 16, 16]          (recursive)
│    └─MaxPool2d: 2-1612                 [16, 64, 16, 16]          --
│    └─Empty: 2-1613                     [16, 64, 16, 16]          --
│    └─Empty: 2-1614                     [16, 64, 16, 16]          --
│    └─OutputShiftSqueeze: 2-1615        --                        --
│    └─One: 2-1616                       [1]                       --
│    └─OutputScale: 2-1617               --                        --
│    └─Empty: 2-1618                     [64, 64, 3, 3]            --
│    └─Empty: 2-1619                     [64, 64, 3, 3]            --
│    └─Empty: 2-1620                     [64]                      --
│    └─Empty: 2-1621                     [64]                      --
│    └─BatchNorm2d: 2-1622               [16, 64, 16, 16]          --
│    └─Scaler: 2-1623                    [16, 64, 16, 16]          --
│    └─ReLU: 2-1624                      [16, 64, 16, 16]          --
│    └─Empty: 2-1625                     [16, 64, 16, 16]          --
│    └─Clamp: 2-1626                     [16, 64, 16, 16]          --
├─FusedConv2dBNReLU: 1-124               [16, 64, 16, 16]          (recursive)
│    └─OutputShiftSqueeze: 2-1627        --                        --
│    └─One: 2-1628                       [1]                       --
│    └─OutputScale: 2-1629               --                        --
│    └─Empty: 2-1630                     [64, 64, 3, 3]            --
│    └─Empty: 2-1631                     [64, 64, 3, 3]            --
│    └─Empty: 2-1632                     [64]                      --
│    └─Empty: 2-1633                     [64]                      --
│    └─BatchNorm2d: 2-1634               [16, 64, 16, 16]          --
│    └─Scaler: 2-1635                    [16, 64, 16, 16]          --
│    └─ReLU: 2-1636                      [16, 64, 16, 16]          --
│    └─Empty: 2-1637                     [16, 64, 16, 16]          --
│    └─Clamp: 2-1638                     [16, 64, 16, 16]          --
├─FusedMaxPoolConv2dBNReLU: 1-125        [16, 64, 8, 8]            (recursive)
│    └─MaxPool2d: 2-1639                 [16, 64, 8, 8]            --
│    └─Empty: 2-1640                     [16, 64, 8, 8]            --
│    └─Empty: 2-1641                     [16, 64, 8, 8]            --
│    └─OutputShiftSqueeze: 2-1642        --                        --
│    └─One: 2-1643                       [1]                       --
│    └─OutputScale: 2-1644               --                        --
│    └─Empty: 2-1645                     [64, 64, 3, 3]            --
│    └─Empty: 2-1646                     [64, 64, 3, 3]            --
│    └─Empty: 2-1647                     [64]                      --
│    └─Empty: 2-1648                     [64]                      --
│    └─BatchNorm2d: 2-1649               [16, 64, 8, 8]            --
│    └─Scaler: 2-1650                    [16, 64, 8, 8]            --
│    └─ReLU: 2-1651                      [16, 64, 8, 8]            --
│    └─Empty: 2-1652                     [16, 64, 8, 8]            --
│    └─Clamp: 2-1653                     [16, 64, 8, 8]            --
├─FusedConv2dBNReLU: 1-126               [16, 64, 8, 8]            (recursive)
│    └─OutputShiftSqueeze: 2-1654        --                        --
│    └─One: 2-1655                       [1]                       --
│    └─OutputScale: 2-1656               --                        --
│    └─Empty: 2-1657                     [64, 64, 1, 1]            --
│    └─Empty: 2-1658                     [64, 64, 1, 1]            --
│    └─Empty: 2-1659                     [64]                      --
│    └─Empty: 2-1660                     [64]                      --
│    └─BatchNorm2d: 2-1661               [16, 64, 8, 8]            --
│    └─Scaler: 2-1662                    [16, 64, 8, 8]            --
│    └─ReLU: 2-1663                      [16, 64, 8, 8]            --
│    └─Empty: 2-1664                     [16, 64, 8, 8]            --
│    └─Clamp: 2-1665                     [16, 64, 8, 8]            --
├─FusedMaxPoolConv2dBNReLU: 1-127        [16, 64, 8, 8]            (recursive)
│    └─MaxPool2d: 2-1666                 [16, 64, 8, 8]            --
│    └─Empty: 2-1667                     [16, 64, 8, 8]            --
│    └─Empty: 2-1668                     [16, 64, 8, 8]            --
│    └─OutputShiftSqueeze: 2-1669        --                        --
│    └─One: 2-1670                       [1]                       --
│    └─OutputScale: 2-1671               --                        --
│    └─Empty: 2-1672                     [64, 64, 3, 3]            --
│    └─Empty: 2-1673                     [64, 64, 3, 3]            --
│    └─Empty: 2-1674                     [64]                      --
│    └─Empty: 2-1675                     [64]                      --
│    └─BatchNorm2d: 2-1676               [16, 64, 8, 8]            --
│    └─Scaler: 2-1677                    [16, 64, 8, 8]            --
│    └─ReLU: 2-1678                      [16, 64, 8, 8]            --
│    └─Empty: 2-1679                     [16, 64, 8, 8]            --
│    └─Clamp: 2-1680                     [16, 64, 8, 8]            --
├─FusedMaxPoolConv2dBNReLU: 1-128        [16, 64, 4, 4]            (recursive)
│    └─MaxPool2d: 2-1681                 [16, 64, 4, 4]            --
│    └─Empty: 2-1682                     [16, 64, 4, 4]            --
│    └─Empty: 2-1683                     [16, 64, 4, 4]            --
│    └─OutputShiftSqueeze: 2-1684        --                        --
│    └─One: 2-1685                       [1]                       --
│    └─OutputScale: 2-1686               --                        --
│    └─Empty: 2-1687                     [64, 64, 3, 3]            --
│    └─Empty: 2-1688                     [64, 64, 3, 3]            --
│    └─Empty: 2-1689                     [64]                      --
│    └─Empty: 2-1690                     [64]                      --
│    └─BatchNorm2d: 2-1691               [16, 64, 4, 4]            --
│    └─Scaler: 2-1692                    [16, 64, 4, 4]            --
│    └─ReLU: 2-1693                      [16, 64, 4, 4]            --
│    └─Empty: 2-1694                     [16, 64, 4, 4]            --
│    └─Clamp: 2-1695                     [16, 64, 4, 4]            --
├─FusedConv2dBNReLU: 1-129               [16, 64, 4, 4]            (recursive)
│    └─OutputShiftSqueeze: 2-1696        --                        --
│    └─One: 2-1697                       [1]                       --
│    └─OutputScale: 2-1698               --                        --
│    └─Empty: 2-1699                     [64, 64, 1, 1]            --
│    └─Empty: 2-1700                     [64, 64, 1, 1]            --
│    └─Empty: 2-1701                     [64]                      --
│    └─Empty: 2-1702                     [64]                      --
│    └─BatchNorm2d: 2-1703               [16, 64, 4, 4]            --
│    └─Scaler: 2-1704                    [16, 64, 4, 4]            --
│    └─ReLU: 2-1705                      [16, 64, 4, 4]            --
│    └─Empty: 2-1706                     [16, 64, 4, 4]            --
│    └─Clamp: 2-1707                     [16, 64, 4, 4]            --
├─FusedMaxPoolConv2dBNReLU: 1-130        [16, 64, 4, 4]            (recursive)
│    └─MaxPool2d: 2-1708                 [16, 64, 4, 4]            --
│    └─Empty: 2-1709                     [16, 64, 4, 4]            --
│    └─Empty: 2-1710                     [16, 64, 4, 4]            --
│    └─OutputShiftSqueeze: 2-1711        --                        --
│    └─One: 2-1712                       [1]                       --
│    └─OutputScale: 2-1713               --                        --
│    └─Empty: 2-1714                     [64, 64, 3, 3]            --
│    └─Empty: 2-1715                     [64, 64, 3, 3]            --
│    └─Empty: 2-1716                     [64]                      --
│    └─Empty: 2-1717                     [64]                      --
│    └─BatchNorm2d: 2-1718               [16, 64, 4, 4]            --
│    └─Scaler: 2-1719                    [16, 64, 4, 4]            --
│    └─ReLU: 2-1720                      [16, 64, 4, 4]            --
│    └─Empty: 2-1721                     [16, 64, 4, 4]            --
│    └─Clamp: 2-1722                     [16, 64, 4, 4]            --
├─FusedMaxPoolConv2dBNReLU: 1-131        [16, 64, 2, 2]            (recursive)
│    └─MaxPool2d: 2-1723                 [16, 64, 2, 2]            --
│    └─Empty: 2-1724                     [16, 64, 2, 2]            --
│    └─Empty: 2-1725                     [16, 64, 2, 2]            --
│    └─OutputShiftSqueeze: 2-1726        --                        --
│    └─One: 2-1727                       [1]                       --
│    └─OutputScale: 2-1728               --                        --
│    └─Empty: 2-1729                     [64, 64, 3, 3]            --
│    └─Empty: 2-1730                     [64, 64, 3, 3]            --
│    └─Empty: 2-1731                     [64]                      --
│    └─Empty: 2-1732                     [64]                      --
│    └─BatchNorm2d: 2-1733               [16, 64, 2, 2]            --
│    └─Scaler: 2-1734                    [16, 64, 2, 2]            --
│    └─ReLU: 2-1735                      [16, 64, 2, 2]            --
│    └─Empty: 2-1736                     [16, 64, 2, 2]            --
│    └─Clamp: 2-1737                     [16, 64, 2, 2]            --
├─FusedConv2dBNReLU: 1-132               [16, 64, 2, 2]            (recursive)
│    └─OutputShiftSqueeze: 2-1738        --                        --
│    └─One: 2-1739                       [1]                       --
│    └─OutputScale: 2-1740               --                        --
│    └─Empty: 2-1741                     [64, 64, 1, 1]            --
│    └─Empty: 2-1742                     [64, 64, 1, 1]            --
│    └─Empty: 2-1743                     [64]                      --
│    └─Empty: 2-1744                     [64]                      --
│    └─BatchNorm2d: 2-1745               [16, 64, 2, 2]            --
│    └─Scaler: 2-1746                    [16, 64, 2, 2]            --
│    └─ReLU: 2-1747                      [16, 64, 2, 2]            --
│    └─Empty: 2-1748                     [16, 64, 2, 2]            --
│    └─Clamp: 2-1749                     [16, 64, 2, 2]            --
├─FusedMaxPoolConv2dBNReLU: 1-133        [16, 64, 2, 2]            (recursive)
│    └─MaxPool2d: 2-1750                 [16, 64, 2, 2]            --
│    └─Empty: 2-1751                     [16, 64, 2, 2]            --
│    └─Empty: 2-1752                     [16, 64, 2, 2]            --
│    └─OutputShiftSqueeze: 2-1753        --                        --
│    └─One: 2-1754                       [1]                       --
│    └─OutputScale: 2-1755               --                        --
│    └─Empty: 2-1756                     [64, 64, 3, 3]            --
│    └─Empty: 2-1757                     [64, 64, 3, 3]            --
│    └─Empty: 2-1758                     [64]                      --
│    └─Empty: 2-1759                     [64]                      --
│    └─BatchNorm2d: 2-1760               [16, 64, 2, 2]            --
│    └─Scaler: 2-1761                    [16, 64, 2, 2]            --
│    └─ReLU: 2-1762                      [16, 64, 2, 2]            --
│    └─Empty: 2-1763                     [16, 64, 2, 2]            --
│    └─Clamp: 2-1764                     [16, 64, 2, 2]            --
├─FusedConv2dBNReLU: 1-134               [16, 64, 64, 64]          (recursive)
│    └─OutputShiftSqueeze: 2-1765        --                        --
│    └─One: 2-1766                       [1]                       --
│    └─OutputScale: 2-1767               --                        --
│    └─Empty: 2-1768                     [64, 48, 1, 1]            --
│    └─Empty: 2-1769                     [64, 48, 1, 1]            --
│    └─Empty: 2-1770                     [64]                      --
│    └─Empty: 2-1771                     [64]                      --
│    └─BatchNorm2d: 2-1772               [16, 64, 64, 64]          --
│    └─Scaler: 2-1773                    [16, 64, 64, 64]          --
│    └─ReLU: 2-1774                      [16, 64, 64, 64]          --
│    └─Empty: 2-1775                     [16, 64, 64, 64]          --
│    └─Clamp: 2-1776                     [16, 64, 64, 64]          --
├─FusedConv2dBNReLU: 1-135               [16, 64, 64, 64]          (recursive)
│    └─OutputShiftSqueeze: 2-1777        --                        --
│    └─One: 2-1778                       [1]                       --
│    └─OutputScale: 2-1779               --                        --
│    └─Empty: 2-1780                     [64, 64, 3, 3]            --
│    └─Empty: 2-1781                     [64, 64, 3, 3]            --
│    └─Empty: 2-1782                     [64]                      --
│    └─Empty: 2-1783                     [64]                      --
│    └─BatchNorm2d: 2-1784               [16, 64, 64, 64]          --
│    └─Scaler: 2-1785                    [16, 64, 64, 64]          --
│    └─ReLU: 2-1786                      [16, 64, 64, 64]          --
│    └─Empty: 2-1787                     [16, 64, 64, 64]          --
│    └─Clamp: 2-1788                     [16, 64, 64, 64]          --
├─FusedConv2dBNReLU: 1-136               [16, 64, 64, 64]          (recursive)
│    └─OutputShiftSqueeze: 2-1789        --                        --
│    └─One: 2-1790                       [1]                       --
│    └─OutputScale: 2-1791               --                        --
│    └─Empty: 2-1792                     [64, 64, 3, 3]            --
│    └─Empty: 2-1793                     [64, 64, 3, 3]            --
│    └─Empty: 2-1794                     [64]                      --
│    └─Empty: 2-1795                     [64]                      --
│    └─BatchNorm2d: 2-1796               [16, 64, 64, 64]          --
│    └─Scaler: 2-1797                    [16, 64, 64, 64]          --
│    └─ReLU: 2-1798                      [16, 64, 64, 64]          --
│    └─Empty: 2-1799                     [16, 64, 64, 64]          --
│    └─Clamp: 2-1800                     [16, 64, 64, 64]          --
├─FusedConv2dBNReLU: 1-137               [16, 64, 64, 64]          (recursive)
│    └─OutputShiftSqueeze: 2-1801        --                        --
│    └─One: 2-1802                       [1]                       --
│    └─OutputScale: 2-1803               --                        --
│    └─Empty: 2-1804                     [64, 64, 1, 1]            --
│    └─Empty: 2-1805                     [64, 64, 1, 1]            --
│    └─Empty: 2-1806                     [64]                      --
│    └─Empty: 2-1807                     [64]                      --
│    └─BatchNorm2d: 2-1808               [16, 64, 64, 64]          --
│    └─Scaler: 2-1809                    [16, 64, 64, 64]          --
│    └─ReLU: 2-1810                      [16, 64, 64, 64]          --
│    └─Empty: 2-1811                     [16, 64, 64, 64]          --
│    └─Clamp: 2-1812                     [16, 64, 64, 64]          --
├─FusedConv2dBNReLU: 1-138               [16, 64, 64, 64]          (recursive)
│    └─OutputShiftSqueeze: 2-1813        --                        --
│    └─One: 2-1814                       [1]                       --
│    └─OutputScale: 2-1815               --                        --
│    └─Empty: 2-1816                     [64, 64, 3, 3]            --
│    └─Empty: 2-1817                     [64, 64, 3, 3]            --
│    └─Empty: 2-1818                     [64]                      --
│    └─Empty: 2-1819                     [64]                      --
│    └─BatchNorm2d: 2-1820               [16, 64, 64, 64]          --
│    └─Scaler: 2-1821                    [16, 64, 64, 64]          --
│    └─ReLU: 2-1822                      [16, 64, 64, 64]          --
│    └─Empty: 2-1823                     [16, 64, 64, 64]          --
│    └─Clamp: 2-1824                     [16, 64, 64, 64]          --
├─FusedConv2dBNReLU: 1-139               [16, 64, 64, 64]          (recursive)
│    └─OutputShiftSqueeze: 2-1825        --                        --
│    └─One: 2-1826                       [1]                       --
│    └─OutputScale: 2-1827               --                        --
│    └─Empty: 2-1828                     [64, 64, 3, 3]            --
│    └─Empty: 2-1829                     [64, 64, 3, 3]            --
│    └─Empty: 2-1830                     [64]                      --
│    └─Empty: 2-1831                     [64]                      --
│    └─BatchNorm2d: 2-1832               [16, 64, 64, 64]          --
│    └─Scaler: 2-1833                    [16, 64, 64, 64]          --
│    └─ReLU: 2-1834                      [16, 64, 64, 64]          --
│    └─Empty: 2-1835                     [16, 64, 64, 64]          --
│    └─Clamp: 2-1836                     [16, 64, 64, 64]          --
├─FusedMaxPoolConv2dBNReLU: 1-140        [16, 64, 32, 32]          (recursive)
│    └─MaxPool2d: 2-1837                 [16, 64, 32, 32]          --
│    └─Empty: 2-1838                     [16, 64, 32, 32]          --
│    └─Empty: 2-1839                     [16, 64, 32, 32]          --
│    └─OutputShiftSqueeze: 2-1840        --                        --
│    └─One: 2-1841                       [1]                       --
│    └─OutputScale: 2-1842               --                        --
│    └─Empty: 2-1843                     [64, 64, 3, 3]            --
│    └─Empty: 2-1844                     [64, 64, 3, 3]            --
│    └─Empty: 2-1845                     [64]                      --
│    └─Empty: 2-1846                     [64]                      --
│    └─BatchNorm2d: 2-1847               [16, 64, 32, 32]          --
│    └─Scaler: 2-1848                    [16, 64, 32, 32]          --
│    └─ReLU: 2-1849                      [16, 64, 32, 32]          --
│    └─Empty: 2-1850                     [16, 64, 32, 32]          --
│    └─Clamp: 2-1851                     [16, 64, 32, 32]          --
├─FusedConv2dBNReLU: 1-141               [16, 64, 32, 32]          (recursive)
│    └─OutputShiftSqueeze: 2-1852        --                        --
│    └─One: 2-1853                       [1]                       --
│    └─OutputScale: 2-1854               --                        --
│    └─Empty: 2-1855                     [64, 64, 3, 3]            --
│    └─Empty: 2-1856                     [64, 64, 3, 3]            --
│    └─Empty: 2-1857                     [64]                      --
│    └─Empty: 2-1858                     [64]                      --
│    └─BatchNorm2d: 2-1859               [16, 64, 32, 32]          --
│    └─Scaler: 2-1860                    [16, 64, 32, 32]          --
│    └─ReLU: 2-1861                      [16, 64, 32, 32]          --
│    └─Empty: 2-1862                     [16, 64, 32, 32]          --
│    └─Clamp: 2-1863                     [16, 64, 32, 32]          --
├─FusedMaxPoolConv2dBNReLU: 1-142        [16, 64, 16, 16]          (recursive)
│    └─MaxPool2d: 2-1864                 [16, 64, 16, 16]          --
│    └─Empty: 2-1865                     [16, 64, 16, 16]          --
│    └─Empty: 2-1866                     [16, 64, 16, 16]          --
│    └─OutputShiftSqueeze: 2-1867        --                        --
│    └─One: 2-1868                       [1]                       --
│    └─OutputScale: 2-1869               --                        --
│    └─Empty: 2-1870                     [64, 64, 3, 3]            --
│    └─Empty: 2-1871                     [64, 64, 3, 3]            --
│    └─Empty: 2-1872                     [64]                      --
│    └─Empty: 2-1873                     [64]                      --
│    └─BatchNorm2d: 2-1874               [16, 64, 16, 16]          --
│    └─Scaler: 2-1875                    [16, 64, 16, 16]          --
│    └─ReLU: 2-1876                      [16, 64, 16, 16]          --
│    └─Empty: 2-1877                     [16, 64, 16, 16]          --
│    └─Clamp: 2-1878                     [16, 64, 16, 16]          --
├─FusedConv2dBNReLU: 1-143               [16, 64, 16, 16]          (recursive)
│    └─OutputShiftSqueeze: 2-1879        --                        --
│    └─One: 2-1880                       [1]                       --
│    └─OutputScale: 2-1881               --                        --
│    └─Empty: 2-1882                     [64, 64, 3, 3]            --
│    └─Empty: 2-1883                     [64, 64, 3, 3]            --
│    └─Empty: 2-1884                     [64]                      --
│    └─Empty: 2-1885                     [64]                      --
│    └─BatchNorm2d: 2-1886               [16, 64, 16, 16]          --
│    └─Scaler: 2-1887                    [16, 64, 16, 16]          --
│    └─ReLU: 2-1888                      [16, 64, 16, 16]          --
│    └─Empty: 2-1889                     [16, 64, 16, 16]          --
│    └─Clamp: 2-1890                     [16, 64, 16, 16]          --
├─FusedMaxPoolConv2dBNReLU: 1-144        [16, 64, 8, 8]            (recursive)
│    └─MaxPool2d: 2-1891                 [16, 64, 8, 8]            --
│    └─Empty: 2-1892                     [16, 64, 8, 8]            --
│    └─Empty: 2-1893                     [16, 64, 8, 8]            --
│    └─OutputShiftSqueeze: 2-1894        --                        --
│    └─One: 2-1895                       [1]                       --
│    └─OutputScale: 2-1896               --                        --
│    └─Empty: 2-1897                     [64, 64, 3, 3]            --
│    └─Empty: 2-1898                     [64, 64, 3, 3]            --
│    └─Empty: 2-1899                     [64]                      --
│    └─Empty: 2-1900                     [64]                      --
│    └─BatchNorm2d: 2-1901               [16, 64, 8, 8]            --
│    └─Scaler: 2-1902                    [16, 64, 8, 8]            --
│    └─ReLU: 2-1903                      [16, 64, 8, 8]            --
│    └─Empty: 2-1904                     [16, 64, 8, 8]            --
│    └─Clamp: 2-1905                     [16, 64, 8, 8]            --
├─FusedConv2dBNReLU: 1-145               [16, 64, 8, 8]            (recursive)
│    └─OutputShiftSqueeze: 2-1906        --                        --
│    └─One: 2-1907                       [1]                       --
│    └─OutputScale: 2-1908               --                        --
│    └─Empty: 2-1909                     [64, 64, 1, 1]            --
│    └─Empty: 2-1910                     [64, 64, 1, 1]            --
│    └─Empty: 2-1911                     [64]                      --
│    └─Empty: 2-1912                     [64]                      --
│    └─BatchNorm2d: 2-1913               [16, 64, 8, 8]            --
│    └─Scaler: 2-1914                    [16, 64, 8, 8]            --
│    └─ReLU: 2-1915                      [16, 64, 8, 8]            --
│    └─Empty: 2-1916                     [16, 64, 8, 8]            --
│    └─Clamp: 2-1917                     [16, 64, 8, 8]            --
├─FusedMaxPoolConv2dBNReLU: 1-146        [16, 64, 8, 8]            (recursive)
│    └─MaxPool2d: 2-1918                 [16, 64, 8, 8]            --
│    └─Empty: 2-1919                     [16, 64, 8, 8]            --
│    └─Empty: 2-1920                     [16, 64, 8, 8]            --
│    └─OutputShiftSqueeze: 2-1921        --                        --
│    └─One: 2-1922                       [1]                       --
│    └─OutputScale: 2-1923               --                        --
│    └─Empty: 2-1924                     [64, 64, 3, 3]            --
│    └─Empty: 2-1925                     [64, 64, 3, 3]            --
│    └─Empty: 2-1926                     [64]                      --
│    └─Empty: 2-1927                     [64]                      --
│    └─BatchNorm2d: 2-1928               [16, 64, 8, 8]            --
│    └─Scaler: 2-1929                    [16, 64, 8, 8]            --
│    └─ReLU: 2-1930                      [16, 64, 8, 8]            --
│    └─Empty: 2-1931                     [16, 64, 8, 8]            --
│    └─Clamp: 2-1932                     [16, 64, 8, 8]            --
├─FusedMaxPoolConv2dBNReLU: 1-147        [16, 64, 4, 4]            (recursive)
│    └─MaxPool2d: 2-1933                 [16, 64, 4, 4]            --
│    └─Empty: 2-1934                     [16, 64, 4, 4]            --
│    └─Empty: 2-1935                     [16, 64, 4, 4]            --
│    └─OutputShiftSqueeze: 2-1936        --                        --
│    └─One: 2-1937                       [1]                       --
│    └─OutputScale: 2-1938               --                        --
│    └─Empty: 2-1939                     [64, 64, 3, 3]            --
│    └─Empty: 2-1940                     [64, 64, 3, 3]            --
│    └─Empty: 2-1941                     [64]                      --
│    └─Empty: 2-1942                     [64]                      --
│    └─BatchNorm2d: 2-1943               [16, 64, 4, 4]            --
│    └─Scaler: 2-1944                    [16, 64, 4, 4]            --
│    └─ReLU: 2-1945                      [16, 64, 4, 4]            --
│    └─Empty: 2-1946                     [16, 64, 4, 4]            --
│    └─Clamp: 2-1947                     [16, 64, 4, 4]            --
├─FusedConv2dBNReLU: 1-148               [16, 64, 4, 4]            (recursive)
│    └─OutputShiftSqueeze: 2-1948        --                        --
│    └─One: 2-1949                       [1]                       --
│    └─OutputScale: 2-1950               --                        --
│    └─Empty: 2-1951                     [64, 64, 1, 1]            --
│    └─Empty: 2-1952                     [64, 64, 1, 1]            --
│    └─Empty: 2-1953                     [64]                      --
│    └─Empty: 2-1954                     [64]                      --
│    └─BatchNorm2d: 2-1955               [16, 64, 4, 4]            --
│    └─Scaler: 2-1956                    [16, 64, 4, 4]            --
│    └─ReLU: 2-1957                      [16, 64, 4, 4]            --
│    └─Empty: 2-1958                     [16, 64, 4, 4]            --
│    └─Clamp: 2-1959                     [16, 64, 4, 4]            --
├─FusedMaxPoolConv2dBNReLU: 1-149        [16, 64, 4, 4]            (recursive)
│    └─MaxPool2d: 2-1960                 [16, 64, 4, 4]            --
│    └─Empty: 2-1961                     [16, 64, 4, 4]            --
│    └─Empty: 2-1962                     [16, 64, 4, 4]            --
│    └─OutputShiftSqueeze: 2-1963        --                        --
│    └─One: 2-1964                       [1]                       --
│    └─OutputScale: 2-1965               --                        --
│    └─Empty: 2-1966                     [64, 64, 3, 3]            --
│    └─Empty: 2-1967                     [64, 64, 3, 3]            --
│    └─Empty: 2-1968                     [64]                      --
│    └─Empty: 2-1969                     [64]                      --
│    └─BatchNorm2d: 2-1970               [16, 64, 4, 4]            --
│    └─Scaler: 2-1971                    [16, 64, 4, 4]            --
│    └─ReLU: 2-1972                      [16, 64, 4, 4]            --
│    └─Empty: 2-1973                     [16, 64, 4, 4]            --
│    └─Clamp: 2-1974                     [16, 64, 4, 4]            --
├─FusedMaxPoolConv2dBNReLU: 1-150        [16, 64, 2, 2]            (recursive)
│    └─MaxPool2d: 2-1975                 [16, 64, 2, 2]            --
│    └─Empty: 2-1976                     [16, 64, 2, 2]            --
│    └─Empty: 2-1977                     [16, 64, 2, 2]            --
│    └─OutputShiftSqueeze: 2-1978        --                        --
│    └─One: 2-1979                       [1]                       --
│    └─OutputScale: 2-1980               --                        --
│    └─Empty: 2-1981                     [64, 64, 3, 3]            --
│    └─Empty: 2-1982                     [64, 64, 3, 3]            --
│    └─Empty: 2-1983                     [64]                      --
│    └─Empty: 2-1984                     [64]                      --
│    └─BatchNorm2d: 2-1985               [16, 64, 2, 2]            --
│    └─Scaler: 2-1986                    [16, 64, 2, 2]            --
│    └─ReLU: 2-1987                      [16, 64, 2, 2]            --
│    └─Empty: 2-1988                     [16, 64, 2, 2]            --
│    └─Clamp: 2-1989                     [16, 64, 2, 2]            --
├─FusedConv2dBNReLU: 1-151               [16, 64, 2, 2]            (recursive)
│    └─OutputShiftSqueeze: 2-1990        --                        --
│    └─One: 2-1991                       [1]                       --
│    └─OutputScale: 2-1992               --                        --
│    └─Empty: 2-1993                     [64, 64, 1, 1]            --
│    └─Empty: 2-1994                     [64, 64, 1, 1]            --
│    └─Empty: 2-1995                     [64]                      --
│    └─Empty: 2-1996                     [64]                      --
│    └─BatchNorm2d: 2-1997               [16, 64, 2, 2]            --
│    └─Scaler: 2-1998                    [16, 64, 2, 2]            --
│    └─ReLU: 2-1999                      [16, 64, 2, 2]            --
│    └─Empty: 2-2000                     [16, 64, 2, 2]            --
│    └─Clamp: 2-2001                     [16, 64, 2, 2]            --
├─FusedMaxPoolConv2dBNReLU: 1-152        [16, 64, 2, 2]            (recursive)
│    └─MaxPool2d: 2-2002                 [16, 64, 2, 2]            --
│    └─Empty: 2-2003                     [16, 64, 2, 2]            --
│    └─Empty: 2-2004                     [16, 64, 2, 2]            --
│    └─OutputShiftSqueeze: 2-2005        --                        --
│    └─One: 2-2006                       [1]                       --
│    └─OutputScale: 2-2007               --                        --
│    └─Empty: 2-2008                     [64, 64, 3, 3]            --
│    └─Empty: 2-2009                     [64, 64, 3, 3]            --
│    └─Empty: 2-2010                     [64]                      --
│    └─Empty: 2-2011                     [64]                      --
│    └─BatchNorm2d: 2-2012               [16, 64, 2, 2]            --
│    └─Scaler: 2-2013                    [16, 64, 2, 2]            --
│    └─ReLU: 2-2014                      [16, 64, 2, 2]            --
│    └─Empty: 2-2015                     [16, 64, 2, 2]            --
│    └─Clamp: 2-2016                     [16, 64, 2, 2]            --
├─FusedConv2dBNReLU: 1-153               [16, 64, 64, 64]          (recursive)
│    └─OutputShiftSqueeze: 2-2017        --                        --
│    └─One: 2-2018                       [1]                       --
│    └─OutputScale: 2-2019               --                        --
│    └─Empty: 2-2020                     [64, 48, 1, 1]            --
│    └─Empty: 2-2021                     [64, 48, 1, 1]            --
│    └─Empty: 2-2022                     [64]                      --
│    └─Empty: 2-2023                     [64]                      --
│    └─BatchNorm2d: 2-2024               [16, 64, 64, 64]          --
│    └─Scaler: 2-2025                    [16, 64, 64, 64]          --
│    └─ReLU: 2-2026                      [16, 64, 64, 64]          --
│    └─Empty: 2-2027                     [16, 64, 64, 64]          --
│    └─Clamp: 2-2028                     [16, 64, 64, 64]          --
├─FusedConv2dBNReLU: 1-154               [16, 64, 64, 64]          (recursive)
│    └─OutputShiftSqueeze: 2-2029        --                        --
│    └─One: 2-2030                       [1]                       --
│    └─OutputScale: 2-2031               --                        --
│    └─Empty: 2-2032                     [64, 64, 3, 3]            --
│    └─Empty: 2-2033                     [64, 64, 3, 3]            --
│    └─Empty: 2-2034                     [64]                      --
│    └─Empty: 2-2035                     [64]                      --
│    └─BatchNorm2d: 2-2036               [16, 64, 64, 64]          --
│    └─Scaler: 2-2037                    [16, 64, 64, 64]          --
│    └─ReLU: 2-2038                      [16, 64, 64, 64]          --
│    └─Empty: 2-2039                     [16, 64, 64, 64]          --
│    └─Clamp: 2-2040                     [16, 64, 64, 64]          --
├─FusedConv2dBNReLU: 1-155               [16, 64, 64, 64]          (recursive)
│    └─OutputShiftSqueeze: 2-2041        --                        --
│    └─One: 2-2042                       [1]                       --
│    └─OutputScale: 2-2043               --                        --
│    └─Empty: 2-2044                     [64, 64, 3, 3]            --
│    └─Empty: 2-2045                     [64, 64, 3, 3]            --
│    └─Empty: 2-2046                     [64]                      --
│    └─Empty: 2-2047                     [64]                      --
│    └─BatchNorm2d: 2-2048               [16, 64, 64, 64]          --
│    └─Scaler: 2-2049                    [16, 64, 64, 64]          --
│    └─ReLU: 2-2050                      [16, 64, 64, 64]          --
│    └─Empty: 2-2051                     [16, 64, 64, 64]          --
│    └─Clamp: 2-2052                     [16, 64, 64, 64]          --
├─FusedConv2dBNReLU: 1-156               [16, 64, 64, 64]          (recursive)
│    └─OutputShiftSqueeze: 2-2053        --                        --
│    └─One: 2-2054                       [1]                       --
│    └─OutputScale: 2-2055               --                        --
│    └─Empty: 2-2056                     [64, 64, 1, 1]            --
│    └─Empty: 2-2057                     [64, 64, 1, 1]            --
│    └─Empty: 2-2058                     [64]                      --
│    └─Empty: 2-2059                     [64]                      --
│    └─BatchNorm2d: 2-2060               [16, 64, 64, 64]          --
│    └─Scaler: 2-2061                    [16, 64, 64, 64]          --
│    └─ReLU: 2-2062                      [16, 64, 64, 64]          --
│    └─Empty: 2-2063                     [16, 64, 64, 64]          --
│    └─Clamp: 2-2064                     [16, 64, 64, 64]          --
├─FusedConv2dBNReLU: 1-157               [16, 64, 64, 64]          (recursive)
│    └─OutputShiftSqueeze: 2-2065        --                        --
│    └─One: 2-2066                       [1]                       --
│    └─OutputScale: 2-2067               --                        --
│    └─Empty: 2-2068                     [64, 64, 3, 3]            --
│    └─Empty: 2-2069                     [64, 64, 3, 3]            --
│    └─Empty: 2-2070                     [64]                      --
│    └─Empty: 2-2071                     [64]                      --
│    └─BatchNorm2d: 2-2072               [16, 64, 64, 64]          --
│    └─Scaler: 2-2073                    [16, 64, 64, 64]          --
│    └─ReLU: 2-2074                      [16, 64, 64, 64]          --
│    └─Empty: 2-2075                     [16, 64, 64, 64]          --
│    └─Clamp: 2-2076                     [16, 64, 64, 64]          --
├─FusedConv2dBNReLU: 1-158               [16, 64, 64, 64]          (recursive)
│    └─OutputShiftSqueeze: 2-2077        --                        --
│    └─One: 2-2078                       [1]                       --
│    └─OutputScale: 2-2079               --                        --
│    └─Empty: 2-2080                     [64, 64, 3, 3]            --
│    └─Empty: 2-2081                     [64, 64, 3, 3]            --
│    └─Empty: 2-2082                     [64]                      --
│    └─Empty: 2-2083                     [64]                      --
│    └─BatchNorm2d: 2-2084               [16, 64, 64, 64]          --
│    └─Scaler: 2-2085                    [16, 64, 64, 64]          --
│    └─ReLU: 2-2086                      [16, 64, 64, 64]          --
│    └─Empty: 2-2087                     [16, 64, 64, 64]          --
│    └─Clamp: 2-2088                     [16, 64, 64, 64]          --
├─FusedMaxPoolConv2dBNReLU: 1-159        [16, 64, 32, 32]          (recursive)
│    └─MaxPool2d: 2-2089                 [16, 64, 32, 32]          --
│    └─Empty: 2-2090                     [16, 64, 32, 32]          --
│    └─Empty: 2-2091                     [16, 64, 32, 32]          --
│    └─OutputShiftSqueeze: 2-2092        --                        --
│    └─One: 2-2093                       [1]                       --
│    └─OutputScale: 2-2094               --                        --
│    └─Empty: 2-2095                     [64, 64, 3, 3]            --
│    └─Empty: 2-2096                     [64, 64, 3, 3]            --
│    └─Empty: 2-2097                     [64]                      --
│    └─Empty: 2-2098                     [64]                      --
│    └─BatchNorm2d: 2-2099               [16, 64, 32, 32]          --
│    └─Scaler: 2-2100                    [16, 64, 32, 32]          --
│    └─ReLU: 2-2101                      [16, 64, 32, 32]          --
│    └─Empty: 2-2102                     [16, 64, 32, 32]          --
│    └─Clamp: 2-2103                     [16, 64, 32, 32]          --
├─FusedConv2dBNReLU: 1-160               [16, 64, 32, 32]          (recursive)
│    └─OutputShiftSqueeze: 2-2104        --                        --
│    └─One: 2-2105                       [1]                       --
│    └─OutputScale: 2-2106               --                        --
│    └─Empty: 2-2107                     [64, 64, 3, 3]            --
│    └─Empty: 2-2108                     [64, 64, 3, 3]            --
│    └─Empty: 2-2109                     [64]                      --
│    └─Empty: 2-2110                     [64]                      --
│    └─BatchNorm2d: 2-2111               [16, 64, 32, 32]          --
│    └─Scaler: 2-2112                    [16, 64, 32, 32]          --
│    └─ReLU: 2-2113                      [16, 64, 32, 32]          --
│    └─Empty: 2-2114                     [16, 64, 32, 32]          --
│    └─Clamp: 2-2115                     [16, 64, 32, 32]          --
├─FusedMaxPoolConv2dBNReLU: 1-161        [16, 64, 16, 16]          (recursive)
│    └─MaxPool2d: 2-2116                 [16, 64, 16, 16]          --
│    └─Empty: 2-2117                     [16, 64, 16, 16]          --
│    └─Empty: 2-2118                     [16, 64, 16, 16]          --
│    └─OutputShiftSqueeze: 2-2119        --                        --
│    └─One: 2-2120                       [1]                       --
│    └─OutputScale: 2-2121               --                        --
│    └─Empty: 2-2122                     [64, 64, 3, 3]            --
│    └─Empty: 2-2123                     [64, 64, 3, 3]            --
│    └─Empty: 2-2124                     [64]                      --
│    └─Empty: 2-2125                     [64]                      --
│    └─BatchNorm2d: 2-2126               [16, 64, 16, 16]          --
│    └─Scaler: 2-2127                    [16, 64, 16, 16]          --
│    └─ReLU: 2-2128                      [16, 64, 16, 16]          --
│    └─Empty: 2-2129                     [16, 64, 16, 16]          --
│    └─Clamp: 2-2130                     [16, 64, 16, 16]          --
├─FusedConv2dBNReLU: 1-162               [16, 64, 16, 16]          (recursive)
│    └─OutputShiftSqueeze: 2-2131        --                        --
│    └─One: 2-2132                       [1]                       --
│    └─OutputScale: 2-2133               --                        --
│    └─Empty: 2-2134                     [64, 64, 3, 3]            --
│    └─Empty: 2-2135                     [64, 64, 3, 3]            --
│    └─Empty: 2-2136                     [64]                      --
│    └─Empty: 2-2137                     [64]                      --
│    └─BatchNorm2d: 2-2138               [16, 64, 16, 16]          --
│    └─Scaler: 2-2139                    [16, 64, 16, 16]          --
│    └─ReLU: 2-2140                      [16, 64, 16, 16]          --
│    └─Empty: 2-2141                     [16, 64, 16, 16]          --
│    └─Clamp: 2-2142                     [16, 64, 16, 16]          --
├─FusedMaxPoolConv2dBNReLU: 1-163        [16, 64, 8, 8]            (recursive)
│    └─MaxPool2d: 2-2143                 [16, 64, 8, 8]            --
│    └─Empty: 2-2144                     [16, 64, 8, 8]            --
│    └─Empty: 2-2145                     [16, 64, 8, 8]            --
│    └─OutputShiftSqueeze: 2-2146        --                        --
│    └─One: 2-2147                       [1]                       --
│    └─OutputScale: 2-2148               --                        --
│    └─Empty: 2-2149                     [64, 64, 3, 3]            --
│    └─Empty: 2-2150                     [64, 64, 3, 3]            --
│    └─Empty: 2-2151                     [64]                      --
│    └─Empty: 2-2152                     [64]                      --
│    └─BatchNorm2d: 2-2153               [16, 64, 8, 8]            --
│    └─Scaler: 2-2154                    [16, 64, 8, 8]            --
│    └─ReLU: 2-2155                      [16, 64, 8, 8]            --
│    └─Empty: 2-2156                     [16, 64, 8, 8]            --
│    └─Clamp: 2-2157                     [16, 64, 8, 8]            --
├─FusedConv2dBNReLU: 1-164               [16, 64, 8, 8]            (recursive)
│    └─OutputShiftSqueeze: 2-2158        --                        --
│    └─One: 2-2159                       [1]                       --
│    └─OutputScale: 2-2160               --                        --
│    └─Empty: 2-2161                     [64, 64, 1, 1]            --
│    └─Empty: 2-2162                     [64, 64, 1, 1]            --
│    └─Empty: 2-2163                     [64]                      --
│    └─Empty: 2-2164                     [64]                      --
│    └─BatchNorm2d: 2-2165               [16, 64, 8, 8]            --
│    └─Scaler: 2-2166                    [16, 64, 8, 8]            --
│    └─ReLU: 2-2167                      [16, 64, 8, 8]            --
│    └─Empty: 2-2168                     [16, 64, 8, 8]            --
│    └─Clamp: 2-2169                     [16, 64, 8, 8]            --
├─FusedMaxPoolConv2dBNReLU: 1-165        [16, 64, 8, 8]            (recursive)
│    └─MaxPool2d: 2-2170                 [16, 64, 8, 8]            --
│    └─Empty: 2-2171                     [16, 64, 8, 8]            --
│    └─Empty: 2-2172                     [16, 64, 8, 8]            --
│    └─OutputShiftSqueeze: 2-2173        --                        --
│    └─One: 2-2174                       [1]                       --
│    └─OutputScale: 2-2175               --                        --
│    └─Empty: 2-2176                     [64, 64, 3, 3]            --
│    └─Empty: 2-2177                     [64, 64, 3, 3]            --
│    └─Empty: 2-2178                     [64]                      --
│    └─Empty: 2-2179                     [64]                      --
│    └─BatchNorm2d: 2-2180               [16, 64, 8, 8]            --
│    └─Scaler: 2-2181                    [16, 64, 8, 8]            --
│    └─ReLU: 2-2182                      [16, 64, 8, 8]            --
│    └─Empty: 2-2183                     [16, 64, 8, 8]            --
│    └─Clamp: 2-2184                     [16, 64, 8, 8]            --
├─FusedMaxPoolConv2dBNReLU: 1-166        [16, 64, 4, 4]            (recursive)
│    └─MaxPool2d: 2-2185                 [16, 64, 4, 4]            --
│    └─Empty: 2-2186                     [16, 64, 4, 4]            --
│    └─Empty: 2-2187                     [16, 64, 4, 4]            --
│    └─OutputShiftSqueeze: 2-2188        --                        --
│    └─One: 2-2189                       [1]                       --
│    └─OutputScale: 2-2190               --                        --
│    └─Empty: 2-2191                     [64, 64, 3, 3]            --
│    └─Empty: 2-2192                     [64, 64, 3, 3]            --
│    └─Empty: 2-2193                     [64]                      --
│    └─Empty: 2-2194                     [64]                      --
│    └─BatchNorm2d: 2-2195               [16, 64, 4, 4]            --
│    └─Scaler: 2-2196                    [16, 64, 4, 4]            --
│    └─ReLU: 2-2197                      [16, 64, 4, 4]            --
│    └─Empty: 2-2198                     [16, 64, 4, 4]            --
│    └─Clamp: 2-2199                     [16, 64, 4, 4]            --
├─FusedConv2dBNReLU: 1-167               [16, 64, 4, 4]            (recursive)
│    └─OutputShiftSqueeze: 2-2200        --                        --
│    └─One: 2-2201                       [1]                       --
│    └─OutputScale: 2-2202               --                        --
│    └─Empty: 2-2203                     [64, 64, 1, 1]            --
│    └─Empty: 2-2204                     [64, 64, 1, 1]            --
│    └─Empty: 2-2205                     [64]                      --
│    └─Empty: 2-2206                     [64]                      --
│    └─BatchNorm2d: 2-2207               [16, 64, 4, 4]            --
│    └─Scaler: 2-2208                    [16, 64, 4, 4]            --
│    └─ReLU: 2-2209                      [16, 64, 4, 4]            --
│    └─Empty: 2-2210                     [16, 64, 4, 4]            --
│    └─Clamp: 2-2211                     [16, 64, 4, 4]            --
├─FusedMaxPoolConv2dBNReLU: 1-168        [16, 64, 4, 4]            (recursive)
│    └─MaxPool2d: 2-2212                 [16, 64, 4, 4]            --
│    └─Empty: 2-2213                     [16, 64, 4, 4]            --
│    └─Empty: 2-2214                     [16, 64, 4, 4]            --
│    └─OutputShiftSqueeze: 2-2215        --                        --
│    └─One: 2-2216                       [1]                       --
│    └─OutputScale: 2-2217               --                        --
│    └─Empty: 2-2218                     [64, 64, 3, 3]            --
│    └─Empty: 2-2219                     [64, 64, 3, 3]            --
│    └─Empty: 2-2220                     [64]                      --
│    └─Empty: 2-2221                     [64]                      --
│    └─BatchNorm2d: 2-2222               [16, 64, 4, 4]            --
│    └─Scaler: 2-2223                    [16, 64, 4, 4]            --
│    └─ReLU: 2-2224                      [16, 64, 4, 4]            --
│    └─Empty: 2-2225                     [16, 64, 4, 4]            --
│    └─Clamp: 2-2226                     [16, 64, 4, 4]            --
├─FusedMaxPoolConv2dBNReLU: 1-169        [16, 64, 2, 2]            (recursive)
│    └─MaxPool2d: 2-2227                 [16, 64, 2, 2]            --
│    └─Empty: 2-2228                     [16, 64, 2, 2]            --
│    └─Empty: 2-2229                     [16, 64, 2, 2]            --
│    └─OutputShiftSqueeze: 2-2230        --                        --
│    └─One: 2-2231                       [1]                       --
│    └─OutputScale: 2-2232               --                        --
│    └─Empty: 2-2233                     [64, 64, 3, 3]            --
│    └─Empty: 2-2234                     [64, 64, 3, 3]            --
│    └─Empty: 2-2235                     [64]                      --
│    └─Empty: 2-2236                     [64]                      --
│    └─BatchNorm2d: 2-2237               [16, 64, 2, 2]            --
│    └─Scaler: 2-2238                    [16, 64, 2, 2]            --
│    └─ReLU: 2-2239                      [16, 64, 2, 2]            --
│    └─Empty: 2-2240                     [16, 64, 2, 2]            --
│    └─Clamp: 2-2241                     [16, 64, 2, 2]            --
├─FusedConv2dBNReLU: 1-170               [16, 64, 2, 2]            (recursive)
│    └─OutputShiftSqueeze: 2-2242        --                        --
│    └─One: 2-2243                       [1]                       --
│    └─OutputScale: 2-2244               --                        --
│    └─Empty: 2-2245                     [64, 64, 1, 1]            --
│    └─Empty: 2-2246                     [64, 64, 1, 1]            --
│    └─Empty: 2-2247                     [64]                      --
│    └─Empty: 2-2248                     [64]                      --
│    └─BatchNorm2d: 2-2249               [16, 64, 2, 2]            --
│    └─Scaler: 2-2250                    [16, 64, 2, 2]            --
│    └─ReLU: 2-2251                      [16, 64, 2, 2]            --
│    └─Empty: 2-2252                     [16, 64, 2, 2]            --
│    └─Clamp: 2-2253                     [16, 64, 2, 2]            --
├─FusedMaxPoolConv2dBNReLU: 1-171        [16, 64, 2, 2]            (recursive)
│    └─MaxPool2d: 2-2254                 [16, 64, 2, 2]            --
│    └─Empty: 2-2255                     [16, 64, 2, 2]            --
│    └─Empty: 2-2256                     [16, 64, 2, 2]            --
│    └─OutputShiftSqueeze: 2-2257        --                        --
│    └─One: 2-2258                       [1]                       --
│    └─OutputScale: 2-2259               --                        --
│    └─Empty: 2-2260                     [64, 64, 3, 3]            --
│    └─Empty: 2-2261                     [64, 64, 3, 3]            --
│    └─Empty: 2-2262                     [64]                      --
│    └─Empty: 2-2263                     [64]                      --
│    └─BatchNorm2d: 2-2264               [16, 64, 2, 2]            --
│    └─Scaler: 2-2265                    [16, 64, 2, 2]            --
│    └─ReLU: 2-2266                      [16, 64, 2, 2]            --
│    └─Empty: 2-2267                     [16, 64, 2, 2]            --
│    └─Clamp: 2-2268                     [16, 64, 2, 2]            --
├─FusedConv2dBNReLU: 1-172               [16, 64, 64, 64]          (recursive)
│    └─OutputShiftSqueeze: 2-2269        --                        --
│    └─One: 2-2270                       [1]                       --
│    └─OutputScale: 2-2271               --                        --
│    └─Empty: 2-2272                     [64, 48, 1, 1]            --
│    └─Empty: 2-2273                     [64, 48, 1, 1]            --
│    └─Empty: 2-2274                     [64]                      --
│    └─Empty: 2-2275                     [64]                      --
│    └─BatchNorm2d: 2-2276               [16, 64, 64, 64]          --
│    └─Scaler: 2-2277                    [16, 64, 64, 64]          --
│    └─ReLU: 2-2278                      [16, 64, 64, 64]          --
│    └─Empty: 2-2279                     [16, 64, 64, 64]          --
│    └─Clamp: 2-2280                     [16, 64, 64, 64]          --
├─FusedConv2dBNReLU: 1-173               [16, 64, 64, 64]          (recursive)
│    └─OutputShiftSqueeze: 2-2281        --                        --
│    └─One: 2-2282                       [1]                       --
│    └─OutputScale: 2-2283               --                        --
│    └─Empty: 2-2284                     [64, 64, 3, 3]            --
│    └─Empty: 2-2285                     [64, 64, 3, 3]            --
│    └─Empty: 2-2286                     [64]                      --
│    └─Empty: 2-2287                     [64]                      --
│    └─BatchNorm2d: 2-2288               [16, 64, 64, 64]          --
│    └─Scaler: 2-2289                    [16, 64, 64, 64]          --
│    └─ReLU: 2-2290                      [16, 64, 64, 64]          --
│    └─Empty: 2-2291                     [16, 64, 64, 64]          --
│    └─Clamp: 2-2292                     [16, 64, 64, 64]          --
├─FusedConv2dBNReLU: 1-174               [16, 64, 64, 64]          (recursive)
│    └─OutputShiftSqueeze: 2-2293        --                        --
│    └─One: 2-2294                       [1]                       --
│    └─OutputScale: 2-2295               --                        --
│    └─Empty: 2-2296                     [64, 64, 3, 3]            --
│    └─Empty: 2-2297                     [64, 64, 3, 3]            --
│    └─Empty: 2-2298                     [64]                      --
│    └─Empty: 2-2299                     [64]                      --
│    └─BatchNorm2d: 2-2300               [16, 64, 64, 64]          --
│    └─Scaler: 2-2301                    [16, 64, 64, 64]          --
│    └─ReLU: 2-2302                      [16, 64, 64, 64]          --
│    └─Empty: 2-2303                     [16, 64, 64, 64]          --
│    └─Clamp: 2-2304                     [16, 64, 64, 64]          --
├─FusedConv2dBNReLU: 1-175               [16, 64, 64, 64]          (recursive)
│    └─OutputShiftSqueeze: 2-2305        --                        --
│    └─One: 2-2306                       [1]                       --
│    └─OutputScale: 2-2307               --                        --
│    └─Empty: 2-2308                     [64, 64, 1, 1]            --
│    └─Empty: 2-2309                     [64, 64, 1, 1]            --
│    └─Empty: 2-2310                     [64]                      --
│    └─Empty: 2-2311                     [64]                      --
│    └─BatchNorm2d: 2-2312               [16, 64, 64, 64]          --
│    └─Scaler: 2-2313                    [16, 64, 64, 64]          --
│    └─ReLU: 2-2314                      [16, 64, 64, 64]          --
│    └─Empty: 2-2315                     [16, 64, 64, 64]          --
│    └─Clamp: 2-2316                     [16, 64, 64, 64]          --
├─FusedConv2dBNReLU: 1-176               [16, 64, 64, 64]          (recursive)
│    └─OutputShiftSqueeze: 2-2317        --                        --
│    └─One: 2-2318                       [1]                       --
│    └─OutputScale: 2-2319               --                        --
│    └─Empty: 2-2320                     [64, 64, 3, 3]            --
│    └─Empty: 2-2321                     [64, 64, 3, 3]            --
│    └─Empty: 2-2322                     [64]                      --
│    └─Empty: 2-2323                     [64]                      --
│    └─BatchNorm2d: 2-2324               [16, 64, 64, 64]          --
│    └─Scaler: 2-2325                    [16, 64, 64, 64]          --
│    └─ReLU: 2-2326                      [16, 64, 64, 64]          --
│    └─Empty: 2-2327                     [16, 64, 64, 64]          --
│    └─Clamp: 2-2328                     [16, 64, 64, 64]          --
├─FusedConv2dBNReLU: 1-177               [16, 64, 64, 64]          (recursive)
│    └─OutputShiftSqueeze: 2-2329        --                        --
│    └─One: 2-2330                       [1]                       --
│    └─OutputScale: 2-2331               --                        --
│    └─Empty: 2-2332                     [64, 64, 3, 3]            --
│    └─Empty: 2-2333                     [64, 64, 3, 3]            --
│    └─Empty: 2-2334                     [64]                      --
│    └─Empty: 2-2335                     [64]                      --
│    └─BatchNorm2d: 2-2336               [16, 64, 64, 64]          --
│    └─Scaler: 2-2337                    [16, 64, 64, 64]          --
│    └─ReLU: 2-2338                      [16, 64, 64, 64]          --
│    └─Empty: 2-2339                     [16, 64, 64, 64]          --
│    └─Clamp: 2-2340                     [16, 64, 64, 64]          --
├─FusedMaxPoolConv2dBNReLU: 1-178        [16, 64, 32, 32]          (recursive)
│    └─MaxPool2d: 2-2341                 [16, 64, 32, 32]          --
│    └─Empty: 2-2342                     [16, 64, 32, 32]          --
│    └─Empty: 2-2343                     [16, 64, 32, 32]          --
│    └─OutputShiftSqueeze: 2-2344        --                        --
│    └─One: 2-2345                       [1]                       --
│    └─OutputScale: 2-2346               --                        --
│    └─Empty: 2-2347                     [64, 64, 3, 3]            --
│    └─Empty: 2-2348                     [64, 64, 3, 3]            --
│    └─Empty: 2-2349                     [64]                      --
│    └─Empty: 2-2350                     [64]                      --
│    └─BatchNorm2d: 2-2351               [16, 64, 32, 32]          --
│    └─Scaler: 2-2352                    [16, 64, 32, 32]          --
│    └─ReLU: 2-2353                      [16, 64, 32, 32]          --
│    └─Empty: 2-2354                     [16, 64, 32, 32]          --
│    └─Clamp: 2-2355                     [16, 64, 32, 32]          --
├─FusedConv2dBNReLU: 1-179               [16, 64, 32, 32]          (recursive)
│    └─OutputShiftSqueeze: 2-2356        --                        --
│    └─One: 2-2357                       [1]                       --
│    └─OutputScale: 2-2358               --                        --
│    └─Empty: 2-2359                     [64, 64, 3, 3]            --
│    └─Empty: 2-2360                     [64, 64, 3, 3]            --
│    └─Empty: 2-2361                     [64]                      --
│    └─Empty: 2-2362                     [64]                      --
│    └─BatchNorm2d: 2-2363               [16, 64, 32, 32]          --
│    └─Scaler: 2-2364                    [16, 64, 32, 32]          --
│    └─ReLU: 2-2365                      [16, 64, 32, 32]          --
│    └─Empty: 2-2366                     [16, 64, 32, 32]          --
│    └─Clamp: 2-2367                     [16, 64, 32, 32]          --
├─FusedMaxPoolConv2dBNReLU: 1-180        [16, 64, 16, 16]          (recursive)
│    └─MaxPool2d: 2-2368                 [16, 64, 16, 16]          --
│    └─Empty: 2-2369                     [16, 64, 16, 16]          --
│    └─Empty: 2-2370                     [16, 64, 16, 16]          --
│    └─OutputShiftSqueeze: 2-2371        --                        --
│    └─One: 2-2372                       [1]                       --
│    └─OutputScale: 2-2373               --                        --
│    └─Empty: 2-2374                     [64, 64, 3, 3]            --
│    └─Empty: 2-2375                     [64, 64, 3, 3]            --
│    └─Empty: 2-2376                     [64]                      --
│    └─Empty: 2-2377                     [64]                      --
│    └─BatchNorm2d: 2-2378               [16, 64, 16, 16]          --
│    └─Scaler: 2-2379                    [16, 64, 16, 16]          --
│    └─ReLU: 2-2380                      [16, 64, 16, 16]          --
│    └─Empty: 2-2381                     [16, 64, 16, 16]          --
│    └─Clamp: 2-2382                     [16, 64, 16, 16]          --
├─FusedConv2dBNReLU: 1-181               [16, 64, 16, 16]          (recursive)
│    └─OutputShiftSqueeze: 2-2383        --                        --
│    └─One: 2-2384                       [1]                       --
│    └─OutputScale: 2-2385               --                        --
│    └─Empty: 2-2386                     [64, 64, 3, 3]            --
│    └─Empty: 2-2387                     [64, 64, 3, 3]            --
│    └─Empty: 2-2388                     [64]                      --
│    └─Empty: 2-2389                     [64]                      --
│    └─BatchNorm2d: 2-2390               [16, 64, 16, 16]          --
│    └─Scaler: 2-2391                    [16, 64, 16, 16]          --
│    └─ReLU: 2-2392                      [16, 64, 16, 16]          --
│    └─Empty: 2-2393                     [16, 64, 16, 16]          --
│    └─Clamp: 2-2394                     [16, 64, 16, 16]          --
├─FusedMaxPoolConv2dBNReLU: 1-182        [16, 64, 8, 8]            (recursive)
│    └─MaxPool2d: 2-2395                 [16, 64, 8, 8]            --
│    └─Empty: 2-2396                     [16, 64, 8, 8]            --
│    └─Empty: 2-2397                     [16, 64, 8, 8]            --
│    └─OutputShiftSqueeze: 2-2398        --                        --
│    └─One: 2-2399                       [1]                       --
│    └─OutputScale: 2-2400               --                        --
│    └─Empty: 2-2401                     [64, 64, 3, 3]            --
│    └─Empty: 2-2402                     [64, 64, 3, 3]            --
│    └─Empty: 2-2403                     [64]                      --
│    └─Empty: 2-2404                     [64]                      --
│    └─BatchNorm2d: 2-2405               [16, 64, 8, 8]            --
│    └─Scaler: 2-2406                    [16, 64, 8, 8]            --
│    └─ReLU: 2-2407                      [16, 64, 8, 8]            --
│    └─Empty: 2-2408                     [16, 64, 8, 8]            --
│    └─Clamp: 2-2409                     [16, 64, 8, 8]            --
├─FusedConv2dBNReLU: 1-183               [16, 64, 8, 8]            (recursive)
│    └─OutputShiftSqueeze: 2-2410        --                        --
│    └─One: 2-2411                       [1]                       --
│    └─OutputScale: 2-2412               --                        --
│    └─Empty: 2-2413                     [64, 64, 1, 1]            --
│    └─Empty: 2-2414                     [64, 64, 1, 1]            --
│    └─Empty: 2-2415                     [64]                      --
│    └─Empty: 2-2416                     [64]                      --
│    └─BatchNorm2d: 2-2417               [16, 64, 8, 8]            --
│    └─Scaler: 2-2418                    [16, 64, 8, 8]            --
│    └─ReLU: 2-2419                      [16, 64, 8, 8]            --
│    └─Empty: 2-2420                     [16, 64, 8, 8]            --
│    └─Clamp: 2-2421                     [16, 64, 8, 8]            --
├─FusedMaxPoolConv2dBNReLU: 1-184        [16, 64, 8, 8]            (recursive)
│    └─MaxPool2d: 2-2422                 [16, 64, 8, 8]            --
│    └─Empty: 2-2423                     [16, 64, 8, 8]            --
│    └─Empty: 2-2424                     [16, 64, 8, 8]            --
│    └─OutputShiftSqueeze: 2-2425        --                        --
│    └─One: 2-2426                       [1]                       --
│    └─OutputScale: 2-2427               --                        --
│    └─Empty: 2-2428                     [64, 64, 3, 3]            --
│    └─Empty: 2-2429                     [64, 64, 3, 3]            --
│    └─Empty: 2-2430                     [64]                      --
│    └─Empty: 2-2431                     [64]                      --
│    └─BatchNorm2d: 2-2432               [16, 64, 8, 8]            --
│    └─Scaler: 2-2433                    [16, 64, 8, 8]            --
│    └─ReLU: 2-2434                      [16, 64, 8, 8]            --
│    └─Empty: 2-2435                     [16, 64, 8, 8]            --
│    └─Clamp: 2-2436                     [16, 64, 8, 8]            --
├─FusedMaxPoolConv2dBNReLU: 1-185        [16, 64, 4, 4]            (recursive)
│    └─MaxPool2d: 2-2437                 [16, 64, 4, 4]            --
│    └─Empty: 2-2438                     [16, 64, 4, 4]            --
│    └─Empty: 2-2439                     [16, 64, 4, 4]            --
│    └─OutputShiftSqueeze: 2-2440        --                        --
│    └─One: 2-2441                       [1]                       --
│    └─OutputScale: 2-2442               --                        --
│    └─Empty: 2-2443                     [64, 64, 3, 3]            --
│    └─Empty: 2-2444                     [64, 64, 3, 3]            --
│    └─Empty: 2-2445                     [64]                      --
│    └─Empty: 2-2446                     [64]                      --
│    └─BatchNorm2d: 2-2447               [16, 64, 4, 4]            --
│    └─Scaler: 2-2448                    [16, 64, 4, 4]            --
│    └─ReLU: 2-2449                      [16, 64, 4, 4]            --
│    └─Empty: 2-2450                     [16, 64, 4, 4]            --
│    └─Clamp: 2-2451                     [16, 64, 4, 4]            --
├─FusedConv2dBNReLU: 1-186               [16, 64, 4, 4]            (recursive)
│    └─OutputShiftSqueeze: 2-2452        --                        --
│    └─One: 2-2453                       [1]                       --
│    └─OutputScale: 2-2454               --                        --
│    └─Empty: 2-2455                     [64, 64, 1, 1]            --
│    └─Empty: 2-2456                     [64, 64, 1, 1]            --
│    └─Empty: 2-2457                     [64]                      --
│    └─Empty: 2-2458                     [64]                      --
│    └─BatchNorm2d: 2-2459               [16, 64, 4, 4]            --
│    └─Scaler: 2-2460                    [16, 64, 4, 4]            --
│    └─ReLU: 2-2461                      [16, 64, 4, 4]            --
│    └─Empty: 2-2462                     [16, 64, 4, 4]            --
│    └─Clamp: 2-2463                     [16, 64, 4, 4]            --
├─FusedMaxPoolConv2dBNReLU: 1-187        [16, 64, 4, 4]            (recursive)
│    └─MaxPool2d: 2-2464                 [16, 64, 4, 4]            --
│    └─Empty: 2-2465                     [16, 64, 4, 4]            --
│    └─Empty: 2-2466                     [16, 64, 4, 4]            --
│    └─OutputShiftSqueeze: 2-2467        --                        --
│    └─One: 2-2468                       [1]                       --
│    └─OutputScale: 2-2469               --                        --
│    └─Empty: 2-2470                     [64, 64, 3, 3]            --
│    └─Empty: 2-2471                     [64, 64, 3, 3]            --
│    └─Empty: 2-2472                     [64]                      --
│    └─Empty: 2-2473                     [64]                      --
│    └─BatchNorm2d: 2-2474               [16, 64, 4, 4]            --
│    └─Scaler: 2-2475                    [16, 64, 4, 4]            --
│    └─ReLU: 2-2476                      [16, 64, 4, 4]            --
│    └─Empty: 2-2477                     [16, 64, 4, 4]            --
│    └─Clamp: 2-2478                     [16, 64, 4, 4]            --
├─FusedMaxPoolConv2dBNReLU: 1-188        [16, 64, 2, 2]            (recursive)
│    └─MaxPool2d: 2-2479                 [16, 64, 2, 2]            --
│    └─Empty: 2-2480                     [16, 64, 2, 2]            --
│    └─Empty: 2-2481                     [16, 64, 2, 2]            --
│    └─OutputShiftSqueeze: 2-2482        --                        --
│    └─One: 2-2483                       [1]                       --
│    └─OutputScale: 2-2484               --                        --
│    └─Empty: 2-2485                     [64, 64, 3, 3]            --
│    └─Empty: 2-2486                     [64, 64, 3, 3]            --
│    └─Empty: 2-2487                     [64]                      --
│    └─Empty: 2-2488                     [64]                      --
│    └─BatchNorm2d: 2-2489               [16, 64, 2, 2]            --
│    └─Scaler: 2-2490                    [16, 64, 2, 2]            --
│    └─ReLU: 2-2491                      [16, 64, 2, 2]            --
│    └─Empty: 2-2492                     [16, 64, 2, 2]            --
│    └─Clamp: 2-2493                     [16, 64, 2, 2]            --
├─FusedConv2dBNReLU: 1-189               [16, 64, 2, 2]            (recursive)
│    └─OutputShiftSqueeze: 2-2494        --                        --
│    └─One: 2-2495                       [1]                       --
│    └─OutputScale: 2-2496               --                        --
│    └─Empty: 2-2497                     [64, 64, 1, 1]            --
│    └─Empty: 2-2498                     [64, 64, 1, 1]            --
│    └─Empty: 2-2499                     [64]                      --
│    └─Empty: 2-2500                     [64]                      --
│    └─BatchNorm2d: 2-2501               [16, 64, 2, 2]            --
│    └─Scaler: 2-2502                    [16, 64, 2, 2]            --
│    └─ReLU: 2-2503                      [16, 64, 2, 2]            --
│    └─Empty: 2-2504                     [16, 64, 2, 2]            --
│    └─Clamp: 2-2505                     [16, 64, 2, 2]            --
├─FusedMaxPoolConv2dBNReLU: 1-190        [16, 64, 2, 2]            (recursive)
│    └─MaxPool2d: 2-2506                 [16, 64, 2, 2]            --
│    └─Empty: 2-2507                     [16, 64, 2, 2]            --
│    └─Empty: 2-2508                     [16, 64, 2, 2]            --
│    └─OutputShiftSqueeze: 2-2509        --                        --
│    └─One: 2-2510                       [1]                       --
│    └─OutputScale: 2-2511               --                        --
│    └─Empty: 2-2512                     [64, 64, 3, 3]            --
│    └─Empty: 2-2513                     [64, 64, 3, 3]            --
│    └─Empty: 2-2514                     [64]                      --
│    └─Empty: 2-2515                     [64]                      --
│    └─BatchNorm2d: 2-2516               [16, 64, 2, 2]            --
│    └─Scaler: 2-2517                    [16, 64, 2, 2]            --
│    └─ReLU: 2-2518                      [16, 64, 2, 2]            --
│    └─Empty: 2-2519                     [16, 64, 2, 2]            --
│    └─Clamp: 2-2520                     [16, 64, 2, 2]            --
├─Linear: 1-191                          [16, 4]                   1,030
│    └─OutputShiftSqueeze: 2-2521        --                        --
│    └─One: 2-2522                       [1]                       --
│    └─OutputScale: 2-2523               --                        --
│    └─Empty: 2-2524                     [4, 256]                  --
│    └─Empty: 2-2525                     [4, 256]                  --
│    └─Empty: 2-2526                     [16, 4]                   --
│    └─Empty: 2-2527                     [16, 4]                   --
│    └─Clamp: 2-2528                     [16, 4]                   --
├─Linear: 1-192                          [16, 4]                   (recursive)
│    └─OutputShiftSqueeze: 2-2529        --                        --
│    └─One: 2-2530                       [1]                       --
│    └─OutputScale: 2-2531               --                        --
│    └─Empty: 2-2532                     [4, 256]                  --
│    └─Empty: 2-2533                     [4, 256]                  --
│    └─Empty: 2-2534                     [16, 4]                   --
│    └─Empty: 2-2535                     [16, 4]                   --
│    └─Clamp: 2-2536                     [16, 4]                   --
├─Linear: 1-193                          [16, 4]                   (recursive)
│    └─OutputShiftSqueeze: 2-2537        --                        --
│    └─One: 2-2538                       [1]                       --
│    └─OutputScale: 2-2539               --                        --
│    └─Empty: 2-2540                     [4, 256]                  --
│    └─Empty: 2-2541                     [4, 256]                  --
│    └─Empty: 2-2542                     [16, 4]                   --
│    └─Empty: 2-2543                     [16, 4]                   --
│    └─Clamp: 2-2544                     [16, 4]                   --
├─Linear: 1-194                          [16, 4]                   (recursive)
│    └─OutputShiftSqueeze: 2-2545        --                        --
│    └─One: 2-2546                       [1]                       --
│    └─OutputScale: 2-2547               --                        --
│    └─Empty: 2-2548                     [4, 256]                  --
│    └─Empty: 2-2549                     [4, 256]                  --
│    └─Empty: 2-2550                     [16, 4]                   --
│    └─Empty: 2-2551                     [16, 4]                   --
│    └─Clamp: 2-2552                     [16, 4]                   --
├─Linear: 1-195                          [16, 4]                   (recursive)
│    └─OutputShiftSqueeze: 2-2553        --                        --
│    └─One: 2-2554                       [1]                       --
│    └─OutputScale: 2-2555               --                        --
│    └─Empty: 2-2556                     [4, 256]                  --
│    └─Empty: 2-2557                     [4, 256]                  --
│    └─Empty: 2-2558                     [16, 4]                   --
│    └─Empty: 2-2559                     [16, 4]                   --
│    └─Clamp: 2-2560                     [16, 4]                   --
├─Linear: 1-196                          [16, 4]                   (recursive)
│    └─OutputShiftSqueeze: 2-2561        --                        --
│    └─One: 2-2562                       [1]                       --
│    └─OutputScale: 2-2563               --                        --
│    └─Empty: 2-2564                     [4, 256]                  --
│    └─Empty: 2-2565                     [4, 256]                  --
│    └─Empty: 2-2566                     [16, 4]                   --
│    └─Empty: 2-2567                     [16, 4]                   --
│    └─Clamp: 2-2568                     [16, 4]                   --
├─Linear: 1-197                          [16, 4]                   (recursive)
│    └─OutputShiftSqueeze: 2-2569        --                        --
│    └─One: 2-2570                       [1]                       --
│    └─OutputScale: 2-2571               --                        --
│    └─Empty: 2-2572                     [4, 256]                  --
│    └─Empty: 2-2573                     [4, 256]                  --
│    └─Empty: 2-2574                     [16, 4]                   --
│    └─Empty: 2-2575                     [16, 4]                   --
│    └─Clamp: 2-2576                     [16, 4]                   --
├─Linear: 1-198                          [16, 4]                   (recursive)
│    └─OutputShiftSqueeze: 2-2577        --                        --
│    └─One: 2-2578                       [1]                       --
│    └─OutputScale: 2-2579               --                        --
│    └─Empty: 2-2580                     [4, 256]                  --
│    └─Empty: 2-2581                     [4, 256]                  --
│    └─Empty: 2-2582                     [16, 4]                   --
│    └─Empty: 2-2583                     [16, 4]                   --
│    └─Clamp: 2-2584                     [16, 4]                   --
├─Linear: 1-199                          [16, 4]                   (recursive)
│    └─OutputShiftSqueeze: 2-2585        --                        --
│    └─One: 2-2586                       [1]                       --
│    └─OutputScale: 2-2587               --                        --
│    └─Empty: 2-2588                     [4, 256]                  --
│    └─Empty: 2-2589                     [4, 256]                  --
│    └─Empty: 2-2590                     [16, 4]                   --
│    └─Empty: 2-2591                     [16, 4]                   --
│    └─Clamp: 2-2592                     [16, 4]                   --
├─Linear: 1-200                          [16, 4]                   (recursive)
│    └─OutputShiftSqueeze: 2-2593        --                        --
│    └─One: 2-2594                       [1]                       --
│    └─OutputScale: 2-2595               --                        --
│    └─Empty: 2-2596                     [4, 256]                  --
│    └─Empty: 2-2597                     [4, 256]                  --
│    └─Empty: 2-2598                     [16, 4]                   --
│    └─Empty: 2-2599                     [16, 4]                   --
│    └─Clamp: 2-2600                     [16, 4]                   --
==========================================================================================
Total params: 537,912
Trainable params: 537,792
Non-trainable params: 120
Total mult-adds (M): 0.00
==========================================================================================
Input size (MB): 125.83
Forward/backward pass size (MB): 0.00
Params size (MB): 0.00
Estimated Total Size (MB): 125.83
…
