…
I - Batch size:  16  tensor shape:  torch.Size([20, 48, 64, 64])  data min-max:  tensor(-1.) tensor(0.9922)
I - Label min-max:  tensor(0) tensor(4) data number in dataset:  tensor([5985,  618, 1367, 8047, 9217, 7329, 4762, 7960, 1149, 2937, 6040, 9375,
        1536, 3241, 4072, 6310])
I - Number of Model Parameters: 738240
I - Model output shape:  torch.Size([16, 5])
I - Model summary
==========================================================================================
Layer (type:depth-idx)                   Output Shape              Param #
==========================================================================================
TCNv1                                    [16, 5]                   --
├─FusedConv2dBNReLU: 1-1                 [16, 64, 64, 64]          3,142
│    └─OutputShiftSqueeze: 2-1           --                        --
│    └─One: 2-2                          [1]                       --
│    └─OutputScale: 2-3                  --                        --
│    └─Empty: 2-4                        [64, 48, 1, 1]            --
│    └─Empty: 2-5                        [64, 48, 1, 1]            --
│    └─Empty: 2-6                        [64]                      --
│    └─Empty: 2-7                        [64]                      --
│    └─BatchNorm2d: 2-8                  [16, 64, 64, 64]          --
│    └─Scaler: 2-9                       [16, 64, 64, 64]          --
│    └─ReLU: 2-10                        [16, 64, 64, 64]          --
│    └─Empty: 2-11                       [16, 64, 64, 64]          --
│    └─Clamp: 2-12                       [16, 64, 64, 64]          --
├─FusedConv2dBNReLU: 1-2                 [16, 64, 64, 64]          36,934
│    └─OutputShiftSqueeze: 2-13          --                        --
│    └─One: 2-14                         [1]                       --
│    └─OutputScale: 2-15                 --                        --
│    └─Empty: 2-16                       [64, 64, 3, 3]            --
│    └─Empty: 2-17                       [64, 64, 3, 3]            --
│    └─Empty: 2-18                       [64]                      --
│    └─Empty: 2-19                       [64]                      --
│    └─BatchNorm2d: 2-20                 [16, 64, 64, 64]          --
│    └─Scaler: 2-21                      [16, 64, 64, 64]          --
│    └─ReLU: 2-22                        [16, 64, 64, 64]          --
│    └─Empty: 2-23                       [16, 64, 64, 64]          --
│    └─Clamp: 2-24                       [16, 64, 64, 64]          --
├─FusedConv2dBNReLU: 1-3                 [16, 64, 64, 64]          4,166
│    └─OutputShiftSqueeze: 2-25          --                        --
│    └─One: 2-26                         [1]                       --
│    └─OutputScale: 2-27                 --                        --
│    └─Empty: 2-28                       [64, 64, 1, 1]            --
│    └─Empty: 2-29                       [64, 64, 1, 1]            --
│    └─Empty: 2-30                       [64]                      --
│    └─Empty: 2-31                       [64]                      --
│    └─BatchNorm2d: 2-32                 [16, 64, 64, 64]          --
│    └─Scaler: 2-33                      [16, 64, 64, 64]          --
│    └─ReLU: 2-34                        [16, 64, 64, 64]          --
│    └─Empty: 2-35                       [16, 64, 64, 64]          --
│    └─Clamp: 2-36                       [16, 64, 64, 64]          --
├─FusedConv2dBNReLU: 1-4                 [16, 64, 64, 64]          36,934
│    └─OutputShiftSqueeze: 2-37          --                        --
│    └─One: 2-38                         [1]                       --
│    └─OutputScale: 2-39                 --                        --
│    └─Empty: 2-40                       [64, 64, 3, 3]            --
│    └─Empty: 2-41                       [64, 64, 3, 3]            --
│    └─Empty: 2-42                       [64]                      --
│    └─Empty: 2-43                       [64]                      --
│    └─BatchNorm2d: 2-44                 [16, 64, 64, 64]          --
│    └─Scaler: 2-45                      [16, 64, 64, 64]          --
│    └─ReLU: 2-46                        [16, 64, 64, 64]          --
│    └─Empty: 2-47                       [16, 64, 64, 64]          --
│    └─Clamp: 2-48                       [16, 64, 64, 64]          --
├─FusedMaxPoolConv2dBNReLU: 1-5          [16, 64, 32, 32]          36,934
│    └─MaxPool2d: 2-49                   [16, 64, 32, 32]          --
│    └─Empty: 2-50                       [16, 64, 32, 32]          --
│    └─Empty: 2-51                       [16, 64, 32, 32]          --
│    └─OutputShiftSqueeze: 2-52          --                        --
│    └─One: 2-53                         [1]                       --
│    └─OutputScale: 2-54                 --                        --
│    └─Empty: 2-55                       [64, 64, 3, 3]            --
│    └─Empty: 2-56                       [64, 64, 3, 3]            --
│    └─Empty: 2-57                       [64]                      --
│    └─Empty: 2-58                       [64]                      --
│    └─BatchNorm2d: 2-59                 [16, 64, 32, 32]          --
│    └─Scaler: 2-60                      [16, 64, 32, 32]          --
│    └─ReLU: 2-61                        [16, 64, 32, 32]          --
│    └─Empty: 2-62                       [16, 64, 32, 32]          --
│    └─Clamp: 2-63                       [16, 64, 32, 32]          --
├─FusedConv2dBNReLU: 1-6                 [16, 64, 32, 32]          36,934
│    └─OutputShiftSqueeze: 2-64          --                        --
│    └─One: 2-65                         [1]                       --
│    └─OutputScale: 2-66                 --                        --
│    └─Empty: 2-67                       [64, 64, 3, 3]            --
│    └─Empty: 2-68                       [64, 64, 3, 3]            --
│    └─Empty: 2-69                       [64]                      --
│    └─Empty: 2-70                       [64]                      --
│    └─BatchNorm2d: 2-71                 [16, 64, 32, 32]          --
│    └─Scaler: 2-72                      [16, 64, 32, 32]          --
│    └─ReLU: 2-73                        [16, 64, 32, 32]          --
│    └─Empty: 2-74                       [16, 64, 32, 32]          --
│    └─Clamp: 2-75                       [16, 64, 32, 32]          --
├─FusedMaxPoolConv2dBNReLU: 1-7          [16, 64, 16, 16]          36,934
│    └─MaxPool2d: 2-76                   [16, 64, 16, 16]          --
│    └─Empty: 2-77                       [16, 64, 16, 16]          --
│    └─Empty: 2-78                       [16, 64, 16, 16]          --
│    └─OutputShiftSqueeze: 2-79          --                        --
│    └─One: 2-80                         [1]                       --
│    └─OutputScale: 2-81                 --                        --
│    └─Empty: 2-82                       [64, 64, 3, 3]            --
│    └─Empty: 2-83                       [64, 64, 3, 3]            --
│    └─Empty: 2-84                       [64]                      --
│    └─Empty: 2-85                       [64]                      --
│    └─BatchNorm2d: 2-86                 [16, 64, 16, 16]          --
│    └─Scaler: 2-87                      [16, 64, 16, 16]          --
│    └─ReLU: 2-88                        [16, 64, 16, 16]          --
│    └─Empty: 2-89                       [16, 64, 16, 16]          --
│    └─Clamp: 2-90                       [16, 64, 16, 16]          --
├─FusedConv2dBNReLU: 1-8                 [16, 64, 16, 16]          36,934
│    └─OutputShiftSqueeze: 2-91          --                        --
│    └─One: 2-92                         [1]                       --
│    └─OutputScale: 2-93                 --                        --
│    └─Empty: 2-94                       [64, 64, 3, 3]            --
│    └─Empty: 2-95                       [64, 64, 3, 3]            --
│    └─Empty: 2-96                       [64]                      --
│    └─Empty: 2-97                       [64]                      --
│    └─BatchNorm2d: 2-98                 [16, 64, 16, 16]          --
│    └─Scaler: 2-99                      [16, 64, 16, 16]          --
│    └─ReLU: 2-100                       [16, 64, 16, 16]          --
│    └─Empty: 2-101                      [16, 64, 16, 16]          --
│    └─Clamp: 2-102                      [16, 64, 16, 16]          --
├─FusedMaxPoolConv2dBNReLU: 1-9          [16, 64, 8, 8]            36,934
│    └─MaxPool2d: 2-103                  [16, 64, 8, 8]            --
│    └─Empty: 2-104                      [16, 64, 8, 8]            --
│    └─Empty: 2-105                      [16, 64, 8, 8]            --
│    └─OutputShiftSqueeze: 2-106         --                        --
│    └─One: 2-107                        [1]                       --
│    └─OutputScale: 2-108                --                        --
│    └─Empty: 2-109                      [64, 64, 3, 3]            --
│    └─Empty: 2-110                      [64, 64, 3, 3]            --
│    └─Empty: 2-111                      [64]                      --
│    └─Empty: 2-112                      [64]                      --
│    └─BatchNorm2d: 2-113                [16, 64, 8, 8]            --
│    └─Scaler: 2-114                     [16, 64, 8, 8]            --
│    └─ReLU: 2-115                       [16, 64, 8, 8]            --
│    └─Empty: 2-116                      [16, 64, 8, 8]            --
│    └─Clamp: 2-117                      [16, 64, 8, 8]            --
├─FusedConv2dBNReLU: 1-10                [16, 64, 8, 8]            4,166
│    └─OutputShiftSqueeze: 2-118         --                        --
│    └─One: 2-119                        [1]                       --
│    └─OutputScale: 2-120                --                        --
│    └─Empty: 2-121                      [64, 64, 1, 1]            --
│    └─Empty: 2-122                      [64, 64, 1, 1]            --
│    └─Empty: 2-123                      [64]                      --
│    └─Empty: 2-124                      [64]                      --
│    └─BatchNorm2d: 2-125                [16, 64, 8, 8]            --
│    └─Scaler: 2-126                     [16, 64, 8, 8]            --
│    └─ReLU: 2-127                       [16, 64, 8, 8]            --
│    └─Empty: 2-128                      [16, 64, 8, 8]            --
│    └─Clamp: 2-129                      [16, 64, 8, 8]            --
├─FusedMaxPoolConv2dBNReLU: 1-11         [16, 64, 8, 8]            36,934
│    └─MaxPool2d: 2-130                  [16, 64, 8, 8]            --
│    └─Empty: 2-131                      [16, 64, 8, 8]            --
│    └─Empty: 2-132                      [16, 64, 8, 8]            --
│    └─OutputShiftSqueeze: 2-133         --                        --
│    └─One: 2-134                        [1]                       --
│    └─OutputScale: 2-135                --                        --
│    └─Empty: 2-136                      [64, 64, 3, 3]            --
│    └─Empty: 2-137                      [64, 64, 3, 3]            --
│    └─Empty: 2-138                      [64]                      --
│    └─Empty: 2-139                      [64]                      --
│    └─BatchNorm2d: 2-140                [16, 64, 8, 8]            --
│    └─Scaler: 2-141                     [16, 64, 8, 8]            --
│    └─ReLU: 2-142                       [16, 64, 8, 8]            --
│    └─Empty: 2-143                      [16, 64, 8, 8]            --
│    └─Clamp: 2-144                      [16, 64, 8, 8]            --
├─FusedMaxPoolConv2dBNReLU: 1-12         [16, 64, 4, 4]            36,934
│    └─MaxPool2d: 2-145                  [16, 64, 4, 4]            --
│    └─Empty: 2-146                      [16, 64, 4, 4]            --
│    └─Empty: 2-147                      [16, 64, 4, 4]            --
│    └─OutputShiftSqueeze: 2-148         --                        --
│    └─One: 2-149                        [1]                       --
│    └─OutputScale: 2-150                --                        --
│    └─Empty: 2-151                      [64, 64, 3, 3]            --
│    └─Empty: 2-152                      [64, 64, 3, 3]            --
│    └─Empty: 2-153                      [64]                      --
│    └─Empty: 2-154                      [64]                      --
│    └─BatchNorm2d: 2-155                [16, 64, 4, 4]            --
│    └─Scaler: 2-156                     [16, 64, 4, 4]            --
│    └─ReLU: 2-157                       [16, 64, 4, 4]            --
│    └─Empty: 2-158                      [16, 64, 4, 4]            --
│    └─Clamp: 2-159                      [16, 64, 4, 4]            --
├─FusedConv2dBNReLU: 1-13                [16, 64, 4, 4]            4,166
│    └─OutputShiftSqueeze: 2-160         --                        --
│    └─One: 2-161                        [1]                       --
│    └─OutputScale: 2-162                --                        --
│    └─Empty: 2-163                      [64, 64, 1, 1]            --
│    └─Empty: 2-164                      [64, 64, 1, 1]            --
│    └─Empty: 2-165                      [64]                      --
│    └─Empty: 2-166                      [64]                      --
│    └─BatchNorm2d: 2-167                [16, 64, 4, 4]            --
│    └─Scaler: 2-168                     [16, 64, 4, 4]            --
│    └─ReLU: 2-169                       [16, 64, 4, 4]            --
│    └─Empty: 2-170                      [16, 64, 4, 4]            --
│    └─Clamp: 2-171                      [16, 64, 4, 4]            --
├─FusedMaxPoolConv2dBNReLU: 1-14         [16, 64, 4, 4]            36,934
│    └─MaxPool2d: 2-172                  [16, 64, 4, 4]            --
│    └─Empty: 2-173                      [16, 64, 4, 4]            --
│    └─Empty: 2-174                      [16, 64, 4, 4]            --
│    └─OutputShiftSqueeze: 2-175         --                        --
│    └─One: 2-176                        [1]                       --
│    └─OutputScale: 2-177                --                        --
│    └─Empty: 2-178                      [64, 64, 3, 3]            --
│    └─Empty: 2-179                      [64, 64, 3, 3]            --
│    └─Empty: 2-180                      [64]                      --
│    └─Empty: 2-181                      [64]                      --
│    └─BatchNorm2d: 2-182                [16, 64, 4, 4]            --
│    └─Scaler: 2-183                     [16, 64, 4, 4]            --
│    └─ReLU: 2-184                       [16, 64, 4, 4]            --
│    └─Empty: 2-185                      [16, 64, 4, 4]            --
│    └─Clamp: 2-186                      [16, 64, 4, 4]            --
├─FusedMaxPoolConv2dBNReLU: 1-15         [16, 64, 2, 2]            4,166
│    └─MaxPool2d: 2-187                  [16, 64, 2, 2]            --
│    └─Empty: 2-188                      [16, 64, 2, 2]            --
│    └─Empty: 2-189                      [16, 64, 2, 2]            --
│    └─OutputShiftSqueeze: 2-190         --                        --
│    └─One: 2-191                        [1]                       --
│    └─OutputScale: 2-192                --                        --
│    └─Empty: 2-193                      [64, 64, 1, 1]            --
│    └─Empty: 2-194                      [64, 64, 1, 1]            --
│    └─Empty: 2-195                      [64]                      --
│    └─Empty: 2-196                      [64]                      --
│    └─BatchNorm2d: 2-197                [16, 64, 2, 2]            --
│    └─Scaler: 2-198                     [16, 64, 2, 2]            --
│    └─ReLU: 2-199                       [16, 64, 2, 2]            --
│    └─Empty: 2-200                      [16, 64, 2, 2]            --
│    └─Clamp: 2-201                      [16, 64, 2, 2]            --
├─FusedConv2dBNReLU: 1-16                [16, 64, 2, 2]            4,166
│    └─OutputShiftSqueeze: 2-202         --                        --
│    └─One: 2-203                        [1]                       --
│    └─OutputScale: 2-204                --                        --
│    └─Empty: 2-205                      [64, 64, 1, 1]            --
│    └─Empty: 2-206                      [64, 64, 1, 1]            --
│    └─Empty: 2-207                      [64]                      --
│    └─Empty: 2-208                      [64]                      --
│    └─BatchNorm2d: 2-209                [16, 64, 2, 2]            --
│    └─Scaler: 2-210                     [16, 64, 2, 2]            --
│    └─ReLU: 2-211                       [16, 64, 2, 2]            --
│    └─Empty: 2-212                      [16, 64, 2, 2]            --
│    └─Clamp: 2-213                      [16, 64, 2, 2]            --
├─FusedMaxPoolConv2dBNReLU: 1-17         [16, 64, 2, 2]            36,934
│    └─MaxPool2d: 2-214                  [16, 64, 2, 2]            --
│    └─Empty: 2-215                      [16, 64, 2, 2]            --
│    └─Empty: 2-216                      [16, 64, 2, 2]            --
│    └─OutputShiftSqueeze: 2-217         --                        --
│    └─One: 2-218                        [1]                       --
│    └─OutputScale: 2-219                --                        --
│    └─Empty: 2-220                      [64, 64, 3, 3]            --
│    └─Empty: 2-221                      [64, 64, 3, 3]            --
│    └─Empty: 2-222                      [64]                      --
│    └─Empty: 2-223                      [64]                      --
│    └─BatchNorm2d: 2-224                [16, 64, 2, 2]            --
│    └─Scaler: 2-225                     [16, 64, 2, 2]            --
│    └─ReLU: 2-226                       [16, 64, 2, 2]            --
│    └─Empty: 2-227                      [16, 64, 2, 2]            --
│    └─Clamp: 2-228                      [16, 64, 2, 2]            --
├─FusedConv2dBNReLU: 1-18                [16, 64, 64, 64]          (recursive)
│    └─OutputShiftSqueeze: 2-229         --                        --
│    └─One: 2-230                        [1]                       --
│    └─OutputScale: 2-231                --                        --
│    └─Empty: 2-232                      [64, 48, 1, 1]            --
│    └─Empty: 2-233                      [64, 48, 1, 1]            --
│    └─Empty: 2-234                      [64]                      --
│    └─Empty: 2-235                      [64]                      --
│    └─BatchNorm2d: 2-236                [16, 64, 64, 64]          --
│    └─Scaler: 2-237                     [16, 64, 64, 64]          --
│    └─ReLU: 2-238                       [16, 64, 64, 64]          --
│    └─Empty: 2-239                      [16, 64, 64, 64]          --
│    └─Clamp: 2-240                      [16, 64, 64, 64]          --
├─FusedConv2dBNReLU: 1-19                [16, 64, 64, 64]          (recursive)
│    └─OutputShiftSqueeze: 2-241         --                        --
│    └─One: 2-242                        [1]                       --
│    └─OutputScale: 2-243                --                        --
│    └─Empty: 2-244                      [64, 64, 3, 3]            --
│    └─Empty: 2-245                      [64, 64, 3, 3]            --
│    └─Empty: 2-246                      [64]                      --
│    └─Empty: 2-247                      [64]                      --
│    └─BatchNorm2d: 2-248                [16, 64, 64, 64]          --
│    └─Scaler: 2-249                     [16, 64, 64, 64]          --
│    └─ReLU: 2-250                       [16, 64, 64, 64]          --
│    └─Empty: 2-251                      [16, 64, 64, 64]          --
│    └─Clamp: 2-252                      [16, 64, 64, 64]          --
├─FusedConv2dBNReLU: 1-20                [16, 64, 64, 64]          (recursive)
│    └─OutputShiftSqueeze: 2-253         --                        --
│    └─One: 2-254                        [1]                       --
│    └─OutputScale: 2-255                --                        --
│    └─Empty: 2-256                      [64, 64, 1, 1]            --
│    └─Empty: 2-257                      [64, 64, 1, 1]            --
│    └─Empty: 2-258                      [64]                      --
│    └─Empty: 2-259                      [64]                      --
│    └─BatchNorm2d: 2-260                [16, 64, 64, 64]          --
│    └─Scaler: 2-261                     [16, 64, 64, 64]          --
│    └─ReLU: 2-262                       [16, 64, 64, 64]          --
│    └─Empty: 2-263                      [16, 64, 64, 64]          --
│    └─Clamp: 2-264                      [16, 64, 64, 64]          --
├─FusedConv2dBNReLU: 1-21                [16, 64, 64, 64]          (recursive)
│    └─OutputShiftSqueeze: 2-265         --                        --
│    └─One: 2-266                        [1]                       --
│    └─OutputScale: 2-267                --                        --
│    └─Empty: 2-268                      [64, 64, 3, 3]            --
│    └─Empty: 2-269                      [64, 64, 3, 3]            --
│    └─Empty: 2-270                      [64]                      --
│    └─Empty: 2-271                      [64]                      --
│    └─BatchNorm2d: 2-272                [16, 64, 64, 64]          --
│    └─Scaler: 2-273                     [16, 64, 64, 64]          --
│    └─ReLU: 2-274                       [16, 64, 64, 64]          --
│    └─Empty: 2-275                      [16, 64, 64, 64]          --
│    └─Clamp: 2-276                      [16, 64, 64, 64]          --
├─FusedMaxPoolConv2dBNReLU: 1-22         [16, 64, 32, 32]          (recursive)
│    └─MaxPool2d: 2-277                  [16, 64, 32, 32]          --
│    └─Empty: 2-278                      [16, 64, 32, 32]          --
│    └─Empty: 2-279                      [16, 64, 32, 32]          --
│    └─OutputShiftSqueeze: 2-280         --                        --
│    └─One: 2-281                        [1]                       --
│    └─OutputScale: 2-282                --                        --
│    └─Empty: 2-283                      [64, 64, 3, 3]            --
│    └─Empty: 2-284                      [64, 64, 3, 3]            --
│    └─Empty: 2-285                      [64]                      --
│    └─Empty: 2-286                      [64]                      --
│    └─BatchNorm2d: 2-287                [16, 64, 32, 32]          --
│    └─Scaler: 2-288                     [16, 64, 32, 32]          --
│    └─ReLU: 2-289                       [16, 64, 32, 32]          --
│    └─Empty: 2-290                      [16, 64, 32, 32]          --
│    └─Clamp: 2-291                      [16, 64, 32, 32]          --
├─FusedConv2dBNReLU: 1-23                [16, 64, 32, 32]          (recursive)
│    └─OutputShiftSqueeze: 2-292         --                        --
│    └─One: 2-293                        [1]                       --
│    └─OutputScale: 2-294                --                        --
│    └─Empty: 2-295                      [64, 64, 3, 3]            --
│    └─Empty: 2-296                      [64, 64, 3, 3]            --
│    └─Empty: 2-297                      [64]                      --
│    └─Empty: 2-298                      [64]                      --
│    └─BatchNorm2d: 2-299                [16, 64, 32, 32]          --
│    └─Scaler: 2-300                     [16, 64, 32, 32]          --
│    └─ReLU: 2-301                       [16, 64, 32, 32]          --
│    └─Empty: 2-302                      [16, 64, 32, 32]          --
│    └─Clamp: 2-303                      [16, 64, 32, 32]          --
├─FusedMaxPoolConv2dBNReLU: 1-24         [16, 64, 16, 16]          (recursive)
│    └─MaxPool2d: 2-304                  [16, 64, 16, 16]          --
│    └─Empty: 2-305                      [16, 64, 16, 16]          --
│    └─Empty: 2-306                      [16, 64, 16, 16]          --
│    └─OutputShiftSqueeze: 2-307         --                        --
│    └─One: 2-308                        [1]                       --
│    └─OutputScale: 2-309                --                        --
│    └─Empty: 2-310                      [64, 64, 3, 3]            --
│    └─Empty: 2-311                      [64, 64, 3, 3]            --
│    └─Empty: 2-312                      [64]                      --
│    └─Empty: 2-313                      [64]                      --
│    └─BatchNorm2d: 2-314                [16, 64, 16, 16]          --
│    └─Scaler: 2-315                     [16, 64, 16, 16]          --
│    └─ReLU: 2-316                       [16, 64, 16, 16]          --
│    └─Empty: 2-317                      [16, 64, 16, 16]          --
│    └─Clamp: 2-318                      [16, 64, 16, 16]          --
├─FusedConv2dBNReLU: 1-25                [16, 64, 16, 16]          (recursive)
│    └─OutputShiftSqueeze: 2-319         --                        --
│    └─One: 2-320                        [1]                       --
│    └─OutputScale: 2-321                --                        --
│    └─Empty: 2-322                      [64, 64, 3, 3]            --
│    └─Empty: 2-323                      [64, 64, 3, 3]            --
│    └─Empty: 2-324                      [64]                      --
│    └─Empty: 2-325                      [64]                      --
│    └─BatchNorm2d: 2-326                [16, 64, 16, 16]          --
│    └─Scaler: 2-327                     [16, 64, 16, 16]          --
│    └─ReLU: 2-328                       [16, 64, 16, 16]          --
│    └─Empty: 2-329                      [16, 64, 16, 16]          --
│    └─Clamp: 2-330                      [16, 64, 16, 16]          --
├─FusedMaxPoolConv2dBNReLU: 1-26         [16, 64, 8, 8]            (recursive)
│    └─MaxPool2d: 2-331                  [16, 64, 8, 8]            --
│    └─Empty: 2-332                      [16, 64, 8, 8]            --
│    └─Empty: 2-333                      [16, 64, 8, 8]            --
│    └─OutputShiftSqueeze: 2-334         --                        --
│    └─One: 2-335                        [1]                       --
│    └─OutputScale: 2-336                --                        --
│    └─Empty: 2-337                      [64, 64, 3, 3]            --
│    └─Empty: 2-338                      [64, 64, 3, 3]            --
│    └─Empty: 2-339                      [64]                      --
│    └─Empty: 2-340                      [64]                      --
│    └─BatchNorm2d: 2-341                [16, 64, 8, 8]            --
│    └─Scaler: 2-342                     [16, 64, 8, 8]            --
│    └─ReLU: 2-343                       [16, 64, 8, 8]            --
│    └─Empty: 2-344                      [16, 64, 8, 8]            --
│    └─Clamp: 2-345                      [16, 64, 8, 8]            --
├─FusedConv2dBNReLU: 1-27                [16, 64, 8, 8]            (recursive)
│    └─OutputShiftSqueeze: 2-346         --                        --
│    └─One: 2-347                        [1]                       --
│    └─OutputScale: 2-348                --                        --
│    └─Empty: 2-349                      [64, 64, 1, 1]            --
│    └─Empty: 2-350                      [64, 64, 1, 1]            --
│    └─Empty: 2-351                      [64]                      --
│    └─Empty: 2-352                      [64]                      --
│    └─BatchNorm2d: 2-353                [16, 64, 8, 8]            --
│    └─Scaler: 2-354                     [16, 64, 8, 8]            --
│    └─ReLU: 2-355                       [16, 64, 8, 8]            --
│    └─Empty: 2-356                      [16, 64, 8, 8]            --
│    └─Clamp: 2-357                      [16, 64, 8, 8]            --
├─FusedMaxPoolConv2dBNReLU: 1-28         [16, 64, 8, 8]            (recursive)
│    └─MaxPool2d: 2-358                  [16, 64, 8, 8]            --
│    └─Empty: 2-359                      [16, 64, 8, 8]            --
│    └─Empty: 2-360                      [16, 64, 8, 8]            --
│    └─OutputShiftSqueeze: 2-361         --                        --
│    └─One: 2-362                        [1]                       --
│    └─OutputScale: 2-363                --                        --
│    └─Empty: 2-364                      [64, 64, 3, 3]            --
│    └─Empty: 2-365                      [64, 64, 3, 3]            --
│    └─Empty: 2-366                      [64]                      --
│    └─Empty: 2-367                      [64]                      --
│    └─BatchNorm2d: 2-368                [16, 64, 8, 8]            --
│    └─Scaler: 2-369                     [16, 64, 8, 8]            --
│    └─ReLU: 2-370                       [16, 64, 8, 8]            --
│    └─Empty: 2-371                      [16, 64, 8, 8]            --
│    └─Clamp: 2-372                      [16, 64, 8, 8]            --
├─FusedMaxPoolConv2dBNReLU: 1-29         [16, 64, 4, 4]            (recursive)
│    └─MaxPool2d: 2-373                  [16, 64, 4, 4]            --
│    └─Empty: 2-374                      [16, 64, 4, 4]            --
│    └─Empty: 2-375                      [16, 64, 4, 4]            --
│    └─OutputShiftSqueeze: 2-376         --                        --
│    └─One: 2-377                        [1]                       --
│    └─OutputScale: 2-378                --                        --
│    └─Empty: 2-379                      [64, 64, 3, 3]            --
│    └─Empty: 2-380                      [64, 64, 3, 3]            --
│    └─Empty: 2-381                      [64]                      --
│    └─Empty: 2-382                      [64]                      --
│    └─BatchNorm2d: 2-383                [16, 64, 4, 4]            --
│    └─Scaler: 2-384                     [16, 64, 4, 4]            --
│    └─ReLU: 2-385                       [16, 64, 4, 4]            --
│    └─Empty: 2-386                      [16, 64, 4, 4]            --
│    └─Clamp: 2-387                      [16, 64, 4, 4]            --
├─FusedConv2dBNReLU: 1-30                [16, 64, 4, 4]            (recursive)
│    └─OutputShiftSqueeze: 2-388         --                        --
│    └─One: 2-389                        [1]                       --
│    └─OutputScale: 2-390                --                        --
│    └─Empty: 2-391                      [64, 64, 1, 1]            --
│    └─Empty: 2-392                      [64, 64, 1, 1]            --
│    └─Empty: 2-393                      [64]                      --
│    └─Empty: 2-394                      [64]                      --
│    └─BatchNorm2d: 2-395                [16, 64, 4, 4]            --
│    └─Scaler: 2-396                     [16, 64, 4, 4]            --
│    └─ReLU: 2-397                       [16, 64, 4, 4]            --
│    └─Empty: 2-398                      [16, 64, 4, 4]            --
│    └─Clamp: 2-399                      [16, 64, 4, 4]            --
├─FusedMaxPoolConv2dBNReLU: 1-31         [16, 64, 4, 4]            (recursive)
│    └─MaxPool2d: 2-400                  [16, 64, 4, 4]            --
│    └─Empty: 2-401                      [16, 64, 4, 4]            --
│    └─Empty: 2-402                      [16, 64, 4, 4]            --
│    └─OutputShiftSqueeze: 2-403         --                        --
│    └─One: 2-404                        [1]                       --
│    └─OutputScale: 2-405                --                        --
│    └─Empty: 2-406                      [64, 64, 3, 3]            --
│    └─Empty: 2-407                      [64, 64, 3, 3]            --
│    └─Empty: 2-408                      [64]                      --
│    └─Empty: 2-409                      [64]                      --
│    └─BatchNorm2d: 2-410                [16, 64, 4, 4]            --
│    └─Scaler: 2-411                     [16, 64, 4, 4]            --
│    └─ReLU: 2-412                       [16, 64, 4, 4]            --
│    └─Empty: 2-413                      [16, 64, 4, 4]            --
│    └─Clamp: 2-414                      [16, 64, 4, 4]            --
├─FusedMaxPoolConv2dBNReLU: 1-32         [16, 64, 2, 2]            (recursive)
│    └─MaxPool2d: 2-415                  [16, 64, 2, 2]            --
│    └─Empty: 2-416                      [16, 64, 2, 2]            --
│    └─Empty: 2-417                      [16, 64, 2, 2]            --
│    └─OutputShiftSqueeze: 2-418         --                        --
│    └─One: 2-419                        [1]                       --
│    └─OutputScale: 2-420                --                        --
│    └─Empty: 2-421                      [64, 64, 1, 1]            --
│    └─Empty: 2-422                      [64, 64, 1, 1]            --
│    └─Empty: 2-423                      [64]                      --
│    └─Empty: 2-424                      [64]                      --
│    └─BatchNorm2d: 2-425                [16, 64, 2, 2]            --
│    └─Scaler: 2-426                     [16, 64, 2, 2]            --
│    └─ReLU: 2-427                       [16, 64, 2, 2]            --
│    └─Empty: 2-428                      [16, 64, 2, 2]            --
│    └─Clamp: 2-429                      [16, 64, 2, 2]            --
├─FusedConv2dBNReLU: 1-33                [16, 64, 2, 2]            (recursive)
│    └─OutputShiftSqueeze: 2-430         --                        --
│    └─One: 2-431                        [1]                       --
│    └─OutputScale: 2-432                --                        --
│    └─Empty: 2-433                      [64, 64, 1, 1]            --
│    └─Empty: 2-434                      [64, 64, 1, 1]            --
│    └─Empty: 2-435                      [64]                      --
│    └─Empty: 2-436                      [64]                      --
│    └─BatchNorm2d: 2-437                [16, 64, 2, 2]            --
│    └─Scaler: 2-438                     [16, 64, 2, 2]            --
│    └─ReLU: 2-439                       [16, 64, 2, 2]            --
│    └─Empty: 2-440                      [16, 64, 2, 2]            --
│    └─Clamp: 2-441                      [16, 64, 2, 2]            --
├─FusedMaxPoolConv2dBNReLU: 1-34         [16, 64, 2, 2]            (recursive)
│    └─MaxPool2d: 2-442                  [16, 64, 2, 2]            --
│    └─Empty: 2-443                      [16, 64, 2, 2]            --
│    └─Empty: 2-444                      [16, 64, 2, 2]            --
│    └─OutputShiftSqueeze: 2-445         --                        --
│    └─One: 2-446                        [1]                       --
│    └─OutputScale: 2-447                --                        --
│    └─Empty: 2-448                      [64, 64, 3, 3]            --
│    └─Empty: 2-449                      [64, 64, 3, 3]            --
│    └─Empty: 2-450                      [64]                      --
│    └─Empty: 2-451                      [64]                      --
│    └─BatchNorm2d: 2-452                [16, 64, 2, 2]            --
│    └─Scaler: 2-453                     [16, 64, 2, 2]            --
│    └─ReLU: 2-454                       [16, 64, 2, 2]            --
│    └─Empty: 2-455                      [16, 64, 2, 2]            --
│    └─Clamp: 2-456                      [16, 64, 2, 2]            --
├─FusedConv2dBNReLU: 1-35                [16, 64, 64, 64]          (recursive)
│    └─OutputShiftSqueeze: 2-457         --                        --
│    └─One: 2-458                        [1]                       --
│    └─OutputScale: 2-459                --                        --
│    └─Empty: 2-460                      [64, 48, 1, 1]            --
│    └─Empty: 2-461                      [64, 48, 1, 1]            --
│    └─Empty: 2-462                      [64]                      --
│    └─Empty: 2-463                      [64]                      --
│    └─BatchNorm2d: 2-464                [16, 64, 64, 64]          --
│    └─Scaler: 2-465                     [16, 64, 64, 64]          --
│    └─ReLU: 2-466                       [16, 64, 64, 64]          --
│    └─Empty: 2-467                      [16, 64, 64, 64]          --
│    └─Clamp: 2-468                      [16, 64, 64, 64]          --
├─FusedConv2dBNReLU: 1-36                [16, 64, 64, 64]          (recursive)
│    └─OutputShiftSqueeze: 2-469         --                        --
│    └─One: 2-470                        [1]                       --
│    └─OutputScale: 2-471                --                        --
│    └─Empty: 2-472                      [64, 64, 3, 3]            --
│    └─Empty: 2-473                      [64, 64, 3, 3]            --
│    └─Empty: 2-474                      [64]                      --
│    └─Empty: 2-475                      [64]                      --
│    └─BatchNorm2d: 2-476                [16, 64, 64, 64]          --
│    └─Scaler: 2-477                     [16, 64, 64, 64]          --
│    └─ReLU: 2-478                       [16, 64, 64, 64]          --
│    └─Empty: 2-479                      [16, 64, 64, 64]          --
│    └─Clamp: 2-480                      [16, 64, 64, 64]          --
├─FusedConv2dBNReLU: 1-37                [16, 64, 64, 64]          (recursive)
│    └─OutputShiftSqueeze: 2-481         --                        --
│    └─One: 2-482                        [1]                       --
│    └─OutputScale: 2-483                --                        --
│    └─Empty: 2-484                      [64, 64, 1, 1]            --
│    └─Empty: 2-485                      [64, 64, 1, 1]            --
│    └─Empty: 2-486                      [64]                      --
│    └─Empty: 2-487                      [64]                      --
│    └─BatchNorm2d: 2-488                [16, 64, 64, 64]          --
│    └─Scaler: 2-489                     [16, 64, 64, 64]          --
│    └─ReLU: 2-490                       [16, 64, 64, 64]          --
│    └─Empty: 2-491                      [16, 64, 64, 64]          --
│    └─Clamp: 2-492                      [16, 64, 64, 64]          --
├─FusedConv2dBNReLU: 1-38                [16, 64, 64, 64]          (recursive)
│    └─OutputShiftSqueeze: 2-493         --                        --
│    └─One: 2-494                        [1]                       --
│    └─OutputScale: 2-495                --                        --
│    └─Empty: 2-496                      [64, 64, 3, 3]            --
│    └─Empty: 2-497                      [64, 64, 3, 3]            --
│    └─Empty: 2-498                      [64]                      --
│    └─Empty: 2-499                      [64]                      --
│    └─BatchNorm2d: 2-500                [16, 64, 64, 64]          --
│    └─Scaler: 2-501                     [16, 64, 64, 64]          --
│    └─ReLU: 2-502                       [16, 64, 64, 64]          --
│    └─Empty: 2-503                      [16, 64, 64, 64]          --
│    └─Clamp: 2-504                      [16, 64, 64, 64]          --
├─FusedMaxPoolConv2dBNReLU: 1-39         [16, 64, 32, 32]          (recursive)
│    └─MaxPool2d: 2-505                  [16, 64, 32, 32]          --
│    └─Empty: 2-506                      [16, 64, 32, 32]          --
│    └─Empty: 2-507                      [16, 64, 32, 32]          --
│    └─OutputShiftSqueeze: 2-508         --                        --
│    └─One: 2-509                        [1]                       --
│    └─OutputScale: 2-510                --                        --
│    └─Empty: 2-511                      [64, 64, 3, 3]            --
│    └─Empty: 2-512                      [64, 64, 3, 3]            --
│    └─Empty: 2-513                      [64]                      --
│    └─Empty: 2-514                      [64]                      --
│    └─BatchNorm2d: 2-515                [16, 64, 32, 32]          --
│    └─Scaler: 2-516                     [16, 64, 32, 32]          --
│    └─ReLU: 2-517                       [16, 64, 32, 32]          --
│    └─Empty: 2-518                      [16, 64, 32, 32]          --
│    └─Clamp: 2-519                      [16, 64, 32, 32]          --
├─FusedConv2dBNReLU: 1-40                [16, 64, 32, 32]          (recursive)
│    └─OutputShiftSqueeze: 2-520         --                        --
│    └─One: 2-521                        [1]                       --
│    └─OutputScale: 2-522                --                        --
│    └─Empty: 2-523                      [64, 64, 3, 3]            --
│    └─Empty: 2-524                      [64, 64, 3, 3]            --
│    └─Empty: 2-525                      [64]                      --
│    └─Empty: 2-526                      [64]                      --
│    └─BatchNorm2d: 2-527                [16, 64, 32, 32]          --
│    └─Scaler: 2-528                     [16, 64, 32, 32]          --
│    └─ReLU: 2-529                       [16, 64, 32, 32]          --
│    └─Empty: 2-530                      [16, 64, 32, 32]          --
│    └─Clamp: 2-531                      [16, 64, 32, 32]          --
├─FusedMaxPoolConv2dBNReLU: 1-41         [16, 64, 16, 16]          (recursive)
│    └─MaxPool2d: 2-532                  [16, 64, 16, 16]          --
│    └─Empty: 2-533                      [16, 64, 16, 16]          --
│    └─Empty: 2-534                      [16, 64, 16, 16]          --
│    └─OutputShiftSqueeze: 2-535         --                        --
│    └─One: 2-536                        [1]                       --
│    └─OutputScale: 2-537                --                        --
│    └─Empty: 2-538                      [64, 64, 3, 3]            --
│    └─Empty: 2-539                      [64, 64, 3, 3]            --
│    └─Empty: 2-540                      [64]                      --
│    └─Empty: 2-541                      [64]                      --
│    └─BatchNorm2d: 2-542                [16, 64, 16, 16]          --
│    └─Scaler: 2-543                     [16, 64, 16, 16]          --
│    └─ReLU: 2-544                       [16, 64, 16, 16]          --
│    └─Empty: 2-545                      [16, 64, 16, 16]          --
│    └─Clamp: 2-546                      [16, 64, 16, 16]          --
├─FusedConv2dBNReLU: 1-42                [16, 64, 16, 16]          (recursive)
│    └─OutputShiftSqueeze: 2-547         --                        --
│    └─One: 2-548                        [1]                       --
│    └─OutputScale: 2-549                --                        --
│    └─Empty: 2-550                      [64, 64, 3, 3]            --
│    └─Empty: 2-551                      [64, 64, 3, 3]            --
│    └─Empty: 2-552                      [64]                      --
│    └─Empty: 2-553                      [64]                      --
│    └─BatchNorm2d: 2-554                [16, 64, 16, 16]          --
│    └─Scaler: 2-555                     [16, 64, 16, 16]          --
│    └─ReLU: 2-556                       [16, 64, 16, 16]          --
│    └─Empty: 2-557                      [16, 64, 16, 16]          --
│    └─Clamp: 2-558                      [16, 64, 16, 16]          --
├─FusedMaxPoolConv2dBNReLU: 1-43         [16, 64, 8, 8]            (recursive)
│    └─MaxPool2d: 2-559                  [16, 64, 8, 8]            --
│    └─Empty: 2-560                      [16, 64, 8, 8]            --
│    └─Empty: 2-561                      [16, 64, 8, 8]            --
│    └─OutputShiftSqueeze: 2-562         --                        --
│    └─One: 2-563                        [1]                       --
│    └─OutputScale: 2-564                --                        --
│    └─Empty: 2-565                      [64, 64, 3, 3]            --
│    └─Empty: 2-566                      [64, 64, 3, 3]            --
│    └─Empty: 2-567                      [64]                      --
│    └─Empty: 2-568                      [64]                      --
│    └─BatchNorm2d: 2-569                [16, 64, 8, 8]            --
│    └─Scaler: 2-570                     [16, 64, 8, 8]            --
│    └─ReLU: 2-571                       [16, 64, 8, 8]            --
│    └─Empty: 2-572                      [16, 64, 8, 8]            --
│    └─Clamp: 2-573                      [16, 64, 8, 8]            --
├─FusedConv2dBNReLU: 1-44                [16, 64, 8, 8]            (recursive)
│    └─OutputShiftSqueeze: 2-574         --                        --
│    └─One: 2-575                        [1]                       --
│    └─OutputScale: 2-576                --                        --
│    └─Empty: 2-577                      [64, 64, 1, 1]            --
│    └─Empty: 2-578                      [64, 64, 1, 1]            --
│    └─Empty: 2-579                      [64]                      --
│    └─Empty: 2-580                      [64]                      --
│    └─BatchNorm2d: 2-581                [16, 64, 8, 8]            --
│    └─Scaler: 2-582                     [16, 64, 8, 8]            --
│    └─ReLU: 2-583                       [16, 64, 8, 8]            --
│    └─Empty: 2-584                      [16, 64, 8, 8]            --
│    └─Clamp: 2-585                      [16, 64, 8, 8]            --
├─FusedMaxPoolConv2dBNReLU: 1-45         [16, 64, 8, 8]            (recursive)
│    └─MaxPool2d: 2-586                  [16, 64, 8, 8]            --
│    └─Empty: 2-587                      [16, 64, 8, 8]            --
│    └─Empty: 2-588                      [16, 64, 8, 8]            --
│    └─OutputShiftSqueeze: 2-589         --                        --
│    └─One: 2-590                        [1]                       --
│    └─OutputScale: 2-591                --                        --
│    └─Empty: 2-592                      [64, 64, 3, 3]            --
│    └─Empty: 2-593                      [64, 64, 3, 3]            --
│    └─Empty: 2-594                      [64]                      --
│    └─Empty: 2-595                      [64]                      --
│    └─BatchNorm2d: 2-596                [16, 64, 8, 8]            --
│    └─Scaler: 2-597                     [16, 64, 8, 8]            --
│    └─ReLU: 2-598                       [16, 64, 8, 8]            --
│    └─Empty: 2-599                      [16, 64, 8, 8]            --
│    └─Clamp: 2-600                      [16, 64, 8, 8]            --
├─FusedMaxPoolConv2dBNReLU: 1-46         [16, 64, 4, 4]            (recursive)
│    └─MaxPool2d: 2-601                  [16, 64, 4, 4]            --
│    └─Empty: 2-602                      [16, 64, 4, 4]            --
│    └─Empty: 2-603                      [16, 64, 4, 4]            --
│    └─OutputShiftSqueeze: 2-604         --                        --
│    └─One: 2-605                        [1]                       --
│    └─OutputScale: 2-606                --                        --
│    └─Empty: 2-607                      [64, 64, 3, 3]            --
│    └─Empty: 2-608                      [64, 64, 3, 3]            --
│    └─Empty: 2-609                      [64]                      --
│    └─Empty: 2-610                      [64]                      --
│    └─BatchNorm2d: 2-611                [16, 64, 4, 4]            --
│    └─Scaler: 2-612                     [16, 64, 4, 4]            --
│    └─ReLU: 2-613                       [16, 64, 4, 4]            --
│    └─Empty: 2-614                      [16, 64, 4, 4]            --
│    └─Clamp: 2-615                      [16, 64, 4, 4]            --
├─FusedConv2dBNReLU: 1-47                [16, 64, 4, 4]            (recursive)
│    └─OutputShiftSqueeze: 2-616         --                        --
│    └─One: 2-617                        [1]                       --
│    └─OutputScale: 2-618                --                        --
│    └─Empty: 2-619                      [64, 64, 1, 1]            --
│    └─Empty: 2-620                      [64, 64, 1, 1]            --
│    └─Empty: 2-621                      [64]                      --
│    └─Empty: 2-622                      [64]                      --
│    └─BatchNorm2d: 2-623                [16, 64, 4, 4]            --
│    └─Scaler: 2-624                     [16, 64, 4, 4]            --
│    └─ReLU: 2-625                       [16, 64, 4, 4]            --
│    └─Empty: 2-626                      [16, 64, 4, 4]            --
│    └─Clamp: 2-627                      [16, 64, 4, 4]            --
├─FusedMaxPoolConv2dBNReLU: 1-48         [16, 64, 4, 4]            (recursive)
│    └─MaxPool2d: 2-628                  [16, 64, 4, 4]            --
│    └─Empty: 2-629                      [16, 64, 4, 4]            --
│    └─Empty: 2-630                      [16, 64, 4, 4]            --
│    └─OutputShiftSqueeze: 2-631         --                        --
│    └─One: 2-632                        [1]                       --
│    └─OutputScale: 2-633                --                        --
│    └─Empty: 2-634                      [64, 64, 3, 3]            --
│    └─Empty: 2-635                      [64, 64, 3, 3]            --
│    └─Empty: 2-636                      [64]                      --
│    └─Empty: 2-637                      [64]                      --
│    └─BatchNorm2d: 2-638                [16, 64, 4, 4]            --
│    └─Scaler: 2-639                     [16, 64, 4, 4]            --
│    └─ReLU: 2-640                       [16, 64, 4, 4]            --
│    └─Empty: 2-641                      [16, 64, 4, 4]            --
│    └─Clamp: 2-642                      [16, 64, 4, 4]            --
├─FusedMaxPoolConv2dBNReLU: 1-49         [16, 64, 2, 2]            (recursive)
│    └─MaxPool2d: 2-643                  [16, 64, 2, 2]            --
│    └─Empty: 2-644                      [16, 64, 2, 2]            --
│    └─Empty: 2-645                      [16, 64, 2, 2]            --
│    └─OutputShiftSqueeze: 2-646         --                        --
│    └─One: 2-647                        [1]                       --
│    └─OutputScale: 2-648                --                        --
│    └─Empty: 2-649                      [64, 64, 1, 1]            --
│    └─Empty: 2-650                      [64, 64, 1, 1]            --
│    └─Empty: 2-651                      [64]                      --
│    └─Empty: 2-652                      [64]                      --
│    └─BatchNorm2d: 2-653                [16, 64, 2, 2]            --
│    └─Scaler: 2-654                     [16, 64, 2, 2]            --
│    └─ReLU: 2-655                       [16, 64, 2, 2]            --
│    └─Empty: 2-656                      [16, 64, 2, 2]            --
│    └─Clamp: 2-657                      [16, 64, 2, 2]            --
├─FusedConv2dBNReLU: 1-50                [16, 64, 2, 2]            (recursive)
│    └─OutputShiftSqueeze: 2-658         --                        --
│    └─One: 2-659                        [1]                       --
│    └─OutputScale: 2-660                --                        --
│    └─Empty: 2-661                      [64, 64, 1, 1]            --
│    └─Empty: 2-662                      [64, 64, 1, 1]            --
│    └─Empty: 2-663                      [64]                      --
│    └─Empty: 2-664                      [64]                      --
│    └─BatchNorm2d: 2-665                [16, 64, 2, 2]            --
│    └─Scaler: 2-666                     [16, 64, 2, 2]            --
│    └─ReLU: 2-667                       [16, 64, 2, 2]            --
│    └─Empty: 2-668                      [16, 64, 2, 2]            --
│    └─Clamp: 2-669                      [16, 64, 2, 2]            --
├─FusedMaxPoolConv2dBNReLU: 1-51         [16, 64, 2, 2]            (recursive)
│    └─MaxPool2d: 2-670                  [16, 64, 2, 2]            --
│    └─Empty: 2-671                      [16, 64, 2, 2]            --
│    └─Empty: 2-672                      [16, 64, 2, 2]            --
│    └─OutputShiftSqueeze: 2-673         --                        --
│    └─One: 2-674                        [1]                       --
│    └─OutputScale: 2-675                --                        --
│    └─Empty: 2-676                      [64, 64, 3, 3]            --
│    └─Empty: 2-677                      [64, 64, 3, 3]            --
│    └─Empty: 2-678                      [64]                      --
│    └─Empty: 2-679                      [64]                      --
│    └─BatchNorm2d: 2-680                [16, 64, 2, 2]            --
│    └─Scaler: 2-681                     [16, 64, 2, 2]            --
│    └─ReLU: 2-682                       [16, 64, 2, 2]            --
│    └─Empty: 2-683                      [16, 64, 2, 2]            --
│    └─Clamp: 2-684                      [16, 64, 2, 2]            --
├─FusedConv2dBNReLU: 1-52                [16, 64, 64, 64]          (recursive)
│    └─OutputShiftSqueeze: 2-685         --                        --
│    └─One: 2-686                        [1]                       --
│    └─OutputScale: 2-687                --                        --
│    └─Empty: 2-688                      [64, 48, 1, 1]            --
│    └─Empty: 2-689                      [64, 48, 1, 1]            --
│    └─Empty: 2-690                      [64]                      --
│    └─Empty: 2-691                      [64]                      --
│    └─BatchNorm2d: 2-692                [16, 64, 64, 64]          --
│    └─Scaler: 2-693                     [16, 64, 64, 64]          --
│    └─ReLU: 2-694                       [16, 64, 64, 64]          --
│    └─Empty: 2-695                      [16, 64, 64, 64]          --
│    └─Clamp: 2-696                      [16, 64, 64, 64]          --
├─FusedConv2dBNReLU: 1-53                [16, 64, 64, 64]          (recursive)
│    └─OutputShiftSqueeze: 2-697         --                        --
│    └─One: 2-698                        [1]                       --
│    └─OutputScale: 2-699                --                        --
│    └─Empty: 2-700                      [64, 64, 3, 3]            --
│    └─Empty: 2-701                      [64, 64, 3, 3]            --
│    └─Empty: 2-702                      [64]                      --
│    └─Empty: 2-703                      [64]                      --
│    └─BatchNorm2d: 2-704                [16, 64, 64, 64]          --
│    └─Scaler: 2-705                     [16, 64, 64, 64]          --
│    └─ReLU: 2-706                       [16, 64, 64, 64]          --
│    └─Empty: 2-707                      [16, 64, 64, 64]          --
│    └─Clamp: 2-708                      [16, 64, 64, 64]          --
├─FusedConv2dBNReLU: 1-54                [16, 64, 64, 64]          (recursive)
│    └─OutputShiftSqueeze: 2-709         --                        --
│    └─One: 2-710                        [1]                       --
│    └─OutputScale: 2-711                --                        --
│    └─Empty: 2-712                      [64, 64, 1, 1]            --
│    └─Empty: 2-713                      [64, 64, 1, 1]            --
│    └─Empty: 2-714                      [64]                      --
│    └─Empty: 2-715                      [64]                      --
│    └─BatchNorm2d: 2-716                [16, 64, 64, 64]          --
│    └─Scaler: 2-717                     [16, 64, 64, 64]          --
│    └─ReLU: 2-718                       [16, 64, 64, 64]          --
│    └─Empty: 2-719                      [16, 64, 64, 64]          --
│    └─Clamp: 2-720                      [16, 64, 64, 64]          --
├─FusedConv2dBNReLU: 1-55                [16, 64, 64, 64]          (recursive)
│    └─OutputShiftSqueeze: 2-721         --                        --
│    └─One: 2-722                        [1]                       --
│    └─OutputScale: 2-723                --                        --
│    └─Empty: 2-724                      [64, 64, 3, 3]            --
│    └─Empty: 2-725                      [64, 64, 3, 3]            --
│    └─Empty: 2-726                      [64]                      --
│    └─Empty: 2-727                      [64]                      --
│    └─BatchNorm2d: 2-728                [16, 64, 64, 64]          --
│    └─Scaler: 2-729                     [16, 64, 64, 64]          --
│    └─ReLU: 2-730                       [16, 64, 64, 64]          --
│    └─Empty: 2-731                      [16, 64, 64, 64]          --
│    └─Clamp: 2-732                      [16, 64, 64, 64]          --
├─FusedMaxPoolConv2dBNReLU: 1-56         [16, 64, 32, 32]          (recursive)
│    └─MaxPool2d: 2-733                  [16, 64, 32, 32]          --
│    └─Empty: 2-734                      [16, 64, 32, 32]          --
│    └─Empty: 2-735                      [16, 64, 32, 32]          --
│    └─OutputShiftSqueeze: 2-736         --                        --
│    └─One: 2-737                        [1]                       --
│    └─OutputScale: 2-738                --                        --
│    └─Empty: 2-739                      [64, 64, 3, 3]            --
│    └─Empty: 2-740                      [64, 64, 3, 3]            --
│    └─Empty: 2-741                      [64]                      --
│    └─Empty: 2-742                      [64]                      --
│    └─BatchNorm2d: 2-743                [16, 64, 32, 32]          --
│    └─Scaler: 2-744                     [16, 64, 32, 32]          --
│    └─ReLU: 2-745                       [16, 64, 32, 32]          --
│    └─Empty: 2-746                      [16, 64, 32, 32]          --
│    └─Clamp: 2-747                      [16, 64, 32, 32]          --
├─FusedConv2dBNReLU: 1-57                [16, 64, 32, 32]          (recursive)
│    └─OutputShiftSqueeze: 2-748         --                        --
│    └─One: 2-749                        [1]                       --
│    └─OutputScale: 2-750                --                        --
│    └─Empty: 2-751                      [64, 64, 3, 3]            --
│    └─Empty: 2-752                      [64, 64, 3, 3]            --
│    └─Empty: 2-753                      [64]                      --
│    └─Empty: 2-754                      [64]                      --
│    └─BatchNorm2d: 2-755                [16, 64, 32, 32]          --
│    └─Scaler: 2-756                     [16, 64, 32, 32]          --
│    └─ReLU: 2-757                       [16, 64, 32, 32]          --
│    └─Empty: 2-758                      [16, 64, 32, 32]          --
│    └─Clamp: 2-759                      [16, 64, 32, 32]          --
├─FusedMaxPoolConv2dBNReLU: 1-58         [16, 64, 16, 16]          (recursive)
│    └─MaxPool2d: 2-760                  [16, 64, 16, 16]          --
│    └─Empty: 2-761                      [16, 64, 16, 16]          --
│    └─Empty: 2-762                      [16, 64, 16, 16]          --
│    └─OutputShiftSqueeze: 2-763         --                        --
│    └─One: 2-764                        [1]                       --
│    └─OutputScale: 2-765                --                        --
│    └─Empty: 2-766                      [64, 64, 3, 3]            --
│    └─Empty: 2-767                      [64, 64, 3, 3]            --
│    └─Empty: 2-768                      [64]                      --
│    └─Empty: 2-769                      [64]                      --
│    └─BatchNorm2d: 2-770                [16, 64, 16, 16]          --
│    └─Scaler: 2-771                     [16, 64, 16, 16]          --
│    └─ReLU: 2-772                       [16, 64, 16, 16]          --
│    └─Empty: 2-773                      [16, 64, 16, 16]          --
│    └─Clamp: 2-774                      [16, 64, 16, 16]          --
├─FusedConv2dBNReLU: 1-59                [16, 64, 16, 16]          (recursive)
│    └─OutputShiftSqueeze: 2-775         --                        --
│    └─One: 2-776                        [1]                       --
│    └─OutputScale: 2-777                --                        --
│    └─Empty: 2-778                      [64, 64, 3, 3]            --
│    └─Empty: 2-779                      [64, 64, 3, 3]            --
│    └─Empty: 2-780                      [64]                      --
│    └─Empty: 2-781                      [64]                      --
│    └─BatchNorm2d: 2-782                [16, 64, 16, 16]          --
│    └─Scaler: 2-783                     [16, 64, 16, 16]          --
│    └─ReLU: 2-784                       [16, 64, 16, 16]          --
│    └─Empty: 2-785                      [16, 64, 16, 16]          --
│    └─Clamp: 2-786                      [16, 64, 16, 16]          --
├─FusedMaxPoolConv2dBNReLU: 1-60         [16, 64, 8, 8]            (recursive)
│    └─MaxPool2d: 2-787                  [16, 64, 8, 8]            --
│    └─Empty: 2-788                      [16, 64, 8, 8]            --
│    └─Empty: 2-789                      [16, 64, 8, 8]            --
│    └─OutputShiftSqueeze: 2-790         --                        --
│    └─One: 2-791                        [1]                       --
│    └─OutputScale: 2-792                --                        --
│    └─Empty: 2-793                      [64, 64, 3, 3]            --
│    └─Empty: 2-794                      [64, 64, 3, 3]            --
│    └─Empty: 2-795                      [64]                      --
│    └─Empty: 2-796                      [64]                      --
│    └─BatchNorm2d: 2-797                [16, 64, 8, 8]            --
│    └─Scaler: 2-798                     [16, 64, 8, 8]            --
│    └─ReLU: 2-799                       [16, 64, 8, 8]            --
│    └─Empty: 2-800                      [16, 64, 8, 8]            --
│    └─Clamp: 2-801                      [16, 64, 8, 8]            --
├─FusedConv2dBNReLU: 1-61                [16, 64, 8, 8]            (recursive)
│    └─OutputShiftSqueeze: 2-802         --                        --
│    └─One: 2-803                        [1]                       --
│    └─OutputScale: 2-804                --                        --
│    └─Empty: 2-805                      [64, 64, 1, 1]            --
│    └─Empty: 2-806                      [64, 64, 1, 1]            --
│    └─Empty: 2-807                      [64]                      --
│    └─Empty: 2-808                      [64]                      --
│    └─BatchNorm2d: 2-809                [16, 64, 8, 8]            --
│    └─Scaler: 2-810                     [16, 64, 8, 8]            --
│    └─ReLU: 2-811                       [16, 64, 8, 8]            --
│    └─Empty: 2-812                      [16, 64, 8, 8]            --
│    └─Clamp: 2-813                      [16, 64, 8, 8]            --
├─FusedMaxPoolConv2dBNReLU: 1-62         [16, 64, 8, 8]            (recursive)
│    └─MaxPool2d: 2-814                  [16, 64, 8, 8]            --
│    └─Empty: 2-815                      [16, 64, 8, 8]            --
│    └─Empty: 2-816                      [16, 64, 8, 8]            --
│    └─OutputShiftSqueeze: 2-817         --                        --
│    └─One: 2-818                        [1]                       --
│    └─OutputScale: 2-819                --                        --
│    └─Empty: 2-820                      [64, 64, 3, 3]            --
│    └─Empty: 2-821                      [64, 64, 3, 3]            --
│    └─Empty: 2-822                      [64]                      --
│    └─Empty: 2-823                      [64]                      --
│    └─BatchNorm2d: 2-824                [16, 64, 8, 8]            --
│    └─Scaler: 2-825                     [16, 64, 8, 8]            --
│    └─ReLU: 2-826                       [16, 64, 8, 8]            --
│    └─Empty: 2-827                      [16, 64, 8, 8]            --
│    └─Clamp: 2-828                      [16, 64, 8, 8]            --
├─FusedMaxPoolConv2dBNReLU: 1-63         [16, 64, 4, 4]            (recursive)
│    └─MaxPool2d: 2-829                  [16, 64, 4, 4]            --
│    └─Empty: 2-830                      [16, 64, 4, 4]            --
│    └─Empty: 2-831                      [16, 64, 4, 4]            --
│    └─OutputShiftSqueeze: 2-832         --                        --
│    └─One: 2-833                        [1]                       --
│    └─OutputScale: 2-834                --                        --
│    └─Empty: 2-835                      [64, 64, 3, 3]            --
│    └─Empty: 2-836                      [64, 64, 3, 3]            --
│    └─Empty: 2-837                      [64]                      --
│    └─Empty: 2-838                      [64]                      --
│    └─BatchNorm2d: 2-839                [16, 64, 4, 4]            --
│    └─Scaler: 2-840                     [16, 64, 4, 4]            --
│    └─ReLU: 2-841                       [16, 64, 4, 4]            --
│    └─Empty: 2-842                      [16, 64, 4, 4]            --
│    └─Clamp: 2-843                      [16, 64, 4, 4]            --
├─FusedConv2dBNReLU: 1-64                [16, 64, 4, 4]            (recursive)
│    └─OutputShiftSqueeze: 2-844         --                        --
│    └─One: 2-845                        [1]                       --
│    └─OutputScale: 2-846                --                        --
│    └─Empty: 2-847                      [64, 64, 1, 1]            --
│    └─Empty: 2-848                      [64, 64, 1, 1]            --
│    └─Empty: 2-849                      [64]                      --
│    └─Empty: 2-850                      [64]                      --
│    └─BatchNorm2d: 2-851                [16, 64, 4, 4]            --
│    └─Scaler: 2-852                     [16, 64, 4, 4]            --
│    └─ReLU: 2-853                       [16, 64, 4, 4]            --
│    └─Empty: 2-854                      [16, 64, 4, 4]            --
│    └─Clamp: 2-855                      [16, 64, 4, 4]            --
├─FusedMaxPoolConv2dBNReLU: 1-65         [16, 64, 4, 4]            (recursive)
│    └─MaxPool2d: 2-856                  [16, 64, 4, 4]            --
│    └─Empty: 2-857                      [16, 64, 4, 4]            --
│    └─Empty: 2-858                      [16, 64, 4, 4]            --
│    └─OutputShiftSqueeze: 2-859         --                        --
│    └─One: 2-860                        [1]                       --
│    └─OutputScale: 2-861                --                        --
│    └─Empty: 2-862                      [64, 64, 3, 3]            --
│    └─Empty: 2-863                      [64, 64, 3, 3]            --
│    └─Empty: 2-864                      [64]                      --
│    └─Empty: 2-865                      [64]                      --
│    └─BatchNorm2d: 2-866                [16, 64, 4, 4]            --
│    └─Scaler: 2-867                     [16, 64, 4, 4]            --
│    └─ReLU: 2-868                       [16, 64, 4, 4]            --
│    └─Empty: 2-869                      [16, 64, 4, 4]            --
│    └─Clamp: 2-870                      [16, 64, 4, 4]            --
├─FusedMaxPoolConv2dBNReLU: 1-66         [16, 64, 2, 2]            (recursive)
│    └─MaxPool2d: 2-871                  [16, 64, 2, 2]            --
│    └─Empty: 2-872                      [16, 64, 2, 2]            --
│    └─Empty: 2-873                      [16, 64, 2, 2]            --
│    └─OutputShiftSqueeze: 2-874         --                        --
│    └─One: 2-875                        [1]                       --
│    └─OutputScale: 2-876                --                        --
│    └─Empty: 2-877                      [64, 64, 1, 1]            --
│    └─Empty: 2-878                      [64, 64, 1, 1]            --
│    └─Empty: 2-879                      [64]                      --
│    └─Empty: 2-880                      [64]                      --
│    └─BatchNorm2d: 2-881                [16, 64, 2, 2]            --
│    └─Scaler: 2-882                     [16, 64, 2, 2]            --
│    └─ReLU: 2-883                       [16, 64, 2, 2]            --
│    └─Empty: 2-884                      [16, 64, 2, 2]            --
│    └─Clamp: 2-885                      [16, 64, 2, 2]            --
├─FusedConv2dBNReLU: 1-67                [16, 64, 2, 2]            (recursive)
│    └─OutputShiftSqueeze: 2-886         --                        --
│    └─One: 2-887                        [1]                       --
│    └─OutputScale: 2-888                --                        --
│    └─Empty: 2-889                      [64, 64, 1, 1]            --
│    └─Empty: 2-890                      [64, 64, 1, 1]            --
│    └─Empty: 2-891                      [64]                      --
│    └─Empty: 2-892                      [64]                      --
│    └─BatchNorm2d: 2-893                [16, 64, 2, 2]            --
│    └─Scaler: 2-894                     [16, 64, 2, 2]            --
│    └─ReLU: 2-895                       [16, 64, 2, 2]            --
│    └─Empty: 2-896                      [16, 64, 2, 2]            --
│    └─Clamp: 2-897                      [16, 64, 2, 2]            --
├─FusedMaxPoolConv2dBNReLU: 1-68         [16, 64, 2, 2]            (recursive)
│    └─MaxPool2d: 2-898                  [16, 64, 2, 2]            --
│    └─Empty: 2-899                      [16, 64, 2, 2]            --
│    └─Empty: 2-900                      [16, 64, 2, 2]            --
│    └─OutputShiftSqueeze: 2-901         --                        --
│    └─One: 2-902                        [1]                       --
│    └─OutputScale: 2-903                --                        --
│    └─Empty: 2-904                      [64, 64, 3, 3]            --
│    └─Empty: 2-905                      [64, 64, 3, 3]            --
│    └─Empty: 2-906                      [64]                      --
│    └─Empty: 2-907                      [64]                      --
│    └─BatchNorm2d: 2-908                [16, 64, 2, 2]            --
│    └─Scaler: 2-909                     [16, 64, 2, 2]            --
│    └─ReLU: 2-910                       [16, 64, 2, 2]            --
│    └─Empty: 2-911                      [16, 64, 2, 2]            --
│    └─Clamp: 2-912                      [16, 64, 2, 2]            --
├─FusedConv2dBNReLU: 1-69                [16, 64, 64, 64]          (recursive)
│    └─OutputShiftSqueeze: 2-913         --                        --
│    └─One: 2-914                        [1]                       --
│    └─OutputScale: 2-915                --                        --
│    └─Empty: 2-916                      [64, 48, 1, 1]            --
│    └─Empty: 2-917                      [64, 48, 1, 1]            --
│    └─Empty: 2-918                      [64]                      --
│    └─Empty: 2-919                      [64]                      --
│    └─BatchNorm2d: 2-920                [16, 64, 64, 64]          --
│    └─Scaler: 2-921                     [16, 64, 64, 64]          --
│    └─ReLU: 2-922                       [16, 64, 64, 64]          --
│    └─Empty: 2-923                      [16, 64, 64, 64]          --
│    └─Clamp: 2-924                      [16, 64, 64, 64]          --
├─FusedConv2dBNReLU: 1-70                [16, 64, 64, 64]          (recursive)
│    └─OutputShiftSqueeze: 2-925         --                        --
│    └─One: 2-926                        [1]                       --
│    └─OutputScale: 2-927                --                        --
│    └─Empty: 2-928                      [64, 64, 3, 3]            --
│    └─Empty: 2-929                      [64, 64, 3, 3]            --
│    └─Empty: 2-930                      [64]                      --
│    └─Empty: 2-931                      [64]                      --
│    └─BatchNorm2d: 2-932                [16, 64, 64, 64]          --
│    └─Scaler: 2-933                     [16, 64, 64, 64]          --
│    └─ReLU: 2-934                       [16, 64, 64, 64]          --
│    └─Empty: 2-935                      [16, 64, 64, 64]          --
│    └─Clamp: 2-936                      [16, 64, 64, 64]          --
├─FusedConv2dBNReLU: 1-71                [16, 64, 64, 64]          (recursive)
│    └─OutputShiftSqueeze: 2-937         --                        --
│    └─One: 2-938                        [1]                       --
│    └─OutputScale: 2-939                --                        --
│    └─Empty: 2-940                      [64, 64, 1, 1]            --
│    └─Empty: 2-941                      [64, 64, 1, 1]            --
│    └─Empty: 2-942                      [64]                      --
│    └─Empty: 2-943                      [64]                      --
│    └─BatchNorm2d: 2-944                [16, 64, 64, 64]          --
│    └─Scaler: 2-945                     [16, 64, 64, 64]          --
│    └─ReLU: 2-946                       [16, 64, 64, 64]          --
│    └─Empty: 2-947                      [16, 64, 64, 64]          --
│    └─Clamp: 2-948                      [16, 64, 64, 64]          --
├─FusedConv2dBNReLU: 1-72                [16, 64, 64, 64]          (recursive)
│    └─OutputShiftSqueeze: 2-949         --                        --
│    └─One: 2-950                        [1]                       --
│    └─OutputScale: 2-951                --                        --
│    └─Empty: 2-952                      [64, 64, 3, 3]            --
│    └─Empty: 2-953                      [64, 64, 3, 3]            --
│    └─Empty: 2-954                      [64]                      --
│    └─Empty: 2-955                      [64]                      --
│    └─BatchNorm2d: 2-956                [16, 64, 64, 64]          --
│    └─Scaler: 2-957                     [16, 64, 64, 64]          --
│    └─ReLU: 2-958                       [16, 64, 64, 64]          --
│    └─Empty: 2-959                      [16, 64, 64, 64]          --
│    └─Clamp: 2-960                      [16, 64, 64, 64]          --
├─FusedMaxPoolConv2dBNReLU: 1-73         [16, 64, 32, 32]          (recursive)
│    └─MaxPool2d: 2-961                  [16, 64, 32, 32]          --
│    └─Empty: 2-962                      [16, 64, 32, 32]          --
│    └─Empty: 2-963                      [16, 64, 32, 32]          --
│    └─OutputShiftSqueeze: 2-964         --                        --
│    └─One: 2-965                        [1]                       --
│    └─OutputScale: 2-966                --                        --
│    └─Empty: 2-967                      [64, 64, 3, 3]            --
│    └─Empty: 2-968                      [64, 64, 3, 3]            --
│    └─Empty: 2-969                      [64]                      --
│    └─Empty: 2-970                      [64]                      --
│    └─BatchNorm2d: 2-971                [16, 64, 32, 32]          --
│    └─Scaler: 2-972                     [16, 64, 32, 32]          --
│    └─ReLU: 2-973                       [16, 64, 32, 32]          --
│    └─Empty: 2-974                      [16, 64, 32, 32]          --
│    └─Clamp: 2-975                      [16, 64, 32, 32]          --
├─FusedConv2dBNReLU: 1-74                [16, 64, 32, 32]          (recursive)
│    └─OutputShiftSqueeze: 2-976         --                        --
│    └─One: 2-977                        [1]                       --
│    └─OutputScale: 2-978                --                        --
│    └─Empty: 2-979                      [64, 64, 3, 3]            --
│    └─Empty: 2-980                      [64, 64, 3, 3]            --
│    └─Empty: 2-981                      [64]                      --
│    └─Empty: 2-982                      [64]                      --
│    └─BatchNorm2d: 2-983                [16, 64, 32, 32]          --
│    └─Scaler: 2-984                     [16, 64, 32, 32]          --
│    └─ReLU: 2-985                       [16, 64, 32, 32]          --
│    └─Empty: 2-986                      [16, 64, 32, 32]          --
│    └─Clamp: 2-987                      [16, 64, 32, 32]          --
├─FusedMaxPoolConv2dBNReLU: 1-75         [16, 64, 16, 16]          (recursive)
│    └─MaxPool2d: 2-988                  [16, 64, 16, 16]          --
│    └─Empty: 2-989                      [16, 64, 16, 16]          --
│    └─Empty: 2-990                      [16, 64, 16, 16]          --
│    └─OutputShiftSqueeze: 2-991         --                        --
│    └─One: 2-992                        [1]                       --
│    └─OutputScale: 2-993                --                        --
│    └─Empty: 2-994                      [64, 64, 3, 3]            --
│    └─Empty: 2-995                      [64, 64, 3, 3]            --
│    └─Empty: 2-996                      [64]                      --
│    └─Empty: 2-997                      [64]                      --
│    └─BatchNorm2d: 2-998                [16, 64, 16, 16]          --
│    └─Scaler: 2-999                     [16, 64, 16, 16]          --
│    └─ReLU: 2-1000                      [16, 64, 16, 16]          --
│    └─Empty: 2-1001                     [16, 64, 16, 16]          --
│    └─Clamp: 2-1002                     [16, 64, 16, 16]          --
├─FusedConv2dBNReLU: 1-76                [16, 64, 16, 16]          (recursive)
│    └─OutputShiftSqueeze: 2-1003        --                        --
│    └─One: 2-1004                       [1]                       --
│    └─OutputScale: 2-1005               --                        --
│    └─Empty: 2-1006                     [64, 64, 3, 3]            --
│    └─Empty: 2-1007                     [64, 64, 3, 3]            --
│    └─Empty: 2-1008                     [64]                      --
│    └─Empty: 2-1009                     [64]                      --
│    └─BatchNorm2d: 2-1010               [16, 64, 16, 16]          --
│    └─Scaler: 2-1011                    [16, 64, 16, 16]          --
│    └─ReLU: 2-1012                      [16, 64, 16, 16]          --
│    └─Empty: 2-1013                     [16, 64, 16, 16]          --
│    └─Clamp: 2-1014                     [16, 64, 16, 16]          --
├─FusedMaxPoolConv2dBNReLU: 1-77         [16, 64, 8, 8]            (recursive)
│    └─MaxPool2d: 2-1015                 [16, 64, 8, 8]            --
│    └─Empty: 2-1016                     [16, 64, 8, 8]            --
│    └─Empty: 2-1017                     [16, 64, 8, 8]            --
│    └─OutputShiftSqueeze: 2-1018        --                        --
│    └─One: 2-1019                       [1]                       --
│    └─OutputScale: 2-1020               --                        --
│    └─Empty: 2-1021                     [64, 64, 3, 3]            --
│    └─Empty: 2-1022                     [64, 64, 3, 3]            --
│    └─Empty: 2-1023                     [64]                      --
│    └─Empty: 2-1024                     [64]                      --
│    └─BatchNorm2d: 2-1025               [16, 64, 8, 8]            --
│    └─Scaler: 2-1026                    [16, 64, 8, 8]            --
│    └─ReLU: 2-1027                      [16, 64, 8, 8]            --
│    └─Empty: 2-1028                     [16, 64, 8, 8]            --
│    └─Clamp: 2-1029                     [16, 64, 8, 8]            --
├─FusedConv2dBNReLU: 1-78                [16, 64, 8, 8]            (recursive)
│    └─OutputShiftSqueeze: 2-1030        --                        --
│    └─One: 2-1031                       [1]                       --
│    └─OutputScale: 2-1032               --                        --
│    └─Empty: 2-1033                     [64, 64, 1, 1]            --
│    └─Empty: 2-1034                     [64, 64, 1, 1]            --
│    └─Empty: 2-1035                     [64]                      --
│    └─Empty: 2-1036                     [64]                      --
│    └─BatchNorm2d: 2-1037               [16, 64, 8, 8]            --
│    └─Scaler: 2-1038                    [16, 64, 8, 8]            --
│    └─ReLU: 2-1039                      [16, 64, 8, 8]            --
│    └─Empty: 2-1040                     [16, 64, 8, 8]            --
│    └─Clamp: 2-1041                     [16, 64, 8, 8]            --
├─FusedMaxPoolConv2dBNReLU: 1-79         [16, 64, 8, 8]            (recursive)
│    └─MaxPool2d: 2-1042                 [16, 64, 8, 8]            --
│    └─Empty: 2-1043                     [16, 64, 8, 8]            --
│    └─Empty: 2-1044                     [16, 64, 8, 8]            --
│    └─OutputShiftSqueeze: 2-1045        --                        --
│    └─One: 2-1046                       [1]                       --
│    └─OutputScale: 2-1047               --                        --
│    └─Empty: 2-1048                     [64, 64, 3, 3]            --
│    └─Empty: 2-1049                     [64, 64, 3, 3]            --
│    └─Empty: 2-1050                     [64]                      --
│    └─Empty: 2-1051                     [64]                      --
│    └─BatchNorm2d: 2-1052               [16, 64, 8, 8]            --
│    └─Scaler: 2-1053                    [16, 64, 8, 8]            --
│    └─ReLU: 2-1054                      [16, 64, 8, 8]            --
│    └─Empty: 2-1055                     [16, 64, 8, 8]            --
│    └─Clamp: 2-1056                     [16, 64, 8, 8]            --
├─FusedMaxPoolConv2dBNReLU: 1-80         [16, 64, 4, 4]            (recursive)
│    └─MaxPool2d: 2-1057                 [16, 64, 4, 4]            --
│    └─Empty: 2-1058                     [16, 64, 4, 4]            --
│    └─Empty: 2-1059                     [16, 64, 4, 4]            --
│    └─OutputShiftSqueeze: 2-1060        --                        --
│    └─One: 2-1061                       [1]                       --
│    └─OutputScale: 2-1062               --                        --
│    └─Empty: 2-1063                     [64, 64, 3, 3]            --
│    └─Empty: 2-1064                     [64, 64, 3, 3]            --
│    └─Empty: 2-1065                     [64]                      --
│    └─Empty: 2-1066                     [64]                      --
│    └─BatchNorm2d: 2-1067               [16, 64, 4, 4]            --
│    └─Scaler: 2-1068                    [16, 64, 4, 4]            --
│    └─ReLU: 2-1069                      [16, 64, 4, 4]            --
│    └─Empty: 2-1070                     [16, 64, 4, 4]            --
│    └─Clamp: 2-1071                     [16, 64, 4, 4]            --
├─FusedConv2dBNReLU: 1-81                [16, 64, 4, 4]            (recursive)
│    └─OutputShiftSqueeze: 2-1072        --                        --
│    └─One: 2-1073                       [1]                       --
│    └─OutputScale: 2-1074               --                        --
│    └─Empty: 2-1075                     [64, 64, 1, 1]            --
│    └─Empty: 2-1076                     [64, 64, 1, 1]            --
│    └─Empty: 2-1077                     [64]                      --
│    └─Empty: 2-1078                     [64]                      --
│    └─BatchNorm2d: 2-1079               [16, 64, 4, 4]            --
│    └─Scaler: 2-1080                    [16, 64, 4, 4]            --
│    └─ReLU: 2-1081                      [16, 64, 4, 4]            --
│    └─Empty: 2-1082                     [16, 64, 4, 4]            --
│    └─Clamp: 2-1083                     [16, 64, 4, 4]            --
├─FusedMaxPoolConv2dBNReLU: 1-82         [16, 64, 4, 4]            (recursive)
│    └─MaxPool2d: 2-1084                 [16, 64, 4, 4]            --
│    └─Empty: 2-1085                     [16, 64, 4, 4]            --
│    └─Empty: 2-1086                     [16, 64, 4, 4]            --
│    └─OutputShiftSqueeze: 2-1087        --                        --
│    └─One: 2-1088                       [1]                       --
│    └─OutputScale: 2-1089               --                        --
│    └─Empty: 2-1090                     [64, 64, 3, 3]            --
│    └─Empty: 2-1091                     [64, 64, 3, 3]            --
│    └─Empty: 2-1092                     [64]                      --
│    └─Empty: 2-1093                     [64]                      --
│    └─BatchNorm2d: 2-1094               [16, 64, 4, 4]            --
│    └─Scaler: 2-1095                    [16, 64, 4, 4]            --
│    └─ReLU: 2-1096                      [16, 64, 4, 4]            --
│    └─Empty: 2-1097                     [16, 64, 4, 4]            --
│    └─Clamp: 2-1098                     [16, 64, 4, 4]            --
├─FusedMaxPoolConv2dBNReLU: 1-83         [16, 64, 2, 2]            (recursive)
│    └─MaxPool2d: 2-1099                 [16, 64, 2, 2]            --
│    └─Empty: 2-1100                     [16, 64, 2, 2]            --
│    └─Empty: 2-1101                     [16, 64, 2, 2]            --
│    └─OutputShiftSqueeze: 2-1102        --                        --
│    └─One: 2-1103                       [1]                       --
│    └─OutputScale: 2-1104               --                        --
│    └─Empty: 2-1105                     [64, 64, 1, 1]            --
│    └─Empty: 2-1106                     [64, 64, 1, 1]            --
│    └─Empty: 2-1107                     [64]                      --
│    └─Empty: 2-1108                     [64]                      --
│    └─BatchNorm2d: 2-1109               [16, 64, 2, 2]            --
│    └─Scaler: 2-1110                    [16, 64, 2, 2]            --
│    └─ReLU: 2-1111                      [16, 64, 2, 2]            --
│    └─Empty: 2-1112                     [16, 64, 2, 2]            --
│    └─Clamp: 2-1113                     [16, 64, 2, 2]            --
├─FusedConv2dBNReLU: 1-84                [16, 64, 2, 2]            (recursive)
│    └─OutputShiftSqueeze: 2-1114        --                        --
│    └─One: 2-1115                       [1]                       --
│    └─OutputScale: 2-1116               --                        --
│    └─Empty: 2-1117                     [64, 64, 1, 1]            --
│    └─Empty: 2-1118                     [64, 64, 1, 1]            --
│    └─Empty: 2-1119                     [64]                      --
│    └─Empty: 2-1120                     [64]                      --
│    └─BatchNorm2d: 2-1121               [16, 64, 2, 2]            --
│    └─Scaler: 2-1122                    [16, 64, 2, 2]            --
│    └─ReLU: 2-1123                      [16, 64, 2, 2]            --
│    └─Empty: 2-1124                     [16, 64, 2, 2]            --
│    └─Clamp: 2-1125                     [16, 64, 2, 2]            --
├─FusedMaxPoolConv2dBNReLU: 1-85         [16, 64, 2, 2]            (recursive)
│    └─MaxPool2d: 2-1126                 [16, 64, 2, 2]            --
│    └─Empty: 2-1127                     [16, 64, 2, 2]            --
│    └─Empty: 2-1128                     [16, 64, 2, 2]            --
│    └─OutputShiftSqueeze: 2-1129        --                        --
│    └─One: 2-1130                       [1]                       --
│    └─OutputScale: 2-1131               --                        --
│    └─Empty: 2-1132                     [64, 64, 3, 3]            --
│    └─Empty: 2-1133                     [64, 64, 3, 3]            --
│    └─Empty: 2-1134                     [64]                      --
│    └─Empty: 2-1135                     [64]                      --
│    └─BatchNorm2d: 2-1136               [16, 64, 2, 2]            --
│    └─Scaler: 2-1137                    [16, 64, 2, 2]            --
│    └─ReLU: 2-1138                      [16, 64, 2, 2]            --
│    └─Empty: 2-1139                     [16, 64, 2, 2]            --
│    └─Clamp: 2-1140                     [16, 64, 2, 2]            --
├─FusedConv2dBNReLU: 1-86                [16, 64, 64, 64]          (recursive)
│    └─OutputShiftSqueeze: 2-1141        --                        --
│    └─One: 2-1142                       [1]                       --
│    └─OutputScale: 2-1143               --                        --
│    └─Empty: 2-1144                     [64, 48, 1, 1]            --
│    └─Empty: 2-1145                     [64, 48, 1, 1]            --
│    └─Empty: 2-1146                     [64]                      --
│    └─Empty: 2-1147                     [64]                      --
│    └─BatchNorm2d: 2-1148               [16, 64, 64, 64]          --
│    └─Scaler: 2-1149                    [16, 64, 64, 64]          --
│    └─ReLU: 2-1150                      [16, 64, 64, 64]          --
│    └─Empty: 2-1151                     [16, 64, 64, 64]          --
│    └─Clamp: 2-1152                     [16, 64, 64, 64]          --
├─FusedConv2dBNReLU: 1-87                [16, 64, 64, 64]          (recursive)
│    └─OutputShiftSqueeze: 2-1153        --                        --
│    └─One: 2-1154                       [1]                       --
│    └─OutputScale: 2-1155               --                        --
│    └─Empty: 2-1156                     [64, 64, 3, 3]            --
│    └─Empty: 2-1157                     [64, 64, 3, 3]            --
│    └─Empty: 2-1158                     [64]                      --
│    └─Empty: 2-1159                     [64]                      --
│    └─BatchNorm2d: 2-1160               [16, 64, 64, 64]          --
│    └─Scaler: 2-1161                    [16, 64, 64, 64]          --
│    └─ReLU: 2-1162                      [16, 64, 64, 64]          --
│    └─Empty: 2-1163                     [16, 64, 64, 64]          --
│    └─Clamp: 2-1164                     [16, 64, 64, 64]          --
├─FusedConv2dBNReLU: 1-88                [16, 64, 64, 64]          (recursive)
│    └─OutputShiftSqueeze: 2-1165        --                        --
│    └─One: 2-1166                       [1]                       --
│    └─OutputScale: 2-1167               --                        --
│    └─Empty: 2-1168                     [64, 64, 1, 1]            --
│    └─Empty: 2-1169                     [64, 64, 1, 1]            --
│    └─Empty: 2-1170                     [64]                      --
│    └─Empty: 2-1171                     [64]                      --
│    └─BatchNorm2d: 2-1172               [16, 64, 64, 64]          --
│    └─Scaler: 2-1173                    [16, 64, 64, 64]          --
│    └─ReLU: 2-1174                      [16, 64, 64, 64]          --
│    └─Empty: 2-1175                     [16, 64, 64, 64]          --
│    └─Clamp: 2-1176                     [16, 64, 64, 64]          --
├─FusedConv2dBNReLU: 1-89                [16, 64, 64, 64]          (recursive)
│    └─OutputShiftSqueeze: 2-1177        --                        --
│    └─One: 2-1178                       [1]                       --
│    └─OutputScale: 2-1179               --                        --
│    └─Empty: 2-1180                     [64, 64, 3, 3]            --
│    └─Empty: 2-1181                     [64, 64, 3, 3]            --
│    └─Empty: 2-1182                     [64]                      --
│    └─Empty: 2-1183                     [64]                      --
│    └─BatchNorm2d: 2-1184               [16, 64, 64, 64]          --
│    └─Scaler: 2-1185                    [16, 64, 64, 64]          --
│    └─ReLU: 2-1186                      [16, 64, 64, 64]          --
│    └─Empty: 2-1187                     [16, 64, 64, 64]          --
│    └─Clamp: 2-1188                     [16, 64, 64, 64]          --
├─FusedMaxPoolConv2dBNReLU: 1-90         [16, 64, 32, 32]          (recursive)
│    └─MaxPool2d: 2-1189                 [16, 64, 32, 32]          --
│    └─Empty: 2-1190                     [16, 64, 32, 32]          --
│    └─Empty: 2-1191                     [16, 64, 32, 32]          --
│    └─OutputShiftSqueeze: 2-1192        --                        --
│    └─One: 2-1193                       [1]                       --
│    └─OutputScale: 2-1194               --                        --
│    └─Empty: 2-1195                     [64, 64, 3, 3]            --
│    └─Empty: 2-1196                     [64, 64, 3, 3]            --
│    └─Empty: 2-1197                     [64]                      --
│    └─Empty: 2-1198                     [64]                      --
│    └─BatchNorm2d: 2-1199               [16, 64, 32, 32]          --
│    └─Scaler: 2-1200                    [16, 64, 32, 32]          --
│    └─ReLU: 2-1201                      [16, 64, 32, 32]          --
│    └─Empty: 2-1202                     [16, 64, 32, 32]          --
│    └─Clamp: 2-1203                     [16, 64, 32, 32]          --
├─FusedConv2dBNReLU: 1-91                [16, 64, 32, 32]          (recursive)
│    └─OutputShiftSqueeze: 2-1204        --                        --
│    └─One: 2-1205                       [1]                       --
│    └─OutputScale: 2-1206               --                        --
│    └─Empty: 2-1207                     [64, 64, 3, 3]            --
│    └─Empty: 2-1208                     [64, 64, 3, 3]            --
│    └─Empty: 2-1209                     [64]                      --
│    └─Empty: 2-1210                     [64]                      --
│    └─BatchNorm2d: 2-1211               [16, 64, 32, 32]          --
│    └─Scaler: 2-1212                    [16, 64, 32, 32]          --
│    └─ReLU: 2-1213                      [16, 64, 32, 32]          --
│    └─Empty: 2-1214                     [16, 64, 32, 32]          --
│    └─Clamp: 2-1215                     [16, 64, 32, 32]          --
├─FusedMaxPoolConv2dBNReLU: 1-92         [16, 64, 16, 16]          (recursive)
│    └─MaxPool2d: 2-1216                 [16, 64, 16, 16]          --
│    └─Empty: 2-1217                     [16, 64, 16, 16]          --
│    └─Empty: 2-1218                     [16, 64, 16, 16]          --
│    └─OutputShiftSqueeze: 2-1219        --                        --
│    └─One: 2-1220                       [1]                       --
│    └─OutputScale: 2-1221               --                        --
│    └─Empty: 2-1222                     [64, 64, 3, 3]            --
│    └─Empty: 2-1223                     [64, 64, 3, 3]            --
│    └─Empty: 2-1224                     [64]                      --
│    └─Empty: 2-1225                     [64]                      --
│    └─BatchNorm2d: 2-1226               [16, 64, 16, 16]          --
│    └─Scaler: 2-1227                    [16, 64, 16, 16]          --
│    └─ReLU: 2-1228                      [16, 64, 16, 16]          --
│    └─Empty: 2-1229                     [16, 64, 16, 16]          --
│    └─Clamp: 2-1230                     [16, 64, 16, 16]          --
├─FusedConv2dBNReLU: 1-93                [16, 64, 16, 16]          (recursive)
│    └─OutputShiftSqueeze: 2-1231        --                        --
│    └─One: 2-1232                       [1]                       --
│    └─OutputScale: 2-1233               --                        --
│    └─Empty: 2-1234                     [64, 64, 3, 3]            --
│    └─Empty: 2-1235                     [64, 64, 3, 3]            --
│    └─Empty: 2-1236                     [64]                      --
│    └─Empty: 2-1237                     [64]                      --
│    └─BatchNorm2d: 2-1238               [16, 64, 16, 16]          --
│    └─Scaler: 2-1239                    [16, 64, 16, 16]          --
│    └─ReLU: 2-1240                      [16, 64, 16, 16]          --
│    └─Empty: 2-1241                     [16, 64, 16, 16]          --
│    └─Clamp: 2-1242                     [16, 64, 16, 16]          --
├─FusedMaxPoolConv2dBNReLU: 1-94         [16, 64, 8, 8]            (recursive)
│    └─MaxPool2d: 2-1243                 [16, 64, 8, 8]            --
│    └─Empty: 2-1244                     [16, 64, 8, 8]            --
│    └─Empty: 2-1245                     [16, 64, 8, 8]            --
│    └─OutputShiftSqueeze: 2-1246        --                        --
│    └─One: 2-1247                       [1]                       --
│    └─OutputScale: 2-1248               --                        --
│    └─Empty: 2-1249                     [64, 64, 3, 3]            --
│    └─Empty: 2-1250                     [64, 64, 3, 3]            --
│    └─Empty: 2-1251                     [64]                      --
│    └─Empty: 2-1252                     [64]                      --
│    └─BatchNorm2d: 2-1253               [16, 64, 8, 8]            --
│    └─Scaler: 2-1254                    [16, 64, 8, 8]            --
│    └─ReLU: 2-1255                      [16, 64, 8, 8]            --
│    └─Empty: 2-1256                     [16, 64, 8, 8]            --
│    └─Clamp: 2-1257                     [16, 64, 8, 8]            --
├─FusedConv2dBNReLU: 1-95                [16, 64, 8, 8]            (recursive)
│    └─OutputShiftSqueeze: 2-1258        --                        --
│    └─One: 2-1259                       [1]                       --
│    └─OutputScale: 2-1260               --                        --
│    └─Empty: 2-1261                     [64, 64, 1, 1]            --
│    └─Empty: 2-1262                     [64, 64, 1, 1]            --
│    └─Empty: 2-1263                     [64]                      --
│    └─Empty: 2-1264                     [64]                      --
│    └─BatchNorm2d: 2-1265               [16, 64, 8, 8]            --
│    └─Scaler: 2-1266                    [16, 64, 8, 8]            --
│    └─ReLU: 2-1267                      [16, 64, 8, 8]            --
│    └─Empty: 2-1268                     [16, 64, 8, 8]            --
│    └─Clamp: 2-1269                     [16, 64, 8, 8]            --
├─FusedMaxPoolConv2dBNReLU: 1-96         [16, 64, 8, 8]            (recursive)
│    └─MaxPool2d: 2-1270                 [16, 64, 8, 8]            --
│    └─Empty: 2-1271                     [16, 64, 8, 8]            --
│    └─Empty: 2-1272                     [16, 64, 8, 8]            --
│    └─OutputShiftSqueeze: 2-1273        --                        --
│    └─One: 2-1274                       [1]                       --
│    └─OutputScale: 2-1275               --                        --
│    └─Empty: 2-1276                     [64, 64, 3, 3]            --
│    └─Empty: 2-1277                     [64, 64, 3, 3]            --
│    └─Empty: 2-1278                     [64]                      --
│    └─Empty: 2-1279                     [64]                      --
│    └─BatchNorm2d: 2-1280               [16, 64, 8, 8]            --
│    └─Scaler: 2-1281                    [16, 64, 8, 8]            --
│    └─ReLU: 2-1282                      [16, 64, 8, 8]            --
│    └─Empty: 2-1283                     [16, 64, 8, 8]            --
│    └─Clamp: 2-1284                     [16, 64, 8, 8]            --
├─FusedMaxPoolConv2dBNReLU: 1-97         [16, 64, 4, 4]            (recursive)
│    └─MaxPool2d: 2-1285                 [16, 64, 4, 4]            --
│    └─Empty: 2-1286                     [16, 64, 4, 4]            --
│    └─Empty: 2-1287                     [16, 64, 4, 4]            --
│    └─OutputShiftSqueeze: 2-1288        --                        --
│    └─One: 2-1289                       [1]                       --
│    └─OutputScale: 2-1290               --                        --
│    └─Empty: 2-1291                     [64, 64, 3, 3]            --
│    └─Empty: 2-1292                     [64, 64, 3, 3]            --
│    └─Empty: 2-1293                     [64]                      --
│    └─Empty: 2-1294                     [64]                      --
│    └─BatchNorm2d: 2-1295               [16, 64, 4, 4]            --
│    └─Scaler: 2-1296                    [16, 64, 4, 4]            --
│    └─ReLU: 2-1297                      [16, 64, 4, 4]            --
│    └─Empty: 2-1298                     [16, 64, 4, 4]            --
│    └─Clamp: 2-1299                     [16, 64, 4, 4]            --
├─FusedConv2dBNReLU: 1-98                [16, 64, 4, 4]            (recursive)
│    └─OutputShiftSqueeze: 2-1300        --                        --
│    └─One: 2-1301                       [1]                       --
│    └─OutputScale: 2-1302               --                        --
│    └─Empty: 2-1303                     [64, 64, 1, 1]            --
│    └─Empty: 2-1304                     [64, 64, 1, 1]            --
│    └─Empty: 2-1305                     [64]                      --
│    └─Empty: 2-1306                     [64]                      --
│    └─BatchNorm2d: 2-1307               [16, 64, 4, 4]            --
│    └─Scaler: 2-1308                    [16, 64, 4, 4]            --
│    └─ReLU: 2-1309                      [16, 64, 4, 4]            --
│    └─Empty: 2-1310                     [16, 64, 4, 4]            --
│    └─Clamp: 2-1311                     [16, 64, 4, 4]            --
├─FusedMaxPoolConv2dBNReLU: 1-99         [16, 64, 4, 4]            (recursive)
│    └─MaxPool2d: 2-1312                 [16, 64, 4, 4]            --
│    └─Empty: 2-1313                     [16, 64, 4, 4]            --
│    └─Empty: 2-1314                     [16, 64, 4, 4]            --
│    └─OutputShiftSqueeze: 2-1315        --                        --
│    └─One: 2-1316                       [1]                       --
│    └─OutputScale: 2-1317               --                        --
│    └─Empty: 2-1318                     [64, 64, 3, 3]            --
│    └─Empty: 2-1319                     [64, 64, 3, 3]            --
│    └─Empty: 2-1320                     [64]                      --
│    └─Empty: 2-1321                     [64]                      --
│    └─BatchNorm2d: 2-1322               [16, 64, 4, 4]            --
│    └─Scaler: 2-1323                    [16, 64, 4, 4]            --
│    └─ReLU: 2-1324                      [16, 64, 4, 4]            --
│    └─Empty: 2-1325                     [16, 64, 4, 4]            --
│    └─Clamp: 2-1326                     [16, 64, 4, 4]            --
├─FusedMaxPoolConv2dBNReLU: 1-100        [16, 64, 2, 2]            (recursive)
│    └─MaxPool2d: 2-1327                 [16, 64, 2, 2]            --
│    └─Empty: 2-1328                     [16, 64, 2, 2]            --
│    └─Empty: 2-1329                     [16, 64, 2, 2]            --
│    └─OutputShiftSqueeze: 2-1330        --                        --
│    └─One: 2-1331                       [1]                       --
│    └─OutputScale: 2-1332               --                        --
│    └─Empty: 2-1333                     [64, 64, 1, 1]            --
│    └─Empty: 2-1334                     [64, 64, 1, 1]            --
│    └─Empty: 2-1335                     [64]                      --
│    └─Empty: 2-1336                     [64]                      --
│    └─BatchNorm2d: 2-1337               [16, 64, 2, 2]            --
│    └─Scaler: 2-1338                    [16, 64, 2, 2]            --
│    └─ReLU: 2-1339                      [16, 64, 2, 2]            --
│    └─Empty: 2-1340                     [16, 64, 2, 2]            --
│    └─Clamp: 2-1341                     [16, 64, 2, 2]            --
├─FusedConv2dBNReLU: 1-101               [16, 64, 2, 2]            (recursive)
│    └─OutputShiftSqueeze: 2-1342        --                        --
│    └─One: 2-1343                       [1]                       --
│    └─OutputScale: 2-1344               --                        --
│    └─Empty: 2-1345                     [64, 64, 1, 1]            --
│    └─Empty: 2-1346                     [64, 64, 1, 1]            --
│    └─Empty: 2-1347                     [64]                      --
│    └─Empty: 2-1348                     [64]                      --
│    └─BatchNorm2d: 2-1349               [16, 64, 2, 2]            --
│    └─Scaler: 2-1350                    [16, 64, 2, 2]            --
│    └─ReLU: 2-1351                      [16, 64, 2, 2]            --
│    └─Empty: 2-1352                     [16, 64, 2, 2]            --
│    └─Clamp: 2-1353                     [16, 64, 2, 2]            --
├─FusedMaxPoolConv2dBNReLU: 1-102        [16, 64, 2, 2]            (recursive)
│    └─MaxPool2d: 2-1354                 [16, 64, 2, 2]            --
│    └─Empty: 2-1355                     [16, 64, 2, 2]            --
│    └─Empty: 2-1356                     [16, 64, 2, 2]            --
│    └─OutputShiftSqueeze: 2-1357        --                        --
│    └─One: 2-1358                       [1]                       --
│    └─OutputScale: 2-1359               --                        --
│    └─Empty: 2-1360                     [64, 64, 3, 3]            --
│    └─Empty: 2-1361                     [64, 64, 3, 3]            --
│    └─Empty: 2-1362                     [64]                      --
│    └─Empty: 2-1363                     [64]                      --
│    └─BatchNorm2d: 2-1364               [16, 64, 2, 2]            --
│    └─Scaler: 2-1365                    [16, 64, 2, 2]            --
│    └─ReLU: 2-1366                      [16, 64, 2, 2]            --
│    └─Empty: 2-1367                     [16, 64, 2, 2]            --
│    └─Clamp: 2-1368                     [16, 64, 2, 2]            --
├─FusedConv2dBNReLU: 1-103               [16, 64, 64, 64]          (recursive)
│    └─OutputShiftSqueeze: 2-1369        --                        --
│    └─One: 2-1370                       [1]                       --
│    └─OutputScale: 2-1371               --                        --
│    └─Empty: 2-1372                     [64, 48, 1, 1]            --
│    └─Empty: 2-1373                     [64, 48, 1, 1]            --
│    └─Empty: 2-1374                     [64]                      --
│    └─Empty: 2-1375                     [64]                      --
│    └─BatchNorm2d: 2-1376               [16, 64, 64, 64]          --
│    └─Scaler: 2-1377                    [16, 64, 64, 64]          --
│    └─ReLU: 2-1378                      [16, 64, 64, 64]          --
│    └─Empty: 2-1379                     [16, 64, 64, 64]          --
│    └─Clamp: 2-1380                     [16, 64, 64, 64]          --
├─FusedConv2dBNReLU: 1-104               [16, 64, 64, 64]          (recursive)
│    └─OutputShiftSqueeze: 2-1381        --                        --
│    └─One: 2-1382                       [1]                       --
│    └─OutputScale: 2-1383               --                        --
│    └─Empty: 2-1384                     [64, 64, 3, 3]            --
│    └─Empty: 2-1385                     [64, 64, 3, 3]            --
│    └─Empty: 2-1386                     [64]                      --
│    └─Empty: 2-1387                     [64]                      --
│    └─BatchNorm2d: 2-1388               [16, 64, 64, 64]          --
│    └─Scaler: 2-1389                    [16, 64, 64, 64]          --
│    └─ReLU: 2-1390                      [16, 64, 64, 64]          --
│    └─Empty: 2-1391                     [16, 64, 64, 64]          --
│    └─Clamp: 2-1392                     [16, 64, 64, 64]          --
├─FusedConv2dBNReLU: 1-105               [16, 64, 64, 64]          (recursive)
│    └─OutputShiftSqueeze: 2-1393        --                        --
│    └─One: 2-1394                       [1]                       --
│    └─OutputScale: 2-1395               --                        --
│    └─Empty: 2-1396                     [64, 64, 1, 1]            --
│    └─Empty: 2-1397                     [64, 64, 1, 1]            --
│    └─Empty: 2-1398                     [64]                      --
│    └─Empty: 2-1399                     [64]                      --
│    └─BatchNorm2d: 2-1400               [16, 64, 64, 64]          --
│    └─Scaler: 2-1401                    [16, 64, 64, 64]          --
│    └─ReLU: 2-1402                      [16, 64, 64, 64]          --
│    └─Empty: 2-1403                     [16, 64, 64, 64]          --
│    └─Clamp: 2-1404                     [16, 64, 64, 64]          --
├─FusedConv2dBNReLU: 1-106               [16, 64, 64, 64]          (recursive)
│    └─OutputShiftSqueeze: 2-1405        --                        --
│    └─One: 2-1406                       [1]                       --
│    └─OutputScale: 2-1407               --                        --
│    └─Empty: 2-1408                     [64, 64, 3, 3]            --
│    └─Empty: 2-1409                     [64, 64, 3, 3]            --
│    └─Empty: 2-1410                     [64]                      --
│    └─Empty: 2-1411                     [64]                      --
│    └─BatchNorm2d: 2-1412               [16, 64, 64, 64]          --
│    └─Scaler: 2-1413                    [16, 64, 64, 64]          --
│    └─ReLU: 2-1414                      [16, 64, 64, 64]          --
│    └─Empty: 2-1415                     [16, 64, 64, 64]          --
│    └─Clamp: 2-1416                     [16, 64, 64, 64]          --
├─FusedMaxPoolConv2dBNReLU: 1-107        [16, 64, 32, 32]          (recursive)
│    └─MaxPool2d: 2-1417                 [16, 64, 32, 32]          --
│    └─Empty: 2-1418                     [16, 64, 32, 32]          --
│    └─Empty: 2-1419                     [16, 64, 32, 32]          --
│    └─OutputShiftSqueeze: 2-1420        --                        --
│    └─One: 2-1421                       [1]                       --
│    └─OutputScale: 2-1422               --                        --
│    └─Empty: 2-1423                     [64, 64, 3, 3]            --
│    └─Empty: 2-1424                     [64, 64, 3, 3]            --
│    └─Empty: 2-1425                     [64]                      --
│    └─Empty: 2-1426                     [64]                      --
│    └─BatchNorm2d: 2-1427               [16, 64, 32, 32]          --
│    └─Scaler: 2-1428                    [16, 64, 32, 32]          --
│    └─ReLU: 2-1429                      [16, 64, 32, 32]          --
│    └─Empty: 2-1430                     [16, 64, 32, 32]          --
│    └─Clamp: 2-1431                     [16, 64, 32, 32]          --
├─FusedConv2dBNReLU: 1-108               [16, 64, 32, 32]          (recursive)
│    └─OutputShiftSqueeze: 2-1432        --                        --
│    └─One: 2-1433                       [1]                       --
│    └─OutputScale: 2-1434               --                        --
│    └─Empty: 2-1435                     [64, 64, 3, 3]            --
│    └─Empty: 2-1436                     [64, 64, 3, 3]            --
│    └─Empty: 2-1437                     [64]                      --
│    └─Empty: 2-1438                     [64]                      --
│    └─BatchNorm2d: 2-1439               [16, 64, 32, 32]          --
│    └─Scaler: 2-1440                    [16, 64, 32, 32]          --
│    └─ReLU: 2-1441                      [16, 64, 32, 32]          --
│    └─Empty: 2-1442                     [16, 64, 32, 32]          --
│    └─Clamp: 2-1443                     [16, 64, 32, 32]          --
├─FusedMaxPoolConv2dBNReLU: 1-109        [16, 64, 16, 16]          (recursive)
│    └─MaxPool2d: 2-1444                 [16, 64, 16, 16]          --
│    └─Empty: 2-1445                     [16, 64, 16, 16]          --
│    └─Empty: 2-1446                     [16, 64, 16, 16]          --
│    └─OutputShiftSqueeze: 2-1447        --                        --
│    └─One: 2-1448                       [1]                       --
│    └─OutputScale: 2-1449               --                        --
│    └─Empty: 2-1450                     [64, 64, 3, 3]            --
│    └─Empty: 2-1451                     [64, 64, 3, 3]            --
│    └─Empty: 2-1452                     [64]                      --
│    └─Empty: 2-1453                     [64]                      --
│    └─BatchNorm2d: 2-1454               [16, 64, 16, 16]          --
│    └─Scaler: 2-1455                    [16, 64, 16, 16]          --
│    └─ReLU: 2-1456                      [16, 64, 16, 16]          --
│    └─Empty: 2-1457                     [16, 64, 16, 16]          --
│    └─Clamp: 2-1458                     [16, 64, 16, 16]          --
├─FusedConv2dBNReLU: 1-110               [16, 64, 16, 16]          (recursive)
│    └─OutputShiftSqueeze: 2-1459        --                        --
│    └─One: 2-1460                       [1]                       --
│    └─OutputScale: 2-1461               --                        --
│    └─Empty: 2-1462                     [64, 64, 3, 3]            --
│    └─Empty: 2-1463                     [64, 64, 3, 3]            --
│    └─Empty: 2-1464                     [64]                      --
│    └─Empty: 2-1465                     [64]                      --
│    └─BatchNorm2d: 2-1466               [16, 64, 16, 16]          --
│    └─Scaler: 2-1467                    [16, 64, 16, 16]          --
│    └─ReLU: 2-1468                      [16, 64, 16, 16]          --
│    └─Empty: 2-1469                     [16, 64, 16, 16]          --
│    └─Clamp: 2-1470                     [16, 64, 16, 16]          --
├─FusedMaxPoolConv2dBNReLU: 1-111        [16, 64, 8, 8]            (recursive)
│    └─MaxPool2d: 2-1471                 [16, 64, 8, 8]            --
│    └─Empty: 2-1472                     [16, 64, 8, 8]            --
│    └─Empty: 2-1473                     [16, 64, 8, 8]            --
│    └─OutputShiftSqueeze: 2-1474        --                        --
│    └─One: 2-1475                       [1]                       --
│    └─OutputScale: 2-1476               --                        --
│    └─Empty: 2-1477                     [64, 64, 3, 3]            --
│    └─Empty: 2-1478                     [64, 64, 3, 3]            --
│    └─Empty: 2-1479                     [64]                      --
│    └─Empty: 2-1480                     [64]                      --
│    └─BatchNorm2d: 2-1481               [16, 64, 8, 8]            --
│    └─Scaler: 2-1482                    [16, 64, 8, 8]            --
│    └─ReLU: 2-1483                      [16, 64, 8, 8]            --
│    └─Empty: 2-1484                     [16, 64, 8, 8]            --
│    └─Clamp: 2-1485                     [16, 64, 8, 8]            --
├─FusedConv2dBNReLU: 1-112               [16, 64, 8, 8]            (recursive)
│    └─OutputShiftSqueeze: 2-1486        --                        --
│    └─One: 2-1487                       [1]                       --
│    └─OutputScale: 2-1488               --                        --
│    └─Empty: 2-1489                     [64, 64, 1, 1]            --
│    └─Empty: 2-1490                     [64, 64, 1, 1]            --
│    └─Empty: 2-1491                     [64]                      --
│    └─Empty: 2-1492                     [64]                      --
│    └─BatchNorm2d: 2-1493               [16, 64, 8, 8]            --
│    └─Scaler: 2-1494                    [16, 64, 8, 8]            --
│    └─ReLU: 2-1495                      [16, 64, 8, 8]            --
│    └─Empty: 2-1496                     [16, 64, 8, 8]            --
│    └─Clamp: 2-1497                     [16, 64, 8, 8]            --
├─FusedMaxPoolConv2dBNReLU: 1-113        [16, 64, 8, 8]            (recursive)
│    └─MaxPool2d: 2-1498                 [16, 64, 8, 8]            --
│    └─Empty: 2-1499                     [16, 64, 8, 8]            --
│    └─Empty: 2-1500                     [16, 64, 8, 8]            --
│    └─OutputShiftSqueeze: 2-1501        --                        --
│    └─One: 2-1502                       [1]                       --
│    └─OutputScale: 2-1503               --                        --
│    └─Empty: 2-1504                     [64, 64, 3, 3]            --
│    └─Empty: 2-1505                     [64, 64, 3, 3]            --
│    └─Empty: 2-1506                     [64]                      --
│    └─Empty: 2-1507                     [64]                      --
│    └─BatchNorm2d: 2-1508               [16, 64, 8, 8]            --
│    └─Scaler: 2-1509                    [16, 64, 8, 8]            --
│    └─ReLU: 2-1510                      [16, 64, 8, 8]            --
│    └─Empty: 2-1511                     [16, 64, 8, 8]            --
│    └─Clamp: 2-1512                     [16, 64, 8, 8]            --
├─FusedMaxPoolConv2dBNReLU: 1-114        [16, 64, 4, 4]            (recursive)
│    └─MaxPool2d: 2-1513                 [16, 64, 4, 4]            --
│    └─Empty: 2-1514                     [16, 64, 4, 4]            --
│    └─Empty: 2-1515                     [16, 64, 4, 4]            --
│    └─OutputShiftSqueeze: 2-1516        --                        --
│    └─One: 2-1517                       [1]                       --
│    └─OutputScale: 2-1518               --                        --
│    └─Empty: 2-1519                     [64, 64, 3, 3]            --
│    └─Empty: 2-1520                     [64, 64, 3, 3]            --
│    └─Empty: 2-1521                     [64]                      --
│    └─Empty: 2-1522                     [64]                      --
│    └─BatchNorm2d: 2-1523               [16, 64, 4, 4]            --
│    └─Scaler: 2-1524                    [16, 64, 4, 4]            --
│    └─ReLU: 2-1525                      [16, 64, 4, 4]            --
│    └─Empty: 2-1526                     [16, 64, 4, 4]            --
│    └─Clamp: 2-1527                     [16, 64, 4, 4]            --
├─FusedConv2dBNReLU: 1-115               [16, 64, 4, 4]            (recursive)
│    └─OutputShiftSqueeze: 2-1528        --                        --
│    └─One: 2-1529                       [1]                       --
│    └─OutputScale: 2-1530               --                        --
│    └─Empty: 2-1531                     [64, 64, 1, 1]            --
│    └─Empty: 2-1532                     [64, 64, 1, 1]            --
│    └─Empty: 2-1533                     [64]                      --
│    └─Empty: 2-1534                     [64]                      --
│    └─BatchNorm2d: 2-1535               [16, 64, 4, 4]            --
│    └─Scaler: 2-1536                    [16, 64, 4, 4]            --
│    └─ReLU: 2-1537                      [16, 64, 4, 4]            --
│    └─Empty: 2-1538                     [16, 64, 4, 4]            --
│    └─Clamp: 2-1539                     [16, 64, 4, 4]            --
├─FusedMaxPoolConv2dBNReLU: 1-116        [16, 64, 4, 4]            (recursive)
│    └─MaxPool2d: 2-1540                 [16, 64, 4, 4]            --
│    └─Empty: 2-1541                     [16, 64, 4, 4]            --
│    └─Empty: 2-1542                     [16, 64, 4, 4]            --
│    └─OutputShiftSqueeze: 2-1543        --                        --
│    └─One: 2-1544                       [1]                       --
│    └─OutputScale: 2-1545               --                        --
│    └─Empty: 2-1546                     [64, 64, 3, 3]            --
│    └─Empty: 2-1547                     [64, 64, 3, 3]            --
│    └─Empty: 2-1548                     [64]                      --
│    └─Empty: 2-1549                     [64]                      --
│    └─BatchNorm2d: 2-1550               [16, 64, 4, 4]            --
│    └─Scaler: 2-1551                    [16, 64, 4, 4]            --
│    └─ReLU: 2-1552                      [16, 64, 4, 4]            --
│    └─Empty: 2-1553                     [16, 64, 4, 4]            --
│    └─Clamp: 2-1554                     [16, 64, 4, 4]            --
├─FusedMaxPoolConv2dBNReLU: 1-117        [16, 64, 2, 2]            (recursive)
│    └─MaxPool2d: 2-1555                 [16, 64, 2, 2]            --
│    └─Empty: 2-1556                     [16, 64, 2, 2]            --
│    └─Empty: 2-1557                     [16, 64, 2, 2]            --
│    └─OutputShiftSqueeze: 2-1558        --                        --
│    └─One: 2-1559                       [1]                       --
│    └─OutputScale: 2-1560               --                        --
│    └─Empty: 2-1561                     [64, 64, 1, 1]            --
│    └─Empty: 2-1562                     [64, 64, 1, 1]            --
│    └─Empty: 2-1563                     [64]                      --
│    └─Empty: 2-1564                     [64]                      --
│    └─BatchNorm2d: 2-1565               [16, 64, 2, 2]            --
│    └─Scaler: 2-1566                    [16, 64, 2, 2]            --
│    └─ReLU: 2-1567                      [16, 64, 2, 2]            --
│    └─Empty: 2-1568                     [16, 64, 2, 2]            --
│    └─Clamp: 2-1569                     [16, 64, 2, 2]            --
├─FusedConv2dBNReLU: 1-118               [16, 64, 2, 2]            (recursive)
│    └─OutputShiftSqueeze: 2-1570        --                        --
│    └─One: 2-1571                       [1]                       --
│    └─OutputScale: 2-1572               --                        --
│    └─Empty: 2-1573                     [64, 64, 1, 1]            --
│    └─Empty: 2-1574                     [64, 64, 1, 1]            --
│    └─Empty: 2-1575                     [64]                      --
│    └─Empty: 2-1576                     [64]                      --
│    └─BatchNorm2d: 2-1577               [16, 64, 2, 2]            --
│    └─Scaler: 2-1578                    [16, 64, 2, 2]            --
│    └─ReLU: 2-1579                      [16, 64, 2, 2]            --
│    └─Empty: 2-1580                     [16, 64, 2, 2]            --
│    └─Clamp: 2-1581                     [16, 64, 2, 2]            --
├─FusedMaxPoolConv2dBNReLU: 1-119        [16, 64, 2, 2]            (recursive)
│    └─MaxPool2d: 2-1582                 [16, 64, 2, 2]            --
│    └─Empty: 2-1583                     [16, 64, 2, 2]            --
│    └─Empty: 2-1584                     [16, 64, 2, 2]            --
│    └─OutputShiftSqueeze: 2-1585        --                        --
│    └─One: 2-1586                       [1]                       --
│    └─OutputScale: 2-1587               --                        --
│    └─Empty: 2-1588                     [64, 64, 3, 3]            --
│    └─Empty: 2-1589                     [64, 64, 3, 3]            --
│    └─Empty: 2-1590                     [64]                      --
│    └─Empty: 2-1591                     [64]                      --
│    └─BatchNorm2d: 2-1592               [16, 64, 2, 2]            --
│    └─Scaler: 2-1593                    [16, 64, 2, 2]            --
│    └─ReLU: 2-1594                      [16, 64, 2, 2]            --
│    └─Empty: 2-1595                     [16, 64, 2, 2]            --
│    └─Clamp: 2-1596                     [16, 64, 2, 2]            --
├─FusedConv2dBNReLU: 1-120               [16, 64, 64, 64]          (recursive)
│    └─OutputShiftSqueeze: 2-1597        --                        --
│    └─One: 2-1598                       [1]                       --
│    └─OutputScale: 2-1599               --                        --
│    └─Empty: 2-1600                     [64, 48, 1, 1]            --
│    └─Empty: 2-1601                     [64, 48, 1, 1]            --
│    └─Empty: 2-1602                     [64]                      --
│    └─Empty: 2-1603                     [64]                      --
│    └─BatchNorm2d: 2-1604               [16, 64, 64, 64]          --
│    └─Scaler: 2-1605                    [16, 64, 64, 64]          --
│    └─ReLU: 2-1606                      [16, 64, 64, 64]          --
│    └─Empty: 2-1607                     [16, 64, 64, 64]          --
│    └─Clamp: 2-1608                     [16, 64, 64, 64]          --
├─FusedConv2dBNReLU: 1-121               [16, 64, 64, 64]          (recursive)
│    └─OutputShiftSqueeze: 2-1609        --                        --
│    └─One: 2-1610                       [1]                       --
│    └─OutputScale: 2-1611               --                        --
│    └─Empty: 2-1612                     [64, 64, 3, 3]            --
│    └─Empty: 2-1613                     [64, 64, 3, 3]            --
│    └─Empty: 2-1614                     [64]                      --
│    └─Empty: 2-1615                     [64]                      --
│    └─BatchNorm2d: 2-1616               [16, 64, 64, 64]          --
│    └─Scaler: 2-1617                    [16, 64, 64, 64]          --
│    └─ReLU: 2-1618                      [16, 64, 64, 64]          --
│    └─Empty: 2-1619                     [16, 64, 64, 64]          --
│    └─Clamp: 2-1620                     [16, 64, 64, 64]          --
├─FusedConv2dBNReLU: 1-122               [16, 64, 64, 64]          (recursive)
│    └─OutputShiftSqueeze: 2-1621        --                        --
│    └─One: 2-1622                       [1]                       --
│    └─OutputScale: 2-1623               --                        --
│    └─Empty: 2-1624                     [64, 64, 1, 1]            --
│    └─Empty: 2-1625                     [64, 64, 1, 1]            --
│    └─Empty: 2-1626                     [64]                      --
│    └─Empty: 2-1627                     [64]                      --
│    └─BatchNorm2d: 2-1628               [16, 64, 64, 64]          --
│    └─Scaler: 2-1629                    [16, 64, 64, 64]          --
│    └─ReLU: 2-1630                      [16, 64, 64, 64]          --
│    └─Empty: 2-1631                     [16, 64, 64, 64]          --
│    └─Clamp: 2-1632                     [16, 64, 64, 64]          --
├─FusedConv2dBNReLU: 1-123               [16, 64, 64, 64]          (recursive)
│    └─OutputShiftSqueeze: 2-1633        --                        --
│    └─One: 2-1634                       [1]                       --
│    └─OutputScale: 2-1635               --                        --
│    └─Empty: 2-1636                     [64, 64, 3, 3]            --
│    └─Empty: 2-1637                     [64, 64, 3, 3]            --
│    └─Empty: 2-1638                     [64]                      --
│    └─Empty: 2-1639                     [64]                      --
│    └─BatchNorm2d: 2-1640               [16, 64, 64, 64]          --
│    └─Scaler: 2-1641                    [16, 64, 64, 64]          --
│    └─ReLU: 2-1642                      [16, 64, 64, 64]          --
│    └─Empty: 2-1643                     [16, 64, 64, 64]          --
│    └─Clamp: 2-1644                     [16, 64, 64, 64]          --
├─FusedMaxPoolConv2dBNReLU: 1-124        [16, 64, 32, 32]          (recursive)
│    └─MaxPool2d: 2-1645                 [16, 64, 32, 32]          --
│    └─Empty: 2-1646                     [16, 64, 32, 32]          --
│    └─Empty: 2-1647                     [16, 64, 32, 32]          --
│    └─OutputShiftSqueeze: 2-1648        --                        --
│    └─One: 2-1649                       [1]                       --
│    └─OutputScale: 2-1650               --                        --
│    └─Empty: 2-1651                     [64, 64, 3, 3]            --
│    └─Empty: 2-1652                     [64, 64, 3, 3]            --
│    └─Empty: 2-1653                     [64]                      --
│    └─Empty: 2-1654                     [64]                      --
│    └─BatchNorm2d: 2-1655               [16, 64, 32, 32]          --
│    └─Scaler: 2-1656                    [16, 64, 32, 32]          --
│    └─ReLU: 2-1657                      [16, 64, 32, 32]          --
│    └─Empty: 2-1658                     [16, 64, 32, 32]          --
│    └─Clamp: 2-1659                     [16, 64, 32, 32]          --
├─FusedConv2dBNReLU: 1-125               [16, 64, 32, 32]          (recursive)
│    └─OutputShiftSqueeze: 2-1660        --                        --
│    └─One: 2-1661                       [1]                       --
│    └─OutputScale: 2-1662               --                        --
│    └─Empty: 2-1663                     [64, 64, 3, 3]            --
│    └─Empty: 2-1664                     [64, 64, 3, 3]            --
│    └─Empty: 2-1665                     [64]                      --
│    └─Empty: 2-1666                     [64]                      --
│    └─BatchNorm2d: 2-1667               [16, 64, 32, 32]          --
│    └─Scaler: 2-1668                    [16, 64, 32, 32]          --
│    └─ReLU: 2-1669                      [16, 64, 32, 32]          --
│    └─Empty: 2-1670                     [16, 64, 32, 32]          --
│    └─Clamp: 2-1671                     [16, 64, 32, 32]          --
├─FusedMaxPoolConv2dBNReLU: 1-126        [16, 64, 16, 16]          (recursive)
│    └─MaxPool2d: 2-1672                 [16, 64, 16, 16]          --
│    └─Empty: 2-1673                     [16, 64, 16, 16]          --
│    └─Empty: 2-1674                     [16, 64, 16, 16]          --
│    └─OutputShiftSqueeze: 2-1675        --                        --
│    └─One: 2-1676                       [1]                       --
│    └─OutputScale: 2-1677               --                        --
│    └─Empty: 2-1678                     [64, 64, 3, 3]            --
│    └─Empty: 2-1679                     [64, 64, 3, 3]            --
│    └─Empty: 2-1680                     [64]                      --
│    └─Empty: 2-1681                     [64]                      --
│    └─BatchNorm2d: 2-1682               [16, 64, 16, 16]          --
│    └─Scaler: 2-1683                    [16, 64, 16, 16]          --
│    └─ReLU: 2-1684                      [16, 64, 16, 16]          --
│    └─Empty: 2-1685                     [16, 64, 16, 16]          --
│    └─Clamp: 2-1686                     [16, 64, 16, 16]          --
├─FusedConv2dBNReLU: 1-127               [16, 64, 16, 16]          (recursive)
│    └─OutputShiftSqueeze: 2-1687        --                        --
│    └─One: 2-1688                       [1]                       --
│    └─OutputScale: 2-1689               --                        --
│    └─Empty: 2-1690                     [64, 64, 3, 3]            --
│    └─Empty: 2-1691                     [64, 64, 3, 3]            --
│    └─Empty: 2-1692                     [64]                      --
│    └─Empty: 2-1693                     [64]                      --
│    └─BatchNorm2d: 2-1694               [16, 64, 16, 16]          --
│    └─Scaler: 2-1695                    [16, 64, 16, 16]          --
│    └─ReLU: 2-1696                      [16, 64, 16, 16]          --
│    └─Empty: 2-1697                     [16, 64, 16, 16]          --
│    └─Clamp: 2-1698                     [16, 64, 16, 16]          --
├─FusedMaxPoolConv2dBNReLU: 1-128        [16, 64, 8, 8]            (recursive)
│    └─MaxPool2d: 2-1699                 [16, 64, 8, 8]            --
│    └─Empty: 2-1700                     [16, 64, 8, 8]            --
│    └─Empty: 2-1701                     [16, 64, 8, 8]            --
│    └─OutputShiftSqueeze: 2-1702        --                        --
│    └─One: 2-1703                       [1]                       --
│    └─OutputScale: 2-1704               --                        --
│    └─Empty: 2-1705                     [64, 64, 3, 3]            --
│    └─Empty: 2-1706                     [64, 64, 3, 3]            --
│    └─Empty: 2-1707                     [64]                      --
│    └─Empty: 2-1708                     [64]                      --
│    └─BatchNorm2d: 2-1709               [16, 64, 8, 8]            --
│    └─Scaler: 2-1710                    [16, 64, 8, 8]            --
│    └─ReLU: 2-1711                      [16, 64, 8, 8]            --
│    └─Empty: 2-1712                     [16, 64, 8, 8]            --
│    └─Clamp: 2-1713                     [16, 64, 8, 8]            --
├─FusedConv2dBNReLU: 1-129               [16, 64, 8, 8]            (recursive)
│    └─OutputShiftSqueeze: 2-1714        --                        --
│    └─One: 2-1715                       [1]                       --
│    └─OutputScale: 2-1716               --                        --
│    └─Empty: 2-1717                     [64, 64, 1, 1]            --
│    └─Empty: 2-1718                     [64, 64, 1, 1]            --
│    └─Empty: 2-1719                     [64]                      --
│    └─Empty: 2-1720                     [64]                      --
│    └─BatchNorm2d: 2-1721               [16, 64, 8, 8]            --
│    └─Scaler: 2-1722                    [16, 64, 8, 8]            --
│    └─ReLU: 2-1723                      [16, 64, 8, 8]            --
│    └─Empty: 2-1724                     [16, 64, 8, 8]            --
│    └─Clamp: 2-1725                     [16, 64, 8, 8]            --
├─FusedMaxPoolConv2dBNReLU: 1-130        [16, 64, 8, 8]            (recursive)
│    └─MaxPool2d: 2-1726                 [16, 64, 8, 8]            --
│    └─Empty: 2-1727                     [16, 64, 8, 8]            --
│    └─Empty: 2-1728                     [16, 64, 8, 8]            --
│    └─OutputShiftSqueeze: 2-1729        --                        --
│    └─One: 2-1730                       [1]                       --
│    └─OutputScale: 2-1731               --                        --
│    └─Empty: 2-1732                     [64, 64, 3, 3]            --
│    └─Empty: 2-1733                     [64, 64, 3, 3]            --
│    └─Empty: 2-1734                     [64]                      --
│    └─Empty: 2-1735                     [64]                      --
│    └─BatchNorm2d: 2-1736               [16, 64, 8, 8]            --
│    └─Scaler: 2-1737                    [16, 64, 8, 8]            --
│    └─ReLU: 2-1738                      [16, 64, 8, 8]            --
│    └─Empty: 2-1739                     [16, 64, 8, 8]            --
│    └─Clamp: 2-1740                     [16, 64, 8, 8]            --
├─FusedMaxPoolConv2dBNReLU: 1-131        [16, 64, 4, 4]            (recursive)
│    └─MaxPool2d: 2-1741                 [16, 64, 4, 4]            --
│    └─Empty: 2-1742                     [16, 64, 4, 4]            --
│    └─Empty: 2-1743                     [16, 64, 4, 4]            --
│    └─OutputShiftSqueeze: 2-1744        --                        --
│    └─One: 2-1745                       [1]                       --
│    └─OutputScale: 2-1746               --                        --
│    └─Empty: 2-1747                     [64, 64, 3, 3]            --
│    └─Empty: 2-1748                     [64, 64, 3, 3]            --
│    └─Empty: 2-1749                     [64]                      --
│    └─Empty: 2-1750                     [64]                      --
│    └─BatchNorm2d: 2-1751               [16, 64, 4, 4]            --
│    └─Scaler: 2-1752                    [16, 64, 4, 4]            --
│    └─ReLU: 2-1753                      [16, 64, 4, 4]            --
│    └─Empty: 2-1754                     [16, 64, 4, 4]            --
│    └─Clamp: 2-1755                     [16, 64, 4, 4]            --
├─FusedConv2dBNReLU: 1-132               [16, 64, 4, 4]            (recursive)
│    └─OutputShiftSqueeze: 2-1756        --                        --
│    └─One: 2-1757                       [1]                       --
│    └─OutputScale: 2-1758               --                        --
│    └─Empty: 2-1759                     [64, 64, 1, 1]            --
│    └─Empty: 2-1760                     [64, 64, 1, 1]            --
│    └─Empty: 2-1761                     [64]                      --
│    └─Empty: 2-1762                     [64]                      --
│    └─BatchNorm2d: 2-1763               [16, 64, 4, 4]            --
│    └─Scaler: 2-1764                    [16, 64, 4, 4]            --
│    └─ReLU: 2-1765                      [16, 64, 4, 4]            --
│    └─Empty: 2-1766                     [16, 64, 4, 4]            --
│    └─Clamp: 2-1767                     [16, 64, 4, 4]            --
├─FusedMaxPoolConv2dBNReLU: 1-133        [16, 64, 4, 4]            (recursive)
│    └─MaxPool2d: 2-1768                 [16, 64, 4, 4]            --
│    └─Empty: 2-1769                     [16, 64, 4, 4]            --
│    └─Empty: 2-1770                     [16, 64, 4, 4]            --
│    └─OutputShiftSqueeze: 2-1771        --                        --
│    └─One: 2-1772                       [1]                       --
│    └─OutputScale: 2-1773               --                        --
│    └─Empty: 2-1774                     [64, 64, 3, 3]            --
│    └─Empty: 2-1775                     [64, 64, 3, 3]            --
│    └─Empty: 2-1776                     [64]                      --
│    └─Empty: 2-1777                     [64]                      --
│    └─BatchNorm2d: 2-1778               [16, 64, 4, 4]            --
│    └─Scaler: 2-1779                    [16, 64, 4, 4]            --
│    └─ReLU: 2-1780                      [16, 64, 4, 4]            --
│    └─Empty: 2-1781                     [16, 64, 4, 4]            --
│    └─Clamp: 2-1782                     [16, 64, 4, 4]            --
├─FusedMaxPoolConv2dBNReLU: 1-134        [16, 64, 2, 2]            (recursive)
│    └─MaxPool2d: 2-1783                 [16, 64, 2, 2]            --
│    └─Empty: 2-1784                     [16, 64, 2, 2]            --
│    └─Empty: 2-1785                     [16, 64, 2, 2]            --
│    └─OutputShiftSqueeze: 2-1786        --                        --
│    └─One: 2-1787                       [1]                       --
│    └─OutputScale: 2-1788               --                        --
│    └─Empty: 2-1789                     [64, 64, 1, 1]            --
│    └─Empty: 2-1790                     [64, 64, 1, 1]            --
│    └─Empty: 2-1791                     [64]                      --
│    └─Empty: 2-1792                     [64]                      --
│    └─BatchNorm2d: 2-1793               [16, 64, 2, 2]            --
│    └─Scaler: 2-1794                    [16, 64, 2, 2]            --
│    └─ReLU: 2-1795                      [16, 64, 2, 2]            --
│    └─Empty: 2-1796                     [16, 64, 2, 2]            --
│    └─Clamp: 2-1797                     [16, 64, 2, 2]            --
├─FusedConv2dBNReLU: 1-135               [16, 64, 2, 2]            (recursive)
│    └─OutputShiftSqueeze: 2-1798        --                        --
│    └─One: 2-1799                       [1]                       --
│    └─OutputScale: 2-1800               --                        --
│    └─Empty: 2-1801                     [64, 64, 1, 1]            --
│    └─Empty: 2-1802                     [64, 64, 1, 1]            --
│    └─Empty: 2-1803                     [64]                      --
│    └─Empty: 2-1804                     [64]                      --
│    └─BatchNorm2d: 2-1805               [16, 64, 2, 2]            --
│    └─Scaler: 2-1806                    [16, 64, 2, 2]            --
│    └─ReLU: 2-1807                      [16, 64, 2, 2]            --
│    └─Empty: 2-1808                     [16, 64, 2, 2]            --
│    └─Clamp: 2-1809                     [16, 64, 2, 2]            --
├─FusedMaxPoolConv2dBNReLU: 1-136        [16, 64, 2, 2]            (recursive)
│    └─MaxPool2d: 2-1810                 [16, 64, 2, 2]            --
│    └─Empty: 2-1811                     [16, 64, 2, 2]            --
│    └─Empty: 2-1812                     [16, 64, 2, 2]            --
│    └─OutputShiftSqueeze: 2-1813        --                        --
│    └─One: 2-1814                       [1]                       --
│    └─OutputScale: 2-1815               --                        --
│    └─Empty: 2-1816                     [64, 64, 3, 3]            --
│    └─Empty: 2-1817                     [64, 64, 3, 3]            --
│    └─Empty: 2-1818                     [64]                      --
│    └─Empty: 2-1819                     [64]                      --
│    └─BatchNorm2d: 2-1820               [16, 64, 2, 2]            --
│    └─Scaler: 2-1821                    [16, 64, 2, 2]            --
│    └─ReLU: 2-1822                      [16, 64, 2, 2]            --
│    └─Empty: 2-1823                     [16, 64, 2, 2]            --
│    └─Clamp: 2-1824                     [16, 64, 2, 2]            --
├─FusedConv2dBNReLU: 1-137               [16, 64, 64, 64]          (recursive)
│    └─OutputShiftSqueeze: 2-1825        --                        --
│    └─One: 2-1826                       [1]                       --
│    └─OutputScale: 2-1827               --                        --
│    └─Empty: 2-1828                     [64, 48, 1, 1]            --
│    └─Empty: 2-1829                     [64, 48, 1, 1]            --
│    └─Empty: 2-1830                     [64]                      --
│    └─Empty: 2-1831                     [64]                      --
│    └─BatchNorm2d: 2-1832               [16, 64, 64, 64]          --
│    └─Scaler: 2-1833                    [16, 64, 64, 64]          --
│    └─ReLU: 2-1834                      [16, 64, 64, 64]          --
│    └─Empty: 2-1835                     [16, 64, 64, 64]          --
│    └─Clamp: 2-1836                     [16, 64, 64, 64]          --
├─FusedConv2dBNReLU: 1-138               [16, 64, 64, 64]          (recursive)
│    └─OutputShiftSqueeze: 2-1837        --                        --
│    └─One: 2-1838                       [1]                       --
│    └─OutputScale: 2-1839               --                        --
│    └─Empty: 2-1840                     [64, 64, 3, 3]            --
│    └─Empty: 2-1841                     [64, 64, 3, 3]            --
│    └─Empty: 2-1842                     [64]                      --
│    └─Empty: 2-1843                     [64]                      --
│    └─BatchNorm2d: 2-1844               [16, 64, 64, 64]          --
│    └─Scaler: 2-1845                    [16, 64, 64, 64]          --
│    └─ReLU: 2-1846                      [16, 64, 64, 64]          --
│    └─Empty: 2-1847                     [16, 64, 64, 64]          --
│    └─Clamp: 2-1848                     [16, 64, 64, 64]          --
├─FusedConv2dBNReLU: 1-139               [16, 64, 64, 64]          (recursive)
│    └─OutputShiftSqueeze: 2-1849        --                        --
│    └─One: 2-1850                       [1]                       --
│    └─OutputScale: 2-1851               --                        --
│    └─Empty: 2-1852                     [64, 64, 1, 1]            --
│    └─Empty: 2-1853                     [64, 64, 1, 1]            --
│    └─Empty: 2-1854                     [64]                      --
│    └─Empty: 2-1855                     [64]                      --
│    └─BatchNorm2d: 2-1856               [16, 64, 64, 64]          --
│    └─Scaler: 2-1857                    [16, 64, 64, 64]          --
│    └─ReLU: 2-1858                      [16, 64, 64, 64]          --
│    └─Empty: 2-1859                     [16, 64, 64, 64]          --
│    └─Clamp: 2-1860                     [16, 64, 64, 64]          --
├─FusedConv2dBNReLU: 1-140               [16, 64, 64, 64]          (recursive)
│    └─OutputShiftSqueeze: 2-1861        --                        --
│    └─One: 2-1862                       [1]                       --
│    └─OutputScale: 2-1863               --                        --
│    └─Empty: 2-1864                     [64, 64, 3, 3]            --
│    └─Empty: 2-1865                     [64, 64, 3, 3]            --
│    └─Empty: 2-1866                     [64]                      --
│    └─Empty: 2-1867                     [64]                      --
│    └─BatchNorm2d: 2-1868               [16, 64, 64, 64]          --
│    └─Scaler: 2-1869                    [16, 64, 64, 64]          --
│    └─ReLU: 2-1870                      [16, 64, 64, 64]          --
│    └─Empty: 2-1871                     [16, 64, 64, 64]          --
│    └─Clamp: 2-1872                     [16, 64, 64, 64]          --
├─FusedMaxPoolConv2dBNReLU: 1-141        [16, 64, 32, 32]          (recursive)
│    └─MaxPool2d: 2-1873                 [16, 64, 32, 32]          --
│    └─Empty: 2-1874                     [16, 64, 32, 32]          --
│    └─Empty: 2-1875                     [16, 64, 32, 32]          --
│    └─OutputShiftSqueeze: 2-1876        --                        --
│    └─One: 2-1877                       [1]                       --
│    └─OutputScale: 2-1878               --                        --
│    └─Empty: 2-1879                     [64, 64, 3, 3]            --
│    └─Empty: 2-1880                     [64, 64, 3, 3]            --
│    └─Empty: 2-1881                     [64]                      --
│    └─Empty: 2-1882                     [64]                      --
│    └─BatchNorm2d: 2-1883               [16, 64, 32, 32]          --
│    └─Scaler: 2-1884                    [16, 64, 32, 32]          --
│    └─ReLU: 2-1885                      [16, 64, 32, 32]          --
│    └─Empty: 2-1886                     [16, 64, 32, 32]          --
│    └─Clamp: 2-1887                     [16, 64, 32, 32]          --
├─FusedConv2dBNReLU: 1-142               [16, 64, 32, 32]          (recursive)
│    └─OutputShiftSqueeze: 2-1888        --                        --
│    └─One: 2-1889                       [1]                       --
│    └─OutputScale: 2-1890               --                        --
│    └─Empty: 2-1891                     [64, 64, 3, 3]            --
│    └─Empty: 2-1892                     [64, 64, 3, 3]            --
│    └─Empty: 2-1893                     [64]                      --
│    └─Empty: 2-1894                     [64]                      --
│    └─BatchNorm2d: 2-1895               [16, 64, 32, 32]          --
│    └─Scaler: 2-1896                    [16, 64, 32, 32]          --
│    └─ReLU: 2-1897                      [16, 64, 32, 32]          --
│    └─Empty: 2-1898                     [16, 64, 32, 32]          --
│    └─Clamp: 2-1899                     [16, 64, 32, 32]          --
├─FusedMaxPoolConv2dBNReLU: 1-143        [16, 64, 16, 16]          (recursive)
│    └─MaxPool2d: 2-1900                 [16, 64, 16, 16]          --
│    └─Empty: 2-1901                     [16, 64, 16, 16]          --
│    └─Empty: 2-1902                     [16, 64, 16, 16]          --
│    └─OutputShiftSqueeze: 2-1903        --                        --
│    └─One: 2-1904                       [1]                       --
│    └─OutputScale: 2-1905               --                        --
│    └─Empty: 2-1906                     [64, 64, 3, 3]            --
│    └─Empty: 2-1907                     [64, 64, 3, 3]            --
│    └─Empty: 2-1908                     [64]                      --
│    └─Empty: 2-1909                     [64]                      --
│    └─BatchNorm2d: 2-1910               [16, 64, 16, 16]          --
│    └─Scaler: 2-1911                    [16, 64, 16, 16]          --
│    └─ReLU: 2-1912                      [16, 64, 16, 16]          --
│    └─Empty: 2-1913                     [16, 64, 16, 16]          --
│    └─Clamp: 2-1914                     [16, 64, 16, 16]          --
├─FusedConv2dBNReLU: 1-144               [16, 64, 16, 16]          (recursive)
│    └─OutputShiftSqueeze: 2-1915        --                        --
│    └─One: 2-1916                       [1]                       --
│    └─OutputScale: 2-1917               --                        --
│    └─Empty: 2-1918                     [64, 64, 3, 3]            --
│    └─Empty: 2-1919                     [64, 64, 3, 3]            --
│    └─Empty: 2-1920                     [64]                      --
│    └─Empty: 2-1921                     [64]                      --
│    └─BatchNorm2d: 2-1922               [16, 64, 16, 16]          --
│    └─Scaler: 2-1923                    [16, 64, 16, 16]          --
│    └─ReLU: 2-1924                      [16, 64, 16, 16]          --
│    └─Empty: 2-1925                     [16, 64, 16, 16]          --
│    └─Clamp: 2-1926                     [16, 64, 16, 16]          --
├─FusedMaxPoolConv2dBNReLU: 1-145        [16, 64, 8, 8]            (recursive)
│    └─MaxPool2d: 2-1927                 [16, 64, 8, 8]            --
│    └─Empty: 2-1928                     [16, 64, 8, 8]            --
│    └─Empty: 2-1929                     [16, 64, 8, 8]            --
│    └─OutputShiftSqueeze: 2-1930        --                        --
│    └─One: 2-1931                       [1]                       --
│    └─OutputScale: 2-1932               --                        --
│    └─Empty: 2-1933                     [64, 64, 3, 3]            --
│    └─Empty: 2-1934                     [64, 64, 3, 3]            --
│    └─Empty: 2-1935                     [64]                      --
│    └─Empty: 2-1936                     [64]                      --
│    └─BatchNorm2d: 2-1937               [16, 64, 8, 8]            --
│    └─Scaler: 2-1938                    [16, 64, 8, 8]            --
│    └─ReLU: 2-1939                      [16, 64, 8, 8]            --
│    └─Empty: 2-1940                     [16, 64, 8, 8]            --
│    └─Clamp: 2-1941                     [16, 64, 8, 8]            --
├─FusedConv2dBNReLU: 1-146               [16, 64, 8, 8]            (recursive)
│    └─OutputShiftSqueeze: 2-1942        --                        --
│    └─One: 2-1943                       [1]                       --
│    └─OutputScale: 2-1944               --                        --
│    └─Empty: 2-1945                     [64, 64, 1, 1]            --
│    └─Empty: 2-1946                     [64, 64, 1, 1]            --
│    └─Empty: 2-1947                     [64]                      --
│    └─Empty: 2-1948                     [64]                      --
│    └─BatchNorm2d: 2-1949               [16, 64, 8, 8]            --
│    └─Scaler: 2-1950                    [16, 64, 8, 8]            --
│    └─ReLU: 2-1951                      [16, 64, 8, 8]            --
│    └─Empty: 2-1952                     [16, 64, 8, 8]            --
│    └─Clamp: 2-1953                     [16, 64, 8, 8]            --
├─FusedMaxPoolConv2dBNReLU: 1-147        [16, 64, 8, 8]            (recursive)
│    └─MaxPool2d: 2-1954                 [16, 64, 8, 8]            --
│    └─Empty: 2-1955                     [16, 64, 8, 8]            --
│    └─Empty: 2-1956                     [16, 64, 8, 8]            --
│    └─OutputShiftSqueeze: 2-1957        --                        --
│    └─One: 2-1958                       [1]                       --
│    └─OutputScale: 2-1959               --                        --
│    └─Empty: 2-1960                     [64, 64, 3, 3]            --
│    └─Empty: 2-1961                     [64, 64, 3, 3]            --
│    └─Empty: 2-1962                     [64]                      --
│    └─Empty: 2-1963                     [64]                      --
│    └─BatchNorm2d: 2-1964               [16, 64, 8, 8]            --
│    └─Scaler: 2-1965                    [16, 64, 8, 8]            --
│    └─ReLU: 2-1966                      [16, 64, 8, 8]            --
│    └─Empty: 2-1967                     [16, 64, 8, 8]            --
│    └─Clamp: 2-1968                     [16, 64, 8, 8]            --
…
│    └─BatchNorm2d: 2-4058               [16, 64, 4, 4]            --
│    └─Scaler: 2-4059                    [16, 64, 4, 4]            --
│    └─ReLU: 2-4060                      [16, 64, 4, 4]            --
│    └─Empty: 2-4061                     [16, 64, 4, 4]            --
│    └─Clamp: 2-4062                     [16, 64, 4, 4]            --
├─FusedMaxPoolConv2dBNReLU: 1-304        [16, 64, 2, 2]            (recursive)
│    └─MaxPool2d: 2-4063                 [16, 64, 2, 2]            --
│    └─Empty: 2-4064                     [16, 64, 2, 2]            --
│    └─Empty: 2-4065                     [16, 64, 2, 2]            --
│    └─OutputShiftSqueeze: 2-4066        --                        --
│    └─One: 2-4067                       [1]                       --
│    └─OutputScale: 2-4068               --                        --
│    └─Empty: 2-4069                     [64, 64, 1, 1]            --
│    └─Empty: 2-4070                     [64, 64, 1, 1]            --
│    └─Empty: 2-4071                     [64]                      --
│    └─Empty: 2-4072                     [64]                      --
│    └─BatchNorm2d: 2-4073               [16, 64, 2, 2]            --
│    └─Scaler: 2-4074                    [16, 64, 2, 2]            --
│    └─ReLU: 2-4075                      [16, 64, 2, 2]            --
│    └─Empty: 2-4076                     [16, 64, 2, 2]            --
│    └─Clamp: 2-4077                     [16, 64, 2, 2]            --
├─FusedConv2dBNReLU: 1-305               [16, 64, 2, 2]            (recursive)
│    └─OutputShiftSqueeze: 2-4078        --                        --
│    └─One: 2-4079                       [1]                       --
│    └─OutputScale: 2-4080               --                        --
│    └─Empty: 2-4081                     [64, 64, 1, 1]            --
│    └─Empty: 2-4082                     [64, 64, 1, 1]            --
│    └─Empty: 2-4083                     [64]                      --
│    └─Empty: 2-4084                     [64]                      --
│    └─BatchNorm2d: 2-4085               [16, 64, 2, 2]            --
│    └─Scaler: 2-4086                    [16, 64, 2, 2]            --
│    └─ReLU: 2-4087                      [16, 64, 2, 2]            --
│    └─Empty: 2-4088                     [16, 64, 2, 2]            --
│    └─Clamp: 2-4089                     [16, 64, 2, 2]            --
├─FusedMaxPoolConv2dBNReLU: 1-306        [16, 64, 2, 2]            (recursive)
│    └─MaxPool2d: 2-4090                 [16, 64, 2, 2]            --
│    └─Empty: 2-4091                     [16, 64, 2, 2]            --
│    └─Empty: 2-4092                     [16, 64, 2, 2]            --
│    └─OutputShiftSqueeze: 2-4093        --                        --
│    └─One: 2-4094                       [1]                       --
│    └─OutputScale: 2-4095               --                        --
│    └─Empty: 2-4096                     [64, 64, 3, 3]            --
│    └─Empty: 2-4097                     [64, 64, 3, 3]            --
│    └─Empty: 2-4098                     [64]                      --
│    └─Empty: 2-4099                     [64]                      --
│    └─BatchNorm2d: 2-4100               [16, 64, 2, 2]            --
│    └─Scaler: 2-4101                    [16, 64, 2, 2]            --
│    └─ReLU: 2-4102                      [16, 64, 2, 2]            --
│    └─Empty: 2-4103                     [16, 64, 2, 2]            --
│    └─Clamp: 2-4104                     [16, 64, 2, 2]            --
├─FusedConv2dBNReLU: 1-307               [16, 64, 64, 64]          (recursive)
│    └─OutputShiftSqueeze: 2-4105        --                        --
│    └─One: 2-4106                       [1]                       --
│    └─OutputScale: 2-4107               --                        --
│    └─Empty: 2-4108                     [64, 48, 1, 1]            --
│    └─Empty: 2-4109                     [64, 48, 1, 1]            --
│    └─Empty: 2-4110                     [64]                      --
│    └─Empty: 2-4111                     [64]                      --
│    └─BatchNorm2d: 2-4112               [16, 64, 64, 64]          --
│    └─Scaler: 2-4113                    [16, 64, 64, 64]          --
│    └─ReLU: 2-4114                      [16, 64, 64, 64]          --
│    └─Empty: 2-4115                     [16, 64, 64, 64]          --
│    └─Clamp: 2-4116                     [16, 64, 64, 64]          --
├─FusedConv2dBNReLU: 1-308               [16, 64, 64, 64]          (recursive)
│    └─OutputShiftSqueeze: 2-4117        --                        --
│    └─One: 2-4118                       [1]                       --
│    └─OutputScale: 2-4119               --                        --
│    └─Empty: 2-4120                     [64, 64, 3, 3]            --
│    └─Empty: 2-4121                     [64, 64, 3, 3]            --
│    └─Empty: 2-4122                     [64]                      --
│    └─Empty: 2-4123                     [64]                      --
│    └─BatchNorm2d: 2-4124               [16, 64, 64, 64]          --
│    └─Scaler: 2-4125                    [16, 64, 64, 64]          --
│    └─ReLU: 2-4126                      [16, 64, 64, 64]          --
│    └─Empty: 2-4127                     [16, 64, 64, 64]          --
│    └─Clamp: 2-4128                     [16, 64, 64, 64]          --
├─FusedConv2dBNReLU: 1-309               [16, 64, 64, 64]          (recursive)
│    └─OutputShiftSqueeze: 2-4129        --                        --
│    └─One: 2-4130                       [1]                       --
│    └─OutputScale: 2-4131               --                        --
│    └─Empty: 2-4132                     [64, 64, 1, 1]            --
│    └─Empty: 2-4133                     [64, 64, 1, 1]            --
│    └─Empty: 2-4134                     [64]                      --
│    └─Empty: 2-4135                     [64]                      --
│    └─BatchNorm2d: 2-4136               [16, 64, 64, 64]          --
│    └─Scaler: 2-4137                    [16, 64, 64, 64]          --
│    └─ReLU: 2-4138                      [16, 64, 64, 64]          --
│    └─Empty: 2-4139                     [16, 64, 64, 64]          --
│    └─Clamp: 2-4140                     [16, 64, 64, 64]          --
├─FusedConv2dBNReLU: 1-310               [16, 64, 64, 64]          (recursive)
│    └─OutputShiftSqueeze: 2-4141        --                        --
│    └─One: 2-4142                       [1]                       --
│    └─OutputScale: 2-4143               --                        --
│    └─Empty: 2-4144                     [64, 64, 3, 3]            --
│    └─Empty: 2-4145                     [64, 64, 3, 3]            --
│    └─Empty: 2-4146                     [64]                      --
│    └─Empty: 2-4147                     [64]                      --
│    └─BatchNorm2d: 2-4148               [16, 64, 64, 64]          --
│    └─Scaler: 2-4149                    [16, 64, 64, 64]          --
│    └─ReLU: 2-4150                      [16, 64, 64, 64]          --
│    └─Empty: 2-4151                     [16, 64, 64, 64]          --
│    └─Clamp: 2-4152                     [16, 64, 64, 64]          --
├─FusedMaxPoolConv2dBNReLU: 1-311        [16, 64, 32, 32]          (recursive)
│    └─MaxPool2d: 2-4153                 [16, 64, 32, 32]          --
│    └─Empty: 2-4154                     [16, 64, 32, 32]          --
│    └─Empty: 2-4155                     [16, 64, 32, 32]          --
│    └─OutputShiftSqueeze: 2-4156        --                        --
│    └─One: 2-4157                       [1]                       --
│    └─OutputScale: 2-4158               --                        --
│    └─Empty: 2-4159                     [64, 64, 3, 3]            --
│    └─Empty: 2-4160                     [64, 64, 3, 3]            --
│    └─Empty: 2-4161                     [64]                      --
│    └─Empty: 2-4162                     [64]                      --
│    └─BatchNorm2d: 2-4163               [16, 64, 32, 32]          --
│    └─Scaler: 2-4164                    [16, 64, 32, 32]          --
│    └─ReLU: 2-4165                      [16, 64, 32, 32]          --
│    └─Empty: 2-4166                     [16, 64, 32, 32]          --
│    └─Clamp: 2-4167                     [16, 64, 32, 32]          --
├─FusedConv2dBNReLU: 1-312               [16, 64, 32, 32]          (recursive)
│    └─OutputShiftSqueeze: 2-4168        --                        --
│    └─One: 2-4169                       [1]                       --
│    └─OutputScale: 2-4170               --                        --
│    └─Empty: 2-4171                     [64, 64, 3, 3]            --
│    └─Empty: 2-4172                     [64, 64, 3, 3]            --
│    └─Empty: 2-4173                     [64]                      --
│    └─Empty: 2-4174                     [64]                      --
│    └─BatchNorm2d: 2-4175               [16, 64, 32, 32]          --
│    └─Scaler: 2-4176                    [16, 64, 32, 32]          --
│    └─ReLU: 2-4177                      [16, 64, 32, 32]          --
│    └─Empty: 2-4178                     [16, 64, 32, 32]          --
│    └─Clamp: 2-4179                     [16, 64, 32, 32]          --
├─FusedMaxPoolConv2dBNReLU: 1-313        [16, 64, 16, 16]          (recursive)
│    └─MaxPool2d: 2-4180                 [16, 64, 16, 16]          --
│    └─Empty: 2-4181                     [16, 64, 16, 16]          --
│    └─Empty: 2-4182                     [16, 64, 16, 16]          --
│    └─OutputShiftSqueeze: 2-4183        --                        --
│    └─One: 2-4184                       [1]                       --
│    └─OutputScale: 2-4185               --                        --
│    └─Empty: 2-4186                     [64, 64, 3, 3]            --
│    └─Empty: 2-4187                     [64, 64, 3, 3]            --
│    └─Empty: 2-4188                     [64]                      --
│    └─Empty: 2-4189                     [64]                      --
│    └─BatchNorm2d: 2-4190               [16, 64, 16, 16]          --
│    └─Scaler: 2-4191                    [16, 64, 16, 16]          --
│    └─ReLU: 2-4192                      [16, 64, 16, 16]          --
│    └─Empty: 2-4193                     [16, 64, 16, 16]          --
│    └─Clamp: 2-4194                     [16, 64, 16, 16]          --
├─FusedConv2dBNReLU: 1-314               [16, 64, 16, 16]          (recursive)
│    └─OutputShiftSqueeze: 2-4195        --                        --
│    └─One: 2-4196                       [1]                       --
│    └─OutputScale: 2-4197               --                        --
│    └─Empty: 2-4198                     [64, 64, 3, 3]            --
│    └─Empty: 2-4199                     [64, 64, 3, 3]            --
│    └─Empty: 2-4200                     [64]                      --
│    └─Empty: 2-4201                     [64]                      --
│    └─BatchNorm2d: 2-4202               [16, 64, 16, 16]          --
│    └─Scaler: 2-4203                    [16, 64, 16, 16]          --
│    └─ReLU: 2-4204                      [16, 64, 16, 16]          --
│    └─Empty: 2-4205                     [16, 64, 16, 16]          --
│    └─Clamp: 2-4206                     [16, 64, 16, 16]          --
├─FusedMaxPoolConv2dBNReLU: 1-315        [16, 64, 8, 8]            (recursive)
│    └─MaxPool2d: 2-4207                 [16, 64, 8, 8]            --
│    └─Empty: 2-4208                     [16, 64, 8, 8]            --
│    └─Empty: 2-4209                     [16, 64, 8, 8]            --
│    └─OutputShiftSqueeze: 2-4210        --                        --
│    └─One: 2-4211                       [1]                       --
│    └─OutputScale: 2-4212               --                        --
│    └─Empty: 2-4213                     [64, 64, 3, 3]            --
│    └─Empty: 2-4214                     [64, 64, 3, 3]            --
│    └─Empty: 2-4215                     [64]                      --
│    └─Empty: 2-4216                     [64]                      --
│    └─BatchNorm2d: 2-4217               [16, 64, 8, 8]            --
│    └─Scaler: 2-4218                    [16, 64, 8, 8]            --
│    └─ReLU: 2-4219                      [16, 64, 8, 8]            --
│    └─Empty: 2-4220                     [16, 64, 8, 8]            --
│    └─Clamp: 2-4221                     [16, 64, 8, 8]            --
├─FusedConv2dBNReLU: 1-316               [16, 64, 8, 8]            (recursive)
│    └─OutputShiftSqueeze: 2-4222        --                        --
│    └─One: 2-4223                       [1]                       --
│    └─OutputScale: 2-4224               --                        --
│    └─Empty: 2-4225                     [64, 64, 1, 1]            --
│    └─Empty: 2-4226                     [64, 64, 1, 1]            --
│    └─Empty: 2-4227                     [64]                      --
│    └─Empty: 2-4228                     [64]                      --
│    └─BatchNorm2d: 2-4229               [16, 64, 8, 8]            --
│    └─Scaler: 2-4230                    [16, 64, 8, 8]            --
│    └─ReLU: 2-4231                      [16, 64, 8, 8]            --
│    └─Empty: 2-4232                     [16, 64, 8, 8]            --
│    └─Clamp: 2-4233                     [16, 64, 8, 8]            --
├─FusedMaxPoolConv2dBNReLU: 1-317        [16, 64, 8, 8]            (recursive)
│    └─MaxPool2d: 2-4234                 [16, 64, 8, 8]            --
│    └─Empty: 2-4235                     [16, 64, 8, 8]            --
│    └─Empty: 2-4236                     [16, 64, 8, 8]            --
│    └─OutputShiftSqueeze: 2-4237        --                        --
│    └─One: 2-4238                       [1]                       --
│    └─OutputScale: 2-4239               --                        --
│    └─Empty: 2-4240                     [64, 64, 3, 3]            --
│    └─Empty: 2-4241                     [64, 64, 3, 3]            --
│    └─Empty: 2-4242                     [64]                      --
│    └─Empty: 2-4243                     [64]                      --
│    └─BatchNorm2d: 2-4244               [16, 64, 8, 8]            --
│    └─Scaler: 2-4245                    [16, 64, 8, 8]            --
│    └─ReLU: 2-4246                      [16, 64, 8, 8]            --
│    └─Empty: 2-4247                     [16, 64, 8, 8]            --
│    └─Clamp: 2-4248                     [16, 64, 8, 8]            --
├─FusedMaxPoolConv2dBNReLU: 1-318        [16, 64, 4, 4]            (recursive)
│    └─MaxPool2d: 2-4249                 [16, 64, 4, 4]            --
│    └─Empty: 2-4250                     [16, 64, 4, 4]            --
│    └─Empty: 2-4251                     [16, 64, 4, 4]            --
│    └─OutputShiftSqueeze: 2-4252        --                        --
│    └─One: 2-4253                       [1]                       --
│    └─OutputScale: 2-4254               --                        --
│    └─Empty: 2-4255                     [64, 64, 3, 3]            --
│    └─Empty: 2-4256                     [64, 64, 3, 3]            --
│    └─Empty: 2-4257                     [64]                      --
│    └─Empty: 2-4258                     [64]                      --
│    └─BatchNorm2d: 2-4259               [16, 64, 4, 4]            --
│    └─Scaler: 2-4260                    [16, 64, 4, 4]            --
│    └─ReLU: 2-4261                      [16, 64, 4, 4]            --
│    └─Empty: 2-4262                     [16, 64, 4, 4]            --
│    └─Clamp: 2-4263                     [16, 64, 4, 4]            --
├─FusedConv2dBNReLU: 1-319               [16, 64, 4, 4]            (recursive)
│    └─OutputShiftSqueeze: 2-4264        --                        --
│    └─One: 2-4265                       [1]                       --
│    └─OutputScale: 2-4266               --                        --
│    └─Empty: 2-4267                     [64, 64, 1, 1]            --
│    └─Empty: 2-4268                     [64, 64, 1, 1]            --
│    └─Empty: 2-4269                     [64]                      --
│    └─Empty: 2-4270                     [64]                      --
│    └─BatchNorm2d: 2-4271               [16, 64, 4, 4]            --
│    └─Scaler: 2-4272                    [16, 64, 4, 4]            --
│    └─ReLU: 2-4273                      [16, 64, 4, 4]            --
│    └─Empty: 2-4274                     [16, 64, 4, 4]            --
│    └─Clamp: 2-4275                     [16, 64, 4, 4]            --
├─FusedMaxPoolConv2dBNReLU: 1-320        [16, 64, 4, 4]            (recursive)
│    └─MaxPool2d: 2-4276                 [16, 64, 4, 4]            --
│    └─Empty: 2-4277                     [16, 64, 4, 4]            --
│    └─Empty: 2-4278                     [16, 64, 4, 4]            --
│    └─OutputShiftSqueeze: 2-4279        --                        --
│    └─One: 2-4280                       [1]                       --
│    └─OutputScale: 2-4281               --                        --
│    └─Empty: 2-4282                     [64, 64, 3, 3]            --
│    └─Empty: 2-4283                     [64, 64, 3, 3]            --
│    └─Empty: 2-4284                     [64]                      --
│    └─Empty: 2-4285                     [64]                      --
│    └─BatchNorm2d: 2-4286               [16, 64, 4, 4]            --
│    └─Scaler: 2-4287                    [16, 64, 4, 4]            --
│    └─ReLU: 2-4288                      [16, 64, 4, 4]            --
│    └─Empty: 2-4289                     [16, 64, 4, 4]            --
│    └─Clamp: 2-4290                     [16, 64, 4, 4]            --
├─FusedMaxPoolConv2dBNReLU: 1-321        [16, 64, 2, 2]            (recursive)
│    └─MaxPool2d: 2-4291                 [16, 64, 2, 2]            --
│    └─Empty: 2-4292                     [16, 64, 2, 2]            --
│    └─Empty: 2-4293                     [16, 64, 2, 2]            --
│    └─OutputShiftSqueeze: 2-4294        --                        --
│    └─One: 2-4295                       [1]                       --
│    └─OutputScale: 2-4296               --                        --
│    └─Empty: 2-4297                     [64, 64, 1, 1]            --
│    └─Empty: 2-4298                     [64, 64, 1, 1]            --
│    └─Empty: 2-4299                     [64]                      --
│    └─Empty: 2-4300                     [64]                      --
│    └─BatchNorm2d: 2-4301               [16, 64, 2, 2]            --
│    └─Scaler: 2-4302                    [16, 64, 2, 2]            --
│    └─ReLU: 2-4303                      [16, 64, 2, 2]            --
│    └─Empty: 2-4304                     [16, 64, 2, 2]            --
│    └─Clamp: 2-4305                     [16, 64, 2, 2]            --
├─FusedConv2dBNReLU: 1-322               [16, 64, 2, 2]            (recursive)
│    └─OutputShiftSqueeze: 2-4306        --                        --
│    └─One: 2-4307                       [1]                       --
│    └─OutputScale: 2-4308               --                        --
│    └─Empty: 2-4309                     [64, 64, 1, 1]            --
│    └─Empty: 2-4310                     [64, 64, 1, 1]            --
│    └─Empty: 2-4311                     [64]                      --
│    └─Empty: 2-4312                     [64]                      --
│    └─BatchNorm2d: 2-4313               [16, 64, 2, 2]            --
│    └─Scaler: 2-4314                    [16, 64, 2, 2]            --
│    └─ReLU: 2-4315                      [16, 64, 2, 2]            --
│    └─Empty: 2-4316                     [16, 64, 2, 2]            --
│    └─Clamp: 2-4317                     [16, 64, 2, 2]            --
├─FusedMaxPoolConv2dBNReLU: 1-323        [16, 64, 2, 2]            (recursive)
│    └─MaxPool2d: 2-4318                 [16, 64, 2, 2]            --
│    └─Empty: 2-4319                     [16, 64, 2, 2]            --
│    └─Empty: 2-4320                     [16, 64, 2, 2]            --
│    └─OutputShiftSqueeze: 2-4321        --                        --
│    └─One: 2-4322                       [1]                       --
│    └─OutputScale: 2-4323               --                        --
│    └─Empty: 2-4324                     [64, 64, 3, 3]            --
│    └─Empty: 2-4325                     [64, 64, 3, 3]            --
│    └─Empty: 2-4326                     [64]                      --
│    └─Empty: 2-4327                     [64]                      --
│    └─BatchNorm2d: 2-4328               [16, 64, 2, 2]            --
│    └─Scaler: 2-4329                    [16, 64, 2, 2]            --
│    └─ReLU: 2-4330                      [16, 64, 2, 2]            --
│    └─Empty: 2-4331                     [16, 64, 2, 2]            --
│    └─Clamp: 2-4332                     [16, 64, 2, 2]            --
├─FusedConv2dBNReLU: 1-324               [16, 64, 64, 64]          (recursive)
│    └─OutputShiftSqueeze: 2-4333        --                        --
│    └─One: 2-4334                       [1]                       --
│    └─OutputScale: 2-4335               --                        --
│    └─Empty: 2-4336                     [64, 48, 1, 1]            --
│    └─Empty: 2-4337                     [64, 48, 1, 1]            --
│    └─Empty: 2-4338                     [64]                      --
│    └─Empty: 2-4339                     [64]                      --
│    └─BatchNorm2d: 2-4340               [16, 64, 64, 64]          --
│    └─Scaler: 2-4341                    [16, 64, 64, 64]          --
│    └─ReLU: 2-4342                      [16, 64, 64, 64]          --
│    └─Empty: 2-4343                     [16, 64, 64, 64]          --
│    └─Clamp: 2-4344                     [16, 64, 64, 64]          --
├─FusedConv2dBNReLU: 1-325               [16, 64, 64, 64]          (recursive)
│    └─OutputShiftSqueeze: 2-4345        --                        --
│    └─One: 2-4346                       [1]                       --
│    └─OutputScale: 2-4347               --                        --
│    └─Empty: 2-4348                     [64, 64, 3, 3]            --
│    └─Empty: 2-4349                     [64, 64, 3, 3]            --
│    └─Empty: 2-4350                     [64]                      --
│    └─Empty: 2-4351                     [64]                      --
│    └─BatchNorm2d: 2-4352               [16, 64, 64, 64]          --
│    └─Scaler: 2-4353                    [16, 64, 64, 64]          --
│    └─ReLU: 2-4354                      [16, 64, 64, 64]          --
│    └─Empty: 2-4355                     [16, 64, 64, 64]          --
│    └─Clamp: 2-4356                     [16, 64, 64, 64]          --
├─FusedConv2dBNReLU: 1-326               [16, 64, 64, 64]          (recursive)
│    └─OutputShiftSqueeze: 2-4357        --                        --
│    └─One: 2-4358                       [1]                       --
│    └─OutputScale: 2-4359               --                        --
│    └─Empty: 2-4360                     [64, 64, 1, 1]            --
│    └─Empty: 2-4361                     [64, 64, 1, 1]            --
│    └─Empty: 2-4362                     [64]                      --
│    └─Empty: 2-4363                     [64]                      --
│    └─BatchNorm2d: 2-4364               [16, 64, 64, 64]          --
│    └─Scaler: 2-4365                    [16, 64, 64, 64]          --
│    └─ReLU: 2-4366                      [16, 64, 64, 64]          --
│    └─Empty: 2-4367                     [16, 64, 64, 64]          --
│    └─Clamp: 2-4368                     [16, 64, 64, 64]          --
├─FusedConv2dBNReLU: 1-327               [16, 64, 64, 64]          (recursive)
│    └─OutputShiftSqueeze: 2-4369        --                        --
│    └─One: 2-4370                       [1]                       --
│    └─OutputScale: 2-4371               --                        --
│    └─Empty: 2-4372                     [64, 64, 3, 3]            --
│    └─Empty: 2-4373                     [64, 64, 3, 3]            --
│    └─Empty: 2-4374                     [64]                      --
│    └─Empty: 2-4375                     [64]                      --
│    └─BatchNorm2d: 2-4376               [16, 64, 64, 64]          --
│    └─Scaler: 2-4377                    [16, 64, 64, 64]          --
│    └─ReLU: 2-4378                      [16, 64, 64, 64]          --
│    └─Empty: 2-4379                     [16, 64, 64, 64]          --
│    └─Clamp: 2-4380                     [16, 64, 64, 64]          --
├─FusedMaxPoolConv2dBNReLU: 1-328        [16, 64, 32, 32]          (recursive)
│    └─MaxPool2d: 2-4381                 [16, 64, 32, 32]          --
│    └─Empty: 2-4382                     [16, 64, 32, 32]          --
│    └─Empty: 2-4383                     [16, 64, 32, 32]          --
│    └─OutputShiftSqueeze: 2-4384        --                        --
│    └─One: 2-4385                       [1]                       --
│    └─OutputScale: 2-4386               --                        --
│    └─Empty: 2-4387                     [64, 64, 3, 3]            --
│    └─Empty: 2-4388                     [64, 64, 3, 3]            --
│    └─Empty: 2-4389                     [64]                      --
│    └─Empty: 2-4390                     [64]                      --
│    └─BatchNorm2d: 2-4391               [16, 64, 32, 32]          --
│    └─Scaler: 2-4392                    [16, 64, 32, 32]          --
│    └─ReLU: 2-4393                      [16, 64, 32, 32]          --
│    └─Empty: 2-4394                     [16, 64, 32, 32]          --
│    └─Clamp: 2-4395                     [16, 64, 32, 32]          --
├─FusedConv2dBNReLU: 1-329               [16, 64, 32, 32]          (recursive)
│    └─OutputShiftSqueeze: 2-4396        --                        --
│    └─One: 2-4397                       [1]                       --
│    └─OutputScale: 2-4398               --                        --
│    └─Empty: 2-4399                     [64, 64, 3, 3]            --
│    └─Empty: 2-4400                     [64, 64, 3, 3]            --
│    └─Empty: 2-4401                     [64]                      --
│    └─Empty: 2-4402                     [64]                      --
│    └─BatchNorm2d: 2-4403               [16, 64, 32, 32]          --
│    └─Scaler: 2-4404                    [16, 64, 32, 32]          --
│    └─ReLU: 2-4405                      [16, 64, 32, 32]          --
│    └─Empty: 2-4406                     [16, 64, 32, 32]          --
│    └─Clamp: 2-4407                     [16, 64, 32, 32]          --
├─FusedMaxPoolConv2dBNReLU: 1-330        [16, 64, 16, 16]          (recursive)
│    └─MaxPool2d: 2-4408                 [16, 64, 16, 16]          --
│    └─Empty: 2-4409                     [16, 64, 16, 16]          --
│    └─Empty: 2-4410                     [16, 64, 16, 16]          --
│    └─OutputShiftSqueeze: 2-4411        --                        --
│    └─One: 2-4412                       [1]                       --
│    └─OutputScale: 2-4413               --                        --
│    └─Empty: 2-4414                     [64, 64, 3, 3]            --
│    └─Empty: 2-4415                     [64, 64, 3, 3]            --
│    └─Empty: 2-4416                     [64]                      --
│    └─Empty: 2-4417                     [64]                      --
│    └─BatchNorm2d: 2-4418               [16, 64, 16, 16]          --
│    └─Scaler: 2-4419                    [16, 64, 16, 16]          --
│    └─ReLU: 2-4420                      [16, 64, 16, 16]          --
│    └─Empty: 2-4421                     [16, 64, 16, 16]          --
│    └─Clamp: 2-4422                     [16, 64, 16, 16]          --
├─FusedConv2dBNReLU: 1-331               [16, 64, 16, 16]          (recursive)
│    └─OutputShiftSqueeze: 2-4423        --                        --
│    └─One: 2-4424                       [1]                       --
│    └─OutputScale: 2-4425               --                        --
│    └─Empty: 2-4426                     [64, 64, 3, 3]            --
│    └─Empty: 2-4427                     [64, 64, 3, 3]            --
│    └─Empty: 2-4428                     [64]                      --
│    └─Empty: 2-4429                     [64]                      --
│    └─BatchNorm2d: 2-4430               [16, 64, 16, 16]          --
│    └─Scaler: 2-4431                    [16, 64, 16, 16]          --
│    └─ReLU: 2-4432                      [16, 64, 16, 16]          --
│    └─Empty: 2-4433                     [16, 64, 16, 16]          --
│    └─Clamp: 2-4434                     [16, 64, 16, 16]          --
├─FusedMaxPoolConv2dBNReLU: 1-332        [16, 64, 8, 8]            (recursive)
│    └─MaxPool2d: 2-4435                 [16, 64, 8, 8]            --
│    └─Empty: 2-4436                     [16, 64, 8, 8]            --
│    └─Empty: 2-4437                     [16, 64, 8, 8]            --
│    └─OutputShiftSqueeze: 2-4438        --                        --
│    └─One: 2-4439                       [1]                       --
│    └─OutputScale: 2-4440               --                        --
│    └─Empty: 2-4441                     [64, 64, 3, 3]            --
│    └─Empty: 2-4442                     [64, 64, 3, 3]            --
│    └─Empty: 2-4443                     [64]                      --
│    └─Empty: 2-4444                     [64]                      --
│    └─BatchNorm2d: 2-4445               [16, 64, 8, 8]            --
│    └─Scaler: 2-4446                    [16, 64, 8, 8]            --
│    └─ReLU: 2-4447                      [16, 64, 8, 8]            --
│    └─Empty: 2-4448                     [16, 64, 8, 8]            --
│    └─Clamp: 2-4449                     [16, 64, 8, 8]            --
├─FusedConv2dBNReLU: 1-333               [16, 64, 8, 8]            (recursive)
│    └─OutputShiftSqueeze: 2-4450        --                        --
│    └─One: 2-4451                       [1]                       --
│    └─OutputScale: 2-4452               --                        --
│    └─Empty: 2-4453                     [64, 64, 1, 1]            --
│    └─Empty: 2-4454                     [64, 64, 1, 1]            --
│    └─Empty: 2-4455                     [64]                      --
│    └─Empty: 2-4456                     [64]                      --
│    └─BatchNorm2d: 2-4457               [16, 64, 8, 8]            --
│    └─Scaler: 2-4458                    [16, 64, 8, 8]            --
│    └─ReLU: 2-4459                      [16, 64, 8, 8]            --
│    └─Empty: 2-4460                     [16, 64, 8, 8]            --
│    └─Clamp: 2-4461                     [16, 64, 8, 8]            --
├─FusedMaxPoolConv2dBNReLU: 1-334        [16, 64, 8, 8]            (recursive)
│    └─MaxPool2d: 2-4462                 [16, 64, 8, 8]            --
│    └─Empty: 2-4463                     [16, 64, 8, 8]            --
│    └─Empty: 2-4464                     [16, 64, 8, 8]            --
│    └─OutputShiftSqueeze: 2-4465        --                        --
│    └─One: 2-4466                       [1]                       --
│    └─OutputScale: 2-4467               --                        --
│    └─Empty: 2-4468                     [64, 64, 3, 3]            --
│    └─Empty: 2-4469                     [64, 64, 3, 3]            --
│    └─Empty: 2-4470                     [64]                      --
│    └─Empty: 2-4471                     [64]                      --
│    └─BatchNorm2d: 2-4472               [16, 64, 8, 8]            --
│    └─Scaler: 2-4473                    [16, 64, 8, 8]            --
│    └─ReLU: 2-4474                      [16, 64, 8, 8]            --
│    └─Empty: 2-4475                     [16, 64, 8, 8]            --
│    └─Clamp: 2-4476                     [16, 64, 8, 8]            --
├─FusedMaxPoolConv2dBNReLU: 1-335        [16, 64, 4, 4]            (recursive)
│    └─MaxPool2d: 2-4477                 [16, 64, 4, 4]            --
│    └─Empty: 2-4478                     [16, 64, 4, 4]            --
│    └─Empty: 2-4479                     [16, 64, 4, 4]            --
│    └─OutputShiftSqueeze: 2-4480        --                        --
│    └─One: 2-4481                       [1]                       --
│    └─OutputScale: 2-4482               --                        --
│    └─Empty: 2-4483                     [64, 64, 3, 3]            --
│    └─Empty: 2-4484                     [64, 64, 3, 3]            --
│    └─Empty: 2-4485                     [64]                      --
│    └─Empty: 2-4486                     [64]                      --
│    └─BatchNorm2d: 2-4487               [16, 64, 4, 4]            --
│    └─Scaler: 2-4488                    [16, 64, 4, 4]            --
│    └─ReLU: 2-4489                      [16, 64, 4, 4]            --
│    └─Empty: 2-4490                     [16, 64, 4, 4]            --
│    └─Clamp: 2-4491                     [16, 64, 4, 4]            --
├─FusedConv2dBNReLU: 1-336               [16, 64, 4, 4]            (recursive)
│    └─OutputShiftSqueeze: 2-4492        --                        --
│    └─One: 2-4493                       [1]                       --
│    └─OutputScale: 2-4494               --                        --
│    └─Empty: 2-4495                     [64, 64, 1, 1]            --
│    └─Empty: 2-4496                     [64, 64, 1, 1]            --
│    └─Empty: 2-4497                     [64]                      --
│    └─Empty: 2-4498                     [64]                      --
│    └─BatchNorm2d: 2-4499               [16, 64, 4, 4]            --
│    └─Scaler: 2-4500                    [16, 64, 4, 4]            --
│    └─ReLU: 2-4501                      [16, 64, 4, 4]            --
│    └─Empty: 2-4502                     [16, 64, 4, 4]            --
│    └─Clamp: 2-4503                     [16, 64, 4, 4]            --
├─FusedMaxPoolConv2dBNReLU: 1-337        [16, 64, 4, 4]            (recursive)
│    └─MaxPool2d: 2-4504                 [16, 64, 4, 4]            --
│    └─Empty: 2-4505                     [16, 64, 4, 4]            --
│    └─Empty: 2-4506                     [16, 64, 4, 4]            --
│    └─OutputShiftSqueeze: 2-4507        --                        --
│    └─One: 2-4508                       [1]                       --
│    └─OutputScale: 2-4509               --                        --
│    └─Empty: 2-4510                     [64, 64, 3, 3]            --
│    └─Empty: 2-4511                     [64, 64, 3, 3]            --
│    └─Empty: 2-4512                     [64]                      --
│    └─Empty: 2-4513                     [64]                      --
│    └─BatchNorm2d: 2-4514               [16, 64, 4, 4]            --
│    └─Scaler: 2-4515                    [16, 64, 4, 4]            --
│    └─ReLU: 2-4516                      [16, 64, 4, 4]            --
│    └─Empty: 2-4517                     [16, 64, 4, 4]            --
│    └─Clamp: 2-4518                     [16, 64, 4, 4]            --
├─FusedMaxPoolConv2dBNReLU: 1-338        [16, 64, 2, 2]            (recursive)
│    └─MaxPool2d: 2-4519                 [16, 64, 2, 2]            --
│    └─Empty: 2-4520                     [16, 64, 2, 2]            --
│    └─Empty: 2-4521                     [16, 64, 2, 2]            --
│    └─OutputShiftSqueeze: 2-4522        --                        --
│    └─One: 2-4523                       [1]                       --
│    └─OutputScale: 2-4524               --                        --
│    └─Empty: 2-4525                     [64, 64, 1, 1]            --
│    └─Empty: 2-4526                     [64, 64, 1, 1]            --
│    └─Empty: 2-4527                     [64]                      --
│    └─Empty: 2-4528                     [64]                      --
│    └─BatchNorm2d: 2-4529               [16, 64, 2, 2]            --
│    └─Scaler: 2-4530                    [16, 64, 2, 2]            --
│    └─ReLU: 2-4531                      [16, 64, 2, 2]            --
│    └─Empty: 2-4532                     [16, 64, 2, 2]            --
│    └─Clamp: 2-4533                     [16, 64, 2, 2]            --
├─FusedConv2dBNReLU: 1-339               [16, 64, 2, 2]            (recursive)
│    └─OutputShiftSqueeze: 2-4534        --                        --
│    └─One: 2-4535                       [1]                       --
│    └─OutputScale: 2-4536               --                        --
│    └─Empty: 2-4537                     [64, 64, 1, 1]            --
│    └─Empty: 2-4538                     [64, 64, 1, 1]            --
│    └─Empty: 2-4539                     [64]                      --
│    └─Empty: 2-4540                     [64]                      --
│    └─BatchNorm2d: 2-4541               [16, 64, 2, 2]            --
│    └─Scaler: 2-4542                    [16, 64, 2, 2]            --
│    └─ReLU: 2-4543                      [16, 64, 2, 2]            --
│    └─Empty: 2-4544                     [16, 64, 2, 2]            --
│    └─Clamp: 2-4545                     [16, 64, 2, 2]            --
├─FusedMaxPoolConv2dBNReLU: 1-340        [16, 64, 2, 2]            (recursive)
│    └─MaxPool2d: 2-4546                 [16, 64, 2, 2]            --
│    └─Empty: 2-4547                     [16, 64, 2, 2]            --
│    └─Empty: 2-4548                     [16, 64, 2, 2]            --
│    └─OutputShiftSqueeze: 2-4549        --                        --
│    └─One: 2-4550                       [1]                       --
│    └─OutputScale: 2-4551               --                        --
│    └─Empty: 2-4552                     [64, 64, 3, 3]            --
│    └─Empty: 2-4553                     [64, 64, 3, 3]            --
│    └─Empty: 2-4554                     [64]                      --
│    └─Empty: 2-4555                     [64]                      --
│    └─BatchNorm2d: 2-4556               [16, 64, 2, 2]            --
│    └─Scaler: 2-4557                    [16, 64, 2, 2]            --
│    └─ReLU: 2-4558                      [16, 64, 2, 2]            --
│    └─Empty: 2-4559                     [16, 64, 2, 2]            --
│    └─Clamp: 2-4560                     [16, 64, 2, 2]            --
├─FusedConv1dBNReLU: 1-341               [16, 64, 16]              81,990
│    └─OutputShiftSqueeze: 2-4561        --                        --
│    └─One: 2-4562                       [1]                       --
│    └─OutputScale: 2-4563               --                        --
│    └─Empty: 2-4564                     [64, 256, 5]              --
│    └─Empty: 2-4565                     [64, 256, 5]              --
│    └─Empty: 2-4566                     [64]                      --
│    └─Empty: 2-4567                     [64]                      --
│    └─BatchNorm1d: 2-4568               [16, 64, 16]              --
│    └─Scaler: 2-4569                    [16, 64, 16]              --
│    └─ReLU: 2-4570                      [16, 64, 16]              --
│    └─Empty: 2-4571                     [16, 64, 16]              --
│    └─Clamp: 2-4572                     [16, 64, 16]              --
├─FusedConv1dBNReLU: 1-342               [16, 64, 12]              20,550
│    └─OutputShiftSqueeze: 2-4573        --                        --
│    └─One: 2-4574                       [1]                       --
│    └─OutputScale: 2-4575               --                        --
│    └─Empty: 2-4576                     [64, 64, 5]               --
│    └─Empty: 2-4577                     [64, 64, 5]               --
│    └─Empty: 2-4578                     [64]                      --
│    └─Empty: 2-4579                     [64]                      --
│    └─BatchNorm1d: 2-4580               [16, 64, 12]              --
│    └─Scaler: 2-4581                    [16, 64, 12]              --
│    └─ReLU: 2-4582                      [16, 64, 12]              --
│    └─Empty: 2-4583                     [16, 64, 12]              --
│    └─Clamp: 2-4584                     [16, 64, 12]              --
├─FusedConv1dBNReLU: 1-343               [16, 64, 8]               20,550
│    └─OutputShiftSqueeze: 2-4585        --                        --
│    └─One: 2-4586                       [1]                       --
│    └─OutputScale: 2-4587               --                        --
│    └─Empty: 2-4588                     [64, 64, 5]               --
│    └─Empty: 2-4589                     [64, 64, 5]               --
│    └─Empty: 2-4590                     [64]                      --
│    └─Empty: 2-4591                     [64]                      --
│    └─BatchNorm1d: 2-4592               [16, 64, 8]               --
│    └─Scaler: 2-4593                    [16, 64, 8]               --
│    └─ReLU: 2-4594                      [16, 64, 8]               --
│    └─Empty: 2-4595                     [16, 64, 8]               --
│    └─Clamp: 2-4596                     [16, 64, 8]               --
├─FusedConv1dBNReLU: 1-344               [16, 64, 6]               12,358
│    └─OutputShiftSqueeze: 2-4597        --                        --
│    └─One: 2-4598                       [1]                       --
│    └─OutputScale: 2-4599               --                        --
│    └─Empty: 2-4600                     [64, 64, 3]               --
│    └─Empty: 2-4601                     [64, 64, 3]               --
│    └─Empty: 2-4602                     [64]                      --
│    └─Empty: 2-4603                     [64]                      --
│    └─BatchNorm1d: 2-4604               [16, 64, 6]               --
│    └─Scaler: 2-4605                    [16, 64, 6]               --
│    └─ReLU: 2-4606                      [16, 64, 6]               --
│    └─Empty: 2-4607                     [16, 64, 6]               --
│    └─Clamp: 2-4608                     [16, 64, 6]               --
├─FusedConv1dBNReLU: 1-345               [16, 64, 16]              49,222
│    └─OutputShiftSqueeze: 2-4609        --                        --
│    └─One: 2-4610                       [1]                       --
│    └─OutputScale: 2-4611               --                        --
│    └─Empty: 2-4612                     [64, 256, 3]              --
│    └─Empty: 2-4613                     [64, 256, 3]              --
│    └─Empty: 2-4614                     [64]                      --
│    └─Empty: 2-4615                     [64]                      --
│    └─BatchNorm1d: 2-4616               [16, 64, 16]              --
│    └─Scaler: 2-4617                    [16, 64, 16]              --
│    └─ReLU: 2-4618                      [16, 64, 16]              --
│    └─Empty: 2-4619                     [16, 64, 16]              --
│    └─Clamp: 2-4620                     [16, 64, 16]              --
├─FusedConv1dBNReLU: 1-346               [16, 64, 12]              12,358
│    └─OutputShiftSqueeze: 2-4621        --                        --
│    └─One: 2-4622                       [1]                       --
│    └─OutputScale: 2-4623               --                        --
│    └─Empty: 2-4624                     [64, 64, 3]               --
│    └─Empty: 2-4625                     [64, 64, 3]               --
│    └─Empty: 2-4626                     [64]                      --
│    └─Empty: 2-4627                     [64]                      --
│    └─BatchNorm1d: 2-4628               [16, 64, 12]              --
│    └─Scaler: 2-4629                    [16, 64, 12]              --
│    └─ReLU: 2-4630                      [16, 64, 12]              --
│    └─Empty: 2-4631                     [16, 64, 12]              --
│    └─Clamp: 2-4632                     [16, 64, 12]              --
├─FusedConv1dBNReLU: 1-347               [16, 64, 8]               12,358
│    └─OutputShiftSqueeze: 2-4633        --                        --
│    └─One: 2-4634                       [1]                       --
│    └─OutputScale: 2-4635               --                        --
│    └─Empty: 2-4636                     [64, 64, 3]               --
│    └─Empty: 2-4637                     [64, 64, 3]               --
│    └─Empty: 2-4638                     [64]                      --
│    └─Empty: 2-4639                     [64]                      --
│    └─BatchNorm1d: 2-4640               [16, 64, 8]               --
│    └─Scaler: 2-4641                    [16, 64, 8]               --
│    └─ReLU: 2-4642                      [16, 64, 8]               --
│    └─Empty: 2-4643                     [16, 64, 8]               --
│    └─Clamp: 2-4644                     [16, 64, 8]               --
├─FusedConv1dBNReLU: 1-348               [16, 64, 6]               12,358
│    └─OutputShiftSqueeze: 2-4645        --                        --
│    └─One: 2-4646                       [1]                       --
│    └─OutputScale: 2-4647               --                        --
│    └─Empty: 2-4648                     [64, 64, 3]               --
│    └─Empty: 2-4649                     [64, 64, 3]               --
│    └─Empty: 2-4650                     [64]                      --
│    └─Empty: 2-4651                     [64]                      --
│    └─BatchNorm1d: 2-4652               [16, 64, 6]               --
│    └─Scaler: 2-4653                    [16, 64, 6]               --
│    └─ReLU: 2-4654                      [16, 64, 6]               --
│    └─Empty: 2-4655                     [16, 64, 6]               --
│    └─Clamp: 2-4656                     [16, 64, 6]               --
├─FusedConv1dBNReLU: 1-349               [16, 64, 18]              49,222
│    └─OutputShiftSqueeze: 2-4657        --                        --
│    └─One: 2-4658                       [1]                       --
│    └─OutputScale: 2-4659               --                        --
│    └─Empty: 2-4660                     [64, 256, 3]              --
│    └─Empty: 2-4661                     [64, 256, 3]              --
│    └─Empty: 2-4662                     [64]                      --
│    └─Empty: 2-4663                     [64]                      --
│    └─BatchNorm1d: 2-4664               [16, 64, 18]              --
│    └─Scaler: 2-4665                    [16, 64, 18]              --
│    └─ReLU: 2-4666                      [16, 64, 18]              --
│    └─Empty: 2-4667                     [16, 64, 18]              --
│    └─Clamp: 2-4668                     [16, 64, 18]              --
├─FusedConv1dBNReLU: 1-350               [16, 64, 14]              12,358
│    └─OutputShiftSqueeze: 2-4669        --                        --
│    └─One: 2-4670                       [1]                       --
│    └─OutputScale: 2-4671               --                        --
│    └─Empty: 2-4672                     [64, 64, 3]               --
│    └─Empty: 2-4673                     [64, 64, 3]               --
│    └─Empty: 2-4674                     [64]                      --
│    └─Empty: 2-4675                     [64]                      --
│    └─BatchNorm1d: 2-4676               [16, 64, 14]              --
│    └─Scaler: 2-4677                    [16, 64, 14]              --
│    └─ReLU: 2-4678                      [16, 64, 14]              --
│    └─Empty: 2-4679                     [16, 64, 14]              --
│    └─Clamp: 2-4680                     [16, 64, 14]              --
├─FusedConv1dBNReLU: 1-351               [16, 64, 6]               12,358
│    └─OutputShiftSqueeze: 2-4681        --                        --
│    └─One: 2-4682                       [1]                       --
│    └─OutputScale: 2-4683               --                        --
│    └─Empty: 2-4684                     [64, 64, 3]               --
│    └─Empty: 2-4685                     [64, 64, 3]               --
│    └─Empty: 2-4686                     [64]                      --
│    └─Empty: 2-4687                     [64]                      --
│    └─BatchNorm1d: 2-4688               [16, 64, 6]               --
│    └─Scaler: 2-4689                    [16, 64, 6]               --
│    └─ReLU: 2-4690                      [16, 64, 6]               --
│    └─Empty: 2-4691                     [16, 64, 6]               --
│    └─Clamp: 2-4692                     [16, 64, 6]               --
├─FusedLinearReLU: 1-352                 [16, 32]                  12,326
│    └─OutputShiftSqueeze: 2-4693        --                        --
│    └─One: 2-4694                       [1]                       --
│    └─OutputScale: 2-4695               --                        --
│    └─Empty: 2-4696                     [32, 384]                 --
│    └─Empty: 2-4697                     [32, 384]                 --
│    └─Empty: 2-4698                     [32]                      --
│    └─Empty: 2-4699                     [32]                      --
│    └─Scaler: 2-4700                    [16, 32]                  --
│    └─ReLU: 2-4701                      [16, 32]                  --
│    └─Empty: 2-4702                     [16, 32]                  --
│    └─Clamp: 2-4703                     [16, 32]                  --
├─Linear: 1-353                          [16, 5]                   166
│    └─OutputShiftSqueeze: 2-4704        --                        --
│    └─One: 2-4705                       [1]                       --
│    └─OutputScale: 2-4706               --                        --
│    └─Empty: 2-4707                     [5, 32]                   --
│    └─Empty: 2-4708                     [5, 32]                   --
│    └─Empty: 2-4709                     [16, 5]                   --
│    └─Empty: 2-4710                     [16, 5]                   --
│    └─Clamp: 2-4711                     [16, 5]                   --
==========================================================================================
Total params: 738,420
Trainable params: 738,240
Non-trainable params: 180
Total mult-adds (M): 0.00
==========================================================================================
Input size (MB): 251.66
Forward/backward pass size (MB): 0.00
Params size (MB): 0.00
Estimated Total Size (MB): 251.66
…
