…
I - Label min-max:  tensor(0) tensor(3) data number in dataset:  tensor([131506, 175894,  26146,  43341, 114711, 150226, 216831, 201251,   1746,
        145429, 129171, 109328,  99570,  12973,   1230,  69783])
I - Initializing model TCNv8
I - Number of Model Parameters: 356224
I - Model output shape:  torch.Size([16, 4])
I - Model summary
==========================================================================================
Layer (type:depth-idx)                   Output Shape              Param #
==========================================================================================
TCNv8                                    [16, 4]                   --
├─FusedConv2dBNReLU: 1-1                 [16, 64, 64, 64]          3,142
│    └─OutputShiftSqueeze: 2-1           --                        --
│    └─One: 2-2                          [1]                       --
│    └─OutputScale: 2-3                  --                        --
│    └─Empty: 2-4                        [64, 48, 1, 1]            --
│    └─Empty: 2-5                        [64, 48, 1, 1]            --
│    └─Empty: 2-6                        [64]                      --
│    └─Empty: 2-7                        [64]                      --
│    └─BatchNorm2d: 2-8                  [16, 64, 64, 64]          --
│    └─Scaler: 2-9                       [16, 64, 64, 64]          --
│    └─ReLU: 2-10                        [16, 64, 64, 64]          --
│    └─Empty: 2-11                       [16, 64, 64, 64]          --
│    └─Clamp: 2-12                       [16, 64, 64, 64]          --
├─FusedConv2dBNReLU: 1-2                 [16, 64, 64, 64]          36,934
│    └─OutputShiftSqueeze: 2-13          --                        --
│    └─One: 2-14                         [1]                       --
│    └─OutputScale: 2-15                 --                        --
│    └─Empty: 2-16                       [64, 64, 3, 3]            --
│    └─Empty: 2-17                       [64, 64, 3, 3]            --
│    └─Empty: 2-18                       [64]                      --
│    └─Empty: 2-19                       [64]                      --
│    └─BatchNorm2d: 2-20                 [16, 64, 64, 64]          --
│    └─Scaler: 2-21                      [16, 64, 64, 64]          --
│    └─ReLU: 2-22                        [16, 64, 64, 64]          --
│    └─Empty: 2-23                       [16, 64, 64, 64]          --
│    └─Clamp: 2-24                       [16, 64, 64, 64]          --
├─FusedMaxPoolConv2dBNReLU: 1-3          [16, 64, 32, 32]          36,934
│    └─MaxPool2d: 2-25                   [16, 64, 32, 32]          --
│    └─Empty: 2-26                       [16, 64, 32, 32]          --
│    └─Empty: 2-27                       [16, 64, 32, 32]          --
│    └─OutputShiftSqueeze: 2-28          --                        --
│    └─One: 2-29                         [1]                       --
│    └─OutputScale: 2-30                 --                        --
│    └─Empty: 2-31                       [64, 64, 3, 3]            --
│    └─Empty: 2-32                       [64, 64, 3, 3]            --
│    └─Empty: 2-33                       [64]                      --
│    └─Empty: 2-34                       [64]                      --
│    └─BatchNorm2d: 2-35                 [16, 64, 32, 32]          --
│    └─Scaler: 2-36                      [16, 64, 32, 32]          --
│    └─ReLU: 2-37                        [16, 64, 32, 32]          --
│    └─Empty: 2-38                       [16, 64, 32, 32]          --
│    └─Clamp: 2-39                       [16, 64, 32, 32]          --
├─FusedConv2dBNReLU: 1-4                 [16, 64, 32, 32]          4,166
│    └─OutputShiftSqueeze: 2-40          --                        --
│    └─One: 2-41                         [1]                       --
│    └─OutputScale: 2-42                 --                        --
│    └─Empty: 2-43                       [64, 64, 1, 1]            --
│    └─Empty: 2-44                       [64, 64, 1, 1]            --
│    └─Empty: 2-45                       [64]                      --
│    └─Empty: 2-46                       [64]                      --
│    └─BatchNorm2d: 2-47                 [16, 64, 32, 32]          --
│    └─Scaler: 2-48                      [16, 64, 32, 32]          --
│    └─ReLU: 2-49                        [16, 64, 32, 32]          --
│    └─Empty: 2-50                       [16, 64, 32, 32]          --
│    └─Clamp: 2-51                       [16, 64, 32, 32]          --
├─FusedMaxPoolConv2dBNReLU: 1-5          [16, 64, 32, 32]          36,934
│    └─MaxPool2d: 2-52                   [16, 64, 32, 32]          --
│    └─Empty: 2-53                       [16, 64, 32, 32]          --
│    └─Empty: 2-54                       [16, 64, 32, 32]          --
│    └─OutputShiftSqueeze: 2-55          --                        --
│    └─One: 2-56                         [1]                       --
│    └─OutputScale: 2-57                 --                        --
│    └─Empty: 2-58                       [64, 64, 3, 3]            --
│    └─Empty: 2-59                       [64, 64, 3, 3]            --
│    └─Empty: 2-60                       [64]                      --
│    └─Empty: 2-61                       [64]                      --
│    └─BatchNorm2d: 2-62                 [16, 64, 32, 32]          --
│    └─Scaler: 2-63                      [16, 64, 32, 32]          --
│    └─ReLU: 2-64                        [16, 64, 32, 32]          --
│    └─Empty: 2-65                       [16, 64, 32, 32]          --
│    └─Clamp: 2-66                       [16, 64, 32, 32]          --
├─FusedMaxPoolConv2dBNReLU: 1-6          [16, 64, 16, 16]          36,934
│    └─MaxPool2d: 2-67                   [16, 64, 16, 16]          --
│    └─Empty: 2-68                       [16, 64, 16, 16]          --
│    └─Empty: 2-69                       [16, 64, 16, 16]          --
│    └─OutputShiftSqueeze: 2-70          --                        --
│    └─One: 2-71                         [1]                       --
│    └─OutputScale: 2-72                 --                        --
│    └─Empty: 2-73                       [64, 64, 3, 3]            --
│    └─Empty: 2-74                       [64, 64, 3, 3]            --
│    └─Empty: 2-75                       [64]                      --
│    └─Empty: 2-76                       [64]                      --
│    └─BatchNorm2d: 2-77                 [16, 64, 16, 16]          --
│    └─Scaler: 2-78                      [16, 64, 16, 16]          --
│    └─ReLU: 2-79                        [16, 64, 16, 16]          --
│    └─Empty: 2-80                       [16, 64, 16, 16]          --
│    └─Clamp: 2-81                       [16, 64, 16, 16]          --
├─FusedConv2dBNReLU: 1-7                 [16, 64, 16, 16]          4,166
│    └─OutputShiftSqueeze: 2-82          --                        --
│    └─One: 2-83                         [1]                       --
│    └─OutputScale: 2-84                 --                        --
│    └─Empty: 2-85                       [64, 64, 1, 1]            --
│    └─Empty: 2-86                       [64, 64, 1, 1]            --
│    └─Empty: 2-87                       [64]                      --
│    └─Empty: 2-88                       [64]                      --
│    └─BatchNorm2d: 2-89                 [16, 64, 16, 16]          --
│    └─Scaler: 2-90                      [16, 64, 16, 16]          --
│    └─ReLU: 2-91                        [16, 64, 16, 16]          --
│    └─Empty: 2-92                       [16, 64, 16, 16]          --
│    └─Clamp: 2-93                       [16, 64, 16, 16]          --
├─FusedMaxPoolConv2dBNReLU: 1-8          [16, 64, 16, 16]          36,934
│    └─MaxPool2d: 2-94                   [16, 64, 16, 16]          --
│    └─Empty: 2-95                       [16, 64, 16, 16]          --
│    └─Empty: 2-96                       [16, 64, 16, 16]          --
│    └─OutputShiftSqueeze: 2-97          --                        --
│    └─One: 2-98                         [1]                       --
│    └─OutputScale: 2-99                 --                        --
│    └─Empty: 2-100                      [64, 64, 3, 3]            --
│    └─Empty: 2-101                      [64, 64, 3, 3]            --
│    └─Empty: 2-102                      [64]                      --
│    └─Empty: 2-103                      [64]                      --
│    └─BatchNorm2d: 2-104                [16, 64, 16, 16]          --
│    └─Scaler: 2-105                     [16, 64, 16, 16]          --
│    └─ReLU: 2-106                       [16, 64, 16, 16]          --
│    └─Empty: 2-107                      [16, 64, 16, 16]          --
│    └─Clamp: 2-108                      [16, 64, 16, 16]          --
├─FusedMaxPoolConv2dBNReLU: 1-9          [16, 64, 8, 8]            36,934
│    └─MaxPool2d: 2-109                  [16, 64, 8, 8]            --
│    └─Empty: 2-110                      [16, 64, 8, 8]            --
│    └─Empty: 2-111                      [16, 64, 8, 8]            --
│    └─OutputShiftSqueeze: 2-112         --                        --
│    └─One: 2-113                        [1]                       --
│    └─OutputScale: 2-114                --                        --
│    └─Empty: 2-115                      [64, 64, 3, 3]            --
│    └─Empty: 2-116                      [64, 64, 3, 3]            --
│    └─Empty: 2-117                      [64]                      --
│    └─Empty: 2-118                      [64]                      --
│    └─BatchNorm2d: 2-119                [16, 64, 8, 8]            --
│    └─Scaler: 2-120                     [16, 64, 8, 8]            --
│    └─ReLU: 2-121                       [16, 64, 8, 8]            --
│    └─Empty: 2-122                      [16, 64, 8, 8]            --
│    └─Clamp: 2-123                      [16, 64, 8, 8]            --
├─FusedConv2dBNReLU: 1-10                [16, 64, 8, 8]            4,166
│    └─OutputShiftSqueeze: 2-124         --                        --
│    └─One: 2-125                        [1]                       --
│    └─OutputScale: 2-126                --                        --
│    └─Empty: 2-127                      [64, 64, 1, 1]            --
│    └─Empty: 2-128                      [64, 64, 1, 1]            --
│    └─Empty: 2-129                      [64]                      --
│    └─Empty: 2-130                      [64]                      --
│    └─BatchNorm2d: 2-131                [16, 64, 8, 8]            --
│    └─Scaler: 2-132                     [16, 64, 8, 8]            --
│    └─ReLU: 2-133                       [16, 64, 8, 8]            --
│    └─Empty: 2-134                      [16, 64, 8, 8]            --
│    └─Clamp: 2-135                      [16, 64, 8, 8]            --
├─FusedMaxPoolConv2dBNReLU: 1-11         [16, 64, 8, 8]            36,934
│    └─MaxPool2d: 2-136                  [16, 64, 8, 8]            --
│    └─Empty: 2-137                      [16, 64, 8, 8]            --
│    └─Empty: 2-138                      [16, 64, 8, 8]            --
│    └─OutputShiftSqueeze: 2-139         --                        --
│    └─One: 2-140                        [1]                       --
│    └─OutputScale: 2-141                --                        --
│    └─Empty: 2-142                      [64, 64, 3, 3]            --
│    └─Empty: 2-143                      [64, 64, 3, 3]            --
│    └─Empty: 2-144                      [64]                      --
│    └─Empty: 2-145                      [64]                      --
│    └─BatchNorm2d: 2-146                [16, 64, 8, 8]            --
│    └─Scaler: 2-147                     [16, 64, 8, 8]            --
│    └─ReLU: 2-148                       [16, 64, 8, 8]            --
│    └─Empty: 2-149                      [16, 64, 8, 8]            --
│    └─Clamp: 2-150                      [16, 64, 8, 8]            --
├─FusedMaxPoolConv2dBNReLU: 1-12         [16, 64, 4, 4]            36,934
│    └─MaxPool2d: 2-151                  [16, 64, 4, 4]            --
│    └─Empty: 2-152                      [16, 64, 4, 4]            --
│    └─Empty: 2-153                      [16, 64, 4, 4]            --
│    └─OutputShiftSqueeze: 2-154         --                        --
│    └─One: 2-155                        [1]                       --
│    └─OutputScale: 2-156                --                        --
│    └─Empty: 2-157                      [64, 64, 3, 3]            --
│    └─Empty: 2-158                      [64, 64, 3, 3]            --
│    └─Empty: 2-159                      [64]                      --
│    └─Empty: 2-160                      [64]                      --
│    └─BatchNorm2d: 2-161                [16, 64, 4, 4]            --
│    └─Scaler: 2-162                     [16, 64, 4, 4]            --
│    └─ReLU: 2-163                       [16, 64, 4, 4]            --
│    └─Empty: 2-164                      [16, 64, 4, 4]            --
│    └─Clamp: 2-165                      [16, 64, 4, 4]            --
├─FusedConv2dBNReLU: 1-13                [16, 64, 4, 4]            4,166
│    └─OutputShiftSqueeze: 2-166         --                        --
│    └─One: 2-167                        [1]                       --
│    └─OutputScale: 2-168                --                        --
│    └─Empty: 2-169                      [64, 64, 1, 1]            --
│    └─Empty: 2-170                      [64, 64, 1, 1]            --
│    └─Empty: 2-171                      [64]                      --
│    └─Empty: 2-172                      [64]                      --
│    └─BatchNorm2d: 2-173                [16, 64, 4, 4]            --
│    └─Scaler: 2-174                     [16, 64, 4, 4]            --
│    └─ReLU: 2-175                       [16, 64, 4, 4]            --
│    └─Empty: 2-176                      [16, 64, 4, 4]            --
│    └─Clamp: 2-177                      [16, 64, 4, 4]            --
├─FusedMaxPoolConv2dBNReLU: 1-14         [16, 64, 4, 4]            36,934
│    └─MaxPool2d: 2-178                  [16, 64, 4, 4]            --
│    └─Empty: 2-179                      [16, 64, 4, 4]            --
│    └─Empty: 2-180                      [16, 64, 4, 4]            --
│    └─OutputShiftSqueeze: 2-181         --                        --
│    └─One: 2-182                        [1]                       --
│    └─OutputScale: 2-183                --                        --
│    └─Empty: 2-184                      [64, 64, 3, 3]            --
│    └─Empty: 2-185                      [64, 64, 3, 3]            --
│    └─Empty: 2-186                      [64]                      --
│    └─Empty: 2-187                      [64]                      --
│    └─BatchNorm2d: 2-188                [16, 64, 4, 4]            --
│    └─Scaler: 2-189                     [16, 64, 4, 4]            --
│    └─ReLU: 2-190                       [16, 64, 4, 4]            --
│    └─Empty: 2-191                      [16, 64, 4, 4]            --
│    └─Clamp: 2-192                      [16, 64, 4, 4]            --
├─FusedConv2dBNReLU: 1-15                [16, 64, 64, 64]          (recursive)
│    └─OutputShiftSqueeze: 2-193         --                        --
│    └─One: 2-194                        [1]                       --
│    └─OutputScale: 2-195                --                        --
│    └─Empty: 2-196                      [64, 48, 1, 1]            --
│    └─Empty: 2-197                      [64, 48, 1, 1]            --
│    └─Empty: 2-198                      [64]                      --
│    └─Empty: 2-199                      [64]                      --
│    └─BatchNorm2d: 2-200                [16, 64, 64, 64]          --
│    └─Scaler: 2-201                     [16, 64, 64, 64]          --
│    └─ReLU: 2-202                       [16, 64, 64, 64]          --
│    └─Empty: 2-203                      [16, 64, 64, 64]          --
│    └─Clamp: 2-204                      [16, 64, 64, 64]          --
├─FusedConv2dBNReLU: 1-16                [16, 64, 64, 64]          (recursive)
│    └─OutputShiftSqueeze: 2-205         --                        --
│    └─One: 2-206                        [1]                       --
│    └─OutputScale: 2-207                --                        --
│    └─Empty: 2-208                      [64, 64, 3, 3]            --
│    └─Empty: 2-209                      [64, 64, 3, 3]            --
│    └─Empty: 2-210                      [64]                      --
│    └─Empty: 2-211                      [64]                      --
│    └─BatchNorm2d: 2-212                [16, 64, 64, 64]          --
│    └─Scaler: 2-213                     [16, 64, 64, 64]          --
│    └─ReLU: 2-214                       [16, 64, 64, 64]          --
│    └─Empty: 2-215                      [16, 64, 64, 64]          --
│    └─Clamp: 2-216                      [16, 64, 64, 64]          --
├─FusedMaxPoolConv2dBNReLU: 1-17         [16, 64, 32, 32]          (recursive)
│    └─MaxPool2d: 2-217                  [16, 64, 32, 32]          --
│    └─Empty: 2-218                      [16, 64, 32, 32]          --
│    └─Empty: 2-219                      [16, 64, 32, 32]          --
│    └─OutputShiftSqueeze: 2-220         --                        --
│    └─One: 2-221                        [1]                       --
│    └─OutputScale: 2-222                --                        --
│    └─Empty: 2-223                      [64, 64, 3, 3]            --
│    └─Empty: 2-224                      [64, 64, 3, 3]            --
│    └─Empty: 2-225                      [64]                      --
│    └─Empty: 2-226                      [64]                      --
│    └─BatchNorm2d: 2-227                [16, 64, 32, 32]          --
│    └─Scaler: 2-228                     [16, 64, 32, 32]          --
│    └─ReLU: 2-229                       [16, 64, 32, 32]          --
│    └─Empty: 2-230                      [16, 64, 32, 32]          --
│    └─Clamp: 2-231                      [16, 64, 32, 32]          --
├─FusedConv2dBNReLU: 1-18                [16, 64, 32, 32]          (recursive)
│    └─OutputShiftSqueeze: 2-232         --                        --
│    └─One: 2-233                        [1]                       --
│    └─OutputScale: 2-234                --                        --
│    └─Empty: 2-235                      [64, 64, 1, 1]            --
│    └─Empty: 2-236                      [64, 64, 1, 1]            --
│    └─Empty: 2-237                      [64]                      --
│    └─Empty: 2-238                      [64]                      --
│    └─BatchNorm2d: 2-239                [16, 64, 32, 32]          --
│    └─Scaler: 2-240                     [16, 64, 32, 32]          --
│    └─ReLU: 2-241                       [16, 64, 32, 32]          --
│    └─Empty: 2-242                      [16, 64, 32, 32]          --
│    └─Clamp: 2-243                      [16, 64, 32, 32]          --
├─FusedMaxPoolConv2dBNReLU: 1-19         [16, 64, 32, 32]          (recursive)
│    └─MaxPool2d: 2-244                  [16, 64, 32, 32]          --
│    └─Empty: 2-245                      [16, 64, 32, 32]          --
│    └─Empty: 2-246                      [16, 64, 32, 32]          --
│    └─OutputShiftSqueeze: 2-247         --                        --
│    └─One: 2-248                        [1]                       --
│    └─OutputScale: 2-249                --                        --
│    └─Empty: 2-250                      [64, 64, 3, 3]            --
│    └─Empty: 2-251                      [64, 64, 3, 3]            --
│    └─Empty: 2-252                      [64]                      --
│    └─Empty: 2-253                      [64]                      --
│    └─BatchNorm2d: 2-254                [16, 64, 32, 32]          --
│    └─Scaler: 2-255                     [16, 64, 32, 32]          --
│    └─ReLU: 2-256                       [16, 64, 32, 32]          --
│    └─Empty: 2-257                      [16, 64, 32, 32]          --
│    └─Clamp: 2-258                      [16, 64, 32, 32]          --
├─FusedMaxPoolConv2dBNReLU: 1-20         [16, 64, 16, 16]          (recursive)
│    └─MaxPool2d: 2-259                  [16, 64, 16, 16]          --
│    └─Empty: 2-260                      [16, 64, 16, 16]          --
│    └─Empty: 2-261                      [16, 64, 16, 16]          --
│    └─OutputShiftSqueeze: 2-262         --                        --
│    └─One: 2-263                        [1]                       --
│    └─OutputScale: 2-264                --                        --
│    └─Empty: 2-265                      [64, 64, 3, 3]            --
│    └─Empty: 2-266                      [64, 64, 3, 3]            --
│    └─Empty: 2-267                      [64]                      --
│    └─Empty: 2-268                      [64]                      --
│    └─BatchNorm2d: 2-269                [16, 64, 16, 16]          --
│    └─Scaler: 2-270                     [16, 64, 16, 16]          --
│    └─ReLU: 2-271                       [16, 64, 16, 16]          --
│    └─Empty: 2-272                      [16, 64, 16, 16]          --
│    └─Clamp: 2-273                      [16, 64, 16, 16]          --
├─FusedConv2dBNReLU: 1-21                [16, 64, 16, 16]          (recursive)
│    └─OutputShiftSqueeze: 2-274         --                        --
│    └─One: 2-275                        [1]                       --
│    └─OutputScale: 2-276                --                        --
│    └─Empty: 2-277                      [64, 64, 1, 1]            --
│    └─Empty: 2-278                      [64, 64, 1, 1]            --
│    └─Empty: 2-279                      [64]                      --
│    └─Empty: 2-280                      [64]                      --
│    └─BatchNorm2d: 2-281                [16, 64, 16, 16]          --
│    └─Scaler: 2-282                     [16, 64, 16, 16]          --
│    └─ReLU: 2-283                       [16, 64, 16, 16]          --
│    └─Empty: 2-284                      [16, 64, 16, 16]          --
│    └─Clamp: 2-285                      [16, 64, 16, 16]          --
├─FusedMaxPoolConv2dBNReLU: 1-22         [16, 64, 16, 16]          (recursive)
│    └─MaxPool2d: 2-286                  [16, 64, 16, 16]          --
│    └─Empty: 2-287                      [16, 64, 16, 16]          --
│    └─Empty: 2-288                      [16, 64, 16, 16]          --
│    └─OutputShiftSqueeze: 2-289         --                        --
│    └─One: 2-290                        [1]                       --
│    └─OutputScale: 2-291                --                        --
│    └─Empty: 2-292                      [64, 64, 3, 3]            --
│    └─Empty: 2-293                      [64, 64, 3, 3]            --
│    └─Empty: 2-294                      [64]                      --
│    └─Empty: 2-295                      [64]                      --
│    └─BatchNorm2d: 2-296                [16, 64, 16, 16]          --
│    └─Scaler: 2-297                     [16, 64, 16, 16]          --
│    └─ReLU: 2-298                       [16, 64, 16, 16]          --
│    └─Empty: 2-299                      [16, 64, 16, 16]          --
│    └─Clamp: 2-300                      [16, 64, 16, 16]          --
├─FusedMaxPoolConv2dBNReLU: 1-23         [16, 64, 8, 8]            (recursive)
│    └─MaxPool2d: 2-301                  [16, 64, 8, 8]            --
│    └─Empty: 2-302                      [16, 64, 8, 8]            --
│    └─Empty: 2-303                      [16, 64, 8, 8]            --
│    └─OutputShiftSqueeze: 2-304         --                        --
│    └─One: 2-305                        [1]                       --
│    └─OutputScale: 2-306                --                        --
│    └─Empty: 2-307                      [64, 64, 3, 3]            --
│    └─Empty: 2-308                      [64, 64, 3, 3]            --
│    └─Empty: 2-309                      [64]                      --
│    └─Empty: 2-310                      [64]                      --
│    └─BatchNorm2d: 2-311                [16, 64, 8, 8]            --
│    └─Scaler: 2-312                     [16, 64, 8, 8]            --
│    └─ReLU: 2-313                       [16, 64, 8, 8]            --
│    └─Empty: 2-314                      [16, 64, 8, 8]            --
│    └─Clamp: 2-315                      [16, 64, 8, 8]            --
├─FusedConv2dBNReLU: 1-24                [16, 64, 8, 8]            (recursive)
│    └─OutputShiftSqueeze: 2-316         --                        --
│    └─One: 2-317                        [1]                       --
│    └─OutputScale: 2-318                --                        --
│    └─Empty: 2-319                      [64, 64, 1, 1]            --
│    └─Empty: 2-320                      [64, 64, 1, 1]            --
│    └─Empty: 2-321                      [64]                      --
│    └─Empty: 2-322                      [64]                      --
│    └─BatchNorm2d: 2-323                [16, 64, 8, 8]            --
│    └─Scaler: 2-324                     [16, 64, 8, 8]            --
│    └─ReLU: 2-325                       [16, 64, 8, 8]            --
│    └─Empty: 2-326                      [16, 64, 8, 8]            --
│    └─Clamp: 2-327                      [16, 64, 8, 8]            --
├─FusedMaxPoolConv2dBNReLU: 1-25         [16, 64, 8, 8]            (recursive)
│    └─MaxPool2d: 2-328                  [16, 64, 8, 8]            --
│    └─Empty: 2-329                      [16, 64, 8, 8]            --
│    └─Empty: 2-330                      [16, 64, 8, 8]            --
│    └─OutputShiftSqueeze: 2-331         --                        --
│    └─One: 2-332                        [1]                       --
│    └─OutputScale: 2-333                --                        --
│    └─Empty: 2-334                      [64, 64, 3, 3]            --
│    └─Empty: 2-335                      [64, 64, 3, 3]            --
│    └─Empty: 2-336                      [64]                      --
│    └─Empty: 2-337                      [64]                      --
│    └─BatchNorm2d: 2-338                [16, 64, 8, 8]            --
│    └─Scaler: 2-339                     [16, 64, 8, 8]            --
│    └─ReLU: 2-340                       [16, 64, 8, 8]            --
│    └─Empty: 2-341                      [16, 64, 8, 8]            --
│    └─Clamp: 2-342                      [16, 64, 8, 8]            --
├─FusedMaxPoolConv2dBNReLU: 1-26         [16, 64, 4, 4]            (recursive)
│    └─MaxPool2d: 2-343                  [16, 64, 4, 4]            --
│    └─Empty: 2-344                      [16, 64, 4, 4]            --
│    └─Empty: 2-345                      [16, 64, 4, 4]            --
│    └─OutputShiftSqueeze: 2-346         --                        --
│    └─One: 2-347                        [1]                       --
│    └─OutputScale: 2-348                --                        --
│    └─Empty: 2-349                      [64, 64, 3, 3]            --
│    └─Empty: 2-350                      [64, 64, 3, 3]            --
│    └─Empty: 2-351                      [64]                      --
│    └─Empty: 2-352                      [64]                      --
│    └─BatchNorm2d: 2-353                [16, 64, 4, 4]            --
│    └─Scaler: 2-354                     [16, 64, 4, 4]            --
│    └─ReLU: 2-355                       [16, 64, 4, 4]            --
│    └─Empty: 2-356                      [16, 64, 4, 4]            --
│    └─Clamp: 2-357                      [16, 64, 4, 4]            --
├─FusedConv2dBNReLU: 1-27                [16, 64, 4, 4]            (recursive)
│    └─OutputShiftSqueeze: 2-358         --                        --
│    └─One: 2-359                        [1]                       --
│    └─OutputScale: 2-360                --                        --
│    └─Empty: 2-361                      [64, 64, 1, 1]            --
│    └─Empty: 2-362                      [64, 64, 1, 1]            --
│    └─Empty: 2-363                      [64]                      --
│    └─Empty: 2-364                      [64]                      --
│    └─BatchNorm2d: 2-365                [16, 64, 4, 4]            --
│    └─Scaler: 2-366                     [16, 64, 4, 4]            --
│    └─ReLU: 2-367                       [16, 64, 4, 4]            --
│    └─Empty: 2-368                      [16, 64, 4, 4]            --
│    └─Clamp: 2-369                      [16, 64, 4, 4]            --
├─FusedMaxPoolConv2dBNReLU: 1-28         [16, 64, 4, 4]            (recursive)
│    └─MaxPool2d: 2-370                  [16, 64, 4, 4]            --
│    └─Empty: 2-371                      [16, 64, 4, 4]            --
│    └─Empty: 2-372                      [16, 64, 4, 4]            --
│    └─OutputShiftSqueeze: 2-373         --                        --
│    └─One: 2-374                        [1]                       --
│    └─OutputScale: 2-375                --                        --
│    └─Empty: 2-376                      [64, 64, 3, 3]            --
│    └─Empty: 2-377                      [64, 64, 3, 3]            --
│    └─Empty: 2-378                      [64]                      --
│    └─Empty: 2-379                      [64]                      --
│    └─BatchNorm2d: 2-380                [16, 64, 4, 4]            --
│    └─Scaler: 2-381                     [16, 64, 4, 4]            --
│    └─ReLU: 2-382                       [16, 64, 4, 4]            --
│    └─Empty: 2-383                      [16, 64, 4, 4]            --
│    └─Clamp: 2-384                      [16, 64, 4, 4]            --
├─FusedConv2dBNReLU: 1-29                [16, 64, 64, 64]          (recursive)
│    └─OutputShiftSqueeze: 2-385         --                        --
│    └─One: 2-386                        [1]                       --
│    └─OutputScale: 2-387                --                        --
│    └─Empty: 2-388                      [64, 48, 1, 1]            --
│    └─Empty: 2-389                      [64, 48, 1, 1]            --
│    └─Empty: 2-390                      [64]                      --
│    └─Empty: 2-391                      [64]                      --
│    └─BatchNorm2d: 2-392                [16, 64, 64, 64]          --
│    └─Scaler: 2-393                     [16, 64, 64, 64]          --
│    └─ReLU: 2-394                       [16, 64, 64, 64]          --
│    └─Empty: 2-395                      [16, 64, 64, 64]          --
│    └─Clamp: 2-396                      [16, 64, 64, 64]          --
├─FusedConv2dBNReLU: 1-30                [16, 64, 64, 64]          (recursive)
│    └─OutputShiftSqueeze: 2-397         --                        --
│    └─One: 2-398                        [1]                       --
│    └─OutputScale: 2-399                --                        --
│    └─Empty: 2-400                      [64, 64, 3, 3]            --
│    └─Empty: 2-401                      [64, 64, 3, 3]            --
│    └─Empty: 2-402                      [64]                      --
│    └─Empty: 2-403                      [64]                      --
│    └─BatchNorm2d: 2-404                [16, 64, 64, 64]          --
│    └─Scaler: 2-405                     [16, 64, 64, 64]          --
│    └─ReLU: 2-406                       [16, 64, 64, 64]          --
│    └─Empty: 2-407                      [16, 64, 64, 64]          --
│    └─Clamp: 2-408                      [16, 64, 64, 64]          --
├─FusedMaxPoolConv2dBNReLU: 1-31         [16, 64, 32, 32]          (recursive)
│    └─MaxPool2d: 2-409                  [16, 64, 32, 32]          --
│    └─Empty: 2-410                      [16, 64, 32, 32]          --
│    └─Empty: 2-411                      [16, 64, 32, 32]          --
│    └─OutputShiftSqueeze: 2-412         --                        --
│    └─One: 2-413                        [1]                       --
│    └─OutputScale: 2-414                --                        --
│    └─Empty: 2-415                      [64, 64, 3, 3]            --
│    └─Empty: 2-416                      [64, 64, 3, 3]            --
│    └─Empty: 2-417                      [64]                      --
│    └─Empty: 2-418                      [64]                      --
│    └─BatchNorm2d: 2-419                [16, 64, 32, 32]          --
│    └─Scaler: 2-420                     [16, 64, 32, 32]          --
│    └─ReLU: 2-421                       [16, 64, 32, 32]          --
│    └─Empty: 2-422                      [16, 64, 32, 32]          --
│    └─Clamp: 2-423                      [16, 64, 32, 32]          --
├─FusedConv2dBNReLU: 1-32                [16, 64, 32, 32]          (recursive)
│    └─OutputShiftSqueeze: 2-424         --                        --
│    └─One: 2-425                        [1]                       --
│    └─OutputScale: 2-426                --                        --
│    └─Empty: 2-427                      [64, 64, 1, 1]            --
│    └─Empty: 2-428                      [64, 64, 1, 1]            --
│    └─Empty: 2-429                      [64]                      --
│    └─Empty: 2-430                      [64]                      --
│    └─BatchNorm2d: 2-431                [16, 64, 32, 32]          --
│    └─Scaler: 2-432                     [16, 64, 32, 32]          --
│    └─ReLU: 2-433                       [16, 64, 32, 32]          --
│    └─Empty: 2-434                      [16, 64, 32, 32]          --
│    └─Clamp: 2-435                      [16, 64, 32, 32]          --
├─FusedMaxPoolConv2dBNReLU: 1-33         [16, 64, 32, 32]          (recursive)
│    └─MaxPool2d: 2-436                  [16, 64, 32, 32]          --
│    └─Empty: 2-437                      [16, 64, 32, 32]          --
│    └─Empty: 2-438                      [16, 64, 32, 32]          --
│    └─OutputShiftSqueeze: 2-439         --                        --
│    └─One: 2-440                        [1]                       --
│    └─OutputScale: 2-441                --                        --
│    └─Empty: 2-442                      [64, 64, 3, 3]            --
│    └─Empty: 2-443                      [64, 64, 3, 3]            --
│    └─Empty: 2-444                      [64]                      --
│    └─Empty: 2-445                      [64]                      --
│    └─BatchNorm2d: 2-446                [16, 64, 32, 32]          --
│    └─Scaler: 2-447                     [16, 64, 32, 32]          --
│    └─ReLU: 2-448                       [16, 64, 32, 32]          --
│    └─Empty: 2-449                      [16, 64, 32, 32]          --
│    └─Clamp: 2-450                      [16, 64, 32, 32]          --
├─FusedMaxPoolConv2dBNReLU: 1-34         [16, 64, 16, 16]          (recursive)
│    └─MaxPool2d: 2-451                  [16, 64, 16, 16]          --
│    └─Empty: 2-452                      [16, 64, 16, 16]          --
│    └─Empty: 2-453                      [16, 64, 16, 16]          --
│    └─OutputShiftSqueeze: 2-454         --                        --
│    └─One: 2-455                        [1]                       --
│    └─OutputScale: 2-456                --                        --
│    └─Empty: 2-457                      [64, 64, 3, 3]            --
│    └─Empty: 2-458                      [64, 64, 3, 3]            --
│    └─Empty: 2-459                      [64]                      --
│    └─Empty: 2-460                      [64]                      --
│    └─BatchNorm2d: 2-461                [16, 64, 16, 16]          --
│    └─Scaler: 2-462                     [16, 64, 16, 16]          --
│    └─ReLU: 2-463                       [16, 64, 16, 16]          --
│    └─Empty: 2-464                      [16, 64, 16, 16]          --
│    └─Clamp: 2-465                      [16, 64, 16, 16]          --
├─FusedConv2dBNReLU: 1-35                [16, 64, 16, 16]          (recursive)
│    └─OutputShiftSqueeze: 2-466         --                        --
│    └─One: 2-467                        [1]                       --
│    └─OutputScale: 2-468                --                        --
│    └─Empty: 2-469                      [64, 64, 1, 1]            --
│    └─Empty: 2-470                      [64, 64, 1, 1]            --
│    └─Empty: 2-471                      [64]                      --
│    └─Empty: 2-472                      [64]                      --
│    └─BatchNorm2d: 2-473                [16, 64, 16, 16]          --
│    └─Scaler: 2-474                     [16, 64, 16, 16]          --
│    └─ReLU: 2-475                       [16, 64, 16, 16]          --
│    └─Empty: 2-476                      [16, 64, 16, 16]          --
│    └─Clamp: 2-477                      [16, 64, 16, 16]          --
├─FusedMaxPoolConv2dBNReLU: 1-36         [16, 64, 16, 16]          (recursive)
│    └─MaxPool2d: 2-478                  [16, 64, 16, 16]          --
│    └─Empty: 2-479                      [16, 64, 16, 16]          --
│    └─Empty: 2-480                      [16, 64, 16, 16]          --
│    └─OutputShiftSqueeze: 2-481         --                        --
│    └─One: 2-482                        [1]                       --
│    └─OutputScale: 2-483                --                        --
│    └─Empty: 2-484                      [64, 64, 3, 3]            --
│    └─Empty: 2-485                      [64, 64, 3, 3]            --
│    └─Empty: 2-486                      [64]                      --
│    └─Empty: 2-487                      [64]                      --
│    └─BatchNorm2d: 2-488                [16, 64, 16, 16]          --
│    └─Scaler: 2-489                     [16, 64, 16, 16]          --
│    └─ReLU: 2-490                       [16, 64, 16, 16]          --
│    └─Empty: 2-491                      [16, 64, 16, 16]          --
│    └─Clamp: 2-492                      [16, 64, 16, 16]          --
├─FusedMaxPoolConv2dBNReLU: 1-37         [16, 64, 8, 8]            (recursive)
│    └─MaxPool2d: 2-493                  [16, 64, 8, 8]            --
│    └─Empty: 2-494                      [16, 64, 8, 8]            --
│    └─Empty: 2-495                      [16, 64, 8, 8]            --
│    └─OutputShiftSqueeze: 2-496         --                        --
│    └─One: 2-497                        [1]                       --
│    └─OutputScale: 2-498                --                        --
│    └─Empty: 2-499                      [64, 64, 3, 3]            --
│    └─Empty: 2-500                      [64, 64, 3, 3]            --
│    └─Empty: 2-501                      [64]                      --
│    └─Empty: 2-502                      [64]                      --
│    └─BatchNorm2d: 2-503                [16, 64, 8, 8]            --
│    └─Scaler: 2-504                     [16, 64, 8, 8]            --
│    └─ReLU: 2-505                       [16, 64, 8, 8]            --
│    └─Empty: 2-506                      [16, 64, 8, 8]            --
│    └─Clamp: 2-507                      [16, 64, 8, 8]            --
├─FusedConv2dBNReLU: 1-38                [16, 64, 8, 8]            (recursive)
│    └─OutputShiftSqueeze: 2-508         --                        --
│    └─One: 2-509                        [1]                       --
│    └─OutputScale: 2-510                --                        --
│    └─Empty: 2-511                      [64, 64, 1, 1]            --
│    └─Empty: 2-512                      [64, 64, 1, 1]            --
│    └─Empty: 2-513                      [64]                      --
│    └─Empty: 2-514                      [64]                      --
│    └─BatchNorm2d: 2-515                [16, 64, 8, 8]            --
│    └─Scaler: 2-516                     [16, 64, 8, 8]            --
│    └─ReLU: 2-517                       [16, 64, 8, 8]            --
│    └─Empty: 2-518                      [16, 64, 8, 8]            --
│    └─Clamp: 2-519                      [16, 64, 8, 8]            --
├─FusedMaxPoolConv2dBNReLU: 1-39         [16, 64, 8, 8]            (recursive)
│    └─MaxPool2d: 2-520                  [16, 64, 8, 8]            --
│    └─Empty: 2-521                      [16, 64, 8, 8]            --
│    └─Empty: 2-522                      [16, 64, 8, 8]            --
│    └─OutputShiftSqueeze: 2-523         --                        --
│    └─One: 2-524                        [1]                       --
│    └─OutputScale: 2-525                --                        --
│    └─Empty: 2-526                      [64, 64, 3, 3]            --
│    └─Empty: 2-527                      [64, 64, 3, 3]            --
│    └─Empty: 2-528                      [64]                      --
│    └─Empty: 2-529                      [64]                      --
│    └─BatchNorm2d: 2-530                [16, 64, 8, 8]            --
│    └─Scaler: 2-531                     [16, 64, 8, 8]            --
│    └─ReLU: 2-532                       [16, 64, 8, 8]            --
│    └─Empty: 2-533                      [16, 64, 8, 8]            --
│    └─Clamp: 2-534                      [16, 64, 8, 8]            --
├─FusedMaxPoolConv2dBNReLU: 1-40         [16, 64, 4, 4]            (recursive)
│    └─MaxPool2d: 2-535                  [16, 64, 4, 4]            --
│    └─Empty: 2-536                      [16, 64, 4, 4]            --
│    └─Empty: 2-537                      [16, 64, 4, 4]            --
│    └─OutputShiftSqueeze: 2-538         --                        --
│    └─One: 2-539                        [1]                       --
│    └─OutputScale: 2-540                --                        --
│    └─Empty: 2-541                      [64, 64, 3, 3]            --
│    └─Empty: 2-542                      [64, 64, 3, 3]            --
│    └─Empty: 2-543                      [64]                      --
│    └─Empty: 2-544                      [64]                      --
│    └─BatchNorm2d: 2-545                [16, 64, 4, 4]            --
│    └─Scaler: 2-546                     [16, 64, 4, 4]            --
│    └─ReLU: 2-547                       [16, 64, 4, 4]            --
│    └─Empty: 2-548                      [16, 64, 4, 4]            --
│    └─Clamp: 2-549                      [16, 64, 4, 4]            --
├─FusedConv2dBNReLU: 1-41                [16, 64, 4, 4]            (recursive)
│    └─OutputShiftSqueeze: 2-550         --                        --
│    └─One: 2-551                        [1]                       --
│    └─OutputScale: 2-552                --                        --
│    └─Empty: 2-553                      [64, 64, 1, 1]            --
│    └─Empty: 2-554                      [64, 64, 1, 1]            --
│    └─Empty: 2-555                      [64]                      --
│    └─Empty: 2-556                      [64]                      --
│    └─BatchNorm2d: 2-557                [16, 64, 4, 4]            --
│    └─Scaler: 2-558                     [16, 64, 4, 4]            --
│    └─ReLU: 2-559                       [16, 64, 4, 4]            --
│    └─Empty: 2-560                      [16, 64, 4, 4]            --
│    └─Clamp: 2-561                      [16, 64, 4, 4]            --
├─FusedMaxPoolConv2dBNReLU: 1-42         [16, 64, 4, 4]            (recursive)
│    └─MaxPool2d: 2-562                  [16, 64, 4, 4]            --
│    └─Empty: 2-563                      [16, 64, 4, 4]            --
│    └─Empty: 2-564                      [16, 64, 4, 4]            --
│    └─OutputShiftSqueeze: 2-565         --                        --
│    └─One: 2-566                        [1]                       --
│    └─OutputScale: 2-567                --                        --
│    └─Empty: 2-568                      [64, 64, 3, 3]            --
│    └─Empty: 2-569                      [64, 64, 3, 3]            --
│    └─Empty: 2-570                      [64]                      --
│    └─Empty: 2-571                      [64]                      --
│    └─BatchNorm2d: 2-572                [16, 64, 4, 4]            --
│    └─Scaler: 2-573                     [16, 64, 4, 4]            --
│    └─ReLU: 2-574                       [16, 64, 4, 4]            --
│    └─Empty: 2-575                      [16, 64, 4, 4]            --
│    └─Clamp: 2-576                      [16, 64, 4, 4]            --
├─FusedConv2dBNReLU: 1-43                [16, 64, 64, 64]          (recursive)
│    └─OutputShiftSqueeze: 2-577         --                        --
│    └─One: 2-578                        [1]                       --
│    └─OutputScale: 2-579                --                        --
│    └─Empty: 2-580                      [64, 48, 1, 1]            --
│    └─Empty: 2-581                      [64, 48, 1, 1]            --
│    └─Empty: 2-582                      [64]                      --
│    └─Empty: 2-583                      [64]                      --
│    └─BatchNorm2d: 2-584                [16, 64, 64, 64]          --
│    └─Scaler: 2-585                     [16, 64, 64, 64]          --
│    └─ReLU: 2-586                       [16, 64, 64, 64]          --
│    └─Empty: 2-587                      [16, 64, 64, 64]          --
│    └─Clamp: 2-588                      [16, 64, 64, 64]          --
├─FusedConv2dBNReLU: 1-44                [16, 64, 64, 64]          (recursive)
│    └─OutputShiftSqueeze: 2-589         --                        --
│    └─One: 2-590                        [1]                       --
│    └─OutputScale: 2-591                --                        --
│    └─Empty: 2-592                      [64, 64, 3, 3]            --
│    └─Empty: 2-593                      [64, 64, 3, 3]            --
│    └─Empty: 2-594                      [64]                      --
│    └─Empty: 2-595                      [64]                      --
│    └─BatchNorm2d: 2-596                [16, 64, 64, 64]          --
│    └─Scaler: 2-597                     [16, 64, 64, 64]          --
│    └─ReLU: 2-598                       [16, 64, 64, 64]          --
│    └─Empty: 2-599                      [16, 64, 64, 64]          --
│    └─Clamp: 2-600                      [16, 64, 64, 64]          --
├─FusedMaxPoolConv2dBNReLU: 1-45         [16, 64, 32, 32]          (recursive)
│    └─MaxPool2d: 2-601                  [16, 64, 32, 32]          --
│    └─Empty: 2-602                      [16, 64, 32, 32]          --
│    └─Empty: 2-603                      [16, 64, 32, 32]          --
│    └─OutputShiftSqueeze: 2-604         --                        --
│    └─One: 2-605                        [1]                       --
│    └─OutputScale: 2-606                --                        --
│    └─Empty: 2-607                      [64, 64, 3, 3]            --
│    └─Empty: 2-608                      [64, 64, 3, 3]            --
│    └─Empty: 2-609                      [64]                      --
│    └─Empty: 2-610                      [64]                      --
│    └─BatchNorm2d: 2-611                [16, 64, 32, 32]          --
│    └─Scaler: 2-612                     [16, 64, 32, 32]          --
│    └─ReLU: 2-613                       [16, 64, 32, 32]          --
│    └─Empty: 2-614                      [16, 64, 32, 32]          --
│    └─Clamp: 2-615                      [16, 64, 32, 32]          --
├─FusedConv2dBNReLU: 1-46                [16, 64, 32, 32]          (recursive)
│    └─OutputShiftSqueeze: 2-616         --                        --
│    └─One: 2-617                        [1]                       --
│    └─OutputScale: 2-618                --                        --
│    └─Empty: 2-619                      [64, 64, 1, 1]            --
│    └─Empty: 2-620                      [64, 64, 1, 1]            --
│    └─Empty: 2-621                      [64]                      --
│    └─Empty: 2-622                      [64]                      --
│    └─BatchNorm2d: 2-623                [16, 64, 32, 32]          --
│    └─Scaler: 2-624                     [16, 64, 32, 32]          --
│    └─ReLU: 2-625                       [16, 64, 32, 32]          --
│    └─Empty: 2-626                      [16, 64, 32, 32]          --
│    └─Clamp: 2-627                      [16, 64, 32, 32]          --
├─FusedMaxPoolConv2dBNReLU: 1-47         [16, 64, 32, 32]          (recursive)
│    └─MaxPool2d: 2-628                  [16, 64, 32, 32]          --
│    └─Empty: 2-629                      [16, 64, 32, 32]          --
│    └─Empty: 2-630                      [16, 64, 32, 32]          --
│    └─OutputShiftSqueeze: 2-631         --                        --
│    └─One: 2-632                        [1]                       --
│    └─OutputScale: 2-633                --                        --
│    └─Empty: 2-634                      [64, 64, 3, 3]            --
│    └─Empty: 2-635                      [64, 64, 3, 3]            --
│    └─Empty: 2-636                      [64]                      --
│    └─Empty: 2-637                      [64]                      --
│    └─BatchNorm2d: 2-638                [16, 64, 32, 32]          --
│    └─Scaler: 2-639                     [16, 64, 32, 32]          --
│    └─ReLU: 2-640                       [16, 64, 32, 32]          --
│    └─Empty: 2-641                      [16, 64, 32, 32]          --
│    └─Clamp: 2-642                      [16, 64, 32, 32]          --
├─FusedMaxPoolConv2dBNReLU: 1-48         [16, 64, 16, 16]          (recursive)
│    └─MaxPool2d: 2-643                  [16, 64, 16, 16]          --
│    └─Empty: 2-644                      [16, 64, 16, 16]          --
│    └─Empty: 2-645                      [16, 64, 16, 16]          --
│    └─OutputShiftSqueeze: 2-646         --                        --
│    └─One: 2-647                        [1]                       --
│    └─OutputScale: 2-648                --                        --
│    └─Empty: 2-649                      [64, 64, 3, 3]            --
│    └─Empty: 2-650                      [64, 64, 3, 3]            --
│    └─Empty: 2-651                      [64]                      --
│    └─Empty: 2-652                      [64]                      --
│    └─BatchNorm2d: 2-653                [16, 64, 16, 16]          --
│    └─Scaler: 2-654                     [16, 64, 16, 16]          --
│    └─ReLU: 2-655                       [16, 64, 16, 16]          --
│    └─Empty: 2-656                      [16, 64, 16, 16]          --
│    └─Clamp: 2-657                      [16, 64, 16, 16]          --
├─FusedConv2dBNReLU: 1-49                [16, 64, 16, 16]          (recursive)
│    └─OutputShiftSqueeze: 2-658         --                        --
│    └─One: 2-659                        [1]                       --
│    └─OutputScale: 2-660                --                        --
│    └─Empty: 2-661                      [64, 64, 1, 1]            --
│    └─Empty: 2-662                      [64, 64, 1, 1]            --
│    └─Empty: 2-663                      [64]                      --
│    └─Empty: 2-664                      [64]                      --
│    └─BatchNorm2d: 2-665                [16, 64, 16, 16]          --
│    └─Scaler: 2-666                     [16, 64, 16, 16]          --
│    └─ReLU: 2-667                       [16, 64, 16, 16]          --
│    └─Empty: 2-668                      [16, 64, 16, 16]          --
│    └─Clamp: 2-669                      [16, 64, 16, 16]          --
├─FusedMaxPoolConv2dBNReLU: 1-50         [16, 64, 16, 16]          (recursive)
│    └─MaxPool2d: 2-670                  [16, 64, 16, 16]          --
│    └─Empty: 2-671                      [16, 64, 16, 16]          --
│    └─Empty: 2-672                      [16, 64, 16, 16]          --
│    └─OutputShiftSqueeze: 2-673         --                        --
│    └─One: 2-674                        [1]                       --
│    └─OutputScale: 2-675                --                        --
│    └─Empty: 2-676                      [64, 64, 3, 3]            --
│    └─Empty: 2-677                      [64, 64, 3, 3]            --
│    └─Empty: 2-678                      [64]                      --
│    └─Empty: 2-679                      [64]                      --
│    └─BatchNorm2d: 2-680                [16, 64, 16, 16]          --
│    └─Scaler: 2-681                     [16, 64, 16, 16]          --
│    └─ReLU: 2-682                       [16, 64, 16, 16]          --
│    └─Empty: 2-683                      [16, 64, 16, 16]          --
│    └─Clamp: 2-684                      [16, 64, 16, 16]          --
├─FusedMaxPoolConv2dBNReLU: 1-51         [16, 64, 8, 8]            (recursive)
│    └─MaxPool2d: 2-685                  [16, 64, 8, 8]            --
│    └─Empty: 2-686                      [16, 64, 8, 8]            --
│    └─Empty: 2-687                      [16, 64, 8, 8]            --
│    └─OutputShiftSqueeze: 2-688         --                        --
│    └─One: 2-689                        [1]                       --
│    └─OutputScale: 2-690                --                        --
│    └─Empty: 2-691                      [64, 64, 3, 3]            --
│    └─Empty: 2-692                      [64, 64, 3, 3]            --
│    └─Empty: 2-693                      [64]                      --
│    └─Empty: 2-694                      [64]                      --
│    └─BatchNorm2d: 2-695                [16, 64, 8, 8]            --
│    └─Scaler: 2-696                     [16, 64, 8, 8]            --
│    └─ReLU: 2-697                       [16, 64, 8, 8]            --
│    └─Empty: 2-698                      [16, 64, 8, 8]            --
│    └─Clamp: 2-699                      [16, 64, 8, 8]            --
├─FusedConv2dBNReLU: 1-52                [16, 64, 8, 8]            (recursive)
│    └─OutputShiftSqueeze: 2-700         --                        --
│    └─One: 2-701                        [1]                       --
│    └─OutputScale: 2-702                --                        --
│    └─Empty: 2-703                      [64, 64, 1, 1]            --
│    └─Empty: 2-704                      [64, 64, 1, 1]            --
│    └─Empty: 2-705                      [64]                      --
│    └─Empty: 2-706                      [64]                      --
│    └─BatchNorm2d: 2-707                [16, 64, 8, 8]            --
│    └─Scaler: 2-708                     [16, 64, 8, 8]            --
│    └─ReLU: 2-709                       [16, 64, 8, 8]            --
│    └─Empty: 2-710                      [16, 64, 8, 8]            --
│    └─Clamp: 2-711                      [16, 64, 8, 8]            --
├─FusedMaxPoolConv2dBNReLU: 1-53         [16, 64, 8, 8]            (recursive)
│    └─MaxPool2d: 2-712                  [16, 64, 8, 8]            --
│    └─Empty: 2-713                      [16, 64, 8, 8]            --
│    └─Empty: 2-714                      [16, 64, 8, 8]            --
│    └─OutputShiftSqueeze: 2-715         --                        --
│    └─One: 2-716                        [1]                       --
│    └─OutputScale: 2-717                --                        --
│    └─Empty: 2-718                      [64, 64, 3, 3]            --
│    └─Empty: 2-719                      [64, 64, 3, 3]            --
│    └─Empty: 2-720                      [64]                      --
│    └─Empty: 2-721                      [64]                      --
│    └─BatchNorm2d: 2-722                [16, 64, 8, 8]            --
│    └─Scaler: 2-723                     [16, 64, 8, 8]            --
│    └─ReLU: 2-724                       [16, 64, 8, 8]            --
│    └─Empty: 2-725                      [16, 64, 8, 8]            --
│    └─Clamp: 2-726                      [16, 64, 8, 8]            --
├─FusedMaxPoolConv2dBNReLU: 1-54         [16, 64, 4, 4]            (recursive)
│    └─MaxPool2d: 2-727                  [16, 64, 4, 4]            --
│    └─Empty: 2-728                      [16, 64, 4, 4]            --
│    └─Empty: 2-729                      [16, 64, 4, 4]            --
│    └─OutputShiftSqueeze: 2-730         --                        --
│    └─One: 2-731                        [1]                       --
│    └─OutputScale: 2-732                --                        --
│    └─Empty: 2-733                      [64, 64, 3, 3]            --
│    └─Empty: 2-734                      [64, 64, 3, 3]            --
│    └─Empty: 2-735                      [64]                      --
│    └─Empty: 2-736                      [64]                      --
│    └─BatchNorm2d: 2-737                [16, 64, 4, 4]            --
│    └─Scaler: 2-738                     [16, 64, 4, 4]            --
│    └─ReLU: 2-739                       [16, 64, 4, 4]            --
│    └─Empty: 2-740                      [16, 64, 4, 4]            --
│    └─Clamp: 2-741                      [16, 64, 4, 4]            --
├─FusedConv2dBNReLU: 1-55                [16, 64, 4, 4]            (recursive)
│    └─OutputShiftSqueeze: 2-742         --                        --
│    └─One: 2-743                        [1]                       --
│    └─OutputScale: 2-744                --                        --
│    └─Empty: 2-745                      [64, 64, 1, 1]            --
│    └─Empty: 2-746                      [64, 64, 1, 1]            --
│    └─Empty: 2-747                      [64]                      --
│    └─Empty: 2-748                      [64]                      --
│    └─BatchNorm2d: 2-749                [16, 64, 4, 4]            --
│    └─Scaler: 2-750                     [16, 64, 4, 4]            --
│    └─ReLU: 2-751                       [16, 64, 4, 4]            --
│    └─Empty: 2-752                      [16, 64, 4, 4]            --
│    └─Clamp: 2-753                      [16, 64, 4, 4]            --
├─FusedMaxPoolConv2dBNReLU: 1-56         [16, 64, 4, 4]            (recursive)
│    └─MaxPool2d: 2-754                  [16, 64, 4, 4]            --
│    └─Empty: 2-755                      [16, 64, 4, 4]            --
│    └─Empty: 2-756                      [16, 64, 4, 4]            --
│    └─OutputShiftSqueeze: 2-757         --                        --
│    └─One: 2-758                        [1]                       --
│    └─OutputScale: 2-759                --                        --
│    └─Empty: 2-760                      [64, 64, 3, 3]            --
│    └─Empty: 2-761                      [64, 64, 3, 3]            --
│    └─Empty: 2-762                      [64]                      --
│    └─Empty: 2-763                      [64]                      --
│    └─BatchNorm2d: 2-764                [16, 64, 4, 4]            --
│    └─Scaler: 2-765                     [16, 64, 4, 4]            --
│    └─ReLU: 2-766                       [16, 64, 4, 4]            --
│    └─Empty: 2-767                      [16, 64, 4, 4]            --
│    └─Clamp: 2-768                      [16, 64, 4, 4]            --
├─FusedConv2dBNReLU: 1-57                [16, 64, 64, 64]          (recursive)
│    └─OutputShiftSqueeze: 2-769         --                        --
│    └─One: 2-770                        [1]                       --
│    └─OutputScale: 2-771                --                        --
│    └─Empty: 2-772                      [64, 48, 1, 1]            --
│    └─Empty: 2-773                      [64, 48, 1, 1]            --
│    └─Empty: 2-774                      [64]                      --
│    └─Empty: 2-775                      [64]                      --
│    └─BatchNorm2d: 2-776                [16, 64, 64, 64]          --
│    └─Scaler: 2-777                     [16, 64, 64, 64]          --
│    └─ReLU: 2-778                       [16, 64, 64, 64]          --
│    └─Empty: 2-779                      [16, 64, 64, 64]          --
│    └─Clamp: 2-780                      [16, 64, 64, 64]          --
├─FusedConv2dBNReLU: 1-58                [16, 64, 64, 64]          (recursive)
│    └─OutputShiftSqueeze: 2-781         --                        --
│    └─One: 2-782                        [1]                       --
│    └─OutputScale: 2-783                --                        --
│    └─Empty: 2-784                      [64, 64, 3, 3]            --
│    └─Empty: 2-785                      [64, 64, 3, 3]            --
│    └─Empty: 2-786                      [64]                      --
│    └─Empty: 2-787                      [64]                      --
│    └─BatchNorm2d: 2-788                [16, 64, 64, 64]          --
│    └─Scaler: 2-789                     [16, 64, 64, 64]          --
│    └─ReLU: 2-790                       [16, 64, 64, 64]          --
│    └─Empty: 2-791                      [16, 64, 64, 64]          --
│    └─Clamp: 2-792                      [16, 64, 64, 64]          --
├─FusedMaxPoolConv2dBNReLU: 1-59         [16, 64, 32, 32]          (recursive)
│    └─MaxPool2d: 2-793                  [16, 64, 32, 32]          --
│    └─Empty: 2-794                      [16, 64, 32, 32]          --
│    └─Empty: 2-795                      [16, 64, 32, 32]          --
│    └─OutputShiftSqueeze: 2-796         --                        --
│    └─One: 2-797                        [1]                       --
│    └─OutputScale: 2-798                --                        --
│    └─Empty: 2-799                      [64, 64, 3, 3]            --
│    └─Empty: 2-800                      [64, 64, 3, 3]            --
│    └─Empty: 2-801                      [64]                      --
│    └─Empty: 2-802                      [64]                      --
│    └─BatchNorm2d: 2-803                [16, 64, 32, 32]          --
│    └─Scaler: 2-804                     [16, 64, 32, 32]          --
│    └─ReLU: 2-805                       [16, 64, 32, 32]          --
│    └─Empty: 2-806                      [16, 64, 32, 32]          --
│    └─Clamp: 2-807                      [16, 64, 32, 32]          --
├─FusedConv2dBNReLU: 1-60                [16, 64, 32, 32]          (recursive)
│    └─OutputShiftSqueeze: 2-808         --                        --
│    └─One: 2-809                        [1]                       --
│    └─OutputScale: 2-810                --                        --
│    └─Empty: 2-811                      [64, 64, 1, 1]            --
│    └─Empty: 2-812                      [64, 64, 1, 1]            --
│    └─Empty: 2-813                      [64]                      --
│    └─Empty: 2-814                      [64]                      --
│    └─BatchNorm2d: 2-815                [16, 64, 32, 32]          --
│    └─Scaler: 2-816                     [16, 64, 32, 32]          --
│    └─ReLU: 2-817                       [16, 64, 32, 32]          --
│    └─Empty: 2-818                      [16, 64, 32, 32]          --
│    └─Clamp: 2-819                      [16, 64, 32, 32]          --
├─FusedMaxPoolConv2dBNReLU: 1-61         [16, 64, 32, 32]          (recursive)
│    └─MaxPool2d: 2-820                  [16, 64, 32, 32]          --
│    └─Empty: 2-821                      [16, 64, 32, 32]          --
│    └─Empty: 2-822                      [16, 64, 32, 32]          --
│    └─OutputShiftSqueeze: 2-823         --                        --
│    └─One: 2-824                        [1]                       --
│    └─OutputScale: 2-825                --                        --
│    └─Empty: 2-826                      [64, 64, 3, 3]            --
│    └─Empty: 2-827                      [64, 64, 3, 3]            --
│    └─Empty: 2-828                      [64]                      --
│    └─Empty: 2-829                      [64]                      --
│    └─BatchNorm2d: 2-830                [16, 64, 32, 32]          --
│    └─Scaler: 2-831                     [16, 64, 32, 32]          --
│    └─ReLU: 2-832                       [16, 64, 32, 32]          --
│    └─Empty: 2-833                      [16, 64, 32, 32]          --
│    └─Clamp: 2-834                      [16, 64, 32, 32]          --
├─FusedMaxPoolConv2dBNReLU: 1-62         [16, 64, 16, 16]          (recursive)
│    └─MaxPool2d: 2-835                  [16, 64, 16, 16]          --
│    └─Empty: 2-836                      [16, 64, 16, 16]          --
│    └─Empty: 2-837                      [16, 64, 16, 16]          --
│    └─OutputShiftSqueeze: 2-838         --                        --
│    └─One: 2-839                        [1]                       --
│    └─OutputScale: 2-840                --                        --
│    └─Empty: 2-841                      [64, 64, 3, 3]            --
│    └─Empty: 2-842                      [64, 64, 3, 3]            --
│    └─Empty: 2-843                      [64]                      --
│    └─Empty: 2-844                      [64]                      --
│    └─BatchNorm2d: 2-845                [16, 64, 16, 16]          --
│    └─Scaler: 2-846                     [16, 64, 16, 16]          --
│    └─ReLU: 2-847                       [16, 64, 16, 16]          --
│    └─Empty: 2-848                      [16, 64, 16, 16]          --
│    └─Clamp: 2-849                      [16, 64, 16, 16]          --
├─FusedConv2dBNReLU: 1-63                [16, 64, 16, 16]          (recursive)
│    └─OutputShiftSqueeze: 2-850         --                        --
│    └─One: 2-851                        [1]                       --
│    └─OutputScale: 2-852                --                        --
│    └─Empty: 2-853                      [64, 64, 1, 1]            --
│    └─Empty: 2-854                      [64, 64, 1, 1]            --
│    └─Empty: 2-855                      [64]                      --
│    └─Empty: 2-856                      [64]                      --
│    └─BatchNorm2d: 2-857                [16, 64, 16, 16]          --
│    └─Scaler: 2-858                     [16, 64, 16, 16]          --
│    └─ReLU: 2-859                       [16, 64, 16, 16]          --
│    └─Empty: 2-860                      [16, 64, 16, 16]          --
│    └─Clamp: 2-861                      [16, 64, 16, 16]          --
├─FusedMaxPoolConv2dBNReLU: 1-64         [16, 64, 16, 16]          (recursive)
│    └─MaxPool2d: 2-862                  [16, 64, 16, 16]          --
│    └─Empty: 2-863                      [16, 64, 16, 16]          --
│    └─Empty: 2-864                      [16, 64, 16, 16]          --
│    └─OutputShiftSqueeze: 2-865         --                        --
│    └─One: 2-866                        [1]                       --
│    └─OutputScale: 2-867                --                        --
│    └─Empty: 2-868                      [64, 64, 3, 3]            --
│    └─Empty: 2-869                      [64, 64, 3, 3]            --
│    └─Empty: 2-870                      [64]                      --
│    └─Empty: 2-871                      [64]                      --
│    └─BatchNorm2d: 2-872                [16, 64, 16, 16]          --
│    └─Scaler: 2-873                     [16, 64, 16, 16]          --
│    └─ReLU: 2-874                       [16, 64, 16, 16]          --
│    └─Empty: 2-875                      [16, 64, 16, 16]          --
│    └─Clamp: 2-876                      [16, 64, 16, 16]          --
├─FusedMaxPoolConv2dBNReLU: 1-65         [16, 64, 8, 8]            (recursive)
│    └─MaxPool2d: 2-877                  [16, 64, 8, 8]            --
│    └─Empty: 2-878                      [16, 64, 8, 8]            --
│    └─Empty: 2-879                      [16, 64, 8, 8]            --
│    └─OutputShiftSqueeze: 2-880         --                        --
│    └─One: 2-881                        [1]                       --
│    └─OutputScale: 2-882                --                        --
│    └─Empty: 2-883                      [64, 64, 3, 3]            --
│    └─Empty: 2-884                      [64, 64, 3, 3]            --
│    └─Empty: 2-885                      [64]                      --
│    └─Empty: 2-886                      [64]                      --
│    └─BatchNorm2d: 2-887                [16, 64, 8, 8]            --
│    └─Scaler: 2-888                     [16, 64, 8, 8]            --
│    └─ReLU: 2-889                       [16, 64, 8, 8]            --
│    └─Empty: 2-890                      [16, 64, 8, 8]            --
│    └─Clamp: 2-891                      [16, 64, 8, 8]            --
├─FusedConv2dBNReLU: 1-66                [16, 64, 8, 8]            (recursive)
│    └─OutputShiftSqueeze: 2-892         --                        --
│    └─One: 2-893                        [1]                       --
│    └─OutputScale: 2-894                --                        --
│    └─Empty: 2-895                      [64, 64, 1, 1]            --
│    └─Empty: 2-896                      [64, 64, 1, 1]            --
│    └─Empty: 2-897                      [64]                      --
│    └─Empty: 2-898                      [64]                      --
│    └─BatchNorm2d: 2-899                [16, 64, 8, 8]            --
│    └─Scaler: 2-900                     [16, 64, 8, 8]            --
│    └─ReLU: 2-901                       [16, 64, 8, 8]            --
│    └─Empty: 2-902                      [16, 64, 8, 8]            --
│    └─Clamp: 2-903                      [16, 64, 8, 8]            --
├─FusedMaxPoolConv2dBNReLU: 1-67         [16, 64, 8, 8]            (recursive)
│    └─MaxPool2d: 2-904                  [16, 64, 8, 8]            --
│    └─Empty: 2-905                      [16, 64, 8, 8]            --
│    └─Empty: 2-906                      [16, 64, 8, 8]            --
│    └─OutputShiftSqueeze: 2-907         --                        --
│    └─One: 2-908                        [1]                       --
│    └─OutputScale: 2-909                --                        --
│    └─Empty: 2-910                      [64, 64, 3, 3]            --
│    └─Empty: 2-911                      [64, 64, 3, 3]            --
│    └─Empty: 2-912                      [64]                      --
│    └─Empty: 2-913                      [64]                      --
│    └─BatchNorm2d: 2-914                [16, 64, 8, 8]            --
│    └─Scaler: 2-915                     [16, 64, 8, 8]            --
│    └─ReLU: 2-916                       [16, 64, 8, 8]            --
│    └─Empty: 2-917                      [16, 64, 8, 8]            --
│    └─Clamp: 2-918                      [16, 64, 8, 8]            --
├─FusedMaxPoolConv2dBNReLU: 1-68         [16, 64, 4, 4]            (recursive)
│    └─MaxPool2d: 2-919                  [16, 64, 4, 4]            --
│    └─Empty: 2-920                      [16, 64, 4, 4]            --
│    └─Empty: 2-921                      [16, 64, 4, 4]            --
│    └─OutputShiftSqueeze: 2-922         --                        --
│    └─One: 2-923                        [1]                       --
│    └─OutputScale: 2-924                --                        --
│    └─Empty: 2-925                      [64, 64, 3, 3]            --
│    └─Empty: 2-926                      [64, 64, 3, 3]            --
│    └─Empty: 2-927                      [64]                      --
│    └─Empty: 2-928                      [64]                      --
│    └─BatchNorm2d: 2-929                [16, 64, 4, 4]            --
│    └─Scaler: 2-930                     [16, 64, 4, 4]            --
│    └─ReLU: 2-931                       [16, 64, 4, 4]            --
│    └─Empty: 2-932                      [16, 64, 4, 4]            --
│    └─Clamp: 2-933                      [16, 64, 4, 4]            --
├─FusedConv2dBNReLU: 1-69                [16, 64, 4, 4]            (recursive)
│    └─OutputShiftSqueeze: 2-934         --                        --
│    └─One: 2-935                        [1]                       --
│    └─OutputScale: 2-936                --                        --
│    └─Empty: 2-937                      [64, 64, 1, 1]            --
│    └─Empty: 2-938                      [64, 64, 1, 1]            --
│    └─Empty: 2-939                      [64]                      --
│    └─Empty: 2-940                      [64]                      --
│    └─BatchNorm2d: 2-941                [16, 64, 4, 4]            --
│    └─Scaler: 2-942                     [16, 64, 4, 4]            --
│    └─ReLU: 2-943                       [16, 64, 4, 4]            --
│    └─Empty: 2-944                      [16, 64, 4, 4]            --
│    └─Clamp: 2-945                      [16, 64, 4, 4]            --
├─FusedMaxPoolConv2dBNReLU: 1-70         [16, 64, 4, 4]            (recursive)
│    └─MaxPool2d: 2-946                  [16, 64, 4, 4]            --
│    └─Empty: 2-947                      [16, 64, 4, 4]            --
│    └─Empty: 2-948                      [16, 64, 4, 4]            --
│    └─OutputShiftSqueeze: 2-949         --                        --
│    └─One: 2-950                        [1]                       --
│    └─OutputScale: 2-951                --                        --
│    └─Empty: 2-952                      [64, 64, 3, 3]            --
│    └─Empty: 2-953                      [64, 64, 3, 3]            --
│    └─Empty: 2-954                      [64]                      --
│    └─Empty: 2-955                      [64]                      --
│    └─BatchNorm2d: 2-956                [16, 64, 4, 4]            --
│    └─Scaler: 2-957                     [16, 64, 4, 4]            --
│    └─ReLU: 2-958                       [16, 64, 4, 4]            --
│    └─Empty: 2-959                      [16, 64, 4, 4]            --
│    └─Clamp: 2-960                      [16, 64, 4, 4]            --
├─FusedConv2dBNReLU: 1-71                [16, 64, 64, 64]          (recursive)
│    └─OutputShiftSqueeze: 2-961         --                        --
│    └─One: 2-962                        [1]                       --
│    └─OutputScale: 2-963                --                        --
│    └─Empty: 2-964                      [64, 48, 1, 1]            --
│    └─Empty: 2-965                      [64, 48, 1, 1]            --
│    └─Empty: 2-966                      [64]                      --
│    └─Empty: 2-967                      [64]                      --
│    └─BatchNorm2d: 2-968                [16, 64, 64, 64]          --
│    └─Scaler: 2-969                     [16, 64, 64, 64]          --
│    └─ReLU: 2-970                       [16, 64, 64, 64]          --
│    └─Empty: 2-971                      [16, 64, 64, 64]          --
│    └─Clamp: 2-972                      [16, 64, 64, 64]          --
├─FusedConv2dBNReLU: 1-72                [16, 64, 64, 64]          (recursive)
│    └─OutputShiftSqueeze: 2-973         --                        --
│    └─One: 2-974                        [1]                       --
│    └─OutputScale: 2-975                --                        --
│    └─Empty: 2-976                      [64, 64, 3, 3]            --
│    └─Empty: 2-977                      [64, 64, 3, 3]            --
│    └─Empty: 2-978                      [64]                      --
│    └─Empty: 2-979                      [64]                      --
│    └─BatchNorm2d: 2-980                [16, 64, 64, 64]          --
│    └─Scaler: 2-981                     [16, 64, 64, 64]          --
│    └─ReLU: 2-982                       [16, 64, 64, 64]          --
│    └─Empty: 2-983                      [16, 64, 64, 64]          --
│    └─Clamp: 2-984                      [16, 64, 64, 64]          --
├─FusedMaxPoolConv2dBNReLU: 1-73         [16, 64, 32, 32]          (recursive)
│    └─MaxPool2d: 2-985                  [16, 64, 32, 32]          --
│    └─Empty: 2-986                      [16, 64, 32, 32]          --
│    └─Empty: 2-987                      [16, 64, 32, 32]          --
│    └─OutputShiftSqueeze: 2-988         --                        --
│    └─One: 2-989                        [1]                       --
│    └─OutputScale: 2-990                --                        --
│    └─Empty: 2-991                      [64, 64, 3, 3]            --
│    └─Empty: 2-992                      [64, 64, 3, 3]            --
│    └─Empty: 2-993                      [64]                      --
│    └─Empty: 2-994                      [64]                      --
│    └─BatchNorm2d: 2-995                [16, 64, 32, 32]          --
│    └─Scaler: 2-996                     [16, 64, 32, 32]          --
│    └─ReLU: 2-997                       [16, 64, 32, 32]          --
│    └─Empty: 2-998                      [16, 64, 32, 32]          --
│    └─Clamp: 2-999                      [16, 64, 32, 32]          --
├─FusedConv2dBNReLU: 1-74                [16, 64, 32, 32]          (recursive)
│    └─OutputShiftSqueeze: 2-1000        --                        --
│    └─One: 2-1001                       [1]                       --
│    └─OutputScale: 2-1002               --                        --
│    └─Empty: 2-1003                     [64, 64, 1, 1]            --
│    └─Empty: 2-1004                     [64, 64, 1, 1]            --
│    └─Empty: 2-1005                     [64]                      --
│    └─Empty: 2-1006                     [64]                      --
│    └─BatchNorm2d: 2-1007               [16, 64, 32, 32]          --
│    └─Scaler: 2-1008                    [16, 64, 32, 32]          --
│    └─ReLU: 2-1009                      [16, 64, 32, 32]          --
│    └─Empty: 2-1010                     [16, 64, 32, 32]          --
│    └─Clamp: 2-1011                     [16, 64, 32, 32]          --
├─FusedMaxPoolConv2dBNReLU: 1-75         [16, 64, 32, 32]          (recursive)
│    └─MaxPool2d: 2-1012                 [16, 64, 32, 32]          --
│    └─Empty: 2-1013                     [16, 64, 32, 32]          --
│    └─Empty: 2-1014                     [16, 64, 32, 32]          --
│    └─OutputShiftSqueeze: 2-1015        --                        --
│    └─One: 2-1016                       [1]                       --
│    └─OutputScale: 2-1017               --                        --
│    └─Empty: 2-1018                     [64, 64, 3, 3]            --
│    └─Empty: 2-1019                     [64, 64, 3, 3]            --
│    └─Empty: 2-1020                     [64]                      --
│    └─Empty: 2-1021                     [64]                      --
│    └─BatchNorm2d: 2-1022               [16, 64, 32, 32]          --
│    └─Scaler: 2-1023                    [16, 64, 32, 32]          --
│    └─ReLU: 2-1024                      [16, 64, 32, 32]          --
│    └─Empty: 2-1025                     [16, 64, 32, 32]          --
│    └─Clamp: 2-1026                     [16, 64, 32, 32]          --
├─FusedMaxPoolConv2dBNReLU: 1-76         [16, 64, 16, 16]          (recursive)
│    └─MaxPool2d: 2-1027                 [16, 64, 16, 16]          --
│    └─Empty: 2-1028                     [16, 64, 16, 16]          --
│    └─Empty: 2-1029                     [16, 64, 16, 16]          --
│    └─OutputShiftSqueeze: 2-1030        --                        --
│    └─One: 2-1031                       [1]                       --
│    └─OutputScale: 2-1032               --                        --
│    └─Empty: 2-1033                     [64, 64, 3, 3]            --
│    └─Empty: 2-1034                     [64, 64, 3, 3]            --
│    └─Empty: 2-1035                     [64]                      --
│    └─Empty: 2-1036                     [64]                      --
│    └─BatchNorm2d: 2-1037               [16, 64, 16, 16]          --
│    └─Scaler: 2-1038                    [16, 64, 16, 16]          --
│    └─ReLU: 2-1039                      [16, 64, 16, 16]          --
│    └─Empty: 2-1040                     [16, 64, 16, 16]          --
│    └─Clamp: 2-1041                     [16, 64, 16, 16]          --
├─FusedConv2dBNReLU: 1-77                [16, 64, 16, 16]          (recursive)
│    └─OutputShiftSqueeze: 2-1042        --                        --
│    └─One: 2-1043                       [1]                       --
│    └─OutputScale: 2-1044               --                        --
│    └─Empty: 2-1045                     [64, 64, 1, 1]            --
│    └─Empty: 2-1046                     [64, 64, 1, 1]            --
│    └─Empty: 2-1047                     [64]                      --
│    └─Empty: 2-1048                     [64]                      --
│    └─BatchNorm2d: 2-1049               [16, 64, 16, 16]          --
│    └─Scaler: 2-1050                    [16, 64, 16, 16]          --
│    └─ReLU: 2-1051                      [16, 64, 16, 16]          --
│    └─Empty: 2-1052                     [16, 64, 16, 16]          --
│    └─Clamp: 2-1053                     [16, 64, 16, 16]          --
├─FusedMaxPoolConv2dBNReLU: 1-78         [16, 64, 16, 16]          (recursive)
│    └─MaxPool2d: 2-1054                 [16, 64, 16, 16]          --
│    └─Empty: 2-1055                     [16, 64, 16, 16]          --
│    └─Empty: 2-1056                     [16, 64, 16, 16]          --
│    └─OutputShiftSqueeze: 2-1057        --                        --
│    └─One: 2-1058                       [1]                       --
│    └─OutputScale: 2-1059               --                        --
│    └─Empty: 2-1060                     [64, 64, 3, 3]            --
│    └─Empty: 2-1061                     [64, 64, 3, 3]            --
│    └─Empty: 2-1062                     [64]                      --
│    └─Empty: 2-1063                     [64]                      --
│    └─BatchNorm2d: 2-1064               [16, 64, 16, 16]          --
│    └─Scaler: 2-1065                    [16, 64, 16, 16]          --
│    └─ReLU: 2-1066                      [16, 64, 16, 16]          --
│    └─Empty: 2-1067                     [16, 64, 16, 16]          --
│    └─Clamp: 2-1068                     [16, 64, 16, 16]          --
├─FusedMaxPoolConv2dBNReLU: 1-79         [16, 64, 8, 8]            (recursive)
│    └─MaxPool2d: 2-1069                 [16, 64, 8, 8]            --
│    └─Empty: 2-1070                     [16, 64, 8, 8]            --
│    └─Empty: 2-1071                     [16, 64, 8, 8]            --
│    └─OutputShiftSqueeze: 2-1072        --                        --
│    └─One: 2-1073                       [1]                       --
│    └─OutputScale: 2-1074               --                        --
│    └─Empty: 2-1075                     [64, 64, 3, 3]            --
│    └─Empty: 2-1076                     [64, 64, 3, 3]            --
│    └─Empty: 2-1077                     [64]                      --
│    └─Empty: 2-1078                     [64]                      --
│    └─BatchNorm2d: 2-1079               [16, 64, 8, 8]            --
│    └─Scaler: 2-1080                    [16, 64, 8, 8]            --
│    └─ReLU: 2-1081                      [16, 64, 8, 8]            --
│    └─Empty: 2-1082                     [16, 64, 8, 8]            --
│    └─Clamp: 2-1083                     [16, 64, 8, 8]            --
├─FusedConv2dBNReLU: 1-80                [16, 64, 8, 8]            (recursive)
│    └─OutputShiftSqueeze: 2-1084        --                        --
│    └─One: 2-1085                       [1]                       --
│    └─OutputScale: 2-1086               --                        --
│    └─Empty: 2-1087                     [64, 64, 1, 1]            --
│    └─Empty: 2-1088                     [64, 64, 1, 1]            --
│    └─Empty: 2-1089                     [64]                      --
│    └─Empty: 2-1090                     [64]                      --
│    └─BatchNorm2d: 2-1091               [16, 64, 8, 8]            --
│    └─Scaler: 2-1092                    [16, 64, 8, 8]            --
│    └─ReLU: 2-1093                      [16, 64, 8, 8]            --
│    └─Empty: 2-1094                     [16, 64, 8, 8]            --
│    └─Clamp: 2-1095                     [16, 64, 8, 8]            --
├─FusedMaxPoolConv2dBNReLU: 1-81         [16, 64, 8, 8]            (recursive)
│    └─MaxPool2d: 2-1096                 [16, 64, 8, 8]            --
│    └─Empty: 2-1097                     [16, 64, 8, 8]            --
│    └─Empty: 2-1098                     [16, 64, 8, 8]            --
│    └─OutputShiftSqueeze: 2-1099        --                        --
│    └─One: 2-1100                       [1]                       --
│    └─OutputScale: 2-1101               --                        --
│    └─Empty: 2-1102                     [64, 64, 3, 3]            --
│    └─Empty: 2-1103                     [64, 64, 3, 3]            --
│    └─Empty: 2-1104                     [64]                      --
│    └─Empty: 2-1105                     [64]                      --
│    └─BatchNorm2d: 2-1106               [16, 64, 8, 8]            --
│    └─Scaler: 2-1107                    [16, 64, 8, 8]            --
│    └─ReLU: 2-1108                      [16, 64, 8, 8]            --
│    └─Empty: 2-1109                     [16, 64, 8, 8]            --
│    └─Clamp: 2-1110                     [16, 64, 8, 8]            --
├─FusedMaxPoolConv2dBNReLU: 1-82         [16, 64, 4, 4]            (recursive)
│    └─MaxPool2d: 2-1111                 [16, 64, 4, 4]            --
│    └─Empty: 2-1112                     [16, 64, 4, 4]            --
│    └─Empty: 2-1113                     [16, 64, 4, 4]            --
│    └─OutputShiftSqueeze: 2-1114        --                        --
│    └─One: 2-1115                       [1]                       --
│    └─OutputScale: 2-1116               --                        --
│    └─Empty: 2-1117                     [64, 64, 3, 3]            --
│    └─Empty: 2-1118                     [64, 64, 3, 3]            --
│    └─Empty: 2-1119                     [64]                      --
│    └─Empty: 2-1120                     [64]                      --
│    └─BatchNorm2d: 2-1121               [16, 64, 4, 4]            --
│    └─Scaler: 2-1122                    [16, 64, 4, 4]            --
│    └─ReLU: 2-1123                      [16, 64, 4, 4]            --
│    └─Empty: 2-1124                     [16, 64, 4, 4]            --
│    └─Clamp: 2-1125                     [16, 64, 4, 4]            --
├─FusedConv2dBNReLU: 1-83                [16, 64, 4, 4]            (recursive)
│    └─OutputShiftSqueeze: 2-1126        --                        --
│    └─One: 2-1127                       [1]                       --
│    └─OutputScale: 2-1128               --                        --
│    └─Empty: 2-1129                     [64, 64, 1, 1]            --
│    └─Empty: 2-1130                     [64, 64, 1, 1]            --
│    └─Empty: 2-1131                     [64]                      --
│    └─Empty: 2-1132                     [64]                      --
│    └─BatchNorm2d: 2-1133               [16, 64, 4, 4]            --
│    └─Scaler: 2-1134                    [16, 64, 4, 4]            --
│    └─ReLU: 2-1135                      [16, 64, 4, 4]            --
│    └─Empty: 2-1136                     [16, 64, 4, 4]            --
│    └─Clamp: 2-1137                     [16, 64, 4, 4]            --
├─FusedMaxPoolConv2dBNReLU: 1-84         [16, 64, 4, 4]            (recursive)
│    └─MaxPool2d: 2-1138                 [16, 64, 4, 4]            --
│    └─Empty: 2-1139                     [16, 64, 4, 4]            --
│    └─Empty: 2-1140                     [16, 64, 4, 4]            --
│    └─OutputShiftSqueeze: 2-1141        --                        --
│    └─One: 2-1142                       [1]                       --
│    └─OutputScale: 2-1143               --                        --
│    └─Empty: 2-1144                     [64, 64, 3, 3]            --
│    └─Empty: 2-1145                     [64, 64, 3, 3]            --
│    └─Empty: 2-1146                     [64]                      --
│    └─Empty: 2-1147                     [64]                      --
│    └─BatchNorm2d: 2-1148               [16, 64, 4, 4]            --
│    └─Scaler: 2-1149                    [16, 64, 4, 4]            --
│    └─ReLU: 2-1150                      [16, 64, 4, 4]            --
│    └─Empty: 2-1151                     [16, 64, 4, 4]            --
│    └─Clamp: 2-1152                     [16, 64, 4, 4]            --
├─FusedConv2dBNReLU: 1-85                [16, 64, 64, 64]          (recursive)
│    └─OutputShiftSqueeze: 2-1153        --                        --
│    └─One: 2-1154                       [1]                       --
│    └─OutputScale: 2-1155               --                        --
│    └─Empty: 2-1156                     [64, 48, 1, 1]            --
│    └─Empty: 2-1157                     [64, 48, 1, 1]            --
│    └─Empty: 2-1158                     [64]                      --
│    └─Empty: 2-1159                     [64]                      --
│    └─BatchNorm2d: 2-1160               [16, 64, 64, 64]          --
│    └─Scaler: 2-1161                    [16, 64, 64, 64]          --
│    └─ReLU: 2-1162                      [16, 64, 64, 64]          --
│    └─Empty: 2-1163                     [16, 64, 64, 64]          --
│    └─Clamp: 2-1164                     [16, 64, 64, 64]          --
├─FusedConv2dBNReLU: 1-86                [16, 64, 64, 64]          (recursive)
│    └─OutputShiftSqueeze: 2-1165        --                        --
│    └─One: 2-1166                       [1]                       --
│    └─OutputScale: 2-1167               --                        --
│    └─Empty: 2-1168                     [64, 64, 3, 3]            --
│    └─Empty: 2-1169                     [64, 64, 3, 3]            --
│    └─Empty: 2-1170                     [64]                      --
│    └─Empty: 2-1171                     [64]                      --
│    └─BatchNorm2d: 2-1172               [16, 64, 64, 64]          --
│    └─Scaler: 2-1173                    [16, 64, 64, 64]          --
│    └─ReLU: 2-1174                      [16, 64, 64, 64]          --
│    └─Empty: 2-1175                     [16, 64, 64, 64]          --
│    └─Clamp: 2-1176                     [16, 64, 64, 64]          --
├─FusedMaxPoolConv2dBNReLU: 1-87         [16, 64, 32, 32]          (recursive)
│    └─MaxPool2d: 2-1177                 [16, 64, 32, 32]          --
│    └─Empty: 2-1178                     [16, 64, 32, 32]          --
│    └─Empty: 2-1179                     [16, 64, 32, 32]          --
│    └─OutputShiftSqueeze: 2-1180        --                        --
│    └─One: 2-1181                       [1]                       --
│    └─OutputScale: 2-1182               --                        --
│    └─Empty: 2-1183                     [64, 64, 3, 3]            --
│    └─Empty: 2-1184                     [64, 64, 3, 3]            --
│    └─Empty: 2-1185                     [64]                      --
│    └─Empty: 2-1186                     [64]                      --
│    └─BatchNorm2d: 2-1187               [16, 64, 32, 32]          --
│    └─Scaler: 2-1188                    [16, 64, 32, 32]          --
│    └─ReLU: 2-1189                      [16, 64, 32, 32]          --
│    └─Empty: 2-1190                     [16, 64, 32, 32]          --
│    └─Clamp: 2-1191                     [16, 64, 32, 32]          --
├─FusedConv2dBNReLU: 1-88                [16, 64, 32, 32]          (recursive)
│    └─OutputShiftSqueeze: 2-1192        --                        --
│    └─One: 2-1193                       [1]                       --
│    └─OutputScale: 2-1194               --                        --
│    └─Empty: 2-1195                     [64, 64, 1, 1]            --
│    └─Empty: 2-1196                     [64, 64, 1, 1]            --
│    └─Empty: 2-1197                     [64]                      --
│    └─Empty: 2-1198                     [64]                      --
│    └─BatchNorm2d: 2-1199               [16, 64, 32, 32]          --
│    └─Scaler: 2-1200                    [16, 64, 32, 32]          --
│    └─ReLU: 2-1201                      [16, 64, 32, 32]          --
│    └─Empty: 2-1202                     [16, 64, 32, 32]          --
│    └─Clamp: 2-1203                     [16, 64, 32, 32]          --
├─FusedMaxPoolConv2dBNReLU: 1-89         [16, 64, 32, 32]          (recursive)
│    └─MaxPool2d: 2-1204                 [16, 64, 32, 32]          --
│    └─Empty: 2-1205                     [16, 64, 32, 32]          --
│    └─Empty: 2-1206                     [16, 64, 32, 32]          --
│    └─OutputShiftSqueeze: 2-1207        --                        --
│    └─One: 2-1208                       [1]                       --
│    └─OutputScale: 2-1209               --                        --
│    └─Empty: 2-1210                     [64, 64, 3, 3]            --
│    └─Empty: 2-1211                     [64, 64, 3, 3]            --
│    └─Empty: 2-1212                     [64]                      --
│    └─Empty: 2-1213                     [64]                      --
│    └─BatchNorm2d: 2-1214               [16, 64, 32, 32]          --
│    └─Scaler: 2-1215                    [16, 64, 32, 32]          --
│    └─ReLU: 2-1216                      [16, 64, 32, 32]          --
│    └─Empty: 2-1217                     [16, 64, 32, 32]          --
│    └─Clamp: 2-1218                     [16, 64, 32, 32]          --
├─FusedMaxPoolConv2dBNReLU: 1-90         [16, 64, 16, 16]          (recursive)
│    └─MaxPool2d: 2-1219                 [16, 64, 16, 16]          --
│    └─Empty: 2-1220                     [16, 64, 16, 16]          --
│    └─Empty: 2-1221                     [16, 64, 16, 16]          --
│    └─OutputShiftSqueeze: 2-1222        --                        --
│    └─One: 2-1223                       [1]                       --
│    └─OutputScale: 2-1224               --                        --
│    └─Empty: 2-1225                     [64, 64, 3, 3]            --
│    └─Empty: 2-1226                     [64, 64, 3, 3]            --
│    └─Empty: 2-1227                     [64]                      --
│    └─Empty: 2-1228                     [64]                      --
│    └─BatchNorm2d: 2-1229               [16, 64, 16, 16]          --
│    └─Scaler: 2-1230                    [16, 64, 16, 16]          --
│    └─ReLU: 2-1231                      [16, 64, 16, 16]          --
│    └─Empty: 2-1232                     [16, 64, 16, 16]          --
│    └─Clamp: 2-1233                     [16, 64, 16, 16]          --
├─FusedConv2dBNReLU: 1-91                [16, 64, 16, 16]          (recursive)
│    └─OutputShiftSqueeze: 2-1234        --                        --
│    └─One: 2-1235                       [1]                       --
│    └─OutputScale: 2-1236               --                        --
│    └─Empty: 2-1237                     [64, 64, 1, 1]            --
│    └─Empty: 2-1238                     [64, 64, 1, 1]            --
│    └─Empty: 2-1239                     [64]                      --
│    └─Empty: 2-1240                     [64]                      --
│    └─BatchNorm2d: 2-1241               [16, 64, 16, 16]          --
│    └─Scaler: 2-1242                    [16, 64, 16, 16]          --
│    └─ReLU: 2-1243                      [16, 64, 16, 16]          --
│    └─Empty: 2-1244                     [16, 64, 16, 16]          --
│    └─Clamp: 2-1245                     [16, 64, 16, 16]          --
├─FusedMaxPoolConv2dBNReLU: 1-92         [16, 64, 16, 16]          (recursive)
│    └─MaxPool2d: 2-1246                 [16, 64, 16, 16]          --
│    └─Empty: 2-1247                     [16, 64, 16, 16]          --
│    └─Empty: 2-1248                     [16, 64, 16, 16]          --
│    └─OutputShiftSqueeze: 2-1249        --                        --
│    └─One: 2-1250                       [1]                       --
│    └─OutputScale: 2-1251               --                        --
│    └─Empty: 2-1252                     [64, 64, 3, 3]            --
│    └─Empty: 2-1253                     [64, 64, 3, 3]            --
│    └─Empty: 2-1254                     [64]                      --
│    └─Empty: 2-1255                     [64]                      --
│    └─BatchNorm2d: 2-1256               [16, 64, 16, 16]          --
│    └─Scaler: 2-1257                    [16, 64, 16, 16]          --
│    └─ReLU: 2-1258                      [16, 64, 16, 16]          --
│    └─Empty: 2-1259                     [16, 64, 16, 16]          --
│    └─Clamp: 2-1260                     [16, 64, 16, 16]          --
├─FusedMaxPoolConv2dBNReLU: 1-93         [16, 64, 8, 8]            (recursive)
│    └─MaxPool2d: 2-1261                 [16, 64, 8, 8]            --
│    └─Empty: 2-1262                     [16, 64, 8, 8]            --
│    └─Empty: 2-1263                     [16, 64, 8, 8]            --
│    └─OutputShiftSqueeze: 2-1264        --                        --
│    └─One: 2-1265                       [1]                       --
│    └─OutputScale: 2-1266               --                        --
│    └─Empty: 2-1267                     [64, 64, 3, 3]            --
│    └─Empty: 2-1268                     [64, 64, 3, 3]            --
│    └─Empty: 2-1269                     [64]                      --
│    └─Empty: 2-1270                     [64]                      --
│    └─BatchNorm2d: 2-1271               [16, 64, 8, 8]            --
│    └─Scaler: 2-1272                    [16, 64, 8, 8]            --
│    └─ReLU: 2-1273                      [16, 64, 8, 8]            --
│    └─Empty: 2-1274                     [16, 64, 8, 8]            --
│    └─Clamp: 2-1275                     [16, 64, 8, 8]            --
├─FusedConv2dBNReLU: 1-94                [16, 64, 8, 8]            (recursive)
│    └─OutputShiftSqueeze: 2-1276        --                        --
│    └─One: 2-1277                       [1]                       --
│    └─OutputScale: 2-1278               --                        --
│    └─Empty: 2-1279                     [64, 64, 1, 1]            --
│    └─Empty: 2-1280                     [64, 64, 1, 1]            --
│    └─Empty: 2-1281                     [64]                      --
│    └─Empty: 2-1282                     [64]                      --
│    └─BatchNorm2d: 2-1283               [16, 64, 8, 8]            --
│    └─Scaler: 2-1284                    [16, 64, 8, 8]            --
│    └─ReLU: 2-1285                      [16, 64, 8, 8]            --
│    └─Empty: 2-1286                     [16, 64, 8, 8]            --
│    └─Clamp: 2-1287                     [16, 64, 8, 8]            --
├─FusedMaxPoolConv2dBNReLU: 1-95         [16, 64, 8, 8]            (recursive)
│    └─MaxPool2d: 2-1288                 [16, 64, 8, 8]            --
│    └─Empty: 2-1289                     [16, 64, 8, 8]            --
│    └─Empty: 2-1290                     [16, 64, 8, 8]            --
│    └─OutputShiftSqueeze: 2-1291        --                        --
│    └─One: 2-1292                       [1]                       --
│    └─OutputScale: 2-1293               --                        --
│    └─Empty: 2-1294                     [64, 64, 3, 3]            --
│    └─Empty: 2-1295                     [64, 64, 3, 3]            --
│    └─Empty: 2-1296                     [64]                      --
│    └─Empty: 2-1297                     [64]                      --
│    └─BatchNorm2d: 2-1298               [16, 64, 8, 8]            --
│    └─Scaler: 2-1299                    [16, 64, 8, 8]            --
│    └─ReLU: 2-1300                      [16, 64, 8, 8]            --
│    └─Empty: 2-1301                     [16, 64, 8, 8]            --
│    └─Clamp: 2-1302                     [16, 64, 8, 8]            --
├─FusedMaxPoolConv2dBNReLU: 1-96         [16, 64, 4, 4]            (recursive)
│    └─MaxPool2d: 2-1303                 [16, 64, 4, 4]            --
│    └─Empty: 2-1304                     [16, 64, 4, 4]            --
│    └─Empty: 2-1305                     [16, 64, 4, 4]            --
│    └─OutputShiftSqueeze: 2-1306        --                        --
│    └─One: 2-1307                       [1]                       --
│    └─OutputScale: 2-1308               --                        --
│    └─Empty: 2-1309                     [64, 64, 3, 3]            --
│    └─Empty: 2-1310                     [64, 64, 3, 3]            --
│    └─Empty: 2-1311                     [64]                      --
│    └─Empty: 2-1312                     [64]                      --
│    └─BatchNorm2d: 2-1313               [16, 64, 4, 4]            --
│    └─Scaler: 2-1314                    [16, 64, 4, 4]            --
│    └─ReLU: 2-1315                      [16, 64, 4, 4]            --
│    └─Empty: 2-1316                     [16, 64, 4, 4]            --
│    └─Clamp: 2-1317                     [16, 64, 4, 4]            --
├─FusedConv2dBNReLU: 1-97                [16, 64, 4, 4]            (recursive)
│    └─OutputShiftSqueeze: 2-1318        --                        --
│    └─One: 2-1319                       [1]                       --
│    └─OutputScale: 2-1320               --                        --
│    └─Empty: 2-1321                     [64, 64, 1, 1]            --
│    └─Empty: 2-1322                     [64, 64, 1, 1]            --
│    └─Empty: 2-1323                     [64]                      --
│    └─Empty: 2-1324                     [64]                      --
│    └─BatchNorm2d: 2-1325               [16, 64, 4, 4]            --
│    └─Scaler: 2-1326                    [16, 64, 4, 4]            --
│    └─ReLU: 2-1327                      [16, 64, 4, 4]            --
│    └─Empty: 2-1328                     [16, 64, 4, 4]            --
│    └─Clamp: 2-1329                     [16, 64, 4, 4]            --
├─FusedMaxPoolConv2dBNReLU: 1-98         [16, 64, 4, 4]            (recursive)
│    └─MaxPool2d: 2-1330                 [16, 64, 4, 4]            --
│    └─Empty: 2-1331                     [16, 64, 4, 4]            --
│    └─Empty: 2-1332                     [16, 64, 4, 4]            --
│    └─OutputShiftSqueeze: 2-1333        --                        --
│    └─One: 2-1334                       [1]                       --
│    └─OutputScale: 2-1335               --                        --
│    └─Empty: 2-1336                     [64, 64, 3, 3]            --
│    └─Empty: 2-1337                     [64, 64, 3, 3]            --
│    └─Empty: 2-1338                     [64]                      --
│    └─Empty: 2-1339                     [64]                      --
│    └─BatchNorm2d: 2-1340               [16, 64, 4, 4]            --
│    └─Scaler: 2-1341                    [16, 64, 4, 4]            --
│    └─ReLU: 2-1342                      [16, 64, 4, 4]            --
│    └─Empty: 2-1343                     [16, 64, 4, 4]            --
│    └─Clamp: 2-1344                     [16, 64, 4, 4]            --
├─FusedConv2dBNReLU: 1-99                [16, 64, 64, 64]          (recursive)
│    └─OutputShiftSqueeze: 2-1345        --                        --
│    └─One: 2-1346                       [1]                       --
│    └─OutputScale: 2-1347               --                        --
│    └─Empty: 2-1348                     [64, 48, 1, 1]            --
│    └─Empty: 2-1349                     [64, 48, 1, 1]            --
│    └─Empty: 2-1350                     [64]                      --
│    └─Empty: 2-1351                     [64]                      --
│    └─BatchNorm2d: 2-1352               [16, 64, 64, 64]          --
│    └─Scaler: 2-1353                    [16, 64, 64, 64]          --
│    └─ReLU: 2-1354                      [16, 64, 64, 64]          --
│    └─Empty: 2-1355                     [16, 64, 64, 64]          --
│    └─Clamp: 2-1356                     [16, 64, 64, 64]          --
├─FusedConv2dBNReLU: 1-100               [16, 64, 64, 64]          (recursive)
│    └─OutputShiftSqueeze: 2-1357        --                        --
│    └─One: 2-1358                       [1]                       --
│    └─OutputScale: 2-1359               --                        --
│    └─Empty: 2-1360                     [64, 64, 3, 3]            --
│    └─Empty: 2-1361                     [64, 64, 3, 3]            --
│    └─Empty: 2-1362                     [64]                      --
│    └─Empty: 2-1363                     [64]                      --
│    └─BatchNorm2d: 2-1364               [16, 64, 64, 64]          --
│    └─Scaler: 2-1365                    [16, 64, 64, 64]          --
│    └─ReLU: 2-1366                      [16, 64, 64, 64]          --
│    └─Empty: 2-1367                     [16, 64, 64, 64]          --
│    └─Clamp: 2-1368                     [16, 64, 64, 64]          --
├─FusedMaxPoolConv2dBNReLU: 1-101        [16, 64, 32, 32]          (recursive)
│    └─MaxPool2d: 2-1369                 [16, 64, 32, 32]          --
│    └─Empty: 2-1370                     [16, 64, 32, 32]          --
│    └─Empty: 2-1371                     [16, 64, 32, 32]          --
│    └─OutputShiftSqueeze: 2-1372        --                        --
│    └─One: 2-1373                       [1]                       --
│    └─OutputScale: 2-1374               --                        --
│    └─Empty: 2-1375                     [64, 64, 3, 3]            --
│    └─Empty: 2-1376                     [64, 64, 3, 3]            --
│    └─Empty: 2-1377                     [64]                      --
│    └─Empty: 2-1378                     [64]                      --
│    └─BatchNorm2d: 2-1379               [16, 64, 32, 32]          --
│    └─Scaler: 2-1380                    [16, 64, 32, 32]          --
│    └─ReLU: 2-1381                      [16, 64, 32, 32]          --
│    └─Empty: 2-1382                     [16, 64, 32, 32]          --
│    └─Clamp: 2-1383                     [16, 64, 32, 32]          --
├─FusedConv2dBNReLU: 1-102               [16, 64, 32, 32]          (recursive)
│    └─OutputShiftSqueeze: 2-1384        --                        --
│    └─One: 2-1385                       [1]                       --
│    └─OutputScale: 2-1386               --                        --
│    └─Empty: 2-1387                     [64, 64, 1, 1]            --
│    └─Empty: 2-1388                     [64, 64, 1, 1]            --
│    └─Empty: 2-1389                     [64]                      --
│    └─Empty: 2-1390                     [64]                      --
│    └─BatchNorm2d: 2-1391               [16, 64, 32, 32]          --
│    └─Scaler: 2-1392                    [16, 64, 32, 32]          --
│    └─ReLU: 2-1393                      [16, 64, 32, 32]          --
│    └─Empty: 2-1394                     [16, 64, 32, 32]          --
│    └─Clamp: 2-1395                     [16, 64, 32, 32]          --
├─FusedMaxPoolConv2dBNReLU: 1-103        [16, 64, 32, 32]          (recursive)
│    └─MaxPool2d: 2-1396                 [16, 64, 32, 32]          --
│    └─Empty: 2-1397                     [16, 64, 32, 32]          --
│    └─Empty: 2-1398                     [16, 64, 32, 32]          --
│    └─OutputShiftSqueeze: 2-1399        --                        --
│    └─One: 2-1400                       [1]                       --
│    └─OutputScale: 2-1401               --                        --
│    └─Empty: 2-1402                     [64, 64, 3, 3]            --
│    └─Empty: 2-1403                     [64, 64, 3, 3]            --
│    └─Empty: 2-1404                     [64]                      --
│    └─Empty: 2-1405                     [64]                      --
│    └─BatchNorm2d: 2-1406               [16, 64, 32, 32]          --
│    └─Scaler: 2-1407                    [16, 64, 32, 32]          --
│    └─ReLU: 2-1408                      [16, 64, 32, 32]          --
│    └─Empty: 2-1409                     [16, 64, 32, 32]          --
│    └─Clamp: 2-1410                     [16, 64, 32, 32]          --
├─FusedMaxPoolConv2dBNReLU: 1-104        [16, 64, 16, 16]          (recursive)
│    └─MaxPool2d: 2-1411                 [16, 64, 16, 16]          --
│    └─Empty: 2-1412                     [16, 64, 16, 16]          --
│    └─Empty: 2-1413                     [16, 64, 16, 16]          --
│    └─OutputShiftSqueeze: 2-1414        --                        --
│    └─One: 2-1415                       [1]                       --
│    └─OutputScale: 2-1416               --                        --
│    └─Empty: 2-1417                     [64, 64, 3, 3]            --
│    └─Empty: 2-1418                     [64, 64, 3, 3]            --
│    └─Empty: 2-1419                     [64]                      --
│    └─Empty: 2-1420                     [64]                      --
│    └─BatchNorm2d: 2-1421               [16, 64, 16, 16]          --
│    └─Scaler: 2-1422                    [16, 64, 16, 16]          --
│    └─ReLU: 2-1423                      [16, 64, 16, 16]          --
│    └─Empty: 2-1424                     [16, 64, 16, 16]          --
│    └─Clamp: 2-1425                     [16, 64, 16, 16]          --
├─FusedConv2dBNReLU: 1-105               [16, 64, 16, 16]          (recursive)
│    └─OutputShiftSqueeze: 2-1426        --                        --
│    └─One: 2-1427                       [1]                       --
│    └─OutputScale: 2-1428               --                        --
│    └─Empty: 2-1429                     [64, 64, 1, 1]            --
│    └─Empty: 2-1430                     [64, 64, 1, 1]            --
│    └─Empty: 2-1431                     [64]                      --
│    └─Empty: 2-1432                     [64]                      --
│    └─BatchNorm2d: 2-1433               [16, 64, 16, 16]          --
│    └─Scaler: 2-1434                    [16, 64, 16, 16]          --
│    └─ReLU: 2-1435                      [16, 64, 16, 16]          --
│    └─Empty: 2-1436                     [16, 64, 16, 16]          --
│    └─Clamp: 2-1437                     [16, 64, 16, 16]          --
├─FusedMaxPoolConv2dBNReLU: 1-106        [16, 64, 16, 16]          (recursive)
│    └─MaxPool2d: 2-1438                 [16, 64, 16, 16]          --
│    └─Empty: 2-1439                     [16, 64, 16, 16]          --
│    └─Empty: 2-1440                     [16, 64, 16, 16]          --
│    └─OutputShiftSqueeze: 2-1441        --                        --
│    └─One: 2-1442                       [1]                       --
│    └─OutputScale: 2-1443               --                        --
│    └─Empty: 2-1444                     [64, 64, 3, 3]            --
│    └─Empty: 2-1445                     [64, 64, 3, 3]            --
│    └─Empty: 2-1446                     [64]                      --
│    └─Empty: 2-1447                     [64]                      --
│    └─BatchNorm2d: 2-1448               [16, 64, 16, 16]          --
│    └─Scaler: 2-1449                    [16, 64, 16, 16]          --
│    └─ReLU: 2-1450                      [16, 64, 16, 16]          --
│    └─Empty: 2-1451                     [16, 64, 16, 16]          --
│    └─Clamp: 2-1452                     [16, 64, 16, 16]          --
├─FusedMaxPoolConv2dBNReLU: 1-107        [16, 64, 8, 8]            (recursive)
│    └─MaxPool2d: 2-1453                 [16, 64, 8, 8]            --
│    └─Empty: 2-1454                     [16, 64, 8, 8]            --
│    └─Empty: 2-1455                     [16, 64, 8, 8]            --
│    └─OutputShiftSqueeze: 2-1456        --                        --
│    └─One: 2-1457                       [1]                       --
│    └─OutputScale: 2-1458               --                        --
│    └─Empty: 2-1459                     [64, 64, 3, 3]            --
│    └─Empty: 2-1460                     [64, 64, 3, 3]            --
│    └─Empty: 2-1461                     [64]                      --
│    └─Empty: 2-1462                     [64]                      --
│    └─BatchNorm2d: 2-1463               [16, 64, 8, 8]            --
│    └─Scaler: 2-1464                    [16, 64, 8, 8]            --
│    └─ReLU: 2-1465                      [16, 64, 8, 8]            --
│    └─Empty: 2-1466                     [16, 64, 8, 8]            --
│    └─Clamp: 2-1467                     [16, 64, 8, 8]            --
├─FusedConv2dBNReLU: 1-108               [16, 64, 8, 8]            (recursive)
│    └─OutputShiftSqueeze: 2-1468        --                        --
│    └─One: 2-1469                       [1]                       --
│    └─OutputScale: 2-1470               --                        --
│    └─Empty: 2-1471                     [64, 64, 1, 1]            --
│    └─Empty: 2-1472                     [64, 64, 1, 1]            --
│    └─Empty: 2-1473                     [64]                      --
│    └─Empty: 2-1474                     [64]                      --
│    └─BatchNorm2d: 2-1475               [16, 64, 8, 8]            --
│    └─Scaler: 2-1476                    [16, 64, 8, 8]            --
│    └─ReLU: 2-1477                      [16, 64, 8, 8]            --
│    └─Empty: 2-1478                     [16, 64, 8, 8]            --
│    └─Clamp: 2-1479                     [16, 64, 8, 8]            --
├─FusedMaxPoolConv2dBNReLU: 1-109        [16, 64, 8, 8]            (recursive)
│    └─MaxPool2d: 2-1480                 [16, 64, 8, 8]            --
│    └─Empty: 2-1481                     [16, 64, 8, 8]            --
│    └─Empty: 2-1482                     [16, 64, 8, 8]            --
│    └─OutputShiftSqueeze: 2-1483        --                        --
│    └─One: 2-1484                       [1]                       --
│    └─OutputScale: 2-1485               --                        --
│    └─Empty: 2-1486                     [64, 64, 3, 3]            --
│    └─Empty: 2-1487                     [64, 64, 3, 3]            --
│    └─Empty: 2-1488                     [64]                      --
│    └─Empty: 2-1489                     [64]                      --
│    └─BatchNorm2d: 2-1490               [16, 64, 8, 8]            --
│    └─Scaler: 2-1491                    [16, 64, 8, 8]            --
│    └─ReLU: 2-1492                      [16, 64, 8, 8]            --
│    └─Empty: 2-1493                     [16, 64, 8, 8]            --
│    └─Clamp: 2-1494                     [16, 64, 8, 8]            --
├─FusedMaxPoolConv2dBNReLU: 1-110        [16, 64, 4, 4]            (recursive)
│    └─MaxPool2d: 2-1495                 [16, 64, 4, 4]            --
│    └─Empty: 2-1496                     [16, 64, 4, 4]            --
│    └─Empty: 2-1497                     [16, 64, 4, 4]            --
│    └─OutputShiftSqueeze: 2-1498        --                        --
│    └─One: 2-1499                       [1]                       --
│    └─OutputScale: 2-1500               --                        --
│    └─Empty: 2-1501                     [64, 64, 3, 3]            --
│    └─Empty: 2-1502                     [64, 64, 3, 3]            --
│    └─Empty: 2-1503                     [64]                      --
│    └─Empty: 2-1504                     [64]                      --
│    └─BatchNorm2d: 2-1505               [16, 64, 4, 4]            --
│    └─Scaler: 2-1506                    [16, 64, 4, 4]            --
│    └─ReLU: 2-1507                      [16, 64, 4, 4]            --
│    └─Empty: 2-1508                     [16, 64, 4, 4]            --
│    └─Clamp: 2-1509                     [16, 64, 4, 4]            --
├─FusedConv2dBNReLU: 1-111               [16, 64, 4, 4]            (recursive)
│    └─OutputShiftSqueeze: 2-1510        --                        --
│    └─One: 2-1511                       [1]                       --
│    └─OutputScale: 2-1512               --                        --
│    └─Empty: 2-1513                     [64, 64, 1, 1]            --
│    └─Empty: 2-1514                     [64, 64, 1, 1]            --
│    └─Empty: 2-1515                     [64]                      --
│    └─Empty: 2-1516                     [64]                      --
│    └─BatchNorm2d: 2-1517               [16, 64, 4, 4]            --
│    └─Scaler: 2-1518                    [16, 64, 4, 4]            --
│    └─ReLU: 2-1519                      [16, 64, 4, 4]            --
│    └─Empty: 2-1520                     [16, 64, 4, 4]            --
│    └─Clamp: 2-1521                     [16, 64, 4, 4]            --
├─FusedMaxPoolConv2dBNReLU: 1-112        [16, 64, 4, 4]            (recursive)
│    └─MaxPool2d: 2-1522                 [16, 64, 4, 4]            --
│    └─Empty: 2-1523                     [16, 64, 4, 4]            --
│    └─Empty: 2-1524                     [16, 64, 4, 4]            --
│    └─OutputShiftSqueeze: 2-1525        --                        --
│    └─One: 2-1526                       [1]                       --
│    └─OutputScale: 2-1527               --                        --
│    └─Empty: 2-1528                     [64, 64, 3, 3]            --
│    └─Empty: 2-1529                     [64, 64, 3, 3]            --
│    └─Empty: 2-1530                     [64]                      --
│    └─Empty: 2-1531                     [64]                      --
│    └─BatchNorm2d: 2-1532               [16, 64, 4, 4]            --
│    └─Scaler: 2-1533                    [16, 64, 4, 4]            --
│    └─ReLU: 2-1534                      [16, 64, 4, 4]            --
│    └─Empty: 2-1535                     [16, 64, 4, 4]            --
│    └─Clamp: 2-1536                     [16, 64, 4, 4]            --
├─FusedConv2dBNReLU: 1-113               [16, 64, 64, 64]          (recursive)
│    └─OutputShiftSqueeze: 2-1537        --                        --
│    └─One: 2-1538                       [1]                       --
│    └─OutputScale: 2-1539               --                        --
│    └─Empty: 2-1540                     [64, 48, 1, 1]            --
│    └─Empty: 2-1541                     [64, 48, 1, 1]            --
│    └─Empty: 2-1542                     [64]                      --
│    └─Empty: 2-1543                     [64]                      --
│    └─BatchNorm2d: 2-1544               [16, 64, 64, 64]          --
│    └─Scaler: 2-1545                    [16, 64, 64, 64]          --
│    └─ReLU: 2-1546                      [16, 64, 64, 64]          --
│    └─Empty: 2-1547                     [16, 64, 64, 64]          --
│    └─Clamp: 2-1548                     [16, 64, 64, 64]          --
├─FusedConv2dBNReLU: 1-114               [16, 64, 64, 64]          (recursive)
│    └─OutputShiftSqueeze: 2-1549        --                        --
│    └─One: 2-1550                       [1]                       --
│    └─OutputScale: 2-1551               --                        --
│    └─Empty: 2-1552                     [64, 64, 3, 3]            --
│    └─Empty: 2-1553                     [64, 64, 3, 3]            --
│    └─Empty: 2-1554                     [64]                      --
│    └─Empty: 2-1555                     [64]                      --
│    └─BatchNorm2d: 2-1556               [16, 64, 64, 64]          --
│    └─Scaler: 2-1557                    [16, 64, 64, 64]          --
│    └─ReLU: 2-1558                      [16, 64, 64, 64]          --
│    └─Empty: 2-1559                     [16, 64, 64, 64]          --
│    └─Clamp: 2-1560                     [16, 64, 64, 64]          --
├─FusedMaxPoolConv2dBNReLU: 1-115        [16, 64, 32, 32]          (recursive)
│    └─MaxPool2d: 2-1561                 [16, 64, 32, 32]          --
│    └─Empty: 2-1562                     [16, 64, 32, 32]          --
│    └─Empty: 2-1563                     [16, 64, 32, 32]          --
│    └─OutputShiftSqueeze: 2-1564        --                        --
│    └─One: 2-1565                       [1]                       --
│    └─OutputScale: 2-1566               --                        --
│    └─Empty: 2-1567                     [64, 64, 3, 3]            --
│    └─Empty: 2-1568                     [64, 64, 3, 3]            --
│    └─Empty: 2-1569                     [64]                      --
│    └─Empty: 2-1570                     [64]                      --
│    └─BatchNorm2d: 2-1571               [16, 64, 32, 32]          --
│    └─Scaler: 2-1572                    [16, 64, 32, 32]          --
│    └─ReLU: 2-1573                      [16, 64, 32, 32]          --
│    └─Empty: 2-1574                     [16, 64, 32, 32]          --
│    └─Clamp: 2-1575                     [16, 64, 32, 32]          --
├─FusedConv2dBNReLU: 1-116               [16, 64, 32, 32]          (recursive)
│    └─OutputShiftSqueeze: 2-1576        --                        --
│    └─One: 2-1577                       [1]                       --
│    └─OutputScale: 2-1578               --                        --
│    └─Empty: 2-1579                     [64, 64, 1, 1]            --
│    └─Empty: 2-1580                     [64, 64, 1, 1]            --
│    └─Empty: 2-1581                     [64]                      --
│    └─Empty: 2-1582                     [64]                      --
│    └─BatchNorm2d: 2-1583               [16, 64, 32, 32]          --
│    └─Scaler: 2-1584                    [16, 64, 32, 32]          --
│    └─ReLU: 2-1585                      [16, 64, 32, 32]          --
│    └─Empty: 2-1586                     [16, 64, 32, 32]          --
│    └─Clamp: 2-1587                     [16, 64, 32, 32]          --
├─FusedMaxPoolConv2dBNReLU: 1-117        [16, 64, 32, 32]          (recursive)
│    └─MaxPool2d: 2-1588                 [16, 64, 32, 32]          --
│    └─Empty: 2-1589                     [16, 64, 32, 32]          --
│    └─Empty: 2-1590                     [16, 64, 32, 32]          --
│    └─OutputShiftSqueeze: 2-1591        --                        --
│    └─One: 2-1592                       [1]                       --
│    └─OutputScale: 2-1593               --                        --
│    └─Empty: 2-1594                     [64, 64, 3, 3]            --
│    └─Empty: 2-1595                     [64, 64, 3, 3]            --
│    └─Empty: 2-1596                     [64]                      --
│    └─Empty: 2-1597                     [64]                      --
│    └─BatchNorm2d: 2-1598               [16, 64, 32, 32]          --
│    └─Scaler: 2-1599                    [16, 64, 32, 32]          --
│    └─ReLU: 2-1600                      [16, 64, 32, 32]          --
│    └─Empty: 2-1601                     [16, 64, 32, 32]          --
│    └─Clamp: 2-1602                     [16, 64, 32, 32]          --
├─FusedMaxPoolConv2dBNReLU: 1-118        [16, 64, 16, 16]          (recursive)
│    └─MaxPool2d: 2-1603                 [16, 64, 16, 16]          --
│    └─Empty: 2-1604                     [16, 64, 16, 16]          --
│    └─Empty: 2-1605                     [16, 64, 16, 16]          --
│    └─OutputShiftSqueeze: 2-1606        --                        --
│    └─One: 2-1607                       [1]                       --
│    └─OutputScale: 2-1608               --                        --
│    └─Empty: 2-1609                     [64, 64, 3, 3]            --
│    └─Empty: 2-1610                     [64, 64, 3, 3]            --
│    └─Empty: 2-1611                     [64]                      --
│    └─Empty: 2-1612                     [64]                      --
│    └─BatchNorm2d: 2-1613               [16, 64, 16, 16]          --
│    └─Scaler: 2-1614                    [16, 64, 16, 16]          --
│    └─ReLU: 2-1615                      [16, 64, 16, 16]          --
│    └─Empty: 2-1616                     [16, 64, 16, 16]          --
│    └─Clamp: 2-1617                     [16, 64, 16, 16]          --
├─FusedConv2dBNReLU: 1-119               [16, 64, 16, 16]          (recursive)
│    └─OutputShiftSqueeze: 2-1618        --                        --
│    └─One: 2-1619                       [1]                       --
│    └─OutputScale: 2-1620               --                        --
│    └─Empty: 2-1621                     [64, 64, 1, 1]            --
│    └─Empty: 2-1622                     [64, 64, 1, 1]            --
│    └─Empty: 2-1623                     [64]                      --
│    └─Empty: 2-1624                     [64]                      --
│    └─BatchNorm2d: 2-1625               [16, 64, 16, 16]          --
│    └─Scaler: 2-1626                    [16, 64, 16, 16]          --
│    └─ReLU: 2-1627                      [16, 64, 16, 16]          --
│    └─Empty: 2-1628                     [16, 64, 16, 16]          --
│    └─Clamp: 2-1629                     [16, 64, 16, 16]          --
├─FusedMaxPoolConv2dBNReLU: 1-120        [16, 64, 16, 16]          (recursive)
│    └─MaxPool2d: 2-1630                 [16, 64, 16, 16]          --
│    └─Empty: 2-1631                     [16, 64, 16, 16]          --
│    └─Empty: 2-1632                     [16, 64, 16, 16]          --
│    └─OutputShiftSqueeze: 2-1633        --                        --
│    └─One: 2-1634                       [1]                       --
│    └─OutputScale: 2-1635               --                        --
│    └─Empty: 2-1636                     [64, 64, 3, 3]            --
│    └─Empty: 2-1637                     [64, 64, 3, 3]            --
│    └─Empty: 2-1638                     [64]                      --
│    └─Empty: 2-1639                     [64]                      --
│    └─BatchNorm2d: 2-1640               [16, 64, 16, 16]          --
│    └─Scaler: 2-1641                    [16, 64, 16, 16]          --
│    └─ReLU: 2-1642                      [16, 64, 16, 16]          --
│    └─Empty: 2-1643                     [16, 64, 16, 16]          --
│    └─Clamp: 2-1644                     [16, 64, 16, 16]          --
├─FusedMaxPoolConv2dBNReLU: 1-121        [16, 64, 8, 8]            (recursive)
│    └─MaxPool2d: 2-1645                 [16, 64, 8, 8]            --
│    └─Empty: 2-1646                     [16, 64, 8, 8]            --
│    └─Empty: 2-1647                     [16, 64, 8, 8]            --
│    └─OutputShiftSqueeze: 2-1648        --                        --
│    └─One: 2-1649                       [1]                       --
│    └─OutputScale: 2-1650               --                        --
│    └─Empty: 2-1651                     [64, 64, 3, 3]            --
│    └─Empty: 2-1652                     [64, 64, 3, 3]            --
│    └─Empty: 2-1653                     [64]                      --
│    └─Empty: 2-1654                     [64]                      --
│    └─BatchNorm2d: 2-1655               [16, 64, 8, 8]            --
│    └─Scaler: 2-1656                    [16, 64, 8, 8]            --
│    └─ReLU: 2-1657                      [16, 64, 8, 8]            --
│    └─Empty: 2-1658                     [16, 64, 8, 8]            --
│    └─Clamp: 2-1659                     [16, 64, 8, 8]            --
├─FusedConv2dBNReLU: 1-122               [16, 64, 8, 8]            (recursive)
│    └─OutputShiftSqueeze: 2-1660        --                        --
│    └─One: 2-1661                       [1]                       --
│    └─OutputScale: 2-1662               --                        --
│    └─Empty: 2-1663                     [64, 64, 1, 1]            --
│    └─Empty: 2-1664                     [64, 64, 1, 1]            --
│    └─Empty: 2-1665                     [64]                      --
│    └─Empty: 2-1666                     [64]                      --
│    └─BatchNorm2d: 2-1667               [16, 64, 8, 8]            --
│    └─Scaler: 2-1668                    [16, 64, 8, 8]            --
│    └─ReLU: 2-1669                      [16, 64, 8, 8]            --
│    └─Empty: 2-1670                     [16, 64, 8, 8]            --
│    └─Clamp: 2-1671                     [16, 64, 8, 8]            --
├─FusedMaxPoolConv2dBNReLU: 1-123        [16, 64, 8, 8]            (recursive)
│    └─MaxPool2d: 2-1672                 [16, 64, 8, 8]            --
│    └─Empty: 2-1673                     [16, 64, 8, 8]            --
│    └─Empty: 2-1674                     [16, 64, 8, 8]            --
│    └─OutputShiftSqueeze: 2-1675        --                        --
│    └─One: 2-1676                       [1]                       --
│    └─OutputScale: 2-1677               --                        --
│    └─Empty: 2-1678                     [64, 64, 3, 3]            --
│    └─Empty: 2-1679                     [64, 64, 3, 3]            --
│    └─Empty: 2-1680                     [64]                      --
│    └─Empty: 2-1681                     [64]                      --
│    └─BatchNorm2d: 2-1682               [16, 64, 8, 8]            --
│    └─Scaler: 2-1683                    [16, 64, 8, 8]            --
│    └─ReLU: 2-1684                      [16, 64, 8, 8]            --
│    └─Empty: 2-1685                     [16, 64, 8, 8]            --
│    └─Clamp: 2-1686                     [16, 64, 8, 8]            --
├─FusedMaxPoolConv2dBNReLU: 1-124        [16, 64, 4, 4]            (recursive)
│    └─MaxPool2d: 2-1687                 [16, 64, 4, 4]            --
│    └─Empty: 2-1688                     [16, 64, 4, 4]            --
│    └─Empty: 2-1689                     [16, 64, 4, 4]            --
│    └─OutputShiftSqueeze: 2-1690        --                        --
│    └─One: 2-1691                       [1]                       --
│    └─OutputScale: 2-1692               --                        --
│    └─Empty: 2-1693                     [64, 64, 3, 3]            --
│    └─Empty: 2-1694                     [64, 64, 3, 3]            --
│    └─Empty: 2-1695                     [64]                      --
│    └─Empty: 2-1696                     [64]                      --
│    └─BatchNorm2d: 2-1697               [16, 64, 4, 4]            --
│    └─Scaler: 2-1698                    [16, 64, 4, 4]            --
│    └─ReLU: 2-1699                      [16, 64, 4, 4]            --
│    └─Empty: 2-1700                     [16, 64, 4, 4]            --
│    └─Clamp: 2-1701                     [16, 64, 4, 4]            --
├─FusedConv2dBNReLU: 1-125               [16, 64, 4, 4]            (recursive)
│    └─OutputShiftSqueeze: 2-1702        --                        --
│    └─One: 2-1703                       [1]                       --
│    └─OutputScale: 2-1704               --                        --
│    └─Empty: 2-1705                     [64, 64, 1, 1]            --
│    └─Empty: 2-1706                     [64, 64, 1, 1]            --
│    └─Empty: 2-1707                     [64]                      --
│    └─Empty: 2-1708                     [64]                      --
│    └─BatchNorm2d: 2-1709               [16, 64, 4, 4]            --
│    └─Scaler: 2-1710                    [16, 64, 4, 4]            --
│    └─ReLU: 2-1711                      [16, 64, 4, 4]            --
│    └─Empty: 2-1712                     [16, 64, 4, 4]            --
│    └─Clamp: 2-1713                     [16, 64, 4, 4]            --
├─FusedMaxPoolConv2dBNReLU: 1-126        [16, 64, 4, 4]            (recursive)
│    └─MaxPool2d: 2-1714                 [16, 64, 4, 4]            --
│    └─Empty: 2-1715                     [16, 64, 4, 4]            --
│    └─Empty: 2-1716                     [16, 64, 4, 4]            --
│    └─OutputShiftSqueeze: 2-1717        --                        --
│    └─One: 2-1718                       [1]                       --
│    └─OutputScale: 2-1719               --                        --
│    └─Empty: 2-1720                     [64, 64, 3, 3]            --
│    └─Empty: 2-1721                     [64, 64, 3, 3]            --
│    └─Empty: 2-1722                     [64]                      --
│    └─Empty: 2-1723                     [64]                      --
│    └─BatchNorm2d: 2-1724               [16, 64, 4, 4]            --
│    └─Scaler: 2-1725                    [16, 64, 4, 4]            --
│    └─ReLU: 2-1726                      [16, 64, 4, 4]            --
│    └─Empty: 2-1727                     [16, 64, 4, 4]            --
│    └─Clamp: 2-1728                     [16, 64, 4, 4]            --
├─FusedConv2dBNReLU: 1-127               [16, 64, 64, 64]          (recursive)
│    └─OutputShiftSqueeze: 2-1729        --                        --
│    └─One: 2-1730                       [1]                       --
│    └─OutputScale: 2-1731               --                        --
│    └─Empty: 2-1732                     [64, 48, 1, 1]            --
│    └─Empty: 2-1733                     [64, 48, 1, 1]            --
│    └─Empty: 2-1734                     [64]                      --
│    └─Empty: 2-1735                     [64]                      --
│    └─BatchNorm2d: 2-1736               [16, 64, 64, 64]          --
│    └─Scaler: 2-1737                    [16, 64, 64, 64]          --
│    └─ReLU: 2-1738                      [16, 64, 64, 64]          --
│    └─Empty: 2-1739                     [16, 64, 64, 64]          --
│    └─Clamp: 2-1740                     [16, 64, 64, 64]          --
├─FusedConv2dBNReLU: 1-128               [16, 64, 64, 64]          (recursive)
│    └─OutputShiftSqueeze: 2-1741        --                        --
│    └─One: 2-1742                       [1]                       --
│    └─OutputScale: 2-1743               --                        --
│    └─Empty: 2-1744                     [64, 64, 3, 3]            --
│    └─Empty: 2-1745                     [64, 64, 3, 3]            --
│    └─Empty: 2-1746                     [64]                      --
│    └─Empty: 2-1747                     [64]                      --
│    └─BatchNorm2d: 2-1748               [16, 64, 64, 64]          --
│    └─Scaler: 2-1749                    [16, 64, 64, 64]          --
│    └─ReLU: 2-1750                      [16, 64, 64, 64]          --
│    └─Empty: 2-1751                     [16, 64, 64, 64]          --
│    └─Clamp: 2-1752                     [16, 64, 64, 64]          --
├─FusedMaxPoolConv2dBNReLU: 1-129        [16, 64, 32, 32]          (recursive)
│    └─MaxPool2d: 2-1753                 [16, 64, 32, 32]          --
│    └─Empty: 2-1754                     [16, 64, 32, 32]          --
│    └─Empty: 2-1755                     [16, 64, 32, 32]          --
│    └─OutputShiftSqueeze: 2-1756        --                        --
│    └─One: 2-1757                       [1]                       --
│    └─OutputScale: 2-1758               --                        --
│    └─Empty: 2-1759                     [64, 64, 3, 3]            --
│    └─Empty: 2-1760                     [64, 64, 3, 3]            --
│    └─Empty: 2-1761                     [64]                      --
│    └─Empty: 2-1762                     [64]                      --
│    └─BatchNorm2d: 2-1763               [16, 64, 32, 32]          --
│    └─Scaler: 2-1764                    [16, 64, 32, 32]          --
│    └─ReLU: 2-1765                      [16, 64, 32, 32]          --
│    └─Empty: 2-1766                     [16, 64, 32, 32]          --
│    └─Clamp: 2-1767                     [16, 64, 32, 32]          --
├─FusedConv2dBNReLU: 1-130               [16, 64, 32, 32]          (recursive)
│    └─OutputShiftSqueeze: 2-1768        --                        --
│    └─One: 2-1769                       [1]                       --
│    └─OutputScale: 2-1770               --                        --
│    └─Empty: 2-1771                     [64, 64, 1, 1]            --
│    └─Empty: 2-1772                     [64, 64, 1, 1]            --
│    └─Empty: 2-1773                     [64]                      --
│    └─Empty: 2-1774                     [64]                      --
│    └─BatchNorm2d: 2-1775               [16, 64, 32, 32]          --
│    └─Scaler: 2-1776                    [16, 64, 32, 32]          --
│    └─ReLU: 2-1777                      [16, 64, 32, 32]          --
│    └─Empty: 2-1778                     [16, 64, 32, 32]          --
│    └─Clamp: 2-1779                     [16, 64, 32, 32]          --
├─FusedMaxPoolConv2dBNReLU: 1-131        [16, 64, 32, 32]          (recursive)
│    └─MaxPool2d: 2-1780                 [16, 64, 32, 32]          --
│    └─Empty: 2-1781                     [16, 64, 32, 32]          --
│    └─Empty: 2-1782                     [16, 64, 32, 32]          --
│    └─OutputShiftSqueeze: 2-1783        --                        --
│    └─One: 2-1784                       [1]                       --
│    └─OutputScale: 2-1785               --                        --
│    └─Empty: 2-1786                     [64, 64, 3, 3]            --
│    └─Empty: 2-1787                     [64, 64, 3, 3]            --
│    └─Empty: 2-1788                     [64]                      --
│    └─Empty: 2-1789                     [64]                      --
│    └─BatchNorm2d: 2-1790               [16, 64, 32, 32]          --
│    └─Scaler: 2-1791                    [16, 64, 32, 32]          --
│    └─ReLU: 2-1792                      [16, 64, 32, 32]          --
│    └─Empty: 2-1793                     [16, 64, 32, 32]          --
│    └─Clamp: 2-1794                     [16, 64, 32, 32]          --
├─FusedMaxPoolConv2dBNReLU: 1-132        [16, 64, 16, 16]          (recursive)
│    └─MaxPool2d: 2-1795                 [16, 64, 16, 16]          --
│    └─Empty: 2-1796                     [16, 64, 16, 16]          --
│    └─Empty: 2-1797                     [16, 64, 16, 16]          --
│    └─OutputShiftSqueeze: 2-1798        --                        --
│    └─One: 2-1799                       [1]                       --
│    └─OutputScale: 2-1800               --                        --
│    └─Empty: 2-1801                     [64, 64, 3, 3]            --
│    └─Empty: 2-1802                     [64, 64, 3, 3]            --
│    └─Empty: 2-1803                     [64]                      --
│    └─Empty: 2-1804                     [64]                      --
│    └─BatchNorm2d: 2-1805               [16, 64, 16, 16]          --
│    └─Scaler: 2-1806                    [16, 64, 16, 16]          --
│    └─ReLU: 2-1807                      [16, 64, 16, 16]          --
│    └─Empty: 2-1808                     [16, 64, 16, 16]          --
│    └─Clamp: 2-1809                     [16, 64, 16, 16]          --
├─FusedConv2dBNReLU: 1-133               [16, 64, 16, 16]          (recursive)
│    └─OutputShiftSqueeze: 2-1810        --                        --
│    └─One: 2-1811                       [1]                       --
│    └─OutputScale: 2-1812               --                        --
│    └─Empty: 2-1813                     [64, 64, 1, 1]            --
│    └─Empty: 2-1814                     [64, 64, 1, 1]            --
│    └─Empty: 2-1815                     [64]                      --
│    └─Empty: 2-1816                     [64]                      --
│    └─BatchNorm2d: 2-1817               [16, 64, 16, 16]          --
│    └─Scaler: 2-1818                    [16, 64, 16, 16]          --
│    └─ReLU: 2-1819                      [16, 64, 16, 16]          --
│    └─Empty: 2-1820                     [16, 64, 16, 16]          --
│    └─Clamp: 2-1821                     [16, 64, 16, 16]          --
├─FusedMaxPoolConv2dBNReLU: 1-134        [16, 64, 16, 16]          (recursive)
│    └─MaxPool2d: 2-1822                 [16, 64, 16, 16]          --
│    └─Empty: 2-1823                     [16, 64, 16, 16]          --
│    └─Empty: 2-1824                     [16, 64, 16, 16]          --
│    └─OutputShiftSqueeze: 2-1825        --                        --
│    └─One: 2-1826                       [1]                       --
│    └─OutputScale: 2-1827               --                        --
│    └─Empty: 2-1828                     [64, 64, 3, 3]            --
│    └─Empty: 2-1829                     [64, 64, 3, 3]            --
│    └─Empty: 2-1830                     [64]                      --
│    └─Empty: 2-1831                     [64]                      --
│    └─BatchNorm2d: 2-1832               [16, 64, 16, 16]          --
│    └─Scaler: 2-1833                    [16, 64, 16, 16]          --
│    └─ReLU: 2-1834                      [16, 64, 16, 16]          --
│    └─Empty: 2-1835                     [16, 64, 16, 16]          --
│    └─Clamp: 2-1836                     [16, 64, 16, 16]          --
├─FusedMaxPoolConv2dBNReLU: 1-135        [16, 64, 8, 8]            (recursive)
│    └─MaxPool2d: 2-1837                 [16, 64, 8, 8]            --
│    └─Empty: 2-1838                     [16, 64, 8, 8]            --
│    └─Empty: 2-1839                     [16, 64, 8, 8]            --
│    └─OutputShiftSqueeze: 2-1840        --                        --
│    └─One: 2-1841                       [1]                       --
│    └─OutputScale: 2-1842               --                        --
│    └─Empty: 2-1843                     [64, 64, 3, 3]            --
│    └─Empty: 2-1844                     [64, 64, 3, 3]            --
│    └─Empty: 2-1845                     [64]                      --
│    └─Empty: 2-1846                     [64]                      --
│    └─BatchNorm2d: 2-1847               [16, 64, 8, 8]            --
│    └─Scaler: 2-1848                    [16, 64, 8, 8]            --
│    └─ReLU: 2-1849                      [16, 64, 8, 8]            --
│    └─Empty: 2-1850                     [16, 64, 8, 8]            --
│    └─Clamp: 2-1851                     [16, 64, 8, 8]            --
├─FusedConv2dBNReLU: 1-136               [16, 64, 8, 8]            (recursive)
│    └─OutputShiftSqueeze: 2-1852        --                        --
│    └─One: 2-1853                       [1]                       --
│    └─OutputScale: 2-1854               --                        --
│    └─Empty: 2-1855                     [64, 64, 1, 1]            --
│    └─Empty: 2-1856                     [64, 64, 1, 1]            --
│    └─Empty: 2-1857                     [64]                      --
│    └─Empty: 2-1858                     [64]                      --
│    └─BatchNorm2d: 2-1859               [16, 64, 8, 8]            --
│    └─Scaler: 2-1860                    [16, 64, 8, 8]            --
│    └─ReLU: 2-1861                      [16, 64, 8, 8]            --
│    └─Empty: 2-1862                     [16, 64, 8, 8]            --
│    └─Clamp: 2-1863                     [16, 64, 8, 8]            --
├─FusedMaxPoolConv2dBNReLU: 1-137        [16, 64, 8, 8]            (recursive)
│    └─MaxPool2d: 2-1864                 [16, 64, 8, 8]            --
│    └─Empty: 2-1865                     [16, 64, 8, 8]            --
│    └─Empty: 2-1866                     [16, 64, 8, 8]            --
│    └─OutputShiftSqueeze: 2-1867        --                        --
│    └─One: 2-1868                       [1]                       --
│    └─OutputScale: 2-1869               --                        --
│    └─Empty: 2-1870                     [64, 64, 3, 3]            --
│    └─Empty: 2-1871                     [64, 64, 3, 3]            --
│    └─Empty: 2-1872                     [64]                      --
│    └─Empty: 2-1873                     [64]                      --
│    └─BatchNorm2d: 2-1874               [16, 64, 8, 8]            --
│    └─Scaler: 2-1875                    [16, 64, 8, 8]            --
│    └─ReLU: 2-1876                      [16, 64, 8, 8]            --
│    └─Empty: 2-1877                     [16, 64, 8, 8]            --
│    └─Clamp: 2-1878                     [16, 64, 8, 8]            --
├─FusedMaxPoolConv2dBNReLU: 1-138        [16, 64, 4, 4]            (recursive)
│    └─MaxPool2d: 2-1879                 [16, 64, 4, 4]            --
│    └─Empty: 2-1880                     [16, 64, 4, 4]            --
│    └─Empty: 2-1881                     [16, 64, 4, 4]            --
│    └─OutputShiftSqueeze: 2-1882        --                        --
│    └─One: 2-1883                       [1]                       --
│    └─OutputScale: 2-1884               --                        --
│    └─Empty: 2-1885                     [64, 64, 3, 3]            --
│    └─Empty: 2-1886                     [64, 64, 3, 3]            --
│    └─Empty: 2-1887                     [64]                      --
│    └─Empty: 2-1888                     [64]                      --
│    └─BatchNorm2d: 2-1889               [16, 64, 4, 4]            --
│    └─Scaler: 2-1890                    [16, 64, 4, 4]            --
│    └─ReLU: 2-1891                      [16, 64, 4, 4]            --
│    └─Empty: 2-1892                     [16, 64, 4, 4]            --
│    └─Clamp: 2-1893                     [16, 64, 4, 4]            --
├─FusedConv2dBNReLU: 1-139               [16, 64, 4, 4]            (recursive)
│    └─OutputShiftSqueeze: 2-1894        --                        --
│    └─One: 2-1895                       [1]                       --
│    └─OutputScale: 2-1896               --                        --
│    └─Empty: 2-1897                     [64, 64, 1, 1]            --
│    └─Empty: 2-1898                     [64, 64, 1, 1]            --
│    └─Empty: 2-1899                     [64]                      --
│    └─Empty: 2-1900                     [64]                      --
│    └─BatchNorm2d: 2-1901               [16, 64, 4, 4]            --
│    └─Scaler: 2-1902                    [16, 64, 4, 4]            --
│    └─ReLU: 2-1903                      [16, 64, 4, 4]            --
│    └─Empty: 2-1904                     [16, 64, 4, 4]            --
│    └─Clamp: 2-1905                     [16, 64, 4, 4]            --
├─FusedMaxPoolConv2dBNReLU: 1-140        [16, 64, 4, 4]            (recursive)
│    └─MaxPool2d: 2-1906                 [16, 64, 4, 4]            --
│    └─Empty: 2-1907                     [16, 64, 4, 4]            --
│    └─Empty: 2-1908                     [16, 64, 4, 4]            --
│    └─OutputShiftSqueeze: 2-1909        --                        --
│    └─One: 2-1910                       [1]                       --
│    └─OutputScale: 2-1911               --                        --
│    └─Empty: 2-1912                     [64, 64, 3, 3]            --
│    └─Empty: 2-1913                     [64, 64, 3, 3]            --
│    └─Empty: 2-1914                     [64]                      --
│    └─Empty: 2-1915                     [64]                      --
│    └─BatchNorm2d: 2-1916               [16, 64, 4, 4]            --
│    └─Scaler: 2-1917                    [16, 64, 4, 4]            --
│    └─ReLU: 2-1918                      [16, 64, 4, 4]            --
│    └─Empty: 2-1919                     [16, 64, 4, 4]            --
│    └─Clamp: 2-1920                     [16, 64, 4, 4]            --
├─FusedConv2dBNReLU: 1-141               [16, 64, 64, 64]          (recursive)
│    └─OutputShiftSqueeze: 2-1921        --                        --
│    └─One: 2-1922                       [1]                       --
│    └─OutputScale: 2-1923               --                        --
│    └─Empty: 2-1924                     [64, 48, 1, 1]            --
│    └─Empty: 2-1925                     [64, 48, 1, 1]            --
│    └─Empty: 2-1926                     [64]                      --
│    └─Empty: 2-1927                     [64]                      --
│    └─BatchNorm2d: 2-1928               [16, 64, 64, 64]          --
│    └─Scaler: 2-1929                    [16, 64, 64, 64]          --
│    └─ReLU: 2-1930                      [16, 64, 64, 64]          --
│    └─Empty: 2-1931                     [16, 64, 64, 64]          --
│    └─Clamp: 2-1932                     [16, 64, 64, 64]          --
├─FusedConv2dBNReLU: 1-142               [16, 64, 64, 64]          (recursive)
│    └─OutputShiftSqueeze: 2-1933        --                        --
│    └─One: 2-1934                       [1]                       --
│    └─OutputScale: 2-1935               --                        --
│    └─Empty: 2-1936                     [64, 64, 3, 3]            --
│    └─Empty: 2-1937                     [64, 64, 3, 3]            --
│    └─Empty: 2-1938                     [64]                      --
│    └─Empty: 2-1939                     [64]                      --
│    └─BatchNorm2d: 2-1940               [16, 64, 64, 64]          --
│    └─Scaler: 2-1941                    [16, 64, 64, 64]          --
│    └─ReLU: 2-1942                      [16, 64, 64, 64]          --
│    └─Empty: 2-1943                     [16, 64, 64, 64]          --
│    └─Clamp: 2-1944                     [16, 64, 64, 64]          --
├─FusedMaxPoolConv2dBNReLU: 1-143        [16, 64, 32, 32]          (recursive)
│    └─MaxPool2d: 2-1945                 [16, 64, 32, 32]          --
│    └─Empty: 2-1946                     [16, 64, 32, 32]          --
│    └─Empty: 2-1947                     [16, 64, 32, 32]          --
│    └─OutputShiftSqueeze: 2-1948        --                        --
│    └─One: 2-1949                       [1]                       --
│    └─OutputScale: 2-1950               --                        --
│    └─Empty: 2-1951                     [64, 64, 3, 3]            --
│    └─Empty: 2-1952                     [64, 64, 3, 3]            --
│    └─Empty: 2-1953                     [64]                      --
│    └─Empty: 2-1954                     [64]                      --
│    └─BatchNorm2d: 2-1955               [16, 64, 32, 32]          --
│    └─Scaler: 2-1956                    [16, 64, 32, 32]          --
│    └─ReLU: 2-1957                      [16, 64, 32, 32]          --
│    └─Empty: 2-1958                     [16, 64, 32, 32]          --
│    └─Clamp: 2-1959                     [16, 64, 32, 32]          --
├─FusedConv2dBNReLU: 1-144               [16, 64, 32, 32]          (recursive)
│    └─OutputShiftSqueeze: 2-1960        --                        --
│    └─One: 2-1961                       [1]                       --
│    └─OutputScale: 2-1962               --                        --
│    └─Empty: 2-1963                     [64, 64, 1, 1]            --
│    └─Empty: 2-1964                     [64, 64, 1, 1]            --
│    └─Empty: 2-1965                     [64]                      --
│    └─Empty: 2-1966                     [64]                      --
│    └─BatchNorm2d: 2-1967               [16, 64, 32, 32]          --
│    └─Scaler: 2-1968                    [16, 64, 32, 32]          --
│    └─ReLU: 2-1969                      [16, 64, 32, 32]          --
│    └─Empty: 2-1970                     [16, 64, 32, 32]          --
│    └─Clamp: 2-1971                     [16, 64, 32, 32]          --
…
│    └─One: 2-2552                       [1]                       --
│    └─OutputScale: 2-2553               --                        --
│    └─Empty: 2-2554                     [64, 64, 3, 3]            --
│    └─Empty: 2-2555                     [64, 64, 3, 3]            --
│    └─Empty: 2-2556                     [64]                      --
│    └─Empty: 2-2557                     [64]                      --
│    └─BatchNorm2d: 2-2558               [16, 64, 32, 32]          --
│    └─Scaler: 2-2559                    [16, 64, 32, 32]          --
│    └─ReLU: 2-2560                      [16, 64, 32, 32]          --
│    └─Empty: 2-2561                     [16, 64, 32, 32]          --
│    └─Clamp: 2-2562                     [16, 64, 32, 32]          --
├─FusedMaxPoolConv2dBNReLU: 1-188        [16, 64, 16, 16]          (recursive)
│    └─MaxPool2d: 2-2563                 [16, 64, 16, 16]          --
│    └─Empty: 2-2564                     [16, 64, 16, 16]          --
│    └─Empty: 2-2565                     [16, 64, 16, 16]          --
│    └─OutputShiftSqueeze: 2-2566        --                        --
│    └─One: 2-2567                       [1]                       --
│    └─OutputScale: 2-2568               --                        --
│    └─Empty: 2-2569                     [64, 64, 3, 3]            --
│    └─Empty: 2-2570                     [64, 64, 3, 3]            --
│    └─Empty: 2-2571                     [64]                      --
│    └─Empty: 2-2572                     [64]                      --
│    └─BatchNorm2d: 2-2573               [16, 64, 16, 16]          --
│    └─Scaler: 2-2574                    [16, 64, 16, 16]          --
│    └─ReLU: 2-2575                      [16, 64, 16, 16]          --
│    └─Empty: 2-2576                     [16, 64, 16, 16]          --
│    └─Clamp: 2-2577                     [16, 64, 16, 16]          --
├─FusedConv2dBNReLU: 1-189               [16, 64, 16, 16]          (recursive)
│    └─OutputShiftSqueeze: 2-2578        --                        --
│    └─One: 2-2579                       [1]                       --
│    └─OutputScale: 2-2580               --                        --
│    └─Empty: 2-2581                     [64, 64, 1, 1]            --
│    └─Empty: 2-2582                     [64, 64, 1, 1]            --
│    └─Empty: 2-2583                     [64]                      --
│    └─Empty: 2-2584                     [64]                      --
│    └─BatchNorm2d: 2-2585               [16, 64, 16, 16]          --
│    └─Scaler: 2-2586                    [16, 64, 16, 16]          --
│    └─ReLU: 2-2587                      [16, 64, 16, 16]          --
│    └─Empty: 2-2588                     [16, 64, 16, 16]          --
│    └─Clamp: 2-2589                     [16, 64, 16, 16]          --
├─FusedMaxPoolConv2dBNReLU: 1-190        [16, 64, 16, 16]          (recursive)
│    └─MaxPool2d: 2-2590                 [16, 64, 16, 16]          --
│    └─Empty: 2-2591                     [16, 64, 16, 16]          --
│    └─Empty: 2-2592                     [16, 64, 16, 16]          --
│    └─OutputShiftSqueeze: 2-2593        --                        --
│    └─One: 2-2594                       [1]                       --
│    └─OutputScale: 2-2595               --                        --
│    └─Empty: 2-2596                     [64, 64, 3, 3]            --
│    └─Empty: 2-2597                     [64, 64, 3, 3]            --
│    └─Empty: 2-2598                     [64]                      --
│    └─Empty: 2-2599                     [64]                      --
│    └─BatchNorm2d: 2-2600               [16, 64, 16, 16]          --
│    └─Scaler: 2-2601                    [16, 64, 16, 16]          --
│    └─ReLU: 2-2602                      [16, 64, 16, 16]          --
│    └─Empty: 2-2603                     [16, 64, 16, 16]          --
│    └─Clamp: 2-2604                     [16, 64, 16, 16]          --
├─FusedMaxPoolConv2dBNReLU: 1-191        [16, 64, 8, 8]            (recursive)
│    └─MaxPool2d: 2-2605                 [16, 64, 8, 8]            --
│    └─Empty: 2-2606                     [16, 64, 8, 8]            --
│    └─Empty: 2-2607                     [16, 64, 8, 8]            --
│    └─OutputShiftSqueeze: 2-2608        --                        --
│    └─One: 2-2609                       [1]                       --
│    └─OutputScale: 2-2610               --                        --
│    └─Empty: 2-2611                     [64, 64, 3, 3]            --
│    └─Empty: 2-2612                     [64, 64, 3, 3]            --
│    └─Empty: 2-2613                     [64]                      --
│    └─Empty: 2-2614                     [64]                      --
│    └─BatchNorm2d: 2-2615               [16, 64, 8, 8]            --
│    └─Scaler: 2-2616                    [16, 64, 8, 8]            --
│    └─ReLU: 2-2617                      [16, 64, 8, 8]            --
│    └─Empty: 2-2618                     [16, 64, 8, 8]            --
│    └─Clamp: 2-2619                     [16, 64, 8, 8]            --
├─FusedConv2dBNReLU: 1-192               [16, 64, 8, 8]            (recursive)
│    └─OutputShiftSqueeze: 2-2620        --                        --
│    └─One: 2-2621                       [1]                       --
│    └─OutputScale: 2-2622               --                        --
│    └─Empty: 2-2623                     [64, 64, 1, 1]            --
│    └─Empty: 2-2624                     [64, 64, 1, 1]            --
│    └─Empty: 2-2625                     [64]                      --
│    └─Empty: 2-2626                     [64]                      --
│    └─BatchNorm2d: 2-2627               [16, 64, 8, 8]            --
│    └─Scaler: 2-2628                    [16, 64, 8, 8]            --
│    └─ReLU: 2-2629                      [16, 64, 8, 8]            --
│    └─Empty: 2-2630                     [16, 64, 8, 8]            --
│    └─Clamp: 2-2631                     [16, 64, 8, 8]            --
├─FusedMaxPoolConv2dBNReLU: 1-193        [16, 64, 8, 8]            (recursive)
│    └─MaxPool2d: 2-2632                 [16, 64, 8, 8]            --
│    └─Empty: 2-2633                     [16, 64, 8, 8]            --
│    └─Empty: 2-2634                     [16, 64, 8, 8]            --
│    └─OutputShiftSqueeze: 2-2635        --                        --
│    └─One: 2-2636                       [1]                       --
│    └─OutputScale: 2-2637               --                        --
│    └─Empty: 2-2638                     [64, 64, 3, 3]            --
│    └─Empty: 2-2639                     [64, 64, 3, 3]            --
│    └─Empty: 2-2640                     [64]                      --
│    └─Empty: 2-2641                     [64]                      --
│    └─BatchNorm2d: 2-2642               [16, 64, 8, 8]            --
│    └─Scaler: 2-2643                    [16, 64, 8, 8]            --
│    └─ReLU: 2-2644                      [16, 64, 8, 8]            --
│    └─Empty: 2-2645                     [16, 64, 8, 8]            --
│    └─Clamp: 2-2646                     [16, 64, 8, 8]            --
├─FusedMaxPoolConv2dBNReLU: 1-194        [16, 64, 4, 4]            (recursive)
│    └─MaxPool2d: 2-2647                 [16, 64, 4, 4]            --
│    └─Empty: 2-2648                     [16, 64, 4, 4]            --
│    └─Empty: 2-2649                     [16, 64, 4, 4]            --
│    └─OutputShiftSqueeze: 2-2650        --                        --
│    └─One: 2-2651                       [1]                       --
│    └─OutputScale: 2-2652               --                        --
│    └─Empty: 2-2653                     [64, 64, 3, 3]            --
│    └─Empty: 2-2654                     [64, 64, 3, 3]            --
│    └─Empty: 2-2655                     [64]                      --
│    └─Empty: 2-2656                     [64]                      --
│    └─BatchNorm2d: 2-2657               [16, 64, 4, 4]            --
│    └─Scaler: 2-2658                    [16, 64, 4, 4]            --
│    └─ReLU: 2-2659                      [16, 64, 4, 4]            --
│    └─Empty: 2-2660                     [16, 64, 4, 4]            --
│    └─Clamp: 2-2661                     [16, 64, 4, 4]            --
├─FusedConv2dBNReLU: 1-195               [16, 64, 4, 4]            (recursive)
│    └─OutputShiftSqueeze: 2-2662        --                        --
│    └─One: 2-2663                       [1]                       --
│    └─OutputScale: 2-2664               --                        --
│    └─Empty: 2-2665                     [64, 64, 1, 1]            --
│    └─Empty: 2-2666                     [64, 64, 1, 1]            --
│    └─Empty: 2-2667                     [64]                      --
│    └─Empty: 2-2668                     [64]                      --
│    └─BatchNorm2d: 2-2669               [16, 64, 4, 4]            --
│    └─Scaler: 2-2670                    [16, 64, 4, 4]            --
│    └─ReLU: 2-2671                      [16, 64, 4, 4]            --
│    └─Empty: 2-2672                     [16, 64, 4, 4]            --
│    └─Clamp: 2-2673                     [16, 64, 4, 4]            --
├─FusedMaxPoolConv2dBNReLU: 1-196        [16, 64, 4, 4]            (recursive)
│    └─MaxPool2d: 2-2674                 [16, 64, 4, 4]            --
│    └─Empty: 2-2675                     [16, 64, 4, 4]            --
│    └─Empty: 2-2676                     [16, 64, 4, 4]            --
│    └─OutputShiftSqueeze: 2-2677        --                        --
│    └─One: 2-2678                       [1]                       --
│    └─OutputScale: 2-2679               --                        --
│    └─Empty: 2-2680                     [64, 64, 3, 3]            --
│    └─Empty: 2-2681                     [64, 64, 3, 3]            --
│    └─Empty: 2-2682                     [64]                      --
│    └─Empty: 2-2683                     [64]                      --
│    └─BatchNorm2d: 2-2684               [16, 64, 4, 4]            --
│    └─Scaler: 2-2685                    [16, 64, 4, 4]            --
│    └─ReLU: 2-2686                      [16, 64, 4, 4]            --
│    └─Empty: 2-2687                     [16, 64, 4, 4]            --
│    └─Clamp: 2-2688                     [16, 64, 4, 4]            --
├─FusedConv2dBNReLU: 1-197               [16, 64, 64, 64]          (recursive)
│    └─OutputShiftSqueeze: 2-2689        --                        --
│    └─One: 2-2690                       [1]                       --
│    └─OutputScale: 2-2691               --                        --
│    └─Empty: 2-2692                     [64, 48, 1, 1]            --
│    └─Empty: 2-2693                     [64, 48, 1, 1]            --
│    └─Empty: 2-2694                     [64]                      --
│    └─Empty: 2-2695                     [64]                      --
│    └─BatchNorm2d: 2-2696               [16, 64, 64, 64]          --
│    └─Scaler: 2-2697                    [16, 64, 64, 64]          --
│    └─ReLU: 2-2698                      [16, 64, 64, 64]          --
│    └─Empty: 2-2699                     [16, 64, 64, 64]          --
│    └─Clamp: 2-2700                     [16, 64, 64, 64]          --
├─FusedConv2dBNReLU: 1-198               [16, 64, 64, 64]          (recursive)
│    └─OutputShiftSqueeze: 2-2701        --                        --
│    └─One: 2-2702                       [1]                       --
│    └─OutputScale: 2-2703               --                        --
│    └─Empty: 2-2704                     [64, 64, 3, 3]            --
│    └─Empty: 2-2705                     [64, 64, 3, 3]            --
│    └─Empty: 2-2706                     [64]                      --
│    └─Empty: 2-2707                     [64]                      --
│    └─BatchNorm2d: 2-2708               [16, 64, 64, 64]          --
│    └─Scaler: 2-2709                    [16, 64, 64, 64]          --
│    └─ReLU: 2-2710                      [16, 64, 64, 64]          --
│    └─Empty: 2-2711                     [16, 64, 64, 64]          --
│    └─Clamp: 2-2712                     [16, 64, 64, 64]          --
├─FusedMaxPoolConv2dBNReLU: 1-199        [16, 64, 32, 32]          (recursive)
│    └─MaxPool2d: 2-2713                 [16, 64, 32, 32]          --
│    └─Empty: 2-2714                     [16, 64, 32, 32]          --
│    └─Empty: 2-2715                     [16, 64, 32, 32]          --
│    └─OutputShiftSqueeze: 2-2716        --                        --
│    └─One: 2-2717                       [1]                       --
│    └─OutputScale: 2-2718               --                        --
│    └─Empty: 2-2719                     [64, 64, 3, 3]            --
│    └─Empty: 2-2720                     [64, 64, 3, 3]            --
│    └─Empty: 2-2721                     [64]                      --
│    └─Empty: 2-2722                     [64]                      --
│    └─BatchNorm2d: 2-2723               [16, 64, 32, 32]          --
│    └─Scaler: 2-2724                    [16, 64, 32, 32]          --
│    └─ReLU: 2-2725                      [16, 64, 32, 32]          --
│    └─Empty: 2-2726                     [16, 64, 32, 32]          --
│    └─Clamp: 2-2727                     [16, 64, 32, 32]          --
├─FusedConv2dBNReLU: 1-200               [16, 64, 32, 32]          (recursive)
│    └─OutputShiftSqueeze: 2-2728        --                        --
│    └─One: 2-2729                       [1]                       --
│    └─OutputScale: 2-2730               --                        --
│    └─Empty: 2-2731                     [64, 64, 1, 1]            --
│    └─Empty: 2-2732                     [64, 64, 1, 1]            --
│    └─Empty: 2-2733                     [64]                      --
│    └─Empty: 2-2734                     [64]                      --
│    └─BatchNorm2d: 2-2735               [16, 64, 32, 32]          --
│    └─Scaler: 2-2736                    [16, 64, 32, 32]          --
│    └─ReLU: 2-2737                      [16, 64, 32, 32]          --
│    └─Empty: 2-2738                     [16, 64, 32, 32]          --
│    └─Clamp: 2-2739                     [16, 64, 32, 32]          --
├─FusedMaxPoolConv2dBNReLU: 1-201        [16, 64, 32, 32]          (recursive)
│    └─MaxPool2d: 2-2740                 [16, 64, 32, 32]          --
│    └─Empty: 2-2741                     [16, 64, 32, 32]          --
│    └─Empty: 2-2742                     [16, 64, 32, 32]          --
│    └─OutputShiftSqueeze: 2-2743        --                        --
│    └─One: 2-2744                       [1]                       --
│    └─OutputScale: 2-2745               --                        --
│    └─Empty: 2-2746                     [64, 64, 3, 3]            --
│    └─Empty: 2-2747                     [64, 64, 3, 3]            --
│    └─Empty: 2-2748                     [64]                      --
│    └─Empty: 2-2749                     [64]                      --
│    └─BatchNorm2d: 2-2750               [16, 64, 32, 32]          --
│    └─Scaler: 2-2751                    [16, 64, 32, 32]          --
│    └─ReLU: 2-2752                      [16, 64, 32, 32]          --
│    └─Empty: 2-2753                     [16, 64, 32, 32]          --
│    └─Clamp: 2-2754                     [16, 64, 32, 32]          --
├─FusedMaxPoolConv2dBNReLU: 1-202        [16, 64, 16, 16]          (recursive)
│    └─MaxPool2d: 2-2755                 [16, 64, 16, 16]          --
│    └─Empty: 2-2756                     [16, 64, 16, 16]          --
│    └─Empty: 2-2757                     [16, 64, 16, 16]          --
│    └─OutputShiftSqueeze: 2-2758        --                        --
│    └─One: 2-2759                       [1]                       --
│    └─OutputScale: 2-2760               --                        --
│    └─Empty: 2-2761                     [64, 64, 3, 3]            --
│    └─Empty: 2-2762                     [64, 64, 3, 3]            --
│    └─Empty: 2-2763                     [64]                      --
│    └─Empty: 2-2764                     [64]                      --
│    └─BatchNorm2d: 2-2765               [16, 64, 16, 16]          --
│    └─Scaler: 2-2766                    [16, 64, 16, 16]          --
│    └─ReLU: 2-2767                      [16, 64, 16, 16]          --
│    └─Empty: 2-2768                     [16, 64, 16, 16]          --
│    └─Clamp: 2-2769                     [16, 64, 16, 16]          --
├─FusedConv2dBNReLU: 1-203               [16, 64, 16, 16]          (recursive)
│    └─OutputShiftSqueeze: 2-2770        --                        --
│    └─One: 2-2771                       [1]                       --
│    └─OutputScale: 2-2772               --                        --
│    └─Empty: 2-2773                     [64, 64, 1, 1]            --
│    └─Empty: 2-2774                     [64, 64, 1, 1]            --
│    └─Empty: 2-2775                     [64]                      --
│    └─Empty: 2-2776                     [64]                      --
│    └─BatchNorm2d: 2-2777               [16, 64, 16, 16]          --
│    └─Scaler: 2-2778                    [16, 64, 16, 16]          --
│    └─ReLU: 2-2779                      [16, 64, 16, 16]          --
│    └─Empty: 2-2780                     [16, 64, 16, 16]          --
│    └─Clamp: 2-2781                     [16, 64, 16, 16]          --
├─FusedMaxPoolConv2dBNReLU: 1-204        [16, 64, 16, 16]          (recursive)
│    └─MaxPool2d: 2-2782                 [16, 64, 16, 16]          --
│    └─Empty: 2-2783                     [16, 64, 16, 16]          --
│    └─Empty: 2-2784                     [16, 64, 16, 16]          --
│    └─OutputShiftSqueeze: 2-2785        --                        --
│    └─One: 2-2786                       [1]                       --
│    └─OutputScale: 2-2787               --                        --
│    └─Empty: 2-2788                     [64, 64, 3, 3]            --
│    └─Empty: 2-2789                     [64, 64, 3, 3]            --
│    └─Empty: 2-2790                     [64]                      --
│    └─Empty: 2-2791                     [64]                      --
│    └─BatchNorm2d: 2-2792               [16, 64, 16, 16]          --
│    └─Scaler: 2-2793                    [16, 64, 16, 16]          --
│    └─ReLU: 2-2794                      [16, 64, 16, 16]          --
│    └─Empty: 2-2795                     [16, 64, 16, 16]          --
│    └─Clamp: 2-2796                     [16, 64, 16, 16]          --
├─FusedMaxPoolConv2dBNReLU: 1-205        [16, 64, 8, 8]            (recursive)
│    └─MaxPool2d: 2-2797                 [16, 64, 8, 8]            --
│    └─Empty: 2-2798                     [16, 64, 8, 8]            --
│    └─Empty: 2-2799                     [16, 64, 8, 8]            --
│    └─OutputShiftSqueeze: 2-2800        --                        --
│    └─One: 2-2801                       [1]                       --
│    └─OutputScale: 2-2802               --                        --
│    └─Empty: 2-2803                     [64, 64, 3, 3]            --
│    └─Empty: 2-2804                     [64, 64, 3, 3]            --
│    └─Empty: 2-2805                     [64]                      --
│    └─Empty: 2-2806                     [64]                      --
│    └─BatchNorm2d: 2-2807               [16, 64, 8, 8]            --
│    └─Scaler: 2-2808                    [16, 64, 8, 8]            --
│    └─ReLU: 2-2809                      [16, 64, 8, 8]            --
│    └─Empty: 2-2810                     [16, 64, 8, 8]            --
│    └─Clamp: 2-2811                     [16, 64, 8, 8]            --
├─FusedConv2dBNReLU: 1-206               [16, 64, 8, 8]            (recursive)
│    └─OutputShiftSqueeze: 2-2812        --                        --
│    └─One: 2-2813                       [1]                       --
│    └─OutputScale: 2-2814               --                        --
│    └─Empty: 2-2815                     [64, 64, 1, 1]            --
│    └─Empty: 2-2816                     [64, 64, 1, 1]            --
│    └─Empty: 2-2817                     [64]                      --
│    └─Empty: 2-2818                     [64]                      --
│    └─BatchNorm2d: 2-2819               [16, 64, 8, 8]            --
│    └─Scaler: 2-2820                    [16, 64, 8, 8]            --
│    └─ReLU: 2-2821                      [16, 64, 8, 8]            --
│    └─Empty: 2-2822                     [16, 64, 8, 8]            --
│    └─Clamp: 2-2823                     [16, 64, 8, 8]            --
├─FusedMaxPoolConv2dBNReLU: 1-207        [16, 64, 8, 8]            (recursive)
│    └─MaxPool2d: 2-2824                 [16, 64, 8, 8]            --
│    └─Empty: 2-2825                     [16, 64, 8, 8]            --
│    └─Empty: 2-2826                     [16, 64, 8, 8]            --
│    └─OutputShiftSqueeze: 2-2827        --                        --
│    └─One: 2-2828                       [1]                       --
│    └─OutputScale: 2-2829               --                        --
│    └─Empty: 2-2830                     [64, 64, 3, 3]            --
│    └─Empty: 2-2831                     [64, 64, 3, 3]            --
│    └─Empty: 2-2832                     [64]                      --
│    └─Empty: 2-2833                     [64]                      --
│    └─BatchNorm2d: 2-2834               [16, 64, 8, 8]            --
│    └─Scaler: 2-2835                    [16, 64, 8, 8]            --
│    └─ReLU: 2-2836                      [16, 64, 8, 8]            --
│    └─Empty: 2-2837                     [16, 64, 8, 8]            --
│    └─Clamp: 2-2838                     [16, 64, 8, 8]            --
├─FusedMaxPoolConv2dBNReLU: 1-208        [16, 64, 4, 4]            (recursive)
│    └─MaxPool2d: 2-2839                 [16, 64, 4, 4]            --
│    └─Empty: 2-2840                     [16, 64, 4, 4]            --
│    └─Empty: 2-2841                     [16, 64, 4, 4]            --
│    └─OutputShiftSqueeze: 2-2842        --                        --
│    └─One: 2-2843                       [1]                       --
│    └─OutputScale: 2-2844               --                        --
│    └─Empty: 2-2845                     [64, 64, 3, 3]            --
│    └─Empty: 2-2846                     [64, 64, 3, 3]            --
│    └─Empty: 2-2847                     [64]                      --
│    └─Empty: 2-2848                     [64]                      --
│    └─BatchNorm2d: 2-2849               [16, 64, 4, 4]            --
│    └─Scaler: 2-2850                    [16, 64, 4, 4]            --
│    └─ReLU: 2-2851                      [16, 64, 4, 4]            --
│    └─Empty: 2-2852                     [16, 64, 4, 4]            --
│    └─Clamp: 2-2853                     [16, 64, 4, 4]            --
├─FusedConv2dBNReLU: 1-209               [16, 64, 4, 4]            (recursive)
│    └─OutputShiftSqueeze: 2-2854        --                        --
│    └─One: 2-2855                       [1]                       --
│    └─OutputScale: 2-2856               --                        --
│    └─Empty: 2-2857                     [64, 64, 1, 1]            --
│    └─Empty: 2-2858                     [64, 64, 1, 1]            --
│    └─Empty: 2-2859                     [64]                      --
│    └─Empty: 2-2860                     [64]                      --
│    └─BatchNorm2d: 2-2861               [16, 64, 4, 4]            --
│    └─Scaler: 2-2862                    [16, 64, 4, 4]            --
│    └─ReLU: 2-2863                      [16, 64, 4, 4]            --
│    └─Empty: 2-2864                     [16, 64, 4, 4]            --
│    └─Clamp: 2-2865                     [16, 64, 4, 4]            --
├─FusedMaxPoolConv2dBNReLU: 1-210        [16, 64, 4, 4]            (recursive)
│    └─MaxPool2d: 2-2866                 [16, 64, 4, 4]            --
│    └─Empty: 2-2867                     [16, 64, 4, 4]            --
│    └─Empty: 2-2868                     [16, 64, 4, 4]            --
│    └─OutputShiftSqueeze: 2-2869        --                        --
│    └─One: 2-2870                       [1]                       --
│    └─OutputScale: 2-2871               --                        --
│    └─Empty: 2-2872                     [64, 64, 3, 3]            --
│    └─Empty: 2-2873                     [64, 64, 3, 3]            --
│    └─Empty: 2-2874                     [64]                      --
│    └─Empty: 2-2875                     [64]                      --
│    └─BatchNorm2d: 2-2876               [16, 64, 4, 4]            --
│    └─Scaler: 2-2877                    [16, 64, 4, 4]            --
│    └─ReLU: 2-2878                      [16, 64, 4, 4]            --
│    └─Empty: 2-2879                     [16, 64, 4, 4]            --
│    └─Clamp: 2-2880                     [16, 64, 4, 4]            --
├─FusedConv2dBNReLU: 1-211               [16, 64, 64, 64]          (recursive)
│    └─OutputShiftSqueeze: 2-2881        --                        --
│    └─One: 2-2882                       [1]                       --
│    └─OutputScale: 2-2883               --                        --
│    └─Empty: 2-2884                     [64, 48, 1, 1]            --
│    └─Empty: 2-2885                     [64, 48, 1, 1]            --
│    └─Empty: 2-2886                     [64]                      --
│    └─Empty: 2-2887                     [64]                      --
│    └─BatchNorm2d: 2-2888               [16, 64, 64, 64]          --
│    └─Scaler: 2-2889                    [16, 64, 64, 64]          --
│    └─ReLU: 2-2890                      [16, 64, 64, 64]          --
│    └─Empty: 2-2891                     [16, 64, 64, 64]          --
│    └─Clamp: 2-2892                     [16, 64, 64, 64]          --
├─FusedConv2dBNReLU: 1-212               [16, 64, 64, 64]          (recursive)
│    └─OutputShiftSqueeze: 2-2893        --                        --
│    └─One: 2-2894                       [1]                       --
│    └─OutputScale: 2-2895               --                        --
│    └─Empty: 2-2896                     [64, 64, 3, 3]            --
│    └─Empty: 2-2897                     [64, 64, 3, 3]            --
│    └─Empty: 2-2898                     [64]                      --
│    └─Empty: 2-2899                     [64]                      --
│    └─BatchNorm2d: 2-2900               [16, 64, 64, 64]          --
│    └─Scaler: 2-2901                    [16, 64, 64, 64]          --
│    └─ReLU: 2-2902                      [16, 64, 64, 64]          --
│    └─Empty: 2-2903                     [16, 64, 64, 64]          --
│    └─Clamp: 2-2904                     [16, 64, 64, 64]          --
├─FusedMaxPoolConv2dBNReLU: 1-213        [16, 64, 32, 32]          (recursive)
│    └─MaxPool2d: 2-2905                 [16, 64, 32, 32]          --
│    └─Empty: 2-2906                     [16, 64, 32, 32]          --
│    └─Empty: 2-2907                     [16, 64, 32, 32]          --
│    └─OutputShiftSqueeze: 2-2908        --                        --
│    └─One: 2-2909                       [1]                       --
│    └─OutputScale: 2-2910               --                        --
│    └─Empty: 2-2911                     [64, 64, 3, 3]            --
│    └─Empty: 2-2912                     [64, 64, 3, 3]            --
│    └─Empty: 2-2913                     [64]                      --
│    └─Empty: 2-2914                     [64]                      --
│    └─BatchNorm2d: 2-2915               [16, 64, 32, 32]          --
│    └─Scaler: 2-2916                    [16, 64, 32, 32]          --
│    └─ReLU: 2-2917                      [16, 64, 32, 32]          --
│    └─Empty: 2-2918                     [16, 64, 32, 32]          --
│    └─Clamp: 2-2919                     [16, 64, 32, 32]          --
├─FusedConv2dBNReLU: 1-214               [16, 64, 32, 32]          (recursive)
│    └─OutputShiftSqueeze: 2-2920        --                        --
│    └─One: 2-2921                       [1]                       --
│    └─OutputScale: 2-2922               --                        --
│    └─Empty: 2-2923                     [64, 64, 1, 1]            --
│    └─Empty: 2-2924                     [64, 64, 1, 1]            --
│    └─Empty: 2-2925                     [64]                      --
│    └─Empty: 2-2926                     [64]                      --
│    └─BatchNorm2d: 2-2927               [16, 64, 32, 32]          --
│    └─Scaler: 2-2928                    [16, 64, 32, 32]          --
│    └─ReLU: 2-2929                      [16, 64, 32, 32]          --
│    └─Empty: 2-2930                     [16, 64, 32, 32]          --
│    └─Clamp: 2-2931                     [16, 64, 32, 32]          --
├─FusedMaxPoolConv2dBNReLU: 1-215        [16, 64, 32, 32]          (recursive)
│    └─MaxPool2d: 2-2932                 [16, 64, 32, 32]          --
│    └─Empty: 2-2933                     [16, 64, 32, 32]          --
│    └─Empty: 2-2934                     [16, 64, 32, 32]          --
│    └─OutputShiftSqueeze: 2-2935        --                        --
│    └─One: 2-2936                       [1]                       --
│    └─OutputScale: 2-2937               --                        --
│    └─Empty: 2-2938                     [64, 64, 3, 3]            --
│    └─Empty: 2-2939                     [64, 64, 3, 3]            --
│    └─Empty: 2-2940                     [64]                      --
│    └─Empty: 2-2941                     [64]                      --
│    └─BatchNorm2d: 2-2942               [16, 64, 32, 32]          --
│    └─Scaler: 2-2943                    [16, 64, 32, 32]          --
│    └─ReLU: 2-2944                      [16, 64, 32, 32]          --
│    └─Empty: 2-2945                     [16, 64, 32, 32]          --
│    └─Clamp: 2-2946                     [16, 64, 32, 32]          --
├─FusedMaxPoolConv2dBNReLU: 1-216        [16, 64, 16, 16]          (recursive)
│    └─MaxPool2d: 2-2947                 [16, 64, 16, 16]          --
│    └─Empty: 2-2948                     [16, 64, 16, 16]          --
│    └─Empty: 2-2949                     [16, 64, 16, 16]          --
│    └─OutputShiftSqueeze: 2-2950        --                        --
│    └─One: 2-2951                       [1]                       --
│    └─OutputScale: 2-2952               --                        --
│    └─Empty: 2-2953                     [64, 64, 3, 3]            --
│    └─Empty: 2-2954                     [64, 64, 3, 3]            --
│    └─Empty: 2-2955                     [64]                      --
│    └─Empty: 2-2956                     [64]                      --
│    └─BatchNorm2d: 2-2957               [16, 64, 16, 16]          --
│    └─Scaler: 2-2958                    [16, 64, 16, 16]          --
│    └─ReLU: 2-2959                      [16, 64, 16, 16]          --
│    └─Empty: 2-2960                     [16, 64, 16, 16]          --
│    └─Clamp: 2-2961                     [16, 64, 16, 16]          --
├─FusedConv2dBNReLU: 1-217               [16, 64, 16, 16]          (recursive)
│    └─OutputShiftSqueeze: 2-2962        --                        --
│    └─One: 2-2963                       [1]                       --
│    └─OutputScale: 2-2964               --                        --
│    └─Empty: 2-2965                     [64, 64, 1, 1]            --
│    └─Empty: 2-2966                     [64, 64, 1, 1]            --
│    └─Empty: 2-2967                     [64]                      --
│    └─Empty: 2-2968                     [64]                      --
│    └─BatchNorm2d: 2-2969               [16, 64, 16, 16]          --
│    └─Scaler: 2-2970                    [16, 64, 16, 16]          --
│    └─ReLU: 2-2971                      [16, 64, 16, 16]          --
│    └─Empty: 2-2972                     [16, 64, 16, 16]          --
│    └─Clamp: 2-2973                     [16, 64, 16, 16]          --
├─FusedMaxPoolConv2dBNReLU: 1-218        [16, 64, 16, 16]          (recursive)
│    └─MaxPool2d: 2-2974                 [16, 64, 16, 16]          --
│    └─Empty: 2-2975                     [16, 64, 16, 16]          --
│    └─Empty: 2-2976                     [16, 64, 16, 16]          --
│    └─OutputShiftSqueeze: 2-2977        --                        --
│    └─One: 2-2978                       [1]                       --
│    └─OutputScale: 2-2979               --                        --
│    └─Empty: 2-2980                     [64, 64, 3, 3]            --
│    └─Empty: 2-2981                     [64, 64, 3, 3]            --
│    └─Empty: 2-2982                     [64]                      --
│    └─Empty: 2-2983                     [64]                      --
│    └─BatchNorm2d: 2-2984               [16, 64, 16, 16]          --
│    └─Scaler: 2-2985                    [16, 64, 16, 16]          --
│    └─ReLU: 2-2986                      [16, 64, 16, 16]          --
│    └─Empty: 2-2987                     [16, 64, 16, 16]          --
│    └─Clamp: 2-2988                     [16, 64, 16, 16]          --
├─FusedMaxPoolConv2dBNReLU: 1-219        [16, 64, 8, 8]            (recursive)
│    └─MaxPool2d: 2-2989                 [16, 64, 8, 8]            --
│    └─Empty: 2-2990                     [16, 64, 8, 8]            --
│    └─Empty: 2-2991                     [16, 64, 8, 8]            --
│    └─OutputShiftSqueeze: 2-2992        --                        --
│    └─One: 2-2993                       [1]                       --
│    └─OutputScale: 2-2994               --                        --
│    └─Empty: 2-2995                     [64, 64, 3, 3]            --
│    └─Empty: 2-2996                     [64, 64, 3, 3]            --
│    └─Empty: 2-2997                     [64]                      --
│    └─Empty: 2-2998                     [64]                      --
│    └─BatchNorm2d: 2-2999               [16, 64, 8, 8]            --
│    └─Scaler: 2-3000                    [16, 64, 8, 8]            --
│    └─ReLU: 2-3001                      [16, 64, 8, 8]            --
│    └─Empty: 2-3002                     [16, 64, 8, 8]            --
│    └─Clamp: 2-3003                     [16, 64, 8, 8]            --
├─FusedConv2dBNReLU: 1-220               [16, 64, 8, 8]            (recursive)
│    └─OutputShiftSqueeze: 2-3004        --                        --
│    └─One: 2-3005                       [1]                       --
│    └─OutputScale: 2-3006               --                        --
│    └─Empty: 2-3007                     [64, 64, 1, 1]            --
│    └─Empty: 2-3008                     [64, 64, 1, 1]            --
│    └─Empty: 2-3009                     [64]                      --
│    └─Empty: 2-3010                     [64]                      --
│    └─BatchNorm2d: 2-3011               [16, 64, 8, 8]            --
│    └─Scaler: 2-3012                    [16, 64, 8, 8]            --
│    └─ReLU: 2-3013                      [16, 64, 8, 8]            --
│    └─Empty: 2-3014                     [16, 64, 8, 8]            --
│    └─Clamp: 2-3015                     [16, 64, 8, 8]            --
├─FusedMaxPoolConv2dBNReLU: 1-221        [16, 64, 8, 8]            (recursive)
│    └─MaxPool2d: 2-3016                 [16, 64, 8, 8]            --
│    └─Empty: 2-3017                     [16, 64, 8, 8]            --
│    └─Empty: 2-3018                     [16, 64, 8, 8]            --
│    └─OutputShiftSqueeze: 2-3019        --                        --
│    └─One: 2-3020                       [1]                       --
│    └─OutputScale: 2-3021               --                        --
│    └─Empty: 2-3022                     [64, 64, 3, 3]            --
│    └─Empty: 2-3023                     [64, 64, 3, 3]            --
│    └─Empty: 2-3024                     [64]                      --
│    └─Empty: 2-3025                     [64]                      --
│    └─BatchNorm2d: 2-3026               [16, 64, 8, 8]            --
│    └─Scaler: 2-3027                    [16, 64, 8, 8]            --
│    └─ReLU: 2-3028                      [16, 64, 8, 8]            --
│    └─Empty: 2-3029                     [16, 64, 8, 8]            --
│    └─Clamp: 2-3030                     [16, 64, 8, 8]            --
├─FusedMaxPoolConv2dBNReLU: 1-222        [16, 64, 4, 4]            (recursive)
│    └─MaxPool2d: 2-3031                 [16, 64, 4, 4]            --
│    └─Empty: 2-3032                     [16, 64, 4, 4]            --
│    └─Empty: 2-3033                     [16, 64, 4, 4]            --
│    └─OutputShiftSqueeze: 2-3034        --                        --
│    └─One: 2-3035                       [1]                       --
│    └─OutputScale: 2-3036               --                        --
│    └─Empty: 2-3037                     [64, 64, 3, 3]            --
│    └─Empty: 2-3038                     [64, 64, 3, 3]            --
│    └─Empty: 2-3039                     [64]                      --
│    └─Empty: 2-3040                     [64]                      --
│    └─BatchNorm2d: 2-3041               [16, 64, 4, 4]            --
│    └─Scaler: 2-3042                    [16, 64, 4, 4]            --
│    └─ReLU: 2-3043                      [16, 64, 4, 4]            --
│    └─Empty: 2-3044                     [16, 64, 4, 4]            --
│    └─Clamp: 2-3045                     [16, 64, 4, 4]            --
├─FusedConv2dBNReLU: 1-223               [16, 64, 4, 4]            (recursive)
│    └─OutputShiftSqueeze: 2-3046        --                        --
│    └─One: 2-3047                       [1]                       --
│    └─OutputScale: 2-3048               --                        --
│    └─Empty: 2-3049                     [64, 64, 1, 1]            --
│    └─Empty: 2-3050                     [64, 64, 1, 1]            --
│    └─Empty: 2-3051                     [64]                      --
│    └─Empty: 2-3052                     [64]                      --
│    └─BatchNorm2d: 2-3053               [16, 64, 4, 4]            --
│    └─Scaler: 2-3054                    [16, 64, 4, 4]            --
│    └─ReLU: 2-3055                      [16, 64, 4, 4]            --
│    └─Empty: 2-3056                     [16, 64, 4, 4]            --
│    └─Clamp: 2-3057                     [16, 64, 4, 4]            --
├─FusedMaxPoolConv2dBNReLU: 1-224        [16, 64, 4, 4]            (recursive)
│    └─MaxPool2d: 2-3058                 [16, 64, 4, 4]            --
│    └─Empty: 2-3059                     [16, 64, 4, 4]            --
│    └─Empty: 2-3060                     [16, 64, 4, 4]            --
│    └─OutputShiftSqueeze: 2-3061        --                        --
│    └─One: 2-3062                       [1]                       --
│    └─OutputScale: 2-3063               --                        --
│    └─Empty: 2-3064                     [64, 64, 3, 3]            --
│    └─Empty: 2-3065                     [64, 64, 3, 3]            --
│    └─Empty: 2-3066                     [64]                      --
│    └─Empty: 2-3067                     [64]                      --
│    └─BatchNorm2d: 2-3068               [16, 64, 4, 4]            --
│    └─Scaler: 2-3069                    [16, 64, 4, 4]            --
│    └─ReLU: 2-3070                      [16, 64, 4, 4]            --
│    └─Empty: 2-3071                     [16, 64, 4, 4]            --
│    └─Clamp: 2-3072                     [16, 64, 4, 4]            --
├─Linear: 1-225                          [16, 4]                   4,102
│    └─OutputShiftSqueeze: 2-3073        --                        --
│    └─One: 2-3074                       [1]                       --
│    └─OutputScale: 2-3075               --                        --
│    └─Empty: 2-3076                     [4, 1024]                 --
│    └─Empty: 2-3077                     [4, 1024]                 --
│    └─Empty: 2-3078                     [16, 4]                   --
│    └─Empty: 2-3079                     [16, 4]                   --
│    └─Clamp: 2-3080                     [16, 4]                   --
├─Linear: 1-226                          [16, 4]                   (recursive)
│    └─OutputShiftSqueeze: 2-3081        --                        --
│    └─One: 2-3082                       [1]                       --
│    └─OutputScale: 2-3083               --                        --
│    └─Empty: 2-3084                     [4, 1024]                 --
│    └─Empty: 2-3085                     [4, 1024]                 --
│    └─Empty: 2-3086                     [16, 4]                   --
│    └─Empty: 2-3087                     [16, 4]                   --
│    └─Clamp: 2-3088                     [16, 4]                   --
├─Linear: 1-227                          [16, 4]                   (recursive)
│    └─OutputShiftSqueeze: 2-3089        --                        --
│    └─One: 2-3090                       [1]                       --
│    └─OutputScale: 2-3091               --                        --
│    └─Empty: 2-3092                     [4, 1024]                 --
│    └─Empty: 2-3093                     [4, 1024]                 --
│    └─Empty: 2-3094                     [16, 4]                   --
│    └─Empty: 2-3095                     [16, 4]                   --
│    └─Clamp: 2-3096                     [16, 4]                   --
├─Linear: 1-228                          [16, 4]                   (recursive)
│    └─OutputShiftSqueeze: 2-3097        --                        --
│    └─One: 2-3098                       [1]                       --
│    └─OutputScale: 2-3099               --                        --
│    └─Empty: 2-3100                     [4, 1024]                 --
│    └─Empty: 2-3101                     [4, 1024]                 --
│    └─Empty: 2-3102                     [16, 4]                   --
│    └─Empty: 2-3103                     [16, 4]                   --
│    └─Clamp: 2-3104                     [16, 4]                   --
├─Linear: 1-229                          [16, 4]                   (recursive)
│    └─OutputShiftSqueeze: 2-3105        --                        --
│    └─One: 2-3106                       [1]                       --
│    └─OutputScale: 2-3107               --                        --
│    └─Empty: 2-3108                     [4, 1024]                 --
│    └─Empty: 2-3109                     [4, 1024]                 --
│    └─Empty: 2-3110                     [16, 4]                   --
│    └─Empty: 2-3111                     [16, 4]                   --
│    └─Clamp: 2-3112                     [16, 4]                   --
├─Linear: 1-230                          [16, 4]                   (recursive)
│    └─OutputShiftSqueeze: 2-3113        --                        --
│    └─One: 2-3114                       [1]                       --
│    └─OutputScale: 2-3115               --                        --
│    └─Empty: 2-3116                     [4, 1024]                 --
│    └─Empty: 2-3117                     [4, 1024]                 --
│    └─Empty: 2-3118                     [16, 4]                   --
│    └─Empty: 2-3119                     [16, 4]                   --
│    └─Clamp: 2-3120                     [16, 4]                   --
├─Linear: 1-231                          [16, 4]                   (recursive)
│    └─OutputShiftSqueeze: 2-3121        --                        --
│    └─One: 2-3122                       [1]                       --
│    └─OutputScale: 2-3123               --                        --
│    └─Empty: 2-3124                     [4, 1024]                 --
│    └─Empty: 2-3125                     [4, 1024]                 --
│    └─Empty: 2-3126                     [16, 4]                   --
│    └─Empty: 2-3127                     [16, 4]                   --
│    └─Clamp: 2-3128                     [16, 4]                   --
├─Linear: 1-232                          [16, 4]                   (recursive)
│    └─OutputShiftSqueeze: 2-3129        --                        --
│    └─One: 2-3130                       [1]                       --
│    └─OutputScale: 2-3131               --                        --
│    └─Empty: 2-3132                     [4, 1024]                 --
│    └─Empty: 2-3133                     [4, 1024]                 --
│    └─Empty: 2-3134                     [16, 4]                   --
│    └─Empty: 2-3135                     [16, 4]                   --
│    └─Clamp: 2-3136                     [16, 4]                   --
├─Linear: 1-233                          [16, 4]                   (recursive)
│    └─OutputShiftSqueeze: 2-3137        --                        --
│    └─One: 2-3138                       [1]                       --
│    └─OutputScale: 2-3139               --                        --
│    └─Empty: 2-3140                     [4, 1024]                 --
│    └─Empty: 2-3141                     [4, 1024]                 --
│    └─Empty: 2-3142                     [16, 4]                   --
│    └─Empty: 2-3143                     [16, 4]                   --
│    └─Clamp: 2-3144                     [16, 4]                   --
├─Linear: 1-234                          [16, 4]                   (recursive)
│    └─OutputShiftSqueeze: 2-3145        --                        --
│    └─One: 2-3146                       [1]                       --
│    └─OutputScale: 2-3147               --                        --
│    └─Empty: 2-3148                     [4, 1024]                 --
│    └─Empty: 2-3149                     [4, 1024]                 --
│    └─Empty: 2-3150                     [16, 4]                   --
│    └─Empty: 2-3151                     [16, 4]                   --
│    └─Clamp: 2-3152                     [16, 4]                   --
├─Linear: 1-235                          [16, 4]                   (recursive)
│    └─OutputShiftSqueeze: 2-3153        --                        --
│    └─One: 2-3154                       [1]                       --
│    └─OutputScale: 2-3155               --                        --
│    └─Empty: 2-3156                     [4, 1024]                 --
│    └─Empty: 2-3157                     [4, 1024]                 --
│    └─Empty: 2-3158                     [16, 4]                   --
│    └─Empty: 2-3159                     [16, 4]                   --
│    └─Clamp: 2-3160                     [16, 4]                   --
├─Linear: 1-236                          [16, 4]                   (recursive)
│    └─OutputShiftSqueeze: 2-3161        --                        --
│    └─One: 2-3162                       [1]                       --
│    └─OutputScale: 2-3163               --                        --
│    └─Empty: 2-3164                     [4, 1024]                 --
│    └─Empty: 2-3165                     [4, 1024]                 --
│    └─Empty: 2-3166                     [16, 4]                   --
│    └─Empty: 2-3167                     [16, 4]                   --
│    └─Clamp: 2-3168                     [16, 4]                   --
├─Linear: 1-237                          [16, 4]                   (recursive)
│    └─OutputShiftSqueeze: 2-3169        --                        --
│    └─One: 2-3170                       [1]                       --
│    └─OutputScale: 2-3171               --                        --
│    └─Empty: 2-3172                     [4, 1024]                 --
│    └─Empty: 2-3173                     [4, 1024]                 --
│    └─Empty: 2-3174                     [16, 4]                   --
│    └─Empty: 2-3175                     [16, 4]                   --
│    └─Clamp: 2-3176                     [16, 4]                   --
├─Linear: 1-238                          [16, 4]                   (recursive)
│    └─OutputShiftSqueeze: 2-3177        --                        --
│    └─One: 2-3178                       [1]                       --
│    └─OutputScale: 2-3179               --                        --
│    └─Empty: 2-3180                     [4, 1024]                 --
│    └─Empty: 2-3181                     [4, 1024]                 --
│    └─Empty: 2-3182                     [16, 4]                   --
│    └─Empty: 2-3183                     [16, 4]                   --
│    └─Clamp: 2-3184                     [16, 4]                   --
├─Linear: 1-239                          [16, 4]                   (recursive)
│    └─OutputShiftSqueeze: 2-3185        --                        --
│    └─One: 2-3186                       [1]                       --
│    └─OutputScale: 2-3187               --                        --
│    └─Empty: 2-3188                     [4, 1024]                 --
│    └─Empty: 2-3189                     [4, 1024]                 --
│    └─Empty: 2-3190                     [16, 4]                   --
│    └─Empty: 2-3191                     [16, 4]                   --
│    └─Clamp: 2-3192                     [16, 4]                   --
├─Linear: 1-240                          [16, 4]                   (recursive)
│    └─OutputShiftSqueeze: 2-3193        --                        --
│    └─One: 2-3194                       [1]                       --
│    └─OutputScale: 2-3195               --                        --
│    └─Empty: 2-3196                     [4, 1024]                 --
│    └─Empty: 2-3197                     [4, 1024]                 --
│    └─Empty: 2-3198                     [16, 4]                   --
│    └─Empty: 2-3199                     [16, 4]                   --
│    └─Clamp: 2-3200                     [16, 4]                   --
==========================================================================================
Total params: 356,314
Trainable params: 356,224
Non-trainable params: 90
Total mult-adds (M): 0.00
==========================================================================================
Input size (MB): 201.33
Forward/backward pass size (MB): 0.00
Params size (MB): 0.00
Estimated Total Size (MB): 201.33
…
