…
I - Label min-max:  tensor(0) tensor(3) data number in dataset:  tensor([187413,  72346, 133086,  85680, 117023,  70469, 116865, 170833,  33440,
         19871, 147370, 197692,  42251,   7928,  12887, 204021])
I - Initializing model TCNv10
I - Number of Model Parameters: 169868
I - Model output shape:  torch.Size([16, 4])
I - Model summary
==========================================================================================
Layer (type:depth-idx)                   Output Shape              Param #
==========================================================================================
TCNv10                                   [16, 4]                   --
├─FusedConv2dBNReLU: 1-1                 [16, 64, 64, 64]          --
│    └─ReLU: 2-1673                      [16, 64, 64, 64]          --
│    └─Conv2d: 2-2                       --                        3,136
│    └─BatchNorm2d: 2-1671               [16, 64, 64, 64]          --
│    └─OutputShiftSqueeze: 2-4           --                        --
│    └─One: 2-5                          [1]                       --
│    └─Scaler: 2-1672                    [16, 64, 64, 64]          --
│    └─OutputScale: 2-7                  --                        --
│    └─Empty: 2-8                        [64, 48, 1, 1]            --
│    └─Empty: 2-9                        [64, 48, 1, 1]            --
│    └─Empty: 2-10                       [64]                      --
│    └─Empty: 2-11                       [64]                      --
│    └─BatchNorm2d: 2-12                 [16, 64, 64, 64]          --
│    └─Scaler: 2-13                      [16, 64, 64, 64]          --
│    └─Empty: 2-14                       --                        --
│    └─Empty: 2-15                       --                        --
│    └─ReLU: 2-16                        [16, 64, 64, 64]          --
├─FusedConv2dBNReLU: 1                   --                        --
│    └─ReLU: 2-1685                      [16, 64, 64, 64]          --
│    └─Conv2d: 2-18                      --                        36,928
│    └─BatchNorm2d: 2-1683               [16, 64, 64, 64]          --
├─FusedConv2dBNReLU: 1                   --                        --
│    └─Empty: 2-20                       [16, 64, 64, 64]          --
│    └─Clamp: 2-21                       [16, 64, 64, 64]          --
├─FusedConv2dBNReLU: 1                   --                        --
│    └─Scaler: 2-1684                    [16, 64, 64, 64]          --
├─FusedConv2dBNReLU: 1-2                 [16, 64, 64, 64]          36,934
│    └─OutputShiftSqueeze: 2-23          --                        --
│    └─One: 2-24                         [1]                       --
│    └─OutputScale: 2-25                 --                        --
│    └─Empty: 2-26                       [64, 64, 3, 3]            --
│    └─Empty: 2-27                       [64, 64, 3, 3]            --
│    └─Empty: 2-28                       [64]                      --
│    └─Empty: 2-29                       [64]                      --
│    └─BatchNorm2d: 2-30                 [16, 64, 64, 64]          --
├─FusedMaxPoolConv2dBNReLU: 1-127        [16, 64, 32, 32]          (recursive)
│    └─ReLU: 2-1700                      [16, 64, 32, 32]          --
│    └─MaxPool2d: 2-1688                 [16, 64, 32, 32]          --
│    └─Conv2d: 2-33                      --                        36,928
│    └─BatchNorm2d: 2-1698               [16, 64, 32, 32]          --
├─FusedConv2dBNReLU: 1                   --                        --
│    └─Scaler: 2-35                      [16, 64, 64, 64]          --
│    └─ReLU: 2-36                        [16, 64, 64, 64]          --
├─FusedMaxPoolConv2dBNReLU: 1            --                        --
│    └─Scaler: 2-1699                    [16, 64, 32, 32]          --
├─FusedConv2dBNReLU: 1                   --                        --
│    └─Empty: 2-38                       [16, 64, 64, 64]          --
│    └─Clamp: 2-39                       [16, 64, 64, 64]          --
├─FusedMaxPoolConv2dBNReLU: 1-4          [16, 64, 32, 32]          32,774
│    └─MaxPool2d: 2-40                   [16, 64, 32, 32]          --
│    └─Empty: 2-41                       [16, 64, 32, 32]          --
│    └─Empty: 2-42                       [16, 64, 32, 32]          --
│    └─OutputShiftSqueeze: 2-43          --                        --
│    └─Empty: 2-1689                     [16, 64, 32, 32]          --
│    └─Empty: 2-1690                     [16, 64, 32, 32]          --
│    └─One: 2-46                         [1]                       --
├─FusedConv2dBNReLU: 1                   --                        --
│    └─ReLU: 2-1712                      [16, 64, 32, 32]          --
│    └─Conv2d: 2-48                      --                        4,160
│    └─BatchNorm2d: 2-1710               [16, 64, 32, 32]          --
├─FusedMaxPoolConv2dBNReLU: 1            --                        --
│    └─OutputScale: 2-50                 --                        --
│    └─Empty: 2-51                       [64, 64, 3, 3]            --
├─FusedConv2dBNReLU: 1                   --                        --
│    └─Scaler: 2-1711                    [16, 64, 32, 32]          --
├─FusedMaxPoolConv2dBNReLU: 1            --                        --
│    └─Empty: 2-53                       [64, 64, 3, 3]            --
│    └─Empty: 2-54                       [64]                      --
│    └─Empty: 2-55                       [64]                      --
│    └─BatchNorm2d: 2-56                 [16, 64, 32, 32]          --
│    └─Scaler: 2-57                      [16, 64, 32, 32]          --
│    └─ReLU: 2-58                        [16, 64, 32, 32]          --
│    └─Empty: 2-59                       [16, 64, 32, 32]          --
│    └─Clamp: 2-60                       [16, 64, 32, 32]          --
├─FusedConv2dBNReLU: 1-5                 [16, 64, 32, 32]          4,166
├─FusedMaxPoolConv2dBNReLU: 1-129        [16, 64, 32, 32]          (recursive)
│    └─ReLU: 2-1727                      [16, 64, 32, 32]          --
│    └─MaxPool2d: 2-1715                 [16, 64, 32, 32]          --
│    └─Conv2d: 2-63                      --                        36,928
│    └─BatchNorm2d: 2-1725               [16, 64, 32, 32]          --
├─FusedConv2dBNReLU: 1                   --                        --
│    └─OutputShiftSqueeze: 2-65          --                        --
│    └─One: 2-66                         [1]                       --
├─FusedMaxPoolConv2dBNReLU: 1            --                        --
│    └─Scaler: 2-1726                    [16, 64, 32, 32]          --
├─FusedConv2dBNReLU: 1                   --                        --
│    └─OutputScale: 2-68                 --                        --
│    └─Empty: 2-69                       [64, 64, 1, 1]            --
│    └─Empty: 2-70                       [64, 64, 1, 1]            --
│    └─Empty: 2-71                       [64]                      --
│    └─Empty: 2-72                       [64]                      --
│    └─BatchNorm2d: 2-73                 [16, 64, 32, 32]          --
│    └─Scaler: 2-74                      [16, 64, 32, 32]          --
│    └─ReLU: 2-75                        [16, 64, 32, 32]          --
│    └─Empty: 2-76                       [16, 64, 32, 32]          --
├─FusedMaxPoolConv2dBNReLU: 1-130        [16, 64, 16, 16]          (recursive)
│    └─ReLU: 2-1742                      [16, 64, 16, 16]          --
│    └─MaxPool2d: 2-1730                 [16, 64, 16, 16]          --
│    └─Conv2d: 2-79                      --                        36,928
│    └─BatchNorm2d: 2-1740               [16, 64, 16, 16]          --
├─FusedConv2dBNReLU: 1                   --                        --
│    └─Clamp: 2-81                       [16, 64, 32, 32]          --
├─FusedMaxPoolConv2dBNReLU: 1-8          [16, 64, 32, 32]          36,674
├─FusedMaxPoolConv2dBNReLU: 1            --                        --
│    └─Scaler: 2-1741                    [16, 64, 16, 16]          --
├─FusedMaxPoolConv2dBNReLU: 1            --                        --
│    └─MaxPool2d: 2-83                   [16, 64, 32, 32]          --
│    └─Empty: 2-84                       [16, 64, 32, 32]          --
│    └─Empty: 2-85                       [16, 64, 32, 32]          --
│    └─OutputShiftSqueeze: 2-86          --                        --
│    └─One: 2-87                         [1]                       --
│    └─OutputScale: 2-88                 --                        --
│    └─Empty: 2-89                       [64, 64, 3, 3]            --
├─FusedMaxPoolConv2dBNReLU: 1            --                        --
│    └─Empty: 2-1731                     [16, 64, 16, 16]          --
│    └─Empty: 2-1732                     [16, 64, 16, 16]          --
├─FusedMaxPoolConv2dBNReLU: 1            --                        --
│    └─Empty: 2-92                       [64, 64, 3, 3]            --
├─FusedConv2dBNReLU: 1                   --                        --
│    └─ReLU: 2-1754                      [16, 4, 16, 16]           --
│    └─Conv2d: 2-94                      --                        260
│    └─BatchNorm2d: 2-1752               [16, 4, 16, 16]           --
├─FusedMaxPoolConv2dBNReLU: 1            --                        --
│    └─Empty: 2-96                       [64]                      --
│    └─Empty: 2-97                       [64]                      --
├─FusedConv2dBNReLU: 1                   --                        --
│    └─Scaler: 2-1753                    [16, 4, 16, 16]           --
├─FusedMaxPoolConv2dBNReLU: 1            --                        --
│    └─BatchNorm2d: 2-99                 [16, 64, 32, 32]          --
│    └─Scaler: 2-100                     [16, 64, 32, 32]          --
│    └─ReLU: 2-101                       [16, 64, 32, 32]          --
│    └─Empty: 2-102                      [16, 64, 32, 32]          --
│    └─Clamp: 2-103                      [16, 64, 32, 32]          --
├─FusedMaxPoolConv2dBNReLU: 1-9          [16, 64, 16, 16]          36,934
│    └─MaxPool2d: 2-104                  [16, 64, 16, 16]          --
│    └─Empty: 2-105                      [16, 64, 16, 16]          --
│    └─Empty: 2-106                      [16, 64, 16, 16]          --
├─FusedMaxPoolConv2dBNReLU: 1-132        [16, 4, 16, 16]           (recursive)
│    └─ReLU: 2-1769                      [16, 4, 16, 16]           --
│    └─MaxPool2d: 2-1757                 [16, 64, 16, 16]          --
│    └─Conv2d: 2-109                     --                        2,308
│    └─BatchNorm2d: 2-1767               [16, 4, 16, 16]           --
├─FusedMaxPoolConv2dBNReLU: 1            --                        --
│    └─OutputShiftSqueeze: 2-111         --                        --
│    └─One: 2-112                        [1]                       --
├─FusedMaxPoolConv2dBNReLU: 1            --                        --
│    └─Scaler: 2-1768                    [16, 4, 16, 16]           --
├─FusedMaxPoolConv2dBNReLU: 1            --                        --
│    └─OutputScale: 2-114                --                        --
│    └─Empty: 2-115                      [64, 64, 3, 3]            --
│    └─Empty: 2-116                      [64, 64, 3, 3]            --
│    └─Empty: 2-117                      [64]                      --
│    └─Empty: 2-118                      [64]                      --
│    └─BatchNorm2d: 2-119                [16, 64, 16, 16]          --
│    └─Scaler: 2-120                     [16, 64, 16, 16]          --
│    └─ReLU: 2-121                       [16, 64, 16, 16]          --
│    └─Empty: 2-122                      [16, 64, 16, 16]          --
│    └─Clamp: 2-123                      [16, 64, 16, 16]          --
├─FusedConv2dBNReLU: 1-11                [16, 4, 16, 16]           266
│    └─OutputShiftSqueeze: 2-124         --                        --
│    └─One: 2-125                        [1]                       --
│    └─OutputScale: 2-126                --                        --
├─Conv1d: 1                              --                        --
│    └─Scaler: 2-1779                    [16, 4, 14]               --
├─FusedConv2dBNReLU: 1                   --                        --
│    └─Empty: 2-128                      [4, 64, 1, 1]             --
│    └─Empty: 2-129                      [4, 64, 1, 1]             --
│    └─Empty: 2-130                      [4]                       --
│    └─Empty: 2-131                      [4]                       --
│    └─BatchNorm2d: 2-132                [16, 4, 16, 16]           --
│    └─Scaler: 2-133                     [16, 4, 16, 16]           --
│    └─ReLU: 2-134                       [16, 4, 16, 16]           --
│    └─Empty: 2-135                      [16, 4, 16, 16]           --
│    └─Clamp: 2-136                      [16, 4, 16, 16]           --
├─FusedMaxPoolConv2dBNReLU: 1-12         [16, 4, 16, 16]           2,314
│    └─MaxPool2d: 2-137                  [16, 64, 16, 16]          --
│    └─Empty: 2-138                      [16, 64, 16, 16]          --
│    └─Empty: 2-139                      [16, 64, 16, 16]          --
│    └─OutputShiftSqueeze: 2-140         --                        --
│    └─One: 2-141                        [1]                       --
│    └─OutputScale: 2-142                --                        --
│    └─Empty: 2-143                      [4, 64, 3, 3]             --
│    └─Empty: 2-144                      [4, 64, 3, 3]             --
│    └─Empty: 2-145                      [4]                       --
│    └─Empty: 2-146                      [4]                       --
│    └─BatchNorm2d: 2-147                [16, 4, 16, 16]           --
│    └─Scaler: 2-148                     [16, 4, 16, 16]           --
│    └─ReLU: 2-149                       [16, 4, 16, 16]           --
│    └─Empty: 2-150                      [16, 4, 16, 16]           --
│    └─Clamp: 2-151                      [16, 4, 16, 16]           --
├─FusedConv2dBNReLU: 1-13                [16, 64, 64, 64]          (recursive)
│    └─OutputShiftSqueeze: 2-152         --                        --
│    └─One: 2-153                        [1]                       --
│    └─OutputScale: 2-154                --                        --
│    └─Empty: 2-155                      [64, 48, 1, 1]            --
│    └─Empty: 2-156                      [64, 48, 1, 1]            --
│    └─Empty: 2-157                      [64]                      --
│    └─Empty: 2-158                      [64]                      --
│    └─BatchNorm2d: 2-159                [16, 64, 64, 64]          --
│    └─Scaler: 2-160                     [16, 64, 64, 64]          --
│    └─ReLU: 2-161                       [16, 64, 64, 64]          --
│    └─Empty: 2-162                      [16, 64, 64, 64]          --
│    └─Clamp: 2-163                      [16, 64, 64, 64]          --
├─FusedConv2dBNReLU: 1-14                [16, 64, 64, 64]          (recursive)
│    └─OutputShiftSqueeze: 2-164         --                        --
│    └─One: 2-165                        [1]                       --
│    └─OutputScale: 2-166                --                        --
│    └─Empty: 2-167                      [64, 64, 3, 3]            --
│    └─Empty: 2-168                      [64, 64, 3, 3]            --
│    └─Empty: 2-169                      [64]                      --
│    └─Empty: 2-170                      [64]                      --
│    └─BatchNorm2d: 2-171                [16, 64, 64, 64]          --
│    └─Scaler: 2-172                     [16, 64, 64, 64]          --
│    └─ReLU: 2-173                       [16, 64, 64, 64]          --
│    └─Empty: 2-174                      [16, 64, 64, 64]          --
│    └─Clamp: 2-175                      [16, 64, 64, 64]          --
├─FusedMaxPoolConv2dBNReLU: 1-15         [16, 64, 32, 32]          (recursive)
│    └─MaxPool2d: 2-176                  [16, 64, 32, 32]          --
│    └─Empty: 2-177                      [16, 64, 32, 32]          --
│    └─Empty: 2-178                      [16, 64, 32, 32]          --
│    └─OutputShiftSqueeze: 2-179         --                        --
│    └─One: 2-180                        [1]                       --
│    └─OutputScale: 2-181                --                        --
│    └─Empty: 2-182                      [64, 64, 3, 3]            --
│    └─Empty: 2-183                      [64, 64, 3, 3]            --
│    └─Empty: 2-184                      [64]                      --
│    └─Empty: 2-185                      [64]                      --
│    └─BatchNorm2d: 2-186                [16, 64, 32, 32]          --
│    └─Scaler: 2-187                     [16, 64, 32, 32]          --
│    └─ReLU: 2-188                       [16, 64, 32, 32]          --
│    └─Empty: 2-189                      [16, 64, 32, 32]          --
│    └─Clamp: 2-190                      [16, 64, 32, 32]          --
├─FusedConv2dBNReLU: 1-16                [16, 64, 32, 32]          (recursive)
│    └─OutputShiftSqueeze: 2-191         --                        --
│    └─One: 2-192                        [1]                       --
│    └─OutputScale: 2-193                --                        --
│    └─Empty: 2-194                      [64, 64, 1, 1]            --
│    └─Empty: 2-195                      [64, 64, 1, 1]            --
│    └─Empty: 2-196                      [64]                      --
│    └─Empty: 2-197                      [64]                      --
│    └─BatchNorm2d: 2-198                [16, 64, 32, 32]          --
│    └─Scaler: 2-199                     [16, 64, 32, 32]          --
│    └─ReLU: 2-200                       [16, 64, 32, 32]          --
│    └─Empty: 2-201                      [16, 64, 32, 32]          --
│    └─Clamp: 2-202                      [16, 64, 32, 32]          --
├─FusedMaxPoolConv2dBNReLU: 1-17         [16, 64, 32, 32]          (recursive)
│    └─MaxPool2d: 2-203                  [16, 64, 32, 32]          --
│    └─Empty: 2-204                      [16, 64, 32, 32]          --
│    └─Empty: 2-205                      [16, 64, 32, 32]          --
│    └─OutputShiftSqueeze: 2-206         --                        --
│    └─One: 2-207                        [1]                       --
│    └─OutputScale: 2-208                --                        --
│    └─Empty: 2-209                      [64, 64, 3, 3]            --
│    └─Empty: 2-210                      [64, 64, 3, 3]            --
│    └─Empty: 2-211                      [64]                      --
│    └─Empty: 2-212                      [64]                      --
│    └─BatchNorm2d: 2-213                [16, 64, 32, 32]          --
│    └─Scaler: 2-214                     [16, 64, 32, 32]          --
│    └─ReLU: 2-215                       [16, 64, 32, 32]          --
│    └─Empty: 2-216                      [16, 64, 32, 32]          --
│    └─Clamp: 2-217                      [16, 64, 32, 32]          --
├─FusedMaxPoolConv2dBNReLU: 1-18         [16, 64, 16, 16]          (recursive)
│    └─MaxPool2d: 2-218                  [16, 64, 16, 16]          --
│    └─Empty: 2-219                      [16, 64, 16, 16]          --
│    └─Empty: 2-220                      [16, 64, 16, 16]          --
│    └─OutputShiftSqueeze: 2-221         --                        --
│    └─One: 2-222                        [1]                       --
│    └─OutputScale: 2-223                --                        --
│    └─Empty: 2-224                      [64, 64, 3, 3]            --
│    └─Empty: 2-225                      [64, 64, 3, 3]            --
│    └─Empty: 2-226                      [64]                      --
│    └─Empty: 2-227                      [64]                      --
│    └─BatchNorm2d: 2-228                [16, 64, 16, 16]          --
│    └─Scaler: 2-229                     [16, 64, 16, 16]          --
│    └─ReLU: 2-230                       [16, 64, 16, 16]          --
│    └─Empty: 2-231                      [16, 64, 16, 16]          --
│    └─Clamp: 2-232                      [16, 64, 16, 16]          --
├─FusedConv2dBNReLU: 1-19                [16, 4, 16, 16]           (recursive)
│    └─OutputShiftSqueeze: 2-233         --                        --
│    └─One: 2-234                        [1]                       --
│    └─OutputScale: 2-235                --                        --
│    └─Empty: 2-236                      [4, 64, 1, 1]             --
│    └─Empty: 2-237                      [4, 64, 1, 1]             --
│    └─Empty: 2-238                      [4]                       --
│    └─Empty: 2-239                      [4]                       --
│    └─BatchNorm2d: 2-240                [16, 4, 16, 16]           --
│    └─Scaler: 2-241                     [16, 4, 16, 16]           --
│    └─ReLU: 2-242                       [16, 4, 16, 16]           --
│    └─Empty: 2-243                      [16, 4, 16, 16]           --
│    └─Clamp: 2-244                      [16, 4, 16, 16]           --
├─FusedMaxPoolConv2dBNReLU: 1-20         [16, 4, 16, 16]           (recursive)
│    └─MaxPool2d: 2-245                  [16, 64, 16, 16]          --
│    └─Empty: 2-246                      [16, 64, 16, 16]          --
│    └─Empty: 2-247                      [16, 64, 16, 16]          --
│    └─OutputShiftSqueeze: 2-248         --                        --
│    └─One: 2-249                        [1]                       --
│    └─OutputScale: 2-250                --                        --
│    └─Empty: 2-251                      [4, 64, 3, 3]             --
│    └─Empty: 2-252                      [4, 64, 3, 3]             --
│    └─Empty: 2-253                      [4]                       --
│    └─Empty: 2-254                      [4]                       --
│    └─BatchNorm2d: 2-255                [16, 4, 16, 16]           --
│    └─Scaler: 2-256                     [16, 4, 16, 16]           --
│    └─ReLU: 2-257                       [16, 4, 16, 16]           --
│    └─Empty: 2-258                      [16, 4, 16, 16]           --
│    └─Clamp: 2-259                      [16, 4, 16, 16]           --
├─FusedConv2dBNReLU: 1-21                [16, 64, 64, 64]          (recursive)
│    └─OutputShiftSqueeze: 2-260         --                        --
│    └─One: 2-261                        [1]                       --
│    └─OutputScale: 2-262                --                        --
│    └─Empty: 2-263                      [64, 48, 1, 1]            --
│    └─Empty: 2-264                      [64, 48, 1, 1]            --
│    └─Empty: 2-265                      [64]                      --
│    └─Empty: 2-266                      [64]                      --
│    └─BatchNorm2d: 2-267                [16, 64, 64, 64]          --
│    └─Scaler: 2-268                     [16, 64, 64, 64]          --
│    └─ReLU: 2-269                       [16, 64, 64, 64]          --
│    └─Empty: 2-270                      [16, 64, 64, 64]          --
│    └─Clamp: 2-271                      [16, 64, 64, 64]          --
├─FusedConv2dBNReLU: 1-22                [16, 64, 64, 64]          (recursive)
│    └─OutputShiftSqueeze: 2-272         --                        --
│    └─One: 2-273                        [1]                       --
│    └─OutputScale: 2-274                --                        --
│    └─Empty: 2-275                      [64, 64, 3, 3]            --
│    └─Empty: 2-276                      [64, 64, 3, 3]            --
│    └─Empty: 2-277                      [64]                      --
│    └─Empty: 2-278                      [64]                      --
│    └─BatchNorm2d: 2-279                [16, 64, 64, 64]          --
│    └─Scaler: 2-280                     [16, 64, 64, 64]          --
│    └─ReLU: 2-281                       [16, 64, 64, 64]          --
│    └─Empty: 2-282                      [16, 64, 64, 64]          --
│    └─Clamp: 2-283                      [16, 64, 64, 64]          --
├─FusedMaxPoolConv2dBNReLU: 1-23         [16, 64, 32, 32]          (recursive)
│    └─MaxPool2d: 2-284                  [16, 64, 32, 32]          --
│    └─Empty: 2-285                      [16, 64, 32, 32]          --
│    └─Empty: 2-286                      [16, 64, 32, 32]          --
│    └─OutputShiftSqueeze: 2-287         --                        --
│    └─One: 2-288                        [1]                       --
│    └─OutputScale: 2-289                --                        --
│    └─Empty: 2-290                      [64, 64, 3, 3]            --
│    └─Empty: 2-291                      [64, 64, 3, 3]            --
│    └─Empty: 2-292                      [64]                      --
│    └─Empty: 2-293                      [64]                      --
│    └─BatchNorm2d: 2-294                [16, 64, 32, 32]          --
│    └─Scaler: 2-295                     [16, 64, 32, 32]          --
│    └─ReLU: 2-296                       [16, 64, 32, 32]          --
│    └─Empty: 2-297                      [16, 64, 32, 32]          --
│    └─Clamp: 2-298                      [16, 64, 32, 32]          --
├─FusedConv2dBNReLU: 1-24                [16, 64, 32, 32]          (recursive)
│    └─OutputShiftSqueeze: 2-299         --                        --
│    └─One: 2-300                        [1]                       --
│    └─OutputScale: 2-301                --                        --
│    └─Empty: 2-302                      [64, 64, 1, 1]            --
│    └─Empty: 2-303                      [64, 64, 1, 1]            --
│    └─Empty: 2-304                      [64]                      --
│    └─Empty: 2-305                      [64]                      --
│    └─BatchNorm2d: 2-306                [16, 64, 32, 32]          --
│    └─Scaler: 2-307                     [16, 64, 32, 32]          --
│    └─ReLU: 2-308                       [16, 64, 32, 32]          --
│    └─Empty: 2-309                      [16, 64, 32, 32]          --
│    └─Clamp: 2-310                      [16, 64, 32, 32]          --
├─FusedMaxPoolConv2dBNReLU: 1-25         [16, 64, 32, 32]          (recursive)
│    └─MaxPool2d: 2-311                  [16, 64, 32, 32]          --
│    └─Empty: 2-312                      [16, 64, 32, 32]          --
│    └─Empty: 2-313                      [16, 64, 32, 32]          --
│    └─OutputShiftSqueeze: 2-314         --                        --
│    └─One: 2-315                        [1]                       --
│    └─OutputScale: 2-316                --                        --
│    └─Empty: 2-317                      [64, 64, 3, 3]            --
│    └─Empty: 2-318                      [64, 64, 3, 3]            --
│    └─Empty: 2-319                      [64]                      --
│    └─Empty: 2-320                      [64]                      --
│    └─BatchNorm2d: 2-321                [16, 64, 32, 32]          --
│    └─Scaler: 2-322                     [16, 64, 32, 32]          --
│    └─ReLU: 2-323                       [16, 64, 32, 32]          --
│    └─Empty: 2-324                      [16, 64, 32, 32]          --
│    └─Clamp: 2-325                      [16, 64, 32, 32]          --
├─FusedMaxPoolConv2dBNReLU: 1-26         [16, 64, 16, 16]          (recursive)
│    └─MaxPool2d: 2-326                  [16, 64, 16, 16]          --
│    └─Empty: 2-327                      [16, 64, 16, 16]          --
│    └─Empty: 2-328                      [16, 64, 16, 16]          --
│    └─OutputShiftSqueeze: 2-329         --                        --
│    └─One: 2-330                        [1]                       --
│    └─OutputScale: 2-331                --                        --
│    └─Empty: 2-332                      [64, 64, 3, 3]            --
│    └─Empty: 2-333                      [64, 64, 3, 3]            --
│    └─Empty: 2-334                      [64]                      --
│    └─Empty: 2-335                      [64]                      --
│    └─BatchNorm2d: 2-336                [16, 64, 16, 16]          --
│    └─Scaler: 2-337                     [16, 64, 16, 16]          --
│    └─ReLU: 2-338                       [16, 64, 16, 16]          --
│    └─Empty: 2-339                      [16, 64, 16, 16]          --
│    └─Clamp: 2-340                      [16, 64, 16, 16]          --
├─FusedConv2dBNReLU: 1-27                [16, 4, 16, 16]           (recursive)
│    └─OutputShiftSqueeze: 2-341         --                        --
│    └─One: 2-342                        [1]                       --
│    └─OutputScale: 2-343                --                        --
│    └─Empty: 2-344                      [4, 64, 1, 1]             --
│    └─Empty: 2-345                      [4, 64, 1, 1]             --
│    └─Empty: 2-346                      [4]                       --
│    └─Empty: 2-347                      [4]                       --
│    └─BatchNorm2d: 2-348                [16, 4, 16, 16]           --
│    └─Scaler: 2-349                     [16, 4, 16, 16]           --
│    └─ReLU: 2-350                       [16, 4, 16, 16]           --
│    └─Empty: 2-351                      [16, 4, 16, 16]           --
│    └─Clamp: 2-352                      [16, 4, 16, 16]           --
├─FusedMaxPoolConv2dBNReLU: 1-28         [16, 4, 16, 16]           (recursive)
│    └─MaxPool2d: 2-353                  [16, 64, 16, 16]          --
│    └─Empty: 2-354                      [16, 64, 16, 16]          --
│    └─Empty: 2-355                      [16, 64, 16, 16]          --
│    └─OutputShiftSqueeze: 2-356         --                        --
│    └─One: 2-357                        [1]                       --
│    └─OutputScale: 2-358                --                        --
│    └─Empty: 2-359                      [4, 64, 3, 3]             --
│    └─Empty: 2-360                      [4, 64, 3, 3]             --
│    └─Empty: 2-361                      [4]                       --
│    └─Empty: 2-362                      [4]                       --
│    └─BatchNorm2d: 2-363                [16, 4, 16, 16]           --
│    └─Scaler: 2-364                     [16, 4, 16, 16]           --
│    └─ReLU: 2-365                       [16, 4, 16, 16]           --
│    └─Empty: 2-366                      [16, 4, 16, 16]           --
│    └─Clamp: 2-367                      [16, 4, 16, 16]           --
├─FusedConv2dBNReLU: 1-29                [16, 64, 64, 64]          (recursive)
│    └─OutputShiftSqueeze: 2-368         --                        --
│    └─One: 2-369                        [1]                       --
│    └─OutputScale: 2-370                --                        --
│    └─Empty: 2-371                      [64, 48, 1, 1]            --
│    └─Empty: 2-372                      [64, 48, 1, 1]            --
│    └─Empty: 2-373                      [64]                      --
│    └─Empty: 2-374                      [64]                      --
│    └─BatchNorm2d: 2-375                [16, 64, 64, 64]          --
│    └─Scaler: 2-376                     [16, 64, 64, 64]          --
│    └─ReLU: 2-377                       [16, 64, 64, 64]          --
│    └─Empty: 2-378                      [16, 64, 64, 64]          --
│    └─Clamp: 2-379                      [16, 64, 64, 64]          --
├─FusedConv2dBNReLU: 1-30                [16, 64, 64, 64]          (recursive)
│    └─OutputShiftSqueeze: 2-380         --                        --
│    └─One: 2-381                        [1]                       --
│    └─OutputScale: 2-382                --                        --
│    └─Empty: 2-383                      [64, 64, 3, 3]            --
│    └─Empty: 2-384                      [64, 64, 3, 3]            --
│    └─Empty: 2-385                      [64]                      --
│    └─Empty: 2-386                      [64]                      --
│    └─BatchNorm2d: 2-387                [16, 64, 64, 64]          --
│    └─Scaler: 2-388                     [16, 64, 64, 64]          --
│    └─ReLU: 2-389                       [16, 64, 64, 64]          --
│    └─Empty: 2-390                      [16, 64, 64, 64]          --
│    └─Clamp: 2-391                      [16, 64, 64, 64]          --
├─FusedMaxPoolConv2dBNReLU: 1-31         [16, 64, 32, 32]          (recursive)
│    └─MaxPool2d: 2-392                  [16, 64, 32, 32]          --
│    └─Empty: 2-393                      [16, 64, 32, 32]          --
│    └─Empty: 2-394                      [16, 64, 32, 32]          --
│    └─OutputShiftSqueeze: 2-395         --                        --
│    └─One: 2-396                        [1]                       --
│    └─OutputScale: 2-397                --                        --
│    └─Empty: 2-398                      [64, 64, 3, 3]            --
│    └─Empty: 2-399                      [64, 64, 3, 3]            --
│    └─Empty: 2-400                      [64]                      --
│    └─Empty: 2-401                      [64]                      --
│    └─BatchNorm2d: 2-402                [16, 64, 32, 32]          --
│    └─Scaler: 2-403                     [16, 64, 32, 32]          --
│    └─ReLU: 2-404                       [16, 64, 32, 32]          --
│    └─Empty: 2-405                      [16, 64, 32, 32]          --
│    └─Clamp: 2-406                      [16, 64, 32, 32]          --
├─FusedConv2dBNReLU: 1-32                [16, 64, 32, 32]          (recursive)
│    └─OutputShiftSqueeze: 2-407         --                        --
│    └─One: 2-408                        [1]                       --
│    └─OutputScale: 2-409                --                        --
│    └─Empty: 2-410                      [64, 64, 1, 1]            --
│    └─Empty: 2-411                      [64, 64, 1, 1]            --
│    └─Empty: 2-412                      [64]                      --
│    └─Empty: 2-413                      [64]                      --
│    └─BatchNorm2d: 2-414                [16, 64, 32, 32]          --
│    └─Scaler: 2-415                     [16, 64, 32, 32]          --
│    └─ReLU: 2-416                       [16, 64, 32, 32]          --
│    └─Empty: 2-417                      [16, 64, 32, 32]          --
│    └─Clamp: 2-418                      [16, 64, 32, 32]          --
├─FusedMaxPoolConv2dBNReLU: 1-33         [16, 64, 32, 32]          (recursive)
│    └─MaxPool2d: 2-419                  [16, 64, 32, 32]          --
│    └─Empty: 2-420                      [16, 64, 32, 32]          --
│    └─Empty: 2-421                      [16, 64, 32, 32]          --
│    └─OutputShiftSqueeze: 2-422         --                        --
│    └─One: 2-423                        [1]                       --
│    └─OutputScale: 2-424                --                        --
│    └─Empty: 2-425                      [64, 64, 3, 3]            --
│    └─Empty: 2-426                      [64, 64, 3, 3]            --
│    └─Empty: 2-427                      [64]                      --
│    └─Empty: 2-428                      [64]                      --
│    └─BatchNorm2d: 2-429                [16, 64, 32, 32]          --
│    └─Scaler: 2-430                     [16, 64, 32, 32]          --
│    └─ReLU: 2-431                       [16, 64, 32, 32]          --
│    └─Empty: 2-432                      [16, 64, 32, 32]          --
│    └─Clamp: 2-433                      [16, 64, 32, 32]          --
├─FusedMaxPoolConv2dBNReLU: 1-34         [16, 64, 16, 16]          (recursive)
│    └─MaxPool2d: 2-434                  [16, 64, 16, 16]          --
│    └─Empty: 2-435                      [16, 64, 16, 16]          --
│    └─Empty: 2-436                      [16, 64, 16, 16]          --
│    └─OutputShiftSqueeze: 2-437         --                        --
│    └─One: 2-438                        [1]                       --
│    └─OutputScale: 2-439                --                        --
│    └─Empty: 2-440                      [64, 64, 3, 3]            --
│    └─Empty: 2-441                      [64, 64, 3, 3]            --
│    └─Empty: 2-442                      [64]                      --
│    └─Empty: 2-443                      [64]                      --
│    └─BatchNorm2d: 2-444                [16, 64, 16, 16]          --
│    └─Scaler: 2-445                     [16, 64, 16, 16]          --
│    └─ReLU: 2-446                       [16, 64, 16, 16]          --
│    └─Empty: 2-447                      [16, 64, 16, 16]          --
│    └─Clamp: 2-448                      [16, 64, 16, 16]          --
├─FusedConv2dBNReLU: 1-35                [16, 4, 16, 16]           (recursive)
│    └─OutputShiftSqueeze: 2-449         --                        --
│    └─One: 2-450                        [1]                       --
│    └─OutputScale: 2-451                --                        --
│    └─Empty: 2-452                      [4, 64, 1, 1]             --
│    └─Empty: 2-453                      [4, 64, 1, 1]             --
│    └─Empty: 2-454                      [4]                       --
│    └─Empty: 2-455                      [4]                       --
│    └─BatchNorm2d: 2-456                [16, 4, 16, 16]           --
│    └─Scaler: 2-457                     [16, 4, 16, 16]           --
│    └─ReLU: 2-458                       [16, 4, 16, 16]           --
│    └─Empty: 2-459                      [16, 4, 16, 16]           --
│    └─Clamp: 2-460                      [16, 4, 16, 16]           --
├─FusedMaxPoolConv2dBNReLU: 1-36         [16, 4, 16, 16]           (recursive)
│    └─MaxPool2d: 2-461                  [16, 64, 16, 16]          --
│    └─Empty: 2-462                      [16, 64, 16, 16]          --
│    └─Empty: 2-463                      [16, 64, 16, 16]          --
│    └─OutputShiftSqueeze: 2-464         --                        --
│    └─One: 2-465                        [1]                       --
│    └─OutputScale: 2-466                --                        --
│    └─Empty: 2-467                      [4, 64, 3, 3]             --
│    └─Empty: 2-468                      [4, 64, 3, 3]             --
│    └─Empty: 2-469                      [4]                       --
│    └─Empty: 2-470                      [4]                       --
│    └─BatchNorm2d: 2-471                [16, 4, 16, 16]           --
│    └─Scaler: 2-472                     [16, 4, 16, 16]           --
│    └─ReLU: 2-473                       [16, 4, 16, 16]           --
│    └─Empty: 2-474                      [16, 4, 16, 16]           --
│    └─Clamp: 2-475                      [16, 4, 16, 16]           --
├─FusedConv2dBNReLU: 1-37                [16, 64, 64, 64]          (recursive)
│    └─OutputShiftSqueeze: 2-476         --                        --
│    └─One: 2-477                        [1]                       --
│    └─OutputScale: 2-478                --                        --
│    └─Empty: 2-479                      [64, 48, 1, 1]            --
│    └─Empty: 2-480                      [64, 48, 1, 1]            --
│    └─Empty: 2-481                      [64]                      --
│    └─Empty: 2-482                      [64]                      --
│    └─BatchNorm2d: 2-483                [16, 64, 64, 64]          --
│    └─Scaler: 2-484                     [16, 64, 64, 64]          --
│    └─ReLU: 2-485                       [16, 64, 64, 64]          --
│    └─Empty: 2-486                      [16, 64, 64, 64]          --
│    └─Clamp: 2-487                      [16, 64, 64, 64]          --
├─FusedConv2dBNReLU: 1-38                [16, 64, 64, 64]          (recursive)
│    └─OutputShiftSqueeze: 2-488         --                        --
│    └─One: 2-489                        [1]                       --
│    └─OutputScale: 2-490                --                        --
│    └─Empty: 2-491                      [64, 64, 3, 3]            --
│    └─Empty: 2-492                      [64, 64, 3, 3]            --
│    └─Empty: 2-493                      [64]                      --
│    └─Empty: 2-494                      [64]                      --
│    └─BatchNorm2d: 2-495                [16, 64, 64, 64]          --
│    └─Scaler: 2-496                     [16, 64, 64, 64]          --
│    └─ReLU: 2-497                       [16, 64, 64, 64]          --
│    └─Empty: 2-498                      [16, 64, 64, 64]          --
│    └─Clamp: 2-499                      [16, 64, 64, 64]          --
├─FusedMaxPoolConv2dBNReLU: 1-39         [16, 64, 32, 32]          (recursive)
│    └─MaxPool2d: 2-500                  [16, 64, 32, 32]          --
│    └─Empty: 2-501                      [16, 64, 32, 32]          --
│    └─Empty: 2-502                      [16, 64, 32, 32]          --
│    └─OutputShiftSqueeze: 2-503         --                        --
│    └─One: 2-504                        [1]                       --
│    └─OutputScale: 2-505                --                        --
│    └─Empty: 2-506                      [64, 64, 3, 3]            --
│    └─Empty: 2-507                      [64, 64, 3, 3]            --
│    └─Empty: 2-508                      [64]                      --
│    └─Empty: 2-509                      [64]                      --
│    └─BatchNorm2d: 2-510                [16, 64, 32, 32]          --
│    └─Scaler: 2-511                     [16, 64, 32, 32]          --
│    └─ReLU: 2-512                       [16, 64, 32, 32]          --
│    └─Empty: 2-513                      [16, 64, 32, 32]          --
│    └─Clamp: 2-514                      [16, 64, 32, 32]          --
├─FusedConv2dBNReLU: 1-40                [16, 64, 32, 32]          (recursive)
│    └─OutputShiftSqueeze: 2-515         --                        --
│    └─One: 2-516                        [1]                       --
│    └─OutputScale: 2-517                --                        --
│    └─Empty: 2-518                      [64, 64, 1, 1]            --
│    └─Empty: 2-519                      [64, 64, 1, 1]            --
│    └─Empty: 2-520                      [64]                      --
│    └─Empty: 2-521                      [64]                      --
│    └─BatchNorm2d: 2-522                [16, 64, 32, 32]          --
│    └─Scaler: 2-523                     [16, 64, 32, 32]          --
│    └─ReLU: 2-524                       [16, 64, 32, 32]          --
│    └─Empty: 2-525                      [16, 64, 32, 32]          --
│    └─Clamp: 2-526                      [16, 64, 32, 32]          --
├─FusedMaxPoolConv2dBNReLU: 1-41         [16, 64, 32, 32]          (recursive)
│    └─MaxPool2d: 2-527                  [16, 64, 32, 32]          --
│    └─Empty: 2-528                      [16, 64, 32, 32]          --
│    └─Empty: 2-529                      [16, 64, 32, 32]          --
│    └─OutputShiftSqueeze: 2-530         --                        --
│    └─One: 2-531                        [1]                       --
│    └─OutputScale: 2-532                --                        --
│    └─Empty: 2-533                      [64, 64, 3, 3]            --
│    └─Empty: 2-534                      [64, 64, 3, 3]            --
│    └─Empty: 2-535                      [64]                      --
│    └─Empty: 2-536                      [64]                      --
│    └─BatchNorm2d: 2-537                [16, 64, 32, 32]          --
│    └─Scaler: 2-538                     [16, 64, 32, 32]          --
│    └─ReLU: 2-539                       [16, 64, 32, 32]          --
│    └─Empty: 2-540                      [16, 64, 32, 32]          --
│    └─Clamp: 2-541                      [16, 64, 32, 32]          --
├─FusedMaxPoolConv2dBNReLU: 1-42         [16, 64, 16, 16]          (recursive)
│    └─MaxPool2d: 2-542                  [16, 64, 16, 16]          --
│    └─Empty: 2-543                      [16, 64, 16, 16]          --
│    └─Empty: 2-544                      [16, 64, 16, 16]          --
│    └─OutputShiftSqueeze: 2-545         --                        --
│    └─One: 2-546                        [1]                       --
│    └─OutputScale: 2-547                --                        --
│    └─Empty: 2-548                      [64, 64, 3, 3]            --
│    └─Empty: 2-549                      [64, 64, 3, 3]            --
│    └─Empty: 2-550                      [64]                      --
│    └─Empty: 2-551                      [64]                      --
│    └─BatchNorm2d: 2-552                [16, 64, 16, 16]          --
│    └─Scaler: 2-553                     [16, 64, 16, 16]          --
│    └─ReLU: 2-554                       [16, 64, 16, 16]          --
│    └─Empty: 2-555                      [16, 64, 16, 16]          --
│    └─Clamp: 2-556                      [16, 64, 16, 16]          --
├─FusedConv2dBNReLU: 1-43                [16, 4, 16, 16]           (recursive)
│    └─OutputShiftSqueeze: 2-557         --                        --
│    └─One: 2-558                        [1]                       --
│    └─OutputScale: 2-559                --                        --
│    └─Empty: 2-560                      [4, 64, 1, 1]             --
│    └─Empty: 2-561                      [4, 64, 1, 1]             --
│    └─Empty: 2-562                      [4]                       --
│    └─Empty: 2-563                      [4]                       --
│    └─BatchNorm2d: 2-564                [16, 4, 16, 16]           --
│    └─Scaler: 2-565                     [16, 4, 16, 16]           --
│    └─ReLU: 2-566                       [16, 4, 16, 16]           --
│    └─Empty: 2-567                      [16, 4, 16, 16]           --
│    └─Clamp: 2-568                      [16, 4, 16, 16]           --
├─FusedMaxPoolConv2dBNReLU: 1-44         [16, 4, 16, 16]           (recursive)
│    └─MaxPool2d: 2-569                  [16, 64, 16, 16]          --
│    └─Empty: 2-570                      [16, 64, 16, 16]          --
│    └─Empty: 2-571                      [16, 64, 16, 16]          --
│    └─OutputShiftSqueeze: 2-572         --                        --
│    └─One: 2-573                        [1]                       --
│    └─OutputScale: 2-574                --                        --
│    └─Empty: 2-575                      [4, 64, 3, 3]             --
│    └─Empty: 2-576                      [4, 64, 3, 3]             --
│    └─Empty: 2-577                      [4]                       --
│    └─Empty: 2-578                      [4]                       --
│    └─BatchNorm2d: 2-579                [16, 4, 16, 16]           --
│    └─Scaler: 2-580                     [16, 4, 16, 16]           --
│    └─ReLU: 2-581                       [16, 4, 16, 16]           --
│    └─Empty: 2-582                      [16, 4, 16, 16]           --
│    └─Clamp: 2-583                      [16, 4, 16, 16]           --
├─FusedConv2dBNReLU: 1-45                [16, 64, 64, 64]          (recursive)
│    └─OutputShiftSqueeze: 2-584         --                        --
│    └─One: 2-585                        [1]                       --
│    └─OutputScale: 2-586                --                        --
│    └─Empty: 2-587                      [64, 48, 1, 1]            --
│    └─Empty: 2-588                      [64, 48, 1, 1]            --
│    └─Empty: 2-589                      [64]                      --
│    └─Empty: 2-590                      [64]                      --
│    └─BatchNorm2d: 2-591                [16, 64, 64, 64]          --
│    └─Scaler: 2-592                     [16, 64, 64, 64]          --
│    └─ReLU: 2-593                       [16, 64, 64, 64]          --
│    └─Empty: 2-594                      [16, 64, 64, 64]          --
│    └─Clamp: 2-595                      [16, 64, 64, 64]          --
├─FusedConv2dBNReLU: 1-46                [16, 64, 64, 64]          (recursive)
│    └─OutputShiftSqueeze: 2-596         --                        --
│    └─One: 2-597                        [1]                       --
│    └─OutputScale: 2-598                --                        --
│    └─Empty: 2-599                      [64, 64, 3, 3]            --
│    └─Empty: 2-600                      [64, 64, 3, 3]            --
│    └─Empty: 2-601                      [64]                      --
│    └─Empty: 2-602                      [64]                      --
│    └─BatchNorm2d: 2-603                [16, 64, 64, 64]          --
│    └─Scaler: 2-604                     [16, 64, 64, 64]          --
│    └─ReLU: 2-605                       [16, 64, 64, 64]          --
│    └─Empty: 2-606                      [16, 64, 64, 64]          --
│    └─Clamp: 2-607                      [16, 64, 64, 64]          --
├─FusedMaxPoolConv2dBNReLU: 1-47         [16, 64, 32, 32]          (recursive)
│    └─MaxPool2d: 2-608                  [16, 64, 32, 32]          --
│    └─Empty: 2-609                      [16, 64, 32, 32]          --
│    └─Empty: 2-610                      [16, 64, 32, 32]          --
│    └─OutputShiftSqueeze: 2-611         --                        --
│    └─One: 2-612                        [1]                       --
│    └─OutputScale: 2-613                --                        --
│    └─Empty: 2-614                      [64, 64, 3, 3]            --
│    └─Empty: 2-615                      [64, 64, 3, 3]            --
│    └─Empty: 2-616                      [64]                      --
│    └─Empty: 2-617                      [64]                      --
│    └─BatchNorm2d: 2-618                [16, 64, 32, 32]          --
│    └─Scaler: 2-619                     [16, 64, 32, 32]          --
│    └─ReLU: 2-620                       [16, 64, 32, 32]          --
│    └─Empty: 2-621                      [16, 64, 32, 32]          --
│    └─Clamp: 2-622                      [16, 64, 32, 32]          --
├─FusedConv2dBNReLU: 1-48                [16, 64, 32, 32]          (recursive)
│    └─OutputShiftSqueeze: 2-623         --                        --
│    └─One: 2-624                        [1]                       --
│    └─OutputScale: 2-625                --                        --
│    └─Empty: 2-626                      [64, 64, 1, 1]            --
│    └─Empty: 2-627                      [64, 64, 1, 1]            --
│    └─Empty: 2-628                      [64]                      --
│    └─Empty: 2-629                      [64]                      --
│    └─BatchNorm2d: 2-630                [16, 64, 32, 32]          --
│    └─Scaler: 2-631                     [16, 64, 32, 32]          --
│    └─ReLU: 2-632                       [16, 64, 32, 32]          --
│    └─Empty: 2-633                      [16, 64, 32, 32]          --
│    └─Clamp: 2-634                      [16, 64, 32, 32]          --
├─FusedMaxPoolConv2dBNReLU: 1-49         [16, 64, 32, 32]          (recursive)
│    └─MaxPool2d: 2-635                  [16, 64, 32, 32]          --
│    └─Empty: 2-636                      [16, 64, 32, 32]          --
│    └─Empty: 2-637                      [16, 64, 32, 32]          --
│    └─OutputShiftSqueeze: 2-638         --                        --
│    └─One: 2-639                        [1]                       --
│    └─OutputScale: 2-640                --                        --
│    └─Empty: 2-641                      [64, 64, 3, 3]            --
│    └─Empty: 2-642                      [64, 64, 3, 3]            --
│    └─Empty: 2-643                      [64]                      --
│    └─Empty: 2-644                      [64]                      --
│    └─BatchNorm2d: 2-645                [16, 64, 32, 32]          --
│    └─Scaler: 2-646                     [16, 64, 32, 32]          --
│    └─ReLU: 2-647                       [16, 64, 32, 32]          --
│    └─Empty: 2-648                      [16, 64, 32, 32]          --
│    └─Clamp: 2-649                      [16, 64, 32, 32]          --
├─FusedMaxPoolConv2dBNReLU: 1-50         [16, 64, 16, 16]          (recursive)
│    └─MaxPool2d: 2-650                  [16, 64, 16, 16]          --
│    └─Empty: 2-651                      [16, 64, 16, 16]          --
│    └─Empty: 2-652                      [16, 64, 16, 16]          --
│    └─OutputShiftSqueeze: 2-653         --                        --
│    └─One: 2-654                        [1]                       --
│    └─OutputScale: 2-655                --                        --
│    └─Empty: 2-656                      [64, 64, 3, 3]            --
│    └─Empty: 2-657                      [64, 64, 3, 3]            --
│    └─Empty: 2-658                      [64]                      --
│    └─Empty: 2-659                      [64]                      --
│    └─BatchNorm2d: 2-660                [16, 64, 16, 16]          --
│    └─Scaler: 2-661                     [16, 64, 16, 16]          --
│    └─ReLU: 2-662                       [16, 64, 16, 16]          --
│    └─Empty: 2-663                      [16, 64, 16, 16]          --
│    └─Clamp: 2-664                      [16, 64, 16, 16]          --
├─FusedConv2dBNReLU: 1-51                [16, 4, 16, 16]           (recursive)
│    └─OutputShiftSqueeze: 2-665         --                        --
│    └─One: 2-666                        [1]                       --
│    └─OutputScale: 2-667                --                        --
│    └─Empty: 2-668                      [4, 64, 1, 1]             --
│    └─Empty: 2-669                      [4, 64, 1, 1]             --
│    └─Empty: 2-670                      [4]                       --
│    └─Empty: 2-671                      [4]                       --
│    └─BatchNorm2d: 2-672                [16, 4, 16, 16]           --
│    └─Scaler: 2-673                     [16, 4, 16, 16]           --
│    └─ReLU: 2-674                       [16, 4, 16, 16]           --
│    └─Empty: 2-675                      [16, 4, 16, 16]           --
│    └─Clamp: 2-676                      [16, 4, 16, 16]           --
├─FusedMaxPoolConv2dBNReLU: 1-52         [16, 4, 16, 16]           (recursive)
│    └─MaxPool2d: 2-677                  [16, 64, 16, 16]          --
│    └─Empty: 2-678                      [16, 64, 16, 16]          --
│    └─Empty: 2-679                      [16, 64, 16, 16]          --
│    └─OutputShiftSqueeze: 2-680         --                        --
│    └─One: 2-681                        [1]                       --
│    └─OutputScale: 2-682                --                        --
│    └─Empty: 2-683                      [4, 64, 3, 3]             --
│    └─Empty: 2-684                      [4, 64, 3, 3]             --
│    └─Empty: 2-685                      [4]                       --
│    └─Empty: 2-686                      [4]                       --
│    └─BatchNorm2d: 2-687                [16, 4, 16, 16]           --
│    └─Scaler: 2-688                     [16, 4, 16, 16]           --
│    └─ReLU: 2-689                       [16, 4, 16, 16]           --
│    └─Empty: 2-690                      [16, 4, 16, 16]           --
│    └─Clamp: 2-691                      [16, 4, 16, 16]           --
├─FusedConv2dBNReLU: 1-53                [16, 64, 64, 64]          (recursive)
│    └─OutputShiftSqueeze: 2-692         --                        --
│    └─One: 2-693                        [1]                       --
│    └─OutputScale: 2-694                --                        --
│    └─Empty: 2-695                      [64, 48, 1, 1]            --
│    └─Empty: 2-696                      [64, 48, 1, 1]            --
│    └─Empty: 2-697                      [64]                      --
│    └─Empty: 2-698                      [64]                      --
│    └─BatchNorm2d: 2-699                [16, 64, 64, 64]          --
│    └─Scaler: 2-700                     [16, 64, 64, 64]          --
│    └─ReLU: 2-701                       [16, 64, 64, 64]          --
│    └─Empty: 2-702                      [16, 64, 64, 64]          --
│    └─Clamp: 2-703                      [16, 64, 64, 64]          --
├─FusedConv2dBNReLU: 1-54                [16, 64, 64, 64]          (recursive)
│    └─OutputShiftSqueeze: 2-704         --                        --
│    └─One: 2-705                        [1]                       --
│    └─OutputScale: 2-706                --                        --
│    └─Empty: 2-707                      [64, 64, 3, 3]            --
│    └─Empty: 2-708                      [64, 64, 3, 3]            --
│    └─Empty: 2-709                      [64]                      --
│    └─Empty: 2-710                      [64]                      --
│    └─BatchNorm2d: 2-711                [16, 64, 64, 64]          --
│    └─Scaler: 2-712                     [16, 64, 64, 64]          --
│    └─ReLU: 2-713                       [16, 64, 64, 64]          --
│    └─Empty: 2-714                      [16, 64, 64, 64]          --
│    └─Clamp: 2-715                      [16, 64, 64, 64]          --
├─FusedMaxPoolConv2dBNReLU: 1-55         [16, 64, 32, 32]          (recursive)
│    └─MaxPool2d: 2-716                  [16, 64, 32, 32]          --
│    └─Empty: 2-717                      [16, 64, 32, 32]          --
│    └─Empty: 2-718                      [16, 64, 32, 32]          --
│    └─OutputShiftSqueeze: 2-719         --                        --
│    └─One: 2-720                        [1]                       --
│    └─OutputScale: 2-721                --                        --
│    └─Empty: 2-722                      [64, 64, 3, 3]            --
│    └─Empty: 2-723                      [64, 64, 3, 3]            --
│    └─Empty: 2-724                      [64]                      --
│    └─Empty: 2-725                      [64]                      --
│    └─BatchNorm2d: 2-726                [16, 64, 32, 32]          --
│    └─Scaler: 2-727                     [16, 64, 32, 32]          --
│    └─ReLU: 2-728                       [16, 64, 32, 32]          --
│    └─Empty: 2-729                      [16, 64, 32, 32]          --
│    └─Clamp: 2-730                      [16, 64, 32, 32]          --
├─FusedConv2dBNReLU: 1-56                [16, 64, 32, 32]          (recursive)
│    └─OutputShiftSqueeze: 2-731         --                        --
│    └─One: 2-732                        [1]                       --
│    └─OutputScale: 2-733                --                        --
│    └─Empty: 2-734                      [64, 64, 1, 1]            --
│    └─Empty: 2-735                      [64, 64, 1, 1]            --
│    └─Empty: 2-736                      [64]                      --
│    └─Empty: 2-737                      [64]                      --
│    └─BatchNorm2d: 2-738                [16, 64, 32, 32]          --
│    └─Scaler: 2-739                     [16, 64, 32, 32]          --
│    └─ReLU: 2-740                       [16, 64, 32, 32]          --
│    └─Empty: 2-741                      [16, 64, 32, 32]          --
│    └─Clamp: 2-742                      [16, 64, 32, 32]          --
├─FusedMaxPoolConv2dBNReLU: 1-57         [16, 64, 32, 32]          (recursive)
│    └─MaxPool2d: 2-743                  [16, 64, 32, 32]          --
│    └─Empty: 2-744                      [16, 64, 32, 32]          --
│    └─Empty: 2-745                      [16, 64, 32, 32]          --
│    └─OutputShiftSqueeze: 2-746         --                        --
│    └─One: 2-747                        [1]                       --
│    └─OutputScale: 2-748                --                        --
│    └─Empty: 2-749                      [64, 64, 3, 3]            --
│    └─Empty: 2-750                      [64, 64, 3, 3]            --
│    └─Empty: 2-751                      [64]                      --
│    └─Empty: 2-752                      [64]                      --
│    └─BatchNorm2d: 2-753                [16, 64, 32, 32]          --
│    └─Scaler: 2-754                     [16, 64, 32, 32]          --
│    └─ReLU: 2-755                       [16, 64, 32, 32]          --
│    └─Empty: 2-756                      [16, 64, 32, 32]          --
│    └─Clamp: 2-757                      [16, 64, 32, 32]          --
├─FusedMaxPoolConv2dBNReLU: 1-58         [16, 64, 16, 16]          (recursive)
│    └─MaxPool2d: 2-758                  [16, 64, 16, 16]          --
│    └─Empty: 2-759                      [16, 64, 16, 16]          --
│    └─Empty: 2-760                      [16, 64, 16, 16]          --
│    └─OutputShiftSqueeze: 2-761         --                        --
│    └─One: 2-762                        [1]                       --
│    └─OutputScale: 2-763                --                        --
│    └─Empty: 2-764                      [64, 64, 3, 3]            --
│    └─Empty: 2-765                      [64, 64, 3, 3]            --
│    └─Empty: 2-766                      [64]                      --
│    └─Empty: 2-767                      [64]                      --
│    └─BatchNorm2d: 2-768                [16, 64, 16, 16]          --
│    └─Scaler: 2-769                     [16, 64, 16, 16]          --
│    └─ReLU: 2-770                       [16, 64, 16, 16]          --
│    └─Empty: 2-771                      [16, 64, 16, 16]          --
│    └─Clamp: 2-772                      [16, 64, 16, 16]          --
├─FusedConv2dBNReLU: 1-59                [16, 4, 16, 16]           (recursive)
│    └─OutputShiftSqueeze: 2-773         --                        --
│    └─One: 2-774                        [1]                       --
│    └─OutputScale: 2-775                --                        --
│    └─Empty: 2-776                      [4, 64, 1, 1]             --
│    └─Empty: 2-777                      [4, 64, 1, 1]             --
│    └─Empty: 2-778                      [4]                       --
│    └─Empty: 2-779                      [4]                       --
│    └─BatchNorm2d: 2-780                [16, 4, 16, 16]           --
│    └─Scaler: 2-781                     [16, 4, 16, 16]           --
│    └─ReLU: 2-782                       [16, 4, 16, 16]           --
│    └─Empty: 2-783                      [16, 4, 16, 16]           --
│    └─Clamp: 2-784                      [16, 4, 16, 16]           --
├─FusedMaxPoolConv2dBNReLU: 1-60         [16, 4, 16, 16]           (recursive)
│    └─MaxPool2d: 2-785                  [16, 64, 16, 16]          --
│    └─Empty: 2-786                      [16, 64, 16, 16]          --
│    └─Empty: 2-787                      [16, 64, 16, 16]          --
│    └─OutputShiftSqueeze: 2-788         --                        --
│    └─One: 2-789                        [1]                       --
│    └─OutputScale: 2-790                --                        --
│    └─Empty: 2-791                      [4, 64, 3, 3]             --
│    └─Empty: 2-792                      [4, 64, 3, 3]             --
│    └─Empty: 2-793                      [4]                       --
│    └─Empty: 2-794                      [4]                       --
│    └─BatchNorm2d: 2-795                [16, 4, 16, 16]           --
│    └─Scaler: 2-796                     [16, 4, 16, 16]           --
│    └─ReLU: 2-797                       [16, 4, 16, 16]           --
│    └─Empty: 2-798                      [16, 4, 16, 16]           --
│    └─Clamp: 2-799                      [16, 4, 16, 16]           --
├─FusedConv2dBNReLU: 1-61                [16, 64, 64, 64]          (recursive)
│    └─OutputShiftSqueeze: 2-800         --                        --
│    └─One: 2-801                        [1]                       --
│    └─OutputScale: 2-802                --                        --
│    └─Empty: 2-803                      [64, 48, 1, 1]            --
│    └─Empty: 2-804                      [64, 48, 1, 1]            --
│    └─Empty: 2-805                      [64]                      --
│    └─Empty: 2-806                      [64]                      --
│    └─BatchNorm2d: 2-807                [16, 64, 64, 64]          --
│    └─Scaler: 2-808                     [16, 64, 64, 64]          --
│    └─ReLU: 2-809                       [16, 64, 64, 64]          --
│    └─Empty: 2-810                      [16, 64, 64, 64]          --
│    └─Clamp: 2-811                      [16, 64, 64, 64]          --
├─FusedConv2dBNReLU: 1-62                [16, 64, 64, 64]          (recursive)
│    └─OutputShiftSqueeze: 2-812         --                        --
│    └─One: 2-813                        [1]                       --
│    └─OutputScale: 2-814                --                        --
│    └─Empty: 2-815                      [64, 64, 3, 3]            --
│    └─Empty: 2-816                      [64, 64, 3, 3]            --
│    └─Empty: 2-817                      [64]                      --
│    └─Empty: 2-818                      [64]                      --
│    └─BatchNorm2d: 2-819                [16, 64, 64, 64]          --
│    └─Scaler: 2-820                     [16, 64, 64, 64]          --
│    └─ReLU: 2-821                       [16, 64, 64, 64]          --
│    └─Empty: 2-822                      [16, 64, 64, 64]          --
│    └─Clamp: 2-823                      [16, 64, 64, 64]          --
├─FusedMaxPoolConv2dBNReLU: 1-63         [16, 64, 32, 32]          (recursive)
│    └─MaxPool2d: 2-824                  [16, 64, 32, 32]          --
│    └─Empty: 2-825                      [16, 64, 32, 32]          --
│    └─Empty: 2-826                      [16, 64, 32, 32]          --
│    └─OutputShiftSqueeze: 2-827         --                        --
│    └─One: 2-828                        [1]                       --
│    └─OutputScale: 2-829                --                        --
│    └─Empty: 2-830                      [64, 64, 3, 3]            --
│    └─Empty: 2-831                      [64, 64, 3, 3]            --
│    └─Empty: 2-832                      [64]                      --
│    └─Empty: 2-833                      [64]                      --
│    └─BatchNorm2d: 2-834                [16, 64, 32, 32]          --
│    └─Scaler: 2-835                     [16, 64, 32, 32]          --
│    └─ReLU: 2-836                       [16, 64, 32, 32]          --
│    └─Empty: 2-837                      [16, 64, 32, 32]          --
│    └─Clamp: 2-838                      [16, 64, 32, 32]          --
├─FusedConv2dBNReLU: 1-64                [16, 64, 32, 32]          (recursive)
│    └─OutputShiftSqueeze: 2-839         --                        --
│    └─One: 2-840                        [1]                       --
│    └─OutputScale: 2-841                --                        --
│    └─Empty: 2-842                      [64, 64, 1, 1]            --
│    └─Empty: 2-843                      [64, 64, 1, 1]            --
│    └─Empty: 2-844                      [64]                      --
│    └─Empty: 2-845                      [64]                      --
│    └─BatchNorm2d: 2-846                [16, 64, 32, 32]          --
│    └─Scaler: 2-847                     [16, 64, 32, 32]          --
│    └─ReLU: 2-848                       [16, 64, 32, 32]          --
│    └─Empty: 2-849                      [16, 64, 32, 32]          --
│    └─Clamp: 2-850                      [16, 64, 32, 32]          --
├─FusedMaxPoolConv2dBNReLU: 1-65         [16, 64, 32, 32]          (recursive)
│    └─MaxPool2d: 2-851                  [16, 64, 32, 32]          --
│    └─Empty: 2-852                      [16, 64, 32, 32]          --
│    └─Empty: 2-853                      [16, 64, 32, 32]          --
│    └─OutputShiftSqueeze: 2-854         --                        --
│    └─One: 2-855                        [1]                       --
│    └─OutputScale: 2-856                --                        --
│    └─Empty: 2-857                      [64, 64, 3, 3]            --
│    └─Empty: 2-858                      [64, 64, 3, 3]            --
│    └─Empty: 2-859                      [64]                      --
│    └─Empty: 2-860                      [64]                      --
│    └─BatchNorm2d: 2-861                [16, 64, 32, 32]          --
│    └─Scaler: 2-862                     [16, 64, 32, 32]          --
│    └─ReLU: 2-863                       [16, 64, 32, 32]          --
│    └─Empty: 2-864                      [16, 64, 32, 32]          --
│    └─Clamp: 2-865                      [16, 64, 32, 32]          --
├─FusedMaxPoolConv2dBNReLU: 1-66         [16, 64, 16, 16]          (recursive)
│    └─MaxPool2d: 2-866                  [16, 64, 16, 16]          --
│    └─Empty: 2-867                      [16, 64, 16, 16]          --
│    └─Empty: 2-868                      [16, 64, 16, 16]          --
│    └─OutputShiftSqueeze: 2-869         --                        --
│    └─One: 2-870                        [1]                       --
│    └─OutputScale: 2-871                --                        --
│    └─Empty: 2-872                      [64, 64, 3, 3]            --
│    └─Empty: 2-873                      [64, 64, 3, 3]            --
│    └─Empty: 2-874                      [64]                      --
│    └─Empty: 2-875                      [64]                      --
│    └─BatchNorm2d: 2-876                [16, 64, 16, 16]          --
│    └─Scaler: 2-877                     [16, 64, 16, 16]          --
│    └─ReLU: 2-878                       [16, 64, 16, 16]          --
│    └─Empty: 2-879                      [16, 64, 16, 16]          --
│    └─Clamp: 2-880                      [16, 64, 16, 16]          --
├─FusedConv2dBNReLU: 1-67                [16, 4, 16, 16]           (recursive)
│    └─OutputShiftSqueeze: 2-881         --                        --
│    └─One: 2-882                        [1]                       --
│    └─OutputScale: 2-883                --                        --
│    └─Empty: 2-884                      [4, 64, 1, 1]             --
│    └─Empty: 2-885                      [4, 64, 1, 1]             --
│    └─Empty: 2-886                      [4]                       --
│    └─Empty: 2-887                      [4]                       --
│    └─BatchNorm2d: 2-888                [16, 4, 16, 16]           --
│    └─Scaler: 2-889                     [16, 4, 16, 16]           --
│    └─ReLU: 2-890                       [16, 4, 16, 16]           --
│    └─Empty: 2-891                      [16, 4, 16, 16]           --
│    └─Clamp: 2-892                      [16, 4, 16, 16]           --
├─FusedMaxPoolConv2dBNReLU: 1-68         [16, 4, 16, 16]           (recursive)
│    └─MaxPool2d: 2-893                  [16, 64, 16, 16]          --
│    └─Empty: 2-894                      [16, 64, 16, 16]          --
│    └─Empty: 2-895                      [16, 64, 16, 16]          --
│    └─OutputShiftSqueeze: 2-896         --                        --
│    └─One: 2-897                        [1]                       --
│    └─OutputScale: 2-898                --                        --
│    └─Empty: 2-899                      [4, 64, 3, 3]             --
│    └─Empty: 2-900                      [4, 64, 3, 3]             --
│    └─Empty: 2-901                      [4]                       --
│    └─Empty: 2-902                      [4]                       --
│    └─BatchNorm2d: 2-903                [16, 4, 16, 16]           --
│    └─Scaler: 2-904                     [16, 4, 16, 16]           --
│    └─ReLU: 2-905                       [16, 4, 16, 16]           --
│    └─Empty: 2-906                      [16, 4, 16, 16]           --
│    └─Clamp: 2-907                      [16, 4, 16, 16]           --
├─FusedConv2dBNReLU: 1-69                [16, 64, 64, 64]          (recursive)
│    └─OutputShiftSqueeze: 2-908         --                        --
│    └─One: 2-909                        [1]                       --
│    └─OutputScale: 2-910                --                        --
│    └─Empty: 2-911                      [64, 48, 1, 1]            --
│    └─Empty: 2-912                      [64, 48, 1, 1]            --
│    └─Empty: 2-913                      [64]                      --
│    └─Empty: 2-914                      [64]                      --
│    └─BatchNorm2d: 2-915                [16, 64, 64, 64]          --
│    └─Scaler: 2-916                     [16, 64, 64, 64]          --
│    └─ReLU: 2-917                       [16, 64, 64, 64]          --
│    └─Empty: 2-918                      [16, 64, 64, 64]          --
│    └─Clamp: 2-919                      [16, 64, 64, 64]          --
├─FusedConv2dBNReLU: 1-70                [16, 64, 64, 64]          (recursive)
│    └─OutputShiftSqueeze: 2-920         --                        --
│    └─One: 2-921                        [1]                       --
│    └─OutputScale: 2-922                --                        --
│    └─Empty: 2-923                      [64, 64, 3, 3]            --
│    └─Empty: 2-924                      [64, 64, 3, 3]            --
│    └─Empty: 2-925                      [64]                      --
│    └─Empty: 2-926                      [64]                      --
│    └─BatchNorm2d: 2-927                [16, 64, 64, 64]          --
│    └─Scaler: 2-928                     [16, 64, 64, 64]          --
│    └─ReLU: 2-929                       [16, 64, 64, 64]          --
│    └─Empty: 2-930                      [16, 64, 64, 64]          --
│    └─Clamp: 2-931                      [16, 64, 64, 64]          --
├─FusedMaxPoolConv2dBNReLU: 1-71         [16, 64, 32, 32]          (recursive)
│    └─MaxPool2d: 2-932                  [16, 64, 32, 32]          --
│    └─Empty: 2-933                      [16, 64, 32, 32]          --
│    └─Empty: 2-934                      [16, 64, 32, 32]          --
│    └─OutputShiftSqueeze: 2-935         --                        --
│    └─One: 2-936                        [1]                       --
│    └─OutputScale: 2-937                --                        --
│    └─Empty: 2-938                      [64, 64, 3, 3]            --
│    └─Empty: 2-939                      [64, 64, 3, 3]            --
│    └─Empty: 2-940                      [64]                      --
│    └─Empty: 2-941                      [64]                      --
│    └─BatchNorm2d: 2-942                [16, 64, 32, 32]          --
│    └─Scaler: 2-943                     [16, 64, 32, 32]          --
│    └─ReLU: 2-944                       [16, 64, 32, 32]          --
│    └─Empty: 2-945                      [16, 64, 32, 32]          --
│    └─Clamp: 2-946                      [16, 64, 32, 32]          --
├─FusedConv2dBNReLU: 1-72                [16, 64, 32, 32]          (recursive)
│    └─OutputShiftSqueeze: 2-947         --                        --
│    └─One: 2-948                        [1]                       --
│    └─OutputScale: 2-949                --                        --
│    └─Empty: 2-950                      [64, 64, 1, 1]            --
│    └─Empty: 2-951                      [64, 64, 1, 1]            --
│    └─Empty: 2-952                      [64]                      --
│    └─Empty: 2-953                      [64]                      --
│    └─BatchNorm2d: 2-954                [16, 64, 32, 32]          --
│    └─Scaler: 2-955                     [16, 64, 32, 32]          --
│    └─ReLU: 2-956                       [16, 64, 32, 32]          --
│    └─Empty: 2-957                      [16, 64, 32, 32]          --
│    └─Clamp: 2-958                      [16, 64, 32, 32]          --
├─FusedMaxPoolConv2dBNReLU: 1-73         [16, 64, 32, 32]          (recursive)
│    └─MaxPool2d: 2-959                  [16, 64, 32, 32]          --
│    └─Empty: 2-960                      [16, 64, 32, 32]          --
│    └─Empty: 2-961                      [16, 64, 32, 32]          --
│    └─OutputShiftSqueeze: 2-962         --                        --
│    └─One: 2-963                        [1]                       --
│    └─OutputScale: 2-964                --                        --
│    └─Empty: 2-965                      [64, 64, 3, 3]            --
│    └─Empty: 2-966                      [64, 64, 3, 3]            --
│    └─Empty: 2-967                      [64]                      --
│    └─Empty: 2-968                      [64]                      --
│    └─BatchNorm2d: 2-969                [16, 64, 32, 32]          --
│    └─Scaler: 2-970                     [16, 64, 32, 32]          --
│    └─ReLU: 2-971                       [16, 64, 32, 32]          --
│    └─Empty: 2-972                      [16, 64, 32, 32]          --
│    └─Clamp: 2-973                      [16, 64, 32, 32]          --
├─FusedMaxPoolConv2dBNReLU: 1-74         [16, 64, 16, 16]          (recursive)
│    └─MaxPool2d: 2-974                  [16, 64, 16, 16]          --
│    └─Empty: 2-975                      [16, 64, 16, 16]          --
│    └─Empty: 2-976                      [16, 64, 16, 16]          --
│    └─OutputShiftSqueeze: 2-977         --                        --
│    └─One: 2-978                        [1]                       --
│    └─OutputScale: 2-979                --                        --
│    └─Empty: 2-980                      [64, 64, 3, 3]            --
│    └─Empty: 2-981                      [64, 64, 3, 3]            --
│    └─Empty: 2-982                      [64]                      --
│    └─Empty: 2-983                      [64]                      --
│    └─BatchNorm2d: 2-984                [16, 64, 16, 16]          --
│    └─Scaler: 2-985                     [16, 64, 16, 16]          --
│    └─ReLU: 2-986                       [16, 64, 16, 16]          --
│    └─Empty: 2-987                      [16, 64, 16, 16]          --
│    └─Clamp: 2-988                      [16, 64, 16, 16]          --
├─FusedConv2dBNReLU: 1-75                [16, 4, 16, 16]           (recursive)
│    └─OutputShiftSqueeze: 2-989         --                        --
│    └─One: 2-990                        [1]                       --
│    └─OutputScale: 2-991                --                        --
│    └─Empty: 2-992                      [4, 64, 1, 1]             --
│    └─Empty: 2-993                      [4, 64, 1, 1]             --
│    └─Empty: 2-994                      [4]                       --
│    └─Empty: 2-995                      [4]                       --
│    └─BatchNorm2d: 2-996                [16, 4, 16, 16]           --
│    └─Scaler: 2-997                     [16, 4, 16, 16]           --
│    └─ReLU: 2-998                       [16, 4, 16, 16]           --
│    └─Empty: 2-999                      [16, 4, 16, 16]           --
│    └─Clamp: 2-1000                     [16, 4, 16, 16]           --
├─FusedMaxPoolConv2dBNReLU: 1-76         [16, 4, 16, 16]           (recursive)
│    └─MaxPool2d: 2-1001                 [16, 64, 16, 16]          --
│    └─Empty: 2-1002                     [16, 64, 16, 16]          --
│    └─Empty: 2-1003                     [16, 64, 16, 16]          --
│    └─OutputShiftSqueeze: 2-1004        --                        --
│    └─One: 2-1005                       [1]                       --
│    └─OutputScale: 2-1006               --                        --
│    └─Empty: 2-1007                     [4, 64, 3, 3]             --
│    └─Empty: 2-1008                     [4, 64, 3, 3]             --
│    └─Empty: 2-1009                     [4]                       --
│    └─Empty: 2-1010                     [4]                       --
│    └─BatchNorm2d: 2-1011               [16, 4, 16, 16]           --
│    └─Scaler: 2-1012                    [16, 4, 16, 16]           --
│    └─ReLU: 2-1013                      [16, 4, 16, 16]           --
│    └─Empty: 2-1014                     [16, 4, 16, 16]           --
│    └─Clamp: 2-1015                     [16, 4, 16, 16]           --
├─FusedConv2dBNReLU: 1-77                [16, 64, 64, 64]          (recursive)
│    └─OutputShiftSqueeze: 2-1016        --                        --
│    └─One: 2-1017                       [1]                       --
│    └─OutputScale: 2-1018               --                        --
│    └─Empty: 2-1019                     [64, 48, 1, 1]            --
│    └─Empty: 2-1020                     [64, 48, 1, 1]            --
│    └─Empty: 2-1021                     [64]                      --
│    └─Empty: 2-1022                     [64]                      --
│    └─BatchNorm2d: 2-1023               [16, 64, 64, 64]          --
│    └─Scaler: 2-1024                    [16, 64, 64, 64]          --
│    └─ReLU: 2-1025                      [16, 64, 64, 64]          --
│    └─Empty: 2-1026                     [16, 64, 64, 64]          --
│    └─Clamp: 2-1027                     [16, 64, 64, 64]          --
├─FusedConv2dBNReLU: 1-78                [16, 64, 64, 64]          (recursive)
│    └─OutputShiftSqueeze: 2-1028        --                        --
│    └─One: 2-1029                       [1]                       --
│    └─OutputScale: 2-1030               --                        --
│    └─Empty: 2-1031                     [64, 64, 3, 3]            --
│    └─Empty: 2-1032                     [64, 64, 3, 3]            --
│    └─Empty: 2-1033                     [64]                      --
│    └─Empty: 2-1034                     [64]                      --
│    └─BatchNorm2d: 2-1035               [16, 64, 64, 64]          --
│    └─Scaler: 2-1036                    [16, 64, 64, 64]          --
│    └─ReLU: 2-1037                      [16, 64, 64, 64]          --
│    └─Empty: 2-1038                     [16, 64, 64, 64]          --
│    └─Clamp: 2-1039                     [16, 64, 64, 64]          --
├─FusedMaxPoolConv2dBNReLU: 1-79         [16, 64, 32, 32]          (recursive)
│    └─MaxPool2d: 2-1040                 [16, 64, 32, 32]          --
│    └─Empty: 2-1041                     [16, 64, 32, 32]          --
│    └─Empty: 2-1042                     [16, 64, 32, 32]          --
│    └─OutputShiftSqueeze: 2-1043        --                        --
│    └─One: 2-1044                       [1]                       --
│    └─OutputScale: 2-1045               --                        --
│    └─Empty: 2-1046                     [64, 64, 3, 3]            --
│    └─Empty: 2-1047                     [64, 64, 3, 3]            --
│    └─Empty: 2-1048                     [64]                      --
│    └─Empty: 2-1049                     [64]                      --
│    └─BatchNorm2d: 2-1050               [16, 64, 32, 32]          --
│    └─Scaler: 2-1051                    [16, 64, 32, 32]          --
│    └─ReLU: 2-1052                      [16, 64, 32, 32]          --
│    └─Empty: 2-1053                     [16, 64, 32, 32]          --
│    └─Clamp: 2-1054                     [16, 64, 32, 32]          --
├─FusedConv2dBNReLU: 1-80                [16, 64, 32, 32]          (recursive)
│    └─OutputShiftSqueeze: 2-1055        --                        --
│    └─One: 2-1056                       [1]                       --
│    └─OutputScale: 2-1057               --                        --
│    └─Empty: 2-1058                     [64, 64, 1, 1]            --
│    └─Empty: 2-1059                     [64, 64, 1, 1]            --
│    └─Empty: 2-1060                     [64]                      --
│    └─Empty: 2-1061                     [64]                      --
│    └─BatchNorm2d: 2-1062               [16, 64, 32, 32]          --
│    └─Scaler: 2-1063                    [16, 64, 32, 32]          --
│    └─ReLU: 2-1064                      [16, 64, 32, 32]          --
│    └─Empty: 2-1065                     [16, 64, 32, 32]          --
│    └─Clamp: 2-1066                     [16, 64, 32, 32]          --
├─FusedMaxPoolConv2dBNReLU: 1-81         [16, 64, 32, 32]          (recursive)
│    └─MaxPool2d: 2-1067                 [16, 64, 32, 32]          --
│    └─Empty: 2-1068                     [16, 64, 32, 32]          --
│    └─Empty: 2-1069                     [16, 64, 32, 32]          --
│    └─OutputShiftSqueeze: 2-1070        --                        --
│    └─One: 2-1071                       [1]                       --
│    └─OutputScale: 2-1072               --                        --
│    └─Empty: 2-1073                     [64, 64, 3, 3]            --
│    └─Empty: 2-1074                     [64, 64, 3, 3]            --
│    └─Empty: 2-1075                     [64]                      --
│    └─Empty: 2-1076                     [64]                      --
│    └─BatchNorm2d: 2-1077               [16, 64, 32, 32]          --
│    └─Scaler: 2-1078                    [16, 64, 32, 32]          --
│    └─ReLU: 2-1079                      [16, 64, 32, 32]          --
│    └─Empty: 2-1080                     [16, 64, 32, 32]          --
│    └─Clamp: 2-1081                     [16, 64, 32, 32]          --
├─FusedMaxPoolConv2dBNReLU: 1-82         [16, 64, 16, 16]          (recursive)
│    └─MaxPool2d: 2-1082                 [16, 64, 16, 16]          --
│    └─Empty: 2-1083                     [16, 64, 16, 16]          --
│    └─Empty: 2-1084                     [16, 64, 16, 16]          --
│    └─OutputShiftSqueeze: 2-1085        --                        --
│    └─One: 2-1086                       [1]                       --
│    └─OutputScale: 2-1087               --                        --
│    └─Empty: 2-1088                     [64, 64, 3, 3]            --
│    └─Empty: 2-1089                     [64, 64, 3, 3]            --
│    └─Empty: 2-1090                     [64]                      --
│    └─Empty: 2-1091                     [64]                      --
│    └─BatchNorm2d: 2-1092               [16, 64, 16, 16]          --
│    └─Scaler: 2-1093                    [16, 64, 16, 16]          --
│    └─ReLU: 2-1094                      [16, 64, 16, 16]          --
│    └─Empty: 2-1095                     [16, 64, 16, 16]          --
│    └─Clamp: 2-1096                     [16, 64, 16, 16]          --
├─FusedConv2dBNReLU: 1-83                [16, 4, 16, 16]           (recursive)
│    └─OutputShiftSqueeze: 2-1097        --                        --
│    └─One: 2-1098                       [1]                       --
│    └─OutputScale: 2-1099               --                        --
│    └─Empty: 2-1100                     [4, 64, 1, 1]             --
│    └─Empty: 2-1101                     [4, 64, 1, 1]             --
│    └─Empty: 2-1102                     [4]                       --
│    └─Empty: 2-1103                     [4]                       --
│    └─BatchNorm2d: 2-1104               [16, 4, 16, 16]           --
│    └─Scaler: 2-1105                    [16, 4, 16, 16]           --
│    └─ReLU: 2-1106                      [16, 4, 16, 16]           --
│    └─Empty: 2-1107                     [16, 4, 16, 16]           --
│    └─Clamp: 2-1108                     [16, 4, 16, 16]           --
├─FusedMaxPoolConv2dBNReLU: 1-84         [16, 4, 16, 16]           (recursive)
│    └─MaxPool2d: 2-1109                 [16, 64, 16, 16]          --
│    └─Empty: 2-1110                     [16, 64, 16, 16]          --
│    └─Empty: 2-1111                     [16, 64, 16, 16]          --
│    └─OutputShiftSqueeze: 2-1112        --                        --
│    └─One: 2-1113                       [1]                       --
│    └─OutputScale: 2-1114               --                        --
│    └─Empty: 2-1115                     [4, 64, 3, 3]             --
│    └─Empty: 2-1116                     [4, 64, 3, 3]             --
│    └─Empty: 2-1117                     [4]                       --
│    └─Empty: 2-1118                     [4]                       --
│    └─BatchNorm2d: 2-1119               [16, 4, 16, 16]           --
│    └─Scaler: 2-1120                    [16, 4, 16, 16]           --
│    └─ReLU: 2-1121                      [16, 4, 16, 16]           --
│    └─Empty: 2-1122                     [16, 4, 16, 16]           --
│    └─Clamp: 2-1123                     [16, 4, 16, 16]           --
├─FusedConv2dBNReLU: 1-85                [16, 64, 64, 64]          (recursive)
│    └─OutputShiftSqueeze: 2-1124        --                        --
│    └─One: 2-1125                       [1]                       --
│    └─OutputScale: 2-1126               --                        --
│    └─Empty: 2-1127                     [64, 48, 1, 1]            --
│    └─Empty: 2-1128                     [64, 48, 1, 1]            --
│    └─Empty: 2-1129                     [64]                      --
│    └─Empty: 2-1130                     [64]                      --
│    └─BatchNorm2d: 2-1131               [16, 64, 64, 64]          --
│    └─Scaler: 2-1132                    [16, 64, 64, 64]          --
│    └─ReLU: 2-1133                      [16, 64, 64, 64]          --
│    └─Empty: 2-1134                     [16, 64, 64, 64]          --
│    └─Clamp: 2-1135                     [16, 64, 64, 64]          --
├─FusedConv2dBNReLU: 1-86                [16, 64, 64, 64]          (recursive)
│    └─OutputShiftSqueeze: 2-1136        --                        --
│    └─One: 2-1137                       [1]                       --
│    └─OutputScale: 2-1138               --                        --
│    └─Empty: 2-1139                     [64, 64, 3, 3]            --
│    └─Empty: 2-1140                     [64, 64, 3, 3]            --
│    └─Empty: 2-1141                     [64]                      --
│    └─Empty: 2-1142                     [64]                      --
│    └─BatchNorm2d: 2-1143               [16, 64, 64, 64]          --
│    └─Scaler: 2-1144                    [16, 64, 64, 64]          --
│    └─ReLU: 2-1145                      [16, 64, 64, 64]          --
│    └─Empty: 2-1146                     [16, 64, 64, 64]          --
│    └─Clamp: 2-1147                     [16, 64, 64, 64]          --
├─FusedMaxPoolConv2dBNReLU: 1-87         [16, 64, 32, 32]          (recursive)
│    └─MaxPool2d: 2-1148                 [16, 64, 32, 32]          --
│    └─Empty: 2-1149                     [16, 64, 32, 32]          --
│    └─Empty: 2-1150                     [16, 64, 32, 32]          --
│    └─OutputShiftSqueeze: 2-1151        --                        --
│    └─One: 2-1152                       [1]                       --
│    └─OutputScale: 2-1153               --                        --
│    └─Empty: 2-1154                     [64, 64, 3, 3]            --
│    └─Empty: 2-1155                     [64, 64, 3, 3]            --
│    └─Empty: 2-1156                     [64]                      --
│    └─Empty: 2-1157                     [64]                      --
│    └─BatchNorm2d: 2-1158               [16, 64, 32, 32]          --
│    └─Scaler: 2-1159                    [16, 64, 32, 32]          --
│    └─ReLU: 2-1160                      [16, 64, 32, 32]          --
│    └─Empty: 2-1161                     [16, 64, 32, 32]          --
│    └─Clamp: 2-1162                     [16, 64, 32, 32]          --
├─FusedConv2dBNReLU: 1-88                [16, 64, 32, 32]          (recursive)
│    └─OutputShiftSqueeze: 2-1163        --                        --
│    └─One: 2-1164                       [1]                       --
│    └─OutputScale: 2-1165               --                        --
│    └─Empty: 2-1166                     [64, 64, 1, 1]            --
│    └─Empty: 2-1167                     [64, 64, 1, 1]            --
│    └─Empty: 2-1168                     [64]                      --
│    └─Empty: 2-1169                     [64]                      --
│    └─BatchNorm2d: 2-1170               [16, 64, 32, 32]          --
│    └─Scaler: 2-1171                    [16, 64, 32, 32]          --
│    └─ReLU: 2-1172                      [16, 64, 32, 32]          --
│    └─Empty: 2-1173                     [16, 64, 32, 32]          --
│    └─Clamp: 2-1174                     [16, 64, 32, 32]          --
├─FusedMaxPoolConv2dBNReLU: 1-89         [16, 64, 32, 32]          (recursive)
│    └─MaxPool2d: 2-1175                 [16, 64, 32, 32]          --
│    └─Empty: 2-1176                     [16, 64, 32, 32]          --
│    └─Empty: 2-1177                     [16, 64, 32, 32]          --
│    └─OutputShiftSqueeze: 2-1178        --                        --
│    └─One: 2-1179                       [1]                       --
│    └─OutputScale: 2-1180               --                        --
│    └─Empty: 2-1181                     [64, 64, 3, 3]            --
│    └─Empty: 2-1182                     [64, 64, 3, 3]            --
│    └─Empty: 2-1183                     [64]                      --
│    └─Empty: 2-1184                     [64]                      --
│    └─BatchNorm2d: 2-1185               [16, 64, 32, 32]          --
│    └─Scaler: 2-1186                    [16, 64, 32, 32]          --
│    └─ReLU: 2-1187                      [16, 64, 32, 32]          --
│    └─Empty: 2-1188                     [16, 64, 32, 32]          --
│    └─Clamp: 2-1189                     [16, 64, 32, 32]          --
├─FusedMaxPoolConv2dBNReLU: 1-90         [16, 64, 16, 16]          (recursive)
│    └─MaxPool2d: 2-1190                 [16, 64, 16, 16]          --
│    └─Empty: 2-1191                     [16, 64, 16, 16]          --
│    └─Empty: 2-1192                     [16, 64, 16, 16]          --
│    └─OutputShiftSqueeze: 2-1193        --                        --
│    └─One: 2-1194                       [1]                       --
│    └─OutputScale: 2-1195               --                        --
│    └─Empty: 2-1196                     [64, 64, 3, 3]            --
│    └─Empty: 2-1197                     [64, 64, 3, 3]            --
│    └─Empty: 2-1198                     [64]                      --
│    └─Empty: 2-1199                     [64]                      --
│    └─BatchNorm2d: 2-1200               [16, 64, 16, 16]          --
│    └─Scaler: 2-1201                    [16, 64, 16, 16]          --
│    └─ReLU: 2-1202                      [16, 64, 16, 16]          --
│    └─Empty: 2-1203                     [16, 64, 16, 16]          --
│    └─Clamp: 2-1204                     [16, 64, 16, 16]          --
├─FusedConv2dBNReLU: 1-91                [16, 4, 16, 16]           (recursive)
│    └─OutputShiftSqueeze: 2-1205        --                        --
│    └─One: 2-1206                       [1]                       --
│    └─OutputScale: 2-1207               --                        --
│    └─Empty: 2-1208                     [4, 64, 1, 1]             --
│    └─Empty: 2-1209                     [4, 64, 1, 1]             --
│    └─Empty: 2-1210                     [4]                       --
│    └─Empty: 2-1211                     [4]                       --
│    └─BatchNorm2d: 2-1212               [16, 4, 16, 16]           --
│    └─Scaler: 2-1213                    [16, 4, 16, 16]           --
│    └─ReLU: 2-1214                      [16, 4, 16, 16]           --
│    └─Empty: 2-1215                     [16, 4, 16, 16]           --
│    └─Clamp: 2-1216                     [16, 4, 16, 16]           --
├─FusedMaxPoolConv2dBNReLU: 1-92         [16, 4, 16, 16]           (recursive)
│    └─MaxPool2d: 2-1217                 [16, 64, 16, 16]          --
│    └─Empty: 2-1218                     [16, 64, 16, 16]          --
│    └─Empty: 2-1219                     [16, 64, 16, 16]          --
│    └─OutputShiftSqueeze: 2-1220        --                        --
│    └─One: 2-1221                       [1]                       --
│    └─OutputScale: 2-1222               --                        --
│    └─Empty: 2-1223                     [4, 64, 3, 3]             --
│    └─Empty: 2-1224                     [4, 64, 3, 3]             --
│    └─Empty: 2-1225                     [4]                       --
│    └─Empty: 2-1226                     [4]                       --
│    └─BatchNorm2d: 2-1227               [16, 4, 16, 16]           --
│    └─Scaler: 2-1228                    [16, 4, 16, 16]           --
│    └─ReLU: 2-1229                      [16, 4, 16, 16]           --
│    └─Empty: 2-1230                     [16, 4, 16, 16]           --
│    └─Clamp: 2-1231                     [16, 4, 16, 16]           --
├─FusedConv2dBNReLU: 1-93                [16, 64, 64, 64]          (recursive)
│    └─OutputShiftSqueeze: 2-1232        --                        --
│    └─One: 2-1233                       [1]                       --
│    └─OutputScale: 2-1234               --                        --
│    └─Empty: 2-1235                     [64, 48, 1, 1]            --
│    └─Empty: 2-1236                     [64, 48, 1, 1]            --
│    └─Empty: 2-1237                     [64]                      --
│    └─Empty: 2-1238                     [64]                      --
│    └─BatchNorm2d: 2-1239               [16, 64, 64, 64]          --
│    └─Scaler: 2-1240                    [16, 64, 64, 64]          --
│    └─ReLU: 2-1241                      [16, 64, 64, 64]          --
│    └─Empty: 2-1242                     [16, 64, 64, 64]          --
│    └─Clamp: 2-1243                     [16, 64, 64, 64]          --
├─FusedConv2dBNReLU: 1-94                [16, 64, 64, 64]          (recursive)
│    └─OutputShiftSqueeze: 2-1244        --                        --
│    └─One: 2-1245                       [1]                       --
│    └─OutputScale: 2-1246               --                        --
│    └─Empty: 2-1247                     [64, 64, 3, 3]            --
│    └─Empty: 2-1248                     [64, 64, 3, 3]            --
│    └─Empty: 2-1249                     [64]                      --
│    └─Empty: 2-1250                     [64]                      --
│    └─BatchNorm2d: 2-1251               [16, 64, 64, 64]          --
│    └─Scaler: 2-1252                    [16, 64, 64, 64]          --
│    └─ReLU: 2-1253                      [16, 64, 64, 64]          --
│    └─Empty: 2-1254                     [16, 64, 64, 64]          --
│    └─Clamp: 2-1255                     [16, 64, 64, 64]          --
├─FusedMaxPoolConv2dBNReLU: 1-95         [16, 64, 32, 32]          (recursive)
│    └─MaxPool2d: 2-1256                 [16, 64, 32, 32]          --
│    └─Empty: 2-1257                     [16, 64, 32, 32]          --
│    └─Empty: 2-1258                     [16, 64, 32, 32]          --
│    └─OutputShiftSqueeze: 2-1259        --                        --
│    └─One: 2-1260                       [1]                       --
│    └─OutputScale: 2-1261               --                        --
│    └─Empty: 2-1262                     [64, 64, 3, 3]            --
│    └─Empty: 2-1263                     [64, 64, 3, 3]            --
│    └─Empty: 2-1264                     [64]                      --
│    └─Empty: 2-1265                     [64]                      --
│    └─BatchNorm2d: 2-1266               [16, 64, 32, 32]          --
│    └─Scaler: 2-1267                    [16, 64, 32, 32]          --
│    └─ReLU: 2-1268                      [16, 64, 32, 32]          --
│    └─Empty: 2-1269                     [16, 64, 32, 32]          --
│    └─Clamp: 2-1270                     [16, 64, 32, 32]          --
├─FusedConv2dBNReLU: 1-96                [16, 64, 32, 32]          (recursive)
│    └─OutputShiftSqueeze: 2-1271        --                        --
│    └─One: 2-1272                       [1]                       --
│    └─OutputScale: 2-1273               --                        --
│    └─Empty: 2-1274                     [64, 64, 1, 1]            --
│    └─Empty: 2-1275                     [64, 64, 1, 1]            --
│    └─Empty: 2-1276                     [64]                      --
│    └─Empty: 2-1277                     [64]                      --
│    └─BatchNorm2d: 2-1278               [16, 64, 32, 32]          --
│    └─Scaler: 2-1279                    [16, 64, 32, 32]          --
│    └─ReLU: 2-1280                      [16, 64, 32, 32]          --
│    └─Empty: 2-1281                     [16, 64, 32, 32]          --
│    └─Clamp: 2-1282                     [16, 64, 32, 32]          --
├─FusedMaxPoolConv2dBNReLU: 1-97         [16, 64, 32, 32]          (recursive)
│    └─MaxPool2d: 2-1283                 [16, 64, 32, 32]          --
│    └─Empty: 2-1284                     [16, 64, 32, 32]          --
│    └─Empty: 2-1285                     [16, 64, 32, 32]          --
│    └─OutputShiftSqueeze: 2-1286        --                        --
│    └─One: 2-1287                       [1]                       --
│    └─OutputScale: 2-1288               --                        --
│    └─Empty: 2-1289                     [64, 64, 3, 3]            --
│    └─Empty: 2-1290                     [64, 64, 3, 3]            --
│    └─Empty: 2-1291                     [64]                      --
│    └─Empty: 2-1292                     [64]                      --
│    └─BatchNorm2d: 2-1293               [16, 64, 32, 32]          --
│    └─Scaler: 2-1294                    [16, 64, 32, 32]          --
│    └─ReLU: 2-1295                      [16, 64, 32, 32]          --
│    └─Empty: 2-1296                     [16, 64, 32, 32]          --
│    └─Clamp: 2-1297                     [16, 64, 32, 32]          --
├─FusedMaxPoolConv2dBNReLU: 1-98         [16, 64, 16, 16]          (recursive)
│    └─MaxPool2d: 2-1298                 [16, 64, 16, 16]          --
│    └─Empty: 2-1299                     [16, 64, 16, 16]          --
│    └─Empty: 2-1300                     [16, 64, 16, 16]          --
│    └─OutputShiftSqueeze: 2-1301        --                        --
│    └─One: 2-1302                       [1]                       --
│    └─OutputScale: 2-1303               --                        --
│    └─Empty: 2-1304                     [64, 64, 3, 3]            --
│    └─Empty: 2-1305                     [64, 64, 3, 3]            --
│    └─Empty: 2-1306                     [64]                      --
│    └─Empty: 2-1307                     [64]                      --
│    └─BatchNorm2d: 2-1308               [16, 64, 16, 16]          --
│    └─Scaler: 2-1309                    [16, 64, 16, 16]          --
│    └─ReLU: 2-1310                      [16, 64, 16, 16]          --
│    └─Empty: 2-1311                     [16, 64, 16, 16]          --
│    └─Clamp: 2-1312                     [16, 64, 16, 16]          --
├─FusedConv2dBNReLU: 1-99                [16, 4, 16, 16]           (recursive)
│    └─OutputShiftSqueeze: 2-1313        --                        --
│    └─One: 2-1314                       [1]                       --
│    └─OutputScale: 2-1315               --                        --
│    └─Empty: 2-1316                     [4, 64, 1, 1]             --
│    └─Empty: 2-1317                     [4, 64, 1, 1]             --
│    └─Empty: 2-1318                     [4]                       --
│    └─Empty: 2-1319                     [4]                       --
│    └─BatchNorm2d: 2-1320               [16, 4, 16, 16]           --
│    └─Scaler: 2-1321                    [16, 4, 16, 16]           --
│    └─ReLU: 2-1322                      [16, 4, 16, 16]           --
│    └─Empty: 2-1323                     [16, 4, 16, 16]           --
│    └─Clamp: 2-1324                     [16, 4, 16, 16]           --
├─FusedMaxPoolConv2dBNReLU: 1-100        [16, 4, 16, 16]           (recursive)
│    └─MaxPool2d: 2-1325                 [16, 64, 16, 16]          --
│    └─Empty: 2-1326                     [16, 64, 16, 16]          --
│    └─Empty: 2-1327                     [16, 64, 16, 16]          --
│    └─OutputShiftSqueeze: 2-1328        --                        --
│    └─One: 2-1329                       [1]                       --
│    └─OutputScale: 2-1330               --                        --
│    └─Empty: 2-1331                     [4, 64, 3, 3]             --
│    └─Empty: 2-1332                     [4, 64, 3, 3]             --
│    └─Empty: 2-1333                     [4]                       --
│    └─Empty: 2-1334                     [4]                       --
│    └─BatchNorm2d: 2-1335               [16, 4, 16, 16]           --
│    └─Scaler: 2-1336                    [16, 4, 16, 16]           --
│    └─ReLU: 2-1337                      [16, 4, 16, 16]           --
│    └─Empty: 2-1338                     [16, 4, 16, 16]           --
│    └─Clamp: 2-1339                     [16, 4, 16, 16]           --
├─FusedConv2dBNReLU: 1-101               [16, 64, 64, 64]          (recursive)
│    └─OutputShiftSqueeze: 2-1340        --                        --
│    └─One: 2-1341                       [1]                       --
│    └─OutputScale: 2-1342               --                        --
│    └─Empty: 2-1343                     [64, 48, 1, 1]            --
│    └─Empty: 2-1344                     [64, 48, 1, 1]            --
│    └─Empty: 2-1345                     [64]                      --
│    └─Empty: 2-1346                     [64]                      --
│    └─BatchNorm2d: 2-1347               [16, 64, 64, 64]          --
│    └─Scaler: 2-1348                    [16, 64, 64, 64]          --
│    └─ReLU: 2-1349                      [16, 64, 64, 64]          --
│    └─Empty: 2-1350                     [16, 64, 64, 64]          --
│    └─Clamp: 2-1351                     [16, 64, 64, 64]          --
├─FusedConv2dBNReLU: 1-102               [16, 64, 64, 64]          (recursive)
│    └─OutputShiftSqueeze: 2-1352        --                        --
│    └─One: 2-1353                       [1]                       --
│    └─OutputScale: 2-1354               --                        --
│    └─Empty: 2-1355                     [64, 64, 3, 3]            --
│    └─Empty: 2-1356                     [64, 64, 3, 3]            --
│    └─Empty: 2-1357                     [64]                      --
│    └─Empty: 2-1358                     [64]                      --
│    └─BatchNorm2d: 2-1359               [16, 64, 64, 64]          --
│    └─Scaler: 2-1360                    [16, 64, 64, 64]          --
│    └─ReLU: 2-1361                      [16, 64, 64, 64]          --
│    └─Empty: 2-1362                     [16, 64, 64, 64]          --
│    └─Clamp: 2-1363                     [16, 64, 64, 64]          --
├─FusedMaxPoolConv2dBNReLU: 1-103        [16, 64, 32, 32]          (recursive)
│    └─MaxPool2d: 2-1364                 [16, 64, 32, 32]          --
│    └─Empty: 2-1365                     [16, 64, 32, 32]          --
│    └─Empty: 2-1366                     [16, 64, 32, 32]          --
│    └─OutputShiftSqueeze: 2-1367        --                        --
│    └─One: 2-1368                       [1]                       --
│    └─OutputScale: 2-1369               --                        --
│    └─Empty: 2-1370                     [64, 64, 3, 3]            --
│    └─Empty: 2-1371                     [64, 64, 3, 3]            --
│    └─Empty: 2-1372                     [64]                      --
│    └─Empty: 2-1373                     [64]                      --
│    └─BatchNorm2d: 2-1374               [16, 64, 32, 32]          --
│    └─Scaler: 2-1375                    [16, 64, 32, 32]          --
│    └─ReLU: 2-1376                      [16, 64, 32, 32]          --
│    └─Empty: 2-1377                     [16, 64, 32, 32]          --
│    └─Clamp: 2-1378                     [16, 64, 32, 32]          --
├─FusedConv2dBNReLU: 1-104               [16, 64, 32, 32]          (recursive)
│    └─OutputShiftSqueeze: 2-1379        --                        --
│    └─One: 2-1380                       [1]                       --
│    └─OutputScale: 2-1381               --                        --
│    └─Empty: 2-1382                     [64, 64, 1, 1]            --
│    └─Empty: 2-1383                     [64, 64, 1, 1]            --
│    └─Empty: 2-1384                     [64]                      --
│    └─Empty: 2-1385                     [64]                      --
│    └─BatchNorm2d: 2-1386               [16, 64, 32, 32]          --
│    └─Scaler: 2-1387                    [16, 64, 32, 32]          --
│    └─ReLU: 2-1388                      [16, 64, 32, 32]          --
│    └─Empty: 2-1389                     [16, 64, 32, 32]          --
│    └─Clamp: 2-1390                     [16, 64, 32, 32]          --
├─FusedMaxPoolConv2dBNReLU: 1-105        [16, 64, 32, 32]          (recursive)
│    └─MaxPool2d: 2-1391                 [16, 64, 32, 32]          --
│    └─Empty: 2-1392                     [16, 64, 32, 32]          --
│    └─Empty: 2-1393                     [16, 64, 32, 32]          --
│    └─OutputShiftSqueeze: 2-1394        --                        --
│    └─One: 2-1395                       [1]                       --
│    └─OutputScale: 2-1396               --                        --
│    └─Empty: 2-1397                     [64, 64, 3, 3]            --
│    └─Empty: 2-1398                     [64, 64, 3, 3]            --
│    └─Empty: 2-1399                     [64]                      --
│    └─Empty: 2-1400                     [64]                      --
│    └─BatchNorm2d: 2-1401               [16, 64, 32, 32]          --
│    └─Scaler: 2-1402                    [16, 64, 32, 32]          --
│    └─ReLU: 2-1403                      [16, 64, 32, 32]          --
│    └─Empty: 2-1404                     [16, 64, 32, 32]          --
│    └─Clamp: 2-1405                     [16, 64, 32, 32]          --
├─FusedMaxPoolConv2dBNReLU: 1-106        [16, 64, 16, 16]          (recursive)
│    └─MaxPool2d: 2-1406                 [16, 64, 16, 16]          --
│    └─Empty: 2-1407                     [16, 64, 16, 16]          --
│    └─Empty: 2-1408                     [16, 64, 16, 16]          --
│    └─OutputShiftSqueeze: 2-1409        --                        --
│    └─One: 2-1410                       [1]                       --
│    └─OutputScale: 2-1411               --                        --
│    └─Empty: 2-1412                     [64, 64, 3, 3]            --
│    └─Empty: 2-1413                     [64, 64, 3, 3]            --
│    └─Empty: 2-1414                     [64]                      --
│    └─Empty: 2-1415                     [64]                      --
│    └─BatchNorm2d: 2-1416               [16, 64, 16, 16]          --
│    └─Scaler: 2-1417                    [16, 64, 16, 16]          --
│    └─ReLU: 2-1418                      [16, 64, 16, 16]          --
│    └─Empty: 2-1419                     [16, 64, 16, 16]          --
│    └─Clamp: 2-1420                     [16, 64, 16, 16]          --
├─FusedConv2dBNReLU: 1-107               [16, 4, 16, 16]           (recursive)
│    └─OutputShiftSqueeze: 2-1421        --                        --
│    └─One: 2-1422                       [1]                       --
│    └─OutputScale: 2-1423               --                        --
│    └─Empty: 2-1424                     [4, 64, 1, 1]             --
│    └─Empty: 2-1425                     [4, 64, 1, 1]             --
│    └─Empty: 2-1426                     [4]                       --
│    └─Empty: 2-1427                     [4]                       --
│    └─BatchNorm2d: 2-1428               [16, 4, 16, 16]           --
│    └─Scaler: 2-1429                    [16, 4, 16, 16]           --
│    └─ReLU: 2-1430                      [16, 4, 16, 16]           --
│    └─Empty: 2-1431                     [16, 4, 16, 16]           --
│    └─Clamp: 2-1432                     [16, 4, 16, 16]           --
├─FusedMaxPoolConv2dBNReLU: 1-108        [16, 4, 16, 16]           (recursive)
│    └─MaxPool2d: 2-1433                 [16, 64, 16, 16]          --
│    └─Empty: 2-1434                     [16, 64, 16, 16]          --
│    └─Empty: 2-1435                     [16, 64, 16, 16]          --
│    └─OutputShiftSqueeze: 2-1436        --                        --
│    └─One: 2-1437                       [1]                       --
│    └─OutputScale: 2-1438               --                        --
│    └─Empty: 2-1439                     [4, 64, 3, 3]             --
│    └─Empty: 2-1440                     [4, 64, 3, 3]             --
│    └─Empty: 2-1441                     [4]                       --
│    └─Empty: 2-1442                     [4]                       --
│    └─BatchNorm2d: 2-1443               [16, 4, 16, 16]           --
│    └─Scaler: 2-1444                    [16, 4, 16, 16]           --
│    └─ReLU: 2-1445                      [16, 4, 16, 16]           --
│    └─Empty: 2-1446                     [16, 4, 16, 16]           --
│    └─Clamp: 2-1447                     [16, 4, 16, 16]           --
├─FusedConv2dBNReLU: 1-109               [16, 64, 64, 64]          (recursive)
│    └─OutputShiftSqueeze: 2-1448        --                        --
│    └─One: 2-1449                       [1]                       --
│    └─OutputScale: 2-1450               --                        --
│    └─Empty: 2-1451                     [64, 48, 1, 1]            --
│    └─Empty: 2-1452                     [64, 48, 1, 1]            --
│    └─Empty: 2-1453                     [64]                      --
│    └─Empty: 2-1454                     [64]                      --
│    └─BatchNorm2d: 2-1455               [16, 64, 64, 64]          --
│    └─Scaler: 2-1456                    [16, 64, 64, 64]          --
│    └─ReLU: 2-1457                      [16, 64, 64, 64]          --
│    └─Empty: 2-1458                     [16, 64, 64, 64]          --
│    └─Clamp: 2-1459                     [16, 64, 64, 64]          --
├─FusedConv2dBNReLU: 1-110               [16, 64, 64, 64]          (recursive)
│    └─OutputShiftSqueeze: 2-1460        --                        --
│    └─One: 2-1461                       [1]                       --
│    └─OutputScale: 2-1462               --                        --
│    └─Empty: 2-1463                     [64, 64, 3, 3]            --
│    └─Empty: 2-1464                     [64, 64, 3, 3]            --
│    └─Empty: 2-1465                     [64]                      --
│    └─Empty: 2-1466                     [64]                      --
│    └─BatchNorm2d: 2-1467               [16, 64, 64, 64]          --
│    └─Scaler: 2-1468                    [16, 64, 64, 64]          --
│    └─ReLU: 2-1469                      [16, 64, 64, 64]          --
│    └─Empty: 2-1470                     [16, 64, 64, 64]          --
│    └─Clamp: 2-1471                     [16, 64, 64, 64]          --
├─FusedMaxPoolConv2dBNReLU: 1-111        [16, 64, 32, 32]          (recursive)
│    └─MaxPool2d: 2-1472                 [16, 64, 32, 32]          --
│    └─Empty: 2-1473                     [16, 64, 32, 32]          --
│    └─Empty: 2-1474                     [16, 64, 32, 32]          --
│    └─OutputShiftSqueeze: 2-1475        --                        --
│    └─One: 2-1476                       [1]                       --
│    └─OutputScale: 2-1477               --                        --
│    └─Empty: 2-1478                     [64, 64, 3, 3]            --
│    └─Empty: 2-1479                     [64, 64, 3, 3]            --
│    └─Empty: 2-1480                     [64]                      --
│    └─Empty: 2-1481                     [64]                      --
│    └─BatchNorm2d: 2-1482               [16, 64, 32, 32]          --
│    └─Scaler: 2-1483                    [16, 64, 32, 32]          --
│    └─ReLU: 2-1484                      [16, 64, 32, 32]          --
│    └─Empty: 2-1485                     [16, 64, 32, 32]          --
│    └─Clamp: 2-1486                     [16, 64, 32, 32]          --
├─FusedConv2dBNReLU: 1-112               [16, 64, 32, 32]          (recursive)
│    └─OutputShiftSqueeze: 2-1487        --                        --
│    └─One: 2-1488                       [1]                       --
│    └─OutputScale: 2-1489               --                        --
│    └─Empty: 2-1490                     [64, 64, 1, 1]            --
│    └─Empty: 2-1491                     [64, 64, 1, 1]            --
│    └─Empty: 2-1492                     [64]                      --
│    └─Empty: 2-1493                     [64]                      --
│    └─BatchNorm2d: 2-1494               [16, 64, 32, 32]          --
│    └─Scaler: 2-1495                    [16, 64, 32, 32]          --
│    └─ReLU: 2-1496                      [16, 64, 32, 32]          --
│    └─Empty: 2-1497                     [16, 64, 32, 32]          --
│    └─Clamp: 2-1498                     [16, 64, 32, 32]          --
├─FusedMaxPoolConv2dBNReLU: 1-113        [16, 64, 32, 32]          (recursive)
│    └─MaxPool2d: 2-1499                 [16, 64, 32, 32]          --
│    └─Empty: 2-1500                     [16, 64, 32, 32]          --
│    └─Empty: 2-1501                     [16, 64, 32, 32]          --
│    └─OutputShiftSqueeze: 2-1502        --                        --
│    └─One: 2-1503                       [1]                       --
│    └─OutputScale: 2-1504               --                        --
│    └─Empty: 2-1505                     [64, 64, 3, 3]            --
│    └─Empty: 2-1506                     [64, 64, 3, 3]            --
│    └─Empty: 2-1507                     [64]                      --
│    └─Empty: 2-1508                     [64]                      --
│    └─BatchNorm2d: 2-1509               [16, 64, 32, 32]          --
│    └─Scaler: 2-1510                    [16, 64, 32, 32]          --
│    └─ReLU: 2-1511                      [16, 64, 32, 32]          --
│    └─Empty: 2-1512                     [16, 64, 32, 32]          --
│    └─Clamp: 2-1513                     [16, 64, 32, 32]          --
├─FusedMaxPoolConv2dBNReLU: 1-114        [16, 64, 16, 16]          (recursive)
│    └─MaxPool2d: 2-1514                 [16, 64, 16, 16]          --
│    └─Empty: 2-1515                     [16, 64, 16, 16]          --
│    └─Empty: 2-1516                     [16, 64, 16, 16]          --
│    └─OutputShiftSqueeze: 2-1517        --                        --
│    └─One: 2-1518                       [1]                       --
│    └─OutputScale: 2-1519               --                        --
│    └─Empty: 2-1520                     [64, 64, 3, 3]            --
│    └─Empty: 2-1521                     [64, 64, 3, 3]            --
│    └─Empty: 2-1522                     [64]                      --
│    └─Empty: 2-1523                     [64]                      --
│    └─BatchNorm2d: 2-1524               [16, 64, 16, 16]          --
│    └─Scaler: 2-1525                    [16, 64, 16, 16]          --
│    └─ReLU: 2-1526                      [16, 64, 16, 16]          --
│    └─Empty: 2-1527                     [16, 64, 16, 16]          --
│    └─Clamp: 2-1528                     [16, 64, 16, 16]          --
├─FusedConv2dBNReLU: 1-115               [16, 4, 16, 16]           (recursive)
│    └─OutputShiftSqueeze: 2-1529        --                        --
│    └─One: 2-1530                       [1]                       --
│    └─OutputScale: 2-1531               --                        --
│    └─Empty: 2-1532                     [4, 64, 1, 1]             --
│    └─Empty: 2-1533                     [4, 64, 1, 1]             --
│    └─Empty: 2-1534                     [4]                       --
│    └─Empty: 2-1535                     [4]                       --
│    └─BatchNorm2d: 2-1536               [16, 4, 16, 16]           --
│    └─Scaler: 2-1537                    [16, 4, 16, 16]           --
│    └─ReLU: 2-1538                      [16, 4, 16, 16]           --
│    └─Empty: 2-1539                     [16, 4, 16, 16]           --
│    └─Clamp: 2-1540                     [16, 4, 16, 16]           --
├─FusedMaxPoolConv2dBNReLU: 1-116        [16, 4, 16, 16]           (recursive)
│    └─MaxPool2d: 2-1541                 [16, 64, 16, 16]          --
│    └─Empty: 2-1542                     [16, 64, 16, 16]          --
│    └─Empty: 2-1543                     [16, 64, 16, 16]          --
│    └─OutputShiftSqueeze: 2-1544        --                        --
│    └─One: 2-1545                       [1]                       --
│    └─OutputScale: 2-1546               --                        --
│    └─Empty: 2-1547                     [4, 64, 3, 3]             --
│    └─Empty: 2-1548                     [4, 64, 3, 3]             --
│    └─Empty: 2-1549                     [4]                       --
│    └─Empty: 2-1550                     [4]                       --
│    └─BatchNorm2d: 2-1551               [16, 4, 16, 16]           --
│    └─Scaler: 2-1552                    [16, 4, 16, 16]           --
│    └─ReLU: 2-1553                      [16, 4, 16, 16]           --
│    └─Empty: 2-1554                     [16, 4, 16, 16]           --
│    └─Clamp: 2-1555                     [16, 4, 16, 16]           --
├─FusedConv2dBNReLU: 1-117               [16, 64, 64, 64]          (recursive)
│    └─OutputShiftSqueeze: 2-1556        --                        --
│    └─One: 2-1557                       [1]                       --
│    └─OutputScale: 2-1558               --                        --
│    └─Empty: 2-1559                     [64, 48, 1, 1]            --
│    └─Empty: 2-1560                     [64, 48, 1, 1]            --
│    └─Empty: 2-1561                     [64]                      --
│    └─Empty: 2-1562                     [64]                      --
│    └─BatchNorm2d: 2-1563               [16, 64, 64, 64]          --
│    └─Scaler: 2-1564                    [16, 64, 64, 64]          --
│    └─ReLU: 2-1565                      [16, 64, 64, 64]          --
│    └─Empty: 2-1566                     [16, 64, 64, 64]          --
│    └─Clamp: 2-1567                     [16, 64, 64, 64]          --
├─FusedConv2dBNReLU: 1-118               [16, 64, 64, 64]          (recursive)
│    └─OutputShiftSqueeze: 2-1568        --                        --
│    └─One: 2-1569                       [1]                       --
│    └─OutputScale: 2-1570               --                        --
│    └─Empty: 2-1571                     [64, 64, 3, 3]            --
│    └─Empty: 2-1572                     [64, 64, 3, 3]            --
│    └─Empty: 2-1573                     [64]                      --
│    └─Empty: 2-1574                     [64]                      --
│    └─BatchNorm2d: 2-1575               [16, 64, 64, 64]          --
│    └─Scaler: 2-1576                    [16, 64, 64, 64]          --
│    └─ReLU: 2-1577                      [16, 64, 64, 64]          --
│    └─Empty: 2-1578                     [16, 64, 64, 64]          --
│    └─Clamp: 2-1579                     [16, 64, 64, 64]          --
├─FusedMaxPoolConv2dBNReLU: 1-119        [16, 64, 32, 32]          (recursive)
│    └─MaxPool2d: 2-1580                 [16, 64, 32, 32]          --
│    └─Empty: 2-1581                     [16, 64, 32, 32]          --
│    └─Empty: 2-1582                     [16, 64, 32, 32]          --
│    └─OutputShiftSqueeze: 2-1583        --                        --
│    └─One: 2-1584                       [1]                       --
│    └─OutputScale: 2-1585               --                        --
│    └─Empty: 2-1586                     [64, 64, 3, 3]            --
│    └─Empty: 2-1587                     [64, 64, 3, 3]            --
│    └─Empty: 2-1588                     [64]                      --
│    └─Empty: 2-1589                     [64]                      --
│    └─BatchNorm2d: 2-1590               [16, 64, 32, 32]          --
│    └─Scaler: 2-1591                    [16, 64, 32, 32]          --
│    └─ReLU: 2-1592                      [16, 64, 32, 32]          --
│    └─Empty: 2-1593                     [16, 64, 32, 32]          --
│    └─Clamp: 2-1594                     [16, 64, 32, 32]          --
├─FusedConv2dBNReLU: 1-120               [16, 64, 32, 32]          (recursive)
│    └─OutputShiftSqueeze: 2-1595        --                        --
│    └─One: 2-1596                       [1]                       --
│    └─OutputScale: 2-1597               --                        --
│    └─Empty: 2-1598                     [64, 64, 1, 1]            --
│    └─Empty: 2-1599                     [64, 64, 1, 1]            --
│    └─Empty: 2-1600                     [64]                      --
│    └─Empty: 2-1601                     [64]                      --
│    └─BatchNorm2d: 2-1602               [16, 64, 32, 32]          --
│    └─Scaler: 2-1603                    [16, 64, 32, 32]          --
│    └─ReLU: 2-1604                      [16, 64, 32, 32]          --
│    └─Empty: 2-1605                     [16, 64, 32, 32]          --
│    └─Clamp: 2-1606                     [16, 64, 32, 32]          --
├─FusedMaxPoolConv2dBNReLU: 1-121        [16, 64, 32, 32]          (recursive)
│    └─MaxPool2d: 2-1607                 [16, 64, 32, 32]          --
│    └─Empty: 2-1608                     [16, 64, 32, 32]          --
│    └─Empty: 2-1609                     [16, 64, 32, 32]          --
│    └─OutputShiftSqueeze: 2-1610        --                        --
│    └─One: 2-1611                       [1]                       --
│    └─OutputScale: 2-1612               --                        --
│    └─Empty: 2-1613                     [64, 64, 3, 3]            --
│    └─Empty: 2-1614                     [64, 64, 3, 3]            --
│    └─Empty: 2-1615                     [64]                      --
│    └─Empty: 2-1616                     [64]                      --
│    └─BatchNorm2d: 2-1617               [16, 64, 32, 32]          --
│    └─Scaler: 2-1618                    [16, 64, 32, 32]          --
│    └─ReLU: 2-1619                      [16, 64, 32, 32]          --
│    └─Empty: 2-1620                     [16, 64, 32, 32]          --
│    └─Clamp: 2-1621                     [16, 64, 32, 32]          --
├─FusedMaxPoolConv2dBNReLU: 1-122        [16, 64, 16, 16]          (recursive)
│    └─MaxPool2d: 2-1622                 [16, 64, 16, 16]          --
│    └─Empty: 2-1623                     [16, 64, 16, 16]          --
│    └─Empty: 2-1624                     [16, 64, 16, 16]          --
│    └─OutputShiftSqueeze: 2-1625        --                        --
│    └─One: 2-1626                       [1]                       --
│    └─OutputScale: 2-1627               --                        --
│    └─Empty: 2-1628                     [64, 64, 3, 3]            --
│    └─Empty: 2-1629                     [64, 64, 3, 3]            --
│    └─Empty: 2-1630                     [64]                      --
│    └─Empty: 2-1631                     [64]                      --
│    └─BatchNorm2d: 2-1632               [16, 64, 16, 16]          --
│    └─Scaler: 2-1633                    [16, 64, 16, 16]          --
│    └─ReLU: 2-1634                      [16, 64, 16, 16]          --
│    └─Empty: 2-1635                     [16, 64, 16, 16]          --
│    └─Clamp: 2-1636                     [16, 64, 16, 16]          --
├─FusedConv2dBNReLU: 1-123               [16, 4, 16, 16]           (recursive)
│    └─OutputShiftSqueeze: 2-1637        --                        --
│    └─One: 2-1638                       [1]                       --
│    └─OutputScale: 2-1639               --                        --
│    └─Empty: 2-1640                     [4, 64, 1, 1]             --
│    └─Empty: 2-1641                     [4, 64, 1, 1]             --
│    └─Empty: 2-1642                     [4]                       --
│    └─Empty: 2-1643                     [4]                       --
│    └─BatchNorm2d: 2-1644               [16, 4, 16, 16]           --
│    └─Scaler: 2-1645                    [16, 4, 16, 16]           --
│    └─ReLU: 2-1646                      [16, 4, 16, 16]           --
│    └─Empty: 2-1647                     [16, 4, 16, 16]           --
│    └─Clamp: 2-1648                     [16, 4, 16, 16]           --
├─FusedMaxPoolConv2dBNReLU: 1-124        [16, 4, 16, 16]           (recursive)
│    └─MaxPool2d: 2-1649                 [16, 64, 16, 16]          --
│    └─Empty: 2-1650                     [16, 64, 16, 16]          --
│    └─Empty: 2-1651                     [16, 64, 16, 16]          --
│    └─OutputShiftSqueeze: 2-1652        --                        --
│    └─One: 2-1653                       [1]                       --
│    └─OutputScale: 2-1654               --                        --
│    └─Empty: 2-1655                     [4, 64, 3, 3]             --
│    └─Empty: 2-1656                     [4, 64, 3, 3]             --
│    └─Empty: 2-1657                     [4]                       --
│    └─Empty: 2-1658                     [4]                       --
│    └─BatchNorm2d: 2-1659               [16, 4, 16, 16]           --
│    └─Scaler: 2-1660                    [16, 4, 16, 16]           --
│    └─ReLU: 2-1661                      [16, 4, 16, 16]           --
│    └─Empty: 2-1662                     [16, 4, 16, 16]           --
│    └─Clamp: 2-1663                     [16, 4, 16, 16]           --
├─FusedConv2dBNReLU: 1-125               [16, 64, 64, 64]          (recursive)
│    └─OutputShiftSqueeze: 2-1664        --                        --
│    └─One: 2-1665                       [1]                       --
│    └─OutputScale: 2-1666               --                        --
│    └─Empty: 2-1667                     [64, 48, 1, 1]            --
│    └─Empty: 2-1668                     [64, 48, 1, 1]            --
│    └─Empty: 2-1669                     [64]                      --
│    └─Empty: 2-1670                     [64]                      --
│    └─BatchNorm2d: 2-1671               [16, 64, 64, 64]          --
│    └─Scaler: 2-1672                    [16, 64, 64, 64]          --
│    └─ReLU: 2-1673                      [16, 64, 64, 64]          --
│    └─Empty: 2-1674                     [16, 64, 64, 64]          --
│    └─Clamp: 2-1675                     [16, 64, 64, 64]          --
├─FusedConv2dBNReLU: 1-126               [16, 64, 64, 64]          (recursive)
│    └─OutputShiftSqueeze: 2-1676        --                        --
│    └─One: 2-1677                       [1]                       --
│    └─OutputScale: 2-1678               --                        --
│    └─Empty: 2-1679                     [64, 64, 3, 3]            --
│    └─Empty: 2-1680                     [64, 64, 3, 3]            --
│    └─Empty: 2-1681                     [64]                      --
│    └─Empty: 2-1682                     [64]                      --
│    └─BatchNorm2d: 2-1683               [16, 64, 64, 64]          --
│    └─Scaler: 2-1684                    [16, 64, 64, 64]          --
│    └─ReLU: 2-1685                      [16, 64, 64, 64]          --
│    └─Empty: 2-1686                     [16, 64, 64, 64]          --
│    └─Clamp: 2-1687                     [16, 64, 64, 64]          --
├─FusedMaxPoolConv2dBNReLU: 1-127        [16, 64, 32, 32]          (recursive)
│    └─MaxPool2d: 2-1688                 [16, 64, 32, 32]          --
│    └─Empty: 2-1689                     [16, 64, 32, 32]          --
│    └─Empty: 2-1690                     [16, 64, 32, 32]          --
│    └─OutputShiftSqueeze: 2-1691        --                        --
│    └─One: 2-1692                       [1]                       --
│    └─OutputScale: 2-1693               --                        --
│    └─Empty: 2-1694                     [64, 64, 3, 3]            --
│    └─Empty: 2-1695                     [64, 64, 3, 3]            --
│    └─Empty: 2-1696                     [64]                      --
│    └─Empty: 2-1697                     [64]                      --
│    └─BatchNorm2d: 2-1698               [16, 64, 32, 32]          --
│    └─Scaler: 2-1699                    [16, 64, 32, 32]          --
│    └─ReLU: 2-1700                      [16, 64, 32, 32]          --
│    └─Empty: 2-1701                     [16, 64, 32, 32]          --
│    └─Clamp: 2-1702                     [16, 64, 32, 32]          --
├─FusedConv2dBNReLU: 1-128               [16, 64, 32, 32]          (recursive)
│    └─OutputShiftSqueeze: 2-1703        --                        --
│    └─One: 2-1704                       [1]                       --
│    └─OutputScale: 2-1705               --                        --
│    └─Empty: 2-1706                     [64, 64, 1, 1]            --
│    └─Empty: 2-1707                     [64, 64, 1, 1]            --
│    └─Empty: 2-1708                     [64]                      --
│    └─Empty: 2-1709                     [64]                      --
│    └─BatchNorm2d: 2-1710               [16, 64, 32, 32]          --
│    └─Scaler: 2-1711                    [16, 64, 32, 32]          --
│    └─ReLU: 2-1712                      [16, 64, 32, 32]          --
│    └─Empty: 2-1713                     [16, 64, 32, 32]          --
│    └─Clamp: 2-1714                     [16, 64, 32, 32]          --
├─FusedMaxPoolConv2dBNReLU: 1-129        [16, 64, 32, 32]          (recursive)
│    └─MaxPool2d: 2-1715                 [16, 64, 32, 32]          --
│    └─Empty: 2-1716                     [16, 64, 32, 32]          --
│    └─Empty: 2-1717                     [16, 64, 32, 32]          --
│    └─OutputShiftSqueeze: 2-1718        --                        --
│    └─One: 2-1719                       [1]                       --
│    └─OutputScale: 2-1720               --                        --
│    └─Empty: 2-1721                     [64, 64, 3, 3]            --
│    └─Empty: 2-1722                     [64, 64, 3, 3]            --
│    └─Empty: 2-1723                     [64]                      --
│    └─Empty: 2-1724                     [64]                      --
│    └─BatchNorm2d: 2-1725               [16, 64, 32, 32]          --
│    └─Scaler: 2-1726                    [16, 64, 32, 32]          --
│    └─ReLU: 2-1727                      [16, 64, 32, 32]          --
│    └─Empty: 2-1728                     [16, 64, 32, 32]          --
│    └─Clamp: 2-1729                     [16, 64, 32, 32]          --
├─FusedMaxPoolConv2dBNReLU: 1-130        [16, 64, 16, 16]          (recursive)
│    └─MaxPool2d: 2-1730                 [16, 64, 16, 16]          --
│    └─Empty: 2-1731                     [16, 64, 16, 16]          --
│    └─Empty: 2-1732                     [16, 64, 16, 16]          --
│    └─OutputShiftSqueeze: 2-1733        --                        --
│    └─One: 2-1734                       [1]                       --
│    └─OutputScale: 2-1735               --                        --
│    └─Empty: 2-1736                     [64, 64, 3, 3]            --
│    └─Empty: 2-1737                     [64, 64, 3, 3]            --
│    └─Empty: 2-1738                     [64]                      --
│    └─Empty: 2-1739                     [64]                      --
│    └─BatchNorm2d: 2-1740               [16, 64, 16, 16]          --
│    └─Scaler: 2-1741                    [16, 64, 16, 16]          --
│    └─ReLU: 2-1742                      [16, 64, 16, 16]          --
│    └─Empty: 2-1743                     [16, 64, 16, 16]          --
│    └─Clamp: 2-1744                     [16, 64, 16, 16]          --
├─FusedConv2dBNReLU: 1-131               [16, 4, 16, 16]           (recursive)
│    └─OutputShiftSqueeze: 2-1745        --                        --
│    └─One: 2-1746                       [1]                       --
│    └─OutputScale: 2-1747               --                        --
│    └─Empty: 2-1748                     [4, 64, 1, 1]             --
│    └─Empty: 2-1749                     [4, 64, 1, 1]             --
│    └─Empty: 2-1750                     [4]                       --
│    └─Empty: 2-1751                     [4]                       --
│    └─BatchNorm2d: 2-1752               [16, 4, 16, 16]           --
│    └─Scaler: 2-1753                    [16, 4, 16, 16]           --
│    └─ReLU: 2-1754                      [16, 4, 16, 16]           --
│    └─Empty: 2-1755                     [16, 4, 16, 16]           --
│    └─Clamp: 2-1756                     [16, 4, 16, 16]           --
├─FusedMaxPoolConv2dBNReLU: 1-132        [16, 4, 16, 16]           (recursive)
│    └─MaxPool2d: 2-1757                 [16, 64, 16, 16]          --
│    └─Empty: 2-1758                     [16, 64, 16, 16]          --
│    └─Empty: 2-1759                     [16, 64, 16, 16]          --
│    └─OutputShiftSqueeze: 2-1760        --                        --
│    └─One: 2-1761                       [1]                       --
│    └─OutputScale: 2-1762               --                        --
│    └─Empty: 2-1763                     [4, 64, 3, 3]             --
│    └─Empty: 2-1764                     [4, 64, 3, 3]             --
│    └─Empty: 2-1765                     [4]                       --
│    └─Empty: 2-1766                     [4]                       --
│    └─BatchNorm2d: 2-1767               [16, 4, 16, 16]           --
│    └─Scaler: 2-1768                    [16, 4, 16, 16]           --
│    └─ReLU: 2-1769                      [16, 4, 16, 16]           --
│    └─Empty: 2-1770                     [16, 4, 16, 16]           --
│    └─Clamp: 2-1771                     [16, 4, 16, 16]           --
├─Conv1d: 1-133                          [16, 4, 14]               12,298
│    └─OutputShiftSqueeze: 2-1772        --                        --
│    └─One: 2-1773                       [1]                       --
│    └─OutputScale: 2-1774               --                        --
│    └─Empty: 2-1775                     [4, 1024, 3]              --
│    └─Empty: 2-1776                     [4, 1024, 3]              --
│    └─Empty: 2-1777                     [4]                       --
│    └─Empty: 2-1778                     [4]                       --
│    └─Scaler: 2-1779                    [16, 4, 14]               --
│    └─Empty: 2-1780                     [16, 4, 14]               --
│    └─Empty: 2-1781                     [16, 4, 14]               --
│    └─Clamp: 2-1782                     [16, 4, 14]               --
==========================================================================================
Total params: 169,922
Trainable params: 169,868
Non-trainable params: 54
Total mult-adds (M): 0.00
==========================================================================================
Input size (MB): 201.33
Forward/backward pass size (MB): 0.00
Params size (MB): 0.63
Estimated Total Size (MB): 201.96
…
