…
I - Label min-max:  tensor(0) tensor(3) data number in dataset:  tensor([143872,  78717, 172928, 128291, 168270,  89226, 214544, 106404,  84363,
        218369, 157086,  85621, 133906, 189193, 154236, 143745])
I - Initializing model TCNv7
I - Number of Model Parameters: 853268
I - Model output shape:  torch.Size([5, 16, 4, 16])
I - Model summary
==========================================================================================
Layer (type:depth-idx)                   Output Shape              Param #
==========================================================================================
TCNv7                                    [5, 16, 4, 16]            --
├─FusedConv2dBNReLU: 1-1                 [16, 64, 64, 64]          3,142
│    └─OutputShiftSqueeze: 2-1           --                        --
│    └─One: 2-2                          [1]                       --
│    └─OutputScale: 2-3                  --                        --
│    └─Empty: 2-4                        [64, 48, 1, 1]            --
│    └─Empty: 2-5                        [64, 48, 1, 1]            --
│    └─Empty: 2-6                        [64]                      --
│    └─Empty: 2-7                        [64]                      --
│    └─BatchNorm2d: 2-8                  [16, 64, 64, 64]          --
│    └─Scaler: 2-9                       [16, 64, 64, 64]          --
│    └─ReLU: 2-10                        [16, 64, 64, 64]          --
│    └─Empty: 2-11                       [16, 64, 64, 64]          --
│    └─Clamp: 2-12                       [16, 64, 64, 64]          --
├─FusedConv2dBNReLU: 1-2                 [16, 64, 64, 64]          36,934
│    └─OutputShiftSqueeze: 2-13          --                        --
│    └─One: 2-14                         [1]                       --
│    └─OutputScale: 2-15                 --                        --
│    └─Empty: 2-16                       [64, 64, 3, 3]            --
│    └─Empty: 2-17                       [64, 64, 3, 3]            --
│    └─Empty: 2-18                       [64]                      --
│    └─Empty: 2-19                       [64]                      --
│    └─BatchNorm2d: 2-20                 [16, 64, 64, 64]          --
│    └─Scaler: 2-21                      [16, 64, 64, 64]          --
│    └─ReLU: 2-22                        [16, 64, 64, 64]          --
│    └─Empty: 2-23                       [16, 64, 64, 64]          --
│    └─Clamp: 2-24                       [16, 64, 64, 64]          --
├─FusedConv2dBNReLU: 1-3                 [16, 64, 64, 64]          36,934
│    └─OutputShiftSqueeze: 2-25          --                        --
│    └─One: 2-26                         [1]                       --
│    └─OutputScale: 2-27                 --                        --
│    └─Empty: 2-28                       [64, 64, 3, 3]            --
│    └─Empty: 2-29                       [64, 64, 3, 3]            --
│    └─Empty: 2-30                       [64]                      --
│    └─Empty: 2-31                       [64]                      --
│    └─BatchNorm2d: 2-32                 [16, 64, 64, 64]          --
│    └─Scaler: 2-33                      [16, 64, 64, 64]          --
│    └─ReLU: 2-34                        [16, 64, 64, 64]          --
│    └─Empty: 2-35                       [16, 64, 64, 64]          --
│    └─Clamp: 2-36                       [16, 64, 64, 64]          --
├─FusedConv2dBNReLU: 1-4                 [16, 64, 64, 64]          4,166
│    └─OutputShiftSqueeze: 2-37          --                        --
│    └─One: 2-38                         [1]                       --
│    └─OutputScale: 2-39                 --                        --
│    └─Empty: 2-40                       [64, 64, 1, 1]            --
│    └─Empty: 2-41                       [64, 64, 1, 1]            --
│    └─Empty: 2-42                       [64]                      --
│    └─Empty: 2-43                       [64]                      --
│    └─BatchNorm2d: 2-44                 [16, 64, 64, 64]          --
│    └─Scaler: 2-45                      [16, 64, 64, 64]          --
│    └─ReLU: 2-46                        [16, 64, 64, 64]          --
│    └─Empty: 2-47                       [16, 64, 64, 64]          --
│    └─Clamp: 2-48                       [16, 64, 64, 64]          --
├─FusedConv2dBNReLU: 1-5                 [16, 64, 64, 64]          36,934
│    └─OutputShiftSqueeze: 2-49          --                        --
│    └─One: 2-50                         [1]                       --
│    └─OutputScale: 2-51                 --                        --
│    └─Empty: 2-52                       [64, 64, 3, 3]            --
│    └─Empty: 2-53                       [64, 64, 3, 3]            --
│    └─Empty: 2-54                       [64]                      --
│    └─Empty: 2-55                       [64]                      --
│    └─BatchNorm2d: 2-56                 [16, 64, 64, 64]          --
│    └─Scaler: 2-57                      [16, 64, 64, 64]          --
│    └─ReLU: 2-58                        [16, 64, 64, 64]          --
│    └─Empty: 2-59                       [16, 64, 64, 64]          --
│    └─Clamp: 2-60                       [16, 64, 64, 64]          --
├─FusedConv2dBNReLU: 1-6                 [16, 64, 64, 64]          36,934
│    └─OutputShiftSqueeze: 2-61          --                        --
│    └─One: 2-62                         [1]                       --
│    └─OutputScale: 2-63                 --                        --
│    └─Empty: 2-64                       [64, 64, 3, 3]            --
│    └─Empty: 2-65                       [64, 64, 3, 3]            --
│    └─Empty: 2-66                       [64]                      --
│    └─Empty: 2-67                       [64]                      --
│    └─BatchNorm2d: 2-68                 [16, 64, 64, 64]          --
│    └─Scaler: 2-69                      [16, 64, 64, 64]          --
│    └─ReLU: 2-70                        [16, 64, 64, 64]          --
│    └─Empty: 2-71                       [16, 64, 64, 64]          --
│    └─Clamp: 2-72                       [16, 64, 64, 64]          --
├─FusedMaxPoolConv2dBNReLU: 1-7          [16, 64, 32, 32]          36,934
│    └─MaxPool2d: 2-73                   [16, 64, 32, 32]          --
│    └─Empty: 2-74                       [16, 64, 32, 32]          --
│    └─Empty: 2-75                       [16, 64, 32, 32]          --
│    └─OutputShiftSqueeze: 2-76          --                        --
│    └─One: 2-77                         [1]                       --
│    └─OutputScale: 2-78                 --                        --
│    └─Empty: 2-79                       [64, 64, 3, 3]            --
│    └─Empty: 2-80                       [64, 64, 3, 3]            --
│    └─Empty: 2-81                       [64]                      --
│    └─Empty: 2-82                       [64]                      --
│    └─BatchNorm2d: 2-83                 [16, 64, 32, 32]          --
│    └─Scaler: 2-84                      [16, 64, 32, 32]          --
│    └─ReLU: 2-85                        [16, 64, 32, 32]          --
│    └─Empty: 2-86                       [16, 64, 32, 32]          --
│    └─Clamp: 2-87                       [16, 64, 32, 32]          --
├─FusedConv2dBNReLU: 1-8                 [16, 64, 32, 32]          36,934
│    └─OutputShiftSqueeze: 2-88          --                        --
│    └─One: 2-89                         [1]                       --
├─FusedMaxPoolConv2dBNReLU: 1            --                        --
│    └─ReLU: 2-3873                      [16, 64, 32, 32]          --
├─FusedConv2dBNReLU: 1                   --                        --
│    └─OutputScale: 2-91                 --                        --
│    └─Empty: 2-92                       [64, 64, 3, 3]            --
│    └─Empty: 2-93                       [64, 64, 3, 3]            --
│    └─Empty: 2-94                       [64]                      --
│    └─Empty: 2-95                       [64]                      --
│    └─BatchNorm2d: 2-96                 [16, 64, 32, 32]          --
│    └─Scaler: 2-97                      [16, 64, 32, 32]          --
│    └─ReLU: 2-98                        [16, 64, 32, 32]          --
│    └─Empty: 2-99                       [16, 64, 32, 32]          --
│    └─Clamp: 2-100                      [16, 64, 32, 32]          --
├─FusedMaxPoolConv2dBNReLU: 1-9          [16, 64, 16, 16]          36,934
│    └─MaxPool2d: 2-101                  [16, 64, 16, 16]          --
│    └─Empty: 2-102                      [16, 64, 16, 16]          --
│    └─Empty: 2-103                      [16, 64, 16, 16]          --
│    └─OutputShiftSqueeze: 2-104         --                        --
│    └─One: 2-105                        [1]                       --
│    └─OutputScale: 2-106                --                        --
│    └─Empty: 2-107                      [64, 64, 3, 3]            --
│    └─Empty: 2-108                      [64, 64, 3, 3]            --
│    └─Empty: 2-109                      [64]                      --
│    └─Empty: 2-110                      [64]                      --
│    └─BatchNorm2d: 2-111                [16, 64, 16, 16]          --
│    └─Scaler: 2-112                     [16, 64, 16, 16]          --
│    └─ReLU: 2-113                       [16, 64, 16, 16]          --
│    └─Empty: 2-114                      [16, 64, 16, 16]          --
│    └─Clamp: 2-115                      [16, 64, 16, 16]          --
├─FusedConv2dBNReLU: 1-10                [16, 64, 16, 16]          36,934
│    └─OutputShiftSqueeze: 2-116         --                        --
│    └─One: 2-117                        [1]                       --
│    └─OutputScale: 2-118                --                        --
│    └─Empty: 2-119                      [64, 64, 3, 3]            --
│    └─Empty: 2-120                      [64, 64, 3, 3]            --
├─FusedMaxPoolConv2dBNReLU: 1            --                        --
│    └─ReLU: 2-3900                      [16, 64, 16, 16]          --
├─FusedConv2dBNReLU: 1                   --                        --
│    └─Empty: 2-122                      [64]                      --
│    └─Empty: 2-123                      [64]                      --
│    └─BatchNorm2d: 2-124                [16, 64, 16, 16]          --
│    └─Scaler: 2-125                     [16, 64, 16, 16]          --
│    └─ReLU: 2-126                       [16, 64, 16, 16]          --
│    └─Empty: 2-127                      [16, 64, 16, 16]          --
│    └─Clamp: 2-128                      [16, 64, 16, 16]          --
├─FusedMaxPoolConv2dBNReLU: 1-11         [16, 64, 8, 8]            36,934
│    └─MaxPool2d: 2-129                  [16, 64, 8, 8]            --
│    └─Empty: 2-130                      [16, 64, 8, 8]            --
│    └─Empty: 2-131                      [16, 64, 8, 8]            --
│    └─OutputShiftSqueeze: 2-132         --                        --
│    └─One: 2-133                        [1]                       --
│    └─OutputScale: 2-134                --                        --
│    └─Empty: 2-135                      [64, 64, 3, 3]            --
│    └─Empty: 2-136                      [64, 64, 3, 3]            --
│    └─Empty: 2-137                      [64]                      --
│    └─Empty: 2-138                      [64]                      --
│    └─BatchNorm2d: 2-139                [16, 64, 8, 8]            --
│    └─Scaler: 2-140                     [16, 64, 8, 8]            --
│    └─ReLU: 2-141                       [16, 64, 8, 8]            --
│    └─Empty: 2-142                      [16, 64, 8, 8]            --
│    └─Clamp: 2-143                      [16, 64, 8, 8]            --
├─FusedConv2dBNReLU: 1-12                [16, 64, 8, 8]            4,166
│    └─OutputShiftSqueeze: 2-144         --                        --
│    └─One: 2-145                        [1]                       --
│    └─OutputScale: 2-146                --                        --
│    └─Empty: 2-147                      [64, 64, 1, 1]            --
│    └─Empty: 2-148                      [64, 64, 1, 1]            --
│    └─Empty: 2-149                      [64]                      --
│    └─Empty: 2-150                      [64]                      --
│    └─BatchNorm2d: 2-151                [16, 64, 8, 8]            --
├─FusedMaxPoolConv2dBNReLU: 1            --                        --
│    └─ReLU: 2-3927                      [16, 64, 8, 8]            --
├─FusedConv2dBNReLU: 1                   --                        --
│    └─Scaler: 2-153                     [16, 64, 8, 8]            --
│    └─ReLU: 2-154                       [16, 64, 8, 8]            --
│    └─Empty: 2-155                      [16, 64, 8, 8]            --
│    └─Clamp: 2-156                      [16, 64, 8, 8]            --
├─FusedMaxPoolConv2dBNReLU: 1-13         [16, 64, 8, 8]            36,934
│    └─MaxPool2d: 2-157                  [16, 64, 8, 8]            --
│    └─Empty: 2-158                      [16, 64, 8, 8]            --
│    └─Empty: 2-159                      [16, 64, 8, 8]            --
│    └─OutputShiftSqueeze: 2-160         --                        --
│    └─One: 2-161                        [1]                       --
│    └─OutputScale: 2-162                --                        --
│    └─Empty: 2-163                      [64, 64, 3, 3]            --
│    └─Empty: 2-164                      [64, 64, 3, 3]            --
│    └─Empty: 2-165                      [64]                      --
│    └─Empty: 2-166                      [64]                      --
│    └─BatchNorm2d: 2-167                [16, 64, 8, 8]            --
│    └─Scaler: 2-168                     [16, 64, 8, 8]            --
│    └─ReLU: 2-169                       [16, 64, 8, 8]            --
│    └─Empty: 2-170                      [16, 64, 8, 8]            --
│    └─Clamp: 2-171                      [16, 64, 8, 8]            --
├─FusedMaxPoolConv2dBNReLU: 1-14         [16, 64, 4, 4]            36,934
│    └─MaxPool2d: 2-172                  [16, 64, 4, 4]            --
│    └─Empty: 2-173                      [16, 64, 4, 4]            --
│    └─Empty: 2-174                      [16, 64, 4, 4]            --
│    └─OutputShiftSqueeze: 2-175         --                        --
│    └─One: 2-176                        [1]                       --
│    └─OutputScale: 2-177                --                        --
│    └─Empty: 2-178                      [64, 64, 3, 3]            --
│    └─Empty: 2-179                      [64, 64, 3, 3]            --
│    └─Empty: 2-180                      [64]                      --
│    └─Empty: 2-181                      [64]                      --
│    └─BatchNorm2d: 2-182                [16, 64, 4, 4]            --
├─FusedMaxPoolConv2dBNReLU: 1            --                        --
│    └─ReLU: 2-3954                      [16, 64, 8, 8]            --
├─FusedMaxPoolConv2dBNReLU: 1            --                        --
│    └─Scaler: 2-184                     [16, 64, 4, 4]            --
│    └─ReLU: 2-185                       [16, 64, 4, 4]            --
│    └─Empty: 2-186                      [16, 64, 4, 4]            --
│    └─Clamp: 2-187                      [16, 64, 4, 4]            --
├─FusedConv2dBNReLU: 1-15                [16, 64, 4, 4]            4,166
│    └─OutputShiftSqueeze: 2-188         --                        --
│    └─One: 2-189                        [1]                       --
│    └─OutputScale: 2-190                --                        --
│    └─Empty: 2-191                      [64, 64, 1, 1]            --
│    └─Empty: 2-192                      [64, 64, 1, 1]            --
│    └─Empty: 2-193                      [64]                      --
│    └─Empty: 2-194                      [64]                      --
│    └─BatchNorm2d: 2-195                [16, 64, 4, 4]            --
│    └─Scaler: 2-196                     [16, 64, 4, 4]            --
│    └─ReLU: 2-197                       [16, 64, 4, 4]            --
│    └─Empty: 2-198                      [16, 64, 4, 4]            --
├─FusedMaxPoolConv2dBNReLU: 1            --                        --
│    └─ReLU: 2-3969                      [16, 64, 4, 4]            --
├─FusedConv2dBNReLU: 1                   --                        --
│    └─Clamp: 2-200                      [16, 64, 4, 4]            --
├─FusedMaxPoolConv2dBNReLU: 1-16         [16, 64, 4, 4]            36,934
│    └─MaxPool2d: 2-201                  [16, 64, 4, 4]            --
│    └─Empty: 2-202                      [16, 64, 4, 4]            --
│    └─Empty: 2-203                      [16, 64, 4, 4]            --
│    └─OutputShiftSqueeze: 2-204         --                        --
│    └─One: 2-205                        [1]                       --
│    └─OutputScale: 2-206                --                        --
│    └─Empty: 2-207                      [64, 64, 3, 3]            --
│    └─Empty: 2-208                      [64, 64, 3, 3]            --
│    └─Empty: 2-209                      [64]                      --
│    └─Empty: 2-210                      [64]                      --
│    └─BatchNorm2d: 2-211                [16, 64, 4, 4]            --
│    └─Scaler: 2-212                     [16, 64, 4, 4]            --
│    └─ReLU: 2-213                       [16, 64, 4, 4]            --
│    └─Empty: 2-214                      [16, 64, 4, 4]            --
│    └─Clamp: 2-215                      [16, 64, 4, 4]            --
├─FusedMaxPoolConv2dBNReLU: 1-17         [16, 64, 2, 2]            4,166
│    └─MaxPool2d: 2-216                  [16, 64, 2, 2]            --
│    └─Empty: 2-217                      [16, 64, 2, 2]            --
│    └─Empty: 2-218                      [16, 64, 2, 2]            --
│    └─OutputShiftSqueeze: 2-219         --                        --
│    └─One: 2-220                        [1]                       --
│    └─OutputScale: 2-221                --                        --
│    └─Empty: 2-222                      [64, 64, 1, 1]            --
│    └─Empty: 2-223                      [64, 64, 1, 1]            --
│    └─Empty: 2-224                      [64]                      --
│    └─Empty: 2-225                      [64]                      --
│    └─BatchNorm2d: 2-226                [16, 64, 2, 2]            --
│    └─Scaler: 2-227                     [16, 64, 2, 2]            --
│    └─ReLU: 2-228                       [16, 64, 2, 2]            --
│    └─Empty: 2-229                      [16, 64, 2, 2]            --
├─FusedMaxPoolConv2dBNReLU: 1            --                        --
│    └─ReLU: 2-3996                      [16, 64, 4, 4]            --
├─FusedMaxPoolConv2dBNReLU: 1            --                        --
│    └─Clamp: 2-231                      [16, 64, 2, 2]            --
├─FusedConv2dBNReLU: 1-18                [16, 64, 2, 2]            4,166
│    └─OutputShiftSqueeze: 2-232         --                        --
│    └─One: 2-233                        [1]                       --
│    └─OutputScale: 2-234                --                        --
│    └─Empty: 2-235                      [64, 64, 1, 1]            --
│    └─Empty: 2-236                      [64, 64, 1, 1]            --
│    └─Empty: 2-237                      [64]                      --
│    └─Empty: 2-238                      [64]                      --
│    └─BatchNorm2d: 2-239                [16, 64, 2, 2]            --
│    └─Scaler: 2-240                     [16, 64, 2, 2]            --
│    └─ReLU: 2-241                       [16, 64, 2, 2]            --
│    └─Empty: 2-242                      [16, 64, 2, 2]            --
│    └─Clamp: 2-243                      [16, 64, 2, 2]            --
├─FusedMaxPoolConv2dBNReLU: 1-19         [16, 64, 2, 2]            36,934
│    └─MaxPool2d: 2-244                  [16, 64, 2, 2]            --
├─FusedMaxPoolConv2dBNReLU: 1            --                        --
│    └─ReLU: 2-4011                      [16, 64, 2, 2]            --
├─FusedMaxPoolConv2dBNReLU: 1            --                        --
│    └─Empty: 2-246                      [16, 64, 2, 2]            --
│    └─Empty: 2-247                      [16, 64, 2, 2]            --
│    └─OutputShiftSqueeze: 2-248         --                        --
│    └─One: 2-249                        [1]                       --
│    └─OutputScale: 2-250                --                        --
│    └─Empty: 2-251                      [64, 64, 3, 3]            --
│    └─Empty: 2-252                      [64, 64, 3, 3]            --
│    └─Empty: 2-253                      [64]                      --
│    └─Empty: 2-254                      [64]                      --
│    └─BatchNorm2d: 2-255                [16, 64, 2, 2]            --
│    └─Scaler: 2-256                     [16, 64, 2, 2]            --
│    └─ReLU: 2-257                       [16, 64, 2, 2]            --
│    └─Empty: 2-258                      [16, 64, 2, 2]            --
│    └─Clamp: 2-259                      [16, 64, 2, 2]            --
├─FusedConv2dBNReLU: 1-20                [16, 64, 64, 64]          (recursive)
│    └─OutputShiftSqueeze: 2-260         --                        --
│    └─One: 2-261                        [1]                       --
│    └─OutputScale: 2-262                --                        --
│    └─Empty: 2-263                      [64, 48, 1, 1]            --
│    └─Empty: 2-264                      [64, 48, 1, 1]            --
│    └─Empty: 2-265                      [64]                      --
│    └─Empty: 2-266                      [64]                      --
│    └─BatchNorm2d: 2-267                [16, 64, 64, 64]          --
│    └─Scaler: 2-268                     [16, 64, 64, 64]          --
│    └─ReLU: 2-269                       [16, 64, 64, 64]          --
│    └─Empty: 2-270                      [16, 64, 64, 64]          --
│    └─Clamp: 2-271                      [16, 64, 64, 64]          --
├─FusedConv2dBNReLU: 1-21                [16, 64, 64, 64]          (recursive)
│    └─OutputShiftSqueeze: 2-272         --                        --
│    └─One: 2-273                        [1]                       --
│    └─OutputScale: 2-274                --                        --
│    └─Empty: 2-275                      [64, 64, 3, 3]            --
├─FusedMaxPoolConv2dBNReLU: 1            --                        --
│    └─ReLU: 2-4038                      [16, 64, 2, 2]            --
├─FusedConv2dBNReLU: 1                   --                        --
│    └─Empty: 2-277                      [64, 64, 3, 3]            --
│    └─Empty: 2-278                      [64]                      --
│    └─Empty: 2-279                      [64]                      --
│    └─BatchNorm2d: 2-280                [16, 64, 64, 64]          --
│    └─Scaler: 2-281                     [16, 64, 64, 64]          --
│    └─ReLU: 2-282                       [16, 64, 64, 64]          --
│    └─Empty: 2-283                      [16, 64, 64, 64]          --
│    └─Clamp: 2-284                      [16, 64, 64, 64]          --
├─FusedConv2dBNReLU: 1-22                [16, 64, 64, 64]          (recursive)
│    └─OutputShiftSqueeze: 2-285         --                        --
│    └─One: 2-286                        [1]                       --
│    └─OutputScale: 2-287                --                        --
│    └─Empty: 2-288                      [64, 64, 3, 3]            --
│    └─Empty: 2-289                      [64, 64, 3, 3]            --
│    └─Empty: 2-290                      [64]                      --
│    └─Empty: 2-291                      [64]                      --
│    └─BatchNorm2d: 2-292                [16, 64, 64, 64]          --
│    └─Scaler: 2-293                     [16, 64, 64, 64]          --
│    └─ReLU: 2-294                       [16, 64, 64, 64]          --
│    └─Empty: 2-295                      [16, 64, 64, 64]          --
│    └─Clamp: 2-296                      [16, 64, 64, 64]          --
├─FusedConv2dBNReLU: 1-23                [16, 64, 64, 64]          (recursive)
│    └─OutputShiftSqueeze: 2-297         --                        --
│    └─One: 2-298                        [1]                       --
│    └─OutputScale: 2-299                --                        --
│    └─Empty: 2-300                      [64, 64, 1, 1]            --
│    └─Empty: 2-301                      [64, 64, 1, 1]            --
│    └─Empty: 2-302                      [64]                      --
│    └─Empty: 2-303                      [64]                      --
│    └─BatchNorm2d: 2-304                [16, 64, 64, 64]          --
│    └─Scaler: 2-305                     [16, 64, 64, 64]          --
│    └─ReLU: 2-306                       [16, 64, 64, 64]          --
│    └─Empty: 2-307                      [16, 64, 64, 64]          --
│    └─Clamp: 2-308                      [16, 64, 64, 64]          --
├─FusedConv2dBNReLU: 1-24                [16, 64, 64, 64]          (recursive)
│    └─OutputShiftSqueeze: 2-309         --                        --
│    └─One: 2-310                        [1]                       --
│    └─OutputScale: 2-311                --                        --
│    └─Empty: 2-312                      [64, 64, 3, 3]            --
│    └─Empty: 2-313                      [64, 64, 3, 3]            --
│    └─Empty: 2-314                      [64]                      --
│    └─Empty: 2-315                      [64]                      --
│    └─BatchNorm2d: 2-316                [16, 64, 64, 64]          --
│    └─Scaler: 2-317                     [16, 64, 64, 64]          --
│    └─ReLU: 2-318                       [16, 64, 64, 64]          --
│    └─Empty: 2-319                      [16, 64, 64, 64]          --
│    └─Clamp: 2-320                      [16, 64, 64, 64]          --
├─FusedConv2dBNReLU: 1-25                [16, 64, 64, 64]          (recursive)
│    └─OutputShiftSqueeze: 2-321         --                        --
│    └─One: 2-322                        [1]                       --
│    └─OutputScale: 2-323                --                        --
│    └─Empty: 2-324                      [64, 64, 3, 3]            --
│    └─Empty: 2-325                      [64, 64, 3, 3]            --
│    └─Empty: 2-326                      [64]                      --
│    └─Empty: 2-327                      [64]                      --
│    └─BatchNorm2d: 2-328                [16, 64, 64, 64]          --
│    └─Scaler: 2-329                     [16, 64, 64, 64]          --
│    └─ReLU: 2-330                       [16, 64, 64, 64]          --
│    └─Empty: 2-331                      [16, 64, 64, 64]          --
│    └─Clamp: 2-332                      [16, 64, 64, 64]          --
├─FusedMaxPoolConv2dBNReLU: 1-26         [16, 64, 32, 32]          (recursive)
│    └─MaxPool2d: 2-333                  [16, 64, 32, 32]          --
│    └─Empty: 2-334                      [16, 64, 32, 32]          --
│    └─Empty: 2-335                      [16, 64, 32, 32]          --
│    └─OutputShiftSqueeze: 2-336         --                        --
│    └─One: 2-337                        [1]                       --
│    └─OutputScale: 2-338                --                        --
│    └─Empty: 2-339                      [64, 64, 3, 3]            --
│    └─Empty: 2-340                      [64, 64, 3, 3]            --
│    └─Empty: 2-341                      [64]                      --
│    └─Empty: 2-342                      [64]                      --
│    └─BatchNorm2d: 2-343                [16, 64, 32, 32]          --
│    └─Scaler: 2-344                     [16, 64, 32, 32]          --
│    └─ReLU: 2-345                       [16, 64, 32, 32]          --
│    └─Empty: 2-346                      [16, 64, 32, 32]          --
│    └─Clamp: 2-347                      [16, 64, 32, 32]          --
├─FusedConv2dBNReLU: 1-27                [16, 64, 32, 32]          (recursive)
│    └─OutputShiftSqueeze: 2-348         --                        --
│    └─One: 2-349                        [1]                       --
│    └─OutputScale: 2-350                --                        --
│    └─Empty: 2-351                      [64, 64, 3, 3]            --
│    └─Empty: 2-352                      [64, 64, 3, 3]            --
│    └─Empty: 2-353                      [64]                      --
│    └─Empty: 2-354                      [64]                      --
│    └─BatchNorm2d: 2-355                [16, 64, 32, 32]          --
│    └─Scaler: 2-356                     [16, 64, 32, 32]          --
│    └─ReLU: 2-357                       [16, 64, 32, 32]          --
│    └─Empty: 2-358                      [16, 64, 32, 32]          --
│    └─Clamp: 2-359                      [16, 64, 32, 32]          --
├─FusedMaxPoolConv2dBNReLU: 1-28         [16, 64, 16, 16]          (recursive)
│    └─MaxPool2d: 2-360                  [16, 64, 16, 16]          --
│    └─Empty: 2-361                      [16, 64, 16, 16]          --
│    └─Empty: 2-362                      [16, 64, 16, 16]          --
│    └─OutputShiftSqueeze: 2-363         --                        --
│    └─One: 2-364                        [1]                       --
│    └─OutputScale: 2-365                --                        --
│    └─Empty: 2-366                      [64, 64, 3, 3]            --
│    └─Empty: 2-367                      [64, 64, 3, 3]            --
│    └─Empty: 2-368                      [64]                      --
│    └─Empty: 2-369                      [64]                      --
│    └─BatchNorm2d: 2-370                [16, 64, 16, 16]          --
│    └─Scaler: 2-371                     [16, 64, 16, 16]          --
│    └─ReLU: 2-372                       [16, 64, 16, 16]          --
│    └─Empty: 2-373                      [16, 64, 16, 16]          --
│    └─Clamp: 2-374                      [16, 64, 16, 16]          --
├─FusedConv2dBNReLU: 1-29                [16, 64, 16, 16]          (recursive)
│    └─OutputShiftSqueeze: 2-375         --                        --
│    └─One: 2-376                        [1]                       --
│    └─OutputScale: 2-377                --                        --
│    └─Empty: 2-378                      [64, 64, 3, 3]            --
│    └─Empty: 2-379                      [64, 64, 3, 3]            --
│    └─Empty: 2-380                      [64]                      --
│    └─Empty: 2-381                      [64]                      --
│    └─BatchNorm2d: 2-382                [16, 64, 16, 16]          --
│    └─Scaler: 2-383                     [16, 64, 16, 16]          --
│    └─ReLU: 2-384                       [16, 64, 16, 16]          --
│    └─Empty: 2-385                      [16, 64, 16, 16]          --
│    └─Clamp: 2-386                      [16, 64, 16, 16]          --
├─FusedMaxPoolConv2dBNReLU: 1-30         [16, 64, 8, 8]            (recursive)
│    └─MaxPool2d: 2-387                  [16, 64, 8, 8]            --
│    └─Empty: 2-388                      [16, 64, 8, 8]            --
│    └─Empty: 2-389                      [16, 64, 8, 8]            --
│    └─OutputShiftSqueeze: 2-390         --                        --
│    └─One: 2-391                        [1]                       --
│    └─OutputScale: 2-392                --                        --
│    └─Empty: 2-393                      [64, 64, 3, 3]            --
│    └─Empty: 2-394                      [64, 64, 3, 3]            --
│    └─Empty: 2-395                      [64]                      --
│    └─Empty: 2-396                      [64]                      --
│    └─BatchNorm2d: 2-397                [16, 64, 8, 8]            --
│    └─Scaler: 2-398                     [16, 64, 8, 8]            --
│    └─ReLU: 2-399                       [16, 64, 8, 8]            --
│    └─Empty: 2-400                      [16, 64, 8, 8]            --
│    └─Clamp: 2-401                      [16, 64, 8, 8]            --
├─FusedConv2dBNReLU: 1-31                [16, 64, 8, 8]            (recursive)
│    └─OutputShiftSqueeze: 2-402         --                        --
│    └─One: 2-403                        [1]                       --
│    └─OutputScale: 2-404                --                        --
│    └─Empty: 2-405                      [64, 64, 1, 1]            --
│    └─Empty: 2-406                      [64, 64, 1, 1]            --
│    └─Empty: 2-407                      [64]                      --
│    └─Empty: 2-408                      [64]                      --
│    └─BatchNorm2d: 2-409                [16, 64, 8, 8]            --
│    └─Scaler: 2-410                     [16, 64, 8, 8]            --
│    └─ReLU: 2-411                       [16, 64, 8, 8]            --
│    └─Empty: 2-412                      [16, 64, 8, 8]            --
│    └─Clamp: 2-413                      [16, 64, 8, 8]            --
├─FusedMaxPoolConv2dBNReLU: 1-32         [16, 64, 8, 8]            (recursive)
│    └─MaxPool2d: 2-414                  [16, 64, 8, 8]            --
│    └─Empty: 2-415                      [16, 64, 8, 8]            --
│    └─Empty: 2-416                      [16, 64, 8, 8]            --
│    └─OutputShiftSqueeze: 2-417         --                        --
│    └─One: 2-418                        [1]                       --
│    └─OutputScale: 2-419                --                        --
│    └─Empty: 2-420                      [64, 64, 3, 3]            --
│    └─Empty: 2-421                      [64, 64, 3, 3]            --
│    └─Empty: 2-422                      [64]                      --
│    └─Empty: 2-423                      [64]                      --
│    └─BatchNorm2d: 2-424                [16, 64, 8, 8]            --
│    └─Scaler: 2-425                     [16, 64, 8, 8]            --
│    └─ReLU: 2-426                       [16, 64, 8, 8]            --
│    └─Empty: 2-427                      [16, 64, 8, 8]            --
│    └─Clamp: 2-428                      [16, 64, 8, 8]            --
├─FusedMaxPoolConv2dBNReLU: 1-33         [16, 64, 4, 4]            (recursive)
│    └─MaxPool2d: 2-429                  [16, 64, 4, 4]            --
│    └─Empty: 2-430                      [16, 64, 4, 4]            --
│    └─Empty: 2-431                      [16, 64, 4, 4]            --
│    └─OutputShiftSqueeze: 2-432         --                        --
│    └─One: 2-433                        [1]                       --
│    └─OutputScale: 2-434                --                        --
│    └─Empty: 2-435                      [64, 64, 3, 3]            --
│    └─Empty: 2-436                      [64, 64, 3, 3]            --
│    └─Empty: 2-437                      [64]                      --
│    └─Empty: 2-438                      [64]                      --
│    └─BatchNorm2d: 2-439                [16, 64, 4, 4]            --
│    └─Scaler: 2-440                     [16, 64, 4, 4]            --
│    └─ReLU: 2-441                       [16, 64, 4, 4]            --
│    └─Empty: 2-442                      [16, 64, 4, 4]            --
│    └─Clamp: 2-443                      [16, 64, 4, 4]            --
├─FusedConv2dBNReLU: 1-34                [16, 64, 4, 4]            (recursive)
│    └─OutputShiftSqueeze: 2-444         --                        --
│    └─One: 2-445                        [1]                       --
│    └─OutputScale: 2-446                --                        --
│    └─Empty: 2-447                      [64, 64, 1, 1]            --
│    └─Empty: 2-448                      [64, 64, 1, 1]            --
│    └─Empty: 2-449                      [64]                      --
│    └─Empty: 2-450                      [64]                      --
│    └─BatchNorm2d: 2-451                [16, 64, 4, 4]            --
│    └─Scaler: 2-452                     [16, 64, 4, 4]            --
│    └─ReLU: 2-453                       [16, 64, 4, 4]            --
│    └─Empty: 2-454                      [16, 64, 4, 4]            --
│    └─Clamp: 2-455                      [16, 64, 4, 4]            --
├─FusedMaxPoolConv2dBNReLU: 1-35         [16, 64, 4, 4]            (recursive)
│    └─MaxPool2d: 2-456                  [16, 64, 4, 4]            --
│    └─Empty: 2-457                      [16, 64, 4, 4]            --
│    └─Empty: 2-458                      [16, 64, 4, 4]            --
│    └─OutputShiftSqueeze: 2-459         --                        --
│    └─One: 2-460                        [1]                       --
│    └─OutputScale: 2-461                --                        --
│    └─Empty: 2-462                      [64, 64, 3, 3]            --
│    └─Empty: 2-463                      [64, 64, 3, 3]            --
│    └─Empty: 2-464                      [64]                      --
│    └─Empty: 2-465                      [64]                      --
│    └─BatchNorm2d: 2-466                [16, 64, 4, 4]            --
│    └─Scaler: 2-467                     [16, 64, 4, 4]            --
│    └─ReLU: 2-468                       [16, 64, 4, 4]            --
│    └─Empty: 2-469                      [16, 64, 4, 4]            --
│    └─Clamp: 2-470                      [16, 64, 4, 4]            --
├─FusedMaxPoolConv2dBNReLU: 1-36         [16, 64, 2, 2]            (recursive)
│    └─MaxPool2d: 2-471                  [16, 64, 2, 2]            --
│    └─Empty: 2-472                      [16, 64, 2, 2]            --
│    └─Empty: 2-473                      [16, 64, 2, 2]            --
│    └─OutputShiftSqueeze: 2-474         --                        --
│    └─One: 2-475                        [1]                       --
│    └─OutputScale: 2-476                --                        --
│    └─Empty: 2-477                      [64, 64, 1, 1]            --
│    └─Empty: 2-478                      [64, 64, 1, 1]            --
│    └─Empty: 2-479                      [64]                      --
│    └─Empty: 2-480                      [64]                      --
│    └─BatchNorm2d: 2-481                [16, 64, 2, 2]            --
│    └─Scaler: 2-482                     [16, 64, 2, 2]            --
│    └─ReLU: 2-483                       [16, 64, 2, 2]            --
│    └─Empty: 2-484                      [16, 64, 2, 2]            --
│    └─Clamp: 2-485                      [16, 64, 2, 2]            --
├─FusedConv2dBNReLU: 1-37                [16, 64, 2, 2]            (recursive)
│    └─OutputShiftSqueeze: 2-486         --                        --
│    └─One: 2-487                        [1]                       --
│    └─OutputScale: 2-488                --                        --
│    └─Empty: 2-489                      [64, 64, 1, 1]            --
│    └─Empty: 2-490                      [64, 64, 1, 1]            --
│    └─Empty: 2-491                      [64]                      --
│    └─Empty: 2-492                      [64]                      --
│    └─BatchNorm2d: 2-493                [16, 64, 2, 2]            --
│    └─Scaler: 2-494                     [16, 64, 2, 2]            --
│    └─ReLU: 2-495                       [16, 64, 2, 2]            --
│    └─Empty: 2-496                      [16, 64, 2, 2]            --
│    └─Clamp: 2-497                      [16, 64, 2, 2]            --
├─FusedMaxPoolConv2dBNReLU: 1-38         [16, 64, 2, 2]            (recursive)
│    └─MaxPool2d: 2-498                  [16, 64, 2, 2]            --
│    └─Empty: 2-499                      [16, 64, 2, 2]            --
│    └─Empty: 2-500                      [16, 64, 2, 2]            --
│    └─OutputShiftSqueeze: 2-501         --                        --
│    └─One: 2-502                        [1]                       --
│    └─OutputScale: 2-503                --                        --
│    └─Empty: 2-504                      [64, 64, 3, 3]            --
│    └─Empty: 2-505                      [64, 64, 3, 3]            --
│    └─Empty: 2-506                      [64]                      --
│    └─Empty: 2-507                      [64]                      --
│    └─BatchNorm2d: 2-508                [16, 64, 2, 2]            --
│    └─Scaler: 2-509                     [16, 64, 2, 2]            --
│    └─ReLU: 2-510                       [16, 64, 2, 2]            --
│    └─Empty: 2-511                      [16, 64, 2, 2]            --
│    └─Clamp: 2-512                      [16, 64, 2, 2]            --
├─FusedConv2dBNReLU: 1-39                [16, 64, 64, 64]          (recursive)
│    └─OutputShiftSqueeze: 2-513         --                        --
│    └─One: 2-514                        [1]                       --
│    └─OutputScale: 2-515                --                        --
│    └─Empty: 2-516                      [64, 48, 1, 1]            --
│    └─Empty: 2-517                      [64, 48, 1, 1]            --
│    └─Empty: 2-518                      [64]                      --
│    └─Empty: 2-519                      [64]                      --
│    └─BatchNorm2d: 2-520                [16, 64, 64, 64]          --
│    └─Scaler: 2-521                     [16, 64, 64, 64]          --
│    └─ReLU: 2-522                       [16, 64, 64, 64]          --
│    └─Empty: 2-523                      [16, 64, 64, 64]          --
│    └─Clamp: 2-524                      [16, 64, 64, 64]          --
├─FusedConv2dBNReLU: 1-40                [16, 64, 64, 64]          (recursive)
│    └─OutputShiftSqueeze: 2-525         --                        --
│    └─One: 2-526                        [1]                       --
│    └─OutputScale: 2-527                --                        --
│    └─Empty: 2-528                      [64, 64, 3, 3]            --
│    └─Empty: 2-529                      [64, 64, 3, 3]            --
│    └─Empty: 2-530                      [64]                      --
│    └─Empty: 2-531                      [64]                      --
│    └─BatchNorm2d: 2-532                [16, 64, 64, 64]          --
│    └─Scaler: 2-533                     [16, 64, 64, 64]          --
│    └─ReLU: 2-534                       [16, 64, 64, 64]          --
│    └─Empty: 2-535                      [16, 64, 64, 64]          --
│    └─Clamp: 2-536                      [16, 64, 64, 64]          --
├─FusedConv2dBNReLU: 1-41                [16, 64, 64, 64]          (recursive)
│    └─OutputShiftSqueeze: 2-537         --                        --
│    └─One: 2-538                        [1]                       --
│    └─OutputScale: 2-539                --                        --
│    └─Empty: 2-540                      [64, 64, 3, 3]            --
│    └─Empty: 2-541                      [64, 64, 3, 3]            --
│    └─Empty: 2-542                      [64]                      --
│    └─Empty: 2-543                      [64]                      --
│    └─BatchNorm2d: 2-544                [16, 64, 64, 64]          --
│    └─Scaler: 2-545                     [16, 64, 64, 64]          --
│    └─ReLU: 2-546                       [16, 64, 64, 64]          --
│    └─Empty: 2-547                      [16, 64, 64, 64]          --
│    └─Clamp: 2-548                      [16, 64, 64, 64]          --
├─FusedConv2dBNReLU: 1-42                [16, 64, 64, 64]          (recursive)
│    └─OutputShiftSqueeze: 2-549         --                        --
│    └─One: 2-550                        [1]                       --
│    └─OutputScale: 2-551                --                        --
│    └─Empty: 2-552                      [64, 64, 1, 1]            --
│    └─Empty: 2-553                      [64, 64, 1, 1]            --
│    └─Empty: 2-554                      [64]                      --
│    └─Empty: 2-555                      [64]                      --
│    └─BatchNorm2d: 2-556                [16, 64, 64, 64]          --
│    └─Scaler: 2-557                     [16, 64, 64, 64]          --
│    └─ReLU: 2-558                       [16, 64, 64, 64]          --
│    └─Empty: 2-559                      [16, 64, 64, 64]          --
│    └─Clamp: 2-560                      [16, 64, 64, 64]          --
├─FusedConv2dBNReLU: 1-43                [16, 64, 64, 64]          (recursive)
│    └─OutputShiftSqueeze: 2-561         --                        --
│    └─One: 2-562                        [1]                       --
│    └─OutputScale: 2-563                --                        --
│    └─Empty: 2-564                      [64, 64, 3, 3]            --
│    └─Empty: 2-565                      [64, 64, 3, 3]            --
│    └─Empty: 2-566                      [64]                      --
│    └─Empty: 2-567                      [64]                      --
│    └─BatchNorm2d: 2-568                [16, 64, 64, 64]          --
│    └─Scaler: 2-569                     [16, 64, 64, 64]          --
│    └─ReLU: 2-570                       [16, 64, 64, 64]          --
│    └─Empty: 2-571                      [16, 64, 64, 64]          --
│    └─Clamp: 2-572                      [16, 64, 64, 64]          --
├─FusedConv2dBNReLU: 1-44                [16, 64, 64, 64]          (recursive)
│    └─OutputShiftSqueeze: 2-573         --                        --
│    └─One: 2-574                        [1]                       --
│    └─OutputScale: 2-575                --                        --
│    └─Empty: 2-576                      [64, 64, 3, 3]            --
│    └─Empty: 2-577                      [64, 64, 3, 3]            --
│    └─Empty: 2-578                      [64]                      --
│    └─Empty: 2-579                      [64]                      --
│    └─BatchNorm2d: 2-580                [16, 64, 64, 64]          --
│    └─Scaler: 2-581                     [16, 64, 64, 64]          --
│    └─ReLU: 2-582                       [16, 64, 64, 64]          --
│    └─Empty: 2-583                      [16, 64, 64, 64]          --
│    └─Clamp: 2-584                      [16, 64, 64, 64]          --
├─FusedMaxPoolConv2dBNReLU: 1-45         [16, 64, 32, 32]          (recursive)
│    └─MaxPool2d: 2-585                  [16, 64, 32, 32]          --
│    └─Empty: 2-586                      [16, 64, 32, 32]          --
│    └─Empty: 2-587                      [16, 64, 32, 32]          --
│    └─OutputShiftSqueeze: 2-588         --                        --
│    └─One: 2-589                        [1]                       --
│    └─OutputScale: 2-590                --                        --
│    └─Empty: 2-591                      [64, 64, 3, 3]            --
│    └─Empty: 2-592                      [64, 64, 3, 3]            --
│    └─Empty: 2-593                      [64]                      --
│    └─Empty: 2-594                      [64]                      --
│    └─BatchNorm2d: 2-595                [16, 64, 32, 32]          --
│    └─Scaler: 2-596                     [16, 64, 32, 32]          --
│    └─ReLU: 2-597                       [16, 64, 32, 32]          --
│    └─Empty: 2-598                      [16, 64, 32, 32]          --
│    └─Clamp: 2-599                      [16, 64, 32, 32]          --
├─FusedConv2dBNReLU: 1-46                [16, 64, 32, 32]          (recursive)
│    └─OutputShiftSqueeze: 2-600         --                        --
│    └─One: 2-601                        [1]                       --
│    └─OutputScale: 2-602                --                        --
│    └─Empty: 2-603                      [64, 64, 3, 3]            --
│    └─Empty: 2-604                      [64, 64, 3, 3]            --
│    └─Empty: 2-605                      [64]                      --
│    └─Empty: 2-606                      [64]                      --
│    └─BatchNorm2d: 2-607                [16, 64, 32, 32]          --
│    └─Scaler: 2-608                     [16, 64, 32, 32]          --
│    └─ReLU: 2-609                       [16, 64, 32, 32]          --
│    └─Empty: 2-610                      [16, 64, 32, 32]          --
│    └─Clamp: 2-611                      [16, 64, 32, 32]          --
├─FusedMaxPoolConv2dBNReLU: 1-47         [16, 64, 16, 16]          (recursive)
│    └─MaxPool2d: 2-612                  [16, 64, 16, 16]          --
│    └─Empty: 2-613                      [16, 64, 16, 16]          --
│    └─Empty: 2-614                      [16, 64, 16, 16]          --
│    └─OutputShiftSqueeze: 2-615         --                        --
│    └─One: 2-616                        [1]                       --
│    └─OutputScale: 2-617                --                        --
│    └─Empty: 2-618                      [64, 64, 3, 3]            --
│    └─Empty: 2-619                      [64, 64, 3, 3]            --
│    └─Empty: 2-620                      [64]                      --
│    └─Empty: 2-621                      [64]                      --
│    └─BatchNorm2d: 2-622                [16, 64, 16, 16]          --
│    └─Scaler: 2-623                     [16, 64, 16, 16]          --
│    └─ReLU: 2-624                       [16, 64, 16, 16]          --
│    └─Empty: 2-625                      [16, 64, 16, 16]          --
│    └─Clamp: 2-626                      [16, 64, 16, 16]          --
├─FusedConv2dBNReLU: 1-48                [16, 64, 16, 16]          (recursive)
│    └─OutputShiftSqueeze: 2-627         --                        --
│    └─One: 2-628                        [1]                       --
│    └─OutputScale: 2-629                --                        --
│    └─Empty: 2-630                      [64, 64, 3, 3]            --
│    └─Empty: 2-631                      [64, 64, 3, 3]            --
│    └─Empty: 2-632                      [64]                      --
│    └─Empty: 2-633                      [64]                      --
│    └─BatchNorm2d: 2-634                [16, 64, 16, 16]          --
│    └─Scaler: 2-635                     [16, 64, 16, 16]          --
│    └─ReLU: 2-636                       [16, 64, 16, 16]          --
│    └─Empty: 2-637                      [16, 64, 16, 16]          --
│    └─Clamp: 2-638                      [16, 64, 16, 16]          --
├─FusedMaxPoolConv2dBNReLU: 1-49         [16, 64, 8, 8]            (recursive)
│    └─MaxPool2d: 2-639                  [16, 64, 8, 8]            --
│    └─Empty: 2-640                      [16, 64, 8, 8]            --
│    └─Empty: 2-641                      [16, 64, 8, 8]            --
│    └─OutputShiftSqueeze: 2-642         --                        --
│    └─One: 2-643                        [1]                       --
│    └─OutputScale: 2-644                --                        --
│    └─Empty: 2-645                      [64, 64, 3, 3]            --
│    └─Empty: 2-646                      [64, 64, 3, 3]            --
│    └─Empty: 2-647                      [64]                      --
│    └─Empty: 2-648                      [64]                      --
│    └─BatchNorm2d: 2-649                [16, 64, 8, 8]            --
│    └─Scaler: 2-650                     [16, 64, 8, 8]            --
│    └─ReLU: 2-651                       [16, 64, 8, 8]            --
│    └─Empty: 2-652                      [16, 64, 8, 8]            --
│    └─Clamp: 2-653                      [16, 64, 8, 8]            --
├─FusedConv2dBNReLU: 1-50                [16, 64, 8, 8]            (recursive)
│    └─OutputShiftSqueeze: 2-654         --                        --
│    └─One: 2-655                        [1]                       --
│    └─OutputScale: 2-656                --                        --
│    └─Empty: 2-657                      [64, 64, 1, 1]            --
│    └─Empty: 2-658                      [64, 64, 1, 1]            --
│    └─Empty: 2-659                      [64]                      --
│    └─Empty: 2-660                      [64]                      --
│    └─BatchNorm2d: 2-661                [16, 64, 8, 8]            --
│    └─Scaler: 2-662                     [16, 64, 8, 8]            --
│    └─ReLU: 2-663                       [16, 64, 8, 8]            --
│    └─Empty: 2-664                      [16, 64, 8, 8]            --
│    └─Clamp: 2-665                      [16, 64, 8, 8]            --
├─FusedMaxPoolConv2dBNReLU: 1-51         [16, 64, 8, 8]            (recursive)
│    └─MaxPool2d: 2-666                  [16, 64, 8, 8]            --
│    └─Empty: 2-667                      [16, 64, 8, 8]            --
│    └─Empty: 2-668                      [16, 64, 8, 8]            --
│    └─OutputShiftSqueeze: 2-669         --                        --
│    └─One: 2-670                        [1]                       --
│    └─OutputScale: 2-671                --                        --
│    └─Empty: 2-672                      [64, 64, 3, 3]            --
│    └─Empty: 2-673                      [64, 64, 3, 3]            --
│    └─Empty: 2-674                      [64]                      --
│    └─Empty: 2-675                      [64]                      --
│    └─BatchNorm2d: 2-676                [16, 64, 8, 8]            --
│    └─Scaler: 2-677                     [16, 64, 8, 8]            --
│    └─ReLU: 2-678                       [16, 64, 8, 8]            --
│    └─Empty: 2-679                      [16, 64, 8, 8]            --
│    └─Clamp: 2-680                      [16, 64, 8, 8]            --
├─FusedMaxPoolConv2dBNReLU: 1-52         [16, 64, 4, 4]            (recursive)
│    └─MaxPool2d: 2-681                  [16, 64, 4, 4]            --
│    └─Empty: 2-682                      [16, 64, 4, 4]            --
│    └─Empty: 2-683                      [16, 64, 4, 4]            --
│    └─OutputShiftSqueeze: 2-684         --                        --
│    └─One: 2-685                        [1]                       --
│    └─OutputScale: 2-686                --                        --
│    └─Empty: 2-687                      [64, 64, 3, 3]            --
│    └─Empty: 2-688                      [64, 64, 3, 3]            --
│    └─Empty: 2-689                      [64]                      --
│    └─Empty: 2-690                      [64]                      --
│    └─BatchNorm2d: 2-691                [16, 64, 4, 4]            --
│    └─Scaler: 2-692                     [16, 64, 4, 4]            --
│    └─ReLU: 2-693                       [16, 64, 4, 4]            --
│    └─Empty: 2-694                      [16, 64, 4, 4]            --
│    └─Clamp: 2-695                      [16, 64, 4, 4]            --
├─FusedConv2dBNReLU: 1-53                [16, 64, 4, 4]            (recursive)
│    └─OutputShiftSqueeze: 2-696         --                        --
│    └─One: 2-697                        [1]                       --
│    └─OutputScale: 2-698                --                        --
│    └─Empty: 2-699                      [64, 64, 1, 1]            --
│    └─Empty: 2-700                      [64, 64, 1, 1]            --
│    └─Empty: 2-701                      [64]                      --
│    └─Empty: 2-702                      [64]                      --
│    └─BatchNorm2d: 2-703                [16, 64, 4, 4]            --
│    └─Scaler: 2-704                     [16, 64, 4, 4]            --
│    └─ReLU: 2-705                       [16, 64, 4, 4]            --
│    └─Empty: 2-706                      [16, 64, 4, 4]            --
│    └─Clamp: 2-707                      [16, 64, 4, 4]            --
├─FusedMaxPoolConv2dBNReLU: 1-54         [16, 64, 4, 4]            (recursive)
│    └─MaxPool2d: 2-708                  [16, 64, 4, 4]            --
│    └─Empty: 2-709                      [16, 64, 4, 4]            --
│    └─Empty: 2-710                      [16, 64, 4, 4]            --
│    └─OutputShiftSqueeze: 2-711         --                        --
│    └─One: 2-712                        [1]                       --
│    └─OutputScale: 2-713                --                        --
│    └─Empty: 2-714                      [64, 64, 3, 3]            --
│    └─Empty: 2-715                      [64, 64, 3, 3]            --
│    └─Empty: 2-716                      [64]                      --
│    └─Empty: 2-717                      [64]                      --
│    └─BatchNorm2d: 2-718                [16, 64, 4, 4]            --
│    └─Scaler: 2-719                     [16, 64, 4, 4]            --
│    └─ReLU: 2-720                       [16, 64, 4, 4]            --
│    └─Empty: 2-721                      [16, 64, 4, 4]            --
│    └─Clamp: 2-722                      [16, 64, 4, 4]            --
├─FusedMaxPoolConv2dBNReLU: 1-55         [16, 64, 2, 2]            (recursive)
│    └─MaxPool2d: 2-723                  [16, 64, 2, 2]            --
│    └─Empty: 2-724                      [16, 64, 2, 2]            --
│    └─Empty: 2-725                      [16, 64, 2, 2]            --
│    └─OutputShiftSqueeze: 2-726         --                        --
│    └─One: 2-727                        [1]                       --
│    └─OutputScale: 2-728                --                        --
│    └─Empty: 2-729                      [64, 64, 1, 1]            --
│    └─Empty: 2-730                      [64, 64, 1, 1]            --
│    └─Empty: 2-731                      [64]                      --
│    └─Empty: 2-732                      [64]                      --
│    └─BatchNorm2d: 2-733                [16, 64, 2, 2]            --
│    └─Scaler: 2-734                     [16, 64, 2, 2]            --
│    └─ReLU: 2-735                       [16, 64, 2, 2]            --
│    └─Empty: 2-736                      [16, 64, 2, 2]            --
│    └─Clamp: 2-737                      [16, 64, 2, 2]            --
├─FusedConv2dBNReLU: 1-56                [16, 64, 2, 2]            (recursive)
│    └─OutputShiftSqueeze: 2-738         --                        --
│    └─One: 2-739                        [1]                       --
│    └─OutputScale: 2-740                --                        --
│    └─Empty: 2-741                      [64, 64, 1, 1]            --
│    └─Empty: 2-742                      [64, 64, 1, 1]            --
│    └─Empty: 2-743                      [64]                      --
│    └─Empty: 2-744                      [64]                      --
│    └─BatchNorm2d: 2-745                [16, 64, 2, 2]            --
│    └─Scaler: 2-746                     [16, 64, 2, 2]            --
│    └─ReLU: 2-747                       [16, 64, 2, 2]            --
│    └─Empty: 2-748                      [16, 64, 2, 2]            --
│    └─Clamp: 2-749                      [16, 64, 2, 2]            --
├─FusedMaxPoolConv2dBNReLU: 1-57         [16, 64, 2, 2]            (recursive)
│    └─MaxPool2d: 2-750                  [16, 64, 2, 2]            --
│    └─Empty: 2-751                      [16, 64, 2, 2]            --
│    └─Empty: 2-752                      [16, 64, 2, 2]            --
│    └─OutputShiftSqueeze: 2-753         --                        --
│    └─One: 2-754                        [1]                       --
│    └─OutputScale: 2-755                --                        --
│    └─Empty: 2-756                      [64, 64, 3, 3]            --
│    └─Empty: 2-757                      [64, 64, 3, 3]            --
│    └─Empty: 2-758                      [64]                      --
│    └─Empty: 2-759                      [64]                      --
│    └─BatchNorm2d: 2-760                [16, 64, 2, 2]            --
│    └─Scaler: 2-761                     [16, 64, 2, 2]            --
│    └─ReLU: 2-762                       [16, 64, 2, 2]            --
│    └─Empty: 2-763                      [16, 64, 2, 2]            --
│    └─Clamp: 2-764                      [16, 64, 2, 2]            --
├─FusedConv2dBNReLU: 1-58                [16, 64, 64, 64]          (recursive)
│    └─OutputShiftSqueeze: 2-765         --                        --
│    └─One: 2-766                        [1]                       --
│    └─OutputScale: 2-767                --                        --
│    └─Empty: 2-768                      [64, 48, 1, 1]            --
│    └─Empty: 2-769                      [64, 48, 1, 1]            --
│    └─Empty: 2-770                      [64]                      --
│    └─Empty: 2-771                      [64]                      --
│    └─BatchNorm2d: 2-772                [16, 64, 64, 64]          --
│    └─Scaler: 2-773                     [16, 64, 64, 64]          --
│    └─ReLU: 2-774                       [16, 64, 64, 64]          --
│    └─Empty: 2-775                      [16, 64, 64, 64]          --
│    └─Clamp: 2-776                      [16, 64, 64, 64]          --
├─FusedConv2dBNReLU: 1-59                [16, 64, 64, 64]          (recursive)
│    └─OutputShiftSqueeze: 2-777         --                        --
│    └─One: 2-778                        [1]                       --
│    └─OutputScale: 2-779                --                        --
│    └─Empty: 2-780                      [64, 64, 3, 3]            --
│    └─Empty: 2-781                      [64, 64, 3, 3]            --
│    └─Empty: 2-782                      [64]                      --
│    └─Empty: 2-783                      [64]                      --
│    └─BatchNorm2d: 2-784                [16, 64, 64, 64]          --
│    └─Scaler: 2-785                     [16, 64, 64, 64]          --
│    └─ReLU: 2-786                       [16, 64, 64, 64]          --
│    └─Empty: 2-787                      [16, 64, 64, 64]          --
│    └─Clamp: 2-788                      [16, 64, 64, 64]          --
├─FusedConv2dBNReLU: 1-60                [16, 64, 64, 64]          (recursive)
│    └─OutputShiftSqueeze: 2-789         --                        --
│    └─One: 2-790                        [1]                       --
│    └─OutputScale: 2-791                --                        --
│    └─Empty: 2-792                      [64, 64, 3, 3]            --
│    └─Empty: 2-793                      [64, 64, 3, 3]            --
│    └─Empty: 2-794                      [64]                      --
│    └─Empty: 2-795                      [64]                      --
│    └─BatchNorm2d: 2-796                [16, 64, 64, 64]          --
│    └─Scaler: 2-797                     [16, 64, 64, 64]          --
│    └─ReLU: 2-798                       [16, 64, 64, 64]          --
│    └─Empty: 2-799                      [16, 64, 64, 64]          --
│    └─Clamp: 2-800                      [16, 64, 64, 64]          --
├─FusedConv2dBNReLU: 1-61                [16, 64, 64, 64]          (recursive)
│    └─OutputShiftSqueeze: 2-801         --                        --
│    └─One: 2-802                        [1]                       --
│    └─OutputScale: 2-803                --                        --
│    └─Empty: 2-804                      [64, 64, 1, 1]            --
│    └─Empty: 2-805                      [64, 64, 1, 1]            --
│    └─Empty: 2-806                      [64]                      --
│    └─Empty: 2-807                      [64]                      --
│    └─BatchNorm2d: 2-808                [16, 64, 64, 64]          --
│    └─Scaler: 2-809                     [16, 64, 64, 64]          --
│    └─ReLU: 2-810                       [16, 64, 64, 64]          --
│    └─Empty: 2-811                      [16, 64, 64, 64]          --
│    └─Clamp: 2-812                      [16, 64, 64, 64]          --
├─FusedConv2dBNReLU: 1-62                [16, 64, 64, 64]          (recursive)
│    └─OutputShiftSqueeze: 2-813         --                        --
│    └─One: 2-814                        [1]                       --
│    └─OutputScale: 2-815                --                        --
│    └─Empty: 2-816                      [64, 64, 3, 3]            --
│    └─Empty: 2-817                      [64, 64, 3, 3]            --
│    └─Empty: 2-818                      [64]                      --
│    └─Empty: 2-819                      [64]                      --
│    └─BatchNorm2d: 2-820                [16, 64, 64, 64]          --
│    └─Scaler: 2-821                     [16, 64, 64, 64]          --
│    └─ReLU: 2-822                       [16, 64, 64, 64]          --
│    └─Empty: 2-823                      [16, 64, 64, 64]          --
│    └─Clamp: 2-824                      [16, 64, 64, 64]          --
├─FusedConv2dBNReLU: 1-63                [16, 64, 64, 64]          (recursive)
│    └─OutputShiftSqueeze: 2-825         --                        --
│    └─One: 2-826                        [1]                       --
│    └─OutputScale: 2-827                --                        --
│    └─Empty: 2-828                      [64, 64, 3, 3]            --
│    └─Empty: 2-829                      [64, 64, 3, 3]            --
│    └─Empty: 2-830                      [64]                      --
│    └─Empty: 2-831                      [64]                      --
│    └─BatchNorm2d: 2-832                [16, 64, 64, 64]          --
│    └─Scaler: 2-833                     [16, 64, 64, 64]          --
│    └─ReLU: 2-834                       [16, 64, 64, 64]          --
│    └─Empty: 2-835                      [16, 64, 64, 64]          --
│    └─Clamp: 2-836                      [16, 64, 64, 64]          --
├─FusedMaxPoolConv2dBNReLU: 1-64         [16, 64, 32, 32]          (recursive)
│    └─MaxPool2d: 2-837                  [16, 64, 32, 32]          --
│    └─Empty: 2-838                      [16, 64, 32, 32]          --
│    └─Empty: 2-839                      [16, 64, 32, 32]          --
│    └─OutputShiftSqueeze: 2-840         --                        --
│    └─One: 2-841                        [1]                       --
│    └─OutputScale: 2-842                --                        --
│    └─Empty: 2-843                      [64, 64, 3, 3]            --
│    └─Empty: 2-844                      [64, 64, 3, 3]            --
│    └─Empty: 2-845                      [64]                      --
│    └─Empty: 2-846                      [64]                      --
│    └─BatchNorm2d: 2-847                [16, 64, 32, 32]          --
│    └─Scaler: 2-848                     [16, 64, 32, 32]          --
│    └─ReLU: 2-849                       [16, 64, 32, 32]          --
│    └─Empty: 2-850                      [16, 64, 32, 32]          --
│    └─Clamp: 2-851                      [16, 64, 32, 32]          --
├─FusedConv2dBNReLU: 1-65                [16, 64, 32, 32]          (recursive)
│    └─OutputShiftSqueeze: 2-852         --                        --
│    └─One: 2-853                        [1]                       --
│    └─OutputScale: 2-854                --                        --
│    └─Empty: 2-855                      [64, 64, 3, 3]            --
│    └─Empty: 2-856                      [64, 64, 3, 3]            --
│    └─Empty: 2-857                      [64]                      --
│    └─Empty: 2-858                      [64]                      --
│    └─BatchNorm2d: 2-859                [16, 64, 32, 32]          --
│    └─Scaler: 2-860                     [16, 64, 32, 32]          --
│    └─ReLU: 2-861                       [16, 64, 32, 32]          --
│    └─Empty: 2-862                      [16, 64, 32, 32]          --
│    └─Clamp: 2-863                      [16, 64, 32, 32]          --
├─FusedMaxPoolConv2dBNReLU: 1-66         [16, 64, 16, 16]          (recursive)
│    └─MaxPool2d: 2-864                  [16, 64, 16, 16]          --
│    └─Empty: 2-865                      [16, 64, 16, 16]          --
│    └─Empty: 2-866                      [16, 64, 16, 16]          --
│    └─OutputShiftSqueeze: 2-867         --                        --
│    └─One: 2-868                        [1]                       --
│    └─OutputScale: 2-869                --                        --
│    └─Empty: 2-870                      [64, 64, 3, 3]            --
│    └─Empty: 2-871                      [64, 64, 3, 3]            --
│    └─Empty: 2-872                      [64]                      --
│    └─Empty: 2-873                      [64]                      --
│    └─BatchNorm2d: 2-874                [16, 64, 16, 16]          --
│    └─Scaler: 2-875                     [16, 64, 16, 16]          --
│    └─ReLU: 2-876                       [16, 64, 16, 16]          --
│    └─Empty: 2-877                      [16, 64, 16, 16]          --
│    └─Clamp: 2-878                      [16, 64, 16, 16]          --
├─FusedConv2dBNReLU: 1-67                [16, 64, 16, 16]          (recursive)
│    └─OutputShiftSqueeze: 2-879         --                        --
│    └─One: 2-880                        [1]                       --
│    └─OutputScale: 2-881                --                        --
│    └─Empty: 2-882                      [64, 64, 3, 3]            --
│    └─Empty: 2-883                      [64, 64, 3, 3]            --
│    └─Empty: 2-884                      [64]                      --
│    └─Empty: 2-885                      [64]                      --
│    └─BatchNorm2d: 2-886                [16, 64, 16, 16]          --
│    └─Scaler: 2-887                     [16, 64, 16, 16]          --
│    └─ReLU: 2-888                       [16, 64, 16, 16]          --
│    └─Empty: 2-889                      [16, 64, 16, 16]          --
│    └─Clamp: 2-890                      [16, 64, 16, 16]          --
├─FusedMaxPoolConv2dBNReLU: 1-68         [16, 64, 8, 8]            (recursive)
│    └─MaxPool2d: 2-891                  [16, 64, 8, 8]            --
│    └─Empty: 2-892                      [16, 64, 8, 8]            --
│    └─Empty: 2-893                      [16, 64, 8, 8]            --
│    └─OutputShiftSqueeze: 2-894         --                        --
│    └─One: 2-895                        [1]                       --
│    └─OutputScale: 2-896                --                        --
│    └─Empty: 2-897                      [64, 64, 3, 3]            --
│    └─Empty: 2-898                      [64, 64, 3, 3]            --
│    └─Empty: 2-899                      [64]                      --
│    └─Empty: 2-900                      [64]                      --
│    └─BatchNorm2d: 2-901                [16, 64, 8, 8]            --
│    └─Scaler: 2-902                     [16, 64, 8, 8]            --
│    └─ReLU: 2-903                       [16, 64, 8, 8]            --
│    └─Empty: 2-904                      [16, 64, 8, 8]            --
│    └─Clamp: 2-905                      [16, 64, 8, 8]            --
├─FusedConv2dBNReLU: 1-69                [16, 64, 8, 8]            (recursive)
│    └─OutputShiftSqueeze: 2-906         --                        --
│    └─One: 2-907                        [1]                       --
│    └─OutputScale: 2-908                --                        --
│    └─Empty: 2-909                      [64, 64, 1, 1]            --
│    └─Empty: 2-910                      [64, 64, 1, 1]            --
│    └─Empty: 2-911                      [64]                      --
│    └─Empty: 2-912                      [64]                      --
│    └─BatchNorm2d: 2-913                [16, 64, 8, 8]            --
│    └─Scaler: 2-914                     [16, 64, 8, 8]            --
│    └─ReLU: 2-915                       [16, 64, 8, 8]            --
│    └─Empty: 2-916                      [16, 64, 8, 8]            --
│    └─Clamp: 2-917                      [16, 64, 8, 8]            --
├─FusedMaxPoolConv2dBNReLU: 1-70         [16, 64, 8, 8]            (recursive)
│    └─MaxPool2d: 2-918                  [16, 64, 8, 8]            --
│    └─Empty: 2-919                      [16, 64, 8, 8]            --
│    └─Empty: 2-920                      [16, 64, 8, 8]            --
│    └─OutputShiftSqueeze: 2-921         --                        --
│    └─One: 2-922                        [1]                       --
│    └─OutputScale: 2-923                --                        --
│    └─Empty: 2-924                      [64, 64, 3, 3]            --
│    └─Empty: 2-925                      [64, 64, 3, 3]            --
│    └─Empty: 2-926                      [64]                      --
│    └─Empty: 2-927                      [64]                      --
│    └─BatchNorm2d: 2-928                [16, 64, 8, 8]            --
│    └─Scaler: 2-929                     [16, 64, 8, 8]            --
│    └─ReLU: 2-930                       [16, 64, 8, 8]            --
│    └─Empty: 2-931                      [16, 64, 8, 8]            --
│    └─Clamp: 2-932                      [16, 64, 8, 8]            --
├─FusedMaxPoolConv2dBNReLU: 1-71         [16, 64, 4, 4]            (recursive)
│    └─MaxPool2d: 2-933                  [16, 64, 4, 4]            --
│    └─Empty: 2-934                      [16, 64, 4, 4]            --
│    └─Empty: 2-935                      [16, 64, 4, 4]            --
│    └─OutputShiftSqueeze: 2-936         --                        --
│    └─One: 2-937                        [1]                       --
│    └─OutputScale: 2-938                --                        --
│    └─Empty: 2-939                      [64, 64, 3, 3]            --
│    └─Empty: 2-940                      [64, 64, 3, 3]            --
│    └─Empty: 2-941                      [64]                      --
│    └─Empty: 2-942                      [64]                      --
│    └─BatchNorm2d: 2-943                [16, 64, 4, 4]            --
│    └─Scaler: 2-944                     [16, 64, 4, 4]            --
│    └─ReLU: 2-945                       [16, 64, 4, 4]            --
│    └─Empty: 2-946                      [16, 64, 4, 4]            --
│    └─Clamp: 2-947                      [16, 64, 4, 4]            --
├─FusedConv2dBNReLU: 1-72                [16, 64, 4, 4]            (recursive)
│    └─OutputShiftSqueeze: 2-948         --                        --
│    └─One: 2-949                        [1]                       --
│    └─OutputScale: 2-950                --                        --
│    └─Empty: 2-951                      [64, 64, 1, 1]            --
│    └─Empty: 2-952                      [64, 64, 1, 1]            --
│    └─Empty: 2-953                      [64]                      --
│    └─Empty: 2-954                      [64]                      --
│    └─BatchNorm2d: 2-955                [16, 64, 4, 4]            --
│    └─Scaler: 2-956                     [16, 64, 4, 4]            --
│    └─ReLU: 2-957                       [16, 64, 4, 4]            --
│    └─Empty: 2-958                      [16, 64, 4, 4]            --
│    └─Clamp: 2-959                      [16, 64, 4, 4]            --
├─FusedMaxPoolConv2dBNReLU: 1-73         [16, 64, 4, 4]            (recursive)
│    └─MaxPool2d: 2-960                  [16, 64, 4, 4]            --
│    └─Empty: 2-961                      [16, 64, 4, 4]            --
│    └─Empty: 2-962                      [16, 64, 4, 4]            --
│    └─OutputShiftSqueeze: 2-963         --                        --
│    └─One: 2-964                        [1]                       --
│    └─OutputScale: 2-965                --                        --
│    └─Empty: 2-966                      [64, 64, 3, 3]            --
│    └─Empty: 2-967                      [64, 64, 3, 3]            --
│    └─Empty: 2-968                      [64]                      --
│    └─Empty: 2-969                      [64]                      --
│    └─BatchNorm2d: 2-970                [16, 64, 4, 4]            --
│    └─Scaler: 2-971                     [16, 64, 4, 4]            --
│    └─ReLU: 2-972                       [16, 64, 4, 4]            --
│    └─Empty: 2-973                      [16, 64, 4, 4]            --
│    └─Clamp: 2-974                      [16, 64, 4, 4]            --
├─FusedMaxPoolConv2dBNReLU: 1-74         [16, 64, 2, 2]            (recursive)
│    └─MaxPool2d: 2-975                  [16, 64, 2, 2]            --
│    └─Empty: 2-976                      [16, 64, 2, 2]            --
│    └─Empty: 2-977                      [16, 64, 2, 2]            --
│    └─OutputShiftSqueeze: 2-978         --                        --
│    └─One: 2-979                        [1]                       --
│    └─OutputScale: 2-980                --                        --
│    └─Empty: 2-981                      [64, 64, 1, 1]            --
│    └─Empty: 2-982                      [64, 64, 1, 1]            --
│    └─Empty: 2-983                      [64]                      --
│    └─Empty: 2-984                      [64]                      --
│    └─BatchNorm2d: 2-985                [16, 64, 2, 2]            --
│    └─Scaler: 2-986                     [16, 64, 2, 2]            --
│    └─ReLU: 2-987                       [16, 64, 2, 2]            --
│    └─Empty: 2-988                      [16, 64, 2, 2]            --
│    └─Clamp: 2-989                      [16, 64, 2, 2]            --
├─FusedConv2dBNReLU: 1-75                [16, 64, 2, 2]            (recursive)
│    └─OutputShiftSqueeze: 2-990         --                        --
│    └─One: 2-991                        [1]                       --
│    └─OutputScale: 2-992                --                        --
│    └─Empty: 2-993                      [64, 64, 1, 1]            --
│    └─Empty: 2-994                      [64, 64, 1, 1]            --
│    └─Empty: 2-995                      [64]                      --
│    └─Empty: 2-996                      [64]                      --
│    └─BatchNorm2d: 2-997                [16, 64, 2, 2]            --
│    └─Scaler: 2-998                     [16, 64, 2, 2]            --
│    └─ReLU: 2-999                       [16, 64, 2, 2]            --
│    └─Empty: 2-1000                     [16, 64, 2, 2]            --
│    └─Clamp: 2-1001                     [16, 64, 2, 2]            --
├─FusedMaxPoolConv2dBNReLU: 1-76         [16, 64, 2, 2]            (recursive)
│    └─MaxPool2d: 2-1002                 [16, 64, 2, 2]            --
│    └─Empty: 2-1003                     [16, 64, 2, 2]            --
│    └─Empty: 2-1004                     [16, 64, 2, 2]            --
│    └─OutputShiftSqueeze: 2-1005        --                        --
│    └─One: 2-1006                       [1]                       --
│    └─OutputScale: 2-1007               --                        --
│    └─Empty: 2-1008                     [64, 64, 3, 3]            --
│    └─Empty: 2-1009                     [64, 64, 3, 3]            --
│    └─Empty: 2-1010                     [64]                      --
│    └─Empty: 2-1011                     [64]                      --
│    └─BatchNorm2d: 2-1012               [16, 64, 2, 2]            --
│    └─Scaler: 2-1013                    [16, 64, 2, 2]            --
│    └─ReLU: 2-1014                      [16, 64, 2, 2]            --
│    └─Empty: 2-1015                     [16, 64, 2, 2]            --
│    └─Clamp: 2-1016                     [16, 64, 2, 2]            --
├─FusedConv2dBNReLU: 1-77                [16, 64, 64, 64]          (recursive)
│    └─OutputShiftSqueeze: 2-1017        --                        --
│    └─One: 2-1018                       [1]                       --
│    └─OutputScale: 2-1019               --                        --
│    └─Empty: 2-1020                     [64, 48, 1, 1]            --
│    └─Empty: 2-1021                     [64, 48, 1, 1]            --
│    └─Empty: 2-1022                     [64]                      --
│    └─Empty: 2-1023                     [64]                      --
│    └─BatchNorm2d: 2-1024               [16, 64, 64, 64]          --
│    └─Scaler: 2-1025                    [16, 64, 64, 64]          --
│    └─ReLU: 2-1026                      [16, 64, 64, 64]          --
│    └─Empty: 2-1027                     [16, 64, 64, 64]          --
│    └─Clamp: 2-1028                     [16, 64, 64, 64]          --
├─FusedConv2dBNReLU: 1-78                [16, 64, 64, 64]          (recursive)
│    └─OutputShiftSqueeze: 2-1029        --                        --
│    └─One: 2-1030                       [1]                       --
│    └─OutputScale: 2-1031               --                        --
│    └─Empty: 2-1032                     [64, 64, 3, 3]            --
│    └─Empty: 2-1033                     [64, 64, 3, 3]            --
│    └─Empty: 2-1034                     [64]                      --
│    └─Empty: 2-1035                     [64]                      --
│    └─BatchNorm2d: 2-1036               [16, 64, 64, 64]          --
│    └─Scaler: 2-1037                    [16, 64, 64, 64]          --
│    └─ReLU: 2-1038                      [16, 64, 64, 64]          --
│    └─Empty: 2-1039                     [16, 64, 64, 64]          --
│    └─Clamp: 2-1040                     [16, 64, 64, 64]          --
├─FusedConv2dBNReLU: 1-79                [16, 64, 64, 64]          (recursive)
│    └─OutputShiftSqueeze: 2-1041        --                        --
│    └─One: 2-1042                       [1]                       --
│    └─OutputScale: 2-1043               --                        --
│    └─Empty: 2-1044                     [64, 64, 3, 3]            --
│    └─Empty: 2-1045                     [64, 64, 3, 3]            --
│    └─Empty: 2-1046                     [64]                      --
│    └─Empty: 2-1047                     [64]                      --
│    └─BatchNorm2d: 2-1048               [16, 64, 64, 64]          --
│    └─Scaler: 2-1049                    [16, 64, 64, 64]          --
│    └─ReLU: 2-1050                      [16, 64, 64, 64]          --
│    └─Empty: 2-1051                     [16, 64, 64, 64]          --
│    └─Clamp: 2-1052                     [16, 64, 64, 64]          --
├─FusedConv2dBNReLU: 1-80                [16, 64, 64, 64]          (recursive)
│    └─OutputShiftSqueeze: 2-1053        --                        --
│    └─One: 2-1054                       [1]                       --
│    └─OutputScale: 2-1055               --                        --
│    └─Empty: 2-1056                     [64, 64, 1, 1]            --
│    └─Empty: 2-1057                     [64, 64, 1, 1]            --
│    └─Empty: 2-1058                     [64]                      --
│    └─Empty: 2-1059                     [64]                      --
│    └─BatchNorm2d: 2-1060               [16, 64, 64, 64]          --
│    └─Scaler: 2-1061                    [16, 64, 64, 64]          --
│    └─ReLU: 2-1062                      [16, 64, 64, 64]          --
│    └─Empty: 2-1063                     [16, 64, 64, 64]          --
│    └─Clamp: 2-1064                     [16, 64, 64, 64]          --
├─FusedConv2dBNReLU: 1-81                [16, 64, 64, 64]          (recursive)
│    └─OutputShiftSqueeze: 2-1065        --                        --
│    └─One: 2-1066                       [1]                       --
│    └─OutputScale: 2-1067               --                        --
│    └─Empty: 2-1068                     [64, 64, 3, 3]            --
│    └─Empty: 2-1069                     [64, 64, 3, 3]            --
│    └─Empty: 2-1070                     [64]                      --
│    └─Empty: 2-1071                     [64]                      --
│    └─BatchNorm2d: 2-1072               [16, 64, 64, 64]          --
│    └─Scaler: 2-1073                    [16, 64, 64, 64]          --
│    └─ReLU: 2-1074                      [16, 64, 64, 64]          --
│    └─Empty: 2-1075                     [16, 64, 64, 64]          --
│    └─Clamp: 2-1076                     [16, 64, 64, 64]          --
├─FusedConv2dBNReLU: 1-82                [16, 64, 64, 64]          (recursive)
│    └─OutputShiftSqueeze: 2-1077        --                        --
│    └─One: 2-1078                       [1]                       --
│    └─OutputScale: 2-1079               --                        --
│    └─Empty: 2-1080                     [64, 64, 3, 3]            --
│    └─Empty: 2-1081                     [64, 64, 3, 3]            --
│    └─Empty: 2-1082                     [64]                      --
│    └─Empty: 2-1083                     [64]                      --
│    └─BatchNorm2d: 2-1084               [16, 64, 64, 64]          --
│    └─Scaler: 2-1085                    [16, 64, 64, 64]          --
│    └─ReLU: 2-1086                      [16, 64, 64, 64]          --
│    └─Empty: 2-1087                     [16, 64, 64, 64]          --
│    └─Clamp: 2-1088                     [16, 64, 64, 64]          --
├─FusedMaxPoolConv2dBNReLU: 1-83         [16, 64, 32, 32]          (recursive)
│    └─MaxPool2d: 2-1089                 [16, 64, 32, 32]          --
│    └─Empty: 2-1090                     [16, 64, 32, 32]          --
│    └─Empty: 2-1091                     [16, 64, 32, 32]          --
│    └─OutputShiftSqueeze: 2-1092        --                        --
│    └─One: 2-1093                       [1]                       --
│    └─OutputScale: 2-1094               --                        --
│    └─Empty: 2-1095                     [64, 64, 3, 3]            --
│    └─Empty: 2-1096                     [64, 64, 3, 3]            --
│    └─Empty: 2-1097                     [64]                      --
│    └─Empty: 2-1098                     [64]                      --
│    └─BatchNorm2d: 2-1099               [16, 64, 32, 32]          --
│    └─Scaler: 2-1100                    [16, 64, 32, 32]          --
│    └─ReLU: 2-1101                      [16, 64, 32, 32]          --
│    └─Empty: 2-1102                     [16, 64, 32, 32]          --
│    └─Clamp: 2-1103                     [16, 64, 32, 32]          --
├─FusedConv2dBNReLU: 1-84                [16, 64, 32, 32]          (recursive)
│    └─OutputShiftSqueeze: 2-1104        --                        --
│    └─One: 2-1105                       [1]                       --
│    └─OutputScale: 2-1106               --                        --
│    └─Empty: 2-1107                     [64, 64, 3, 3]            --
│    └─Empty: 2-1108                     [64, 64, 3, 3]            --
│    └─Empty: 2-1109                     [64]                      --
│    └─Empty: 2-1110                     [64]                      --
│    └─BatchNorm2d: 2-1111               [16, 64, 32, 32]          --
│    └─Scaler: 2-1112                    [16, 64, 32, 32]          --
│    └─ReLU: 2-1113                      [16, 64, 32, 32]          --
│    └─Empty: 2-1114                     [16, 64, 32, 32]          --
│    └─Clamp: 2-1115                     [16, 64, 32, 32]          --
├─FusedMaxPoolConv2dBNReLU: 1-85         [16, 64, 16, 16]          (recursive)
│    └─MaxPool2d: 2-1116                 [16, 64, 16, 16]          --
│    └─Empty: 2-1117                     [16, 64, 16, 16]          --
│    └─Empty: 2-1118                     [16, 64, 16, 16]          --
│    └─OutputShiftSqueeze: 2-1119        --                        --
│    └─One: 2-1120                       [1]                       --
│    └─OutputScale: 2-1121               --                        --
│    └─Empty: 2-1122                     [64, 64, 3, 3]            --
│    └─Empty: 2-1123                     [64, 64, 3, 3]            --
│    └─Empty: 2-1124                     [64]                      --
│    └─Empty: 2-1125                     [64]                      --
│    └─BatchNorm2d: 2-1126               [16, 64, 16, 16]          --
│    └─Scaler: 2-1127                    [16, 64, 16, 16]          --
│    └─ReLU: 2-1128                      [16, 64, 16, 16]          --
│    └─Empty: 2-1129                     [16, 64, 16, 16]          --
│    └─Clamp: 2-1130                     [16, 64, 16, 16]          --
├─FusedConv2dBNReLU: 1-86                [16, 64, 16, 16]          (recursive)
│    └─OutputShiftSqueeze: 2-1131        --                        --
│    └─One: 2-1132                       [1]                       --
│    └─OutputScale: 2-1133               --                        --
│    └─Empty: 2-1134                     [64, 64, 3, 3]            --
│    └─Empty: 2-1135                     [64, 64, 3, 3]            --
│    └─Empty: 2-1136                     [64]                      --
│    └─Empty: 2-1137                     [64]                      --
│    └─BatchNorm2d: 2-1138               [16, 64, 16, 16]          --
│    └─Scaler: 2-1139                    [16, 64, 16, 16]          --
│    └─ReLU: 2-1140                      [16, 64, 16, 16]          --
│    └─Empty: 2-1141                     [16, 64, 16, 16]          --
│    └─Clamp: 2-1142                     [16, 64, 16, 16]          --
├─FusedMaxPoolConv2dBNReLU: 1-87         [16, 64, 8, 8]            (recursive)
│    └─MaxPool2d: 2-1143                 [16, 64, 8, 8]            --
│    └─Empty: 2-1144                     [16, 64, 8, 8]            --
│    └─Empty: 2-1145                     [16, 64, 8, 8]            --
│    └─OutputShiftSqueeze: 2-1146        --                        --
│    └─One: 2-1147                       [1]                       --
│    └─OutputScale: 2-1148               --                        --
│    └─Empty: 2-1149                     [64, 64, 3, 3]            --
│    └─Empty: 2-1150                     [64, 64, 3, 3]            --
│    └─Empty: 2-1151                     [64]                      --
│    └─Empty: 2-1152                     [64]                      --
│    └─BatchNorm2d: 2-1153               [16, 64, 8, 8]            --
│    └─Scaler: 2-1154                    [16, 64, 8, 8]            --
│    └─ReLU: 2-1155                      [16, 64, 8, 8]            --
│    └─Empty: 2-1156                     [16, 64, 8, 8]            --
│    └─Clamp: 2-1157                     [16, 64, 8, 8]            --
├─FusedConv2dBNReLU: 1-88                [16, 64, 8, 8]            (recursive)
│    └─OutputShiftSqueeze: 2-1158        --                        --
│    └─One: 2-1159                       [1]                       --
│    └─OutputScale: 2-1160               --                        --
│    └─Empty: 2-1161                     [64, 64, 1, 1]            --
│    └─Empty: 2-1162                     [64, 64, 1, 1]            --
│    └─Empty: 2-1163                     [64]                      --
│    └─Empty: 2-1164                     [64]                      --
│    └─BatchNorm2d: 2-1165               [16, 64, 8, 8]            --
│    └─Scaler: 2-1166                    [16, 64, 8, 8]            --
│    └─ReLU: 2-1167                      [16, 64, 8, 8]            --
│    └─Empty: 2-1168                     [16, 64, 8, 8]            --
│    └─Clamp: 2-1169                     [16, 64, 8, 8]            --
├─FusedMaxPoolConv2dBNReLU: 1-89         [16, 64, 8, 8]            (recursive)
│    └─MaxPool2d: 2-1170                 [16, 64, 8, 8]            --
│    └─Empty: 2-1171                     [16, 64, 8, 8]            --
│    └─Empty: 2-1172                     [16, 64, 8, 8]            --
│    └─OutputShiftSqueeze: 2-1173        --                        --
│    └─One: 2-1174                       [1]                       --
│    └─OutputScale: 2-1175               --                        --
│    └─Empty: 2-1176                     [64, 64, 3, 3]            --
│    └─Empty: 2-1177                     [64, 64, 3, 3]            --
│    └─Empty: 2-1178                     [64]                      --
│    └─Empty: 2-1179                     [64]                      --
│    └─BatchNorm2d: 2-1180               [16, 64, 8, 8]            --
│    └─Scaler: 2-1181                    [16, 64, 8, 8]            --
│    └─ReLU: 2-1182                      [16, 64, 8, 8]            --
│    └─Empty: 2-1183                     [16, 64, 8, 8]            --
│    └─Clamp: 2-1184                     [16, 64, 8, 8]            --
├─FusedMaxPoolConv2dBNReLU: 1-90         [16, 64, 4, 4]            (recursive)
│    └─MaxPool2d: 2-1185                 [16, 64, 4, 4]            --
│    └─Empty: 2-1186                     [16, 64, 4, 4]            --
│    └─Empty: 2-1187                     [16, 64, 4, 4]            --
│    └─OutputShiftSqueeze: 2-1188        --                        --
│    └─One: 2-1189                       [1]                       --
│    └─OutputScale: 2-1190               --                        --
│    └─Empty: 2-1191                     [64, 64, 3, 3]            --
│    └─Empty: 2-1192                     [64, 64, 3, 3]            --
│    └─Empty: 2-1193                     [64]                      --
│    └─Empty: 2-1194                     [64]                      --
│    └─BatchNorm2d: 2-1195               [16, 64, 4, 4]            --
│    └─Scaler: 2-1196                    [16, 64, 4, 4]            --
│    └─ReLU: 2-1197                      [16, 64, 4, 4]            --
│    └─Empty: 2-1198                     [16, 64, 4, 4]            --
│    └─Clamp: 2-1199                     [16, 64, 4, 4]            --
├─FusedConv2dBNReLU: 1-91                [16, 64, 4, 4]            (recursive)
│    └─OutputShiftSqueeze: 2-1200        --                        --
│    └─One: 2-1201                       [1]                       --
│    └─OutputScale: 2-1202               --                        --
│    └─Empty: 2-1203                     [64, 64, 1, 1]            --
│    └─Empty: 2-1204                     [64, 64, 1, 1]            --
│    └─Empty: 2-1205                     [64]                      --
│    └─Empty: 2-1206                     [64]                      --
│    └─BatchNorm2d: 2-1207               [16, 64, 4, 4]            --
│    └─Scaler: 2-1208                    [16, 64, 4, 4]            --
│    └─ReLU: 2-1209                      [16, 64, 4, 4]            --
│    └─Empty: 2-1210                     [16, 64, 4, 4]            --
│    └─Clamp: 2-1211                     [16, 64, 4, 4]            --
├─FusedMaxPoolConv2dBNReLU: 1-92         [16, 64, 4, 4]            (recursive)
│    └─MaxPool2d: 2-1212                 [16, 64, 4, 4]            --
│    └─Empty: 2-1213                     [16, 64, 4, 4]            --
│    └─Empty: 2-1214                     [16, 64, 4, 4]            --
│    └─OutputShiftSqueeze: 2-1215        --                        --
│    └─One: 2-1216                       [1]                       --
│    └─OutputScale: 2-1217               --                        --
│    └─Empty: 2-1218                     [64, 64, 3, 3]            --
│    └─Empty: 2-1219                     [64, 64, 3, 3]            --
│    └─Empty: 2-1220                     [64]                      --
│    └─Empty: 2-1221                     [64]                      --
│    └─BatchNorm2d: 2-1222               [16, 64, 4, 4]            --
│    └─Scaler: 2-1223                    [16, 64, 4, 4]            --
│    └─ReLU: 2-1224                      [16, 64, 4, 4]            --
│    └─Empty: 2-1225                     [16, 64, 4, 4]            --
│    └─Clamp: 2-1226                     [16, 64, 4, 4]            --
├─FusedMaxPoolConv2dBNReLU: 1-93         [16, 64, 2, 2]            (recursive)
│    └─MaxPool2d: 2-1227                 [16, 64, 2, 2]            --
│    └─Empty: 2-1228                     [16, 64, 2, 2]            --
│    └─Empty: 2-1229                     [16, 64, 2, 2]            --
│    └─OutputShiftSqueeze: 2-1230        --                        --
│    └─One: 2-1231                       [1]                       --
│    └─OutputScale: 2-1232               --                        --
│    └─Empty: 2-1233                     [64, 64, 1, 1]            --
│    └─Empty: 2-1234                     [64, 64, 1, 1]            --
│    └─Empty: 2-1235                     [64]                      --
│    └─Empty: 2-1236                     [64]                      --
│    └─BatchNorm2d: 2-1237               [16, 64, 2, 2]            --
│    └─Scaler: 2-1238                    [16, 64, 2, 2]            --
│    └─ReLU: 2-1239                      [16, 64, 2, 2]            --
│    └─Empty: 2-1240                     [16, 64, 2, 2]            --
│    └─Clamp: 2-1241                     [16, 64, 2, 2]            --
├─FusedConv2dBNReLU: 1-94                [16, 64, 2, 2]            (recursive)
│    └─OutputShiftSqueeze: 2-1242        --                        --
│    └─One: 2-1243                       [1]                       --
│    └─OutputScale: 2-1244               --                        --
│    └─Empty: 2-1245                     [64, 64, 1, 1]            --
│    └─Empty: 2-1246                     [64, 64, 1, 1]            --
│    └─Empty: 2-1247                     [64]                      --
│    └─Empty: 2-1248                     [64]                      --
│    └─BatchNorm2d: 2-1249               [16, 64, 2, 2]            --
│    └─Scaler: 2-1250                    [16, 64, 2, 2]            --
│    └─ReLU: 2-1251                      [16, 64, 2, 2]            --
│    └─Empty: 2-1252                     [16, 64, 2, 2]            --
│    └─Clamp: 2-1253                     [16, 64, 2, 2]            --
├─FusedMaxPoolConv2dBNReLU: 1-95         [16, 64, 2, 2]            (recursive)
│    └─MaxPool2d: 2-1254                 [16, 64, 2, 2]            --
│    └─Empty: 2-1255                     [16, 64, 2, 2]            --
│    └─Empty: 2-1256                     [16, 64, 2, 2]            --
│    └─OutputShiftSqueeze: 2-1257        --                        --
│    └─One: 2-1258                       [1]                       --
│    └─OutputScale: 2-1259               --                        --
│    └─Empty: 2-1260                     [64, 64, 3, 3]            --
│    └─Empty: 2-1261                     [64, 64, 3, 3]            --
│    └─Empty: 2-1262                     [64]                      --
│    └─Empty: 2-1263                     [64]                      --
│    └─BatchNorm2d: 2-1264               [16, 64, 2, 2]            --
│    └─Scaler: 2-1265                    [16, 64, 2, 2]            --
│    └─ReLU: 2-1266                      [16, 64, 2, 2]            --
│    └─Empty: 2-1267                     [16, 64, 2, 2]            --
│    └─Clamp: 2-1268                     [16, 64, 2, 2]            --
├─FusedConv2dBNReLU: 1-96                [16, 64, 64, 64]          (recursive)
│    └─OutputShiftSqueeze: 2-1269        --                        --
│    └─One: 2-1270                       [1]                       --
│    └─OutputScale: 2-1271               --                        --
│    └─Empty: 2-1272                     [64, 48, 1, 1]            --
│    └─Empty: 2-1273                     [64, 48, 1, 1]            --
│    └─Empty: 2-1274                     [64]                      --
│    └─Empty: 2-1275                     [64]                      --
│    └─BatchNorm2d: 2-1276               [16, 64, 64, 64]          --
│    └─Scaler: 2-1277                    [16, 64, 64, 64]          --
│    └─ReLU: 2-1278                      [16, 64, 64, 64]          --
│    └─Empty: 2-1279                     [16, 64, 64, 64]          --
│    └─Clamp: 2-1280                     [16, 64, 64, 64]          --
├─FusedConv2dBNReLU: 1-97                [16, 64, 64, 64]          (recursive)
│    └─OutputShiftSqueeze: 2-1281        --                        --
│    └─One: 2-1282                       [1]                       --
│    └─OutputScale: 2-1283               --                        --
│    └─Empty: 2-1284                     [64, 64, 3, 3]            --
│    └─Empty: 2-1285                     [64, 64, 3, 3]            --
│    └─Empty: 2-1286                     [64]                      --
│    └─Empty: 2-1287                     [64]                      --
│    └─BatchNorm2d: 2-1288               [16, 64, 64, 64]          --
│    └─Scaler: 2-1289                    [16, 64, 64, 64]          --
│    └─ReLU: 2-1290                      [16, 64, 64, 64]          --
│    └─Empty: 2-1291                     [16, 64, 64, 64]          --
│    └─Clamp: 2-1292                     [16, 64, 64, 64]          --
├─FusedConv2dBNReLU: 1-98                [16, 64, 64, 64]          (recursive)
│    └─OutputShiftSqueeze: 2-1293        --                        --
│    └─One: 2-1294                       [1]                       --
│    └─OutputScale: 2-1295               --                        --
│    └─Empty: 2-1296                     [64, 64, 3, 3]            --
│    └─Empty: 2-1297                     [64, 64, 3, 3]            --
│    └─Empty: 2-1298                     [64]                      --
│    └─Empty: 2-1299                     [64]                      --
│    └─BatchNorm2d: 2-1300               [16, 64, 64, 64]          --
│    └─Scaler: 2-1301                    [16, 64, 64, 64]          --
│    └─ReLU: 2-1302                      [16, 64, 64, 64]          --
│    └─Empty: 2-1303                     [16, 64, 64, 64]          --
│    └─Clamp: 2-1304                     [16, 64, 64, 64]          --
├─FusedConv2dBNReLU: 1-99                [16, 64, 64, 64]          (recursive)
│    └─OutputShiftSqueeze: 2-1305        --                        --
│    └─One: 2-1306                       [1]                       --
│    └─OutputScale: 2-1307               --                        --
│    └─Empty: 2-1308                     [64, 64, 1, 1]            --
│    └─Empty: 2-1309                     [64, 64, 1, 1]            --
│    └─Empty: 2-1310                     [64]                      --
│    └─Empty: 2-1311                     [64]                      --
│    └─BatchNorm2d: 2-1312               [16, 64, 64, 64]          --
│    └─Scaler: 2-1313                    [16, 64, 64, 64]          --
│    └─ReLU: 2-1314                      [16, 64, 64, 64]          --
│    └─Empty: 2-1315                     [16, 64, 64, 64]          --
│    └─Clamp: 2-1316                     [16, 64, 64, 64]          --
├─FusedConv2dBNReLU: 1-100               [16, 64, 64, 64]          (recursive)
│    └─OutputShiftSqueeze: 2-1317        --                        --
│    └─One: 2-1318                       [1]                       --
│    └─OutputScale: 2-1319               --                        --
│    └─Empty: 2-1320                     [64, 64, 3, 3]            --
│    └─Empty: 2-1321                     [64, 64, 3, 3]            --
│    └─Empty: 2-1322                     [64]                      --
│    └─Empty: 2-1323                     [64]                      --
│    └─BatchNorm2d: 2-1324               [16, 64, 64, 64]          --
│    └─Scaler: 2-1325                    [16, 64, 64, 64]          --
│    └─ReLU: 2-1326                      [16, 64, 64, 64]          --
│    └─Empty: 2-1327                     [16, 64, 64, 64]          --
│    └─Clamp: 2-1328                     [16, 64, 64, 64]          --
├─FusedConv2dBNReLU: 1-101               [16, 64, 64, 64]          (recursive)
│    └─OutputShiftSqueeze: 2-1329        --                        --
│    └─One: 2-1330                       [1]                       --
│    └─OutputScale: 2-1331               --                        --
│    └─Empty: 2-1332                     [64, 64, 3, 3]            --
│    └─Empty: 2-1333                     [64, 64, 3, 3]            --
│    └─Empty: 2-1334                     [64]                      --
│    └─Empty: 2-1335                     [64]                      --
│    └─BatchNorm2d: 2-1336               [16, 64, 64, 64]          --
│    └─Scaler: 2-1337                    [16, 64, 64, 64]          --
│    └─ReLU: 2-1338                      [16, 64, 64, 64]          --
│    └─Empty: 2-1339                     [16, 64, 64, 64]          --
│    └─Clamp: 2-1340                     [16, 64, 64, 64]          --
├─FusedMaxPoolConv2dBNReLU: 1-102        [16, 64, 32, 32]          (recursive)
│    └─MaxPool2d: 2-1341                 [16, 64, 32, 32]          --
│    └─Empty: 2-1342                     [16, 64, 32, 32]          --
│    └─Empty: 2-1343                     [16, 64, 32, 32]          --
│    └─OutputShiftSqueeze: 2-1344        --                        --
│    └─One: 2-1345                       [1]                       --
│    └─OutputScale: 2-1346               --                        --
│    └─Empty: 2-1347                     [64, 64, 3, 3]            --
│    └─Empty: 2-1348                     [64, 64, 3, 3]            --
│    └─Empty: 2-1349                     [64]                      --
│    └─Empty: 2-1350                     [64]                      --
│    └─BatchNorm2d: 2-1351               [16, 64, 32, 32]          --
│    └─Scaler: 2-1352                    [16, 64, 32, 32]          --
│    └─ReLU: 2-1353                      [16, 64, 32, 32]          --
│    └─Empty: 2-1354                     [16, 64, 32, 32]          --
│    └─Clamp: 2-1355                     [16, 64, 32, 32]          --
├─FusedConv2dBNReLU: 1-103               [16, 64, 32, 32]          (recursive)
│    └─OutputShiftSqueeze: 2-1356        --                        --
│    └─One: 2-1357                       [1]                       --
│    └─OutputScale: 2-1358               --                        --
│    └─Empty: 2-1359                     [64, 64, 3, 3]            --
│    └─Empty: 2-1360                     [64, 64, 3, 3]            --
│    └─Empty: 2-1361                     [64]                      --
│    └─Empty: 2-1362                     [64]                      --
│    └─BatchNorm2d: 2-1363               [16, 64, 32, 32]          --
│    └─Scaler: 2-1364                    [16, 64, 32, 32]          --
│    └─ReLU: 2-1365                      [16, 64, 32, 32]          --
│    └─Empty: 2-1366                     [16, 64, 32, 32]          --
│    └─Clamp: 2-1367                     [16, 64, 32, 32]          --
├─FusedMaxPoolConv2dBNReLU: 1-104        [16, 64, 16, 16]          (recursive)
│    └─MaxPool2d: 2-1368                 [16, 64, 16, 16]          --
│    └─Empty: 2-1369                     [16, 64, 16, 16]          --
│    └─Empty: 2-1370                     [16, 64, 16, 16]          --
│    └─OutputShiftSqueeze: 2-1371        --                        --
│    └─One: 2-1372                       [1]                       --
│    └─OutputScale: 2-1373               --                        --
│    └─Empty: 2-1374                     [64, 64, 3, 3]            --
│    └─Empty: 2-1375                     [64, 64, 3, 3]            --
│    └─Empty: 2-1376                     [64]                      --
│    └─Empty: 2-1377                     [64]                      --
│    └─BatchNorm2d: 2-1378               [16, 64, 16, 16]          --
│    └─Scaler: 2-1379                    [16, 64, 16, 16]          --
│    └─ReLU: 2-1380                      [16, 64, 16, 16]          --
│    └─Empty: 2-1381                     [16, 64, 16, 16]          --
│    └─Clamp: 2-1382                     [16, 64, 16, 16]          --
├─FusedConv2dBNReLU: 1-105               [16, 64, 16, 16]          (recursive)
│    └─OutputShiftSqueeze: 2-1383        --                        --
│    └─One: 2-1384                       [1]                       --
│    └─OutputScale: 2-1385               --                        --
│    └─Empty: 2-1386                     [64, 64, 3, 3]            --
│    └─Empty: 2-1387                     [64, 64, 3, 3]            --
│    └─Empty: 2-1388                     [64]                      --
│    └─Empty: 2-1389                     [64]                      --
│    └─BatchNorm2d: 2-1390               [16, 64, 16, 16]          --
│    └─Scaler: 2-1391                    [16, 64, 16, 16]          --
│    └─ReLU: 2-1392                      [16, 64, 16, 16]          --
│    └─Empty: 2-1393                     [16, 64, 16, 16]          --
│    └─Clamp: 2-1394                     [16, 64, 16, 16]          --
├─FusedMaxPoolConv2dBNReLU: 1-106        [16, 64, 8, 8]            (recursive)
│    └─MaxPool2d: 2-1395                 [16, 64, 8, 8]            --
│    └─Empty: 2-1396                     [16, 64, 8, 8]            --
│    └─Empty: 2-1397                     [16, 64, 8, 8]            --
│    └─OutputShiftSqueeze: 2-1398        --                        --
│    └─One: 2-1399                       [1]                       --
│    └─OutputScale: 2-1400               --                        --
│    └─Empty: 2-1401                     [64, 64, 3, 3]            --
│    └─Empty: 2-1402                     [64, 64, 3, 3]            --
│    └─Empty: 2-1403                     [64]                      --
│    └─Empty: 2-1404                     [64]                      --
│    └─BatchNorm2d: 2-1405               [16, 64, 8, 8]            --
│    └─Scaler: 2-1406                    [16, 64, 8, 8]            --
│    └─ReLU: 2-1407                      [16, 64, 8, 8]            --
│    └─Empty: 2-1408                     [16, 64, 8, 8]            --
│    └─Clamp: 2-1409                     [16, 64, 8, 8]            --
├─FusedConv2dBNReLU: 1-107               [16, 64, 8, 8]            (recursive)
│    └─OutputShiftSqueeze: 2-1410        --                        --
│    └─One: 2-1411                       [1]                       --
│    └─OutputScale: 2-1412               --                        --
│    └─Empty: 2-1413                     [64, 64, 1, 1]            --
│    └─Empty: 2-1414                     [64, 64, 1, 1]            --
│    └─Empty: 2-1415                     [64]                      --
│    └─Empty: 2-1416                     [64]                      --
│    └─BatchNorm2d: 2-1417               [16, 64, 8, 8]            --
│    └─Scaler: 2-1418                    [16, 64, 8, 8]            --
│    └─ReLU: 2-1419                      [16, 64, 8, 8]            --
│    └─Empty: 2-1420                     [16, 64, 8, 8]            --
│    └─Clamp: 2-1421                     [16, 64, 8, 8]            --
├─FusedMaxPoolConv2dBNReLU: 1-108        [16, 64, 8, 8]            (recursive)
│    └─MaxPool2d: 2-1422                 [16, 64, 8, 8]            --
│    └─Empty: 2-1423                     [16, 64, 8, 8]            --
│    └─Empty: 2-1424                     [16, 64, 8, 8]            --
│    └─OutputShiftSqueeze: 2-1425        --                        --
│    └─One: 2-1426                       [1]                       --
│    └─OutputScale: 2-1427               --                        --
│    └─Empty: 2-1428                     [64, 64, 3, 3]            --
│    └─Empty: 2-1429                     [64, 64, 3, 3]            --
│    └─Empty: 2-1430                     [64]                      --
│    └─Empty: 2-1431                     [64]                      --
│    └─BatchNorm2d: 2-1432               [16, 64, 8, 8]            --
│    └─Scaler: 2-1433                    [16, 64, 8, 8]            --
│    └─ReLU: 2-1434                      [16, 64, 8, 8]            --
│    └─Empty: 2-1435                     [16, 64, 8, 8]            --
│    └─Clamp: 2-1436                     [16, 64, 8, 8]            --
├─FusedMaxPoolConv2dBNReLU: 1-109        [16, 64, 4, 4]            (recursive)
│    └─MaxPool2d: 2-1437                 [16, 64, 4, 4]            --
│    └─Empty: 2-1438                     [16, 64, 4, 4]            --
│    └─Empty: 2-1439                     [16, 64, 4, 4]            --
│    └─OutputShiftSqueeze: 2-1440        --                        --
│    └─One: 2-1441                       [1]                       --
│    └─OutputScale: 2-1442               --                        --
│    └─Empty: 2-1443                     [64, 64, 3, 3]            --
│    └─Empty: 2-1444                     [64, 64, 3, 3]            --
│    └─Empty: 2-1445                     [64]                      --
│    └─Empty: 2-1446                     [64]                      --
│    └─BatchNorm2d: 2-1447               [16, 64, 4, 4]            --
│    └─Scaler: 2-1448                    [16, 64, 4, 4]            --
│    └─ReLU: 2-1449                      [16, 64, 4, 4]            --
│    └─Empty: 2-1450                     [16, 64, 4, 4]            --
│    └─Clamp: 2-1451                     [16, 64, 4, 4]            --
├─FusedConv2dBNReLU: 1-110               [16, 64, 4, 4]            (recursive)
│    └─OutputShiftSqueeze: 2-1452        --                        --
│    └─One: 2-1453                       [1]                       --
│    └─OutputScale: 2-1454               --                        --
│    └─Empty: 2-1455                     [64, 64, 1, 1]            --
│    └─Empty: 2-1456                     [64, 64, 1, 1]            --
│    └─Empty: 2-1457                     [64]                      --
│    └─Empty: 2-1458                     [64]                      --
│    └─BatchNorm2d: 2-1459               [16, 64, 4, 4]            --
│    └─Scaler: 2-1460                    [16, 64, 4, 4]            --
│    └─ReLU: 2-1461                      [16, 64, 4, 4]            --
│    └─Empty: 2-1462                     [16, 64, 4, 4]            --
│    └─Clamp: 2-1463                     [16, 64, 4, 4]            --
├─FusedMaxPoolConv2dBNReLU: 1-111        [16, 64, 4, 4]            (recursive)
│    └─MaxPool2d: 2-1464                 [16, 64, 4, 4]            --
│    └─Empty: 2-1465                     [16, 64, 4, 4]            --
│    └─Empty: 2-1466                     [16, 64, 4, 4]            --
│    └─OutputShiftSqueeze: 2-1467        --                        --
│    └─One: 2-1468                       [1]                       --
│    └─OutputScale: 2-1469               --                        --
│    └─Empty: 2-1470                     [64, 64, 3, 3]            --
│    └─Empty: 2-1471                     [64, 64, 3, 3]            --
│    └─Empty: 2-1472                     [64]                      --
│    └─Empty: 2-1473                     [64]                      --
│    └─BatchNorm2d: 2-1474               [16, 64, 4, 4]            --
│    └─Scaler: 2-1475                    [16, 64, 4, 4]            --
│    └─ReLU: 2-1476                      [16, 64, 4, 4]            --
│    └─Empty: 2-1477                     [16, 64, 4, 4]            --
│    └─Clamp: 2-1478                     [16, 64, 4, 4]            --
├─FusedMaxPoolConv2dBNReLU: 1-112        [16, 64, 2, 2]            (recursive)
│    └─MaxPool2d: 2-1479                 [16, 64, 2, 2]            --
│    └─Empty: 2-1480                     [16, 64, 2, 2]            --
│    └─Empty: 2-1481                     [16, 64, 2, 2]            --
│    └─OutputShiftSqueeze: 2-1482        --                        --
│    └─One: 2-1483                       [1]                       --
│    └─OutputScale: 2-1484               --                        --
│    └─Empty: 2-1485                     [64, 64, 1, 1]            --
│    └─Empty: 2-1486                     [64, 64, 1, 1]            --
│    └─Empty: 2-1487                     [64]                      --
│    └─Empty: 2-1488                     [64]                      --
│    └─BatchNorm2d: 2-1489               [16, 64, 2, 2]            --
│    └─Scaler: 2-1490                    [16, 64, 2, 2]            --
│    └─ReLU: 2-1491                      [16, 64, 2, 2]            --
│    └─Empty: 2-1492                     [16, 64, 2, 2]            --
│    └─Clamp: 2-1493                     [16, 64, 2, 2]            --
├─FusedConv2dBNReLU: 1-113               [16, 64, 2, 2]            (recursive)
│    └─OutputShiftSqueeze: 2-1494        --                        --
│    └─One: 2-1495                       [1]                       --
│    └─OutputScale: 2-1496               --                        --
│    └─Empty: 2-1497                     [64, 64, 1, 1]            --
│    └─Empty: 2-1498                     [64, 64, 1, 1]            --
│    └─Empty: 2-1499                     [64]                      --
│    └─Empty: 2-1500                     [64]                      --
│    └─BatchNorm2d: 2-1501               [16, 64, 2, 2]            --
│    └─Scaler: 2-1502                    [16, 64, 2, 2]            --
│    └─ReLU: 2-1503                      [16, 64, 2, 2]            --
│    └─Empty: 2-1504                     [16, 64, 2, 2]            --
│    └─Clamp: 2-1505                     [16, 64, 2, 2]            --
├─FusedMaxPoolConv2dBNReLU: 1-114        [16, 64, 2, 2]            (recursive)
│    └─MaxPool2d: 2-1506                 [16, 64, 2, 2]            --
│    └─Empty: 2-1507                     [16, 64, 2, 2]            --
│    └─Empty: 2-1508                     [16, 64, 2, 2]            --
│    └─OutputShiftSqueeze: 2-1509        --                        --
│    └─One: 2-1510                       [1]                       --
│    └─OutputScale: 2-1511               --                        --
│    └─Empty: 2-1512                     [64, 64, 3, 3]            --
│    └─Empty: 2-1513                     [64, 64, 3, 3]            --
│    └─Empty: 2-1514                     [64]                      --
│    └─Empty: 2-1515                     [64]                      --
│    └─BatchNorm2d: 2-1516               [16, 64, 2, 2]            --
│    └─Scaler: 2-1517                    [16, 64, 2, 2]            --
│    └─ReLU: 2-1518                      [16, 64, 2, 2]            --
│    └─Empty: 2-1519                     [16, 64, 2, 2]            --
│    └─Clamp: 2-1520                     [16, 64, 2, 2]            --
├─FusedConv2dBNReLU: 1-115               [16, 64, 64, 64]          (recursive)
│    └─OutputShiftSqueeze: 2-1521        --                        --
│    └─One: 2-1522                       [1]                       --
│    └─OutputScale: 2-1523               --                        --
│    └─Empty: 2-1524                     [64, 48, 1, 1]            --
│    └─Empty: 2-1525                     [64, 48, 1, 1]            --
│    └─Empty: 2-1526                     [64]                      --
│    └─Empty: 2-1527                     [64]                      --
│    └─BatchNorm2d: 2-1528               [16, 64, 64, 64]          --
│    └─Scaler: 2-1529                    [16, 64, 64, 64]          --
│    └─ReLU: 2-1530                      [16, 64, 64, 64]          --
│    └─Empty: 2-1531                     [16, 64, 64, 64]          --
│    └─Clamp: 2-1532                     [16, 64, 64, 64]          --
├─FusedConv2dBNReLU: 1-116               [16, 64, 64, 64]          (recursive)
│    └─OutputShiftSqueeze: 2-1533        --                        --
│    └─One: 2-1534                       [1]                       --
│    └─OutputScale: 2-1535               --                        --
│    └─Empty: 2-1536                     [64, 64, 3, 3]            --
│    └─Empty: 2-1537                     [64, 64, 3, 3]            --
│    └─Empty: 2-1538                     [64]                      --
│    └─Empty: 2-1539                     [64]                      --
│    └─BatchNorm2d: 2-1540               [16, 64, 64, 64]          --
│    └─Scaler: 2-1541                    [16, 64, 64, 64]          --
│    └─ReLU: 2-1542                      [16, 64, 64, 64]          --
│    └─Empty: 2-1543                     [16, 64, 64, 64]          --
│    └─Clamp: 2-1544                     [16, 64, 64, 64]          --
├─FusedConv2dBNReLU: 1-117               [16, 64, 64, 64]          (recursive)
│    └─OutputShiftSqueeze: 2-1545        --                        --
│    └─One: 2-1546                       [1]                       --
│    └─OutputScale: 2-1547               --                        --
│    └─Empty: 2-1548                     [64, 64, 3, 3]            --
│    └─Empty: 2-1549                     [64, 64, 3, 3]            --
│    └─Empty: 2-1550                     [64]                      --
│    └─Empty: 2-1551                     [64]                      --
│    └─BatchNorm2d: 2-1552               [16, 64, 64, 64]          --
│    └─Scaler: 2-1553                    [16, 64, 64, 64]          --
│    └─ReLU: 2-1554                      [16, 64, 64, 64]          --
│    └─Empty: 2-1555                     [16, 64, 64, 64]          --
│    └─Clamp: 2-1556                     [16, 64, 64, 64]          --
├─FusedConv2dBNReLU: 1-118               [16, 64, 64, 64]          (recursive)
│    └─OutputShiftSqueeze: 2-1557        --                        --
│    └─One: 2-1558                       [1]                       --
│    └─OutputScale: 2-1559               --                        --
│    └─Empty: 2-1560                     [64, 64, 1, 1]            --
│    └─Empty: 2-1561                     [64, 64, 1, 1]            --
│    └─Empty: 2-1562                     [64]                      --
│    └─Empty: 2-1563                     [64]                      --
│    └─BatchNorm2d: 2-1564               [16, 64, 64, 64]          --
│    └─Scaler: 2-1565                    [16, 64, 64, 64]          --
│    └─ReLU: 2-1566                      [16, 64, 64, 64]          --
│    └─Empty: 2-1567                     [16, 64, 64, 64]          --
│    └─Clamp: 2-1568                     [16, 64, 64, 64]          --
├─FusedConv2dBNReLU: 1-119               [16, 64, 64, 64]          (recursive)
│    └─OutputShiftSqueeze: 2-1569        --                        --
│    └─One: 2-1570                       [1]                       --
│    └─OutputScale: 2-1571               --                        --
│    └─Empty: 2-1572                     [64, 64, 3, 3]            --
│    └─Empty: 2-1573                     [64, 64, 3, 3]            --
│    └─Empty: 2-1574                     [64]                      --
│    └─Empty: 2-1575                     [64]                      --
│    └─BatchNorm2d: 2-1576               [16, 64, 64, 64]          --
│    └─Scaler: 2-1577                    [16, 64, 64, 64]          --
│    └─ReLU: 2-1578                      [16, 64, 64, 64]          --
│    └─Empty: 2-1579                     [16, 64, 64, 64]          --
│    └─Clamp: 2-1580                     [16, 64, 64, 64]          --
├─FusedConv2dBNReLU: 1-120               [16, 64, 64, 64]          (recursive)
│    └─OutputShiftSqueeze: 2-1581        --                        --
│    └─One: 2-1582                       [1]                       --
│    └─OutputScale: 2-1583               --                        --
│    └─Empty: 2-1584                     [64, 64, 3, 3]            --
│    └─Empty: 2-1585                     [64, 64, 3, 3]            --
│    └─Empty: 2-1586                     [64]                      --
│    └─Empty: 2-1587                     [64]                      --
│    └─BatchNorm2d: 2-1588               [16, 64, 64, 64]          --
│    └─Scaler: 2-1589                    [16, 64, 64, 64]          --
│    └─ReLU: 2-1590                      [16, 64, 64, 64]          --
│    └─Empty: 2-1591                     [16, 64, 64, 64]          --
│    └─Clamp: 2-1592                     [16, 64, 64, 64]          --
├─FusedMaxPoolConv2dBNReLU: 1-121        [16, 64, 32, 32]          (recursive)
│    └─MaxPool2d: 2-1593                 [16, 64, 32, 32]          --
│    └─Empty: 2-1594                     [16, 64, 32, 32]          --
│    └─Empty: 2-1595                     [16, 64, 32, 32]          --
│    └─OutputShiftSqueeze: 2-1596        --                        --
│    └─One: 2-1597                       [1]                       --
│    └─OutputScale: 2-1598               --                        --
│    └─Empty: 2-1599                     [64, 64, 3, 3]            --
│    └─Empty: 2-1600                     [64, 64, 3, 3]            --
│    └─Empty: 2-1601                     [64]                      --
│    └─Empty: 2-1602                     [64]                      --
│    └─BatchNorm2d: 2-1603               [16, 64, 32, 32]          --
│    └─Scaler: 2-1604                    [16, 64, 32, 32]          --
│    └─ReLU: 2-1605                      [16, 64, 32, 32]          --
│    └─Empty: 2-1606                     [16, 64, 32, 32]          --
│    └─Clamp: 2-1607                     [16, 64, 32, 32]          --
├─FusedConv2dBNReLU: 1-122               [16, 64, 32, 32]          (recursive)
│    └─OutputShiftSqueeze: 2-1608        --                        --
│    └─One: 2-1609                       [1]                       --
│    └─OutputScale: 2-1610               --                        --
│    └─Empty: 2-1611                     [64, 64, 3, 3]            --
│    └─Empty: 2-1612                     [64, 64, 3, 3]            --
│    └─Empty: 2-1613                     [64]                      --
│    └─Empty: 2-1614                     [64]                      --
│    └─BatchNorm2d: 2-1615               [16, 64, 32, 32]          --
│    └─Scaler: 2-1616                    [16, 64, 32, 32]          --
│    └─ReLU: 2-1617                      [16, 64, 32, 32]          --
│    └─Empty: 2-1618                     [16, 64, 32, 32]          --
│    └─Clamp: 2-1619                     [16, 64, 32, 32]          --
├─FusedMaxPoolConv2dBNReLU: 1-123        [16, 64, 16, 16]          (recursive)
│    └─MaxPool2d: 2-1620                 [16, 64, 16, 16]          --
│    └─Empty: 2-1621                     [16, 64, 16, 16]          --
│    └─Empty: 2-1622                     [16, 64, 16, 16]          --
│    └─OutputShiftSqueeze: 2-1623        --                        --
│    └─One: 2-1624                       [1]                       --
│    └─OutputScale: 2-1625               --                        --
│    └─Empty: 2-1626                     [64, 64, 3, 3]            --
│    └─Empty: 2-1627                     [64, 64, 3, 3]            --
│    └─Empty: 2-1628                     [64]                      --
│    └─Empty: 2-1629                     [64]                      --
│    └─BatchNorm2d: 2-1630               [16, 64, 16, 16]          --
│    └─Scaler: 2-1631                    [16, 64, 16, 16]          --
│    └─ReLU: 2-1632                      [16, 64, 16, 16]          --
│    └─Empty: 2-1633                     [16, 64, 16, 16]          --
│    └─Clamp: 2-1634                     [16, 64, 16, 16]          --
├─FusedConv2dBNReLU: 1-124               [16, 64, 16, 16]          (recursive)
│    └─OutputShiftSqueeze: 2-1635        --                        --
│    └─One: 2-1636                       [1]                       --
│    └─OutputScale: 2-1637               --                        --
│    └─Empty: 2-1638                     [64, 64, 3, 3]            --
│    └─Empty: 2-1639                     [64, 64, 3, 3]            --
│    └─Empty: 2-1640                     [64]                      --
│    └─Empty: 2-1641                     [64]                      --
│    └─BatchNorm2d: 2-1642               [16, 64, 16, 16]          --
│    └─Scaler: 2-1643                    [16, 64, 16, 16]          --
│    └─ReLU: 2-1644                      [16, 64, 16, 16]          --
│    └─Empty: 2-1645                     [16, 64, 16, 16]          --
│    └─Clamp: 2-1646                     [16, 64, 16, 16]          --
├─FusedMaxPoolConv2dBNReLU: 1-125        [16, 64, 8, 8]            (recursive)
│    └─MaxPool2d: 2-1647                 [16, 64, 8, 8]            --
│    └─Empty: 2-1648                     [16, 64, 8, 8]            --
│    └─Empty: 2-1649                     [16, 64, 8, 8]            --
│    └─OutputShiftSqueeze: 2-1650        --                        --
│    └─One: 2-1651                       [1]                       --
│    └─OutputScale: 2-1652               --                        --
│    └─Empty: 2-1653                     [64, 64, 3, 3]            --
│    └─Empty: 2-1654                     [64, 64, 3, 3]            --
│    └─Empty: 2-1655                     [64]                      --
│    └─Empty: 2-1656                     [64]                      --
│    └─BatchNorm2d: 2-1657               [16, 64, 8, 8]            --
│    └─Scaler: 2-1658                    [16, 64, 8, 8]            --
│    └─ReLU: 2-1659                      [16, 64, 8, 8]            --
│    └─Empty: 2-1660                     [16, 64, 8, 8]            --
│    └─Clamp: 2-1661                     [16, 64, 8, 8]            --
├─FusedConv2dBNReLU: 1-126               [16, 64, 8, 8]            (recursive)
│    └─OutputShiftSqueeze: 2-1662        --                        --
│    └─One: 2-1663                       [1]                       --
│    └─OutputScale: 2-1664               --                        --
│    └─Empty: 2-1665                     [64, 64, 1, 1]            --
│    └─Empty: 2-1666                     [64, 64, 1, 1]            --
│    └─Empty: 2-1667                     [64]                      --
│    └─Empty: 2-1668                     [64]                      --
│    └─BatchNorm2d: 2-1669               [16, 64, 8, 8]            --
│    └─Scaler: 2-1670                    [16, 64, 8, 8]            --
│    └─ReLU: 2-1671                      [16, 64, 8, 8]            --
│    └─Empty: 2-1672                     [16, 64, 8, 8]            --
│    └─Clamp: 2-1673                     [16, 64, 8, 8]            --
├─FusedMaxPoolConv2dBNReLU: 1-127        [16, 64, 8, 8]            (recursive)
│    └─MaxPool2d: 2-1674                 [16, 64, 8, 8]            --
│    └─Empty: 2-1675                     [16, 64, 8, 8]            --
│    └─Empty: 2-1676                     [16, 64, 8, 8]            --
│    └─OutputShiftSqueeze: 2-1677        --                        --
│    └─One: 2-1678                       [1]                       --
│    └─OutputScale: 2-1679               --                        --
│    └─Empty: 2-1680                     [64, 64, 3, 3]            --
│    └─Empty: 2-1681                     [64, 64, 3, 3]            --
│    └─Empty: 2-1682                     [64]                      --
│    └─Empty: 2-1683                     [64]                      --
│    └─BatchNorm2d: 2-1684               [16, 64, 8, 8]            --
│    └─Scaler: 2-1685                    [16, 64, 8, 8]            --
│    └─ReLU: 2-1686                      [16, 64, 8, 8]            --
│    └─Empty: 2-1687                     [16, 64, 8, 8]            --
│    └─Clamp: 2-1688                     [16, 64, 8, 8]            --
├─FusedMaxPoolConv2dBNReLU: 1-128        [16, 64, 4, 4]            (recursive)
│    └─MaxPool2d: 2-1689                 [16, 64, 4, 4]            --
│    └─Empty: 2-1690                     [16, 64, 4, 4]            --
│    └─Empty: 2-1691                     [16, 64, 4, 4]            --
│    └─OutputShiftSqueeze: 2-1692        --                        --
│    └─One: 2-1693                       [1]                       --
│    └─OutputScale: 2-1694               --                        --
│    └─Empty: 2-1695                     [64, 64, 3, 3]            --
│    └─Empty: 2-1696                     [64, 64, 3, 3]            --
│    └─Empty: 2-1697                     [64]                      --
│    └─Empty: 2-1698                     [64]                      --
│    └─BatchNorm2d: 2-1699               [16, 64, 4, 4]            --
│    └─Scaler: 2-1700                    [16, 64, 4, 4]            --
│    └─ReLU: 2-1701                      [16, 64, 4, 4]            --
│    └─Empty: 2-1702                     [16, 64, 4, 4]            --
│    └─Clamp: 2-1703                     [16, 64, 4, 4]            --
├─FusedConv2dBNReLU: 1-129               [16, 64, 4, 4]            (recursive)
│    └─OutputShiftSqueeze: 2-1704        --                        --
│    └─One: 2-1705                       [1]                       --
│    └─OutputScale: 2-1706               --                        --
│    └─Empty: 2-1707                     [64, 64, 1, 1]            --
│    └─Empty: 2-1708                     [64, 64, 1, 1]            --
│    └─Empty: 2-1709                     [64]                      --
│    └─Empty: 2-1710                     [64]                      --
│    └─BatchNorm2d: 2-1711               [16, 64, 4, 4]            --
│    └─Scaler: 2-1712                    [16, 64, 4, 4]            --
│    └─ReLU: 2-1713                      [16, 64, 4, 4]            --
│    └─Empty: 2-1714                     [16, 64, 4, 4]            --
│    └─Clamp: 2-1715                     [16, 64, 4, 4]            --
├─FusedMaxPoolConv2dBNReLU: 1-130        [16, 64, 4, 4]            (recursive)
│    └─MaxPool2d: 2-1716                 [16, 64, 4, 4]            --
│    └─Empty: 2-1717                     [16, 64, 4, 4]            --
│    └─Empty: 2-1718                     [16, 64, 4, 4]            --
│    └─OutputShiftSqueeze: 2-1719        --                        --
│    └─One: 2-1720                       [1]                       --
│    └─OutputScale: 2-1721               --                        --
│    └─Empty: 2-1722                     [64, 64, 3, 3]            --
│    └─Empty: 2-1723                     [64, 64, 3, 3]            --
│    └─Empty: 2-1724                     [64]                      --
│    └─Empty: 2-1725                     [64]                      --
│    └─BatchNorm2d: 2-1726               [16, 64, 4, 4]            --
│    └─Scaler: 2-1727                    [16, 64, 4, 4]            --
│    └─ReLU: 2-1728                      [16, 64, 4, 4]            --
│    └─Empty: 2-1729                     [16, 64, 4, 4]            --
│    └─Clamp: 2-1730                     [16, 64, 4, 4]            --
├─FusedMaxPoolConv2dBNReLU: 1-131        [16, 64, 2, 2]            (recursive)
│    └─MaxPool2d: 2-1731                 [16, 64, 2, 2]            --
│    └─Empty: 2-1732                     [16, 64, 2, 2]            --
│    └─Empty: 2-1733                     [16, 64, 2, 2]            --
│    └─OutputShiftSqueeze: 2-1734        --                        --
│    └─One: 2-1735                       [1]                       --
│    └─OutputScale: 2-1736               --                        --
│    └─Empty: 2-1737                     [64, 64, 1, 1]            --
│    └─Empty: 2-1738                     [64, 64, 1, 1]            --
│    └─Empty: 2-1739                     [64]                      --
│    └─Empty: 2-1740                     [64]                      --
│    └─BatchNorm2d: 2-1741               [16, 64, 2, 2]            --
│    └─Scaler: 2-1742                    [16, 64, 2, 2]            --
│    └─ReLU: 2-1743                      [16, 64, 2, 2]            --
│    └─Empty: 2-1744                     [16, 64, 2, 2]            --
│    └─Clamp: 2-1745                     [16, 64, 2, 2]            --
├─FusedConv2dBNReLU: 1-132               [16, 64, 2, 2]            (recursive)
│    └─OutputShiftSqueeze: 2-1746        --                        --
│    └─One: 2-1747                       [1]                       --
│    └─OutputScale: 2-1748               --                        --
│    └─Empty: 2-1749                     [64, 64, 1, 1]            --
│    └─Empty: 2-1750                     [64, 64, 1, 1]            --
│    └─Empty: 2-1751                     [64]                      --
│    └─Empty: 2-1752                     [64]                      --
│    └─BatchNorm2d: 2-1753               [16, 64, 2, 2]            --
│    └─Scaler: 2-1754                    [16, 64, 2, 2]            --
│    └─ReLU: 2-1755                      [16, 64, 2, 2]            --
│    └─Empty: 2-1756                     [16, 64, 2, 2]            --
│    └─Clamp: 2-1757                     [16, 64, 2, 2]            --
├─FusedMaxPoolConv2dBNReLU: 1-133        [16, 64, 2, 2]            (recursive)
│    └─MaxPool2d: 2-1758                 [16, 64, 2, 2]            --
│    └─Empty: 2-1759                     [16, 64, 2, 2]            --
│    └─Empty: 2-1760                     [16, 64, 2, 2]            --
│    └─OutputShiftSqueeze: 2-1761        --                        --
│    └─One: 2-1762                       [1]                       --
│    └─OutputScale: 2-1763               --                        --
│    └─Empty: 2-1764                     [64, 64, 3, 3]            --
│    └─Empty: 2-1765                     [64, 64, 3, 3]            --
│    └─Empty: 2-1766                     [64]                      --
│    └─Empty: 2-1767                     [64]                      --
│    └─BatchNorm2d: 2-1768               [16, 64, 2, 2]            --
│    └─Scaler: 2-1769                    [16, 64, 2, 2]            --
│    └─ReLU: 2-1770                      [16, 64, 2, 2]            --
│    └─Empty: 2-1771                     [16, 64, 2, 2]            --
│    └─Clamp: 2-1772                     [16, 64, 2, 2]            --
├─FusedConv2dBNReLU: 1-134               [16, 64, 64, 64]          (recursive)
│    └─OutputShiftSqueeze: 2-1773        --                        --
│    └─One: 2-1774                       [1]                       --
│    └─OutputScale: 2-1775               --                        --
│    └─Empty: 2-1776                     [64, 48, 1, 1]            --
│    └─Empty: 2-1777                     [64, 48, 1, 1]            --
│    └─Empty: 2-1778                     [64]                      --
│    └─Empty: 2-1779                     [64]                      --
│    └─BatchNorm2d: 2-1780               [16, 64, 64, 64]          --
│    └─Scaler: 2-1781                    [16, 64, 64, 64]          --
│    └─ReLU: 2-1782                      [16, 64, 64, 64]          --
│    └─Empty: 2-1783                     [16, 64, 64, 64]          --
│    └─Clamp: 2-1784                     [16, 64, 64, 64]          --
├─FusedConv2dBNReLU: 1-135               [16, 64, 64, 64]          (recursive)
│    └─OutputShiftSqueeze: 2-1785        --                        --
│    └─One: 2-1786                       [1]                       --
│    └─OutputScale: 2-1787               --                        --
│    └─Empty: 2-1788                     [64, 64, 3, 3]            --
│    └─Empty: 2-1789                     [64, 64, 3, 3]            --
│    └─Empty: 2-1790                     [64]                      --
│    └─Empty: 2-1791                     [64]                      --
│    └─BatchNorm2d: 2-1792               [16, 64, 64, 64]          --
│    └─Scaler: 2-1793                    [16, 64, 64, 64]          --
│    └─ReLU: 2-1794                      [16, 64, 64, 64]          --
│    └─Empty: 2-1795                     [16, 64, 64, 64]          --
│    └─Clamp: 2-1796                     [16, 64, 64, 64]          --
├─FusedConv2dBNReLU: 1-136               [16, 64, 64, 64]          (recursive)
│    └─OutputShiftSqueeze: 2-1797        --                        --
│    └─One: 2-1798                       [1]                       --
│    └─OutputScale: 2-1799               --                        --
│    └─Empty: 2-1800                     [64, 64, 3, 3]            --
│    └─Empty: 2-1801                     [64, 64, 3, 3]            --
│    └─Empty: 2-1802                     [64]                      --
│    └─Empty: 2-1803                     [64]                      --
│    └─BatchNorm2d: 2-1804               [16, 64, 64, 64]          --
│    └─Scaler: 2-1805                    [16, 64, 64, 64]          --
│    └─ReLU: 2-1806                      [16, 64, 64, 64]          --
│    └─Empty: 2-1807                     [16, 64, 64, 64]          --
│    └─Clamp: 2-1808                     [16, 64, 64, 64]          --
├─FusedConv2dBNReLU: 1-137               [16, 64, 64, 64]          (recursive)
│    └─OutputShiftSqueeze: 2-1809        --                        --
│    └─One: 2-1810                       [1]                       --
│    └─OutputScale: 2-1811               --                        --
│    └─Empty: 2-1812                     [64, 64, 1, 1]            --
│    └─Empty: 2-1813                     [64, 64, 1, 1]            --
│    └─Empty: 2-1814                     [64]                      --
│    └─Empty: 2-1815                     [64]                      --
│    └─BatchNorm2d: 2-1816               [16, 64, 64, 64]          --
│    └─Scaler: 2-1817                    [16, 64, 64, 64]          --
│    └─ReLU: 2-1818                      [16, 64, 64, 64]          --
│    └─Empty: 2-1819                     [16, 64, 64, 64]          --
│    └─Clamp: 2-1820                     [16, 64, 64, 64]          --
├─FusedConv2dBNReLU: 1-138               [16, 64, 64, 64]          (recursive)
│    └─OutputShiftSqueeze: 2-1821        --                        --
│    └─One: 2-1822                       [1]                       --
│    └─OutputScale: 2-1823               --                        --
│    └─Empty: 2-1824                     [64, 64, 3, 3]            --
│    └─Empty: 2-1825                     [64, 64, 3, 3]            --
│    └─Empty: 2-1826                     [64]                      --
│    └─Empty: 2-1827                     [64]                      --
│    └─BatchNorm2d: 2-1828               [16, 64, 64, 64]          --
│    └─Scaler: 2-1829                    [16, 64, 64, 64]          --
│    └─ReLU: 2-1830                      [16, 64, 64, 64]          --
│    └─Empty: 2-1831                     [16, 64, 64, 64]          --
│    └─Clamp: 2-1832                     [16, 64, 64, 64]          --
├─FusedConv2dBNReLU: 1-139               [16, 64, 64, 64]          (recursive)
│    └─OutputShiftSqueeze: 2-1833        --                        --
│    └─One: 2-1834                       [1]                       --
│    └─OutputScale: 2-1835               --                        --
│    └─Empty: 2-1836                     [64, 64, 3, 3]            --
│    └─Empty: 2-1837                     [64, 64, 3, 3]            --
│    └─Empty: 2-1838                     [64]                      --
│    └─Empty: 2-1839                     [64]                      --
│    └─BatchNorm2d: 2-1840               [16, 64, 64, 64]          --
│    └─Scaler: 2-1841                    [16, 64, 64, 64]          --
│    └─ReLU: 2-1842                      [16, 64, 64, 64]          --
│    └─Empty: 2-1843                     [16, 64, 64, 64]          --
│    └─Clamp: 2-1844                     [16, 64, 64, 64]          --
├─FusedMaxPoolConv2dBNReLU: 1-140        [16, 64, 32, 32]          (recursive)
│    └─MaxPool2d: 2-1845                 [16, 64, 32, 32]          --
│    └─Empty: 2-1846                     [16, 64, 32, 32]          --
│    └─Empty: 2-1847                     [16, 64, 32, 32]          --
│    └─OutputShiftSqueeze: 2-1848        --                        --
│    └─One: 2-1849                       [1]                       --
│    └─OutputScale: 2-1850               --                        --
│    └─Empty: 2-1851                     [64, 64, 3, 3]            --
│    └─Empty: 2-1852                     [64, 64, 3, 3]            --
│    └─Empty: 2-1853                     [64]                      --
│    └─Empty: 2-1854                     [64]                      --
│    └─BatchNorm2d: 2-1855               [16, 64, 32, 32]          --
│    └─Scaler: 2-1856                    [16, 64, 32, 32]          --
│    └─ReLU: 2-1857                      [16, 64, 32, 32]          --
│    └─Empty: 2-1858                     [16, 64, 32, 32]          --
│    └─Clamp: 2-1859                     [16, 64, 32, 32]          --
├─FusedConv2dBNReLU: 1-141               [16, 64, 32, 32]          (recursive)
│    └─OutputShiftSqueeze: 2-1860        --                        --
│    └─One: 2-1861                       [1]                       --
│    └─OutputScale: 2-1862               --                        --
│    └─Empty: 2-1863                     [64, 64, 3, 3]            --
│    └─Empty: 2-1864                     [64, 64, 3, 3]            --
│    └─Empty: 2-1865                     [64]                      --
│    └─Empty: 2-1866                     [64]                      --
│    └─BatchNorm2d: 2-1867               [16, 64, 32, 32]          --
│    └─Scaler: 2-1868                    [16, 64, 32, 32]          --
│    └─ReLU: 2-1869                      [16, 64, 32, 32]          --
│    └─Empty: 2-1870                     [16, 64, 32, 32]          --
│    └─Clamp: 2-1871                     [16, 64, 32, 32]          --
├─FusedMaxPoolConv2dBNReLU: 1-142        [16, 64, 16, 16]          (recursive)
│    └─MaxPool2d: 2-1872                 [16, 64, 16, 16]          --
│    └─Empty: 2-1873                     [16, 64, 16, 16]          --
│    └─Empty: 2-1874                     [16, 64, 16, 16]          --
│    └─OutputShiftSqueeze: 2-1875        --                        --
│    └─One: 2-1876                       [1]                       --
│    └─OutputScale: 2-1877               --                        --
│    └─Empty: 2-1878                     [64, 64, 3, 3]            --
│    └─Empty: 2-1879                     [64, 64, 3, 3]            --
│    └─Empty: 2-1880                     [64]                      --
│    └─Empty: 2-1881                     [64]                      --
│    └─BatchNorm2d: 2-1882               [16, 64, 16, 16]          --
│    └─Scaler: 2-1883                    [16, 64, 16, 16]          --
│    └─ReLU: 2-1884                      [16, 64, 16, 16]          --
│    └─Empty: 2-1885                     [16, 64, 16, 16]          --
│    └─Clamp: 2-1886                     [16, 64, 16, 16]          --
├─FusedConv2dBNReLU: 1-143               [16, 64, 16, 16]          (recursive)
│    └─OutputShiftSqueeze: 2-1887        --                        --
│    └─One: 2-1888                       [1]                       --
│    └─OutputScale: 2-1889               --                        --
│    └─Empty: 2-1890                     [64, 64, 3, 3]            --
│    └─Empty: 2-1891                     [64, 64, 3, 3]            --
│    └─Empty: 2-1892                     [64]                      --
│    └─Empty: 2-1893                     [64]                      --
│    └─BatchNorm2d: 2-1894               [16, 64, 16, 16]          --
│    └─Scaler: 2-1895                    [16, 64, 16, 16]          --
│    └─ReLU: 2-1896                      [16, 64, 16, 16]          --
│    └─Empty: 2-1897                     [16, 64, 16, 16]          --
│    └─Clamp: 2-1898                     [16, 64, 16, 16]          --
├─FusedMaxPoolConv2dBNReLU: 1-144        [16, 64, 8, 8]            (recursive)
│    └─MaxPool2d: 2-1899                 [16, 64, 8, 8]            --
│    └─Empty: 2-1900                     [16, 64, 8, 8]            --
│    └─Empty: 2-1901                     [16, 64, 8, 8]            --
│    └─OutputShiftSqueeze: 2-1902        --                        --
│    └─One: 2-1903                       [1]                       --
│    └─OutputScale: 2-1904               --                        --
│    └─Empty: 2-1905                     [64, 64, 3, 3]            --
│    └─Empty: 2-1906                     [64, 64, 3, 3]            --
│    └─Empty: 2-1907                     [64]                      --
│    └─Empty: 2-1908                     [64]                      --
│    └─BatchNorm2d: 2-1909               [16, 64, 8, 8]            --
│    └─Scaler: 2-1910                    [16, 64, 8, 8]            --
│    └─ReLU: 2-1911                      [16, 64, 8, 8]            --
│    └─Empty: 2-1912                     [16, 64, 8, 8]            --
│    └─Clamp: 2-1913                     [16, 64, 8, 8]            --
├─FusedConv2dBNReLU: 1-145               [16, 64, 8, 8]            (recursive)
│    └─OutputShiftSqueeze: 2-1914        --                        --
│    └─One: 2-1915                       [1]                       --
│    └─OutputScale: 2-1916               --                        --
│    └─Empty: 2-1917                     [64, 64, 1, 1]            --
│    └─Empty: 2-1918                     [64, 64, 1, 1]            --
│    └─Empty: 2-1919                     [64]                      --
│    └─Empty: 2-1920                     [64]                      --
│    └─BatchNorm2d: 2-1921               [16, 64, 8, 8]            --
│    └─Scaler: 2-1922                    [16, 64, 8, 8]            --
│    └─ReLU: 2-1923                      [16, 64, 8, 8]            --
│    └─Empty: 2-1924                     [16, 64, 8, 8]            --
│    └─Clamp: 2-1925                     [16, 64, 8, 8]            --
├─FusedMaxPoolConv2dBNReLU: 1-146        [16, 64, 8, 8]            (recursive)
│    └─MaxPool2d: 2-1926                 [16, 64, 8, 8]            --
│    └─Empty: 2-1927                     [16, 64, 8, 8]            --
│    └─Empty: 2-1928                     [16, 64, 8, 8]            --
│    └─OutputShiftSqueeze: 2-1929        --                        --
│    └─One: 2-1930                       [1]                       --
│    └─OutputScale: 2-1931               --                        --
│    └─Empty: 2-1932                     [64, 64, 3, 3]            --
│    └─Empty: 2-1933                     [64, 64, 3, 3]            --
│    └─Empty: 2-1934                     [64]                      --
│    └─Empty: 2-1935                     [64]                      --
│    └─BatchNorm2d: 2-1936               [16, 64, 8, 8]            --
│    └─Scaler: 2-1937                    [16, 64, 8, 8]            --
│    └─ReLU: 2-1938                      [16, 64, 8, 8]            --
│    └─Empty: 2-1939                     [16, 64, 8, 8]            --
│    └─Clamp: 2-1940                     [16, 64, 8, 8]            --
├─FusedMaxPoolConv2dBNReLU: 1-147        [16, 64, 4, 4]            (recursive)
│    └─MaxPool2d: 2-1941                 [16, 64, 4, 4]            --
│    └─Empty: 2-1942                     [16, 64, 4, 4]            --
│    └─Empty: 2-1943                     [16, 64, 4, 4]            --
│    └─OutputShiftSqueeze: 2-1944        --                        --
│    └─One: 2-1945                       [1]                       --
│    └─OutputScale: 2-1946               --                        --
│    └─Empty: 2-1947                     [64, 64, 3, 3]            --
│    └─Empty: 2-1948                     [64, 64, 3, 3]            --
│    └─Empty: 2-1949                     [64]                      --
│    └─Empty: 2-1950                     [64]                      --
│    └─BatchNorm2d: 2-1951               [16, 64, 4, 4]            --
│    └─Scaler: 2-1952                    [16, 64, 4, 4]            --
…
│    └─BatchNorm2d: 2-3979               [16, 64, 4, 4]            --
│    └─Scaler: 2-3980                    [16, 64, 4, 4]            --
│    └─ReLU: 2-3981                      [16, 64, 4, 4]            --
│    └─Empty: 2-3982                     [16, 64, 4, 4]            --
│    └─Clamp: 2-3983                     [16, 64, 4, 4]            --
├─FusedMaxPoolConv2dBNReLU: 1-301        [16, 64, 4, 4]            (recursive)
│    └─MaxPool2d: 2-3984                 [16, 64, 4, 4]            --
│    └─Empty: 2-3985                     [16, 64, 4, 4]            --
│    └─Empty: 2-3986                     [16, 64, 4, 4]            --
│    └─OutputShiftSqueeze: 2-3987        --                        --
│    └─One: 2-3988                       [1]                       --
│    └─OutputScale: 2-3989               --                        --
│    └─Empty: 2-3990                     [64, 64, 3, 3]            --
│    └─Empty: 2-3991                     [64, 64, 3, 3]            --
│    └─Empty: 2-3992                     [64]                      --
│    └─Empty: 2-3993                     [64]                      --
│    └─BatchNorm2d: 2-3994               [16, 64, 4, 4]            --
│    └─Scaler: 2-3995                    [16, 64, 4, 4]            --
│    └─ReLU: 2-3996                      [16, 64, 4, 4]            --
│    └─Empty: 2-3997                     [16, 64, 4, 4]            --
│    └─Clamp: 2-3998                     [16, 64, 4, 4]            --
├─FusedMaxPoolConv2dBNReLU: 1-302        [16, 64, 2, 2]            (recursive)
│    └─MaxPool2d: 2-3999                 [16, 64, 2, 2]            --
│    └─Empty: 2-4000                     [16, 64, 2, 2]            --
│    └─Empty: 2-4001                     [16, 64, 2, 2]            --
│    └─OutputShiftSqueeze: 2-4002        --                        --
│    └─One: 2-4003                       [1]                       --
│    └─OutputScale: 2-4004               --                        --
│    └─Empty: 2-4005                     [64, 64, 1, 1]            --
│    └─Empty: 2-4006                     [64, 64, 1, 1]            --
│    └─Empty: 2-4007                     [64]                      --
│    └─Empty: 2-4008                     [64]                      --
│    └─BatchNorm2d: 2-4009               [16, 64, 2, 2]            --
│    └─Scaler: 2-4010                    [16, 64, 2, 2]            --
│    └─ReLU: 2-4011                      [16, 64, 2, 2]            --
│    └─Empty: 2-4012                     [16, 64, 2, 2]            --
│    └─Clamp: 2-4013                     [16, 64, 2, 2]            --
├─FusedConv2dBNReLU: 1-303               [16, 64, 2, 2]            (recursive)
│    └─OutputShiftSqueeze: 2-4014        --                        --
│    └─One: 2-4015                       [1]                       --
│    └─OutputScale: 2-4016               --                        --
│    └─Empty: 2-4017                     [64, 64, 1, 1]            --
│    └─Empty: 2-4018                     [64, 64, 1, 1]            --
│    └─Empty: 2-4019                     [64]                      --
│    └─Empty: 2-4020                     [64]                      --
│    └─BatchNorm2d: 2-4021               [16, 64, 2, 2]            --
│    └─Scaler: 2-4022                    [16, 64, 2, 2]            --
│    └─ReLU: 2-4023                      [16, 64, 2, 2]            --
│    └─Empty: 2-4024                     [16, 64, 2, 2]            --
│    └─Clamp: 2-4025                     [16, 64, 2, 2]            --
├─FusedMaxPoolConv2dBNReLU: 1-304        [16, 64, 2, 2]            (recursive)
│    └─MaxPool2d: 2-4026                 [16, 64, 2, 2]            --
│    └─Empty: 2-4027                     [16, 64, 2, 2]            --
│    └─Empty: 2-4028                     [16, 64, 2, 2]            --
│    └─OutputShiftSqueeze: 2-4029        --                        --
│    └─One: 2-4030                       [1]                       --
│    └─OutputScale: 2-4031               --                        --
│    └─Empty: 2-4032                     [64, 64, 3, 3]            --
│    └─Empty: 2-4033                     [64, 64, 3, 3]            --
│    └─Empty: 2-4034                     [64]                      --
│    └─Empty: 2-4035                     [64]                      --
│    └─BatchNorm2d: 2-4036               [16, 64, 2, 2]            --
│    └─Scaler: 2-4037                    [16, 64, 2, 2]            --
│    └─ReLU: 2-4038                      [16, 64, 2, 2]            --
│    └─Empty: 2-4039                     [16, 64, 2, 2]            --
│    └─Clamp: 2-4040                     [16, 64, 2, 2]            --
├─Conv1d: 1-305                          [16, 64, 16]              16,454
│    └─OutputShiftSqueeze: 2-4041        --                        --
│    └─One: 2-4042                       [1]                       --
│    └─OutputScale: 2-4043               --                        --
│    └─Empty: 2-4044                     [64, 256, 1]              --
│    └─Empty: 2-4045                     [64, 256, 1]              --
│    └─Empty: 2-4046                     [64]                      --
│    └─Empty: 2-4047                     [64]                      --
│    └─Scaler: 2-4048                    [16, 64, 16]              --
│    └─Empty: 2-4049                     [16, 64, 16]              --
│    └─Empty: 2-4050                     [16, 64, 16]              --
│    └─Clamp: 2-4051                     [16, 64, 16]              --
├─FusedConv1dBNReLU: 1-306               [16, 64, 16]              12,358
│    └─OutputShiftSqueeze: 2-4052        --                        --
│    └─One: 2-4053                       [1]                       --
│    └─OutputScale: 2-4054               --                        --
│    └─Empty: 2-4055                     [64, 64, 3]               --
│    └─Empty: 2-4056                     [64, 64, 3]               --
│    └─Empty: 2-4057                     [64]                      --
│    └─Empty: 2-4058                     [64]                      --
│    └─BatchNorm1d: 2-4059               [16, 64, 16]              --
│    └─Scaler: 2-4060                    [16, 64, 16]              --
│    └─ReLU: 2-4061                      [16, 64, 16]              --
│    └─Empty: 2-4062                     [16, 64, 16]              --
│    └─Clamp: 2-4063                     [16, 64, 16]              --
├─Conv1d: 1-307                          [16, 64, 16]              4,166
│    └─OutputShiftSqueeze: 2-4064        --                        --
│    └─One: 2-4065                       [1]                       --
│    └─OutputScale: 2-4066               --                        --
│    └─Empty: 2-4067                     [64, 64, 1]               --
│    └─Empty: 2-4068                     [64, 64, 1]               --
│    └─Empty: 2-4069                     [64]                      --
│    └─Empty: 2-4070                     [64]                      --
│    └─Scaler: 2-4071                    [16, 64, 16]              --
│    └─Empty: 2-4072                     [16, 64, 16]              --
│    └─Empty: 2-4073                     [16, 64, 16]              --
│    └─Clamp: 2-4074                     [16, 64, 16]              --
├─Dropout: 1-308                         [16, 64, 16]              --
├─FusedConv1dBNReLU: 1-309               [16, 64, 16]              12,358
│    └─OutputShiftSqueeze: 2-4075        --                        --
│    └─One: 2-4076                       [1]                       --
│    └─OutputScale: 2-4077               --                        --
│    └─Empty: 2-4078                     [64, 64, 3]               --
│    └─Empty: 2-4079                     [64, 64, 3]               --
│    └─Empty: 2-4080                     [64]                      --
│    └─Empty: 2-4081                     [64]                      --
│    └─BatchNorm1d: 2-4082               [16, 64, 16]              --
│    └─Scaler: 2-4083                    [16, 64, 16]              --
│    └─ReLU: 2-4084                      [16, 64, 16]              --
│    └─Empty: 2-4085                     [16, 64, 16]              --
│    └─Clamp: 2-4086                     [16, 64, 16]              --
├─Conv1d: 1-310                          [16, 64, 16]              4,166
│    └─OutputShiftSqueeze: 2-4087        --                        --
│    └─One: 2-4088                       [1]                       --
│    └─OutputScale: 2-4089               --                        --
│    └─Empty: 2-4090                     [64, 64, 1]               --
│    └─Empty: 2-4091                     [64, 64, 1]               --
│    └─Empty: 2-4092                     [64]                      --
│    └─Empty: 2-4093                     [64]                      --
│    └─Scaler: 2-4094                    [16, 64, 16]              --
│    └─Empty: 2-4095                     [16, 64, 16]              --
│    └─Empty: 2-4096                     [16, 64, 16]              --
│    └─Clamp: 2-4097                     [16, 64, 16]              --
├─Dropout: 1-311                         [16, 64, 16]              --
├─FusedConv1dBNReLU: 1-312               [16, 64, 16]              12,358
│    └─OutputShiftSqueeze: 2-4098        --                        --
│    └─One: 2-4099                       [1]                       --
│    └─OutputScale: 2-4100               --                        --
│    └─Empty: 2-4101                     [64, 64, 3]               --
│    └─Empty: 2-4102                     [64, 64, 3]               --
│    └─Empty: 2-4103                     [64]                      --
│    └─Empty: 2-4104                     [64]                      --
│    └─BatchNorm1d: 2-4105               [16, 64, 16]              --
│    └─Scaler: 2-4106                    [16, 64, 16]              --
│    └─ReLU: 2-4107                      [16, 64, 16]              --
│    └─Empty: 2-4108                     [16, 64, 16]              --
│    └─Clamp: 2-4109                     [16, 64, 16]              --
├─Conv1d: 1-313                          [16, 64, 16]              4,166
│    └─OutputShiftSqueeze: 2-4110        --                        --
│    └─One: 2-4111                       [1]                       --
│    └─OutputScale: 2-4112               --                        --
│    └─Empty: 2-4113                     [64, 64, 1]               --
│    └─Empty: 2-4114                     [64, 64, 1]               --
│    └─Empty: 2-4115                     [64]                      --
│    └─Empty: 2-4116                     [64]                      --
│    └─Scaler: 2-4117                    [16, 64, 16]              --
│    └─Empty: 2-4118                     [16, 64, 16]              --
│    └─Empty: 2-4119                     [16, 64, 16]              --
│    └─Clamp: 2-4120                     [16, 64, 16]              --
├─Dropout: 1-314                         [16, 64, 16]              --
├─FusedConv1dBNReLU: 1-315               [16, 64, 16]              12,358
│    └─OutputShiftSqueeze: 2-4121        --                        --
│    └─One: 2-4122                       [1]                       --
│    └─OutputScale: 2-4123               --                        --
│    └─Empty: 2-4124                     [64, 64, 3]               --
│    └─Empty: 2-4125                     [64, 64, 3]               --
│    └─Empty: 2-4126                     [64]                      --
│    └─Empty: 2-4127                     [64]                      --
│    └─BatchNorm1d: 2-4128               [16, 64, 16]              --
│    └─Scaler: 2-4129                    [16, 64, 16]              --
│    └─ReLU: 2-4130                      [16, 64, 16]              --
│    └─Empty: 2-4131                     [16, 64, 16]              --
│    └─Clamp: 2-4132                     [16, 64, 16]              --
├─Conv1d: 1-316                          [16, 64, 16]              4,166
│    └─OutputShiftSqueeze: 2-4133        --                        --
│    └─One: 2-4134                       [1]                       --
│    └─OutputScale: 2-4135               --                        --
│    └─Empty: 2-4136                     [64, 64, 1]               --
│    └─Empty: 2-4137                     [64, 64, 1]               --
│    └─Empty: 2-4138                     [64]                      --
│    └─Empty: 2-4139                     [64]                      --
│    └─Scaler: 2-4140                    [16, 64, 16]              --
│    └─Empty: 2-4141                     [16, 64, 16]              --
│    └─Empty: 2-4142                     [16, 64, 16]              --
│    └─Clamp: 2-4143                     [16, 64, 16]              --
├─Dropout: 1-317                         [16, 64, 16]              --
├─Conv1d: 1-318                          [16, 4, 16]               266
│    └─OutputShiftSqueeze: 2-4144        --                        --
│    └─One: 2-4145                       [1]                       --
│    └─OutputScale: 2-4146               --                        --
│    └─Empty: 2-4147                     [4, 64, 1]                --
│    └─Empty: 2-4148                     [4, 64, 1]                --
│    └─Empty: 2-4149                     [4]                       --
│    └─Empty: 2-4150                     [4]                       --
│    └─Scaler: 2-4151                    [16, 4, 16]               --
│    └─Empty: 2-4152                     [16, 4, 16]               --
│    └─Empty: 2-4153                     [16, 4, 16]               --
│    └─Clamp: 2-4154                     [16, 4, 16]               --
├─Conv1d: 1-319                          [16, 64, 16]              326
│    └─OutputShiftSqueeze: 2-4155        --                        --
│    └─One: 2-4156                       [1]                       --
│    └─OutputScale: 2-4157               --                        --
│    └─Empty: 2-4158                     [64, 4, 1]                --
│    └─Empty: 2-4159                     [64, 4, 1]                --
│    └─Empty: 2-4160                     [64]                      --
│    └─Empty: 2-4161                     [64]                      --
│    └─Scaler: 2-4162                    [16, 64, 16]              --
│    └─Empty: 2-4163                     [16, 64, 16]              --
│    └─Empty: 2-4164                     [16, 64, 16]              --
│    └─Clamp: 2-4165                     [16, 64, 16]              --
├─FusedConv1dBNReLU: 1-320               [16, 64, 16]              12,358
│    └─OutputShiftSqueeze: 2-4166        --                        --
│    └─One: 2-4167                       [1]                       --
│    └─OutputScale: 2-4168               --                        --
│    └─Empty: 2-4169                     [64, 64, 3]               --
│    └─Empty: 2-4170                     [64, 64, 3]               --
│    └─Empty: 2-4171                     [64]                      --
│    └─Empty: 2-4172                     [64]                      --
│    └─BatchNorm1d: 2-4173               [16, 64, 16]              --
│    └─Scaler: 2-4174                    [16, 64, 16]              --
│    └─ReLU: 2-4175                      [16, 64, 16]              --
│    └─Empty: 2-4176                     [16, 64, 16]              --
│    └─Clamp: 2-4177                     [16, 64, 16]              --
├─Conv1d: 1-321                          [16, 64, 16]              4,166
│    └─OutputShiftSqueeze: 2-4178        --                        --
│    └─One: 2-4179                       [1]                       --
│    └─OutputScale: 2-4180               --                        --
│    └─Empty: 2-4181                     [64, 64, 1]               --
│    └─Empty: 2-4182                     [64, 64, 1]               --
│    └─Empty: 2-4183                     [64]                      --
│    └─Empty: 2-4184                     [64]                      --
│    └─Scaler: 2-4185                    [16, 64, 16]              --
│    └─Empty: 2-4186                     [16, 64, 16]              --
│    └─Empty: 2-4187                     [16, 64, 16]              --
│    └─Clamp: 2-4188                     [16, 64, 16]              --
├─Dropout: 1-322                         [16, 64, 16]              --
├─FusedConv1dBNReLU: 1-323               [16, 64, 16]              12,358
│    └─OutputShiftSqueeze: 2-4189        --                        --
│    └─One: 2-4190                       [1]                       --
│    └─OutputScale: 2-4191               --                        --
│    └─Empty: 2-4192                     [64, 64, 3]               --
│    └─Empty: 2-4193                     [64, 64, 3]               --
│    └─Empty: 2-4194                     [64]                      --
│    └─Empty: 2-4195                     [64]                      --
│    └─BatchNorm1d: 2-4196               [16, 64, 16]              --
│    └─Scaler: 2-4197                    [16, 64, 16]              --
│    └─ReLU: 2-4198                      [16, 64, 16]              --
│    └─Empty: 2-4199                     [16, 64, 16]              --
│    └─Clamp: 2-4200                     [16, 64, 16]              --
├─Conv1d: 1-324                          [16, 64, 16]              4,166
│    └─OutputShiftSqueeze: 2-4201        --                        --
│    └─One: 2-4202                       [1]                       --
│    └─OutputScale: 2-4203               --                        --
│    └─Empty: 2-4204                     [64, 64, 1]               --
│    └─Empty: 2-4205                     [64, 64, 1]               --
│    └─Empty: 2-4206                     [64]                      --
│    └─Empty: 2-4207                     [64]                      --
│    └─Scaler: 2-4208                    [16, 64, 16]              --
│    └─Empty: 2-4209                     [16, 64, 16]              --
│    └─Empty: 2-4210                     [16, 64, 16]              --
│    └─Clamp: 2-4211                     [16, 64, 16]              --
├─Dropout: 1-325                         [16, 64, 16]              --
├─FusedConv1dBNReLU: 1-326               [16, 64, 16]              12,358
│    └─OutputShiftSqueeze: 2-4212        --                        --
│    └─One: 2-4213                       [1]                       --
│    └─OutputScale: 2-4214               --                        --
│    └─Empty: 2-4215                     [64, 64, 3]               --
│    └─Empty: 2-4216                     [64, 64, 3]               --
│    └─Empty: 2-4217                     [64]                      --
│    └─Empty: 2-4218                     [64]                      --
│    └─BatchNorm1d: 2-4219               [16, 64, 16]              --
│    └─Scaler: 2-4220                    [16, 64, 16]              --
│    └─ReLU: 2-4221                      [16, 64, 16]              --
│    └─Empty: 2-4222                     [16, 64, 16]              --
│    └─Clamp: 2-4223                     [16, 64, 16]              --
├─Conv1d: 1-327                          [16, 64, 16]              4,166
│    └─OutputShiftSqueeze: 2-4224        --                        --
│    └─One: 2-4225                       [1]                       --
│    └─OutputScale: 2-4226               --                        --
│    └─Empty: 2-4227                     [64, 64, 1]               --
│    └─Empty: 2-4228                     [64, 64, 1]               --
│    └─Empty: 2-4229                     [64]                      --
│    └─Empty: 2-4230                     [64]                      --
│    └─Scaler: 2-4231                    [16, 64, 16]              --
│    └─Empty: 2-4232                     [16, 64, 16]              --
│    └─Empty: 2-4233                     [16, 64, 16]              --
│    └─Clamp: 2-4234                     [16, 64, 16]              --
├─Dropout: 1-328                         [16, 64, 16]              --
├─FusedConv1dBNReLU: 1-329               [16, 64, 16]              12,358
│    └─OutputShiftSqueeze: 2-4235        --                        --
│    └─One: 2-4236                       [1]                       --
│    └─OutputScale: 2-4237               --                        --
│    └─Empty: 2-4238                     [64, 64, 3]               --
│    └─Empty: 2-4239                     [64, 64, 3]               --
│    └─Empty: 2-4240                     [64]                      --
│    └─Empty: 2-4241                     [64]                      --
│    └─BatchNorm1d: 2-4242               [16, 64, 16]              --
│    └─Scaler: 2-4243                    [16, 64, 16]              --
│    └─ReLU: 2-4244                      [16, 64, 16]              --
│    └─Empty: 2-4245                     [16, 64, 16]              --
│    └─Clamp: 2-4246                     [16, 64, 16]              --
├─Conv1d: 1-330                          [16, 64, 16]              4,166
│    └─OutputShiftSqueeze: 2-4247        --                        --
│    └─One: 2-4248                       [1]                       --
│    └─OutputScale: 2-4249               --                        --
│    └─Empty: 2-4250                     [64, 64, 1]               --
│    └─Empty: 2-4251                     [64, 64, 1]               --
│    └─Empty: 2-4252                     [64]                      --
│    └─Empty: 2-4253                     [64]                      --
│    └─Scaler: 2-4254                    [16, 64, 16]              --
│    └─Empty: 2-4255                     [16, 64, 16]              --
│    └─Empty: 2-4256                     [16, 64, 16]              --
│    └─Clamp: 2-4257                     [16, 64, 16]              --
├─Dropout: 1-331                         [16, 64, 16]              --
├─Conv1d: 1-332                          [16, 4, 16]               266
│    └─OutputShiftSqueeze: 2-4258        --                        --
│    └─One: 2-4259                       [1]                       --
│    └─OutputScale: 2-4260               --                        --
│    └─Empty: 2-4261                     [4, 64, 1]                --
│    └─Empty: 2-4262                     [4, 64, 1]                --
│    └─Empty: 2-4263                     [4]                       --
│    └─Empty: 2-4264                     [4]                       --
│    └─Scaler: 2-4265                    [16, 4, 16]               --
│    └─Empty: 2-4266                     [16, 4, 16]               --
│    └─Empty: 2-4267                     [16, 4, 16]               --
│    └─Clamp: 2-4268                     [16, 4, 16]               --
├─Conv1d: 1-333                          [16, 64, 16]              326
│    └─OutputShiftSqueeze: 2-4269        --                        --
│    └─One: 2-4270                       [1]                       --
│    └─OutputScale: 2-4271               --                        --
│    └─Empty: 2-4272                     [64, 4, 1]                --
│    └─Empty: 2-4273                     [64, 4, 1]                --
│    └─Empty: 2-4274                     [64]                      --
│    └─Empty: 2-4275                     [64]                      --
│    └─Scaler: 2-4276                    [16, 64, 16]              --
│    └─Empty: 2-4277                     [16, 64, 16]              --
│    └─Empty: 2-4278                     [16, 64, 16]              --
│    └─Clamp: 2-4279                     [16, 64, 16]              --
├─FusedConv1dBNReLU: 1-334               [16, 64, 16]              12,358
│    └─OutputShiftSqueeze: 2-4280        --                        --
│    └─One: 2-4281                       [1]                       --
│    └─OutputScale: 2-4282               --                        --
│    └─Empty: 2-4283                     [64, 64, 3]               --
│    └─Empty: 2-4284                     [64, 64, 3]               --
│    └─Empty: 2-4285                     [64]                      --
│    └─Empty: 2-4286                     [64]                      --
│    └─BatchNorm1d: 2-4287               [16, 64, 16]              --
│    └─Scaler: 2-4288                    [16, 64, 16]              --
│    └─ReLU: 2-4289                      [16, 64, 16]              --
│    └─Empty: 2-4290                     [16, 64, 16]              --
│    └─Clamp: 2-4291                     [16, 64, 16]              --
├─Conv1d: 1-335                          [16, 64, 16]              4,166
│    └─OutputShiftSqueeze: 2-4292        --                        --
│    └─One: 2-4293                       [1]                       --
│    └─OutputScale: 2-4294               --                        --
│    └─Empty: 2-4295                     [64, 64, 1]               --
│    └─Empty: 2-4296                     [64, 64, 1]               --
│    └─Empty: 2-4297                     [64]                      --
│    └─Empty: 2-4298                     [64]                      --
│    └─Scaler: 2-4299                    [16, 64, 16]              --
│    └─Empty: 2-4300                     [16, 64, 16]              --
│    └─Empty: 2-4301                     [16, 64, 16]              --
│    └─Clamp: 2-4302                     [16, 64, 16]              --
├─Dropout: 1-336                         [16, 64, 16]              --
├─FusedConv1dBNReLU: 1-337               [16, 64, 16]              12,358
│    └─OutputShiftSqueeze: 2-4303        --                        --
│    └─One: 2-4304                       [1]                       --
│    └─OutputScale: 2-4305               --                        --
│    └─Empty: 2-4306                     [64, 64, 3]               --
│    └─Empty: 2-4307                     [64, 64, 3]               --
│    └─Empty: 2-4308                     [64]                      --
│    └─Empty: 2-4309                     [64]                      --
│    └─BatchNorm1d: 2-4310               [16, 64, 16]              --
│    └─Scaler: 2-4311                    [16, 64, 16]              --
│    └─ReLU: 2-4312                      [16, 64, 16]              --
│    └─Empty: 2-4313                     [16, 64, 16]              --
│    └─Clamp: 2-4314                     [16, 64, 16]              --
├─Conv1d: 1-338                          [16, 64, 16]              4,166
│    └─OutputShiftSqueeze: 2-4315        --                        --
│    └─One: 2-4316                       [1]                       --
│    └─OutputScale: 2-4317               --                        --
│    └─Empty: 2-4318                     [64, 64, 1]               --
│    └─Empty: 2-4319                     [64, 64, 1]               --
│    └─Empty: 2-4320                     [64]                      --
│    └─Empty: 2-4321                     [64]                      --
│    └─Scaler: 2-4322                    [16, 64, 16]              --
│    └─Empty: 2-4323                     [16, 64, 16]              --
│    └─Empty: 2-4324                     [16, 64, 16]              --
│    └─Clamp: 2-4325                     [16, 64, 16]              --
├─Dropout: 1-339                         [16, 64, 16]              --
├─FusedConv1dBNReLU: 1-340               [16, 64, 16]              12,358
│    └─OutputShiftSqueeze: 2-4326        --                        --
│    └─One: 2-4327                       [1]                       --
│    └─OutputScale: 2-4328               --                        --
│    └─Empty: 2-4329                     [64, 64, 3]               --
│    └─Empty: 2-4330                     [64, 64, 3]               --
│    └─Empty: 2-4331                     [64]                      --
│    └─Empty: 2-4332                     [64]                      --
│    └─BatchNorm1d: 2-4333               [16, 64, 16]              --
│    └─Scaler: 2-4334                    [16, 64, 16]              --
│    └─ReLU: 2-4335                      [16, 64, 16]              --
│    └─Empty: 2-4336                     [16, 64, 16]              --
│    └─Clamp: 2-4337                     [16, 64, 16]              --
├─Conv1d: 1-341                          [16, 64, 16]              4,166
│    └─OutputShiftSqueeze: 2-4338        --                        --
│    └─One: 2-4339                       [1]                       --
│    └─OutputScale: 2-4340               --                        --
│    └─Empty: 2-4341                     [64, 64, 1]               --
│    └─Empty: 2-4342                     [64, 64, 1]               --
│    └─Empty: 2-4343                     [64]                      --
│    └─Empty: 2-4344                     [64]                      --
│    └─Scaler: 2-4345                    [16, 64, 16]              --
│    └─Empty: 2-4346                     [16, 64, 16]              --
│    └─Empty: 2-4347                     [16, 64, 16]              --
│    └─Clamp: 2-4348                     [16, 64, 16]              --
├─Dropout: 1-342                         [16, 64, 16]              --
├─FusedConv1dBNReLU: 1-343               [16, 64, 16]              12,358
│    └─OutputShiftSqueeze: 2-4349        --                        --
│    └─One: 2-4350                       [1]                       --
│    └─OutputScale: 2-4351               --                        --
│    └─Empty: 2-4352                     [64, 64, 3]               --
│    └─Empty: 2-4353                     [64, 64, 3]               --
│    └─Empty: 2-4354                     [64]                      --
│    └─Empty: 2-4355                     [64]                      --
│    └─BatchNorm1d: 2-4356               [16, 64, 16]              --
│    └─Scaler: 2-4357                    [16, 64, 16]              --
│    └─ReLU: 2-4358                      [16, 64, 16]              --
│    └─Empty: 2-4359                     [16, 64, 16]              --
│    └─Clamp: 2-4360                     [16, 64, 16]              --
├─Conv1d: 1-344                          [16, 64, 16]              4,166
│    └─OutputShiftSqueeze: 2-4361        --                        --
│    └─One: 2-4362                       [1]                       --
│    └─OutputScale: 2-4363               --                        --
│    └─Empty: 2-4364                     [64, 64, 1]               --
│    └─Empty: 2-4365                     [64, 64, 1]               --
│    └─Empty: 2-4366                     [64]                      --
│    └─Empty: 2-4367                     [64]                      --
│    └─Scaler: 2-4368                    [16, 64, 16]              --
│    └─Empty: 2-4369                     [16, 64, 16]              --
│    └─Empty: 2-4370                     [16, 64, 16]              --
│    └─Clamp: 2-4371                     [16, 64, 16]              --
├─Dropout: 1-345                         [16, 64, 16]              --
├─Conv1d: 1-346                          [16, 4, 16]               266
│    └─OutputShiftSqueeze: 2-4372        --                        --
│    └─One: 2-4373                       [1]                       --
│    └─OutputScale: 2-4374               --                        --
│    └─Empty: 2-4375                     [4, 64, 1]                --
│    └─Empty: 2-4376                     [4, 64, 1]                --
│    └─Empty: 2-4377                     [4]                       --
│    └─Empty: 2-4378                     [4]                       --
│    └─Scaler: 2-4379                    [16, 4, 16]               --
│    └─Empty: 2-4380                     [16, 4, 16]               --
│    └─Empty: 2-4381                     [16, 4, 16]               --
│    └─Clamp: 2-4382                     [16, 4, 16]               --
├─Conv1d: 1-347                          [16, 64, 16]              326
│    └─OutputShiftSqueeze: 2-4383        --                        --
│    └─One: 2-4384                       [1]                       --
│    └─OutputScale: 2-4385               --                        --
│    └─Empty: 2-4386                     [64, 4, 1]                --
│    └─Empty: 2-4387                     [64, 4, 1]                --
│    └─Empty: 2-4388                     [64]                      --
│    └─Empty: 2-4389                     [64]                      --
│    └─Scaler: 2-4390                    [16, 64, 16]              --
│    └─Empty: 2-4391                     [16, 64, 16]              --
│    └─Empty: 2-4392                     [16, 64, 16]              --
│    └─Clamp: 2-4393                     [16, 64, 16]              --
├─FusedConv1dBNReLU: 1-348               [16, 64, 16]              12,358
│    └─OutputShiftSqueeze: 2-4394        --                        --
│    └─One: 2-4395                       [1]                       --
│    └─OutputScale: 2-4396               --                        --
│    └─Empty: 2-4397                     [64, 64, 3]               --
│    └─Empty: 2-4398                     [64, 64, 3]               --
│    └─Empty: 2-4399                     [64]                      --
│    └─Empty: 2-4400                     [64]                      --
│    └─BatchNorm1d: 2-4401               [16, 64, 16]              --
│    └─Scaler: 2-4402                    [16, 64, 16]              --
│    └─ReLU: 2-4403                      [16, 64, 16]              --
│    └─Empty: 2-4404                     [16, 64, 16]              --
│    └─Clamp: 2-4405                     [16, 64, 16]              --
├─Conv1d: 1-349                          [16, 64, 16]              4,166
│    └─OutputShiftSqueeze: 2-4406        --                        --
│    └─One: 2-4407                       [1]                       --
│    └─OutputScale: 2-4408               --                        --
│    └─Empty: 2-4409                     [64, 64, 1]               --
│    └─Empty: 2-4410                     [64, 64, 1]               --
│    └─Empty: 2-4411                     [64]                      --
│    └─Empty: 2-4412                     [64]                      --
│    └─Scaler: 2-4413                    [16, 64, 16]              --
│    └─Empty: 2-4414                     [16, 64, 16]              --
│    └─Empty: 2-4415                     [16, 64, 16]              --
│    └─Clamp: 2-4416                     [16, 64, 16]              --
├─Dropout: 1-350                         [16, 64, 16]              --
├─FusedConv1dBNReLU: 1-351               [16, 64, 16]              12,358
│    └─OutputShiftSqueeze: 2-4417        --                        --
│    └─One: 2-4418                       [1]                       --
│    └─OutputScale: 2-4419               --                        --
│    └─Empty: 2-4420                     [64, 64, 3]               --
│    └─Empty: 2-4421                     [64, 64, 3]               --
│    └─Empty: 2-4422                     [64]                      --
│    └─Empty: 2-4423                     [64]                      --
│    └─BatchNorm1d: 2-4424               [16, 64, 16]              --
│    └─Scaler: 2-4425                    [16, 64, 16]              --
│    └─ReLU: 2-4426                      [16, 64, 16]              --
│    └─Empty: 2-4427                     [16, 64, 16]              --
│    └─Clamp: 2-4428                     [16, 64, 16]              --
├─Conv1d: 1-352                          [16, 64, 16]              4,166
│    └─OutputShiftSqueeze: 2-4429        --                        --
│    └─One: 2-4430                       [1]                       --
│    └─OutputScale: 2-4431               --                        --
│    └─Empty: 2-4432                     [64, 64, 1]               --
│    └─Empty: 2-4433                     [64, 64, 1]               --
│    └─Empty: 2-4434                     [64]                      --
│    └─Empty: 2-4435                     [64]                      --
│    └─Scaler: 2-4436                    [16, 64, 16]              --
│    └─Empty: 2-4437                     [16, 64, 16]              --
│    └─Empty: 2-4438                     [16, 64, 16]              --
│    └─Clamp: 2-4439                     [16, 64, 16]              --
├─Dropout: 1-353                         [16, 64, 16]              --
├─FusedConv1dBNReLU: 1-354               [16, 64, 16]              12,358
│    └─OutputShiftSqueeze: 2-4440        --                        --
│    └─One: 2-4441                       [1]                       --
│    └─OutputScale: 2-4442               --                        --
│    └─Empty: 2-4443                     [64, 64, 3]               --
│    └─Empty: 2-4444                     [64, 64, 3]               --
│    └─Empty: 2-4445                     [64]                      --
│    └─Empty: 2-4446                     [64]                      --
│    └─BatchNorm1d: 2-4447               [16, 64, 16]              --
│    └─Scaler: 2-4448                    [16, 64, 16]              --
│    └─ReLU: 2-4449                      [16, 64, 16]              --
│    └─Empty: 2-4450                     [16, 64, 16]              --
│    └─Clamp: 2-4451                     [16, 64, 16]              --
├─Conv1d: 1-355                          [16, 64, 16]              4,166
│    └─OutputShiftSqueeze: 2-4452        --                        --
│    └─One: 2-4453                       [1]                       --
│    └─OutputScale: 2-4454               --                        --
│    └─Empty: 2-4455                     [64, 64, 1]               --
│    └─Empty: 2-4456                     [64, 64, 1]               --
│    └─Empty: 2-4457                     [64]                      --
│    └─Empty: 2-4458                     [64]                      --
│    └─Scaler: 2-4459                    [16, 64, 16]              --
│    └─Empty: 2-4460                     [16, 64, 16]              --
│    └─Empty: 2-4461                     [16, 64, 16]              --
│    └─Clamp: 2-4462                     [16, 64, 16]              --
├─Dropout: 1-356                         [16, 64, 16]              --
├─FusedConv1dBNReLU: 1-357               [16, 64, 16]              12,358
│    └─OutputShiftSqueeze: 2-4463        --                        --
│    └─One: 2-4464                       [1]                       --
│    └─OutputScale: 2-4465               --                        --
│    └─Empty: 2-4466                     [64, 64, 3]               --
│    └─Empty: 2-4467                     [64, 64, 3]               --
│    └─Empty: 2-4468                     [64]                      --
│    └─Empty: 2-4469                     [64]                      --
│    └─BatchNorm1d: 2-4470               [16, 64, 16]              --
│    └─Scaler: 2-4471                    [16, 64, 16]              --
│    └─ReLU: 2-4472                      [16, 64, 16]              --
│    └─Empty: 2-4473                     [16, 64, 16]              --
│    └─Clamp: 2-4474                     [16, 64, 16]              --
├─Conv1d: 1-358                          [16, 64, 16]              4,166
│    └─OutputShiftSqueeze: 2-4475        --                        --
│    └─One: 2-4476                       [1]                       --
│    └─OutputScale: 2-4477               --                        --
│    └─Empty: 2-4478                     [64, 64, 1]               --
│    └─Empty: 2-4479                     [64, 64, 1]               --
│    └─Empty: 2-4480                     [64]                      --
│    └─Empty: 2-4481                     [64]                      --
│    └─Scaler: 2-4482                    [16, 64, 16]              --
│    └─Empty: 2-4483                     [16, 64, 16]              --
│    └─Empty: 2-4484                     [16, 64, 16]              --
│    └─Clamp: 2-4485                     [16, 64, 16]              --
├─Dropout: 1-359                         [16, 64, 16]              --
├─Conv1d: 1-360                          [16, 4, 16]               266
│    └─OutputShiftSqueeze: 2-4486        --                        --
│    └─One: 2-4487                       [1]                       --
│    └─OutputScale: 2-4488               --                        --
│    └─Empty: 2-4489                     [4, 64, 1]                --
│    └─Empty: 2-4490                     [4, 64, 1]                --
│    └─Empty: 2-4491                     [4]                       --
│    └─Empty: 2-4492                     [4]                       --
│    └─Scaler: 2-4493                    [16, 4, 16]               --
│    └─Empty: 2-4494                     [16, 4, 16]               --
│    └─Empty: 2-4495                     [16, 4, 16]               --
│    └─Clamp: 2-4496                     [16, 4, 16]               --
├─Conv1d: 1-361                          [16, 64, 16]              326
│    └─OutputShiftSqueeze: 2-4497        --                        --
│    └─One: 2-4498                       [1]                       --
│    └─OutputScale: 2-4499               --                        --
│    └─Empty: 2-4500                     [64, 4, 1]                --
│    └─Empty: 2-4501                     [64, 4, 1]                --
│    └─Empty: 2-4502                     [64]                      --
│    └─Empty: 2-4503                     [64]                      --
│    └─Scaler: 2-4504                    [16, 64, 16]              --
│    └─Empty: 2-4505                     [16, 64, 16]              --
│    └─Empty: 2-4506                     [16, 64, 16]              --
│    └─Clamp: 2-4507                     [16, 64, 16]              --
├─FusedConv1dBNReLU: 1-362               [16, 64, 16]              12,358
│    └─OutputShiftSqueeze: 2-4508        --                        --
│    └─One: 2-4509                       [1]                       --
│    └─OutputScale: 2-4510               --                        --
│    └─Empty: 2-4511                     [64, 64, 3]               --
│    └─Empty: 2-4512                     [64, 64, 3]               --
│    └─Empty: 2-4513                     [64]                      --
│    └─Empty: 2-4514                     [64]                      --
│    └─BatchNorm1d: 2-4515               [16, 64, 16]              --
│    └─Scaler: 2-4516                    [16, 64, 16]              --
│    └─ReLU: 2-4517                      [16, 64, 16]              --
│    └─Empty: 2-4518                     [16, 64, 16]              --
│    └─Clamp: 2-4519                     [16, 64, 16]              --
├─Conv1d: 1-363                          [16, 64, 16]              4,166
│    └─OutputShiftSqueeze: 2-4520        --                        --
│    └─One: 2-4521                       [1]                       --
│    └─OutputScale: 2-4522               --                        --
│    └─Empty: 2-4523                     [64, 64, 1]               --
│    └─Empty: 2-4524                     [64, 64, 1]               --
│    └─Empty: 2-4525                     [64]                      --
│    └─Empty: 2-4526                     [64]                      --
│    └─Scaler: 2-4527                    [16, 64, 16]              --
│    └─Empty: 2-4528                     [16, 64, 16]              --
│    └─Empty: 2-4529                     [16, 64, 16]              --
│    └─Clamp: 2-4530                     [16, 64, 16]              --
├─Dropout: 1-364                         [16, 64, 16]              --
├─FusedConv1dBNReLU: 1-365               [16, 64, 16]              12,358
│    └─OutputShiftSqueeze: 2-4531        --                        --
│    └─One: 2-4532                       [1]                       --
│    └─OutputScale: 2-4533               --                        --
│    └─Empty: 2-4534                     [64, 64, 3]               --
│    └─Empty: 2-4535                     [64, 64, 3]               --
│    └─Empty: 2-4536                     [64]                      --
│    └─Empty: 2-4537                     [64]                      --
│    └─BatchNorm1d: 2-4538               [16, 64, 16]              --
│    └─Scaler: 2-4539                    [16, 64, 16]              --
│    └─ReLU: 2-4540                      [16, 64, 16]              --
│    └─Empty: 2-4541                     [16, 64, 16]              --
│    └─Clamp: 2-4542                     [16, 64, 16]              --
├─Conv1d: 1-366                          [16, 64, 16]              4,166
│    └─OutputShiftSqueeze: 2-4543        --                        --
│    └─One: 2-4544                       [1]                       --
│    └─OutputScale: 2-4545               --                        --
│    └─Empty: 2-4546                     [64, 64, 1]               --
│    └─Empty: 2-4547                     [64, 64, 1]               --
│    └─Empty: 2-4548                     [64]                      --
│    └─Empty: 2-4549                     [64]                      --
│    └─Scaler: 2-4550                    [16, 64, 16]              --
│    └─Empty: 2-4551                     [16, 64, 16]              --
│    └─Empty: 2-4552                     [16, 64, 16]              --
│    └─Clamp: 2-4553                     [16, 64, 16]              --
├─Dropout: 1-367                         [16, 64, 16]              --
├─FusedConv1dBNReLU: 1-368               [16, 64, 16]              12,358
│    └─OutputShiftSqueeze: 2-4554        --                        --
│    └─One: 2-4555                       [1]                       --
│    └─OutputScale: 2-4556               --                        --
│    └─Empty: 2-4557                     [64, 64, 3]               --
│    └─Empty: 2-4558                     [64, 64, 3]               --
│    └─Empty: 2-4559                     [64]                      --
│    └─Empty: 2-4560                     [64]                      --
│    └─BatchNorm1d: 2-4561               [16, 64, 16]              --
│    └─Scaler: 2-4562                    [16, 64, 16]              --
│    └─ReLU: 2-4563                      [16, 64, 16]              --
│    └─Empty: 2-4564                     [16, 64, 16]              --
│    └─Clamp: 2-4565                     [16, 64, 16]              --
├─Conv1d: 1-369                          [16, 64, 16]              4,166
│    └─OutputShiftSqueeze: 2-4566        --                        --
│    └─One: 2-4567                       [1]                       --
│    └─OutputScale: 2-4568               --                        --
│    └─Empty: 2-4569                     [64, 64, 1]               --
│    └─Empty: 2-4570                     [64, 64, 1]               --
│    └─Empty: 2-4571                     [64]                      --
│    └─Empty: 2-4572                     [64]                      --
│    └─Scaler: 2-4573                    [16, 64, 16]              --
│    └─Empty: 2-4574                     [16, 64, 16]              --
│    └─Empty: 2-4575                     [16, 64, 16]              --
│    └─Clamp: 2-4576                     [16, 64, 16]              --
├─Dropout: 1-370                         [16, 64, 16]              --
├─FusedConv1dBNReLU: 1-371               [16, 64, 16]              12,358
│    └─OutputShiftSqueeze: 2-4577        --                        --
│    └─One: 2-4578                       [1]                       --
│    └─OutputScale: 2-4579               --                        --
│    └─Empty: 2-4580                     [64, 64, 3]               --
│    └─Empty: 2-4581                     [64, 64, 3]               --
│    └─Empty: 2-4582                     [64]                      --
│    └─Empty: 2-4583                     [64]                      --
│    └─BatchNorm1d: 2-4584               [16, 64, 16]              --
│    └─Scaler: 2-4585                    [16, 64, 16]              --
│    └─ReLU: 2-4586                      [16, 64, 16]              --
│    └─Empty: 2-4587                     [16, 64, 16]              --
│    └─Clamp: 2-4588                     [16, 64, 16]              --
├─Conv1d: 1-372                          [16, 64, 16]              4,166
│    └─OutputShiftSqueeze: 2-4589        --                        --
│    └─One: 2-4590                       [1]                       --
│    └─OutputScale: 2-4591               --                        --
│    └─Empty: 2-4592                     [64, 64, 1]               --
│    └─Empty: 2-4593                     [64, 64, 1]               --
│    └─Empty: 2-4594                     [64]                      --
│    └─Empty: 2-4595                     [64]                      --
│    └─Scaler: 2-4596                    [16, 64, 16]              --
│    └─Empty: 2-4597                     [16, 64, 16]              --
│    └─Empty: 2-4598                     [16, 64, 16]              --
│    └─Clamp: 2-4599                     [16, 64, 16]              --
├─Dropout: 1-373                         [16, 64, 16]              --
├─Conv1d: 1-374                          [16, 4, 16]               266
│    └─OutputShiftSqueeze: 2-4600        --                        --
│    └─One: 2-4601                       [1]                       --
│    └─OutputScale: 2-4602               --                        --
│    └─Empty: 2-4603                     [4, 64, 1]                --
│    └─Empty: 2-4604                     [4, 64, 1]                --
│    └─Empty: 2-4605                     [4]                       --
│    └─Empty: 2-4606                     [4]                       --
│    └─Scaler: 2-4607                    [16, 4, 16]               --
│    └─Empty: 2-4608                     [16, 4, 16]               --
│    └─Empty: 2-4609                     [16, 4, 16]               --
│    └─Clamp: 2-4610                     [16, 4, 16]               --
==========================================================================================
Total params: 853,682
Trainable params: 853,268
Non-trainable params: 414
Total mult-adds (M): 0.00
==========================================================================================
Input size (MB): 201.33
Forward/backward pass size (MB): 0.00
Params size (MB): 0.00
Estimated Total Size (MB): 201.33
…
