…
n1.op.bias']
I - Warm Start: Unexpected Keys ['fc.output_shift', 'fc.weight_bits', 'fc.bias_bits', 'fc.quantize_activation', 'fc.adjust_output_shift', 'fc.shift_quantile', 'fc.op.weight']
I - Freezing common parameters of models 19 and 17
I - Model output shape:  torch.Size([16, 5])
I - Model summary
==========================================================================================
Layer (type:depth-idx)                   Output Shape              Param #
==========================================================================================
TCNv19                                   [16, 5]                   --
├─FusedConv2dBNReLU: 1-1                 [16, 128, 64, 64]         6
│    └─ReLU: 2-1722                      [16, 128, 64, 64]         --
│    └─Conv2d: 2-2                       --                        (6,272)
│    └─BatchNorm2d: 2-1720               [16, 128, 64, 64]         --
│    └─OutputShiftSqueeze: 2-4           --                        --
│    └─One: 2-5                          [1]                       --
│    └─Scaler: 2-1721                    [16, 128, 64, 64]         --
│    └─OutputScale: 2-7                  --                        --
│    └─Empty: 2-8                        [128, 48, 1, 1]           --
│    └─Empty: 2-9                        [128, 48, 1, 1]           --
│    └─Empty: 2-10                       [128]                     --
│    └─Empty: 2-11                       [128]                     --
│    └─BatchNorm2d: 2-12                 [16, 128, 64, 64]         --
│    └─Scaler: 2-13                      [16, 128, 64, 64]         --
│    └─ReLU: 2-14                        [16, 128, 64, 64]         --
│    └─Empty: 2-15                       [16, 128, 64, 64]         --
├─FusedMaxPoolConv2dBNReLU: 1-173        [16, 128, 32, 32]         (recursive)
│    └─ReLU: 2-1737                      [16, 128, 32, 32]         --
│    └─MaxPool2d: 2-1725                 [16, 128, 32, 32]         --
│    └─Conv2d: 2-18                      --                        (147,584)
│    └─BatchNorm2d: 2-1735               [16, 128, 32, 32]         --
├─FusedConv2dBNReLU: 1                   --                        --
│    └─Clamp: 2-20                       [16, 128, 64, 64]         --
├─FusedMaxPoolConv2dBNReLU: 1-3          [16, 128, 32, 32]         147,590
│    └─Scaler: 2-1736                    [16, 128, 32, 32]         --
│    └─MaxPool2d: 2-22                   [16, 128, 32, 32]         --
│    └─Empty: 2-23                       [16, 128, 32, 32]         --
│    └─Empty: 2-24                       [16, 128, 32, 32]         --
│    └─OutputShiftSqueeze: 2-25          --                        --
│    └─One: 2-26                         [1]                       --
│    └─OutputScale: 2-27                 --                        --
│    └─Empty: 2-28                       [128, 128, 3, 3]          --
│    └─Empty: 2-29                       [128, 128, 3, 3]          --
│    └─Empty: 2-30                       [128]                     --
├─FusedMaxPoolConv2dBNReLU: 1-175        [16, 128, 16, 16]         (recursive)
│    └─ReLU: 2-1752                      [16, 128, 16, 16]         --
│    └─MaxPool2d: 2-1740                 [16, 128, 16, 16]         --
│    └─Conv2d: 2-33                      --                        (147,584)
│    └─BatchNorm2d: 2-1750               [16, 128, 16, 16]         --
├─FusedMaxPoolConv2dBNReLU: 1            --                        --
│    └─Empty: 2-35                       [128]                     --
│    └─BatchNorm2d: 2-36                 [16, 128, 32, 32]         --
├─FusedMaxPoolConv2dBNReLU: 1            --                        --
│    └─Scaler: 2-1751                    [16, 128, 16, 16]         --
├─FusedMaxPoolConv2dBNReLU: 1            --                        --
│    └─Scaler: 2-38                      [16, 128, 32, 32]         --
│    └─ReLU: 2-39                        [16, 128, 32, 32]         --
│    └─Empty: 2-40                       [16, 128, 32, 32]         --
│    └─Clamp: 2-41                       [16, 128, 32, 32]         --
├─Dropout2d: 1-5                         [16, 128, 32, 32]         --
├─FusedMaxPoolConv2dBNReLU: 1-6          [16, 128, 16, 16]         131,078
│    └─MaxPool2d: 2-42                   [16, 128, 16, 16]         --
│    └─Empty: 2-1741                     [16, 128, 16, 16]         --
│    └─Empty: 2-1742                     [16, 128, 16, 16]         --
│    └─Empty: 2-45                       [16, 128, 16, 16]         --
├─FusedConv2dBNReLU: 1                   --                        --
│    └─ReLU: 2-1764                      [16, 128, 16, 16]         --
│    └─Conv2d: 2-47                      --                        (16,512)
│    └─BatchNorm2d: 2-1762               [16, 128, 16, 16]         --
├─FusedMaxPoolConv2dBNReLU: 1            --                        --
│    └─Empty: 2-49                       [16, 128, 16, 16]         --
│    └─OutputShiftSqueeze: 2-50          --                        --
├─FusedConv2dBNReLU: 1                   --                        --
│    └─Scaler: 2-1763                    [16, 128, 16, 16]         --
├─FusedMaxPoolConv2dBNReLU: 1            --                        --
│    └─One: 2-52                         [1]                       --
│    └─OutputScale: 2-53                 --                        --
│    └─Empty: 2-54                       [128, 128, 3, 3]          --
│    └─Empty: 2-55                       [128, 128, 3, 3]          --
│    └─Empty: 2-56                       [128]                     --
│    └─Empty: 2-57                       [128]                     --
│    └─BatchNorm2d: 2-58                 [16, 128, 16, 16]         --
│    └─Scaler: 2-59                      [16, 128, 16, 16]         --
│    └─ReLU: 2-60                        [16, 128, 16, 16]         --
├─FusedMaxPoolConv2dBNReLU: 1-177        [16, 128, 16, 16]         (recursive)
│    └─ReLU: 2-1779                      [16, 128, 16, 16]         --
│    └─MaxPool2d: 2-1767                 [16, 128, 16, 16]         --
│    └─Conv2d: 2-63                      --                        (147,584)
│    └─BatchNorm2d: 2-1777               [16, 128, 16, 16]         --
├─FusedMaxPoolConv2dBNReLU: 1            --                        --
│    └─Empty: 2-65                       [16, 128, 16, 16]         --
│    └─Clamp: 2-66                       [16, 128, 16, 16]         --
├─FusedMaxPoolConv2dBNReLU: 1            --                        --
│    └─Scaler: 2-1778                    [16, 128, 16, 16]         --
├─FusedConv2dBNReLU: 1-8                 [16, 128, 16, 16]         16,518
│    └─OutputShiftSqueeze: 2-68          --                        --
│    └─One: 2-69                         [1]                       --
│    └─OutputScale: 2-70                 --                        --
│    └─Empty: 2-71                       [128, 128, 1, 1]          --
│    └─Empty: 2-72                       [128, 128, 1, 1]          --
│    └─Empty: 2-73                       [128]                     --
│    └─Empty: 2-74                       [128]                     --
│    └─BatchNorm2d: 2-75                 [16, 128, 16, 16]         --
├─FusedMaxPoolConv2dBNReLU: 1-179        [16, 128, 8, 8]           (recursive)
│    └─ReLU: 2-1794                      [16, 128, 8, 8]           --
│    └─MaxPool2d: 2-1782                 [16, 128, 8, 8]           --
│    └─Conv2d: 2-78                      --                        (147,584)
│    └─BatchNorm2d: 2-1792               [16, 128, 8, 8]           --
├─FusedConv2dBNReLU: 1                   --                        --
│    └─Scaler: 2-80                      [16, 128, 16, 16]         --
│    └─ReLU: 2-81                        [16, 128, 16, 16]         --
├─FusedMaxPoolConv2dBNReLU: 1            --                        --
│    └─Scaler: 2-1793                    [16, 128, 8, 8]           --
├─FusedConv2dBNReLU: 1                   --                        --
│    └─Empty: 2-83                       [16, 128, 16, 16]         --
│    └─Clamp: 2-84                       [16, 128, 16, 16]         --
├─FusedMaxPoolConv2dBNReLU: 1-10         [16, 128, 16, 16]         145,526
│    └─MaxPool2d: 2-85                   [16, 128, 16, 16]         --
│    └─Empty: 2-86                       [16, 128, 16, 16]         --
│    └─Empty: 2-87                       [16, 128, 16, 16]         --
│    └─OutputShiftSqueeze: 2-88          --                        --
├─FusedMaxPoolConv2dBNReLU: 1            --                        --
│    └─Empty: 2-1783                     [16, 128, 8, 8]           --
│    └─Empty: 2-1784                     [16, 128, 8, 8]           --
├─FusedMaxPoolConv2dBNReLU: 1            --                        --
│    └─One: 2-91                         [1]                       --
├─FusedConv2dBNReLU: 1                   --                        --
│    └─ReLU: 2-1806                      [16, 16, 8, 8]            --
│    └─Conv2d: 2-93                      --                        (2,064)
│    └─BatchNorm2d: 2-1804               [16, 16, 8, 8]            --
├─FusedMaxPoolConv2dBNReLU: 1            --                        --
│    └─OutputScale: 2-95                 --                        --
│    └─Empty: 2-96                       [128, 128, 3, 3]          --
├─FusedConv2dBNReLU: 1                   --                        --
│    └─Scaler: 2-1805                    [16, 16, 8, 8]            --
├─FusedMaxPoolConv2dBNReLU: 1            --                        --
│    └─Empty: 2-98                       [128, 128, 3, 3]          --
│    └─Empty: 2-99                       [128]                     --
│    └─Empty: 2-100                      [128]                     --
│    └─BatchNorm2d: 2-101                [16, 128, 16, 16]         --
│    └─Scaler: 2-102                     [16, 128, 16, 16]         --
│    └─ReLU: 2-103                       [16, 128, 16, 16]         --
│    └─Empty: 2-104                      [16, 128, 16, 16]         --
│    └─Clamp: 2-105                      [16, 128, 16, 16]         --
├─Dropout2d: 1-11                        [16, 128, 16, 16]         --
├─FusedMaxPoolConv2dBNReLU: 1-181        [16, 16, 8, 8]            (recursive)
│    └─ReLU: 2-1821                      [16, 16, 8, 8]            --
│    └─MaxPool2d: 2-1809                 [16, 128, 8, 8]           --
│    └─Conv2d: 2-108                     --                        (18,448)
│    └─BatchNorm2d: 2-1819               [16, 16, 8, 8]            --
├─FusedMaxPoolConv2dBNReLU: 1-13         [16, 128, 8, 8]           147,590
│    └─MaxPool2d: 2-110                  [16, 128, 8, 8]           --
├─FusedMaxPoolConv2dBNReLU: 1            --                        --
│    └─Scaler: 2-1820                    [16, 16, 8, 8]            --
├─FusedMaxPoolConv2dBNReLU: 1            --                        --
│    └─Empty: 2-112                      [16, 128, 8, 8]           --
│    └─Empty: 2-113                      [16, 128, 8, 8]           --
│    └─OutputShiftSqueeze: 2-114         --                        --
│    └─One: 2-115                        [1]                       --
│    └─OutputScale: 2-116                --                        --
│    └─Empty: 2-117                      [128, 128, 3, 3]          --
│    └─Empty: 2-118                      [128, 128, 3, 3]          --
├─FusedMaxPoolConv2dBNReLU: 1            --                        --
│    └─Empty: 2-1810                     [16, 128, 8, 8]           --
│    └─Empty: 2-1811                     [16, 128, 8, 8]           --
├─FusedMaxPoolConv2dBNReLU: 1            --                        --
│    └─Empty: 2-121                      [128]                     --
│    └─Empty: 2-122                      [128]                     --
│    └─BatchNorm2d: 2-123                [16, 128, 8, 8]           --
│    └─Scaler: 2-124                     [16, 128, 8, 8]           --
│    └─ReLU: 2-125                       [16, 128, 8, 8]           --
│    └─Empty: 2-126                      [16, 128, 8, 8]           --
│    └─Clamp: 2-127                      [16, 128, 8, 8]           --
├─FusedConv2dBNReLU: 1-14                [16, 16, 8, 8]            2,070
├─Conv1d: 1                              --                        --
│    └─Scaler: 2-1831                    [16, 128, 12]             --
├─FusedConv2dBNReLU: 1                   --                        --
│    └─OutputShiftSqueeze: 2-129         --                        --
│    └─One: 2-130                        [1]                       --
│    └─OutputScale: 2-131                --                        --
│    └─Empty: 2-132                      [16, 128, 1, 1]           --
│    └─Empty: 2-133                      [16, 128, 1, 1]           --
│    └─Empty: 2-134                      [16]                      --
│    └─Empty: 2-135                      [16]                      --
│    └─BatchNorm2d: 2-136                [16, 16, 8, 8]            --
│    └─Scaler: 2-137                     [16, 16, 8, 8]            --
├─Conv1d: 1-184                          [16, 5, 8]                (recursive)
│    └─Empty: 2-1843                     [16, 5, 8]                --
│    └─Conv1d: 2-139                     --                        3,205
├─FusedConv2dBNReLU: 1                   --                        --
│    └─ReLU: 2-140                       [16, 16, 8, 8]            --
│    └─Empty: 2-141                      [16, 16, 8, 8]            --
├─Conv1d: 1                              --                        --
│    └─Scaler: 2-1842                    [16, 5, 8]                --
├─FusedConv2dBNReLU: 1                   --                        --
│    └─Clamp: 2-143                      [16, 16, 8, 8]            --
├─FusedMaxPoolConv2dBNReLU: 1-16         [16, 16, 8, 8]            18,454
│    └─MaxPool2d: 2-144                  [16, 128, 8, 8]           --
│    └─Empty: 2-145                      [16, 128, 8, 8]           --
│    └─Empty: 2-146                      [16, 128, 8, 8]           --
│    └─OutputShiftSqueeze: 2-147         --                        --
│    └─One: 2-148                        [1]                       --
│    └─OutputScale: 2-149                --                        --
│    └─Empty: 2-150                      [16, 128, 3, 3]           --
│    └─Empty: 2-151                      [16, 128, 3, 3]           --
│    └─Empty: 2-152                      [16]                      --
│    └─Empty: 2-153                      [16]                      --
│    └─BatchNorm2d: 2-154                [16, 16, 8, 8]            --
│    └─Scaler: 2-155                     [16, 16, 8, 8]            --
│    └─ReLU: 2-156                       [16, 16, 8, 8]            --
│    └─Empty: 2-157                      [16, 16, 8, 8]            --
│    └─Clamp: 2-158                      [16, 16, 8, 8]            --
├─Dropout2d: 1-17                        [16, 16, 8, 8]            --
├─FusedConv2dBNReLU: 1-18                [16, 128, 64, 64]         (recursive)
│    └─OutputShiftSqueeze: 2-159         --                        --
│    └─One: 2-160                        [1]                       --
│    └─OutputScale: 2-161                --                        --
│    └─Empty: 2-162                      [128, 48, 1, 1]           --
│    └─Empty: 2-163                      [128, 48, 1, 1]           --
│    └─Empty: 2-164                      [128]                     --
│    └─Empty: 2-165                      [128]                     --
│    └─BatchNorm2d: 2-166                [16, 128, 64, 64]         --
│    └─Scaler: 2-167                     [16, 128, 64, 64]         --
│    └─ReLU: 2-168                       [16, 128, 64, 64]         --
│    └─Empty: 2-169                      [16, 128, 64, 64]         --
│    └─Clamp: 2-170                      [16, 128, 64, 64]         --
├─FusedMaxPoolConv2dBNReLU: 1-19         [16, 128, 32, 32]         (recursive)
│    └─MaxPool2d: 2-171                  [16, 128, 32, 32]         --
│    └─Empty: 2-172                      [16, 128, 32, 32]         --
│    └─Empty: 2-173                      [16, 128, 32, 32]         --
│    └─OutputShiftSqueeze: 2-174         --                        --
│    └─One: 2-175                        [1]                       --
│    └─OutputScale: 2-176                --                        --
│    └─Empty: 2-177                      [128, 128, 3, 3]          --
│    └─Empty: 2-178                      [128, 128, 3, 3]          --
│    └─Empty: 2-179                      [128]                     --
│    └─Empty: 2-180                      [128]                     --
│    └─BatchNorm2d: 2-181                [16, 128, 32, 32]         --
│    └─Scaler: 2-182                     [16, 128, 32, 32]         --
│    └─ReLU: 2-183                       [16, 128, 32, 32]         --
│    └─Empty: 2-184                      [16, 128, 32, 32]         --
│    └─Clamp: 2-185                      [16, 128, 32, 32]         --
├─Dropout2d: 1-20                        [16, 128, 32, 32]         --
├─FusedMaxPoolConv2dBNReLU: 1-21         [16, 128, 16, 16]         (recursive)
│    └─MaxPool2d: 2-186                  [16, 128, 16, 16]         --
│    └─Empty: 2-187                      [16, 128, 16, 16]         --
│    └─Empty: 2-188                      [16, 128, 16, 16]         --
│    └─OutputShiftSqueeze: 2-189         --                        --
│    └─One: 2-190                        [1]                       --
│    └─OutputScale: 2-191                --                        --
│    └─Empty: 2-192                      [128, 128, 3, 3]          --
│    └─Empty: 2-193                      [128, 128, 3, 3]          --
│    └─Empty: 2-194                      [128]                     --
│    └─Empty: 2-195                      [128]                     --
│    └─BatchNorm2d: 2-196                [16, 128, 16, 16]         --
│    └─Scaler: 2-197                     [16, 128, 16, 16]         --
│    └─ReLU: 2-198                       [16, 128, 16, 16]         --
│    └─Empty: 2-199                      [16, 128, 16, 16]         --
│    └─Clamp: 2-200                      [16, 128, 16, 16]         --
├─FusedConv2dBNReLU: 1-22                [16, 128, 16, 16]         (recursive)
│    └─OutputShiftSqueeze: 2-201         --                        --
│    └─One: 2-202                        [1]                       --
│    └─OutputScale: 2-203                --                        --
│    └─Empty: 2-204                      [128, 128, 1, 1]          --
│    └─Empty: 2-205                      [128, 128, 1, 1]          --
│    └─Empty: 2-206                      [128]                     --
│    └─Empty: 2-207                      [128]                     --
│    └─BatchNorm2d: 2-208                [16, 128, 16, 16]         --
│    └─Scaler: 2-209                     [16, 128, 16, 16]         --
│    └─ReLU: 2-210                       [16, 128, 16, 16]         --
│    └─Empty: 2-211                      [16, 128, 16, 16]         --
│    └─Clamp: 2-212                      [16, 128, 16, 16]         --
├─FusedMaxPoolConv2dBNReLU: 1-23         [16, 128, 16, 16]         (recursive)
│    └─MaxPool2d: 2-213                  [16, 128, 16, 16]         --
│    └─Empty: 2-214                      [16, 128, 16, 16]         --
│    └─Empty: 2-215                      [16, 128, 16, 16]         --
│    └─OutputShiftSqueeze: 2-216         --                        --
│    └─One: 2-217                        [1]                       --
│    └─OutputScale: 2-218                --                        --
│    └─Empty: 2-219                      [128, 128, 3, 3]          --
│    └─Empty: 2-220                      [128, 128, 3, 3]          --
│    └─Empty: 2-221                      [128]                     --
│    └─Empty: 2-222                      [128]                     --
│    └─BatchNorm2d: 2-223                [16, 128, 16, 16]         --
│    └─Scaler: 2-224                     [16, 128, 16, 16]         --
│    └─ReLU: 2-225                       [16, 128, 16, 16]         --
│    └─Empty: 2-226                      [16, 128, 16, 16]         --
│    └─Clamp: 2-227                      [16, 128, 16, 16]         --
├─Dropout2d: 1-24                        [16, 128, 16, 16]         --
├─FusedMaxPoolConv2dBNReLU: 1-25         [16, 128, 8, 8]           (recursive)
│    └─MaxPool2d: 2-228                  [16, 128, 8, 8]           --
│    └─Empty: 2-229                      [16, 128, 8, 8]           --
│    └─Empty: 2-230                      [16, 128, 8, 8]           --
│    └─OutputShiftSqueeze: 2-231         --                        --
│    └─One: 2-232                        [1]                       --
│    └─OutputScale: 2-233                --                        --
│    └─Empty: 2-234                      [128, 128, 3, 3]          --
│    └─Empty: 2-235                      [128, 128, 3, 3]          --
│    └─Empty: 2-236                      [128]                     --
│    └─Empty: 2-237                      [128]                     --
│    └─BatchNorm2d: 2-238                [16, 128, 8, 8]           --
│    └─Scaler: 2-239                     [16, 128, 8, 8]           --
│    └─ReLU: 2-240                       [16, 128, 8, 8]           --
│    └─Empty: 2-241                      [16, 128, 8, 8]           --
│    └─Clamp: 2-242                      [16, 128, 8, 8]           --
├─FusedConv2dBNReLU: 1-26                [16, 16, 8, 8]            (recursive)
│    └─OutputShiftSqueeze: 2-243         --                        --
│    └─One: 2-244                        [1]                       --
│    └─OutputScale: 2-245                --                        --
│    └─Empty: 2-246                      [16, 128, 1, 1]           --
│    └─Empty: 2-247                      [16, 128, 1, 1]           --
│    └─Empty: 2-248                      [16]                      --
│    └─Empty: 2-249                      [16]                      --
│    └─BatchNorm2d: 2-250                [16, 16, 8, 8]            --
│    └─Scaler: 2-251                     [16, 16, 8, 8]            --
│    └─ReLU: 2-252                       [16, 16, 8, 8]            --
│    └─Empty: 2-253                      [16, 16, 8, 8]            --
│    └─Clamp: 2-254                      [16, 16, 8, 8]            --
├─FusedMaxPoolConv2dBNReLU: 1-27         [16, 16, 8, 8]            (recursive)
│    └─MaxPool2d: 2-255                  [16, 128, 8, 8]           --
│    └─Empty: 2-256                      [16, 128, 8, 8]           --
│    └─Empty: 2-257                      [16, 128, 8, 8]           --
│    └─OutputShiftSqueeze: 2-258         --                        --
│    └─One: 2-259                        [1]                       --
│    └─OutputScale: 2-260                --                        --
│    └─Empty: 2-261                      [16, 128, 3, 3]           --
│    └─Empty: 2-262                      [16, 128, 3, 3]           --
│    └─Empty: 2-263                      [16]                      --
│    └─Empty: 2-264                      [16]                      --
│    └─BatchNorm2d: 2-265                [16, 16, 8, 8]            --
│    └─Scaler: 2-266                     [16, 16, 8, 8]            --
│    └─ReLU: 2-267                       [16, 16, 8, 8]            --
│    └─Empty: 2-268                      [16, 16, 8, 8]            --
│    └─Clamp: 2-269                      [16, 16, 8, 8]            --
├─Dropout2d: 1-28                        [16, 16, 8, 8]            --
├─FusedConv2dBNReLU: 1-29                [16, 128, 64, 64]         (recursive)
│    └─OutputShiftSqueeze: 2-270         --                        --
│    └─One: 2-271                        [1]                       --
│    └─OutputScale: 2-272                --                        --
│    └─Empty: 2-273                      [128, 48, 1, 1]           --
│    └─Empty: 2-274                      [128, 48, 1, 1]           --
│    └─Empty: 2-275                      [128]                     --
│    └─Empty: 2-276                      [128]                     --
│    └─BatchNorm2d: 2-277                [16, 128, 64, 64]         --
│    └─Scaler: 2-278                     [16, 128, 64, 64]         --
│    └─ReLU: 2-279                       [16, 128, 64, 64]         --
│    └─Empty: 2-280                      [16, 128, 64, 64]         --
│    └─Clamp: 2-281                      [16, 128, 64, 64]         --
├─FusedMaxPoolConv2dBNReLU: 1-30         [16, 128, 32, 32]         (recursive)
│    └─MaxPool2d: 2-282                  [16, 128, 32, 32]         --
│    └─Empty: 2-283                      [16, 128, 32, 32]         --
│    └─Empty: 2-284                      [16, 128, 32, 32]         --
│    └─OutputShiftSqueeze: 2-285         --                        --
│    └─One: 2-286                        [1]                       --
│    └─OutputScale: 2-287                --                        --
│    └─Empty: 2-288                      [128, 128, 3, 3]          --
│    └─Empty: 2-289                      [128, 128, 3, 3]          --
│    └─Empty: 2-290                      [128]                     --
│    └─Empty: 2-291                      [128]                     --
│    └─BatchNorm2d: 2-292                [16, 128, 32, 32]         --
│    └─Scaler: 2-293                     [16, 128, 32, 32]         --
│    └─ReLU: 2-294                       [16, 128, 32, 32]         --
│    └─Empty: 2-295                      [16, 128, 32, 32]         --
│    └─Clamp: 2-296                      [16, 128, 32, 32]         --
├─Dropout2d: 1-31                        [16, 128, 32, 32]         --
├─FusedMaxPoolConv2dBNReLU: 1-32         [16, 128, 16, 16]         (recursive)
│    └─MaxPool2d: 2-297                  [16, 128, 16, 16]         --
│    └─Empty: 2-298                      [16, 128, 16, 16]         --
│    └─Empty: 2-299                      [16, 128, 16, 16]         --
│    └─OutputShiftSqueeze: 2-300         --                        --
│    └─One: 2-301                        [1]                       --
│    └─OutputScale: 2-302                --                        --
│    └─Empty: 2-303                      [128, 128, 3, 3]          --
│    └─Empty: 2-304                      [128, 128, 3, 3]          --
│    └─Empty: 2-305                      [128]                     --
│    └─Empty: 2-306                      [128]                     --
│    └─BatchNorm2d: 2-307                [16, 128, 16, 16]         --
│    └─Scaler: 2-308                     [16, 128, 16, 16]         --
│    └─ReLU: 2-309                       [16, 128, 16, 16]         --
│    └─Empty: 2-310                      [16, 128, 16, 16]         --
│    └─Clamp: 2-311                      [16, 128, 16, 16]         --
├─FusedConv2dBNReLU: 1-33                [16, 128, 16, 16]         (recursive)
│    └─OutputShiftSqueeze: 2-312         --                        --
│    └─One: 2-313                        [1]                       --
│    └─OutputScale: 2-314                --                        --
│    └─Empty: 2-315                      [128, 128, 1, 1]          --
│    └─Empty: 2-316                      [128, 128, 1, 1]          --
│    └─Empty: 2-317                      [128]                     --
│    └─Empty: 2-318                      [128]                     --
│    └─BatchNorm2d: 2-319                [16, 128, 16, 16]         --
│    └─Scaler: 2-320                     [16, 128, 16, 16]         --
│    └─ReLU: 2-321                       [16, 128, 16, 16]         --
│    └─Empty: 2-322                      [16, 128, 16, 16]         --
│    └─Clamp: 2-323                      [16, 128, 16, 16]         --
├─FusedMaxPoolConv2dBNReLU: 1-34         [16, 128, 16, 16]         (recursive)
│    └─MaxPool2d: 2-324                  [16, 128, 16, 16]         --
│    └─Empty: 2-325                      [16, 128, 16, 16]         --
│    └─Empty: 2-326                      [16, 128, 16, 16]         --
│    └─OutputShiftSqueeze: 2-327         --                        --
│    └─One: 2-328                        [1]                       --
│    └─OutputScale: 2-329                --                        --
│    └─Empty: 2-330                      [128, 128, 3, 3]          --
│    └─Empty: 2-331                      [128, 128, 3, 3]          --
│    └─Empty: 2-332                      [128]                     --
│    └─Empty: 2-333                      [128]                     --
│    └─BatchNorm2d: 2-334                [16, 128, 16, 16]         --
│    └─Scaler: 2-335                     [16, 128, 16, 16]         --
│    └─ReLU: 2-336                       [16, 128, 16, 16]         --
│    └─Empty: 2-337                      [16, 128, 16, 16]         --
│    └─Clamp: 2-338                      [16, 128, 16, 16]         --
├─Dropout2d: 1-35                        [16, 128, 16, 16]         --
├─FusedMaxPoolConv2dBNReLU: 1-36         [16, 128, 8, 8]           (recursive)
│    └─MaxPool2d: 2-339                  [16, 128, 8, 8]           --
│    └─Empty: 2-340                      [16, 128, 8, 8]           --
│    └─Empty: 2-341                      [16, 128, 8, 8]           --
│    └─OutputShiftSqueeze: 2-342         --                        --
│    └─One: 2-343                        [1]                       --
│    └─OutputScale: 2-344                --                        --
│    └─Empty: 2-345                      [128, 128, 3, 3]          --
│    └─Empty: 2-346                      [128, 128, 3, 3]          --
│    └─Empty: 2-347                      [128]                     --
│    └─Empty: 2-348                      [128]                     --
│    └─BatchNorm2d: 2-349                [16, 128, 8, 8]           --
│    └─Scaler: 2-350                     [16, 128, 8, 8]           --
│    └─ReLU: 2-351                       [16, 128, 8, 8]           --
│    └─Empty: 2-352                      [16, 128, 8, 8]           --
│    └─Clamp: 2-353                      [16, 128, 8, 8]           --
├─FusedConv2dBNReLU: 1-37                [16, 16, 8, 8]            (recursive)
│    └─OutputShiftSqueeze: 2-354         --                        --
│    └─One: 2-355                        [1]                       --
│    └─OutputScale: 2-356                --                        --
│    └─Empty: 2-357                      [16, 128, 1, 1]           --
│    └─Empty: 2-358                      [16, 128, 1, 1]           --
│    └─Empty: 2-359                      [16]                      --
│    └─Empty: 2-360                      [16]                      --
│    └─BatchNorm2d: 2-361                [16, 16, 8, 8]            --
│    └─Scaler: 2-362                     [16, 16, 8, 8]            --
│    └─ReLU: 2-363                       [16, 16, 8, 8]            --
│    └─Empty: 2-364                      [16, 16, 8, 8]            --
│    └─Clamp: 2-365                      [16, 16, 8, 8]            --
├─FusedMaxPoolConv2dBNReLU: 1-38         [16, 16, 8, 8]            (recursive)
│    └─MaxPool2d: 2-366                  [16, 128, 8, 8]           --
│    └─Empty: 2-367                      [16, 128, 8, 8]           --
│    └─Empty: 2-368                      [16, 128, 8, 8]           --
│    └─OutputShiftSqueeze: 2-369         --                        --
│    └─One: 2-370                        [1]                       --
│    └─OutputScale: 2-371                --                        --
│    └─Empty: 2-372                      [16, 128, 3, 3]           --
│    └─Empty: 2-373                      [16, 128, 3, 3]           --
│    └─Empty: 2-374                      [16]                      --
│    └─Empty: 2-375                      [16]                      --
│    └─BatchNorm2d: 2-376                [16, 16, 8, 8]            --
│    └─Scaler: 2-377                     [16, 16, 8, 8]            --
│    └─ReLU: 2-378                       [16, 16, 8, 8]            --
│    └─Empty: 2-379                      [16, 16, 8, 8]            --
│    └─Clamp: 2-380                      [16, 16, 8, 8]            --
├─Dropout2d: 1-39                        [16, 16, 8, 8]            --
├─FusedConv2dBNReLU: 1-40                [16, 128, 64, 64]         (recursive)
│    └─OutputShiftSqueeze: 2-381         --                        --
│    └─One: 2-382                        [1]                       --
│    └─OutputScale: 2-383                --                        --
│    └─Empty: 2-384                      [128, 48, 1, 1]           --
│    └─Empty: 2-385                      [128, 48, 1, 1]           --
│    └─Empty: 2-386                      [128]                     --
│    └─Empty: 2-387                      [128]                     --
│    └─BatchNorm2d: 2-388                [16, 128, 64, 64]         --
│    └─Scaler: 2-389                     [16, 128, 64, 64]         --
│    └─ReLU: 2-390                       [16, 128, 64, 64]         --
│    └─Empty: 2-391                      [16, 128, 64, 64]         --
│    └─Clamp: 2-392                      [16, 128, 64, 64]         --
├─FusedMaxPoolConv2dBNReLU: 1-41         [16, 128, 32, 32]         (recursive)
│    └─MaxPool2d: 2-393                  [16, 128, 32, 32]         --
│    └─Empty: 2-394                      [16, 128, 32, 32]         --
│    └─Empty: 2-395                      [16, 128, 32, 32]         --
│    └─OutputShiftSqueeze: 2-396         --                        --
│    └─One: 2-397                        [1]                       --
│    └─OutputScale: 2-398                --                        --
│    └─Empty: 2-399                      [128, 128, 3, 3]          --
│    └─Empty: 2-400                      [128, 128, 3, 3]          --
│    └─Empty: 2-401                      [128]                     --
│    └─Empty: 2-402                      [128]                     --
│    └─BatchNorm2d: 2-403                [16, 128, 32, 32]         --
│    └─Scaler: 2-404                     [16, 128, 32, 32]         --
│    └─ReLU: 2-405                       [16, 128, 32, 32]         --
│    └─Empty: 2-406                      [16, 128, 32, 32]         --
│    └─Clamp: 2-407                      [16, 128, 32, 32]         --
├─Dropout2d: 1-42                        [16, 128, 32, 32]         --
├─FusedMaxPoolConv2dBNReLU: 1-43         [16, 128, 16, 16]         (recursive)
│    └─MaxPool2d: 2-408                  [16, 128, 16, 16]         --
│    └─Empty: 2-409                      [16, 128, 16, 16]         --
│    └─Empty: 2-410                      [16, 128, 16, 16]         --
│    └─OutputShiftSqueeze: 2-411         --                        --
│    └─One: 2-412                        [1]                       --
│    └─OutputScale: 2-413                --                        --
│    └─Empty: 2-414                      [128, 128, 3, 3]          --
│    └─Empty: 2-415                      [128, 128, 3, 3]          --
│    └─Empty: 2-416                      [128]                     --
│    └─Empty: 2-417                      [128]                     --
│    └─BatchNorm2d: 2-418                [16, 128, 16, 16]         --
│    └─Scaler: 2-419                     [16, 128, 16, 16]         --
│    └─ReLU: 2-420                       [16, 128, 16, 16]         --
│    └─Empty: 2-421                      [16, 128, 16, 16]         --
│    └─Clamp: 2-422                      [16, 128, 16, 16]         --
├─FusedConv2dBNReLU: 1-44                [16, 128, 16, 16]         (recursive)
│    └─OutputShiftSqueeze: 2-423         --                        --
│    └─One: 2-424                        [1]                       --
│    └─OutputScale: 2-425                --                        --
│    └─Empty: 2-426                      [128, 128, 1, 1]          --
│    └─Empty: 2-427                      [128, 128, 1, 1]          --
│    └─Empty: 2-428                      [128]                     --
│    └─Empty: 2-429                      [128]                     --
│    └─BatchNorm2d: 2-430                [16, 128, 16, 16]         --
│    └─Scaler: 2-431                     [16, 128, 16, 16]         --
│    └─ReLU: 2-432                       [16, 128, 16, 16]         --
│    └─Empty: 2-433                      [16, 128, 16, 16]         --
│    └─Clamp: 2-434                      [16, 128, 16, 16]         --
├─FusedMaxPoolConv2dBNReLU: 1-45         [16, 128, 16, 16]         (recursive)
│    └─MaxPool2d: 2-435                  [16, 128, 16, 16]         --
│    └─Empty: 2-436                      [16, 128, 16, 16]         --
│    └─Empty: 2-437                      [16, 128, 16, 16]         --
│    └─OutputShiftSqueeze: 2-438         --                        --
│    └─One: 2-439                        [1]                       --
│    └─OutputScale: 2-440                --                        --
│    └─Empty: 2-441                      [128, 128, 3, 3]          --
│    └─Empty: 2-442                      [128, 128, 3, 3]          --
│    └─Empty: 2-443                      [128]                     --
│    └─Empty: 2-444                      [128]                     --
│    └─BatchNorm2d: 2-445                [16, 128, 16, 16]         --
│    └─Scaler: 2-446                     [16, 128, 16, 16]         --
│    └─ReLU: 2-447                       [16, 128, 16, 16]         --
│    └─Empty: 2-448                      [16, 128, 16, 16]         --
│    └─Clamp: 2-449                      [16, 128, 16, 16]         --
├─Dropout2d: 1-46                        [16, 128, 16, 16]         --
├─FusedMaxPoolConv2dBNReLU: 1-47         [16, 128, 8, 8]           (recursive)
│    └─MaxPool2d: 2-450                  [16, 128, 8, 8]           --
│    └─Empty: 2-451                      [16, 128, 8, 8]           --
│    └─Empty: 2-452                      [16, 128, 8, 8]           --
│    └─OutputShiftSqueeze: 2-453         --                        --
│    └─One: 2-454                        [1]                       --
│    └─OutputScale: 2-455                --                        --
│    └─Empty: 2-456                      [128, 128, 3, 3]          --
│    └─Empty: 2-457                      [128, 128, 3, 3]          --
│    └─Empty: 2-458                      [128]                     --
│    └─Empty: 2-459                      [128]                     --
│    └─BatchNorm2d: 2-460                [16, 128, 8, 8]           --
│    └─Scaler: 2-461                     [16, 128, 8, 8]           --
│    └─ReLU: 2-462                       [16, 128, 8, 8]           --
│    └─Empty: 2-463                      [16, 128, 8, 8]           --
│    └─Clamp: 2-464                      [16, 128, 8, 8]           --
├─FusedConv2dBNReLU: 1-48                [16, 16, 8, 8]            (recursive)
│    └─OutputShiftSqueeze: 2-465         --                        --
│    └─One: 2-466                        [1]                       --
│    └─OutputScale: 2-467                --                        --
│    └─Empty: 2-468                      [16, 128, 1, 1]           --
│    └─Empty: 2-469                      [16, 128, 1, 1]           --
│    └─Empty: 2-470                      [16]                      --
│    └─Empty: 2-471                      [16]                      --
│    └─BatchNorm2d: 2-472                [16, 16, 8, 8]            --
│    └─Scaler: 2-473                     [16, 16, 8, 8]            --
│    └─ReLU: 2-474                       [16, 16, 8, 8]            --
│    └─Empty: 2-475                      [16, 16, 8, 8]            --
│    └─Clamp: 2-476                      [16, 16, 8, 8]            --
├─FusedMaxPoolConv2dBNReLU: 1-49         [16, 16, 8, 8]            (recursive)
│    └─MaxPool2d: 2-477                  [16, 128, 8, 8]           --
│    └─Empty: 2-478                      [16, 128, 8, 8]           --
│    └─Empty: 2-479                      [16, 128, 8, 8]           --
│    └─OutputShiftSqueeze: 2-480         --                        --
│    └─One: 2-481                        [1]                       --
│    └─OutputScale: 2-482                --                        --
│    └─Empty: 2-483                      [16, 128, 3, 3]           --
│    └─Empty: 2-484                      [16, 128, 3, 3]           --
│    └─Empty: 2-485                      [16]                      --
│    └─Empty: 2-486                      [16]                      --
│    └─BatchNorm2d: 2-487                [16, 16, 8, 8]            --
│    └─Scaler: 2-488                     [16, 16, 8, 8]            --
│    └─ReLU: 2-489                       [16, 16, 8, 8]            --
│    └─Empty: 2-490                      [16, 16, 8, 8]            --
│    └─Clamp: 2-491                      [16, 16, 8, 8]            --
├─Dropout2d: 1-50                        [16, 16, 8, 8]            --
├─FusedConv2dBNReLU: 1-51                [16, 128, 64, 64]         (recursive)
│    └─OutputShiftSqueeze: 2-492         --                        --
│    └─One: 2-493                        [1]                       --
│    └─OutputScale: 2-494                --                        --
│    └─Empty: 2-495                      [128, 48, 1, 1]           --
│    └─Empty: 2-496                      [128, 48, 1, 1]           --
│    └─Empty: 2-497                      [128]                     --
│    └─Empty: 2-498                      [128]                     --
│    └─BatchNorm2d: 2-499                [16, 128, 64, 64]         --
│    └─Scaler: 2-500                     [16, 128, 64, 64]         --
│    └─ReLU: 2-501                       [16, 128, 64, 64]         --
│    └─Empty: 2-502                      [16, 128, 64, 64]         --
│    └─Clamp: 2-503                      [16, 128, 64, 64]         --
├─FusedMaxPoolConv2dBNReLU: 1-52         [16, 128, 32, 32]         (recursive)
│    └─MaxPool2d: 2-504                  [16, 128, 32, 32]         --
│    └─Empty: 2-505                      [16, 128, 32, 32]         --
│    └─Empty: 2-506                      [16, 128, 32, 32]         --
│    └─OutputShiftSqueeze: 2-507         --                        --
│    └─One: 2-508                        [1]                       --
│    └─OutputScale: 2-509                --                        --
│    └─Empty: 2-510                      [128, 128, 3, 3]          --
│    └─Empty: 2-511                      [128, 128, 3, 3]          --
│    └─Empty: 2-512                      [128]                     --
│    └─Empty: 2-513                      [128]                     --
│    └─BatchNorm2d: 2-514                [16, 128, 32, 32]         --
│    └─Scaler: 2-515                     [16, 128, 32, 32]         --
│    └─ReLU: 2-516                       [16, 128, 32, 32]         --
│    └─Empty: 2-517                      [16, 128, 32, 32]         --
│    └─Clamp: 2-518                      [16, 128, 32, 32]         --
├─Dropout2d: 1-53                        [16, 128, 32, 32]         --
├─FusedMaxPoolConv2dBNReLU: 1-54         [16, 128, 16, 16]         (recursive)
│    └─MaxPool2d: 2-519                  [16, 128, 16, 16]         --
│    └─Empty: 2-520                      [16, 128, 16, 16]         --
│    └─Empty: 2-521                      [16, 128, 16, 16]         --
│    └─OutputShiftSqueeze: 2-522         --                        --
│    └─One: 2-523                        [1]                       --
│    └─OutputScale: 2-524                --                        --
│    └─Empty: 2-525                      [128, 128, 3, 3]          --
│    └─Empty: 2-526                      [128, 128, 3, 3]          --
│    └─Empty: 2-527                      [128]                     --
│    └─Empty: 2-528                      [128]                     --
│    └─BatchNorm2d: 2-529                [16, 128, 16, 16]         --
│    └─Scaler: 2-530                     [16, 128, 16, 16]         --
│    └─ReLU: 2-531                       [16, 128, 16, 16]         --
│    └─Empty: 2-532                      [16, 128, 16, 16]         --
│    └─Clamp: 2-533                      [16, 128, 16, 16]         --
├─FusedConv2dBNReLU: 1-55                [16, 128, 16, 16]         (recursive)
│    └─OutputShiftSqueeze: 2-534         --                        --
│    └─One: 2-535                        [1]                       --
│    └─OutputScale: 2-536                --                        --
│    └─Empty: 2-537                      [128, 128, 1, 1]          --
│    └─Empty: 2-538                      [128, 128, 1, 1]          --
│    └─Empty: 2-539                      [128]                     --
│    └─Empty: 2-540                      [128]                     --
│    └─BatchNorm2d: 2-541                [16, 128, 16, 16]         --
│    └─Scaler: 2-542                     [16, 128, 16, 16]         --
│    └─ReLU: 2-543                       [16, 128, 16, 16]         --
│    └─Empty: 2-544                      [16, 128, 16, 16]         --
│    └─Clamp: 2-545                      [16, 128, 16, 16]         --
├─FusedMaxPoolConv2dBNReLU: 1-56         [16, 128, 16, 16]         (recursive)
│    └─MaxPool2d: 2-546                  [16, 128, 16, 16]         --
│    └─Empty: 2-547                      [16, 128, 16, 16]         --
│    └─Empty: 2-548                      [16, 128, 16, 16]         --
│    └─OutputShiftSqueeze: 2-549         --                        --
│    └─One: 2-550                        [1]                       --
│    └─OutputScale: 2-551                --                        --
│    └─Empty: 2-552                      [128, 128, 3, 3]          --
│    └─Empty: 2-553                      [128, 128, 3, 3]          --
│    └─Empty: 2-554                      [128]                     --
│    └─Empty: 2-555                      [128]                     --
│    └─BatchNorm2d: 2-556                [16, 128, 16, 16]         --
│    └─Scaler: 2-557                     [16, 128, 16, 16]         --
│    └─ReLU: 2-558                       [16, 128, 16, 16]         --
│    └─Empty: 2-559                      [16, 128, 16, 16]         --
│    └─Clamp: 2-560                      [16, 128, 16, 16]         --
├─Dropout2d: 1-57                        [16, 128, 16, 16]         --
├─FusedMaxPoolConv2dBNReLU: 1-58         [16, 128, 8, 8]           (recursive)
│    └─MaxPool2d: 2-561                  [16, 128, 8, 8]           --
│    └─Empty: 2-562                      [16, 128, 8, 8]           --
│    └─Empty: 2-563                      [16, 128, 8, 8]           --
│    └─OutputShiftSqueeze: 2-564         --                        --
│    └─One: 2-565                        [1]                       --
│    └─OutputScale: 2-566                --                        --
│    └─Empty: 2-567                      [128, 128, 3, 3]          --
│    └─Empty: 2-568                      [128, 128, 3, 3]          --
│    └─Empty: 2-569                      [128]                     --
│    └─Empty: 2-570                      [128]                     --
│    └─BatchNorm2d: 2-571                [16, 128, 8, 8]           --
│    └─Scaler: 2-572                     [16, 128, 8, 8]           --
│    └─ReLU: 2-573                       [16, 128, 8, 8]           --
│    └─Empty: 2-574                      [16, 128, 8, 8]           --
│    └─Clamp: 2-575                      [16, 128, 8, 8]           --
├─FusedConv2dBNReLU: 1-59                [16, 16, 8, 8]            (recursive)
│    └─OutputShiftSqueeze: 2-576         --                        --
│    └─One: 2-577                        [1]                       --
│    └─OutputScale: 2-578                --                        --
│    └─Empty: 2-579                      [16, 128, 1, 1]           --
│    └─Empty: 2-580                      [16, 128, 1, 1]           --
│    └─Empty: 2-581                      [16]                      --
│    └─Empty: 2-582                      [16]                      --
│    └─BatchNorm2d: 2-583                [16, 16, 8, 8]            --
│    └─Scaler: 2-584                     [16, 16, 8, 8]            --
│    └─ReLU: 2-585                       [16, 16, 8, 8]            --
│    └─Empty: 2-586                      [16, 16, 8, 8]            --
│    └─Clamp: 2-587                      [16, 16, 8, 8]            --
├─FusedMaxPoolConv2dBNReLU: 1-60         [16, 16, 8, 8]            (recursive)
│    └─MaxPool2d: 2-588                  [16, 128, 8, 8]           --
│    └─Empty: 2-589                      [16, 128, 8, 8]           --
│    └─Empty: 2-590                      [16, 128, 8, 8]           --
│    └─OutputShiftSqueeze: 2-591         --                        --
│    └─One: 2-592                        [1]                       --
│    └─OutputScale: 2-593                --                        --
│    └─Empty: 2-594                      [16, 128, 3, 3]           --
│    └─Empty: 2-595                      [16, 128, 3, 3]           --
│    └─Empty: 2-596                      [16]                      --
│    └─Empty: 2-597                      [16]                      --
│    └─BatchNorm2d: 2-598                [16, 16, 8, 8]            --
│    └─Scaler: 2-599                     [16, 16, 8, 8]            --
│    └─ReLU: 2-600                       [16, 16, 8, 8]            --
│    └─Empty: 2-601                      [16, 16, 8, 8]            --
│    └─Clamp: 2-602                      [16, 16, 8, 8]            --
├─Dropout2d: 1-61                        [16, 16, 8, 8]            --
├─FusedConv2dBNReLU: 1-62                [16, 128, 64, 64]         (recursive)
│    └─OutputShiftSqueeze: 2-603         --                        --
│    └─One: 2-604                        [1]                       --
│    └─OutputScale: 2-605                --                        --
│    └─Empty: 2-606                      [128, 48, 1, 1]           --
│    └─Empty: 2-607                      [128, 48, 1, 1]           --
│    └─Empty: 2-608                      [128]                     --
│    └─Empty: 2-609                      [128]                     --
│    └─BatchNorm2d: 2-610                [16, 128, 64, 64]         --
│    └─Scaler: 2-611                     [16, 128, 64, 64]         --
│    └─ReLU: 2-612                       [16, 128, 64, 64]         --
│    └─Empty: 2-613                      [16, 128, 64, 64]         --
│    └─Clamp: 2-614                      [16, 128, 64, 64]         --
├─FusedMaxPoolConv2dBNReLU: 1-63         [16, 128, 32, 32]         (recursive)
│    └─MaxPool2d: 2-615                  [16, 128, 32, 32]         --
│    └─Empty: 2-616                      [16, 128, 32, 32]         --
│    └─Empty: 2-617                      [16, 128, 32, 32]         --
│    └─OutputShiftSqueeze: 2-618         --                        --
│    └─One: 2-619                        [1]                       --
│    └─OutputScale: 2-620                --                        --
│    └─Empty: 2-621                      [128, 128, 3, 3]          --
│    └─Empty: 2-622                      [128, 128, 3, 3]          --
│    └─Empty: 2-623                      [128]                     --
│    └─Empty: 2-624                      [128]                     --
│    └─BatchNorm2d: 2-625                [16, 128, 32, 32]         --
│    └─Scaler: 2-626                     [16, 128, 32, 32]         --
│    └─ReLU: 2-627                       [16, 128, 32, 32]         --
│    └─Empty: 2-628                      [16, 128, 32, 32]         --
│    └─Clamp: 2-629                      [16, 128, 32, 32]         --
├─Dropout2d: 1-64                        [16, 128, 32, 32]         --
├─FusedMaxPoolConv2dBNReLU: 1-65         [16, 128, 16, 16]         (recursive)
│    └─MaxPool2d: 2-630                  [16, 128, 16, 16]         --
│    └─Empty: 2-631                      [16, 128, 16, 16]         --
│    └─Empty: 2-632                      [16, 128, 16, 16]         --
│    └─OutputShiftSqueeze: 2-633         --                        --
│    └─One: 2-634                        [1]                       --
│    └─OutputScale: 2-635                --                        --
│    └─Empty: 2-636                      [128, 128, 3, 3]          --
│    └─Empty: 2-637                      [128, 128, 3, 3]          --
│    └─Empty: 2-638                      [128]                     --
│    └─Empty: 2-639                      [128]                     --
│    └─BatchNorm2d: 2-640                [16, 128, 16, 16]         --
│    └─Scaler: 2-641                     [16, 128, 16, 16]         --
│    └─ReLU: 2-642                       [16, 128, 16, 16]         --
│    └─Empty: 2-643                      [16, 128, 16, 16]         --
│    └─Clamp: 2-644                      [16, 128, 16, 16]         --
├─FusedConv2dBNReLU: 1-66                [16, 128, 16, 16]         (recursive)
│    └─OutputShiftSqueeze: 2-645         --                        --
│    └─One: 2-646                        [1]                       --
│    └─OutputScale: 2-647                --                        --
│    └─Empty: 2-648                      [128, 128, 1, 1]          --
│    └─Empty: 2-649                      [128, 128, 1, 1]          --
│    └─Empty: 2-650                      [128]                     --
│    └─Empty: 2-651                      [128]                     --
│    └─BatchNorm2d: 2-652                [16, 128, 16, 16]         --
│    └─Scaler: 2-653                     [16, 128, 16, 16]         --
│    └─ReLU: 2-654                       [16, 128, 16, 16]         --
│    └─Empty: 2-655                      [16, 128, 16, 16]         --
│    └─Clamp: 2-656                      [16, 128, 16, 16]         --
├─FusedMaxPoolConv2dBNReLU: 1-67         [16, 128, 16, 16]         (recursive)
│    └─MaxPool2d: 2-657                  [16, 128, 16, 16]         --
│    └─Empty: 2-658                      [16, 128, 16, 16]         --
│    └─Empty: 2-659                      [16, 128, 16, 16]         --
│    └─OutputShiftSqueeze: 2-660         --                        --
│    └─One: 2-661                        [1]                       --
│    └─OutputScale: 2-662                --                        --
│    └─Empty: 2-663                      [128, 128, 3, 3]          --
│    └─Empty: 2-664                      [128, 128, 3, 3]          --
│    └─Empty: 2-665                      [128]                     --
│    └─Empty: 2-666                      [128]                     --
│    └─BatchNorm2d: 2-667                [16, 128, 16, 16]         --
│    └─Scaler: 2-668                     [16, 128, 16, 16]         --
│    └─ReLU: 2-669                       [16, 128, 16, 16]         --
│    └─Empty: 2-670                      [16, 128, 16, 16]         --
│    └─Clamp: 2-671                      [16, 128, 16, 16]         --
├─Dropout2d: 1-68                        [16, 128, 16, 16]         --
├─FusedMaxPoolConv2dBNReLU: 1-69         [16, 128, 8, 8]           (recursive)
│    └─MaxPool2d: 2-672                  [16, 128, 8, 8]           --
│    └─Empty: 2-673                      [16, 128, 8, 8]           --
│    └─Empty: 2-674                      [16, 128, 8, 8]           --
│    └─OutputShiftSqueeze: 2-675         --                        --
│    └─One: 2-676                        [1]                       --
│    └─OutputScale: 2-677                --                        --
│    └─Empty: 2-678                      [128, 128, 3, 3]          --
│    └─Empty: 2-679                      [128, 128, 3, 3]          --
│    └─Empty: 2-680                      [128]                     --
│    └─Empty: 2-681                      [128]                     --
│    └─BatchNorm2d: 2-682                [16, 128, 8, 8]           --
│    └─Scaler: 2-683                     [16, 128, 8, 8]           --
│    └─ReLU: 2-684                       [16, 128, 8, 8]           --
│    └─Empty: 2-685                      [16, 128, 8, 8]           --
│    └─Clamp: 2-686                      [16, 128, 8, 8]           --
├─FusedConv2dBNReLU: 1-70                [16, 16, 8, 8]            (recursive)
│    └─OutputShiftSqueeze: 2-687         --                        --
│    └─One: 2-688                        [1]                       --
│    └─OutputScale: 2-689                --                        --
│    └─Empty: 2-690                      [16, 128, 1, 1]           --
│    └─Empty: 2-691                      [16, 128, 1, 1]           --
│    └─Empty: 2-692                      [16]                      --
│    └─Empty: 2-693                      [16]                      --
│    └─BatchNorm2d: 2-694                [16, 16, 8, 8]            --
│    └─Scaler: 2-695                     [16, 16, 8, 8]            --
│    └─ReLU: 2-696                       [16, 16, 8, 8]            --
│    └─Empty: 2-697                      [16, 16, 8, 8]            --
│    └─Clamp: 2-698                      [16, 16, 8, 8]            --
├─FusedMaxPoolConv2dBNReLU: 1-71         [16, 16, 8, 8]            (recursive)
│    └─MaxPool2d: 2-699                  [16, 128, 8, 8]           --
│    └─Empty: 2-700                      [16, 128, 8, 8]           --
│    └─Empty: 2-701                      [16, 128, 8, 8]           --
│    └─OutputShiftSqueeze: 2-702         --                        --
│    └─One: 2-703                        [1]                       --
│    └─OutputScale: 2-704                --                        --
│    └─Empty: 2-705                      [16, 128, 3, 3]           --
│    └─Empty: 2-706                      [16, 128, 3, 3]           --
│    └─Empty: 2-707                      [16]                      --
│    └─Empty: 2-708                      [16]                      --
│    └─BatchNorm2d: 2-709                [16, 16, 8, 8]            --
│    └─Scaler: 2-710                     [16, 16, 8, 8]            --
│    └─ReLU: 2-711                       [16, 16, 8, 8]            --
│    └─Empty: 2-712                      [16, 16, 8, 8]            --
│    └─Clamp: 2-713                      [16, 16, 8, 8]            --
├─Dropout2d: 1-72                        [16, 16, 8, 8]            --
├─FusedConv2dBNReLU: 1-73                [16, 128, 64, 64]         (recursive)
│    └─OutputShiftSqueeze: 2-714         --                        --
│    └─One: 2-715                        [1]                       --
│    └─OutputScale: 2-716                --                        --
│    └─Empty: 2-717                      [128, 48, 1, 1]           --
│    └─Empty: 2-718                      [128, 48, 1, 1]           --
│    └─Empty: 2-719                      [128]                     --
│    └─Empty: 2-720                      [128]                     --
│    └─BatchNorm2d: 2-721                [16, 128, 64, 64]         --
│    └─Scaler: 2-722                     [16, 128, 64, 64]         --
│    └─ReLU: 2-723                       [16, 128, 64, 64]         --
│    └─Empty: 2-724                      [16, 128, 64, 64]         --
│    └─Clamp: 2-725                      [16, 128, 64, 64]         --
├─FusedMaxPoolConv2dBNReLU: 1-74         [16, 128, 32, 32]         (recursive)
│    └─MaxPool2d: 2-726                  [16, 128, 32, 32]         --
│    └─Empty: 2-727                      [16, 128, 32, 32]         --
│    └─Empty: 2-728                      [16, 128, 32, 32]         --
│    └─OutputShiftSqueeze: 2-729         --                        --
│    └─One: 2-730                        [1]                       --
│    └─OutputScale: 2-731                --                        --
│    └─Empty: 2-732                      [128, 128, 3, 3]          --
│    └─Empty: 2-733                      [128, 128, 3, 3]          --
│    └─Empty: 2-734                      [128]                     --
│    └─Empty: 2-735                      [128]                     --
│    └─BatchNorm2d: 2-736                [16, 128, 32, 32]         --
│    └─Scaler: 2-737                     [16, 128, 32, 32]         --
│    └─ReLU: 2-738                       [16, 128, 32, 32]         --
│    └─Empty: 2-739                      [16, 128, 32, 32]         --
│    └─Clamp: 2-740                      [16, 128, 32, 32]         --
├─Dropout2d: 1-75                        [16, 128, 32, 32]         --
├─FusedMaxPoolConv2dBNReLU: 1-76         [16, 128, 16, 16]         (recursive)
│    └─MaxPool2d: 2-741                  [16, 128, 16, 16]         --
│    └─Empty: 2-742                      [16, 128, 16, 16]         --
│    └─Empty: 2-743                      [16, 128, 16, 16]         --
│    └─OutputShiftSqueeze: 2-744         --                        --
│    └─One: 2-745                        [1]                       --
│    └─OutputScale: 2-746                --                        --
│    └─Empty: 2-747                      [128, 128, 3, 3]          --
│    └─Empty: 2-748                      [128, 128, 3, 3]          --
│    └─Empty: 2-749                      [128]                     --
│    └─Empty: 2-750                      [128]                     --
│    └─BatchNorm2d: 2-751                [16, 128, 16, 16]         --
│    └─Scaler: 2-752                     [16, 128, 16, 16]         --
│    └─ReLU: 2-753                       [16, 128, 16, 16]         --
│    └─Empty: 2-754                      [16, 128, 16, 16]         --
│    └─Clamp: 2-755                      [16, 128, 16, 16]         --
├─FusedConv2dBNReLU: 1-77                [16, 128, 16, 16]         (recursive)
│    └─OutputShiftSqueeze: 2-756         --                        --
│    └─One: 2-757                        [1]                       --
│    └─OutputScale: 2-758                --                        --
│    └─Empty: 2-759                      [128, 128, 1, 1]          --
│    └─Empty: 2-760                      [128, 128, 1, 1]          --
│    └─Empty: 2-761                      [128]                     --
│    └─Empty: 2-762                      [128]                     --
│    └─BatchNorm2d: 2-763                [16, 128, 16, 16]         --
│    └─Scaler: 2-764                     [16, 128, 16, 16]         --
│    └─ReLU: 2-765                       [16, 128, 16, 16]         --
│    └─Empty: 2-766                      [16, 128, 16, 16]         --
│    └─Clamp: 2-767                      [16, 128, 16, 16]         --
├─FusedMaxPoolConv2dBNReLU: 1-78         [16, 128, 16, 16]         (recursive)
│    └─MaxPool2d: 2-768                  [16, 128, 16, 16]         --
│    └─Empty: 2-769                      [16, 128, 16, 16]         --
│    └─Empty: 2-770                      [16, 128, 16, 16]         --
│    └─OutputShiftSqueeze: 2-771         --                        --
│    └─One: 2-772                        [1]                       --
│    └─OutputScale: 2-773                --                        --
│    └─Empty: 2-774                      [128, 128, 3, 3]          --
│    └─Empty: 2-775                      [128, 128, 3, 3]          --
│    └─Empty: 2-776                      [128]                     --
│    └─Empty: 2-777                      [128]                     --
│    └─BatchNorm2d: 2-778                [16, 128, 16, 16]         --
│    └─Scaler: 2-779                     [16, 128, 16, 16]         --
│    └─ReLU: 2-780                       [16, 128, 16, 16]         --
│    └─Empty: 2-781                      [16, 128, 16, 16]         --
│    └─Clamp: 2-782                      [16, 128, 16, 16]         --
├─Dropout2d: 1-79                        [16, 128, 16, 16]         --
├─FusedMaxPoolConv2dBNReLU: 1-80         [16, 128, 8, 8]           (recursive)
│    └─MaxPool2d: 2-783                  [16, 128, 8, 8]           --
│    └─Empty: 2-784                      [16, 128, 8, 8]           --
│    └─Empty: 2-785                      [16, 128, 8, 8]           --
│    └─OutputShiftSqueeze: 2-786         --                        --
│    └─One: 2-787                        [1]                       --
│    └─OutputScale: 2-788                --                        --
│    └─Empty: 2-789                      [128, 128, 3, 3]          --
│    └─Empty: 2-790                      [128, 128, 3, 3]          --
│    └─Empty: 2-791                      [128]                     --
│    └─Empty: 2-792                      [128]                     --
│    └─BatchNorm2d: 2-793                [16, 128, 8, 8]           --
│    └─Scaler: 2-794                     [16, 128, 8, 8]           --
│    └─ReLU: 2-795                       [16, 128, 8, 8]           --
│    └─Empty: 2-796                      [16, 128, 8, 8]           --
│    └─Clamp: 2-797                      [16, 128, 8, 8]           --
├─FusedConv2dBNReLU: 1-81                [16, 16, 8, 8]            (recursive)
│    └─OutputShiftSqueeze: 2-798         --                        --
│    └─One: 2-799                        [1]                       --
│    └─OutputScale: 2-800                --                        --
│    └─Empty: 2-801                      [16, 128, 1, 1]           --
│    └─Empty: 2-802                      [16, 128, 1, 1]           --
│    └─Empty: 2-803                      [16]                      --
│    └─Empty: 2-804                      [16]                      --
│    └─BatchNorm2d: 2-805                [16, 16, 8, 8]            --
│    └─Scaler: 2-806                     [16, 16, 8, 8]            --
│    └─ReLU: 2-807                       [16, 16, 8, 8]            --
│    └─Empty: 2-808                      [16, 16, 8, 8]            --
│    └─Clamp: 2-809                      [16, 16, 8, 8]            --
├─FusedMaxPoolConv2dBNReLU: 1-82         [16, 16, 8, 8]            (recursive)
│    └─MaxPool2d: 2-810                  [16, 128, 8, 8]           --
│    └─Empty: 2-811                      [16, 128, 8, 8]           --
│    └─Empty: 2-812                      [16, 128, 8, 8]           --
│    └─OutputShiftSqueeze: 2-813         --                        --
│    └─One: 2-814                        [1]                       --
│    └─OutputScale: 2-815                --                        --
│    └─Empty: 2-816                      [16, 128, 3, 3]           --
│    └─Empty: 2-817                      [16, 128, 3, 3]           --
│    └─Empty: 2-818                      [16]                      --
│    └─Empty: 2-819                      [16]                      --
│    └─BatchNorm2d: 2-820                [16, 16, 8, 8]            --
│    └─Scaler: 2-821                     [16, 16, 8, 8]            --
│    └─ReLU: 2-822                       [16, 16, 8, 8]            --
│    └─Empty: 2-823                      [16, 16, 8, 8]            --
│    └─Clamp: 2-824                      [16, 16, 8, 8]            --
├─Dropout2d: 1-83                        [16, 16, 8, 8]            --
├─FusedConv2dBNReLU: 1-84                [16, 128, 64, 64]         (recursive)
│    └─OutputShiftSqueeze: 2-825         --                        --
│    └─One: 2-826                        [1]                       --
│    └─OutputScale: 2-827                --                        --
│    └─Empty: 2-828                      [128, 48, 1, 1]           --
│    └─Empty: 2-829                      [128, 48, 1, 1]           --
│    └─Empty: 2-830                      [128]                     --
│    └─Empty: 2-831                      [128]                     --
│    └─BatchNorm2d: 2-832                [16, 128, 64, 64]         --
│    └─Scaler: 2-833                     [16, 128, 64, 64]         --
│    └─ReLU: 2-834                       [16, 128, 64, 64]         --
│    └─Empty: 2-835                      [16, 128, 64, 64]         --
│    └─Clamp: 2-836                      [16, 128, 64, 64]         --
├─FusedMaxPoolConv2dBNReLU: 1-85         [16, 128, 32, 32]         (recursive)
│    └─MaxPool2d: 2-837                  [16, 128, 32, 32]         --
│    └─Empty: 2-838                      [16, 128, 32, 32]         --
│    └─Empty: 2-839                      [16, 128, 32, 32]         --
│    └─OutputShiftSqueeze: 2-840         --                        --
│    └─One: 2-841                        [1]                       --
│    └─OutputScale: 2-842                --                        --
│    └─Empty: 2-843                      [128, 128, 3, 3]          --
│    └─Empty: 2-844                      [128, 128, 3, 3]          --
│    └─Empty: 2-845                      [128]                     --
│    └─Empty: 2-846                      [128]                     --
│    └─BatchNorm2d: 2-847                [16, 128, 32, 32]         --
│    └─Scaler: 2-848                     [16, 128, 32, 32]         --
│    └─ReLU: 2-849                       [16, 128, 32, 32]         --
│    └─Empty: 2-850                      [16, 128, 32, 32]         --
│    └─Clamp: 2-851                      [16, 128, 32, 32]         --
├─Dropout2d: 1-86                        [16, 128, 32, 32]         --
├─FusedMaxPoolConv2dBNReLU: 1-87         [16, 128, 16, 16]         (recursive)
│    └─MaxPool2d: 2-852                  [16, 128, 16, 16]         --
│    └─Empty: 2-853                      [16, 128, 16, 16]         --
│    └─Empty: 2-854                      [16, 128, 16, 16]         --
│    └─OutputShiftSqueeze: 2-855         --                        --
│    └─One: 2-856                        [1]                       --
│    └─OutputScale: 2-857                --                        --
│    └─Empty: 2-858                      [128, 128, 3, 3]          --
│    └─Empty: 2-859                      [128, 128, 3, 3]          --
│    └─Empty: 2-860                      [128]                     --
│    └─Empty: 2-861                      [128]                     --
│    └─BatchNorm2d: 2-862                [16, 128, 16, 16]         --
│    └─Scaler: 2-863                     [16, 128, 16, 16]         --
│    └─ReLU: 2-864                       [16, 128, 16, 16]         --
│    └─Empty: 2-865                      [16, 128, 16, 16]         --
│    └─Clamp: 2-866                      [16, 128, 16, 16]         --
├─FusedConv2dBNReLU: 1-88                [16, 128, 16, 16]         (recursive)
│    └─OutputShiftSqueeze: 2-867         --                        --
│    └─One: 2-868                        [1]                       --
│    └─OutputScale: 2-869                --                        --
│    └─Empty: 2-870                      [128, 128, 1, 1]          --
│    └─Empty: 2-871                      [128, 128, 1, 1]          --
│    └─Empty: 2-872                      [128]                     --
│    └─Empty: 2-873                      [128]                     --
│    └─BatchNorm2d: 2-874                [16, 128, 16, 16]         --
│    └─Scaler: 2-875                     [16, 128, 16, 16]         --
│    └─ReLU: 2-876                       [16, 128, 16, 16]         --
│    └─Empty: 2-877                      [16, 128, 16, 16]         --
│    └─Clamp: 2-878                      [16, 128, 16, 16]         --
├─FusedMaxPoolConv2dBNReLU: 1-89         [16, 128, 16, 16]         (recursive)
│    └─MaxPool2d: 2-879                  [16, 128, 16, 16]         --
│    └─Empty: 2-880                      [16, 128, 16, 16]         --
│    └─Empty: 2-881                      [16, 128, 16, 16]         --
│    └─OutputShiftSqueeze: 2-882         --                        --
│    └─One: 2-883                        [1]                       --
│    └─OutputScale: 2-884                --                        --
│    └─Empty: 2-885                      [128, 128, 3, 3]          --
│    └─Empty: 2-886                      [128, 128, 3, 3]          --
│    └─Empty: 2-887                      [128]                     --
│    └─Empty: 2-888                      [128]                     --
│    └─BatchNorm2d: 2-889                [16, 128, 16, 16]         --
│    └─Scaler: 2-890                     [16, 128, 16, 16]         --
│    └─ReLU: 2-891                       [16, 128, 16, 16]         --
│    └─Empty: 2-892                      [16, 128, 16, 16]         --
│    └─Clamp: 2-893                      [16, 128, 16, 16]         --
├─Dropout2d: 1-90                        [16, 128, 16, 16]         --
├─FusedMaxPoolConv2dBNReLU: 1-91         [16, 128, 8, 8]           (recursive)
│    └─MaxPool2d: 2-894                  [16, 128, 8, 8]           --
│    └─Empty: 2-895                      [16, 128, 8, 8]           --
│    └─Empty: 2-896                      [16, 128, 8, 8]           --
│    └─OutputShiftSqueeze: 2-897         --                        --
│    └─One: 2-898                        [1]                       --
│    └─OutputScale: 2-899                --                        --
│    └─Empty: 2-900                      [128, 128, 3, 3]          --
│    └─Empty: 2-901                      [128, 128, 3, 3]          --
│    └─Empty: 2-902                      [128]                     --
│    └─Empty: 2-903                      [128]                     --
│    └─BatchNorm2d: 2-904                [16, 128, 8, 8]           --
│    └─Scaler: 2-905                     [16, 128, 8, 8]           --
│    └─ReLU: 2-906                       [16, 128, 8, 8]           --
│    └─Empty: 2-907                      [16, 128, 8, 8]           --
│    └─Clamp: 2-908                      [16, 128, 8, 8]           --
├─FusedConv2dBNReLU: 1-92                [16, 16, 8, 8]            (recursive)
│    └─OutputShiftSqueeze: 2-909         --                        --
│    └─One: 2-910                        [1]                       --
│    └─OutputScale: 2-911                --                        --
│    └─Empty: 2-912                      [16, 128, 1, 1]           --
│    └─Empty: 2-913                      [16, 128, 1, 1]           --
│    └─Empty: 2-914                      [16]                      --
│    └─Empty: 2-915                      [16]                      --
│    └─BatchNorm2d: 2-916                [16, 16, 8, 8]            --
│    └─Scaler: 2-917                     [16, 16, 8, 8]            --
│    └─ReLU: 2-918                       [16, 16, 8, 8]            --
│    └─Empty: 2-919                      [16, 16, 8, 8]            --
│    └─Clamp: 2-920                      [16, 16, 8, 8]            --
├─FusedMaxPoolConv2dBNReLU: 1-93         [16, 16, 8, 8]            (recursive)
│    └─MaxPool2d: 2-921                  [16, 128, 8, 8]           --
│    └─Empty: 2-922                      [16, 128, 8, 8]           --
│    └─Empty: 2-923                      [16, 128, 8, 8]           --
│    └─OutputShiftSqueeze: 2-924         --                        --
│    └─One: 2-925                        [1]                       --
│    └─OutputScale: 2-926                --                        --
│    └─Empty: 2-927                      [16, 128, 3, 3]           --
│    └─Empty: 2-928                      [16, 128, 3, 3]           --
│    └─Empty: 2-929                      [16]                      --
│    └─Empty: 2-930                      [16]                      --
│    └─BatchNorm2d: 2-931                [16, 16, 8, 8]            --
│    └─Scaler: 2-932                     [16, 16, 8, 8]            --
│    └─ReLU: 2-933                       [16, 16, 8, 8]            --
│    └─Empty: 2-934                      [16, 16, 8, 8]            --
│    └─Clamp: 2-935                      [16, 16, 8, 8]            --
├─Dropout2d: 1-94                        [16, 16, 8, 8]            --
├─FusedConv2dBNReLU: 1-95                [16, 128, 64, 64]         (recursive)
│    └─OutputShiftSqueeze: 2-936         --                        --
│    └─One: 2-937                        [1]                       --
│    └─OutputScale: 2-938                --                        --
│    └─Empty: 2-939                      [128, 48, 1, 1]           --
│    └─Empty: 2-940                      [128, 48, 1, 1]           --
│    └─Empty: 2-941                      [128]                     --
│    └─Empty: 2-942                      [128]                     --
│    └─BatchNorm2d: 2-943                [16, 128, 64, 64]         --
│    └─Scaler: 2-944                     [16, 128, 64, 64]         --
│    └─ReLU: 2-945                       [16, 128, 64, 64]         --
│    └─Empty: 2-946                      [16, 128, 64, 64]         --
│    └─Clamp: 2-947                      [16, 128, 64, 64]         --
├─FusedMaxPoolConv2dBNReLU: 1-96         [16, 128, 32, 32]         (recursive)
│    └─MaxPool2d: 2-948                  [16, 128, 32, 32]         --
│    └─Empty: 2-949                      [16, 128, 32, 32]         --
│    └─Empty: 2-950                      [16, 128, 32, 32]         --
│    └─OutputShiftSqueeze: 2-951         --                        --
│    └─One: 2-952                        [1]                       --
│    └─OutputScale: 2-953                --                        --
│    └─Empty: 2-954                      [128, 128, 3, 3]          --
│    └─Empty: 2-955                      [128, 128, 3, 3]          --
│    └─Empty: 2-956                      [128]                     --
│    └─Empty: 2-957                      [128]                     --
│    └─BatchNorm2d: 2-958                [16, 128, 32, 32]         --
│    └─Scaler: 2-959                     [16, 128, 32, 32]         --
│    └─ReLU: 2-960                       [16, 128, 32, 32]         --
│    └─Empty: 2-961                      [16, 128, 32, 32]         --
│    └─Clamp: 2-962                      [16, 128, 32, 32]         --
├─Dropout2d: 1-97                        [16, 128, 32, 32]         --
├─FusedMaxPoolConv2dBNReLU: 1-98         [16, 128, 16, 16]         (recursive)
│    └─MaxPool2d: 2-963                  [16, 128, 16, 16]         --
│    └─Empty: 2-964                      [16, 128, 16, 16]         --
│    └─Empty: 2-965                      [16, 128, 16, 16]         --
│    └─OutputShiftSqueeze: 2-966         --                        --
│    └─One: 2-967                        [1]                       --
│    └─OutputScale: 2-968                --                        --
│    └─Empty: 2-969                      [128, 128, 3, 3]          --
│    └─Empty: 2-970                      [128, 128, 3, 3]          --
│    └─Empty: 2-971                      [128]                     --
│    └─Empty: 2-972                      [128]                     --
│    └─BatchNorm2d: 2-973                [16, 128, 16, 16]         --
│    └─Scaler: 2-974                     [16, 128, 16, 16]         --
│    └─ReLU: 2-975                       [16, 128, 16, 16]         --
│    └─Empty: 2-976                      [16, 128, 16, 16]         --
│    └─Clamp: 2-977                      [16, 128, 16, 16]         --
├─FusedConv2dBNReLU: 1-99                [16, 128, 16, 16]         (recursive)
│    └─OutputShiftSqueeze: 2-978         --                        --
│    └─One: 2-979                        [1]                       --
│    └─OutputScale: 2-980                --                        --
│    └─Empty: 2-981                      [128, 128, 1, 1]          --
│    └─Empty: 2-982                      [128, 128, 1, 1]          --
│    └─Empty: 2-983                      [128]                     --
│    └─Empty: 2-984                      [128]                     --
│    └─BatchNorm2d: 2-985                [16, 128, 16, 16]         --
│    └─Scaler: 2-986                     [16, 128, 16, 16]         --
│    └─ReLU: 2-987                       [16, 128, 16, 16]         --
│    └─Empty: 2-988                      [16, 128, 16, 16]         --
│    └─Clamp: 2-989                      [16, 128, 16, 16]         --
├─FusedMaxPoolConv2dBNReLU: 1-100        [16, 128, 16, 16]         (recursive)
│    └─MaxPool2d: 2-990                  [16, 128, 16, 16]         --
│    └─Empty: 2-991                      [16, 128, 16, 16]         --
│    └─Empty: 2-992                      [16, 128, 16, 16]         --
│    └─OutputShiftSqueeze: 2-993         --                        --
│    └─One: 2-994                        [1]                       --
│    └─OutputScale: 2-995                --                        --
│    └─Empty: 2-996                      [128, 128, 3, 3]          --
│    └─Empty: 2-997                      [128, 128, 3, 3]          --
│    └─Empty: 2-998                      [128]                     --
│    └─Empty: 2-999                      [128]                     --
│    └─BatchNorm2d: 2-1000               [16, 128, 16, 16]         --
│    └─Scaler: 2-1001                    [16, 128, 16, 16]         --
│    └─ReLU: 2-1002                      [16, 128, 16, 16]         --
│    └─Empty: 2-1003                     [16, 128, 16, 16]         --
│    └─Clamp: 2-1004                     [16, 128, 16, 16]         --
├─Dropout2d: 1-101                       [16, 128, 16, 16]         --
├─FusedMaxPoolConv2dBNReLU: 1-102        [16, 128, 8, 8]           (recursive)
│    └─MaxPool2d: 2-1005                 [16, 128, 8, 8]           --
│    └─Empty: 2-1006                     [16, 128, 8, 8]           --
│    └─Empty: 2-1007                     [16, 128, 8, 8]           --
│    └─OutputShiftSqueeze: 2-1008        --                        --
│    └─One: 2-1009                       [1]                       --
│    └─OutputScale: 2-1010               --                        --
│    └─Empty: 2-1011                     [128, 128, 3, 3]          --
│    └─Empty: 2-1012                     [128, 128, 3, 3]          --
│    └─Empty: 2-1013                     [128]                     --
│    └─Empty: 2-1014                     [128]                     --
│    └─BatchNorm2d: 2-1015               [16, 128, 8, 8]           --
│    └─Scaler: 2-1016                    [16, 128, 8, 8]           --
│    └─ReLU: 2-1017                      [16, 128, 8, 8]           --
│    └─Empty: 2-1018                     [16, 128, 8, 8]           --
│    └─Clamp: 2-1019                     [16, 128, 8, 8]           --
├─FusedConv2dBNReLU: 1-103               [16, 16, 8, 8]            (recursive)
│    └─OutputShiftSqueeze: 2-1020        --                        --
│    └─One: 2-1021                       [1]                       --
│    └─OutputScale: 2-1022               --                        --
│    └─Empty: 2-1023                     [16, 128, 1, 1]           --
│    └─Empty: 2-1024                     [16, 128, 1, 1]           --
│    └─Empty: 2-1025                     [16]                      --
│    └─Empty: 2-1026                     [16]                      --
│    └─BatchNorm2d: 2-1027               [16, 16, 8, 8]            --
│    └─Scaler: 2-1028                    [16, 16, 8, 8]            --
│    └─ReLU: 2-1029                      [16, 16, 8, 8]            --
│    └─Empty: 2-1030                     [16, 16, 8, 8]            --
│    └─Clamp: 2-1031                     [16, 16, 8, 8]            --
├─FusedMaxPoolConv2dBNReLU: 1-104        [16, 16, 8, 8]            (recursive)
│    └─MaxPool2d: 2-1032                 [16, 128, 8, 8]           --
│    └─Empty: 2-1033                     [16, 128, 8, 8]           --
│    └─Empty: 2-1034                     [16, 128, 8, 8]           --
│    └─OutputShiftSqueeze: 2-1035        --                        --
│    └─One: 2-1036                       [1]                       --
│    └─OutputScale: 2-1037               --                        --
│    └─Empty: 2-1038                     [16, 128, 3, 3]           --
│    └─Empty: 2-1039                     [16, 128, 3, 3]           --
│    └─Empty: 2-1040                     [16]                      --
│    └─Empty: 2-1041                     [16]                      --
│    └─BatchNorm2d: 2-1042               [16, 16, 8, 8]            --
│    └─Scaler: 2-1043                    [16, 16, 8, 8]            --
│    └─ReLU: 2-1044                      [16, 16, 8, 8]            --
│    └─Empty: 2-1045                     [16, 16, 8, 8]            --
│    └─Clamp: 2-1046                     [16, 16, 8, 8]            --
├─Dropout2d: 1-105                       [16, 16, 8, 8]            --
├─FusedConv2dBNReLU: 1-106               [16, 128, 64, 64]         (recursive)
│    └─OutputShiftSqueeze: 2-1047        --                        --
│    └─One: 2-1048                       [1]                       --
│    └─OutputScale: 2-1049               --                        --
│    └─Empty: 2-1050                     [128, 48, 1, 1]           --
│    └─Empty: 2-1051                     [128, 48, 1, 1]           --
│    └─Empty: 2-1052                     [128]                     --
│    └─Empty: 2-1053                     [128]                     --
│    └─BatchNorm2d: 2-1054               [16, 128, 64, 64]         --
│    └─Scaler: 2-1055                    [16, 128, 64, 64]         --
│    └─ReLU: 2-1056                      [16, 128, 64, 64]         --
│    └─Empty: 2-1057                     [16, 128, 64, 64]         --
│    └─Clamp: 2-1058                     [16, 128, 64, 64]         --
├─FusedMaxPoolConv2dBNReLU: 1-107        [16, 128, 32, 32]         (recursive)
│    └─MaxPool2d: 2-1059                 [16, 128, 32, 32]         --
│    └─Empty: 2-1060                     [16, 128, 32, 32]         --
│    └─Empty: 2-1061                     [16, 128, 32, 32]         --
│    └─OutputShiftSqueeze: 2-1062        --                        --
│    └─One: 2-1063                       [1]                       --
│    └─OutputScale: 2-1064               --                        --
│    └─Empty: 2-1065                     [128, 128, 3, 3]          --
│    └─Empty: 2-1066                     [128, 128, 3, 3]          --
│    └─Empty: 2-1067                     [128]                     --
│    └─Empty: 2-1068                     [128]                     --
│    └─BatchNorm2d: 2-1069               [16, 128, 32, 32]         --
│    └─Scaler: 2-1070                    [16, 128, 32, 32]         --
│    └─ReLU: 2-1071                      [16, 128, 32, 32]         --
│    └─Empty: 2-1072                     [16, 128, 32, 32]         --
│    └─Clamp: 2-1073                     [16, 128, 32, 32]         --
├─Dropout2d: 1-108                       [16, 128, 32, 32]         --
├─FusedMaxPoolConv2dBNReLU: 1-109        [16, 128, 16, 16]         (recursive)
│    └─MaxPool2d: 2-1074                 [16, 128, 16, 16]         --
│    └─Empty: 2-1075                     [16, 128, 16, 16]         --
│    └─Empty: 2-1076                     [16, 128, 16, 16]         --
│    └─OutputShiftSqueeze: 2-1077        --                        --
│    └─One: 2-1078                       [1]                       --
│    └─OutputScale: 2-1079               --                        --
│    └─Empty: 2-1080                     [128, 128, 3, 3]          --
│    └─Empty: 2-1081                     [128, 128, 3, 3]          --
│    └─Empty: 2-1082                     [128]                     --
│    └─Empty: 2-1083                     [128]                     --
│    └─BatchNorm2d: 2-1084               [16, 128, 16, 16]         --
│    └─Scaler: 2-1085                    [16, 128, 16, 16]         --
│    └─ReLU: 2-1086                      [16, 128, 16, 16]         --
│    └─Empty: 2-1087                     [16, 128, 16, 16]         --
│    └─Clamp: 2-1088                     [16, 128, 16, 16]         --
├─FusedConv2dBNReLU: 1-110               [16, 128, 16, 16]         (recursive)
│    └─OutputShiftSqueeze: 2-1089        --                        --
│    └─One: 2-1090                       [1]                       --
│    └─OutputScale: 2-1091               --                        --
│    └─Empty: 2-1092                     [128, 128, 1, 1]          --
│    └─Empty: 2-1093                     [128, 128, 1, 1]          --
│    └─Empty: 2-1094                     [128]                     --
│    └─Empty: 2-1095                     [128]                     --
│    └─BatchNorm2d: 2-1096               [16, 128, 16, 16]         --
│    └─Scaler: 2-1097                    [16, 128, 16, 16]         --
│    └─ReLU: 2-1098                      [16, 128, 16, 16]         --
│    └─Empty: 2-1099                     [16, 128, 16, 16]         --
│    └─Clamp: 2-1100                     [16, 128, 16, 16]         --
├─FusedMaxPoolConv2dBNReLU: 1-111        [16, 128, 16, 16]         (recursive)
│    └─MaxPool2d: 2-1101                 [16, 128, 16, 16]         --
│    └─Empty: 2-1102                     [16, 128, 16, 16]         --
│    └─Empty: 2-1103                     [16, 128, 16, 16]         --
│    └─OutputShiftSqueeze: 2-1104        --                        --
│    └─One: 2-1105                       [1]                       --
│    └─OutputScale: 2-1106               --                        --
│    └─Empty: 2-1107                     [128, 128, 3, 3]          --
│    └─Empty: 2-1108                     [128, 128, 3, 3]          --
│    └─Empty: 2-1109                     [128]                     --
│    └─Empty: 2-1110                     [128]                     --
│    └─BatchNorm2d: 2-1111               [16, 128, 16, 16]         --
│    └─Scaler: 2-1112                    [16, 128, 16, 16]         --
│    └─ReLU: 2-1113                      [16, 128, 16, 16]         --
│    └─Empty: 2-1114                     [16, 128, 16, 16]         --
│    └─Clamp: 2-1115                     [16, 128, 16, 16]         --
├─Dropout2d: 1-112                       [16, 128, 16, 16]         --
├─FusedMaxPoolConv2dBNReLU: 1-113        [16, 128, 8, 8]           (recursive)
│    └─MaxPool2d: 2-1116                 [16, 128, 8, 8]           --
│    └─Empty: 2-1117                     [16, 128, 8, 8]           --
│    └─Empty: 2-1118                     [16, 128, 8, 8]           --
│    └─OutputShiftSqueeze: 2-1119        --                        --
│    └─One: 2-1120                       [1]                       --
│    └─OutputScale: 2-1121               --                        --
│    └─Empty: 2-1122                     [128, 128, 3, 3]          --
│    └─Empty: 2-1123                     [128, 128, 3, 3]          --
│    └─Empty: 2-1124                     [128]                     --
│    └─Empty: 2-1125                     [128]                     --
│    └─BatchNorm2d: 2-1126               [16, 128, 8, 8]           --
│    └─Scaler: 2-1127                    [16, 128, 8, 8]           --
│    └─ReLU: 2-1128                      [16, 128, 8, 8]           --
│    └─Empty: 2-1129                     [16, 128, 8, 8]           --
│    └─Clamp: 2-1130                     [16, 128, 8, 8]           --
├─FusedConv2dBNReLU: 1-114               [16, 16, 8, 8]            (recursive)
│    └─OutputShiftSqueeze: 2-1131        --                        --
│    └─One: 2-1132                       [1]                       --
│    └─OutputScale: 2-1133               --                        --
│    └─Empty: 2-1134                     [16, 128, 1, 1]           --
│    └─Empty: 2-1135                     [16, 128, 1, 1]           --
│    └─Empty: 2-1136                     [16]                      --
│    └─Empty: 2-1137                     [16]                      --
│    └─BatchNorm2d: 2-1138               [16, 16, 8, 8]            --
│    └─Scaler: 2-1139                    [16, 16, 8, 8]            --
│    └─ReLU: 2-1140                      [16, 16, 8, 8]            --
│    └─Empty: 2-1141                     [16, 16, 8, 8]            --
│    └─Clamp: 2-1142                     [16, 16, 8, 8]            --
├─FusedMaxPoolConv2dBNReLU: 1-115        [16, 16, 8, 8]            (recursive)
│    └─MaxPool2d: 2-1143                 [16, 128, 8, 8]           --
│    └─Empty: 2-1144                     [16, 128, 8, 8]           --
│    └─Empty: 2-1145                     [16, 128, 8, 8]           --
│    └─OutputShiftSqueeze: 2-1146        --                        --
│    └─One: 2-1147                       [1]                       --
│    └─OutputScale: 2-1148               --                        --
│    └─Empty: 2-1149                     [16, 128, 3, 3]           --
│    └─Empty: 2-1150                     [16, 128, 3, 3]           --
│    └─Empty: 2-1151                     [16]                      --
│    └─Empty: 2-1152                     [16]                      --
│    └─BatchNorm2d: 2-1153               [16, 16, 8, 8]            --
│    └─Scaler: 2-1154                    [16, 16, 8, 8]            --
│    └─ReLU: 2-1155                      [16, 16, 8, 8]            --
│    └─Empty: 2-1156                     [16, 16, 8, 8]            --
│    └─Clamp: 2-1157                     [16, 16, 8, 8]            --
├─Dropout2d: 1-116                       [16, 16, 8, 8]            --
├─FusedConv2dBNReLU: 1-117               [16, 128, 64, 64]         (recursive)
│    └─OutputShiftSqueeze: 2-1158        --                        --
│    └─One: 2-1159                       [1]                       --
│    └─OutputScale: 2-1160               --                        --
│    └─Empty: 2-1161                     [128, 48, 1, 1]           --
│    └─Empty: 2-1162                     [128, 48, 1, 1]           --
│    └─Empty: 2-1163                     [128]                     --
│    └─Empty: 2-1164                     [128]                     --
│    └─BatchNorm2d: 2-1165               [16, 128, 64, 64]         --
│    └─Scaler: 2-1166                    [16, 128, 64, 64]         --
│    └─ReLU: 2-1167                      [16, 128, 64, 64]         --
│    └─Empty: 2-1168                     [16, 128, 64, 64]         --
│    └─Clamp: 2-1169                     [16, 128, 64, 64]         --
├─FusedMaxPoolConv2dBNReLU: 1-118        [16, 128, 32, 32]         (recursive)
│    └─MaxPool2d: 2-1170                 [16, 128, 32, 32]         --
│    └─Empty: 2-1171                     [16, 128, 32, 32]         --
│    └─Empty: 2-1172                     [16, 128, 32, 32]         --
│    └─OutputShiftSqueeze: 2-1173        --                        --
│    └─One: 2-1174                       [1]                       --
│    └─OutputScale: 2-1175               --                        --
│    └─Empty: 2-1176                     [128, 128, 3, 3]          --
│    └─Empty: 2-1177                     [128, 128, 3, 3]          --
│    └─Empty: 2-1178                     [128]                     --
│    └─Empty: 2-1179                     [128]                     --
│    └─BatchNorm2d: 2-1180               [16, 128, 32, 32]         --
│    └─Scaler: 2-1181                    [16, 128, 32, 32]         --
│    └─ReLU: 2-1182                      [16, 128, 32, 32]         --
│    └─Empty: 2-1183                     [16, 128, 32, 32]         --
│    └─Clamp: 2-1184                     [16, 128, 32, 32]         --
├─Dropout2d: 1-119                       [16, 128, 32, 32]         --
├─FusedMaxPoolConv2dBNReLU: 1-120        [16, 128, 16, 16]         (recursive)
│    └─MaxPool2d: 2-1185                 [16, 128, 16, 16]         --
│    └─Empty: 2-1186                     [16, 128, 16, 16]         --
│    └─Empty: 2-1187                     [16, 128, 16, 16]         --
│    └─OutputShiftSqueeze: 2-1188        --                        --
│    └─One: 2-1189                       [1]                       --
│    └─OutputScale: 2-1190               --                        --
│    └─Empty: 2-1191                     [128, 128, 3, 3]          --
│    └─Empty: 2-1192                     [128, 128, 3, 3]          --
│    └─Empty: 2-1193                     [128]                     --
│    └─Empty: 2-1194                     [128]                     --
│    └─BatchNorm2d: 2-1195               [16, 128, 16, 16]         --
│    └─Scaler: 2-1196                    [16, 128, 16, 16]         --
│    └─ReLU: 2-1197                      [16, 128, 16, 16]         --
│    └─Empty: 2-1198                     [16, 128, 16, 16]         --
│    └─Clamp: 2-1199                     [16, 128, 16, 16]         --
├─FusedConv2dBNReLU: 1-121               [16, 128, 16, 16]         (recursive)
│    └─OutputShiftSqueeze: 2-1200        --                        --
│    └─One: 2-1201                       [1]                       --
│    └─OutputScale: 2-1202               --                        --
│    └─Empty: 2-1203                     [128, 128, 1, 1]          --
│    └─Empty: 2-1204                     [128, 128, 1, 1]          --
│    └─Empty: 2-1205                     [128]                     --
│    └─Empty: 2-1206                     [128]                     --
│    └─BatchNorm2d: 2-1207               [16, 128, 16, 16]         --
│    └─Scaler: 2-1208                    [16, 128, 16, 16]         --
│    └─ReLU: 2-1209                      [16, 128, 16, 16]         --
│    └─Empty: 2-1210                     [16, 128, 16, 16]         --
│    └─Clamp: 2-1211                     [16, 128, 16, 16]         --
├─FusedMaxPoolConv2dBNReLU: 1-122        [16, 128, 16, 16]         (recursive)
│    └─MaxPool2d: 2-1212                 [16, 128, 16, 16]         --
│    └─Empty: 2-1213                     [16, 128, 16, 16]         --
│    └─Empty: 2-1214                     [16, 128, 16, 16]         --
│    └─OutputShiftSqueeze: 2-1215        --                        --
│    └─One: 2-1216                       [1]                       --
│    └─OutputScale: 2-1217               --                        --
│    └─Empty: 2-1218                     [128, 128, 3, 3]          --
│    └─Empty: 2-1219                     [128, 128, 3, 3]          --
│    └─Empty: 2-1220                     [128]                     --
│    └─Empty: 2-1221                     [128]                     --
│    └─BatchNorm2d: 2-1222               [16, 128, 16, 16]         --
│    └─Scaler: 2-1223                    [16, 128, 16, 16]         --
│    └─ReLU: 2-1224                      [16, 128, 16, 16]         --
│    └─Empty: 2-1225                     [16, 128, 16, 16]         --
│    └─Clamp: 2-1226                     [16, 128, 16, 16]         --
├─Dropout2d: 1-123                       [16, 128, 16, 16]         --
├─FusedMaxPoolConv2dBNReLU: 1-124        [16, 128, 8, 8]           (recursive)
│    └─MaxPool2d: 2-1227                 [16, 128, 8, 8]           --
│    └─Empty: 2-1228                     [16, 128, 8, 8]           --
│    └─Empty: 2-1229                     [16, 128, 8, 8]           --
│    └─OutputShiftSqueeze: 2-1230        --                        --
│    └─One: 2-1231                       [1]                       --
│    └─OutputScale: 2-1232               --                        --
│    └─Empty: 2-1233                     [128, 128, 3, 3]          --
│    └─Empty: 2-1234                     [128, 128, 3, 3]          --
│    └─Empty: 2-1235                     [128]                     --
│    └─Empty: 2-1236                     [128]                     --
│    └─BatchNorm2d: 2-1237               [16, 128, 8, 8]           --
│    └─Scaler: 2-1238                    [16, 128, 8, 8]           --
│    └─ReLU: 2-1239                      [16, 128, 8, 8]           --
│    └─Empty: 2-1240                     [16, 128, 8, 8]           --
│    └─Clamp: 2-1241                     [16, 128, 8, 8]           --
├─FusedConv2dBNReLU: 1-125               [16, 16, 8, 8]            (recursive)
│    └─OutputShiftSqueeze: 2-1242        --                        --
│    └─One: 2-1243                       [1]                       --
│    └─OutputScale: 2-1244               --                        --
│    └─Empty: 2-1245                     [16, 128, 1, 1]           --
│    └─Empty: 2-1246                     [16, 128, 1, 1]           --
│    └─Empty: 2-1247                     [16]                      --
│    └─Empty: 2-1248                     [16]                      --
│    └─BatchNorm2d: 2-1249               [16, 16, 8, 8]            --
│    └─Scaler: 2-1250                    [16, 16, 8, 8]            --
│    └─ReLU: 2-1251                      [16, 16, 8, 8]            --
│    └─Empty: 2-1252                     [16, 16, 8, 8]            --
│    └─Clamp: 2-1253                     [16, 16, 8, 8]            --
├─FusedMaxPoolConv2dBNReLU: 1-126        [16, 16, 8, 8]            (recursive)
│    └─MaxPool2d: 2-1254                 [16, 128, 8, 8]           --
│    └─Empty: 2-1255                     [16, 128, 8, 8]           --
│    └─Empty: 2-1256                     [16, 128, 8, 8]           --
│    └─OutputShiftSqueeze: 2-1257        --                        --
│    └─One: 2-1258                       [1]                       --
│    └─OutputScale: 2-1259               --                        --
│    └─Empty: 2-1260                     [16, 128, 3, 3]           --
│    └─Empty: 2-1261                     [16, 128, 3, 3]           --
│    └─Empty: 2-1262                     [16]                      --
│    └─Empty: 2-1263                     [16]                      --
│    └─BatchNorm2d: 2-1264               [16, 16, 8, 8]            --
│    └─Scaler: 2-1265                    [16, 16, 8, 8]            --
│    └─ReLU: 2-1266                      [16, 16, 8, 8]            --
│    └─Empty: 2-1267                     [16, 16, 8, 8]            --
│    └─Clamp: 2-1268                     [16, 16, 8, 8]            --
├─Dropout2d: 1-127                       [16, 16, 8, 8]            --
├─FusedConv2dBNReLU: 1-128               [16, 128, 64, 64]         (recursive)
│    └─OutputShiftSqueeze: 2-1269        --                        --
│    └─One: 2-1270                       [1]                       --
│    └─OutputScale: 2-1271               --                        --
│    └─Empty: 2-1272                     [128, 48, 1, 1]           --
│    └─Empty: 2-1273                     [128, 48, 1, 1]           --
│    └─Empty: 2-1274                     [128]                     --
│    └─Empty: 2-1275                     [128]                     --
│    └─BatchNorm2d: 2-1276               [16, 128, 64, 64]         --
│    └─Scaler: 2-1277                    [16, 128, 64, 64]         --
│    └─ReLU: 2-1278                      [16, 128, 64, 64]         --
│    └─Empty: 2-1279                     [16, 128, 64, 64]         --
│    └─Clamp: 2-1280                     [16, 128, 64, 64]         --
├─FusedMaxPoolConv2dBNReLU: 1-129        [16, 128, 32, 32]         (recursive)
│    └─MaxPool2d: 2-1281                 [16, 128, 32, 32]         --
│    └─Empty: 2-1282                     [16, 128, 32, 32]         --
│    └─Empty: 2-1283                     [16, 128, 32, 32]         --
│    └─OutputShiftSqueeze: 2-1284        --                        --
│    └─One: 2-1285                       [1]                       --
│    └─OutputScale: 2-1286               --                        --
│    └─Empty: 2-1287                     [128, 128, 3, 3]          --
│    └─Empty: 2-1288                     [128, 128, 3, 3]          --
│    └─Empty: 2-1289                     [128]                     --
│    └─Empty: 2-1290                     [128]                     --
│    └─BatchNorm2d: 2-1291               [16, 128, 32, 32]         --
│    └─Scaler: 2-1292                    [16, 128, 32, 32]         --
│    └─ReLU: 2-1293                      [16, 128, 32, 32]         --
│    └─Empty: 2-1294                     [16, 128, 32, 32]         --
│    └─Clamp: 2-1295                     [16, 128, 32, 32]         --
├─Dropout2d: 1-130                       [16, 128, 32, 32]         --
├─FusedMaxPoolConv2dBNReLU: 1-131        [16, 128, 16, 16]         (recursive)
│    └─MaxPool2d: 2-1296                 [16, 128, 16, 16]         --
│    └─Empty: 2-1297                     [16, 128, 16, 16]         --
│    └─Empty: 2-1298                     [16, 128, 16, 16]         --
│    └─OutputShiftSqueeze: 2-1299        --                        --
│    └─One: 2-1300                       [1]                       --
│    └─OutputScale: 2-1301               --                        --
│    └─Empty: 2-1302                     [128, 128, 3, 3]          --
│    └─Empty: 2-1303                     [128, 128, 3, 3]          --
│    └─Empty: 2-1304                     [128]                     --
│    └─Empty: 2-1305                     [128]                     --
│    └─BatchNorm2d: 2-1306               [16, 128, 16, 16]         --
│    └─Scaler: 2-1307                    [16, 128, 16, 16]         --
│    └─ReLU: 2-1308                      [16, 128, 16, 16]         --
│    └─Empty: 2-1309                     [16, 128, 16, 16]         --
│    └─Clamp: 2-1310                     [16, 128, 16, 16]         --
├─FusedConv2dBNReLU: 1-132               [16, 128, 16, 16]         (recursive)
│    └─OutputShiftSqueeze: 2-1311        --                        --
│    └─One: 2-1312                       [1]                       --
│    └─OutputScale: 2-1313               --                        --
│    └─Empty: 2-1314                     [128, 128, 1, 1]          --
│    └─Empty: 2-1315                     [128, 128, 1, 1]          --
│    └─Empty: 2-1316                     [128]                     --
│    └─Empty: 2-1317                     [128]                     --
│    └─BatchNorm2d: 2-1318               [16, 128, 16, 16]         --
│    └─Scaler: 2-1319                    [16, 128, 16, 16]         --
│    └─ReLU: 2-1320                      [16, 128, 16, 16]         --
│    └─Empty: 2-1321                     [16, 128, 16, 16]         --
│    └─Clamp: 2-1322                     [16, 128, 16, 16]         --
├─FusedMaxPoolConv2dBNReLU: 1-133        [16, 128, 16, 16]         (recursive)
│    └─MaxPool2d: 2-1323                 [16, 128, 16, 16]         --
│    └─Empty: 2-1324                     [16, 128, 16, 16]         --
│    └─Empty: 2-1325                     [16, 128, 16, 16]         --
│    └─OutputShiftSqueeze: 2-1326        --                        --
│    └─One: 2-1327                       [1]                       --
│    └─OutputScale: 2-1328               --                        --
│    └─Empty: 2-1329                     [128, 128, 3, 3]          --
│    └─Empty: 2-1330                     [128, 128, 3, 3]          --
│    └─Empty: 2-1331                     [128]                     --
│    └─Empty: 2-1332                     [128]                     --
│    └─BatchNorm2d: 2-1333               [16, 128, 16, 16]         --
│    └─Scaler: 2-1334                    [16, 128, 16, 16]         --
│    └─ReLU: 2-1335                      [16, 128, 16, 16]         --
│    └─Empty: 2-1336                     [16, 128, 16, 16]         --
│    └─Clamp: 2-1337                     [16, 128, 16, 16]         --
├─Dropout2d: 1-134                       [16, 128, 16, 16]         --
├─FusedMaxPoolConv2dBNReLU: 1-135        [16, 128, 8, 8]           (recursive)
│    └─MaxPool2d: 2-1338                 [16, 128, 8, 8]           --
│    └─Empty: 2-1339                     [16, 128, 8, 8]           --
│    └─Empty: 2-1340                     [16, 128, 8, 8]           --
│    └─OutputShiftSqueeze: 2-1341        --                        --
│    └─One: 2-1342                       [1]                       --
│    └─OutputScale: 2-1343               --                        --
│    └─Empty: 2-1344                     [128, 128, 3, 3]          --
│    └─Empty: 2-1345                     [128, 128, 3, 3]          --
│    └─Empty: 2-1346                     [128]                     --
│    └─Empty: 2-1347                     [128]                     --
│    └─BatchNorm2d: 2-1348               [16, 128, 8, 8]           --
│    └─Scaler: 2-1349                    [16, 128, 8, 8]           --
│    └─ReLU: 2-1350                      [16, 128, 8, 8]           --
│    └─Empty: 2-1351                     [16, 128, 8, 8]           --
│    └─Clamp: 2-1352                     [16, 128, 8, 8]           --
├─FusedConv2dBNReLU: 1-136               [16, 16, 8, 8]            (recursive)
│    └─OutputShiftSqueeze: 2-1353        --                        --
│    └─One: 2-1354                       [1]                       --
│    └─OutputScale: 2-1355               --                        --
│    └─Empty: 2-1356                     [16, 128, 1, 1]           --
│    └─Empty: 2-1357                     [16, 128, 1, 1]           --
│    └─Empty: 2-1358                     [16]                      --
│    └─Empty: 2-1359                     [16]                      --
│    └─BatchNorm2d: 2-1360               [16, 16, 8, 8]            --
│    └─Scaler: 2-1361                    [16, 16, 8, 8]            --
│    └─ReLU: 2-1362                      [16, 16, 8, 8]            --
│    └─Empty: 2-1363                     [16, 16, 8, 8]            --
│    └─Clamp: 2-1364                     [16, 16, 8, 8]            --
├─FusedMaxPoolConv2dBNReLU: 1-137        [16, 16, 8, 8]            (recursive)
│    └─MaxPool2d: 2-1365                 [16, 128, 8, 8]           --
│    └─Empty: 2-1366                     [16, 128, 8, 8]           --
│    └─Empty: 2-1367                     [16, 128, 8, 8]           --
│    └─OutputShiftSqueeze: 2-1368        --                        --
│    └─One: 2-1369                       [1]                       --
│    └─OutputScale: 2-1370               --                        --
│    └─Empty: 2-1371                     [16, 128, 3, 3]           --
│    └─Empty: 2-1372                     [16, 128, 3, 3]           --
│    └─Empty: 2-1373                     [16]                      --
│    └─Empty: 2-1374                     [16]                      --
│    └─BatchNorm2d: 2-1375               [16, 16, 8, 8]            --
│    └─Scaler: 2-1376                    [16, 16, 8, 8]            --
│    └─ReLU: 2-1377                      [16, 16, 8, 8]            --
│    └─Empty: 2-1378                     [16, 16, 8, 8]            --
│    └─Clamp: 2-1379                     [16, 16, 8, 8]            --
├─Dropout2d: 1-138                       [16, 16, 8, 8]            --
├─FusedConv2dBNReLU: 1-139               [16, 128, 64, 64]         (recursive)
│    └─OutputShiftSqueeze: 2-1380        --                        --
│    └─One: 2-1381                       [1]                       --
│    └─OutputScale: 2-1382               --                        --
│    └─Empty: 2-1383                     [128, 48, 1, 1]           --
│    └─Empty: 2-1384                     [128, 48, 1, 1]           --
│    └─Empty: 2-1385                     [128]                     --
│    └─Empty: 2-1386                     [128]                     --
│    └─BatchNorm2d: 2-1387               [16, 128, 64, 64]         --
│    └─Scaler: 2-1388                    [16, 128, 64, 64]         --
│    └─ReLU: 2-1389                      [16, 128, 64, 64]         --
│    └─Empty: 2-1390                     [16, 128, 64, 64]         --
│    └─Clamp: 2-1391                     [16, 128, 64, 64]         --
├─FusedMaxPoolConv2dBNReLU: 1-140        [16, 128, 32, 32]         (recursive)
│    └─MaxPool2d: 2-1392                 [16, 128, 32, 32]         --
│    └─Empty: 2-1393                     [16, 128, 32, 32]         --
│    └─Empty: 2-1394                     [16, 128, 32, 32]         --
│    └─OutputShiftSqueeze: 2-1395        --                        --
│    └─One: 2-1396                       [1]                       --
│    └─OutputScale: 2-1397               --                        --
│    └─Empty: 2-1398                     [128, 128, 3, 3]          --
│    └─Empty: 2-1399                     [128, 128, 3, 3]          --
│    └─Empty: 2-1400                     [128]                     --
│    └─Empty: 2-1401                     [128]                     --
│    └─BatchNorm2d: 2-1402               [16, 128, 32, 32]         --
│    └─Scaler: 2-1403                    [16, 128, 32, 32]         --
│    └─ReLU: 2-1404                      [16, 128, 32, 32]         --
│    └─Empty: 2-1405                     [16, 128, 32, 32]         --
│    └─Clamp: 2-1406                     [16, 128, 32, 32]         --
├─Dropout2d: 1-141                       [16, 128, 32, 32]         --
├─FusedMaxPoolConv2dBNReLU: 1-142        [16, 128, 16, 16]         (recursive)
│    └─MaxPool2d: 2-1407                 [16, 128, 16, 16]         --
│    └─Empty: 2-1408                     [16, 128, 16, 16]         --
│    └─Empty: 2-1409                     [16, 128, 16, 16]         --
│    └─OutputShiftSqueeze: 2-1410        --                        --
│    └─One: 2-1411                       [1]                       --
│    └─OutputScale: 2-1412               --                        --
│    └─Empty: 2-1413                     [128, 128, 3, 3]          --
│    └─Empty: 2-1414                     [128, 128, 3, 3]          --
│    └─Empty: 2-1415                     [128]                     --
│    └─Empty: 2-1416                     [128]                     --
│    └─BatchNorm2d: 2-1417               [16, 128, 16, 16]         --
│    └─Scaler: 2-1418                    [16, 128, 16, 16]         --
│    └─ReLU: 2-1419                      [16, 128, 16, 16]         --
│    └─Empty: 2-1420                     [16, 128, 16, 16]         --
│    └─Clamp: 2-1421                     [16, 128, 16, 16]         --
├─FusedConv2dBNReLU: 1-143               [16, 128, 16, 16]         (recursive)
│    └─OutputShiftSqueeze: 2-1422        --                        --
│    └─One: 2-1423                       [1]                       --
│    └─OutputScale: 2-1424               --                        --
│    └─Empty: 2-1425                     [128, 128, 1, 1]          --
│    └─Empty: 2-1426                     [128, 128, 1, 1]          --
│    └─Empty: 2-1427                     [128]                     --
│    └─Empty: 2-1428                     [128]                     --
│    └─BatchNorm2d: 2-1429               [16, 128, 16, 16]         --
│    └─Scaler: 2-1430                    [16, 128, 16, 16]         --
│    └─ReLU: 2-1431                      [16, 128, 16, 16]         --
│    └─Empty: 2-1432                     [16, 128, 16, 16]         --
│    └─Clamp: 2-1433                     [16, 128, 16, 16]         --
├─FusedMaxPoolConv2dBNReLU: 1-144        [16, 128, 16, 16]         (recursive)
│    └─MaxPool2d: 2-1434                 [16, 128, 16, 16]         --
│    └─Empty: 2-1435                     [16, 128, 16, 16]         --
│    └─Empty: 2-1436                     [16, 128, 16, 16]         --
│    └─OutputShiftSqueeze: 2-1437        --                        --
│    └─One: 2-1438                       [1]                       --
│    └─OutputScale: 2-1439               --                        --
│    └─Empty: 2-1440                     [128, 128, 3, 3]          --
│    └─Empty: 2-1441                     [128, 128, 3, 3]          --
│    └─Empty: 2-1442                     [128]                     --
│    └─Empty: 2-1443                     [128]                     --
│    └─BatchNorm2d: 2-1444               [16, 128, 16, 16]         --
│    └─Scaler: 2-1445                    [16, 128, 16, 16]         --
│    └─ReLU: 2-1446                      [16, 128, 16, 16]         --
│    └─Empty: 2-1447                     [16, 128, 16, 16]         --
│    └─Clamp: 2-1448                     [16, 128, 16, 16]         --
├─Dropout2d: 1-145                       [16, 128, 16, 16]         --
├─FusedMaxPoolConv2dBNReLU: 1-146        [16, 128, 8, 8]           (recursive)
│    └─MaxPool2d: 2-1449                 [16, 128, 8, 8]           --
│    └─Empty: 2-1450                     [16, 128, 8, 8]           --
│    └─Empty: 2-1451                     [16, 128, 8, 8]           --
│    └─OutputShiftSqueeze: 2-1452        --                        --
│    └─One: 2-1453                       [1]                       --
│    └─OutputScale: 2-1454               --                        --
│    └─Empty: 2-1455                     [128, 128, 3, 3]          --
│    └─Empty: 2-1456                     [128, 128, 3, 3]          --
│    └─Empty: 2-1457                     [128]                     --
│    └─Empty: 2-1458                     [128]                     --
│    └─BatchNorm2d: 2-1459               [16, 128, 8, 8]           --
│    └─Scaler: 2-1460                    [16, 128, 8, 8]           --
│    └─ReLU: 2-1461                      [16, 128, 8, 8]           --
│    └─Empty: 2-1462                     [16, 128, 8, 8]           --
│    └─Clamp: 2-1463                     [16, 128, 8, 8]           --
├─FusedConv2dBNReLU: 1-147               [16, 16, 8, 8]            (recursive)
│    └─OutputShiftSqueeze: 2-1464        --                        --
│    └─One: 2-1465                       [1]                       --
│    └─OutputScale: 2-1466               --                        --
│    └─Empty: 2-1467                     [16, 128, 1, 1]           --
│    └─Empty: 2-1468                     [16, 128, 1, 1]           --
│    └─Empty: 2-1469                     [16]                      --
│    └─Empty: 2-1470                     [16]                      --
│    └─BatchNorm2d: 2-1471               [16, 16, 8, 8]            --
│    └─Scaler: 2-1472                    [16, 16, 8, 8]            --
│    └─ReLU: 2-1473                      [16, 16, 8, 8]            --
│    └─Empty: 2-1474                     [16, 16, 8, 8]            --
│    └─Clamp: 2-1475                     [16, 16, 8, 8]            --
├─FusedMaxPoolConv2dBNReLU: 1-148        [16, 16, 8, 8]            (recursive)
│    └─MaxPool2d: 2-1476                 [16, 128, 8, 8]           --
│    └─Empty: 2-1477                     [16, 128, 8, 8]           --
│    └─Empty: 2-1478                     [16, 128, 8, 8]           --
│    └─OutputShiftSqueeze: 2-1479        --                        --
│    └─One: 2-1480                       [1]                       --
│    └─OutputScale: 2-1481               --                        --
│    └─Empty: 2-1482                     [16, 128, 3, 3]           --
│    └─Empty: 2-1483                     [16, 128, 3, 3]           --
│    └─Empty: 2-1484                     [16]                      --
│    └─Empty: 2-1485                     [16]                      --
│    └─BatchNorm2d: 2-1486               [16, 16, 8, 8]            --
│    └─Scaler: 2-1487                    [16, 16, 8, 8]            --
│    └─ReLU: 2-1488                      [16, 16, 8, 8]            --
│    └─Empty: 2-1489                     [16, 16, 8, 8]            --
│    └─Clamp: 2-1490                     [16, 16, 8, 8]            --
├─Dropout2d: 1-149                       [16, 16, 8, 8]            --
├─FusedConv2dBNReLU: 1-150               [16, 128, 64, 64]         (recursive)
│    └─OutputShiftSqueeze: 2-1491        --                        --
│    └─One: 2-1492                       [1]                       --
│    └─OutputScale: 2-1493               --                        --
│    └─Empty: 2-1494                     [128, 48, 1, 1]           --
│    └─Empty: 2-1495                     [128, 48, 1, 1]           --
│    └─Empty: 2-1496                     [128]                     --
│    └─Empty: 2-1497                     [128]                     --
│    └─BatchNorm2d: 2-1498               [16, 128, 64, 64]         --
│    └─Scaler: 2-1499                    [16, 128, 64, 64]         --
│    └─ReLU: 2-1500                      [16, 128, 64, 64]         --
│    └─Empty: 2-1501                     [16, 128, 64, 64]         --
│    └─Clamp: 2-1502                     [16, 128, 64, 64]         --
├─FusedMaxPoolConv2dBNReLU: 1-151        [16, 128, 32, 32]         (recursive)
│    └─MaxPool2d: 2-1503                 [16, 128, 32, 32]         --
│    └─Empty: 2-1504                     [16, 128, 32, 32]         --
│    └─Empty: 2-1505                     [16, 128, 32, 32]         --
│    └─OutputShiftSqueeze: 2-1506        --                        --
│    └─One: 2-1507                       [1]                       --
│    └─OutputScale: 2-1508               --                        --
│    └─Empty: 2-1509                     [128, 128, 3, 3]          --
│    └─Empty: 2-1510                     [128, 128, 3, 3]          --
│    └─Empty: 2-1511                     [128]                     --
│    └─Empty: 2-1512                     [128]                     --
│    └─BatchNorm2d: 2-1513               [16, 128, 32, 32]         --
│    └─Scaler: 2-1514                    [16, 128, 32, 32]         --
│    └─ReLU: 2-1515                      [16, 128, 32, 32]         --
│    └─Empty: 2-1516                     [16, 128, 32, 32]         --
│    └─Clamp: 2-1517                     [16, 128, 32, 32]         --
├─Dropout2d: 1-152                       [16, 128, 32, 32]         --
├─FusedMaxPoolConv2dBNReLU: 1-153        [16, 128, 16, 16]         (recursive)
│    └─MaxPool2d: 2-1518                 [16, 128, 16, 16]         --
│    └─Empty: 2-1519                     [16, 128, 16, 16]         --
│    └─Empty: 2-1520                     [16, 128, 16, 16]         --
│    └─OutputShiftSqueeze: 2-1521        --                        --
│    └─One: 2-1522                       [1]                       --
│    └─OutputScale: 2-1523               --                        --
│    └─Empty: 2-1524                     [128, 128, 3, 3]          --
│    └─Empty: 2-1525                     [128, 128, 3, 3]          --
│    └─Empty: 2-1526                     [128]                     --
│    └─Empty: 2-1527                     [128]                     --
│    └─BatchNorm2d: 2-1528               [16, 128, 16, 16]         --
│    └─Scaler: 2-1529                    [16, 128, 16, 16]         --
│    └─ReLU: 2-1530                      [16, 128, 16, 16]         --
│    └─Empty: 2-1531                     [16, 128, 16, 16]         --
│    └─Clamp: 2-1532                     [16, 128, 16, 16]         --
├─FusedConv2dBNReLU: 1-154               [16, 128, 16, 16]         (recursive)
│    └─OutputShiftSqueeze: 2-1533        --                        --
│    └─One: 2-1534                       [1]                       --
│    └─OutputScale: 2-1535               --                        --
│    └─Empty: 2-1536                     [128, 128, 1, 1]          --
│    └─Empty: 2-1537                     [128, 128, 1, 1]          --
│    └─Empty: 2-1538                     [128]                     --
│    └─Empty: 2-1539                     [128]                     --
│    └─BatchNorm2d: 2-1540               [16, 128, 16, 16]         --
│    └─Scaler: 2-1541                    [16, 128, 16, 16]         --
│    └─ReLU: 2-1542                      [16, 128, 16, 16]         --
│    └─Empty: 2-1543                     [16, 128, 16, 16]         --
│    └─Clamp: 2-1544                     [16, 128, 16, 16]         --
├─FusedMaxPoolConv2dBNReLU: 1-155        [16, 128, 16, 16]         (recursive)
│    └─MaxPool2d: 2-1545                 [16, 128, 16, 16]         --
│    └─Empty: 2-1546                     [16, 128, 16, 16]         --
│    └─Empty: 2-1547                     [16, 128, 16, 16]         --
│    └─OutputShiftSqueeze: 2-1548        --                        --
│    └─One: 2-1549                       [1]                       --
│    └─OutputScale: 2-1550               --                        --
│    └─Empty: 2-1551                     [128, 128, 3, 3]          --
│    └─Empty: 2-1552                     [128, 128, 3, 3]          --
│    └─Empty: 2-1553                     [128]                     --
│    └─Empty: 2-1554                     [128]                     --
│    └─BatchNorm2d: 2-1555               [16, 128, 16, 16]         --
│    └─Scaler: 2-1556                    [16, 128, 16, 16]         --
│    └─ReLU: 2-1557                      [16, 128, 16, 16]         --
│    └─Empty: 2-1558                     [16, 128, 16, 16]         --
│    └─Clamp: 2-1559                     [16, 128, 16, 16]         --
├─Dropout2d: 1-156                       [16, 128, 16, 16]         --
├─FusedMaxPoolConv2dBNReLU: 1-157        [16, 128, 8, 8]           (recursive)
│    └─MaxPool2d: 2-1560                 [16, 128, 8, 8]           --
│    └─Empty: 2-1561                     [16, 128, 8, 8]           --
│    └─Empty: 2-1562                     [16, 128, 8, 8]           --
│    └─OutputShiftSqueeze: 2-1563        --                        --
│    └─One: 2-1564                       [1]                       --
│    └─OutputScale: 2-1565               --                        --
│    └─Empty: 2-1566                     [128, 128, 3, 3]          --
│    └─Empty: 2-1567                     [128, 128, 3, 3]          --
│    └─Empty: 2-1568                     [128]                     --
│    └─Empty: 2-1569                     [128]                     --
│    └─BatchNorm2d: 2-1570               [16, 128, 8, 8]           --
│    └─Scaler: 2-1571                    [16, 128, 8, 8]           --
│    └─ReLU: 2-1572                      [16, 128, 8, 8]           --
│    └─Empty: 2-1573                     [16, 128, 8, 8]           --
│    └─Clamp: 2-1574                     [16, 128, 8, 8]           --
├─FusedConv2dBNReLU: 1-158               [16, 16, 8, 8]            (recursive)
│    └─OutputShiftSqueeze: 2-1575        --                        --
│    └─One: 2-1576                       [1]                       --
│    └─OutputScale: 2-1577               --                        --
│    └─Empty: 2-1578                     [16, 128, 1, 1]           --
│    └─Empty: 2-1579                     [16, 128, 1, 1]           --
│    └─Empty: 2-1580                     [16]                      --
│    └─Empty: 2-1581                     [16]                      --
│    └─BatchNorm2d: 2-1582               [16, 16, 8, 8]            --
│    └─Scaler: 2-1583                    [16, 16, 8, 8]            --
│    └─ReLU: 2-1584                      [16, 16, 8, 8]            --
│    └─Empty: 2-1585                     [16, 16, 8, 8]            --
│    └─Clamp: 2-1586                     [16, 16, 8, 8]            --
├─FusedMaxPoolConv2dBNReLU: 1-159        [16, 16, 8, 8]            (recursive)
│    └─MaxPool2d: 2-1587                 [16, 128, 8, 8]           --
│    └─Empty: 2-1588                     [16, 128, 8, 8]           --
│    └─Empty: 2-1589                     [16, 128, 8, 8]           --
│    └─OutputShiftSqueeze: 2-1590        --                        --
│    └─One: 2-1591                       [1]                       --
│    └─OutputScale: 2-1592               --                        --
│    └─Empty: 2-1593                     [16, 128, 3, 3]           --
│    └─Empty: 2-1594                     [16, 128, 3, 3]           --
│    └─Empty: 2-1595                     [16]                      --
│    └─Empty: 2-1596                     [16]                      --
│    └─BatchNorm2d: 2-1597               [16, 16, 8, 8]            --
│    └─Scaler: 2-1598                    [16, 16, 8, 8]            --
│    └─ReLU: 2-1599                      [16, 16, 8, 8]            --
│    └─Empty: 2-1600                     [16, 16, 8, 8]            --
│    └─Clamp: 2-1601                     [16, 16, 8, 8]            --
├─Dropout2d: 1-160                       [16, 16, 8, 8]            --
├─FusedConv2dBNReLU: 1-161               [16, 128, 64, 64]         (recursive)
│    └─OutputShiftSqueeze: 2-1602        --                        --
│    └─One: 2-1603                       [1]                       --
│    └─OutputScale: 2-1604               --                        --
│    └─Empty: 2-1605                     [128, 48, 1, 1]           --
│    └─Empty: 2-1606                     [128, 48, 1, 1]           --
│    └─Empty: 2-1607                     [128]                     --
│    └─Empty: 2-1608                     [128]                     --
│    └─BatchNorm2d: 2-1609               [16, 128, 64, 64]         --
│    └─Scaler: 2-1610                    [16, 128, 64, 64]         --
│    └─ReLU: 2-1611                      [16, 128, 64, 64]         --
│    └─Empty: 2-1612                     [16, 128, 64, 64]         --
│    └─Clamp: 2-1613                     [16, 128, 64, 64]         --
├─FusedMaxPoolConv2dBNReLU: 1-162        [16, 128, 32, 32]         (recursive)
│    └─MaxPool2d: 2-1614                 [16, 128, 32, 32]         --
│    └─Empty: 2-1615                     [16, 128, 32, 32]         --
│    └─Empty: 2-1616                     [16, 128, 32, 32]         --
│    └─OutputShiftSqueeze: 2-1617        --                        --
│    └─One: 2-1618                       [1]                       --
│    └─OutputScale: 2-1619               --                        --
│    └─Empty: 2-1620                     [128, 128, 3, 3]          --
│    └─Empty: 2-1621                     [128, 128, 3, 3]          --
│    └─Empty: 2-1622                     [128]                     --
│    └─Empty: 2-1623                     [128]                     --
│    └─BatchNorm2d: 2-1624               [16, 128, 32, 32]         --
│    └─Scaler: 2-1625                    [16, 128, 32, 32]         --
│    └─ReLU: 2-1626                      [16, 128, 32, 32]         --
│    └─Empty: 2-1627                     [16, 128, 32, 32]         --
│    └─Clamp: 2-1628                     [16, 128, 32, 32]         --
├─Dropout2d: 1-163                       [16, 128, 32, 32]         --
├─FusedMaxPoolConv2dBNReLU: 1-164        [16, 128, 16, 16]         (recursive)
│    └─MaxPool2d: 2-1629                 [16, 128, 16, 16]         --
│    └─Empty: 2-1630                     [16, 128, 16, 16]         --
│    └─Empty: 2-1631                     [16, 128, 16, 16]         --
│    └─OutputShiftSqueeze: 2-1632        --                        --
│    └─One: 2-1633                       [1]                       --
│    └─OutputScale: 2-1634               --                        --
│    └─Empty: 2-1635                     [128, 128, 3, 3]          --
│    └─Empty: 2-1636                     [128, 128, 3, 3]          --
│    └─Empty: 2-1637                     [128]                     --
│    └─Empty: 2-1638                     [128]                     --
│    └─BatchNorm2d: 2-1639               [16, 128, 16, 16]         --
│    └─Scaler: 2-1640                    [16, 128, 16, 16]         --
│    └─ReLU: 2-1641                      [16, 128, 16, 16]         --
│    └─Empty: 2-1642                     [16, 128, 16, 16]         --
│    └─Clamp: 2-1643                     [16, 128, 16, 16]         --
├─FusedConv2dBNReLU: 1-165               [16, 128, 16, 16]         (recursive)
│    └─OutputShiftSqueeze: 2-1644        --                        --
│    └─One: 2-1645                       [1]                       --
│    └─OutputScale: 2-1646               --                        --
│    └─Empty: 2-1647                     [128, 128, 1, 1]          --
│    └─Empty: 2-1648                     [128, 128, 1, 1]          --
│    └─Empty: 2-1649                     [128]                     --
│    └─Empty: 2-1650                     [128]                     --
│    └─BatchNorm2d: 2-1651               [16, 128, 16, 16]         --
│    └─Scaler: 2-1652                    [16, 128, 16, 16]         --
│    └─ReLU: 2-1653                      [16, 128, 16, 16]         --
│    └─Empty: 2-1654                     [16, 128, 16, 16]         --
│    └─Clamp: 2-1655                     [16, 128, 16, 16]         --
├─FusedMaxPoolConv2dBNReLU: 1-166        [16, 128, 16, 16]         (recursive)
│    └─MaxPool2d: 2-1656                 [16, 128, 16, 16]         --
│    └─Empty: 2-1657                     [16, 128, 16, 16]         --
│    └─Empty: 2-1658                     [16, 128, 16, 16]         --
│    └─OutputShiftSqueeze: 2-1659        --                        --
│    └─One: 2-1660                       [1]                       --
│    └─OutputScale: 2-1661               --                        --
│    └─Empty: 2-1662                     [128, 128, 3, 3]          --
│    └─Empty: 2-1663                     [128, 128, 3, 3]          --
│    └─Empty: 2-1664                     [128]                     --
│    └─Empty: 2-1665                     [128]                     --
│    └─BatchNorm2d: 2-1666               [16, 128, 16, 16]         --
│    └─Scaler: 2-1667                    [16, 128, 16, 16]         --
│    └─ReLU: 2-1668                      [16, 128, 16, 16]         --
│    └─Empty: 2-1669                     [16, 128, 16, 16]         --
│    └─Clamp: 2-1670                     [16, 128, 16, 16]         --
├─Dropout2d: 1-167                       [16, 128, 16, 16]         --
├─FusedMaxPoolConv2dBNReLU: 1-168        [16, 128, 8, 8]           (recursive)
│    └─MaxPool2d: 2-1671                 [16, 128, 8, 8]           --
│    └─Empty: 2-1672                     [16, 128, 8, 8]           --
│    └─Empty: 2-1673                     [16, 128, 8, 8]           --
│    └─OutputShiftSqueeze: 2-1674        --                        --
│    └─One: 2-1675                       [1]                       --
│    └─OutputScale: 2-1676               --                        --
│    └─Empty: 2-1677                     [128, 128, 3, 3]          --
│    └─Empty: 2-1678                     [128, 128, 3, 3]          --
│    └─Empty: 2-1679                     [128]                     --
│    └─Empty: 2-1680                     [128]                     --
│    └─BatchNorm2d: 2-1681               [16, 128, 8, 8]           --
│    └─Scaler: 2-1682                    [16, 128, 8, 8]           --
│    └─ReLU: 2-1683                      [16, 128, 8, 8]           --
│    └─Empty: 2-1684                     [16, 128, 8, 8]           --
│    └─Clamp: 2-1685                     [16, 128, 8, 8]           --
├─FusedConv2dBNReLU: 1-169               [16, 16, 8, 8]            (recursive)
│    └─OutputShiftSqueeze: 2-1686        --                        --
│    └─One: 2-1687                       [1]                       --
│    └─OutputScale: 2-1688               --                        --
│    └─Empty: 2-1689                     [16, 128, 1, 1]           --
│    └─Empty: 2-1690                     [16, 128, 1, 1]           --
│    └─Empty: 2-1691                     [16]                      --
│    └─Empty: 2-1692                     [16]                      --
│    └─BatchNorm2d: 2-1693               [16, 16, 8, 8]            --
│    └─Scaler: 2-1694                    [16, 16, 8, 8]            --
│    └─ReLU: 2-1695                      [16, 16, 8, 8]            --
│    └─Empty: 2-1696                     [16, 16, 8, 8]            --
│    └─Clamp: 2-1697                     [16, 16, 8, 8]            --
├─FusedMaxPoolConv2dBNReLU: 1-170        [16, 16, 8, 8]            (recursive)
│    └─MaxPool2d: 2-1698                 [16, 128, 8, 8]           --
│    └─Empty: 2-1699                     [16, 128, 8, 8]           --
│    └─Empty: 2-1700                     [16, 128, 8, 8]           --
│    └─OutputShiftSqueeze: 2-1701        --                        --
│    └─One: 2-1702                       [1]                       --
│    └─OutputScale: 2-1703               --                        --
│    └─Empty: 2-1704                     [16, 128, 3, 3]           --
│    └─Empty: 2-1705                     [16, 128, 3, 3]           --
│    └─Empty: 2-1706                     [16]                      --
│    └─Empty: 2-1707                     [16]                      --
│    └─BatchNorm2d: 2-1708               [16, 16, 8, 8]            --
│    └─Scaler: 2-1709                    [16, 16, 8, 8]            --
│    └─ReLU: 2-1710                      [16, 16, 8, 8]            --
│    └─Empty: 2-1711                     [16, 16, 8, 8]            --
│    └─Clamp: 2-1712                     [16, 16, 8, 8]            --
├─Dropout2d: 1-171                       [16, 16, 8, 8]            --
├─FusedConv2dBNReLU: 1-172               [16, 128, 64, 64]         (recursive)
│    └─OutputShiftSqueeze: 2-1713        --                        --
│    └─One: 2-1714                       [1]                       --
│    └─OutputScale: 2-1715               --                        --
│    └─Empty: 2-1716                     [128, 48, 1, 1]           --
│    └─Empty: 2-1717                     [128, 48, 1, 1]           --
│    └─Empty: 2-1718                     [128]                     --
│    └─Empty: 2-1719                     [128]                     --
│    └─BatchNorm2d: 2-1720               [16, 128, 64, 64]         --
│    └─Scaler: 2-1721                    [16, 128, 64, 64]         --
│    └─ReLU: 2-1722                      [16, 128, 64, 64]         --
│    └─Empty: 2-1723                     [16, 128, 64, 64]         --
│    └─Clamp: 2-1724                     [16, 128, 64, 64]         --
├─FusedMaxPoolConv2dBNReLU: 1-173        [16, 128, 32, 32]         (recursive)
│    └─MaxPool2d: 2-1725                 [16, 128, 32, 32]         --
│    └─Empty: 2-1726                     [16, 128, 32, 32]         --
│    └─Empty: 2-1727                     [16, 128, 32, 32]         --
│    └─OutputShiftSqueeze: 2-1728        --                        --
│    └─One: 2-1729                       [1]                       --
│    └─OutputScale: 2-1730               --                        --
│    └─Empty: 2-1731                     [128, 128, 3, 3]          --
│    └─Empty: 2-1732                     [128, 128, 3, 3]          --
│    └─Empty: 2-1733                     [128]                     --
│    └─Empty: 2-1734                     [128]                     --
│    └─BatchNorm2d: 2-1735               [16, 128, 32, 32]         --
│    └─Scaler: 2-1736                    [16, 128, 32, 32]         --
│    └─ReLU: 2-1737                      [16, 128, 32, 32]         --
│    └─Empty: 2-1738                     [16, 128, 32, 32]         --
│    └─Clamp: 2-1739                     [16, 128, 32, 32]         --
├─Dropout2d: 1-174                       [16, 128, 32, 32]         --
├─FusedMaxPoolConv2dBNReLU: 1-175        [16, 128, 16, 16]         (recursive)
│    └─MaxPool2d: 2-1740                 [16, 128, 16, 16]         --
│    └─Empty: 2-1741                     [16, 128, 16, 16]         --
│    └─Empty: 2-1742                     [16, 128, 16, 16]         --
│    └─OutputShiftSqueeze: 2-1743        --                        --
│    └─One: 2-1744                       [1]                       --
│    └─OutputScale: 2-1745               --                        --
│    └─Empty: 2-1746                     [128, 128, 3, 3]          --
│    └─Empty: 2-1747                     [128, 128, 3, 3]          --
│    └─Empty: 2-1748                     [128]                     --
│    └─Empty: 2-1749                     [128]                     --
│    └─BatchNorm2d: 2-1750               [16, 128, 16, 16]         --
│    └─Scaler: 2-1751                    [16, 128, 16, 16]         --
│    └─ReLU: 2-1752                      [16, 128, 16, 16]         --
│    └─Empty: 2-1753                     [16, 128, 16, 16]         --
│    └─Clamp: 2-1754                     [16, 128, 16, 16]         --
├─FusedConv2dBNReLU: 1-176               [16, 128, 16, 16]         (recursive)
│    └─OutputShiftSqueeze: 2-1755        --                        --
│    └─One: 2-1756                       [1]                       --
│    └─OutputScale: 2-1757               --                        --
│    └─Empty: 2-1758                     [128, 128, 1, 1]          --
│    └─Empty: 2-1759                     [128, 128, 1, 1]          --
│    └─Empty: 2-1760                     [128]                     --
│    └─Empty: 2-1761                     [128]                     --
│    └─BatchNorm2d: 2-1762               [16, 128, 16, 16]         --
│    └─Scaler: 2-1763                    [16, 128, 16, 16]         --
│    └─ReLU: 2-1764                      [16, 128, 16, 16]         --
│    └─Empty: 2-1765                     [16, 128, 16, 16]         --
│    └─Clamp: 2-1766                     [16, 128, 16, 16]         --
├─FusedMaxPoolConv2dBNReLU: 1-177        [16, 128, 16, 16]         (recursive)
│    └─MaxPool2d: 2-1767                 [16, 128, 16, 16]         --
│    └─Empty: 2-1768                     [16, 128, 16, 16]         --
│    └─Empty: 2-1769                     [16, 128, 16, 16]         --
│    └─OutputShiftSqueeze: 2-1770        --                        --
│    └─One: 2-1771                       [1]                       --
│    └─OutputScale: 2-1772               --                        --
│    └─Empty: 2-1773                     [128, 128, 3, 3]          --
│    └─Empty: 2-1774                     [128, 128, 3, 3]          --
│    └─Empty: 2-1775                     [128]                     --
│    └─Empty: 2-1776                     [128]                     --
│    └─BatchNorm2d: 2-1777               [16, 128, 16, 16]         --
│    └─Scaler: 2-1778                    [16, 128, 16, 16]         --
│    └─ReLU: 2-1779                      [16, 128, 16, 16]         --
│    └─Empty: 2-1780                     [16, 128, 16, 16]         --
│    └─Clamp: 2-1781                     [16, 128, 16, 16]         --
├─Dropout2d: 1-178                       [16, 128, 16, 16]         --
├─FusedMaxPoolConv2dBNReLU: 1-179        [16, 128, 8, 8]           (recursive)
│    └─MaxPool2d: 2-1782                 [16, 128, 8, 8]           --
│    └─Empty: 2-1783                     [16, 128, 8, 8]           --
│    └─Empty: 2-1784                     [16, 128, 8, 8]           --
│    └─OutputShiftSqueeze: 2-1785        --                        --
│    └─One: 2-1786                       [1]                       --
│    └─OutputScale: 2-1787               --                        --
│    └─Empty: 2-1788                     [128, 128, 3, 3]          --
│    └─Empty: 2-1789                     [128, 128, 3, 3]          --
│    └─Empty: 2-1790                     [128]                     --
│    └─Empty: 2-1791                     [128]                     --
│    └─BatchNorm2d: 2-1792               [16, 128, 8, 8]           --
│    └─Scaler: 2-1793                    [16, 128, 8, 8]           --
│    └─ReLU: 2-1794                      [16, 128, 8, 8]           --
│    └─Empty: 2-1795                     [16, 128, 8, 8]           --
│    └─Clamp: 2-1796                     [16, 128, 8, 8]           --
├─FusedConv2dBNReLU: 1-180               [16, 16, 8, 8]            (recursive)
│    └─OutputShiftSqueeze: 2-1797        --                        --
│    └─One: 2-1798                       [1]                       --
│    └─OutputScale: 2-1799               --                        --
│    └─Empty: 2-1800                     [16, 128, 1, 1]           --
│    └─Empty: 2-1801                     [16, 128, 1, 1]           --
│    └─Empty: 2-1802                     [16]                      --
│    └─Empty: 2-1803                     [16]                      --
│    └─BatchNorm2d: 2-1804               [16, 16, 8, 8]            --
│    └─Scaler: 2-1805                    [16, 16, 8, 8]            --
│    └─ReLU: 2-1806                      [16, 16, 8, 8]            --
│    └─Empty: 2-1807                     [16, 16, 8, 8]            --
│    └─Clamp: 2-1808                     [16, 16, 8, 8]            --
├─FusedMaxPoolConv2dBNReLU: 1-181        [16, 16, 8, 8]            (recursive)
│    └─MaxPool2d: 2-1809                 [16, 128, 8, 8]           --
│    └─Empty: 2-1810                     [16, 128, 8, 8]           --
│    └─Empty: 2-1811                     [16, 128, 8, 8]           --
│    └─OutputShiftSqueeze: 2-1812        --                        --
│    └─One: 2-1813                       [1]                       --
│    └─OutputScale: 2-1814               --                        --
│    └─Empty: 2-1815                     [16, 128, 3, 3]           --
│    └─Empty: 2-1816                     [16, 128, 3, 3]           --
│    └─Empty: 2-1817                     [16]                      --
│    └─Empty: 2-1818                     [16]                      --
│    └─BatchNorm2d: 2-1819               [16, 16, 8, 8]            --
│    └─Scaler: 2-1820                    [16, 16, 8, 8]            --
│    └─ReLU: 2-1821                      [16, 16, 8, 8]            --
│    └─Empty: 2-1822                     [16, 16, 8, 8]            --
│    └─Clamp: 2-1823                     [16, 16, 8, 8]            --
├─Dropout2d: 1-182                       [16, 16, 8, 8]            --
├─Conv1d: 1-183                          [16, 128, 12]             655,494
│    └─OutputShiftSqueeze: 2-1824        --                        --
│    └─One: 2-1825                       [1]                       --
│    └─OutputScale: 2-1826               --                        --
│    └─Empty: 2-1827                     [128, 1024, 5]            --
│    └─Empty: 2-1828                     [128, 1024, 5]            --
│    └─Empty: 2-1829                     [128]                     --
│    └─Empty: 2-1830                     [128]                     --
│    └─Scaler: 2-1831                    [16, 128, 12]             --
│    └─Empty: 2-1832                     [16, 128, 12]             --
│    └─Empty: 2-1833                     [16, 128, 12]             --
│    └─Clamp: 2-1834                     [16, 128, 12]             --
├─Conv1d: 1-184                          [16, 5, 8]                (recursive)
│    └─OutputShiftSqueeze: 2-1835        --                        --
│    └─One: 2-1836                       [1]                       --
│    └─OutputScale: 2-1837               --                        --
│    └─Empty: 2-1838                     [5, 128, 5]               --
│    └─Empty: 2-1839                     [5, 128, 5]               --
│    └─Empty: 2-1840                     [5]                       --
│    └─Empty: 2-1841                     [5]                       --
│    └─Scaler: 2-1842                    [16, 5, 8]                --
│    └─Empty: 2-1843                     [16, 5, 8]                --
│    └─Empty: 2-1844                     [16, 5, 8]                --
│    └─Clamp: 2-1845                     [16, 5, 8]                --
==========================================================================================
Total params: 1,292,385
Trainable params: 658,693
Non-trainable params: 633,692
Total mult-adds (M): 0.00
==========================================================================================
Input size (MB): 201.33
Forward/backward pass size (MB): 0.00
Params size (MB): 2.55
Estimated Total Size (MB): 203.87
…
