…
I - Label min-max:  tensor(0) tensor(3) data number in dataset:  tensor([144986,  67775, 136997, 195311, 166414, 216831, 164198,  87395,  12575,
        212968,  39742, 207434, 173610,  16528,  69032,  70219])
I - Initializing model TCNv14
I - Number of Model Parameters: 949408
I - Model output shape:  torch.Size([16, 4])
I - Model summary
==========================================================================================
Layer (type:depth-idx)                   Output Shape              Param #
==========================================================================================
TCNv14                                   [16, 4]                   --
├─FusedConv2dBNReLU: 1-1                 [16, 128, 64, 64]         --
│    └─ReLU: 2-2319                      [16, 128, 64, 64]         --
│    └─Conv2d: 2-2                       --                        6,272
│    └─BatchNorm2d: 2-2317               [16, 128, 64, 64]         --
│    └─OutputShiftSqueeze: 2-4           --                        --
│    └─One: 2-5                          [1]                       --
│    └─Scaler: 2-2318                    [16, 128, 64, 64]         --
│    └─OutputScale: 2-7                  --                        --
│    └─Empty: 2-8                        [128, 48, 1, 1]           --
│    └─Empty: 2-9                        [128, 48, 1, 1]           --
│    └─Empty: 2-10                       [128]                     --
│    └─Empty: 2-11                       [128]                     --
│    └─BatchNorm2d: 2-12                 [16, 128, 64, 64]         --
│    └─Scaler: 2-13                      [16, 128, 64, 64]         --
│    └─Empty: 2-14                       --                        --
│    └─Empty: 2-15                       --                        --
│    └─ReLU: 2-16                        [16, 128, 64, 64]         --
├─FusedConv2dBNReLU: 1                   --                        --
│    └─ReLU: 2-2331                      [16, 128, 64, 64]         --
│    └─Conv2d: 2-18                      --                        147,584
│    └─BatchNorm2d: 2-2329               [16, 128, 64, 64]         --
├─FusedConv2dBNReLU: 1                   --                        --
│    └─Empty: 2-20                       [16, 128, 64, 64]         --
│    └─Clamp: 2-21                       [16, 128, 64, 64]         --
├─FusedConv2dBNReLU: 1                   --                        --
│    └─Scaler: 2-2330                    [16, 128, 64, 64]         --
├─FusedConv2dBNReLU: 1-2                 [16, 128, 64, 64]         147,590
│    └─OutputShiftSqueeze: 2-23          --                        --
│    └─One: 2-24                         [1]                       --
│    └─OutputScale: 2-25                 --                        --
│    └─Empty: 2-26                       [128, 128, 3, 3]          --
│    └─Empty: 2-27                       [128, 128, 3, 3]          --
│    └─Empty: 2-28                       [128]                     --
│    └─Empty: 2-29                       [128]                     --
│    └─BatchNorm2d: 2-30                 [16, 128, 64, 64]         --
├─FusedMaxPoolConv2dBNReLU: 1-174        [16, 128, 32, 32]         (recursive)
│    └─ReLU: 2-2346                      [16, 128, 32, 32]         --
│    └─MaxPool2d: 2-2334                 [16, 128, 32, 32]         --
│    └─Conv2d: 2-33                      --                        147,584
│    └─BatchNorm2d: 2-2344               [16, 128, 32, 32]         --
├─FusedConv2dBNReLU: 1                   --                        --
│    └─Scaler: 2-35                      [16, 128, 64, 64]         --
│    └─ReLU: 2-36                        [16, 128, 64, 64]         --
├─FusedMaxPoolConv2dBNReLU: 1            --                        --
│    └─Scaler: 2-2345                    [16, 128, 32, 32]         --
├─FusedConv2dBNReLU: 1                   --                        --
│    └─Empty: 2-38                       [16, 128, 64, 64]         --
│    └─Clamp: 2-39                       [16, 128, 64, 64]         --
├─FusedMaxPoolConv2dBNReLU: 1-4          [16, 128, 32, 32]         131,078
│    └─MaxPool2d: 2-40                   [16, 128, 32, 32]         --
│    └─Empty: 2-41                       [16, 128, 32, 32]         --
│    └─Empty: 2-42                       [16, 128, 32, 32]         --
│    └─OutputShiftSqueeze: 2-43          --                        --
│    └─Empty: 2-2335                     [16, 128, 32, 32]         --
│    └─Empty: 2-2336                     [16, 128, 32, 32]         --
│    └─One: 2-46                         [1]                       --
├─FusedConv2dBNReLU: 1                   --                        --
│    └─ReLU: 2-2358                      [16, 128, 32, 32]         --
│    └─Conv2d: 2-48                      --                        16,512
│    └─BatchNorm2d: 2-2356               [16, 128, 32, 32]         --
├─FusedMaxPoolConv2dBNReLU: 1            --                        --
│    └─OutputScale: 2-50                 --                        --
│    └─Empty: 2-51                       [128, 128, 3, 3]          --
├─FusedConv2dBNReLU: 1                   --                        --
│    └─Scaler: 2-2357                    [16, 128, 32, 32]         --
├─FusedMaxPoolConv2dBNReLU: 1            --                        --
│    └─Empty: 2-53                       [128, 128, 3, 3]          --
│    └─Empty: 2-54                       [128]                     --
│    └─Empty: 2-55                       [128]                     --
│    └─BatchNorm2d: 2-56                 [16, 128, 32, 32]         --
│    └─Scaler: 2-57                      [16, 128, 32, 32]         --
│    └─ReLU: 2-58                        [16, 128, 32, 32]         --
│    └─Empty: 2-59                       [16, 128, 32, 32]         --
│    └─Clamp: 2-60                       [16, 128, 32, 32]         --
├─FusedConv2dBNReLU: 1-5                 [16, 128, 32, 32]         16,518
├─FusedMaxPoolConv2dBNReLU: 1-176        [16, 128, 32, 32]         (recursive)
│    └─ReLU: 2-2373                      [16, 128, 32, 32]         --
│    └─MaxPool2d: 2-2361                 [16, 128, 32, 32]         --
│    └─Conv2d: 2-63                      --                        147,584
│    └─BatchNorm2d: 2-2371               [16, 128, 32, 32]         --
├─FusedConv2dBNReLU: 1                   --                        --
│    └─OutputShiftSqueeze: 2-65          --                        --
│    └─One: 2-66                         [1]                       --
├─FusedMaxPoolConv2dBNReLU: 1            --                        --
│    └─Scaler: 2-2372                    [16, 128, 32, 32]         --
├─FusedConv2dBNReLU: 1                   --                        --
│    └─OutputScale: 2-68                 --                        --
│    └─Empty: 2-69                       [128, 128, 1, 1]          --
│    └─Empty: 2-70                       [128, 128, 1, 1]          --
│    └─Empty: 2-71                       [128]                     --
│    └─Empty: 2-72                       [128]                     --
│    └─BatchNorm2d: 2-73                 [16, 128, 32, 32]         --
│    └─Scaler: 2-74                      [16, 128, 32, 32]         --
│    └─ReLU: 2-75                        [16, 128, 32, 32]         --
│    └─Empty: 2-76                       [16, 128, 32, 32]         --
├─FusedMaxPoolConv2dBNReLU: 1-177        [16, 128, 16, 16]         (recursive)
│    └─ReLU: 2-2388                      [16, 128, 16, 16]         --
│    └─MaxPool2d: 2-2376                 [16, 128, 16, 16]         --
│    └─Conv2d: 2-79                      --                        147,584
│    └─BatchNorm2d: 2-2386               [16, 128, 16, 16]         --
├─FusedConv2dBNReLU: 1                   --                        --
│    └─Clamp: 2-81                       [16, 128, 32, 32]         --
├─FusedMaxPoolConv2dBNReLU: 1-8          [16, 128, 32, 32]         131,078
├─FusedMaxPoolConv2dBNReLU: 1            --                        --
│    └─Scaler: 2-2387                    [16, 128, 16, 16]         --
├─FusedMaxPoolConv2dBNReLU: 1            --                        --
│    └─MaxPool2d: 2-83                   [16, 128, 32, 32]         --
│    └─Empty: 2-84                       [16, 128, 32, 32]         --
│    └─Empty: 2-85                       [16, 128, 32, 32]         --
│    └─OutputShiftSqueeze: 2-86          --                        --
│    └─One: 2-87                         [1]                       --
│    └─OutputScale: 2-88                 --                        --
│    └─Empty: 2-89                       [128, 128, 3, 3]          --
├─FusedMaxPoolConv2dBNReLU: 1            --                        --
│    └─Empty: 2-2377                     [16, 128, 16, 16]         --
│    └─Empty: 2-2378                     [16, 128, 16, 16]         --
├─FusedMaxPoolConv2dBNReLU: 1            --                        --
│    └─Empty: 2-92                       [128, 128, 3, 3]          --
├─FusedConv2dBNReLU: 1                   --                        --
│    └─ReLU: 2-2400                      [16, 128, 16, 16]         --
│    └─Conv2d: 2-94                      --                        16,512
│    └─BatchNorm2d: 2-2398               [16, 128, 16, 16]         --
├─FusedMaxPoolConv2dBNReLU: 1            --                        --
│    └─Empty: 2-96                       [128]                     --
│    └─Empty: 2-97                       [128]                     --
├─FusedConv2dBNReLU: 1                   --                        --
│    └─Scaler: 2-2399                    [16, 128, 16, 16]         --
├─FusedMaxPoolConv2dBNReLU: 1            --                        --
│    └─BatchNorm2d: 2-99                 [16, 128, 32, 32]         --
│    └─Scaler: 2-100                     [16, 128, 32, 32]         --
│    └─ReLU: 2-101                       [16, 128, 32, 32]         --
│    └─Empty: 2-102                      [16, 128, 32, 32]         --
│    └─Clamp: 2-103                      [16, 128, 32, 32]         --
├─FusedMaxPoolConv2dBNReLU: 1-9          [16, 128, 16, 16]         147,590
│    └─MaxPool2d: 2-104                  [16, 128, 16, 16]         --
│    └─Empty: 2-105                      [16, 128, 16, 16]         --
│    └─Empty: 2-106                      [16, 128, 16, 16]         --
├─FusedMaxPoolConv2dBNReLU: 1-179        [16, 128, 16, 16]         (recursive)
│    └─ReLU: 2-2415                      [16, 128, 16, 16]         --
│    └─MaxPool2d: 2-2403                 [16, 128, 16, 16]         --
│    └─Conv2d: 2-109                     --                        147,584
│    └─BatchNorm2d: 2-2413               [16, 128, 16, 16]         --
├─FusedMaxPoolConv2dBNReLU: 1            --                        --
│    └─OutputShiftSqueeze: 2-111         --                        --
│    └─One: 2-112                        [1]                       --
├─FusedMaxPoolConv2dBNReLU: 1            --                        --
│    └─Scaler: 2-2414                    [16, 128, 16, 16]         --
├─FusedMaxPoolConv2dBNReLU: 1            --                        --
│    └─OutputScale: 2-114                --                        --
│    └─Empty: 2-115                      [128, 128, 3, 3]          --
│    └─Empty: 2-116                      [128, 128, 3, 3]          --
│    └─Empty: 2-117                      [128]                     --
│    └─Empty: 2-118                      [128]                     --
│    └─BatchNorm2d: 2-119                [16, 128, 16, 16]         --
│    └─Scaler: 2-120                     [16, 128, 16, 16]         --
│    └─ReLU: 2-121                       [16, 128, 16, 16]         --
│    └─Empty: 2-122                      [16, 128, 16, 16]         --
├─FusedMaxPoolConv2dBNReLU: 1-180        [16, 128, 8, 8]           (recursive)
│    └─ReLU: 2-2430                      [16, 128, 8, 8]           --
│    └─MaxPool2d: 2-2418                 [16, 128, 8, 8]           --
│    └─Conv2d: 2-125                     --                        147,584
│    └─BatchNorm2d: 2-2428               [16, 128, 8, 8]           --
├─FusedMaxPoolConv2dBNReLU: 1            --                        --
│    └─Clamp: 2-127                      [16, 128, 16, 16]         --
├─FusedConv2dBNReLU: 1-12                [16, 128, 16, 16]         14,454
├─FusedMaxPoolConv2dBNReLU: 1            --                        --
│    └─Scaler: 2-2429                    [16, 128, 8, 8]           --
├─FusedConv2dBNReLU: 1                   --                        --
│    └─OutputShiftSqueeze: 2-129         --                        --
│    └─One: 2-130                        [1]                       --
│    └─OutputScale: 2-131                --                        --
│    └─Empty: 2-132                      [128, 128, 1, 1]          --
│    └─Empty: 2-133                      [128, 128, 1, 1]          --
│    └─Empty: 2-134                      [128]                     --
│    └─Empty: 2-135                      [128]                     --
├─FusedMaxPoolConv2dBNReLU: 1            --                        --
│    └─Empty: 2-2419                     [16, 128, 8, 8]           --
│    └─Empty: 2-2420                     [16, 128, 8, 8]           --
├─FusedConv2dBNReLU: 1                   --                        --
│    └─BatchNorm2d: 2-138                [16, 128, 16, 16]         --
├─FusedConv2dBNReLU: 1                   --                        --
│    └─ReLU: 2-2442                      [16, 16, 8, 8]            --
│    └─Conv2d: 2-140                     --                        2,064
│    └─BatchNorm2d: 2-2440               [16, 16, 8, 8]            --
├─FusedConv2dBNReLU: 1                   --                        --
│    └─Scaler: 2-142                     [16, 128, 16, 16]         --
│    └─ReLU: 2-143                       [16, 128, 16, 16]         --
├─FusedConv2dBNReLU: 1                   --                        --
│    └─Scaler: 2-2441                    [16, 16, 8, 8]            --
├─FusedConv2dBNReLU: 1                   --                        --
│    └─Empty: 2-145                      [16, 128, 16, 16]         --
│    └─Clamp: 2-146                      [16, 128, 16, 16]         --
├─FusedMaxPoolConv2dBNReLU: 1-13         [16, 128, 16, 16]         147,590
│    └─MaxPool2d: 2-147                  [16, 128, 16, 16]         --
│    └─Empty: 2-148                      [16, 128, 16, 16]         --
│    └─Empty: 2-149                      [16, 128, 16, 16]         --
│    └─OutputShiftSqueeze: 2-150         --                        --
│    └─One: 2-151                        [1]                       --
│    └─OutputScale: 2-152                --                        --
├─FusedMaxPoolConv2dBNReLU: 1-182        [16, 16, 8, 8]            (recursive)
│    └─ReLU: 2-2457                      [16, 16, 8, 8]            --
│    └─MaxPool2d: 2-2445                 [16, 128, 8, 8]           --
│    └─Conv2d: 2-155                     --                        18,448
│    └─BatchNorm2d: 2-2455               [16, 16, 8, 8]            --
├─FusedMaxPoolConv2dBNReLU: 1            --                        --
│    └─Empty: 2-157                      [128, 128, 3, 3]          --
│    └─Empty: 2-158                      [128, 128, 3, 3]          --
├─FusedMaxPoolConv2dBNReLU: 1            --                        --
│    └─Scaler: 2-2456                    [16, 16, 8, 8]            --
├─FusedMaxPoolConv2dBNReLU: 1            --                        --
│    └─Empty: 2-160                      [128]                     --
│    └─Empty: 2-161                      [128]                     --
│    └─BatchNorm2d: 2-162                [16, 128, 16, 16]         --
│    └─Scaler: 2-163                     [16, 128, 16, 16]         --
│    └─ReLU: 2-164                       [16, 128, 16, 16]         --
│    └─Empty: 2-165                      [16, 128, 16, 16]         --
│    └─Clamp: 2-166                      [16, 128, 16, 16]         --
├─FusedMaxPoolConv2dBNReLU: 1-15         [16, 128, 8, 8]           147,590
│    └─MaxPool2d: 2-167                  [16, 128, 8, 8]           --
│    └─Empty: 2-168                      [16, 128, 8, 8]           --
│    └─Empty: 2-169                      [16, 128, 8, 8]           --
│    └─OutputShiftSqueeze: 2-170         --                        --
│    └─One: 2-171                        [1]                       --
│    └─OutputScale: 2-172                --                        --
├─Linear: 1                              --                        --
│    └─Scaler: 2-173                     --                        --
├─FusedMaxPoolConv2dBNReLU: 1            --                        --
│    └─Empty: 2-174                      [128, 128, 3, 3]          --
│    └─Empty: 2-175                      [128, 128, 3, 3]          --
│    └─Empty: 2-176                      [128]                     --
│    └─Empty: 2-177                      [128]                     --
│    └─BatchNorm2d: 2-178                [16, 128, 8, 8]           --
│    └─Scaler: 2-179                     [16, 128, 8, 8]           --
│    └─ReLU: 2-180                       [16, 128, 8, 8]           --
│    └─Empty: 2-181                      [16, 128, 8, 8]           --
│    └─Clamp: 2-182                      [16, 128, 8, 8]           --
├─FusedConv2dBNReLU: 1-16                [16, 16, 8, 8]            2,070
│    └─OutputShiftSqueeze: 2-183         --                        --
│    └─One: 2-184                        [1]                       --
│    └─OutputScale: 2-185                --                        --
│    └─Empty: 2-186                      [16, 128, 1, 1]           --
│    └─Empty: 2-187                      [16, 128, 1, 1]           --
│    └─Empty: 2-188                      [16]                      --
│    └─Empty: 2-189                      [16]                      --
│    └─BatchNorm2d: 2-190                [16, 16, 8, 8]            --
│    └─Scaler: 2-191                     [16, 16, 8, 8]            --
│    └─ReLU: 2-192                       [16, 16, 8, 8]            --
│    └─Empty: 2-193                      [16, 16, 8, 8]            --
│    └─Clamp: 2-194                      [16, 16, 8, 8]            --
├─FusedMaxPoolConv2dBNReLU: 1-17         [16, 16, 8, 8]            18,454
│    └─MaxPool2d: 2-195                  [16, 128, 8, 8]           --
│    └─Empty: 2-196                      [16, 128, 8, 8]           --
│    └─Empty: 2-197                      [16, 128, 8, 8]           --
│    └─OutputShiftSqueeze: 2-198         --                        --
│    └─One: 2-199                        [1]                       --
│    └─OutputScale: 2-200                --                        --
│    └─Empty: 2-201                      [16, 128, 3, 3]           --
│    └─Empty: 2-202                      [16, 128, 3, 3]           --
│    └─Empty: 2-203                      [16]                      --
│    └─Empty: 2-204                      [16]                      --
│    └─BatchNorm2d: 2-205                [16, 16, 8, 8]            --
│    └─Scaler: 2-206                     [16, 16, 8, 8]            --
│    └─ReLU: 2-207                       [16, 16, 8, 8]            --
│    └─Empty: 2-208                      [16, 16, 8, 8]            --
│    └─Clamp: 2-209                      [16, 16, 8, 8]            --
├─FusedConv2dBNReLU: 1-18                [16, 128, 64, 64]         (recursive)
│    └─OutputShiftSqueeze: 2-210         --                        --
│    └─One: 2-211                        [1]                       --
│    └─OutputScale: 2-212                --                        --
│    └─Empty: 2-213                      [128, 48, 1, 1]           --
│    └─Empty: 2-214                      [128, 48, 1, 1]           --
│    └─Empty: 2-215                      [128]                     --
│    └─Empty: 2-216                      [128]                     --
│    └─BatchNorm2d: 2-217                [16, 128, 64, 64]         --
│    └─Scaler: 2-218                     [16, 128, 64, 64]         --
│    └─ReLU: 2-219                       [16, 128, 64, 64]         --
│    └─Empty: 2-220                      [16, 128, 64, 64]         --
│    └─Clamp: 2-221                      [16, 128, 64, 64]         --
├─FusedConv2dBNReLU: 1-19                [16, 128, 64, 64]         (recursive)
│    └─OutputShiftSqueeze: 2-222         --                        --
│    └─One: 2-223                        [1]                       --
│    └─OutputScale: 2-224                --                        --
│    └─Empty: 2-225                      [128, 128, 3, 3]          --
│    └─Empty: 2-226                      [128, 128, 3, 3]          --
│    └─Empty: 2-227                      [128]                     --
│    └─Empty: 2-228                      [128]                     --
│    └─BatchNorm2d: 2-229                [16, 128, 64, 64]         --
│    └─Scaler: 2-230                     [16, 128, 64, 64]         --
│    └─ReLU: 2-231                       [16, 128, 64, 64]         --
│    └─Empty: 2-232                      [16, 128, 64, 64]         --
│    └─Clamp: 2-233                      [16, 128, 64, 64]         --
├─FusedMaxPoolConv2dBNReLU: 1-20         [16, 128, 32, 32]         (recursive)
│    └─MaxPool2d: 2-234                  [16, 128, 32, 32]         --
│    └─Empty: 2-235                      [16, 128, 32, 32]         --
│    └─Empty: 2-236                      [16, 128, 32, 32]         --
│    └─OutputShiftSqueeze: 2-237         --                        --
│    └─One: 2-238                        [1]                       --
│    └─OutputScale: 2-239                --                        --
│    └─Empty: 2-240                      [128, 128, 3, 3]          --
│    └─Empty: 2-241                      [128, 128, 3, 3]          --
│    └─Empty: 2-242                      [128]                     --
│    └─Empty: 2-243                      [128]                     --
│    └─BatchNorm2d: 2-244                [16, 128, 32, 32]         --
│    └─Scaler: 2-245                     [16, 128, 32, 32]         --
│    └─ReLU: 2-246                       [16, 128, 32, 32]         --
│    └─Empty: 2-247                      [16, 128, 32, 32]         --
│    └─Clamp: 2-248                      [16, 128, 32, 32]         --
├─FusedConv2dBNReLU: 1-21                [16, 128, 32, 32]         (recursive)
│    └─OutputShiftSqueeze: 2-249         --                        --
│    └─One: 2-250                        [1]                       --
│    └─OutputScale: 2-251                --                        --
│    └─Empty: 2-252                      [128, 128, 1, 1]          --
│    └─Empty: 2-253                      [128, 128, 1, 1]          --
│    └─Empty: 2-254                      [128]                     --
│    └─Empty: 2-255                      [128]                     --
│    └─BatchNorm2d: 2-256                [16, 128, 32, 32]         --
│    └─Scaler: 2-257                     [16, 128, 32, 32]         --
│    └─ReLU: 2-258                       [16, 128, 32, 32]         --
│    └─Empty: 2-259                      [16, 128, 32, 32]         --
│    └─Clamp: 2-260                      [16, 128, 32, 32]         --
├─FusedMaxPoolConv2dBNReLU: 1-22         [16, 128, 32, 32]         (recursive)
│    └─MaxPool2d: 2-261                  [16, 128, 32, 32]         --
│    └─Empty: 2-262                      [16, 128, 32, 32]         --
│    └─Empty: 2-263                      [16, 128, 32, 32]         --
│    └─OutputShiftSqueeze: 2-264         --                        --
│    └─One: 2-265                        [1]                       --
│    └─OutputScale: 2-266                --                        --
│    └─Empty: 2-267                      [128, 128, 3, 3]          --
│    └─Empty: 2-268                      [128, 128, 3, 3]          --
│    └─Empty: 2-269                      [128]                     --
│    └─Empty: 2-270                      [128]                     --
│    └─BatchNorm2d: 2-271                [16, 128, 32, 32]         --
│    └─Scaler: 2-272                     [16, 128, 32, 32]         --
│    └─ReLU: 2-273                       [16, 128, 32, 32]         --
│    └─Empty: 2-274                      [16, 128, 32, 32]         --
│    └─Clamp: 2-275                      [16, 128, 32, 32]         --
├─FusedMaxPoolConv2dBNReLU: 1-23         [16, 128, 16, 16]         (recursive)
│    └─MaxPool2d: 2-276                  [16, 128, 16, 16]         --
│    └─Empty: 2-277                      [16, 128, 16, 16]         --
│    └─Empty: 2-278                      [16, 128, 16, 16]         --
│    └─OutputShiftSqueeze: 2-279         --                        --
│    └─One: 2-280                        [1]                       --
│    └─OutputScale: 2-281                --                        --
│    └─Empty: 2-282                      [128, 128, 3, 3]          --
│    └─Empty: 2-283                      [128, 128, 3, 3]          --
│    └─Empty: 2-284                      [128]                     --
│    └─Empty: 2-285                      [128]                     --
│    └─BatchNorm2d: 2-286                [16, 128, 16, 16]         --
│    └─Scaler: 2-287                     [16, 128, 16, 16]         --
│    └─ReLU: 2-288                       [16, 128, 16, 16]         --
│    └─Empty: 2-289                      [16, 128, 16, 16]         --
│    └─Clamp: 2-290                      [16, 128, 16, 16]         --
├─FusedConv2dBNReLU: 1-24                [16, 128, 16, 16]         (recursive)
│    └─OutputShiftSqueeze: 2-291         --                        --
│    └─One: 2-292                        [1]                       --
│    └─OutputScale: 2-293                --                        --
│    └─Empty: 2-294                      [128, 128, 1, 1]          --
│    └─Empty: 2-295                      [128, 128, 1, 1]          --
│    └─Empty: 2-296                      [128]                     --
│    └─Empty: 2-297                      [128]                     --
│    └─BatchNorm2d: 2-298                [16, 128, 16, 16]         --
│    └─Scaler: 2-299                     [16, 128, 16, 16]         --
│    └─ReLU: 2-300                       [16, 128, 16, 16]         --
│    └─Empty: 2-301                      [16, 128, 16, 16]         --
│    └─Clamp: 2-302                      [16, 128, 16, 16]         --
├─FusedMaxPoolConv2dBNReLU: 1-25         [16, 128, 16, 16]         (recursive)
│    └─MaxPool2d: 2-303                  [16, 128, 16, 16]         --
│    └─Empty: 2-304                      [16, 128, 16, 16]         --
│    └─Empty: 2-305                      [16, 128, 16, 16]         --
│    └─OutputShiftSqueeze: 2-306         --                        --
│    └─One: 2-307                        [1]                       --
│    └─OutputScale: 2-308                --                        --
│    └─Empty: 2-309                      [128, 128, 3, 3]          --
│    └─Empty: 2-310                      [128, 128, 3, 3]          --
│    └─Empty: 2-311                      [128]                     --
│    └─Empty: 2-312                      [128]                     --
│    └─BatchNorm2d: 2-313                [16, 128, 16, 16]         --
│    └─Scaler: 2-314                     [16, 128, 16, 16]         --
│    └─ReLU: 2-315                       [16, 128, 16, 16]         --
│    └─Empty: 2-316                      [16, 128, 16, 16]         --
│    └─Clamp: 2-317                      [16, 128, 16, 16]         --
├─FusedMaxPoolConv2dBNReLU: 1-26         [16, 128, 8, 8]           (recursive)
│    └─MaxPool2d: 2-318                  [16, 128, 8, 8]           --
│    └─Empty: 2-319                      [16, 128, 8, 8]           --
│    └─Empty: 2-320                      [16, 128, 8, 8]           --
│    └─OutputShiftSqueeze: 2-321         --                        --
│    └─One: 2-322                        [1]                       --
│    └─OutputScale: 2-323                --                        --
│    └─Empty: 2-324                      [128, 128, 3, 3]          --
│    └─Empty: 2-325                      [128, 128, 3, 3]          --
│    └─Empty: 2-326                      [128]                     --
│    └─Empty: 2-327                      [128]                     --
│    └─BatchNorm2d: 2-328                [16, 128, 8, 8]           --
│    └─Scaler: 2-329                     [16, 128, 8, 8]           --
│    └─ReLU: 2-330                       [16, 128, 8, 8]           --
│    └─Empty: 2-331                      [16, 128, 8, 8]           --
│    └─Clamp: 2-332                      [16, 128, 8, 8]           --
├─FusedConv2dBNReLU: 1-27                [16, 16, 8, 8]            (recursive)
│    └─OutputShiftSqueeze: 2-333         --                        --
│    └─One: 2-334                        [1]                       --
│    └─OutputScale: 2-335                --                        --
│    └─Empty: 2-336                      [16, 128, 1, 1]           --
│    └─Empty: 2-337                      [16, 128, 1, 1]           --
│    └─Empty: 2-338                      [16]                      --
│    └─Empty: 2-339                      [16]                      --
│    └─BatchNorm2d: 2-340                [16, 16, 8, 8]            --
│    └─Scaler: 2-341                     [16, 16, 8, 8]            --
│    └─ReLU: 2-342                       [16, 16, 8, 8]            --
│    └─Empty: 2-343                      [16, 16, 8, 8]            --
│    └─Clamp: 2-344                      [16, 16, 8, 8]            --
├─FusedMaxPoolConv2dBNReLU: 1-28         [16, 16, 8, 8]            (recursive)
│    └─MaxPool2d: 2-345                  [16, 128, 8, 8]           --
│    └─Empty: 2-346                      [16, 128, 8, 8]           --
│    └─Empty: 2-347                      [16, 128, 8, 8]           --
│    └─OutputShiftSqueeze: 2-348         --                        --
│    └─One: 2-349                        [1]                       --
│    └─OutputScale: 2-350                --                        --
│    └─Empty: 2-351                      [16, 128, 3, 3]           --
│    └─Empty: 2-352                      [16, 128, 3, 3]           --
│    └─Empty: 2-353                      [16]                      --
│    └─Empty: 2-354                      [16]                      --
│    └─BatchNorm2d: 2-355                [16, 16, 8, 8]            --
│    └─Scaler: 2-356                     [16, 16, 8, 8]            --
│    └─ReLU: 2-357                       [16, 16, 8, 8]            --
│    └─Empty: 2-358                      [16, 16, 8, 8]            --
│    └─Clamp: 2-359                      [16, 16, 8, 8]            --
├─FusedConv2dBNReLU: 1-29                [16, 128, 64, 64]         (recursive)
│    └─OutputShiftSqueeze: 2-360         --                        --
│    └─One: 2-361                        [1]                       --
│    └─OutputScale: 2-362                --                        --
│    └─Empty: 2-363                      [128, 48, 1, 1]           --
│    └─Empty: 2-364                      [128, 48, 1, 1]           --
│    └─Empty: 2-365                      [128]                     --
│    └─Empty: 2-366                      [128]                     --
│    └─BatchNorm2d: 2-367                [16, 128, 64, 64]         --
│    └─Scaler: 2-368                     [16, 128, 64, 64]         --
│    └─ReLU: 2-369                       [16, 128, 64, 64]         --
│    └─Empty: 2-370                      [16, 128, 64, 64]         --
│    └─Clamp: 2-371                      [16, 128, 64, 64]         --
├─FusedConv2dBNReLU: 1-30                [16, 128, 64, 64]         (recursive)
│    └─OutputShiftSqueeze: 2-372         --                        --
│    └─One: 2-373                        [1]                       --
│    └─OutputScale: 2-374                --                        --
│    └─Empty: 2-375                      [128, 128, 3, 3]          --
│    └─Empty: 2-376                      [128, 128, 3, 3]          --
│    └─Empty: 2-377                      [128]                     --
│    └─Empty: 2-378                      [128]                     --
│    └─BatchNorm2d: 2-379                [16, 128, 64, 64]         --
│    └─Scaler: 2-380                     [16, 128, 64, 64]         --
│    └─ReLU: 2-381                       [16, 128, 64, 64]         --
│    └─Empty: 2-382                      [16, 128, 64, 64]         --
│    └─Clamp: 2-383                      [16, 128, 64, 64]         --
├─FusedMaxPoolConv2dBNReLU: 1-31         [16, 128, 32, 32]         (recursive)
│    └─MaxPool2d: 2-384                  [16, 128, 32, 32]         --
│    └─Empty: 2-385                      [16, 128, 32, 32]         --
│    └─Empty: 2-386                      [16, 128, 32, 32]         --
│    └─OutputShiftSqueeze: 2-387         --                        --
│    └─One: 2-388                        [1]                       --
│    └─OutputScale: 2-389                --                        --
│    └─Empty: 2-390                      [128, 128, 3, 3]          --
│    └─Empty: 2-391                      [128, 128, 3, 3]          --
│    └─Empty: 2-392                      [128]                     --
│    └─Empty: 2-393                      [128]                     --
│    └─BatchNorm2d: 2-394                [16, 128, 32, 32]         --
│    └─Scaler: 2-395                     [16, 128, 32, 32]         --
│    └─ReLU: 2-396                       [16, 128, 32, 32]         --
│    └─Empty: 2-397                      [16, 128, 32, 32]         --
│    └─Clamp: 2-398                      [16, 128, 32, 32]         --
├─FusedConv2dBNReLU: 1-32                [16, 128, 32, 32]         (recursive)
│    └─OutputShiftSqueeze: 2-399         --                        --
│    └─One: 2-400                        [1]                       --
│    └─OutputScale: 2-401                --                        --
│    └─Empty: 2-402                      [128, 128, 1, 1]          --
│    └─Empty: 2-403                      [128, 128, 1, 1]          --
│    └─Empty: 2-404                      [128]                     --
│    └─Empty: 2-405                      [128]                     --
│    └─BatchNorm2d: 2-406                [16, 128, 32, 32]         --
│    └─Scaler: 2-407                     [16, 128, 32, 32]         --
│    └─ReLU: 2-408                       [16, 128, 32, 32]         --
│    └─Empty: 2-409                      [16, 128, 32, 32]         --
│    └─Clamp: 2-410                      [16, 128, 32, 32]         --
├─FusedMaxPoolConv2dBNReLU: 1-33         [16, 128, 32, 32]         (recursive)
│    └─MaxPool2d: 2-411                  [16, 128, 32, 32]         --
│    └─Empty: 2-412                      [16, 128, 32, 32]         --
│    └─Empty: 2-413                      [16, 128, 32, 32]         --
│    └─OutputShiftSqueeze: 2-414         --                        --
│    └─One: 2-415                        [1]                       --
│    └─OutputScale: 2-416                --                        --
│    └─Empty: 2-417                      [128, 128, 3, 3]          --
│    └─Empty: 2-418                      [128, 128, 3, 3]          --
│    └─Empty: 2-419                      [128]                     --
│    └─Empty: 2-420                      [128]                     --
│    └─BatchNorm2d: 2-421                [16, 128, 32, 32]         --
│    └─Scaler: 2-422                     [16, 128, 32, 32]         --
│    └─ReLU: 2-423                       [16, 128, 32, 32]         --
│    └─Empty: 2-424                      [16, 128, 32, 32]         --
│    └─Clamp: 2-425                      [16, 128, 32, 32]         --
├─FusedMaxPoolConv2dBNReLU: 1-34         [16, 128, 16, 16]         (recursive)
│    └─MaxPool2d: 2-426                  [16, 128, 16, 16]         --
│    └─Empty: 2-427                      [16, 128, 16, 16]         --
│    └─Empty: 2-428                      [16, 128, 16, 16]         --
│    └─OutputShiftSqueeze: 2-429         --                        --
│    └─One: 2-430                        [1]                       --
│    └─OutputScale: 2-431                --                        --
│    └─Empty: 2-432                      [128, 128, 3, 3]          --
│    └─Empty: 2-433                      [128, 128, 3, 3]          --
│    └─Empty: 2-434                      [128]                     --
│    └─Empty: 2-435                      [128]                     --
│    └─BatchNorm2d: 2-436                [16, 128, 16, 16]         --
│    └─Scaler: 2-437                     [16, 128, 16, 16]         --
│    └─ReLU: 2-438                       [16, 128, 16, 16]         --
│    └─Empty: 2-439                      [16, 128, 16, 16]         --
│    └─Clamp: 2-440                      [16, 128, 16, 16]         --
├─FusedConv2dBNReLU: 1-35                [16, 128, 16, 16]         (recursive)
│    └─OutputShiftSqueeze: 2-441         --                        --
│    └─One: 2-442                        [1]                       --
│    └─OutputScale: 2-443                --                        --
│    └─Empty: 2-444                      [128, 128, 1, 1]          --
│    └─Empty: 2-445                      [128, 128, 1, 1]          --
│    └─Empty: 2-446                      [128]                     --
│    └─Empty: 2-447                      [128]                     --
│    └─BatchNorm2d: 2-448                [16, 128, 16, 16]         --
│    └─Scaler: 2-449                     [16, 128, 16, 16]         --
│    └─ReLU: 2-450                       [16, 128, 16, 16]         --
│    └─Empty: 2-451                      [16, 128, 16, 16]         --
│    └─Clamp: 2-452                      [16, 128, 16, 16]         --
├─FusedMaxPoolConv2dBNReLU: 1-36         [16, 128, 16, 16]         (recursive)
│    └─MaxPool2d: 2-453                  [16, 128, 16, 16]         --
│    └─Empty: 2-454                      [16, 128, 16, 16]         --
│    └─Empty: 2-455                      [16, 128, 16, 16]         --
│    └─OutputShiftSqueeze: 2-456         --                        --
│    └─One: 2-457                        [1]                       --
│    └─OutputScale: 2-458                --                        --
│    └─Empty: 2-459                      [128, 128, 3, 3]          --
│    └─Empty: 2-460                      [128, 128, 3, 3]          --
│    └─Empty: 2-461                      [128]                     --
│    └─Empty: 2-462                      [128]                     --
│    └─BatchNorm2d: 2-463                [16, 128, 16, 16]         --
│    └─Scaler: 2-464                     [16, 128, 16, 16]         --
│    └─ReLU: 2-465                       [16, 128, 16, 16]         --
│    └─Empty: 2-466                      [16, 128, 16, 16]         --
│    └─Clamp: 2-467                      [16, 128, 16, 16]         --
├─FusedMaxPoolConv2dBNReLU: 1-37         [16, 128, 8, 8]           (recursive)
│    └─MaxPool2d: 2-468                  [16, 128, 8, 8]           --
│    └─Empty: 2-469                      [16, 128, 8, 8]           --
│    └─Empty: 2-470                      [16, 128, 8, 8]           --
│    └─OutputShiftSqueeze: 2-471         --                        --
│    └─One: 2-472                        [1]                       --
│    └─OutputScale: 2-473                --                        --
│    └─Empty: 2-474                      [128, 128, 3, 3]          --
│    └─Empty: 2-475                      [128, 128, 3, 3]          --
│    └─Empty: 2-476                      [128]                     --
│    └─Empty: 2-477                      [128]                     --
│    └─BatchNorm2d: 2-478                [16, 128, 8, 8]           --
│    └─Scaler: 2-479                     [16, 128, 8, 8]           --
│    └─ReLU: 2-480                       [16, 128, 8, 8]           --
│    └─Empty: 2-481                      [16, 128, 8, 8]           --
│    └─Clamp: 2-482                      [16, 128, 8, 8]           --
├─FusedConv2dBNReLU: 1-38                [16, 16, 8, 8]            (recursive)
│    └─OutputShiftSqueeze: 2-483         --                        --
│    └─One: 2-484                        [1]                       --
│    └─OutputScale: 2-485                --                        --
│    └─Empty: 2-486                      [16, 128, 1, 1]           --
│    └─Empty: 2-487                      [16, 128, 1, 1]           --
│    └─Empty: 2-488                      [16]                      --
│    └─Empty: 2-489                      [16]                      --
│    └─BatchNorm2d: 2-490                [16, 16, 8, 8]            --
│    └─Scaler: 2-491                     [16, 16, 8, 8]            --
│    └─ReLU: 2-492                       [16, 16, 8, 8]            --
│    └─Empty: 2-493                      [16, 16, 8, 8]            --
│    └─Clamp: 2-494                      [16, 16, 8, 8]            --
├─FusedMaxPoolConv2dBNReLU: 1-39         [16, 16, 8, 8]            (recursive)
│    └─MaxPool2d: 2-495                  [16, 128, 8, 8]           --
│    └─Empty: 2-496                      [16, 128, 8, 8]           --
│    └─Empty: 2-497                      [16, 128, 8, 8]           --
│    └─OutputShiftSqueeze: 2-498         --                        --
│    └─One: 2-499                        [1]                       --
│    └─OutputScale: 2-500                --                        --
│    └─Empty: 2-501                      [16, 128, 3, 3]           --
│    └─Empty: 2-502                      [16, 128, 3, 3]           --
│    └─Empty: 2-503                      [16]                      --
│    └─Empty: 2-504                      [16]                      --
│    └─BatchNorm2d: 2-505                [16, 16, 8, 8]            --
│    └─Scaler: 2-506                     [16, 16, 8, 8]            --
│    └─ReLU: 2-507                       [16, 16, 8, 8]            --
│    └─Empty: 2-508                      [16, 16, 8, 8]            --
│    └─Clamp: 2-509                      [16, 16, 8, 8]            --
├─FusedConv2dBNReLU: 1-40                [16, 128, 64, 64]         (recursive)
│    └─OutputShiftSqueeze: 2-510         --                        --
│    └─One: 2-511                        [1]                       --
│    └─OutputScale: 2-512                --                        --
│    └─Empty: 2-513                      [128, 48, 1, 1]           --
│    └─Empty: 2-514                      [128, 48, 1, 1]           --
│    └─Empty: 2-515                      [128]                     --
│    └─Empty: 2-516                      [128]                     --
│    └─BatchNorm2d: 2-517                [16, 128, 64, 64]         --
│    └─Scaler: 2-518                     [16, 128, 64, 64]         --
│    └─ReLU: 2-519                       [16, 128, 64, 64]         --
│    └─Empty: 2-520                      [16, 128, 64, 64]         --
│    └─Clamp: 2-521                      [16, 128, 64, 64]         --
├─FusedConv2dBNReLU: 1-41                [16, 128, 64, 64]         (recursive)
│    └─OutputShiftSqueeze: 2-522         --                        --
│    └─One: 2-523                        [1]                       --
│    └─OutputScale: 2-524                --                        --
│    └─Empty: 2-525                      [128, 128, 3, 3]          --
│    └─Empty: 2-526                      [128, 128, 3, 3]          --
│    └─Empty: 2-527                      [128]                     --
│    └─Empty: 2-528                      [128]                     --
│    └─BatchNorm2d: 2-529                [16, 128, 64, 64]         --
│    └─Scaler: 2-530                     [16, 128, 64, 64]         --
│    └─ReLU: 2-531                       [16, 128, 64, 64]         --
│    └─Empty: 2-532                      [16, 128, 64, 64]         --
│    └─Clamp: 2-533                      [16, 128, 64, 64]         --
├─FusedMaxPoolConv2dBNReLU: 1-42         [16, 128, 32, 32]         (recursive)
│    └─MaxPool2d: 2-534                  [16, 128, 32, 32]         --
│    └─Empty: 2-535                      [16, 128, 32, 32]         --
│    └─Empty: 2-536                      [16, 128, 32, 32]         --
│    └─OutputShiftSqueeze: 2-537         --                        --
│    └─One: 2-538                        [1]                       --
│    └─OutputScale: 2-539                --                        --
│    └─Empty: 2-540                      [128, 128, 3, 3]          --
│    └─Empty: 2-541                      [128, 128, 3, 3]          --
│    └─Empty: 2-542                      [128]                     --
│    └─Empty: 2-543                      [128]                     --
│    └─BatchNorm2d: 2-544                [16, 128, 32, 32]         --
│    └─Scaler: 2-545                     [16, 128, 32, 32]         --
│    └─ReLU: 2-546                       [16, 128, 32, 32]         --
│    └─Empty: 2-547                      [16, 128, 32, 32]         --
│    └─Clamp: 2-548                      [16, 128, 32, 32]         --
├─FusedConv2dBNReLU: 1-43                [16, 128, 32, 32]         (recursive)
│    └─OutputShiftSqueeze: 2-549         --                        --
│    └─One: 2-550                        [1]                       --
│    └─OutputScale: 2-551                --                        --
│    └─Empty: 2-552                      [128, 128, 1, 1]          --
│    └─Empty: 2-553                      [128, 128, 1, 1]          --
│    └─Empty: 2-554                      [128]                     --
│    └─Empty: 2-555                      [128]                     --
│    └─BatchNorm2d: 2-556                [16, 128, 32, 32]         --
│    └─Scaler: 2-557                     [16, 128, 32, 32]         --
│    └─ReLU: 2-558                       [16, 128, 32, 32]         --
│    └─Empty: 2-559                      [16, 128, 32, 32]         --
│    └─Clamp: 2-560                      [16, 128, 32, 32]         --
├─FusedMaxPoolConv2dBNReLU: 1-44         [16, 128, 32, 32]         (recursive)
│    └─MaxPool2d: 2-561                  [16, 128, 32, 32]         --
│    └─Empty: 2-562                      [16, 128, 32, 32]         --
│    └─Empty: 2-563                      [16, 128, 32, 32]         --
│    └─OutputShiftSqueeze: 2-564         --                        --
│    └─One: 2-565                        [1]                       --
│    └─OutputScale: 2-566                --                        --
│    └─Empty: 2-567                      [128, 128, 3, 3]          --
│    └─Empty: 2-568                      [128, 128, 3, 3]          --
│    └─Empty: 2-569                      [128]                     --
│    └─Empty: 2-570                      [128]                     --
│    └─BatchNorm2d: 2-571                [16, 128, 32, 32]         --
│    └─Scaler: 2-572                     [16, 128, 32, 32]         --
│    └─ReLU: 2-573                       [16, 128, 32, 32]         --
│    └─Empty: 2-574                      [16, 128, 32, 32]         --
│    └─Clamp: 2-575                      [16, 128, 32, 32]         --
├─FusedMaxPoolConv2dBNReLU: 1-45         [16, 128, 16, 16]         (recursive)
│    └─MaxPool2d: 2-576                  [16, 128, 16, 16]         --
│    └─Empty: 2-577                      [16, 128, 16, 16]         --
│    └─Empty: 2-578                      [16, 128, 16, 16]         --
│    └─OutputShiftSqueeze: 2-579         --                        --
│    └─One: 2-580                        [1]                       --
│    └─OutputScale: 2-581                --                        --
│    └─Empty: 2-582                      [128, 128, 3, 3]          --
│    └─Empty: 2-583                      [128, 128, 3, 3]          --
│    └─Empty: 2-584                      [128]                     --
│    └─Empty: 2-585                      [128]                     --
│    └─BatchNorm2d: 2-586                [16, 128, 16, 16]         --
│    └─Scaler: 2-587                     [16, 128, 16, 16]         --
│    └─ReLU: 2-588                       [16, 128, 16, 16]         --
│    └─Empty: 2-589                      [16, 128, 16, 16]         --
│    └─Clamp: 2-590                      [16, 128, 16, 16]         --
├─FusedConv2dBNReLU: 1-46                [16, 128, 16, 16]         (recursive)
│    └─OutputShiftSqueeze: 2-591         --                        --
│    └─One: 2-592                        [1]                       --
│    └─OutputScale: 2-593                --                        --
│    └─Empty: 2-594                      [128, 128, 1, 1]          --
│    └─Empty: 2-595                      [128, 128, 1, 1]          --
│    └─Empty: 2-596                      [128]                     --
│    └─Empty: 2-597                      [128]                     --
│    └─BatchNorm2d: 2-598                [16, 128, 16, 16]         --
│    └─Scaler: 2-599                     [16, 128, 16, 16]         --
│    └─ReLU: 2-600                       [16, 128, 16, 16]         --
│    └─Empty: 2-601                      [16, 128, 16, 16]         --
│    └─Clamp: 2-602                      [16, 128, 16, 16]         --
├─FusedMaxPoolConv2dBNReLU: 1-47         [16, 128, 16, 16]         (recursive)
│    └─MaxPool2d: 2-603                  [16, 128, 16, 16]         --
│    └─Empty: 2-604                      [16, 128, 16, 16]         --
│    └─Empty: 2-605                      [16, 128, 16, 16]         --
│    └─OutputShiftSqueeze: 2-606         --                        --
│    └─One: 2-607                        [1]                       --
│    └─OutputScale: 2-608                --                        --
│    └─Empty: 2-609                      [128, 128, 3, 3]          --
│    └─Empty: 2-610                      [128, 128, 3, 3]          --
│    └─Empty: 2-611                      [128]                     --
│    └─Empty: 2-612                      [128]                     --
│    └─BatchNorm2d: 2-613                [16, 128, 16, 16]         --
│    └─Scaler: 2-614                     [16, 128, 16, 16]         --
│    └─ReLU: 2-615                       [16, 128, 16, 16]         --
│    └─Empty: 2-616                      [16, 128, 16, 16]         --
│    └─Clamp: 2-617                      [16, 128, 16, 16]         --
├─FusedMaxPoolConv2dBNReLU: 1-48         [16, 128, 8, 8]           (recursive)
│    └─MaxPool2d: 2-618                  [16, 128, 8, 8]           --
│    └─Empty: 2-619                      [16, 128, 8, 8]           --
│    └─Empty: 2-620                      [16, 128, 8, 8]           --
│    └─OutputShiftSqueeze: 2-621         --                        --
│    └─One: 2-622                        [1]                       --
│    └─OutputScale: 2-623                --                        --
│    └─Empty: 2-624                      [128, 128, 3, 3]          --
│    └─Empty: 2-625                      [128, 128, 3, 3]          --
│    └─Empty: 2-626                      [128]                     --
│    └─Empty: 2-627                      [128]                     --
│    └─BatchNorm2d: 2-628                [16, 128, 8, 8]           --
│    └─Scaler: 2-629                     [16, 128, 8, 8]           --
│    └─ReLU: 2-630                       [16, 128, 8, 8]           --
│    └─Empty: 2-631                      [16, 128, 8, 8]           --
│    └─Clamp: 2-632                      [16, 128, 8, 8]           --
├─FusedConv2dBNReLU: 1-49                [16, 16, 8, 8]            (recursive)
│    └─OutputShiftSqueeze: 2-633         --                        --
│    └─One: 2-634                        [1]                       --
│    └─OutputScale: 2-635                --                        --
│    └─Empty: 2-636                      [16, 128, 1, 1]           --
│    └─Empty: 2-637                      [16, 128, 1, 1]           --
│    └─Empty: 2-638                      [16]                      --
│    └─Empty: 2-639                      [16]                      --
│    └─BatchNorm2d: 2-640                [16, 16, 8, 8]            --
│    └─Scaler: 2-641                     [16, 16, 8, 8]            --
│    └─ReLU: 2-642                       [16, 16, 8, 8]            --
│    └─Empty: 2-643                      [16, 16, 8, 8]            --
│    └─Clamp: 2-644                      [16, 16, 8, 8]            --
├─FusedMaxPoolConv2dBNReLU: 1-50         [16, 16, 8, 8]            (recursive)
│    └─MaxPool2d: 2-645                  [16, 128, 8, 8]           --
│    └─Empty: 2-646                      [16, 128, 8, 8]           --
│    └─Empty: 2-647                      [16, 128, 8, 8]           --
│    └─OutputShiftSqueeze: 2-648         --                        --
│    └─One: 2-649                        [1]                       --
│    └─OutputScale: 2-650                --                        --
│    └─Empty: 2-651                      [16, 128, 3, 3]           --
│    └─Empty: 2-652                      [16, 128, 3, 3]           --
│    └─Empty: 2-653                      [16]                      --
│    └─Empty: 2-654                      [16]                      --
│    └─BatchNorm2d: 2-655                [16, 16, 8, 8]            --
│    └─Scaler: 2-656                     [16, 16, 8, 8]            --
│    └─ReLU: 2-657                       [16, 16, 8, 8]            --
│    └─Empty: 2-658                      [16, 16, 8, 8]            --
│    └─Clamp: 2-659                      [16, 16, 8, 8]            --
├─FusedConv2dBNReLU: 1-51                [16, 128, 64, 64]         (recursive)
│    └─OutputShiftSqueeze: 2-660         --                        --
│    └─One: 2-661                        [1]                       --
│    └─OutputScale: 2-662                --                        --
│    └─Empty: 2-663                      [128, 48, 1, 1]           --
│    └─Empty: 2-664                      [128, 48, 1, 1]           --
│    └─Empty: 2-665                      [128]                     --
│    └─Empty: 2-666                      [128]                     --
│    └─BatchNorm2d: 2-667                [16, 128, 64, 64]         --
│    └─Scaler: 2-668                     [16, 128, 64, 64]         --
│    └─ReLU: 2-669                       [16, 128, 64, 64]         --
│    └─Empty: 2-670                      [16, 128, 64, 64]         --
│    └─Clamp: 2-671                      [16, 128, 64, 64]         --
├─FusedConv2dBNReLU: 1-52                [16, 128, 64, 64]         (recursive)
│    └─OutputShiftSqueeze: 2-672         --                        --
│    └─One: 2-673                        [1]                       --
│    └─OutputScale: 2-674                --                        --
│    └─Empty: 2-675                      [128, 128, 3, 3]          --
│    └─Empty: 2-676                      [128, 128, 3, 3]          --
│    └─Empty: 2-677                      [128]                     --
│    └─Empty: 2-678                      [128]                     --
│    └─BatchNorm2d: 2-679                [16, 128, 64, 64]         --
│    └─Scaler: 2-680                     [16, 128, 64, 64]         --
│    └─ReLU: 2-681                       [16, 128, 64, 64]         --
│    └─Empty: 2-682                      [16, 128, 64, 64]         --
│    └─Clamp: 2-683                      [16, 128, 64, 64]         --
├─FusedMaxPoolConv2dBNReLU: 1-53         [16, 128, 32, 32]         (recursive)
│    └─MaxPool2d: 2-684                  [16, 128, 32, 32]         --
│    └─Empty: 2-685                      [16, 128, 32, 32]         --
│    └─Empty: 2-686                      [16, 128, 32, 32]         --
│    └─OutputShiftSqueeze: 2-687         --                        --
│    └─One: 2-688                        [1]                       --
│    └─OutputScale: 2-689                --                        --
│    └─Empty: 2-690                      [128, 128, 3, 3]          --
│    └─Empty: 2-691                      [128, 128, 3, 3]          --
│    └─Empty: 2-692                      [128]                     --
│    └─Empty: 2-693                      [128]                     --
│    └─BatchNorm2d: 2-694                [16, 128, 32, 32]         --
│    └─Scaler: 2-695                     [16, 128, 32, 32]         --
│    └─ReLU: 2-696                       [16, 128, 32, 32]         --
│    └─Empty: 2-697                      [16, 128, 32, 32]         --
│    └─Clamp: 2-698                      [16, 128, 32, 32]         --
├─FusedConv2dBNReLU: 1-54                [16, 128, 32, 32]         (recursive)
│    └─OutputShiftSqueeze: 2-699         --                        --
│    └─One: 2-700                        [1]                       --
│    └─OutputScale: 2-701                --                        --
│    └─Empty: 2-702                      [128, 128, 1, 1]          --
│    └─Empty: 2-703                      [128, 128, 1, 1]          --
│    └─Empty: 2-704                      [128]                     --
│    └─Empty: 2-705                      [128]                     --
│    └─BatchNorm2d: 2-706                [16, 128, 32, 32]         --
│    └─Scaler: 2-707                     [16, 128, 32, 32]         --
│    └─ReLU: 2-708                       [16, 128, 32, 32]         --
│    └─Empty: 2-709                      [16, 128, 32, 32]         --
│    └─Clamp: 2-710                      [16, 128, 32, 32]         --
├─FusedMaxPoolConv2dBNReLU: 1-55         [16, 128, 32, 32]         (recursive)
│    └─MaxPool2d: 2-711                  [16, 128, 32, 32]         --
│    └─Empty: 2-712                      [16, 128, 32, 32]         --
│    └─Empty: 2-713                      [16, 128, 32, 32]         --
│    └─OutputShiftSqueeze: 2-714         --                        --
│    └─One: 2-715                        [1]                       --
│    └─OutputScale: 2-716                --                        --
│    └─Empty: 2-717                      [128, 128, 3, 3]          --
│    └─Empty: 2-718                      [128, 128, 3, 3]          --
│    └─Empty: 2-719                      [128]                     --
│    └─Empty: 2-720                      [128]                     --
│    └─BatchNorm2d: 2-721                [16, 128, 32, 32]         --
│    └─Scaler: 2-722                     [16, 128, 32, 32]         --
│    └─ReLU: 2-723                       [16, 128, 32, 32]         --
│    └─Empty: 2-724                      [16, 128, 32, 32]         --
│    └─Clamp: 2-725                      [16, 128, 32, 32]         --
├─FusedMaxPoolConv2dBNReLU: 1-56         [16, 128, 16, 16]         (recursive)
│    └─MaxPool2d: 2-726                  [16, 128, 16, 16]         --
│    └─Empty: 2-727                      [16, 128, 16, 16]         --
│    └─Empty: 2-728                      [16, 128, 16, 16]         --
│    └─OutputShiftSqueeze: 2-729         --                        --
│    └─One: 2-730                        [1]                       --
│    └─OutputScale: 2-731                --                        --
│    └─Empty: 2-732                      [128, 128, 3, 3]          --
│    └─Empty: 2-733                      [128, 128, 3, 3]          --
│    └─Empty: 2-734                      [128]                     --
│    └─Empty: 2-735                      [128]                     --
│    └─BatchNorm2d: 2-736                [16, 128, 16, 16]         --
│    └─Scaler: 2-737                     [16, 128, 16, 16]         --
│    └─ReLU: 2-738                       [16, 128, 16, 16]         --
│    └─Empty: 2-739                      [16, 128, 16, 16]         --
│    └─Clamp: 2-740                      [16, 128, 16, 16]         --
├─FusedConv2dBNReLU: 1-57                [16, 128, 16, 16]         (recursive)
│    └─OutputShiftSqueeze: 2-741         --                        --
│    └─One: 2-742                        [1]                       --
│    └─OutputScale: 2-743                --                        --
│    └─Empty: 2-744                      [128, 128, 1, 1]          --
│    └─Empty: 2-745                      [128, 128, 1, 1]          --
│    └─Empty: 2-746                      [128]                     --
│    └─Empty: 2-747                      [128]                     --
│    └─BatchNorm2d: 2-748                [16, 128, 16, 16]         --
│    └─Scaler: 2-749                     [16, 128, 16, 16]         --
│    └─ReLU: 2-750                       [16, 128, 16, 16]         --
│    └─Empty: 2-751                      [16, 128, 16, 16]         --
│    └─Clamp: 2-752                      [16, 128, 16, 16]         --
├─FusedMaxPoolConv2dBNReLU: 1-58         [16, 128, 16, 16]         (recursive)
│    └─MaxPool2d: 2-753                  [16, 128, 16, 16]         --
│    └─Empty: 2-754                      [16, 128, 16, 16]         --
│    └─Empty: 2-755                      [16, 128, 16, 16]         --
│    └─OutputShiftSqueeze: 2-756         --                        --
│    └─One: 2-757                        [1]                       --
│    └─OutputScale: 2-758                --                        --
│    └─Empty: 2-759                      [128, 128, 3, 3]          --
│    └─Empty: 2-760                      [128, 128, 3, 3]          --
│    └─Empty: 2-761                      [128]                     --
│    └─Empty: 2-762                      [128]                     --
│    └─BatchNorm2d: 2-763                [16, 128, 16, 16]         --
│    └─Scaler: 2-764                     [16, 128, 16, 16]         --
│    └─ReLU: 2-765                       [16, 128, 16, 16]         --
│    └─Empty: 2-766                      [16, 128, 16, 16]         --
│    └─Clamp: 2-767                      [16, 128, 16, 16]         --
├─FusedMaxPoolConv2dBNReLU: 1-59         [16, 128, 8, 8]           (recursive)
│    └─MaxPool2d: 2-768                  [16, 128, 8, 8]           --
│    └─Empty: 2-769                      [16, 128, 8, 8]           --
│    └─Empty: 2-770                      [16, 128, 8, 8]           --
│    └─OutputShiftSqueeze: 2-771         --                        --
│    └─One: 2-772                        [1]                       --
│    └─OutputScale: 2-773                --                        --
│    └─Empty: 2-774                      [128, 128, 3, 3]          --
│    └─Empty: 2-775                      [128, 128, 3, 3]          --
│    └─Empty: 2-776                      [128]                     --
│    └─Empty: 2-777                      [128]                     --
│    └─BatchNorm2d: 2-778                [16, 128, 8, 8]           --
│    └─Scaler: 2-779                     [16, 128, 8, 8]           --
│    └─ReLU: 2-780                       [16, 128, 8, 8]           --
│    └─Empty: 2-781                      [16, 128, 8, 8]           --
│    └─Clamp: 2-782                      [16, 128, 8, 8]           --
├─FusedConv2dBNReLU: 1-60                [16, 16, 8, 8]            (recursive)
│    └─OutputShiftSqueeze: 2-783         --                        --
│    └─One: 2-784                        [1]                       --
│    └─OutputScale: 2-785                --                        --
│    └─Empty: 2-786                      [16, 128, 1, 1]           --
│    └─Empty: 2-787                      [16, 128, 1, 1]           --
│    └─Empty: 2-788                      [16]                      --
│    └─Empty: 2-789                      [16]                      --
│    └─BatchNorm2d: 2-790                [16, 16, 8, 8]            --
│    └─Scaler: 2-791                     [16, 16, 8, 8]            --
│    └─ReLU: 2-792                       [16, 16, 8, 8]            --
│    └─Empty: 2-793                      [16, 16, 8, 8]            --
│    └─Clamp: 2-794                      [16, 16, 8, 8]            --
├─FusedMaxPoolConv2dBNReLU: 1-61         [16, 16, 8, 8]            (recursive)
│    └─MaxPool2d: 2-795                  [16, 128, 8, 8]           --
│    └─Empty: 2-796                      [16, 128, 8, 8]           --
│    └─Empty: 2-797                      [16, 128, 8, 8]           --
│    └─OutputShiftSqueeze: 2-798         --                        --
│    └─One: 2-799                        [1]                       --
│    └─OutputScale: 2-800                --                        --
│    └─Empty: 2-801                      [16, 128, 3, 3]           --
│    └─Empty: 2-802                      [16, 128, 3, 3]           --
│    └─Empty: 2-803                      [16]                      --
│    └─Empty: 2-804                      [16]                      --
│    └─BatchNorm2d: 2-805                [16, 16, 8, 8]            --
│    └─Scaler: 2-806                     [16, 16, 8, 8]            --
│    └─ReLU: 2-807                       [16, 16, 8, 8]            --
│    └─Empty: 2-808                      [16, 16, 8, 8]            --
│    └─Clamp: 2-809                      [16, 16, 8, 8]            --
├─FusedConv2dBNReLU: 1-62                [16, 128, 64, 64]         (recursive)
│    └─OutputShiftSqueeze: 2-810         --                        --
│    └─One: 2-811                        [1]                       --
│    └─OutputScale: 2-812                --                        --
│    └─Empty: 2-813                      [128, 48, 1, 1]           --
│    └─Empty: 2-814                      [128, 48, 1, 1]           --
│    └─Empty: 2-815                      [128]                     --
│    └─Empty: 2-816                      [128]                     --
│    └─BatchNorm2d: 2-817                [16, 128, 64, 64]         --
│    └─Scaler: 2-818                     [16, 128, 64, 64]         --
│    └─ReLU: 2-819                       [16, 128, 64, 64]         --
│    └─Empty: 2-820                      [16, 128, 64, 64]         --
│    └─Clamp: 2-821                      [16, 128, 64, 64]         --
├─FusedConv2dBNReLU: 1-63                [16, 128, 64, 64]         (recursive)
│    └─OutputShiftSqueeze: 2-822         --                        --
│    └─One: 2-823                        [1]                       --
│    └─OutputScale: 2-824                --                        --
│    └─Empty: 2-825                      [128, 128, 3, 3]          --
│    └─Empty: 2-826                      [128, 128, 3, 3]          --
│    └─Empty: 2-827                      [128]                     --
│    └─Empty: 2-828                      [128]                     --
│    └─BatchNorm2d: 2-829                [16, 128, 64, 64]         --
│    └─Scaler: 2-830                     [16, 128, 64, 64]         --
│    └─ReLU: 2-831                       [16, 128, 64, 64]         --
│    └─Empty: 2-832                      [16, 128, 64, 64]         --
│    └─Clamp: 2-833                      [16, 128, 64, 64]         --
├─FusedMaxPoolConv2dBNReLU: 1-64         [16, 128, 32, 32]         (recursive)
│    └─MaxPool2d: 2-834                  [16, 128, 32, 32]         --
│    └─Empty: 2-835                      [16, 128, 32, 32]         --
│    └─Empty: 2-836                      [16, 128, 32, 32]         --
│    └─OutputShiftSqueeze: 2-837         --                        --
│    └─One: 2-838                        [1]                       --
│    └─OutputScale: 2-839                --                        --
│    └─Empty: 2-840                      [128, 128, 3, 3]          --
│    └─Empty: 2-841                      [128, 128, 3, 3]          --
│    └─Empty: 2-842                      [128]                     --
│    └─Empty: 2-843                      [128]                     --
│    └─BatchNorm2d: 2-844                [16, 128, 32, 32]         --
│    └─Scaler: 2-845                     [16, 128, 32, 32]         --
│    └─ReLU: 2-846                       [16, 128, 32, 32]         --
│    └─Empty: 2-847                      [16, 128, 32, 32]         --
│    └─Clamp: 2-848                      [16, 128, 32, 32]         --
├─FusedConv2dBNReLU: 1-65                [16, 128, 32, 32]         (recursive)
│    └─OutputShiftSqueeze: 2-849         --                        --
│    └─One: 2-850                        [1]                       --
│    └─OutputScale: 2-851                --                        --
│    └─Empty: 2-852                      [128, 128, 1, 1]          --
│    └─Empty: 2-853                      [128, 128, 1, 1]          --
│    └─Empty: 2-854                      [128]                     --
│    └─Empty: 2-855                      [128]                     --
│    └─BatchNorm2d: 2-856                [16, 128, 32, 32]         --
│    └─Scaler: 2-857                     [16, 128, 32, 32]         --
│    └─ReLU: 2-858                       [16, 128, 32, 32]         --
│    └─Empty: 2-859                      [16, 128, 32, 32]         --
│    └─Clamp: 2-860                      [16, 128, 32, 32]         --
├─FusedMaxPoolConv2dBNReLU: 1-66         [16, 128, 32, 32]         (recursive)
│    └─MaxPool2d: 2-861                  [16, 128, 32, 32]         --
│    └─Empty: 2-862                      [16, 128, 32, 32]         --
│    └─Empty: 2-863                      [16, 128, 32, 32]         --
│    └─OutputShiftSqueeze: 2-864         --                        --
│    └─One: 2-865                        [1]                       --
│    └─OutputScale: 2-866                --                        --
│    └─Empty: 2-867                      [128, 128, 3, 3]          --
│    └─Empty: 2-868                      [128, 128, 3, 3]          --
│    └─Empty: 2-869                      [128]                     --
│    └─Empty: 2-870                      [128]                     --
│    └─BatchNorm2d: 2-871                [16, 128, 32, 32]         --
│    └─Scaler: 2-872                     [16, 128, 32, 32]         --
│    └─ReLU: 2-873                       [16, 128, 32, 32]         --
│    └─Empty: 2-874                      [16, 128, 32, 32]         --
│    └─Clamp: 2-875                      [16, 128, 32, 32]         --
├─FusedMaxPoolConv2dBNReLU: 1-67         [16, 128, 16, 16]         (recursive)
│    └─MaxPool2d: 2-876                  [16, 128, 16, 16]         --
│    └─Empty: 2-877                      [16, 128, 16, 16]         --
│    └─Empty: 2-878                      [16, 128, 16, 16]         --
│    └─OutputShiftSqueeze: 2-879         --                        --
│    └─One: 2-880                        [1]                       --
│    └─OutputScale: 2-881                --                        --
│    └─Empty: 2-882                      [128, 128, 3, 3]          --
│    └─Empty: 2-883                      [128, 128, 3, 3]          --
│    └─Empty: 2-884                      [128]                     --
│    └─Empty: 2-885                      [128]                     --
│    └─BatchNorm2d: 2-886                [16, 128, 16, 16]         --
│    └─Scaler: 2-887                     [16, 128, 16, 16]         --
│    └─ReLU: 2-888                       [16, 128, 16, 16]         --
│    └─Empty: 2-889                      [16, 128, 16, 16]         --
│    └─Clamp: 2-890                      [16, 128, 16, 16]         --
├─FusedConv2dBNReLU: 1-68                [16, 128, 16, 16]         (recursive)
│    └─OutputShiftSqueeze: 2-891         --                        --
│    └─One: 2-892                        [1]                       --
│    └─OutputScale: 2-893                --                        --
│    └─Empty: 2-894                      [128, 128, 1, 1]          --
│    └─Empty: 2-895                      [128, 128, 1, 1]          --
│    └─Empty: 2-896                      [128]                     --
│    └─Empty: 2-897                      [128]                     --
│    └─BatchNorm2d: 2-898                [16, 128, 16, 16]         --
│    └─Scaler: 2-899                     [16, 128, 16, 16]         --
│    └─ReLU: 2-900                       [16, 128, 16, 16]         --
│    └─Empty: 2-901                      [16, 128, 16, 16]         --
│    └─Clamp: 2-902                      [16, 128, 16, 16]         --
├─FusedMaxPoolConv2dBNReLU: 1-69         [16, 128, 16, 16]         (recursive)
│    └─MaxPool2d: 2-903                  [16, 128, 16, 16]         --
│    └─Empty: 2-904                      [16, 128, 16, 16]         --
│    └─Empty: 2-905                      [16, 128, 16, 16]         --
│    └─OutputShiftSqueeze: 2-906         --                        --
│    └─One: 2-907                        [1]                       --
│    └─OutputScale: 2-908                --                        --
│    └─Empty: 2-909                      [128, 128, 3, 3]          --
│    └─Empty: 2-910                      [128, 128, 3, 3]          --
│    └─Empty: 2-911                      [128]                     --
│    └─Empty: 2-912                      [128]                     --
│    └─BatchNorm2d: 2-913                [16, 128, 16, 16]         --
│    └─Scaler: 2-914                     [16, 128, 16, 16]         --
│    └─ReLU: 2-915                       [16, 128, 16, 16]         --
│    └─Empty: 2-916                      [16, 128, 16, 16]         --
│    └─Clamp: 2-917                      [16, 128, 16, 16]         --
├─FusedMaxPoolConv2dBNReLU: 1-70         [16, 128, 8, 8]           (recursive)
│    └─MaxPool2d: 2-918                  [16, 128, 8, 8]           --
│    └─Empty: 2-919                      [16, 128, 8, 8]           --
│    └─Empty: 2-920                      [16, 128, 8, 8]           --
│    └─OutputShiftSqueeze: 2-921         --                        --
│    └─One: 2-922                        [1]                       --
│    └─OutputScale: 2-923                --                        --
│    └─Empty: 2-924                      [128, 128, 3, 3]          --
│    └─Empty: 2-925                      [128, 128, 3, 3]          --
│    └─Empty: 2-926                      [128]                     --
│    └─Empty: 2-927                      [128]                     --
│    └─BatchNorm2d: 2-928                [16, 128, 8, 8]           --
│    └─Scaler: 2-929                     [16, 128, 8, 8]           --
│    └─ReLU: 2-930                       [16, 128, 8, 8]           --
│    └─Empty: 2-931                      [16, 128, 8, 8]           --
│    └─Clamp: 2-932                      [16, 128, 8, 8]           --
├─FusedConv2dBNReLU: 1-71                [16, 16, 8, 8]            (recursive)
│    └─OutputShiftSqueeze: 2-933         --                        --
│    └─One: 2-934                        [1]                       --
│    └─OutputScale: 2-935                --                        --
│    └─Empty: 2-936                      [16, 128, 1, 1]           --
│    └─Empty: 2-937                      [16, 128, 1, 1]           --
│    └─Empty: 2-938                      [16]                      --
│    └─Empty: 2-939                      [16]                      --
│    └─BatchNorm2d: 2-940                [16, 16, 8, 8]            --
│    └─Scaler: 2-941                     [16, 16, 8, 8]            --
│    └─ReLU: 2-942                       [16, 16, 8, 8]            --
│    └─Empty: 2-943                      [16, 16, 8, 8]            --
│    └─Clamp: 2-944                      [16, 16, 8, 8]            --
├─FusedMaxPoolConv2dBNReLU: 1-72         [16, 16, 8, 8]            (recursive)
│    └─MaxPool2d: 2-945                  [16, 128, 8, 8]           --
│    └─Empty: 2-946                      [16, 128, 8, 8]           --
│    └─Empty: 2-947                      [16, 128, 8, 8]           --
│    └─OutputShiftSqueeze: 2-948         --                        --
│    └─One: 2-949                        [1]                       --
│    └─OutputScale: 2-950                --                        --
│    └─Empty: 2-951                      [16, 128, 3, 3]           --
│    └─Empty: 2-952                      [16, 128, 3, 3]           --
│    └─Empty: 2-953                      [16]                      --
│    └─Empty: 2-954                      [16]                      --
│    └─BatchNorm2d: 2-955                [16, 16, 8, 8]            --
│    └─Scaler: 2-956                     [16, 16, 8, 8]            --
│    └─ReLU: 2-957                       [16, 16, 8, 8]            --
│    └─Empty: 2-958                      [16, 16, 8, 8]            --
│    └─Clamp: 2-959                      [16, 16, 8, 8]            --
├─FusedConv2dBNReLU: 1-73                [16, 128, 64, 64]         (recursive)
│    └─OutputShiftSqueeze: 2-960         --                        --
│    └─One: 2-961                        [1]                       --
│    └─OutputScale: 2-962                --                        --
│    └─Empty: 2-963                      [128, 48, 1, 1]           --
│    └─Empty: 2-964                      [128, 48, 1, 1]           --
│    └─Empty: 2-965                      [128]                     --
│    └─Empty: 2-966                      [128]                     --
│    └─BatchNorm2d: 2-967                [16, 128, 64, 64]         --
│    └─Scaler: 2-968                     [16, 128, 64, 64]         --
│    └─ReLU: 2-969                       [16, 128, 64, 64]         --
│    └─Empty: 2-970                      [16, 128, 64, 64]         --
│    └─Clamp: 2-971                      [16, 128, 64, 64]         --
├─FusedConv2dBNReLU: 1-74                [16, 128, 64, 64]         (recursive)
│    └─OutputShiftSqueeze: 2-972         --                        --
│    └─One: 2-973                        [1]                       --
│    └─OutputScale: 2-974                --                        --
│    └─Empty: 2-975                      [128, 128, 3, 3]          --
│    └─Empty: 2-976                      [128, 128, 3, 3]          --
│    └─Empty: 2-977                      [128]                     --
│    └─Empty: 2-978                      [128]                     --
│    └─BatchNorm2d: 2-979                [16, 128, 64, 64]         --
│    └─Scaler: 2-980                     [16, 128, 64, 64]         --
│    └─ReLU: 2-981                       [16, 128, 64, 64]         --
│    └─Empty: 2-982                      [16, 128, 64, 64]         --
│    └─Clamp: 2-983                      [16, 128, 64, 64]         --
├─FusedMaxPoolConv2dBNReLU: 1-75         [16, 128, 32, 32]         (recursive)
│    └─MaxPool2d: 2-984                  [16, 128, 32, 32]         --
│    └─Empty: 2-985                      [16, 128, 32, 32]         --
│    └─Empty: 2-986                      [16, 128, 32, 32]         --
│    └─OutputShiftSqueeze: 2-987         --                        --
│    └─One: 2-988                        [1]                       --
│    └─OutputScale: 2-989                --                        --
│    └─Empty: 2-990                      [128, 128, 3, 3]          --
│    └─Empty: 2-991                      [128, 128, 3, 3]          --
│    └─Empty: 2-992                      [128]                     --
│    └─Empty: 2-993                      [128]                     --
│    └─BatchNorm2d: 2-994                [16, 128, 32, 32]         --
│    └─Scaler: 2-995                     [16, 128, 32, 32]         --
│    └─ReLU: 2-996                       [16, 128, 32, 32]         --
│    └─Empty: 2-997                      [16, 128, 32, 32]         --
│    └─Clamp: 2-998                      [16, 128, 32, 32]         --
├─FusedConv2dBNReLU: 1-76                [16, 128, 32, 32]         (recursive)
│    └─OutputShiftSqueeze: 2-999         --                        --
│    └─One: 2-1000                       [1]                       --
│    └─OutputScale: 2-1001               --                        --
│    └─Empty: 2-1002                     [128, 128, 1, 1]          --
│    └─Empty: 2-1003                     [128, 128, 1, 1]          --
│    └─Empty: 2-1004                     [128]                     --
│    └─Empty: 2-1005                     [128]                     --
│    └─BatchNorm2d: 2-1006               [16, 128, 32, 32]         --
│    └─Scaler: 2-1007                    [16, 128, 32, 32]         --
│    └─ReLU: 2-1008                      [16, 128, 32, 32]         --
│    └─Empty: 2-1009                     [16, 128, 32, 32]         --
│    └─Clamp: 2-1010                     [16, 128, 32, 32]         --
├─FusedMaxPoolConv2dBNReLU: 1-77         [16, 128, 32, 32]         (recursive)
│    └─MaxPool2d: 2-1011                 [16, 128, 32, 32]         --
│    └─Empty: 2-1012                     [16, 128, 32, 32]         --
│    └─Empty: 2-1013                     [16, 128, 32, 32]         --
│    └─OutputShiftSqueeze: 2-1014        --                        --
│    └─One: 2-1015                       [1]                       --
│    └─OutputScale: 2-1016               --                        --
│    └─Empty: 2-1017                     [128, 128, 3, 3]          --
│    └─Empty: 2-1018                     [128, 128, 3, 3]          --
│    └─Empty: 2-1019                     [128]                     --
│    └─Empty: 2-1020                     [128]                     --
│    └─BatchNorm2d: 2-1021               [16, 128, 32, 32]         --
│    └─Scaler: 2-1022                    [16, 128, 32, 32]         --
│    └─ReLU: 2-1023                      [16, 128, 32, 32]         --
│    └─Empty: 2-1024                     [16, 128, 32, 32]         --
│    └─Clamp: 2-1025                     [16, 128, 32, 32]         --
├─FusedMaxPoolConv2dBNReLU: 1-78         [16, 128, 16, 16]         (recursive)
│    └─MaxPool2d: 2-1026                 [16, 128, 16, 16]         --
│    └─Empty: 2-1027                     [16, 128, 16, 16]         --
│    └─Empty: 2-1028                     [16, 128, 16, 16]         --
│    └─OutputShiftSqueeze: 2-1029        --                        --
│    └─One: 2-1030                       [1]                       --
│    └─OutputScale: 2-1031               --                        --
│    └─Empty: 2-1032                     [128, 128, 3, 3]          --
│    └─Empty: 2-1033                     [128, 128, 3, 3]          --
│    └─Empty: 2-1034                     [128]                     --
│    └─Empty: 2-1035                     [128]                     --
│    └─BatchNorm2d: 2-1036               [16, 128, 16, 16]         --
│    └─Scaler: 2-1037                    [16, 128, 16, 16]         --
│    └─ReLU: 2-1038                      [16, 128, 16, 16]         --
│    └─Empty: 2-1039                     [16, 128, 16, 16]         --
│    └─Clamp: 2-1040                     [16, 128, 16, 16]         --
├─FusedConv2dBNReLU: 1-79                [16, 128, 16, 16]         (recursive)
│    └─OutputShiftSqueeze: 2-1041        --                        --
│    └─One: 2-1042                       [1]                       --
│    └─OutputScale: 2-1043               --                        --
│    └─Empty: 2-1044                     [128, 128, 1, 1]          --
│    └─Empty: 2-1045                     [128, 128, 1, 1]          --
│    └─Empty: 2-1046                     [128]                     --
│    └─Empty: 2-1047                     [128]                     --
│    └─BatchNorm2d: 2-1048               [16, 128, 16, 16]         --
│    └─Scaler: 2-1049                    [16, 128, 16, 16]         --
│    └─ReLU: 2-1050                      [16, 128, 16, 16]         --
│    └─Empty: 2-1051                     [16, 128, 16, 16]         --
│    └─Clamp: 2-1052                     [16, 128, 16, 16]         --
├─FusedMaxPoolConv2dBNReLU: 1-80         [16, 128, 16, 16]         (recursive)
│    └─MaxPool2d: 2-1053                 [16, 128, 16, 16]         --
│    └─Empty: 2-1054                     [16, 128, 16, 16]         --
│    └─Empty: 2-1055                     [16, 128, 16, 16]         --
│    └─OutputShiftSqueeze: 2-1056        --                        --
│    └─One: 2-1057                       [1]                       --
│    └─OutputScale: 2-1058               --                        --
│    └─Empty: 2-1059                     [128, 128, 3, 3]          --
│    └─Empty: 2-1060                     [128, 128, 3, 3]          --
│    └─Empty: 2-1061                     [128]                     --
│    └─Empty: 2-1062                     [128]                     --
│    └─BatchNorm2d: 2-1063               [16, 128, 16, 16]         --
│    └─Scaler: 2-1064                    [16, 128, 16, 16]         --
│    └─ReLU: 2-1065                      [16, 128, 16, 16]         --
│    └─Empty: 2-1066                     [16, 128, 16, 16]         --
│    └─Clamp: 2-1067                     [16, 128, 16, 16]         --
├─FusedMaxPoolConv2dBNReLU: 1-81         [16, 128, 8, 8]           (recursive)
│    └─MaxPool2d: 2-1068                 [16, 128, 8, 8]           --
│    └─Empty: 2-1069                     [16, 128, 8, 8]           --
│    └─Empty: 2-1070                     [16, 128, 8, 8]           --
│    └─OutputShiftSqueeze: 2-1071        --                        --
│    └─One: 2-1072                       [1]                       --
│    └─OutputScale: 2-1073               --                        --
│    └─Empty: 2-1074                     [128, 128, 3, 3]          --
│    └─Empty: 2-1075                     [128, 128, 3, 3]          --
│    └─Empty: 2-1076                     [128]                     --
│    └─Empty: 2-1077                     [128]                     --
│    └─BatchNorm2d: 2-1078               [16, 128, 8, 8]           --
│    └─Scaler: 2-1079                    [16, 128, 8, 8]           --
│    └─ReLU: 2-1080                      [16, 128, 8, 8]           --
│    └─Empty: 2-1081                     [16, 128, 8, 8]           --
│    └─Clamp: 2-1082                     [16, 128, 8, 8]           --
├─FusedConv2dBNReLU: 1-82                [16, 16, 8, 8]            (recursive)
│    └─OutputShiftSqueeze: 2-1083        --                        --
│    └─One: 2-1084                       [1]                       --
│    └─OutputScale: 2-1085               --                        --
│    └─Empty: 2-1086                     [16, 128, 1, 1]           --
│    └─Empty: 2-1087                     [16, 128, 1, 1]           --
│    └─Empty: 2-1088                     [16]                      --
│    └─Empty: 2-1089                     [16]                      --
│    └─BatchNorm2d: 2-1090               [16, 16, 8, 8]            --
│    └─Scaler: 2-1091                    [16, 16, 8, 8]            --
│    └─ReLU: 2-1092                      [16, 16, 8, 8]            --
│    └─Empty: 2-1093                     [16, 16, 8, 8]            --
│    └─Clamp: 2-1094                     [16, 16, 8, 8]            --
├─FusedMaxPoolConv2dBNReLU: 1-83         [16, 16, 8, 8]            (recursive)
│    └─MaxPool2d: 2-1095                 [16, 128, 8, 8]           --
│    └─Empty: 2-1096                     [16, 128, 8, 8]           --
│    └─Empty: 2-1097                     [16, 128, 8, 8]           --
│    └─OutputShiftSqueeze: 2-1098        --                        --
│    └─One: 2-1099                       [1]                       --
│    └─OutputScale: 2-1100               --                        --
│    └─Empty: 2-1101                     [16, 128, 3, 3]           --
│    └─Empty: 2-1102                     [16, 128, 3, 3]           --
│    └─Empty: 2-1103                     [16]                      --
│    └─Empty: 2-1104                     [16]                      --
│    └─BatchNorm2d: 2-1105               [16, 16, 8, 8]            --
│    └─Scaler: 2-1106                    [16, 16, 8, 8]            --
│    └─ReLU: 2-1107                      [16, 16, 8, 8]            --
│    └─Empty: 2-1108                     [16, 16, 8, 8]            --
│    └─Clamp: 2-1109                     [16, 16, 8, 8]            --
├─FusedConv2dBNReLU: 1-84                [16, 128, 64, 64]         (recursive)
│    └─OutputShiftSqueeze: 2-1110        --                        --
│    └─One: 2-1111                       [1]                       --
│    └─OutputScale: 2-1112               --                        --
│    └─Empty: 2-1113                     [128, 48, 1, 1]           --
│    └─Empty: 2-1114                     [128, 48, 1, 1]           --
│    └─Empty: 2-1115                     [128]                     --
│    └─Empty: 2-1116                     [128]                     --
│    └─BatchNorm2d: 2-1117               [16, 128, 64, 64]         --
│    └─Scaler: 2-1118                    [16, 128, 64, 64]         --
│    └─ReLU: 2-1119                      [16, 128, 64, 64]         --
│    └─Empty: 2-1120                     [16, 128, 64, 64]         --
│    └─Clamp: 2-1121                     [16, 128, 64, 64]         --
├─FusedConv2dBNReLU: 1-85                [16, 128, 64, 64]         (recursive)
│    └─OutputShiftSqueeze: 2-1122        --                        --
│    └─One: 2-1123                       [1]                       --
│    └─OutputScale: 2-1124               --                        --
│    └─Empty: 2-1125                     [128, 128, 3, 3]          --
│    └─Empty: 2-1126                     [128, 128, 3, 3]          --
│    └─Empty: 2-1127                     [128]                     --
│    └─Empty: 2-1128                     [128]                     --
│    └─BatchNorm2d: 2-1129               [16, 128, 64, 64]         --
│    └─Scaler: 2-1130                    [16, 128, 64, 64]         --
│    └─ReLU: 2-1131                      [16, 128, 64, 64]         --
│    └─Empty: 2-1132                     [16, 128, 64, 64]         --
│    └─Clamp: 2-1133                     [16, 128, 64, 64]         --
├─FusedMaxPoolConv2dBNReLU: 1-86         [16, 128, 32, 32]         (recursive)
│    └─MaxPool2d: 2-1134                 [16, 128, 32, 32]         --
│    └─Empty: 2-1135                     [16, 128, 32, 32]         --
│    └─Empty: 2-1136                     [16, 128, 32, 32]         --
│    └─OutputShiftSqueeze: 2-1137        --                        --
│    └─One: 2-1138                       [1]                       --
│    └─OutputScale: 2-1139               --                        --
│    └─Empty: 2-1140                     [128, 128, 3, 3]          --
│    └─Empty: 2-1141                     [128, 128, 3, 3]          --
│    └─Empty: 2-1142                     [128]                     --
│    └─Empty: 2-1143                     [128]                     --
│    └─BatchNorm2d: 2-1144               [16, 128, 32, 32]         --
│    └─Scaler: 2-1145                    [16, 128, 32, 32]         --
│    └─ReLU: 2-1146                      [16, 128, 32, 32]         --
│    └─Empty: 2-1147                     [16, 128, 32, 32]         --
│    └─Clamp: 2-1148                     [16, 128, 32, 32]         --
├─FusedConv2dBNReLU: 1-87                [16, 128, 32, 32]         (recursive)
│    └─OutputShiftSqueeze: 2-1149        --                        --
│    └─One: 2-1150                       [1]                       --
│    └─OutputScale: 2-1151               --                        --
│    └─Empty: 2-1152                     [128, 128, 1, 1]          --
│    └─Empty: 2-1153                     [128, 128, 1, 1]          --
│    └─Empty: 2-1154                     [128]                     --
│    └─Empty: 2-1155                     [128]                     --
│    └─BatchNorm2d: 2-1156               [16, 128, 32, 32]         --
│    └─Scaler: 2-1157                    [16, 128, 32, 32]         --
│    └─ReLU: 2-1158                      [16, 128, 32, 32]         --
│    └─Empty: 2-1159                     [16, 128, 32, 32]         --
│    └─Clamp: 2-1160                     [16, 128, 32, 32]         --
├─FusedMaxPoolConv2dBNReLU: 1-88         [16, 128, 32, 32]         (recursive)
│    └─MaxPool2d: 2-1161                 [16, 128, 32, 32]         --
│    └─Empty: 2-1162                     [16, 128, 32, 32]         --
│    └─Empty: 2-1163                     [16, 128, 32, 32]         --
│    └─OutputShiftSqueeze: 2-1164        --                        --
│    └─One: 2-1165                       [1]                       --
│    └─OutputScale: 2-1166               --                        --
│    └─Empty: 2-1167                     [128, 128, 3, 3]          --
│    └─Empty: 2-1168                     [128, 128, 3, 3]          --
│    └─Empty: 2-1169                     [128]                     --
│    └─Empty: 2-1170                     [128]                     --
│    └─BatchNorm2d: 2-1171               [16, 128, 32, 32]         --
│    └─Scaler: 2-1172                    [16, 128, 32, 32]         --
│    └─ReLU: 2-1173                      [16, 128, 32, 32]         --
│    └─Empty: 2-1174                     [16, 128, 32, 32]         --
│    └─Clamp: 2-1175                     [16, 128, 32, 32]         --
├─FusedMaxPoolConv2dBNReLU: 1-89         [16, 128, 16, 16]         (recursive)
│    └─MaxPool2d: 2-1176                 [16, 128, 16, 16]         --
│    └─Empty: 2-1177                     [16, 128, 16, 16]         --
│    └─Empty: 2-1178                     [16, 128, 16, 16]         --
│    └─OutputShiftSqueeze: 2-1179        --                        --
│    └─One: 2-1180                       [1]                       --
│    └─OutputScale: 2-1181               --                        --
│    └─Empty: 2-1182                     [128, 128, 3, 3]          --
│    └─Empty: 2-1183                     [128, 128, 3, 3]          --
│    └─Empty: 2-1184                     [128]                     --
│    └─Empty: 2-1185                     [128]                     --
│    └─BatchNorm2d: 2-1186               [16, 128, 16, 16]         --
│    └─Scaler: 2-1187                    [16, 128, 16, 16]         --
│    └─ReLU: 2-1188                      [16, 128, 16, 16]         --
│    └─Empty: 2-1189                     [16, 128, 16, 16]         --
│    └─Clamp: 2-1190                     [16, 128, 16, 16]         --
├─FusedConv2dBNReLU: 1-90                [16, 128, 16, 16]         (recursive)
│    └─OutputShiftSqueeze: 2-1191        --                        --
│    └─One: 2-1192                       [1]                       --
│    └─OutputScale: 2-1193               --                        --
│    └─Empty: 2-1194                     [128, 128, 1, 1]          --
│    └─Empty: 2-1195                     [128, 128, 1, 1]          --
│    └─Empty: 2-1196                     [128]                     --
│    └─Empty: 2-1197                     [128]                     --
│    └─BatchNorm2d: 2-1198               [16, 128, 16, 16]         --
│    └─Scaler: 2-1199                    [16, 128, 16, 16]         --
│    └─ReLU: 2-1200                      [16, 128, 16, 16]         --
│    └─Empty: 2-1201                     [16, 128, 16, 16]         --
│    └─Clamp: 2-1202                     [16, 128, 16, 16]         --
├─FusedMaxPoolConv2dBNReLU: 1-91         [16, 128, 16, 16]         (recursive)
│    └─MaxPool2d: 2-1203                 [16, 128, 16, 16]         --
│    └─Empty: 2-1204                     [16, 128, 16, 16]         --
│    └─Empty: 2-1205                     [16, 128, 16, 16]         --
│    └─OutputShiftSqueeze: 2-1206        --                        --
│    └─One: 2-1207                       [1]                       --
│    └─OutputScale: 2-1208               --                        --
│    └─Empty: 2-1209                     [128, 128, 3, 3]          --
│    └─Empty: 2-1210                     [128, 128, 3, 3]          --
│    └─Empty: 2-1211                     [128]                     --
│    └─Empty: 2-1212                     [128]                     --
│    └─BatchNorm2d: 2-1213               [16, 128, 16, 16]         --
│    └─Scaler: 2-1214                    [16, 128, 16, 16]         --
│    └─ReLU: 2-1215                      [16, 128, 16, 16]         --
│    └─Empty: 2-1216                     [16, 128, 16, 16]         --
│    └─Clamp: 2-1217                     [16, 128, 16, 16]         --
├─FusedMaxPoolConv2dBNReLU: 1-92         [16, 128, 8, 8]           (recursive)
│    └─MaxPool2d: 2-1218                 [16, 128, 8, 8]           --
│    └─Empty: 2-1219                     [16, 128, 8, 8]           --
│    └─Empty: 2-1220                     [16, 128, 8, 8]           --
│    └─OutputShiftSqueeze: 2-1221        --                        --
│    └─One: 2-1222                       [1]                       --
│    └─OutputScale: 2-1223               --                        --
│    └─Empty: 2-1224                     [128, 128, 3, 3]          --
│    └─Empty: 2-1225                     [128, 128, 3, 3]          --
│    └─Empty: 2-1226                     [128]                     --
│    └─Empty: 2-1227                     [128]                     --
│    └─BatchNorm2d: 2-1228               [16, 128, 8, 8]           --
│    └─Scaler: 2-1229                    [16, 128, 8, 8]           --
│    └─ReLU: 2-1230                      [16, 128, 8, 8]           --
│    └─Empty: 2-1231                     [16, 128, 8, 8]           --
│    └─Clamp: 2-1232                     [16, 128, 8, 8]           --
├─FusedConv2dBNReLU: 1-93                [16, 16, 8, 8]            (recursive)
│    └─OutputShiftSqueeze: 2-1233        --                        --
│    └─One: 2-1234                       [1]                       --
│    └─OutputScale: 2-1235               --                        --
│    └─Empty: 2-1236                     [16, 128, 1, 1]           --
│    └─Empty: 2-1237                     [16, 128, 1, 1]           --
│    └─Empty: 2-1238                     [16]                      --
│    └─Empty: 2-1239                     [16]                      --
│    └─BatchNorm2d: 2-1240               [16, 16, 8, 8]            --
│    └─Scaler: 2-1241                    [16, 16, 8, 8]            --
│    └─ReLU: 2-1242                      [16, 16, 8, 8]            --
│    └─Empty: 2-1243                     [16, 16, 8, 8]            --
│    └─Clamp: 2-1244                     [16, 16, 8, 8]            --
├─FusedMaxPoolConv2dBNReLU: 1-94         [16, 16, 8, 8]            (recursive)
│    └─MaxPool2d: 2-1245                 [16, 128, 8, 8]           --
│    └─Empty: 2-1246                     [16, 128, 8, 8]           --
│    └─Empty: 2-1247                     [16, 128, 8, 8]           --
│    └─OutputShiftSqueeze: 2-1248        --                        --
│    └─One: 2-1249                       [1]                       --
│    └─OutputScale: 2-1250               --                        --
│    └─Empty: 2-1251                     [16, 128, 3, 3]           --
│    └─Empty: 2-1252                     [16, 128, 3, 3]           --
│    └─Empty: 2-1253                     [16]                      --
│    └─Empty: 2-1254                     [16]                      --
│    └─BatchNorm2d: 2-1255               [16, 16, 8, 8]            --
│    └─Scaler: 2-1256                    [16, 16, 8, 8]            --
│    └─ReLU: 2-1257                      [16, 16, 8, 8]            --
│    └─Empty: 2-1258                     [16, 16, 8, 8]            --
│    └─Clamp: 2-1259                     [16, 16, 8, 8]            --
├─FusedConv2dBNReLU: 1-95                [16, 128, 64, 64]         (recursive)
│    └─OutputShiftSqueeze: 2-1260        --                        --
│    └─One: 2-1261                       [1]                       --
│    └─OutputScale: 2-1262               --                        --
│    └─Empty: 2-1263                     [128, 48, 1, 1]           --
│    └─Empty: 2-1264                     [128, 48, 1, 1]           --
│    └─Empty: 2-1265                     [128]                     --
│    └─Empty: 2-1266                     [128]                     --
│    └─BatchNorm2d: 2-1267               [16, 128, 64, 64]         --
│    └─Scaler: 2-1268                    [16, 128, 64, 64]         --
│    └─ReLU: 2-1269                      [16, 128, 64, 64]         --
│    └─Empty: 2-1270                     [16, 128, 64, 64]         --
│    └─Clamp: 2-1271                     [16, 128, 64, 64]         --
├─FusedConv2dBNReLU: 1-96                [16, 128, 64, 64]         (recursive)
│    └─OutputShiftSqueeze: 2-1272        --                        --
│    └─One: 2-1273                       [1]                       --
│    └─OutputScale: 2-1274               --                        --
│    └─Empty: 2-1275                     [128, 128, 3, 3]          --
│    └─Empty: 2-1276                     [128, 128, 3, 3]          --
│    └─Empty: 2-1277                     [128]                     --
│    └─Empty: 2-1278                     [128]                     --
│    └─BatchNorm2d: 2-1279               [16, 128, 64, 64]         --
│    └─Scaler: 2-1280                    [16, 128, 64, 64]         --
│    └─ReLU: 2-1281                      [16, 128, 64, 64]         --
│    └─Empty: 2-1282                     [16, 128, 64, 64]         --
│    └─Clamp: 2-1283                     [16, 128, 64, 64]         --
├─FusedMaxPoolConv2dBNReLU: 1-97         [16, 128, 32, 32]         (recursive)
│    └─MaxPool2d: 2-1284                 [16, 128, 32, 32]         --
│    └─Empty: 2-1285                     [16, 128, 32, 32]         --
│    └─Empty: 2-1286                     [16, 128, 32, 32]         --
│    └─OutputShiftSqueeze: 2-1287        --                        --
│    └─One: 2-1288                       [1]                       --
│    └─OutputScale: 2-1289               --                        --
│    └─Empty: 2-1290                     [128, 128, 3, 3]          --
│    └─Empty: 2-1291                     [128, 128, 3, 3]          --
│    └─Empty: 2-1292                     [128]                     --
│    └─Empty: 2-1293                     [128]                     --
│    └─BatchNorm2d: 2-1294               [16, 128, 32, 32]         --
│    └─Scaler: 2-1295                    [16, 128, 32, 32]         --
│    └─ReLU: 2-1296                      [16, 128, 32, 32]         --
│    └─Empty: 2-1297                     [16, 128, 32, 32]         --
│    └─Clamp: 2-1298                     [16, 128, 32, 32]         --
├─FusedConv2dBNReLU: 1-98                [16, 128, 32, 32]         (recursive)
│    └─OutputShiftSqueeze: 2-1299        --                        --
│    └─One: 2-1300                       [1]                       --
│    └─OutputScale: 2-1301               --                        --
│    └─Empty: 2-1302                     [128, 128, 1, 1]          --
│    └─Empty: 2-1303                     [128, 128, 1, 1]          --
│    └─Empty: 2-1304                     [128]                     --
│    └─Empty: 2-1305                     [128]                     --
│    └─BatchNorm2d: 2-1306               [16, 128, 32, 32]         --
│    └─Scaler: 2-1307                    [16, 128, 32, 32]         --
│    └─ReLU: 2-1308                      [16, 128, 32, 32]         --
│    └─Empty: 2-1309                     [16, 128, 32, 32]         --
│    └─Clamp: 2-1310                     [16, 128, 32, 32]         --
├─FusedMaxPoolConv2dBNReLU: 1-99         [16, 128, 32, 32]         (recursive)
│    └─MaxPool2d: 2-1311                 [16, 128, 32, 32]         --
│    └─Empty: 2-1312                     [16, 128, 32, 32]         --
│    └─Empty: 2-1313                     [16, 128, 32, 32]         --
│    └─OutputShiftSqueeze: 2-1314        --                        --
│    └─One: 2-1315                       [1]                       --
│    └─OutputScale: 2-1316               --                        --
│    └─Empty: 2-1317                     [128, 128, 3, 3]          --
│    └─Empty: 2-1318                     [128, 128, 3, 3]          --
│    └─Empty: 2-1319                     [128]                     --
│    └─Empty: 2-1320                     [128]                     --
│    └─BatchNorm2d: 2-1321               [16, 128, 32, 32]         --
│    └─Scaler: 2-1322                    [16, 128, 32, 32]         --
│    └─ReLU: 2-1323                      [16, 128, 32, 32]         --
│    └─Empty: 2-1324                     [16, 128, 32, 32]         --
│    └─Clamp: 2-1325                     [16, 128, 32, 32]         --
├─FusedMaxPoolConv2dBNReLU: 1-100        [16, 128, 16, 16]         (recursive)
│    └─MaxPool2d: 2-1326                 [16, 128, 16, 16]         --
│    └─Empty: 2-1327                     [16, 128, 16, 16]         --
│    └─Empty: 2-1328                     [16, 128, 16, 16]         --
│    └─OutputShiftSqueeze: 2-1329        --                        --
│    └─One: 2-1330                       [1]                       --
│    └─OutputScale: 2-1331               --                        --
│    └─Empty: 2-1332                     [128, 128, 3, 3]          --
│    └─Empty: 2-1333                     [128, 128, 3, 3]          --
│    └─Empty: 2-1334                     [128]                     --
│    └─Empty: 2-1335                     [128]                     --
│    └─BatchNorm2d: 2-1336               [16, 128, 16, 16]         --
│    └─Scaler: 2-1337                    [16, 128, 16, 16]         --
│    └─ReLU: 2-1338                      [16, 128, 16, 16]         --
│    └─Empty: 2-1339                     [16, 128, 16, 16]         --
│    └─Clamp: 2-1340                     [16, 128, 16, 16]         --
├─FusedConv2dBNReLU: 1-101               [16, 128, 16, 16]         (recursive)
│    └─OutputShiftSqueeze: 2-1341        --                        --
│    └─One: 2-1342                       [1]                       --
│    └─OutputScale: 2-1343               --                        --
│    └─Empty: 2-1344                     [128, 128, 1, 1]          --
│    └─Empty: 2-1345                     [128, 128, 1, 1]          --
│    └─Empty: 2-1346                     [128]                     --
│    └─Empty: 2-1347                     [128]                     --
│    └─BatchNorm2d: 2-1348               [16, 128, 16, 16]         --
│    └─Scaler: 2-1349                    [16, 128, 16, 16]         --
│    └─ReLU: 2-1350                      [16, 128, 16, 16]         --
│    └─Empty: 2-1351                     [16, 128, 16, 16]         --
│    └─Clamp: 2-1352                     [16, 128, 16, 16]         --
├─FusedMaxPoolConv2dBNReLU: 1-102        [16, 128, 16, 16]         (recursive)
│    └─MaxPool2d: 2-1353                 [16, 128, 16, 16]         --
│    └─Empty: 2-1354                     [16, 128, 16, 16]         --
│    └─Empty: 2-1355                     [16, 128, 16, 16]         --
│    └─OutputShiftSqueeze: 2-1356        --                        --
│    └─One: 2-1357                       [1]                       --
│    └─OutputScale: 2-1358               --                        --
│    └─Empty: 2-1359                     [128, 128, 3, 3]          --
│    └─Empty: 2-1360                     [128, 128, 3, 3]          --
│    └─Empty: 2-1361                     [128]                     --
│    └─Empty: 2-1362                     [128]                     --
│    └─BatchNorm2d: 2-1363               [16, 128, 16, 16]         --
│    └─Scaler: 2-1364                    [16, 128, 16, 16]         --
│    └─ReLU: 2-1365                      [16, 128, 16, 16]         --
│    └─Empty: 2-1366                     [16, 128, 16, 16]         --
│    └─Clamp: 2-1367                     [16, 128, 16, 16]         --
├─FusedMaxPoolConv2dBNReLU: 1-103        [16, 128, 8, 8]           (recursive)
│    └─MaxPool2d: 2-1368                 [16, 128, 8, 8]           --
│    └─Empty: 2-1369                     [16, 128, 8, 8]           --
│    └─Empty: 2-1370                     [16, 128, 8, 8]           --
│    └─OutputShiftSqueeze: 2-1371        --                        --
│    └─One: 2-1372                       [1]                       --
│    └─OutputScale: 2-1373               --                        --
│    └─Empty: 2-1374                     [128, 128, 3, 3]          --
│    └─Empty: 2-1375                     [128, 128, 3, 3]          --
│    └─Empty: 2-1376                     [128]                     --
│    └─Empty: 2-1377                     [128]                     --
│    └─BatchNorm2d: 2-1378               [16, 128, 8, 8]           --
│    └─Scaler: 2-1379                    [16, 128, 8, 8]           --
│    └─ReLU: 2-1380                      [16, 128, 8, 8]           --
│    └─Empty: 2-1381                     [16, 128, 8, 8]           --
│    └─Clamp: 2-1382                     [16, 128, 8, 8]           --
├─FusedConv2dBNReLU: 1-104               [16, 16, 8, 8]            (recursive)
│    └─OutputShiftSqueeze: 2-1383        --                        --
│    └─One: 2-1384                       [1]                       --
│    └─OutputScale: 2-1385               --                        --
│    └─Empty: 2-1386                     [16, 128, 1, 1]           --
│    └─Empty: 2-1387                     [16, 128, 1, 1]           --
│    └─Empty: 2-1388                     [16]                      --
│    └─Empty: 2-1389                     [16]                      --
│    └─BatchNorm2d: 2-1390               [16, 16, 8, 8]            --
│    └─Scaler: 2-1391                    [16, 16, 8, 8]            --
│    └─ReLU: 2-1392                      [16, 16, 8, 8]            --
│    └─Empty: 2-1393                     [16, 16, 8, 8]            --
│    └─Clamp: 2-1394                     [16, 16, 8, 8]            --
├─FusedMaxPoolConv2dBNReLU: 1-105        [16, 16, 8, 8]            (recursive)
│    └─MaxPool2d: 2-1395                 [16, 128, 8, 8]           --
│    └─Empty: 2-1396                     [16, 128, 8, 8]           --
│    └─Empty: 2-1397                     [16, 128, 8, 8]           --
│    └─OutputShiftSqueeze: 2-1398        --                        --
│    └─One: 2-1399                       [1]                       --
│    └─OutputScale: 2-1400               --                        --
│    └─Empty: 2-1401                     [16, 128, 3, 3]           --
│    └─Empty: 2-1402                     [16, 128, 3, 3]           --
│    └─Empty: 2-1403                     [16]                      --
│    └─Empty: 2-1404                     [16]                      --
│    └─BatchNorm2d: 2-1405               [16, 16, 8, 8]            --
│    └─Scaler: 2-1406                    [16, 16, 8, 8]            --
│    └─ReLU: 2-1407                      [16, 16, 8, 8]            --
│    └─Empty: 2-1408                     [16, 16, 8, 8]            --
│    └─Clamp: 2-1409                     [16, 16, 8, 8]            --
├─FusedConv2dBNReLU: 1-106               [16, 128, 64, 64]         (recursive)
│    └─OutputShiftSqueeze: 2-1410        --                        --
│    └─One: 2-1411                       [1]                       --
│    └─OutputScale: 2-1412               --                        --
│    └─Empty: 2-1413                     [128, 48, 1, 1]           --
│    └─Empty: 2-1414                     [128, 48, 1, 1]           --
│    └─Empty: 2-1415                     [128]                     --
│    └─Empty: 2-1416                     [128]                     --
│    └─BatchNorm2d: 2-1417               [16, 128, 64, 64]         --
│    └─Scaler: 2-1418                    [16, 128, 64, 64]         --
│    └─ReLU: 2-1419                      [16, 128, 64, 64]         --
│    └─Empty: 2-1420                     [16, 128, 64, 64]         --
│    └─Clamp: 2-1421                     [16, 128, 64, 64]         --
├─FusedConv2dBNReLU: 1-107               [16, 128, 64, 64]         (recursive)
│    └─OutputShiftSqueeze: 2-1422        --                        --
│    └─One: 2-1423                       [1]                       --
│    └─OutputScale: 2-1424               --                        --
│    └─Empty: 2-1425                     [128, 128, 3, 3]          --
│    └─Empty: 2-1426                     [128, 128, 3, 3]          --
│    └─Empty: 2-1427                     [128]                     --
│    └─Empty: 2-1428                     [128]                     --
│    └─BatchNorm2d: 2-1429               [16, 128, 64, 64]         --
│    └─Scaler: 2-1430                    [16, 128, 64, 64]         --
│    └─ReLU: 2-1431                      [16, 128, 64, 64]         --
│    └─Empty: 2-1432                     [16, 128, 64, 64]         --
│    └─Clamp: 2-1433                     [16, 128, 64, 64]         --
├─FusedMaxPoolConv2dBNReLU: 1-108        [16, 128, 32, 32]         (recursive)
│    └─MaxPool2d: 2-1434                 [16, 128, 32, 32]         --
│    └─Empty: 2-1435                     [16, 128, 32, 32]         --
│    └─Empty: 2-1436                     [16, 128, 32, 32]         --
│    └─OutputShiftSqueeze: 2-1437        --                        --
│    └─One: 2-1438                       [1]                       --
│    └─OutputScale: 2-1439               --                        --
│    └─Empty: 2-1440                     [128, 128, 3, 3]          --
│    └─Empty: 2-1441                     [128, 128, 3, 3]          --
│    └─Empty: 2-1442                     [128]                     --
│    └─Empty: 2-1443                     [128]                     --
│    └─BatchNorm2d: 2-1444               [16, 128, 32, 32]         --
│    └─Scaler: 2-1445                    [16, 128, 32, 32]         --
│    └─ReLU: 2-1446                      [16, 128, 32, 32]         --
│    └─Empty: 2-1447                     [16, 128, 32, 32]         --
│    └─Clamp: 2-1448                     [16, 128, 32, 32]         --
├─FusedConv2dBNReLU: 1-109               [16, 128, 32, 32]         (recursive)
│    └─OutputShiftSqueeze: 2-1449        --                        --
│    └─One: 2-1450                       [1]                       --
│    └─OutputScale: 2-1451               --                        --
│    └─Empty: 2-1452                     [128, 128, 1, 1]          --
│    └─Empty: 2-1453                     [128, 128, 1, 1]          --
│    └─Empty: 2-1454                     [128]                     --
│    └─Empty: 2-1455                     [128]                     --
│    └─BatchNorm2d: 2-1456               [16, 128, 32, 32]         --
│    └─Scaler: 2-1457                    [16, 128, 32, 32]         --
│    └─ReLU: 2-1458                      [16, 128, 32, 32]         --
│    └─Empty: 2-1459                     [16, 128, 32, 32]         --
│    └─Clamp: 2-1460                     [16, 128, 32, 32]         --
├─FusedMaxPoolConv2dBNReLU: 1-110        [16, 128, 32, 32]         (recursive)
│    └─MaxPool2d: 2-1461                 [16, 128, 32, 32]         --
│    └─Empty: 2-1462                     [16, 128, 32, 32]         --
│    └─Empty: 2-1463                     [16, 128, 32, 32]         --
│    └─OutputShiftSqueeze: 2-1464        --                        --
│    └─One: 2-1465                       [1]                       --
│    └─OutputScale: 2-1466               --                        --
│    └─Empty: 2-1467                     [128, 128, 3, 3]          --
│    └─Empty: 2-1468                     [128, 128, 3, 3]          --
│    └─Empty: 2-1469                     [128]                     --
│    └─Empty: 2-1470                     [128]                     --
│    └─BatchNorm2d: 2-1471               [16, 128, 32, 32]         --
│    └─Scaler: 2-1472                    [16, 128, 32, 32]         --
│    └─ReLU: 2-1473                      [16, 128, 32, 32]         --
│    └─Empty: 2-1474                     [16, 128, 32, 32]         --
│    └─Clamp: 2-1475                     [16, 128, 32, 32]         --
├─FusedMaxPoolConv2dBNReLU: 1-111        [16, 128, 16, 16]         (recursive)
│    └─MaxPool2d: 2-1476                 [16, 128, 16, 16]         --
│    └─Empty: 2-1477                     [16, 128, 16, 16]         --
│    └─Empty: 2-1478                     [16, 128, 16, 16]         --
│    └─OutputShiftSqueeze: 2-1479        --                        --
│    └─One: 2-1480                       [1]                       --
│    └─OutputScale: 2-1481               --                        --
│    └─Empty: 2-1482                     [128, 128, 3, 3]          --
│    └─Empty: 2-1483                     [128, 128, 3, 3]          --
│    └─Empty: 2-1484                     [128]                     --
│    └─Empty: 2-1485                     [128]                     --
│    └─BatchNorm2d: 2-1486               [16, 128, 16, 16]         --
│    └─Scaler: 2-1487                    [16, 128, 16, 16]         --
│    └─ReLU: 2-1488                      [16, 128, 16, 16]         --
│    └─Empty: 2-1489                     [16, 128, 16, 16]         --
│    └─Clamp: 2-1490                     [16, 128, 16, 16]         --
├─FusedConv2dBNReLU: 1-112               [16, 128, 16, 16]         (recursive)
│    └─OutputShiftSqueeze: 2-1491        --                        --
│    └─One: 2-1492                       [1]                       --
│    └─OutputScale: 2-1493               --                        --
│    └─Empty: 2-1494                     [128, 128, 1, 1]          --
│    └─Empty: 2-1495                     [128, 128, 1, 1]          --
│    └─Empty: 2-1496                     [128]                     --
│    └─Empty: 2-1497                     [128]                     --
│    └─BatchNorm2d: 2-1498               [16, 128, 16, 16]         --
│    └─Scaler: 2-1499                    [16, 128, 16, 16]         --
│    └─ReLU: 2-1500                      [16, 128, 16, 16]         --
│    └─Empty: 2-1501                     [16, 128, 16, 16]         --
│    └─Clamp: 2-1502                     [16, 128, 16, 16]         --
├─FusedMaxPoolConv2dBNReLU: 1-113        [16, 128, 16, 16]         (recursive)
│    └─MaxPool2d: 2-1503                 [16, 128, 16, 16]         --
│    └─Empty: 2-1504                     [16, 128, 16, 16]         --
│    └─Empty: 2-1505                     [16, 128, 16, 16]         --
│    └─OutputShiftSqueeze: 2-1506        --                        --
│    └─One: 2-1507                       [1]                       --
│    └─OutputScale: 2-1508               --                        --
│    └─Empty: 2-1509                     [128, 128, 3, 3]          --
│    └─Empty: 2-1510                     [128, 128, 3, 3]          --
│    └─Empty: 2-1511                     [128]                     --
│    └─Empty: 2-1512                     [128]                     --
│    └─BatchNorm2d: 2-1513               [16, 128, 16, 16]         --
│    └─Scaler: 2-1514                    [16, 128, 16, 16]         --
│    └─ReLU: 2-1515                      [16, 128, 16, 16]         --
│    └─Empty: 2-1516                     [16, 128, 16, 16]         --
│    └─Clamp: 2-1517                     [16, 128, 16, 16]         --
├─FusedMaxPoolConv2dBNReLU: 1-114        [16, 128, 8, 8]           (recursive)
│    └─MaxPool2d: 2-1518                 [16, 128, 8, 8]           --
│    └─Empty: 2-1519                     [16, 128, 8, 8]           --
│    └─Empty: 2-1520                     [16, 128, 8, 8]           --
│    └─OutputShiftSqueeze: 2-1521        --                        --
│    └─One: 2-1522                       [1]                       --
│    └─OutputScale: 2-1523               --                        --
│    └─Empty: 2-1524                     [128, 128, 3, 3]          --
│    └─Empty: 2-1525                     [128, 128, 3, 3]          --
│    └─Empty: 2-1526                     [128]                     --
│    └─Empty: 2-1527                     [128]                     --
│    └─BatchNorm2d: 2-1528               [16, 128, 8, 8]           --
│    └─Scaler: 2-1529                    [16, 128, 8, 8]           --
│    └─ReLU: 2-1530                      [16, 128, 8, 8]           --
│    └─Empty: 2-1531                     [16, 128, 8, 8]           --
│    └─Clamp: 2-1532                     [16, 128, 8, 8]           --
├─FusedConv2dBNReLU: 1-115               [16, 16, 8, 8]            (recursive)
│    └─OutputShiftSqueeze: 2-1533        --                        --
│    └─One: 2-1534                       [1]                       --
│    └─OutputScale: 2-1535               --                        --
│    └─Empty: 2-1536                     [16, 128, 1, 1]           --
│    └─Empty: 2-1537                     [16, 128, 1, 1]           --
│    └─Empty: 2-1538                     [16]                      --
│    └─Empty: 2-1539                     [16]                      --
│    └─BatchNorm2d: 2-1540               [16, 16, 8, 8]            --
│    └─Scaler: 2-1541                    [16, 16, 8, 8]            --
│    └─ReLU: 2-1542                      [16, 16, 8, 8]            --
│    └─Empty: 2-1543                     [16, 16, 8, 8]            --
│    └─Clamp: 2-1544                     [16, 16, 8, 8]            --
├─FusedMaxPoolConv2dBNReLU: 1-116        [16, 16, 8, 8]            (recursive)
│    └─MaxPool2d: 2-1545                 [16, 128, 8, 8]           --
│    └─Empty: 2-1546                     [16, 128, 8, 8]           --
│    └─Empty: 2-1547                     [16, 128, 8, 8]           --
│    └─OutputShiftSqueeze: 2-1548        --                        --
│    └─One: 2-1549                       [1]                       --
│    └─OutputScale: 2-1550               --                        --
│    └─Empty: 2-1551                     [16, 128, 3, 3]           --
│    └─Empty: 2-1552                     [16, 128, 3, 3]           --
│    └─Empty: 2-1553                     [16]                      --
│    └─Empty: 2-1554                     [16]                      --
│    └─BatchNorm2d: 2-1555               [16, 16, 8, 8]            --
│    └─Scaler: 2-1556                    [16, 16, 8, 8]            --
│    └─ReLU: 2-1557                      [16, 16, 8, 8]            --
│    └─Empty: 2-1558                     [16, 16, 8, 8]            --
│    └─Clamp: 2-1559                     [16, 16, 8, 8]            --
├─FusedConv2dBNReLU: 1-117               [16, 128, 64, 64]         (recursive)
│    └─OutputShiftSqueeze: 2-1560        --                        --
│    └─One: 2-1561                       [1]                       --
│    └─OutputScale: 2-1562               --                        --
│    └─Empty: 2-1563                     [128, 48, 1, 1]           --
│    └─Empty: 2-1564                     [128, 48, 1, 1]           --
│    └─Empty: 2-1565                     [128]                     --
│    └─Empty: 2-1566                     [128]                     --
│    └─BatchNorm2d: 2-1567               [16, 128, 64, 64]         --
│    └─Scaler: 2-1568                    [16, 128, 64, 64]         --
│    └─ReLU: 2-1569                      [16, 128, 64, 64]         --
│    └─Empty: 2-1570                     [16, 128, 64, 64]         --
│    └─Clamp: 2-1571                     [16, 128, 64, 64]         --
├─FusedConv2dBNReLU: 1-118               [16, 128, 64, 64]         (recursive)
│    └─OutputShiftSqueeze: 2-1572        --                        --
│    └─One: 2-1573                       [1]                       --
│    └─OutputScale: 2-1574               --                        --
│    └─Empty: 2-1575                     [128, 128, 3, 3]          --
│    └─Empty: 2-1576                     [128, 128, 3, 3]          --
│    └─Empty: 2-1577                     [128]                     --
│    └─Empty: 2-1578                     [128]                     --
│    └─BatchNorm2d: 2-1579               [16, 128, 64, 64]         --
│    └─Scaler: 2-1580                    [16, 128, 64, 64]         --
│    └─ReLU: 2-1581                      [16, 128, 64, 64]         --
│    └─Empty: 2-1582                     [16, 128, 64, 64]         --
│    └─Clamp: 2-1583                     [16, 128, 64, 64]         --
├─FusedMaxPoolConv2dBNReLU: 1-119        [16, 128, 32, 32]         (recursive)
│    └─MaxPool2d: 2-1584                 [16, 128, 32, 32]         --
│    └─Empty: 2-1585                     [16, 128, 32, 32]         --
│    └─Empty: 2-1586                     [16, 128, 32, 32]         --
│    └─OutputShiftSqueeze: 2-1587        --                        --
│    └─One: 2-1588                       [1]                       --
│    └─OutputScale: 2-1589               --                        --
│    └─Empty: 2-1590                     [128, 128, 3, 3]          --
│    └─Empty: 2-1591                     [128, 128, 3, 3]          --
│    └─Empty: 2-1592                     [128]                     --
│    └─Empty: 2-1593                     [128]                     --
│    └─BatchNorm2d: 2-1594               [16, 128, 32, 32]         --
│    └─Scaler: 2-1595                    [16, 128, 32, 32]         --
│    └─ReLU: 2-1596                      [16, 128, 32, 32]         --
│    └─Empty: 2-1597                     [16, 128, 32, 32]         --
│    └─Clamp: 2-1598                     [16, 128, 32, 32]         --
├─FusedConv2dBNReLU: 1-120               [16, 128, 32, 32]         (recursive)
│    └─OutputShiftSqueeze: 2-1599        --                        --
│    └─One: 2-1600                       [1]                       --
│    └─OutputScale: 2-1601               --                        --
│    └─Empty: 2-1602                     [128, 128, 1, 1]          --
│    └─Empty: 2-1603                     [128, 128, 1, 1]          --
│    └─Empty: 2-1604                     [128]                     --
│    └─Empty: 2-1605                     [128]                     --
│    └─BatchNorm2d: 2-1606               [16, 128, 32, 32]         --
│    └─Scaler: 2-1607                    [16, 128, 32, 32]         --
│    └─ReLU: 2-1608                      [16, 128, 32, 32]         --
│    └─Empty: 2-1609                     [16, 128, 32, 32]         --
│    └─Clamp: 2-1610                     [16, 128, 32, 32]         --
├─FusedMaxPoolConv2dBNReLU: 1-121        [16, 128, 32, 32]         (recursive)
│    └─MaxPool2d: 2-1611                 [16, 128, 32, 32]         --
│    └─Empty: 2-1612                     [16, 128, 32, 32]         --
│    └─Empty: 2-1613                     [16, 128, 32, 32]         --
│    └─OutputShiftSqueeze: 2-1614        --                        --
│    └─One: 2-1615                       [1]                       --
│    └─OutputScale: 2-1616               --                        --
│    └─Empty: 2-1617                     [128, 128, 3, 3]          --
│    └─Empty: 2-1618                     [128, 128, 3, 3]          --
│    └─Empty: 2-1619                     [128]                     --
│    └─Empty: 2-1620                     [128]                     --
│    └─BatchNorm2d: 2-1621               [16, 128, 32, 32]         --
│    └─Scaler: 2-1622                    [16, 128, 32, 32]         --
│    └─ReLU: 2-1623                      [16, 128, 32, 32]         --
│    └─Empty: 2-1624                     [16, 128, 32, 32]         --
│    └─Clamp: 2-1625                     [16, 128, 32, 32]         --
├─FusedMaxPoolConv2dBNReLU: 1-122        [16, 128, 16, 16]         (recursive)
│    └─MaxPool2d: 2-1626                 [16, 128, 16, 16]         --
│    └─Empty: 2-1627                     [16, 128, 16, 16]         --
│    └─Empty: 2-1628                     [16, 128, 16, 16]         --
│    └─OutputShiftSqueeze: 2-1629        --                        --
│    └─One: 2-1630                       [1]                       --
│    └─OutputScale: 2-1631               --                        --
│    └─Empty: 2-1632                     [128, 128, 3, 3]          --
│    └─Empty: 2-1633                     [128, 128, 3, 3]          --
│    └─Empty: 2-1634                     [128]                     --
│    └─Empty: 2-1635                     [128]                     --
│    └─BatchNorm2d: 2-1636               [16, 128, 16, 16]         --
│    └─Scaler: 2-1637                    [16, 128, 16, 16]         --
│    └─ReLU: 2-1638                      [16, 128, 16, 16]         --
│    └─Empty: 2-1639                     [16, 128, 16, 16]         --
│    └─Clamp: 2-1640                     [16, 128, 16, 16]         --
├─FusedConv2dBNReLU: 1-123               [16, 128, 16, 16]         (recursive)
│    └─OutputShiftSqueeze: 2-1641        --                        --
│    └─One: 2-1642                       [1]                       --
│    └─OutputScale: 2-1643               --                        --
│    └─Empty: 2-1644                     [128, 128, 1, 1]          --
│    └─Empty: 2-1645                     [128, 128, 1, 1]          --
│    └─Empty: 2-1646                     [128]                     --
│    └─Empty: 2-1647                     [128]                     --
│    └─BatchNorm2d: 2-1648               [16, 128, 16, 16]         --
│    └─Scaler: 2-1649                    [16, 128, 16, 16]         --
│    └─ReLU: 2-1650                      [16, 128, 16, 16]         --
│    └─Empty: 2-1651                     [16, 128, 16, 16]         --
│    └─Clamp: 2-1652                     [16, 128, 16, 16]         --
├─FusedMaxPoolConv2dBNReLU: 1-124        [16, 128, 16, 16]         (recursive)
│    └─MaxPool2d: 2-1653                 [16, 128, 16, 16]         --
│    └─Empty: 2-1654                     [16, 128, 16, 16]         --
│    └─Empty: 2-1655                     [16, 128, 16, 16]         --
│    └─OutputShiftSqueeze: 2-1656        --                        --
│    └─One: 2-1657                       [1]                       --
│    └─OutputScale: 2-1658               --                        --
│    └─Empty: 2-1659                     [128, 128, 3, 3]          --
│    └─Empty: 2-1660                     [128, 128, 3, 3]          --
│    └─Empty: 2-1661                     [128]                     --
│    └─Empty: 2-1662                     [128]                     --
│    └─BatchNorm2d: 2-1663               [16, 128, 16, 16]         --
│    └─Scaler: 2-1664                    [16, 128, 16, 16]         --
│    └─ReLU: 2-1665                      [16, 128, 16, 16]         --
│    └─Empty: 2-1666                     [16, 128, 16, 16]         --
│    └─Clamp: 2-1667                     [16, 128, 16, 16]         --
├─FusedMaxPoolConv2dBNReLU: 1-125        [16, 128, 8, 8]           (recursive)
│    └─MaxPool2d: 2-1668                 [16, 128, 8, 8]           --
│    └─Empty: 2-1669                     [16, 128, 8, 8]           --
│    └─Empty: 2-1670                     [16, 128, 8, 8]           --
│    └─OutputShiftSqueeze: 2-1671        --                        --
│    └─One: 2-1672                       [1]                       --
│    └─OutputScale: 2-1673               --                        --
│    └─Empty: 2-1674                     [128, 128, 3, 3]          --
│    └─Empty: 2-1675                     [128, 128, 3, 3]          --
│    └─Empty: 2-1676                     [128]                     --
│    └─Empty: 2-1677                     [128]                     --
│    └─BatchNorm2d: 2-1678               [16, 128, 8, 8]           --
│    └─Scaler: 2-1679                    [16, 128, 8, 8]           --
│    └─ReLU: 2-1680                      [16, 128, 8, 8]           --
│    └─Empty: 2-1681                     [16, 128, 8, 8]           --
│    └─Clamp: 2-1682                     [16, 128, 8, 8]           --
├─FusedConv2dBNReLU: 1-126               [16, 16, 8, 8]            (recursive)
│    └─OutputShiftSqueeze: 2-1683        --                        --
│    └─One: 2-1684                       [1]                       --
│    └─OutputScale: 2-1685               --                        --
│    └─Empty: 2-1686                     [16, 128, 1, 1]           --
│    └─Empty: 2-1687                     [16, 128, 1, 1]           --
│    └─Empty: 2-1688                     [16]                      --
│    └─Empty: 2-1689                     [16]                      --
│    └─BatchNorm2d: 2-1690               [16, 16, 8, 8]            --
│    └─Scaler: 2-1691                    [16, 16, 8, 8]            --
│    └─ReLU: 2-1692                      [16, 16, 8, 8]            --
│    └─Empty: 2-1693                     [16, 16, 8, 8]            --
│    └─Clamp: 2-1694                     [16, 16, 8, 8]            --
├─FusedMaxPoolConv2dBNReLU: 1-127        [16, 16, 8, 8]            (recursive)
│    └─MaxPool2d: 2-1695                 [16, 128, 8, 8]           --
│    └─Empty: 2-1696                     [16, 128, 8, 8]           --
│    └─Empty: 2-1697                     [16, 128, 8, 8]           --
│    └─OutputShiftSqueeze: 2-1698        --                        --
│    └─One: 2-1699                       [1]                       --
│    └─OutputScale: 2-1700               --                        --
│    └─Empty: 2-1701                     [16, 128, 3, 3]           --
│    └─Empty: 2-1702                     [16, 128, 3, 3]           --
│    └─Empty: 2-1703                     [16]                      --
│    └─Empty: 2-1704                     [16]                      --
│    └─BatchNorm2d: 2-1705               [16, 16, 8, 8]            --
│    └─Scaler: 2-1706                    [16, 16, 8, 8]            --
│    └─ReLU: 2-1707                      [16, 16, 8, 8]            --
│    └─Empty: 2-1708                     [16, 16, 8, 8]            --
│    └─Clamp: 2-1709                     [16, 16, 8, 8]            --
├─FusedConv2dBNReLU: 1-128               [16, 128, 64, 64]         (recursive)
│    └─OutputShiftSqueeze: 2-1710        --                        --
│    └─One: 2-1711                       [1]                       --
│    └─OutputScale: 2-1712               --                        --
│    └─Empty: 2-1713                     [128, 48, 1, 1]           --
│    └─Empty: 2-1714                     [128, 48, 1, 1]           --
│    └─Empty: 2-1715                     [128]                     --
│    └─Empty: 2-1716                     [128]                     --
│    └─BatchNorm2d: 2-1717               [16, 128, 64, 64]         --
│    └─Scaler: 2-1718                    [16, 128, 64, 64]         --
│    └─ReLU: 2-1719                      [16, 128, 64, 64]         --
│    └─Empty: 2-1720                     [16, 128, 64, 64]         --
│    └─Clamp: 2-1721                     [16, 128, 64, 64]         --
├─FusedConv2dBNReLU: 1-129               [16, 128, 64, 64]         (recursive)
│    └─OutputShiftSqueeze: 2-1722        --                        --
│    └─One: 2-1723                       [1]                       --
│    └─OutputScale: 2-1724               --                        --
│    └─Empty: 2-1725                     [128, 128, 3, 3]          --
│    └─Empty: 2-1726                     [128, 128, 3, 3]          --
│    └─Empty: 2-1727                     [128]                     --
│    └─Empty: 2-1728                     [128]                     --
│    └─BatchNorm2d: 2-1729               [16, 128, 64, 64]         --
│    └─Scaler: 2-1730                    [16, 128, 64, 64]         --
│    └─ReLU: 2-1731                      [16, 128, 64, 64]         --
│    └─Empty: 2-1732                     [16, 128, 64, 64]         --
│    └─Clamp: 2-1733                     [16, 128, 64, 64]         --
├─FusedMaxPoolConv2dBNReLU: 1-130        [16, 128, 32, 32]         (recursive)
│    └─MaxPool2d: 2-1734                 [16, 128, 32, 32]         --
│    └─Empty: 2-1735                     [16, 128, 32, 32]         --
│    └─Empty: 2-1736                     [16, 128, 32, 32]         --
│    └─OutputShiftSqueeze: 2-1737        --                        --
│    └─One: 2-1738                       [1]                       --
│    └─OutputScale: 2-1739               --                        --
│    └─Empty: 2-1740                     [128, 128, 3, 3]          --
│    └─Empty: 2-1741                     [128, 128, 3, 3]          --
│    └─Empty: 2-1742                     [128]                     --
│    └─Empty: 2-1743                     [128]                     --
│    └─BatchNorm2d: 2-1744               [16, 128, 32, 32]         --
│    └─Scaler: 2-1745                    [16, 128, 32, 32]         --
│    └─ReLU: 2-1746                      [16, 128, 32, 32]         --
│    └─Empty: 2-1747                     [16, 128, 32, 32]         --
│    └─Clamp: 2-1748                     [16, 128, 32, 32]         --
├─FusedConv2dBNReLU: 1-131               [16, 128, 32, 32]         (recursive)
│    └─OutputShiftSqueeze: 2-1749        --                        --
│    └─One: 2-1750                       [1]                       --
│    └─OutputScale: 2-1751               --                        --
│    └─Empty: 2-1752                     [128, 128, 1, 1]          --
│    └─Empty: 2-1753                     [128, 128, 1, 1]          --
│    └─Empty: 2-1754                     [128]                     --
│    └─Empty: 2-1755                     [128]                     --
│    └─BatchNorm2d: 2-1756               [16, 128, 32, 32]         --
│    └─Scaler: 2-1757                    [16, 128, 32, 32]         --
│    └─ReLU: 2-1758                      [16, 128, 32, 32]         --
│    └─Empty: 2-1759                     [16, 128, 32, 32]         --
│    └─Clamp: 2-1760                     [16, 128, 32, 32]         --
├─FusedMaxPoolConv2dBNReLU: 1-132        [16, 128, 32, 32]         (recursive)
│    └─MaxPool2d: 2-1761                 [16, 128, 32, 32]         --
│    └─Empty: 2-1762                     [16, 128, 32, 32]         --
│    └─Empty: 2-1763                     [16, 128, 32, 32]         --
│    └─OutputShiftSqueeze: 2-1764        --                        --
│    └─One: 2-1765                       [1]                       --
│    └─OutputScale: 2-1766               --                        --
│    └─Empty: 2-1767                     [128, 128, 3, 3]          --
│    └─Empty: 2-1768                     [128, 128, 3, 3]          --
│    └─Empty: 2-1769                     [128]                     --
│    └─Empty: 2-1770                     [128]                     --
│    └─BatchNorm2d: 2-1771               [16, 128, 32, 32]         --
│    └─Scaler: 2-1772                    [16, 128, 32, 32]         --
│    └─ReLU: 2-1773                      [16, 128, 32, 32]         --
│    └─Empty: 2-1774                     [16, 128, 32, 32]         --
│    └─Clamp: 2-1775                     [16, 128, 32, 32]         --
├─FusedMaxPoolConv2dBNReLU: 1-133        [16, 128, 16, 16]         (recursive)
│    └─MaxPool2d: 2-1776                 [16, 128, 16, 16]         --
│    └─Empty: 2-1777                     [16, 128, 16, 16]         --
│    └─Empty: 2-1778                     [16, 128, 16, 16]         --
│    └─OutputShiftSqueeze: 2-1779        --                        --
│    └─One: 2-1780                       [1]                       --
│    └─OutputScale: 2-1781               --                        --
│    └─Empty: 2-1782                     [128, 128, 3, 3]          --
│    └─Empty: 2-1783                     [128, 128, 3, 3]          --
│    └─Empty: 2-1784                     [128]                     --
│    └─Empty: 2-1785                     [128]                     --
│    └─BatchNorm2d: 2-1786               [16, 128, 16, 16]         --
│    └─Scaler: 2-1787                    [16, 128, 16, 16]         --
│    └─ReLU: 2-1788                      [16, 128, 16, 16]         --
│    └─Empty: 2-1789                     [16, 128, 16, 16]         --
│    └─Clamp: 2-1790                     [16, 128, 16, 16]         --
├─FusedConv2dBNReLU: 1-134               [16, 128, 16, 16]         (recursive)
│    └─OutputShiftSqueeze: 2-1791        --                        --
│    └─One: 2-1792                       [1]                       --
│    └─OutputScale: 2-1793               --                        --
│    └─Empty: 2-1794                     [128, 128, 1, 1]          --
│    └─Empty: 2-1795                     [128, 128, 1, 1]          --
│    └─Empty: 2-1796                     [128]                     --
│    └─Empty: 2-1797                     [128]                     --
│    └─BatchNorm2d: 2-1798               [16, 128, 16, 16]         --
│    └─Scaler: 2-1799                    [16, 128, 16, 16]         --
│    └─ReLU: 2-1800                      [16, 128, 16, 16]         --
│    └─Empty: 2-1801                     [16, 128, 16, 16]         --
│    └─Clamp: 2-1802                     [16, 128, 16, 16]         --
├─FusedMaxPoolConv2dBNReLU: 1-135        [16, 128, 16, 16]         (recursive)
│    └─MaxPool2d: 2-1803                 [16, 128, 16, 16]         --
│    └─Empty: 2-1804                     [16, 128, 16, 16]         --
│    └─Empty: 2-1805                     [16, 128, 16, 16]         --
│    └─OutputShiftSqueeze: 2-1806        --                        --
│    └─One: 2-1807                       [1]                       --
│    └─OutputScale: 2-1808               --                        --
│    └─Empty: 2-1809                     [128, 128, 3, 3]          --
│    └─Empty: 2-1810                     [128, 128, 3, 3]          --
│    └─Empty: 2-1811                     [128]                     --
│    └─Empty: 2-1812                     [128]                     --
│    └─BatchNorm2d: 2-1813               [16, 128, 16, 16]         --
│    └─Scaler: 2-1814                    [16, 128, 16, 16]         --
│    └─ReLU: 2-1815                      [16, 128, 16, 16]         --
│    └─Empty: 2-1816                     [16, 128, 16, 16]         --
│    └─Clamp: 2-1817                     [16, 128, 16, 16]         --
├─FusedMaxPoolConv2dBNReLU: 1-136        [16, 128, 8, 8]           (recursive)
│    └─MaxPool2d: 2-1818                 [16, 128, 8, 8]           --
│    └─Empty: 2-1819                     [16, 128, 8, 8]           --
│    └─Empty: 2-1820                     [16, 128, 8, 8]           --
│    └─OutputShiftSqueeze: 2-1821        --                        --
│    └─One: 2-1822                       [1]                       --
│    └─OutputScale: 2-1823               --                        --
│    └─Empty: 2-1824                     [128, 128, 3, 3]          --
│    └─Empty: 2-1825                     [128, 128, 3, 3]          --
│    └─Empty: 2-1826                     [128]                     --
│    └─Empty: 2-1827                     [128]                     --
│    └─BatchNorm2d: 2-1828               [16, 128, 8, 8]           --
│    └─Scaler: 2-1829                    [16, 128, 8, 8]           --
│    └─ReLU: 2-1830                      [16, 128, 8, 8]           --
│    └─Empty: 2-1831                     [16, 128, 8, 8]           --
│    └─Clamp: 2-1832                     [16, 128, 8, 8]           --
├─FusedConv2dBNReLU: 1-137               [16, 16, 8, 8]            (recursive)
│    └─OutputShiftSqueeze: 2-1833        --                        --
│    └─One: 2-1834                       [1]                       --
│    └─OutputScale: 2-1835               --                        --
│    └─Empty: 2-1836                     [16, 128, 1, 1]           --
│    └─Empty: 2-1837                     [16, 128, 1, 1]           --
│    └─Empty: 2-1838                     [16]                      --
│    └─Empty: 2-1839                     [16]                      --
│    └─BatchNorm2d: 2-1840               [16, 16, 8, 8]            --
│    └─Scaler: 2-1841                    [16, 16, 8, 8]            --
│    └─ReLU: 2-1842                      [16, 16, 8, 8]            --
│    └─Empty: 2-1843                     [16, 16, 8, 8]            --
│    └─Clamp: 2-1844                     [16, 16, 8, 8]            --
├─FusedMaxPoolConv2dBNReLU: 1-138        [16, 16, 8, 8]            (recursive)
│    └─MaxPool2d: 2-1845                 [16, 128, 8, 8]           --
│    └─Empty: 2-1846                     [16, 128, 8, 8]           --
│    └─Empty: 2-1847                     [16, 128, 8, 8]           --
│    └─OutputShiftSqueeze: 2-1848        --                        --
│    └─One: 2-1849                       [1]                       --
│    └─OutputScale: 2-1850               --                        --
│    └─Empty: 2-1851                     [16, 128, 3, 3]           --
│    └─Empty: 2-1852                     [16, 128, 3, 3]           --
│    └─Empty: 2-1853                     [16]                      --
│    └─Empty: 2-1854                     [16]                      --
│    └─BatchNorm2d: 2-1855               [16, 16, 8, 8]            --
│    └─Scaler: 2-1856                    [16, 16, 8, 8]            --
│    └─ReLU: 2-1857                      [16, 16, 8, 8]            --
│    └─Empty: 2-1858                     [16, 16, 8, 8]            --
│    └─Clamp: 2-1859                     [16, 16, 8, 8]            --
├─FusedConv2dBNReLU: 1-139               [16, 128, 64, 64]         (recursive)
│    └─OutputShiftSqueeze: 2-1860        --                        --
│    └─One: 2-1861                       [1]                       --
│    └─OutputScale: 2-1862               --                        --
│    └─Empty: 2-1863                     [128, 48, 1, 1]           --
│    └─Empty: 2-1864                     [128, 48, 1, 1]           --
│    └─Empty: 2-1865                     [128]                     --
│    └─Empty: 2-1866                     [128]                     --
│    └─BatchNorm2d: 2-1867               [16, 128, 64, 64]         --
│    └─Scaler: 2-1868                    [16, 128, 64, 64]         --
│    └─ReLU: 2-1869                      [16, 128, 64, 64]         --
│    └─Empty: 2-1870                     [16, 128, 64, 64]         --
│    └─Clamp: 2-1871                     [16, 128, 64, 64]         --
├─FusedConv2dBNReLU: 1-140               [16, 128, 64, 64]         (recursive)
│    └─OutputShiftSqueeze: 2-1872        --                        --
│    └─One: 2-1873                       [1]                       --
│    └─OutputScale: 2-1874               --                        --
│    └─Empty: 2-1875                     [128, 128, 3, 3]          --
│    └─Empty: 2-1876                     [128, 128, 3, 3]          --
│    └─Empty: 2-1877                     [128]                     --
│    └─Empty: 2-1878                     [128]                     --
│    └─BatchNorm2d: 2-1879               [16, 128, 64, 64]         --
│    └─Scaler: 2-1880                    [16, 128, 64, 64]         --
│    └─ReLU: 2-1881                      [16, 128, 64, 64]         --
│    └─Empty: 2-1882                     [16, 128, 64, 64]         --
│    └─Clamp: 2-1883                     [16, 128, 64, 64]         --
├─FusedMaxPoolConv2dBNReLU: 1-141        [16, 128, 32, 32]         (recursive)
│    └─MaxPool2d: 2-1884                 [16, 128, 32, 32]         --
│    └─Empty: 2-1885                     [16, 128, 32, 32]         --
│    └─Empty: 2-1886                     [16, 128, 32, 32]         --
│    └─OutputShiftSqueeze: 2-1887        --                        --
│    └─One: 2-1888                       [1]                       --
│    └─OutputScale: 2-1889               --                        --
│    └─Empty: 2-1890                     [128, 128, 3, 3]          --
│    └─Empty: 2-1891                     [128, 128, 3, 3]          --
│    └─Empty: 2-1892                     [128]                     --
│    └─Empty: 2-1893                     [128]                     --
│    └─BatchNorm2d: 2-1894               [16, 128, 32, 32]         --
│    └─Scaler: 2-1895                    [16, 128, 32, 32]         --
│    └─ReLU: 2-1896                      [16, 128, 32, 32]         --
│    └─Empty: 2-1897                     [16, 128, 32, 32]         --
│    └─Clamp: 2-1898                     [16, 128, 32, 32]         --
├─FusedConv2dBNReLU: 1-142               [16, 128, 32, 32]         (recursive)
│    └─OutputShiftSqueeze: 2-1899        --                        --
│    └─One: 2-1900                       [1]                       --
│    └─OutputScale: 2-1901               --                        --
│    └─Empty: 2-1902                     [128, 128, 1, 1]          --
│    └─Empty: 2-1903                     [128, 128, 1, 1]          --
│    └─Empty: 2-1904                     [128]                     --
│    └─Empty: 2-1905                     [128]                     --
│    └─BatchNorm2d: 2-1906               [16, 128, 32, 32]         --
│    └─Scaler: 2-1907                    [16, 128, 32, 32]         --
│    └─ReLU: 2-1908                      [16, 128, 32, 32]         --
│    └─Empty: 2-1909                     [16, 128, 32, 32]         --
│    └─Clamp: 2-1910                     [16, 128, 32, 32]         --
├─FusedMaxPoolConv2dBNReLU: 1-143        [16, 128, 32, 32]         (recursive)
│    └─MaxPool2d: 2-1911                 [16, 128, 32, 32]         --
│    └─Empty: 2-1912                     [16, 128, 32, 32]         --
│    └─Empty: 2-1913                     [16, 128, 32, 32]         --
│    └─OutputShiftSqueeze: 2-1914        --                        --
│    └─One: 2-1915                       [1]                       --
│    └─OutputScale: 2-1916               --                        --
│    └─Empty: 2-1917                     [128, 128, 3, 3]          --
│    └─Empty: 2-1918                     [128, 128, 3, 3]          --
│    └─Empty: 2-1919                     [128]                     --
│    └─Empty: 2-1920                     [128]                     --
│    └─BatchNorm2d: 2-1921               [16, 128, 32, 32]         --
│    └─Scaler: 2-1922                    [16, 128, 32, 32]         --
│    └─ReLU: 2-1923                      [16, 128, 32, 32]         --
│    └─Empty: 2-1924                     [16, 128, 32, 32]         --
│    └─Clamp: 2-1925                     [16, 128, 32, 32]         --
├─FusedMaxPoolConv2dBNReLU: 1-144        [16, 128, 16, 16]         (recursive)
│    └─MaxPool2d: 2-1926                 [16, 128, 16, 16]         --
│    └─Empty: 2-1927                     [16, 128, 16, 16]         --
│    └─Empty: 2-1928                     [16, 128, 16, 16]         --
│    └─OutputShiftSqueeze: 2-1929        --                        --
│    └─One: 2-1930                       [1]                       --
│    └─OutputScale: 2-1931               --                        --
…
│    └─Clamp: 2-1940                     [16, 128, 16, 16]         --
├─FusedConv2dBNReLU: 1-145               [16, 128, 16, 16]         (recursive)
│    └─OutputShiftSqueeze: 2-1941        --                        --
│    └─One: 2-1942                       [1]                       --
│    └─OutputScale: 2-1943               --                        --
│    └─Empty: 2-1944                     [128, 128, 1, 1]          --
│    └─Empty: 2-1945                     [128, 128, 1, 1]          --
│    └─Empty: 2-1946                     [128]                     --
│    └─Empty: 2-1947                     [128]                     --
│    └─BatchNorm2d: 2-1948               [16, 128, 16, 16]         --
│    └─Scaler: 2-1949                    [16, 128, 16, 16]         --
│    └─ReLU: 2-1950                      [16, 128, 16, 16]         --
│    └─Empty: 2-1951                     [16, 128, 16, 16]         --
│    └─Clamp: 2-1952                     [16, 128, 16, 16]         --
├─FusedMaxPoolConv2dBNReLU: 1-146        [16, 128, 16, 16]         (recursive)
│    └─MaxPool2d: 2-1953                 [16, 128, 16, 16]         --
│    └─Empty: 2-1954                     [16, 128, 16, 16]         --
│    └─Empty: 2-1955                     [16, 128, 16, 16]         --
│    └─OutputShiftSqueeze: 2-1956        --                        --
│    └─One: 2-1957                       [1]                       --
│    └─OutputScale: 2-1958               --                        --
│    └─Empty: 2-1959                     [128, 128, 3, 3]          --
│    └─Empty: 2-1960                     [128, 128, 3, 3]          --
│    └─Empty: 2-1961                     [128]                     --
│    └─Empty: 2-1962                     [128]                     --
│    └─BatchNorm2d: 2-1963               [16, 128, 16, 16]         --
│    └─Scaler: 2-1964                    [16, 128, 16, 16]         --
│    └─ReLU: 2-1965                      [16, 128, 16, 16]         --
│    └─Empty: 2-1966                     [16, 128, 16, 16]         --
│    └─Clamp: 2-1967                     [16, 128, 16, 16]         --
├─FusedMaxPoolConv2dBNReLU: 1-147        [16, 128, 8, 8]           (recursive)
│    └─MaxPool2d: 2-1968                 [16, 128, 8, 8]           --
│    └─Empty: 2-1969                     [16, 128, 8, 8]           --
│    └─Empty: 2-1970                     [16, 128, 8, 8]           --
│    └─OutputShiftSqueeze: 2-1971        --                        --
│    └─One: 2-1972                       [1]                       --
│    └─OutputScale: 2-1973               --                        --
│    └─Empty: 2-1974                     [128, 128, 3, 3]          --
│    └─Empty: 2-1975                     [128, 128, 3, 3]          --
│    └─Empty: 2-1976                     [128]                     --
│    └─Empty: 2-1977                     [128]                     --
│    └─BatchNorm2d: 2-1978               [16, 128, 8, 8]           --
│    └─Scaler: 2-1979                    [16, 128, 8, 8]           --
│    └─ReLU: 2-1980                      [16, 128, 8, 8]           --
│    └─Empty: 2-1981                     [16, 128, 8, 8]           --
│    └─Clamp: 2-1982                     [16, 128, 8, 8]           --
├─FusedConv2dBNReLU: 1-148               [16, 16, 8, 8]            (recursive)
│    └─OutputShiftSqueeze: 2-1983        --                        --
│    └─One: 2-1984                       [1]                       --
│    └─OutputScale: 2-1985               --                        --
│    └─Empty: 2-1986                     [16, 128, 1, 1]           --
│    └─Empty: 2-1987                     [16, 128, 1, 1]           --
│    └─Empty: 2-1988                     [16]                      --
│    └─Empty: 2-1989                     [16]                      --
│    └─BatchNorm2d: 2-1990               [16, 16, 8, 8]            --
│    └─Scaler: 2-1991                    [16, 16, 8, 8]            --
│    └─ReLU: 2-1992                      [16, 16, 8, 8]            --
│    └─Empty: 2-1993                     [16, 16, 8, 8]            --
│    └─Clamp: 2-1994                     [16, 16, 8, 8]            --
├─FusedMaxPoolConv2dBNReLU: 1-149        [16, 16, 8, 8]            (recursive)
│    └─MaxPool2d: 2-1995                 [16, 128, 8, 8]           --
│    └─Empty: 2-1996                     [16, 128, 8, 8]           --
│    └─Empty: 2-1997                     [16, 128, 8, 8]           --
│    └─OutputShiftSqueeze: 2-1998        --                        --
│    └─One: 2-1999                       [1]                       --
│    └─OutputScale: 2-2000               --                        --
│    └─Empty: 2-2001                     [16, 128, 3, 3]           --
│    └─Empty: 2-2002                     [16, 128, 3, 3]           --
│    └─Empty: 2-2003                     [16]                      --
│    └─Empty: 2-2004                     [16]                      --
│    └─BatchNorm2d: 2-2005               [16, 16, 8, 8]            --
│    └─Scaler: 2-2006                    [16, 16, 8, 8]            --
│    └─ReLU: 2-2007                      [16, 16, 8, 8]            --
│    └─Empty: 2-2008                     [16, 16, 8, 8]            --
│    └─Clamp: 2-2009                     [16, 16, 8, 8]            --
├─FusedConv2dBNReLU: 1-150               [16, 128, 64, 64]         (recursive)
│    └─OutputShiftSqueeze: 2-2010        --                        --
│    └─One: 2-2011                       [1]                       --
│    └─OutputScale: 2-2012               --                        --
│    └─Empty: 2-2013                     [128, 48, 1, 1]           --
│    └─Empty: 2-2014                     [128, 48, 1, 1]           --
│    └─Empty: 2-2015                     [128]                     --
│    └─Empty: 2-2016                     [128]                     --
│    └─BatchNorm2d: 2-2017               [16, 128, 64, 64]         --
│    └─Scaler: 2-2018                    [16, 128, 64, 64]         --
│    └─ReLU: 2-2019                      [16, 128, 64, 64]         --
│    └─Empty: 2-2020                     [16, 128, 64, 64]         --
│    └─Clamp: 2-2021                     [16, 128, 64, 64]         --
├─FusedConv2dBNReLU: 1-151               [16, 128, 64, 64]         (recursive)
│    └─OutputShiftSqueeze: 2-2022        --                        --
│    └─One: 2-2023                       [1]                       --
│    └─OutputScale: 2-2024               --                        --
│    └─Empty: 2-2025                     [128, 128, 3, 3]          --
│    └─Empty: 2-2026                     [128, 128, 3, 3]          --
│    └─Empty: 2-2027                     [128]                     --
│    └─Empty: 2-2028                     [128]                     --
│    └─BatchNorm2d: 2-2029               [16, 128, 64, 64]         --
│    └─Scaler: 2-2030                    [16, 128, 64, 64]         --
│    └─ReLU: 2-2031                      [16, 128, 64, 64]         --
│    └─Empty: 2-2032                     [16, 128, 64, 64]         --
│    └─Clamp: 2-2033                     [16, 128, 64, 64]         --
├─FusedMaxPoolConv2dBNReLU: 1-152        [16, 128, 32, 32]         (recursive)
│    └─MaxPool2d: 2-2034                 [16, 128, 32, 32]         --
│    └─Empty: 2-2035                     [16, 128, 32, 32]         --
│    └─Empty: 2-2036                     [16, 128, 32, 32]         --
│    └─OutputShiftSqueeze: 2-2037        --                        --
│    └─One: 2-2038                       [1]                       --
│    └─OutputScale: 2-2039               --                        --
│    └─Empty: 2-2040                     [128, 128, 3, 3]          --
│    └─Empty: 2-2041                     [128, 128, 3, 3]          --
│    └─Empty: 2-2042                     [128]                     --
│    └─Empty: 2-2043                     [128]                     --
│    └─BatchNorm2d: 2-2044               [16, 128, 32, 32]         --
│    └─Scaler: 2-2045                    [16, 128, 32, 32]         --
│    └─ReLU: 2-2046                      [16, 128, 32, 32]         --
│    └─Empty: 2-2047                     [16, 128, 32, 32]         --
│    └─Clamp: 2-2048                     [16, 128, 32, 32]         --
├─FusedConv2dBNReLU: 1-153               [16, 128, 32, 32]         (recursive)
│    └─OutputShiftSqueeze: 2-2049        --                        --
│    └─One: 2-2050                       [1]                       --
│    └─OutputScale: 2-2051               --                        --
│    └─Empty: 2-2052                     [128, 128, 1, 1]          --
│    └─Empty: 2-2053                     [128, 128, 1, 1]          --
│    └─Empty: 2-2054                     [128]                     --
│    └─Empty: 2-2055                     [128]                     --
│    └─BatchNorm2d: 2-2056               [16, 128, 32, 32]         --
│    └─Scaler: 2-2057                    [16, 128, 32, 32]         --
│    └─ReLU: 2-2058                      [16, 128, 32, 32]         --
│    └─Empty: 2-2059                     [16, 128, 32, 32]         --
│    └─Clamp: 2-2060                     [16, 128, 32, 32]         --
├─FusedMaxPoolConv2dBNReLU: 1-154        [16, 128, 32, 32]         (recursive)
│    └─MaxPool2d: 2-2061                 [16, 128, 32, 32]         --
│    └─Empty: 2-2062                     [16, 128, 32, 32]         --
│    └─Empty: 2-2063                     [16, 128, 32, 32]         --
│    └─OutputShiftSqueeze: 2-2064        --                        --
│    └─One: 2-2065                       [1]                       --
│    └─OutputScale: 2-2066               --                        --
│    └─Empty: 2-2067                     [128, 128, 3, 3]          --
│    └─Empty: 2-2068                     [128, 128, 3, 3]          --
│    └─Empty: 2-2069                     [128]                     --
│    └─Empty: 2-2070                     [128]                     --
│    └─BatchNorm2d: 2-2071               [16, 128, 32, 32]         --
│    └─Scaler: 2-2072                    [16, 128, 32, 32]         --
│    └─ReLU: 2-2073                      [16, 128, 32, 32]         --
│    └─Empty: 2-2074                     [16, 128, 32, 32]         --
│    └─Clamp: 2-2075                     [16, 128, 32, 32]         --
├─FusedMaxPoolConv2dBNReLU: 1-155        [16, 128, 16, 16]         (recursive)
│    └─MaxPool2d: 2-2076                 [16, 128, 16, 16]         --
│    └─Empty: 2-2077                     [16, 128, 16, 16]         --
│    └─Empty: 2-2078                     [16, 128, 16, 16]         --
│    └─OutputShiftSqueeze: 2-2079        --                        --
│    └─One: 2-2080                       [1]                       --
│    └─OutputScale: 2-2081               --                        --
│    └─Empty: 2-2082                     [128, 128, 3, 3]          --
│    └─Empty: 2-2083                     [128, 128, 3, 3]          --
│    └─Empty: 2-2084                     [128]                     --
│    └─Empty: 2-2085                     [128]                     --
│    └─BatchNorm2d: 2-2086               [16, 128, 16, 16]         --
│    └─Scaler: 2-2087                    [16, 128, 16, 16]         --
│    └─ReLU: 2-2088                      [16, 128, 16, 16]         --
│    └─Empty: 2-2089                     [16, 128, 16, 16]         --
│    └─Clamp: 2-2090                     [16, 128, 16, 16]         --
├─FusedConv2dBNReLU: 1-156               [16, 128, 16, 16]         (recursive)
│    └─OutputShiftSqueeze: 2-2091        --                        --
│    └─One: 2-2092                       [1]                       --
│    └─OutputScale: 2-2093               --                        --
│    └─Empty: 2-2094                     [128, 128, 1, 1]          --
│    └─Empty: 2-2095                     [128, 128, 1, 1]          --
│    └─Empty: 2-2096                     [128]                     --
│    └─Empty: 2-2097                     [128]                     --
│    └─BatchNorm2d: 2-2098               [16, 128, 16, 16]         --
│    └─Scaler: 2-2099                    [16, 128, 16, 16]         --
│    └─ReLU: 2-2100                      [16, 128, 16, 16]         --
│    └─Empty: 2-2101                     [16, 128, 16, 16]         --
│    └─Clamp: 2-2102                     [16, 128, 16, 16]         --
├─FusedMaxPoolConv2dBNReLU: 1-157        [16, 128, 16, 16]         (recursive)
│    └─MaxPool2d: 2-2103                 [16, 128, 16, 16]         --
│    └─Empty: 2-2104                     [16, 128, 16, 16]         --
│    └─Empty: 2-2105                     [16, 128, 16, 16]         --
│    └─OutputShiftSqueeze: 2-2106        --                        --
│    └─One: 2-2107                       [1]                       --
│    └─OutputScale: 2-2108               --                        --
│    └─Empty: 2-2109                     [128, 128, 3, 3]          --
│    └─Empty: 2-2110                     [128, 128, 3, 3]          --
│    └─Empty: 2-2111                     [128]                     --
│    └─Empty: 2-2112                     [128]                     --
│    └─BatchNorm2d: 2-2113               [16, 128, 16, 16]         --
│    └─Scaler: 2-2114                    [16, 128, 16, 16]         --
│    └─ReLU: 2-2115                      [16, 128, 16, 16]         --
│    └─Empty: 2-2116                     [16, 128, 16, 16]         --
│    └─Clamp: 2-2117                     [16, 128, 16, 16]         --
├─FusedMaxPoolConv2dBNReLU: 1-158        [16, 128, 8, 8]           (recursive)
│    └─MaxPool2d: 2-2118                 [16, 128, 8, 8]           --
│    └─Empty: 2-2119                     [16, 128, 8, 8]           --
│    └─Empty: 2-2120                     [16, 128, 8, 8]           --
│    └─OutputShiftSqueeze: 2-2121        --                        --
│    └─One: 2-2122                       [1]                       --
│    └─OutputScale: 2-2123               --                        --
│    └─Empty: 2-2124                     [128, 128, 3, 3]          --
│    └─Empty: 2-2125                     [128, 128, 3, 3]          --
│    └─Empty: 2-2126                     [128]                     --
│    └─Empty: 2-2127                     [128]                     --
│    └─BatchNorm2d: 2-2128               [16, 128, 8, 8]           --
│    └─Scaler: 2-2129                    [16, 128, 8, 8]           --
│    └─ReLU: 2-2130                      [16, 128, 8, 8]           --
│    └─Empty: 2-2131                     [16, 128, 8, 8]           --
│    └─Clamp: 2-2132                     [16, 128, 8, 8]           --
├─FusedConv2dBNReLU: 1-159               [16, 16, 8, 8]            (recursive)
│    └─OutputShiftSqueeze: 2-2133        --                        --
│    └─One: 2-2134                       [1]                       --
│    └─OutputScale: 2-2135               --                        --
│    └─Empty: 2-2136                     [16, 128, 1, 1]           --
│    └─Empty: 2-2137                     [16, 128, 1, 1]           --
│    └─Empty: 2-2138                     [16]                      --
│    └─Empty: 2-2139                     [16]                      --
│    └─BatchNorm2d: 2-2140               [16, 16, 8, 8]            --
│    └─Scaler: 2-2141                    [16, 16, 8, 8]            --
│    └─ReLU: 2-2142                      [16, 16, 8, 8]            --
│    └─Empty: 2-2143                     [16, 16, 8, 8]            --
│    └─Clamp: 2-2144                     [16, 16, 8, 8]            --
├─FusedMaxPoolConv2dBNReLU: 1-160        [16, 16, 8, 8]            (recursive)
│    └─MaxPool2d: 2-2145                 [16, 128, 8, 8]           --
│    └─Empty: 2-2146                     [16, 128, 8, 8]           --
│    └─Empty: 2-2147                     [16, 128, 8, 8]           --
│    └─OutputShiftSqueeze: 2-2148        --                        --
│    └─One: 2-2149                       [1]                       --
│    └─OutputScale: 2-2150               --                        --
│    └─Empty: 2-2151                     [16, 128, 3, 3]           --
│    └─Empty: 2-2152                     [16, 128, 3, 3]           --
│    └─Empty: 2-2153                     [16]                      --
│    └─Empty: 2-2154                     [16]                      --
│    └─BatchNorm2d: 2-2155               [16, 16, 8, 8]            --
│    └─Scaler: 2-2156                    [16, 16, 8, 8]            --
│    └─ReLU: 2-2157                      [16, 16, 8, 8]            --
│    └─Empty: 2-2158                     [16, 16, 8, 8]            --
│    └─Clamp: 2-2159                     [16, 16, 8, 8]            --
├─FusedConv2dBNReLU: 1-161               [16, 128, 64, 64]         (recursive)
│    └─OutputShiftSqueeze: 2-2160        --                        --
│    └─One: 2-2161                       [1]                       --
│    └─OutputScale: 2-2162               --                        --
│    └─Empty: 2-2163                     [128, 48, 1, 1]           --
│    └─Empty: 2-2164                     [128, 48, 1, 1]           --
│    └─Empty: 2-2165                     [128]                     --
│    └─Empty: 2-2166                     [128]                     --
│    └─BatchNorm2d: 2-2167               [16, 128, 64, 64]         --
│    └─Scaler: 2-2168                    [16, 128, 64, 64]         --
│    └─ReLU: 2-2169                      [16, 128, 64, 64]         --
│    └─Empty: 2-2170                     [16, 128, 64, 64]         --
│    └─Clamp: 2-2171                     [16, 128, 64, 64]         --
├─FusedConv2dBNReLU: 1-162               [16, 128, 64, 64]         (recursive)
│    └─OutputShiftSqueeze: 2-2172        --                        --
│    └─One: 2-2173                       [1]                       --
│    └─OutputScale: 2-2174               --                        --
│    └─Empty: 2-2175                     [128, 128, 3, 3]          --
│    └─Empty: 2-2176                     [128, 128, 3, 3]          --
│    └─Empty: 2-2177                     [128]                     --
│    └─Empty: 2-2178                     [128]                     --
│    └─BatchNorm2d: 2-2179               [16, 128, 64, 64]         --
│    └─Scaler: 2-2180                    [16, 128, 64, 64]         --
│    └─ReLU: 2-2181                      [16, 128, 64, 64]         --
│    └─Empty: 2-2182                     [16, 128, 64, 64]         --
│    └─Clamp: 2-2183                     [16, 128, 64, 64]         --
├─FusedMaxPoolConv2dBNReLU: 1-163        [16, 128, 32, 32]         (recursive)
│    └─MaxPool2d: 2-2184                 [16, 128, 32, 32]         --
│    └─Empty: 2-2185                     [16, 128, 32, 32]         --
│    └─Empty: 2-2186                     [16, 128, 32, 32]         --
│    └─OutputShiftSqueeze: 2-2187        --                        --
│    └─One: 2-2188                       [1]                       --
│    └─OutputScale: 2-2189               --                        --
│    └─Empty: 2-2190                     [128, 128, 3, 3]          --
│    └─Empty: 2-2191                     [128, 128, 3, 3]          --
│    └─Empty: 2-2192                     [128]                     --
│    └─Empty: 2-2193                     [128]                     --
│    └─BatchNorm2d: 2-2194               [16, 128, 32, 32]         --
│    └─Scaler: 2-2195                    [16, 128, 32, 32]         --
│    └─ReLU: 2-2196                      [16, 128, 32, 32]         --
│    └─Empty: 2-2197                     [16, 128, 32, 32]         --
│    └─Clamp: 2-2198                     [16, 128, 32, 32]         --
├─FusedConv2dBNReLU: 1-164               [16, 128, 32, 32]         (recursive)
│    └─OutputShiftSqueeze: 2-2199        --                        --
│    └─One: 2-2200                       [1]                       --
│    └─OutputScale: 2-2201               --                        --
│    └─Empty: 2-2202                     [128, 128, 1, 1]          --
│    └─Empty: 2-2203                     [128, 128, 1, 1]          --
│    └─Empty: 2-2204                     [128]                     --
│    └─Empty: 2-2205                     [128]                     --
│    └─BatchNorm2d: 2-2206               [16, 128, 32, 32]         --
│    └─Scaler: 2-2207                    [16, 128, 32, 32]         --
│    └─ReLU: 2-2208                      [16, 128, 32, 32]         --
│    └─Empty: 2-2209                     [16, 128, 32, 32]         --
│    └─Clamp: 2-2210                     [16, 128, 32, 32]         --
├─FusedMaxPoolConv2dBNReLU: 1-165        [16, 128, 32, 32]         (recursive)
│    └─MaxPool2d: 2-2211                 [16, 128, 32, 32]         --
│    └─Empty: 2-2212                     [16, 128, 32, 32]         --
│    └─Empty: 2-2213                     [16, 128, 32, 32]         --
│    └─OutputShiftSqueeze: 2-2214        --                        --
│    └─One: 2-2215                       [1]                       --
│    └─OutputScale: 2-2216               --                        --
│    └─Empty: 2-2217                     [128, 128, 3, 3]          --
│    └─Empty: 2-2218                     [128, 128, 3, 3]          --
│    └─Empty: 2-2219                     [128]                     --
│    └─Empty: 2-2220                     [128]                     --
│    └─BatchNorm2d: 2-2221               [16, 128, 32, 32]         --
│    └─Scaler: 2-2222                    [16, 128, 32, 32]         --
│    └─ReLU: 2-2223                      [16, 128, 32, 32]         --
│    └─Empty: 2-2224                     [16, 128, 32, 32]         --
│    └─Clamp: 2-2225                     [16, 128, 32, 32]         --
├─FusedMaxPoolConv2dBNReLU: 1-166        [16, 128, 16, 16]         (recursive)
│    └─MaxPool2d: 2-2226                 [16, 128, 16, 16]         --
│    └─Empty: 2-2227                     [16, 128, 16, 16]         --
│    └─Empty: 2-2228                     [16, 128, 16, 16]         --
│    └─OutputShiftSqueeze: 2-2229        --                        --
│    └─One: 2-2230                       [1]                       --
│    └─OutputScale: 2-2231               --                        --
│    └─Empty: 2-2232                     [128, 128, 3, 3]          --
│    └─Empty: 2-2233                     [128, 128, 3, 3]          --
│    └─Empty: 2-2234                     [128]                     --
│    └─Empty: 2-2235                     [128]                     --
│    └─BatchNorm2d: 2-2236               [16, 128, 16, 16]         --
│    └─Scaler: 2-2237                    [16, 128, 16, 16]         --
│    └─ReLU: 2-2238                      [16, 128, 16, 16]         --
│    └─Empty: 2-2239                     [16, 128, 16, 16]         --
│    └─Clamp: 2-2240                     [16, 128, 16, 16]         --
├─FusedConv2dBNReLU: 1-167               [16, 128, 16, 16]         (recursive)
│    └─OutputShiftSqueeze: 2-2241        --                        --
│    └─One: 2-2242                       [1]                       --
│    └─OutputScale: 2-2243               --                        --
│    └─Empty: 2-2244                     [128, 128, 1, 1]          --
│    └─Empty: 2-2245                     [128, 128, 1, 1]          --
│    └─Empty: 2-2246                     [128]                     --
│    └─Empty: 2-2247                     [128]                     --
│    └─BatchNorm2d: 2-2248               [16, 128, 16, 16]         --
│    └─Scaler: 2-2249                    [16, 128, 16, 16]         --
│    └─ReLU: 2-2250                      [16, 128, 16, 16]         --
│    └─Empty: 2-2251                     [16, 128, 16, 16]         --
│    └─Clamp: 2-2252                     [16, 128, 16, 16]         --
├─FusedMaxPoolConv2dBNReLU: 1-168        [16, 128, 16, 16]         (recursive)
│    └─MaxPool2d: 2-2253                 [16, 128, 16, 16]         --
│    └─Empty: 2-2254                     [16, 128, 16, 16]         --
│    └─Empty: 2-2255                     [16, 128, 16, 16]         --
│    └─OutputShiftSqueeze: 2-2256        --                        --
│    └─One: 2-2257                       [1]                       --
│    └─OutputScale: 2-2258               --                        --
│    └─Empty: 2-2259                     [128, 128, 3, 3]          --
│    └─Empty: 2-2260                     [128, 128, 3, 3]          --
│    └─Empty: 2-2261                     [128]                     --
│    └─Empty: 2-2262                     [128]                     --
│    └─BatchNorm2d: 2-2263               [16, 128, 16, 16]         --
│    └─Scaler: 2-2264                    [16, 128, 16, 16]         --
│    └─ReLU: 2-2265                      [16, 128, 16, 16]         --
│    └─Empty: 2-2266                     [16, 128, 16, 16]         --
│    └─Clamp: 2-2267                     [16, 128, 16, 16]         --
├─FusedMaxPoolConv2dBNReLU: 1-169        [16, 128, 8, 8]           (recursive)
│    └─MaxPool2d: 2-2268                 [16, 128, 8, 8]           --
│    └─Empty: 2-2269                     [16, 128, 8, 8]           --
│    └─Empty: 2-2270                     [16, 128, 8, 8]           --
│    └─OutputShiftSqueeze: 2-2271        --                        --
│    └─One: 2-2272                       [1]                       --
│    └─OutputScale: 2-2273               --                        --
│    └─Empty: 2-2274                     [128, 128, 3, 3]          --
│    └─Empty: 2-2275                     [128, 128, 3, 3]          --
│    └─Empty: 2-2276                     [128]                     --
│    └─Empty: 2-2277                     [128]                     --
│    └─BatchNorm2d: 2-2278               [16, 128, 8, 8]           --
│    └─Scaler: 2-2279                    [16, 128, 8, 8]           --
│    └─ReLU: 2-2280                      [16, 128, 8, 8]           --
│    └─Empty: 2-2281                     [16, 128, 8, 8]           --
│    └─Clamp: 2-2282                     [16, 128, 8, 8]           --
├─FusedConv2dBNReLU: 1-170               [16, 16, 8, 8]            (recursive)
│    └─OutputShiftSqueeze: 2-2283        --                        --
│    └─One: 2-2284                       [1]                       --
│    └─OutputScale: 2-2285               --                        --
│    └─Empty: 2-2286                     [16, 128, 1, 1]           --
│    └─Empty: 2-2287                     [16, 128, 1, 1]           --
│    └─Empty: 2-2288                     [16]                      --
│    └─Empty: 2-2289                     [16]                      --
│    └─BatchNorm2d: 2-2290               [16, 16, 8, 8]            --
│    └─Scaler: 2-2291                    [16, 16, 8, 8]            --
│    └─ReLU: 2-2292                      [16, 16, 8, 8]            --
│    └─Empty: 2-2293                     [16, 16, 8, 8]            --
│    └─Clamp: 2-2294                     [16, 16, 8, 8]            --
├─FusedMaxPoolConv2dBNReLU: 1-171        [16, 16, 8, 8]            (recursive)
│    └─MaxPool2d: 2-2295                 [16, 128, 8, 8]           --
│    └─Empty: 2-2296                     [16, 128, 8, 8]           --
│    └─Empty: 2-2297                     [16, 128, 8, 8]           --
│    └─OutputShiftSqueeze: 2-2298        --                        --
│    └─One: 2-2299                       [1]                       --
│    └─OutputScale: 2-2300               --                        --
│    └─Empty: 2-2301                     [16, 128, 3, 3]           --
│    └─Empty: 2-2302                     [16, 128, 3, 3]           --
│    └─Empty: 2-2303                     [16]                      --
│    └─Empty: 2-2304                     [16]                      --
│    └─BatchNorm2d: 2-2305               [16, 16, 8, 8]            --
│    └─Scaler: 2-2306                    [16, 16, 8, 8]            --
│    └─ReLU: 2-2307                      [16, 16, 8, 8]            --
│    └─Empty: 2-2308                     [16, 16, 8, 8]            --
│    └─Clamp: 2-2309                     [16, 16, 8, 8]            --
├─FusedConv2dBNReLU: 1-172               [16, 128, 64, 64]         (recursive)
│    └─OutputShiftSqueeze: 2-2310        --                        --
│    └─One: 2-2311                       [1]                       --
│    └─OutputScale: 2-2312               --                        --
│    └─Empty: 2-2313                     [128, 48, 1, 1]           --
│    └─Empty: 2-2314                     [128, 48, 1, 1]           --
│    └─Empty: 2-2315                     [128]                     --
│    └─Empty: 2-2316                     [128]                     --
│    └─BatchNorm2d: 2-2317               [16, 128, 64, 64]         --
│    └─Scaler: 2-2318                    [16, 128, 64, 64]         --
│    └─ReLU: 2-2319                      [16, 128, 64, 64]         --
│    └─Empty: 2-2320                     [16, 128, 64, 64]         --
│    └─Clamp: 2-2321                     [16, 128, 64, 64]         --
├─FusedConv2dBNReLU: 1-173               [16, 128, 64, 64]         (recursive)
│    └─OutputShiftSqueeze: 2-2322        --                        --
│    └─One: 2-2323                       [1]                       --
│    └─OutputScale: 2-2324               --                        --
│    └─Empty: 2-2325                     [128, 128, 3, 3]          --
│    └─Empty: 2-2326                     [128, 128, 3, 3]          --
│    └─Empty: 2-2327                     [128]                     --
│    └─Empty: 2-2328                     [128]                     --
│    └─BatchNorm2d: 2-2329               [16, 128, 64, 64]         --
│    └─Scaler: 2-2330                    [16, 128, 64, 64]         --
│    └─ReLU: 2-2331                      [16, 128, 64, 64]         --
│    └─Empty: 2-2332                     [16, 128, 64, 64]         --
│    └─Clamp: 2-2333                     [16, 128, 64, 64]         --
├─FusedMaxPoolConv2dBNReLU: 1-174        [16, 128, 32, 32]         (recursive)
│    └─MaxPool2d: 2-2334                 [16, 128, 32, 32]         --
│    └─Empty: 2-2335                     [16, 128, 32, 32]         --
│    └─Empty: 2-2336                     [16, 128, 32, 32]         --
│    └─OutputShiftSqueeze: 2-2337        --                        --
│    └─One: 2-2338                       [1]                       --
│    └─OutputScale: 2-2339               --                        --
│    └─Empty: 2-2340                     [128, 128, 3, 3]          --
│    └─Empty: 2-2341                     [128, 128, 3, 3]          --
│    └─Empty: 2-2342                     [128]                     --
│    └─Empty: 2-2343                     [128]                     --
│    └─BatchNorm2d: 2-2344               [16, 128, 32, 32]         --
│    └─Scaler: 2-2345                    [16, 128, 32, 32]         --
│    └─ReLU: 2-2346                      [16, 128, 32, 32]         --
│    └─Empty: 2-2347                     [16, 128, 32, 32]         --
│    └─Clamp: 2-2348                     [16, 128, 32, 32]         --
├─FusedConv2dBNReLU: 1-175               [16, 128, 32, 32]         (recursive)
│    └─OutputShiftSqueeze: 2-2349        --                        --
│    └─One: 2-2350                       [1]                       --
│    └─OutputScale: 2-2351               --                        --
│    └─Empty: 2-2352                     [128, 128, 1, 1]          --
│    └─Empty: 2-2353                     [128, 128, 1, 1]          --
│    └─Empty: 2-2354                     [128]                     --
│    └─Empty: 2-2355                     [128]                     --
│    └─BatchNorm2d: 2-2356               [16, 128, 32, 32]         --
│    └─Scaler: 2-2357                    [16, 128, 32, 32]         --
│    └─ReLU: 2-2358                      [16, 128, 32, 32]         --
│    └─Empty: 2-2359                     [16, 128, 32, 32]         --
│    └─Clamp: 2-2360                     [16, 128, 32, 32]         --
├─FusedMaxPoolConv2dBNReLU: 1-176        [16, 128, 32, 32]         (recursive)
│    └─MaxPool2d: 2-2361                 [16, 128, 32, 32]         --
│    └─Empty: 2-2362                     [16, 128, 32, 32]         --
│    └─Empty: 2-2363                     [16, 128, 32, 32]         --
│    └─OutputShiftSqueeze: 2-2364        --                        --
│    └─One: 2-2365                       [1]                       --
│    └─OutputScale: 2-2366               --                        --
│    └─Empty: 2-2367                     [128, 128, 3, 3]          --
│    └─Empty: 2-2368                     [128, 128, 3, 3]          --
│    └─Empty: 2-2369                     [128]                     --
│    └─Empty: 2-2370                     [128]                     --
│    └─BatchNorm2d: 2-2371               [16, 128, 32, 32]         --
│    └─Scaler: 2-2372                    [16, 128, 32, 32]         --
│    └─ReLU: 2-2373                      [16, 128, 32, 32]         --
│    └─Empty: 2-2374                     [16, 128, 32, 32]         --
│    └─Clamp: 2-2375                     [16, 128, 32, 32]         --
├─FusedMaxPoolConv2dBNReLU: 1-177        [16, 128, 16, 16]         (recursive)
│    └─MaxPool2d: 2-2376                 [16, 128, 16, 16]         --
│    └─Empty: 2-2377                     [16, 128, 16, 16]         --
│    └─Empty: 2-2378                     [16, 128, 16, 16]         --
│    └─OutputShiftSqueeze: 2-2379        --                        --
│    └─One: 2-2380                       [1]                       --
│    └─OutputScale: 2-2381               --                        --
│    └─Empty: 2-2382                     [128, 128, 3, 3]          --
│    └─Empty: 2-2383                     [128, 128, 3, 3]          --
│    └─Empty: 2-2384                     [128]                     --
│    └─Empty: 2-2385                     [128]                     --
│    └─BatchNorm2d: 2-2386               [16, 128, 16, 16]         --
│    └─Scaler: 2-2387                    [16, 128, 16, 16]         --
│    └─ReLU: 2-2388                      [16, 128, 16, 16]         --
│    └─Empty: 2-2389                     [16, 128, 16, 16]         --
│    └─Clamp: 2-2390                     [16, 128, 16, 16]         --
├─FusedConv2dBNReLU: 1-178               [16, 128, 16, 16]         (recursive)
│    └─OutputShiftSqueeze: 2-2391        --                        --
│    └─One: 2-2392                       [1]                       --
│    └─OutputScale: 2-2393               --                        --
│    └─Empty: 2-2394                     [128, 128, 1, 1]          --
│    └─Empty: 2-2395                     [128, 128, 1, 1]          --
│    └─Empty: 2-2396                     [128]                     --
│    └─Empty: 2-2397                     [128]                     --
│    └─BatchNorm2d: 2-2398               [16, 128, 16, 16]         --
│    └─Scaler: 2-2399                    [16, 128, 16, 16]         --
│    └─ReLU: 2-2400                      [16, 128, 16, 16]         --
│    └─Empty: 2-2401                     [16, 128, 16, 16]         --
│    └─Clamp: 2-2402                     [16, 128, 16, 16]         --
├─FusedMaxPoolConv2dBNReLU: 1-179        [16, 128, 16, 16]         (recursive)
│    └─MaxPool2d: 2-2403                 [16, 128, 16, 16]         --
│    └─Empty: 2-2404                     [16, 128, 16, 16]         --
│    └─Empty: 2-2405                     [16, 128, 16, 16]         --
│    └─OutputShiftSqueeze: 2-2406        --                        --
│    └─One: 2-2407                       [1]                       --
│    └─OutputScale: 2-2408               --                        --
│    └─Empty: 2-2409                     [128, 128, 3, 3]          --
│    └─Empty: 2-2410                     [128, 128, 3, 3]          --
│    └─Empty: 2-2411                     [128]                     --
│    └─Empty: 2-2412                     [128]                     --
│    └─BatchNorm2d: 2-2413               [16, 128, 16, 16]         --
│    └─Scaler: 2-2414                    [16, 128, 16, 16]         --
│    └─ReLU: 2-2415                      [16, 128, 16, 16]         --
│    └─Empty: 2-2416                     [16, 128, 16, 16]         --
│    └─Clamp: 2-2417                     [16, 128, 16, 16]         --
├─FusedMaxPoolConv2dBNReLU: 1-180        [16, 128, 8, 8]           (recursive)
│    └─MaxPool2d: 2-2418                 [16, 128, 8, 8]           --
│    └─Empty: 2-2419                     [16, 128, 8, 8]           --
│    └─Empty: 2-2420                     [16, 128, 8, 8]           --
│    └─OutputShiftSqueeze: 2-2421        --                        --
│    └─One: 2-2422                       [1]                       --
│    └─OutputScale: 2-2423               --                        --
│    └─Empty: 2-2424                     [128, 128, 3, 3]          --
│    └─Empty: 2-2425                     [128, 128, 3, 3]          --
│    └─Empty: 2-2426                     [128]                     --
│    └─Empty: 2-2427                     [128]                     --
│    └─BatchNorm2d: 2-2428               [16, 128, 8, 8]           --
│    └─Scaler: 2-2429                    [16, 128, 8, 8]           --
│    └─ReLU: 2-2430                      [16, 128, 8, 8]           --
│    └─Empty: 2-2431                     [16, 128, 8, 8]           --
│    └─Clamp: 2-2432                     [16, 128, 8, 8]           --
├─FusedConv2dBNReLU: 1-181               [16, 16, 8, 8]            (recursive)
│    └─OutputShiftSqueeze: 2-2433        --                        --
│    └─One: 2-2434                       [1]                       --
│    └─OutputScale: 2-2435               --                        --
│    └─Empty: 2-2436                     [16, 128, 1, 1]           --
│    └─Empty: 2-2437                     [16, 128, 1, 1]           --
│    └─Empty: 2-2438                     [16]                      --
│    └─Empty: 2-2439                     [16]                      --
│    └─BatchNorm2d: 2-2440               [16, 16, 8, 8]            --
│    └─Scaler: 2-2441                    [16, 16, 8, 8]            --
│    └─ReLU: 2-2442                      [16, 16, 8, 8]            --
│    └─Empty: 2-2443                     [16, 16, 8, 8]            --
│    └─Clamp: 2-2444                     [16, 16, 8, 8]            --
├─FusedMaxPoolConv2dBNReLU: 1-182        [16, 16, 8, 8]            (recursive)
│    └─MaxPool2d: 2-2445                 [16, 128, 8, 8]           --
│    └─Empty: 2-2446                     [16, 128, 8, 8]           --
│    └─Empty: 2-2447                     [16, 128, 8, 8]           --
│    └─OutputShiftSqueeze: 2-2448        --                        --
│    └─One: 2-2449                       [1]                       --
│    └─OutputScale: 2-2450               --                        --
│    └─Empty: 2-2451                     [16, 128, 3, 3]           --
│    └─Empty: 2-2452                     [16, 128, 3, 3]           --
│    └─Empty: 2-2453                     [16]                      --
│    └─Empty: 2-2454                     [16]                      --
│    └─BatchNorm2d: 2-2455               [16, 16, 8, 8]            --
│    └─Scaler: 2-2456                    [16, 16, 8, 8]            --
│    └─ReLU: 2-2457                      [16, 16, 8, 8]            --
│    └─Empty: 2-2458                     [16, 16, 8, 8]            --
│    └─Clamp: 2-2459                     [16, 16, 8, 8]            --
├─Linear: 1-183                          [16, 4]                   4,102
│    └─OutputShiftSqueeze: 2-2460        --                        --
│    └─One: 2-2461                       [1]                       --
│    └─OutputScale: 2-2462               --                        --
│    └─Empty: 2-2463                     [4, 1024]                 --
│    └─Empty: 2-2464                     [4, 1024]                 --
│    └─Empty: 2-2465                     [16, 4]                   --
│    └─Empty: 2-2466                     [16, 4]                   --
│    └─Clamp: 2-2467                     [16, 4]                   --
├─Linear: 1-184                          [16, 4]                   (recursive)
│    └─OutputShiftSqueeze: 2-2468        --                        --
│    └─One: 2-2469                       [1]                       --
│    └─OutputScale: 2-2470               --                        --
│    └─Empty: 2-2471                     [4, 1024]                 --
│    └─Empty: 2-2472                     [4, 1024]                 --
│    └─Empty: 2-2473                     [16, 4]                   --
│    └─Empty: 2-2474                     [16, 4]                   --
│    └─Clamp: 2-2475                     [16, 4]                   --
├─Linear: 1-185                          [16, 4]                   (recursive)
│    └─OutputShiftSqueeze: 2-2476        --                        --
│    └─One: 2-2477                       [1]                       --
│    └─OutputScale: 2-2478               --                        --
│    └─Empty: 2-2479                     [4, 1024]                 --
│    └─Empty: 2-2480                     [4, 1024]                 --
│    └─Empty: 2-2481                     [16, 4]                   --
│    └─Empty: 2-2482                     [16, 4]                   --
│    └─Clamp: 2-2483                     [16, 4]                   --
├─Linear: 1-186                          [16, 4]                   (recursive)
│    └─OutputShiftSqueeze: 2-2484        --                        --
│    └─One: 2-2485                       [1]                       --
│    └─OutputScale: 2-2486               --                        --
│    └─Empty: 2-2487                     [4, 1024]                 --
│    └─Empty: 2-2488                     [4, 1024]                 --
│    └─Empty: 2-2489                     [16, 4]                   --
│    └─Empty: 2-2490                     [16, 4]                   --
│    └─Clamp: 2-2491                     [16, 4]                   --
├─Linear: 1-187                          [16, 4]                   (recursive)
│    └─OutputShiftSqueeze: 2-2492        --                        --
│    └─One: 2-2493                       [1]                       --
│    └─OutputScale: 2-2494               --                        --
│    └─Empty: 2-2495                     [4, 1024]                 --
│    └─Empty: 2-2496                     [4, 1024]                 --
│    └─Empty: 2-2497                     [16, 4]                   --
│    └─Empty: 2-2498                     [16, 4]                   --
│    └─Clamp: 2-2499                     [16, 4]                   --
├─Linear: 1-188                          [16, 4]                   (recursive)
│    └─OutputShiftSqueeze: 2-2500        --                        --
│    └─One: 2-2501                       [1]                       --
│    └─OutputScale: 2-2502               --                        --
│    └─Empty: 2-2503                     [4, 1024]                 --
│    └─Empty: 2-2504                     [4, 1024]                 --
│    └─Empty: 2-2505                     [16, 4]                   --
│    └─Empty: 2-2506                     [16, 4]                   --
│    └─Clamp: 2-2507                     [16, 4]                   --
├─Linear: 1-189                          [16, 4]                   (recursive)
│    └─OutputShiftSqueeze: 2-2508        --                        --
│    └─One: 2-2509                       [1]                       --
│    └─OutputScale: 2-2510               --                        --
│    └─Empty: 2-2511                     [4, 1024]                 --
│    └─Empty: 2-2512                     [4, 1024]                 --
│    └─Empty: 2-2513                     [16, 4]                   --
│    └─Empty: 2-2514                     [16, 4]                   --
│    └─Clamp: 2-2515                     [16, 4]                   --
├─Linear: 1-190                          [16, 4]                   (recursive)
│    └─OutputShiftSqueeze: 2-2516        --                        --
│    └─One: 2-2517                       [1]                       --
│    └─OutputScale: 2-2518               --                        --
│    └─Empty: 2-2519                     [4, 1024]                 --
│    └─Empty: 2-2520                     [4, 1024]                 --
│    └─Empty: 2-2521                     [16, 4]                   --
│    └─Empty: 2-2522                     [16, 4]                   --
│    └─Clamp: 2-2523                     [16, 4]                   --
├─Linear: 1-191                          [16, 4]                   (recursive)
│    └─OutputShiftSqueeze: 2-2524        --                        --
│    └─One: 2-2525                       [1]                       --
│    └─OutputScale: 2-2526               --                        --
│    └─Empty: 2-2527                     [4, 1024]                 --
│    └─Empty: 2-2528                     [4, 1024]                 --
│    └─Empty: 2-2529                     [16, 4]                   --
│    └─Empty: 2-2530                     [16, 4]                   --
│    └─Clamp: 2-2531                     [16, 4]                   --
├─Linear: 1-192                          [16, 4]                   (recursive)
│    └─OutputShiftSqueeze: 2-2532        --                        --
│    └─One: 2-2533                       [1]                       --
│    └─OutputScale: 2-2534               --                        --
│    └─Empty: 2-2535                     [4, 1024]                 --
│    └─Empty: 2-2536                     [4, 1024]                 --
│    └─Empty: 2-2537                     [16, 4]                   --
│    └─Empty: 2-2538                     [16, 4]                   --
│    └─Clamp: 2-2539                     [16, 4]                   --
├─Linear: 1-193                          [16, 4]                   (recursive)
│    └─OutputShiftSqueeze: 2-2540        --                        --
│    └─One: 2-2541                       [1]                       --
│    └─OutputScale: 2-2542               --                        --
│    └─Empty: 2-2543                     [4, 1024]                 --
│    └─Empty: 2-2544                     [4, 1024]                 --
│    └─Empty: 2-2545                     [16, 4]                   --
│    └─Empty: 2-2546                     [16, 4]                   --
│    └─Clamp: 2-2547                     [16, 4]                   --
├─Linear: 1-194                          [16, 4]                   (recursive)
│    └─OutputShiftSqueeze: 2-2548        --                        --
│    └─One: 2-2549                       [1]                       --
│    └─OutputScale: 2-2550               --                        --
│    └─Empty: 2-2551                     [4, 1024]                 --
│    └─Empty: 2-2552                     [4, 1024]                 --
│    └─Empty: 2-2553                     [16, 4]                   --
│    └─Empty: 2-2554                     [16, 4]                   --
│    └─Clamp: 2-2555                     [16, 4]                   --
├─Linear: 1-195                          [16, 4]                   (recursive)
│    └─OutputShiftSqueeze: 2-2556        --                        --
│    └─One: 2-2557                       [1]                       --
│    └─OutputScale: 2-2558               --                        --
│    └─Empty: 2-2559                     [4, 1024]                 --
│    └─Empty: 2-2560                     [4, 1024]                 --
│    └─Empty: 2-2561                     [16, 4]                   --
│    └─Empty: 2-2562                     [16, 4]                   --
│    └─Clamp: 2-2563                     [16, 4]                   --
├─Linear: 1-196                          [16, 4]                   (recursive)
│    └─OutputShiftSqueeze: 2-2564        --                        --
│    └─One: 2-2565                       [1]                       --
│    └─OutputScale: 2-2566               --                        --
│    └─Empty: 2-2567                     [4, 1024]                 --
│    └─Empty: 2-2568                     [4, 1024]                 --
│    └─Empty: 2-2569                     [16, 4]                   --
│    └─Empty: 2-2570                     [16, 4]                   --
│    └─Clamp: 2-2571                     [16, 4]                   --
├─Linear: 1-197                          [16, 4]                   (recursive)
│    └─OutputShiftSqueeze: 2-2572        --                        --
│    └─One: 2-2573                       [1]                       --
│    └─OutputScale: 2-2574               --                        --
│    └─Empty: 2-2575                     [4, 1024]                 --
│    └─Empty: 2-2576                     [4, 1024]                 --
│    └─Empty: 2-2577                     [16, 4]                   --
│    └─Empty: 2-2578                     [16, 4]                   --
│    └─Clamp: 2-2579                     [16, 4]                   --
├─Linear: 1-198                          [16, 4]                   (recursive)
│    └─OutputShiftSqueeze: 2-2580        --                        --
│    └─One: 2-2581                       [1]                       --
│    └─OutputScale: 2-2582               --                        --
│    └─Empty: 2-2583                     [4, 1024]                 --
│    └─Empty: 2-2584                     [4, 1024]                 --
│    └─Empty: 2-2585                     [16, 4]                   --
│    └─Empty: 2-2586                     [16, 4]                   --
│    └─Clamp: 2-2587                     [16, 4]                   --
==========================================================================================
Total params: 949,480
Trainable params: 949,408
Non-trainable params: 72
Total mult-adds (M): 0.00
==========================================================================================
Input size (MB): 201.33
Forward/backward pass size (MB): 0.00
Params size (MB): 3.78
Estimated Total Size (MB): 205.11
…
