…
I - Batch size:  16  tensor shape:  torch.Size([16, 48, 64, 64])  data min-max:  tensor(-1.) tensor(0.9922)
I - Label min-max:  tensor(0) tensor(4) data number in dataset:  tensor([ 4616,  9042,  3139,  9601, 10687,  7680,  1556,  3757,  3187,  2636,
         5856,  3244,  3701,  4707,  6639,  7613])
I - Number of Model Parameters: 730048
I - Model output shape:  torch.Size([16, 5])
I - Model summary
==========================================================================================
Layer (type:depth-idx)                   Output Shape              Param #
==========================================================================================
TCNv1                                    [16, 5]                   --
├─FusedConv2dBNReLU: 1-1                 [16, 64, 64, 64]          3,142
│    └─OutputShiftSqueeze: 2-1           --                        --
│    └─One: 2-2                          [1]                       --
│    └─OutputScale: 2-3                  --                        --
│    └─Empty: 2-4                        [64, 48, 1, 1]            --
│    └─Empty: 2-5                        [64, 48, 1, 1]            --
│    └─Empty: 2-6                        [64]                      --
│    └─Empty: 2-7                        [64]                      --
│    └─BatchNorm2d: 2-8                  [16, 64, 64, 64]          --
│    └─Scaler: 2-9                       [16, 64, 64, 64]          --
│    └─ReLU: 2-10                        [16, 64, 64, 64]          --
│    └─Empty: 2-11                       [16, 64, 64, 64]          --
│    └─Clamp: 2-12                       [16, 64, 64, 64]          --
├─FusedConv2dBNReLU: 1-2                 [16, 64, 64, 64]          36,934
│    └─OutputShiftSqueeze: 2-13          --                        --
│    └─One: 2-14                         [1]                       --
│    └─OutputScale: 2-15                 --                        --
│    └─Empty: 2-16                       [64, 64, 3, 3]            --
│    └─Empty: 2-17                       [64, 64, 3, 3]            --
│    └─Empty: 2-18                       [64]                      --
│    └─Empty: 2-19                       [64]                      --
│    └─BatchNorm2d: 2-20                 [16, 64, 64, 64]          --
│    └─Scaler: 2-21                      [16, 64, 64, 64]          --
│    └─ReLU: 2-22                        [16, 64, 64, 64]          --
│    └─Empty: 2-23                       [16, 64, 64, 64]          --
│    └─Clamp: 2-24                       [16, 64, 64, 64]          --
├─FusedConv2dBNReLU: 1-3                 [16, 64, 64, 64]          4,166
│    └─OutputShiftSqueeze: 2-25          --                        --
│    └─One: 2-26                         [1]                       --
│    └─OutputScale: 2-27                 --                        --
│    └─Empty: 2-28                       [64, 64, 1, 1]            --
│    └─Empty: 2-29                       [64, 64, 1, 1]            --
│    └─Empty: 2-30                       [64]                      --
│    └─Empty: 2-31                       [64]                      --
│    └─BatchNorm2d: 2-32                 [16, 64, 64, 64]          --
│    └─Scaler: 2-33                      [16, 64, 64, 64]          --
│    └─ReLU: 2-34                        [16, 64, 64, 64]          --
│    └─Empty: 2-35                       [16, 64, 64, 64]          --
│    └─Clamp: 2-36                       [16, 64, 64, 64]          --
├─FusedConv2dBNReLU: 1-4                 [16, 64, 64, 64]          36,934
│    └─OutputShiftSqueeze: 2-37          --                        --
│    └─One: 2-38                         [1]                       --
│    └─OutputScale: 2-39                 --                        --
│    └─Empty: 2-40                       [64, 64, 3, 3]            --
│    └─Empty: 2-41                       [64, 64, 3, 3]            --
│    └─Empty: 2-42                       [64]                      --
│    └─Empty: 2-43                       [64]                      --
│    └─BatchNorm2d: 2-44                 [16, 64, 64, 64]          --
│    └─Scaler: 2-45                      [16, 64, 64, 64]          --
│    └─ReLU: 2-46                        [16, 64, 64, 64]          --
│    └─Empty: 2-47                       [16, 64, 64, 64]          --
│    └─Clamp: 2-48                       [16, 64, 64, 64]          --
├─FusedMaxPoolConv2dBNReLU: 1-5          [16, 64, 32, 32]          36,934
│    └─MaxPool2d: 2-49                   [16, 64, 32, 32]          --
│    └─Empty: 2-50                       [16, 64, 32, 32]          --
│    └─Empty: 2-51                       [16, 64, 32, 32]          --
│    └─OutputShiftSqueeze: 2-52          --                        --
│    └─One: 2-53                         [1]                       --
│    └─OutputScale: 2-54                 --                        --
│    └─Empty: 2-55                       [64, 64, 3, 3]            --
│    └─Empty: 2-56                       [64, 64, 3, 3]            --
│    └─Empty: 2-57                       [64]                      --
│    └─Empty: 2-58                       [64]                      --
│    └─BatchNorm2d: 2-59                 [16, 64, 32, 32]          --
│    └─Scaler: 2-60                      [16, 64, 32, 32]          --
│    └─ReLU: 2-61                        [16, 64, 32, 32]          --
│    └─Empty: 2-62                       [16, 64, 32, 32]          --
│    └─Clamp: 2-63                       [16, 64, 32, 32]          --
├─FusedConv2dBNReLU: 1-6                 [16, 64, 32, 32]          36,934
│    └─OutputShiftSqueeze: 2-64          --                        --
│    └─One: 2-65                         [1]                       --
│    └─OutputScale: 2-66                 --                        --
│    └─Empty: 2-67                       [64, 64, 3, 3]            --
│    └─Empty: 2-68                       [64, 64, 3, 3]            --
│    └─Empty: 2-69                       [64]                      --
│    └─Empty: 2-70                       [64]                      --
│    └─BatchNorm2d: 2-71                 [16, 64, 32, 32]          --
│    └─Scaler: 2-72                      [16, 64, 32, 32]          --
│    └─ReLU: 2-73                        [16, 64, 32, 32]          --
│    └─Empty: 2-74                       [16, 64, 32, 32]          --
│    └─Clamp: 2-75                       [16, 64, 32, 32]          --
├─FusedMaxPoolConv2dBNReLU: 1-7          [16, 64, 16, 16]          36,934
│    └─MaxPool2d: 2-76                   [16, 64, 16, 16]          --
│    └─Empty: 2-77                       [16, 64, 16, 16]          --
│    └─Empty: 2-78                       [16, 64, 16, 16]          --
│    └─OutputShiftSqueeze: 2-79          --                        --
│    └─One: 2-80                         [1]                       --
│    └─OutputScale: 2-81                 --                        --
│    └─Empty: 2-82                       [64, 64, 3, 3]            --
│    └─Empty: 2-83                       [64, 64, 3, 3]            --
│    └─Empty: 2-84                       [64]                      --
│    └─Empty: 2-85                       [64]                      --
│    └─BatchNorm2d: 2-86                 [16, 64, 16, 16]          --
│    └─Scaler: 2-87                      [16, 64, 16, 16]          --
│    └─ReLU: 2-88                        [16, 64, 16, 16]          --
│    └─Empty: 2-89                       [16, 64, 16, 16]          --
│    └─Clamp: 2-90                       [16, 64, 16, 16]          --
├─FusedConv2dBNReLU: 1-8                 [16, 64, 16, 16]          36,934
│    └─OutputShiftSqueeze: 2-91          --                        --
│    └─One: 2-92                         [1]                       --
│    └─OutputScale: 2-93                 --                        --
│    └─Empty: 2-94                       [64, 64, 3, 3]            --
│    └─Empty: 2-95                       [64, 64, 3, 3]            --
│    └─Empty: 2-96                       [64]                      --
│    └─Empty: 2-97                       [64]                      --
│    └─BatchNorm2d: 2-98                 [16, 64, 16, 16]          --
│    └─Scaler: 2-99                      [16, 64, 16, 16]          --
│    └─ReLU: 2-100                       [16, 64, 16, 16]          --
│    └─Empty: 2-101                      [16, 64, 16, 16]          --
│    └─Clamp: 2-102                      [16, 64, 16, 16]          --
├─FusedMaxPoolConv2dBNReLU: 1-9          [16, 64, 8, 8]            36,934
│    └─MaxPool2d: 2-103                  [16, 64, 8, 8]            --
│    └─Empty: 2-104                      [16, 64, 8, 8]            --
│    └─Empty: 2-105                      [16, 64, 8, 8]            --
│    └─OutputShiftSqueeze: 2-106         --                        --
│    └─One: 2-107                        [1]                       --
│    └─OutputScale: 2-108                --                        --
│    └─Empty: 2-109                      [64, 64, 3, 3]            --
│    └─Empty: 2-110                      [64, 64, 3, 3]            --
│    └─Empty: 2-111                      [64]                      --
│    └─Empty: 2-112                      [64]                      --
│    └─BatchNorm2d: 2-113                [16, 64, 8, 8]            --
│    └─Scaler: 2-114                     [16, 64, 8, 8]            --
│    └─ReLU: 2-115                       [16, 64, 8, 8]            --
│    └─Empty: 2-116                      [16, 64, 8, 8]            --
│    └─Clamp: 2-117                      [16, 64, 8, 8]            --
├─FusedConv2dBNReLU: 1-10                [16, 64, 8, 8]            4,166
│    └─OutputShiftSqueeze: 2-118         --                        --
│    └─One: 2-119                        [1]                       --
│    └─OutputScale: 2-120                --                        --
│    └─Empty: 2-121                      [64, 64, 1, 1]            --
│    └─Empty: 2-122                      [64, 64, 1, 1]            --
│    └─Empty: 2-123                      [64]                      --
│    └─Empty: 2-124                      [64]                      --
│    └─BatchNorm2d: 2-125                [16, 64, 8, 8]            --
│    └─Scaler: 2-126                     [16, 64, 8, 8]            --
│    └─ReLU: 2-127                       [16, 64, 8, 8]            --
│    └─Empty: 2-128                      [16, 64, 8, 8]            --
│    └─Clamp: 2-129                      [16, 64, 8, 8]            --
├─FusedMaxPoolConv2dBNReLU: 1-11         [16, 64, 8, 8]            36,934
│    └─MaxPool2d: 2-130                  [16, 64, 8, 8]            --
│    └─Empty: 2-131                      [16, 64, 8, 8]            --
│    └─Empty: 2-132                      [16, 64, 8, 8]            --
│    └─OutputShiftSqueeze: 2-133         --                        --
│    └─One: 2-134                        [1]                       --
│    └─OutputScale: 2-135                --                        --
│    └─Empty: 2-136                      [64, 64, 3, 3]            --
│    └─Empty: 2-137                      [64, 64, 3, 3]            --
│    └─Empty: 2-138                      [64]                      --
│    └─Empty: 2-139                      [64]                      --
│    └─BatchNorm2d: 2-140                [16, 64, 8, 8]            --
│    └─Scaler: 2-141                     [16, 64, 8, 8]            --
│    └─ReLU: 2-142                       [16, 64, 8, 8]            --
│    └─Empty: 2-143                      [16, 64, 8, 8]            --
│    └─Clamp: 2-144                      [16, 64, 8, 8]            --
├─FusedMaxPoolConv2dBNReLU: 1-12         [16, 64, 4, 4]            36,934
│    └─MaxPool2d: 2-145                  [16, 64, 4, 4]            --
│    └─Empty: 2-146                      [16, 64, 4, 4]            --
│    └─Empty: 2-147                      [16, 64, 4, 4]            --
│    └─OutputShiftSqueeze: 2-148         --                        --
│    └─One: 2-149                        [1]                       --
│    └─OutputScale: 2-150                --                        --
│    └─Empty: 2-151                      [64, 64, 3, 3]            --
│    └─Empty: 2-152                      [64, 64, 3, 3]            --
│    └─Empty: 2-153                      [64]                      --
│    └─Empty: 2-154                      [64]                      --
│    └─BatchNorm2d: 2-155                [16, 64, 4, 4]            --
│    └─Scaler: 2-156                     [16, 64, 4, 4]            --
│    └─ReLU: 2-157                       [16, 64, 4, 4]            --
│    └─Empty: 2-158                      [16, 64, 4, 4]            --
│    └─Clamp: 2-159                      [16, 64, 4, 4]            --
├─FusedConv2dBNReLU: 1-13                [16, 64, 4, 4]            4,166
│    └─OutputShiftSqueeze: 2-160         --                        --
│    └─One: 2-161                        [1]                       --
│    └─OutputScale: 2-162                --                        --
│    └─Empty: 2-163                      [64, 64, 1, 1]            --
│    └─Empty: 2-164                      [64, 64, 1, 1]            --
│    └─Empty: 2-165                      [64]                      --
│    └─Empty: 2-166                      [64]                      --
│    └─BatchNorm2d: 2-167                [16, 64, 4, 4]            --
│    └─Scaler: 2-168                     [16, 64, 4, 4]            --
│    └─ReLU: 2-169                       [16, 64, 4, 4]            --
│    └─Empty: 2-170                      [16, 64, 4, 4]            --
│    └─Clamp: 2-171                      [16, 64, 4, 4]            --
├─FusedMaxPoolConv2dBNReLU: 1-14         [16, 64, 4, 4]            36,934
│    └─MaxPool2d: 2-172                  [16, 64, 4, 4]            --
│    └─Empty: 2-173                      [16, 64, 4, 4]            --
│    └─Empty: 2-174                      [16, 64, 4, 4]            --
│    └─OutputShiftSqueeze: 2-175         --                        --
│    └─One: 2-176                        [1]                       --
│    └─OutputScale: 2-177                --                        --
│    └─Empty: 2-178                      [64, 64, 3, 3]            --
│    └─Empty: 2-179                      [64, 64, 3, 3]            --
│    └─Empty: 2-180                      [64]                      --
│    └─Empty: 2-181                      [64]                      --
│    └─BatchNorm2d: 2-182                [16, 64, 4, 4]            --
│    └─Scaler: 2-183                     [16, 64, 4, 4]            --
│    └─ReLU: 2-184                       [16, 64, 4, 4]            --
│    └─Empty: 2-185                      [16, 64, 4, 4]            --
│    └─Clamp: 2-186                      [16, 64, 4, 4]            --
├─FusedMaxPoolConv2dBNReLU: 1-15         [16, 64, 2, 2]            4,166
│    └─MaxPool2d: 2-187                  [16, 64, 2, 2]            --
│    └─Empty: 2-188                      [16, 64, 2, 2]            --
│    └─Empty: 2-189                      [16, 64, 2, 2]            --
│    └─OutputShiftSqueeze: 2-190         --                        --
│    └─One: 2-191                        [1]                       --
│    └─OutputScale: 2-192                --                        --
│    └─Empty: 2-193                      [64, 64, 1, 1]            --
│    └─Empty: 2-194                      [64, 64, 1, 1]            --
│    └─Empty: 2-195                      [64]                      --
│    └─Empty: 2-196                      [64]                      --
│    └─BatchNorm2d: 2-197                [16, 64, 2, 2]            --
│    └─Scaler: 2-198                     [16, 64, 2, 2]            --
│    └─ReLU: 2-199                       [16, 64, 2, 2]            --
│    └─Empty: 2-200                      [16, 64, 2, 2]            --
│    └─Clamp: 2-201                      [16, 64, 2, 2]            --
├─FusedConv2dBNReLU: 1-16                [16, 64, 2, 2]            4,166
│    └─OutputShiftSqueeze: 2-202         --                        --
│    └─One: 2-203                        [1]                       --
│    └─OutputScale: 2-204                --                        --
│    └─Empty: 2-205                      [64, 64, 1, 1]            --
│    └─Empty: 2-206                      [64, 64, 1, 1]            --
│    └─Empty: 2-207                      [64]                      --
│    └─Empty: 2-208                      [64]                      --
│    └─BatchNorm2d: 2-209                [16, 64, 2, 2]            --
│    └─Scaler: 2-210                     [16, 64, 2, 2]            --
│    └─ReLU: 2-211                       [16, 64, 2, 2]            --
│    └─Empty: 2-212                      [16, 64, 2, 2]            --
│    └─Clamp: 2-213                      [16, 64, 2, 2]            --
├─FusedMaxPoolConv2dBNReLU: 1-17         [16, 64, 2, 2]            36,934
│    └─MaxPool2d: 2-214                  [16, 64, 2, 2]            --
│    └─Empty: 2-215                      [16, 64, 2, 2]            --
│    └─Empty: 2-216                      [16, 64, 2, 2]            --
│    └─OutputShiftSqueeze: 2-217         --                        --
│    └─One: 2-218                        [1]                       --
│    └─OutputScale: 2-219                --                        --
│    └─Empty: 2-220                      [64, 64, 3, 3]            --
│    └─Empty: 2-221                      [64, 64, 3, 3]            --
│    └─Empty: 2-222                      [64]                      --
│    └─Empty: 2-223                      [64]                      --
│    └─BatchNorm2d: 2-224                [16, 64, 2, 2]            --
│    └─Scaler: 2-225                     [16, 64, 2, 2]            --
│    └─ReLU: 2-226                       [16, 64, 2, 2]            --
│    └─Empty: 2-227                      [16, 64, 2, 2]            --
│    └─Clamp: 2-228                      [16, 64, 2, 2]            --
├─FusedConv2dBNReLU: 1-18                [16, 64, 64, 64]          (recursive)
│    └─OutputShiftSqueeze: 2-229         --                        --
│    └─One: 2-230                        [1]                       --
│    └─OutputScale: 2-231                --                        --
│    └─Empty: 2-232                      [64, 48, 1, 1]            --
│    └─Empty: 2-233                      [64, 48, 1, 1]            --
│    └─Empty: 2-234                      [64]                      --
│    └─Empty: 2-235                      [64]                      --
│    └─BatchNorm2d: 2-236                [16, 64, 64, 64]          --
│    └─Scaler: 2-237                     [16, 64, 64, 64]          --
│    └─ReLU: 2-238                       [16, 64, 64, 64]          --
│    └─Empty: 2-239                      [16, 64, 64, 64]          --
│    └─Clamp: 2-240                      [16, 64, 64, 64]          --
├─FusedConv2dBNReLU: 1-19                [16, 64, 64, 64]          (recursive)
│    └─OutputShiftSqueeze: 2-241         --                        --
│    └─One: 2-242                        [1]                       --
│    └─OutputScale: 2-243                --                        --
│    └─Empty: 2-244                      [64, 64, 3, 3]            --
│    └─Empty: 2-245                      [64, 64, 3, 3]            --
│    └─Empty: 2-246                      [64]                      --
│    └─Empty: 2-247                      [64]                      --
│    └─BatchNorm2d: 2-248                [16, 64, 64, 64]          --
│    └─Scaler: 2-249                     [16, 64, 64, 64]          --
│    └─ReLU: 2-250                       [16, 64, 64, 64]          --
│    └─Empty: 2-251                      [16, 64, 64, 64]          --
│    └─Clamp: 2-252                      [16, 64, 64, 64]          --
├─FusedConv2dBNReLU: 1-20                [16, 64, 64, 64]          (recursive)
│    └─OutputShiftSqueeze: 2-253         --                        --
│    └─One: 2-254                        [1]                       --
│    └─OutputScale: 2-255                --                        --
│    └─Empty: 2-256                      [64, 64, 1, 1]            --
│    └─Empty: 2-257                      [64, 64, 1, 1]            --
│    └─Empty: 2-258                      [64]                      --
│    └─Empty: 2-259                      [64]                      --
│    └─BatchNorm2d: 2-260                [16, 64, 64, 64]          --
│    └─Scaler: 2-261                     [16, 64, 64, 64]          --
│    └─ReLU: 2-262                       [16, 64, 64, 64]          --
│    └─Empty: 2-263                      [16, 64, 64, 64]          --
│    └─Clamp: 2-264                      [16, 64, 64, 64]          --
├─FusedConv2dBNReLU: 1-21                [16, 64, 64, 64]          (recursive)
│    └─OutputShiftSqueeze: 2-265         --                        --
│    └─One: 2-266                        [1]                       --
│    └─OutputScale: 2-267                --                        --
│    └─Empty: 2-268                      [64, 64, 3, 3]            --
│    └─Empty: 2-269                      [64, 64, 3, 3]            --
│    └─Empty: 2-270                      [64]                      --
│    └─Empty: 2-271                      [64]                      --
│    └─BatchNorm2d: 2-272                [16, 64, 64, 64]          --
│    └─Scaler: 2-273                     [16, 64, 64, 64]          --
│    └─ReLU: 2-274                       [16, 64, 64, 64]          --
│    └─Empty: 2-275                      [16, 64, 64, 64]          --
│    └─Clamp: 2-276                      [16, 64, 64, 64]          --
├─FusedMaxPoolConv2dBNReLU: 1-22         [16, 64, 32, 32]          (recursive)
│    └─MaxPool2d: 2-277                  [16, 64, 32, 32]          --
│    └─Empty: 2-278                      [16, 64, 32, 32]          --
│    └─Empty: 2-279                      [16, 64, 32, 32]          --
│    └─OutputShiftSqueeze: 2-280         --                        --
│    └─One: 2-281                        [1]                       --
│    └─OutputScale: 2-282                --                        --
│    └─Empty: 2-283                      [64, 64, 3, 3]            --
│    └─Empty: 2-284                      [64, 64, 3, 3]            --
│    └─Empty: 2-285                      [64]                      --
│    └─Empty: 2-286                      [64]                      --
│    └─BatchNorm2d: 2-287                [16, 64, 32, 32]          --
│    └─Scaler: 2-288                     [16, 64, 32, 32]          --
│    └─ReLU: 2-289                       [16, 64, 32, 32]          --
│    └─Empty: 2-290                      [16, 64, 32, 32]          --
│    └─Clamp: 2-291                      [16, 64, 32, 32]          --
├─FusedConv2dBNReLU: 1-23                [16, 64, 32, 32]          (recursive)
│    └─OutputShiftSqueeze: 2-292         --                        --
│    └─One: 2-293                        [1]                       --
│    └─OutputScale: 2-294                --                        --
│    └─Empty: 2-295                      [64, 64, 3, 3]            --
│    └─Empty: 2-296                      [64, 64, 3, 3]            --
│    └─Empty: 2-297                      [64]                      --
│    └─Empty: 2-298                      [64]                      --
│    └─BatchNorm2d: 2-299                [16, 64, 32, 32]          --
│    └─Scaler: 2-300                     [16, 64, 32, 32]          --
│    └─ReLU: 2-301                       [16, 64, 32, 32]          --
│    └─Empty: 2-302                      [16, 64, 32, 32]          --
│    └─Clamp: 2-303                      [16, 64, 32, 32]          --
├─FusedMaxPoolConv2dBNReLU: 1-24         [16, 64, 16, 16]          (recursive)
│    └─MaxPool2d: 2-304                  [16, 64, 16, 16]          --
│    └─Empty: 2-305                      [16, 64, 16, 16]          --
│    └─Empty: 2-306                      [16, 64, 16, 16]          --
│    └─OutputShiftSqueeze: 2-307         --                        --
│    └─One: 2-308                        [1]                       --
│    └─OutputScale: 2-309                --                        --
│    └─Empty: 2-310                      [64, 64, 3, 3]            --
│    └─Empty: 2-311                      [64, 64, 3, 3]            --
│    └─Empty: 2-312                      [64]                      --
│    └─Empty: 2-313                      [64]                      --
│    └─BatchNorm2d: 2-314                [16, 64, 16, 16]          --
│    └─Scaler: 2-315                     [16, 64, 16, 16]          --
│    └─ReLU: 2-316                       [16, 64, 16, 16]          --
│    └─Empty: 2-317                      [16, 64, 16, 16]          --
│    └─Clamp: 2-318                      [16, 64, 16, 16]          --
├─FusedConv2dBNReLU: 1-25                [16, 64, 16, 16]          (recursive)
│    └─OutputShiftSqueeze: 2-319         --                        --
│    └─One: 2-320                        [1]                       --
│    └─OutputScale: 2-321                --                        --
│    └─Empty: 2-322                      [64, 64, 3, 3]            --
│    └─Empty: 2-323                      [64, 64, 3, 3]            --
│    └─Empty: 2-324                      [64]                      --
│    └─Empty: 2-325                      [64]                      --
│    └─BatchNorm2d: 2-326                [16, 64, 16, 16]          --
│    └─Scaler: 2-327                     [16, 64, 16, 16]          --
│    └─ReLU: 2-328                       [16, 64, 16, 16]          --
│    └─Empty: 2-329                      [16, 64, 16, 16]          --
│    └─Clamp: 2-330                      [16, 64, 16, 16]          --
├─FusedMaxPoolConv2dBNReLU: 1-26         [16, 64, 8, 8]            (recursive)
│    └─MaxPool2d: 2-331                  [16, 64, 8, 8]            --
│    └─Empty: 2-332                      [16, 64, 8, 8]            --
│    └─Empty: 2-333                      [16, 64, 8, 8]            --
│    └─OutputShiftSqueeze: 2-334         --                        --
│    └─One: 2-335                        [1]                       --
│    └─OutputScale: 2-336                --                        --
│    └─Empty: 2-337                      [64, 64, 3, 3]            --
│    └─Empty: 2-338                      [64, 64, 3, 3]            --
│    └─Empty: 2-339                      [64]                      --
│    └─Empty: 2-340                      [64]                      --
│    └─BatchNorm2d: 2-341                [16, 64, 8, 8]            --
│    └─Scaler: 2-342                     [16, 64, 8, 8]            --
│    └─ReLU: 2-343                       [16, 64, 8, 8]            --
│    └─Empty: 2-344                      [16, 64, 8, 8]            --
│    └─Clamp: 2-345                      [16, 64, 8, 8]            --
├─FusedConv2dBNReLU: 1-27                [16, 64, 8, 8]            (recursive)
│    └─OutputShiftSqueeze: 2-346         --                        --
│    └─One: 2-347                        [1]                       --
│    └─OutputScale: 2-348                --                        --
│    └─Empty: 2-349                      [64, 64, 1, 1]            --
│    └─Empty: 2-350                      [64, 64, 1, 1]            --
│    └─Empty: 2-351                      [64]                      --
│    └─Empty: 2-352                      [64]                      --
│    └─BatchNorm2d: 2-353                [16, 64, 8, 8]            --
│    └─Scaler: 2-354                     [16, 64, 8, 8]            --
│    └─ReLU: 2-355                       [16, 64, 8, 8]            --
│    └─Empty: 2-356                      [16, 64, 8, 8]            --
│    └─Clamp: 2-357                      [16, 64, 8, 8]            --
├─FusedMaxPoolConv2dBNReLU: 1-28         [16, 64, 8, 8]            (recursive)
│    └─MaxPool2d: 2-358                  [16, 64, 8, 8]            --
│    └─Empty: 2-359                      [16, 64, 8, 8]            --
│    └─Empty: 2-360                      [16, 64, 8, 8]            --
│    └─OutputShiftSqueeze: 2-361         --                        --
│    └─One: 2-362                        [1]                       --
│    └─OutputScale: 2-363                --                        --
│    └─Empty: 2-364                      [64, 64, 3, 3]            --
│    └─Empty: 2-365                      [64, 64, 3, 3]            --
│    └─Empty: 2-366                      [64]                      --
│    └─Empty: 2-367                      [64]                      --
│    └─BatchNorm2d: 2-368                [16, 64, 8, 8]            --
│    └─Scaler: 2-369                     [16, 64, 8, 8]            --
│    └─ReLU: 2-370                       [16, 64, 8, 8]            --
│    └─Empty: 2-371                      [16, 64, 8, 8]            --
│    └─Clamp: 2-372                      [16, 64, 8, 8]            --
├─FusedMaxPoolConv2dBNReLU: 1-29         [16, 64, 4, 4]            (recursive)
│    └─MaxPool2d: 2-373                  [16, 64, 4, 4]            --
│    └─Empty: 2-374                      [16, 64, 4, 4]            --
│    └─Empty: 2-375                      [16, 64, 4, 4]            --
│    └─OutputShiftSqueeze: 2-376         --                        --
│    └─One: 2-377                        [1]                       --
│    └─OutputScale: 2-378                --                        --
│    └─Empty: 2-379                      [64, 64, 3, 3]            --
│    └─Empty: 2-380                      [64, 64, 3, 3]            --
│    └─Empty: 2-381                      [64]                      --
│    └─Empty: 2-382                      [64]                      --
│    └─BatchNorm2d: 2-383                [16, 64, 4, 4]            --
│    └─Scaler: 2-384                     [16, 64, 4, 4]            --
│    └─ReLU: 2-385                       [16, 64, 4, 4]            --
│    └─Empty: 2-386                      [16, 64, 4, 4]            --
│    └─Clamp: 2-387                      [16, 64, 4, 4]            --
├─FusedConv2dBNReLU: 1-30                [16, 64, 4, 4]            (recursive)
│    └─OutputShiftSqueeze: 2-388         --                        --
│    └─One: 2-389                        [1]                       --
│    └─OutputScale: 2-390                --                        --
│    └─Empty: 2-391                      [64, 64, 1, 1]            --
│    └─Empty: 2-392                      [64, 64, 1, 1]            --
│    └─Empty: 2-393                      [64]                      --
│    └─Empty: 2-394                      [64]                      --
│    └─BatchNorm2d: 2-395                [16, 64, 4, 4]            --
│    └─Scaler: 2-396                     [16, 64, 4, 4]            --
│    └─ReLU: 2-397                       [16, 64, 4, 4]            --
│    └─Empty: 2-398                      [16, 64, 4, 4]            --
│    └─Clamp: 2-399                      [16, 64, 4, 4]            --
├─FusedMaxPoolConv2dBNReLU: 1-31         [16, 64, 4, 4]            (recursive)
│    └─MaxPool2d: 2-400                  [16, 64, 4, 4]            --
│    └─Empty: 2-401                      [16, 64, 4, 4]            --
│    └─Empty: 2-402                      [16, 64, 4, 4]            --
│    └─OutputShiftSqueeze: 2-403         --                        --
│    └─One: 2-404                        [1]                       --
│    └─OutputScale: 2-405                --                        --
│    └─Empty: 2-406                      [64, 64, 3, 3]            --
│    └─Empty: 2-407                      [64, 64, 3, 3]            --
│    └─Empty: 2-408                      [64]                      --
│    └─Empty: 2-409                      [64]                      --
│    └─BatchNorm2d: 2-410                [16, 64, 4, 4]            --
│    └─Scaler: 2-411                     [16, 64, 4, 4]            --
│    └─ReLU: 2-412                       [16, 64, 4, 4]            --
│    └─Empty: 2-413                      [16, 64, 4, 4]            --
│    └─Clamp: 2-414                      [16, 64, 4, 4]            --
├─FusedMaxPoolConv2dBNReLU: 1-32         [16, 64, 2, 2]            (recursive)
│    └─MaxPool2d: 2-415                  [16, 64, 2, 2]            --
│    └─Empty: 2-416                      [16, 64, 2, 2]            --
│    └─Empty: 2-417                      [16, 64, 2, 2]            --
│    └─OutputShiftSqueeze: 2-418         --                        --
│    └─One: 2-419                        [1]                       --
│    └─OutputScale: 2-420                --                        --
│    └─Empty: 2-421                      [64, 64, 1, 1]            --
│    └─Empty: 2-422                      [64, 64, 1, 1]            --
│    └─Empty: 2-423                      [64]                      --
│    └─Empty: 2-424                      [64]                      --
│    └─BatchNorm2d: 2-425                [16, 64, 2, 2]            --
│    └─Scaler: 2-426                     [16, 64, 2, 2]            --
│    └─ReLU: 2-427                       [16, 64, 2, 2]            --
│    └─Empty: 2-428                      [16, 64, 2, 2]            --
│    └─Clamp: 2-429                      [16, 64, 2, 2]            --
├─FusedConv2dBNReLU: 1-33                [16, 64, 2, 2]            (recursive)
│    └─OutputShiftSqueeze: 2-430         --                        --
│    └─One: 2-431                        [1]                       --
│    └─OutputScale: 2-432                --                        --
│    └─Empty: 2-433                      [64, 64, 1, 1]            --
│    └─Empty: 2-434                      [64, 64, 1, 1]            --
│    └─Empty: 2-435                      [64]                      --
│    └─Empty: 2-436                      [64]                      --
│    └─BatchNorm2d: 2-437                [16, 64, 2, 2]            --
│    └─Scaler: 2-438                     [16, 64, 2, 2]            --
│    └─ReLU: 2-439                       [16, 64, 2, 2]            --
│    └─Empty: 2-440                      [16, 64, 2, 2]            --
│    └─Clamp: 2-441                      [16, 64, 2, 2]            --
├─FusedMaxPoolConv2dBNReLU: 1-34         [16, 64, 2, 2]            (recursive)
│    └─MaxPool2d: 2-442                  [16, 64, 2, 2]            --
│    └─Empty: 2-443                      [16, 64, 2, 2]            --
│    └─Empty: 2-444                      [16, 64, 2, 2]            --
│    └─OutputShiftSqueeze: 2-445         --                        --
│    └─One: 2-446                        [1]                       --
│    └─OutputScale: 2-447                --                        --
│    └─Empty: 2-448                      [64, 64, 3, 3]            --
│    └─Empty: 2-449                      [64, 64, 3, 3]            --
│    └─Empty: 2-450                      [64]                      --
│    └─Empty: 2-451                      [64]                      --
│    └─BatchNorm2d: 2-452                [16, 64, 2, 2]            --
│    └─Scaler: 2-453                     [16, 64, 2, 2]            --
│    └─ReLU: 2-454                       [16, 64, 2, 2]            --
│    └─Empty: 2-455                      [16, 64, 2, 2]            --
│    └─Clamp: 2-456                      [16, 64, 2, 2]            --
├─FusedConv2dBNReLU: 1-35                [16, 64, 64, 64]          (recursive)
│    └─OutputShiftSqueeze: 2-457         --                        --
│    └─One: 2-458                        [1]                       --
│    └─OutputScale: 2-459                --                        --
│    └─Empty: 2-460                      [64, 48, 1, 1]            --
│    └─Empty: 2-461                      [64, 48, 1, 1]            --
│    └─Empty: 2-462                      [64]                      --
│    └─Empty: 2-463                      [64]                      --
│    └─BatchNorm2d: 2-464                [16, 64, 64, 64]          --
│    └─Scaler: 2-465                     [16, 64, 64, 64]          --
│    └─ReLU: 2-466                       [16, 64, 64, 64]          --
│    └─Empty: 2-467                      [16, 64, 64, 64]          --
│    └─Clamp: 2-468                      [16, 64, 64, 64]          --
├─FusedConv2dBNReLU: 1-36                [16, 64, 64, 64]          (recursive)
│    └─OutputShiftSqueeze: 2-469         --                        --
│    └─One: 2-470                        [1]                       --
│    └─OutputScale: 2-471                --                        --
│    └─Empty: 2-472                      [64, 64, 3, 3]            --
│    └─Empty: 2-473                      [64, 64, 3, 3]            --
│    └─Empty: 2-474                      [64]                      --
│    └─Empty: 2-475                      [64]                      --
│    └─BatchNorm2d: 2-476                [16, 64, 64, 64]          --
│    └─Scaler: 2-477                     [16, 64, 64, 64]          --
│    └─ReLU: 2-478                       [16, 64, 64, 64]          --
│    └─Empty: 2-479                      [16, 64, 64, 64]          --
│    └─Clamp: 2-480                      [16, 64, 64, 64]          --
├─FusedConv2dBNReLU: 1-37                [16, 64, 64, 64]          (recursive)
│    └─OutputShiftSqueeze: 2-481         --                        --
│    └─One: 2-482                        [1]                       --
│    └─OutputScale: 2-483                --                        --
│    └─Empty: 2-484                      [64, 64, 1, 1]            --
│    └─Empty: 2-485                      [64, 64, 1, 1]            --
│    └─Empty: 2-486                      [64]                      --
│    └─Empty: 2-487                      [64]                      --
│    └─BatchNorm2d: 2-488                [16, 64, 64, 64]          --
│    └─Scaler: 2-489                     [16, 64, 64, 64]          --
│    └─ReLU: 2-490                       [16, 64, 64, 64]          --
│    └─Empty: 2-491                      [16, 64, 64, 64]          --
│    └─Clamp: 2-492                      [16, 64, 64, 64]          --
├─FusedConv2dBNReLU: 1-38                [16, 64, 64, 64]          (recursive)
│    └─OutputShiftSqueeze: 2-493         --                        --
│    └─One: 2-494                        [1]                       --
│    └─OutputScale: 2-495                --                        --
│    └─Empty: 2-496                      [64, 64, 3, 3]            --
│    └─Empty: 2-497                      [64, 64, 3, 3]            --
│    └─Empty: 2-498                      [64]                      --
│    └─Empty: 2-499                      [64]                      --
│    └─BatchNorm2d: 2-500                [16, 64, 64, 64]          --
│    └─Scaler: 2-501                     [16, 64, 64, 64]          --
│    └─ReLU: 2-502                       [16, 64, 64, 64]          --
│    └─Empty: 2-503                      [16, 64, 64, 64]          --
│    └─Clamp: 2-504                      [16, 64, 64, 64]          --
├─FusedMaxPoolConv2dBNReLU: 1-39         [16, 64, 32, 32]          (recursive)
│    └─MaxPool2d: 2-505                  [16, 64, 32, 32]          --
│    └─Empty: 2-506                      [16, 64, 32, 32]          --
│    └─Empty: 2-507                      [16, 64, 32, 32]          --
│    └─OutputShiftSqueeze: 2-508         --                        --
│    └─One: 2-509                        [1]                       --
│    └─OutputScale: 2-510                --                        --
│    └─Empty: 2-511                      [64, 64, 3, 3]            --
│    └─Empty: 2-512                      [64, 64, 3, 3]            --
│    └─Empty: 2-513                      [64]                      --
│    └─Empty: 2-514                      [64]                      --
│    └─BatchNorm2d: 2-515                [16, 64, 32, 32]          --
│    └─Scaler: 2-516                     [16, 64, 32, 32]          --
│    └─ReLU: 2-517                       [16, 64, 32, 32]          --
│    └─Empty: 2-518                      [16, 64, 32, 32]          --
│    └─Clamp: 2-519                      [16, 64, 32, 32]          --
├─FusedConv2dBNReLU: 1-40                [16, 64, 32, 32]          (recursive)
│    └─OutputShiftSqueeze: 2-520         --                        --
│    └─One: 2-521                        [1]                       --
│    └─OutputScale: 2-522                --                        --
│    └─Empty: 2-523                      [64, 64, 3, 3]            --
│    └─Empty: 2-524                      [64, 64, 3, 3]            --
│    └─Empty: 2-525                      [64]                      --
│    └─Empty: 2-526                      [64]                      --
│    └─BatchNorm2d: 2-527                [16, 64, 32, 32]          --
│    └─Scaler: 2-528                     [16, 64, 32, 32]          --
│    └─ReLU: 2-529                       [16, 64, 32, 32]          --
│    └─Empty: 2-530                      [16, 64, 32, 32]          --
│    └─Clamp: 2-531                      [16, 64, 32, 32]          --
├─FusedMaxPoolConv2dBNReLU: 1-41         [16, 64, 16, 16]          (recursive)
│    └─MaxPool2d: 2-532                  [16, 64, 16, 16]          --
│    └─Empty: 2-533                      [16, 64, 16, 16]          --
│    └─Empty: 2-534                      [16, 64, 16, 16]          --
│    └─OutputShiftSqueeze: 2-535         --                        --
│    └─One: 2-536                        [1]                       --
│    └─OutputScale: 2-537                --                        --
│    └─Empty: 2-538                      [64, 64, 3, 3]            --
│    └─Empty: 2-539                      [64, 64, 3, 3]            --
│    └─Empty: 2-540                      [64]                      --
│    └─Empty: 2-541                      [64]                      --
│    └─BatchNorm2d: 2-542                [16, 64, 16, 16]          --
│    └─Scaler: 2-543                     [16, 64, 16, 16]          --
│    └─ReLU: 2-544                       [16, 64, 16, 16]          --
│    └─Empty: 2-545                      [16, 64, 16, 16]          --
│    └─Clamp: 2-546                      [16, 64, 16, 16]          --
├─FusedConv2dBNReLU: 1-42                [16, 64, 16, 16]          (recursive)
│    └─OutputShiftSqueeze: 2-547         --                        --
│    └─One: 2-548                        [1]                       --
│    └─OutputScale: 2-549                --                        --
│    └─Empty: 2-550                      [64, 64, 3, 3]            --
│    └─Empty: 2-551                      [64, 64, 3, 3]            --
│    └─Empty: 2-552                      [64]                      --
│    └─Empty: 2-553                      [64]                      --
│    └─BatchNorm2d: 2-554                [16, 64, 16, 16]          --
│    └─Scaler: 2-555                     [16, 64, 16, 16]          --
│    └─ReLU: 2-556                       [16, 64, 16, 16]          --
│    └─Empty: 2-557                      [16, 64, 16, 16]          --
│    └─Clamp: 2-558                      [16, 64, 16, 16]          --
├─FusedMaxPoolConv2dBNReLU: 1-43         [16, 64, 8, 8]            (recursive)
│    └─MaxPool2d: 2-559                  [16, 64, 8, 8]            --
│    └─Empty: 2-560                      [16, 64, 8, 8]            --
│    └─Empty: 2-561                      [16, 64, 8, 8]            --
│    └─OutputShiftSqueeze: 2-562         --                        --
│    └─One: 2-563                        [1]                       --
│    └─OutputScale: 2-564                --                        --
│    └─Empty: 2-565                      [64, 64, 3, 3]            --
│    └─Empty: 2-566                      [64, 64, 3, 3]            --
│    └─Empty: 2-567                      [64]                      --
│    └─Empty: 2-568                      [64]                      --
│    └─BatchNorm2d: 2-569                [16, 64, 8, 8]            --
│    └─Scaler: 2-570                     [16, 64, 8, 8]            --
│    └─ReLU: 2-571                       [16, 64, 8, 8]            --
│    └─Empty: 2-572                      [16, 64, 8, 8]            --
│    └─Clamp: 2-573                      [16, 64, 8, 8]            --
├─FusedConv2dBNReLU: 1-44                [16, 64, 8, 8]            (recursive)
│    └─OutputShiftSqueeze: 2-574         --                        --
│    └─One: 2-575                        [1]                       --
│    └─OutputScale: 2-576                --                        --
│    └─Empty: 2-577                      [64, 64, 1, 1]            --
│    └─Empty: 2-578                      [64, 64, 1, 1]            --
│    └─Empty: 2-579                      [64]                      --
│    └─Empty: 2-580                      [64]                      --
│    └─BatchNorm2d: 2-581                [16, 64, 8, 8]            --
│    └─Scaler: 2-582                     [16, 64, 8, 8]            --
│    └─ReLU: 2-583                       [16, 64, 8, 8]            --
│    └─Empty: 2-584                      [16, 64, 8, 8]            --
│    └─Clamp: 2-585                      [16, 64, 8, 8]            --
├─FusedMaxPoolConv2dBNReLU: 1-45         [16, 64, 8, 8]            (recursive)
│    └─MaxPool2d: 2-586                  [16, 64, 8, 8]            --
│    └─Empty: 2-587                      [16, 64, 8, 8]            --
│    └─Empty: 2-588                      [16, 64, 8, 8]            --
│    └─OutputShiftSqueeze: 2-589         --                        --
│    └─One: 2-590                        [1]                       --
│    └─OutputScale: 2-591                --                        --
│    └─Empty: 2-592                      [64, 64, 3, 3]            --
│    └─Empty: 2-593                      [64, 64, 3, 3]            --
│    └─Empty: 2-594                      [64]                      --
│    └─Empty: 2-595                      [64]                      --
│    └─BatchNorm2d: 2-596                [16, 64, 8, 8]            --
│    └─Scaler: 2-597                     [16, 64, 8, 8]            --
│    └─ReLU: 2-598                       [16, 64, 8, 8]            --
│    └─Empty: 2-599                      [16, 64, 8, 8]            --
│    └─Clamp: 2-600                      [16, 64, 8, 8]            --
├─FusedMaxPoolConv2dBNReLU: 1-46         [16, 64, 4, 4]            (recursive)
│    └─MaxPool2d: 2-601                  [16, 64, 4, 4]            --
│    └─Empty: 2-602                      [16, 64, 4, 4]            --
│    └─Empty: 2-603                      [16, 64, 4, 4]            --
│    └─OutputShiftSqueeze: 2-604         --                        --
│    └─One: 2-605                        [1]                       --
│    └─OutputScale: 2-606                --                        --
│    └─Empty: 2-607                      [64, 64, 3, 3]            --
│    └─Empty: 2-608                      [64, 64, 3, 3]            --
│    └─Empty: 2-609                      [64]                      --
│    └─Empty: 2-610                      [64]                      --
│    └─BatchNorm2d: 2-611                [16, 64, 4, 4]            --
│    └─Scaler: 2-612                     [16, 64, 4, 4]            --
│    └─ReLU: 2-613                       [16, 64, 4, 4]            --
│    └─Empty: 2-614                      [16, 64, 4, 4]            --
│    └─Clamp: 2-615                      [16, 64, 4, 4]            --
├─FusedConv2dBNReLU: 1-47                [16, 64, 4, 4]            (recursive)
│    └─OutputShiftSqueeze: 2-616         --                        --
│    └─One: 2-617                        [1]                       --
│    └─OutputScale: 2-618                --                        --
│    └─Empty: 2-619                      [64, 64, 1, 1]            --
│    └─Empty: 2-620                      [64, 64, 1, 1]            --
│    └─Empty: 2-621                      [64]                      --
│    └─Empty: 2-622                      [64]                      --
│    └─BatchNorm2d: 2-623                [16, 64, 4, 4]            --
│    └─Scaler: 2-624                     [16, 64, 4, 4]            --
│    └─ReLU: 2-625                       [16, 64, 4, 4]            --
│    └─Empty: 2-626                      [16, 64, 4, 4]            --
│    └─Clamp: 2-627                      [16, 64, 4, 4]            --
├─FusedMaxPoolConv2dBNReLU: 1-48         [16, 64, 4, 4]            (recursive)
│    └─MaxPool2d: 2-628                  [16, 64, 4, 4]            --
│    └─Empty: 2-629                      [16, 64, 4, 4]            --
│    └─Empty: 2-630                      [16, 64, 4, 4]            --
│    └─OutputShiftSqueeze: 2-631         --                        --
│    └─One: 2-632                        [1]                       --
│    └─OutputScale: 2-633                --                        --
│    └─Empty: 2-634                      [64, 64, 3, 3]            --
│    └─Empty: 2-635                      [64, 64, 3, 3]            --
│    └─Empty: 2-636                      [64]                      --
│    └─Empty: 2-637                      [64]                      --
│    └─BatchNorm2d: 2-638                [16, 64, 4, 4]            --
│    └─Scaler: 2-639                     [16, 64, 4, 4]            --
│    └─ReLU: 2-640                       [16, 64, 4, 4]            --
│    └─Empty: 2-641                      [16, 64, 4, 4]            --
│    └─Clamp: 2-642                      [16, 64, 4, 4]            --
├─FusedMaxPoolConv2dBNReLU: 1-49         [16, 64, 2, 2]            (recursive)
│    └─MaxPool2d: 2-643                  [16, 64, 2, 2]            --
│    └─Empty: 2-644                      [16, 64, 2, 2]            --
│    └─Empty: 2-645                      [16, 64, 2, 2]            --
│    └─OutputShiftSqueeze: 2-646         --                        --
│    └─One: 2-647                        [1]                       --
│    └─OutputScale: 2-648                --                        --
│    └─Empty: 2-649                      [64, 64, 1, 1]            --
│    └─Empty: 2-650                      [64, 64, 1, 1]            --
│    └─Empty: 2-651                      [64]                      --
│    └─Empty: 2-652                      [64]                      --
│    └─BatchNorm2d: 2-653                [16, 64, 2, 2]            --
│    └─Scaler: 2-654                     [16, 64, 2, 2]            --
│    └─ReLU: 2-655                       [16, 64, 2, 2]            --
│    └─Empty: 2-656                      [16, 64, 2, 2]            --
│    └─Clamp: 2-657                      [16, 64, 2, 2]            --
├─FusedConv2dBNReLU: 1-50                [16, 64, 2, 2]            (recursive)
│    └─OutputShiftSqueeze: 2-658         --                        --
│    └─One: 2-659                        [1]                       --
│    └─OutputScale: 2-660                --                        --
│    └─Empty: 2-661                      [64, 64, 1, 1]            --
│    └─Empty: 2-662                      [64, 64, 1, 1]            --
│    └─Empty: 2-663                      [64]                      --
│    └─Empty: 2-664                      [64]                      --
│    └─BatchNorm2d: 2-665                [16, 64, 2, 2]            --
│    └─Scaler: 2-666                     [16, 64, 2, 2]            --
│    └─ReLU: 2-667                       [16, 64, 2, 2]            --
│    └─Empty: 2-668                      [16, 64, 2, 2]            --
│    └─Clamp: 2-669                      [16, 64, 2, 2]            --
├─FusedMaxPoolConv2dBNReLU: 1-51         [16, 64, 2, 2]            (recursive)
│    └─MaxPool2d: 2-670                  [16, 64, 2, 2]            --
│    └─Empty: 2-671                      [16, 64, 2, 2]            --
│    └─Empty: 2-672                      [16, 64, 2, 2]            --
│    └─OutputShiftSqueeze: 2-673         --                        --
│    └─One: 2-674                        [1]                       --
│    └─OutputScale: 2-675                --                        --
│    └─Empty: 2-676                      [64, 64, 3, 3]            --
│    └─Empty: 2-677                      [64, 64, 3, 3]            --
│    └─Empty: 2-678                      [64]                      --
│    └─Empty: 2-679                      [64]                      --
│    └─BatchNorm2d: 2-680                [16, 64, 2, 2]            --
│    └─Scaler: 2-681                     [16, 64, 2, 2]            --
│    └─ReLU: 2-682                       [16, 64, 2, 2]            --
│    └─Empty: 2-683                      [16, 64, 2, 2]            --
│    └─Clamp: 2-684                      [16, 64, 2, 2]            --
├─FusedConv2dBNReLU: 1-52                [16, 64, 64, 64]          (recursive)
│    └─OutputShiftSqueeze: 2-685         --                        --
│    └─One: 2-686                        [1]                       --
│    └─OutputScale: 2-687                --                        --
│    └─Empty: 2-688                      [64, 48, 1, 1]            --
│    └─Empty: 2-689                      [64, 48, 1, 1]            --
│    └─Empty: 2-690                      [64]                      --
│    └─Empty: 2-691                      [64]                      --
│    └─BatchNorm2d: 2-692                [16, 64, 64, 64]          --
│    └─Scaler: 2-693                     [16, 64, 64, 64]          --
│    └─ReLU: 2-694                       [16, 64, 64, 64]          --
│    └─Empty: 2-695                      [16, 64, 64, 64]          --
│    └─Clamp: 2-696                      [16, 64, 64, 64]          --
├─FusedConv2dBNReLU: 1-53                [16, 64, 64, 64]          (recursive)
│    └─OutputShiftSqueeze: 2-697         --                        --
│    └─One: 2-698                        [1]                       --
│    └─OutputScale: 2-699                --                        --
│    └─Empty: 2-700                      [64, 64, 3, 3]            --
│    └─Empty: 2-701                      [64, 64, 3, 3]            --
│    └─Empty: 2-702                      [64]                      --
│    └─Empty: 2-703                      [64]                      --
│    └─BatchNorm2d: 2-704                [16, 64, 64, 64]          --
│    └─Scaler: 2-705                     [16, 64, 64, 64]          --
│    └─ReLU: 2-706                       [16, 64, 64, 64]          --
│    └─Empty: 2-707                      [16, 64, 64, 64]          --
│    └─Clamp: 2-708                      [16, 64, 64, 64]          --
├─FusedConv2dBNReLU: 1-54                [16, 64, 64, 64]          (recursive)
│    └─OutputShiftSqueeze: 2-709         --                        --
│    └─One: 2-710                        [1]                       --
│    └─OutputScale: 2-711                --                        --
│    └─Empty: 2-712                      [64, 64, 1, 1]            --
│    └─Empty: 2-713                      [64, 64, 1, 1]            --
│    └─Empty: 2-714                      [64]                      --
│    └─Empty: 2-715                      [64]                      --
│    └─BatchNorm2d: 2-716                [16, 64, 64, 64]          --
│    └─Scaler: 2-717                     [16, 64, 64, 64]          --
│    └─ReLU: 2-718                       [16, 64, 64, 64]          --
│    └─Empty: 2-719                      [16, 64, 64, 64]          --
│    └─Clamp: 2-720                      [16, 64, 64, 64]          --
├─FusedConv2dBNReLU: 1-55                [16, 64, 64, 64]          (recursive)
│    └─OutputShiftSqueeze: 2-721         --                        --
│    └─One: 2-722                        [1]                       --
│    └─OutputScale: 2-723                --                        --
│    └─Empty: 2-724                      [64, 64, 3, 3]            --
│    └─Empty: 2-725                      [64, 64, 3, 3]            --
│    └─Empty: 2-726                      [64]                      --
│    └─Empty: 2-727                      [64]                      --
│    └─BatchNorm2d: 2-728                [16, 64, 64, 64]          --
│    └─Scaler: 2-729                     [16, 64, 64, 64]          --
│    └─ReLU: 2-730                       [16, 64, 64, 64]          --
│    └─Empty: 2-731                      [16, 64, 64, 64]          --
│    └─Clamp: 2-732                      [16, 64, 64, 64]          --
├─FusedMaxPoolConv2dBNReLU: 1-56         [16, 64, 32, 32]          (recursive)
│    └─MaxPool2d: 2-733                  [16, 64, 32, 32]          --
│    └─Empty: 2-734                      [16, 64, 32, 32]          --
│    └─Empty: 2-735                      [16, 64, 32, 32]          --
│    └─OutputShiftSqueeze: 2-736         --                        --
│    └─One: 2-737                        [1]                       --
│    └─OutputScale: 2-738                --                        --
│    └─Empty: 2-739                      [64, 64, 3, 3]            --
│    └─Empty: 2-740                      [64, 64, 3, 3]            --
│    └─Empty: 2-741                      [64]                      --
│    └─Empty: 2-742                      [64]                      --
│    └─BatchNorm2d: 2-743                [16, 64, 32, 32]          --
│    └─Scaler: 2-744                     [16, 64, 32, 32]          --
│    └─ReLU: 2-745                       [16, 64, 32, 32]          --
│    └─Empty: 2-746                      [16, 64, 32, 32]          --
│    └─Clamp: 2-747                      [16, 64, 32, 32]          --
├─FusedConv2dBNReLU: 1-57                [16, 64, 32, 32]          (recursive)
│    └─OutputShiftSqueeze: 2-748         --                        --
│    └─One: 2-749                        [1]                       --
│    └─OutputScale: 2-750                --                        --
│    └─Empty: 2-751                      [64, 64, 3, 3]            --
│    └─Empty: 2-752                      [64, 64, 3, 3]            --
│    └─Empty: 2-753                      [64]                      --
│    └─Empty: 2-754                      [64]                      --
│    └─BatchNorm2d: 2-755                [16, 64, 32, 32]          --
│    └─Scaler: 2-756                     [16, 64, 32, 32]          --
│    └─ReLU: 2-757                       [16, 64, 32, 32]          --
│    └─Empty: 2-758                      [16, 64, 32, 32]          --
│    └─Clamp: 2-759                      [16, 64, 32, 32]          --
├─FusedMaxPoolConv2dBNReLU: 1-58         [16, 64, 16, 16]          (recursive)
│    └─MaxPool2d: 2-760                  [16, 64, 16, 16]          --
│    └─Empty: 2-761                      [16, 64, 16, 16]          --
│    └─Empty: 2-762                      [16, 64, 16, 16]          --
│    └─OutputShiftSqueeze: 2-763         --                        --
│    └─One: 2-764                        [1]                       --
│    └─OutputScale: 2-765                --                        --
│    └─Empty: 2-766                      [64, 64, 3, 3]            --
│    └─Empty: 2-767                      [64, 64, 3, 3]            --
│    └─Empty: 2-768                      [64]                      --
│    └─Empty: 2-769                      [64]                      --
│    └─BatchNorm2d: 2-770                [16, 64, 16, 16]          --
│    └─Scaler: 2-771                     [16, 64, 16, 16]          --
│    └─ReLU: 2-772                       [16, 64, 16, 16]          --
│    └─Empty: 2-773                      [16, 64, 16, 16]          --
│    └─Clamp: 2-774                      [16, 64, 16, 16]          --
├─FusedConv2dBNReLU: 1-59                [16, 64, 16, 16]          (recursive)
│    └─OutputShiftSqueeze: 2-775         --                        --
│    └─One: 2-776                        [1]                       --
│    └─OutputScale: 2-777                --                        --
│    └─Empty: 2-778                      [64, 64, 3, 3]            --
│    └─Empty: 2-779                      [64, 64, 3, 3]            --
│    └─Empty: 2-780                      [64]                      --
│    └─Empty: 2-781                      [64]                      --
│    └─BatchNorm2d: 2-782                [16, 64, 16, 16]          --
│    └─Scaler: 2-783                     [16, 64, 16, 16]          --
│    └─ReLU: 2-784                       [16, 64, 16, 16]          --
│    └─Empty: 2-785                      [16, 64, 16, 16]          --
│    └─Clamp: 2-786                      [16, 64, 16, 16]          --
├─FusedMaxPoolConv2dBNReLU: 1-60         [16, 64, 8, 8]            (recursive)
│    └─MaxPool2d: 2-787                  [16, 64, 8, 8]            --
│    └─Empty: 2-788                      [16, 64, 8, 8]            --
│    └─Empty: 2-789                      [16, 64, 8, 8]            --
│    └─OutputShiftSqueeze: 2-790         --                        --
│    └─One: 2-791                        [1]                       --
│    └─OutputScale: 2-792                --                        --
│    └─Empty: 2-793                      [64, 64, 3, 3]            --
│    └─Empty: 2-794                      [64, 64, 3, 3]            --
│    └─Empty: 2-795                      [64]                      --
│    └─Empty: 2-796                      [64]                      --
│    └─BatchNorm2d: 2-797                [16, 64, 8, 8]            --
│    └─Scaler: 2-798                     [16, 64, 8, 8]            --
│    └─ReLU: 2-799                       [16, 64, 8, 8]            --
│    └─Empty: 2-800                      [16, 64, 8, 8]            --
│    └─Clamp: 2-801                      [16, 64, 8, 8]            --
├─FusedConv2dBNReLU: 1-61                [16, 64, 8, 8]            (recursive)
│    └─OutputShiftSqueeze: 2-802         --                        --
│    └─One: 2-803                        [1]                       --
│    └─OutputScale: 2-804                --                        --
│    └─Empty: 2-805                      [64, 64, 1, 1]            --
│    └─Empty: 2-806                      [64, 64, 1, 1]            --
│    └─Empty: 2-807                      [64]                      --
│    └─Empty: 2-808                      [64]                      --
│    └─BatchNorm2d: 2-809                [16, 64, 8, 8]            --
│    └─Scaler: 2-810                     [16, 64, 8, 8]            --
│    └─ReLU: 2-811                       [16, 64, 8, 8]            --
│    └─Empty: 2-812                      [16, 64, 8, 8]            --
│    └─Clamp: 2-813                      [16, 64, 8, 8]            --
├─FusedMaxPoolConv2dBNReLU: 1-62         [16, 64, 8, 8]            (recursive)
│    └─MaxPool2d: 2-814                  [16, 64, 8, 8]            --
│    └─Empty: 2-815                      [16, 64, 8, 8]            --
│    └─Empty: 2-816                      [16, 64, 8, 8]            --
│    └─OutputShiftSqueeze: 2-817         --                        --
│    └─One: 2-818                        [1]                       --
│    └─OutputScale: 2-819                --                        --
│    └─Empty: 2-820                      [64, 64, 3, 3]            --
│    └─Empty: 2-821                      [64, 64, 3, 3]            --
│    └─Empty: 2-822                      [64]                      --
│    └─Empty: 2-823                      [64]                      --
│    └─BatchNorm2d: 2-824                [16, 64, 8, 8]            --
│    └─Scaler: 2-825                     [16, 64, 8, 8]            --
│    └─ReLU: 2-826                       [16, 64, 8, 8]            --
│    └─Empty: 2-827                      [16, 64, 8, 8]            --
│    └─Clamp: 2-828                      [16, 64, 8, 8]            --
├─FusedMaxPoolConv2dBNReLU: 1-63         [16, 64, 4, 4]            (recursive)
│    └─MaxPool2d: 2-829                  [16, 64, 4, 4]            --
│    └─Empty: 2-830                      [16, 64, 4, 4]            --
│    └─Empty: 2-831                      [16, 64, 4, 4]            --
│    └─OutputShiftSqueeze: 2-832         --                        --
│    └─One: 2-833                        [1]                       --
│    └─OutputScale: 2-834                --                        --
│    └─Empty: 2-835                      [64, 64, 3, 3]            --
│    └─Empty: 2-836                      [64, 64, 3, 3]            --
│    └─Empty: 2-837                      [64]                      --
│    └─Empty: 2-838                      [64]                      --
│    └─BatchNorm2d: 2-839                [16, 64, 4, 4]            --
│    └─Scaler: 2-840                     [16, 64, 4, 4]            --
│    └─ReLU: 2-841                       [16, 64, 4, 4]            --
│    └─Empty: 2-842                      [16, 64, 4, 4]            --
│    └─Clamp: 2-843                      [16, 64, 4, 4]            --
├─FusedConv2dBNReLU: 1-64                [16, 64, 4, 4]            (recursive)
│    └─OutputShiftSqueeze: 2-844         --                        --
│    └─One: 2-845                        [1]                       --
│    └─OutputScale: 2-846                --                        --
│    └─Empty: 2-847                      [64, 64, 1, 1]            --
│    └─Empty: 2-848                      [64, 64, 1, 1]            --
│    └─Empty: 2-849                      [64]                      --
│    └─Empty: 2-850                      [64]                      --
│    └─BatchNorm2d: 2-851                [16, 64, 4, 4]            --
│    └─Scaler: 2-852                     [16, 64, 4, 4]            --
│    └─ReLU: 2-853                       [16, 64, 4, 4]            --
│    └─Empty: 2-854                      [16, 64, 4, 4]            --
│    └─Clamp: 2-855                      [16, 64, 4, 4]            --
├─FusedMaxPoolConv2dBNReLU: 1-65         [16, 64, 4, 4]            (recursive)
│    └─MaxPool2d: 2-856                  [16, 64, 4, 4]            --
│    └─Empty: 2-857                      [16, 64, 4, 4]            --
│    └─Empty: 2-858                      [16, 64, 4, 4]            --
│    └─OutputShiftSqueeze: 2-859         --                        --
│    └─One: 2-860                        [1]                       --
│    └─OutputScale: 2-861                --                        --
│    └─Empty: 2-862                      [64, 64, 3, 3]            --
│    └─Empty: 2-863                      [64, 64, 3, 3]            --
│    └─Empty: 2-864                      [64]                      --
│    └─Empty: 2-865                      [64]                      --
│    └─BatchNorm2d: 2-866                [16, 64, 4, 4]            --
│    └─Scaler: 2-867                     [16, 64, 4, 4]            --
│    └─ReLU: 2-868                       [16, 64, 4, 4]            --
│    └─Empty: 2-869                      [16, 64, 4, 4]            --
│    └─Clamp: 2-870                      [16, 64, 4, 4]            --
├─FusedMaxPoolConv2dBNReLU: 1-66         [16, 64, 2, 2]            (recursive)
│    └─MaxPool2d: 2-871                  [16, 64, 2, 2]            --
│    └─Empty: 2-872                      [16, 64, 2, 2]            --
│    └─Empty: 2-873                      [16, 64, 2, 2]            --
│    └─OutputShiftSqueeze: 2-874         --                        --
│    └─One: 2-875                        [1]                       --
│    └─OutputScale: 2-876                --                        --
│    └─Empty: 2-877                      [64, 64, 1, 1]            --
│    └─Empty: 2-878                      [64, 64, 1, 1]            --
│    └─Empty: 2-879                      [64]                      --
│    └─Empty: 2-880                      [64]                      --
│    └─BatchNorm2d: 2-881                [16, 64, 2, 2]            --
│    └─Scaler: 2-882                     [16, 64, 2, 2]            --
│    └─ReLU: 2-883                       [16, 64, 2, 2]            --
│    └─Empty: 2-884                      [16, 64, 2, 2]            --
│    └─Clamp: 2-885                      [16, 64, 2, 2]            --
├─FusedConv2dBNReLU: 1-67                [16, 64, 2, 2]            (recursive)
│    └─OutputShiftSqueeze: 2-886         --                        --
│    └─One: 2-887                        [1]                       --
│    └─OutputScale: 2-888                --                        --
│    └─Empty: 2-889                      [64, 64, 1, 1]            --
│    └─Empty: 2-890                      [64, 64, 1, 1]            --
│    └─Empty: 2-891                      [64]                      --
│    └─Empty: 2-892                      [64]                      --
│    └─BatchNorm2d: 2-893                [16, 64, 2, 2]            --
│    └─Scaler: 2-894                     [16, 64, 2, 2]            --
│    └─ReLU: 2-895                       [16, 64, 2, 2]            --
│    └─Empty: 2-896                      [16, 64, 2, 2]            --
│    └─Clamp: 2-897                      [16, 64, 2, 2]            --
├─FusedMaxPoolConv2dBNReLU: 1-68         [16, 64, 2, 2]            (recursive)
│    └─MaxPool2d: 2-898                  [16, 64, 2, 2]            --
│    └─Empty: 2-899                      [16, 64, 2, 2]            --
│    └─Empty: 2-900                      [16, 64, 2, 2]            --
│    └─OutputShiftSqueeze: 2-901         --                        --
│    └─One: 2-902                        [1]                       --
│    └─OutputScale: 2-903                --                        --
│    └─Empty: 2-904                      [64, 64, 3, 3]            --
│    └─Empty: 2-905                      [64, 64, 3, 3]            --
│    └─Empty: 2-906                      [64]                      --
│    └─Empty: 2-907                      [64]                      --
│    └─BatchNorm2d: 2-908                [16, 64, 2, 2]            --
│    └─Scaler: 2-909                     [16, 64, 2, 2]            --
│    └─ReLU: 2-910                       [16, 64, 2, 2]            --
│    └─Empty: 2-911                      [16, 64, 2, 2]            --
│    └─Clamp: 2-912                      [16, 64, 2, 2]            --
├─FusedConv2dBNReLU: 1-69                [16, 64, 64, 64]          (recursive)
│    └─OutputShiftSqueeze: 2-913         --                        --
│    └─One: 2-914                        [1]                       --
│    └─OutputScale: 2-915                --                        --
│    └─Empty: 2-916                      [64, 48, 1, 1]            --
│    └─Empty: 2-917                      [64, 48, 1, 1]            --
│    └─Empty: 2-918                      [64]                      --
│    └─Empty: 2-919                      [64]                      --
│    └─BatchNorm2d: 2-920                [16, 64, 64, 64]          --
│    └─Scaler: 2-921                     [16, 64, 64, 64]          --
│    └─ReLU: 2-922                       [16, 64, 64, 64]          --
│    └─Empty: 2-923                      [16, 64, 64, 64]          --
│    └─Clamp: 2-924                      [16, 64, 64, 64]          --
├─FusedConv2dBNReLU: 1-70                [16, 64, 64, 64]          (recursive)
│    └─OutputShiftSqueeze: 2-925         --                        --
│    └─One: 2-926                        [1]                       --
│    └─OutputScale: 2-927                --                        --
│    └─Empty: 2-928                      [64, 64, 3, 3]            --
│    └─Empty: 2-929                      [64, 64, 3, 3]            --
│    └─Empty: 2-930                      [64]                      --
│    └─Empty: 2-931                      [64]                      --
│    └─BatchNorm2d: 2-932                [16, 64, 64, 64]          --
│    └─Scaler: 2-933                     [16, 64, 64, 64]          --
│    └─ReLU: 2-934                       [16, 64, 64, 64]          --
│    └─Empty: 2-935                      [16, 64, 64, 64]          --
│    └─Clamp: 2-936                      [16, 64, 64, 64]          --
├─FusedConv2dBNReLU: 1-71                [16, 64, 64, 64]          (recursive)
│    └─OutputShiftSqueeze: 2-937         --                        --
│    └─One: 2-938                        [1]                       --
│    └─OutputScale: 2-939                --                        --
│    └─Empty: 2-940                      [64, 64, 1, 1]            --
│    └─Empty: 2-941                      [64, 64, 1, 1]            --
│    └─Empty: 2-942                      [64]                      --
│    └─Empty: 2-943                      [64]                      --
│    └─BatchNorm2d: 2-944                [16, 64, 64, 64]          --
│    └─Scaler: 2-945                     [16, 64, 64, 64]          --
│    └─ReLU: 2-946                       [16, 64, 64, 64]          --
│    └─Empty: 2-947                      [16, 64, 64, 64]          --
│    └─Clamp: 2-948                      [16, 64, 64, 64]          --
├─FusedConv2dBNReLU: 1-72                [16, 64, 64, 64]          (recursive)
│    └─OutputShiftSqueeze: 2-949         --                        --
│    └─One: 2-950                        [1]                       --
│    └─OutputScale: 2-951                --                        --
│    └─Empty: 2-952                      [64, 64, 3, 3]            --
│    └─Empty: 2-953                      [64, 64, 3, 3]            --
│    └─Empty: 2-954                      [64]                      --
│    └─Empty: 2-955                      [64]                      --
│    └─BatchNorm2d: 2-956                [16, 64, 64, 64]          --
│    └─Scaler: 2-957                     [16, 64, 64, 64]          --
│    └─ReLU: 2-958                       [16, 64, 64, 64]          --
│    └─Empty: 2-959                      [16, 64, 64, 64]          --
│    └─Clamp: 2-960                      [16, 64, 64, 64]          --
├─FusedMaxPoolConv2dBNReLU: 1-73         [16, 64, 32, 32]          (recursive)
│    └─MaxPool2d: 2-961                  [16, 64, 32, 32]          --
│    └─Empty: 2-962                      [16, 64, 32, 32]          --
│    └─Empty: 2-963                      [16, 64, 32, 32]          --
│    └─OutputShiftSqueeze: 2-964         --                        --
│    └─One: 2-965                        [1]                       --
│    └─OutputScale: 2-966                --                        --
│    └─Empty: 2-967                      [64, 64, 3, 3]            --
│    └─Empty: 2-968                      [64, 64, 3, 3]            --
│    └─Empty: 2-969                      [64]                      --
│    └─Empty: 2-970                      [64]                      --
│    └─BatchNorm2d: 2-971                [16, 64, 32, 32]          --
│    └─Scaler: 2-972                     [16, 64, 32, 32]          --
│    └─ReLU: 2-973                       [16, 64, 32, 32]          --
│    └─Empty: 2-974                      [16, 64, 32, 32]          --
│    └─Clamp: 2-975                      [16, 64, 32, 32]          --
├─FusedConv2dBNReLU: 1-74                [16, 64, 32, 32]          (recursive)
│    └─OutputShiftSqueeze: 2-976         --                        --
│    └─One: 2-977                        [1]                       --
│    └─OutputScale: 2-978                --                        --
│    └─Empty: 2-979                      [64, 64, 3, 3]            --
│    └─Empty: 2-980                      [64, 64, 3, 3]            --
│    └─Empty: 2-981                      [64]                      --
│    └─Empty: 2-982                      [64]                      --
│    └─BatchNorm2d: 2-983                [16, 64, 32, 32]          --
│    └─Scaler: 2-984                     [16, 64, 32, 32]          --
│    └─ReLU: 2-985                       [16, 64, 32, 32]          --
│    └─Empty: 2-986                      [16, 64, 32, 32]          --
│    └─Clamp: 2-987                      [16, 64, 32, 32]          --
├─FusedMaxPoolConv2dBNReLU: 1-75         [16, 64, 16, 16]          (recursive)
│    └─MaxPool2d: 2-988                  [16, 64, 16, 16]          --
│    └─Empty: 2-989                      [16, 64, 16, 16]          --
│    └─Empty: 2-990                      [16, 64, 16, 16]          --
│    └─OutputShiftSqueeze: 2-991         --                        --
│    └─One: 2-992                        [1]                       --
│    └─OutputScale: 2-993                --                        --
│    └─Empty: 2-994                      [64, 64, 3, 3]            --
│    └─Empty: 2-995                      [64, 64, 3, 3]            --
│    └─Empty: 2-996                      [64]                      --
│    └─Empty: 2-997                      [64]                      --
│    └─BatchNorm2d: 2-998                [16, 64, 16, 16]          --
│    └─Scaler: 2-999                     [16, 64, 16, 16]          --
│    └─ReLU: 2-1000                      [16, 64, 16, 16]          --
│    └─Empty: 2-1001                     [16, 64, 16, 16]          --
│    └─Clamp: 2-1002                     [16, 64, 16, 16]          --
├─FusedConv2dBNReLU: 1-76                [16, 64, 16, 16]          (recursive)
│    └─OutputShiftSqueeze: 2-1003        --                        --
│    └─One: 2-1004                       [1]                       --
│    └─OutputScale: 2-1005               --                        --
│    └─Empty: 2-1006                     [64, 64, 3, 3]            --
│    └─Empty: 2-1007                     [64, 64, 3, 3]            --
│    └─Empty: 2-1008                     [64]                      --
│    └─Empty: 2-1009                     [64]                      --
│    └─BatchNorm2d: 2-1010               [16, 64, 16, 16]          --
│    └─Scaler: 2-1011                    [16, 64, 16, 16]          --
│    └─ReLU: 2-1012                      [16, 64, 16, 16]          --
│    └─Empty: 2-1013                     [16, 64, 16, 16]          --
│    └─Clamp: 2-1014                     [16, 64, 16, 16]          --
├─FusedMaxPoolConv2dBNReLU: 1-77         [16, 64, 8, 8]            (recursive)
│    └─MaxPool2d: 2-1015                 [16, 64, 8, 8]            --
│    └─Empty: 2-1016                     [16, 64, 8, 8]            --
│    └─Empty: 2-1017                     [16, 64, 8, 8]            --
│    └─OutputShiftSqueeze: 2-1018        --                        --
│    └─One: 2-1019                       [1]                       --
│    └─OutputScale: 2-1020               --                        --
│    └─Empty: 2-1021                     [64, 64, 3, 3]            --
│    └─Empty: 2-1022                     [64, 64, 3, 3]            --
│    └─Empty: 2-1023                     [64]                      --
│    └─Empty: 2-1024                     [64]                      --
│    └─BatchNorm2d: 2-1025               [16, 64, 8, 8]            --
│    └─Scaler: 2-1026                    [16, 64, 8, 8]            --
│    └─ReLU: 2-1027                      [16, 64, 8, 8]            --
│    └─Empty: 2-1028                     [16, 64, 8, 8]            --
│    └─Clamp: 2-1029                     [16, 64, 8, 8]            --
├─FusedConv2dBNReLU: 1-78                [16, 64, 8, 8]            (recursive)
│    └─OutputShiftSqueeze: 2-1030        --                        --
│    └─One: 2-1031                       [1]                       --
│    └─OutputScale: 2-1032               --                        --
│    └─Empty: 2-1033                     [64, 64, 1, 1]            --
│    └─Empty: 2-1034                     [64, 64, 1, 1]            --
│    └─Empty: 2-1035                     [64]                      --
│    └─Empty: 2-1036                     [64]                      --
│    └─BatchNorm2d: 2-1037               [16, 64, 8, 8]            --
│    └─Scaler: 2-1038                    [16, 64, 8, 8]            --
│    └─ReLU: 2-1039                      [16, 64, 8, 8]            --
│    └─Empty: 2-1040                     [16, 64, 8, 8]            --
│    └─Clamp: 2-1041                     [16, 64, 8, 8]            --
├─FusedMaxPoolConv2dBNReLU: 1-79         [16, 64, 8, 8]            (recursive)
│    └─MaxPool2d: 2-1042                 [16, 64, 8, 8]            --
│    └─Empty: 2-1043                     [16, 64, 8, 8]            --
│    └─Empty: 2-1044                     [16, 64, 8, 8]            --
│    └─OutputShiftSqueeze: 2-1045        --                        --
│    └─One: 2-1046                       [1]                       --
│    └─OutputScale: 2-1047               --                        --
│    └─Empty: 2-1048                     [64, 64, 3, 3]            --
│    └─Empty: 2-1049                     [64, 64, 3, 3]            --
│    └─Empty: 2-1050                     [64]                      --
│    └─Empty: 2-1051                     [64]                      --
│    └─BatchNorm2d: 2-1052               [16, 64, 8, 8]            --
│    └─Scaler: 2-1053                    [16, 64, 8, 8]            --
│    └─ReLU: 2-1054                      [16, 64, 8, 8]            --
│    └─Empty: 2-1055                     [16, 64, 8, 8]            --
│    └─Clamp: 2-1056                     [16, 64, 8, 8]            --
├─FusedMaxPoolConv2dBNReLU: 1-80         [16, 64, 4, 4]            (recursive)
│    └─MaxPool2d: 2-1057                 [16, 64, 4, 4]            --
│    └─Empty: 2-1058                     [16, 64, 4, 4]            --
│    └─Empty: 2-1059                     [16, 64, 4, 4]            --
│    └─OutputShiftSqueeze: 2-1060        --                        --
│    └─One: 2-1061                       [1]                       --
│    └─OutputScale: 2-1062               --                        --
│    └─Empty: 2-1063                     [64, 64, 3, 3]            --
│    └─Empty: 2-1064                     [64, 64, 3, 3]            --
│    └─Empty: 2-1065                     [64]                      --
│    └─Empty: 2-1066                     [64]                      --
│    └─BatchNorm2d: 2-1067               [16, 64, 4, 4]            --
│    └─Scaler: 2-1068                    [16, 64, 4, 4]            --
│    └─ReLU: 2-1069                      [16, 64, 4, 4]            --
│    └─Empty: 2-1070                     [16, 64, 4, 4]            --
│    └─Clamp: 2-1071                     [16, 64, 4, 4]            --
├─FusedConv2dBNReLU: 1-81                [16, 64, 4, 4]            (recursive)
│    └─OutputShiftSqueeze: 2-1072        --                        --
│    └─One: 2-1073                       [1]                       --
│    └─OutputScale: 2-1074               --                        --
│    └─Empty: 2-1075                     [64, 64, 1, 1]            --
│    └─Empty: 2-1076                     [64, 64, 1, 1]            --
│    └─Empty: 2-1077                     [64]                      --
│    └─Empty: 2-1078                     [64]                      --
│    └─BatchNorm2d: 2-1079               [16, 64, 4, 4]            --
│    └─Scaler: 2-1080                    [16, 64, 4, 4]            --
│    └─ReLU: 2-1081                      [16, 64, 4, 4]            --
│    └─Empty: 2-1082                     [16, 64, 4, 4]            --
│    └─Clamp: 2-1083                     [16, 64, 4, 4]            --
├─FusedMaxPoolConv2dBNReLU: 1-82         [16, 64, 4, 4]            (recursive)
│    └─MaxPool2d: 2-1084                 [16, 64, 4, 4]            --
│    └─Empty: 2-1085                     [16, 64, 4, 4]            --
│    └─Empty: 2-1086                     [16, 64, 4, 4]            --
│    └─OutputShiftSqueeze: 2-1087        --                        --
│    └─One: 2-1088                       [1]                       --
│    └─OutputScale: 2-1089               --                        --
│    └─Empty: 2-1090                     [64, 64, 3, 3]            --
│    └─Empty: 2-1091                     [64, 64, 3, 3]            --
│    └─Empty: 2-1092                     [64]                      --
│    └─Empty: 2-1093                     [64]                      --
│    └─BatchNorm2d: 2-1094               [16, 64, 4, 4]            --
│    └─Scaler: 2-1095                    [16, 64, 4, 4]            --
│    └─ReLU: 2-1096                      [16, 64, 4, 4]            --
│    └─Empty: 2-1097                     [16, 64, 4, 4]            --
│    └─Clamp: 2-1098                     [16, 64, 4, 4]            --
├─FusedMaxPoolConv2dBNReLU: 1-83         [16, 64, 2, 2]            (recursive)
│    └─MaxPool2d: 2-1099                 [16, 64, 2, 2]            --
│    └─Empty: 2-1100                     [16, 64, 2, 2]            --
│    └─Empty: 2-1101                     [16, 64, 2, 2]            --
│    └─OutputShiftSqueeze: 2-1102        --                        --
│    └─One: 2-1103                       [1]                       --
│    └─OutputScale: 2-1104               --                        --
│    └─Empty: 2-1105                     [64, 64, 1, 1]            --
│    └─Empty: 2-1106                     [64, 64, 1, 1]            --
│    └─Empty: 2-1107                     [64]                      --
│    └─Empty: 2-1108                     [64]                      --
│    └─BatchNorm2d: 2-1109               [16, 64, 2, 2]            --
│    └─Scaler: 2-1110                    [16, 64, 2, 2]            --
│    └─ReLU: 2-1111                      [16, 64, 2, 2]            --
│    └─Empty: 2-1112                     [16, 64, 2, 2]            --
│    └─Clamp: 2-1113                     [16, 64, 2, 2]            --
├─FusedConv2dBNReLU: 1-84                [16, 64, 2, 2]            (recursive)
│    └─OutputShiftSqueeze: 2-1114        --                        --
│    └─One: 2-1115                       [1]                       --
│    └─OutputScale: 2-1116               --                        --
│    └─Empty: 2-1117                     [64, 64, 1, 1]            --
│    └─Empty: 2-1118                     [64, 64, 1, 1]            --
│    └─Empty: 2-1119                     [64]                      --
│    └─Empty: 2-1120                     [64]                      --
│    └─BatchNorm2d: 2-1121               [16, 64, 2, 2]            --
│    └─Scaler: 2-1122                    [16, 64, 2, 2]            --
│    └─ReLU: 2-1123                      [16, 64, 2, 2]            --
│    └─Empty: 2-1124                     [16, 64, 2, 2]            --
│    └─Clamp: 2-1125                     [16, 64, 2, 2]            --
├─FusedMaxPoolConv2dBNReLU: 1-85         [16, 64, 2, 2]            (recursive)
│    └─MaxPool2d: 2-1126                 [16, 64, 2, 2]            --
│    └─Empty: 2-1127                     [16, 64, 2, 2]            --
│    └─Empty: 2-1128                     [16, 64, 2, 2]            --
│    └─OutputShiftSqueeze: 2-1129        --                        --
│    └─One: 2-1130                       [1]                       --
│    └─OutputScale: 2-1131               --                        --
│    └─Empty: 2-1132                     [64, 64, 3, 3]            --
│    └─Empty: 2-1133                     [64, 64, 3, 3]            --
│    └─Empty: 2-1134                     [64]                      --
│    └─Empty: 2-1135                     [64]                      --
│    └─BatchNorm2d: 2-1136               [16, 64, 2, 2]            --
│    └─Scaler: 2-1137                    [16, 64, 2, 2]            --
│    └─ReLU: 2-1138                      [16, 64, 2, 2]            --
│    └─Empty: 2-1139                     [16, 64, 2, 2]            --
│    └─Clamp: 2-1140                     [16, 64, 2, 2]            --
├─FusedConv2dBNReLU: 1-86                [16, 64, 64, 64]          (recursive)
│    └─OutputShiftSqueeze: 2-1141        --                        --
│    └─One: 2-1142                       [1]                       --
│    └─OutputScale: 2-1143               --                        --
│    └─Empty: 2-1144                     [64, 48, 1, 1]            --
│    └─Empty: 2-1145                     [64, 48, 1, 1]            --
│    └─Empty: 2-1146                     [64]                      --
│    └─Empty: 2-1147                     [64]                      --
│    └─BatchNorm2d: 2-1148               [16, 64, 64, 64]          --
│    └─Scaler: 2-1149                    [16, 64, 64, 64]          --
│    └─ReLU: 2-1150                      [16, 64, 64, 64]          --
│    └─Empty: 2-1151                     [16, 64, 64, 64]          --
│    └─Clamp: 2-1152                     [16, 64, 64, 64]          --
├─FusedConv2dBNReLU: 1-87                [16, 64, 64, 64]          (recursive)
│    └─OutputShiftSqueeze: 2-1153        --                        --
│    └─One: 2-1154                       [1]                       --
│    └─OutputScale: 2-1155               --                        --
│    └─Empty: 2-1156                     [64, 64, 3, 3]            --
│    └─Empty: 2-1157                     [64, 64, 3, 3]            --
│    └─Empty: 2-1158                     [64]                      --
│    └─Empty: 2-1159                     [64]                      --
│    └─BatchNorm2d: 2-1160               [16, 64, 64, 64]          --
│    └─Scaler: 2-1161                    [16, 64, 64, 64]          --
│    └─ReLU: 2-1162                      [16, 64, 64, 64]          --
│    └─Empty: 2-1163                     [16, 64, 64, 64]          --
│    └─Clamp: 2-1164                     [16, 64, 64, 64]          --
├─FusedConv2dBNReLU: 1-88                [16, 64, 64, 64]          (recursive)
│    └─OutputShiftSqueeze: 2-1165        --                        --
│    └─One: 2-1166                       [1]                       --
│    └─OutputScale: 2-1167               --                        --
│    └─Empty: 2-1168                     [64, 64, 1, 1]            --
│    └─Empty: 2-1169                     [64, 64, 1, 1]            --
│    └─Empty: 2-1170                     [64]                      --
│    └─Empty: 2-1171                     [64]                      --
│    └─BatchNorm2d: 2-1172               [16, 64, 64, 64]          --
│    └─Scaler: 2-1173                    [16, 64, 64, 64]          --
│    └─ReLU: 2-1174                      [16, 64, 64, 64]          --
│    └─Empty: 2-1175                     [16, 64, 64, 64]          --
│    └─Clamp: 2-1176                     [16, 64, 64, 64]          --
├─FusedConv2dBNReLU: 1-89                [16, 64, 64, 64]          (recursive)
│    └─OutputShiftSqueeze: 2-1177        --                        --
│    └─One: 2-1178                       [1]                       --
│    └─OutputScale: 2-1179               --                        --
│    └─Empty: 2-1180                     [64, 64, 3, 3]            --
│    └─Empty: 2-1181                     [64, 64, 3, 3]            --
│    └─Empty: 2-1182                     [64]                      --
│    └─Empty: 2-1183                     [64]                      --
│    └─BatchNorm2d: 2-1184               [16, 64, 64, 64]          --
│    └─Scaler: 2-1185                    [16, 64, 64, 64]          --
│    └─ReLU: 2-1186                      [16, 64, 64, 64]          --
│    └─Empty: 2-1187                     [16, 64, 64, 64]          --
│    └─Clamp: 2-1188                     [16, 64, 64, 64]          --
├─FusedMaxPoolConv2dBNReLU: 1-90         [16, 64, 32, 32]          (recursive)
│    └─MaxPool2d: 2-1189                 [16, 64, 32, 32]          --
│    └─Empty: 2-1190                     [16, 64, 32, 32]          --
│    └─Empty: 2-1191                     [16, 64, 32, 32]          --
│    └─OutputShiftSqueeze: 2-1192        --                        --
│    └─One: 2-1193                       [1]                       --
│    └─OutputScale: 2-1194               --                        --
│    └─Empty: 2-1195                     [64, 64, 3, 3]            --
│    └─Empty: 2-1196                     [64, 64, 3, 3]            --
│    └─Empty: 2-1197                     [64]                      --
│    └─Empty: 2-1198                     [64]                      --
│    └─BatchNorm2d: 2-1199               [16, 64, 32, 32]          --
│    └─Scaler: 2-1200                    [16, 64, 32, 32]          --
│    └─ReLU: 2-1201                      [16, 64, 32, 32]          --
│    └─Empty: 2-1202                     [16, 64, 32, 32]          --
│    └─Clamp: 2-1203                     [16, 64, 32, 32]          --
├─FusedConv2dBNReLU: 1-91                [16, 64, 32, 32]          (recursive)
│    └─OutputShiftSqueeze: 2-1204        --                        --
│    └─One: 2-1205                       [1]                       --
│    └─OutputScale: 2-1206               --                        --
│    └─Empty: 2-1207                     [64, 64, 3, 3]            --
│    └─Empty: 2-1208                     [64, 64, 3, 3]            --
│    └─Empty: 2-1209                     [64]                      --
│    └─Empty: 2-1210                     [64]                      --
│    └─BatchNorm2d: 2-1211               [16, 64, 32, 32]          --
│    └─Scaler: 2-1212                    [16, 64, 32, 32]          --
│    └─ReLU: 2-1213                      [16, 64, 32, 32]          --
│    └─Empty: 2-1214                     [16, 64, 32, 32]          --
│    └─Clamp: 2-1215                     [16, 64, 32, 32]          --
├─FusedMaxPoolConv2dBNReLU: 1-92         [16, 64, 16, 16]          (recursive)
│    └─MaxPool2d: 2-1216                 [16, 64, 16, 16]          --
│    └─Empty: 2-1217                     [16, 64, 16, 16]          --
│    └─Empty: 2-1218                     [16, 64, 16, 16]          --
│    └─OutputShiftSqueeze: 2-1219        --                        --
│    └─One: 2-1220                       [1]                       --
│    └─OutputScale: 2-1221               --                        --
│    └─Empty: 2-1222                     [64, 64, 3, 3]            --
│    └─Empty: 2-1223                     [64, 64, 3, 3]            --
│    └─Empty: 2-1224                     [64]                      --
│    └─Empty: 2-1225                     [64]                      --
│    └─BatchNorm2d: 2-1226               [16, 64, 16, 16]          --
│    └─Scaler: 2-1227                    [16, 64, 16, 16]          --
│    └─ReLU: 2-1228                      [16, 64, 16, 16]          --
│    └─Empty: 2-1229                     [16, 64, 16, 16]          --
│    └─Clamp: 2-1230                     [16, 64, 16, 16]          --
├─FusedConv2dBNReLU: 1-93                [16, 64, 16, 16]          (recursive)
│    └─OutputShiftSqueeze: 2-1231        --                        --
│    └─One: 2-1232                       [1]                       --
│    └─OutputScale: 2-1233               --                        --
│    └─Empty: 2-1234                     [64, 64, 3, 3]            --
│    └─Empty: 2-1235                     [64, 64, 3, 3]            --
│    └─Empty: 2-1236                     [64]                      --
│    └─Empty: 2-1237                     [64]                      --
│    └─BatchNorm2d: 2-1238               [16, 64, 16, 16]          --
│    └─Scaler: 2-1239                    [16, 64, 16, 16]          --
│    └─ReLU: 2-1240                      [16, 64, 16, 16]          --
│    └─Empty: 2-1241                     [16, 64, 16, 16]          --
│    └─Clamp: 2-1242                     [16, 64, 16, 16]          --
├─FusedMaxPoolConv2dBNReLU: 1-94         [16, 64, 8, 8]            (recursive)
│    └─MaxPool2d: 2-1243                 [16, 64, 8, 8]            --
│    └─Empty: 2-1244                     [16, 64, 8, 8]            --
│    └─Empty: 2-1245                     [16, 64, 8, 8]            --
│    └─OutputShiftSqueeze: 2-1246        --                        --
│    └─One: 2-1247                       [1]                       --
│    └─OutputScale: 2-1248               --                        --
│    └─Empty: 2-1249                     [64, 64, 3, 3]            --
│    └─Empty: 2-1250                     [64, 64, 3, 3]            --
│    └─Empty: 2-1251                     [64]                      --
│    └─Empty: 2-1252                     [64]                      --
│    └─BatchNorm2d: 2-1253               [16, 64, 8, 8]            --
│    └─Scaler: 2-1254                    [16, 64, 8, 8]            --
│    └─ReLU: 2-1255                      [16, 64, 8, 8]            --
│    └─Empty: 2-1256                     [16, 64, 8, 8]            --
│    └─Clamp: 2-1257                     [16, 64, 8, 8]            --
├─FusedConv2dBNReLU: 1-95                [16, 64, 8, 8]            (recursive)
│    └─OutputShiftSqueeze: 2-1258        --                        --
│    └─One: 2-1259                       [1]                       --
│    └─OutputScale: 2-1260               --                        --
│    └─Empty: 2-1261                     [64, 64, 1, 1]            --
│    └─Empty: 2-1262                     [64, 64, 1, 1]            --
│    └─Empty: 2-1263                     [64]                      --
│    └─Empty: 2-1264                     [64]                      --
│    └─BatchNorm2d: 2-1265               [16, 64, 8, 8]            --
│    └─Scaler: 2-1266                    [16, 64, 8, 8]            --
│    └─ReLU: 2-1267                      [16, 64, 8, 8]            --
│    └─Empty: 2-1268                     [16, 64, 8, 8]            --
│    └─Clamp: 2-1269                     [16, 64, 8, 8]            --
├─FusedMaxPoolConv2dBNReLU: 1-96         [16, 64, 8, 8]            (recursive)
│    └─MaxPool2d: 2-1270                 [16, 64, 8, 8]            --
│    └─Empty: 2-1271                     [16, 64, 8, 8]            --
│    └─Empty: 2-1272                     [16, 64, 8, 8]            --
│    └─OutputShiftSqueeze: 2-1273        --                        --
│    └─One: 2-1274                       [1]                       --
│    └─OutputScale: 2-1275               --                        --
│    └─Empty: 2-1276                     [64, 64, 3, 3]            --
│    └─Empty: 2-1277                     [64, 64, 3, 3]            --
│    └─Empty: 2-1278                     [64]                      --
│    └─Empty: 2-1279                     [64]                      --
│    └─BatchNorm2d: 2-1280               [16, 64, 8, 8]            --
│    └─Scaler: 2-1281                    [16, 64, 8, 8]            --
│    └─ReLU: 2-1282                      [16, 64, 8, 8]            --
│    └─Empty: 2-1283                     [16, 64, 8, 8]            --
│    └─Clamp: 2-1284                     [16, 64, 8, 8]            --
├─FusedMaxPoolConv2dBNReLU: 1-97         [16, 64, 4, 4]            (recursive)
│    └─MaxPool2d: 2-1285                 [16, 64, 4, 4]            --
│    └─Empty: 2-1286                     [16, 64, 4, 4]            --
│    └─Empty: 2-1287                     [16, 64, 4, 4]            --
│    └─OutputShiftSqueeze: 2-1288        --                        --
│    └─One: 2-1289                       [1]                       --
│    └─OutputScale: 2-1290               --                        --
│    └─Empty: 2-1291                     [64, 64, 3, 3]            --
│    └─Empty: 2-1292                     [64, 64, 3, 3]            --
│    └─Empty: 2-1293                     [64]                      --
│    └─Empty: 2-1294                     [64]                      --
│    └─BatchNorm2d: 2-1295               [16, 64, 4, 4]            --
│    └─Scaler: 2-1296                    [16, 64, 4, 4]            --
│    └─ReLU: 2-1297                      [16, 64, 4, 4]            --
│    └─Empty: 2-1298                     [16, 64, 4, 4]            --
│    └─Clamp: 2-1299                     [16, 64, 4, 4]            --
├─FusedConv2dBNReLU: 1-98                [16, 64, 4, 4]            (recursive)
│    └─OutputShiftSqueeze: 2-1300        --                        --
│    └─One: 2-1301                       [1]                       --
│    └─OutputScale: 2-1302               --                        --
│    └─Empty: 2-1303                     [64, 64, 1, 1]            --
│    └─Empty: 2-1304                     [64, 64, 1, 1]            --
│    └─Empty: 2-1305                     [64]                      --
│    └─Empty: 2-1306                     [64]                      --
│    └─BatchNorm2d: 2-1307               [16, 64, 4, 4]            --
│    └─Scaler: 2-1308                    [16, 64, 4, 4]            --
│    └─ReLU: 2-1309                      [16, 64, 4, 4]            --
│    └─Empty: 2-1310                     [16, 64, 4, 4]            --
│    └─Clamp: 2-1311                     [16, 64, 4, 4]            --
├─FusedMaxPoolConv2dBNReLU: 1-99         [16, 64, 4, 4]            (recursive)
│    └─MaxPool2d: 2-1312                 [16, 64, 4, 4]            --
│    └─Empty: 2-1313                     [16, 64, 4, 4]            --
│    └─Empty: 2-1314                     [16, 64, 4, 4]            --
│    └─OutputShiftSqueeze: 2-1315        --                        --
│    └─One: 2-1316                       [1]                       --
│    └─OutputScale: 2-1317               --                        --
│    └─Empty: 2-1318                     [64, 64, 3, 3]            --
│    └─Empty: 2-1319                     [64, 64, 3, 3]            --
│    └─Empty: 2-1320                     [64]                      --
│    └─Empty: 2-1321                     [64]                      --
│    └─BatchNorm2d: 2-1322               [16, 64, 4, 4]            --
│    └─Scaler: 2-1323                    [16, 64, 4, 4]            --
│    └─ReLU: 2-1324                      [16, 64, 4, 4]            --
│    └─Empty: 2-1325                     [16, 64, 4, 4]            --
│    └─Clamp: 2-1326                     [16, 64, 4, 4]            --
├─FusedMaxPoolConv2dBNReLU: 1-100        [16, 64, 2, 2]            (recursive)
│    └─MaxPool2d: 2-1327                 [16, 64, 2, 2]            --
│    └─Empty: 2-1328                     [16, 64, 2, 2]            --
│    └─Empty: 2-1329                     [16, 64, 2, 2]            --
│    └─OutputShiftSqueeze: 2-1330        --                        --
│    └─One: 2-1331                       [1]                       --
│    └─OutputScale: 2-1332               --                        --
│    └─Empty: 2-1333                     [64, 64, 1, 1]            --
│    └─Empty: 2-1334                     [64, 64, 1, 1]            --
│    └─Empty: 2-1335                     [64]                      --
│    └─Empty: 2-1336                     [64]                      --
│    └─BatchNorm2d: 2-1337               [16, 64, 2, 2]            --
│    └─Scaler: 2-1338                    [16, 64, 2, 2]            --
│    └─ReLU: 2-1339                      [16, 64, 2, 2]            --
│    └─Empty: 2-1340                     [16, 64, 2, 2]            --
│    └─Clamp: 2-1341                     [16, 64, 2, 2]            --
├─FusedConv2dBNReLU: 1-101               [16, 64, 2, 2]            (recursive)
│    └─OutputShiftSqueeze: 2-1342        --                        --
│    └─One: 2-1343                       [1]                       --
│    └─OutputScale: 2-1344               --                        --
│    └─Empty: 2-1345                     [64, 64, 1, 1]            --
│    └─Empty: 2-1346                     [64, 64, 1, 1]            --
│    └─Empty: 2-1347                     [64]                      --
│    └─Empty: 2-1348                     [64]                      --
│    └─BatchNorm2d: 2-1349               [16, 64, 2, 2]            --
│    └─Scaler: 2-1350                    [16, 64, 2, 2]            --
│    └─ReLU: 2-1351                      [16, 64, 2, 2]            --
│    └─Empty: 2-1352                     [16, 64, 2, 2]            --
│    └─Clamp: 2-1353                     [16, 64, 2, 2]            --
├─FusedMaxPoolConv2dBNReLU: 1-102        [16, 64, 2, 2]            (recursive)
│    └─MaxPool2d: 2-1354                 [16, 64, 2, 2]            --
│    └─Empty: 2-1355                     [16, 64, 2, 2]            --
│    └─Empty: 2-1356                     [16, 64, 2, 2]            --
│    └─OutputShiftSqueeze: 2-1357        --                        --
│    └─One: 2-1358                       [1]                       --
│    └─OutputScale: 2-1359               --                        --
│    └─Empty: 2-1360                     [64, 64, 3, 3]            --
│    └─Empty: 2-1361                     [64, 64, 3, 3]            --
│    └─Empty: 2-1362                     [64]                      --
│    └─Empty: 2-1363                     [64]                      --
│    └─BatchNorm2d: 2-1364               [16, 64, 2, 2]            --
│    └─Scaler: 2-1365                    [16, 64, 2, 2]            --
│    └─ReLU: 2-1366                      [16, 64, 2, 2]            --
│    └─Empty: 2-1367                     [16, 64, 2, 2]            --
│    └─Clamp: 2-1368                     [16, 64, 2, 2]            --
├─FusedConv2dBNReLU: 1-103               [16, 64, 64, 64]          (recursive)
│    └─OutputShiftSqueeze: 2-1369        --                        --
│    └─One: 2-1370                       [1]                       --
│    └─OutputScale: 2-1371               --                        --
│    └─Empty: 2-1372                     [64, 48, 1, 1]            --
│    └─Empty: 2-1373                     [64, 48, 1, 1]            --
│    └─Empty: 2-1374                     [64]                      --
│    └─Empty: 2-1375                     [64]                      --
│    └─BatchNorm2d: 2-1376               [16, 64, 64, 64]          --
│    └─Scaler: 2-1377                    [16, 64, 64, 64]          --
│    └─ReLU: 2-1378                      [16, 64, 64, 64]          --
│    └─Empty: 2-1379                     [16, 64, 64, 64]          --
│    └─Clamp: 2-1380                     [16, 64, 64, 64]          --
├─FusedConv2dBNReLU: 1-104               [16, 64, 64, 64]          (recursive)
│    └─OutputShiftSqueeze: 2-1381        --                        --
│    └─One: 2-1382                       [1]                       --
│    └─OutputScale: 2-1383               --                        --
│    └─Empty: 2-1384                     [64, 64, 3, 3]            --
│    └─Empty: 2-1385                     [64, 64, 3, 3]            --
│    └─Empty: 2-1386                     [64]                      --
│    └─Empty: 2-1387                     [64]                      --
│    └─BatchNorm2d: 2-1388               [16, 64, 64, 64]          --
│    └─Scaler: 2-1389                    [16, 64, 64, 64]          --
│    └─ReLU: 2-1390                      [16, 64, 64, 64]          --
│    └─Empty: 2-1391                     [16, 64, 64, 64]          --
│    └─Clamp: 2-1392                     [16, 64, 64, 64]          --
├─FusedConv2dBNReLU: 1-105               [16, 64, 64, 64]          (recursive)
│    └─OutputShiftSqueeze: 2-1393        --                        --
│    └─One: 2-1394                       [1]                       --
│    └─OutputScale: 2-1395               --                        --
│    └─Empty: 2-1396                     [64, 64, 1, 1]            --
│    └─Empty: 2-1397                     [64, 64, 1, 1]            --
│    └─Empty: 2-1398                     [64]                      --
│    └─Empty: 2-1399                     [64]                      --
│    └─BatchNorm2d: 2-1400               [16, 64, 64, 64]          --
│    └─Scaler: 2-1401                    [16, 64, 64, 64]          --
│    └─ReLU: 2-1402                      [16, 64, 64, 64]          --
│    └─Empty: 2-1403                     [16, 64, 64, 64]          --
│    └─Clamp: 2-1404                     [16, 64, 64, 64]          --
├─FusedConv2dBNReLU: 1-106               [16, 64, 64, 64]          (recursive)
│    └─OutputShiftSqueeze: 2-1405        --                        --
│    └─One: 2-1406                       [1]                       --
│    └─OutputScale: 2-1407               --                        --
│    └─Empty: 2-1408                     [64, 64, 3, 3]            --
│    └─Empty: 2-1409                     [64, 64, 3, 3]            --
│    └─Empty: 2-1410                     [64]                      --
│    └─Empty: 2-1411                     [64]                      --
│    └─BatchNorm2d: 2-1412               [16, 64, 64, 64]          --
│    └─Scaler: 2-1413                    [16, 64, 64, 64]          --
│    └─ReLU: 2-1414                      [16, 64, 64, 64]          --
│    └─Empty: 2-1415                     [16, 64, 64, 64]          --
│    └─Clamp: 2-1416                     [16, 64, 64, 64]          --
├─FusedMaxPoolConv2dBNReLU: 1-107        [16, 64, 32, 32]          (recursive)
│    └─MaxPool2d: 2-1417                 [16, 64, 32, 32]          --
│    └─Empty: 2-1418                     [16, 64, 32, 32]          --
│    └─Empty: 2-1419                     [16, 64, 32, 32]          --
│    └─OutputShiftSqueeze: 2-1420        --                        --
│    └─One: 2-1421                       [1]                       --
│    └─OutputScale: 2-1422               --                        --
│    └─Empty: 2-1423                     [64, 64, 3, 3]            --
│    └─Empty: 2-1424                     [64, 64, 3, 3]            --
│    └─Empty: 2-1425                     [64]                      --
│    └─Empty: 2-1426                     [64]                      --
│    └─BatchNorm2d: 2-1427               [16, 64, 32, 32]          --
│    └─Scaler: 2-1428                    [16, 64, 32, 32]          --
│    └─ReLU: 2-1429                      [16, 64, 32, 32]          --
│    └─Empty: 2-1430                     [16, 64, 32, 32]          --
│    └─Clamp: 2-1431                     [16, 64, 32, 32]          --
├─FusedConv2dBNReLU: 1-108               [16, 64, 32, 32]          (recursive)
│    └─OutputShiftSqueeze: 2-1432        --                        --
│    └─One: 2-1433                       [1]                       --
│    └─OutputScale: 2-1434               --                        --
│    └─Empty: 2-1435                     [64, 64, 3, 3]            --
│    └─Empty: 2-1436                     [64, 64, 3, 3]            --
│    └─Empty: 2-1437                     [64]                      --
│    └─Empty: 2-1438                     [64]                      --
│    └─BatchNorm2d: 2-1439               [16, 64, 32, 32]          --
│    └─Scaler: 2-1440                    [16, 64, 32, 32]          --
│    └─ReLU: 2-1441                      [16, 64, 32, 32]          --
│    └─Empty: 2-1442                     [16, 64, 32, 32]          --
│    └─Clamp: 2-1443                     [16, 64, 32, 32]          --
├─FusedMaxPoolConv2dBNReLU: 1-109        [16, 64, 16, 16]          (recursive)
│    └─MaxPool2d: 2-1444                 [16, 64, 16, 16]          --
│    └─Empty: 2-1445                     [16, 64, 16, 16]          --
│    └─Empty: 2-1446                     [16, 64, 16, 16]          --
│    └─OutputShiftSqueeze: 2-1447        --                        --
│    └─One: 2-1448                       [1]                       --
│    └─OutputScale: 2-1449               --                        --
│    └─Empty: 2-1450                     [64, 64, 3, 3]            --
│    └─Empty: 2-1451                     [64, 64, 3, 3]            --
│    └─Empty: 2-1452                     [64]                      --
│    └─Empty: 2-1453                     [64]                      --
│    └─BatchNorm2d: 2-1454               [16, 64, 16, 16]          --
│    └─Scaler: 2-1455                    [16, 64, 16, 16]          --
│    └─ReLU: 2-1456                      [16, 64, 16, 16]          --
│    └─Empty: 2-1457                     [16, 64, 16, 16]          --
│    └─Clamp: 2-1458                     [16, 64, 16, 16]          --
├─FusedConv2dBNReLU: 1-110               [16, 64, 16, 16]          (recursive)
│    └─OutputShiftSqueeze: 2-1459        --                        --
│    └─One: 2-1460                       [1]                       --
│    └─OutputScale: 2-1461               --                        --
│    └─Empty: 2-1462                     [64, 64, 3, 3]            --
│    └─Empty: 2-1463                     [64, 64, 3, 3]            --
│    └─Empty: 2-1464                     [64]                      --
│    └─Empty: 2-1465                     [64]                      --
│    └─BatchNorm2d: 2-1466               [16, 64, 16, 16]          --
│    └─Scaler: 2-1467                    [16, 64, 16, 16]          --
│    └─ReLU: 2-1468                      [16, 64, 16, 16]          --
│    └─Empty: 2-1469                     [16, 64, 16, 16]          --
│    └─Clamp: 2-1470                     [16, 64, 16, 16]          --
├─FusedMaxPoolConv2dBNReLU: 1-111        [16, 64, 8, 8]            (recursive)
│    └─MaxPool2d: 2-1471                 [16, 64, 8, 8]            --
│    └─Empty: 2-1472                     [16, 64, 8, 8]            --
│    └─Empty: 2-1473                     [16, 64, 8, 8]            --
│    └─OutputShiftSqueeze: 2-1474        --                        --
│    └─One: 2-1475                       [1]                       --
│    └─OutputScale: 2-1476               --                        --
│    └─Empty: 2-1477                     [64, 64, 3, 3]            --
│    └─Empty: 2-1478                     [64, 64, 3, 3]            --
│    └─Empty: 2-1479                     [64]                      --
│    └─Empty: 2-1480                     [64]                      --
│    └─BatchNorm2d: 2-1481               [16, 64, 8, 8]            --
│    └─Scaler: 2-1482                    [16, 64, 8, 8]            --
│    └─ReLU: 2-1483                      [16, 64, 8, 8]            --
│    └─Empty: 2-1484                     [16, 64, 8, 8]            --
│    └─Clamp: 2-1485                     [16, 64, 8, 8]            --
├─FusedConv2dBNReLU: 1-112               [16, 64, 8, 8]            (recursive)
│    └─OutputShiftSqueeze: 2-1486        --                        --
│    └─One: 2-1487                       [1]                       --
│    └─OutputScale: 2-1488               --                        --
│    └─Empty: 2-1489                     [64, 64, 1, 1]            --
│    └─Empty: 2-1490                     [64, 64, 1, 1]            --
│    └─Empty: 2-1491                     [64]                      --
│    └─Empty: 2-1492                     [64]                      --
│    └─BatchNorm2d: 2-1493               [16, 64, 8, 8]            --
│    └─Scaler: 2-1494                    [16, 64, 8, 8]            --
│    └─ReLU: 2-1495                      [16, 64, 8, 8]            --
│    └─Empty: 2-1496                     [16, 64, 8, 8]            --
│    └─Clamp: 2-1497                     [16, 64, 8, 8]            --
├─FusedMaxPoolConv2dBNReLU: 1-113        [16, 64, 8, 8]            (recursive)
│    └─MaxPool2d: 2-1498                 [16, 64, 8, 8]            --
│    └─Empty: 2-1499                     [16, 64, 8, 8]            --
│    └─Empty: 2-1500                     [16, 64, 8, 8]            --
│    └─OutputShiftSqueeze: 2-1501        --                        --
│    └─One: 2-1502                       [1]                       --
│    └─OutputScale: 2-1503               --                        --
│    └─Empty: 2-1504                     [64, 64, 3, 3]            --
│    └─Empty: 2-1505                     [64, 64, 3, 3]            --
│    └─Empty: 2-1506                     [64]                      --
│    └─Empty: 2-1507                     [64]                      --
│    └─BatchNorm2d: 2-1508               [16, 64, 8, 8]            --
│    └─Scaler: 2-1509                    [16, 64, 8, 8]            --
│    └─ReLU: 2-1510                      [16, 64, 8, 8]            --
│    └─Empty: 2-1511                     [16, 64, 8, 8]            --
│    └─Clamp: 2-1512                     [16, 64, 8, 8]            --
├─FusedMaxPoolConv2dBNReLU: 1-114        [16, 64, 4, 4]            (recursive)
│    └─MaxPool2d: 2-1513                 [16, 64, 4, 4]            --
│    └─Empty: 2-1514                     [16, 64, 4, 4]            --
│    └─Empty: 2-1515                     [16, 64, 4, 4]            --
│    └─OutputShiftSqueeze: 2-1516        --                        --
│    └─One: 2-1517                       [1]                       --
│    └─OutputScale: 2-1518               --                        --
│    └─Empty: 2-1519                     [64, 64, 3, 3]            --
│    └─Empty: 2-1520                     [64, 64, 3, 3]            --
│    └─Empty: 2-1521                     [64]                      --
│    └─Empty: 2-1522                     [64]                      --
│    └─BatchNorm2d: 2-1523               [16, 64, 4, 4]            --
│    └─Scaler: 2-1524                    [16, 64, 4, 4]            --
│    └─ReLU: 2-1525                      [16, 64, 4, 4]            --
│    └─Empty: 2-1526                     [16, 64, 4, 4]            --
│    └─Clamp: 2-1527                     [16, 64, 4, 4]            --
├─FusedConv2dBNReLU: 1-115               [16, 64, 4, 4]            (recursive)
│    └─OutputShiftSqueeze: 2-1528        --                        --
│    └─One: 2-1529                       [1]                       --
│    └─OutputScale: 2-1530               --                        --
│    └─Empty: 2-1531                     [64, 64, 1, 1]            --
│    └─Empty: 2-1532                     [64, 64, 1, 1]            --
│    └─Empty: 2-1533                     [64]                      --
│    └─Empty: 2-1534                     [64]                      --
│    └─BatchNorm2d: 2-1535               [16, 64, 4, 4]            --
│    └─Scaler: 2-1536                    [16, 64, 4, 4]            --
│    └─ReLU: 2-1537                      [16, 64, 4, 4]            --
│    └─Empty: 2-1538                     [16, 64, 4, 4]            --
│    └─Clamp: 2-1539                     [16, 64, 4, 4]            --
├─FusedMaxPoolConv2dBNReLU: 1-116        [16, 64, 4, 4]            (recursive)
│    └─MaxPool2d: 2-1540                 [16, 64, 4, 4]            --
│    └─Empty: 2-1541                     [16, 64, 4, 4]            --
│    └─Empty: 2-1542                     [16, 64, 4, 4]            --
│    └─OutputShiftSqueeze: 2-1543        --                        --
│    └─One: 2-1544                       [1]                       --
│    └─OutputScale: 2-1545               --                        --
│    └─Empty: 2-1546                     [64, 64, 3, 3]            --
│    └─Empty: 2-1547                     [64, 64, 3, 3]            --
│    └─Empty: 2-1548                     [64]                      --
│    └─Empty: 2-1549                     [64]                      --
│    └─BatchNorm2d: 2-1550               [16, 64, 4, 4]            --
│    └─Scaler: 2-1551                    [16, 64, 4, 4]            --
│    └─ReLU: 2-1552                      [16, 64, 4, 4]            --
│    └─Empty: 2-1553                     [16, 64, 4, 4]            --
│    └─Clamp: 2-1554                     [16, 64, 4, 4]            --
├─FusedMaxPoolConv2dBNReLU: 1-117        [16, 64, 2, 2]            (recursive)
│    └─MaxPool2d: 2-1555                 [16, 64, 2, 2]            --
│    └─Empty: 2-1556                     [16, 64, 2, 2]            --
│    └─Empty: 2-1557                     [16, 64, 2, 2]            --
│    └─OutputShiftSqueeze: 2-1558        --                        --
│    └─One: 2-1559                       [1]                       --
│    └─OutputScale: 2-1560               --                        --
│    └─Empty: 2-1561                     [64, 64, 1, 1]            --
│    └─Empty: 2-1562                     [64, 64, 1, 1]            --
│    └─Empty: 2-1563                     [64]                      --
│    └─Empty: 2-1564                     [64]                      --
│    └─BatchNorm2d: 2-1565               [16, 64, 2, 2]            --
│    └─Scaler: 2-1566                    [16, 64, 2, 2]            --
│    └─ReLU: 2-1567                      [16, 64, 2, 2]            --
│    └─Empty: 2-1568                     [16, 64, 2, 2]            --
│    └─Clamp: 2-1569                     [16, 64, 2, 2]            --
├─FusedConv2dBNReLU: 1-118               [16, 64, 2, 2]            (recursive)
│    └─OutputShiftSqueeze: 2-1570        --                        --
│    └─One: 2-1571                       [1]                       --
│    └─OutputScale: 2-1572               --                        --
│    └─Empty: 2-1573                     [64, 64, 1, 1]            --
│    └─Empty: 2-1574                     [64, 64, 1, 1]            --
│    └─Empty: 2-1575                     [64]                      --
│    └─Empty: 2-1576                     [64]                      --
│    └─BatchNorm2d: 2-1577               [16, 64, 2, 2]            --
│    └─Scaler: 2-1578                    [16, 64, 2, 2]            --
│    └─ReLU: 2-1579                      [16, 64, 2, 2]            --
│    └─Empty: 2-1580                     [16, 64, 2, 2]            --
│    └─Clamp: 2-1581                     [16, 64, 2, 2]            --
├─FusedMaxPoolConv2dBNReLU: 1-119        [16, 64, 2, 2]            (recursive)
│    └─MaxPool2d: 2-1582                 [16, 64, 2, 2]            --
│    └─Empty: 2-1583                     [16, 64, 2, 2]            --
│    └─Empty: 2-1584                     [16, 64, 2, 2]            --
│    └─OutputShiftSqueeze: 2-1585        --                        --
│    └─One: 2-1586                       [1]                       --
│    └─OutputScale: 2-1587               --                        --
│    └─Empty: 2-1588                     [64, 64, 3, 3]            --
│    └─Empty: 2-1589                     [64, 64, 3, 3]            --
│    └─Empty: 2-1590                     [64]                      --
│    └─Empty: 2-1591                     [64]                      --
│    └─BatchNorm2d: 2-1592               [16, 64, 2, 2]            --
│    └─Scaler: 2-1593                    [16, 64, 2, 2]            --
│    └─ReLU: 2-1594                      [16, 64, 2, 2]            --
│    └─Empty: 2-1595                     [16, 64, 2, 2]            --
│    └─Clamp: 2-1596                     [16, 64, 2, 2]            --
├─FusedConv2dBNReLU: 1-120               [16, 64, 64, 64]          (recursive)
│    └─OutputShiftSqueeze: 2-1597        --                        --
│    └─One: 2-1598                       [1]                       --
│    └─OutputScale: 2-1599               --                        --
│    └─Empty: 2-1600                     [64, 48, 1, 1]            --
│    └─Empty: 2-1601                     [64, 48, 1, 1]            --
│    └─Empty: 2-1602                     [64]                      --
│    └─Empty: 2-1603                     [64]                      --
│    └─BatchNorm2d: 2-1604               [16, 64, 64, 64]          --
│    └─Scaler: 2-1605                    [16, 64, 64, 64]          --
│    └─ReLU: 2-1606                      [16, 64, 64, 64]          --
│    └─Empty: 2-1607                     [16, 64, 64, 64]          --
│    └─Clamp: 2-1608                     [16, 64, 64, 64]          --
├─FusedConv2dBNReLU: 1-121               [16, 64, 64, 64]          (recursive)
│    └─OutputShiftSqueeze: 2-1609        --                        --
│    └─One: 2-1610                       [1]                       --
│    └─OutputScale: 2-1611               --                        --
│    └─Empty: 2-1612                     [64, 64, 3, 3]            --
│    └─Empty: 2-1613                     [64, 64, 3, 3]            --
│    └─Empty: 2-1614                     [64]                      --
│    └─Empty: 2-1615                     [64]                      --
│    └─BatchNorm2d: 2-1616               [16, 64, 64, 64]          --
│    └─Scaler: 2-1617                    [16, 64, 64, 64]          --
│    └─ReLU: 2-1618                      [16, 64, 64, 64]          --
│    └─Empty: 2-1619                     [16, 64, 64, 64]          --
│    └─Clamp: 2-1620                     [16, 64, 64, 64]          --
├─FusedConv2dBNReLU: 1-122               [16, 64, 64, 64]          (recursive)
│    └─OutputShiftSqueeze: 2-1621        --                        --
│    └─One: 2-1622                       [1]                       --
│    └─OutputScale: 2-1623               --                        --
│    └─Empty: 2-1624                     [64, 64, 1, 1]            --
│    └─Empty: 2-1625                     [64, 64, 1, 1]            --
│    └─Empty: 2-1626                     [64]                      --
│    └─Empty: 2-1627                     [64]                      --
│    └─BatchNorm2d: 2-1628               [16, 64, 64, 64]          --
│    └─Scaler: 2-1629                    [16, 64, 64, 64]          --
│    └─ReLU: 2-1630                      [16, 64, 64, 64]          --
│    └─Empty: 2-1631                     [16, 64, 64, 64]          --
│    └─Clamp: 2-1632                     [16, 64, 64, 64]          --
├─FusedConv2dBNReLU: 1-123               [16, 64, 64, 64]          (recursive)
│    └─OutputShiftSqueeze: 2-1633        --                        --
│    └─One: 2-1634                       [1]                       --
│    └─OutputScale: 2-1635               --                        --
│    └─Empty: 2-1636                     [64, 64, 3, 3]            --
│    └─Empty: 2-1637                     [64, 64, 3, 3]            --
│    └─Empty: 2-1638                     [64]                      --
│    └─Empty: 2-1639                     [64]                      --
│    └─BatchNorm2d: 2-1640               [16, 64, 64, 64]          --
│    └─Scaler: 2-1641                    [16, 64, 64, 64]          --
│    └─ReLU: 2-1642                      [16, 64, 64, 64]          --
│    └─Empty: 2-1643                     [16, 64, 64, 64]          --
│    └─Clamp: 2-1644                     [16, 64, 64, 64]          --
├─FusedMaxPoolConv2dBNReLU: 1-124        [16, 64, 32, 32]          (recursive)
│    └─MaxPool2d: 2-1645                 [16, 64, 32, 32]          --
│    └─Empty: 2-1646                     [16, 64, 32, 32]          --
│    └─Empty: 2-1647                     [16, 64, 32, 32]          --
│    └─OutputShiftSqueeze: 2-1648        --                        --
│    └─One: 2-1649                       [1]                       --
│    └─OutputScale: 2-1650               --                        --
│    └─Empty: 2-1651                     [64, 64, 3, 3]            --
│    └─Empty: 2-1652                     [64, 64, 3, 3]            --
│    └─Empty: 2-1653                     [64]                      --
│    └─Empty: 2-1654                     [64]                      --
│    └─BatchNorm2d: 2-1655               [16, 64, 32, 32]          --
│    └─Scaler: 2-1656                    [16, 64, 32, 32]          --
│    └─ReLU: 2-1657                      [16, 64, 32, 32]          --
│    └─Empty: 2-1658                     [16, 64, 32, 32]          --
│    └─Clamp: 2-1659                     [16, 64, 32, 32]          --
├─FusedConv2dBNReLU: 1-125               [16, 64, 32, 32]          (recursive)
│    └─OutputShiftSqueeze: 2-1660        --                        --
│    └─One: 2-1661                       [1]                       --
│    └─OutputScale: 2-1662               --                        --
│    └─Empty: 2-1663                     [64, 64, 3, 3]            --
│    └─Empty: 2-1664                     [64, 64, 3, 3]            --
│    └─Empty: 2-1665                     [64]                      --
│    └─Empty: 2-1666                     [64]                      --
│    └─BatchNorm2d: 2-1667               [16, 64, 32, 32]          --
│    └─Scaler: 2-1668                    [16, 64, 32, 32]          --
│    └─ReLU: 2-1669                      [16, 64, 32, 32]          --
│    └─Empty: 2-1670                     [16, 64, 32, 32]          --
│    └─Clamp: 2-1671                     [16, 64, 32, 32]          --
├─FusedMaxPoolConv2dBNReLU: 1-126        [16, 64, 16, 16]          (recursive)
│    └─MaxPool2d: 2-1672                 [16, 64, 16, 16]          --
│    └─Empty: 2-1673                     [16, 64, 16, 16]          --
│    └─Empty: 2-1674                     [16, 64, 16, 16]          --
│    └─OutputShiftSqueeze: 2-1675        --                        --
│    └─One: 2-1676                       [1]                       --
│    └─OutputScale: 2-1677               --                        --
│    └─Empty: 2-1678                     [64, 64, 3, 3]            --
│    └─Empty: 2-1679                     [64, 64, 3, 3]            --
│    └─Empty: 2-1680                     [64]                      --
│    └─Empty: 2-1681                     [64]                      --
│    └─BatchNorm2d: 2-1682               [16, 64, 16, 16]          --
│    └─Scaler: 2-1683                    [16, 64, 16, 16]          --
│    └─ReLU: 2-1684                      [16, 64, 16, 16]          --
│    └─Empty: 2-1685                     [16, 64, 16, 16]          --
│    └─Clamp: 2-1686                     [16, 64, 16, 16]          --
├─FusedConv2dBNReLU: 1-127               [16, 64, 16, 16]          (recursive)
│    └─OutputShiftSqueeze: 2-1687        --                        --
│    └─One: 2-1688                       [1]                       --
│    └─OutputScale: 2-1689               --                        --
│    └─Empty: 2-1690                     [64, 64, 3, 3]            --
│    └─Empty: 2-1691                     [64, 64, 3, 3]            --
│    └─Empty: 2-1692                     [64]                      --
│    └─Empty: 2-1693                     [64]                      --
│    └─BatchNorm2d: 2-1694               [16, 64, 16, 16]          --
│    └─Scaler: 2-1695                    [16, 64, 16, 16]          --
│    └─ReLU: 2-1696                      [16, 64, 16, 16]          --
│    └─Empty: 2-1697                     [16, 64, 16, 16]          --
│    └─Clamp: 2-1698                     [16, 64, 16, 16]          --
├─FusedMaxPoolConv2dBNReLU: 1-128        [16, 64, 8, 8]            (recursive)
│    └─MaxPool2d: 2-1699                 [16, 64, 8, 8]            --
│    └─Empty: 2-1700                     [16, 64, 8, 8]            --
│    └─Empty: 2-1701                     [16, 64, 8, 8]            --
│    └─OutputShiftSqueeze: 2-1702        --                        --
│    └─One: 2-1703                       [1]                       --
│    └─OutputScale: 2-1704               --                        --
│    └─Empty: 2-1705                     [64, 64, 3, 3]            --
│    └─Empty: 2-1706                     [64, 64, 3, 3]            --
│    └─Empty: 2-1707                     [64]                      --
│    └─Empty: 2-1708                     [64]                      --
│    └─BatchNorm2d: 2-1709               [16, 64, 8, 8]            --
│    └─Scaler: 2-1710                    [16, 64, 8, 8]            --
│    └─ReLU: 2-1711                      [16, 64, 8, 8]            --
│    └─Empty: 2-1712                     [16, 64, 8, 8]            --
│    └─Clamp: 2-1713                     [16, 64, 8, 8]            --
├─FusedConv2dBNReLU: 1-129               [16, 64, 8, 8]            (recursive)
│    └─OutputShiftSqueeze: 2-1714        --                        --
│    └─One: 2-1715                       [1]                       --
│    └─OutputScale: 2-1716               --                        --
│    └─Empty: 2-1717                     [64, 64, 1, 1]            --
│    └─Empty: 2-1718                     [64, 64, 1, 1]            --
│    └─Empty: 2-1719                     [64]                      --
│    └─Empty: 2-1720                     [64]                      --
│    └─BatchNorm2d: 2-1721               [16, 64, 8, 8]            --
│    └─Scaler: 2-1722                    [16, 64, 8, 8]            --
│    └─ReLU: 2-1723                      [16, 64, 8, 8]            --
│    └─Empty: 2-1724                     [16, 64, 8, 8]            --
│    └─Clamp: 2-1725                     [16, 64, 8, 8]            --
├─FusedMaxPoolConv2dBNReLU: 1-130        [16, 64, 8, 8]            (recursive)
│    └─MaxPool2d: 2-1726                 [16, 64, 8, 8]            --
│    └─Empty: 2-1727                     [16, 64, 8, 8]            --
│    └─Empty: 2-1728                     [16, 64, 8, 8]            --
│    └─OutputShiftSqueeze: 2-1729        --                        --
│    └─One: 2-1730                       [1]                       --
│    └─OutputScale: 2-1731               --                        --
│    └─Empty: 2-1732                     [64, 64, 3, 3]            --
│    └─Empty: 2-1733                     [64, 64, 3, 3]            --
│    └─Empty: 2-1734                     [64]                      --
│    └─Empty: 2-1735                     [64]                      --
│    └─BatchNorm2d: 2-1736               [16, 64, 8, 8]            --
│    └─Scaler: 2-1737                    [16, 64, 8, 8]            --
│    └─ReLU: 2-1738                      [16, 64, 8, 8]            --
│    └─Empty: 2-1739                     [16, 64, 8, 8]            --
│    └─Clamp: 2-1740                     [16, 64, 8, 8]            --
├─FusedMaxPoolConv2dBNReLU: 1-131        [16, 64, 4, 4]            (recursive)
│    └─MaxPool2d: 2-1741                 [16, 64, 4, 4]            --
│    └─Empty: 2-1742                     [16, 64, 4, 4]            --
│    └─Empty: 2-1743                     [16, 64, 4, 4]            --
│    └─OutputShiftSqueeze: 2-1744        --                        --
│    └─One: 2-1745                       [1]                       --
│    └─OutputScale: 2-1746               --                        --
│    └─Empty: 2-1747                     [64, 64, 3, 3]            --
│    └─Empty: 2-1748                     [64, 64, 3, 3]            --
│    └─Empty: 2-1749                     [64]                      --
│    └─Empty: 2-1750                     [64]                      --
│    └─BatchNorm2d: 2-1751               [16, 64, 4, 4]            --
│    └─Scaler: 2-1752                    [16, 64, 4, 4]            --
│    └─ReLU: 2-1753                      [16, 64, 4, 4]            --
│    └─Empty: 2-1754                     [16, 64, 4, 4]            --
│    └─Clamp: 2-1755                     [16, 64, 4, 4]            --
├─FusedConv2dBNReLU: 1-132               [16, 64, 4, 4]            (recursive)
│    └─OutputShiftSqueeze: 2-1756        --                        --
│    └─One: 2-1757                       [1]                       --
│    └─OutputScale: 2-1758               --                        --
│    └─Empty: 2-1759                     [64, 64, 1, 1]            --
│    └─Empty: 2-1760                     [64, 64, 1, 1]            --
│    └─Empty: 2-1761                     [64]                      --
│    └─Empty: 2-1762                     [64]                      --
│    └─BatchNorm2d: 2-1763               [16, 64, 4, 4]            --
│    └─Scaler: 2-1764                    [16, 64, 4, 4]            --
│    └─ReLU: 2-1765                      [16, 64, 4, 4]            --
│    └─Empty: 2-1766                     [16, 64, 4, 4]            --
│    └─Clamp: 2-1767                     [16, 64, 4, 4]            --
├─FusedMaxPoolConv2dBNReLU: 1-133        [16, 64, 4, 4]            (recursive)
│    └─MaxPool2d: 2-1768                 [16, 64, 4, 4]            --
│    └─Empty: 2-1769                     [16, 64, 4, 4]            --
│    └─Empty: 2-1770                     [16, 64, 4, 4]            --
│    └─OutputShiftSqueeze: 2-1771        --                        --
│    └─One: 2-1772                       [1]                       --
│    └─OutputScale: 2-1773               --                        --
│    └─Empty: 2-1774                     [64, 64, 3, 3]            --
│    └─Empty: 2-1775                     [64, 64, 3, 3]            --
│    └─Empty: 2-1776                     [64]                      --
│    └─Empty: 2-1777                     [64]                      --
│    └─BatchNorm2d: 2-1778               [16, 64, 4, 4]            --
│    └─Scaler: 2-1779                    [16, 64, 4, 4]            --
│    └─ReLU: 2-1780                      [16, 64, 4, 4]            --
│    └─Empty: 2-1781                     [16, 64, 4, 4]            --
│    └─Clamp: 2-1782                     [16, 64, 4, 4]            --
├─FusedMaxPoolConv2dBNReLU: 1-134        [16, 64, 2, 2]            (recursive)
│    └─MaxPool2d: 2-1783                 [16, 64, 2, 2]            --
│    └─Empty: 2-1784                     [16, 64, 2, 2]            --
│    └─Empty: 2-1785                     [16, 64, 2, 2]            --
│    └─OutputShiftSqueeze: 2-1786        --                        --
│    └─One: 2-1787                       [1]                       --
│    └─OutputScale: 2-1788               --                        --
│    └─Empty: 2-1789                     [64, 64, 1, 1]            --
│    └─Empty: 2-1790                     [64, 64, 1, 1]            --
│    └─Empty: 2-1791                     [64]                      --
│    └─Empty: 2-1792                     [64]                      --
│    └─BatchNorm2d: 2-1793               [16, 64, 2, 2]            --
│    └─Scaler: 2-1794                    [16, 64, 2, 2]            --
│    └─ReLU: 2-1795                      [16, 64, 2, 2]            --
│    └─Empty: 2-1796                     [16, 64, 2, 2]            --
│    └─Clamp: 2-1797                     [16, 64, 2, 2]            --
├─FusedConv2dBNReLU: 1-135               [16, 64, 2, 2]            (recursive)
│    └─OutputShiftSqueeze: 2-1798        --                        --
│    └─One: 2-1799                       [1]                       --
│    └─OutputScale: 2-1800               --                        --
│    └─Empty: 2-1801                     [64, 64, 1, 1]            --
│    └─Empty: 2-1802                     [64, 64, 1, 1]            --
│    └─Empty: 2-1803                     [64]                      --
│    └─Empty: 2-1804                     [64]                      --
│    └─BatchNorm2d: 2-1805               [16, 64, 2, 2]            --
│    └─Scaler: 2-1806                    [16, 64, 2, 2]            --
│    └─ReLU: 2-1807                      [16, 64, 2, 2]            --
│    └─Empty: 2-1808                     [16, 64, 2, 2]            --
│    └─Clamp: 2-1809                     [16, 64, 2, 2]            --
├─FusedMaxPoolConv2dBNReLU: 1-136        [16, 64, 2, 2]            (recursive)
│    └─MaxPool2d: 2-1810                 [16, 64, 2, 2]            --
│    └─Empty: 2-1811                     [16, 64, 2, 2]            --
│    └─Empty: 2-1812                     [16, 64, 2, 2]            --
│    └─OutputShiftSqueeze: 2-1813        --                        --
│    └─One: 2-1814                       [1]                       --
│    └─OutputScale: 2-1815               --                        --
│    └─Empty: 2-1816                     [64, 64, 3, 3]            --
│    └─Empty: 2-1817                     [64, 64, 3, 3]            --
│    └─Empty: 2-1818                     [64]                      --
│    └─Empty: 2-1819                     [64]                      --
│    └─BatchNorm2d: 2-1820               [16, 64, 2, 2]            --
│    └─Scaler: 2-1821                    [16, 64, 2, 2]            --
│    └─ReLU: 2-1822                      [16, 64, 2, 2]            --
│    └─Empty: 2-1823                     [16, 64, 2, 2]            --
│    └─Clamp: 2-1824                     [16, 64, 2, 2]            --
├─FusedConv2dBNReLU: 1-137               [16, 64, 64, 64]          (recursive)
│    └─OutputShiftSqueeze: 2-1825        --                        --
│    └─One: 2-1826                       [1]                       --
│    └─OutputScale: 2-1827               --                        --
│    └─Empty: 2-1828                     [64, 48, 1, 1]            --
│    └─Empty: 2-1829                     [64, 48, 1, 1]            --
│    └─Empty: 2-1830                     [64]                      --
│    └─Empty: 2-1831                     [64]                      --
│    └─BatchNorm2d: 2-1832               [16, 64, 64, 64]          --
│    └─Scaler: 2-1833                    [16, 64, 64, 64]          --
│    └─ReLU: 2-1834                      [16, 64, 64, 64]          --
│    └─Empty: 2-1835                     [16, 64, 64, 64]          --
│    └─Clamp: 2-1836                     [16, 64, 64, 64]          --
├─FusedConv2dBNReLU: 1-138               [16, 64, 64, 64]          (recursive)
│    └─OutputShiftSqueeze: 2-1837        --                        --
│    └─One: 2-1838                       [1]                       --
│    └─OutputScale: 2-1839               --                        --
│    └─Empty: 2-1840                     [64, 64, 3, 3]            --
│    └─Empty: 2-1841                     [64, 64, 3, 3]            --
│    └─Empty: 2-1842                     [64]                      --
│    └─Empty: 2-1843                     [64]                      --
│    └─BatchNorm2d: 2-1844               [16, 64, 64, 64]          --
│    └─Scaler: 2-1845                    [16, 64, 64, 64]          --
│    └─ReLU: 2-1846                      [16, 64, 64, 64]          --
│    └─Empty: 2-1847                     [16, 64, 64, 64]          --
│    └─Clamp: 2-1848                     [16, 64, 64, 64]          --
├─FusedConv2dBNReLU: 1-139               [16, 64, 64, 64]          (recursive)
│    └─OutputShiftSqueeze: 2-1849        --                        --
│    └─One: 2-1850                       [1]                       --
│    └─OutputScale: 2-1851               --                        --
│    └─Empty: 2-1852                     [64, 64, 1, 1]            --
│    └─Empty: 2-1853                     [64, 64, 1, 1]            --
│    └─Empty: 2-1854                     [64]                      --
│    └─Empty: 2-1855                     [64]                      --
│    └─BatchNorm2d: 2-1856               [16, 64, 64, 64]          --
│    └─Scaler: 2-1857                    [16, 64, 64, 64]          --
│    └─ReLU: 2-1858                      [16, 64, 64, 64]          --
│    └─Empty: 2-1859                     [16, 64, 64, 64]          --
│    └─Clamp: 2-1860                     [16, 64, 64, 64]          --
├─FusedConv2dBNReLU: 1-140               [16, 64, 64, 64]          (recursive)
│    └─OutputShiftSqueeze: 2-1861        --                        --
│    └─One: 2-1862                       [1]                       --
│    └─OutputScale: 2-1863               --                        --
│    └─Empty: 2-1864                     [64, 64, 3, 3]            --
│    └─Empty: 2-1865                     [64, 64, 3, 3]            --
│    └─Empty: 2-1866                     [64]                      --
│    └─Empty: 2-1867                     [64]                      --
│    └─BatchNorm2d: 2-1868               [16, 64, 64, 64]          --
│    └─Scaler: 2-1869                    [16, 64, 64, 64]          --
│    └─ReLU: 2-1870                      [16, 64, 64, 64]          --
│    └─Empty: 2-1871                     [16, 64, 64, 64]          --
│    └─Clamp: 2-1872                     [16, 64, 64, 64]          --
├─FusedMaxPoolConv2dBNReLU: 1-141        [16, 64, 32, 32]          (recursive)
│    └─MaxPool2d: 2-1873                 [16, 64, 32, 32]          --
│    └─Empty: 2-1874                     [16, 64, 32, 32]          --
│    └─Empty: 2-1875                     [16, 64, 32, 32]          --
│    └─OutputShiftSqueeze: 2-1876        --                        --
│    └─One: 2-1877                       [1]                       --
│    └─OutputScale: 2-1878               --                        --
│    └─Empty: 2-1879                     [64, 64, 3, 3]            --
│    └─Empty: 2-1880                     [64, 64, 3, 3]            --
│    └─Empty: 2-1881                     [64]                      --
│    └─Empty: 2-1882                     [64]                      --
│    └─BatchNorm2d: 2-1883               [16, 64, 32, 32]          --
│    └─Scaler: 2-1884                    [16, 64, 32, 32]          --
│    └─ReLU: 2-1885                      [16, 64, 32, 32]          --
│    └─Empty: 2-1886                     [16, 64, 32, 32]          --
│    └─Clamp: 2-1887                     [16, 64, 32, 32]          --
├─FusedConv2dBNReLU: 1-142               [16, 64, 32, 32]          (recursive)
│    └─OutputShiftSqueeze: 2-1888        --                        --
│    └─One: 2-1889                       [1]                       --
│    └─OutputScale: 2-1890               --                        --
│    └─Empty: 2-1891                     [64, 64, 3, 3]            --
│    └─Empty: 2-1892                     [64, 64, 3, 3]            --
│    └─Empty: 2-1893                     [64]                      --
│    └─Empty: 2-1894                     [64]                      --
│    └─BatchNorm2d: 2-1895               [16, 64, 32, 32]          --
│    └─Scaler: 2-1896                    [16, 64, 32, 32]          --
│    └─ReLU: 2-1897                      [16, 64, 32, 32]          --
│    └─Empty: 2-1898                     [16, 64, 32, 32]          --
│    └─Clamp: 2-1899                     [16, 64, 32, 32]          --
├─FusedMaxPoolConv2dBNReLU: 1-143        [16, 64, 16, 16]          (recursive)
│    └─MaxPool2d: 2-1900                 [16, 64, 16, 16]          --
│    └─Empty: 2-1901                     [16, 64, 16, 16]          --
│    └─Empty: 2-1902                     [16, 64, 16, 16]          --
│    └─OutputShiftSqueeze: 2-1903        --                        --
│    └─One: 2-1904                       [1]                       --
│    └─OutputScale: 2-1905               --                        --
│    └─Empty: 2-1906                     [64, 64, 3, 3]            --
│    └─Empty: 2-1907                     [64, 64, 3, 3]            --
│    └─Empty: 2-1908                     [64]                      --
│    └─Empty: 2-1909                     [64]                      --
│    └─BatchNorm2d: 2-1910               [16, 64, 16, 16]          --
│    └─Scaler: 2-1911                    [16, 64, 16, 16]          --
│    └─ReLU: 2-1912                      [16, 64, 16, 16]          --
│    └─Empty: 2-1913                     [16, 64, 16, 16]          --
│    └─Clamp: 2-1914                     [16, 64, 16, 16]          --
├─FusedConv2dBNReLU: 1-144               [16, 64, 16, 16]          (recursive)
│    └─OutputShiftSqueeze: 2-1915        --                        --
│    └─One: 2-1916                       [1]                       --
│    └─OutputScale: 2-1917               --                        --
│    └─Empty: 2-1918                     [64, 64, 3, 3]            --
│    └─Empty: 2-1919                     [64, 64, 3, 3]            --
│    └─Empty: 2-1920                     [64]                      --
│    └─Empty: 2-1921                     [64]                      --
│    └─BatchNorm2d: 2-1922               [16, 64, 16, 16]          --
│    └─Scaler: 2-1923                    [16, 64, 16, 16]          --
│    └─ReLU: 2-1924                      [16, 64, 16, 16]          --
│    └─Empty: 2-1925                     [16, 64, 16, 16]          --
│    └─Clamp: 2-1926                     [16, 64, 16, 16]          --
├─FusedMaxPoolConv2dBNReLU: 1-145        [16, 64, 8, 8]            (recursive)
│    └─MaxPool2d: 2-1927                 [16, 64, 8, 8]            --
│    └─Empty: 2-1928                     [16, 64, 8, 8]            --
│    └─Empty: 2-1929                     [16, 64, 8, 8]            --
│    └─OutputShiftSqueeze: 2-1930        --                        --
│    └─One: 2-1931                       [1]                       --
│    └─OutputScale: 2-1932               --                        --
│    └─Empty: 2-1933                     [64, 64, 3, 3]            --
│    └─Empty: 2-1934                     [64, 64, 3, 3]            --
│    └─Empty: 2-1935                     [64]                      --
│    └─Empty: 2-1936                     [64]                      --
│    └─BatchNorm2d: 2-1937               [16, 64, 8, 8]            --
│    └─Scaler: 2-1938                    [16, 64, 8, 8]            --
│    └─ReLU: 2-1939                      [16, 64, 8, 8]            --
│    └─Empty: 2-1940                     [16, 64, 8, 8]            --
│    └─Clamp: 2-1941                     [16, 64, 8, 8]            --
├─FusedConv2dBNReLU: 1-146               [16, 64, 8, 8]            (recursive)
│    └─OutputShiftSqueeze: 2-1942        --                        --
│    └─One: 2-1943                       [1]                       --
│    └─OutputScale: 2-1944               --                        --
│    └─Empty: 2-1945                     [64, 64, 1, 1]            --
│    └─Empty: 2-1946                     [64, 64, 1, 1]            --
│    └─Empty: 2-1947                     [64]                      --
│    └─Empty: 2-1948                     [64]                      --
│    └─BatchNorm2d: 2-1949               [16, 64, 8, 8]            --
│    └─Scaler: 2-1950                    [16, 64, 8, 8]            --
│    └─ReLU: 2-1951                      [16, 64, 8, 8]            --
│    └─Empty: 2-1952                     [16, 64, 8, 8]            --
│    └─Clamp: 2-1953                     [16, 64, 8, 8]            --
├─FusedMaxPoolConv2dBNReLU: 1-147        [16, 64, 8, 8]            (recursive)
│    └─MaxPool2d: 2-1954                 [16, 64, 8, 8]            --
│    └─Empty: 2-1955                     [16, 64, 8, 8]            --
│    └─Empty: 2-1956                     [16, 64, 8, 8]            --
│    └─OutputShiftSqueeze: 2-1957        --                        --
│    └─One: 2-1958                       [1]                       --
│    └─OutputScale: 2-1959               --                        --
│    └─Empty: 2-1960                     [64, 64, 3, 3]            --
│    └─Empty: 2-1961                     [64, 64, 3, 3]            --
│    └─Empty: 2-1962                     [64]                      --
│    └─Empty: 2-1963                     [64]                      --
│    └─BatchNorm2d: 2-1964               [16, 64, 8, 8]            --
│    └─Scaler: 2-1965                    [16, 64, 8, 8]            --
│    └─ReLU: 2-1966                      [16, 64, 8, 8]            --
│    └─Empty: 2-1967                     [16, 64, 8, 8]            --
…
│    └─BatchNorm2d: 2-3146               [16, 64, 4, 4]            --
│    └─Scaler: 2-3147                    [16, 64, 4, 4]            --
│    └─ReLU: 2-3148                      [16, 64, 4, 4]            --
│    └─Empty: 2-3149                     [16, 64, 4, 4]            --
│    └─Clamp: 2-3150                     [16, 64, 4, 4]            --
├─FusedMaxPoolConv2dBNReLU: 1-236        [16, 64, 2, 2]            (recursive)
│    └─MaxPool2d: 2-3151                 [16, 64, 2, 2]            --
│    └─Empty: 2-3152                     [16, 64, 2, 2]            --
│    └─Empty: 2-3153                     [16, 64, 2, 2]            --
│    └─OutputShiftSqueeze: 2-3154        --                        --
│    └─One: 2-3155                       [1]                       --
│    └─OutputScale: 2-3156               --                        --
│    └─Empty: 2-3157                     [64, 64, 1, 1]            --
│    └─Empty: 2-3158                     [64, 64, 1, 1]            --
│    └─Empty: 2-3159                     [64]                      --
│    └─Empty: 2-3160                     [64]                      --
│    └─BatchNorm2d: 2-3161               [16, 64, 2, 2]            --
│    └─Scaler: 2-3162                    [16, 64, 2, 2]            --
│    └─ReLU: 2-3163                      [16, 64, 2, 2]            --
│    └─Empty: 2-3164                     [16, 64, 2, 2]            --
│    └─Clamp: 2-3165                     [16, 64, 2, 2]            --
├─FusedConv2dBNReLU: 1-237               [16, 64, 2, 2]            (recursive)
│    └─OutputShiftSqueeze: 2-3166        --                        --
│    └─One: 2-3167                       [1]                       --
│    └─OutputScale: 2-3168               --                        --
│    └─Empty: 2-3169                     [64, 64, 1, 1]            --
│    └─Empty: 2-3170                     [64, 64, 1, 1]            --
│    └─Empty: 2-3171                     [64]                      --
│    └─Empty: 2-3172                     [64]                      --
│    └─BatchNorm2d: 2-3173               [16, 64, 2, 2]            --
│    └─Scaler: 2-3174                    [16, 64, 2, 2]            --
│    └─ReLU: 2-3175                      [16, 64, 2, 2]            --
│    └─Empty: 2-3176                     [16, 64, 2, 2]            --
│    └─Clamp: 2-3177                     [16, 64, 2, 2]            --
├─FusedMaxPoolConv2dBNReLU: 1-238        [16, 64, 2, 2]            (recursive)
│    └─MaxPool2d: 2-3178                 [16, 64, 2, 2]            --
│    └─Empty: 2-3179                     [16, 64, 2, 2]            --
│    └─Empty: 2-3180                     [16, 64, 2, 2]            --
│    └─OutputShiftSqueeze: 2-3181        --                        --
│    └─One: 2-3182                       [1]                       --
│    └─OutputScale: 2-3183               --                        --
│    └─Empty: 2-3184                     [64, 64, 3, 3]            --
│    └─Empty: 2-3185                     [64, 64, 3, 3]            --
│    └─Empty: 2-3186                     [64]                      --
│    └─Empty: 2-3187                     [64]                      --
│    └─BatchNorm2d: 2-3188               [16, 64, 2, 2]            --
│    └─Scaler: 2-3189                    [16, 64, 2, 2]            --
│    └─ReLU: 2-3190                      [16, 64, 2, 2]            --
│    └─Empty: 2-3191                     [16, 64, 2, 2]            --
│    └─Clamp: 2-3192                     [16, 64, 2, 2]            --
├─FusedConv2dBNReLU: 1-239               [16, 64, 64, 64]          (recursive)
│    └─OutputShiftSqueeze: 2-3193        --                        --
│    └─One: 2-3194                       [1]                       --
│    └─OutputScale: 2-3195               --                        --
│    └─Empty: 2-3196                     [64, 48, 1, 1]            --
│    └─Empty: 2-3197                     [64, 48, 1, 1]            --
│    └─Empty: 2-3198                     [64]                      --
│    └─Empty: 2-3199                     [64]                      --
│    └─BatchNorm2d: 2-3200               [16, 64, 64, 64]          --
│    └─Scaler: 2-3201                    [16, 64, 64, 64]          --
│    └─ReLU: 2-3202                      [16, 64, 64, 64]          --
│    └─Empty: 2-3203                     [16, 64, 64, 64]          --
│    └─Clamp: 2-3204                     [16, 64, 64, 64]          --
├─FusedConv2dBNReLU: 1-240               [16, 64, 64, 64]          (recursive)
│    └─OutputShiftSqueeze: 2-3205        --                        --
│    └─One: 2-3206                       [1]                       --
│    └─OutputScale: 2-3207               --                        --
│    └─Empty: 2-3208                     [64, 64, 3, 3]            --
│    └─Empty: 2-3209                     [64, 64, 3, 3]            --
│    └─Empty: 2-3210                     [64]                      --
│    └─Empty: 2-3211                     [64]                      --
│    └─BatchNorm2d: 2-3212               [16, 64, 64, 64]          --
│    └─Scaler: 2-3213                    [16, 64, 64, 64]          --
│    └─ReLU: 2-3214                      [16, 64, 64, 64]          --
│    └─Empty: 2-3215                     [16, 64, 64, 64]          --
│    └─Clamp: 2-3216                     [16, 64, 64, 64]          --
├─FusedConv2dBNReLU: 1-241               [16, 64, 64, 64]          (recursive)
│    └─OutputShiftSqueeze: 2-3217        --                        --
│    └─One: 2-3218                       [1]                       --
│    └─OutputScale: 2-3219               --                        --
│    └─Empty: 2-3220                     [64, 64, 1, 1]            --
│    └─Empty: 2-3221                     [64, 64, 1, 1]            --
│    └─Empty: 2-3222                     [64]                      --
│    └─Empty: 2-3223                     [64]                      --
│    └─BatchNorm2d: 2-3224               [16, 64, 64, 64]          --
│    └─Scaler: 2-3225                    [16, 64, 64, 64]          --
│    └─ReLU: 2-3226                      [16, 64, 64, 64]          --
│    └─Empty: 2-3227                     [16, 64, 64, 64]          --
│    └─Clamp: 2-3228                     [16, 64, 64, 64]          --
├─FusedConv2dBNReLU: 1-242               [16, 64, 64, 64]          (recursive)
│    └─OutputShiftSqueeze: 2-3229        --                        --
│    └─One: 2-3230                       [1]                       --
│    └─OutputScale: 2-3231               --                        --
│    └─Empty: 2-3232                     [64, 64, 3, 3]            --
│    └─Empty: 2-3233                     [64, 64, 3, 3]            --
│    └─Empty: 2-3234                     [64]                      --
│    └─Empty: 2-3235                     [64]                      --
│    └─BatchNorm2d: 2-3236               [16, 64, 64, 64]          --
│    └─Scaler: 2-3237                    [16, 64, 64, 64]          --
│    └─ReLU: 2-3238                      [16, 64, 64, 64]          --
│    └─Empty: 2-3239                     [16, 64, 64, 64]          --
│    └─Clamp: 2-3240                     [16, 64, 64, 64]          --
├─FusedMaxPoolConv2dBNReLU: 1-243        [16, 64, 32, 32]          (recursive)
│    └─MaxPool2d: 2-3241                 [16, 64, 32, 32]          --
│    └─Empty: 2-3242                     [16, 64, 32, 32]          --
│    └─Empty: 2-3243                     [16, 64, 32, 32]          --
│    └─OutputShiftSqueeze: 2-3244        --                        --
│    └─One: 2-3245                       [1]                       --
│    └─OutputScale: 2-3246               --                        --
│    └─Empty: 2-3247                     [64, 64, 3, 3]            --
│    └─Empty: 2-3248                     [64, 64, 3, 3]            --
│    └─Empty: 2-3249                     [64]                      --
│    └─Empty: 2-3250                     [64]                      --
│    └─BatchNorm2d: 2-3251               [16, 64, 32, 32]          --
│    └─Scaler: 2-3252                    [16, 64, 32, 32]          --
│    └─ReLU: 2-3253                      [16, 64, 32, 32]          --
│    └─Empty: 2-3254                     [16, 64, 32, 32]          --
│    └─Clamp: 2-3255                     [16, 64, 32, 32]          --
├─FusedConv2dBNReLU: 1-244               [16, 64, 32, 32]          (recursive)
│    └─OutputShiftSqueeze: 2-3256        --                        --
│    └─One: 2-3257                       [1]                       --
│    └─OutputScale: 2-3258               --                        --
│    └─Empty: 2-3259                     [64, 64, 3, 3]            --
│    └─Empty: 2-3260                     [64, 64, 3, 3]            --
│    └─Empty: 2-3261                     [64]                      --
│    └─Empty: 2-3262                     [64]                      --
│    └─BatchNorm2d: 2-3263               [16, 64, 32, 32]          --
│    └─Scaler: 2-3264                    [16, 64, 32, 32]          --
│    └─ReLU: 2-3265                      [16, 64, 32, 32]          --
│    └─Empty: 2-3266                     [16, 64, 32, 32]          --
│    └─Clamp: 2-3267                     [16, 64, 32, 32]          --
├─FusedMaxPoolConv2dBNReLU: 1-245        [16, 64, 16, 16]          (recursive)
│    └─MaxPool2d: 2-3268                 [16, 64, 16, 16]          --
│    └─Empty: 2-3269                     [16, 64, 16, 16]          --
│    └─Empty: 2-3270                     [16, 64, 16, 16]          --
│    └─OutputShiftSqueeze: 2-3271        --                        --
│    └─One: 2-3272                       [1]                       --
│    └─OutputScale: 2-3273               --                        --
│    └─Empty: 2-3274                     [64, 64, 3, 3]            --
│    └─Empty: 2-3275                     [64, 64, 3, 3]            --
│    └─Empty: 2-3276                     [64]                      --
│    └─Empty: 2-3277                     [64]                      --
│    └─BatchNorm2d: 2-3278               [16, 64, 16, 16]          --
│    └─Scaler: 2-3279                    [16, 64, 16, 16]          --
│    └─ReLU: 2-3280                      [16, 64, 16, 16]          --
│    └─Empty: 2-3281                     [16, 64, 16, 16]          --
│    └─Clamp: 2-3282                     [16, 64, 16, 16]          --
├─FusedConv2dBNReLU: 1-246               [16, 64, 16, 16]          (recursive)
│    └─OutputShiftSqueeze: 2-3283        --                        --
│    └─One: 2-3284                       [1]                       --
│    └─OutputScale: 2-3285               --                        --
│    └─Empty: 2-3286                     [64, 64, 3, 3]            --
│    └─Empty: 2-3287                     [64, 64, 3, 3]            --
│    └─Empty: 2-3288                     [64]                      --
│    └─Empty: 2-3289                     [64]                      --
│    └─BatchNorm2d: 2-3290               [16, 64, 16, 16]          --
│    └─Scaler: 2-3291                    [16, 64, 16, 16]          --
│    └─ReLU: 2-3292                      [16, 64, 16, 16]          --
│    └─Empty: 2-3293                     [16, 64, 16, 16]          --
│    └─Clamp: 2-3294                     [16, 64, 16, 16]          --
├─FusedMaxPoolConv2dBNReLU: 1-247        [16, 64, 8, 8]            (recursive)
│    └─MaxPool2d: 2-3295                 [16, 64, 8, 8]            --
│    └─Empty: 2-3296                     [16, 64, 8, 8]            --
│    └─Empty: 2-3297                     [16, 64, 8, 8]            --
│    └─OutputShiftSqueeze: 2-3298        --                        --
│    └─One: 2-3299                       [1]                       --
│    └─OutputScale: 2-3300               --                        --
│    └─Empty: 2-3301                     [64, 64, 3, 3]            --
│    └─Empty: 2-3302                     [64, 64, 3, 3]            --
│    └─Empty: 2-3303                     [64]                      --
│    └─Empty: 2-3304                     [64]                      --
│    └─BatchNorm2d: 2-3305               [16, 64, 8, 8]            --
│    └─Scaler: 2-3306                    [16, 64, 8, 8]            --
│    └─ReLU: 2-3307                      [16, 64, 8, 8]            --
│    └─Empty: 2-3308                     [16, 64, 8, 8]            --
│    └─Clamp: 2-3309                     [16, 64, 8, 8]            --
├─FusedConv2dBNReLU: 1-248               [16, 64, 8, 8]            (recursive)
│    └─OutputShiftSqueeze: 2-3310        --                        --
│    └─One: 2-3311                       [1]                       --
│    └─OutputScale: 2-3312               --                        --
│    └─Empty: 2-3313                     [64, 64, 1, 1]            --
│    └─Empty: 2-3314                     [64, 64, 1, 1]            --
│    └─Empty: 2-3315                     [64]                      --
│    └─Empty: 2-3316                     [64]                      --
│    └─BatchNorm2d: 2-3317               [16, 64, 8, 8]            --
│    └─Scaler: 2-3318                    [16, 64, 8, 8]            --
│    └─ReLU: 2-3319                      [16, 64, 8, 8]            --
│    └─Empty: 2-3320                     [16, 64, 8, 8]            --
│    └─Clamp: 2-3321                     [16, 64, 8, 8]            --
├─FusedMaxPoolConv2dBNReLU: 1-249        [16, 64, 8, 8]            (recursive)
│    └─MaxPool2d: 2-3322                 [16, 64, 8, 8]            --
│    └─Empty: 2-3323                     [16, 64, 8, 8]            --
│    └─Empty: 2-3324                     [16, 64, 8, 8]            --
│    └─OutputShiftSqueeze: 2-3325        --                        --
│    └─One: 2-3326                       [1]                       --
│    └─OutputScale: 2-3327               --                        --
│    └─Empty: 2-3328                     [64, 64, 3, 3]            --
│    └─Empty: 2-3329                     [64, 64, 3, 3]            --
│    └─Empty: 2-3330                     [64]                      --
│    └─Empty: 2-3331                     [64]                      --
│    └─BatchNorm2d: 2-3332               [16, 64, 8, 8]            --
│    └─Scaler: 2-3333                    [16, 64, 8, 8]            --
│    └─ReLU: 2-3334                      [16, 64, 8, 8]            --
│    └─Empty: 2-3335                     [16, 64, 8, 8]            --
│    └─Clamp: 2-3336                     [16, 64, 8, 8]            --
├─FusedMaxPoolConv2dBNReLU: 1-250        [16, 64, 4, 4]            (recursive)
│    └─MaxPool2d: 2-3337                 [16, 64, 4, 4]            --
│    └─Empty: 2-3338                     [16, 64, 4, 4]            --
│    └─Empty: 2-3339                     [16, 64, 4, 4]            --
│    └─OutputShiftSqueeze: 2-3340        --                        --
│    └─One: 2-3341                       [1]                       --
│    └─OutputScale: 2-3342               --                        --
│    └─Empty: 2-3343                     [64, 64, 3, 3]            --
│    └─Empty: 2-3344                     [64, 64, 3, 3]            --
│    └─Empty: 2-3345                     [64]                      --
│    └─Empty: 2-3346                     [64]                      --
│    └─BatchNorm2d: 2-3347               [16, 64, 4, 4]            --
│    └─Scaler: 2-3348                    [16, 64, 4, 4]            --
│    └─ReLU: 2-3349                      [16, 64, 4, 4]            --
│    └─Empty: 2-3350                     [16, 64, 4, 4]            --
│    └─Clamp: 2-3351                     [16, 64, 4, 4]            --
├─FusedConv2dBNReLU: 1-251               [16, 64, 4, 4]            (recursive)
│    └─OutputShiftSqueeze: 2-3352        --                        --
│    └─One: 2-3353                       [1]                       --
│    └─OutputScale: 2-3354               --                        --
│    └─Empty: 2-3355                     [64, 64, 1, 1]            --
│    └─Empty: 2-3356                     [64, 64, 1, 1]            --
│    └─Empty: 2-3357                     [64]                      --
│    └─Empty: 2-3358                     [64]                      --
│    └─BatchNorm2d: 2-3359               [16, 64, 4, 4]            --
│    └─Scaler: 2-3360                    [16, 64, 4, 4]            --
│    └─ReLU: 2-3361                      [16, 64, 4, 4]            --
│    └─Empty: 2-3362                     [16, 64, 4, 4]            --
│    └─Clamp: 2-3363                     [16, 64, 4, 4]            --
├─FusedMaxPoolConv2dBNReLU: 1-252        [16, 64, 4, 4]            (recursive)
│    └─MaxPool2d: 2-3364                 [16, 64, 4, 4]            --
│    └─Empty: 2-3365                     [16, 64, 4, 4]            --
│    └─Empty: 2-3366                     [16, 64, 4, 4]            --
│    └─OutputShiftSqueeze: 2-3367        --                        --
│    └─One: 2-3368                       [1]                       --
│    └─OutputScale: 2-3369               --                        --
│    └─Empty: 2-3370                     [64, 64, 3, 3]            --
│    └─Empty: 2-3371                     [64, 64, 3, 3]            --
│    └─Empty: 2-3372                     [64]                      --
│    └─Empty: 2-3373                     [64]                      --
│    └─BatchNorm2d: 2-3374               [16, 64, 4, 4]            --
│    └─Scaler: 2-3375                    [16, 64, 4, 4]            --
│    └─ReLU: 2-3376                      [16, 64, 4, 4]            --
│    └─Empty: 2-3377                     [16, 64, 4, 4]            --
│    └─Clamp: 2-3378                     [16, 64, 4, 4]            --
├─FusedMaxPoolConv2dBNReLU: 1-253        [16, 64, 2, 2]            (recursive)
│    └─MaxPool2d: 2-3379                 [16, 64, 2, 2]            --
│    └─Empty: 2-3380                     [16, 64, 2, 2]            --
│    └─Empty: 2-3381                     [16, 64, 2, 2]            --
│    └─OutputShiftSqueeze: 2-3382        --                        --
│    └─One: 2-3383                       [1]                       --
│    └─OutputScale: 2-3384               --                        --
│    └─Empty: 2-3385                     [64, 64, 1, 1]            --
│    └─Empty: 2-3386                     [64, 64, 1, 1]            --
│    └─Empty: 2-3387                     [64]                      --
│    └─Empty: 2-3388                     [64]                      --
│    └─BatchNorm2d: 2-3389               [16, 64, 2, 2]            --
│    └─Scaler: 2-3390                    [16, 64, 2, 2]            --
│    └─ReLU: 2-3391                      [16, 64, 2, 2]            --
│    └─Empty: 2-3392                     [16, 64, 2, 2]            --
│    └─Clamp: 2-3393                     [16, 64, 2, 2]            --
├─FusedConv2dBNReLU: 1-254               [16, 64, 2, 2]            (recursive)
│    └─OutputShiftSqueeze: 2-3394        --                        --
│    └─One: 2-3395                       [1]                       --
│    └─OutputScale: 2-3396               --                        --
│    └─Empty: 2-3397                     [64, 64, 1, 1]            --
│    └─Empty: 2-3398                     [64, 64, 1, 1]            --
│    └─Empty: 2-3399                     [64]                      --
│    └─Empty: 2-3400                     [64]                      --
│    └─BatchNorm2d: 2-3401               [16, 64, 2, 2]            --
│    └─Scaler: 2-3402                    [16, 64, 2, 2]            --
│    └─ReLU: 2-3403                      [16, 64, 2, 2]            --
│    └─Empty: 2-3404                     [16, 64, 2, 2]            --
│    └─Clamp: 2-3405                     [16, 64, 2, 2]            --
├─FusedMaxPoolConv2dBNReLU: 1-255        [16, 64, 2, 2]            (recursive)
│    └─MaxPool2d: 2-3406                 [16, 64, 2, 2]            --
│    └─Empty: 2-3407                     [16, 64, 2, 2]            --
│    └─Empty: 2-3408                     [16, 64, 2, 2]            --
│    └─OutputShiftSqueeze: 2-3409        --                        --
│    └─One: 2-3410                       [1]                       --
│    └─OutputScale: 2-3411               --                        --
│    └─Empty: 2-3412                     [64, 64, 3, 3]            --
│    └─Empty: 2-3413                     [64, 64, 3, 3]            --
│    └─Empty: 2-3414                     [64]                      --
│    └─Empty: 2-3415                     [64]                      --
│    └─BatchNorm2d: 2-3416               [16, 64, 2, 2]            --
│    └─Scaler: 2-3417                    [16, 64, 2, 2]            --
│    └─ReLU: 2-3418                      [16, 64, 2, 2]            --
│    └─Empty: 2-3419                     [16, 64, 2, 2]            --
│    └─Clamp: 2-3420                     [16, 64, 2, 2]            --
├─FusedConv2dBNReLU: 1-256               [16, 64, 64, 64]          (recursive)
│    └─OutputShiftSqueeze: 2-3421        --                        --
│    └─One: 2-3422                       [1]                       --
│    └─OutputScale: 2-3423               --                        --
│    └─Empty: 2-3424                     [64, 48, 1, 1]            --
│    └─Empty: 2-3425                     [64, 48, 1, 1]            --
│    └─Empty: 2-3426                     [64]                      --
│    └─Empty: 2-3427                     [64]                      --
│    └─BatchNorm2d: 2-3428               [16, 64, 64, 64]          --
│    └─Scaler: 2-3429                    [16, 64, 64, 64]          --
│    └─ReLU: 2-3430                      [16, 64, 64, 64]          --
│    └─Empty: 2-3431                     [16, 64, 64, 64]          --
│    └─Clamp: 2-3432                     [16, 64, 64, 64]          --
├─FusedConv2dBNReLU: 1-257               [16, 64, 64, 64]          (recursive)
│    └─OutputShiftSqueeze: 2-3433        --                        --
│    └─One: 2-3434                       [1]                       --
│    └─OutputScale: 2-3435               --                        --
│    └─Empty: 2-3436                     [64, 64, 3, 3]            --
│    └─Empty: 2-3437                     [64, 64, 3, 3]            --
│    └─Empty: 2-3438                     [64]                      --
│    └─Empty: 2-3439                     [64]                      --
│    └─BatchNorm2d: 2-3440               [16, 64, 64, 64]          --
│    └─Scaler: 2-3441                    [16, 64, 64, 64]          --
│    └─ReLU: 2-3442                      [16, 64, 64, 64]          --
│    └─Empty: 2-3443                     [16, 64, 64, 64]          --
│    └─Clamp: 2-3444                     [16, 64, 64, 64]          --
├─FusedConv2dBNReLU: 1-258               [16, 64, 64, 64]          (recursive)
│    └─OutputShiftSqueeze: 2-3445        --                        --
│    └─One: 2-3446                       [1]                       --
│    └─OutputScale: 2-3447               --                        --
│    └─Empty: 2-3448                     [64, 64, 1, 1]            --
│    └─Empty: 2-3449                     [64, 64, 1, 1]            --
│    └─Empty: 2-3450                     [64]                      --
│    └─Empty: 2-3451                     [64]                      --
│    └─BatchNorm2d: 2-3452               [16, 64, 64, 64]          --
│    └─Scaler: 2-3453                    [16, 64, 64, 64]          --
│    └─ReLU: 2-3454                      [16, 64, 64, 64]          --
│    └─Empty: 2-3455                     [16, 64, 64, 64]          --
│    └─Clamp: 2-3456                     [16, 64, 64, 64]          --
├─FusedConv2dBNReLU: 1-259               [16, 64, 64, 64]          (recursive)
│    └─OutputShiftSqueeze: 2-3457        --                        --
│    └─One: 2-3458                       [1]                       --
│    └─OutputScale: 2-3459               --                        --
│    └─Empty: 2-3460                     [64, 64, 3, 3]            --
│    └─Empty: 2-3461                     [64, 64, 3, 3]            --
│    └─Empty: 2-3462                     [64]                      --
│    └─Empty: 2-3463                     [64]                      --
│    └─BatchNorm2d: 2-3464               [16, 64, 64, 64]          --
│    └─Scaler: 2-3465                    [16, 64, 64, 64]          --
│    └─ReLU: 2-3466                      [16, 64, 64, 64]          --
│    └─Empty: 2-3467                     [16, 64, 64, 64]          --
│    └─Clamp: 2-3468                     [16, 64, 64, 64]          --
├─FusedMaxPoolConv2dBNReLU: 1-260        [16, 64, 32, 32]          (recursive)
│    └─MaxPool2d: 2-3469                 [16, 64, 32, 32]          --
│    └─Empty: 2-3470                     [16, 64, 32, 32]          --
│    └─Empty: 2-3471                     [16, 64, 32, 32]          --
│    └─OutputShiftSqueeze: 2-3472        --                        --
│    └─One: 2-3473                       [1]                       --
│    └─OutputScale: 2-3474               --                        --
│    └─Empty: 2-3475                     [64, 64, 3, 3]            --
│    └─Empty: 2-3476                     [64, 64, 3, 3]            --
│    └─Empty: 2-3477                     [64]                      --
│    └─Empty: 2-3478                     [64]                      --
│    └─BatchNorm2d: 2-3479               [16, 64, 32, 32]          --
│    └─Scaler: 2-3480                    [16, 64, 32, 32]          --
│    └─ReLU: 2-3481                      [16, 64, 32, 32]          --
│    └─Empty: 2-3482                     [16, 64, 32, 32]          --
│    └─Clamp: 2-3483                     [16, 64, 32, 32]          --
├─FusedConv2dBNReLU: 1-261               [16, 64, 32, 32]          (recursive)
│    └─OutputShiftSqueeze: 2-3484        --                        --
│    └─One: 2-3485                       [1]                       --
│    └─OutputScale: 2-3486               --                        --
│    └─Empty: 2-3487                     [64, 64, 3, 3]            --
│    └─Empty: 2-3488                     [64, 64, 3, 3]            --
│    └─Empty: 2-3489                     [64]                      --
│    └─Empty: 2-3490                     [64]                      --
│    └─BatchNorm2d: 2-3491               [16, 64, 32, 32]          --
│    └─Scaler: 2-3492                    [16, 64, 32, 32]          --
│    └─ReLU: 2-3493                      [16, 64, 32, 32]          --
│    └─Empty: 2-3494                     [16, 64, 32, 32]          --
│    └─Clamp: 2-3495                     [16, 64, 32, 32]          --
├─FusedMaxPoolConv2dBNReLU: 1-262        [16, 64, 16, 16]          (recursive)
│    └─MaxPool2d: 2-3496                 [16, 64, 16, 16]          --
│    └─Empty: 2-3497                     [16, 64, 16, 16]          --
│    └─Empty: 2-3498                     [16, 64, 16, 16]          --
│    └─OutputShiftSqueeze: 2-3499        --                        --
│    └─One: 2-3500                       [1]                       --
│    └─OutputScale: 2-3501               --                        --
│    └─Empty: 2-3502                     [64, 64, 3, 3]            --
│    └─Empty: 2-3503                     [64, 64, 3, 3]            --
│    └─Empty: 2-3504                     [64]                      --
│    └─Empty: 2-3505                     [64]                      --
│    └─BatchNorm2d: 2-3506               [16, 64, 16, 16]          --
│    └─Scaler: 2-3507                    [16, 64, 16, 16]          --
│    └─ReLU: 2-3508                      [16, 64, 16, 16]          --
│    └─Empty: 2-3509                     [16, 64, 16, 16]          --
│    └─Clamp: 2-3510                     [16, 64, 16, 16]          --
├─FusedConv2dBNReLU: 1-263               [16, 64, 16, 16]          (recursive)
│    └─OutputShiftSqueeze: 2-3511        --                        --
│    └─One: 2-3512                       [1]                       --
│    └─OutputScale: 2-3513               --                        --
│    └─Empty: 2-3514                     [64, 64, 3, 3]            --
│    └─Empty: 2-3515                     [64, 64, 3, 3]            --
│    └─Empty: 2-3516                     [64]                      --
│    └─Empty: 2-3517                     [64]                      --
│    └─BatchNorm2d: 2-3518               [16, 64, 16, 16]          --
│    └─Scaler: 2-3519                    [16, 64, 16, 16]          --
│    └─ReLU: 2-3520                      [16, 64, 16, 16]          --
│    └─Empty: 2-3521                     [16, 64, 16, 16]          --
│    └─Clamp: 2-3522                     [16, 64, 16, 16]          --
├─FusedMaxPoolConv2dBNReLU: 1-264        [16, 64, 8, 8]            (recursive)
│    └─MaxPool2d: 2-3523                 [16, 64, 8, 8]            --
│    └─Empty: 2-3524                     [16, 64, 8, 8]            --
│    └─Empty: 2-3525                     [16, 64, 8, 8]            --
│    └─OutputShiftSqueeze: 2-3526        --                        --
│    └─One: 2-3527                       [1]                       --
│    └─OutputScale: 2-3528               --                        --
│    └─Empty: 2-3529                     [64, 64, 3, 3]            --
│    └─Empty: 2-3530                     [64, 64, 3, 3]            --
│    └─Empty: 2-3531                     [64]                      --
│    └─Empty: 2-3532                     [64]                      --
│    └─BatchNorm2d: 2-3533               [16, 64, 8, 8]            --
│    └─Scaler: 2-3534                    [16, 64, 8, 8]            --
│    └─ReLU: 2-3535                      [16, 64, 8, 8]            --
│    └─Empty: 2-3536                     [16, 64, 8, 8]            --
│    └─Clamp: 2-3537                     [16, 64, 8, 8]            --
├─FusedConv2dBNReLU: 1-265               [16, 64, 8, 8]            (recursive)
│    └─OutputShiftSqueeze: 2-3538        --                        --
│    └─One: 2-3539                       [1]                       --
│    └─OutputScale: 2-3540               --                        --
│    └─Empty: 2-3541                     [64, 64, 1, 1]            --
│    └─Empty: 2-3542                     [64, 64, 1, 1]            --
│    └─Empty: 2-3543                     [64]                      --
│    └─Empty: 2-3544                     [64]                      --
│    └─BatchNorm2d: 2-3545               [16, 64, 8, 8]            --
│    └─Scaler: 2-3546                    [16, 64, 8, 8]            --
│    └─ReLU: 2-3547                      [16, 64, 8, 8]            --
│    └─Empty: 2-3548                     [16, 64, 8, 8]            --
│    └─Clamp: 2-3549                     [16, 64, 8, 8]            --
├─FusedMaxPoolConv2dBNReLU: 1-266        [16, 64, 8, 8]            (recursive)
│    └─MaxPool2d: 2-3550                 [16, 64, 8, 8]            --
│    └─Empty: 2-3551                     [16, 64, 8, 8]            --
│    └─Empty: 2-3552                     [16, 64, 8, 8]            --
│    └─OutputShiftSqueeze: 2-3553        --                        --
│    └─One: 2-3554                       [1]                       --
│    └─OutputScale: 2-3555               --                        --
│    └─Empty: 2-3556                     [64, 64, 3, 3]            --
│    └─Empty: 2-3557                     [64, 64, 3, 3]            --
│    └─Empty: 2-3558                     [64]                      --
│    └─Empty: 2-3559                     [64]                      --
│    └─BatchNorm2d: 2-3560               [16, 64, 8, 8]            --
│    └─Scaler: 2-3561                    [16, 64, 8, 8]            --
│    └─ReLU: 2-3562                      [16, 64, 8, 8]            --
│    └─Empty: 2-3563                     [16, 64, 8, 8]            --
│    └─Clamp: 2-3564                     [16, 64, 8, 8]            --
├─FusedMaxPoolConv2dBNReLU: 1-267        [16, 64, 4, 4]            (recursive)
│    └─MaxPool2d: 2-3565                 [16, 64, 4, 4]            --
│    └─Empty: 2-3566                     [16, 64, 4, 4]            --
│    └─Empty: 2-3567                     [16, 64, 4, 4]            --
│    └─OutputShiftSqueeze: 2-3568        --                        --
│    └─One: 2-3569                       [1]                       --
│    └─OutputScale: 2-3570               --                        --
│    └─Empty: 2-3571                     [64, 64, 3, 3]            --
│    └─Empty: 2-3572                     [64, 64, 3, 3]            --
│    └─Empty: 2-3573                     [64]                      --
│    └─Empty: 2-3574                     [64]                      --
│    └─BatchNorm2d: 2-3575               [16, 64, 4, 4]            --
│    └─Scaler: 2-3576                    [16, 64, 4, 4]            --
│    └─ReLU: 2-3577                      [16, 64, 4, 4]            --
│    └─Empty: 2-3578                     [16, 64, 4, 4]            --
│    └─Clamp: 2-3579                     [16, 64, 4, 4]            --
├─FusedConv2dBNReLU: 1-268               [16, 64, 4, 4]            (recursive)
│    └─OutputShiftSqueeze: 2-3580        --                        --
│    └─One: 2-3581                       [1]                       --
│    └─OutputScale: 2-3582               --                        --
│    └─Empty: 2-3583                     [64, 64, 1, 1]            --
│    └─Empty: 2-3584                     [64, 64, 1, 1]            --
│    └─Empty: 2-3585                     [64]                      --
│    └─Empty: 2-3586                     [64]                      --
│    └─BatchNorm2d: 2-3587               [16, 64, 4, 4]            --
│    └─Scaler: 2-3588                    [16, 64, 4, 4]            --
│    └─ReLU: 2-3589                      [16, 64, 4, 4]            --
│    └─Empty: 2-3590                     [16, 64, 4, 4]            --
│    └─Clamp: 2-3591                     [16, 64, 4, 4]            --
├─FusedMaxPoolConv2dBNReLU: 1-269        [16, 64, 4, 4]            (recursive)
│    └─MaxPool2d: 2-3592                 [16, 64, 4, 4]            --
│    └─Empty: 2-3593                     [16, 64, 4, 4]            --
│    └─Empty: 2-3594                     [16, 64, 4, 4]            --
│    └─OutputShiftSqueeze: 2-3595        --                        --
│    └─One: 2-3596                       [1]                       --
│    └─OutputScale: 2-3597               --                        --
│    └─Empty: 2-3598                     [64, 64, 3, 3]            --
│    └─Empty: 2-3599                     [64, 64, 3, 3]            --
│    └─Empty: 2-3600                     [64]                      --
│    └─Empty: 2-3601                     [64]                      --
│    └─BatchNorm2d: 2-3602               [16, 64, 4, 4]            --
│    └─Scaler: 2-3603                    [16, 64, 4, 4]            --
│    └─ReLU: 2-3604                      [16, 64, 4, 4]            --
│    └─Empty: 2-3605                     [16, 64, 4, 4]            --
│    └─Clamp: 2-3606                     [16, 64, 4, 4]            --
├─FusedMaxPoolConv2dBNReLU: 1-270        [16, 64, 2, 2]            (recursive)
│    └─MaxPool2d: 2-3607                 [16, 64, 2, 2]            --
│    └─Empty: 2-3608                     [16, 64, 2, 2]            --
│    └─Empty: 2-3609                     [16, 64, 2, 2]            --
│    └─OutputShiftSqueeze: 2-3610        --                        --
│    └─One: 2-3611                       [1]                       --
│    └─OutputScale: 2-3612               --                        --
│    └─Empty: 2-3613                     [64, 64, 1, 1]            --
│    └─Empty: 2-3614                     [64, 64, 1, 1]            --
│    └─Empty: 2-3615                     [64]                      --
│    └─Empty: 2-3616                     [64]                      --
│    └─BatchNorm2d: 2-3617               [16, 64, 2, 2]            --
│    └─Scaler: 2-3618                    [16, 64, 2, 2]            --
│    └─ReLU: 2-3619                      [16, 64, 2, 2]            --
│    └─Empty: 2-3620                     [16, 64, 2, 2]            --
│    └─Clamp: 2-3621                     [16, 64, 2, 2]            --
├─FusedConv2dBNReLU: 1-271               [16, 64, 2, 2]            (recursive)
│    └─OutputShiftSqueeze: 2-3622        --                        --
│    └─One: 2-3623                       [1]                       --
│    └─OutputScale: 2-3624               --                        --
│    └─Empty: 2-3625                     [64, 64, 1, 1]            --
│    └─Empty: 2-3626                     [64, 64, 1, 1]            --
│    └─Empty: 2-3627                     [64]                      --
│    └─Empty: 2-3628                     [64]                      --
│    └─BatchNorm2d: 2-3629               [16, 64, 2, 2]            --
│    └─Scaler: 2-3630                    [16, 64, 2, 2]            --
│    └─ReLU: 2-3631                      [16, 64, 2, 2]            --
│    └─Empty: 2-3632                     [16, 64, 2, 2]            --
│    └─Clamp: 2-3633                     [16, 64, 2, 2]            --
├─FusedMaxPoolConv2dBNReLU: 1-272        [16, 64, 2, 2]            (recursive)
│    └─MaxPool2d: 2-3634                 [16, 64, 2, 2]            --
│    └─Empty: 2-3635                     [16, 64, 2, 2]            --
│    └─Empty: 2-3636                     [16, 64, 2, 2]            --
│    └─OutputShiftSqueeze: 2-3637        --                        --
│    └─One: 2-3638                       [1]                       --
│    └─OutputScale: 2-3639               --                        --
│    └─Empty: 2-3640                     [64, 64, 3, 3]            --
│    └─Empty: 2-3641                     [64, 64, 3, 3]            --
│    └─Empty: 2-3642                     [64]                      --
│    └─Empty: 2-3643                     [64]                      --
│    └─BatchNorm2d: 2-3644               [16, 64, 2, 2]            --
│    └─Scaler: 2-3645                    [16, 64, 2, 2]            --
│    └─ReLU: 2-3646                      [16, 64, 2, 2]            --
│    └─Empty: 2-3647                     [16, 64, 2, 2]            --
│    └─Clamp: 2-3648                     [16, 64, 2, 2]            --
├─FusedConv1dBNReLU: 1-273               [16, 64, 12]              81,990
│    └─OutputShiftSqueeze: 2-3649        --                        --
│    └─One: 2-3650                       [1]                       --
│    └─OutputScale: 2-3651               --                        --
│    └─Empty: 2-3652                     [64, 256, 5]              --
│    └─Empty: 2-3653                     [64, 256, 5]              --
│    └─Empty: 2-3654                     [64]                      --
│    └─Empty: 2-3655                     [64]                      --
│    └─BatchNorm1d: 2-3656               [16, 64, 12]              --
│    └─Scaler: 2-3657                    [16, 64, 12]              --
│    └─ReLU: 2-3658                      [16, 64, 12]              --
│    └─Empty: 2-3659                     [16, 64, 12]              --
│    └─Clamp: 2-3660                     [16, 64, 12]              --
├─FusedConv1dBNReLU: 1-274               [16, 64, 8]               20,550
│    └─OutputShiftSqueeze: 2-3661        --                        --
│    └─One: 2-3662                       [1]                       --
│    └─OutputScale: 2-3663               --                        --
│    └─Empty: 2-3664                     [64, 64, 5]               --
│    └─Empty: 2-3665                     [64, 64, 5]               --
│    └─Empty: 2-3666                     [64]                      --
│    └─Empty: 2-3667                     [64]                      --
│    └─BatchNorm1d: 2-3668               [16, 64, 8]               --
│    └─Scaler: 2-3669                    [16, 64, 8]               --
│    └─ReLU: 2-3670                      [16, 64, 8]               --
│    └─Empty: 2-3671                     [16, 64, 8]               --
│    └─Clamp: 2-3672                     [16, 64, 8]               --
├─FusedConv1dBNReLU: 1-275               [16, 64, 4]               20,550
│    └─OutputShiftSqueeze: 2-3673        --                        --
│    └─One: 2-3674                       [1]                       --
│    └─OutputScale: 2-3675               --                        --
│    └─Empty: 2-3676                     [64, 64, 5]               --
│    └─Empty: 2-3677                     [64, 64, 5]               --
│    └─Empty: 2-3678                     [64]                      --
│    └─Empty: 2-3679                     [64]                      --
│    └─BatchNorm1d: 2-3680               [16, 64, 4]               --
│    └─Scaler: 2-3681                    [16, 64, 4]               --
│    └─ReLU: 2-3682                      [16, 64, 4]               --
│    └─Empty: 2-3683                     [16, 64, 4]               --
│    └─Clamp: 2-3684                     [16, 64, 4]               --
├─FusedConv1dBNReLU: 1-276               [16, 64, 2]               12,358
│    └─OutputShiftSqueeze: 2-3685        --                        --
│    └─One: 2-3686                       [1]                       --
│    └─OutputScale: 2-3687               --                        --
│    └─Empty: 2-3688                     [64, 64, 3]               --
│    └─Empty: 2-3689                     [64, 64, 3]               --
│    └─Empty: 2-3690                     [64]                      --
│    └─Empty: 2-3691                     [64]                      --
│    └─BatchNorm1d: 2-3692               [16, 64, 2]               --
│    └─Scaler: 2-3693                    [16, 64, 2]               --
│    └─ReLU: 2-3694                      [16, 64, 2]               --
│    └─Empty: 2-3695                     [16, 64, 2]               --
│    └─Clamp: 2-3696                     [16, 64, 2]               --
├─FusedConv1dBNReLU: 1-277               [16, 64, 12]              49,222
│    └─OutputShiftSqueeze: 2-3697        --                        --
│    └─One: 2-3698                       [1]                       --
│    └─OutputScale: 2-3699               --                        --
│    └─Empty: 2-3700                     [64, 256, 3]              --
│    └─Empty: 2-3701                     [64, 256, 3]              --
│    └─Empty: 2-3702                     [64]                      --
│    └─Empty: 2-3703                     [64]                      --
│    └─BatchNorm1d: 2-3704               [16, 64, 12]              --
│    └─Scaler: 2-3705                    [16, 64, 12]              --
│    └─ReLU: 2-3706                      [16, 64, 12]              --
│    └─Empty: 2-3707                     [16, 64, 12]              --
│    └─Clamp: 2-3708                     [16, 64, 12]              --
├─FusedConv1dBNReLU: 1-278               [16, 64, 8]               12,358
│    └─OutputShiftSqueeze: 2-3709        --                        --
│    └─One: 2-3710                       [1]                       --
│    └─OutputScale: 2-3711               --                        --
│    └─Empty: 2-3712                     [64, 64, 3]               --
│    └─Empty: 2-3713                     [64, 64, 3]               --
│    └─Empty: 2-3714                     [64]                      --
│    └─Empty: 2-3715                     [64]                      --
│    └─BatchNorm1d: 2-3716               [16, 64, 8]               --
│    └─Scaler: 2-3717                    [16, 64, 8]               --
│    └─ReLU: 2-3718                      [16, 64, 8]               --
│    └─Empty: 2-3719                     [16, 64, 8]               --
│    └─Clamp: 2-3720                     [16, 64, 8]               --
├─FusedConv1dBNReLU: 1-279               [16, 64, 4]               12,358
│    └─OutputShiftSqueeze: 2-3721        --                        --
│    └─One: 2-3722                       [1]                       --
│    └─OutputScale: 2-3723               --                        --
│    └─Empty: 2-3724                     [64, 64, 3]               --
│    └─Empty: 2-3725                     [64, 64, 3]               --
│    └─Empty: 2-3726                     [64]                      --
│    └─Empty: 2-3727                     [64]                      --
│    └─BatchNorm1d: 2-3728               [16, 64, 4]               --
│    └─Scaler: 2-3729                    [16, 64, 4]               --
│    └─ReLU: 2-3730                      [16, 64, 4]               --
│    └─Empty: 2-3731                     [16, 64, 4]               --
│    └─Clamp: 2-3732                     [16, 64, 4]               --
├─FusedConv1dBNReLU: 1-280               [16, 64, 2]               12,358
│    └─OutputShiftSqueeze: 2-3733        --                        --
│    └─One: 2-3734                       [1]                       --
│    └─OutputScale: 2-3735               --                        --
│    └─Empty: 2-3736                     [64, 64, 3]               --
│    └─Empty: 2-3737                     [64, 64, 3]               --
│    └─Empty: 2-3738                     [64]                      --
│    └─Empty: 2-3739                     [64]                      --
│    └─BatchNorm1d: 2-3740               [16, 64, 2]               --
│    └─Scaler: 2-3741                    [16, 64, 2]               --
│    └─ReLU: 2-3742                      [16, 64, 2]               --
│    └─Empty: 2-3743                     [16, 64, 2]               --
│    └─Clamp: 2-3744                     [16, 64, 2]               --
├─FusedConv1dBNReLU: 1-281               [16, 64, 14]              49,222
│    └─OutputShiftSqueeze: 2-3745        --                        --
│    └─One: 2-3746                       [1]                       --
│    └─OutputScale: 2-3747               --                        --
│    └─Empty: 2-3748                     [64, 256, 3]              --
│    └─Empty: 2-3749                     [64, 256, 3]              --
│    └─Empty: 2-3750                     [64]                      --
│    └─Empty: 2-3751                     [64]                      --
│    └─BatchNorm1d: 2-3752               [16, 64, 14]              --
│    └─Scaler: 2-3753                    [16, 64, 14]              --
│    └─ReLU: 2-3754                      [16, 64, 14]              --
│    └─Empty: 2-3755                     [16, 64, 14]              --
│    └─Clamp: 2-3756                     [16, 64, 14]              --
├─FusedConv1dBNReLU: 1-282               [16, 64, 10]              12,358
│    └─OutputShiftSqueeze: 2-3757        --                        --
│    └─One: 2-3758                       [1]                       --
│    └─OutputScale: 2-3759               --                        --
│    └─Empty: 2-3760                     [64, 64, 3]               --
│    └─Empty: 2-3761                     [64, 64, 3]               --
│    └─Empty: 2-3762                     [64]                      --
│    └─Empty: 2-3763                     [64]                      --
│    └─BatchNorm1d: 2-3764               [16, 64, 10]              --
│    └─Scaler: 2-3765                    [16, 64, 10]              --
│    └─ReLU: 2-3766                      [16, 64, 10]              --
│    └─Empty: 2-3767                     [16, 64, 10]              --
│    └─Clamp: 2-3768                     [16, 64, 10]              --
├─FusedConv1dBNReLU: 1-283               [16, 64, 2]               12,358
│    └─OutputShiftSqueeze: 2-3769        --                        --
│    └─One: 2-3770                       [1]                       --
│    └─OutputScale: 2-3771               --                        --
│    └─Empty: 2-3772                     [64, 64, 3]               --
│    └─Empty: 2-3773                     [64, 64, 3]               --
│    └─Empty: 2-3774                     [64]                      --
│    └─Empty: 2-3775                     [64]                      --
│    └─BatchNorm1d: 2-3776               [16, 64, 2]               --
│    └─Scaler: 2-3777                    [16, 64, 2]               --
│    └─ReLU: 2-3778                      [16, 64, 2]               --
│    └─Empty: 2-3779                     [16, 64, 2]               --
│    └─Clamp: 2-3780                     [16, 64, 2]               --
├─FusedLinearReLU: 1-284                 [16, 32]                  4,134
│    └─OutputShiftSqueeze: 2-3781        --                        --
│    └─One: 2-3782                       [1]                       --
│    └─OutputScale: 2-3783               --                        --
│    └─Empty: 2-3784                     [32, 128]                 --
│    └─Empty: 2-3785                     [32, 128]                 --
│    └─Empty: 2-3786                     [32]                      --
│    └─Empty: 2-3787                     [32]                      --
│    └─Scaler: 2-3788                    [16, 32]                  --
│    └─ReLU: 2-3789                      [16, 32]                  --
│    └─Empty: 2-3790                     [16, 32]                  --
│    └─Clamp: 2-3791                     [16, 32]                  --
├─Linear: 1-285                          [16, 5]                   166
│    └─OutputShiftSqueeze: 2-3792        --                        --
│    └─One: 2-3793                       [1]                       --
│    └─OutputScale: 2-3794               --                        --
│    └─Empty: 2-3795                     [5, 32]                   --
│    └─Empty: 2-3796                     [5, 32]                   --
│    └─Empty: 2-3797                     [16, 5]                   --
│    └─Empty: 2-3798                     [16, 5]                   --
│    └─Clamp: 2-3799                     [16, 5]                   --
==========================================================================================
Total params: 730,228
Trainable params: 730,048
Non-trainable params: 180
Total mult-adds (M): 0.00
==========================================================================================
Input size (MB): 201.33
Forward/backward pass size (MB): 0.00
Params size (MB): 0.00
Estimated Total Size (MB): 201.33
…
