…
I - Batch size:  8  tensor shape:  torch.Size([48, 48, 64, 64])  data min-max:  tensor(-1.) tensor(0.9922)
I - Label min-max:  tensor(0) tensor(4) data number in dataset:  tensor([2754, 1585, 3092,  585, 2205, 2431, 2364, 4030])
I - Initializing model TCNv7
I - Number of Model Parameters: 853849
I - Model output shape:  torch.Size([5, 8, 5, 48])
I - Model summary
==========================================================================================
Layer (type:depth-idx)                   Output Shape              Param #
==========================================================================================
TCNv7                                    [5, 8, 5, 48]             --
FusedConv2dBNReLU: 1-1                 [8, 64, 64, 64]           3,142
    OutputShiftSqueeze: 2-1           --                        --
    One: 2-2                          [1]                       --
    OutputScale: 2-3                  --                        --
    Empty: 2-4                        [64, 48, 1, 1]            --
    Empty: 2-5                        [64, 48, 1, 1]            --
    Empty: 2-6                        [64]                      --
    Empty: 2-7                        [64]                      --
    BatchNorm2d: 2-8                  [8, 64, 64, 64]           --
    Scaler: 2-9                       [8, 64, 64, 64]           --
    ReLU: 2-10                        [8, 64, 64, 64]           --
    Empty: 2-11                       [8, 64, 64, 64]           --
    Clamp: 2-12                       [8, 64, 64, 64]           --
FusedConv2dBNReLU: 1-2                 [8, 64, 64, 64]           36,934
    OutputShiftSqueeze: 2-13          --                        --
    One: 2-14                         [1]                       --
    OutputScale: 2-15                 --                        --
    Empty: 2-16                       [64, 64, 3, 3]            --
    Empty: 2-17                       [64, 64, 3, 3]            --
    Empty: 2-18                       [64]                      --
    Empty: 2-19                       [64]                      --
    BatchNorm2d: 2-20                 [8, 64, 64, 64]           --
    Scaler: 2-21                      [8, 64, 64, 64]           --
    ReLU: 2-22                        [8, 64, 64, 64]           --
    Empty: 2-23                       [8, 64, 64, 64]           --
    Clamp: 2-24                       [8, 64, 64, 64]           --
FusedConv2dBNReLU: 1-3                 [8, 64, 64, 64]           36,934
    OutputShiftSqueeze: 2-25          --                        --
    One: 2-26                         [1]                       --
    OutputScale: 2-27                 --                        --
    Empty: 2-28                       [64, 64, 3, 3]            --
    Empty: 2-29                       [64, 64, 3, 3]            --
    Empty: 2-30                       [64]                      --
    Empty: 2-31                       [64]                      --
    BatchNorm2d: 2-32                 [8, 64, 64, 64]           --
    Scaler: 2-33                      [8, 64, 64, 64]           --
    ReLU: 2-34                        [8, 64, 64, 64]           --
    Empty: 2-35                       [8, 64, 64, 64]           --
    Clamp: 2-36                       [8, 64, 64, 64]           --
FusedConv2dBNReLU: 1-4                 [8, 64, 64, 64]           4,166
    OutputShiftSqueeze: 2-37          --                        --
    One: 2-38                         [1]                       --
    OutputScale: 2-39                 --                        --
    Empty: 2-40                       [64, 64, 1, 1]            --
    Empty: 2-41                       [64, 64, 1, 1]            --
    Empty: 2-42                       [64]                      --
    Empty: 2-43                       [64]                      --
    BatchNorm2d: 2-44                 [8, 64, 64, 64]           --
    Scaler: 2-45                      [8, 64, 64, 64]           --
    ReLU: 2-46                        [8, 64, 64, 64]           --
    Empty: 2-47                       [8, 64, 64, 64]           --
    Clamp: 2-48                       [8, 64, 64, 64]           --
FusedConv2dBNReLU: 1-5                 [8, 64, 64, 64]           36,934
    OutputShiftSqueeze: 2-49          --                        --
    One: 2-50                         [1]                       --
    OutputScale: 2-51                 --                        --
    Empty: 2-52                       [64, 64, 3, 3]            --
    Empty: 2-53                       [64, 64, 3, 3]            --
    Empty: 2-54                       [64]                      --
    Empty: 2-55                       [64]                      --
    BatchNorm2d: 2-56                 [8, 64, 64, 64]           --
    Scaler: 2-57                      [8, 64, 64, 64]           --
    ReLU: 2-58                        [8, 64, 64, 64]           --
    Empty: 2-59                       [8, 64, 64, 64]           --
    Clamp: 2-60                       [8, 64, 64, 64]           --
FusedConv2dBNReLU: 1-6                 [8, 64, 64, 64]           36,934
    OutputShiftSqueeze: 2-61          --                        --
    One: 2-62                         [1]                       --
    OutputScale: 2-63                 --                        --
    Empty: 2-64                       [64, 64, 3, 3]            --
    Empty: 2-65                       [64, 64, 3, 3]            --
    Empty: 2-66                       [64]                      --
    Empty: 2-67                       [64]                      --
    BatchNorm2d: 2-68                 [8, 64, 64, 64]           --
    Scaler: 2-69                      [8, 64, 64, 64]           --
    ReLU: 2-70                        [8, 64, 64, 64]           --
    Empty: 2-71                       [8, 64, 64, 64]           --
    Clamp: 2-72                       [8, 64, 64, 64]           --
FusedMaxPoolConv2dBNReLU: 1-7          [8, 64, 32, 32]           36,934
    MaxPool2d: 2-73                   [8, 64, 32, 32]           --
    Empty: 2-74                       [8, 64, 32, 32]           --
    Empty: 2-75                       [8, 64, 32, 32]           --
    OutputShiftSqueeze: 2-76          --                        --
    One: 2-77                         [1]                       --
    OutputScale: 2-78                 --                        --
    Empty: 2-79                       [64, 64, 3, 3]            --
    Empty: 2-80                       [64, 64, 3, 3]            --
    Empty: 2-81                       [64]                      --
    Empty: 2-82                       [64]                      --
    BatchNorm2d: 2-83                 [8, 64, 32, 32]           --
    Scaler: 2-84                      [8, 64, 32, 32]           --
    ReLU: 2-85                        [8, 64, 32, 32]           --
    Empty: 2-86                       [8, 64, 32, 32]           --
    Clamp: 2-87                       [8, 64, 32, 32]           --
FusedConv2dBNReLU: 1-8                 [8, 64, 32, 32]           36,934
    OutputShiftSqueeze: 2-88          --                        --
    One: 2-89                         [1]                       --
FusedMaxPoolConv2dBNReLU: 1            --                        --
    ReLU: 2-11937                     [8, 64, 32, 32]           --
FusedConv2dBNReLU: 1                   --                        --
    OutputScale: 2-91                 --                        --
    Empty: 2-92                       [64, 64, 3, 3]            --
    Empty: 2-93                       [64, 64, 3, 3]            --
    Empty: 2-94                       [64]                      --
    Empty: 2-95                       [64]                      --
    BatchNorm2d: 2-96                 [8, 64, 32, 32]           --
    Scaler: 2-97                      [8, 64, 32, 32]           --
    ReLU: 2-98                        [8, 64, 32, 32]           --
    Empty: 2-99                       [8, 64, 32, 32]           --
    Clamp: 2-100                      [8, 64, 32, 32]           --
FusedMaxPoolConv2dBNReLU: 1-9          [8, 64, 16, 16]           36,934
    MaxPool2d: 2-101                  [8, 64, 16, 16]           --
    Empty: 2-102                      [8, 64, 16, 16]           --
    Empty: 2-103                      [8, 64, 16, 16]           --
    OutputShiftSqueeze: 2-104         --                        --
    One: 2-105                        [1]                       --
    OutputScale: 2-106                --                        --
    Empty: 2-107                      [64, 64, 3, 3]            --
    Empty: 2-108                      [64, 64, 3, 3]            --
    Empty: 2-109                      [64]                      --
    Empty: 2-110                      [64]                      --
    BatchNorm2d: 2-111                [8, 64, 16, 16]           --
    Scaler: 2-112                     [8, 64, 16, 16]           --
    ReLU: 2-113                       [8, 64, 16, 16]           --
    Empty: 2-114                      [8, 64, 16, 16]           --
    Clamp: 2-115                      [8, 64, 16, 16]           --
FusedConv2dBNReLU: 1-10                [8, 64, 16, 16]           36,934
    OutputShiftSqueeze: 2-116         --                        --
    One: 2-117                        [1]                       --
    OutputScale: 2-118                --                        --
    Empty: 2-119                      [64, 64, 3, 3]            --
    Empty: 2-120                      [64, 64, 3, 3]            --
FusedMaxPoolConv2dBNReLU: 1            --                        --
    ReLU: 2-11964                     [8, 64, 16, 16]           --
FusedConv2dBNReLU: 1                   --                        --
    Empty: 2-122                      [64]                      --
    Empty: 2-123                      [64]                      --
    BatchNorm2d: 2-124                [8, 64, 16, 16]           --
    Scaler: 2-125                     [8, 64, 16, 16]           --
    ReLU: 2-126                       [8, 64, 16, 16]           --
    Empty: 2-127                      [8, 64, 16, 16]           --
    Clamp: 2-128                      [8, 64, 16, 16]           --
FusedMaxPoolConv2dBNReLU: 1-11         [8, 64, 8, 8]             36,934
    MaxPool2d: 2-129                  [8, 64, 8, 8]             --
    Empty: 2-130                      [8, 64, 8, 8]             --
    Empty: 2-131                      [8, 64, 8, 8]             --
    OutputShiftSqueeze: 2-132         --                        --
    One: 2-133                        [1]                       --
    OutputScale: 2-134                --                        --
    Empty: 2-135                      [64, 64, 3, 3]            --
    Empty: 2-136                      [64, 64, 3, 3]            --
    Empty: 2-137                      [64]                      --
    Empty: 2-138                      [64]                      --
    BatchNorm2d: 2-139                [8, 64, 8, 8]             --
    Scaler: 2-140                     [8, 64, 8, 8]             --
    ReLU: 2-141                       [8, 64, 8, 8]             --
    Empty: 2-142                      [8, 64, 8, 8]             --
    Clamp: 2-143                      [8, 64, 8, 8]             --
FusedConv2dBNReLU: 1-12                [8, 64, 8, 8]             4,166
    OutputShiftSqueeze: 2-144         --                        --
    One: 2-145                        [1]                       --
    OutputScale: 2-146                --                        --
    Empty: 2-147                      [64, 64, 1, 1]            --
    Empty: 2-148                      [64, 64, 1, 1]            --
    Empty: 2-149                      [64]                      --
    Empty: 2-150                      [64]                      --
    BatchNorm2d: 2-151                [8, 64, 8, 8]             --
FusedMaxPoolConv2dBNReLU: 1            --                        --
    ReLU: 2-11991                     [8, 64, 8, 8]             --
FusedConv2dBNReLU: 1                   --                        --
    Scaler: 2-153                     [8, 64, 8, 8]             --
    ReLU: 2-154                       [8, 64, 8, 8]             --
    Empty: 2-155                      [8, 64, 8, 8]             --
    Clamp: 2-156                      [8, 64, 8, 8]             --
FusedMaxPoolConv2dBNReLU: 1-13         [8, 64, 8, 8]             36,934
    MaxPool2d: 2-157                  [8, 64, 8, 8]             --
    Empty: 2-158                      [8, 64, 8, 8]             --
    Empty: 2-159                      [8, 64, 8, 8]             --
    OutputShiftSqueeze: 2-160         --                        --
    One: 2-161                        [1]                       --
    OutputScale: 2-162                --                        --
    Empty: 2-163                      [64, 64, 3, 3]            --
    Empty: 2-164                      [64, 64, 3, 3]            --
    Empty: 2-165                      [64]                      --
    Empty: 2-166                      [64]                      --
    BatchNorm2d: 2-167                [8, 64, 8, 8]             --
    Scaler: 2-168                     [8, 64, 8, 8]             --
    ReLU: 2-169                       [8, 64, 8, 8]             --
    Empty: 2-170                      [8, 64, 8, 8]             --
    Clamp: 2-171                      [8, 64, 8, 8]             --
FusedMaxPoolConv2dBNReLU: 1-14         [8, 64, 4, 4]             36,934
    MaxPool2d: 2-172                  [8, 64, 4, 4]             --
    Empty: 2-173                      [8, 64, 4, 4]             --
    Empty: 2-174                      [8, 64, 4, 4]             --
    OutputShiftSqueeze: 2-175         --                        --
    One: 2-176                        [1]                       --
    OutputScale: 2-177                --                        --
    Empty: 2-178                      [64, 64, 3, 3]            --
    Empty: 2-179                      [64, 64, 3, 3]            --
    Empty: 2-180                      [64]                      --
    Empty: 2-181                      [64]                      --
    BatchNorm2d: 2-182                [8, 64, 4, 4]             --
FusedMaxPoolConv2dBNReLU: 1            --                        --
    ReLU: 2-12018                     [8, 64, 8, 8]             --
FusedMaxPoolConv2dBNReLU: 1            --                        --
    Scaler: 2-184                     [8, 64, 4, 4]             --
    ReLU: 2-185                       [8, 64, 4, 4]             --
    Empty: 2-186                      [8, 64, 4, 4]             --
    Clamp: 2-187                      [8, 64, 4, 4]             --
FusedConv2dBNReLU: 1-15                [8, 64, 4, 4]             4,166
    OutputShiftSqueeze: 2-188         --                        --
    One: 2-189                        [1]                       --
    OutputScale: 2-190                --                        --
    Empty: 2-191                      [64, 64, 1, 1]            --
    Empty: 2-192                      [64, 64, 1, 1]            --
    Empty: 2-193                      [64]                      --
    Empty: 2-194                      [64]                      --
    BatchNorm2d: 2-195                [8, 64, 4, 4]             --
    Scaler: 2-196                     [8, 64, 4, 4]             --
    ReLU: 2-197                       [8, 64, 4, 4]             --
    Empty: 2-198                      [8, 64, 4, 4]             --
FusedMaxPoolConv2dBNReLU: 1            --                        --
    ReLU: 2-12033                     [8, 64, 4, 4]             --
FusedConv2dBNReLU: 1                   --                        --
    Clamp: 2-200                      [8, 64, 4, 4]             --
FusedMaxPoolConv2dBNReLU: 1-16         [8, 64, 4, 4]             36,934
    MaxPool2d: 2-201                  [8, 64, 4, 4]             --
    Empty: 2-202                      [8, 64, 4, 4]             --
    Empty: 2-203                      [8, 64, 4, 4]             --
    OutputShiftSqueeze: 2-204         --                        --
    One: 2-205                        [1]                       --
    OutputScale: 2-206                --                        --
    Empty: 2-207                      [64, 64, 3, 3]            --
    Empty: 2-208                      [64, 64, 3, 3]            --
    Empty: 2-209                      [64]                      --
    Empty: 2-210                      [64]                      --
    BatchNorm2d: 2-211                [8, 64, 4, 4]             --
    Scaler: 2-212                     [8, 64, 4, 4]             --
    ReLU: 2-213                       [8, 64, 4, 4]             --
    Empty: 2-214                      [8, 64, 4, 4]             --
    Clamp: 2-215                      [8, 64, 4, 4]             --
FusedMaxPoolConv2dBNReLU: 1-17         [8, 64, 2, 2]             4,166
    MaxPool2d: 2-216                  [8, 64, 2, 2]             --
    Empty: 2-217                      [8, 64, 2, 2]             --
    Empty: 2-218                      [8, 64, 2, 2]             --
    OutputShiftSqueeze: 2-219         --                        --
    One: 2-220                        [1]                       --
    OutputScale: 2-221                --                        --
    Empty: 2-222                      [64, 64, 1, 1]            --
    Empty: 2-223                      [64, 64, 1, 1]            --
    Empty: 2-224                      [64]                      --
    Empty: 2-225                      [64]                      --
    BatchNorm2d: 2-226                [8, 64, 2, 2]             --
    Scaler: 2-227                     [8, 64, 2, 2]             --
    ReLU: 2-228                       [8, 64, 2, 2]             --
    Empty: 2-229                      [8, 64, 2, 2]             --
FusedMaxPoolConv2dBNReLU: 1            --                        --
    ReLU: 2-12060                     [8, 64, 4, 4]             --
FusedMaxPoolConv2dBNReLU: 1            --                        --
    Clamp: 2-231                      [8, 64, 2, 2]             --
FusedConv2dBNReLU: 1-18                [8, 64, 2, 2]             4,166
    OutputShiftSqueeze: 2-232         --                        --
    One: 2-233                        [1]                       --
    OutputScale: 2-234                --                        --
    Empty: 2-235                      [64, 64, 1, 1]            --
    Empty: 2-236                      [64, 64, 1, 1]            --
    Empty: 2-237                      [64]                      --
    Empty: 2-238                      [64]                      --
    BatchNorm2d: 2-239                [8, 64, 2, 2]             --
    Scaler: 2-240                     [8, 64, 2, 2]             --
    ReLU: 2-241                       [8, 64, 2, 2]             --
    Empty: 2-242                      [8, 64, 2, 2]             --
    Clamp: 2-243                      [8, 64, 2, 2]             --
FusedMaxPoolConv2dBNReLU: 1-19         [8, 64, 2, 2]             36,934
    MaxPool2d: 2-244                  [8, 64, 2, 2]             --
FusedMaxPoolConv2dBNReLU: 1            --                        --
    ReLU: 2-12075                     [8, 64, 2, 2]             --
FusedMaxPoolConv2dBNReLU: 1            --                        --
    Empty: 2-246                      [8, 64, 2, 2]             --
    Empty: 2-247                      [8, 64, 2, 2]             --
    OutputShiftSqueeze: 2-248         --                        --
    One: 2-249                        [1]                       --
    OutputScale: 2-250                --                        --
    Empty: 2-251                      [64, 64, 3, 3]            --
    Empty: 2-252                      [64, 64, 3, 3]            --
    Empty: 2-253                      [64]                      --
    Empty: 2-254                      [64]                      --
    BatchNorm2d: 2-255                [8, 64, 2, 2]             --
    Scaler: 2-256                     [8, 64, 2, 2]             --
    ReLU: 2-257                       [8, 64, 2, 2]             --
    Empty: 2-258                      [8, 64, 2, 2]             --
    Clamp: 2-259                      [8, 64, 2, 2]             --
FusedConv2dBNReLU: 1-20                [8, 64, 64, 64]           (recursive)
    OutputShiftSqueeze: 2-260         --                        --
    One: 2-261                        [1]                       --
    OutputScale: 2-262                --                        --
    Empty: 2-263                      [64, 48, 1, 1]            --
    Empty: 2-264                      [64, 48, 1, 1]            --
    Empty: 2-265                      [64]                      --
    Empty: 2-266                      [64]                      --
    BatchNorm2d: 2-267                [8, 64, 64, 64]           --
    Scaler: 2-268                     [8, 64, 64, 64]           --
    ReLU: 2-269                       [8, 64, 64, 64]           --
    Empty: 2-270                      [8, 64, 64, 64]           --
    Clamp: 2-271                      [8, 64, 64, 64]           --
FusedConv2dBNReLU: 1-21                [8, 64, 64, 64]           (recursive)
    OutputShiftSqueeze: 2-272         --                        --
    One: 2-273                        [1]                       --
    OutputScale: 2-274                --                        --
    Empty: 2-275                      [64, 64, 3, 3]            --
FusedMaxPoolConv2dBNReLU: 1            --                        --
    ReLU: 2-12102                     [8, 64, 2, 2]             --
FusedConv2dBNReLU: 1                   --                        --
    Empty: 2-277                      [64, 64, 3, 3]            --
    Empty: 2-278                      [64]                      --
    Empty: 2-279                      [64]                      --
    BatchNorm2d: 2-280                [8, 64, 64, 64]           --
    Scaler: 2-281                     [8, 64, 64, 64]           --
    ReLU: 2-282                       [8, 64, 64, 64]           --
    Empty: 2-283                      [8, 64, 64, 64]           --
    Clamp: 2-284                      [8, 64, 64, 64]           --
FusedConv2dBNReLU: 1-22                [8, 64, 64, 64]           (recursive)
    OutputShiftSqueeze: 2-285         --                        --
    One: 2-286                        [1]                       --
    OutputScale: 2-287                --                        --
    Empty: 2-288                      [64, 64, 3, 3]            --
    Empty: 2-289                      [64, 64, 3, 3]            --
    Empty: 2-290                      [64]                      --
    Empty: 2-291                      [64]                      --
    BatchNorm2d: 2-292                [8, 64, 64, 64]           --
    Scaler: 2-293                     [8, 64, 64, 64]           --
    ReLU: 2-294                       [8, 64, 64, 64]           --
    Empty: 2-295                      [8, 64, 64, 64]           --
    Clamp: 2-296                      [8, 64, 64, 64]           --
FusedConv2dBNReLU: 1-23                [8, 64, 64, 64]           (recursive)
    OutputShiftSqueeze: 2-297         --                        --
    One: 2-298                        [1]                       --
    OutputScale: 2-299                --                        --
    Empty: 2-300                      [64, 64, 1, 1]            --
    Empty: 2-301                      [64, 64, 1, 1]            --
    Empty: 2-302                      [64]                      --
    Empty: 2-303                      [64]                      --
    BatchNorm2d: 2-304                [8, 64, 64, 64]           --
    Scaler: 2-305                     [8, 64, 64, 64]           --
    ReLU: 2-306                       [8, 64, 64, 64]           --
    Empty: 2-307                      [8, 64, 64, 64]           --
    Clamp: 2-308                      [8, 64, 64, 64]           --
FusedConv2dBNReLU: 1-24                [8, 64, 64, 64]           (recursive)
    OutputShiftSqueeze: 2-309         --                        --
    One: 2-310                        [1]                       --
    OutputScale: 2-311                --                        --
    Empty: 2-312                      [64, 64, 3, 3]            --
    Empty: 2-313                      [64, 64, 3, 3]            --
    Empty: 2-314                      [64]                      --
    Empty: 2-315                      [64]                      --
    BatchNorm2d: 2-316                [8, 64, 64, 64]           --
    Scaler: 2-317                     [8, 64, 64, 64]           --
    ReLU: 2-318                       [8, 64, 64, 64]           --
    Empty: 2-319                      [8, 64, 64, 64]           --
    Clamp: 2-320                      [8, 64, 64, 64]           --
FusedConv2dBNReLU: 1-25                [8, 64, 64, 64]           (recursive)
    OutputShiftSqueeze: 2-321         --                        --
    One: 2-322                        [1]                       --
    OutputScale: 2-323                --                        --
    Empty: 2-324                      [64, 64, 3, 3]            --
    Empty: 2-325                      [64, 64, 3, 3]            --
    Empty: 2-326                      [64]                      --
    Empty: 2-327                      [64]                      --
    BatchNorm2d: 2-328                [8, 64, 64, 64]           --
    Scaler: 2-329                     [8, 64, 64, 64]           --
    ReLU: 2-330                       [8, 64, 64, 64]           --
    Empty: 2-331                      [8, 64, 64, 64]           --
    Clamp: 2-332                      [8, 64, 64, 64]           --
FusedMaxPoolConv2dBNReLU: 1-26         [8, 64, 32, 32]           (recursive)
    MaxPool2d: 2-333                  [8, 64, 32, 32]           --
    Empty: 2-334                      [8, 64, 32, 32]           --
    Empty: 2-335                      [8, 64, 32, 32]           --
    OutputShiftSqueeze: 2-336         --                        --
    One: 2-337                        [1]                       --
    OutputScale: 2-338                --                        --
    Empty: 2-339                      [64, 64, 3, 3]            --
    Empty: 2-340                      [64, 64, 3, 3]            --
    Empty: 2-341                      [64]                      --
    Empty: 2-342                      [64]                      --
    BatchNorm2d: 2-343                [8, 64, 32, 32]           --
    Scaler: 2-344                     [8, 64, 32, 32]           --
    ReLU: 2-345                       [8, 64, 32, 32]           --
    Empty: 2-346                      [8, 64, 32, 32]           --
    Clamp: 2-347                      [8, 64, 32, 32]           --
FusedConv2dBNReLU: 1-27                [8, 64, 32, 32]           (recursive)
    OutputShiftSqueeze: 2-348         --                        --
    One: 2-349                        [1]                       --
    OutputScale: 2-350                --                        --
    Empty: 2-351                      [64, 64, 3, 3]            --
    Empty: 2-352                      [64, 64, 3, 3]            --
    Empty: 2-353                      [64]                      --
    Empty: 2-354                      [64]                      --
    BatchNorm2d: 2-355                [8, 64, 32, 32]           --
    Scaler: 2-356                     [8, 64, 32, 32]           --
    ReLU: 2-357                       [8, 64, 32, 32]           --
    Empty: 2-358                      [8, 64, 32, 32]           --
    Clamp: 2-359                      [8, 64, 32, 32]           --
FusedMaxPoolConv2dBNReLU: 1-28         [8, 64, 16, 16]           (recursive)
    MaxPool2d: 2-360                  [8, 64, 16, 16]           --
    Empty: 2-361                      [8, 64, 16, 16]           --
    Empty: 2-362                      [8, 64, 16, 16]           --
    OutputShiftSqueeze: 2-363         --                        --
    One: 2-364                        [1]                       --
    OutputScale: 2-365                --                        --
    Empty: 2-366                      [64, 64, 3, 3]            --
    Empty: 2-367                      [64, 64, 3, 3]            --
    Empty: 2-368                      [64]                      --
    Empty: 2-369                      [64]                      --
    BatchNorm2d: 2-370                [8, 64, 16, 16]           --
    Scaler: 2-371                     [8, 64, 16, 16]           --
    ReLU: 2-372                       [8, 64, 16, 16]           --
    Empty: 2-373                      [8, 64, 16, 16]           --
    Clamp: 2-374                      [8, 64, 16, 16]           --
FusedConv2dBNReLU: 1-29                [8, 64, 16, 16]           (recursive)
    OutputShiftSqueeze: 2-375         --                        --
    One: 2-376                        [1]                       --
    OutputScale: 2-377                --                        --
    Empty: 2-378                      [64, 64, 3, 3]            --
    Empty: 2-379                      [64, 64, 3, 3]            --
    Empty: 2-380                      [64]                      --
    Empty: 2-381                      [64]                      --
    BatchNorm2d: 2-382                [8, 64, 16, 16]           --
    Scaler: 2-383                     [8, 64, 16, 16]           --
    ReLU: 2-384                       [8, 64, 16, 16]           --
    Empty: 2-385                      [8, 64, 16, 16]           --
    Clamp: 2-386                      [8, 64, 16, 16]           --
FusedMaxPoolConv2dBNReLU: 1-30         [8, 64, 8, 8]             (recursive)
    MaxPool2d: 2-387                  [8, 64, 8, 8]             --
    Empty: 2-388                      [8, 64, 8, 8]             --
    Empty: 2-389                      [8, 64, 8, 8]             --
    OutputShiftSqueeze: 2-390         --                        --
    One: 2-391                        [1]                       --
    OutputScale: 2-392                --                        --
    Empty: 2-393                      [64, 64, 3, 3]            --
    Empty: 2-394                      [64, 64, 3, 3]            --
    Empty: 2-395                      [64]                      --
    Empty: 2-396                      [64]                      --
    BatchNorm2d: 2-397                [8, 64, 8, 8]             --
    Scaler: 2-398                     [8, 64, 8, 8]             --
    ReLU: 2-399                       [8, 64, 8, 8]             --
    Empty: 2-400                      [8, 64, 8, 8]             --
    Clamp: 2-401                      [8, 64, 8, 8]             --
FusedConv2dBNReLU: 1-31                [8, 64, 8, 8]             (recursive)
    OutputShiftSqueeze: 2-402         --                        --
    One: 2-403                        [1]                       --
    OutputScale: 2-404                --                        --
    Empty: 2-405                      [64, 64, 1, 1]            --
    Empty: 2-406                      [64, 64, 1, 1]            --
    Empty: 2-407                      [64]                      --
    Empty: 2-408                      [64]                      --
    BatchNorm2d: 2-409                [8, 64, 8, 8]             --
    Scaler: 2-410                     [8, 64, 8, 8]             --
    ReLU: 2-411                       [8, 64, 8, 8]             --
    Empty: 2-412                      [8, 64, 8, 8]             --
    Clamp: 2-413                      [8, 64, 8, 8]             --
FusedMaxPoolConv2dBNReLU: 1-32         [8, 64, 8, 8]             (recursive)
    MaxPool2d: 2-414                  [8, 64, 8, 8]             --
    Empty: 2-415                      [8, 64, 8, 8]             --
    Empty: 2-416                      [8, 64, 8, 8]             --
    OutputShiftSqueeze: 2-417         --                        --
    One: 2-418                        [1]                       --
    OutputScale: 2-419                --                        --
    Empty: 2-420                      [64, 64, 3, 3]            --
    Empty: 2-421                      [64, 64, 3, 3]            --
    Empty: 2-422                      [64]                      --
    Empty: 2-423                      [64]                      --
    BatchNorm2d: 2-424                [8, 64, 8, 8]             --
    Scaler: 2-425                     [8, 64, 8, 8]             --
    ReLU: 2-426                       [8, 64, 8, 8]             --
    Empty: 2-427                      [8, 64, 8, 8]             --
    Clamp: 2-428                      [8, 64, 8, 8]             --
FusedMaxPoolConv2dBNReLU: 1-33         [8, 64, 4, 4]             (recursive)
    MaxPool2d: 2-429                  [8, 64, 4, 4]             --
    Empty: 2-430                      [8, 64, 4, 4]             --
    Empty: 2-431                      [8, 64, 4, 4]             --
    OutputShiftSqueeze: 2-432         --                        --
    One: 2-433                        [1]                       --
    OutputScale: 2-434                --                        --
    Empty: 2-435                      [64, 64, 3, 3]            --
    Empty: 2-436                      [64, 64, 3, 3]            --
    Empty: 2-437                      [64]                      --
    Empty: 2-438                      [64]                      --
    BatchNorm2d: 2-439                [8, 64, 4, 4]             --
    Scaler: 2-440                     [8, 64, 4, 4]             --
    ReLU: 2-441                       [8, 64, 4, 4]             --
    Empty: 2-442                      [8, 64, 4, 4]             --
    Clamp: 2-443                      [8, 64, 4, 4]             --
FusedConv2dBNReLU: 1-34                [8, 64, 4, 4]             (recursive)
    OutputShiftSqueeze: 2-444         --                        --
    One: 2-445                        [1]                       --
    OutputScale: 2-446                --                        --
    Empty: 2-447                      [64, 64, 1, 1]            --
    Empty: 2-448                      [64, 64, 1, 1]            --
    Empty: 2-449                      [64]                      --
    Empty: 2-450                      [64]                      --
    BatchNorm2d: 2-451                [8, 64, 4, 4]             --
    Scaler: 2-452                     [8, 64, 4, 4]             --
    ReLU: 2-453                       [8, 64, 4, 4]             --
    Empty: 2-454                      [8, 64, 4, 4]             --
    Clamp: 2-455                      [8, 64, 4, 4]             --
FusedMaxPoolConv2dBNReLU: 1-35         [8, 64, 4, 4]             (recursive)
    MaxPool2d: 2-456                  [8, 64, 4, 4]             --
    Empty: 2-457                      [8, 64, 4, 4]             --
    Empty: 2-458                      [8, 64, 4, 4]             --
    OutputShiftSqueeze: 2-459         --                        --
    One: 2-460                        [1]                       --
    OutputScale: 2-461                --                        --
    Empty: 2-462                      [64, 64, 3, 3]            --
    Empty: 2-463                      [64, 64, 3, 3]            --
    Empty: 2-464                      [64]                      --
    Empty: 2-465                      [64]                      --
    BatchNorm2d: 2-466                [8, 64, 4, 4]             --
    Scaler: 2-467                     [8, 64, 4, 4]             --
    ReLU: 2-468                       [8, 64, 4, 4]             --
    Empty: 2-469                      [8, 64, 4, 4]             --
    Clamp: 2-470                      [8, 64, 4, 4]             --
FusedMaxPoolConv2dBNReLU: 1-36         [8, 64, 2, 2]             (recursive)
    MaxPool2d: 2-471                  [8, 64, 2, 2]             --
    Empty: 2-472                      [8, 64, 2, 2]             --
    Empty: 2-473                      [8, 64, 2, 2]             --
    OutputShiftSqueeze: 2-474         --                        --
    One: 2-475                        [1]                       --
    OutputScale: 2-476                --                        --
    Empty: 2-477                      [64, 64, 1, 1]            --
    Empty: 2-478                      [64, 64, 1, 1]            --
    Empty: 2-479                      [64]                      --
    Empty: 2-480                      [64]                      --
    BatchNorm2d: 2-481                [8, 64, 2, 2]             --
    Scaler: 2-482                     [8, 64, 2, 2]             --
    ReLU: 2-483                       [8, 64, 2, 2]             --
    Empty: 2-484                      [8, 64, 2, 2]             --
    Clamp: 2-485                      [8, 64, 2, 2]             --
FusedConv2dBNReLU: 1-37                [8, 64, 2, 2]             (recursive)
    OutputShiftSqueeze: 2-486         --                        --
    One: 2-487                        [1]                       --
    OutputScale: 2-488                --                        --
    Empty: 2-489                      [64, 64, 1, 1]            --
    Empty: 2-490                      [64, 64, 1, 1]            --
    Empty: 2-491                      [64]                      --
    Empty: 2-492                      [64]                      --
    BatchNorm2d: 2-493                [8, 64, 2, 2]             --
    Scaler: 2-494                     [8, 64, 2, 2]             --
    ReLU: 2-495                       [8, 64, 2, 2]             --
    Empty: 2-496                      [8, 64, 2, 2]             --
    Clamp: 2-497                      [8, 64, 2, 2]             --
FusedMaxPoolConv2dBNReLU: 1-38         [8, 64, 2, 2]             (recursive)
    MaxPool2d: 2-498                  [8, 64, 2, 2]             --
    Empty: 2-499                      [8, 64, 2, 2]             --
    Empty: 2-500                      [8, 64, 2, 2]             --
    OutputShiftSqueeze: 2-501         --                        --
    One: 2-502                        [1]                       --
    OutputScale: 2-503                --                        --
    Empty: 2-504                      [64, 64, 3, 3]            --
    Empty: 2-505                      [64, 64, 3, 3]            --
    Empty: 2-506                      [64]                      --
    Empty: 2-507                      [64]                      --
    BatchNorm2d: 2-508                [8, 64, 2, 2]             --
    Scaler: 2-509                     [8, 64, 2, 2]             --
    ReLU: 2-510                       [8, 64, 2, 2]             --
    Empty: 2-511                      [8, 64, 2, 2]             --
    Clamp: 2-512                      [8, 64, 2, 2]             --
FusedConv2dBNReLU: 1-39                [8, 64, 64, 64]           (recursive)
    OutputShiftSqueeze: 2-513         --                        --
    One: 2-514                        [1]                       --
    OutputScale: 2-515                --                        --
    Empty: 2-516                      [64, 48, 1, 1]            --
    Empty: 2-517                      [64, 48, 1, 1]            --
    Empty: 2-518                      [64]                      --
    Empty: 2-519                      [64]                      --
    BatchNorm2d: 2-520                [8, 64, 64, 64]           --
    Scaler: 2-521                     [8, 64, 64, 64]           --
    ReLU: 2-522                       [8, 64, 64, 64]           --
    Empty: 2-523                      [8, 64, 64, 64]           --
    Clamp: 2-524                      [8, 64, 64, 64]           --
FusedConv2dBNReLU: 1-40                [8, 64, 64, 64]           (recursive)
    OutputShiftSqueeze: 2-525         --                        --
    One: 2-526                        [1]                       --
    OutputScale: 2-527                --                        --
    Empty: 2-528                      [64, 64, 3, 3]            --
    Empty: 2-529                      [64, 64, 3, 3]            --
    Empty: 2-530                      [64]                      --
    Empty: 2-531                      [64]                      --
    BatchNorm2d: 2-532                [8, 64, 64, 64]           --
    Scaler: 2-533                     [8, 64, 64, 64]           --
    ReLU: 2-534                       [8, 64, 64, 64]           --
    Empty: 2-535                      [8, 64, 64, 64]           --
    Clamp: 2-536                      [8, 64, 64, 64]           --
FusedConv2dBNReLU: 1-41                [8, 64, 64, 64]           (recursive)
    OutputShiftSqueeze: 2-537         --                        --
    One: 2-538                        [1]                       --
    OutputScale: 2-539                --                        --
    Empty: 2-540                      [64, 64, 3, 3]            --
    Empty: 2-541                      [64, 64, 3, 3]            --
    Empty: 2-542                      [64]                      --
    Empty: 2-543                      [64]                      --
    BatchNorm2d: 2-544                [8, 64, 64, 64]           --
    Scaler: 2-545                     [8, 64, 64, 64]           --
    ReLU: 2-546                       [8, 64, 64, 64]           --
    Empty: 2-547                      [8, 64, 64, 64]           --
    Clamp: 2-548                      [8, 64, 64, 64]           --
FusedConv2dBNReLU: 1-42                [8, 64, 64, 64]           (recursive)
    OutputShiftSqueeze: 2-549         --                        --
    One: 2-550                        [1]                       --
    OutputScale: 2-551                --                        --
    Empty: 2-552                      [64, 64, 1, 1]            --
    Empty: 2-553                      [64, 64, 1, 1]            --
    Empty: 2-554                      [64]                      --
    Empty: 2-555                      [64]                      --
    BatchNorm2d: 2-556                [8, 64, 64, 64]           --
    Scaler: 2-557                     [8, 64, 64, 64]           --
    ReLU: 2-558                       [8, 64, 64, 64]           --
    Empty: 2-559                      [8, 64, 64, 64]           --
    Clamp: 2-560                      [8, 64, 64, 64]           --
FusedConv2dBNReLU: 1-43                [8, 64, 64, 64]           (recursive)
    OutputShiftSqueeze: 2-561         --                        --
    One: 2-562                        [1]                       --
    OutputScale: 2-563                --                        --
    Empty: 2-564                      [64, 64, 3, 3]            --
    Empty: 2-565                      [64, 64, 3, 3]            --
    Empty: 2-566                      [64]                      --
    Empty: 2-567                      [64]                      --
    BatchNorm2d: 2-568                [8, 64, 64, 64]           --
    Scaler: 2-569                     [8, 64, 64, 64]           --
    ReLU: 2-570                       [8, 64, 64, 64]           --
    Empty: 2-571                      [8, 64, 64, 64]           --
    Clamp: 2-572                      [8, 64, 64, 64]           --
FusedConv2dBNReLU: 1-44                [8, 64, 64, 64]           (recursive)
    OutputShiftSqueeze: 2-573         --                        --
    One: 2-574                        [1]                       --
    OutputScale: 2-575                --                        --
    Empty: 2-576                      [64, 64, 3, 3]            --
    Empty: 2-577                      [64, 64, 3, 3]            --
    Empty: 2-578                      [64]                      --
    Empty: 2-579                      [64]                      --
    BatchNorm2d: 2-580                [8, 64, 64, 64]           --
    Scaler: 2-581                     [8, 64, 64, 64]           --
    ReLU: 2-582                       [8, 64, 64, 64]           --
    Empty: 2-583                      [8, 64, 64, 64]           --
    Clamp: 2-584                      [8, 64, 64, 64]           --
FusedMaxPoolConv2dBNReLU: 1-45         [8, 64, 32, 32]           (recursive)
    MaxPool2d: 2-585                  [8, 64, 32, 32]           --
    Empty: 2-586                      [8, 64, 32, 32]           --
    Empty: 2-587                      [8, 64, 32, 32]           --
    OutputShiftSqueeze: 2-588         --                        --
    One: 2-589                        [1]                       --
    OutputScale: 2-590                --                        --
    Empty: 2-591                      [64, 64, 3, 3]            --
    Empty: 2-592                      [64, 64, 3, 3]            --
    Empty: 2-593                      [64]                      --
    Empty: 2-594                      [64]                      --
    BatchNorm2d: 2-595                [8, 64, 32, 32]           --
    Scaler: 2-596                     [8, 64, 32, 32]           --
    ReLU: 2-597                       [8, 64, 32, 32]           --
    Empty: 2-598                      [8, 64, 32, 32]           --
    Clamp: 2-599                      [8, 64, 32, 32]           --
FusedConv2dBNReLU: 1-46                [8, 64, 32, 32]           (recursive)
    OutputShiftSqueeze: 2-600         --                        --
    One: 2-601                        [1]                       --
    OutputScale: 2-602                --                        --
    Empty: 2-603                      [64, 64, 3, 3]            --
    Empty: 2-604                      [64, 64, 3, 3]            --
    Empty: 2-605                      [64]                      --
    Empty: 2-606                      [64]                      --
    BatchNorm2d: 2-607                [8, 64, 32, 32]           --
    Scaler: 2-608                     [8, 64, 32, 32]           --
    ReLU: 2-609                       [8, 64, 32, 32]           --
    Empty: 2-610                      [8, 64, 32, 32]           --
    Clamp: 2-611                      [8, 64, 32, 32]           --
FusedMaxPoolConv2dBNReLU: 1-47         [8, 64, 16, 16]           (recursive)
    MaxPool2d: 2-612                  [8, 64, 16, 16]           --
    Empty: 2-613                      [8, 64, 16, 16]           --
    Empty: 2-614                      [8, 64, 16, 16]           --
    OutputShiftSqueeze: 2-615         --                        --
    One: 2-616                        [1]                       --
    OutputScale: 2-617                --                        --
    Empty: 2-618                      [64, 64, 3, 3]            --
    Empty: 2-619                      [64, 64, 3, 3]            --
    Empty: 2-620                      [64]                      --
    Empty: 2-621                      [64]                      --
    BatchNorm2d: 2-622                [8, 64, 16, 16]           --
    Scaler: 2-623                     [8, 64, 16, 16]           --
    ReLU: 2-624                       [8, 64, 16, 16]           --
    Empty: 2-625                      [8, 64, 16, 16]           --
    Clamp: 2-626                      [8, 64, 16, 16]           --
FusedConv2dBNReLU: 1-48                [8, 64, 16, 16]           (recursive)
    OutputShiftSqueeze: 2-627         --                        --
    One: 2-628                        [1]                       --
    OutputScale: 2-629                --                        --
    Empty: 2-630                      [64, 64, 3, 3]            --
    Empty: 2-631                      [64, 64, 3, 3]            --
    Empty: 2-632                      [64]                      --
    Empty: 2-633                      [64]                      --
    BatchNorm2d: 2-634                [8, 64, 16, 16]           --
    Scaler: 2-635                     [8, 64, 16, 16]           --
    ReLU: 2-636                       [8, 64, 16, 16]           --
    Empty: 2-637                      [8, 64, 16, 16]           --
    Clamp: 2-638                      [8, 64, 16, 16]           --
FusedMaxPoolConv2dBNReLU: 1-49         [8, 64, 8, 8]             (recursive)
    MaxPool2d: 2-639                  [8, 64, 8, 8]             --
    Empty: 2-640                      [8, 64, 8, 8]             --
    Empty: 2-641                      [8, 64, 8, 8]             --
    OutputShiftSqueeze: 2-642         --                        --
    One: 2-643                        [1]                       --
    OutputScale: 2-644                --                        --
    Empty: 2-645                      [64, 64, 3, 3]            --
    Empty: 2-646                      [64, 64, 3, 3]            --
    Empty: 2-647                      [64]                      --
    Empty: 2-648                      [64]                      --
    BatchNorm2d: 2-649                [8, 64, 8, 8]             --
    Scaler: 2-650                     [8, 64, 8, 8]             --
    ReLU: 2-651                       [8, 64, 8, 8]             --
    Empty: 2-652                      [8, 64, 8, 8]             --
    Clamp: 2-653                      [8, 64, 8, 8]             --
FusedConv2dBNReLU: 1-50                [8, 64, 8, 8]             (recursive)
    OutputShiftSqueeze: 2-654         --                        --
    One: 2-655                        [1]                       --
    OutputScale: 2-656                --                        --
    Empty: 2-657                      [64, 64, 1, 1]            --
    Empty: 2-658                      [64, 64, 1, 1]            --
    Empty: 2-659                      [64]                      --
    Empty: 2-660                      [64]                      --
    BatchNorm2d: 2-661                [8, 64, 8, 8]             --
    Scaler: 2-662                     [8, 64, 8, 8]             --
    ReLU: 2-663                       [8, 64, 8, 8]             --
    Empty: 2-664                      [8, 64, 8, 8]             --
    Clamp: 2-665                      [8, 64, 8, 8]             --
FusedMaxPoolConv2dBNReLU: 1-51         [8, 64, 8, 8]             (recursive)
    MaxPool2d: 2-666                  [8, 64, 8, 8]             --
    Empty: 2-667                      [8, 64, 8, 8]             --
    Empty: 2-668                      [8, 64, 8, 8]             --
    OutputShiftSqueeze: 2-669         --                        --
    One: 2-670                        [1]                       --
    OutputScale: 2-671                --                        --
    Empty: 2-672                      [64, 64, 3, 3]            --
    Empty: 2-673                      [64, 64, 3, 3]            --
    Empty: 2-674                      [64]                      --
    Empty: 2-675                      [64]                      --
    BatchNorm2d: 2-676                [8, 64, 8, 8]             --
    Scaler: 2-677                     [8, 64, 8, 8]             --
    ReLU: 2-678                       [8, 64, 8, 8]             --
    Empty: 2-679                      [8, 64, 8, 8]             --
    Clamp: 2-680                      [8, 64, 8, 8]             --
FusedMaxPoolConv2dBNReLU: 1-52         [8, 64, 4, 4]             (recursive)
    MaxPool2d: 2-681                  [8, 64, 4, 4]             --
    Empty: 2-682                      [8, 64, 4, 4]             --
    Empty: 2-683                      [8, 64, 4, 4]             --
    OutputShiftSqueeze: 2-684         --                        --
    One: 2-685                        [1]                       --
    OutputScale: 2-686                --                        --
    Empty: 2-687                      [64, 64, 3, 3]            --
    Empty: 2-688                      [64, 64, 3, 3]            --
    Empty: 2-689                      [64]                      --
    Empty: 2-690                      [64]                      --
    BatchNorm2d: 2-691                [8, 64, 4, 4]             --
    Scaler: 2-692                     [8, 64, 4, 4]             --
    ReLU: 2-693                       [8, 64, 4, 4]             --
    Empty: 2-694                      [8, 64, 4, 4]             --
    Clamp: 2-695                      [8, 64, 4, 4]             --
FusedConv2dBNReLU: 1-53                [8, 64, 4, 4]             (recursive)
    OutputShiftSqueeze: 2-696         --                        --
    One: 2-697                        [1]                       --
    OutputScale: 2-698                --                        --
    Empty: 2-699                      [64, 64, 1, 1]            --
    Empty: 2-700                      [64, 64, 1, 1]            --
    Empty: 2-701                      [64]                      --
    Empty: 2-702                      [64]                      --
    BatchNorm2d: 2-703                [8, 64, 4, 4]             --
    Scaler: 2-704                     [8, 64, 4, 4]             --
    ReLU: 2-705                       [8, 64, 4, 4]             --
    Empty: 2-706                      [8, 64, 4, 4]             --
    Clamp: 2-707                      [8, 64, 4, 4]             --
FusedMaxPoolConv2dBNReLU: 1-54         [8, 64, 4, 4]             (recursive)
    MaxPool2d: 2-708                  [8, 64, 4, 4]             --
    Empty: 2-709                      [8, 64, 4, 4]             --
    Empty: 2-710                      [8, 64, 4, 4]             --
    OutputShiftSqueeze: 2-711         --                        --
    One: 2-712                        [1]                       --
    OutputScale: 2-713                --                        --
    Empty: 2-714                      [64, 64, 3, 3]            --
    Empty: 2-715                      [64, 64, 3, 3]            --
    Empty: 2-716                      [64]                      --
    Empty: 2-717                      [64]                      --
    BatchNorm2d: 2-718                [8, 64, 4, 4]             --
    Scaler: 2-719                     [8, 64, 4, 4]             --
    ReLU: 2-720                       [8, 64, 4, 4]             --
    Empty: 2-721                      [8, 64, 4, 4]             --
    Clamp: 2-722                      [8, 64, 4, 4]             --
FusedMaxPoolConv2dBNReLU: 1-55         [8, 64, 2, 2]             (recursive)
    MaxPool2d: 2-723                  [8, 64, 2, 2]             --
    Empty: 2-724                      [8, 64, 2, 2]             --
    Empty: 2-725                      [8, 64, 2, 2]             --
    OutputShiftSqueeze: 2-726         --                        --
    One: 2-727                        [1]                       --
    OutputScale: 2-728                --                        --
    Empty: 2-729                      [64, 64, 1, 1]            --
    Empty: 2-730                      [64, 64, 1, 1]            --
    Empty: 2-731                      [64]                      --
    Empty: 2-732                      [64]                      --
    BatchNorm2d: 2-733                [8, 64, 2, 2]             --
    Scaler: 2-734                     [8, 64, 2, 2]             --
    ReLU: 2-735                       [8, 64, 2, 2]             --
    Empty: 2-736                      [8, 64, 2, 2]             --
    Clamp: 2-737                      [8, 64, 2, 2]             --
FusedConv2dBNReLU: 1-56                [8, 64, 2, 2]             (recursive)
    OutputShiftSqueeze: 2-738         --                        --
    One: 2-739                        [1]                       --
    OutputScale: 2-740                --                        --
    Empty: 2-741                      [64, 64, 1, 1]            --
    Empty: 2-742                      [64, 64, 1, 1]            --
    Empty: 2-743                      [64]                      --
    Empty: 2-744                      [64]                      --
    BatchNorm2d: 2-745                [8, 64, 2, 2]             --
    Scaler: 2-746                     [8, 64, 2, 2]             --
    ReLU: 2-747                       [8, 64, 2, 2]             --
    Empty: 2-748                      [8, 64, 2, 2]             --
    Clamp: 2-749                      [8, 64, 2, 2]             --
FusedMaxPoolConv2dBNReLU: 1-57         [8, 64, 2, 2]             (recursive)
    MaxPool2d: 2-750                  [8, 64, 2, 2]             --
    Empty: 2-751                      [8, 64, 2, 2]             --
    Empty: 2-752                      [8, 64, 2, 2]             --
    OutputShiftSqueeze: 2-753         --                        --
    One: 2-754                        [1]                       --
    OutputScale: 2-755                --                        --
    Empty: 2-756                      [64, 64, 3, 3]            --
    Empty: 2-757                      [64, 64, 3, 3]            --
    Empty: 2-758                      [64]                      --
    Empty: 2-759                      [64]                      --
    BatchNorm2d: 2-760                [8, 64, 2, 2]             --
    Scaler: 2-761                     [8, 64, 2, 2]             --
    ReLU: 2-762                       [8, 64, 2, 2]             --
    Empty: 2-763                      [8, 64, 2, 2]             --
    Clamp: 2-764                      [8, 64, 2, 2]             --
FusedConv2dBNReLU: 1-58                [8, 64, 64, 64]           (recursive)
    OutputShiftSqueeze: 2-765         --                        --
    One: 2-766                        [1]                       --
    OutputScale: 2-767                --                        --
    Empty: 2-768                      [64, 48, 1, 1]            --
    Empty: 2-769                      [64, 48, 1, 1]            --
    Empty: 2-770                      [64]                      --
    Empty: 2-771                      [64]                      --
    BatchNorm2d: 2-772                [8, 64, 64, 64]           --
    Scaler: 2-773                     [8, 64, 64, 64]           --
    ReLU: 2-774                       [8, 64, 64, 64]           --
    Empty: 2-775                      [8, 64, 64, 64]           --
    Clamp: 2-776                      [8, 64, 64, 64]           --
FusedConv2dBNReLU: 1-59                [8, 64, 64, 64]           (recursive)
    OutputShiftSqueeze: 2-777         --                        --
    One: 2-778                        [1]                       --
    OutputScale: 2-779                --                        --
    Empty: 2-780                      [64, 64, 3, 3]            --
    Empty: 2-781                      [64, 64, 3, 3]            --
    Empty: 2-782                      [64]                      --
    Empty: 2-783                      [64]                      --
    BatchNorm2d: 2-784                [8, 64, 64, 64]           --
    Scaler: 2-785                     [8, 64, 64, 64]           --
    ReLU: 2-786                       [8, 64, 64, 64]           --
    Empty: 2-787                      [8, 64, 64, 64]           --
    Clamp: 2-788                      [8, 64, 64, 64]           --
FusedConv2dBNReLU: 1-60                [8, 64, 64, 64]           (recursive)
    OutputShiftSqueeze: 2-789         --                        --
    One: 2-790                        [1]                       --
    OutputScale: 2-791                --                        --
    Empty: 2-792                      [64, 64, 3, 3]            --
    Empty: 2-793                      [64, 64, 3, 3]            --
    Empty: 2-794                      [64]                      --
    Empty: 2-795                      [64]                      --
    BatchNorm2d: 2-796                [8, 64, 64, 64]           --
    Scaler: 2-797                     [8, 64, 64, 64]           --
    ReLU: 2-798                       [8, 64, 64, 64]           --
    Empty: 2-799                      [8, 64, 64, 64]           --
    Clamp: 2-800                      [8, 64, 64, 64]           --
FusedConv2dBNReLU: 1-61                [8, 64, 64, 64]           (recursive)
    OutputShiftSqueeze: 2-801         --                        --
    One: 2-802                        [1]                       --
    OutputScale: 2-803                --                        --
    Empty: 2-804                      [64, 64, 1, 1]            --
    Empty: 2-805                      [64, 64, 1, 1]            --
    Empty: 2-806                      [64]                      --
    Empty: 2-807                      [64]                      --
    BatchNorm2d: 2-808                [8, 64, 64, 64]           --
    Scaler: 2-809                     [8, 64, 64, 64]           --
    ReLU: 2-810                       [8, 64, 64, 64]           --
    Empty: 2-811                      [8, 64, 64, 64]           --
    Clamp: 2-812                      [8, 64, 64, 64]           --
FusedConv2dBNReLU: 1-62                [8, 64, 64, 64]           (recursive)
    OutputShiftSqueeze: 2-813         --                        --
    One: 2-814                        [1]                       --
    OutputScale: 2-815                --                        --
    Empty: 2-816                      [64, 64, 3, 3]            --
    Empty: 2-817                      [64, 64, 3, 3]            --
    Empty: 2-818                      [64]                      --
    Empty: 2-819                      [64]                      --
    BatchNorm2d: 2-820                [8, 64, 64, 64]           --
    Scaler: 2-821                     [8, 64, 64, 64]           --
    ReLU: 2-822                       [8, 64, 64, 64]           --
    Empty: 2-823                      [8, 64, 64, 64]           --
    Clamp: 2-824                      [8, 64, 64, 64]           --
FusedConv2dBNReLU: 1-63                [8, 64, 64, 64]           (recursive)
    OutputShiftSqueeze: 2-825         --                        --
    One: 2-826                        [1]                       --
    OutputScale: 2-827                --                        --
    Empty: 2-828                      [64, 64, 3, 3]            --
    Empty: 2-829                      [64, 64, 3, 3]            --
    Empty: 2-830                      [64]                      --
    Empty: 2-831                      [64]                      --
    BatchNorm2d: 2-832                [8, 64, 64, 64]           --
    Scaler: 2-833                     [8, 64, 64, 64]           --
    ReLU: 2-834                       [8, 64, 64, 64]           --
    Empty: 2-835                      [8, 64, 64, 64]           --
    Clamp: 2-836                      [8, 64, 64, 64]           --
FusedMaxPoolConv2dBNReLU: 1-64         [8, 64, 32, 32]           (recursive)
    MaxPool2d: 2-837                  [8, 64, 32, 32]           --
    Empty: 2-838                      [8, 64, 32, 32]           --
    Empty: 2-839                      [8, 64, 32, 32]           --
    OutputShiftSqueeze: 2-840         --                        --
    One: 2-841                        [1]                       --
    OutputScale: 2-842                --                        --
    Empty: 2-843                      [64, 64, 3, 3]            --
    Empty: 2-844                      [64, 64, 3, 3]            --
    Empty: 2-845                      [64]                      --
    Empty: 2-846                      [64]                      --
    BatchNorm2d: 2-847                [8, 64, 32, 32]           --
    Scaler: 2-848                     [8, 64, 32, 32]           --
    ReLU: 2-849                       [8, 64, 32, 32]           --
    Empty: 2-850                      [8, 64, 32, 32]           --
    Clamp: 2-851                      [8, 64, 32, 32]           --
FusedConv2dBNReLU: 1-65                [8, 64, 32, 32]           (recursive)
    OutputShiftSqueeze: 2-852         --                        --
    One: 2-853                        [1]                       --
    OutputScale: 2-854                --                        --
    Empty: 2-855                      [64, 64, 3, 3]            --
    Empty: 2-856                      [64, 64, 3, 3]            --
    Empty: 2-857                      [64]                      --
    Empty: 2-858                      [64]                      --
    BatchNorm2d: 2-859                [8, 64, 32, 32]           --
    Scaler: 2-860                     [8, 64, 32, 32]           --
    ReLU: 2-861                       [8, 64, 32, 32]           --
    Empty: 2-862                      [8, 64, 32, 32]           --
    Clamp: 2-863                      [8, 64, 32, 32]           --
FusedMaxPoolConv2dBNReLU: 1-66         [8, 64, 16, 16]           (recursive)
    MaxPool2d: 2-864                  [8, 64, 16, 16]           --
    Empty: 2-865                      [8, 64, 16, 16]           --
    Empty: 2-866                      [8, 64, 16, 16]           --
    OutputShiftSqueeze: 2-867         --                        --
    One: 2-868                        [1]                       --
    OutputScale: 2-869                --                        --
    Empty: 2-870                      [64, 64, 3, 3]            --
    Empty: 2-871                      [64, 64, 3, 3]            --
    Empty: 2-872                      [64]                      --
    Empty: 2-873                      [64]                      --
    BatchNorm2d: 2-874                [8, 64, 16, 16]           --
    Scaler: 2-875                     [8, 64, 16, 16]           --
    ReLU: 2-876                       [8, 64, 16, 16]           --
    Empty: 2-877                      [8, 64, 16, 16]           --
    Clamp: 2-878                      [8, 64, 16, 16]           --
FusedConv2dBNReLU: 1-67                [8, 64, 16, 16]           (recursive)
    OutputShiftSqueeze: 2-879         --                        --
    One: 2-880                        [1]                       --
    OutputScale: 2-881                --                        --
    Empty: 2-882                      [64, 64, 3, 3]            --
    Empty: 2-883                      [64, 64, 3, 3]            --
    Empty: 2-884                      [64]                      --
    Empty: 2-885                      [64]                      --
    BatchNorm2d: 2-886                [8, 64, 16, 16]           --
    Scaler: 2-887                     [8, 64, 16, 16]           --
    ReLU: 2-888                       [8, 64, 16, 16]           --
    Empty: 2-889                      [8, 64, 16, 16]           --
    Clamp: 2-890                      [8, 64, 16, 16]           --
FusedMaxPoolConv2dBNReLU: 1-68         [8, 64, 8, 8]             (recursive)
    MaxPool2d: 2-891                  [8, 64, 8, 8]             --
    Empty: 2-892                      [8, 64, 8, 8]             --
    Empty: 2-893                      [8, 64, 8, 8]             --
    OutputShiftSqueeze: 2-894         --                        --
    One: 2-895                        [1]                       --
    OutputScale: 2-896                --                        --
    Empty: 2-897                      [64, 64, 3, 3]            --
    Empty: 2-898                      [64, 64, 3, 3]            --
    Empty: 2-899                      [64]                      --
    Empty: 2-900                      [64]                      --
    BatchNorm2d: 2-901                [8, 64, 8, 8]             --
    Scaler: 2-902                     [8, 64, 8, 8]             --
    ReLU: 2-903                       [8, 64, 8, 8]             --
    Empty: 2-904                      [8, 64, 8, 8]             --
    Clamp: 2-905                      [8, 64, 8, 8]             --
FusedConv2dBNReLU: 1-69                [8, 64, 8, 8]             (recursive)
    OutputShiftSqueeze: 2-906         --                        --
    One: 2-907                        [1]                       --
    OutputScale: 2-908                --                        --
    Empty: 2-909                      [64, 64, 1, 1]            --
    Empty: 2-910                      [64, 64, 1, 1]            --
    Empty: 2-911                      [64]                      --
    Empty: 2-912                      [64]                      --
    BatchNorm2d: 2-913                [8, 64, 8, 8]             --
    Scaler: 2-914                     [8, 64, 8, 8]             --
    ReLU: 2-915                       [8, 64, 8, 8]             --
    Empty: 2-916                      [8, 64, 8, 8]             --
    Clamp: 2-917                      [8, 64, 8, 8]             --
FusedMaxPoolConv2dBNReLU: 1-70         [8, 64, 8, 8]             (recursive)
    MaxPool2d: 2-918                  [8, 64, 8, 8]             --
    Empty: 2-919                      [8, 64, 8, 8]             --
    Empty: 2-920                      [8, 64, 8, 8]             --
    OutputShiftSqueeze: 2-921         --                        --
    One: 2-922                        [1]                       --
    OutputScale: 2-923                --                        --
    Empty: 2-924                      [64, 64, 3, 3]            --
    Empty: 2-925                      [64, 64, 3, 3]            --
    Empty: 2-926                      [64]                      --
    Empty: 2-927                      [64]                      --
    BatchNorm2d: 2-928                [8, 64, 8, 8]             --
    Scaler: 2-929                     [8, 64, 8, 8]             --
    ReLU: 2-930                       [8, 64, 8, 8]             --
    Empty: 2-931                      [8, 64, 8, 8]             --
    Clamp: 2-932                      [8, 64, 8, 8]             --
FusedMaxPoolConv2dBNReLU: 1-71         [8, 64, 4, 4]             (recursive)
    MaxPool2d: 2-933                  [8, 64, 4, 4]             --
    Empty: 2-934                      [8, 64, 4, 4]             --
    Empty: 2-935                      [8, 64, 4, 4]             --
    OutputShiftSqueeze: 2-936         --                        --
    One: 2-937                        [1]                       --
    OutputScale: 2-938                --                        --
    Empty: 2-939                      [64, 64, 3, 3]            --
    Empty: 2-940                      [64, 64, 3, 3]            --
    Empty: 2-941                      [64]                      --
    Empty: 2-942                      [64]                      --
    BatchNorm2d: 2-943                [8, 64, 4, 4]             --
    Scaler: 2-944                     [8, 64, 4, 4]             --
    ReLU: 2-945                       [8, 64, 4, 4]             --
    Empty: 2-946                      [8, 64, 4, 4]             --
    Clamp: 2-947                      [8, 64, 4, 4]             --
FusedConv2dBNReLU: 1-72                [8, 64, 4, 4]             (recursive)
    OutputShiftSqueeze: 2-948         --                        --
    One: 2-949                        [1]                       --
    OutputScale: 2-950                --                        --
    Empty: 2-951                      [64, 64, 1, 1]            --
    Empty: 2-952                      [64, 64, 1, 1]            --
    Empty: 2-953                      [64]                      --
    Empty: 2-954                      [64]                      --
    BatchNorm2d: 2-955                [8, 64, 4, 4]             --
    Scaler: 2-956                     [8, 64, 4, 4]             --
    ReLU: 2-957                       [8, 64, 4, 4]             --
    Empty: 2-958                      [8, 64, 4, 4]             --
    Clamp: 2-959                      [8, 64, 4, 4]             --
FusedMaxPoolConv2dBNReLU: 1-73         [8, 64, 4, 4]             (recursive)
    MaxPool2d: 2-960                  [8, 64, 4, 4]             --
    Empty: 2-961                      [8, 64, 4, 4]             --
    Empty: 2-962                      [8, 64, 4, 4]             --
    OutputShiftSqueeze: 2-963         --                        --
    One: 2-964                        [1]                       --
    OutputScale: 2-965                --                        --
    Empty: 2-966                      [64, 64, 3, 3]            --
    Empty: 2-967                      [64, 64, 3, 3]            --
    Empty: 2-968                      [64]                      --
    Empty: 2-969                      [64]                      --
    BatchNorm2d: 2-970                [8, 64, 4, 4]             --
    Scaler: 2-971                     [8, 64, 4, 4]             --
    ReLU: 2-972                       [8, 64, 4, 4]             --
    Empty: 2-973                      [8, 64, 4, 4]             --
    Clamp: 2-974                      [8, 64, 4, 4]             --
FusedMaxPoolConv2dBNReLU: 1-74         [8, 64, 2, 2]             (recursive)
    MaxPool2d: 2-975                  [8, 64, 2, 2]             --
    Empty: 2-976                      [8, 64, 2, 2]             --
    Empty: 2-977                      [8, 64, 2, 2]             --
    OutputShiftSqueeze: 2-978         --                        --
    One: 2-979                        [1]                       --
    OutputScale: 2-980                --                        --
    Empty: 2-981                      [64, 64, 1, 1]            --
    Empty: 2-982                      [64, 64, 1, 1]            --
    Empty: 2-983                      [64]                      --
    Empty: 2-984                      [64]                      --
    BatchNorm2d: 2-985                [8, 64, 2, 2]             --
    Scaler: 2-986                     [8, 64, 2, 2]             --
    ReLU: 2-987                       [8, 64, 2, 2]             --
    Empty: 2-988                      [8, 64, 2, 2]             --
    Clamp: 2-989                      [8, 64, 2, 2]             --
FusedConv2dBNReLU: 1-75                [8, 64, 2, 2]             (recursive)
    OutputShiftSqueeze: 2-990         --                        --
    One: 2-991                        [1]                       --
    OutputScale: 2-992                --                        --
    Empty: 2-993                      [64, 64, 1, 1]            --
    Empty: 2-994                      [64, 64, 1, 1]            --
    Empty: 2-995                      [64]                      --
    Empty: 2-996                      [64]                      --
    BatchNorm2d: 2-997                [8, 64, 2, 2]             --
    Scaler: 2-998                     [8, 64, 2, 2]             --
    ReLU: 2-999                       [8, 64, 2, 2]             --
    Empty: 2-1000                     [8, 64, 2, 2]             --
    Clamp: 2-1001                     [8, 64, 2, 2]             --
FusedMaxPoolConv2dBNReLU: 1-76         [8, 64, 2, 2]             (recursive)
    MaxPool2d: 2-1002                 [8, 64, 2, 2]             --
    Empty: 2-1003                     [8, 64, 2, 2]             --
    Empty: 2-1004                     [8, 64, 2, 2]             --
    OutputShiftSqueeze: 2-1005        --                        --
    One: 2-1006                       [1]                       --
    OutputScale: 2-1007               --                        --
    Empty: 2-1008                     [64, 64, 3, 3]            --
    Empty: 2-1009                     [64, 64, 3, 3]            --
    Empty: 2-1010                     [64]                      --
    Empty: 2-1011                     [64]                      --
    BatchNorm2d: 2-1012               [8, 64, 2, 2]             --
    Scaler: 2-1013                    [8, 64, 2, 2]             --
    ReLU: 2-1014                      [8, 64, 2, 2]             --
    Empty: 2-1015                     [8, 64, 2, 2]             --
    Clamp: 2-1016                     [8, 64, 2, 2]             --
FusedConv2dBNReLU: 1-77                [8, 64, 64, 64]           (recursive)
    OutputShiftSqueeze: 2-1017        --                        --
    One: 2-1018                       [1]                       --
    OutputScale: 2-1019               --                        --
    Empty: 2-1020                     [64, 48, 1, 1]            --
    Empty: 2-1021                     [64, 48, 1, 1]            --
    Empty: 2-1022                     [64]                      --
    Empty: 2-1023                     [64]                      --
    BatchNorm2d: 2-1024               [8, 64, 64, 64]           --
    Scaler: 2-1025                    [8, 64, 64, 64]           --
    ReLU: 2-1026                      [8, 64, 64, 64]           --
    Empty: 2-1027                     [8, 64, 64, 64]           --
    Clamp: 2-1028                     [8, 64, 64, 64]           --
FusedConv2dBNReLU: 1-78                [8, 64, 64, 64]           (recursive)
    OutputShiftSqueeze: 2-1029        --                        --
    One: 2-1030                       [1]                       --
    OutputScale: 2-1031               --                        --
    Empty: 2-1032                     [64, 64, 3, 3]            --
    Empty: 2-1033                     [64, 64, 3, 3]            --
    Empty: 2-1034                     [64]                      --
    Empty: 2-1035                     [64]                      --
    BatchNorm2d: 2-1036               [8, 64, 64, 64]           --
    Scaler: 2-1037                    [8, 64, 64, 64]           --
    ReLU: 2-1038                      [8, 64, 64, 64]           --
    Empty: 2-1039                     [8, 64, 64, 64]           --
    Clamp: 2-1040                     [8, 64, 64, 64]           --
FusedConv2dBNReLU: 1-79                [8, 64, 64, 64]           (recursive)
    OutputShiftSqueeze: 2-1041        --                        --
    One: 2-1042                       [1]                       --
    OutputScale: 2-1043               --                        --
    Empty: 2-1044                     [64, 64, 3, 3]            --
    Empty: 2-1045                     [64, 64, 3, 3]            --
    Empty: 2-1046                     [64]                      --
    Empty: 2-1047                     [64]                      --
    BatchNorm2d: 2-1048               [8, 64, 64, 64]           --
    Scaler: 2-1049                    [8, 64, 64, 64]           --
    ReLU: 2-1050                      [8, 64, 64, 64]           --
    Empty: 2-1051                     [8, 64, 64, 64]           --
    Clamp: 2-1052                     [8, 64, 64, 64]           --
FusedConv2dBNReLU: 1-80                [8, 64, 64, 64]           (recursive)
    OutputShiftSqueeze: 2-1053        --                        --
    One: 2-1054                       [1]                       --
    OutputScale: 2-1055               --                        --
    Empty: 2-1056                     [64, 64, 1, 1]            --
    Empty: 2-1057                     [64, 64, 1, 1]            --
    Empty: 2-1058                     [64]                      --
    Empty: 2-1059                     [64]                      --
    BatchNorm2d: 2-1060               [8, 64, 64, 64]           --
    Scaler: 2-1061                    [8, 64, 64, 64]           --
    ReLU: 2-1062                      [8, 64, 64, 64]           --
    Empty: 2-1063                     [8, 64, 64, 64]           --
    Clamp: 2-1064                     [8, 64, 64, 64]           --
FusedConv2dBNReLU: 1-81                [8, 64, 64, 64]           (recursive)
    OutputShiftSqueeze: 2-1065        --                        --
    One: 2-1066                       [1]                       --
    OutputScale: 2-1067               --                        --
    Empty: 2-1068                     [64, 64, 3, 3]            --
    Empty: 2-1069                     [64, 64, 3, 3]            --
    Empty: 2-1070                     [64]                      --
    Empty: 2-1071                     [64]                      --
    BatchNorm2d: 2-1072               [8, 64, 64, 64]           --
    Scaler: 2-1073                    [8, 64, 64, 64]           --
    ReLU: 2-1074                      [8, 64, 64, 64]           --
    Empty: 2-1075                     [8, 64, 64, 64]           --
    Clamp: 2-1076                     [8, 64, 64, 64]           --
FusedConv2dBNReLU: 1-82                [8, 64, 64, 64]           (recursive)
    OutputShiftSqueeze: 2-1077        --                        --
    One: 2-1078                       [1]                       --
    OutputScale: 2-1079               --                        --
    Empty: 2-1080                     [64, 64, 3, 3]            --
    Empty: 2-1081                     [64, 64, 3, 3]            --
    Empty: 2-1082                     [64]                      --
    Empty: 2-1083                     [64]                      --
    BatchNorm2d: 2-1084               [8, 64, 64, 64]           --
    Scaler: 2-1085                    [8, 64, 64, 64]           --
    ReLU: 2-1086                      [8, 64, 64, 64]           --
    Empty: 2-1087                     [8, 64, 64, 64]           --
    Clamp: 2-1088                     [8, 64, 64, 64]           --
FusedMaxPoolConv2dBNReLU: 1-83         [8, 64, 32, 32]           (recursive)
    MaxPool2d: 2-1089                 [8, 64, 32, 32]           --
    Empty: 2-1090                     [8, 64, 32, 32]           --
    Empty: 2-1091                     [8, 64, 32, 32]           --
    OutputShiftSqueeze: 2-1092        --                        --
    One: 2-1093                       [1]                       --
    OutputScale: 2-1094               --                        --
    Empty: 2-1095                     [64, 64, 3, 3]            --
    Empty: 2-1096                     [64, 64, 3, 3]            --
    Empty: 2-1097                     [64]                      --
    Empty: 2-1098                     [64]                      --
    BatchNorm2d: 2-1099               [8, 64, 32, 32]           --
    Scaler: 2-1100                    [8, 64, 32, 32]           --
    ReLU: 2-1101                      [8, 64, 32, 32]           --
    Empty: 2-1102                     [8, 64, 32, 32]           --
    Clamp: 2-1103                     [8, 64, 32, 32]           --
FusedConv2dBNReLU: 1-84                [8, 64, 32, 32]           (recursive)
    OutputShiftSqueeze: 2-1104        --                        --
    One: 2-1105                       [1]                       --
    OutputScale: 2-1106               --                        --
    Empty: 2-1107                     [64, 64, 3, 3]            --
    Empty: 2-1108                     [64, 64, 3, 3]            --
    Empty: 2-1109                     [64]                      --
    Empty: 2-1110                     [64]                      --
    BatchNorm2d: 2-1111               [8, 64, 32, 32]           --
    Scaler: 2-1112                    [8, 64, 32, 32]           --
    ReLU: 2-1113                      [8, 64, 32, 32]           --
    Empty: 2-1114                     [8, 64, 32, 32]           --
    Clamp: 2-1115                     [8, 64, 32, 32]           --
FusedMaxPoolConv2dBNReLU: 1-85         [8, 64, 16, 16]           (recursive)
    MaxPool2d: 2-1116                 [8, 64, 16, 16]           --
    Empty: 2-1117                     [8, 64, 16, 16]           --
    Empty: 2-1118                     [8, 64, 16, 16]           --
    OutputShiftSqueeze: 2-1119        --                        --
    One: 2-1120                       [1]                       --
    OutputScale: 2-1121               --                        --
    Empty: 2-1122                     [64, 64, 3, 3]            --
    Empty: 2-1123                     [64, 64, 3, 3]            --
    Empty: 2-1124                     [64]                      --
    Empty: 2-1125                     [64]                      --
    BatchNorm2d: 2-1126               [8, 64, 16, 16]           --
    Scaler: 2-1127                    [8, 64, 16, 16]           --
    ReLU: 2-1128                      [8, 64, 16, 16]           --
    Empty: 2-1129                     [8, 64, 16, 16]           --
    Clamp: 2-1130                     [8, 64, 16, 16]           --
FusedConv2dBNReLU: 1-86                [8, 64, 16, 16]           (recursive)
    OutputShiftSqueeze: 2-1131        --                        --
    One: 2-1132                       [1]                       --
    OutputScale: 2-1133               --                        --
    Empty: 2-1134                     [64, 64, 3, 3]            --
    Empty: 2-1135                     [64, 64, 3, 3]            --
    Empty: 2-1136                     [64]                      --
    Empty: 2-1137                     [64]                      --
    BatchNorm2d: 2-1138               [8, 64, 16, 16]           --
    Scaler: 2-1139                    [8, 64, 16, 16]           --
    ReLU: 2-1140                      [8, 64, 16, 16]           --
    Empty: 2-1141                     [8, 64, 16, 16]           --
    Clamp: 2-1142                     [8, 64, 16, 16]           --
FusedMaxPoolConv2dBNReLU: 1-87         [8, 64, 8, 8]             (recursive)
    MaxPool2d: 2-1143                 [8, 64, 8, 8]             --
    Empty: 2-1144                     [8, 64, 8, 8]             --
    Empty: 2-1145                     [8, 64, 8, 8]             --
    OutputShiftSqueeze: 2-1146        --                        --
    One: 2-1147                       [1]                       --
    OutputScale: 2-1148               --                        --
    Empty: 2-1149                     [64, 64, 3, 3]            --
    Empty: 2-1150                     [64, 64, 3, 3]            --
    Empty: 2-1151                     [64]                      --
    Empty: 2-1152                     [64]                      --
    BatchNorm2d: 2-1153               [8, 64, 8, 8]             --
    Scaler: 2-1154                    [8, 64, 8, 8]             --
    ReLU: 2-1155                      [8, 64, 8, 8]             --
    Empty: 2-1156                     [8, 64, 8, 8]             --
    Clamp: 2-1157                     [8, 64, 8, 8]             --
FusedConv2dBNReLU: 1-88                [8, 64, 8, 8]             (recursive)
    OutputShiftSqueeze: 2-1158        --                        --
    One: 2-1159                       [1]                       --
    OutputScale: 2-1160               --                        --
    Empty: 2-1161                     [64, 64, 1, 1]            --
    Empty: 2-1162                     [64, 64, 1, 1]            --
    Empty: 2-1163                     [64]                      --
    Empty: 2-1164                     [64]                      --
    BatchNorm2d: 2-1165               [8, 64, 8, 8]             --
    Scaler: 2-1166                    [8, 64, 8, 8]             --
    ReLU: 2-1167                      [8, 64, 8, 8]             --
    Empty: 2-1168                     [8, 64, 8, 8]             --
    Clamp: 2-1169                     [8, 64, 8, 8]             --
FusedMaxPoolConv2dBNReLU: 1-89         [8, 64, 8, 8]             (recursive)
    MaxPool2d: 2-1170                 [8, 64, 8, 8]             --
    Empty: 2-1171                     [8, 64, 8, 8]             --
    Empty: 2-1172                     [8, 64, 8, 8]             --
    OutputShiftSqueeze: 2-1173        --                        --
    One: 2-1174                       [1]                       --
    OutputScale: 2-1175               --                        --
    Empty: 2-1176                     [64, 64, 3, 3]            --
    Empty: 2-1177                     [64, 64, 3, 3]            --
    Empty: 2-1178                     [64]                      --
    Empty: 2-1179                     [64]                      --
    BatchNorm2d: 2-1180               [8, 64, 8, 8]             --
    Scaler: 2-1181                    [8, 64, 8, 8]             --
    ReLU: 2-1182                      [8, 64, 8, 8]             --
    Empty: 2-1183                     [8, 64, 8, 8]             --
    Clamp: 2-1184                     [8, 64, 8, 8]             --
FusedMaxPoolConv2dBNReLU: 1-90         [8, 64, 4, 4]             (recursive)
    MaxPool2d: 2-1185                 [8, 64, 4, 4]             --
    Empty: 2-1186                     [8, 64, 4, 4]             --
    Empty: 2-1187                     [8, 64, 4, 4]             --
    OutputShiftSqueeze: 2-1188        --                        --
    One: 2-1189                       [1]                       --
    OutputScale: 2-1190               --                        --
    Empty: 2-1191                     [64, 64, 3, 3]            --
    Empty: 2-1192                     [64, 64, 3, 3]            --
    Empty: 2-1193                     [64]                      --
    Empty: 2-1194                     [64]                      --
    BatchNorm2d: 2-1195               [8, 64, 4, 4]             --
    Scaler: 2-1196                    [8, 64, 4, 4]             --
    ReLU: 2-1197                      [8, 64, 4, 4]             --
    Empty: 2-1198                     [8, 64, 4, 4]             --
    Clamp: 2-1199                     [8, 64, 4, 4]             --
FusedConv2dBNReLU: 1-91                [8, 64, 4, 4]             (recursive)
    OutputShiftSqueeze: 2-1200        --                        --
    One: 2-1201                       [1]                       --
    OutputScale: 2-1202               --                        --
    Empty: 2-1203                     [64, 64, 1, 1]            --
    Empty: 2-1204                     [64, 64, 1, 1]            --
    Empty: 2-1205                     [64]                      --
    Empty: 2-1206                     [64]                      --
    BatchNorm2d: 2-1207               [8, 64, 4, 4]             --
    Scaler: 2-1208                    [8, 64, 4, 4]             --
    ReLU: 2-1209                      [8, 64, 4, 4]             --
    Empty: 2-1210                     [8, 64, 4, 4]             --
    Clamp: 2-1211                     [8, 64, 4, 4]             --
FusedMaxPoolConv2dBNReLU: 1-92         [8, 64, 4, 4]             (recursive)
    MaxPool2d: 2-1212                 [8, 64, 4, 4]             --
    Empty: 2-1213                     [8, 64, 4, 4]             --
    Empty: 2-1214                     [8, 64, 4, 4]             --
    OutputShiftSqueeze: 2-1215        --                        --
    One: 2-1216                       [1]                       --
    OutputScale: 2-1217               --                        --
    Empty: 2-1218                     [64, 64, 3, 3]            --
    Empty: 2-1219                     [64, 64, 3, 3]            --
    Empty: 2-1220                     [64]                      --
    Empty: 2-1221                     [64]                      --
    BatchNorm2d: 2-1222               [8, 64, 4, 4]             --
    Scaler: 2-1223                    [8, 64, 4, 4]             --
    ReLU: 2-1224                      [8, 64, 4, 4]             --
    Empty: 2-1225                     [8, 64, 4, 4]             --
    Clamp: 2-1226                     [8, 64, 4, 4]             --
FusedMaxPoolConv2dBNReLU: 1-93         [8, 64, 2, 2]             (recursive)
    MaxPool2d: 2-1227                 [8, 64, 2, 2]             --
    Empty: 2-1228                     [8, 64, 2, 2]             --
    Empty: 2-1229                     [8, 64, 2, 2]             --
    OutputShiftSqueeze: 2-1230        --                        --
    One: 2-1231                       [1]                       --
    OutputScale: 2-1232               --                        --
    Empty: 2-1233                     [64, 64, 1, 1]            --
    Empty: 2-1234                     [64, 64, 1, 1]            --
    Empty: 2-1235                     [64]                      --
    Empty: 2-1236                     [64]                      --
    BatchNorm2d: 2-1237               [8, 64, 2, 2]             --
    Scaler: 2-1238                    [8, 64, 2, 2]             --
    ReLU: 2-1239                      [8, 64, 2, 2]             --
    Empty: 2-1240                     [8, 64, 2, 2]             --
    Clamp: 2-1241                     [8, 64, 2, 2]             --
FusedConv2dBNReLU: 1-94                [8, 64, 2, 2]             (recursive)
    OutputShiftSqueeze: 2-1242        --                        --
    One: 2-1243                       [1]                       --
    OutputScale: 2-1244               --                        --
    Empty: 2-1245                     [64, 64, 1, 1]            --
    Empty: 2-1246                     [64, 64, 1, 1]            --
    Empty: 2-1247                     [64]                      --
    Empty: 2-1248                     [64]                      --
    BatchNorm2d: 2-1249               [8, 64, 2, 2]             --
    Scaler: 2-1250                    [8, 64, 2, 2]             --
    ReLU: 2-1251                      [8, 64, 2, 2]             --
    Empty: 2-1252                     [8, 64, 2, 2]             --
    Clamp: 2-1253                     [8, 64, 2, 2]             --
FusedMaxPoolConv2dBNReLU: 1-95         [8, 64, 2, 2]             (recursive)
    MaxPool2d: 2-1254                 [8, 64, 2, 2]             --
    Empty: 2-1255                     [8, 64, 2, 2]             --
    Empty: 2-1256                     [8, 64, 2, 2]             --
    OutputShiftSqueeze: 2-1257        --                        --
    One: 2-1258                       [1]                       --
    OutputScale: 2-1259               --                        --
    Empty: 2-1260                     [64, 64, 3, 3]            --
    Empty: 2-1261                     [64, 64, 3, 3]            --
    Empty: 2-1262                     [64]                      --
    Empty: 2-1263                     [64]                      --
    BatchNorm2d: 2-1264               [8, 64, 2, 2]             --
    Scaler: 2-1265                    [8, 64, 2, 2]             --
    ReLU: 2-1266                      [8, 64, 2, 2]             --
    Empty: 2-1267                     [8, 64, 2, 2]             --
    Clamp: 2-1268                     [8, 64, 2, 2]             --
FusedConv2dBNReLU: 1-96                [8, 64, 64, 64]           (recursive)
    OutputShiftSqueeze: 2-1269        --                        --
    One: 2-1270                       [1]                       --
    OutputScale: 2-1271               --                        --
    Empty: 2-1272                     [64, 48, 1, 1]            --
    Empty: 2-1273                     [64, 48, 1, 1]            --
    Empty: 2-1274                     [64]                      --
    Empty: 2-1275                     [64]                      --
    BatchNorm2d: 2-1276               [8, 64, 64, 64]           --
    Scaler: 2-1277                    [8, 64, 64, 64]           --
    ReLU: 2-1278                      [8, 64, 64, 64]           --
    Empty: 2-1279                     [8, 64, 64, 64]           --
    Clamp: 2-1280                     [8, 64, 64, 64]           --
FusedConv2dBNReLU: 1-97                [8, 64, 64, 64]           (recursive)
    OutputShiftSqueeze: 2-1281        --                        --
    One: 2-1282                       [1]                       --
    OutputScale: 2-1283               --                        --
    Empty: 2-1284                     [64, 64, 3, 3]            --
    Empty: 2-1285                     [64, 64, 3, 3]            --
    Empty: 2-1286                     [64]                      --
    Empty: 2-1287                     [64]                      --
    BatchNorm2d: 2-1288               [8, 64, 64, 64]           --
    Scaler: 2-1289                    [8, 64, 64, 64]           --
    ReLU: 2-1290                      [8, 64, 64, 64]           --
    Empty: 2-1291                     [8, 64, 64, 64]           --
    Clamp: 2-1292                     [8, 64, 64, 64]           --
FusedConv2dBNReLU: 1-98                [8, 64, 64, 64]           (recursive)
    OutputShiftSqueeze: 2-1293        --                        --
    One: 2-1294                       [1]                       --
    OutputScale: 2-1295               --                        --
    Empty: 2-1296                     [64, 64, 3, 3]            --
    Empty: 2-1297                     [64, 64, 3, 3]            --
    Empty: 2-1298                     [64]                      --
    Empty: 2-1299                     [64]                      --
    BatchNorm2d: 2-1300               [8, 64, 64, 64]           --
    Scaler: 2-1301                    [8, 64, 64, 64]           --
    ReLU: 2-1302                      [8, 64, 64, 64]           --
    Empty: 2-1303                     [8, 64, 64, 64]           --
    Clamp: 2-1304                     [8, 64, 64, 64]           --
FusedConv2dBNReLU: 1-99                [8, 64, 64, 64]           (recursive)
    OutputShiftSqueeze: 2-1305        --                        --
    One: 2-1306                       [1]                       --
    OutputScale: 2-1307               --                        --
    Empty: 2-1308                     [64, 64, 1, 1]            --
    Empty: 2-1309                     [64, 64, 1, 1]            --
    Empty: 2-1310                     [64]                      --
    Empty: 2-1311                     [64]                      --
    BatchNorm2d: 2-1312               [8, 64, 64, 64]           --
    Scaler: 2-1313                    [8, 64, 64, 64]           --
    ReLU: 2-1314                      [8, 64, 64, 64]           --
    Empty: 2-1315                     [8, 64, 64, 64]           --
    Clamp: 2-1316                     [8, 64, 64, 64]           --
FusedConv2dBNReLU: 1-100               [8, 64, 64, 64]           (recursive)
    OutputShiftSqueeze: 2-1317        --                        --
    One: 2-1318                       [1]                       --
    OutputScale: 2-1319               --                        --
    Empty: 2-1320                     [64, 64, 3, 3]            --
    Empty: 2-1321                     [64, 64, 3, 3]            --
    Empty: 2-1322                     [64]                      --
    Empty: 2-1323                     [64]                      --
    BatchNorm2d: 2-1324               [8, 64, 64, 64]           --
    Scaler: 2-1325                    [8, 64, 64, 64]           --
    ReLU: 2-1326                      [8, 64, 64, 64]           --
    Empty: 2-1327                     [8, 64, 64, 64]           --
    Clamp: 2-1328                     [8, 64, 64, 64]           --
FusedConv2dBNReLU: 1-101               [8, 64, 64, 64]           (recursive)
    OutputShiftSqueeze: 2-1329        --                        --
    One: 2-1330                       [1]                       --
    OutputScale: 2-1331               --                        --
    Empty: 2-1332                     [64, 64, 3, 3]            --
    Empty: 2-1333                     [64, 64, 3, 3]            --
    Empty: 2-1334                     [64]                      --
    Empty: 2-1335                     [64]                      --
    BatchNorm2d: 2-1336               [8, 64, 64, 64]           --
    Scaler: 2-1337                    [8, 64, 64, 64]           --
    ReLU: 2-1338                      [8, 64, 64, 64]           --
    Empty: 2-1339                     [8, 64, 64, 64]           --
    Clamp: 2-1340                     [8, 64, 64, 64]           --
FusedMaxPoolConv2dBNReLU: 1-102        [8, 64, 32, 32]           (recursive)
    MaxPool2d: 2-1341                 [8, 64, 32, 32]           --
    Empty: 2-1342                     [8, 64, 32, 32]           --
    Empty: 2-1343                     [8, 64, 32, 32]           --
    OutputShiftSqueeze: 2-1344        --                        --
    One: 2-1345                       [1]                       --
    OutputScale: 2-1346               --                        --
    Empty: 2-1347                     [64, 64, 3, 3]            --
    Empty: 2-1348                     [64, 64, 3, 3]            --
    Empty: 2-1349                     [64]                      --
    Empty: 2-1350                     [64]                      --
    BatchNorm2d: 2-1351               [8, 64, 32, 32]           --
    Scaler: 2-1352                    [8, 64, 32, 32]           --
    ReLU: 2-1353                      [8, 64, 32, 32]           --
    Empty: 2-1354                     [8, 64, 32, 32]           --
    Clamp: 2-1355                     [8, 64, 32, 32]           --
FusedConv2dBNReLU: 1-103               [8, 64, 32, 32]           (recursive)
    OutputShiftSqueeze: 2-1356        --                        --
    One: 2-1357                       [1]                       --
    OutputScale: 2-1358               --                        --
    Empty: 2-1359                     [64, 64, 3, 3]            --
    Empty: 2-1360                     [64, 64, 3, 3]            --
    Empty: 2-1361                     [64]                      --
    Empty: 2-1362                     [64]                      --
    BatchNorm2d: 2-1363               [8, 64, 32, 32]           --
    Scaler: 2-1364                    [8, 64, 32, 32]           --
    ReLU: 2-1365                      [8, 64, 32, 32]           --
    Empty: 2-1366                     [8, 64, 32, 32]           --
    Clamp: 2-1367                     [8, 64, 32, 32]           --
FusedMaxPoolConv2dBNReLU: 1-104        [8, 64, 16, 16]           (recursive)
    MaxPool2d: 2-1368                 [8, 64, 16, 16]           --
    Empty: 2-1369                     [8, 64, 16, 16]           --
    Empty: 2-1370                     [8, 64, 16, 16]           --
    OutputShiftSqueeze: 2-1371        --                        --
    One: 2-1372                       [1]                       --
    OutputScale: 2-1373               --                        --
    Empty: 2-1374                     [64, 64, 3, 3]            --
    Empty: 2-1375                     [64, 64, 3, 3]            --
    Empty: 2-1376                     [64]                      --
    Empty: 2-1377                     [64]                      --
    BatchNorm2d: 2-1378               [8, 64, 16, 16]           --
    Scaler: 2-1379                    [8, 64, 16, 16]           --
    ReLU: 2-1380                      [8, 64, 16, 16]           --
    Empty: 2-1381                     [8, 64, 16, 16]           --
    Clamp: 2-1382                     [8, 64, 16, 16]           --
FusedConv2dBNReLU: 1-105               [8, 64, 16, 16]           (recursive)
    OutputShiftSqueeze: 2-1383        --                        --
    One: 2-1384                       [1]                       --
    OutputScale: 2-1385               --                        --
    Empty: 2-1386                     [64, 64, 3, 3]            --
    Empty: 2-1387                     [64, 64, 3, 3]            --
    Empty: 2-1388                     [64]                      --
    Empty: 2-1389                     [64]                      --
    BatchNorm2d: 2-1390               [8, 64, 16, 16]           --
    Scaler: 2-1391                    [8, 64, 16, 16]           --
    ReLU: 2-1392                      [8, 64, 16, 16]           --
    Empty: 2-1393                     [8, 64, 16, 16]           --
    Clamp: 2-1394                     [8, 64, 16, 16]           --
FusedMaxPoolConv2dBNReLU: 1-106        [8, 64, 8, 8]             (recursive)
    MaxPool2d: 2-1395                 [8, 64, 8, 8]             --
    Empty: 2-1396                     [8, 64, 8, 8]             --
    Empty: 2-1397                     [8, 64, 8, 8]             --
    OutputShiftSqueeze: 2-1398        --                        --
    One: 2-1399                       [1]                       --
    OutputScale: 2-1400               --                        --
    Empty: 2-1401                     [64, 64, 3, 3]            --
    Empty: 2-1402                     [64, 64, 3, 3]            --
    Empty: 2-1403                     [64]                      --
    Empty: 2-1404                     [64]                      --
    BatchNorm2d: 2-1405               [8, 64, 8, 8]             --
    Scaler: 2-1406                    [8, 64, 8, 8]             --
    ReLU: 2-1407                      [8, 64, 8, 8]             --
    Empty: 2-1408                     [8, 64, 8, 8]             --
    Clamp: 2-1409                     [8, 64, 8, 8]             --
FusedConv2dBNReLU: 1-107               [8, 64, 8, 8]             (recursive)
    OutputShiftSqueeze: 2-1410        --                        --
    One: 2-1411                       [1]                       --
    OutputScale: 2-1412               --                        --
    Empty: 2-1413                     [64, 64, 1, 1]            --
    Empty: 2-1414                     [64, 64, 1, 1]            --
    Empty: 2-1415                     [64]                      --
    Empty: 2-1416                     [64]                      --
    BatchNorm2d: 2-1417               [8, 64, 8, 8]             --
    Scaler: 2-1418                    [8, 64, 8, 8]             --
    ReLU: 2-1419                      [8, 64, 8, 8]             --
    Empty: 2-1420                     [8, 64, 8, 8]             --
    Clamp: 2-1421                     [8, 64, 8, 8]             --
FusedMaxPoolConv2dBNReLU: 1-108        [8, 64, 8, 8]             (recursive)
    MaxPool2d: 2-1422                 [8, 64, 8, 8]             --
    Empty: 2-1423                     [8, 64, 8, 8]             --
    Empty: 2-1424                     [8, 64, 8, 8]             --
    OutputShiftSqueeze: 2-1425        --                        --
    One: 2-1426                       [1]                       --
    OutputScale: 2-1427               --                        --
    Empty: 2-1428                     [64, 64, 3, 3]            --
    Empty: 2-1429                     [64, 64, 3, 3]            --
    Empty: 2-1430                     [64]                      --
    Empty: 2-1431                     [64]                      --
    BatchNorm2d: 2-1432               [8, 64, 8, 8]             --
    Scaler: 2-1433                    [8, 64, 8, 8]             --
    ReLU: 2-1434                      [8, 64, 8, 8]             --
    Empty: 2-1435                     [8, 64, 8, 8]             --
    Clamp: 2-1436                     [8, 64, 8, 8]             --
FusedMaxPoolConv2dBNReLU: 1-109        [8, 64, 4, 4]             (recursive)
    MaxPool2d: 2-1437                 [8, 64, 4, 4]             --
    Empty: 2-1438                     [8, 64, 4, 4]             --
    Empty: 2-1439                     [8, 64, 4, 4]             --
    OutputShiftSqueeze: 2-1440        --                        --
    One: 2-1441                       [1]                       --
    OutputScale: 2-1442               --                        --
    Empty: 2-1443                     [64, 64, 3, 3]            --
    Empty: 2-1444                     [64, 64, 3, 3]            --
    Empty: 2-1445                     [64]                      --
    Empty: 2-1446                     [64]                      --
    BatchNorm2d: 2-1447               [8, 64, 4, 4]             --
    Scaler: 2-1448                    [8, 64, 4, 4]             --
    ReLU: 2-1449                      [8, 64, 4, 4]             --
    Empty: 2-1450                     [8, 64, 4, 4]             --
    Clamp: 2-1451                     [8, 64, 4, 4]             --
FusedConv2dBNReLU: 1-110               [8, 64, 4, 4]             (recursive)
    OutputShiftSqueeze: 2-1452        --                        --
    One: 2-1453                       [1]                       --
    OutputScale: 2-1454               --                        --
    Empty: 2-1455                     [64, 64, 1, 1]            --
    Empty: 2-1456                     [64, 64, 1, 1]            --
    Empty: 2-1457                     [64]                      --
    Empty: 2-1458                     [64]                      --
    BatchNorm2d: 2-1459               [8, 64, 4, 4]             --
    Scaler: 2-1460                    [8, 64, 4, 4]             --
    ReLU: 2-1461                      [8, 64, 4, 4]             --
    Empty: 2-1462                     [8, 64, 4, 4]             --
    Clamp: 2-1463                     [8, 64, 4, 4]             --
FusedMaxPoolConv2dBNReLU: 1-111        [8, 64, 4, 4]             (recursive)
    MaxPool2d: 2-1464                 [8, 64, 4, 4]             --
    Empty: 2-1465                     [8, 64, 4, 4]             --
    Empty: 2-1466                     [8, 64, 4, 4]             --
    OutputShiftSqueeze: 2-1467        --                        --
    One: 2-1468                       [1]                       --
    OutputScale: 2-1469               --                        --
    Empty: 2-1470                     [64, 64, 3, 3]            --
    Empty: 2-1471                     [64, 64, 3, 3]            --
    Empty: 2-1472                     [64]                      --
    Empty: 2-1473                     [64]                      --
    BatchNorm2d: 2-1474               [8, 64, 4, 4]             --
    Scaler: 2-1475                    [8, 64, 4, 4]             --
    ReLU: 2-1476                      [8, 64, 4, 4]             --
    Empty: 2-1477                     [8, 64, 4, 4]             --
    Clamp: 2-1478                     [8, 64, 4, 4]             --
FusedMaxPoolConv2dBNReLU: 1-112        [8, 64, 2, 2]             (recursive)
    MaxPool2d: 2-1479                 [8, 64, 2, 2]             --
    Empty: 2-1480                     [8, 64, 2, 2]             --
    Empty: 2-1481                     [8, 64, 2, 2]             --
    OutputShiftSqueeze: 2-1482        --                        --
    One: 2-1483                       [1]                       --
    OutputScale: 2-1484               --                        --
    Empty: 2-1485                     [64, 64, 1, 1]            --
    Empty: 2-1486                     [64, 64, 1, 1]            --
    Empty: 2-1487                     [64]                      --
    Empty: 2-1488                     [64]                      --
    BatchNorm2d: 2-1489               [8, 64, 2, 2]             --
    Scaler: 2-1490                    [8, 64, 2, 2]             --
    ReLU: 2-1491                      [8, 64, 2, 2]             --
    Empty: 2-1492                     [8, 64, 2, 2]             --
    Clamp: 2-1493                     [8, 64, 2, 2]             --
FusedConv2dBNReLU: 1-113               [8, 64, 2, 2]             (recursive)
    OutputShiftSqueeze: 2-1494        --                        --
    One: 2-1495                       [1]                       --
    OutputScale: 2-1496               --                        --
    Empty: 2-1497                     [64, 64, 1, 1]            --
    Empty: 2-1498                     [64, 64, 1, 1]            --
    Empty: 2-1499                     [64]                      --
    Empty: 2-1500                     [64]                      --
    BatchNorm2d: 2-1501               [8, 64, 2, 2]             --
    Scaler: 2-1502                    [8, 64, 2, 2]             --
    ReLU: 2-1503                      [8, 64, 2, 2]             --
    Empty: 2-1504                     [8, 64, 2, 2]             --
    Clamp: 2-1505                     [8, 64, 2, 2]             --
FusedMaxPoolConv2dBNReLU: 1-114        [8, 64, 2, 2]             (recursive)
    MaxPool2d: 2-1506                 [8, 64, 2, 2]             --
    Empty: 2-1507                     [8, 64, 2, 2]             --
    Empty: 2-1508                     [8, 64, 2, 2]             --
    OutputShiftSqueeze: 2-1509        --                        --
    One: 2-1510                       [1]                       --
    OutputScale: 2-1511               --                        --
    Empty: 2-1512                     [64, 64, 3, 3]            --
    Empty: 2-1513                     [64, 64, 3, 3]            --
    Empty: 2-1514                     [64]                      --
    Empty: 2-1515                     [64]                      --
    BatchNorm2d: 2-1516               [8, 64, 2, 2]             --
    Scaler: 2-1517                    [8, 64, 2, 2]             --
    ReLU: 2-1518                      [8, 64, 2, 2]             --
    Empty: 2-1519                     [8, 64, 2, 2]             --
    Clamp: 2-1520                     [8, 64, 2, 2]             --
FusedConv2dBNReLU: 1-115               [8, 64, 64, 64]           (recursive)
    OutputShiftSqueeze: 2-1521        --                        --
    One: 2-1522                       [1]                       --
    OutputScale: 2-1523               --                        --
    Empty: 2-1524                     [64, 48, 1, 1]            --
    Empty: 2-1525                     [64, 48, 1, 1]            --
    Empty: 2-1526                     [64]                      --
    Empty: 2-1527                     [64]                      --
    BatchNorm2d: 2-1528               [8, 64, 64, 64]           --
    Scaler: 2-1529                    [8, 64, 64, 64]           --
    ReLU: 2-1530                      [8, 64, 64, 64]           --
    Empty: 2-1531                     [8, 64, 64, 64]           --
    Clamp: 2-1532                     [8, 64, 64, 64]           --
FusedConv2dBNReLU: 1-116               [8, 64, 64, 64]           (recursive)
    OutputShiftSqueeze: 2-1533        --                        --
    One: 2-1534                       [1]                       --
    OutputScale: 2-1535               --                        --
    Empty: 2-1536                     [64, 64, 3, 3]            --
    Empty: 2-1537                     [64, 64, 3, 3]            --
    Empty: 2-1538                     [64]                      --
    Empty: 2-1539                     [64]                      --
    BatchNorm2d: 2-1540               [8, 64, 64, 64]           --
    Scaler: 2-1541                    [8, 64, 64, 64]           --
    ReLU: 2-1542                      [8, 64, 64, 64]           --
    Empty: 2-1543                     [8, 64, 64, 64]           --
    Clamp: 2-1544                     [8, 64, 64, 64]           --
FusedConv2dBNReLU: 1-117               [8, 64, 64, 64]           (recursive)
    OutputShiftSqueeze: 2-1545        --                        --
    One: 2-1546                       [1]                       --
    OutputScale: 2-1547               --                        --
    Empty: 2-1548                     [64, 64, 3, 3]            --
    Empty: 2-1549                     [64, 64, 3, 3]            --
    Empty: 2-1550                     [64]                      --
    Empty: 2-1551                     [64]                      --
    BatchNorm2d: 2-1552               [8, 64, 64, 64]           --
    Scaler: 2-1553                    [8, 64, 64, 64]           --
    ReLU: 2-1554                      [8, 64, 64, 64]           --
    Empty: 2-1555                     [8, 64, 64, 64]           --
    Clamp: 2-1556                     [8, 64, 64, 64]           --
FusedConv2dBNReLU: 1-118               [8, 64, 64, 64]           (recursive)
    OutputShiftSqueeze: 2-1557        --                        --
    One: 2-1558                       [1]                       --
    OutputScale: 2-1559               --                        --
    Empty: 2-1560                     [64, 64, 1, 1]            --
    Empty: 2-1561                     [64, 64, 1, 1]            --
    Empty: 2-1562                     [64]                      --
    Empty: 2-1563                     [64]                      --
    BatchNorm2d: 2-1564               [8, 64, 64, 64]           --
    Scaler: 2-1565                    [8, 64, 64, 64]           --
    ReLU: 2-1566                      [8, 64, 64, 64]           --
    Empty: 2-1567                     [8, 64, 64, 64]           --
    Clamp: 2-1568                     [8, 64, 64, 64]           --
FusedConv2dBNReLU: 1-119               [8, 64, 64, 64]           (recursive)
    OutputShiftSqueeze: 2-1569        --                        --
    One: 2-1570                       [1]                       --
    OutputScale: 2-1571               --                        --
    Empty: 2-1572                     [64, 64, 3, 3]            --
    Empty: 2-1573                     [64, 64, 3, 3]            --
    Empty: 2-1574                     [64]                      --
    Empty: 2-1575                     [64]                      --
    BatchNorm2d: 2-1576               [8, 64, 64, 64]           --
    Scaler: 2-1577                    [8, 64, 64, 64]           --
    ReLU: 2-1578                      [8, 64, 64, 64]           --
    Empty: 2-1579                     [8, 64, 64, 64]           --
    Clamp: 2-1580                     [8, 64, 64, 64]           --
FusedConv2dBNReLU: 1-120               [8, 64, 64, 64]           (recursive)
    OutputShiftSqueeze: 2-1581        --                        --
    One: 2-1582                       [1]                       --
    OutputScale: 2-1583               --                        --
    Empty: 2-1584                     [64, 64, 3, 3]            --
    Empty: 2-1585                     [64, 64, 3, 3]            --
    Empty: 2-1586                     [64]                      --
    Empty: 2-1587                     [64]                      --
    BatchNorm2d: 2-1588               [8, 64, 64, 64]           --
    Scaler: 2-1589                    [8, 64, 64, 64]           --
    ReLU: 2-1590                      [8, 64, 64, 64]           --
    Empty: 2-1591                     [8, 64, 64, 64]           --
    Clamp: 2-1592                     [8, 64, 64, 64]           --
FusedMaxPoolConv2dBNReLU: 1-121        [8, 64, 32, 32]           (recursive)
    MaxPool2d: 2-1593                 [8, 64, 32, 32]           --
    Empty: 2-1594                     [8, 64, 32, 32]           --
    Empty: 2-1595                     [8, 64, 32, 32]           --
    OutputShiftSqueeze: 2-1596        --                        --
    One: 2-1597                       [1]                       --
    OutputScale: 2-1598               --                        --
    Empty: 2-1599                     [64, 64, 3, 3]            --
    Empty: 2-1600                     [64, 64, 3, 3]            --
    Empty: 2-1601                     [64]                      --
    Empty: 2-1602                     [64]                      --
    BatchNorm2d: 2-1603               [8, 64, 32, 32]           --
    Scaler: 2-1604                    [8, 64, 32, 32]           --
    ReLU: 2-1605                      [8, 64, 32, 32]           --
    Empty: 2-1606                     [8, 64, 32, 32]           --
    Clamp: 2-1607                     [8, 64, 32, 32]           --
FusedConv2dBNReLU: 1-122               [8, 64, 32, 32]           (recursive)
    OutputShiftSqueeze: 2-1608        --                        --
    One: 2-1609                       [1]                       --
    OutputScale: 2-1610               --                        --
    Empty: 2-1611                     [64, 64, 3, 3]            --
    Empty: 2-1612                     [64, 64, 3, 3]            --
    Empty: 2-1613                     [64]                      --
    Empty: 2-1614                     [64]                      --
    BatchNorm2d: 2-1615               [8, 64, 32, 32]           --
    Scaler: 2-1616                    [8, 64, 32, 32]           --
    ReLU: 2-1617                      [8, 64, 32, 32]           --
    Empty: 2-1618                     [8, 64, 32, 32]           --
    Clamp: 2-1619                     [8, 64, 32, 32]           --
FusedMaxPoolConv2dBNReLU: 1-123        [8, 64, 16, 16]           (recursive)
    MaxPool2d: 2-1620                 [8, 64, 16, 16]           --
    Empty: 2-1621                     [8, 64, 16, 16]           --
    Empty: 2-1622                     [8, 64, 16, 16]           --
    OutputShiftSqueeze: 2-1623        --                        --
    One: 2-1624                       [1]                       --
    OutputScale: 2-1625               --                        --
    Empty: 2-1626                     [64, 64, 3, 3]            --
    Empty: 2-1627                     [64, 64, 3, 3]            --
    Empty: 2-1628                     [64]                      --
    Empty: 2-1629                     [64]                      --
    BatchNorm2d: 2-1630               [8, 64, 16, 16]           --
    Scaler: 2-1631                    [8, 64, 16, 16]           --
    ReLU: 2-1632                      [8, 64, 16, 16]           --
    Empty: 2-1633                     [8, 64, 16, 16]           --
    Clamp: 2-1634                     [8, 64, 16, 16]           --
FusedConv2dBNReLU: 1-124               [8, 64, 16, 16]           (recursive)
    OutputShiftSqueeze: 2-1635        --                        --
    One: 2-1636                       [1]                       --
    OutputScale: 2-1637               --                        --
    Empty: 2-1638                     [64, 64, 3, 3]            --
    Empty: 2-1639                     [64, 64, 3, 3]            --
    Empty: 2-1640                     [64]                      --
    Empty: 2-1641                     [64]                      --
    BatchNorm2d: 2-1642               [8, 64, 16, 16]           --
    Scaler: 2-1643                    [8, 64, 16, 16]           --
    ReLU: 2-1644                      [8, 64, 16, 16]           --
    Empty: 2-1645                     [8, 64, 16, 16]           --
    Clamp: 2-1646                     [8, 64, 16, 16]           --
FusedMaxPoolConv2dBNReLU: 1-125        [8, 64, 8, 8]             (recursive)
    MaxPool2d: 2-1647                 [8, 64, 8, 8]             --
    Empty: 2-1648                     [8, 64, 8, 8]             --
    Empty: 2-1649                     [8, 64, 8, 8]             --
    OutputShiftSqueeze: 2-1650        --                        --
    One: 2-1651                       [1]                       --
    OutputScale: 2-1652               --                        --
    Empty: 2-1653                     [64, 64, 3, 3]            --
    Empty: 2-1654                     [64, 64, 3, 3]            --
    Empty: 2-1655                     [64]                      --
    Empty: 2-1656                     [64]                      --
    BatchNorm2d: 2-1657               [8, 64, 8, 8]             --
    Scaler: 2-1658                    [8, 64, 8, 8]             --
    ReLU: 2-1659                      [8, 64, 8, 8]             --
    Empty: 2-1660                     [8, 64, 8, 8]             --
    Clamp: 2-1661                     [8, 64, 8, 8]             --
FusedConv2dBNReLU: 1-126               [8, 64, 8, 8]             (recursive)
    OutputShiftSqueeze: 2-1662        --                        --
    One: 2-1663                       [1]                       --
    OutputScale: 2-1664               --                        --
    Empty: 2-1665                     [64, 64, 1, 1]            --
    Empty: 2-1666                     [64, 64, 1, 1]            --
    Empty: 2-1667                     [64]                      --
    Empty: 2-1668                     [64]                      --
    BatchNorm2d: 2-1669               [8, 64, 8, 8]             --
    Scaler: 2-1670                    [8, 64, 8, 8]             --
    ReLU: 2-1671                      [8, 64, 8, 8]             --
    Empty: 2-1672                     [8, 64, 8, 8]             --
    Clamp: 2-1673                     [8, 64, 8, 8]             --
FusedMaxPoolConv2dBNReLU: 1-127        [8, 64, 8, 8]             (recursive)
    MaxPool2d: 2-1674                 [8, 64, 8, 8]             --
    Empty: 2-1675                     [8, 64, 8, 8]             --
    Empty: 2-1676                     [8, 64, 8, 8]             --
    OutputShiftSqueeze: 2-1677        --                        --
    One: 2-1678                       [1]                       --
    OutputScale: 2-1679               --                        --
    Empty: 2-1680                     [64, 64, 3, 3]            --
    Empty: 2-1681                     [64, 64, 3, 3]            --
    Empty: 2-1682                     [64]                      --
    Empty: 2-1683                     [64]                      --
    BatchNorm2d: 2-1684               [8, 64, 8, 8]             --
    Scaler: 2-1685                    [8, 64, 8, 8]             --
    ReLU: 2-1686                      [8, 64, 8, 8]             --
    Empty: 2-1687                     [8, 64, 8, 8]             --
    Clamp: 2-1688                     [8, 64, 8, 8]             --
FusedMaxPoolConv2dBNReLU: 1-128        [8, 64, 4, 4]             (recursive)
    MaxPool2d: 2-1689                 [8, 64, 4, 4]             --
    Empty: 2-1690                     [8, 64, 4, 4]             --
    Empty: 2-1691                     [8, 64, 4, 4]             --
    OutputShiftSqueeze: 2-1692        --                        --
    One: 2-1693                       [1]                       --
    OutputScale: 2-1694               --                        --
    Empty: 2-1695                     [64, 64, 3, 3]            --
    Empty: 2-1696                     [64, 64, 3, 3]            --
    Empty: 2-1697                     [64]                      --
    Empty: 2-1698                     [64]                      --
    BatchNorm2d: 2-1699               [8, 64, 4, 4]             --
    Scaler: 2-1700                    [8, 64, 4, 4]             --
    ReLU: 2-1701                      [8, 64, 4, 4]             --
    Empty: 2-1702                     [8, 64, 4, 4]             --
    Clamp: 2-1703                     [8, 64, 4, 4]             --
FusedConv2dBNReLU: 1-129               [8, 64, 4, 4]             (recursive)
    OutputShiftSqueeze: 2-1704        --                        --
    One: 2-1705                       [1]                       --
    OutputScale: 2-1706               --                        --
    Empty: 2-1707                     [64, 64, 1, 1]            --
    Empty: 2-1708                     [64, 64, 1, 1]            --
    Empty: 2-1709                     [64]                      --
    Empty: 2-1710                     [64]                      --
    BatchNorm2d: 2-1711               [8, 64, 4, 4]             --
    Scaler: 2-1712                    [8, 64, 4, 4]             --
    ReLU: 2-1713                      [8, 64, 4, 4]             --
    Empty: 2-1714                     [8, 64, 4, 4]             --
    Clamp: 2-1715                     [8, 64, 4, 4]             --
FusedMaxPoolConv2dBNReLU: 1-130        [8, 64, 4, 4]             (recursive)
    MaxPool2d: 2-1716                 [8, 64, 4, 4]             --
    Empty: 2-1717                     [8, 64, 4, 4]             --
    Empty: 2-1718                     [8, 64, 4, 4]             --
    OutputShiftSqueeze: 2-1719        --                        --
    One: 2-1720                       [1]                       --
    OutputScale: 2-1721               --                        --
    Empty: 2-1722                     [64, 64, 3, 3]            --
    Empty: 2-1723                     [64, 64, 3, 3]            --
    Empty: 2-1724                     [64]                      --
    Empty: 2-1725                     [64]                      --
    BatchNorm2d: 2-1726               [8, 64, 4, 4]             --
    Scaler: 2-1727                    [8, 64, 4, 4]             --
    ReLU: 2-1728                      [8, 64, 4, 4]             --
    Empty: 2-1729                     [8, 64, 4, 4]             --
    Clamp: 2-1730                     [8, 64, 4, 4]             --
FusedMaxPoolConv2dBNReLU: 1-131        [8, 64, 2, 2]             (recursive)
    MaxPool2d: 2-1731                 [8, 64, 2, 2]             --
    Empty: 2-1732                     [8, 64, 2, 2]             --
    Empty: 2-1733                     [8, 64, 2, 2]             --
    OutputShiftSqueeze: 2-1734        --                        --
    One: 2-1735                       [1]                       --
    OutputScale: 2-1736               --                        --
    Empty: 2-1737                     [64, 64, 1, 1]            --
    Empty: 2-1738                     [64, 64, 1, 1]            --
    Empty: 2-1739                     [64]                      --
    Empty: 2-1740                     [64]                      --
    BatchNorm2d: 2-1741               [8, 64, 2, 2]             --
    Scaler: 2-1742                    [8, 64, 2, 2]             --
    ReLU: 2-1743                      [8, 64, 2, 2]             --
    Empty: 2-1744                     [8, 64, 2, 2]             --
    Clamp: 2-1745                     [8, 64, 2, 2]             --
FusedConv2dBNReLU: 1-132               [8, 64, 2, 2]             (recursive)
    OutputShiftSqueeze: 2-1746        --                        --
    One: 2-1747                       [1]                       --
    OutputScale: 2-1748               --                        --
    Empty: 2-1749                     [64, 64, 1, 1]            --
    Empty: 2-1750                     [64, 64, 1, 1]            --
    Empty: 2-1751                     [64]                      --
    Empty: 2-1752                     [64]                      --
    BatchNorm2d: 2-1753               [8, 64, 2, 2]             --
    Scaler: 2-1754                    [8, 64, 2, 2]             --
    ReLU: 2-1755                      [8, 64, 2, 2]             --
    Empty: 2-1756                     [8, 64, 2, 2]             --
    Clamp: 2-1757                     [8, 64, 2, 2]             --
FusedMaxPoolConv2dBNReLU: 1-133        [8, 64, 2, 2]             (recursive)
    MaxPool2d: 2-1758                 [8, 64, 2, 2]             --
    Empty: 2-1759                     [8, 64, 2, 2]             --
    Empty: 2-1760                     [8, 64, 2, 2]             --
    OutputShiftSqueeze: 2-1761        --                        --
    One: 2-1762                       [1]                       --
    OutputScale: 2-1763               --                        --
    Empty: 2-1764                     [64, 64, 3, 3]            --
    Empty: 2-1765                     [64, 64, 3, 3]            --
    Empty: 2-1766                     [64]                      --
    Empty: 2-1767                     [64]                      --
    BatchNorm2d: 2-1768               [8, 64, 2, 2]             --
    Scaler: 2-1769                    [8, 64, 2, 2]             --
    ReLU: 2-1770                      [8, 64, 2, 2]             --
    Empty: 2-1771                     [8, 64, 2, 2]             --
    Clamp: 2-1772                     [8, 64, 2, 2]             --
FusedConv2dBNReLU: 1-134               [8, 64, 64, 64]           (recursive)
    OutputShiftSqueeze: 2-1773        --                        --
    One: 2-1774                       [1]                       --
    OutputScale: 2-1775               --                        --
    Empty: 2-1776                     [64, 48, 1, 1]            --
    Empty: 2-1777                     [64, 48, 1, 1]            --
    Empty: 2-1778                     [64]                      --
    Empty: 2-1779                     [64]                      --
    BatchNorm2d: 2-1780               [8, 64, 64, 64]           --
    Scaler: 2-1781                    [8, 64, 64, 64]           --
    ReLU: 2-1782                      [8, 64, 64, 64]           --
    Empty: 2-1783                     [8, 64, 64, 64]           --
    Clamp: 2-1784                     [8, 64, 64, 64]           --
FusedConv2dBNReLU: 1-135               [8, 64, 64, 64]           (recursive)
    OutputShiftSqueeze: 2-1785        --                        --
    One: 2-1786                       [1]                       --
    OutputScale: 2-1787               --                        --
    Empty: 2-1788                     [64, 64, 3, 3]            --
    Empty: 2-1789                     [64, 64, 3, 3]            --
    Empty: 2-1790                     [64]                      --
    Empty: 2-1791                     [64]                      --
    BatchNorm2d: 2-1792               [8, 64, 64, 64]           --
    Scaler: 2-1793                    [8, 64, 64, 64]           --
    ReLU: 2-1794                      [8, 64, 64, 64]           --
    Empty: 2-1795                     [8, 64, 64, 64]           --
    Clamp: 2-1796                     [8, 64, 64, 64]           --
FusedConv2dBNReLU: 1-136               [8, 64, 64, 64]           (recursive)
    OutputShiftSqueeze: 2-1797        --                        --
    One: 2-1798                       [1]                       --
    OutputScale: 2-1799               --                        --
    Empty: 2-1800                     [64, 64, 3, 3]            --
    Empty: 2-1801                     [64, 64, 3, 3]            --
    Empty: 2-1802                     [64]                      --
    Empty: 2-1803                     [64]                      --
    BatchNorm2d: 2-1804               [8, 64, 64, 64]           --
    Scaler: 2-1805                    [8, 64, 64, 64]           --
    ReLU: 2-1806                      [8, 64, 64, 64]           --
    Empty: 2-1807                     [8, 64, 64, 64]           --
    Clamp: 2-1808                     [8, 64, 64, 64]           --
FusedConv2dBNReLU: 1-137               [8, 64, 64, 64]           (recursive)
    OutputShiftSqueeze: 2-1809        --                        --
    One: 2-1810                       [1]                       --
    OutputScale: 2-1811               --                        --
    Empty: 2-1812                     [64, 64, 1, 1]            --
    Empty: 2-1813                     [64, 64, 1, 1]            --
    Empty: 2-1814                     [64]                      --
    Empty: 2-1815                     [64]                      --
    BatchNorm2d: 2-1816               [8, 64, 64, 64]           --
    Scaler: 2-1817                    [8, 64, 64, 64]           --
    ReLU: 2-1818                      [8, 64, 64, 64]           --
    Empty: 2-1819                     [8, 64, 64, 64]           --
    Clamp: 2-1820                     [8, 64, 64, 64]           --
FusedConv2dBNReLU: 1-138               [8, 64, 64, 64]           (recursive)
    OutputShiftSqueeze: 2-1821        --                        --
    One: 2-1822                       [1]                       --
    OutputScale: 2-1823               --                        --
    Empty: 2-1824                     [64, 64, 3, 3]            --
    Empty: 2-1825                     [64, 64, 3, 3]            --
    Empty: 2-1826                     [64]                      --
    Empty: 2-1827                     [64]                      --
    BatchNorm2d: 2-1828               [8, 64, 64, 64]           --
    Scaler: 2-1829                    [8, 64, 64, 64]           --
    ReLU: 2-1830                      [8, 64, 64, 64]           --
    Empty: 2-1831                     [8, 64, 64, 64]           --
    Clamp: 2-1832                     [8, 64, 64, 64]           --
FusedConv2dBNReLU: 1-139               [8, 64, 64, 64]           (recursive)
    OutputShiftSqueeze: 2-1833        --                        --
    One: 2-1834                       [1]                       --
    OutputScale: 2-1835               --                        --
    Empty: 2-1836                     [64, 64, 3, 3]            --
    Empty: 2-1837                     [64, 64, 3, 3]            --
    Empty: 2-1838                     [64]                      --
    Empty: 2-1839                     [64]                      --
    BatchNorm2d: 2-1840               [8, 64, 64, 64]           --
    Scaler: 2-1841                    [8, 64, 64, 64]           --
    ReLU: 2-1842                      [8, 64, 64, 64]           --
    Empty: 2-1843                     [8, 64, 64, 64]           --
    Clamp: 2-1844                     [8, 64, 64, 64]           --
FusedMaxPoolConv2dBNReLU: 1-140        [8, 64, 32, 32]           (recursive)
    MaxPool2d: 2-1845                 [8, 64, 32, 32]           --
    Empty: 2-1846                     [8, 64, 32, 32]           --
    Empty: 2-1847                     [8, 64, 32, 32]           --
    OutputShiftSqueeze: 2-1848        --                        --
    One: 2-1849                       [1]                       --
    OutputScale: 2-1850               --                        --
    Empty: 2-1851                     [64, 64, 3, 3]            --
    Empty: 2-1852                     [64, 64, 3, 3]            --
    Empty: 2-1853                     [64]                      --
    Empty: 2-1854                     [64]                      --
    BatchNorm2d: 2-1855               [8, 64, 32, 32]           --
    Scaler: 2-1856                    [8, 64, 32, 32]           --
    ReLU: 2-1857                      [8, 64, 32, 32]           --
    Empty: 2-1858                     [8, 64, 32, 32]           --
    Clamp: 2-1859                     [8, 64, 32, 32]           --
FusedConv2dBNReLU: 1-141               [8, 64, 32, 32]           (recursive)
    OutputShiftSqueeze: 2-1860        --                        --
    One: 2-1861                       [1]                       --
    OutputScale: 2-1862               --                        --
    Empty: 2-1863                     [64, 64, 3, 3]            --
    Empty: 2-1864                     [64, 64, 3, 3]            --
    Empty: 2-1865                     [64]                      --
    Empty: 2-1866                     [64]                      --
    BatchNorm2d: 2-1867               [8, 64, 32, 32]           --
    Scaler: 2-1868                    [8, 64, 32, 32]           --
    ReLU: 2-1869                      [8, 64, 32, 32]           --
    Empty: 2-1870                     [8, 64, 32, 32]           --
    Clamp: 2-1871                     [8, 64, 32, 32]           --
FusedMaxPoolConv2dBNReLU: 1-142        [8, 64, 16, 16]           (recursive)
    MaxPool2d: 2-1872                 [8, 64, 16, 16]           --
    Empty: 2-1873                     [8, 64, 16, 16]           --
    Empty: 2-1874                     [8, 64, 16, 16]           --
    OutputShiftSqueeze: 2-1875        --                        --
    One: 2-1876                       [1]                       --
    OutputScale: 2-1877               --                        --
    Empty: 2-1878                     [64, 64, 3, 3]            --
    Empty: 2-1879                     [64, 64, 3, 3]            --
    Empty: 2-1880                     [64]                      --
    Empty: 2-1881                     [64]                      --
    BatchNorm2d: 2-1882               [8, 64, 16, 16]           --
    Scaler: 2-1883                    [8, 64, 16, 16]           --
    ReLU: 2-1884                      [8, 64, 16, 16]           --
    Empty: 2-1885                     [8, 64, 16, 16]           --
    Clamp: 2-1886                     [8, 64, 16, 16]           --
FusedConv2dBNReLU: 1-143               [8, 64, 16, 16]           (recursive)
    OutputShiftSqueeze: 2-1887        --                        --
    One: 2-1888                       [1]                       --
    OutputScale: 2-1889               --                        --
    Empty: 2-1890                     [64, 64, 3, 3]            --
    Empty: 2-1891                     [64, 64, 3, 3]            --
    Empty: 2-1892                     [64]                      --
    Empty: 2-1893                     [64]                      --
    BatchNorm2d: 2-1894               [8, 64, 16, 16]           --
    Scaler: 2-1895                    [8, 64, 16, 16]           --
    ReLU: 2-1896                      [8, 64, 16, 16]           --
    Empty: 2-1897                     [8, 64, 16, 16]           --
    Clamp: 2-1898                     [8, 64, 16, 16]           --
FusedMaxPoolConv2dBNReLU: 1-144        [8, 64, 8, 8]             (recursive)
    MaxPool2d: 2-1899                 [8, 64, 8, 8]             --
    Empty: 2-1900                     [8, 64, 8, 8]             --
    Empty: 2-1901                     [8, 64, 8, 8]             --
    OutputShiftSqueeze: 2-1902        --                        --
    One: 2-1903                       [1]                       --
    OutputScale: 2-1904               --                        --
    Empty: 2-1905                     [64, 64, 3, 3]            --
    Empty: 2-1906                     [64, 64, 3, 3]            --
    Empty: 2-1907                     [64]                      --
    Empty: 2-1908                     [64]                      --
    BatchNorm2d: 2-1909               [8, 64, 8, 8]             --
    Scaler: 2-1910                    [8, 64, 8, 8]             --
    ReLU: 2-1911                      [8, 64, 8, 8]             --
    Empty: 2-1912                     [8, 64, 8, 8]             --
    Clamp: 2-1913                     [8, 64, 8, 8]             --
FusedConv2dBNReLU: 1-145               [8, 64, 8, 8]             (recursive)
    OutputShiftSqueeze: 2-1914        --                        --
    One: 2-1915                       [1]                       --
    OutputScale: 2-1916               --                        --
    Empty: 2-1917                     [64, 64, 1, 1]            --
    Empty: 2-1918                     [64, 64, 1, 1]            --
    Empty: 2-1919                     [64]                      --
    Empty: 2-1920                     [64]                      --
    BatchNorm2d: 2-1921               [8, 64, 8, 8]             --
    Scaler: 2-1922                    [8, 64, 8, 8]             --
    ReLU: 2-1923                      [8, 64, 8, 8]             --
    Empty: 2-1924                     [8, 64, 8, 8]             --
    Clamp: 2-1925                     [8, 64, 8, 8]             --
FusedMaxPoolConv2dBNReLU: 1-146        [8, 64, 8, 8]             (recursive)
    MaxPool2d: 2-1926                 [8, 64, 8, 8]             --
    Empty: 2-1927                     [8, 64, 8, 8]             --
    Empty: 2-1928                     [8, 64, 8, 8]             --
    OutputShiftSqueeze: 2-1929        --                        --
    One: 2-1930                       [1]                       --
    OutputScale: 2-1931               --                        --
    Empty: 2-1932                     [64, 64, 3, 3]            --
    Empty: 2-1933                     [64, 64, 3, 3]            --
    Empty: 2-1934                     [64]                      --
    Empty: 2-1935                     [64]                      --
    BatchNorm2d: 2-1936               [8, 64, 8, 8]             --
    Scaler: 2-1937                    [8, 64, 8, 8]             --
    ReLU: 2-1938                      [8, 64, 8, 8]             --
    Empty: 2-1939                     [8, 64, 8, 8]             --
    Clamp: 2-1940                     [8, 64, 8, 8]             --
FusedMaxPoolConv2dBNReLU: 1-147        [8, 64, 4, 4]             (recursive)
    MaxPool2d: 2-1941                 [8, 64, 4, 4]             --
    Empty: 2-1942                     [8, 64, 4, 4]             --
    Empty: 2-1943                     [8, 64, 4, 4]             --
    OutputShiftSqueeze: 2-1944        --                        --
    One: 2-1945                       [1]                       --
    OutputScale: 2-1946               --                        --
    Empty: 2-1947                     [64, 64, 3, 3]            --
    Empty: 2-1948                     [64, 64, 3, 3]            --
    Empty: 2-1949                     [64]                      --
    Empty: 2-1950                     [64]                      --
    BatchNorm2d: 2-1951               [8, 64, 4, 4]             --
    Scaler: 2-1952                    [8, 64, 4, 4]             --
    ReLU: 2-1953                      [8, 64, 4, 4]             --
    Empty: 2-1954                     [8, 64, 4, 4]             --
    Clamp: 2-1955                     [8, 64, 4, 4]             --
FusedConv2dBNReLU: 1-148               [8, 64, 4, 4]             (recursive)
    OutputShiftSqueeze: 2-1956        --                        --
    One: 2-1957                       [1]                       --
    OutputScale: 2-1958               --                        --
    Empty: 2-1959                     [64, 64, 1, 1]            --
    Empty: 2-1960                     [64, 64, 1, 1]            --
    Empty: 2-1961                     [64]                      --
    Empty: 2-1962                     [64]                      --
    BatchNorm2d: 2-1963               [8, 64, 4, 4]             --
    Scaler: 2-1964                    [8, 64, 4, 4]             --
    ReLU: 2-1965                      [8, 64, 4, 4]             --
    Empty: 2-1966                     [8, 64, 4, 4]             --
    Clamp: 2-1967                     [8, 64, 4, 4]             --
FusedMaxPoolConv2dBNReLU: 1-149        [8, 64, 4, 4]             (recursive)
    MaxPool2d: 2-1968                 [8, 64, 4, 4]             --
    Empty: 2-1969                     [8, 64, 4, 4]             --
    Empty: 2-1970                     [8, 64, 4, 4]             --
    OutputShiftSqueeze: 2-1971        --                        --
    One: 2-1972                       [1]                       --
    OutputScale: 2-1973               --                        --
    Empty: 2-1974                     [64, 64, 3, 3]            --
    Empty: 2-1975                     [64, 64, 3, 3]            --
    Empty: 2-1976                     [64]                      --
    Empty: 2-1977                     [64]                      --
    BatchNorm2d: 2-1978               [8, 64, 4, 4]             --
    Scaler: 2-1979                    [8, 64, 4, 4]             --
    ReLU: 2-1980                      [8, 64, 4, 4]             --
    Empty: 2-1981                     [8, 64, 4, 4]             --
    Clamp: 2-1982                     [8, 64, 4, 4]             --
FusedMaxPoolConv2dBNReLU: 1-150        [8, 64, 2, 2]             (recursive)
    MaxPool2d: 2-1983                 [8, 64, 2, 2]             --
    Empty: 2-1984                     [8, 64, 2, 2]             --
    Empty: 2-1985                     [8, 64, 2, 2]             --
    OutputShiftSqueeze: 2-1986        --                        --
    One: 2-1987                       [1]                       --
    OutputScale: 2-1988               --                        --
    Empty: 2-1989                     [64, 64, 1, 1]            --
    Empty: 2-1990                     [64, 64, 1, 1]            --
    Empty: 2-1991                     [64]                      --
    Empty: 2-1992                     [64]                      --
    BatchNorm2d: 2-1993               [8, 64, 2, 2]             --
    Scaler: 2-1994                    [8, 64, 2, 2]             --
    ReLU: 2-1995                      [8, 64, 2, 2]             --
    Empty: 2-1996                     [8, 64, 2, 2]             --
    Clamp: 2-1997                     [8, 64, 2, 2]             --
FusedConv2dBNReLU: 1-151               [8, 64, 2, 2]             (recursive)
    OutputShiftSqueeze: 2-1998        --                        --
    One: 2-1999                       [1]                       --
    OutputScale: 2-2000               --                        --
    Empty: 2-2001                     [64, 64, 1, 1]            --
    Empty: 2-2002                     [64, 64, 1, 1]            --
    Empty: 2-2003                     [64]                      --
    Empty: 2-2004                     [64]                      --
    BatchNorm2d: 2-2005               [8, 64, 2, 2]             --
    Scaler: 2-2006                    [8, 64, 2, 2]             --
    ReLU: 2-2007                      [8, 64, 2, 2]             --
    Empty: 2-2008                     [8, 64, 2, 2]             --
    Clamp: 2-2009                     [8, 64, 2, 2]             --
FusedMaxPoolConv2dBNReLU: 1-152        [8, 64, 2, 2]             (recursive)
    MaxPool2d: 2-2010                 [8, 64, 2, 2]             --
    Empty: 2-2011                     [8, 64, 2, 2]             --
    Empty: 2-2012                     [8, 64, 2, 2]             --
    OutputShiftSqueeze: 2-2013        --                        --
    One: 2-2014                       [1]                       --
    OutputScale: 2-2015               --                        --
    Empty: 2-2016                     [64, 64, 3, 3]            --
    Empty: 2-2017                     [64, 64, 3, 3]            --
    Empty: 2-2018                     [64]                      --
    Empty: 2-2019                     [64]                      --
    BatchNorm2d: 2-2020               [8, 64, 2, 2]             --
    Scaler: 2-2021                    [8, 64, 2, 2]             --
    ReLU: 2-2022                      [8, 64, 2, 2]             --
    Empty: 2-2023                     [8, 64, 2, 2]             --
    Clamp: 2-2024                     [8, 64, 2, 2]             --
FusedConv2dBNReLU: 1-153               [8, 64, 64, 64]           (recursive)
    OutputShiftSqueeze: 2-2025        --                        --
    One: 2-2026                       [1]                       --
    OutputScale: 2-2027               --                        --
    Empty: 2-2028                     [64, 48, 1, 1]            --
    Empty: 2-2029                     [64, 48, 1, 1]            --
    Empty: 2-2030                     [64]                      --
    Empty: 2-2031                     [64]                      --
    BatchNorm2d: 2-2032               [8, 64, 64, 64]           --
    Scaler: 2-2033                    [8, 64, 64, 64]           --
    ReLU: 2-2034                      [8, 64, 64, 64]           --
    Empty: 2-2035                     [8, 64, 64, 64]           --
    Clamp: 2-2036                     [8, 64, 64, 64]           --
FusedConv2dBNReLU: 1-154               [8, 64, 64, 64]           (recursive)
…
    Empty: 2-12014                    [64]                      --
    Empty: 2-12015                    [64]                      --
    BatchNorm2d: 2-12016              [8, 64, 8, 8]             --
    Scaler: 2-12017                   [8, 64, 8, 8]             --
    ReLU: 2-12018                     [8, 64, 8, 8]             --
    Empty: 2-12019                    [8, 64, 8, 8]             --
    Clamp: 2-12020                    [8, 64, 8, 8]             --
FusedMaxPoolConv2dBNReLU: 1-907        [8, 64, 4, 4]             (recursive)
    MaxPool2d: 2-12021                [8, 64, 4, 4]             --
    Empty: 2-12022                    [8, 64, 4, 4]             --
    Empty: 2-12023                    [8, 64, 4, 4]             --
    OutputShiftSqueeze: 2-12024       --                        --
    One: 2-12025                      [1]                       --
    OutputScale: 2-12026              --                        --
    Empty: 2-12027                    [64, 64, 3, 3]            --
    Empty: 2-12028                    [64, 64, 3, 3]            --
    Empty: 2-12029                    [64]                      --
    Empty: 2-12030                    [64]                      --
    BatchNorm2d: 2-12031              [8, 64, 4, 4]             --
    Scaler: 2-12032                   [8, 64, 4, 4]             --
    ReLU: 2-12033                     [8, 64, 4, 4]             --
    Empty: 2-12034                    [8, 64, 4, 4]             --
    Clamp: 2-12035                    [8, 64, 4, 4]             --
FusedConv2dBNReLU: 1-908               [8, 64, 4, 4]             (recursive)
    OutputShiftSqueeze: 2-12036       --                        --
    One: 2-12037                      [1]                       --
    OutputScale: 2-12038              --                        --
    Empty: 2-12039                    [64, 64, 1, 1]            --
    Empty: 2-12040                    [64, 64, 1, 1]            --
    Empty: 2-12041                    [64]                      --
    Empty: 2-12042                    [64]                      --
    BatchNorm2d: 2-12043              [8, 64, 4, 4]             --
    Scaler: 2-12044                   [8, 64, 4, 4]             --
    ReLU: 2-12045                     [8, 64, 4, 4]             --
    Empty: 2-12046                    [8, 64, 4, 4]             --
    Clamp: 2-12047                    [8, 64, 4, 4]             --
FusedMaxPoolConv2dBNReLU: 1-909        [8, 64, 4, 4]             (recursive)
    MaxPool2d: 2-12048                [8, 64, 4, 4]             --
    Empty: 2-12049                    [8, 64, 4, 4]             --
    Empty: 2-12050                    [8, 64, 4, 4]             --
    OutputShiftSqueeze: 2-12051       --                        --
    One: 2-12052                      [1]                       --
    OutputScale: 2-12053              --                        --
    Empty: 2-12054                    [64, 64, 3, 3]            --
    Empty: 2-12055                    [64, 64, 3, 3]            --
    Empty: 2-12056                    [64]                      --
    Empty: 2-12057                    [64]                      --
    BatchNorm2d: 2-12058              [8, 64, 4, 4]             --
    Scaler: 2-12059                   [8, 64, 4, 4]             --
    ReLU: 2-12060                     [8, 64, 4, 4]             --
    Empty: 2-12061                    [8, 64, 4, 4]             --
    Clamp: 2-12062                    [8, 64, 4, 4]             --
FusedMaxPoolConv2dBNReLU: 1-910        [8, 64, 2, 2]             (recursive)
    MaxPool2d: 2-12063                [8, 64, 2, 2]             --
    Empty: 2-12064                    [8, 64, 2, 2]             --
    Empty: 2-12065                    [8, 64, 2, 2]             --
    OutputShiftSqueeze: 2-12066       --                        --
    One: 2-12067                      [1]                       --
    OutputScale: 2-12068              --                        --
    Empty: 2-12069                    [64, 64, 1, 1]            --
    Empty: 2-12070                    [64, 64, 1, 1]            --
    Empty: 2-12071                    [64]                      --
    Empty: 2-12072                    [64]                      --
    BatchNorm2d: 2-12073              [8, 64, 2, 2]             --
    Scaler: 2-12074                   [8, 64, 2, 2]             --
    ReLU: 2-12075                     [8, 64, 2, 2]             --
    Empty: 2-12076                    [8, 64, 2, 2]             --
    Clamp: 2-12077                    [8, 64, 2, 2]             --
FusedConv2dBNReLU: 1-911               [8, 64, 2, 2]             (recursive)
    OutputShiftSqueeze: 2-12078       --                        --
    One: 2-12079                      [1]                       --
    OutputScale: 2-12080              --                        --
    Empty: 2-12081                    [64, 64, 1, 1]            --
    Empty: 2-12082                    [64, 64, 1, 1]            --
    Empty: 2-12083                    [64]                      --
    Empty: 2-12084                    [64]                      --
    BatchNorm2d: 2-12085              [8, 64, 2, 2]             --
    Scaler: 2-12086                   [8, 64, 2, 2]             --
    ReLU: 2-12087                     [8, 64, 2, 2]             --
    Empty: 2-12088                    [8, 64, 2, 2]             --
    Clamp: 2-12089                    [8, 64, 2, 2]             --
FusedMaxPoolConv2dBNReLU: 1-912        [8, 64, 2, 2]             (recursive)
    MaxPool2d: 2-12090                [8, 64, 2, 2]             --
    Empty: 2-12091                    [8, 64, 2, 2]             --
    Empty: 2-12092                    [8, 64, 2, 2]             --
    OutputShiftSqueeze: 2-12093       --                        --
    One: 2-12094                      [1]                       --
    OutputScale: 2-12095              --                        --
    Empty: 2-12096                    [64, 64, 3, 3]            --
    Empty: 2-12097                    [64, 64, 3, 3]            --
    Empty: 2-12098                    [64]                      --
    Empty: 2-12099                    [64]                      --
    BatchNorm2d: 2-12100              [8, 64, 2, 2]             --
    Scaler: 2-12101                   [8, 64, 2, 2]             --
    ReLU: 2-12102                     [8, 64, 2, 2]             --
    Empty: 2-12103                    [8, 64, 2, 2]             --
    Clamp: 2-12104                    [8, 64, 2, 2]             --
Conv1d: 1-913                          [8, 64, 48]               16,454
    OutputShiftSqueeze: 2-12105       --                        --
    One: 2-12106                      [1]                       --
    OutputScale: 2-12107              --                        --
    Empty: 2-12108                    [64, 256, 1]              --
    Empty: 2-12109                    [64, 256, 1]              --
    Empty: 2-12110                    [64]                      --
    Empty: 2-12111                    [64]                      --
    Scaler: 2-12112                   [8, 64, 48]               --
    Empty: 2-12113                    [8, 64, 48]               --
    Empty: 2-12114                    [8, 64, 48]               --
    Clamp: 2-12115                    [8, 64, 48]               --
FusedConv1dBNReLU: 1-914               [8, 64, 48]               12,358
    OutputShiftSqueeze: 2-12116       --                        --
    One: 2-12117                      [1]                       --
    OutputScale: 2-12118              --                        --
    Empty: 2-12119                    [64, 64, 3]               --
    Empty: 2-12120                    [64, 64, 3]               --
    Empty: 2-12121                    [64]                      --
    Empty: 2-12122                    [64]                      --
    BatchNorm1d: 2-12123              [8, 64, 48]               --
    Scaler: 2-12124                   [8, 64, 48]               --
    ReLU: 2-12125                     [8, 64, 48]               --
    Empty: 2-12126                    [8, 64, 48]               --
    Clamp: 2-12127                    [8, 64, 48]               --
Conv1d: 1-915                          [8, 64, 48]               4,166
    OutputShiftSqueeze: 2-12128       --                        --
    One: 2-12129                      [1]                       --
    OutputScale: 2-12130              --                        --
    Empty: 2-12131                    [64, 64, 1]               --
    Empty: 2-12132                    [64, 64, 1]               --
    Empty: 2-12133                    [64]                      --
    Empty: 2-12134                    [64]                      --
    Scaler: 2-12135                   [8, 64, 48]               --
    Empty: 2-12136                    [8, 64, 48]               --
    Empty: 2-12137                    [8, 64, 48]               --
    Clamp: 2-12138                    [8, 64, 48]               --
Dropout: 1-916                         [8, 64, 48]               --
FusedConv1dBNReLU: 1-917               [8, 64, 48]               12,358
    OutputShiftSqueeze: 2-12139       --                        --
    One: 2-12140                      [1]                       --
    OutputScale: 2-12141              --                        --
    Empty: 2-12142                    [64, 64, 3]               --
    Empty: 2-12143                    [64, 64, 3]               --
    Empty: 2-12144                    [64]                      --
    Empty: 2-12145                    [64]                      --
    BatchNorm1d: 2-12146              [8, 64, 48]               --
    Scaler: 2-12147                   [8, 64, 48]               --
    ReLU: 2-12148                     [8, 64, 48]               --
    Empty: 2-12149                    [8, 64, 48]               --
    Clamp: 2-12150                    [8, 64, 48]               --
Conv1d: 1-918                          [8, 64, 48]               4,166
    OutputShiftSqueeze: 2-12151       --                        --
    One: 2-12152                      [1]                       --
    OutputScale: 2-12153              --                        --
    Empty: 2-12154                    [64, 64, 1]               --
    Empty: 2-12155                    [64, 64, 1]               --
    Empty: 2-12156                    [64]                      --
    Empty: 2-12157                    [64]                      --
    Scaler: 2-12158                   [8, 64, 48]               --
    Empty: 2-12159                    [8, 64, 48]               --
    Empty: 2-12160                    [8, 64, 48]               --
    Clamp: 2-12161                    [8, 64, 48]               --
Dropout: 1-919                         [8, 64, 48]               --
FusedConv1dBNReLU: 1-920               [8, 64, 48]               12,358
    OutputShiftSqueeze: 2-12162       --                        --
    One: 2-12163                      [1]                       --
    OutputScale: 2-12164              --                        --
    Empty: 2-12165                    [64, 64, 3]               --
    Empty: 2-12166                    [64, 64, 3]               --
    Empty: 2-12167                    [64]                      --
    Empty: 2-12168                    [64]                      --
    BatchNorm1d: 2-12169              [8, 64, 48]               --
    Scaler: 2-12170                   [8, 64, 48]               --
    ReLU: 2-12171                     [8, 64, 48]               --
    Empty: 2-12172                    [8, 64, 48]               --
    Clamp: 2-12173                    [8, 64, 48]               --
Conv1d: 1-921                          [8, 64, 48]               4,166
    OutputShiftSqueeze: 2-12174       --                        --
    One: 2-12175                      [1]                       --
    OutputScale: 2-12176              --                        --
    Empty: 2-12177                    [64, 64, 1]               --
    Empty: 2-12178                    [64, 64, 1]               --
    Empty: 2-12179                    [64]                      --
    Empty: 2-12180                    [64]                      --
    Scaler: 2-12181                   [8, 64, 48]               --
    Empty: 2-12182                    [8, 64, 48]               --
    Empty: 2-12183                    [8, 64, 48]               --
    Clamp: 2-12184                    [8, 64, 48]               --
Dropout: 1-922                         [8, 64, 48]               --
FusedConv1dBNReLU: 1-923               [8, 64, 48]               12,358
    OutputShiftSqueeze: 2-12185       --                        --
    One: 2-12186                      [1]                       --
    OutputScale: 2-12187              --                        --
    Empty: 2-12188                    [64, 64, 3]               --
    Empty: 2-12189                    [64, 64, 3]               --
    Empty: 2-12190                    [64]                      --
    Empty: 2-12191                    [64]                      --
    BatchNorm1d: 2-12192              [8, 64, 48]               --
    Scaler: 2-12193                   [8, 64, 48]               --
    ReLU: 2-12194                     [8, 64, 48]               --
    Empty: 2-12195                    [8, 64, 48]               --
    Clamp: 2-12196                    [8, 64, 48]               --
Conv1d: 1-924                          [8, 64, 48]               4,166
    OutputShiftSqueeze: 2-12197       --                        --
    One: 2-12198                      [1]                       --
    OutputScale: 2-12199              --                        --
    Empty: 2-12200                    [64, 64, 1]               --
    Empty: 2-12201                    [64, 64, 1]               --
    Empty: 2-12202                    [64]                      --
    Empty: 2-12203                    [64]                      --
    Scaler: 2-12204                   [8, 64, 48]               --
    Empty: 2-12205                    [8, 64, 48]               --
    Empty: 2-12206                    [8, 64, 48]               --
    Clamp: 2-12207                    [8, 64, 48]               --
Dropout: 1-925                         [8, 64, 48]               --
Conv1d: 1-926                          [8, 5, 48]                331
    OutputShiftSqueeze: 2-12208       --                        --
    One: 2-12209                      [1]                       --
    OutputScale: 2-12210              --                        --
    Empty: 2-12211                    [5, 64, 1]                --
    Empty: 2-12212                    [5, 64, 1]                --
    Empty: 2-12213                    [5]                       --
    Empty: 2-12214                    [5]                       --
    Scaler: 2-12215                   [8, 5, 48]                --
    Empty: 2-12216                    [8, 5, 48]                --
    Empty: 2-12217                    [8, 5, 48]                --
    Clamp: 2-12218                    [8, 5, 48]                --
Conv1d: 1-927                          [8, 64, 48]               390
    OutputShiftSqueeze: 2-12219       --                        --
    One: 2-12220                      [1]                       --
    OutputScale: 2-12221              --                        --
    Empty: 2-12222                    [64, 5, 1]                --
    Empty: 2-12223                    [64, 5, 1]                --
    Empty: 2-12224                    [64]                      --
    Empty: 2-12225                    [64]                      --
    Scaler: 2-12226                   [8, 64, 48]               --
    Empty: 2-12227                    [8, 64, 48]               --
    Empty: 2-12228                    [8, 64, 48]               --
    Clamp: 2-12229                    [8, 64, 48]               --
FusedConv1dBNReLU: 1-928               [8, 64, 48]               12,358
    OutputShiftSqueeze: 2-12230       --                        --
    One: 2-12231                      [1]                       --
    OutputScale: 2-12232              --                        --
    Empty: 2-12233                    [64, 64, 3]               --
    Empty: 2-12234                    [64, 64, 3]               --
    Empty: 2-12235                    [64]                      --
    Empty: 2-12236                    [64]                      --
    BatchNorm1d: 2-12237              [8, 64, 48]               --
    Scaler: 2-12238                   [8, 64, 48]               --
    ReLU: 2-12239                     [8, 64, 48]               --
    Empty: 2-12240                    [8, 64, 48]               --
    Clamp: 2-12241                    [8, 64, 48]               --
Conv1d: 1-929                          [8, 64, 48]               4,166
    OutputShiftSqueeze: 2-12242       --                        --
    One: 2-12243                      [1]                       --
    OutputScale: 2-12244              --                        --
    Empty: 2-12245                    [64, 64, 1]               --
    Empty: 2-12246                    [64, 64, 1]               --
    Empty: 2-12247                    [64]                      --
    Empty: 2-12248                    [64]                      --
    Scaler: 2-12249                   [8, 64, 48]               --
    Empty: 2-12250                    [8, 64, 48]               --
    Empty: 2-12251                    [8, 64, 48]               --
    Clamp: 2-12252                    [8, 64, 48]               --
Dropout: 1-930                         [8, 64, 48]               --
FusedConv1dBNReLU: 1-931               [8, 64, 48]               12,358
    OutputShiftSqueeze: 2-12253       --                        --
    One: 2-12254                      [1]                       --
    OutputScale: 2-12255              --                        --
    Empty: 2-12256                    [64, 64, 3]               --
    Empty: 2-12257                    [64, 64, 3]               --
    Empty: 2-12258                    [64]                      --
    Empty: 2-12259                    [64]                      --
    BatchNorm1d: 2-12260              [8, 64, 48]               --
    Scaler: 2-12261                   [8, 64, 48]               --
    ReLU: 2-12262                     [8, 64, 48]               --
    Empty: 2-12263                    [8, 64, 48]               --
    Clamp: 2-12264                    [8, 64, 48]               --
Conv1d: 1-932                          [8, 64, 48]               4,166
    OutputShiftSqueeze: 2-12265       --                        --
    One: 2-12266                      [1]                       --
    OutputScale: 2-12267              --                        --
    Empty: 2-12268                    [64, 64, 1]               --
    Empty: 2-12269                    [64, 64, 1]               --
    Empty: 2-12270                    [64]                      --
    Empty: 2-12271                    [64]                      --
    Scaler: 2-12272                   [8, 64, 48]               --
    Empty: 2-12273                    [8, 64, 48]               --
    Empty: 2-12274                    [8, 64, 48]               --
    Clamp: 2-12275                    [8, 64, 48]               --
Dropout: 1-933                         [8, 64, 48]               --
FusedConv1dBNReLU: 1-934               [8, 64, 48]               12,358
    OutputShiftSqueeze: 2-12276       --                        --
    One: 2-12277                      [1]                       --
    OutputScale: 2-12278              --                        --
    Empty: 2-12279                    [64, 64, 3]               --
    Empty: 2-12280                    [64, 64, 3]               --
    Empty: 2-12281                    [64]                      --
    Empty: 2-12282                    [64]                      --
    BatchNorm1d: 2-12283              [8, 64, 48]               --
    Scaler: 2-12284                   [8, 64, 48]               --
    ReLU: 2-12285                     [8, 64, 48]               --
    Empty: 2-12286                    [8, 64, 48]               --
    Clamp: 2-12287                    [8, 64, 48]               --
Conv1d: 1-935                          [8, 64, 48]               4,166
    OutputShiftSqueeze: 2-12288       --                        --
    One: 2-12289                      [1]                       --
    OutputScale: 2-12290              --                        --
    Empty: 2-12291                    [64, 64, 1]               --
    Empty: 2-12292                    [64, 64, 1]               --
    Empty: 2-12293                    [64]                      --
    Empty: 2-12294                    [64]                      --
    Scaler: 2-12295                   [8, 64, 48]               --
    Empty: 2-12296                    [8, 64, 48]               --
    Empty: 2-12297                    [8, 64, 48]               --
    Clamp: 2-12298                    [8, 64, 48]               --
Dropout: 1-936                         [8, 64, 48]               --
FusedConv1dBNReLU: 1-937               [8, 64, 48]               12,358
    OutputShiftSqueeze: 2-12299       --                        --
    One: 2-12300                      [1]                       --
    OutputScale: 2-12301              --                        --
    Empty: 2-12302                    [64, 64, 3]               --
    Empty: 2-12303                    [64, 64, 3]               --
    Empty: 2-12304                    [64]                      --
    Empty: 2-12305                    [64]                      --
    BatchNorm1d: 2-12306              [8, 64, 48]               --
    Scaler: 2-12307                   [8, 64, 48]               --
    ReLU: 2-12308                     [8, 64, 48]               --
    Empty: 2-12309                    [8, 64, 48]               --
    Clamp: 2-12310                    [8, 64, 48]               --
Conv1d: 1-938                          [8, 64, 48]               4,166
    OutputShiftSqueeze: 2-12311       --                        --
    One: 2-12312                      [1]                       --
    OutputScale: 2-12313              --                        --
    Empty: 2-12314                    [64, 64, 1]               --
    Empty: 2-12315                    [64, 64, 1]               --
    Empty: 2-12316                    [64]                      --
    Empty: 2-12317                    [64]                      --
    Scaler: 2-12318                   [8, 64, 48]               --
    Empty: 2-12319                    [8, 64, 48]               --
    Empty: 2-12320                    [8, 64, 48]               --
    Clamp: 2-12321                    [8, 64, 48]               --
Dropout: 1-939                         [8, 64, 48]               --
Conv1d: 1-940                          [8, 5, 48]                331
    OutputShiftSqueeze: 2-12322       --                        --
    One: 2-12323                      [1]                       --
    OutputScale: 2-12324              --                        --
    Empty: 2-12325                    [5, 64, 1]                --
    Empty: 2-12326                    [5, 64, 1]                --
    Empty: 2-12327                    [5]                       --
    Empty: 2-12328                    [5]                       --
    Scaler: 2-12329                   [8, 5, 48]                --
    Empty: 2-12330                    [8, 5, 48]                --
    Empty: 2-12331                    [8, 5, 48]                --
    Clamp: 2-12332                    [8, 5, 48]                --
Conv1d: 1-941                          [8, 64, 48]               390
    OutputShiftSqueeze: 2-12333       --                        --
    One: 2-12334                      [1]                       --
    OutputScale: 2-12335              --                        --
    Empty: 2-12336                    [64, 5, 1]                --
    Empty: 2-12337                    [64, 5, 1]                --
    Empty: 2-12338                    [64]                      --
    Empty: 2-12339                    [64]                      --
    Scaler: 2-12340                   [8, 64, 48]               --
    Empty: 2-12341                    [8, 64, 48]               --
    Empty: 2-12342                    [8, 64, 48]               --
    Clamp: 2-12343                    [8, 64, 48]               --
FusedConv1dBNReLU: 1-942               [8, 64, 48]               12,358
    OutputShiftSqueeze: 2-12344       --                        --
    One: 2-12345                      [1]                       --
    OutputScale: 2-12346              --                        --
    Empty: 2-12347                    [64, 64, 3]               --
    Empty: 2-12348                    [64, 64, 3]               --
    Empty: 2-12349                    [64]                      --
    Empty: 2-12350                    [64]                      --
    BatchNorm1d: 2-12351              [8, 64, 48]               --
    Scaler: 2-12352                   [8, 64, 48]               --
    ReLU: 2-12353                     [8, 64, 48]               --
    Empty: 2-12354                    [8, 64, 48]               --
    Clamp: 2-12355                    [8, 64, 48]               --
Conv1d: 1-943                          [8, 64, 48]               4,166
    OutputShiftSqueeze: 2-12356       --                        --
    One: 2-12357                      [1]                       --
    OutputScale: 2-12358              --                        --
    Empty: 2-12359                    [64, 64, 1]               --
    Empty: 2-12360                    [64, 64, 1]               --
    Empty: 2-12361                    [64]                      --
    Empty: 2-12362                    [64]                      --
    Scaler: 2-12363                   [8, 64, 48]               --
    Empty: 2-12364                    [8, 64, 48]               --
    Empty: 2-12365                    [8, 64, 48]               --
    Clamp: 2-12366                    [8, 64, 48]               --
Dropout: 1-944                         [8, 64, 48]               --
FusedConv1dBNReLU: 1-945               [8, 64, 48]               12,358
    OutputShiftSqueeze: 2-12367       --                        --
    One: 2-12368                      [1]                       --
    OutputScale: 2-12369              --                        --
    Empty: 2-12370                    [64, 64, 3]               --
    Empty: 2-12371                    [64, 64, 3]               --
    Empty: 2-12372                    [64]                      --
    Empty: 2-12373                    [64]                      --
    BatchNorm1d: 2-12374              [8, 64, 48]               --
    Scaler: 2-12375                   [8, 64, 48]               --
    ReLU: 2-12376                     [8, 64, 48]               --
    Empty: 2-12377                    [8, 64, 48]               --
    Clamp: 2-12378                    [8, 64, 48]               --
Conv1d: 1-946                          [8, 64, 48]               4,166
    OutputShiftSqueeze: 2-12379       --                        --
    One: 2-12380                      [1]                       --
    OutputScale: 2-12381              --                        --
    Empty: 2-12382                    [64, 64, 1]               --
    Empty: 2-12383                    [64, 64, 1]               --
    Empty: 2-12384                    [64]                      --
    Empty: 2-12385                    [64]                      --
    Scaler: 2-12386                   [8, 64, 48]               --
    Empty: 2-12387                    [8, 64, 48]               --
    Empty: 2-12388                    [8, 64, 48]               --
    Clamp: 2-12389                    [8, 64, 48]               --
Dropout: 1-947                         [8, 64, 48]               --
FusedConv1dBNReLU: 1-948               [8, 64, 48]               12,358
    OutputShiftSqueeze: 2-12390       --                        --
    One: 2-12391                      [1]                       --
    OutputScale: 2-12392              --                        --
    Empty: 2-12393                    [64, 64, 3]               --
    Empty: 2-12394                    [64, 64, 3]               --
    Empty: 2-12395                    [64]                      --
    Empty: 2-12396                    [64]                      --
    BatchNorm1d: 2-12397              [8, 64, 48]               --
    Scaler: 2-12398                   [8, 64, 48]               --
    ReLU: 2-12399                     [8, 64, 48]               --
    Empty: 2-12400                    [8, 64, 48]               --
    Clamp: 2-12401                    [8, 64, 48]               --
Conv1d: 1-949                          [8, 64, 48]               4,166
    OutputShiftSqueeze: 2-12402       --                        --
    One: 2-12403                      [1]                       --
    OutputScale: 2-12404              --                        --
    Empty: 2-12405                    [64, 64, 1]               --
    Empty: 2-12406                    [64, 64, 1]               --
    Empty: 2-12407                    [64]                      --
    Empty: 2-12408                    [64]                      --
    Scaler: 2-12409                   [8, 64, 48]               --
    Empty: 2-12410                    [8, 64, 48]               --
    Empty: 2-12411                    [8, 64, 48]               --
    Clamp: 2-12412                    [8, 64, 48]               --
Dropout: 1-950                         [8, 64, 48]               --
FusedConv1dBNReLU: 1-951               [8, 64, 48]               12,358
    OutputShiftSqueeze: 2-12413       --                        --
    One: 2-12414                      [1]                       --
    OutputScale: 2-12415              --                        --
    Empty: 2-12416                    [64, 64, 3]               --
    Empty: 2-12417                    [64, 64, 3]               --
    Empty: 2-12418                    [64]                      --
    Empty: 2-12419                    [64]                      --
    BatchNorm1d: 2-12420              [8, 64, 48]               --
    Scaler: 2-12421                   [8, 64, 48]               --
    ReLU: 2-12422                     [8, 64, 48]               --
    Empty: 2-12423                    [8, 64, 48]               --
    Clamp: 2-12424                    [8, 64, 48]               --
Conv1d: 1-952                          [8, 64, 48]               4,166
    OutputShiftSqueeze: 2-12425       --                        --
    One: 2-12426                      [1]                       --
    OutputScale: 2-12427              --                        --
    Empty: 2-12428                    [64, 64, 1]               --
    Empty: 2-12429                    [64, 64, 1]               --
    Empty: 2-12430                    [64]                      --
    Empty: 2-12431                    [64]                      --
    Scaler: 2-12432                   [8, 64, 48]               --
    Empty: 2-12433                    [8, 64, 48]               --
    Empty: 2-12434                    [8, 64, 48]               --
    Clamp: 2-12435                    [8, 64, 48]               --
Dropout: 1-953                         [8, 64, 48]               --
Conv1d: 1-954                          [8, 5, 48]                331
    OutputShiftSqueeze: 2-12436       --                        --
    One: 2-12437                      [1]                       --
    OutputScale: 2-12438              --                        --
    Empty: 2-12439                    [5, 64, 1]                --
    Empty: 2-12440                    [5, 64, 1]                --
    Empty: 2-12441                    [5]                       --
    Empty: 2-12442                    [5]                       --
    Scaler: 2-12443                   [8, 5, 48]                --
    Empty: 2-12444                    [8, 5, 48]                --
    Empty: 2-12445                    [8, 5, 48]                --
    Clamp: 2-12446                    [8, 5, 48]                --
Conv1d: 1-955                          [8, 64, 48]               390
    OutputShiftSqueeze: 2-12447       --                        --
    One: 2-12448                      [1]                       --
    OutputScale: 2-12449              --                        --
    Empty: 2-12450                    [64, 5, 1]                --
    Empty: 2-12451                    [64, 5, 1]                --
    Empty: 2-12452                    [64]                      --
    Empty: 2-12453                    [64]                      --
    Scaler: 2-12454                   [8, 64, 48]               --
    Empty: 2-12455                    [8, 64, 48]               --
    Empty: 2-12456                    [8, 64, 48]               --
    Clamp: 2-12457                    [8, 64, 48]               --
FusedConv1dBNReLU: 1-956               [8, 64, 48]               12,358
    OutputShiftSqueeze: 2-12458       --                        --
    One: 2-12459                      [1]                       --
    OutputScale: 2-12460              --                        --
    Empty: 2-12461                    [64, 64, 3]               --
    Empty: 2-12462                    [64, 64, 3]               --
    Empty: 2-12463                    [64]                      --
    Empty: 2-12464                    [64]                      --
    BatchNorm1d: 2-12465              [8, 64, 48]               --
    Scaler: 2-12466                   [8, 64, 48]               --
    ReLU: 2-12467                     [8, 64, 48]               --
    Empty: 2-12468                    [8, 64, 48]               --
    Clamp: 2-12469                    [8, 64, 48]               --
Conv1d: 1-957                          [8, 64, 48]               4,166
    OutputShiftSqueeze: 2-12470       --                        --
    One: 2-12471                      [1]                       --
    OutputScale: 2-12472              --                        --
    Empty: 2-12473                    [64, 64, 1]               --
    Empty: 2-12474                    [64, 64, 1]               --
    Empty: 2-12475                    [64]                      --
    Empty: 2-12476                    [64]                      --
    Scaler: 2-12477                   [8, 64, 48]               --
    Empty: 2-12478                    [8, 64, 48]               --
    Empty: 2-12479                    [8, 64, 48]               --
    Clamp: 2-12480                    [8, 64, 48]               --
Dropout: 1-958                         [8, 64, 48]               --
FusedConv1dBNReLU: 1-959               [8, 64, 48]               12,358
    OutputShiftSqueeze: 2-12481       --                        --
    One: 2-12482                      [1]                       --
    OutputScale: 2-12483              --                        --
    Empty: 2-12484                    [64, 64, 3]               --
    Empty: 2-12485                    [64, 64, 3]               --
    Empty: 2-12486                    [64]                      --
    Empty: 2-12487                    [64]                      --
    BatchNorm1d: 2-12488              [8, 64, 48]               --
    Scaler: 2-12489                   [8, 64, 48]               --
    ReLU: 2-12490                     [8, 64, 48]               --
    Empty: 2-12491                    [8, 64, 48]               --
    Clamp: 2-12492                    [8, 64, 48]               --
Conv1d: 1-960                          [8, 64, 48]               4,166
    OutputShiftSqueeze: 2-12493       --                        --
    One: 2-12494                      [1]                       --
    OutputScale: 2-12495              --                        --
    Empty: 2-12496                    [64, 64, 1]               --
    Empty: 2-12497                    [64, 64, 1]               --
    Empty: 2-12498                    [64]                      --
    Empty: 2-12499                    [64]                      --
    Scaler: 2-12500                   [8, 64, 48]               --
    Empty: 2-12501                    [8, 64, 48]               --
    Empty: 2-12502                    [8, 64, 48]               --
    Clamp: 2-12503                    [8, 64, 48]               --
Dropout: 1-961                         [8, 64, 48]               --
FusedConv1dBNReLU: 1-962               [8, 64, 48]               12,358
    OutputShiftSqueeze: 2-12504       --                        --
    One: 2-12505                      [1]                       --
    OutputScale: 2-12506              --                        --
    Empty: 2-12507                    [64, 64, 3]               --
    Empty: 2-12508                    [64, 64, 3]               --
    Empty: 2-12509                    [64]                      --
    Empty: 2-12510                    [64]                      --
    BatchNorm1d: 2-12511              [8, 64, 48]               --
    Scaler: 2-12512                   [8, 64, 48]               --
    ReLU: 2-12513                     [8, 64, 48]               --
    Empty: 2-12514                    [8, 64, 48]               --
    Clamp: 2-12515                    [8, 64, 48]               --
Conv1d: 1-963                          [8, 64, 48]               4,166
    OutputShiftSqueeze: 2-12516       --                        --
    One: 2-12517                      [1]                       --
    OutputScale: 2-12518              --                        --
    Empty: 2-12519                    [64, 64, 1]               --
    Empty: 2-12520                    [64, 64, 1]               --
    Empty: 2-12521                    [64]                      --
    Empty: 2-12522                    [64]                      --
    Scaler: 2-12523                   [8, 64, 48]               --
    Empty: 2-12524                    [8, 64, 48]               --
    Empty: 2-12525                    [8, 64, 48]               --
    Clamp: 2-12526                    [8, 64, 48]               --
Dropout: 1-964                         [8, 64, 48]               --
FusedConv1dBNReLU: 1-965               [8, 64, 48]               12,358
    OutputShiftSqueeze: 2-12527       --                        --
    One: 2-12528                      [1]                       --
    OutputScale: 2-12529              --                        --
    Empty: 2-12530                    [64, 64, 3]               --
    Empty: 2-12531                    [64, 64, 3]               --
    Empty: 2-12532                    [64]                      --
    Empty: 2-12533                    [64]                      --
    BatchNorm1d: 2-12534              [8, 64, 48]               --
    Scaler: 2-12535                   [8, 64, 48]               --
    ReLU: 2-12536                     [8, 64, 48]               --
    Empty: 2-12537                    [8, 64, 48]               --
    Clamp: 2-12538                    [8, 64, 48]               --
Conv1d: 1-966                          [8, 64, 48]               4,166
    OutputShiftSqueeze: 2-12539       --                        --
    One: 2-12540                      [1]                       --
    OutputScale: 2-12541              --                        --
    Empty: 2-12542                    [64, 64, 1]               --
    Empty: 2-12543                    [64, 64, 1]               --
    Empty: 2-12544                    [64]                      --
    Empty: 2-12545                    [64]                      --
    Scaler: 2-12546                   [8, 64, 48]               --
    Empty: 2-12547                    [8, 64, 48]               --
    Empty: 2-12548                    [8, 64, 48]               --
    Clamp: 2-12549                    [8, 64, 48]               --
Dropout: 1-967                         [8, 64, 48]               --
Conv1d: 1-968                          [8, 5, 48]                331
    OutputShiftSqueeze: 2-12550       --                        --
    One: 2-12551                      [1]                       --
    OutputScale: 2-12552              --                        --
    Empty: 2-12553                    [5, 64, 1]                --
    Empty: 2-12554                    [5, 64, 1]                --
    Empty: 2-12555                    [5]                       --
    Empty: 2-12556                    [5]                       --
    Scaler: 2-12557                   [8, 5, 48]                --
    Empty: 2-12558                    [8, 5, 48]                --
    Empty: 2-12559                    [8, 5, 48]                --
    Clamp: 2-12560                    [8, 5, 48]                --
Conv1d: 1-969                          [8, 64, 48]               390
    OutputShiftSqueeze: 2-12561       --                        --
    One: 2-12562                      [1]                       --
    OutputScale: 2-12563              --                        --
    Empty: 2-12564                    [64, 5, 1]                --
    Empty: 2-12565                    [64, 5, 1]                --
    Empty: 2-12566                    [64]                      --
    Empty: 2-12567                    [64]                      --
    Scaler: 2-12568                   [8, 64, 48]               --
    Empty: 2-12569                    [8, 64, 48]               --
    Empty: 2-12570                    [8, 64, 48]               --
    Clamp: 2-12571                    [8, 64, 48]               --
FusedConv1dBNReLU: 1-970               [8, 64, 48]               12,358
    OutputShiftSqueeze: 2-12572       --                        --
    One: 2-12573                      [1]                       --
    OutputScale: 2-12574              --                        --
    Empty: 2-12575                    [64, 64, 3]               --
    Empty: 2-12576                    [64, 64, 3]               --
    Empty: 2-12577                    [64]                      --
    Empty: 2-12578                    [64]                      --
    BatchNorm1d: 2-12579              [8, 64, 48]               --
    Scaler: 2-12580                   [8, 64, 48]               --
    ReLU: 2-12581                     [8, 64, 48]               --
    Empty: 2-12582                    [8, 64, 48]               --
    Clamp: 2-12583                    [8, 64, 48]               --
Conv1d: 1-971                          [8, 64, 48]               4,166
    OutputShiftSqueeze: 2-12584       --                        --
    One: 2-12585                      [1]                       --
    OutputScale: 2-12586              --                        --
    Empty: 2-12587                    [64, 64, 1]               --
    Empty: 2-12588                    [64, 64, 1]               --
    Empty: 2-12589                    [64]                      --
    Empty: 2-12590                    [64]                      --
    Scaler: 2-12591                   [8, 64, 48]               --
    Empty: 2-12592                    [8, 64, 48]               --
    Empty: 2-12593                    [8, 64, 48]               --
    Clamp: 2-12594                    [8, 64, 48]               --
Dropout: 1-972                         [8, 64, 48]               --
FusedConv1dBNReLU: 1-973               [8, 64, 48]               12,358
    OutputShiftSqueeze: 2-12595       --                        --
    One: 2-12596                      [1]                       --
    OutputScale: 2-12597              --                        --
    Empty: 2-12598                    [64, 64, 3]               --
    Empty: 2-12599                    [64, 64, 3]               --
    Empty: 2-12600                    [64]                      --
    Empty: 2-12601                    [64]                      --
    BatchNorm1d: 2-12602              [8, 64, 48]               --
    Scaler: 2-12603                   [8, 64, 48]               --
    ReLU: 2-12604                     [8, 64, 48]               --
    Empty: 2-12605                    [8, 64, 48]               --
    Clamp: 2-12606                    [8, 64, 48]               --
Conv1d: 1-974                          [8, 64, 48]               4,166
    OutputShiftSqueeze: 2-12607       --                        --
    One: 2-12608                      [1]                       --
    OutputScale: 2-12609              --                        --
    Empty: 2-12610                    [64, 64, 1]               --
    Empty: 2-12611                    [64, 64, 1]               --
    Empty: 2-12612                    [64]                      --
    Empty: 2-12613                    [64]                      --
    Scaler: 2-12614                   [8, 64, 48]               --
    Empty: 2-12615                    [8, 64, 48]               --
    Empty: 2-12616                    [8, 64, 48]               --
    Clamp: 2-12617                    [8, 64, 48]               --
Dropout: 1-975                         [8, 64, 48]               --
FusedConv1dBNReLU: 1-976               [8, 64, 48]               12,358
    OutputShiftSqueeze: 2-12618       --                        --
    One: 2-12619                      [1]                       --
    OutputScale: 2-12620              --                        --
    Empty: 2-12621                    [64, 64, 3]               --
    Empty: 2-12622                    [64, 64, 3]               --
    Empty: 2-12623                    [64]                      --
    Empty: 2-12624                    [64]                      --
    BatchNorm1d: 2-12625              [8, 64, 48]               --
    Scaler: 2-12626                   [8, 64, 48]               --
    ReLU: 2-12627                     [8, 64, 48]               --
    Empty: 2-12628                    [8, 64, 48]               --
    Clamp: 2-12629                    [8, 64, 48]               --
Conv1d: 1-977                          [8, 64, 48]               4,166
    OutputShiftSqueeze: 2-12630       --                        --
    One: 2-12631                      [1]                       --
    OutputScale: 2-12632              --                        --
    Empty: 2-12633                    [64, 64, 1]               --
    Empty: 2-12634                    [64, 64, 1]               --
    Empty: 2-12635                    [64]                      --
    Empty: 2-12636                    [64]                      --
    Scaler: 2-12637                   [8, 64, 48]               --
    Empty: 2-12638                    [8, 64, 48]               --
    Empty: 2-12639                    [8, 64, 48]               --
    Clamp: 2-12640                    [8, 64, 48]               --
Dropout: 1-978                         [8, 64, 48]               --
FusedConv1dBNReLU: 1-979               [8, 64, 48]               12,358
    OutputShiftSqueeze: 2-12641       --                        --
    One: 2-12642                      [1]                       --
    OutputScale: 2-12643              --                        --
    Empty: 2-12644                    [64, 64, 3]               --
    Empty: 2-12645                    [64, 64, 3]               --
    Empty: 2-12646                    [64]                      --
    Empty: 2-12647                    [64]                      --
    BatchNorm1d: 2-12648              [8, 64, 48]               --
    Scaler: 2-12649                   [8, 64, 48]               --
    ReLU: 2-12650                     [8, 64, 48]               --
    Empty: 2-12651                    [8, 64, 48]               --
    Clamp: 2-12652                    [8, 64, 48]               --
Conv1d: 1-980                          [8, 64, 48]               4,166
    OutputShiftSqueeze: 2-12653       --                        --
    One: 2-12654                      [1]                       --
    OutputScale: 2-12655              --                        --
    Empty: 2-12656                    [64, 64, 1]               --
    Empty: 2-12657                    [64, 64, 1]               --
    Empty: 2-12658                    [64]                      --
    Empty: 2-12659                    [64]                      --
    Scaler: 2-12660                   [8, 64, 48]               --
    Empty: 2-12661                    [8, 64, 48]               --
    Empty: 2-12662                    [8, 64, 48]               --
    Clamp: 2-12663                    [8, 64, 48]               --
Dropout: 1-981                         [8, 64, 48]               --
Conv1d: 1-982                          [8, 5, 48]                331
    OutputShiftSqueeze: 2-12664       --                        --
    One: 2-12665                      [1]                       --
    OutputScale: 2-12666              --                        --
    Empty: 2-12667                    [5, 64, 1]                --
    Empty: 2-12668                    [5, 64, 1]                --
    Empty: 2-12669                    [5]                       --
    Empty: 2-12670                    [5]                       --
    Scaler: 2-12671                   [8, 5, 48]                --
    Empty: 2-12672                    [8, 5, 48]                --
    Empty: 2-12673                    [8, 5, 48]                --
    Clamp: 2-12674                    [8, 5, 48]                --
==========================================================================================
Total params: 854,263
Trainable params: 853,849
Non-trainable params: 414
Total mult-adds (M): 0.00
==========================================================================================
Input size (MB): 301.99
Forward/backward pass size (MB): 0.00
Params size (MB): 0.00
Estimated Total Size (MB): 301.99
…
