…
I - Label min-max:  tensor(0) tensor(4) data number in dataset:  tensor([169824, 164763, 196171,   7673, 114001,  52277,   6873, 129907,   7517,
          7473, 203743,   9290,   7878, 111940, 165745,   7418])
I - Initializing model TCNv10
I - Number of Model Parameters: 94925
I - Model output shape:  torch.Size([16, 5])
I - Model summary
==========================================================================================
Layer (type:depth-idx)                   Output Shape              Param #
==========================================================================================
TCNv10                                   [16, 5]                   --
├─FusedConv2dBNReLU: 1-1                 [16, 64, 64, 64]          6
│    └─ReLU: 2-1071                      [16, 64, 64, 64]          --
│    └─Conv2d: 2-2                       --                        3,136
│    └─BatchNorm2d: 2-1069               [16, 64, 64, 64]          --
│    └─OutputShiftSqueeze: 2-4           --                        --
│    └─One: 2-5                          [1]                       --
│    └─Scaler: 2-1070                    [16, 64, 64, 64]          --
│    └─OutputScale: 2-7                  --                        --
│    └─Empty: 2-8                        [64, 48, 1, 1]            --
│    └─Empty: 2-9                        [64, 48, 1, 1]            --
│    └─Empty: 2-10                       [64]                      --
│    └─Empty: 2-11                       [64]                      --
│    └─BatchNorm2d: 2-12                 [16, 64, 64, 64]          --
│    └─Scaler: 2-13                      [16, 64, 64, 64]          --
│    └─ReLU: 2-14                        [16, 64, 64, 64]          --
│    └─Empty: 2-15                       [16, 64, 64, 64]          --
├─FusedMaxPoolConv2dBNReLU: 1-80         [16, 64, 32, 32]          (recursive)
│    └─ReLU: 2-1086                      [16, 64, 32, 32]          --
│    └─MaxPool2d: 2-1074                 [16, 64, 32, 32]          --
│    └─Conv2d: 2-18                      --                        36,928
│    └─BatchNorm2d: 2-1084               [16, 64, 32, 32]          --
├─FusedConv2dBNReLU: 1                   --                        --
│    └─Clamp: 2-20                       [16, 64, 64, 64]          --
├─FusedMaxPoolConv2dBNReLU: 1-3          [16, 64, 32, 32]          36,934
│    └─Scaler: 2-1085                    [16, 64, 32, 32]          --
│    └─MaxPool2d: 2-22                   [16, 64, 32, 32]          --
│    └─Empty: 2-23                       [16, 64, 32, 32]          --
│    └─Empty: 2-24                       [16, 64, 32, 32]          --
│    └─OutputShiftSqueeze: 2-25          --                        --
│    └─One: 2-26                         [1]                       --
│    └─OutputScale: 2-27                 --                        --
│    └─Empty: 2-28                       [64, 64, 3, 3]            --
│    └─Empty: 2-29                       [64, 64, 3, 3]            --
│    └─Empty: 2-30                       [64]                      --
├─FusedMaxPoolConv2dBNReLU: 1-81         [16, 64, 16, 16]          (recursive)
│    └─ReLU: 2-1101                      [16, 64, 16, 16]          --
│    └─MaxPool2d: 2-1089                 [16, 64, 16, 16]          --
│    └─Conv2d: 2-33                      --                        36,928
│    └─BatchNorm2d: 2-1099               [16, 64, 16, 16]          --
├─FusedMaxPoolConv2dBNReLU: 1            --                        --
│    └─Empty: 2-35                       [64]                      --
│    └─BatchNorm2d: 2-36                 [16, 64, 32, 32]          --
├─FusedMaxPoolConv2dBNReLU: 1            --                        --
│    └─Scaler: 2-1100                    [16, 64, 16, 16]          --
├─FusedMaxPoolConv2dBNReLU: 1            --                        --
│    └─Scaler: 2-38                      [16, 64, 32, 32]          --
│    └─ReLU: 2-39                        [16, 64, 32, 32]          --
│    └─Empty: 2-40                       [16, 64, 32, 32]          --
│    └─Clamp: 2-41                       [16, 64, 32, 32]          --
├─FusedMaxPoolConv2dBNReLU: 1-5          [16, 64, 16, 16]          36,674
│    └─MaxPool2d: 2-42                   [16, 64, 16, 16]          --
│    └─Empty: 2-43                       [16, 64, 16, 16]          --
│    └─Empty: 2-1090                     [16, 64, 16, 16]          --
│    └─Empty: 2-1091                     [16, 64, 16, 16]          --
│    └─Empty: 2-46                       [16, 64, 16, 16]          --
├─FusedConv2dBNReLU: 1                   --                        --
│    └─ReLU: 2-1113                      [16, 4, 16, 16]           --
│    └─Conv2d: 2-48                      --                        260
│    └─BatchNorm2d: 2-1111               [16, 4, 16, 16]           --
├─FusedMaxPoolConv2dBNReLU: 1            --                        --
│    └─OutputShiftSqueeze: 2-50          --                        --
│    └─One: 2-51                         [1]                       --
├─FusedConv2dBNReLU: 1                   --                        --
│    └─Scaler: 2-1112                    [16, 4, 16, 16]           --
├─FusedMaxPoolConv2dBNReLU: 1            --                        --
│    └─OutputScale: 2-53                 --                        --
│    └─Empty: 2-54                       [64, 64, 3, 3]            --
│    └─Empty: 2-55                       [64, 64, 3, 3]            --
│    └─Empty: 2-56                       [64]                      --
│    └─Empty: 2-57                       [64]                      --
│    └─BatchNorm2d: 2-58                 [16, 64, 16, 16]          --
│    └─Scaler: 2-59                      [16, 64, 16, 16]          --
│    └─ReLU: 2-60                        [16, 64, 16, 16]          --
│    └─Empty: 2-61                       [16, 64, 16, 16]          --
├─FusedMaxPoolConv2dBNReLU: 1-83         [16, 4, 16, 16]           (recursive)
│    └─ReLU: 2-1128                      [16, 4, 16, 16]           --
│    └─MaxPool2d: 2-1116                 [16, 64, 16, 16]          --
│    └─Conv2d: 2-64                      --                        2,308
│    └─BatchNorm2d: 2-1126               [16, 4, 16, 16]           --
├─FusedMaxPoolConv2dBNReLU: 1            --                        --
│    └─Clamp: 2-66                       [16, 64, 16, 16]          --
├─FusedConv2dBNReLU: 1-7                 [16, 4, 16, 16]           266
├─FusedMaxPoolConv2dBNReLU: 1            --                        --
│    └─Scaler: 2-1127                    [16, 4, 16, 16]           --
├─FusedConv2dBNReLU: 1                   --                        --
│    └─OutputShiftSqueeze: 2-68          --                        --
│    └─One: 2-69                         [1]                       --
│    └─OutputScale: 2-70                 --                        --
│    └─Empty: 2-71                       [4, 64, 1, 1]             --
│    └─Empty: 2-72                       [4, 64, 1, 1]             --
│    └─Empty: 2-73                       [4]                       --
│    └─Empty: 2-74                       [4]                       --
│    └─BatchNorm2d: 2-75                 [16, 4, 16, 16]           --
│    └─Scaler: 2-76                      [16, 4, 16, 16]           --
│    └─ReLU: 2-77                        [16, 4, 16, 16]           --
│    └─Empty: 2-78                       [16, 4, 16, 16]           --
│    └─Clamp: 2-79                       [16, 4, 16, 16]           --
├─FusedMaxPoolConv2dBNReLU: 1-8          [16, 4, 16, 16]           2,314
│    └─MaxPool2d: 2-80                   [16, 64, 16, 16]          --
├─Conv1d: 1                              --                        --
│    └─Scaler: 2-1138                    [16, 5, 14]               --
├─FusedMaxPoolConv2dBNReLU: 1            --                        --
│    └─Empty: 2-82                       [16, 64, 16, 16]          --
│    └─Empty: 2-83                       [16, 64, 16, 16]          --
│    └─OutputShiftSqueeze: 2-84          --                        --
│    └─One: 2-85                         [1]                       --
│    └─OutputScale: 2-86                 --                        --
│    └─Empty: 2-87                       [4, 64, 3, 3]             --
│    └─Empty: 2-88                       [4, 64, 3, 3]             --
│    └─Empty: 2-89                       [4]                       --
│    └─Empty: 2-90                       [4]                       --
│    └─BatchNorm2d: 2-91                 [16, 4, 16, 16]           --
│    └─Scaler: 2-92                      [16, 4, 16, 16]           --
│    └─ReLU: 2-93                        [16, 4, 16, 16]           --
│    └─Empty: 2-94                       [16, 4, 16, 16]           --
│    └─Clamp: 2-95                       [16, 4, 16, 16]           --
├─FusedConv2dBNReLU: 1-9                 [16, 64, 64, 64]          (recursive)
│    └─OutputShiftSqueeze: 2-96          --                        --
│    └─One: 2-97                         [1]                       --
│    └─OutputScale: 2-98                 --                        --
│    └─Empty: 2-99                       [64, 48, 1, 1]            --
│    └─Empty: 2-100                      [64, 48, 1, 1]            --
│    └─Empty: 2-101                      [64]                      --
│    └─Empty: 2-102                      [64]                      --
│    └─BatchNorm2d: 2-103                [16, 64, 64, 64]          --
│    └─Scaler: 2-104                     [16, 64, 64, 64]          --
│    └─ReLU: 2-105                       [16, 64, 64, 64]          --
│    └─Empty: 2-106                      [16, 64, 64, 64]          --
│    └─Clamp: 2-107                      [16, 64, 64, 64]          --
├─FusedMaxPoolConv2dBNReLU: 1-10         [16, 64, 32, 32]          (recursive)
│    └─MaxPool2d: 2-108                  [16, 64, 32, 32]          --
│    └─Empty: 2-109                      [16, 64, 32, 32]          --
│    └─Empty: 2-110                      [16, 64, 32, 32]          --
│    └─OutputShiftSqueeze: 2-111         --                        --
│    └─One: 2-112                        [1]                       --
│    └─OutputScale: 2-113                --                        --
│    └─Empty: 2-114                      [64, 64, 3, 3]            --
│    └─Empty: 2-115                      [64, 64, 3, 3]            --
│    └─Empty: 2-116                      [64]                      --
│    └─Empty: 2-117                      [64]                      --
│    └─BatchNorm2d: 2-118                [16, 64, 32, 32]          --
│    └─Scaler: 2-119                     [16, 64, 32, 32]          --
│    └─ReLU: 2-120                       [16, 64, 32, 32]          --
│    └─Empty: 2-121                      [16, 64, 32, 32]          --
│    └─Clamp: 2-122                      [16, 64, 32, 32]          --
├─FusedMaxPoolConv2dBNReLU: 1-11         [16, 64, 16, 16]          (recursive)
│    └─MaxPool2d: 2-123                  [16, 64, 16, 16]          --
│    └─Empty: 2-124                      [16, 64, 16, 16]          --
│    └─Empty: 2-125                      [16, 64, 16, 16]          --
│    └─OutputShiftSqueeze: 2-126         --                        --
│    └─One: 2-127                        [1]                       --
│    └─OutputScale: 2-128                --                        --
│    └─Empty: 2-129                      [64, 64, 3, 3]            --
│    └─Empty: 2-130                      [64, 64, 3, 3]            --
│    └─Empty: 2-131                      [64]                      --
│    └─Empty: 2-132                      [64]                      --
│    └─BatchNorm2d: 2-133                [16, 64, 16, 16]          --
│    └─Scaler: 2-134                     [16, 64, 16, 16]          --
│    └─ReLU: 2-135                       [16, 64, 16, 16]          --
│    └─Empty: 2-136                      [16, 64, 16, 16]          --
│    └─Clamp: 2-137                      [16, 64, 16, 16]          --
├─FusedConv2dBNReLU: 1-12                [16, 4, 16, 16]           (recursive)
│    └─OutputShiftSqueeze: 2-138         --                        --
│    └─One: 2-139                        [1]                       --
│    └─OutputScale: 2-140                --                        --
│    └─Empty: 2-141                      [4, 64, 1, 1]             --
│    └─Empty: 2-142                      [4, 64, 1, 1]             --
│    └─Empty: 2-143                      [4]                       --
│    └─Empty: 2-144                      [4]                       --
│    └─BatchNorm2d: 2-145                [16, 4, 16, 16]           --
│    └─Scaler: 2-146                     [16, 4, 16, 16]           --
│    └─ReLU: 2-147                       [16, 4, 16, 16]           --
│    └─Empty: 2-148                      [16, 4, 16, 16]           --
│    └─Clamp: 2-149                      [16, 4, 16, 16]           --
├─FusedMaxPoolConv2dBNReLU: 1-13         [16, 4, 16, 16]           (recursive)
│    └─MaxPool2d: 2-150                  [16, 64, 16, 16]          --
│    └─Empty: 2-151                      [16, 64, 16, 16]          --
│    └─Empty: 2-152                      [16, 64, 16, 16]          --
│    └─OutputShiftSqueeze: 2-153         --                        --
│    └─One: 2-154                        [1]                       --
│    └─OutputScale: 2-155                --                        --
│    └─Empty: 2-156                      [4, 64, 3, 3]             --
│    └─Empty: 2-157                      [4, 64, 3, 3]             --
│    └─Empty: 2-158                      [4]                       --
│    └─Empty: 2-159                      [4]                       --
│    └─BatchNorm2d: 2-160                [16, 4, 16, 16]           --
│    └─Scaler: 2-161                     [16, 4, 16, 16]           --
│    └─ReLU: 2-162                       [16, 4, 16, 16]           --
│    └─Empty: 2-163                      [16, 4, 16, 16]           --
│    └─Clamp: 2-164                      [16, 4, 16, 16]           --
├─FusedConv2dBNReLU: 1-14                [16, 64, 64, 64]          (recursive)
│    └─OutputShiftSqueeze: 2-165         --                        --
│    └─One: 2-166                        [1]                       --
│    └─OutputScale: 2-167                --                        --
│    └─Empty: 2-168                      [64, 48, 1, 1]            --
│    └─Empty: 2-169                      [64, 48, 1, 1]            --
│    └─Empty: 2-170                      [64]                      --
│    └─Empty: 2-171                      [64]                      --
│    └─BatchNorm2d: 2-172                [16, 64, 64, 64]          --
│    └─Scaler: 2-173                     [16, 64, 64, 64]          --
│    └─ReLU: 2-174                       [16, 64, 64, 64]          --
│    └─Empty: 2-175                      [16, 64, 64, 64]          --
│    └─Clamp: 2-176                      [16, 64, 64, 64]          --
├─FusedMaxPoolConv2dBNReLU: 1-15         [16, 64, 32, 32]          (recursive)
│    └─MaxPool2d: 2-177                  [16, 64, 32, 32]          --
│    └─Empty: 2-178                      [16, 64, 32, 32]          --
│    └─Empty: 2-179                      [16, 64, 32, 32]          --
│    └─OutputShiftSqueeze: 2-180         --                        --
│    └─One: 2-181                        [1]                       --
│    └─OutputScale: 2-182                --                        --
│    └─Empty: 2-183                      [64, 64, 3, 3]            --
│    └─Empty: 2-184                      [64, 64, 3, 3]            --
│    └─Empty: 2-185                      [64]                      --
│    └─Empty: 2-186                      [64]                      --
│    └─BatchNorm2d: 2-187                [16, 64, 32, 32]          --
│    └─Scaler: 2-188                     [16, 64, 32, 32]          --
│    └─ReLU: 2-189                       [16, 64, 32, 32]          --
│    └─Empty: 2-190                      [16, 64, 32, 32]          --
│    └─Clamp: 2-191                      [16, 64, 32, 32]          --
├─FusedMaxPoolConv2dBNReLU: 1-16         [16, 64, 16, 16]          (recursive)
│    └─MaxPool2d: 2-192                  [16, 64, 16, 16]          --
│    └─Empty: 2-193                      [16, 64, 16, 16]          --
│    └─Empty: 2-194                      [16, 64, 16, 16]          --
│    └─OutputShiftSqueeze: 2-195         --                        --
│    └─One: 2-196                        [1]                       --
│    └─OutputScale: 2-197                --                        --
│    └─Empty: 2-198                      [64, 64, 3, 3]            --
│    └─Empty: 2-199                      [64, 64, 3, 3]            --
│    └─Empty: 2-200                      [64]                      --
│    └─Empty: 2-201                      [64]                      --
│    └─BatchNorm2d: 2-202                [16, 64, 16, 16]          --
│    └─Scaler: 2-203                     [16, 64, 16, 16]          --
│    └─ReLU: 2-204                       [16, 64, 16, 16]          --
│    └─Empty: 2-205                      [16, 64, 16, 16]          --
│    └─Clamp: 2-206                      [16, 64, 16, 16]          --
├─FusedConv2dBNReLU: 1-17                [16, 4, 16, 16]           (recursive)
│    └─OutputShiftSqueeze: 2-207         --                        --
│    └─One: 2-208                        [1]                       --
│    └─OutputScale: 2-209                --                        --
│    └─Empty: 2-210                      [4, 64, 1, 1]             --
│    └─Empty: 2-211                      [4, 64, 1, 1]             --
│    └─Empty: 2-212                      [4]                       --
│    └─Empty: 2-213                      [4]                       --
│    └─BatchNorm2d: 2-214                [16, 4, 16, 16]           --
│    └─Scaler: 2-215                     [16, 4, 16, 16]           --
│    └─ReLU: 2-216                       [16, 4, 16, 16]           --
│    └─Empty: 2-217                      [16, 4, 16, 16]           --
│    └─Clamp: 2-218                      [16, 4, 16, 16]           --
├─FusedMaxPoolConv2dBNReLU: 1-18         [16, 4, 16, 16]           (recursive)
│    └─MaxPool2d: 2-219                  [16, 64, 16, 16]          --
│    └─Empty: 2-220                      [16, 64, 16, 16]          --
│    └─Empty: 2-221                      [16, 64, 16, 16]          --
│    └─OutputShiftSqueeze: 2-222         --                        --
│    └─One: 2-223                        [1]                       --
│    └─OutputScale: 2-224                --                        --
│    └─Empty: 2-225                      [4, 64, 3, 3]             --
│    └─Empty: 2-226                      [4, 64, 3, 3]             --
│    └─Empty: 2-227                      [4]                       --
│    └─Empty: 2-228                      [4]                       --
│    └─BatchNorm2d: 2-229                [16, 4, 16, 16]           --
│    └─Scaler: 2-230                     [16, 4, 16, 16]           --
│    └─ReLU: 2-231                       [16, 4, 16, 16]           --
│    └─Empty: 2-232                      [16, 4, 16, 16]           --
│    └─Clamp: 2-233                      [16, 4, 16, 16]           --
├─FusedConv2dBNReLU: 1-19                [16, 64, 64, 64]          (recursive)
│    └─OutputShiftSqueeze: 2-234         --                        --
│    └─One: 2-235                        [1]                       --
│    └─OutputScale: 2-236                --                        --
│    └─Empty: 2-237                      [64, 48, 1, 1]            --
│    └─Empty: 2-238                      [64, 48, 1, 1]            --
│    └─Empty: 2-239                      [64]                      --
│    └─Empty: 2-240                      [64]                      --
│    └─BatchNorm2d: 2-241                [16, 64, 64, 64]          --
│    └─Scaler: 2-242                     [16, 64, 64, 64]          --
│    └─ReLU: 2-243                       [16, 64, 64, 64]          --
│    └─Empty: 2-244                      [16, 64, 64, 64]          --
│    └─Clamp: 2-245                      [16, 64, 64, 64]          --
├─FusedMaxPoolConv2dBNReLU: 1-20         [16, 64, 32, 32]          (recursive)
│    └─MaxPool2d: 2-246                  [16, 64, 32, 32]          --
│    └─Empty: 2-247                      [16, 64, 32, 32]          --
│    └─Empty: 2-248                      [16, 64, 32, 32]          --
│    └─OutputShiftSqueeze: 2-249         --                        --
│    └─One: 2-250                        [1]                       --
│    └─OutputScale: 2-251                --                        --
│    └─Empty: 2-252                      [64, 64, 3, 3]            --
│    └─Empty: 2-253                      [64, 64, 3, 3]            --
│    └─Empty: 2-254                      [64]                      --
│    └─Empty: 2-255                      [64]                      --
│    └─BatchNorm2d: 2-256                [16, 64, 32, 32]          --
│    └─Scaler: 2-257                     [16, 64, 32, 32]          --
│    └─ReLU: 2-258                       [16, 64, 32, 32]          --
│    └─Empty: 2-259                      [16, 64, 32, 32]          --
│    └─Clamp: 2-260                      [16, 64, 32, 32]          --
├─FusedMaxPoolConv2dBNReLU: 1-21         [16, 64, 16, 16]          (recursive)
│    └─MaxPool2d: 2-261                  [16, 64, 16, 16]          --
│    └─Empty: 2-262                      [16, 64, 16, 16]          --
│    └─Empty: 2-263                      [16, 64, 16, 16]          --
│    └─OutputShiftSqueeze: 2-264         --                        --
│    └─One: 2-265                        [1]                       --
│    └─OutputScale: 2-266                --                        --
│    └─Empty: 2-267                      [64, 64, 3, 3]            --
│    └─Empty: 2-268                      [64, 64, 3, 3]            --
│    └─Empty: 2-269                      [64]                      --
│    └─Empty: 2-270                      [64]                      --
│    └─BatchNorm2d: 2-271                [16, 64, 16, 16]          --
│    └─Scaler: 2-272                     [16, 64, 16, 16]          --
│    └─ReLU: 2-273                       [16, 64, 16, 16]          --
│    └─Empty: 2-274                      [16, 64, 16, 16]          --
│    └─Clamp: 2-275                      [16, 64, 16, 16]          --
├─FusedConv2dBNReLU: 1-22                [16, 4, 16, 16]           (recursive)
│    └─OutputShiftSqueeze: 2-276         --                        --
│    └─One: 2-277                        [1]                       --
│    └─OutputScale: 2-278                --                        --
│    └─Empty: 2-279                      [4, 64, 1, 1]             --
│    └─Empty: 2-280                      [4, 64, 1, 1]             --
│    └─Empty: 2-281                      [4]                       --
│    └─Empty: 2-282                      [4]                       --
│    └─BatchNorm2d: 2-283                [16, 4, 16, 16]           --
│    └─Scaler: 2-284                     [16, 4, 16, 16]           --
│    └─ReLU: 2-285                       [16, 4, 16, 16]           --
│    └─Empty: 2-286                      [16, 4, 16, 16]           --
│    └─Clamp: 2-287                      [16, 4, 16, 16]           --
├─FusedMaxPoolConv2dBNReLU: 1-23         [16, 4, 16, 16]           (recursive)
│    └─MaxPool2d: 2-288                  [16, 64, 16, 16]          --
│    └─Empty: 2-289                      [16, 64, 16, 16]          --
│    └─Empty: 2-290                      [16, 64, 16, 16]          --
│    └─OutputShiftSqueeze: 2-291         --                        --
│    └─One: 2-292                        [1]                       --
│    └─OutputScale: 2-293                --                        --
│    └─Empty: 2-294                      [4, 64, 3, 3]             --
│    └─Empty: 2-295                      [4, 64, 3, 3]             --
│    └─Empty: 2-296                      [4]                       --
│    └─Empty: 2-297                      [4]                       --
│    └─BatchNorm2d: 2-298                [16, 4, 16, 16]           --
│    └─Scaler: 2-299                     [16, 4, 16, 16]           --
│    └─ReLU: 2-300                       [16, 4, 16, 16]           --
│    └─Empty: 2-301                      [16, 4, 16, 16]           --
│    └─Clamp: 2-302                      [16, 4, 16, 16]           --
├─FusedConv2dBNReLU: 1-24                [16, 64, 64, 64]          (recursive)
│    └─OutputShiftSqueeze: 2-303         --                        --
│    └─One: 2-304                        [1]                       --
│    └─OutputScale: 2-305                --                        --
│    └─Empty: 2-306                      [64, 48, 1, 1]            --
│    └─Empty: 2-307                      [64, 48, 1, 1]            --
│    └─Empty: 2-308                      [64]                      --
│    └─Empty: 2-309                      [64]                      --
│    └─BatchNorm2d: 2-310                [16, 64, 64, 64]          --
│    └─Scaler: 2-311                     [16, 64, 64, 64]          --
│    └─ReLU: 2-312                       [16, 64, 64, 64]          --
│    └─Empty: 2-313                      [16, 64, 64, 64]          --
│    └─Clamp: 2-314                      [16, 64, 64, 64]          --
├─FusedMaxPoolConv2dBNReLU: 1-25         [16, 64, 32, 32]          (recursive)
│    └─MaxPool2d: 2-315                  [16, 64, 32, 32]          --
│    └─Empty: 2-316                      [16, 64, 32, 32]          --
│    └─Empty: 2-317                      [16, 64, 32, 32]          --
│    └─OutputShiftSqueeze: 2-318         --                        --
│    └─One: 2-319                        [1]                       --
│    └─OutputScale: 2-320                --                        --
│    └─Empty: 2-321                      [64, 64, 3, 3]            --
│    └─Empty: 2-322                      [64, 64, 3, 3]            --
│    └─Empty: 2-323                      [64]                      --
│    └─Empty: 2-324                      [64]                      --
│    └─BatchNorm2d: 2-325                [16, 64, 32, 32]          --
│    └─Scaler: 2-326                     [16, 64, 32, 32]          --
│    └─ReLU: 2-327                       [16, 64, 32, 32]          --
│    └─Empty: 2-328                      [16, 64, 32, 32]          --
│    └─Clamp: 2-329                      [16, 64, 32, 32]          --
├─FusedMaxPoolConv2dBNReLU: 1-26         [16, 64, 16, 16]          (recursive)
│    └─MaxPool2d: 2-330                  [16, 64, 16, 16]          --
│    └─Empty: 2-331                      [16, 64, 16, 16]          --
│    └─Empty: 2-332                      [16, 64, 16, 16]          --
│    └─OutputShiftSqueeze: 2-333         --                        --
│    └─One: 2-334                        [1]                       --
│    └─OutputScale: 2-335                --                        --
│    └─Empty: 2-336                      [64, 64, 3, 3]            --
│    └─Empty: 2-337                      [64, 64, 3, 3]            --
│    └─Empty: 2-338                      [64]                      --
│    └─Empty: 2-339                      [64]                      --
│    └─BatchNorm2d: 2-340                [16, 64, 16, 16]          --
│    └─Scaler: 2-341                     [16, 64, 16, 16]          --
│    └─ReLU: 2-342                       [16, 64, 16, 16]          --
│    └─Empty: 2-343                      [16, 64, 16, 16]          --
│    └─Clamp: 2-344                      [16, 64, 16, 16]          --
├─FusedConv2dBNReLU: 1-27                [16, 4, 16, 16]           (recursive)
│    └─OutputShiftSqueeze: 2-345         --                        --
│    └─One: 2-346                        [1]                       --
│    └─OutputScale: 2-347                --                        --
│    └─Empty: 2-348                      [4, 64, 1, 1]             --
│    └─Empty: 2-349                      [4, 64, 1, 1]             --
│    └─Empty: 2-350                      [4]                       --
│    └─Empty: 2-351                      [4]                       --
│    └─BatchNorm2d: 2-352                [16, 4, 16, 16]           --
│    └─Scaler: 2-353                     [16, 4, 16, 16]           --
│    └─ReLU: 2-354                       [16, 4, 16, 16]           --
│    └─Empty: 2-355                      [16, 4, 16, 16]           --
│    └─Clamp: 2-356                      [16, 4, 16, 16]           --
├─FusedMaxPoolConv2dBNReLU: 1-28         [16, 4, 16, 16]           (recursive)
│    └─MaxPool2d: 2-357                  [16, 64, 16, 16]          --
│    └─Empty: 2-358                      [16, 64, 16, 16]          --
│    └─Empty: 2-359                      [16, 64, 16, 16]          --
│    └─OutputShiftSqueeze: 2-360         --                        --
│    └─One: 2-361                        [1]                       --
│    └─OutputScale: 2-362                --                        --
│    └─Empty: 2-363                      [4, 64, 3, 3]             --
│    └─Empty: 2-364                      [4, 64, 3, 3]             --
│    └─Empty: 2-365                      [4]                       --
│    └─Empty: 2-366                      [4]                       --
│    └─BatchNorm2d: 2-367                [16, 4, 16, 16]           --
│    └─Scaler: 2-368                     [16, 4, 16, 16]           --
│    └─ReLU: 2-369                       [16, 4, 16, 16]           --
│    └─Empty: 2-370                      [16, 4, 16, 16]           --
│    └─Clamp: 2-371                      [16, 4, 16, 16]           --
├─FusedConv2dBNReLU: 1-29                [16, 64, 64, 64]          (recursive)
│    └─OutputShiftSqueeze: 2-372         --                        --
│    └─One: 2-373                        [1]                       --
│    └─OutputScale: 2-374                --                        --
│    └─Empty: 2-375                      [64, 48, 1, 1]            --
│    └─Empty: 2-376                      [64, 48, 1, 1]            --
│    └─Empty: 2-377                      [64]                      --
│    └─Empty: 2-378                      [64]                      --
│    └─BatchNorm2d: 2-379                [16, 64, 64, 64]          --
│    └─Scaler: 2-380                     [16, 64, 64, 64]          --
│    └─ReLU: 2-381                       [16, 64, 64, 64]          --
│    └─Empty: 2-382                      [16, 64, 64, 64]          --
│    └─Clamp: 2-383                      [16, 64, 64, 64]          --
├─FusedMaxPoolConv2dBNReLU: 1-30         [16, 64, 32, 32]          (recursive)
│    └─MaxPool2d: 2-384                  [16, 64, 32, 32]          --
│    └─Empty: 2-385                      [16, 64, 32, 32]          --
│    └─Empty: 2-386                      [16, 64, 32, 32]          --
│    └─OutputShiftSqueeze: 2-387         --                        --
│    └─One: 2-388                        [1]                       --
│    └─OutputScale: 2-389                --                        --
│    └─Empty: 2-390                      [64, 64, 3, 3]            --
│    └─Empty: 2-391                      [64, 64, 3, 3]            --
│    └─Empty: 2-392                      [64]                      --
│    └─Empty: 2-393                      [64]                      --
│    └─BatchNorm2d: 2-394                [16, 64, 32, 32]          --
│    └─Scaler: 2-395                     [16, 64, 32, 32]          --
│    └─ReLU: 2-396                       [16, 64, 32, 32]          --
│    └─Empty: 2-397                      [16, 64, 32, 32]          --
│    └─Clamp: 2-398                      [16, 64, 32, 32]          --
├─FusedMaxPoolConv2dBNReLU: 1-31         [16, 64, 16, 16]          (recursive)
│    └─MaxPool2d: 2-399                  [16, 64, 16, 16]          --
│    └─Empty: 2-400                      [16, 64, 16, 16]          --
│    └─Empty: 2-401                      [16, 64, 16, 16]          --
│    └─OutputShiftSqueeze: 2-402         --                        --
│    └─One: 2-403                        [1]                       --
│    └─OutputScale: 2-404                --                        --
│    └─Empty: 2-405                      [64, 64, 3, 3]            --
│    └─Empty: 2-406                      [64, 64, 3, 3]            --
│    └─Empty: 2-407                      [64]                      --
│    └─Empty: 2-408                      [64]                      --
│    └─BatchNorm2d: 2-409                [16, 64, 16, 16]          --
│    └─Scaler: 2-410                     [16, 64, 16, 16]          --
│    └─ReLU: 2-411                       [16, 64, 16, 16]          --
│    └─Empty: 2-412                      [16, 64, 16, 16]          --
│    └─Clamp: 2-413                      [16, 64, 16, 16]          --
├─FusedConv2dBNReLU: 1-32                [16, 4, 16, 16]           (recursive)
│    └─OutputShiftSqueeze: 2-414         --                        --
│    └─One: 2-415                        [1]                       --
│    └─OutputScale: 2-416                --                        --
│    └─Empty: 2-417                      [4, 64, 1, 1]             --
│    └─Empty: 2-418                      [4, 64, 1, 1]             --
│    └─Empty: 2-419                      [4]                       --
│    └─Empty: 2-420                      [4]                       --
│    └─BatchNorm2d: 2-421                [16, 4, 16, 16]           --
│    └─Scaler: 2-422                     [16, 4, 16, 16]           --
│    └─ReLU: 2-423                       [16, 4, 16, 16]           --
│    └─Empty: 2-424                      [16, 4, 16, 16]           --
│    └─Clamp: 2-425                      [16, 4, 16, 16]           --
├─FusedMaxPoolConv2dBNReLU: 1-33         [16, 4, 16, 16]           (recursive)
│    └─MaxPool2d: 2-426                  [16, 64, 16, 16]          --
│    └─Empty: 2-427                      [16, 64, 16, 16]          --
│    └─Empty: 2-428                      [16, 64, 16, 16]          --
│    └─OutputShiftSqueeze: 2-429         --                        --
│    └─One: 2-430                        [1]                       --
│    └─OutputScale: 2-431                --                        --
│    └─Empty: 2-432                      [4, 64, 3, 3]             --
│    └─Empty: 2-433                      [4, 64, 3, 3]             --
│    └─Empty: 2-434                      [4]                       --
│    └─Empty: 2-435                      [4]                       --
│    └─BatchNorm2d: 2-436                [16, 4, 16, 16]           --
│    └─Scaler: 2-437                     [16, 4, 16, 16]           --
│    └─ReLU: 2-438                       [16, 4, 16, 16]           --
│    └─Empty: 2-439                      [16, 4, 16, 16]           --
│    └─Clamp: 2-440                      [16, 4, 16, 16]           --
├─FusedConv2dBNReLU: 1-34                [16, 64, 64, 64]          (recursive)
│    └─OutputShiftSqueeze: 2-441         --                        --
│    └─One: 2-442                        [1]                       --
│    └─OutputScale: 2-443                --                        --
│    └─Empty: 2-444                      [64, 48, 1, 1]            --
│    └─Empty: 2-445                      [64, 48, 1, 1]            --
│    └─Empty: 2-446                      [64]                      --
│    └─Empty: 2-447                      [64]                      --
│    └─BatchNorm2d: 2-448                [16, 64, 64, 64]          --
│    └─Scaler: 2-449                     [16, 64, 64, 64]          --
│    └─ReLU: 2-450                       [16, 64, 64, 64]          --
│    └─Empty: 2-451                      [16, 64, 64, 64]          --
│    └─Clamp: 2-452                      [16, 64, 64, 64]          --
├─FusedMaxPoolConv2dBNReLU: 1-35         [16, 64, 32, 32]          (recursive)
│    └─MaxPool2d: 2-453                  [16, 64, 32, 32]          --
│    └─Empty: 2-454                      [16, 64, 32, 32]          --
│    └─Empty: 2-455                      [16, 64, 32, 32]          --
│    └─OutputShiftSqueeze: 2-456         --                        --
│    └─One: 2-457                        [1]                       --
│    └─OutputScale: 2-458                --                        --
│    └─Empty: 2-459                      [64, 64, 3, 3]            --
│    └─Empty: 2-460                      [64, 64, 3, 3]            --
│    └─Empty: 2-461                      [64]                      --
│    └─Empty: 2-462                      [64]                      --
│    └─BatchNorm2d: 2-463                [16, 64, 32, 32]          --
│    └─Scaler: 2-464                     [16, 64, 32, 32]          --
│    └─ReLU: 2-465                       [16, 64, 32, 32]          --
│    └─Empty: 2-466                      [16, 64, 32, 32]          --
│    └─Clamp: 2-467                      [16, 64, 32, 32]          --
├─FusedMaxPoolConv2dBNReLU: 1-36         [16, 64, 16, 16]          (recursive)
│    └─MaxPool2d: 2-468                  [16, 64, 16, 16]          --
│    └─Empty: 2-469                      [16, 64, 16, 16]          --
│    └─Empty: 2-470                      [16, 64, 16, 16]          --
│    └─OutputShiftSqueeze: 2-471         --                        --
│    └─One: 2-472                        [1]                       --
│    └─OutputScale: 2-473                --                        --
│    └─Empty: 2-474                      [64, 64, 3, 3]            --
│    └─Empty: 2-475                      [64, 64, 3, 3]            --
│    └─Empty: 2-476                      [64]                      --
│    └─Empty: 2-477                      [64]                      --
│    └─BatchNorm2d: 2-478                [16, 64, 16, 16]          --
│    └─Scaler: 2-479                     [16, 64, 16, 16]          --
│    └─ReLU: 2-480                       [16, 64, 16, 16]          --
│    └─Empty: 2-481                      [16, 64, 16, 16]          --
│    └─Clamp: 2-482                      [16, 64, 16, 16]          --
├─FusedConv2dBNReLU: 1-37                [16, 4, 16, 16]           (recursive)
│    └─OutputShiftSqueeze: 2-483         --                        --
│    └─One: 2-484                        [1]                       --
│    └─OutputScale: 2-485                --                        --
│    └─Empty: 2-486                      [4, 64, 1, 1]             --
│    └─Empty: 2-487                      [4, 64, 1, 1]             --
│    └─Empty: 2-488                      [4]                       --
│    └─Empty: 2-489                      [4]                       --
│    └─BatchNorm2d: 2-490                [16, 4, 16, 16]           --
│    └─Scaler: 2-491                     [16, 4, 16, 16]           --
│    └─ReLU: 2-492                       [16, 4, 16, 16]           --
│    └─Empty: 2-493                      [16, 4, 16, 16]           --
│    └─Clamp: 2-494                      [16, 4, 16, 16]           --
├─FusedMaxPoolConv2dBNReLU: 1-38         [16, 4, 16, 16]           (recursive)
│    └─MaxPool2d: 2-495                  [16, 64, 16, 16]          --
│    └─Empty: 2-496                      [16, 64, 16, 16]          --
│    └─Empty: 2-497                      [16, 64, 16, 16]          --
│    └─OutputShiftSqueeze: 2-498         --                        --
│    └─One: 2-499                        [1]                       --
│    └─OutputScale: 2-500                --                        --
│    └─Empty: 2-501                      [4, 64, 3, 3]             --
│    └─Empty: 2-502                      [4, 64, 3, 3]             --
│    └─Empty: 2-503                      [4]                       --
│    └─Empty: 2-504                      [4]                       --
│    └─BatchNorm2d: 2-505                [16, 4, 16, 16]           --
│    └─Scaler: 2-506                     [16, 4, 16, 16]           --
│    └─ReLU: 2-507                       [16, 4, 16, 16]           --
│    └─Empty: 2-508                      [16, 4, 16, 16]           --
│    └─Clamp: 2-509                      [16, 4, 16, 16]           --
├─FusedConv2dBNReLU: 1-39                [16, 64, 64, 64]          (recursive)
│    └─OutputShiftSqueeze: 2-510         --                        --
│    └─One: 2-511                        [1]                       --
│    └─OutputScale: 2-512                --                        --
│    └─Empty: 2-513                      [64, 48, 1, 1]            --
│    └─Empty: 2-514                      [64, 48, 1, 1]            --
│    └─Empty: 2-515                      [64]                      --
│    └─Empty: 2-516                      [64]                      --
│    └─BatchNorm2d: 2-517                [16, 64, 64, 64]          --
│    └─Scaler: 2-518                     [16, 64, 64, 64]          --
│    └─ReLU: 2-519                       [16, 64, 64, 64]          --
│    └─Empty: 2-520                      [16, 64, 64, 64]          --
│    └─Clamp: 2-521                      [16, 64, 64, 64]          --
├─FusedMaxPoolConv2dBNReLU: 1-40         [16, 64, 32, 32]          (recursive)
│    └─MaxPool2d: 2-522                  [16, 64, 32, 32]          --
│    └─Empty: 2-523                      [16, 64, 32, 32]          --
│    └─Empty: 2-524                      [16, 64, 32, 32]          --
│    └─OutputShiftSqueeze: 2-525         --                        --
│    └─One: 2-526                        [1]                       --
│    └─OutputScale: 2-527                --                        --
│    └─Empty: 2-528                      [64, 64, 3, 3]            --
│    └─Empty: 2-529                      [64, 64, 3, 3]            --
│    └─Empty: 2-530                      [64]                      --
│    └─Empty: 2-531                      [64]                      --
│    └─BatchNorm2d: 2-532                [16, 64, 32, 32]          --
│    └─Scaler: 2-533                     [16, 64, 32, 32]          --
│    └─ReLU: 2-534                       [16, 64, 32, 32]          --
│    └─Empty: 2-535                      [16, 64, 32, 32]          --
│    └─Clamp: 2-536                      [16, 64, 32, 32]          --
├─FusedMaxPoolConv2dBNReLU: 1-41         [16, 64, 16, 16]          (recursive)
│    └─MaxPool2d: 2-537                  [16, 64, 16, 16]          --
│    └─Empty: 2-538                      [16, 64, 16, 16]          --
│    └─Empty: 2-539                      [16, 64, 16, 16]          --
│    └─OutputShiftSqueeze: 2-540         --                        --
│    └─One: 2-541                        [1]                       --
│    └─OutputScale: 2-542                --                        --
│    └─Empty: 2-543                      [64, 64, 3, 3]            --
│    └─Empty: 2-544                      [64, 64, 3, 3]            --
│    └─Empty: 2-545                      [64]                      --
│    └─Empty: 2-546                      [64]                      --
│    └─BatchNorm2d: 2-547                [16, 64, 16, 16]          --
│    └─Scaler: 2-548                     [16, 64, 16, 16]          --
│    └─ReLU: 2-549                       [16, 64, 16, 16]          --
│    └─Empty: 2-550                      [16, 64, 16, 16]          --
│    └─Clamp: 2-551                      [16, 64, 16, 16]          --
├─FusedConv2dBNReLU: 1-42                [16, 4, 16, 16]           (recursive)
│    └─OutputShiftSqueeze: 2-552         --                        --
│    └─One: 2-553                        [1]                       --
│    └─OutputScale: 2-554                --                        --
│    └─Empty: 2-555                      [4, 64, 1, 1]             --
│    └─Empty: 2-556                      [4, 64, 1, 1]             --
│    └─Empty: 2-557                      [4]                       --
│    └─Empty: 2-558                      [4]                       --
│    └─BatchNorm2d: 2-559                [16, 4, 16, 16]           --
│    └─Scaler: 2-560                     [16, 4, 16, 16]           --
│    └─ReLU: 2-561                       [16, 4, 16, 16]           --
│    └─Empty: 2-562                      [16, 4, 16, 16]           --
│    └─Clamp: 2-563                      [16, 4, 16, 16]           --
├─FusedMaxPoolConv2dBNReLU: 1-43         [16, 4, 16, 16]           (recursive)
│    └─MaxPool2d: 2-564                  [16, 64, 16, 16]          --
│    └─Empty: 2-565                      [16, 64, 16, 16]          --
│    └─Empty: 2-566                      [16, 64, 16, 16]          --
│    └─OutputShiftSqueeze: 2-567         --                        --
│    └─One: 2-568                        [1]                       --
│    └─OutputScale: 2-569                --                        --
│    └─Empty: 2-570                      [4, 64, 3, 3]             --
│    └─Empty: 2-571                      [4, 64, 3, 3]             --
│    └─Empty: 2-572                      [4]                       --
│    └─Empty: 2-573                      [4]                       --
│    └─BatchNorm2d: 2-574                [16, 4, 16, 16]           --
│    └─Scaler: 2-575                     [16, 4, 16, 16]           --
│    └─ReLU: 2-576                       [16, 4, 16, 16]           --
│    └─Empty: 2-577                      [16, 4, 16, 16]           --
│    └─Clamp: 2-578                      [16, 4, 16, 16]           --
├─FusedConv2dBNReLU: 1-44                [16, 64, 64, 64]          (recursive)
│    └─OutputShiftSqueeze: 2-579         --                        --
│    └─One: 2-580                        [1]                       --
│    └─OutputScale: 2-581                --                        --
│    └─Empty: 2-582                      [64, 48, 1, 1]            --
│    └─Empty: 2-583                      [64, 48, 1, 1]            --
│    └─Empty: 2-584                      [64]                      --
│    └─Empty: 2-585                      [64]                      --
│    └─BatchNorm2d: 2-586                [16, 64, 64, 64]          --
│    └─Scaler: 2-587                     [16, 64, 64, 64]          --
│    └─ReLU: 2-588                       [16, 64, 64, 64]          --
│    └─Empty: 2-589                      [16, 64, 64, 64]          --
│    └─Clamp: 2-590                      [16, 64, 64, 64]          --
├─FusedMaxPoolConv2dBNReLU: 1-45         [16, 64, 32, 32]          (recursive)
│    └─MaxPool2d: 2-591                  [16, 64, 32, 32]          --
│    └─Empty: 2-592                      [16, 64, 32, 32]          --
│    └─Empty: 2-593                      [16, 64, 32, 32]          --
│    └─OutputShiftSqueeze: 2-594         --                        --
│    └─One: 2-595                        [1]                       --
│    └─OutputScale: 2-596                --                        --
│    └─Empty: 2-597                      [64, 64, 3, 3]            --
│    └─Empty: 2-598                      [64, 64, 3, 3]            --
│    └─Empty: 2-599                      [64]                      --
│    └─Empty: 2-600                      [64]                      --
│    └─BatchNorm2d: 2-601                [16, 64, 32, 32]          --
│    └─Scaler: 2-602                     [16, 64, 32, 32]          --
│    └─ReLU: 2-603                       [16, 64, 32, 32]          --
│    └─Empty: 2-604                      [16, 64, 32, 32]          --
│    └─Clamp: 2-605                      [16, 64, 32, 32]          --
├─FusedMaxPoolConv2dBNReLU: 1-46         [16, 64, 16, 16]          (recursive)
│    └─MaxPool2d: 2-606                  [16, 64, 16, 16]          --
│    └─Empty: 2-607                      [16, 64, 16, 16]          --
│    └─Empty: 2-608                      [16, 64, 16, 16]          --
│    └─OutputShiftSqueeze: 2-609         --                        --
│    └─One: 2-610                        [1]                       --
│    └─OutputScale: 2-611                --                        --
│    └─Empty: 2-612                      [64, 64, 3, 3]            --
│    └─Empty: 2-613                      [64, 64, 3, 3]            --
│    └─Empty: 2-614                      [64]                      --
│    └─Empty: 2-615                      [64]                      --
│    └─BatchNorm2d: 2-616                [16, 64, 16, 16]          --
│    └─Scaler: 2-617                     [16, 64, 16, 16]          --
│    └─ReLU: 2-618                       [16, 64, 16, 16]          --
│    └─Empty: 2-619                      [16, 64, 16, 16]          --
│    └─Clamp: 2-620                      [16, 64, 16, 16]          --
├─FusedConv2dBNReLU: 1-47                [16, 4, 16, 16]           (recursive)
│    └─OutputShiftSqueeze: 2-621         --                        --
│    └─One: 2-622                        [1]                       --
│    └─OutputScale: 2-623                --                        --
│    └─Empty: 2-624                      [4, 64, 1, 1]             --
│    └─Empty: 2-625                      [4, 64, 1, 1]             --
│    └─Empty: 2-626                      [4]                       --
│    └─Empty: 2-627                      [4]                       --
│    └─BatchNorm2d: 2-628                [16, 4, 16, 16]           --
│    └─Scaler: 2-629                     [16, 4, 16, 16]           --
│    └─ReLU: 2-630                       [16, 4, 16, 16]           --
│    └─Empty: 2-631                      [16, 4, 16, 16]           --
│    └─Clamp: 2-632                      [16, 4, 16, 16]           --
├─FusedMaxPoolConv2dBNReLU: 1-48         [16, 4, 16, 16]           (recursive)
│    └─MaxPool2d: 2-633                  [16, 64, 16, 16]          --
│    └─Empty: 2-634                      [16, 64, 16, 16]          --
│    └─Empty: 2-635                      [16, 64, 16, 16]          --
│    └─OutputShiftSqueeze: 2-636         --                        --
│    └─One: 2-637                        [1]                       --
│    └─OutputScale: 2-638                --                        --
│    └─Empty: 2-639                      [4, 64, 3, 3]             --
│    └─Empty: 2-640                      [4, 64, 3, 3]             --
│    └─Empty: 2-641                      [4]                       --
│    └─Empty: 2-642                      [4]                       --
│    └─BatchNorm2d: 2-643                [16, 4, 16, 16]           --
│    └─Scaler: 2-644                     [16, 4, 16, 16]           --
│    └─ReLU: 2-645                       [16, 4, 16, 16]           --
│    └─Empty: 2-646                      [16, 4, 16, 16]           --
│    └─Clamp: 2-647                      [16, 4, 16, 16]           --
├─FusedConv2dBNReLU: 1-49                [16, 64, 64, 64]          (recursive)
│    └─OutputShiftSqueeze: 2-648         --                        --
│    └─One: 2-649                        [1]                       --
│    └─OutputScale: 2-650                --                        --
│    └─Empty: 2-651                      [64, 48, 1, 1]            --
│    └─Empty: 2-652                      [64, 48, 1, 1]            --
│    └─Empty: 2-653                      [64]                      --
│    └─Empty: 2-654                      [64]                      --
│    └─BatchNorm2d: 2-655                [16, 64, 64, 64]          --
│    └─Scaler: 2-656                     [16, 64, 64, 64]          --
│    └─ReLU: 2-657                       [16, 64, 64, 64]          --
│    └─Empty: 2-658                      [16, 64, 64, 64]          --
│    └─Clamp: 2-659                      [16, 64, 64, 64]          --
├─FusedMaxPoolConv2dBNReLU: 1-50         [16, 64, 32, 32]          (recursive)
│    └─MaxPool2d: 2-660                  [16, 64, 32, 32]          --
│    └─Empty: 2-661                      [16, 64, 32, 32]          --
│    └─Empty: 2-662                      [16, 64, 32, 32]          --
│    └─OutputShiftSqueeze: 2-663         --                        --
│    └─One: 2-664                        [1]                       --
│    └─OutputScale: 2-665                --                        --
│    └─Empty: 2-666                      [64, 64, 3, 3]            --
│    └─Empty: 2-667                      [64, 64, 3, 3]            --
│    └─Empty: 2-668                      [64]                      --
│    └─Empty: 2-669                      [64]                      --
│    └─BatchNorm2d: 2-670                [16, 64, 32, 32]          --
│    └─Scaler: 2-671                     [16, 64, 32, 32]          --
│    └─ReLU: 2-672                       [16, 64, 32, 32]          --
│    └─Empty: 2-673                      [16, 64, 32, 32]          --
│    └─Clamp: 2-674                      [16, 64, 32, 32]          --
├─FusedMaxPoolConv2dBNReLU: 1-51         [16, 64, 16, 16]          (recursive)
│    └─MaxPool2d: 2-675                  [16, 64, 16, 16]          --
│    └─Empty: 2-676                      [16, 64, 16, 16]          --
│    └─Empty: 2-677                      [16, 64, 16, 16]          --
│    └─OutputShiftSqueeze: 2-678         --                        --
│    └─One: 2-679                        [1]                       --
│    └─OutputScale: 2-680                --                        --
│    └─Empty: 2-681                      [64, 64, 3, 3]            --
│    └─Empty: 2-682                      [64, 64, 3, 3]            --
│    └─Empty: 2-683                      [64]                      --
│    └─Empty: 2-684                      [64]                      --
│    └─BatchNorm2d: 2-685                [16, 64, 16, 16]          --
│    └─Scaler: 2-686                     [16, 64, 16, 16]          --
│    └─ReLU: 2-687                       [16, 64, 16, 16]          --
│    └─Empty: 2-688                      [16, 64, 16, 16]          --
│    └─Clamp: 2-689                      [16, 64, 16, 16]          --
├─FusedConv2dBNReLU: 1-52                [16, 4, 16, 16]           (recursive)
│    └─OutputShiftSqueeze: 2-690         --                        --
│    └─One: 2-691                        [1]                       --
│    └─OutputScale: 2-692                --                        --
│    └─Empty: 2-693                      [4, 64, 1, 1]             --
│    └─Empty: 2-694                      [4, 64, 1, 1]             --
│    └─Empty: 2-695                      [4]                       --
│    └─Empty: 2-696                      [4]                       --
│    └─BatchNorm2d: 2-697                [16, 4, 16, 16]           --
│    └─Scaler: 2-698                     [16, 4, 16, 16]           --
│    └─ReLU: 2-699                       [16, 4, 16, 16]           --
│    └─Empty: 2-700                      [16, 4, 16, 16]           --
│    └─Clamp: 2-701                      [16, 4, 16, 16]           --
├─FusedMaxPoolConv2dBNReLU: 1-53         [16, 4, 16, 16]           (recursive)
│    └─MaxPool2d: 2-702                  [16, 64, 16, 16]          --
│    └─Empty: 2-703                      [16, 64, 16, 16]          --
│    └─Empty: 2-704                      [16, 64, 16, 16]          --
│    └─OutputShiftSqueeze: 2-705         --                        --
│    └─One: 2-706                        [1]                       --
│    └─OutputScale: 2-707                --                        --
│    └─Empty: 2-708                      [4, 64, 3, 3]             --
│    └─Empty: 2-709                      [4, 64, 3, 3]             --
│    └─Empty: 2-710                      [4]                       --
│    └─Empty: 2-711                      [4]                       --
│    └─BatchNorm2d: 2-712                [16, 4, 16, 16]           --
│    └─Scaler: 2-713                     [16, 4, 16, 16]           --
│    └─ReLU: 2-714                       [16, 4, 16, 16]           --
│    └─Empty: 2-715                      [16, 4, 16, 16]           --
│    └─Clamp: 2-716                      [16, 4, 16, 16]           --
├─FusedConv2dBNReLU: 1-54                [16, 64, 64, 64]          (recursive)
│    └─OutputShiftSqueeze: 2-717         --                        --
│    └─One: 2-718                        [1]                       --
│    └─OutputScale: 2-719                --                        --
│    └─Empty: 2-720                      [64, 48, 1, 1]            --
│    └─Empty: 2-721                      [64, 48, 1, 1]            --
│    └─Empty: 2-722                      [64]                      --
│    └─Empty: 2-723                      [64]                      --
│    └─BatchNorm2d: 2-724                [16, 64, 64, 64]          --
│    └─Scaler: 2-725                     [16, 64, 64, 64]          --
│    └─ReLU: 2-726                       [16, 64, 64, 64]          --
│    └─Empty: 2-727                      [16, 64, 64, 64]          --
│    └─Clamp: 2-728                      [16, 64, 64, 64]          --
├─FusedMaxPoolConv2dBNReLU: 1-55         [16, 64, 32, 32]          (recursive)
│    └─MaxPool2d: 2-729                  [16, 64, 32, 32]          --
│    └─Empty: 2-730                      [16, 64, 32, 32]          --
│    └─Empty: 2-731                      [16, 64, 32, 32]          --
│    └─OutputShiftSqueeze: 2-732         --                        --
│    └─One: 2-733                        [1]                       --
│    └─OutputScale: 2-734                --                        --
│    └─Empty: 2-735                      [64, 64, 3, 3]            --
│    └─Empty: 2-736                      [64, 64, 3, 3]            --
│    └─Empty: 2-737                      [64]                      --
│    └─Empty: 2-738                      [64]                      --
│    └─BatchNorm2d: 2-739                [16, 64, 32, 32]          --
│    └─Scaler: 2-740                     [16, 64, 32, 32]          --
│    └─ReLU: 2-741                       [16, 64, 32, 32]          --
│    └─Empty: 2-742                      [16, 64, 32, 32]          --
│    └─Clamp: 2-743                      [16, 64, 32, 32]          --
├─FusedMaxPoolConv2dBNReLU: 1-56         [16, 64, 16, 16]          (recursive)
│    └─MaxPool2d: 2-744                  [16, 64, 16, 16]          --
│    └─Empty: 2-745                      [16, 64, 16, 16]          --
│    └─Empty: 2-746                      [16, 64, 16, 16]          --
│    └─OutputShiftSqueeze: 2-747         --                        --
│    └─One: 2-748                        [1]                       --
│    └─OutputScale: 2-749                --                        --
│    └─Empty: 2-750                      [64, 64, 3, 3]            --
│    └─Empty: 2-751                      [64, 64, 3, 3]            --
│    └─Empty: 2-752                      [64]                      --
│    └─Empty: 2-753                      [64]                      --
│    └─BatchNorm2d: 2-754                [16, 64, 16, 16]          --
│    └─Scaler: 2-755                     [16, 64, 16, 16]          --
│    └─ReLU: 2-756                       [16, 64, 16, 16]          --
│    └─Empty: 2-757                      [16, 64, 16, 16]          --
│    └─Clamp: 2-758                      [16, 64, 16, 16]          --
├─FusedConv2dBNReLU: 1-57                [16, 4, 16, 16]           (recursive)
│    └─OutputShiftSqueeze: 2-759         --                        --
│    └─One: 2-760                        [1]                       --
│    └─OutputScale: 2-761                --                        --
│    └─Empty: 2-762                      [4, 64, 1, 1]             --
│    └─Empty: 2-763                      [4, 64, 1, 1]             --
│    └─Empty: 2-764                      [4]                       --
│    └─Empty: 2-765                      [4]                       --
│    └─BatchNorm2d: 2-766                [16, 4, 16, 16]           --
│    └─Scaler: 2-767                     [16, 4, 16, 16]           --
│    └─ReLU: 2-768                       [16, 4, 16, 16]           --
│    └─Empty: 2-769                      [16, 4, 16, 16]           --
│    └─Clamp: 2-770                      [16, 4, 16, 16]           --
├─FusedMaxPoolConv2dBNReLU: 1-58         [16, 4, 16, 16]           (recursive)
│    └─MaxPool2d: 2-771                  [16, 64, 16, 16]          --
│    └─Empty: 2-772                      [16, 64, 16, 16]          --
│    └─Empty: 2-773                      [16, 64, 16, 16]          --
│    └─OutputShiftSqueeze: 2-774         --                        --
│    └─One: 2-775                        [1]                       --
│    └─OutputScale: 2-776                --                        --
│    └─Empty: 2-777                      [4, 64, 3, 3]             --
│    └─Empty: 2-778                      [4, 64, 3, 3]             --
│    └─Empty: 2-779                      [4]                       --
│    └─Empty: 2-780                      [4]                       --
│    └─BatchNorm2d: 2-781                [16, 4, 16, 16]           --
│    └─Scaler: 2-782                     [16, 4, 16, 16]           --
│    └─ReLU: 2-783                       [16, 4, 16, 16]           --
│    └─Empty: 2-784                      [16, 4, 16, 16]           --
│    └─Clamp: 2-785                      [16, 4, 16, 16]           --
├─FusedConv2dBNReLU: 1-59                [16, 64, 64, 64]          (recursive)
│    └─OutputShiftSqueeze: 2-786         --                        --
│    └─One: 2-787                        [1]                       --
│    └─OutputScale: 2-788                --                        --
│    └─Empty: 2-789                      [64, 48, 1, 1]            --
│    └─Empty: 2-790                      [64, 48, 1, 1]            --
│    └─Empty: 2-791                      [64]                      --
│    └─Empty: 2-792                      [64]                      --
│    └─BatchNorm2d: 2-793                [16, 64, 64, 64]          --
│    └─Scaler: 2-794                     [16, 64, 64, 64]          --
│    └─ReLU: 2-795                       [16, 64, 64, 64]          --
│    └─Empty: 2-796                      [16, 64, 64, 64]          --
│    └─Clamp: 2-797                      [16, 64, 64, 64]          --
├─FusedMaxPoolConv2dBNReLU: 1-60         [16, 64, 32, 32]          (recursive)
│    └─MaxPool2d: 2-798                  [16, 64, 32, 32]          --
│    └─Empty: 2-799                      [16, 64, 32, 32]          --
│    └─Empty: 2-800                      [16, 64, 32, 32]          --
│    └─OutputShiftSqueeze: 2-801         --                        --
│    └─One: 2-802                        [1]                       --
│    └─OutputScale: 2-803                --                        --
│    └─Empty: 2-804                      [64, 64, 3, 3]            --
│    └─Empty: 2-805                      [64, 64, 3, 3]            --
│    └─Empty: 2-806                      [64]                      --
│    └─Empty: 2-807                      [64]                      --
│    └─BatchNorm2d: 2-808                [16, 64, 32, 32]          --
│    └─Scaler: 2-809                     [16, 64, 32, 32]          --
│    └─ReLU: 2-810                       [16, 64, 32, 32]          --
│    └─Empty: 2-811                      [16, 64, 32, 32]          --
│    └─Clamp: 2-812                      [16, 64, 32, 32]          --
├─FusedMaxPoolConv2dBNReLU: 1-61         [16, 64, 16, 16]          (recursive)
│    └─MaxPool2d: 2-813                  [16, 64, 16, 16]          --
│    └─Empty: 2-814                      [16, 64, 16, 16]          --
│    └─Empty: 2-815                      [16, 64, 16, 16]          --
│    └─OutputShiftSqueeze: 2-816         --                        --
│    └─One: 2-817                        [1]                       --
│    └─OutputScale: 2-818                --                        --
│    └─Empty: 2-819                      [64, 64, 3, 3]            --
│    └─Empty: 2-820                      [64, 64, 3, 3]            --
│    └─Empty: 2-821                      [64]                      --
│    └─Empty: 2-822                      [64]                      --
│    └─BatchNorm2d: 2-823                [16, 64, 16, 16]          --
│    └─Scaler: 2-824                     [16, 64, 16, 16]          --
│    └─ReLU: 2-825                       [16, 64, 16, 16]          --
│    └─Empty: 2-826                      [16, 64, 16, 16]          --
│    └─Clamp: 2-827                      [16, 64, 16, 16]          --
├─FusedConv2dBNReLU: 1-62                [16, 4, 16, 16]           (recursive)
│    └─OutputShiftSqueeze: 2-828         --                        --
│    └─One: 2-829                        [1]                       --
│    └─OutputScale: 2-830                --                        --
│    └─Empty: 2-831                      [4, 64, 1, 1]             --
│    └─Empty: 2-832                      [4, 64, 1, 1]             --
│    └─Empty: 2-833                      [4]                       --
│    └─Empty: 2-834                      [4]                       --
│    └─BatchNorm2d: 2-835                [16, 4, 16, 16]           --
│    └─Scaler: 2-836                     [16, 4, 16, 16]           --
│    └─ReLU: 2-837                       [16, 4, 16, 16]           --
│    └─Empty: 2-838                      [16, 4, 16, 16]           --
│    └─Clamp: 2-839                      [16, 4, 16, 16]           --
├─FusedMaxPoolConv2dBNReLU: 1-63         [16, 4, 16, 16]           (recursive)
│    └─MaxPool2d: 2-840                  [16, 64, 16, 16]          --
│    └─Empty: 2-841                      [16, 64, 16, 16]          --
│    └─Empty: 2-842                      [16, 64, 16, 16]          --
│    └─OutputShiftSqueeze: 2-843         --                        --
│    └─One: 2-844                        [1]                       --
│    └─OutputScale: 2-845                --                        --
│    └─Empty: 2-846                      [4, 64, 3, 3]             --
│    └─Empty: 2-847                      [4, 64, 3, 3]             --
│    └─Empty: 2-848                      [4]                       --
│    └─Empty: 2-849                      [4]                       --
│    └─BatchNorm2d: 2-850                [16, 4, 16, 16]           --
│    └─Scaler: 2-851                     [16, 4, 16, 16]           --
│    └─ReLU: 2-852                       [16, 4, 16, 16]           --
│    └─Empty: 2-853                      [16, 4, 16, 16]           --
│    └─Clamp: 2-854                      [16, 4, 16, 16]           --
├─FusedConv2dBNReLU: 1-64                [16, 64, 64, 64]          (recursive)
│    └─OutputShiftSqueeze: 2-855         --                        --
│    └─One: 2-856                        [1]                       --
│    └─OutputScale: 2-857                --                        --
│    └─Empty: 2-858                      [64, 48, 1, 1]            --
│    └─Empty: 2-859                      [64, 48, 1, 1]            --
│    └─Empty: 2-860                      [64]                      --
│    └─Empty: 2-861                      [64]                      --
│    └─BatchNorm2d: 2-862                [16, 64, 64, 64]          --
│    └─Scaler: 2-863                     [16, 64, 64, 64]          --
│    └─ReLU: 2-864                       [16, 64, 64, 64]          --
│    └─Empty: 2-865                      [16, 64, 64, 64]          --
│    └─Clamp: 2-866                      [16, 64, 64, 64]          --
├─FusedMaxPoolConv2dBNReLU: 1-65         [16, 64, 32, 32]          (recursive)
│    └─MaxPool2d: 2-867                  [16, 64, 32, 32]          --
│    └─Empty: 2-868                      [16, 64, 32, 32]          --
│    └─Empty: 2-869                      [16, 64, 32, 32]          --
│    └─OutputShiftSqueeze: 2-870         --                        --
│    └─One: 2-871                        [1]                       --
│    └─OutputScale: 2-872                --                        --
│    └─Empty: 2-873                      [64, 64, 3, 3]            --
│    └─Empty: 2-874                      [64, 64, 3, 3]            --
│    └─Empty: 2-875                      [64]                      --
│    └─Empty: 2-876                      [64]                      --
│    └─BatchNorm2d: 2-877                [16, 64, 32, 32]          --
│    └─Scaler: 2-878                     [16, 64, 32, 32]          --
│    └─ReLU: 2-879                       [16, 64, 32, 32]          --
│    └─Empty: 2-880                      [16, 64, 32, 32]          --
│    └─Clamp: 2-881                      [16, 64, 32, 32]          --
├─FusedMaxPoolConv2dBNReLU: 1-66         [16, 64, 16, 16]          (recursive)
│    └─MaxPool2d: 2-882                  [16, 64, 16, 16]          --
│    └─Empty: 2-883                      [16, 64, 16, 16]          --
│    └─Empty: 2-884                      [16, 64, 16, 16]          --
│    └─OutputShiftSqueeze: 2-885         --                        --
│    └─One: 2-886                        [1]                       --
│    └─OutputScale: 2-887                --                        --
│    └─Empty: 2-888                      [64, 64, 3, 3]            --
│    └─Empty: 2-889                      [64, 64, 3, 3]            --
│    └─Empty: 2-890                      [64]                      --
│    └─Empty: 2-891                      [64]                      --
│    └─BatchNorm2d: 2-892                [16, 64, 16, 16]          --
│    └─Scaler: 2-893                     [16, 64, 16, 16]          --
│    └─ReLU: 2-894                       [16, 64, 16, 16]          --
│    └─Empty: 2-895                      [16, 64, 16, 16]          --
│    └─Clamp: 2-896                      [16, 64, 16, 16]          --
├─FusedConv2dBNReLU: 1-67                [16, 4, 16, 16]           (recursive)
│    └─OutputShiftSqueeze: 2-897         --                        --
│    └─One: 2-898                        [1]                       --
│    └─OutputScale: 2-899                --                        --
│    └─Empty: 2-900                      [4, 64, 1, 1]             --
│    └─Empty: 2-901                      [4, 64, 1, 1]             --
│    └─Empty: 2-902                      [4]                       --
│    └─Empty: 2-903                      [4]                       --
│    └─BatchNorm2d: 2-904                [16, 4, 16, 16]           --
│    └─Scaler: 2-905                     [16, 4, 16, 16]           --
│    └─ReLU: 2-906                       [16, 4, 16, 16]           --
│    └─Empty: 2-907                      [16, 4, 16, 16]           --
│    └─Clamp: 2-908                      [16, 4, 16, 16]           --
├─FusedMaxPoolConv2dBNReLU: 1-68         [16, 4, 16, 16]           (recursive)
│    └─MaxPool2d: 2-909                  [16, 64, 16, 16]          --
│    └─Empty: 2-910                      [16, 64, 16, 16]          --
│    └─Empty: 2-911                      [16, 64, 16, 16]          --
│    └─OutputShiftSqueeze: 2-912         --                        --
│    └─One: 2-913                        [1]                       --
│    └─OutputScale: 2-914                --                        --
│    └─Empty: 2-915                      [4, 64, 3, 3]             --
│    └─Empty: 2-916                      [4, 64, 3, 3]             --
│    └─Empty: 2-917                      [4]                       --
│    └─Empty: 2-918                      [4]                       --
│    └─BatchNorm2d: 2-919                [16, 4, 16, 16]           --
│    └─Scaler: 2-920                     [16, 4, 16, 16]           --
│    └─ReLU: 2-921                       [16, 4, 16, 16]           --
│    └─Empty: 2-922                      [16, 4, 16, 16]           --
│    └─Clamp: 2-923                      [16, 4, 16, 16]           --
├─FusedConv2dBNReLU: 1-69                [16, 64, 64, 64]          (recursive)
│    └─OutputShiftSqueeze: 2-924         --                        --
│    └─One: 2-925                        [1]                       --
│    └─OutputScale: 2-926                --                        --
│    └─Empty: 2-927                      [64, 48, 1, 1]            --
│    └─Empty: 2-928                      [64, 48, 1, 1]            --
│    └─Empty: 2-929                      [64]                      --
│    └─Empty: 2-930                      [64]                      --
│    └─BatchNorm2d: 2-931                [16, 64, 64, 64]          --
│    └─Scaler: 2-932                     [16, 64, 64, 64]          --
│    └─ReLU: 2-933                       [16, 64, 64, 64]          --
│    └─Empty: 2-934                      [16, 64, 64, 64]          --
│    └─Clamp: 2-935                      [16, 64, 64, 64]          --
├─FusedMaxPoolConv2dBNReLU: 1-70         [16, 64, 32, 32]          (recursive)
│    └─MaxPool2d: 2-936                  [16, 64, 32, 32]          --
│    └─Empty: 2-937                      [16, 64, 32, 32]          --
│    └─Empty: 2-938                      [16, 64, 32, 32]          --
│    └─OutputShiftSqueeze: 2-939         --                        --
│    └─One: 2-940                        [1]                       --
│    └─OutputScale: 2-941                --                        --
│    └─Empty: 2-942                      [64, 64, 3, 3]            --
│    └─Empty: 2-943                      [64, 64, 3, 3]            --
│    └─Empty: 2-944                      [64]                      --
│    └─Empty: 2-945                      [64]                      --
│    └─BatchNorm2d: 2-946                [16, 64, 32, 32]          --
│    └─Scaler: 2-947                     [16, 64, 32, 32]          --
│    └─ReLU: 2-948                       [16, 64, 32, 32]          --
│    └─Empty: 2-949                      [16, 64, 32, 32]          --
│    └─Clamp: 2-950                      [16, 64, 32, 32]          --
├─FusedMaxPoolConv2dBNReLU: 1-71         [16, 64, 16, 16]          (recursive)
│    └─MaxPool2d: 2-951                  [16, 64, 16, 16]          --
│    └─Empty: 2-952                      [16, 64, 16, 16]          --
│    └─Empty: 2-953                      [16, 64, 16, 16]          --
│    └─OutputShiftSqueeze: 2-954         --                        --
│    └─One: 2-955                        [1]                       --
│    └─OutputScale: 2-956                --                        --
│    └─Empty: 2-957                      [64, 64, 3, 3]            --
│    └─Empty: 2-958                      [64, 64, 3, 3]            --
│    └─Empty: 2-959                      [64]                      --
│    └─Empty: 2-960                      [64]                      --
│    └─BatchNorm2d: 2-961                [16, 64, 16, 16]          --
│    └─Scaler: 2-962                     [16, 64, 16, 16]          --
│    └─ReLU: 2-963                       [16, 64, 16, 16]          --
│    └─Empty: 2-964                      [16, 64, 16, 16]          --
│    └─Clamp: 2-965                      [16, 64, 16, 16]          --
├─FusedConv2dBNReLU: 1-72                [16, 4, 16, 16]           (recursive)
│    └─OutputShiftSqueeze: 2-966         --                        --
│    └─One: 2-967                        [1]                       --
│    └─OutputScale: 2-968                --                        --
│    └─Empty: 2-969                      [4, 64, 1, 1]             --
│    └─Empty: 2-970                      [4, 64, 1, 1]             --
│    └─Empty: 2-971                      [4]                       --
│    └─Empty: 2-972                      [4]                       --
│    └─BatchNorm2d: 2-973                [16, 4, 16, 16]           --
│    └─Scaler: 2-974                     [16, 4, 16, 16]           --
│    └─ReLU: 2-975                       [16, 4, 16, 16]           --
│    └─Empty: 2-976                      [16, 4, 16, 16]           --
│    └─Clamp: 2-977                      [16, 4, 16, 16]           --
├─FusedMaxPoolConv2dBNReLU: 1-73         [16, 4, 16, 16]           (recursive)
│    └─MaxPool2d: 2-978                  [16, 64, 16, 16]          --
│    └─Empty: 2-979                      [16, 64, 16, 16]          --
│    └─Empty: 2-980                      [16, 64, 16, 16]          --
│    └─OutputShiftSqueeze: 2-981         --                        --
│    └─One: 2-982                        [1]                       --
│    └─OutputScale: 2-983                --                        --
│    └─Empty: 2-984                      [4, 64, 3, 3]             --
│    └─Empty: 2-985                      [4, 64, 3, 3]             --
│    └─Empty: 2-986                      [4]                       --
│    └─Empty: 2-987                      [4]                       --
│    └─BatchNorm2d: 2-988                [16, 4, 16, 16]           --
│    └─Scaler: 2-989                     [16, 4, 16, 16]           --
│    └─ReLU: 2-990                       [16, 4, 16, 16]           --
│    └─Empty: 2-991                      [16, 4, 16, 16]           --
│    └─Clamp: 2-992                      [16, 4, 16, 16]           --
├─FusedConv2dBNReLU: 1-74                [16, 64, 64, 64]          (recursive)
│    └─OutputShiftSqueeze: 2-993         --                        --
│    └─One: 2-994                        [1]                       --
│    └─OutputScale: 2-995                --                        --
│    └─Empty: 2-996                      [64, 48, 1, 1]            --
│    └─Empty: 2-997                      [64, 48, 1, 1]            --
│    └─Empty: 2-998                      [64]                      --
│    └─Empty: 2-999                      [64]                      --
│    └─BatchNorm2d: 2-1000               [16, 64, 64, 64]          --
│    └─Scaler: 2-1001                    [16, 64, 64, 64]          --
│    └─ReLU: 2-1002                      [16, 64, 64, 64]          --
│    └─Empty: 2-1003                     [16, 64, 64, 64]          --
│    └─Clamp: 2-1004                     [16, 64, 64, 64]          --
├─FusedMaxPoolConv2dBNReLU: 1-75         [16, 64, 32, 32]          (recursive)
│    └─MaxPool2d: 2-1005                 [16, 64, 32, 32]          --
│    └─Empty: 2-1006                     [16, 64, 32, 32]          --
│    └─Empty: 2-1007                     [16, 64, 32, 32]          --
│    └─OutputShiftSqueeze: 2-1008        --                        --
│    └─One: 2-1009                       [1]                       --
│    └─OutputScale: 2-1010               --                        --
│    └─Empty: 2-1011                     [64, 64, 3, 3]            --
│    └─Empty: 2-1012                     [64, 64, 3, 3]            --
│    └─Empty: 2-1013                     [64]                      --
│    └─Empty: 2-1014                     [64]                      --
│    └─BatchNorm2d: 2-1015               [16, 64, 32, 32]          --
│    └─Scaler: 2-1016                    [16, 64, 32, 32]          --
│    └─ReLU: 2-1017                      [16, 64, 32, 32]          --
│    └─Empty: 2-1018                     [16, 64, 32, 32]          --
│    └─Clamp: 2-1019                     [16, 64, 32, 32]          --
├─FusedMaxPoolConv2dBNReLU: 1-76         [16, 64, 16, 16]          (recursive)
│    └─MaxPool2d: 2-1020                 [16, 64, 16, 16]          --
│    └─Empty: 2-1021                     [16, 64, 16, 16]          --
│    └─Empty: 2-1022                     [16, 64, 16, 16]          --
│    └─OutputShiftSqueeze: 2-1023        --                        --
│    └─One: 2-1024                       [1]                       --
│    └─OutputScale: 2-1025               --                        --
│    └─Empty: 2-1026                     [64, 64, 3, 3]            --
│    └─Empty: 2-1027                     [64, 64, 3, 3]            --
│    └─Empty: 2-1028                     [64]                      --
│    └─Empty: 2-1029                     [64]                      --
│    └─BatchNorm2d: 2-1030               [16, 64, 16, 16]          --
│    └─Scaler: 2-1031                    [16, 64, 16, 16]          --
│    └─ReLU: 2-1032                      [16, 64, 16, 16]          --
│    └─Empty: 2-1033                     [16, 64, 16, 16]          --
│    └─Clamp: 2-1034                     [16, 64, 16, 16]          --
├─FusedConv2dBNReLU: 1-77                [16, 4, 16, 16]           (recursive)
│    └─OutputShiftSqueeze: 2-1035        --                        --
│    └─One: 2-1036                       [1]                       --
│    └─OutputScale: 2-1037               --                        --
│    └─Empty: 2-1038                     [4, 64, 1, 1]             --
│    └─Empty: 2-1039                     [4, 64, 1, 1]             --
│    └─Empty: 2-1040                     [4]                       --
│    └─Empty: 2-1041                     [4]                       --
│    └─BatchNorm2d: 2-1042               [16, 4, 16, 16]           --
│    └─Scaler: 2-1043                    [16, 4, 16, 16]           --
│    └─ReLU: 2-1044                      [16, 4, 16, 16]           --
│    └─Empty: 2-1045                     [16, 4, 16, 16]           --
│    └─Clamp: 2-1046                     [16, 4, 16, 16]           --
├─FusedMaxPoolConv2dBNReLU: 1-78         [16, 4, 16, 16]           (recursive)
│    └─MaxPool2d: 2-1047                 [16, 64, 16, 16]          --
│    └─Empty: 2-1048                     [16, 64, 16, 16]          --
│    └─Empty: 2-1049                     [16, 64, 16, 16]          --
│    └─OutputShiftSqueeze: 2-1050        --                        --
│    └─One: 2-1051                       [1]                       --
│    └─OutputScale: 2-1052               --                        --
│    └─Empty: 2-1053                     [4, 64, 3, 3]             --
│    └─Empty: 2-1054                     [4, 64, 3, 3]             --
│    └─Empty: 2-1055                     [4]                       --
│    └─Empty: 2-1056                     [4]                       --
│    └─BatchNorm2d: 2-1057               [16, 4, 16, 16]           --
│    └─Scaler: 2-1058                    [16, 4, 16, 16]           --
│    └─ReLU: 2-1059                      [16, 4, 16, 16]           --
│    └─Empty: 2-1060                     [16, 4, 16, 16]           --
│    └─Clamp: 2-1061                     [16, 4, 16, 16]           --
├─FusedConv2dBNReLU: 1-79                [16, 64, 64, 64]          (recursive)
│    └─OutputShiftSqueeze: 2-1062        --                        --
│    └─One: 2-1063                       [1]                       --
│    └─OutputScale: 2-1064               --                        --
│    └─Empty: 2-1065                     [64, 48, 1, 1]            --
│    └─Empty: 2-1066                     [64, 48, 1, 1]            --
│    └─Empty: 2-1067                     [64]                      --
│    └─Empty: 2-1068                     [64]                      --
│    └─BatchNorm2d: 2-1069               [16, 64, 64, 64]          --
│    └─Scaler: 2-1070                    [16, 64, 64, 64]          --
│    └─ReLU: 2-1071                      [16, 64, 64, 64]          --
│    └─Empty: 2-1072                     [16, 64, 64, 64]          --
│    └─Clamp: 2-1073                     [16, 64, 64, 64]          --
├─FusedMaxPoolConv2dBNReLU: 1-80         [16, 64, 32, 32]          (recursive)
│    └─MaxPool2d: 2-1074                 [16, 64, 32, 32]          --
│    └─Empty: 2-1075                     [16, 64, 32, 32]          --
│    └─Empty: 2-1076                     [16, 64, 32, 32]          --
│    └─OutputShiftSqueeze: 2-1077        --                        --
│    └─One: 2-1078                       [1]                       --
│    └─OutputScale: 2-1079               --                        --
│    └─Empty: 2-1080                     [64, 64, 3, 3]            --
│    └─Empty: 2-1081                     [64, 64, 3, 3]            --
│    └─Empty: 2-1082                     [64]                      --
│    └─Empty: 2-1083                     [64]                      --
│    └─BatchNorm2d: 2-1084               [16, 64, 32, 32]          --
│    └─Scaler: 2-1085                    [16, 64, 32, 32]          --
│    └─ReLU: 2-1086                      [16, 64, 32, 32]          --
│    └─Empty: 2-1087                     [16, 64, 32, 32]          --
│    └─Clamp: 2-1088                     [16, 64, 32, 32]          --
├─FusedMaxPoolConv2dBNReLU: 1-81         [16, 64, 16, 16]          (recursive)
│    └─MaxPool2d: 2-1089                 [16, 64, 16, 16]          --
│    └─Empty: 2-1090                     [16, 64, 16, 16]          --
│    └─Empty: 2-1091                     [16, 64, 16, 16]          --
│    └─OutputShiftSqueeze: 2-1092        --                        --
│    └─One: 2-1093                       [1]                       --
│    └─OutputScale: 2-1094               --                        --
│    └─Empty: 2-1095                     [64, 64, 3, 3]            --
│    └─Empty: 2-1096                     [64, 64, 3, 3]            --
│    └─Empty: 2-1097                     [64]                      --
│    └─Empty: 2-1098                     [64]                      --
│    └─BatchNorm2d: 2-1099               [16, 64, 16, 16]          --
│    └─Scaler: 2-1100                    [16, 64, 16, 16]          --
│    └─ReLU: 2-1101                      [16, 64, 16, 16]          --
│    └─Empty: 2-1102                     [16, 64, 16, 16]          --
│    └─Clamp: 2-1103                     [16, 64, 16, 16]          --
├─FusedConv2dBNReLU: 1-82                [16, 4, 16, 16]           (recursive)
│    └─OutputShiftSqueeze: 2-1104        --                        --
│    └─One: 2-1105                       [1]                       --
│    └─OutputScale: 2-1106               --                        --
│    └─Empty: 2-1107                     [4, 64, 1, 1]             --
│    └─Empty: 2-1108                     [4, 64, 1, 1]             --
│    └─Empty: 2-1109                     [4]                       --
│    └─Empty: 2-1110                     [4]                       --
│    └─BatchNorm2d: 2-1111               [16, 4, 16, 16]           --
│    └─Scaler: 2-1112                    [16, 4, 16, 16]           --
│    └─ReLU: 2-1113                      [16, 4, 16, 16]           --
│    └─Empty: 2-1114                     [16, 4, 16, 16]           --
│    └─Clamp: 2-1115                     [16, 4, 16, 16]           --
├─FusedMaxPoolConv2dBNReLU: 1-83         [16, 4, 16, 16]           (recursive)
│    └─MaxPool2d: 2-1116                 [16, 64, 16, 16]          --
│    └─Empty: 2-1117                     [16, 64, 16, 16]          --
│    └─Empty: 2-1118                     [16, 64, 16, 16]          --
│    └─OutputShiftSqueeze: 2-1119        --                        --
│    └─One: 2-1120                       [1]                       --
│    └─OutputScale: 2-1121               --                        --
│    └─Empty: 2-1122                     [4, 64, 3, 3]             --
│    └─Empty: 2-1123                     [4, 64, 3, 3]             --
│    └─Empty: 2-1124                     [4]                       --
│    └─Empty: 2-1125                     [4]                       --
│    └─BatchNorm2d: 2-1126               [16, 4, 16, 16]           --
│    └─Scaler: 2-1127                    [16, 4, 16, 16]           --
│    └─ReLU: 2-1128                      [16, 4, 16, 16]           --
│    └─Empty: 2-1129                     [16, 4, 16, 16]           --
│    └─Clamp: 2-1130                     [16, 4, 16, 16]           --
├─Conv1d: 1-84                           [16, 5, 14]               15,371
│    └─OutputShiftSqueeze: 2-1131        --                        --
│    └─One: 2-1132                       [1]                       --
│    └─OutputScale: 2-1133               --                        --
│    └─Empty: 2-1134                     [5, 1024, 3]              --
│    └─Empty: 2-1135                     [5, 1024, 3]              --
│    └─Empty: 2-1136                     [5]                       --
│    └─Empty: 2-1137                     [5]                       --
│    └─Scaler: 2-1138                    [16, 5, 14]               --
│    └─Empty: 2-1139                     [16, 5, 14]               --
│    └─Empty: 2-1140                     [16, 5, 14]               --
│    └─Clamp: 2-1141                     [16, 5, 14]               --
==========================================================================================
Total params: 94,961
Trainable params: 94,925
Non-trainable params: 36
Total mult-adds (M): 0.00
==========================================================================================
Input size (MB): 201.33
Forward/backward pass size (MB): 0.00
Params size (MB): 0.32
Estimated Total Size (MB): 201.64
==========================================================================================
…
