…
I - Label min-max:  tensor(0) tensor(4) data number in dataset:  tensor([   113, 203381, 209542, 169661,  88502,    321, 150962,  19221,    150,
        156928,    761, 100066, 177107,  58669,      6,    672])
I - Initializing model TCNv15
I - Number of Model Parameters: 950432
I - Model output shape:  torch.Size([16, 5])
I - Model summary
==========================================================================================
Layer (type:depth-idx)                   Output Shape              Param #
==========================================================================================
TCNv15                                   [16, 5]                   --
├─FusedConv2dBNReLU: 1-1                 [16, 128, 64, 64]         6,278
│    └─OutputShiftSqueeze: 2-1           --                        --
│    └─One: 2-2                          [1]                       --
│    └─OutputScale: 2-3                  --                        --
│    └─Empty: 2-4                        [128, 48, 1, 1]           --
│    └─Empty: 2-5                        [128, 48, 1, 1]           --
│    └─Empty: 2-6                        [128]                     --
│    └─Empty: 2-7                        [128]                     --
│    └─BatchNorm2d: 2-8                  [16, 128, 64, 64]         --
│    └─Scaler: 2-9                       [16, 128, 64, 64]         --
│    └─ReLU: 2-10                        [16, 128, 64, 64]         --
│    └─Empty: 2-11                       [16, 128, 64, 64]         --
│    └─Clamp: 2-12                       [16, 128, 64, 64]         --
├─FusedConv2dBNReLU: 1-2                 [16, 128, 64, 64]         147,590
│    └─OutputShiftSqueeze: 2-13          --                        --
│    └─One: 2-14                         [1]                       --
│    └─OutputScale: 2-15                 --                        --
│    └─Empty: 2-16                       [128, 128, 3, 3]          --
│    └─Empty: 2-17                       [128, 128, 3, 3]          --
│    └─Empty: 2-18                       [128]                     --
│    └─Empty: 2-19                       [128]                     --
│    └─BatchNorm2d: 2-20                 [16, 128, 64, 64]         --
│    └─Scaler: 2-21                      [16, 128, 64, 64]         --
│    └─ReLU: 2-22                        [16, 128, 64, 64]         --
│    └─Empty: 2-23                       [16, 128, 64, 64]         --
│    └─Clamp: 2-24                       [16, 128, 64, 64]         --
├─FusedMaxPoolConv2dBNReLU: 1-3          [16, 128, 32, 32]         147,590
│    └─MaxPool2d: 2-25                   [16, 128, 32, 32]         --
│    └─Empty: 2-26                       [16, 128, 32, 32]         --
│    └─Empty: 2-27                       [16, 128, 32, 32]         --
│    └─OutputShiftSqueeze: 2-28          --                        --
│    └─One: 2-29                         [1]                       --
│    └─OutputScale: 2-30                 --                        --
│    └─Empty: 2-31                       [128, 128, 3, 3]          --
│    └─Empty: 2-32                       [128, 128, 3, 3]          --
│    └─Empty: 2-33                       [128]                     --
│    └─Empty: 2-34                       [128]                     --
│    └─BatchNorm2d: 2-35                 [16, 128, 32, 32]         --
│    └─Scaler: 2-36                      [16, 128, 32, 32]         --
│    └─ReLU: 2-37                        [16, 128, 32, 32]         --
│    └─Empty: 2-38                       [16, 128, 32, 32]         --
│    └─Clamp: 2-39                       [16, 128, 32, 32]         --
├─FusedConv2dBNReLU: 1-4                 [16, 128, 32, 32]         16,518
│    └─OutputShiftSqueeze: 2-40          --                        --
│    └─One: 2-41                         [1]                       --
│    └─OutputScale: 2-42                 --                        --
│    └─Empty: 2-43                       [128, 128, 1, 1]          --
│    └─Empty: 2-44                       [128, 128, 1, 1]          --
│    └─Empty: 2-45                       [128]                     --
│    └─Empty: 2-46                       [128]                     --
│    └─BatchNorm2d: 2-47                 [16, 128, 32, 32]         --
│    └─Scaler: 2-48                      [16, 128, 32, 32]         --
│    └─ReLU: 2-49                        [16, 128, 32, 32]         --
│    └─Empty: 2-50                       [16, 128, 32, 32]         --
│    └─Clamp: 2-51                       [16, 128, 32, 32]         --
├─FusedMaxPoolConv2dBNReLU: 1-5          [16, 128, 32, 32]         147,590
│    └─MaxPool2d: 2-52                   [16, 128, 32, 32]         --
│    └─Empty: 2-53                       [16, 128, 32, 32]         --
│    └─Empty: 2-54                       [16, 128, 32, 32]         --
│    └─OutputShiftSqueeze: 2-55          --                        --
│    └─One: 2-56                         [1]                       --
│    └─OutputScale: 2-57                 --                        --
│    └─Empty: 2-58                       [128, 128, 3, 3]          --
│    └─Empty: 2-59                       [128, 128, 3, 3]          --
│    └─Empty: 2-60                       [128]                     --
│    └─Empty: 2-61                       [128]                     --
│    └─BatchNorm2d: 2-62                 [16, 128, 32, 32]         --
│    └─Scaler: 2-63                      [16, 128, 32, 32]         --
│    └─ReLU: 2-64                        [16, 128, 32, 32]         --
│    └─Empty: 2-65                       [16, 128, 32, 32]         --
│    └─Clamp: 2-66                       [16, 128, 32, 32]         --
├─Dropout2d: 1-6                         [16, 128, 32, 32]         --
├─FusedMaxPoolConv2dBNReLU: 1-7          [16, 128, 16, 16]         147,590
│    └─MaxPool2d: 2-67                   [16, 128, 16, 16]         --
│    └─Empty: 2-68                       [16, 128, 16, 16]         --
│    └─Empty: 2-69                       [16, 128, 16, 16]         --
│    └─OutputShiftSqueeze: 2-70          --                        --
│    └─One: 2-71                         [1]                       --
│    └─OutputScale: 2-72                 --                        --
│    └─Empty: 2-73                       [128, 128, 3, 3]          --
│    └─Empty: 2-74                       [128, 128, 3, 3]          --
│    └─Empty: 2-75                       [128]                     --
│    └─Empty: 2-76                       [128]                     --
│    └─BatchNorm2d: 2-77                 [16, 128, 16, 16]         --
│    └─Scaler: 2-78                      [16, 128, 16, 16]         --
│    └─ReLU: 2-79                        [16, 128, 16, 16]         --
│    └─Empty: 2-80                       [16, 128, 16, 16]         --
│    └─Clamp: 2-81                       [16, 128, 16, 16]         --
├─FusedConv2dBNReLU: 1-8                 [16, 128, 16, 16]         16,518
│    └─OutputShiftSqueeze: 2-82          --                        --
│    └─One: 2-83                         [1]                       --
│    └─OutputScale: 2-84                 --                        --
│    └─Empty: 2-85                       [128, 128, 1, 1]          --
│    └─Empty: 2-86                       [128, 128, 1, 1]          --
│    └─Empty: 2-87                       [128]                     --
│    └─Empty: 2-88                       [128]                     --
│    └─BatchNorm2d: 2-89                 [16, 128, 16, 16]         --
│    └─Scaler: 2-90                      [16, 128, 16, 16]         --
│    └─ReLU: 2-91                        [16, 128, 16, 16]         --
│    └─Empty: 2-92                       [16, 128, 16, 16]         --
│    └─Clamp: 2-93                       [16, 128, 16, 16]         --
├─FusedMaxPoolConv2dBNReLU: 1-9          [16, 128, 16, 16]         147,590
│    └─MaxPool2d: 2-94                   [16, 128, 16, 16]         --
│    └─Empty: 2-95                       [16, 128, 16, 16]         --
│    └─Empty: 2-96                       [16, 128, 16, 16]         --
│    └─OutputShiftSqueeze: 2-97          --                        --
│    └─One: 2-98                         [1]                       --
│    └─OutputScale: 2-99                 --                        --
│    └─Empty: 2-100                      [128, 128, 3, 3]          --
│    └─Empty: 2-101                      [128, 128, 3, 3]          --
│    └─Empty: 2-102                      [128]                     --
│    └─Empty: 2-103                      [128]                     --
│    └─BatchNorm2d: 2-104                [16, 128, 16, 16]         --
│    └─Scaler: 2-105                     [16, 128, 16, 16]         --
│    └─ReLU: 2-106                       [16, 128, 16, 16]         --
│    └─Empty: 2-107                      [16, 128, 16, 16]         --
│    └─Clamp: 2-108                      [16, 128, 16, 16]         --
├─Dropout2d: 1-10                        [16, 128, 16, 16]         --
├─FusedMaxPoolConv2dBNReLU: 1-11         [16, 128, 8, 8]           147,590
│    └─MaxPool2d: 2-109                  [16, 128, 8, 8]           --
│    └─Empty: 2-110                      [16, 128, 8, 8]           --
│    └─Empty: 2-111                      [16, 128, 8, 8]           --
│    └─OutputShiftSqueeze: 2-112         --                        --
│    └─One: 2-113                        [1]                       --
│    └─OutputScale: 2-114                --                        --
│    └─Empty: 2-115                      [128, 128, 3, 3]          --
│    └─Empty: 2-116                      [128, 128, 3, 3]          --
│    └─Empty: 2-117                      [128]                     --
│    └─Empty: 2-118                      [128]                     --
│    └─BatchNorm2d: 2-119                [16, 128, 8, 8]           --
│    └─Scaler: 2-120                     [16, 128, 8, 8]           --
│    └─ReLU: 2-121                       [16, 128, 8, 8]           --
│    └─Empty: 2-122                      [16, 128, 8, 8]           --
│    └─Clamp: 2-123                      [16, 128, 8, 8]           --
├─FusedConv2dBNReLU: 1-12                [16, 16, 8, 8]            2,070
│    └─OutputShiftSqueeze: 2-124         --                        --
│    └─One: 2-125                        [1]                       --
│    └─OutputScale: 2-126                --                        --
│    └─Empty: 2-127                      [16, 128, 1, 1]           --
│    └─Empty: 2-128                      [16, 128, 1, 1]           --
│    └─Empty: 2-129                      [16]                      --
│    └─Empty: 2-130                      [16]                      --
│    └─BatchNorm2d: 2-131                [16, 16, 8, 8]            --
│    └─Scaler: 2-132                     [16, 16, 8, 8]            --
│    └─ReLU: 2-133                       [16, 16, 8, 8]            --
│    └─Empty: 2-134                      [16, 16, 8, 8]            --
│    └─Clamp: 2-135                      [16, 16, 8, 8]            --
├─FusedMaxPoolConv2dBNReLU: 1-13         [16, 16, 8, 8]            18,454
│    └─MaxPool2d: 2-136                  [16, 128, 8, 8]           --
│    └─Empty: 2-137                      [16, 128, 8, 8]           --
│    └─Empty: 2-138                      [16, 128, 8, 8]           --
│    └─OutputShiftSqueeze: 2-139         --                        --
│    └─One: 2-140                        [1]                       --
│    └─OutputScale: 2-141                --                        --
│    └─Empty: 2-142                      [16, 128, 3, 3]           --
│    └─Empty: 2-143                      [16, 128, 3, 3]           --
│    └─Empty: 2-144                      [16]                      --
│    └─Empty: 2-145                      [16]                      --
│    └─BatchNorm2d: 2-146                [16, 16, 8, 8]            --
│    └─Scaler: 2-147                     [16, 16, 8, 8]            --
│    └─ReLU: 2-148                       [16, 16, 8, 8]            --
│    └─Empty: 2-149                      [16, 16, 8, 8]            --
│    └─Clamp: 2-150                      [16, 16, 8, 8]            --
├─Dropout2d: 1-14                        [16, 16, 8, 8]            --
├─FusedConv2dBNReLU: 1-15                [16, 128, 64, 64]         (recursive)
│    └─OutputShiftSqueeze: 2-151         --                        --
│    └─One: 2-152                        [1]                       --
│    └─OutputScale: 2-153                --                        --
│    └─Empty: 2-154                      [128, 48, 1, 1]           --
│    └─Empty: 2-155                      [128, 48, 1, 1]           --
│    └─Empty: 2-156                      [128]                     --
│    └─Empty: 2-157                      [128]                     --
│    └─BatchNorm2d: 2-158                [16, 128, 64, 64]         --
│    └─Scaler: 2-159                     [16, 128, 64, 64]         --
│    └─ReLU: 2-160                       [16, 128, 64, 64]         --
│    └─Empty: 2-161                      [16, 128, 64, 64]         --
│    └─Clamp: 2-162                      [16, 128, 64, 64]         --
├─FusedConv2dBNReLU: 1-16                [16, 128, 64, 64]         (recursive)
│    └─OutputShiftSqueeze: 2-163         --                        --
│    └─One: 2-164                        [1]                       --
│    └─OutputScale: 2-165                --                        --
│    └─Empty: 2-166                      [128, 128, 3, 3]          --
│    └─Empty: 2-167                      [128, 128, 3, 3]          --
│    └─Empty: 2-168                      [128]                     --
│    └─Empty: 2-169                      [128]                     --
│    └─BatchNorm2d: 2-170                [16, 128, 64, 64]         --
│    └─Scaler: 2-171                     [16, 128, 64, 64]         --
│    └─ReLU: 2-172                       [16, 128, 64, 64]         --
│    └─Empty: 2-173                      [16, 128, 64, 64]         --
│    └─Clamp: 2-174                      [16, 128, 64, 64]         --
├─FusedMaxPoolConv2dBNReLU: 1-17         [16, 128, 32, 32]         (recursive)
│    └─MaxPool2d: 2-175                  [16, 128, 32, 32]         --
│    └─Empty: 2-176                      [16, 128, 32, 32]         --
│    └─Empty: 2-177                      [16, 128, 32, 32]         --
│    └─OutputShiftSqueeze: 2-178         --                        --
│    └─One: 2-179                        [1]                       --
│    └─OutputScale: 2-180                --                        --
│    └─Empty: 2-181                      [128, 128, 3, 3]          --
│    └─Empty: 2-182                      [128, 128, 3, 3]          --
│    └─Empty: 2-183                      [128]                     --
│    └─Empty: 2-184                      [128]                     --
│    └─BatchNorm2d: 2-185                [16, 128, 32, 32]         --
│    └─Scaler: 2-186                     [16, 128, 32, 32]         --
│    └─ReLU: 2-187                       [16, 128, 32, 32]         --
│    └─Empty: 2-188                      [16, 128, 32, 32]         --
│    └─Clamp: 2-189                      [16, 128, 32, 32]         --
├─FusedConv2dBNReLU: 1-18                [16, 128, 32, 32]         (recursive)
│    └─OutputShiftSqueeze: 2-190         --                        --
│    └─One: 2-191                        [1]                       --
│    └─OutputScale: 2-192                --                        --
│    └─Empty: 2-193                      [128, 128, 1, 1]          --
│    └─Empty: 2-194                      [128, 128, 1, 1]          --
│    └─Empty: 2-195                      [128]                     --
│    └─Empty: 2-196                      [128]                     --
│    └─BatchNorm2d: 2-197                [16, 128, 32, 32]         --
│    └─Scaler: 2-198                     [16, 128, 32, 32]         --
│    └─ReLU: 2-199                       [16, 128, 32, 32]         --
│    └─Empty: 2-200                      [16, 128, 32, 32]         --
│    └─Clamp: 2-201                      [16, 128, 32, 32]         --
├─FusedMaxPoolConv2dBNReLU: 1-19         [16, 128, 32, 32]         (recursive)
│    └─MaxPool2d: 2-202                  [16, 128, 32, 32]         --
│    └─Empty: 2-203                      [16, 128, 32, 32]         --
│    └─Empty: 2-204                      [16, 128, 32, 32]         --
│    └─OutputShiftSqueeze: 2-205         --                        --
│    └─One: 2-206                        [1]                       --
│    └─OutputScale: 2-207                --                        --
│    └─Empty: 2-208                      [128, 128, 3, 3]          --
│    └─Empty: 2-209                      [128, 128, 3, 3]          --
│    └─Empty: 2-210                      [128]                     --
│    └─Empty: 2-211                      [128]                     --
│    └─BatchNorm2d: 2-212                [16, 128, 32, 32]         --
│    └─Scaler: 2-213                     [16, 128, 32, 32]         --
│    └─ReLU: 2-214                       [16, 128, 32, 32]         --
│    └─Empty: 2-215                      [16, 128, 32, 32]         --
│    └─Clamp: 2-216                      [16, 128, 32, 32]         --
├─Dropout2d: 1-20                        [16, 128, 32, 32]         --
├─FusedMaxPoolConv2dBNReLU: 1-21         [16, 128, 16, 16]         (recursive)
│    └─MaxPool2d: 2-217                  [16, 128, 16, 16]         --
│    └─Empty: 2-218                      [16, 128, 16, 16]         --
│    └─Empty: 2-219                      [16, 128, 16, 16]         --
│    └─OutputShiftSqueeze: 2-220         --                        --
│    └─One: 2-221                        [1]                       --
│    └─OutputScale: 2-222                --                        --
│    └─Empty: 2-223                      [128, 128, 3, 3]          --
│    └─Empty: 2-224                      [128, 128, 3, 3]          --
│    └─Empty: 2-225                      [128]                     --
│    └─Empty: 2-226                      [128]                     --
│    └─BatchNorm2d: 2-227                [16, 128, 16, 16]         --
│    └─Scaler: 2-228                     [16, 128, 16, 16]         --
│    └─ReLU: 2-229                       [16, 128, 16, 16]         --
│    └─Empty: 2-230                      [16, 128, 16, 16]         --
│    └─Clamp: 2-231                      [16, 128, 16, 16]         --
├─FusedConv2dBNReLU: 1-22                [16, 128, 16, 16]         (recursive)
│    └─OutputShiftSqueeze: 2-232         --                        --
│    └─One: 2-233                        [1]                       --
│    └─OutputScale: 2-234                --                        --
│    └─Empty: 2-235                      [128, 128, 1, 1]          --
│    └─Empty: 2-236                      [128, 128, 1, 1]          --
│    └─Empty: 2-237                      [128]                     --
│    └─Empty: 2-238                      [128]                     --
│    └─BatchNorm2d: 2-239                [16, 128, 16, 16]         --
│    └─Scaler: 2-240                     [16, 128, 16, 16]         --
│    └─ReLU: 2-241                       [16, 128, 16, 16]         --
│    └─Empty: 2-242                      [16, 128, 16, 16]         --
│    └─Clamp: 2-243                      [16, 128, 16, 16]         --
├─FusedMaxPoolConv2dBNReLU: 1-23         [16, 128, 16, 16]         (recursive)
│    └─MaxPool2d: 2-244                  [16, 128, 16, 16]         --
│    └─Empty: 2-245                      [16, 128, 16, 16]         --
│    └─Empty: 2-246                      [16, 128, 16, 16]         --
│    └─OutputShiftSqueeze: 2-247         --                        --
│    └─One: 2-248                        [1]                       --
│    └─OutputScale: 2-249                --                        --
│    └─Empty: 2-250                      [128, 128, 3, 3]          --
│    └─Empty: 2-251                      [128, 128, 3, 3]          --
│    └─Empty: 2-252                      [128]                     --
│    └─Empty: 2-253                      [128]                     --
│    └─BatchNorm2d: 2-254                [16, 128, 16, 16]         --
│    └─Scaler: 2-255                     [16, 128, 16, 16]         --
│    └─ReLU: 2-256                       [16, 128, 16, 16]         --
│    └─Empty: 2-257                      [16, 128, 16, 16]         --
│    └─Clamp: 2-258                      [16, 128, 16, 16]         --
├─Dropout2d: 1-24                        [16, 128, 16, 16]         --
├─FusedMaxPoolConv2dBNReLU: 1-25         [16, 128, 8, 8]           (recursive)
│    └─MaxPool2d: 2-259                  [16, 128, 8, 8]           --
│    └─Empty: 2-260                      [16, 128, 8, 8]           --
│    └─Empty: 2-261                      [16, 128, 8, 8]           --
│    └─OutputShiftSqueeze: 2-262         --                        --
│    └─One: 2-263                        [1]                       --
│    └─OutputScale: 2-264                --                        --
│    └─Empty: 2-265                      [128, 128, 3, 3]          --
│    └─Empty: 2-266                      [128, 128, 3, 3]          --
│    └─Empty: 2-267                      [128]                     --
│    └─Empty: 2-268                      [128]                     --
│    └─BatchNorm2d: 2-269                [16, 128, 8, 8]           --
│    └─Scaler: 2-270                     [16, 128, 8, 8]           --
│    └─ReLU: 2-271                       [16, 128, 8, 8]           --
│    └─Empty: 2-272                      [16, 128, 8, 8]           --
│    └─Clamp: 2-273                      [16, 128, 8, 8]           --
├─FusedConv2dBNReLU: 1-26                [16, 16, 8, 8]            (recursive)
│    └─OutputShiftSqueeze: 2-274         --                        --
│    └─One: 2-275                        [1]                       --
│    └─OutputScale: 2-276                --                        --
│    └─Empty: 2-277                      [16, 128, 1, 1]           --
│    └─Empty: 2-278                      [16, 128, 1, 1]           --
│    └─Empty: 2-279                      [16]                      --
│    └─Empty: 2-280                      [16]                      --
│    └─BatchNorm2d: 2-281                [16, 16, 8, 8]            --
│    └─Scaler: 2-282                     [16, 16, 8, 8]            --
│    └─ReLU: 2-283                       [16, 16, 8, 8]            --
│    └─Empty: 2-284                      [16, 16, 8, 8]            --
│    └─Clamp: 2-285                      [16, 16, 8, 8]            --
├─FusedMaxPoolConv2dBNReLU: 1-27         [16, 16, 8, 8]            (recursive)
│    └─MaxPool2d: 2-286                  [16, 128, 8, 8]           --
│    └─Empty: 2-287                      [16, 128, 8, 8]           --
│    └─Empty: 2-288                      [16, 128, 8, 8]           --
│    └─OutputShiftSqueeze: 2-289         --                        --
│    └─One: 2-290                        [1]                       --
│    └─OutputScale: 2-291                --                        --
│    └─Empty: 2-292                      [16, 128, 3, 3]           --
│    └─Empty: 2-293                      [16, 128, 3, 3]           --
│    └─Empty: 2-294                      [16]                      --
│    └─Empty: 2-295                      [16]                      --
│    └─BatchNorm2d: 2-296                [16, 16, 8, 8]            --
│    └─Scaler: 2-297                     [16, 16, 8, 8]            --
│    └─ReLU: 2-298                       [16, 16, 8, 8]            --
│    └─Empty: 2-299                      [16, 16, 8, 8]            --
│    └─Clamp: 2-300                      [16, 16, 8, 8]            --
├─Dropout2d: 1-28                        [16, 16, 8, 8]            --
├─FusedConv2dBNReLU: 1-29                [16, 128, 64, 64]         (recursive)
│    └─OutputShiftSqueeze: 2-301         --                        --
│    └─One: 2-302                        [1]                       --
│    └─OutputScale: 2-303                --                        --
│    └─Empty: 2-304                      [128, 48, 1, 1]           --
│    └─Empty: 2-305                      [128, 48, 1, 1]           --
│    └─Empty: 2-306                      [128]                     --
│    └─Empty: 2-307                      [128]                     --
│    └─BatchNorm2d: 2-308                [16, 128, 64, 64]         --
│    └─Scaler: 2-309                     [16, 128, 64, 64]         --
│    └─ReLU: 2-310                       [16, 128, 64, 64]         --
│    └─Empty: 2-311                      [16, 128, 64, 64]         --
│    └─Clamp: 2-312                      [16, 128, 64, 64]         --
├─FusedConv2dBNReLU: 1-30                [16, 128, 64, 64]         (recursive)
│    └─OutputShiftSqueeze: 2-313         --                        --
│    └─One: 2-314                        [1]                       --
│    └─OutputScale: 2-315                --                        --
│    └─Empty: 2-316                      [128, 128, 3, 3]          --
│    └─Empty: 2-317                      [128, 128, 3, 3]          --
│    └─Empty: 2-318                      [128]                     --
│    └─Empty: 2-319                      [128]                     --
│    └─BatchNorm2d: 2-320                [16, 128, 64, 64]         --
│    └─Scaler: 2-321                     [16, 128, 64, 64]         --
│    └─ReLU: 2-322                       [16, 128, 64, 64]         --
│    └─Empty: 2-323                      [16, 128, 64, 64]         --
│    └─Clamp: 2-324                      [16, 128, 64, 64]         --
├─FusedMaxPoolConv2dBNReLU: 1-31         [16, 128, 32, 32]         (recursive)
│    └─MaxPool2d: 2-325                  [16, 128, 32, 32]         --
│    └─Empty: 2-326                      [16, 128, 32, 32]         --
│    └─Empty: 2-327                      [16, 128, 32, 32]         --
│    └─OutputShiftSqueeze: 2-328         --                        --
│    └─One: 2-329                        [1]                       --
│    └─OutputScale: 2-330                --                        --
│    └─Empty: 2-331                      [128, 128, 3, 3]          --
│    └─Empty: 2-332                      [128, 128, 3, 3]          --
│    └─Empty: 2-333                      [128]                     --
│    └─Empty: 2-334                      [128]                     --
│    └─BatchNorm2d: 2-335                [16, 128, 32, 32]         --
│    └─Scaler: 2-336                     [16, 128, 32, 32]         --
│    └─ReLU: 2-337                       [16, 128, 32, 32]         --
│    └─Empty: 2-338                      [16, 128, 32, 32]         --
│    └─Clamp: 2-339                      [16, 128, 32, 32]         --
├─FusedConv2dBNReLU: 1-32                [16, 128, 32, 32]         (recursive)
│    └─OutputShiftSqueeze: 2-340         --                        --
│    └─One: 2-341                        [1]                       --
│    └─OutputScale: 2-342                --                        --
│    └─Empty: 2-343                      [128, 128, 1, 1]          --
│    └─Empty: 2-344                      [128, 128, 1, 1]          --
│    └─Empty: 2-345                      [128]                     --
│    └─Empty: 2-346                      [128]                     --
│    └─BatchNorm2d: 2-347                [16, 128, 32, 32]         --
│    └─Scaler: 2-348                     [16, 128, 32, 32]         --
│    └─ReLU: 2-349                       [16, 128, 32, 32]         --
│    └─Empty: 2-350                      [16, 128, 32, 32]         --
│    └─Clamp: 2-351                      [16, 128, 32, 32]         --
├─FusedMaxPoolConv2dBNReLU: 1-33         [16, 128, 32, 32]         (recursive)
│    └─MaxPool2d: 2-352                  [16, 128, 32, 32]         --
│    └─Empty: 2-353                      [16, 128, 32, 32]         --
│    └─Empty: 2-354                      [16, 128, 32, 32]         --
│    └─OutputShiftSqueeze: 2-355         --                        --
│    └─One: 2-356                        [1]                       --
│    └─OutputScale: 2-357                --                        --
│    └─Empty: 2-358                      [128, 128, 3, 3]          --
│    └─Empty: 2-359                      [128, 128, 3, 3]          --
│    └─Empty: 2-360                      [128]                     --
│    └─Empty: 2-361                      [128]                     --
│    └─BatchNorm2d: 2-362                [16, 128, 32, 32]         --
│    └─Scaler: 2-363                     [16, 128, 32, 32]         --
│    └─ReLU: 2-364                       [16, 128, 32, 32]         --
│    └─Empty: 2-365                      [16, 128, 32, 32]         --
│    └─Clamp: 2-366                      [16, 128, 32, 32]         --
├─Dropout2d: 1-34                        [16, 128, 32, 32]         --
├─FusedMaxPoolConv2dBNReLU: 1-35         [16, 128, 16, 16]         (recursive)
│    └─MaxPool2d: 2-367                  [16, 128, 16, 16]         --
│    └─Empty: 2-368                      [16, 128, 16, 16]         --
│    └─Empty: 2-369                      [16, 128, 16, 16]         --
│    └─OutputShiftSqueeze: 2-370         --                        --
│    └─One: 2-371                        [1]                       --
│    └─OutputScale: 2-372                --                        --
│    └─Empty: 2-373                      [128, 128, 3, 3]          --
│    └─Empty: 2-374                      [128, 128, 3, 3]          --
│    └─Empty: 2-375                      [128]                     --
│    └─Empty: 2-376                      [128]                     --
│    └─BatchNorm2d: 2-377                [16, 128, 16, 16]         --
│    └─Scaler: 2-378                     [16, 128, 16, 16]         --
│    └─ReLU: 2-379                       [16, 128, 16, 16]         --
│    └─Empty: 2-380                      [16, 128, 16, 16]         --
│    └─Clamp: 2-381                      [16, 128, 16, 16]         --
├─FusedConv2dBNReLU: 1-36                [16, 128, 16, 16]         (recursive)
│    └─OutputShiftSqueeze: 2-382         --                        --
│    └─One: 2-383                        [1]                       --
│    └─OutputScale: 2-384                --                        --
│    └─Empty: 2-385                      [128, 128, 1, 1]          --
│    └─Empty: 2-386                      [128, 128, 1, 1]          --
│    └─Empty: 2-387                      [128]                     --
│    └─Empty: 2-388                      [128]                     --
│    └─BatchNorm2d: 2-389                [16, 128, 16, 16]         --
│    └─Scaler: 2-390                     [16, 128, 16, 16]         --
│    └─ReLU: 2-391                       [16, 128, 16, 16]         --
│    └─Empty: 2-392                      [16, 128, 16, 16]         --
│    └─Clamp: 2-393                      [16, 128, 16, 16]         --
├─FusedMaxPoolConv2dBNReLU: 1-37         [16, 128, 16, 16]         (recursive)
│    └─MaxPool2d: 2-394                  [16, 128, 16, 16]         --
│    └─Empty: 2-395                      [16, 128, 16, 16]         --
│    └─Empty: 2-396                      [16, 128, 16, 16]         --
│    └─OutputShiftSqueeze: 2-397         --                        --
│    └─One: 2-398                        [1]                       --
│    └─OutputScale: 2-399                --                        --
│    └─Empty: 2-400                      [128, 128, 3, 3]          --
│    └─Empty: 2-401                      [128, 128, 3, 3]          --
│    └─Empty: 2-402                      [128]                     --
│    └─Empty: 2-403                      [128]                     --
│    └─BatchNorm2d: 2-404                [16, 128, 16, 16]         --
│    └─Scaler: 2-405                     [16, 128, 16, 16]         --
│    └─ReLU: 2-406                       [16, 128, 16, 16]         --
│    └─Empty: 2-407                      [16, 128, 16, 16]         --
│    └─Clamp: 2-408                      [16, 128, 16, 16]         --
├─Dropout2d: 1-38                        [16, 128, 16, 16]         --
├─FusedMaxPoolConv2dBNReLU: 1-39         [16, 128, 8, 8]           (recursive)
│    └─MaxPool2d: 2-409                  [16, 128, 8, 8]           --
│    └─Empty: 2-410                      [16, 128, 8, 8]           --
│    └─Empty: 2-411                      [16, 128, 8, 8]           --
│    └─OutputShiftSqueeze: 2-412         --                        --
│    └─One: 2-413                        [1]                       --
│    └─OutputScale: 2-414                --                        --
│    └─Empty: 2-415                      [128, 128, 3, 3]          --
│    └─Empty: 2-416                      [128, 128, 3, 3]          --
│    └─Empty: 2-417                      [128]                     --
│    └─Empty: 2-418                      [128]                     --
│    └─BatchNorm2d: 2-419                [16, 128, 8, 8]           --
│    └─Scaler: 2-420                     [16, 128, 8, 8]           --
│    └─ReLU: 2-421                       [16, 128, 8, 8]           --
│    └─Empty: 2-422                      [16, 128, 8, 8]           --
│    └─Clamp: 2-423                      [16, 128, 8, 8]           --
├─FusedConv2dBNReLU: 1-40                [16, 16, 8, 8]            (recursive)
│    └─OutputShiftSqueeze: 2-424         --                        --
│    └─One: 2-425                        [1]                       --
│    └─OutputScale: 2-426                --                        --
│    └─Empty: 2-427                      [16, 128, 1, 1]           --
│    └─Empty: 2-428                      [16, 128, 1, 1]           --
│    └─Empty: 2-429                      [16]                      --
│    └─Empty: 2-430                      [16]                      --
│    └─BatchNorm2d: 2-431                [16, 16, 8, 8]            --
│    └─Scaler: 2-432                     [16, 16, 8, 8]            --
│    └─ReLU: 2-433                       [16, 16, 8, 8]            --
│    └─Empty: 2-434                      [16, 16, 8, 8]            --
│    └─Clamp: 2-435                      [16, 16, 8, 8]            --
├─FusedMaxPoolConv2dBNReLU: 1-41         [16, 16, 8, 8]            (recursive)
│    └─MaxPool2d: 2-436                  [16, 128, 8, 8]           --
│    └─Empty: 2-437                      [16, 128, 8, 8]           --
│    └─Empty: 2-438                      [16, 128, 8, 8]           --
│    └─OutputShiftSqueeze: 2-439         --                        --
│    └─One: 2-440                        [1]                       --
│    └─OutputScale: 2-441                --                        --
│    └─Empty: 2-442                      [16, 128, 3, 3]           --
│    └─Empty: 2-443                      [16, 128, 3, 3]           --
│    └─Empty: 2-444                      [16]                      --
│    └─Empty: 2-445                      [16]                      --
│    └─BatchNorm2d: 2-446                [16, 16, 8, 8]            --
│    └─Scaler: 2-447                     [16, 16, 8, 8]            --
│    └─ReLU: 2-448                       [16, 16, 8, 8]            --
│    └─Empty: 2-449                      [16, 16, 8, 8]            --
│    └─Clamp: 2-450                      [16, 16, 8, 8]            --
├─Dropout2d: 1-42                        [16, 16, 8, 8]            --
├─FusedConv2dBNReLU: 1-43                [16, 128, 64, 64]         (recursive)
│    └─OutputShiftSqueeze: 2-451         --                        --
│    └─One: 2-452                        [1]                       --
│    └─OutputScale: 2-453                --                        --
│    └─Empty: 2-454                      [128, 48, 1, 1]           --
│    └─Empty: 2-455                      [128, 48, 1, 1]           --
│    └─Empty: 2-456                      [128]                     --
│    └─Empty: 2-457                      [128]                     --
│    └─BatchNorm2d: 2-458                [16, 128, 64, 64]         --
│    └─Scaler: 2-459                     [16, 128, 64, 64]         --
│    └─ReLU: 2-460                       [16, 128, 64, 64]         --
│    └─Empty: 2-461                      [16, 128, 64, 64]         --
│    └─Clamp: 2-462                      [16, 128, 64, 64]         --
├─FusedConv2dBNReLU: 1-44                [16, 128, 64, 64]         (recursive)
│    └─OutputShiftSqueeze: 2-463         --                        --
│    └─One: 2-464                        [1]                       --
│    └─OutputScale: 2-465                --                        --
│    └─Empty: 2-466                      [128, 128, 3, 3]          --
│    └─Empty: 2-467                      [128, 128, 3, 3]          --
│    └─Empty: 2-468                      [128]                     --
│    └─Empty: 2-469                      [128]                     --
│    └─BatchNorm2d: 2-470                [16, 128, 64, 64]         --
│    └─Scaler: 2-471                     [16, 128, 64, 64]         --
│    └─ReLU: 2-472                       [16, 128, 64, 64]         --
│    └─Empty: 2-473                      [16, 128, 64, 64]         --
│    └─Clamp: 2-474                      [16, 128, 64, 64]         --
├─FusedMaxPoolConv2dBNReLU: 1-45         [16, 128, 32, 32]         (recursive)
│    └─MaxPool2d: 2-475                  [16, 128, 32, 32]         --
│    └─Empty: 2-476                      [16, 128, 32, 32]         --
│    └─Empty: 2-477                      [16, 128, 32, 32]         --
│    └─OutputShiftSqueeze: 2-478         --                        --
│    └─One: 2-479                        [1]                       --
│    └─OutputScale: 2-480                --                        --
│    └─Empty: 2-481                      [128, 128, 3, 3]          --
│    └─Empty: 2-482                      [128, 128, 3, 3]          --
│    └─Empty: 2-483                      [128]                     --
│    └─Empty: 2-484                      [128]                     --
│    └─BatchNorm2d: 2-485                [16, 128, 32, 32]         --
│    └─Scaler: 2-486                     [16, 128, 32, 32]         --
│    └─ReLU: 2-487                       [16, 128, 32, 32]         --
│    └─Empty: 2-488                      [16, 128, 32, 32]         --
│    └─Clamp: 2-489                      [16, 128, 32, 32]         --
├─FusedConv2dBNReLU: 1-46                [16, 128, 32, 32]         (recursive)
│    └─OutputShiftSqueeze: 2-490         --                        --
│    └─One: 2-491                        [1]                       --
│    └─OutputScale: 2-492                --                        --
│    └─Empty: 2-493                      [128, 128, 1, 1]          --
│    └─Empty: 2-494                      [128, 128, 1, 1]          --
│    └─Empty: 2-495                      [128]                     --
│    └─Empty: 2-496                      [128]                     --
│    └─BatchNorm2d: 2-497                [16, 128, 32, 32]         --
│    └─Scaler: 2-498                     [16, 128, 32, 32]         --
│    └─ReLU: 2-499                       [16, 128, 32, 32]         --
│    └─Empty: 2-500                      [16, 128, 32, 32]         --
│    └─Clamp: 2-501                      [16, 128, 32, 32]         --
├─FusedMaxPoolConv2dBNReLU: 1-47         [16, 128, 32, 32]         (recursive)
│    └─MaxPool2d: 2-502                  [16, 128, 32, 32]         --
│    └─Empty: 2-503                      [16, 128, 32, 32]         --
│    └─Empty: 2-504                      [16, 128, 32, 32]         --
│    └─OutputShiftSqueeze: 2-505         --                        --
│    └─One: 2-506                        [1]                       --
│    └─OutputScale: 2-507                --                        --
│    └─Empty: 2-508                      [128, 128, 3, 3]          --
│    └─Empty: 2-509                      [128, 128, 3, 3]          --
│    └─Empty: 2-510                      [128]                     --
│    └─Empty: 2-511                      [128]                     --
│    └─BatchNorm2d: 2-512                [16, 128, 32, 32]         --
│    └─Scaler: 2-513                     [16, 128, 32, 32]         --
│    └─ReLU: 2-514                       [16, 128, 32, 32]         --
│    └─Empty: 2-515                      [16, 128, 32, 32]         --
│    └─Clamp: 2-516                      [16, 128, 32, 32]         --
├─Dropout2d: 1-48                        [16, 128, 32, 32]         --
├─FusedMaxPoolConv2dBNReLU: 1-49         [16, 128, 16, 16]         (recursive)
│    └─MaxPool2d: 2-517                  [16, 128, 16, 16]         --
│    └─Empty: 2-518                      [16, 128, 16, 16]         --
│    └─Empty: 2-519                      [16, 128, 16, 16]         --
│    └─OutputShiftSqueeze: 2-520         --                        --
│    └─One: 2-521                        [1]                       --
│    └─OutputScale: 2-522                --                        --
│    └─Empty: 2-523                      [128, 128, 3, 3]          --
│    └─Empty: 2-524                      [128, 128, 3, 3]          --
│    └─Empty: 2-525                      [128]                     --
│    └─Empty: 2-526                      [128]                     --
│    └─BatchNorm2d: 2-527                [16, 128, 16, 16]         --
│    └─Scaler: 2-528                     [16, 128, 16, 16]         --
│    └─ReLU: 2-529                       [16, 128, 16, 16]         --
│    └─Empty: 2-530                      [16, 128, 16, 16]         --
│    └─Clamp: 2-531                      [16, 128, 16, 16]         --
├─FusedConv2dBNReLU: 1-50                [16, 128, 16, 16]         (recursive)
│    └─OutputShiftSqueeze: 2-532         --                        --
│    └─One: 2-533                        [1]                       --
│    └─OutputScale: 2-534                --                        --
│    └─Empty: 2-535                      [128, 128, 1, 1]          --
│    └─Empty: 2-536                      [128, 128, 1, 1]          --
│    └─Empty: 2-537                      [128]                     --
│    └─Empty: 2-538                      [128]                     --
│    └─BatchNorm2d: 2-539                [16, 128, 16, 16]         --
│    └─Scaler: 2-540                     [16, 128, 16, 16]         --
│    └─ReLU: 2-541                       [16, 128, 16, 16]         --
│    └─Empty: 2-542                      [16, 128, 16, 16]         --
│    └─Clamp: 2-543                      [16, 128, 16, 16]         --
├─FusedMaxPoolConv2dBNReLU: 1-51         [16, 128, 16, 16]         (recursive)
│    └─MaxPool2d: 2-544                  [16, 128, 16, 16]         --
│    └─Empty: 2-545                      [16, 128, 16, 16]         --
│    └─Empty: 2-546                      [16, 128, 16, 16]         --
│    └─OutputShiftSqueeze: 2-547         --                        --
│    └─One: 2-548                        [1]                       --
│    └─OutputScale: 2-549                --                        --
│    └─Empty: 2-550                      [128, 128, 3, 3]          --
│    └─Empty: 2-551                      [128, 128, 3, 3]          --
│    └─Empty: 2-552                      [128]                     --
│    └─Empty: 2-553                      [128]                     --
│    └─BatchNorm2d: 2-554                [16, 128, 16, 16]         --
│    └─Scaler: 2-555                     [16, 128, 16, 16]         --
│    └─ReLU: 2-556                       [16, 128, 16, 16]         --
│    └─Empty: 2-557                      [16, 128, 16, 16]         --
│    └─Clamp: 2-558                      [16, 128, 16, 16]         --
├─Dropout2d: 1-52                        [16, 128, 16, 16]         --
├─FusedMaxPoolConv2dBNReLU: 1-53         [16, 128, 8, 8]           (recursive)
│    └─MaxPool2d: 2-559                  [16, 128, 8, 8]           --
│    └─Empty: 2-560                      [16, 128, 8, 8]           --
│    └─Empty: 2-561                      [16, 128, 8, 8]           --
│    └─OutputShiftSqueeze: 2-562         --                        --
│    └─One: 2-563                        [1]                       --
│    └─OutputScale: 2-564                --                        --
│    └─Empty: 2-565                      [128, 128, 3, 3]          --
│    └─Empty: 2-566                      [128, 128, 3, 3]          --
│    └─Empty: 2-567                      [128]                     --
│    └─Empty: 2-568                      [128]                     --
│    └─BatchNorm2d: 2-569                [16, 128, 8, 8]           --
│    └─Scaler: 2-570                     [16, 128, 8, 8]           --
│    └─ReLU: 2-571                       [16, 128, 8, 8]           --
│    └─Empty: 2-572                      [16, 128, 8, 8]           --
│    └─Clamp: 2-573                      [16, 128, 8, 8]           --
├─FusedConv2dBNReLU: 1-54                [16, 16, 8, 8]            (recursive)
│    └─OutputShiftSqueeze: 2-574         --                        --
│    └─One: 2-575                        [1]                       --
│    └─OutputScale: 2-576                --                        --
│    └─Empty: 2-577                      [16, 128, 1, 1]           --
│    └─Empty: 2-578                      [16, 128, 1, 1]           --
│    └─Empty: 2-579                      [16]                      --
│    └─Empty: 2-580                      [16]                      --
│    └─BatchNorm2d: 2-581                [16, 16, 8, 8]            --
│    └─Scaler: 2-582                     [16, 16, 8, 8]            --
│    └─ReLU: 2-583                       [16, 16, 8, 8]            --
│    └─Empty: 2-584                      [16, 16, 8, 8]            --
│    └─Clamp: 2-585                      [16, 16, 8, 8]            --
├─FusedMaxPoolConv2dBNReLU: 1-55         [16, 16, 8, 8]            (recursive)
│    └─MaxPool2d: 2-586                  [16, 128, 8, 8]           --
│    └─Empty: 2-587                      [16, 128, 8, 8]           --
│    └─Empty: 2-588                      [16, 128, 8, 8]           --
│    └─OutputShiftSqueeze: 2-589         --                        --
│    └─One: 2-590                        [1]                       --
│    └─OutputScale: 2-591                --                        --
│    └─Empty: 2-592                      [16, 128, 3, 3]           --
│    └─Empty: 2-593                      [16, 128, 3, 3]           --
│    └─Empty: 2-594                      [16]                      --
│    └─Empty: 2-595                      [16]                      --
│    └─BatchNorm2d: 2-596                [16, 16, 8, 8]            --
│    └─Scaler: 2-597                     [16, 16, 8, 8]            --
│    └─ReLU: 2-598                       [16, 16, 8, 8]            --
│    └─Empty: 2-599                      [16, 16, 8, 8]            --
│    └─Clamp: 2-600                      [16, 16, 8, 8]            --
├─Dropout2d: 1-56                        [16, 16, 8, 8]            --
├─FusedConv2dBNReLU: 1-57                [16, 128, 64, 64]         (recursive)
│    └─OutputShiftSqueeze: 2-601         --                        --
│    └─One: 2-602                        [1]                       --
│    └─OutputScale: 2-603                --                        --
│    └─Empty: 2-604                      [128, 48, 1, 1]           --
│    └─Empty: 2-605                      [128, 48, 1, 1]           --
│    └─Empty: 2-606                      [128]                     --
│    └─Empty: 2-607                      [128]                     --
│    └─BatchNorm2d: 2-608                [16, 128, 64, 64]         --
│    └─Scaler: 2-609                     [16, 128, 64, 64]         --
│    └─ReLU: 2-610                       [16, 128, 64, 64]         --
│    └─Empty: 2-611                      [16, 128, 64, 64]         --
│    └─Clamp: 2-612                      [16, 128, 64, 64]         --
├─FusedConv2dBNReLU: 1-58                [16, 128, 64, 64]         (recursive)
│    └─OutputShiftSqueeze: 2-613         --                        --
│    └─One: 2-614                        [1]                       --
│    └─OutputScale: 2-615                --                        --
│    └─Empty: 2-616                      [128, 128, 3, 3]          --
│    └─Empty: 2-617                      [128, 128, 3, 3]          --
│    └─Empty: 2-618                      [128]                     --
│    └─Empty: 2-619                      [128]                     --
│    └─BatchNorm2d: 2-620                [16, 128, 64, 64]         --
│    └─Scaler: 2-621                     [16, 128, 64, 64]         --
│    └─ReLU: 2-622                       [16, 128, 64, 64]         --
│    └─Empty: 2-623                      [16, 128, 64, 64]         --
│    └─Clamp: 2-624                      [16, 128, 64, 64]         --
├─FusedMaxPoolConv2dBNReLU: 1-59         [16, 128, 32, 32]         (recursive)
│    └─MaxPool2d: 2-625                  [16, 128, 32, 32]         --
│    └─Empty: 2-626                      [16, 128, 32, 32]         --
│    └─Empty: 2-627                      [16, 128, 32, 32]         --
│    └─OutputShiftSqueeze: 2-628         --                        --
│    └─One: 2-629                        [1]                       --
│    └─OutputScale: 2-630                --                        --
│    └─Empty: 2-631                      [128, 128, 3, 3]          --
│    └─Empty: 2-632                      [128, 128, 3, 3]          --
│    └─Empty: 2-633                      [128]                     --
│    └─Empty: 2-634                      [128]                     --
│    └─BatchNorm2d: 2-635                [16, 128, 32, 32]         --
│    └─Scaler: 2-636                     [16, 128, 32, 32]         --
│    └─ReLU: 2-637                       [16, 128, 32, 32]         --
│    └─Empty: 2-638                      [16, 128, 32, 32]         --
│    └─Clamp: 2-639                      [16, 128, 32, 32]         --
├─FusedConv2dBNReLU: 1-60                [16, 128, 32, 32]         (recursive)
│    └─OutputShiftSqueeze: 2-640         --                        --
│    └─One: 2-641                        [1]                       --
│    └─OutputScale: 2-642                --                        --
│    └─Empty: 2-643                      [128, 128, 1, 1]          --
│    └─Empty: 2-644                      [128, 128, 1, 1]          --
│    └─Empty: 2-645                      [128]                     --
│    └─Empty: 2-646                      [128]                     --
│    └─BatchNorm2d: 2-647                [16, 128, 32, 32]         --
│    └─Scaler: 2-648                     [16, 128, 32, 32]         --
│    └─ReLU: 2-649                       [16, 128, 32, 32]         --
│    └─Empty: 2-650                      [16, 128, 32, 32]         --
│    └─Clamp: 2-651                      [16, 128, 32, 32]         --
├─FusedMaxPoolConv2dBNReLU: 1-61         [16, 128, 32, 32]         (recursive)
│    └─MaxPool2d: 2-652                  [16, 128, 32, 32]         --
│    └─Empty: 2-653                      [16, 128, 32, 32]         --
│    └─Empty: 2-654                      [16, 128, 32, 32]         --
│    └─OutputShiftSqueeze: 2-655         --                        --
│    └─One: 2-656                        [1]                       --
│    └─OutputScale: 2-657                --                        --
│    └─Empty: 2-658                      [128, 128, 3, 3]          --
│    └─Empty: 2-659                      [128, 128, 3, 3]          --
│    └─Empty: 2-660                      [128]                     --
│    └─Empty: 2-661                      [128]                     --
│    └─BatchNorm2d: 2-662                [16, 128, 32, 32]         --
│    └─Scaler: 2-663                     [16, 128, 32, 32]         --
│    └─ReLU: 2-664                       [16, 128, 32, 32]         --
│    └─Empty: 2-665                      [16, 128, 32, 32]         --
│    └─Clamp: 2-666                      [16, 128, 32, 32]         --
├─Dropout2d: 1-62                        [16, 128, 32, 32]         --
├─FusedMaxPoolConv2dBNReLU: 1-63         [16, 128, 16, 16]         (recursive)
│    └─MaxPool2d: 2-667                  [16, 128, 16, 16]         --
│    └─Empty: 2-668                      [16, 128, 16, 16]         --
│    └─Empty: 2-669                      [16, 128, 16, 16]         --
│    └─OutputShiftSqueeze: 2-670         --                        --
│    └─One: 2-671                        [1]                       --
│    └─OutputScale: 2-672                --                        --
│    └─Empty: 2-673                      [128, 128, 3, 3]          --
│    └─Empty: 2-674                      [128, 128, 3, 3]          --
│    └─Empty: 2-675                      [128]                     --
│    └─Empty: 2-676                      [128]                     --
│    └─BatchNorm2d: 2-677                [16, 128, 16, 16]         --
│    └─Scaler: 2-678                     [16, 128, 16, 16]         --
│    └─ReLU: 2-679                       [16, 128, 16, 16]         --
│    └─Empty: 2-680                      [16, 128, 16, 16]         --
│    └─Clamp: 2-681                      [16, 128, 16, 16]         --
├─FusedConv2dBNReLU: 1-64                [16, 128, 16, 16]         (recursive)
│    └─OutputShiftSqueeze: 2-682         --                        --
│    └─One: 2-683                        [1]                       --
│    └─OutputScale: 2-684                --                        --
│    └─Empty: 2-685                      [128, 128, 1, 1]          --
│    └─Empty: 2-686                      [128, 128, 1, 1]          --
│    └─Empty: 2-687                      [128]                     --
│    └─Empty: 2-688                      [128]                     --
│    └─BatchNorm2d: 2-689                [16, 128, 16, 16]         --
│    └─Scaler: 2-690                     [16, 128, 16, 16]         --
│    └─ReLU: 2-691                       [16, 128, 16, 16]         --
│    └─Empty: 2-692                      [16, 128, 16, 16]         --
│    └─Clamp: 2-693                      [16, 128, 16, 16]         --
├─FusedMaxPoolConv2dBNReLU: 1-65         [16, 128, 16, 16]         (recursive)
│    └─MaxPool2d: 2-694                  [16, 128, 16, 16]         --
│    └─Empty: 2-695                      [16, 128, 16, 16]         --
│    └─Empty: 2-696                      [16, 128, 16, 16]         --
│    └─OutputShiftSqueeze: 2-697         --                        --
│    └─One: 2-698                        [1]                       --
│    └─OutputScale: 2-699                --                        --
│    └─Empty: 2-700                      [128, 128, 3, 3]          --
│    └─Empty: 2-701                      [128, 128, 3, 3]          --
│    └─Empty: 2-702                      [128]                     --
│    └─Empty: 2-703                      [128]                     --
│    └─BatchNorm2d: 2-704                [16, 128, 16, 16]         --
│    └─Scaler: 2-705                     [16, 128, 16, 16]         --
│    └─ReLU: 2-706                       [16, 128, 16, 16]         --
│    └─Empty: 2-707                      [16, 128, 16, 16]         --
│    └─Clamp: 2-708                      [16, 128, 16, 16]         --
├─Dropout2d: 1-66                        [16, 128, 16, 16]         --
├─FusedMaxPoolConv2dBNReLU: 1-67         [16, 128, 8, 8]           (recursive)
│    └─MaxPool2d: 2-709                  [16, 128, 8, 8]           --
│    └─Empty: 2-710                      [16, 128, 8, 8]           --
│    └─Empty: 2-711                      [16, 128, 8, 8]           --
│    └─OutputShiftSqueeze: 2-712         --                        --
│    └─One: 2-713                        [1]                       --
│    └─OutputScale: 2-714                --                        --
│    └─Empty: 2-715                      [128, 128, 3, 3]          --
│    └─Empty: 2-716                      [128, 128, 3, 3]          --
│    └─Empty: 2-717                      [128]                     --
│    └─Empty: 2-718                      [128]                     --
│    └─BatchNorm2d: 2-719                [16, 128, 8, 8]           --
│    └─Scaler: 2-720                     [16, 128, 8, 8]           --
│    └─ReLU: 2-721                       [16, 128, 8, 8]           --
│    └─Empty: 2-722                      [16, 128, 8, 8]           --
│    └─Clamp: 2-723                      [16, 128, 8, 8]           --
├─FusedConv2dBNReLU: 1-68                [16, 16, 8, 8]            (recursive)
│    └─OutputShiftSqueeze: 2-724         --                        --
│    └─One: 2-725                        [1]                       --
│    └─OutputScale: 2-726                --                        --
│    └─Empty: 2-727                      [16, 128, 1, 1]           --
│    └─Empty: 2-728                      [16, 128, 1, 1]           --
│    └─Empty: 2-729                      [16]                      --
│    └─Empty: 2-730                      [16]                      --
│    └─BatchNorm2d: 2-731                [16, 16, 8, 8]            --
│    └─Scaler: 2-732                     [16, 16, 8, 8]            --
│    └─ReLU: 2-733                       [16, 16, 8, 8]            --
│    └─Empty: 2-734                      [16, 16, 8, 8]            --
│    └─Clamp: 2-735                      [16, 16, 8, 8]            --
├─FusedMaxPoolConv2dBNReLU: 1-69         [16, 16, 8, 8]            (recursive)
│    └─MaxPool2d: 2-736                  [16, 128, 8, 8]           --
│    └─Empty: 2-737                      [16, 128, 8, 8]           --
│    └─Empty: 2-738                      [16, 128, 8, 8]           --
│    └─OutputShiftSqueeze: 2-739         --                        --
│    └─One: 2-740                        [1]                       --
│    └─OutputScale: 2-741                --                        --
│    └─Empty: 2-742                      [16, 128, 3, 3]           --
│    └─Empty: 2-743                      [16, 128, 3, 3]           --
│    └─Empty: 2-744                      [16]                      --
│    └─Empty: 2-745                      [16]                      --
│    └─BatchNorm2d: 2-746                [16, 16, 8, 8]            --
│    └─Scaler: 2-747                     [16, 16, 8, 8]            --
│    └─ReLU: 2-748                       [16, 16, 8, 8]            --
│    └─Empty: 2-749                      [16, 16, 8, 8]            --
│    └─Clamp: 2-750                      [16, 16, 8, 8]            --
├─Dropout2d: 1-70                        [16, 16, 8, 8]            --
├─FusedConv2dBNReLU: 1-71                [16, 128, 64, 64]         (recursive)
│    └─OutputShiftSqueeze: 2-751         --                        --
│    └─One: 2-752                        [1]                       --
│    └─OutputScale: 2-753                --                        --
│    └─Empty: 2-754                      [128, 48, 1, 1]           --
│    └─Empty: 2-755                      [128, 48, 1, 1]           --
│    └─Empty: 2-756                      [128]                     --
│    └─Empty: 2-757                      [128]                     --
│    └─BatchNorm2d: 2-758                [16, 128, 64, 64]         --
│    └─Scaler: 2-759                     [16, 128, 64, 64]         --
│    └─ReLU: 2-760                       [16, 128, 64, 64]         --
│    └─Empty: 2-761                      [16, 128, 64, 64]         --
│    └─Clamp: 2-762                      [16, 128, 64, 64]         --
├─FusedConv2dBNReLU: 1-72                [16, 128, 64, 64]         (recursive)
│    └─OutputShiftSqueeze: 2-763         --                        --
│    └─One: 2-764                        [1]                       --
│    └─OutputScale: 2-765                --                        --
│    └─Empty: 2-766                      [128, 128, 3, 3]          --
│    └─Empty: 2-767                      [128, 128, 3, 3]          --
│    └─Empty: 2-768                      [128]                     --
│    └─Empty: 2-769                      [128]                     --
│    └─BatchNorm2d: 2-770                [16, 128, 64, 64]         --
│    └─Scaler: 2-771                     [16, 128, 64, 64]         --
│    └─ReLU: 2-772                       [16, 128, 64, 64]         --
│    └─Empty: 2-773                      [16, 128, 64, 64]         --
│    └─Clamp: 2-774                      [16, 128, 64, 64]         --
├─FusedMaxPoolConv2dBNReLU: 1-73         [16, 128, 32, 32]         (recursive)
│    └─MaxPool2d: 2-775                  [16, 128, 32, 32]         --
│    └─Empty: 2-776                      [16, 128, 32, 32]         --
│    └─Empty: 2-777                      [16, 128, 32, 32]         --
│    └─OutputShiftSqueeze: 2-778         --                        --
│    └─One: 2-779                        [1]                       --
│    └─OutputScale: 2-780                --                        --
│    └─Empty: 2-781                      [128, 128, 3, 3]          --
│    └─Empty: 2-782                      [128, 128, 3, 3]          --
│    └─Empty: 2-783                      [128]                     --
│    └─Empty: 2-784                      [128]                     --
│    └─BatchNorm2d: 2-785                [16, 128, 32, 32]         --
│    └─Scaler: 2-786                     [16, 128, 32, 32]         --
│    └─ReLU: 2-787                       [16, 128, 32, 32]         --
│    └─Empty: 2-788                      [16, 128, 32, 32]         --
│    └─Clamp: 2-789                      [16, 128, 32, 32]         --
├─FusedConv2dBNReLU: 1-74                [16, 128, 32, 32]         (recursive)
│    └─OutputShiftSqueeze: 2-790         --                        --
│    └─One: 2-791                        [1]                       --
│    └─OutputScale: 2-792                --                        --
│    └─Empty: 2-793                      [128, 128, 1, 1]          --
│    └─Empty: 2-794                      [128, 128, 1, 1]          --
│    └─Empty: 2-795                      [128]                     --
│    └─Empty: 2-796                      [128]                     --
│    └─BatchNorm2d: 2-797                [16, 128, 32, 32]         --
│    └─Scaler: 2-798                     [16, 128, 32, 32]         --
│    └─ReLU: 2-799                       [16, 128, 32, 32]         --
│    └─Empty: 2-800                      [16, 128, 32, 32]         --
│    └─Clamp: 2-801                      [16, 128, 32, 32]         --
├─FusedMaxPoolConv2dBNReLU: 1-75         [16, 128, 32, 32]         (recursive)
│    └─MaxPool2d: 2-802                  [16, 128, 32, 32]         --
│    └─Empty: 2-803                      [16, 128, 32, 32]         --
│    └─Empty: 2-804                      [16, 128, 32, 32]         --
│    └─OutputShiftSqueeze: 2-805         --                        --
│    └─One: 2-806                        [1]                       --
│    └─OutputScale: 2-807                --                        --
│    └─Empty: 2-808                      [128, 128, 3, 3]          --
│    └─Empty: 2-809                      [128, 128, 3, 3]          --
│    └─Empty: 2-810                      [128]                     --
│    └─Empty: 2-811                      [128]                     --
│    └─BatchNorm2d: 2-812                [16, 128, 32, 32]         --
│    └─Scaler: 2-813                     [16, 128, 32, 32]         --
│    └─ReLU: 2-814                       [16, 128, 32, 32]         --
│    └─Empty: 2-815                      [16, 128, 32, 32]         --
│    └─Clamp: 2-816                      [16, 128, 32, 32]         --
├─Dropout2d: 1-76                        [16, 128, 32, 32]         --
├─FusedMaxPoolConv2dBNReLU: 1-77         [16, 128, 16, 16]         (recursive)
│    └─MaxPool2d: 2-817                  [16, 128, 16, 16]         --
│    └─Empty: 2-818                      [16, 128, 16, 16]         --
│    └─Empty: 2-819                      [16, 128, 16, 16]         --
│    └─OutputShiftSqueeze: 2-820         --                        --
│    └─One: 2-821                        [1]                       --
│    └─OutputScale: 2-822                --                        --
│    └─Empty: 2-823                      [128, 128, 3, 3]          --
│    └─Empty: 2-824                      [128, 128, 3, 3]          --
│    └─Empty: 2-825                      [128]                     --
│    └─Empty: 2-826                      [128]                     --
│    └─BatchNorm2d: 2-827                [16, 128, 16, 16]         --
│    └─Scaler: 2-828                     [16, 128, 16, 16]         --
│    └─ReLU: 2-829                       [16, 128, 16, 16]         --
│    └─Empty: 2-830                      [16, 128, 16, 16]         --
│    └─Clamp: 2-831                      [16, 128, 16, 16]         --
├─FusedConv2dBNReLU: 1-78                [16, 128, 16, 16]         (recursive)
│    └─OutputShiftSqueeze: 2-832         --                        --
│    └─One: 2-833                        [1]                       --
│    └─OutputScale: 2-834                --                        --
│    └─Empty: 2-835                      [128, 128, 1, 1]          --
│    └─Empty: 2-836                      [128, 128, 1, 1]          --
│    └─Empty: 2-837                      [128]                     --
│    └─Empty: 2-838                      [128]                     --
│    └─BatchNorm2d: 2-839                [16, 128, 16, 16]         --
│    └─Scaler: 2-840                     [16, 128, 16, 16]         --
│    └─ReLU: 2-841                       [16, 128, 16, 16]         --
│    └─Empty: 2-842                      [16, 128, 16, 16]         --
│    └─Clamp: 2-843                      [16, 128, 16, 16]         --
├─FusedMaxPoolConv2dBNReLU: 1-79         [16, 128, 16, 16]         (recursive)
│    └─MaxPool2d: 2-844                  [16, 128, 16, 16]         --
│    └─Empty: 2-845                      [16, 128, 16, 16]         --
│    └─Empty: 2-846                      [16, 128, 16, 16]         --
│    └─OutputShiftSqueeze: 2-847         --                        --
│    └─One: 2-848                        [1]                       --
│    └─OutputScale: 2-849                --                        --
│    └─Empty: 2-850                      [128, 128, 3, 3]          --
│    └─Empty: 2-851                      [128, 128, 3, 3]          --
│    └─Empty: 2-852                      [128]                     --
│    └─Empty: 2-853                      [128]                     --
│    └─BatchNorm2d: 2-854                [16, 128, 16, 16]         --
│    └─Scaler: 2-855                     [16, 128, 16, 16]         --
│    └─ReLU: 2-856                       [16, 128, 16, 16]         --
│    └─Empty: 2-857                      [16, 128, 16, 16]         --
│    └─Clamp: 2-858                      [16, 128, 16, 16]         --
├─Dropout2d: 1-80                        [16, 128, 16, 16]         --
├─FusedMaxPoolConv2dBNReLU: 1-81         [16, 128, 8, 8]           (recursive)
│    └─MaxPool2d: 2-859                  [16, 128, 8, 8]           --
│    └─Empty: 2-860                      [16, 128, 8, 8]           --
│    └─Empty: 2-861                      [16, 128, 8, 8]           --
│    └─OutputShiftSqueeze: 2-862         --                        --
│    └─One: 2-863                        [1]                       --
│    └─OutputScale: 2-864                --                        --
│    └─Empty: 2-865                      [128, 128, 3, 3]          --
│    └─Empty: 2-866                      [128, 128, 3, 3]          --
│    └─Empty: 2-867                      [128]                     --
│    └─Empty: 2-868                      [128]                     --
│    └─BatchNorm2d: 2-869                [16, 128, 8, 8]           --
│    └─Scaler: 2-870                     [16, 128, 8, 8]           --
│    └─ReLU: 2-871                       [16, 128, 8, 8]           --
│    └─Empty: 2-872                      [16, 128, 8, 8]           --
│    └─Clamp: 2-873                      [16, 128, 8, 8]           --
├─FusedConv2dBNReLU: 1-82                [16, 16, 8, 8]            (recursive)
│    └─OutputShiftSqueeze: 2-874         --                        --
│    └─One: 2-875                        [1]                       --
│    └─OutputScale: 2-876                --                        --
│    └─Empty: 2-877                      [16, 128, 1, 1]           --
│    └─Empty: 2-878                      [16, 128, 1, 1]           --
│    └─Empty: 2-879                      [16]                      --
│    └─Empty: 2-880                      [16]                      --
│    └─BatchNorm2d: 2-881                [16, 16, 8, 8]            --
│    └─Scaler: 2-882                     [16, 16, 8, 8]            --
│    └─ReLU: 2-883                       [16, 16, 8, 8]            --
│    └─Empty: 2-884                      [16, 16, 8, 8]            --
│    └─Clamp: 2-885                      [16, 16, 8, 8]            --
├─FusedMaxPoolConv2dBNReLU: 1-83         [16, 16, 8, 8]            (recursive)
│    └─MaxPool2d: 2-886                  [16, 128, 8, 8]           --
│    └─Empty: 2-887                      [16, 128, 8, 8]           --
│    └─Empty: 2-888                      [16, 128, 8, 8]           --
│    └─OutputShiftSqueeze: 2-889         --                        --
│    └─One: 2-890                        [1]                       --
│    └─OutputScale: 2-891                --                        --
│    └─Empty: 2-892                      [16, 128, 3, 3]           --
│    └─Empty: 2-893                      [16, 128, 3, 3]           --
│    └─Empty: 2-894                      [16]                      --
│    └─Empty: 2-895                      [16]                      --
│    └─BatchNorm2d: 2-896                [16, 16, 8, 8]            --
│    └─Scaler: 2-897                     [16, 16, 8, 8]            --
│    └─ReLU: 2-898                       [16, 16, 8, 8]            --
│    └─Empty: 2-899                      [16, 16, 8, 8]            --
│    └─Clamp: 2-900                      [16, 16, 8, 8]            --
├─Dropout2d: 1-84                        [16, 16, 8, 8]            --
├─FusedConv2dBNReLU: 1-85                [16, 128, 64, 64]         (recursive)
│    └─OutputShiftSqueeze: 2-901         --                        --
│    └─One: 2-902                        [1]                       --
│    └─OutputScale: 2-903                --                        --
│    └─Empty: 2-904                      [128, 48, 1, 1]           --
│    └─Empty: 2-905                      [128, 48, 1, 1]           --
│    └─Empty: 2-906                      [128]                     --
│    └─Empty: 2-907                      [128]                     --
│    └─BatchNorm2d: 2-908                [16, 128, 64, 64]         --
│    └─Scaler: 2-909                     [16, 128, 64, 64]         --
│    └─ReLU: 2-910                       [16, 128, 64, 64]         --
│    └─Empty: 2-911                      [16, 128, 64, 64]         --
│    └─Clamp: 2-912                      [16, 128, 64, 64]         --
├─FusedConv2dBNReLU: 1-86                [16, 128, 64, 64]         (recursive)
│    └─OutputShiftSqueeze: 2-913         --                        --
│    └─One: 2-914                        [1]                       --
│    └─OutputScale: 2-915                --                        --
│    └─Empty: 2-916                      [128, 128, 3, 3]          --
│    └─Empty: 2-917                      [128, 128, 3, 3]          --
│    └─Empty: 2-918                      [128]                     --
│    └─Empty: 2-919                      [128]                     --
│    └─BatchNorm2d: 2-920                [16, 128, 64, 64]         --
│    └─Scaler: 2-921                     [16, 128, 64, 64]         --
│    └─ReLU: 2-922                       [16, 128, 64, 64]         --
│    └─Empty: 2-923                      [16, 128, 64, 64]         --
│    └─Clamp: 2-924                      [16, 128, 64, 64]         --
├─FusedMaxPoolConv2dBNReLU: 1-87         [16, 128, 32, 32]         (recursive)
│    └─MaxPool2d: 2-925                  [16, 128, 32, 32]         --
│    └─Empty: 2-926                      [16, 128, 32, 32]         --
│    └─Empty: 2-927                      [16, 128, 32, 32]         --
│    └─OutputShiftSqueeze: 2-928         --                        --
│    └─One: 2-929                        [1]                       --
│    └─OutputScale: 2-930                --                        --
│    └─Empty: 2-931                      [128, 128, 3, 3]          --
│    └─Empty: 2-932                      [128, 128, 3, 3]          --
│    └─Empty: 2-933                      [128]                     --
│    └─Empty: 2-934                      [128]                     --
│    └─BatchNorm2d: 2-935                [16, 128, 32, 32]         --
│    └─Scaler: 2-936                     [16, 128, 32, 32]         --
│    └─ReLU: 2-937                       [16, 128, 32, 32]         --
│    └─Empty: 2-938                      [16, 128, 32, 32]         --
│    └─Clamp: 2-939                      [16, 128, 32, 32]         --
├─FusedConv2dBNReLU: 1-88                [16, 128, 32, 32]         (recursive)
│    └─OutputShiftSqueeze: 2-940         --                        --
│    └─One: 2-941                        [1]                       --
│    └─OutputScale: 2-942                --                        --
│    └─Empty: 2-943                      [128, 128, 1, 1]          --
│    └─Empty: 2-944                      [128, 128, 1, 1]          --
│    └─Empty: 2-945                      [128]                     --
│    └─Empty: 2-946                      [128]                     --
│    └─BatchNorm2d: 2-947                [16, 128, 32, 32]         --
│    └─Scaler: 2-948                     [16, 128, 32, 32]         --
│    └─ReLU: 2-949                       [16, 128, 32, 32]         --
│    └─Empty: 2-950                      [16, 128, 32, 32]         --
│    └─Clamp: 2-951                      [16, 128, 32, 32]         --
├─FusedMaxPoolConv2dBNReLU: 1-89         [16, 128, 32, 32]         (recursive)
│    └─MaxPool2d: 2-952                  [16, 128, 32, 32]         --
│    └─Empty: 2-953                      [16, 128, 32, 32]         --
│    └─Empty: 2-954                      [16, 128, 32, 32]         --
│    └─OutputShiftSqueeze: 2-955         --                        --
│    └─One: 2-956                        [1]                       --
│    └─OutputScale: 2-957                --                        --
│    └─Empty: 2-958                      [128, 128, 3, 3]          --
│    └─Empty: 2-959                      [128, 128, 3, 3]          --
│    └─Empty: 2-960                      [128]                     --
│    └─Empty: 2-961                      [128]                     --
│    └─BatchNorm2d: 2-962                [16, 128, 32, 32]         --
│    └─Scaler: 2-963                     [16, 128, 32, 32]         --
│    └─ReLU: 2-964                       [16, 128, 32, 32]         --
│    └─Empty: 2-965                      [16, 128, 32, 32]         --
│    └─Clamp: 2-966                      [16, 128, 32, 32]         --
├─Dropout2d: 1-90                        [16, 128, 32, 32]         --
├─FusedMaxPoolConv2dBNReLU: 1-91         [16, 128, 16, 16]         (recursive)
│    └─MaxPool2d: 2-967                  [16, 128, 16, 16]         --
│    └─Empty: 2-968                      [16, 128, 16, 16]         --
│    └─Empty: 2-969                      [16, 128, 16, 16]         --
│    └─OutputShiftSqueeze: 2-970         --                        --
│    └─One: 2-971                        [1]                       --
│    └─OutputScale: 2-972                --                        --
│    └─Empty: 2-973                      [128, 128, 3, 3]          --
│    └─Empty: 2-974                      [128, 128, 3, 3]          --
│    └─Empty: 2-975                      [128]                     --
│    └─Empty: 2-976                      [128]                     --
│    └─BatchNorm2d: 2-977                [16, 128, 16, 16]         --
│    └─Scaler: 2-978                     [16, 128, 16, 16]         --
│    └─ReLU: 2-979                       [16, 128, 16, 16]         --
│    └─Empty: 2-980                      [16, 128, 16, 16]         --
│    └─Clamp: 2-981                      [16, 128, 16, 16]         --
├─FusedConv2dBNReLU: 1-92                [16, 128, 16, 16]         (recursive)
│    └─OutputShiftSqueeze: 2-982         --                        --
│    └─One: 2-983                        [1]                       --
│    └─OutputScale: 2-984                --                        --
│    └─Empty: 2-985                      [128, 128, 1, 1]          --
│    └─Empty: 2-986                      [128, 128, 1, 1]          --
│    └─Empty: 2-987                      [128]                     --
│    └─Empty: 2-988                      [128]                     --
│    └─BatchNorm2d: 2-989                [16, 128, 16, 16]         --
│    └─Scaler: 2-990                     [16, 128, 16, 16]         --
│    └─ReLU: 2-991                       [16, 128, 16, 16]         --
│    └─Empty: 2-992                      [16, 128, 16, 16]         --
│    └─Clamp: 2-993                      [16, 128, 16, 16]         --
├─FusedMaxPoolConv2dBNReLU: 1-93         [16, 128, 16, 16]         (recursive)
│    └─MaxPool2d: 2-994                  [16, 128, 16, 16]         --
│    └─Empty: 2-995                      [16, 128, 16, 16]         --
│    └─Empty: 2-996                      [16, 128, 16, 16]         --
│    └─OutputShiftSqueeze: 2-997         --                        --
│    └─One: 2-998                        [1]                       --
│    └─OutputScale: 2-999                --                        --
│    └─Empty: 2-1000                     [128, 128, 3, 3]          --
│    └─Empty: 2-1001                     [128, 128, 3, 3]          --
│    └─Empty: 2-1002                     [128]                     --
│    └─Empty: 2-1003                     [128]                     --
│    └─BatchNorm2d: 2-1004               [16, 128, 16, 16]         --
│    └─Scaler: 2-1005                    [16, 128, 16, 16]         --
│    └─ReLU: 2-1006                      [16, 128, 16, 16]         --
│    └─Empty: 2-1007                     [16, 128, 16, 16]         --
│    └─Clamp: 2-1008                     [16, 128, 16, 16]         --
├─Dropout2d: 1-94                        [16, 128, 16, 16]         --
├─FusedMaxPoolConv2dBNReLU: 1-95         [16, 128, 8, 8]           (recursive)
│    └─MaxPool2d: 2-1009                 [16, 128, 8, 8]           --
│    └─Empty: 2-1010                     [16, 128, 8, 8]           --
│    └─Empty: 2-1011                     [16, 128, 8, 8]           --
│    └─OutputShiftSqueeze: 2-1012        --                        --
│    └─One: 2-1013                       [1]                       --
│    └─OutputScale: 2-1014               --                        --
│    └─Empty: 2-1015                     [128, 128, 3, 3]          --
│    └─Empty: 2-1016                     [128, 128, 3, 3]          --
│    └─Empty: 2-1017                     [128]                     --
│    └─Empty: 2-1018                     [128]                     --
│    └─BatchNorm2d: 2-1019               [16, 128, 8, 8]           --
│    └─Scaler: 2-1020                    [16, 128, 8, 8]           --
│    └─ReLU: 2-1021                      [16, 128, 8, 8]           --
│    └─Empty: 2-1022                     [16, 128, 8, 8]           --
│    └─Clamp: 2-1023                     [16, 128, 8, 8]           --
├─FusedConv2dBNReLU: 1-96                [16, 16, 8, 8]            (recursive)
│    └─OutputShiftSqueeze: 2-1024        --                        --
│    └─One: 2-1025                       [1]                       --
│    └─OutputScale: 2-1026               --                        --
│    └─Empty: 2-1027                     [16, 128, 1, 1]           --
│    └─Empty: 2-1028                     [16, 128, 1, 1]           --
│    └─Empty: 2-1029                     [16]                      --
│    └─Empty: 2-1030                     [16]                      --
│    └─BatchNorm2d: 2-1031               [16, 16, 8, 8]            --
│    └─Scaler: 2-1032                    [16, 16, 8, 8]            --
│    └─ReLU: 2-1033                      [16, 16, 8, 8]            --
│    └─Empty: 2-1034                     [16, 16, 8, 8]            --
│    └─Clamp: 2-1035                     [16, 16, 8, 8]            --
├─FusedMaxPoolConv2dBNReLU: 1-97         [16, 16, 8, 8]            (recursive)
│    └─MaxPool2d: 2-1036                 [16, 128, 8, 8]           --
│    └─Empty: 2-1037                     [16, 128, 8, 8]           --
│    └─Empty: 2-1038                     [16, 128, 8, 8]           --
│    └─OutputShiftSqueeze: 2-1039        --                        --
│    └─One: 2-1040                       [1]                       --
│    └─OutputScale: 2-1041               --                        --
│    └─Empty: 2-1042                     [16, 128, 3, 3]           --
│    └─Empty: 2-1043                     [16, 128, 3, 3]           --
│    └─Empty: 2-1044                     [16]                      --
│    └─Empty: 2-1045                     [16]                      --
│    └─BatchNorm2d: 2-1046               [16, 16, 8, 8]            --
│    └─Scaler: 2-1047                    [16, 16, 8, 8]            --
│    └─ReLU: 2-1048                      [16, 16, 8, 8]            --
│    └─Empty: 2-1049                     [16, 16, 8, 8]            --
│    └─Clamp: 2-1050                     [16, 16, 8, 8]            --
├─Dropout2d: 1-98                        [16, 16, 8, 8]            --
├─FusedConv2dBNReLU: 1-99                [16, 128, 64, 64]         (recursive)
│    └─OutputShiftSqueeze: 2-1051        --                        --
│    └─One: 2-1052                       [1]                       --
│    └─OutputScale: 2-1053               --                        --
│    └─Empty: 2-1054                     [128, 48, 1, 1]           --
│    └─Empty: 2-1055                     [128, 48, 1, 1]           --
│    └─Empty: 2-1056                     [128]                     --
│    └─Empty: 2-1057                     [128]                     --
│    └─BatchNorm2d: 2-1058               [16, 128, 64, 64]         --
│    └─Scaler: 2-1059                    [16, 128, 64, 64]         --
│    └─ReLU: 2-1060                      [16, 128, 64, 64]         --
│    └─Empty: 2-1061                     [16, 128, 64, 64]         --
│    └─Clamp: 2-1062                     [16, 128, 64, 64]         --
├─FusedConv2dBNReLU: 1-100               [16, 128, 64, 64]         (recursive)
│    └─OutputShiftSqueeze: 2-1063        --                        --
│    └─One: 2-1064                       [1]                       --
│    └─OutputScale: 2-1065               --                        --
│    └─Empty: 2-1066                     [128, 128, 3, 3]          --
│    └─Empty: 2-1067                     [128, 128, 3, 3]          --
│    └─Empty: 2-1068                     [128]                     --
│    └─Empty: 2-1069                     [128]                     --
│    └─BatchNorm2d: 2-1070               [16, 128, 64, 64]         --
│    └─Scaler: 2-1071                    [16, 128, 64, 64]         --
│    └─ReLU: 2-1072                      [16, 128, 64, 64]         --
│    └─Empty: 2-1073                     [16, 128, 64, 64]         --
│    └─Clamp: 2-1074                     [16, 128, 64, 64]         --
├─FusedMaxPoolConv2dBNReLU: 1-101        [16, 128, 32, 32]         (recursive)
│    └─MaxPool2d: 2-1075                 [16, 128, 32, 32]         --
│    └─Empty: 2-1076                     [16, 128, 32, 32]         --
│    └─Empty: 2-1077                     [16, 128, 32, 32]         --
│    └─OutputShiftSqueeze: 2-1078        --                        --
│    └─One: 2-1079                       [1]                       --
│    └─OutputScale: 2-1080               --                        --
│    └─Empty: 2-1081                     [128, 128, 3, 3]          --
│    └─Empty: 2-1082                     [128, 128, 3, 3]          --
│    └─Empty: 2-1083                     [128]                     --
│    └─Empty: 2-1084                     [128]                     --
│    └─BatchNorm2d: 2-1085               [16, 128, 32, 32]         --
│    └─Scaler: 2-1086                    [16, 128, 32, 32]         --
│    └─ReLU: 2-1087                      [16, 128, 32, 32]         --
│    └─Empty: 2-1088                     [16, 128, 32, 32]         --
│    └─Clamp: 2-1089                     [16, 128, 32, 32]         --
├─FusedConv2dBNReLU: 1-102               [16, 128, 32, 32]         (recursive)
│    └─OutputShiftSqueeze: 2-1090        --                        --
│    └─One: 2-1091                       [1]                       --
│    └─OutputScale: 2-1092               --                        --
│    └─Empty: 2-1093                     [128, 128, 1, 1]          --
│    └─Empty: 2-1094                     [128, 128, 1, 1]          --
│    └─Empty: 2-1095                     [128]                     --
│    └─Empty: 2-1096                     [128]                     --
│    └─BatchNorm2d: 2-1097               [16, 128, 32, 32]         --
│    └─Scaler: 2-1098                    [16, 128, 32, 32]         --
│    └─ReLU: 2-1099                      [16, 128, 32, 32]         --
│    └─Empty: 2-1100                     [16, 128, 32, 32]         --
│    └─Clamp: 2-1101                     [16, 128, 32, 32]         --
├─FusedMaxPoolConv2dBNReLU: 1-103        [16, 128, 32, 32]         (recursive)
│    └─MaxPool2d: 2-1102                 [16, 128, 32, 32]         --
│    └─Empty: 2-1103                     [16, 128, 32, 32]         --
│    └─Empty: 2-1104                     [16, 128, 32, 32]         --
│    └─OutputShiftSqueeze: 2-1105        --                        --
│    └─One: 2-1106                       [1]                       --
│    └─OutputScale: 2-1107               --                        --
│    └─Empty: 2-1108                     [128, 128, 3, 3]          --
│    └─Empty: 2-1109                     [128, 128, 3, 3]          --
│    └─Empty: 2-1110                     [128]                     --
│    └─Empty: 2-1111                     [128]                     --
│    └─BatchNorm2d: 2-1112               [16, 128, 32, 32]         --
│    └─Scaler: 2-1113                    [16, 128, 32, 32]         --
│    └─ReLU: 2-1114                      [16, 128, 32, 32]         --
│    └─Empty: 2-1115                     [16, 128, 32, 32]         --
│    └─Clamp: 2-1116                     [16, 128, 32, 32]         --
├─Dropout2d: 1-104                       [16, 128, 32, 32]         --
├─FusedMaxPoolConv2dBNReLU: 1-105        [16, 128, 16, 16]         (recursive)
│    └─MaxPool2d: 2-1117                 [16, 128, 16, 16]         --
│    └─Empty: 2-1118                     [16, 128, 16, 16]         --
│    └─Empty: 2-1119                     [16, 128, 16, 16]         --
│    └─OutputShiftSqueeze: 2-1120        --                        --
│    └─One: 2-1121                       [1]                       --
│    └─OutputScale: 2-1122               --                        --
│    └─Empty: 2-1123                     [128, 128, 3, 3]          --
│    └─Empty: 2-1124                     [128, 128, 3, 3]          --
│    └─Empty: 2-1125                     [128]                     --
│    └─Empty: 2-1126                     [128]                     --
│    └─BatchNorm2d: 2-1127               [16, 128, 16, 16]         --
│    └─Scaler: 2-1128                    [16, 128, 16, 16]         --
│    └─ReLU: 2-1129                      [16, 128, 16, 16]         --
│    └─Empty: 2-1130                     [16, 128, 16, 16]         --
│    └─Clamp: 2-1131                     [16, 128, 16, 16]         --
├─FusedConv2dBNReLU: 1-106               [16, 128, 16, 16]         (recursive)
│    └─OutputShiftSqueeze: 2-1132        --                        --
│    └─One: 2-1133                       [1]                       --
│    └─OutputScale: 2-1134               --                        --
│    └─Empty: 2-1135                     [128, 128, 1, 1]          --
│    └─Empty: 2-1136                     [128, 128, 1, 1]          --
│    └─Empty: 2-1137                     [128]                     --
│    └─Empty: 2-1138                     [128]                     --
│    └─BatchNorm2d: 2-1139               [16, 128, 16, 16]         --
│    └─Scaler: 2-1140                    [16, 128, 16, 16]         --
│    └─ReLU: 2-1141                      [16, 128, 16, 16]         --
│    └─Empty: 2-1142                     [16, 128, 16, 16]         --
│    └─Clamp: 2-1143                     [16, 128, 16, 16]         --
├─FusedMaxPoolConv2dBNReLU: 1-107        [16, 128, 16, 16]         (recursive)
│    └─MaxPool2d: 2-1144                 [16, 128, 16, 16]         --
│    └─Empty: 2-1145                     [16, 128, 16, 16]         --
│    └─Empty: 2-1146                     [16, 128, 16, 16]         --
│    └─OutputShiftSqueeze: 2-1147        --                        --
│    └─One: 2-1148                       [1]                       --
│    └─OutputScale: 2-1149               --                        --
│    └─Empty: 2-1150                     [128, 128, 3, 3]          --
│    └─Empty: 2-1151                     [128, 128, 3, 3]          --
│    └─Empty: 2-1152                     [128]                     --
│    └─Empty: 2-1153                     [128]                     --
│    └─BatchNorm2d: 2-1154               [16, 128, 16, 16]         --
│    └─Scaler: 2-1155                    [16, 128, 16, 16]         --
│    └─ReLU: 2-1156                      [16, 128, 16, 16]         --
│    └─Empty: 2-1157                     [16, 128, 16, 16]         --
│    └─Clamp: 2-1158                     [16, 128, 16, 16]         --
├─Dropout2d: 1-108                       [16, 128, 16, 16]         --
├─FusedMaxPoolConv2dBNReLU: 1-109        [16, 128, 8, 8]           (recursive)
│    └─MaxPool2d: 2-1159                 [16, 128, 8, 8]           --
│    └─Empty: 2-1160                     [16, 128, 8, 8]           --
│    └─Empty: 2-1161                     [16, 128, 8, 8]           --
│    └─OutputShiftSqueeze: 2-1162        --                        --
│    └─One: 2-1163                       [1]                       --
│    └─OutputScale: 2-1164               --                        --
│    └─Empty: 2-1165                     [128, 128, 3, 3]          --
│    └─Empty: 2-1166                     [128, 128, 3, 3]          --
│    └─Empty: 2-1167                     [128]                     --
│    └─Empty: 2-1168                     [128]                     --
│    └─BatchNorm2d: 2-1169               [16, 128, 8, 8]           --
│    └─Scaler: 2-1170                    [16, 128, 8, 8]           --
│    └─ReLU: 2-1171                      [16, 128, 8, 8]           --
│    └─Empty: 2-1172                     [16, 128, 8, 8]           --
│    └─Clamp: 2-1173                     [16, 128, 8, 8]           --
├─FusedConv2dBNReLU: 1-110               [16, 16, 8, 8]            (recursive)
│    └─OutputShiftSqueeze: 2-1174        --                        --
│    └─One: 2-1175                       [1]                       --
│    └─OutputScale: 2-1176               --                        --
│    └─Empty: 2-1177                     [16, 128, 1, 1]           --
│    └─Empty: 2-1178                     [16, 128, 1, 1]           --
│    └─Empty: 2-1179                     [16]                      --
│    └─Empty: 2-1180                     [16]                      --
│    └─BatchNorm2d: 2-1181               [16, 16, 8, 8]            --
│    └─Scaler: 2-1182                    [16, 16, 8, 8]            --
│    └─ReLU: 2-1183                      [16, 16, 8, 8]            --
│    └─Empty: 2-1184                     [16, 16, 8, 8]            --
│    └─Clamp: 2-1185                     [16, 16, 8, 8]            --
├─FusedMaxPoolConv2dBNReLU: 1-111        [16, 16, 8, 8]            (recursive)
│    └─MaxPool2d: 2-1186                 [16, 128, 8, 8]           --
│    └─Empty: 2-1187                     [16, 128, 8, 8]           --
│    └─Empty: 2-1188                     [16, 128, 8, 8]           --
│    └─OutputShiftSqueeze: 2-1189        --                        --
│    └─One: 2-1190                       [1]                       --
│    └─OutputScale: 2-1191               --                        --
│    └─Empty: 2-1192                     [16, 128, 3, 3]           --
│    └─Empty: 2-1193                     [16, 128, 3, 3]           --
│    └─Empty: 2-1194                     [16]                      --
│    └─Empty: 2-1195                     [16]                      --
│    └─BatchNorm2d: 2-1196               [16, 16, 8, 8]            --
│    └─Scaler: 2-1197                    [16, 16, 8, 8]            --
│    └─ReLU: 2-1198                      [16, 16, 8, 8]            --
│    └─Empty: 2-1199                     [16, 16, 8, 8]            --
│    └─Clamp: 2-1200                     [16, 16, 8, 8]            --
├─Dropout2d: 1-112                       [16, 16, 8, 8]            --
├─FusedConv2dBNReLU: 1-113               [16, 128, 64, 64]         (recursive)
│    └─OutputShiftSqueeze: 2-1201        --                        --
│    └─One: 2-1202                       [1]                       --
│    └─OutputScale: 2-1203               --                        --
│    └─Empty: 2-1204                     [128, 48, 1, 1]           --
│    └─Empty: 2-1205                     [128, 48, 1, 1]           --
│    └─Empty: 2-1206                     [128]                     --
│    └─Empty: 2-1207                     [128]                     --
│    └─BatchNorm2d: 2-1208               [16, 128, 64, 64]         --
│    └─Scaler: 2-1209                    [16, 128, 64, 64]         --
│    └─ReLU: 2-1210                      [16, 128, 64, 64]         --
│    └─Empty: 2-1211                     [16, 128, 64, 64]         --
│    └─Clamp: 2-1212                     [16, 128, 64, 64]         --
├─FusedConv2dBNReLU: 1-114               [16, 128, 64, 64]         (recursive)
│    └─OutputShiftSqueeze: 2-1213        --                        --
│    └─One: 2-1214                       [1]                       --
│    └─OutputScale: 2-1215               --                        --
│    └─Empty: 2-1216                     [128, 128, 3, 3]          --
│    └─Empty: 2-1217                     [128, 128, 3, 3]          --
│    └─Empty: 2-1218                     [128]                     --
│    └─Empty: 2-1219                     [128]                     --
│    └─BatchNorm2d: 2-1220               [16, 128, 64, 64]         --
│    └─Scaler: 2-1221                    [16, 128, 64, 64]         --
│    └─ReLU: 2-1222                      [16, 128, 64, 64]         --
│    └─Empty: 2-1223                     [16, 128, 64, 64]         --
│    └─Clamp: 2-1224                     [16, 128, 64, 64]         --
├─FusedMaxPoolConv2dBNReLU: 1-115        [16, 128, 32, 32]         (recursive)
│    └─MaxPool2d: 2-1225                 [16, 128, 32, 32]         --
│    └─Empty: 2-1226                     [16, 128, 32, 32]         --
│    └─Empty: 2-1227                     [16, 128, 32, 32]         --
│    └─OutputShiftSqueeze: 2-1228        --                        --
│    └─One: 2-1229                       [1]                       --
│    └─OutputScale: 2-1230               --                        --
│    └─Empty: 2-1231                     [128, 128, 3, 3]          --
│    └─Empty: 2-1232                     [128, 128, 3, 3]          --
│    └─Empty: 2-1233                     [128]                     --
│    └─Empty: 2-1234                     [128]                     --
│    └─BatchNorm2d: 2-1235               [16, 128, 32, 32]         --
│    └─Scaler: 2-1236                    [16, 128, 32, 32]         --
│    └─ReLU: 2-1237                      [16, 128, 32, 32]         --
│    └─Empty: 2-1238                     [16, 128, 32, 32]         --
│    └─Clamp: 2-1239                     [16, 128, 32, 32]         --
├─FusedConv2dBNReLU: 1-116               [16, 128, 32, 32]         (recursive)
│    └─OutputShiftSqueeze: 2-1240        --                        --
│    └─One: 2-1241                       [1]                       --
│    └─OutputScale: 2-1242               --                        --
│    └─Empty: 2-1243                     [128, 128, 1, 1]          --
│    └─Empty: 2-1244                     [128, 128, 1, 1]          --
│    └─Empty: 2-1245                     [128]                     --
│    └─Empty: 2-1246                     [128]                     --
│    └─BatchNorm2d: 2-1247               [16, 128, 32, 32]         --
│    └─Scaler: 2-1248                    [16, 128, 32, 32]         --
│    └─ReLU: 2-1249                      [16, 128, 32, 32]         --
│    └─Empty: 2-1250                     [16, 128, 32, 32]         --
│    └─Clamp: 2-1251                     [16, 128, 32, 32]         --
├─FusedMaxPoolConv2dBNReLU: 1-117        [16, 128, 32, 32]         (recursive)
│    └─MaxPool2d: 2-1252                 [16, 128, 32, 32]         --
│    └─Empty: 2-1253                     [16, 128, 32, 32]         --
│    └─Empty: 2-1254                     [16, 128, 32, 32]         --
│    └─OutputShiftSqueeze: 2-1255        --                        --
│    └─One: 2-1256                       [1]                       --
│    └─OutputScale: 2-1257               --                        --
│    └─Empty: 2-1258                     [128, 128, 3, 3]          --
│    └─Empty: 2-1259                     [128, 128, 3, 3]          --
│    └─Empty: 2-1260                     [128]                     --
│    └─Empty: 2-1261                     [128]                     --
│    └─BatchNorm2d: 2-1262               [16, 128, 32, 32]         --
│    └─Scaler: 2-1263                    [16, 128, 32, 32]         --
│    └─ReLU: 2-1264                      [16, 128, 32, 32]         --
│    └─Empty: 2-1265                     [16, 128, 32, 32]         --
│    └─Clamp: 2-1266                     [16, 128, 32, 32]         --
├─Dropout2d: 1-118                       [16, 128, 32, 32]         --
├─FusedMaxPoolConv2dBNReLU: 1-119        [16, 128, 16, 16]         (recursive)
│    └─MaxPool2d: 2-1267                 [16, 128, 16, 16]         --
│    └─Empty: 2-1268                     [16, 128, 16, 16]         --
│    └─Empty: 2-1269                     [16, 128, 16, 16]         --
│    └─OutputShiftSqueeze: 2-1270        --                        --
│    └─One: 2-1271                       [1]                       --
│    └─OutputScale: 2-1272               --                        --
│    └─Empty: 2-1273                     [128, 128, 3, 3]          --
│    └─Empty: 2-1274                     [128, 128, 3, 3]          --
│    └─Empty: 2-1275                     [128]                     --
│    └─Empty: 2-1276                     [128]                     --
│    └─BatchNorm2d: 2-1277               [16, 128, 16, 16]         --
│    └─Scaler: 2-1278                    [16, 128, 16, 16]         --
│    └─ReLU: 2-1279                      [16, 128, 16, 16]         --
│    └─Empty: 2-1280                     [16, 128, 16, 16]         --
│    └─Clamp: 2-1281                     [16, 128, 16, 16]         --
├─FusedConv2dBNReLU: 1-120               [16, 128, 16, 16]         (recursive)
│    └─OutputShiftSqueeze: 2-1282        --                        --
│    └─One: 2-1283                       [1]                       --
│    └─OutputScale: 2-1284               --                        --
│    └─Empty: 2-1285                     [128, 128, 1, 1]          --
│    └─Empty: 2-1286                     [128, 128, 1, 1]          --
│    └─Empty: 2-1287                     [128]                     --
│    └─Empty: 2-1288                     [128]                     --
│    └─BatchNorm2d: 2-1289               [16, 128, 16, 16]         --
│    └─Scaler: 2-1290                    [16, 128, 16, 16]         --
│    └─ReLU: 2-1291                      [16, 128, 16, 16]         --
│    └─Empty: 2-1292                     [16, 128, 16, 16]         --
│    └─Clamp: 2-1293                     [16, 128, 16, 16]         --
├─FusedMaxPoolConv2dBNReLU: 1-121        [16, 128, 16, 16]         (recursive)
│    └─MaxPool2d: 2-1294                 [16, 128, 16, 16]         --
│    └─Empty: 2-1295                     [16, 128, 16, 16]         --
│    └─Empty: 2-1296                     [16, 128, 16, 16]         --
│    └─OutputShiftSqueeze: 2-1297        --                        --
│    └─One: 2-1298                       [1]                       --
│    └─OutputScale: 2-1299               --                        --
│    └─Empty: 2-1300                     [128, 128, 3, 3]          --
│    └─Empty: 2-1301                     [128, 128, 3, 3]          --
│    └─Empty: 2-1302                     [128]                     --
│    └─Empty: 2-1303                     [128]                     --
│    └─BatchNorm2d: 2-1304               [16, 128, 16, 16]         --
│    └─Scaler: 2-1305                    [16, 128, 16, 16]         --
│    └─ReLU: 2-1306                      [16, 128, 16, 16]         --
│    └─Empty: 2-1307                     [16, 128, 16, 16]         --
│    └─Clamp: 2-1308                     [16, 128, 16, 16]         --
├─Dropout2d: 1-122                       [16, 128, 16, 16]         --
├─FusedMaxPoolConv2dBNReLU: 1-123        [16, 128, 8, 8]           (recursive)
│    └─MaxPool2d: 2-1309                 [16, 128, 8, 8]           --
│    └─Empty: 2-1310                     [16, 128, 8, 8]           --
│    └─Empty: 2-1311                     [16, 128, 8, 8]           --
│    └─OutputShiftSqueeze: 2-1312        --                        --
│    └─One: 2-1313                       [1]                       --
│    └─OutputScale: 2-1314               --                        --
│    └─Empty: 2-1315                     [128, 128, 3, 3]          --
│    └─Empty: 2-1316                     [128, 128, 3, 3]          --
│    └─Empty: 2-1317                     [128]                     --
│    └─Empty: 2-1318                     [128]                     --
│    └─BatchNorm2d: 2-1319               [16, 128, 8, 8]           --
│    └─Scaler: 2-1320                    [16, 128, 8, 8]           --
│    └─ReLU: 2-1321                      [16, 128, 8, 8]           --
│    └─Empty: 2-1322                     [16, 128, 8, 8]           --
│    └─Clamp: 2-1323                     [16, 128, 8, 8]           --
├─FusedConv2dBNReLU: 1-124               [16, 16, 8, 8]            (recursive)
│    └─OutputShiftSqueeze: 2-1324        --                        --
│    └─One: 2-1325                       [1]                       --
│    └─OutputScale: 2-1326               --                        --
│    └─Empty: 2-1327                     [16, 128, 1, 1]           --
│    └─Empty: 2-1328                     [16, 128, 1, 1]           --
│    └─Empty: 2-1329                     [16]                      --
│    └─Empty: 2-1330                     [16]                      --
│    └─BatchNorm2d: 2-1331               [16, 16, 8, 8]            --
│    └─Scaler: 2-1332                    [16, 16, 8, 8]            --
│    └─ReLU: 2-1333                      [16, 16, 8, 8]            --
│    └─Empty: 2-1334                     [16, 16, 8, 8]            --
│    └─Clamp: 2-1335                     [16, 16, 8, 8]            --
├─FusedMaxPoolConv2dBNReLU: 1-125        [16, 16, 8, 8]            (recursive)
│    └─MaxPool2d: 2-1336                 [16, 128, 8, 8]           --
│    └─Empty: 2-1337                     [16, 128, 8, 8]           --
│    └─Empty: 2-1338                     [16, 128, 8, 8]           --
│    └─OutputShiftSqueeze: 2-1339        --                        --
│    └─One: 2-1340                       [1]                       --
│    └─OutputScale: 2-1341               --                        --
│    └─Empty: 2-1342                     [16, 128, 3, 3]           --
│    └─Empty: 2-1343                     [16, 128, 3, 3]           --
│    └─Empty: 2-1344                     [16]                      --
│    └─Empty: 2-1345                     [16]                      --
│    └─BatchNorm2d: 2-1346               [16, 16, 8, 8]            --
│    └─Scaler: 2-1347                    [16, 16, 8, 8]            --
│    └─ReLU: 2-1348                      [16, 16, 8, 8]            --
│    └─Empty: 2-1349                     [16, 16, 8, 8]            --
│    └─Clamp: 2-1350                     [16, 16, 8, 8]            --
├─Dropout2d: 1-126                       [16, 16, 8, 8]            --
├─FusedConv2dBNReLU: 1-127               [16, 128, 64, 64]         (recursive)
│    └─OutputShiftSqueeze: 2-1351        --                        --
│    └─One: 2-1352                       [1]                       --
│    └─OutputScale: 2-1353               --                        --
│    └─Empty: 2-1354                     [128, 48, 1, 1]           --
│    └─Empty: 2-1355                     [128, 48, 1, 1]           --
│    └─Empty: 2-1356                     [128]                     --
│    └─Empty: 2-1357                     [128]                     --
│    └─BatchNorm2d: 2-1358               [16, 128, 64, 64]         --
│    └─Scaler: 2-1359                    [16, 128, 64, 64]         --
│    └─ReLU: 2-1360                      [16, 128, 64, 64]         --
│    └─Empty: 2-1361                     [16, 128, 64, 64]         --
│    └─Clamp: 2-1362                     [16, 128, 64, 64]         --
├─FusedConv2dBNReLU: 1-128               [16, 128, 64, 64]         (recursive)
│    └─OutputShiftSqueeze: 2-1363        --                        --
│    └─One: 2-1364                       [1]                       --
│    └─OutputScale: 2-1365               --                        --
│    └─Empty: 2-1366                     [128, 128, 3, 3]          --
│    └─Empty: 2-1367                     [128, 128, 3, 3]          --
│    └─Empty: 2-1368                     [128]                     --
│    └─Empty: 2-1369                     [128]                     --
│    └─BatchNorm2d: 2-1370               [16, 128, 64, 64]         --
│    └─Scaler: 2-1371                    [16, 128, 64, 64]         --
│    └─ReLU: 2-1372                      [16, 128, 64, 64]         --
│    └─Empty: 2-1373                     [16, 128, 64, 64]         --
│    └─Clamp: 2-1374                     [16, 128, 64, 64]         --
├─FusedMaxPoolConv2dBNReLU: 1-129        [16, 128, 32, 32]         (recursive)
│    └─MaxPool2d: 2-1375                 [16, 128, 32, 32]         --
│    └─Empty: 2-1376                     [16, 128, 32, 32]         --
│    └─Empty: 2-1377                     [16, 128, 32, 32]         --
│    └─OutputShiftSqueeze: 2-1378        --                        --
│    └─One: 2-1379                       [1]                       --
│    └─OutputScale: 2-1380               --                        --
│    └─Empty: 2-1381                     [128, 128, 3, 3]          --
│    └─Empty: 2-1382                     [128, 128, 3, 3]          --
│    └─Empty: 2-1383                     [128]                     --
│    └─Empty: 2-1384                     [128]                     --
│    └─BatchNorm2d: 2-1385               [16, 128, 32, 32]         --
│    └─Scaler: 2-1386                    [16, 128, 32, 32]         --
│    └─ReLU: 2-1387                      [16, 128, 32, 32]         --
│    └─Empty: 2-1388                     [16, 128, 32, 32]         --
│    └─Clamp: 2-1389                     [16, 128, 32, 32]         --
├─FusedConv2dBNReLU: 1-130               [16, 128, 32, 32]         (recursive)
│    └─OutputShiftSqueeze: 2-1390        --                        --
│    └─One: 2-1391                       [1]                       --
│    └─OutputScale: 2-1392               --                        --
│    └─Empty: 2-1393                     [128, 128, 1, 1]          --
│    └─Empty: 2-1394                     [128, 128, 1, 1]          --
│    └─Empty: 2-1395                     [128]                     --
│    └─Empty: 2-1396                     [128]                     --
│    └─BatchNorm2d: 2-1397               [16, 128, 32, 32]         --
│    └─Scaler: 2-1398                    [16, 128, 32, 32]         --
│    └─ReLU: 2-1399                      [16, 128, 32, 32]         --
│    └─Empty: 2-1400                     [16, 128, 32, 32]         --
│    └─Clamp: 2-1401                     [16, 128, 32, 32]         --
├─FusedMaxPoolConv2dBNReLU: 1-131        [16, 128, 32, 32]         (recursive)
│    └─MaxPool2d: 2-1402                 [16, 128, 32, 32]         --
│    └─Empty: 2-1403                     [16, 128, 32, 32]         --
│    └─Empty: 2-1404                     [16, 128, 32, 32]         --
│    └─OutputShiftSqueeze: 2-1405        --                        --
│    └─One: 2-1406                       [1]                       --
│    └─OutputScale: 2-1407               --                        --
│    └─Empty: 2-1408                     [128, 128, 3, 3]          --
│    └─Empty: 2-1409                     [128, 128, 3, 3]          --
│    └─Empty: 2-1410                     [128]                     --
│    └─Empty: 2-1411                     [128]                     --
│    └─BatchNorm2d: 2-1412               [16, 128, 32, 32]         --
│    └─Scaler: 2-1413                    [16, 128, 32, 32]         --
│    └─ReLU: 2-1414                      [16, 128, 32, 32]         --
│    └─Empty: 2-1415                     [16, 128, 32, 32]         --
│    └─Clamp: 2-1416                     [16, 128, 32, 32]         --
├─Dropout2d: 1-132                       [16, 128, 32, 32]         --
├─FusedMaxPoolConv2dBNReLU: 1-133        [16, 128, 16, 16]         (recursive)
│    └─MaxPool2d: 2-1417                 [16, 128, 16, 16]         --
│    └─Empty: 2-1418                     [16, 128, 16, 16]         --
│    └─Empty: 2-1419                     [16, 128, 16, 16]         --
│    └─OutputShiftSqueeze: 2-1420        --                        --
│    └─One: 2-1421                       [1]                       --
│    └─OutputScale: 2-1422               --                        --
│    └─Empty: 2-1423                     [128, 128, 3, 3]          --
│    └─Empty: 2-1424                     [128, 128, 3, 3]          --
│    └─Empty: 2-1425                     [128]                     --
│    └─Empty: 2-1426                     [128]                     --
│    └─BatchNorm2d: 2-1427               [16, 128, 16, 16]         --
│    └─Scaler: 2-1428                    [16, 128, 16, 16]         --
│    └─ReLU: 2-1429                      [16, 128, 16, 16]         --
│    └─Empty: 2-1430                     [16, 128, 16, 16]         --
│    └─Clamp: 2-1431                     [16, 128, 16, 16]         --
├─FusedConv2dBNReLU: 1-134               [16, 128, 16, 16]         (recursive)
│    └─OutputShiftSqueeze: 2-1432        --                        --
│    └─One: 2-1433                       [1]                       --
│    └─OutputScale: 2-1434               --                        --
│    └─Empty: 2-1435                     [128, 128, 1, 1]          --
│    └─Empty: 2-1436                     [128, 128, 1, 1]          --
│    └─Empty: 2-1437                     [128]                     --
│    └─Empty: 2-1438                     [128]                     --
│    └─BatchNorm2d: 2-1439               [16, 128, 16, 16]         --
│    └─Scaler: 2-1440                    [16, 128, 16, 16]         --
│    └─ReLU: 2-1441                      [16, 128, 16, 16]         --
│    └─Empty: 2-1442                     [16, 128, 16, 16]         --
│    └─Clamp: 2-1443                     [16, 128, 16, 16]         --
├─FusedMaxPoolConv2dBNReLU: 1-135        [16, 128, 16, 16]         (recursive)
│    └─MaxPool2d: 2-1444                 [16, 128, 16, 16]         --
│    └─Empty: 2-1445                     [16, 128, 16, 16]         --
│    └─Empty: 2-1446                     [16, 128, 16, 16]         --
│    └─OutputShiftSqueeze: 2-1447        --                        --
│    └─One: 2-1448                       [1]                       --
│    └─OutputScale: 2-1449               --                        --
│    └─Empty: 2-1450                     [128, 128, 3, 3]          --
│    └─Empty: 2-1451                     [128, 128, 3, 3]          --
│    └─Empty: 2-1452                     [128]                     --
│    └─Empty: 2-1453                     [128]                     --
│    └─BatchNorm2d: 2-1454               [16, 128, 16, 16]         --
│    └─Scaler: 2-1455                    [16, 128, 16, 16]         --
│    └─ReLU: 2-1456                      [16, 128, 16, 16]         --
│    └─Empty: 2-1457                     [16, 128, 16, 16]         --
│    └─Clamp: 2-1458                     [16, 128, 16, 16]         --
├─Dropout2d: 1-136                       [16, 128, 16, 16]         --
├─FusedMaxPoolConv2dBNReLU: 1-137        [16, 128, 8, 8]           (recursive)
│    └─MaxPool2d: 2-1459                 [16, 128, 8, 8]           --
│    └─Empty: 2-1460                     [16, 128, 8, 8]           --
│    └─Empty: 2-1461                     [16, 128, 8, 8]           --
│    └─OutputShiftSqueeze: 2-1462        --                        --
│    └─One: 2-1463                       [1]                       --
│    └─OutputScale: 2-1464               --                        --
│    └─Empty: 2-1465                     [128, 128, 3, 3]          --
│    └─Empty: 2-1466                     [128, 128, 3, 3]          --
│    └─Empty: 2-1467                     [128]                     --
│    └─Empty: 2-1468                     [128]                     --
│    └─BatchNorm2d: 2-1469               [16, 128, 8, 8]           --
│    └─Scaler: 2-1470                    [16, 128, 8, 8]           --
│    └─ReLU: 2-1471                      [16, 128, 8, 8]           --
│    └─Empty: 2-1472                     [16, 128, 8, 8]           --
│    └─Clamp: 2-1473                     [16, 128, 8, 8]           --
├─FusedConv2dBNReLU: 1-138               [16, 16, 8, 8]            (recursive)
│    └─OutputShiftSqueeze: 2-1474        --                        --
│    └─One: 2-1475                       [1]                       --
│    └─OutputScale: 2-1476               --                        --
│    └─Empty: 2-1477                     [16, 128, 1, 1]           --
│    └─Empty: 2-1478                     [16, 128, 1, 1]           --
│    └─Empty: 2-1479                     [16]                      --
│    └─Empty: 2-1480                     [16]                      --
│    └─BatchNorm2d: 2-1481               [16, 16, 8, 8]            --
│    └─Scaler: 2-1482                    [16, 16, 8, 8]            --
│    └─ReLU: 2-1483                      [16, 16, 8, 8]            --
│    └─Empty: 2-1484                     [16, 16, 8, 8]            --
│    └─Clamp: 2-1485                     [16, 16, 8, 8]            --
├─FusedMaxPoolConv2dBNReLU: 1-139        [16, 16, 8, 8]            (recursive)
│    └─MaxPool2d: 2-1486                 [16, 128, 8, 8]           --
│    └─Empty: 2-1487                     [16, 128, 8, 8]           --
│    └─Empty: 2-1488                     [16, 128, 8, 8]           --
│    └─OutputShiftSqueeze: 2-1489        --                        --
│    └─One: 2-1490                       [1]                       --
│    └─OutputScale: 2-1491               --                        --
│    └─Empty: 2-1492                     [16, 128, 3, 3]           --
│    └─Empty: 2-1493                     [16, 128, 3, 3]           --
│    └─Empty: 2-1494                     [16]                      --
│    └─Empty: 2-1495                     [16]                      --
│    └─BatchNorm2d: 2-1496               [16, 16, 8, 8]            --
│    └─Scaler: 2-1497                    [16, 16, 8, 8]            --
│    └─ReLU: 2-1498                      [16, 16, 8, 8]            --
│    └─Empty: 2-1499                     [16, 16, 8, 8]            --
│    └─Clamp: 2-1500                     [16, 16, 8, 8]            --
├─Dropout2d: 1-140                       [16, 16, 8, 8]            --
├─FusedConv2dBNReLU: 1-141               [16, 128, 64, 64]         (recursive)
│    └─OutputShiftSqueeze: 2-1501        --                        --
│    └─One: 2-1502                       [1]                       --
│    └─OutputScale: 2-1503               --                        --
│    └─Empty: 2-1504                     [128, 48, 1, 1]           --
│    └─Empty: 2-1505                     [128, 48, 1, 1]           --
│    └─Empty: 2-1506                     [128]                     --
│    └─Empty: 2-1507                     [128]                     --
│    └─BatchNorm2d: 2-1508               [16, 128, 64, 64]         --
│    └─Scaler: 2-1509                    [16, 128, 64, 64]         --
│    └─ReLU: 2-1510                      [16, 128, 64, 64]         --
│    └─Empty: 2-1511                     [16, 128, 64, 64]         --
│    └─Clamp: 2-1512                     [16, 128, 64, 64]         --
├─FusedConv2dBNReLU: 1-142               [16, 128, 64, 64]         (recursive)
│    └─OutputShiftSqueeze: 2-1513        --                        --
│    └─One: 2-1514                       [1]                       --
│    └─OutputScale: 2-1515               --                        --
│    └─Empty: 2-1516                     [128, 128, 3, 3]          --
│    └─Empty: 2-1517                     [128, 128, 3, 3]          --
│    └─Empty: 2-1518                     [128]                     --
│    └─Empty: 2-1519                     [128]                     --
│    └─BatchNorm2d: 2-1520               [16, 128, 64, 64]         --
│    └─Scaler: 2-1521                    [16, 128, 64, 64]         --
│    └─ReLU: 2-1522                      [16, 128, 64, 64]         --
│    └─Empty: 2-1523                     [16, 128, 64, 64]         --
│    └─Clamp: 2-1524                     [16, 128, 64, 64]         --
├─FusedMaxPoolConv2dBNReLU: 1-143        [16, 128, 32, 32]         (recursive)
│    └─MaxPool2d: 2-1525                 [16, 128, 32, 32]         --
│    └─Empty: 2-1526                     [16, 128, 32, 32]         --
│    └─Empty: 2-1527                     [16, 128, 32, 32]         --
│    └─OutputShiftSqueeze: 2-1528        --                        --
│    └─One: 2-1529                       [1]                       --
│    └─OutputScale: 2-1530               --                        --
│    └─Empty: 2-1531                     [128, 128, 3, 3]          --
│    └─Empty: 2-1532                     [128, 128, 3, 3]          --
│    └─Empty: 2-1533                     [128]                     --
│    └─Empty: 2-1534                     [128]                     --
│    └─BatchNorm2d: 2-1535               [16, 128, 32, 32]         --
│    └─Scaler: 2-1536                    [16, 128, 32, 32]         --
│    └─ReLU: 2-1537                      [16, 128, 32, 32]         --
│    └─Empty: 2-1538                     [16, 128, 32, 32]         --
│    └─Clamp: 2-1539                     [16, 128, 32, 32]         --
├─FusedConv2dBNReLU: 1-144               [16, 128, 32, 32]         (recursive)
│    └─OutputShiftSqueeze: 2-1540        --                        --
│    └─One: 2-1541                       [1]                       --
│    └─OutputScale: 2-1542               --                        --
│    └─Empty: 2-1543                     [128, 128, 1, 1]          --
│    └─Empty: 2-1544                     [128, 128, 1, 1]          --
│    └─Empty: 2-1545                     [128]                     --
│    └─Empty: 2-1546                     [128]                     --
│    └─BatchNorm2d: 2-1547               [16, 128, 32, 32]         --
│    └─Scaler: 2-1548                    [16, 128, 32, 32]         --
│    └─ReLU: 2-1549                      [16, 128, 32, 32]         --
│    └─Empty: 2-1550                     [16, 128, 32, 32]         --
│    └─Clamp: 2-1551                     [16, 128, 32, 32]         --
├─FusedMaxPoolConv2dBNReLU: 1-145        [16, 128, 32, 32]         (recursive)
│    └─MaxPool2d: 2-1552                 [16, 128, 32, 32]         --
│    └─Empty: 2-1553                     [16, 128, 32, 32]         --
│    └─Empty: 2-1554                     [16, 128, 32, 32]         --
│    └─OutputShiftSqueeze: 2-1555        --                        --
│    └─One: 2-1556                       [1]                       --
│    └─OutputScale: 2-1557               --                        --
│    └─Empty: 2-1558                     [128, 128, 3, 3]          --
│    └─Empty: 2-1559                     [128, 128, 3, 3]          --
│    └─Empty: 2-1560                     [128]                     --
│    └─Empty: 2-1561                     [128]                     --
│    └─BatchNorm2d: 2-1562               [16, 128, 32, 32]         --
│    └─Scaler: 2-1563                    [16, 128, 32, 32]         --
│    └─ReLU: 2-1564                      [16, 128, 32, 32]         --
│    └─Empty: 2-1565                     [16, 128, 32, 32]         --
│    └─Clamp: 2-1566                     [16, 128, 32, 32]         --
├─Dropout2d: 1-146                       [16, 128, 32, 32]         --
├─FusedMaxPoolConv2dBNReLU: 1-147        [16, 128, 16, 16]         (recursive)
│    └─MaxPool2d: 2-1567                 [16, 128, 16, 16]         --
│    └─Empty: 2-1568                     [16, 128, 16, 16]         --
│    └─Empty: 2-1569                     [16, 128, 16, 16]         --
│    └─OutputShiftSqueeze: 2-1570        --                        --
│    └─One: 2-1571                       [1]                       --
│    └─OutputScale: 2-1572               --                        --
│    └─Empty: 2-1573                     [128, 128, 3, 3]          --
│    └─Empty: 2-1574                     [128, 128, 3, 3]          --
│    └─Empty: 2-1575                     [128]                     --
│    └─Empty: 2-1576                     [128]                     --
│    └─BatchNorm2d: 2-1577               [16, 128, 16, 16]         --
│    └─Scaler: 2-1578                    [16, 128, 16, 16]         --
│    └─ReLU: 2-1579                      [16, 128, 16, 16]         --
│    └─Empty: 2-1580                     [16, 128, 16, 16]         --
│    └─Clamp: 2-1581                     [16, 128, 16, 16]         --
├─FusedConv2dBNReLU: 1-148               [16, 128, 16, 16]         (recursive)
│    └─OutputShiftSqueeze: 2-1582        --                        --
│    └─One: 2-1583                       [1]                       --
│    └─OutputScale: 2-1584               --                        --
│    └─Empty: 2-1585                     [128, 128, 1, 1]          --
│    └─Empty: 2-1586                     [128, 128, 1, 1]          --
│    └─Empty: 2-1587                     [128]                     --
│    └─Empty: 2-1588                     [128]                     --
│    └─BatchNorm2d: 2-1589               [16, 128, 16, 16]         --
│    └─Scaler: 2-1590                    [16, 128, 16, 16]         --
│    └─ReLU: 2-1591                      [16, 128, 16, 16]         --
│    └─Empty: 2-1592                     [16, 128, 16, 16]         --
│    └─Clamp: 2-1593                     [16, 128, 16, 16]         --
├─FusedMaxPoolConv2dBNReLU: 1-149        [16, 128, 16, 16]         (recursive)
│    └─MaxPool2d: 2-1594                 [16, 128, 16, 16]         --
│    └─Empty: 2-1595                     [16, 128, 16, 16]         --
│    └─Empty: 2-1596                     [16, 128, 16, 16]         --
│    └─OutputShiftSqueeze: 2-1597        --                        --
│    └─One: 2-1598                       [1]                       --
│    └─OutputScale: 2-1599               --                        --
│    └─Empty: 2-1600                     [128, 128, 3, 3]          --
│    └─Empty: 2-1601                     [128, 128, 3, 3]          --
│    └─Empty: 2-1602                     [128]                     --
│    └─Empty: 2-1603                     [128]                     --
│    └─BatchNorm2d: 2-1604               [16, 128, 16, 16]         --
│    └─Scaler: 2-1605                    [16, 128, 16, 16]         --
│    └─ReLU: 2-1606                      [16, 128, 16, 16]         --
│    └─Empty: 2-1607                     [16, 128, 16, 16]         --
│    └─Clamp: 2-1608                     [16, 128, 16, 16]         --
├─Dropout2d: 1-150                       [16, 128, 16, 16]         --
├─FusedMaxPoolConv2dBNReLU: 1-151        [16, 128, 8, 8]           (recursive)
│    └─MaxPool2d: 2-1609                 [16, 128, 8, 8]           --
│    └─Empty: 2-1610                     [16, 128, 8, 8]           --
│    └─Empty: 2-1611                     [16, 128, 8, 8]           --
│    └─OutputShiftSqueeze: 2-1612        --                        --
│    └─One: 2-1613                       [1]                       --
│    └─OutputScale: 2-1614               --                        --
│    └─Empty: 2-1615                     [128, 128, 3, 3]          --
│    └─Empty: 2-1616                     [128, 128, 3, 3]          --
│    └─Empty: 2-1617                     [128]                     --
│    └─Empty: 2-1618                     [128]                     --
│    └─BatchNorm2d: 2-1619               [16, 128, 8, 8]           --
│    └─Scaler: 2-1620                    [16, 128, 8, 8]           --
│    └─ReLU: 2-1621                      [16, 128, 8, 8]           --
│    └─Empty: 2-1622                     [16, 128, 8, 8]           --
│    └─Clamp: 2-1623                     [16, 128, 8, 8]           --
├─FusedConv2dBNReLU: 1-152               [16, 16, 8, 8]            (recursive)
│    └─OutputShiftSqueeze: 2-1624        --                        --
│    └─One: 2-1625                       [1]                       --
│    └─OutputScale: 2-1626               --                        --
│    └─Empty: 2-1627                     [16, 128, 1, 1]           --
│    └─Empty: 2-1628                     [16, 128, 1, 1]           --
│    └─Empty: 2-1629                     [16]                      --
│    └─Empty: 2-1630                     [16]                      --
│    └─BatchNorm2d: 2-1631               [16, 16, 8, 8]            --
│    └─Scaler: 2-1632                    [16, 16, 8, 8]            --
│    └─ReLU: 2-1633                      [16, 16, 8, 8]            --
│    └─Empty: 2-1634                     [16, 16, 8, 8]            --
│    └─Clamp: 2-1635                     [16, 16, 8, 8]            --
├─FusedMaxPoolConv2dBNReLU: 1-153        [16, 16, 8, 8]            (recursive)
│    └─MaxPool2d: 2-1636                 [16, 128, 8, 8]           --
│    └─Empty: 2-1637                     [16, 128, 8, 8]           --
│    └─Empty: 2-1638                     [16, 128, 8, 8]           --
│    └─OutputShiftSqueeze: 2-1639        --                        --
│    └─One: 2-1640                       [1]                       --
│    └─OutputScale: 2-1641               --                        --
│    └─Empty: 2-1642                     [16, 128, 3, 3]           --
│    └─Empty: 2-1643                     [16, 128, 3, 3]           --
│    └─Empty: 2-1644                     [16]                      --
│    └─Empty: 2-1645                     [16]                      --
│    └─BatchNorm2d: 2-1646               [16, 16, 8, 8]            --
│    └─Scaler: 2-1647                    [16, 16, 8, 8]            --
│    └─ReLU: 2-1648                      [16, 16, 8, 8]            --
│    └─Empty: 2-1649                     [16, 16, 8, 8]            --
│    └─Clamp: 2-1650                     [16, 16, 8, 8]            --
├─Dropout2d: 1-154                       [16, 16, 8, 8]            --
├─FusedConv2dBNReLU: 1-155               [16, 128, 64, 64]         (recursive)
│    └─OutputShiftSqueeze: 2-1651        --                        --
│    └─One: 2-1652                       [1]                       --
│    └─OutputScale: 2-1653               --                        --
│    └─Empty: 2-1654                     [128, 48, 1, 1]           --
│    └─Empty: 2-1655                     [128, 48, 1, 1]           --
│    └─Empty: 2-1656                     [128]                     --
│    └─Empty: 2-1657                     [128]                     --
│    └─BatchNorm2d: 2-1658               [16, 128, 64, 64]         --
│    └─Scaler: 2-1659                    [16, 128, 64, 64]         --
│    └─ReLU: 2-1660                      [16, 128, 64, 64]         --
│    └─Empty: 2-1661                     [16, 128, 64, 64]         --
│    └─Clamp: 2-1662                     [16, 128, 64, 64]         --
├─FusedConv2dBNReLU: 1-156               [16, 128, 64, 64]         (recursive)
│    └─OutputShiftSqueeze: 2-1663        --                        --
│    └─One: 2-1664                       [1]                       --
│    └─OutputScale: 2-1665               --                        --
│    └─Empty: 2-1666                     [128, 128, 3, 3]          --
│    └─Empty: 2-1667                     [128, 128, 3, 3]          --
│    └─Empty: 2-1668                     [128]                     --
│    └─Empty: 2-1669                     [128]                     --
│    └─BatchNorm2d: 2-1670               [16, 128, 64, 64]         --
│    └─Scaler: 2-1671                    [16, 128, 64, 64]         --
│    └─ReLU: 2-1672                      [16, 128, 64, 64]         --
│    └─Empty: 2-1673                     [16, 128, 64, 64]         --
│    └─Clamp: 2-1674                     [16, 128, 64, 64]         --
├─FusedMaxPoolConv2dBNReLU: 1-157        [16, 128, 32, 32]         (recursive)
│    └─MaxPool2d: 2-1675                 [16, 128, 32, 32]         --
│    └─Empty: 2-1676                     [16, 128, 32, 32]         --
│    └─Empty: 2-1677                     [16, 128, 32, 32]         --
│    └─OutputShiftSqueeze: 2-1678        --                        --
│    └─One: 2-1679                       [1]                       --
│    └─OutputScale: 2-1680               --                        --
│    └─Empty: 2-1681                     [128, 128, 3, 3]          --
│    └─Empty: 2-1682                     [128, 128, 3, 3]          --
│    └─Empty: 2-1683                     [128]                     --
│    └─Empty: 2-1684                     [128]                     --
│    └─BatchNorm2d: 2-1685               [16, 128, 32, 32]         --
│    └─Scaler: 2-1686                    [16, 128, 32, 32]         --
│    └─ReLU: 2-1687                      [16, 128, 32, 32]         --
│    └─Empty: 2-1688                     [16, 128, 32, 32]         --
│    └─Clamp: 2-1689                     [16, 128, 32, 32]         --
├─FusedConv2dBNReLU: 1-158               [16, 128, 32, 32]         (recursive)
│    └─OutputShiftSqueeze: 2-1690        --                        --
│    └─One: 2-1691                       [1]                       --
│    └─OutputScale: 2-1692               --                        --
│    └─Empty: 2-1693                     [128, 128, 1, 1]          --
│    └─Empty: 2-1694                     [128, 128, 1, 1]          --
│    └─Empty: 2-1695                     [128]                     --
│    └─Empty: 2-1696                     [128]                     --
│    └─BatchNorm2d: 2-1697               [16, 128, 32, 32]         --
│    └─Scaler: 2-1698                    [16, 128, 32, 32]         --
│    └─ReLU: 2-1699                      [16, 128, 32, 32]         --
│    └─Empty: 2-1700                     [16, 128, 32, 32]         --
│    └─Clamp: 2-1701                     [16, 128, 32, 32]         --
├─FusedMaxPoolConv2dBNReLU: 1-159        [16, 128, 32, 32]         (recursive)
│    └─MaxPool2d: 2-1702                 [16, 128, 32, 32]         --
│    └─Empty: 2-1703                     [16, 128, 32, 32]         --
│    └─Empty: 2-1704                     [16, 128, 32, 32]         --
│    └─OutputShiftSqueeze: 2-1705        --                        --
│    └─One: 2-1706                       [1]                       --
│    └─OutputScale: 2-1707               --                        --
│    └─Empty: 2-1708                     [128, 128, 3, 3]          --
│    └─Empty: 2-1709                     [128, 128, 3, 3]          --
│    └─Empty: 2-1710                     [128]                     --
│    └─Empty: 2-1711                     [128]                     --
│    └─BatchNorm2d: 2-1712               [16, 128, 32, 32]         --
│    └─Scaler: 2-1713                    [16, 128, 32, 32]         --
│    └─ReLU: 2-1714                      [16, 128, 32, 32]         --
│    └─Empty: 2-1715                     [16, 128, 32, 32]         --
│    └─Clamp: 2-1716                     [16, 128, 32, 32]         --
├─Dropout2d: 1-160                       [16, 128, 32, 32]         --
├─FusedMaxPoolConv2dBNReLU: 1-161        [16, 128, 16, 16]         (recursive)
│    └─MaxPool2d: 2-1717                 [16, 128, 16, 16]         --
│    └─Empty: 2-1718                     [16, 128, 16, 16]         --
│    └─Empty: 2-1719                     [16, 128, 16, 16]         --
│    └─OutputShiftSqueeze: 2-1720        --                        --
│    └─One: 2-1721                       [1]                       --
│    └─OutputScale: 2-1722               --                        --
│    └─Empty: 2-1723                     [128, 128, 3, 3]          --
│    └─Empty: 2-1724                     [128, 128, 3, 3]          --
│    └─Empty: 2-1725                     [128]                     --
│    └─Empty: 2-1726                     [128]                     --
│    └─BatchNorm2d: 2-1727               [16, 128, 16, 16]         --
│    └─Scaler: 2-1728                    [16, 128, 16, 16]         --
│    └─ReLU: 2-1729                      [16, 128, 16, 16]         --
│    └─Empty: 2-1730                     [16, 128, 16, 16]         --
│    └─Clamp: 2-1731                     [16, 128, 16, 16]         --
├─FusedConv2dBNReLU: 1-162               [16, 128, 16, 16]         (recursive)
│    └─OutputShiftSqueeze: 2-1732        --                        --
│    └─One: 2-1733                       [1]                       --
│    └─OutputScale: 2-1734               --                        --
│    └─Empty: 2-1735                     [128, 128, 1, 1]          --
│    └─Empty: 2-1736                     [128, 128, 1, 1]          --
│    └─Empty: 2-1737                     [128]                     --
│    └─Empty: 2-1738                     [128]                     --
│    └─BatchNorm2d: 2-1739               [16, 128, 16, 16]         --
│    └─Scaler: 2-1740                    [16, 128, 16, 16]         --
│    └─ReLU: 2-1741                      [16, 128, 16, 16]         --
│    └─Empty: 2-1742                     [16, 128, 16, 16]         --
│    └─Clamp: 2-1743                     [16, 128, 16, 16]         --
├─FusedMaxPoolConv2dBNReLU: 1-163        [16, 128, 16, 16]         (recursive)
│    └─MaxPool2d: 2-1744                 [16, 128, 16, 16]         --
│    └─Empty: 2-1745                     [16, 128, 16, 16]         --
│    └─Empty: 2-1746                     [16, 128, 16, 16]         --
│    └─OutputShiftSqueeze: 2-1747        --                        --
│    └─One: 2-1748                       [1]                       --
│    └─OutputScale: 2-1749               --                        --
│    └─Empty: 2-1750                     [128, 128, 3, 3]          --
│    └─Empty: 2-1751                     [128, 128, 3, 3]          --
│    └─Empty: 2-1752                     [128]                     --
│    └─Empty: 2-1753                     [128]                     --
│    └─BatchNorm2d: 2-1754               [16, 128, 16, 16]         --
│    └─Scaler: 2-1755                    [16, 128, 16, 16]         --
│    └─ReLU: 2-1756                      [16, 128, 16, 16]         --
│    └─Empty: 2-1757                     [16, 128, 16, 16]         --
│    └─Clamp: 2-1758                     [16, 128, 16, 16]         --
├─Dropout2d: 1-164                       [16, 128, 16, 16]         --
├─FusedMaxPoolConv2dBNReLU: 1-165        [16, 128, 8, 8]           (recursive)
│    └─MaxPool2d: 2-1759                 [16, 128, 8, 8]           --
│    └─Empty: 2-1760                     [16, 128, 8, 8]           --
│    └─Empty: 2-1761                     [16, 128, 8, 8]           --
│    └─OutputShiftSqueeze: 2-1762        --                        --
│    └─One: 2-1763                       [1]                       --
│    └─OutputScale: 2-1764               --                        --
│    └─Empty: 2-1765                     [128, 128, 3, 3]          --
│    └─Empty: 2-1766                     [128, 128, 3, 3]          --
│    └─Empty: 2-1767                     [128]                     --
│    └─Empty: 2-1768                     [128]                     --
│    └─BatchNorm2d: 2-1769               [16, 128, 8, 8]           --
│    └─Scaler: 2-1770                    [16, 128, 8, 8]           --
│    └─ReLU: 2-1771                      [16, 128, 8, 8]           --
│    └─Empty: 2-1772                     [16, 128, 8, 8]           --
│    └─Clamp: 2-1773                     [16, 128, 8, 8]           --
├─FusedConv2dBNReLU: 1-166               [16, 16, 8, 8]            (recursive)
│    └─OutputShiftSqueeze: 2-1774        --                        --
│    └─One: 2-1775                       [1]                       --
│    └─OutputScale: 2-1776               --                        --
│    └─Empty: 2-1777                     [16, 128, 1, 1]           --
│    └─Empty: 2-1778                     [16, 128, 1, 1]           --
│    └─Empty: 2-1779                     [16]                      --
│    └─Empty: 2-1780                     [16]                      --
│    └─BatchNorm2d: 2-1781               [16, 16, 8, 8]            --
│    └─Scaler: 2-1782                    [16, 16, 8, 8]            --
│    └─ReLU: 2-1783                      [16, 16, 8, 8]            --
│    └─Empty: 2-1784                     [16, 16, 8, 8]            --
│    └─Clamp: 2-1785                     [16, 16, 8, 8]            --
├─FusedMaxPoolConv2dBNReLU: 1-167        [16, 16, 8, 8]            (recursive)
│    └─MaxPool2d: 2-1786                 [16, 128, 8, 8]           --
│    └─Empty: 2-1787                     [16, 128, 8, 8]           --
│    └─Empty: 2-1788                     [16, 128, 8, 8]           --
│    └─OutputShiftSqueeze: 2-1789        --                        --
│    └─One: 2-1790                       [1]                       --
│    └─OutputScale: 2-1791               --                        --
│    └─Empty: 2-1792                     [16, 128, 3, 3]           --
│    └─Empty: 2-1793                     [16, 128, 3, 3]           --
│    └─Empty: 2-1794                     [16]                      --
│    └─Empty: 2-1795                     [16]                      --
│    └─BatchNorm2d: 2-1796               [16, 16, 8, 8]            --
│    └─Scaler: 2-1797                    [16, 16, 8, 8]            --
│    └─ReLU: 2-1798                      [16, 16, 8, 8]            --
│    └─Empty: 2-1799                     [16, 16, 8, 8]            --
│    └─Clamp: 2-1800                     [16, 16, 8, 8]            --
├─Dropout2d: 1-168                       [16, 16, 8, 8]            --
├─FusedConv2dBNReLU: 1-169               [16, 128, 64, 64]         (recursive)
│    └─OutputShiftSqueeze: 2-1801        --                        --
│    └─One: 2-1802                       [1]                       --
│    └─OutputScale: 2-1803               --                        --
│    └─Empty: 2-1804                     [128, 48, 1, 1]           --
│    └─Empty: 2-1805                     [128, 48, 1, 1]           --
│    └─Empty: 2-1806                     [128]                     --
│    └─Empty: 2-1807                     [128]                     --
│    └─BatchNorm2d: 2-1808               [16, 128, 64, 64]         --
│    └─Scaler: 2-1809                    [16, 128, 64, 64]         --
│    └─ReLU: 2-1810                      [16, 128, 64, 64]         --
│    └─Empty: 2-1811                     [16, 128, 64, 64]         --
│    └─Clamp: 2-1812                     [16, 128, 64, 64]         --
├─FusedConv2dBNReLU: 1-170               [16, 128, 64, 64]         (recursive)
│    └─OutputShiftSqueeze: 2-1813        --                        --
│    └─One: 2-1814                       [1]                       --
│    └─OutputScale: 2-1815               --                        --
│    └─Empty: 2-1816                     [128, 128, 3, 3]          --
│    └─Empty: 2-1817                     [128, 128, 3, 3]          --
│    └─Empty: 2-1818                     [128]                     --
│    └─Empty: 2-1819                     [128]                     --
│    └─BatchNorm2d: 2-1820               [16, 128, 64, 64]         --
│    └─Scaler: 2-1821                    [16, 128, 64, 64]         --
│    └─ReLU: 2-1822                      [16, 128, 64, 64]         --
│    └─Empty: 2-1823                     [16, 128, 64, 64]         --
│    └─Clamp: 2-1824                     [16, 128, 64, 64]         --
├─FusedMaxPoolConv2dBNReLU: 1-171        [16, 128, 32, 32]         (recursive)
│    └─MaxPool2d: 2-1825                 [16, 128, 32, 32]         --
│    └─Empty: 2-1826                     [16, 128, 32, 32]         --
│    └─Empty: 2-1827                     [16, 128, 32, 32]         --
│    └─OutputShiftSqueeze: 2-1828        --                        --
│    └─One: 2-1829                       [1]                       --
│    └─OutputScale: 2-1830               --                        --
│    └─Empty: 2-1831                     [128, 128, 3, 3]          --
│    └─Empty: 2-1832                     [128, 128, 3, 3]          --
│    └─Empty: 2-1833                     [128]                     --
│    └─Empty: 2-1834                     [128]                     --
│    └─BatchNorm2d: 2-1835               [16, 128, 32, 32]         --
│    └─Scaler: 2-1836                    [16, 128, 32, 32]         --
│    └─ReLU: 2-1837                      [16, 128, 32, 32]         --
│    └─Empty: 2-1838                     [16, 128, 32, 32]         --
│    └─Clamp: 2-1839                     [16, 128, 32, 32]         --
├─FusedConv2dBNReLU: 1-172               [16, 128, 32, 32]         (recursive)
│    └─OutputShiftSqueeze: 2-1840        --                        --
│    └─One: 2-1841                       [1]                       --
│    └─OutputScale: 2-1842               --                        --
│    └─Empty: 2-1843                     [128, 128, 1, 1]          --
│    └─Empty: 2-1844                     [128, 128, 1, 1]          --
│    └─Empty: 2-1845                     [128]                     --
│    └─Empty: 2-1846                     [128]                     --
│    └─BatchNorm2d: 2-1847               [16, 128, 32, 32]         --
│    └─Scaler: 2-1848                    [16, 128, 32, 32]         --
│    └─ReLU: 2-1849                      [16, 128, 32, 32]         --
│    └─Empty: 2-1850                     [16, 128, 32, 32]         --
│    └─Clamp: 2-1851                     [16, 128, 32, 32]         --
├─FusedMaxPoolConv2dBNReLU: 1-173        [16, 128, 32, 32]         (recursive)
│    └─MaxPool2d: 2-1852                 [16, 128, 32, 32]         --
│    └─Empty: 2-1853                     [16, 128, 32, 32]         --
│    └─Empty: 2-1854                     [16, 128, 32, 32]         --
│    └─OutputShiftSqueeze: 2-1855        --                        --
│    └─One: 2-1856                       [1]                       --
│    └─OutputScale: 2-1857               --                        --
│    └─Empty: 2-1858                     [128, 128, 3, 3]          --
│    └─Empty: 2-1859                     [128, 128, 3, 3]          --
│    └─Empty: 2-1860                     [128]                     --
│    └─Empty: 2-1861                     [128]                     --
│    └─BatchNorm2d: 2-1862               [16, 128, 32, 32]         --
│    └─Scaler: 2-1863                    [16, 128, 32, 32]         --
│    └─ReLU: 2-1864                      [16, 128, 32, 32]         --
│    └─Empty: 2-1865                     [16, 128, 32, 32]         --
│    └─Clamp: 2-1866                     [16, 128, 32, 32]         --
├─Dropout2d: 1-174                       [16, 128, 32, 32]         --
├─FusedMaxPoolConv2dBNReLU: 1-175        [16, 128, 16, 16]         (recursive)
│    └─MaxPool2d: 2-1867                 [16, 128, 16, 16]         --
│    └─Empty: 2-1868                     [16, 128, 16, 16]         --
│    └─Empty: 2-1869                     [16, 128, 16, 16]         --
│    └─OutputShiftSqueeze: 2-1870        --                        --
│    └─One: 2-1871                       [1]                       --
│    └─OutputScale: 2-1872               --                        --
│    └─Empty: 2-1873                     [128, 128, 3, 3]          --
│    └─Empty: 2-1874                     [128, 128, 3, 3]          --
│    └─Empty: 2-1875                     [128]                     --
│    └─Empty: 2-1876                     [128]                     --
│    └─BatchNorm2d: 2-1877               [16, 128, 16, 16]         --
│    └─Scaler: 2-1878                    [16, 128, 16, 16]         --
│    └─ReLU: 2-1879                      [16, 128, 16, 16]         --
│    └─Empty: 2-1880                     [16, 128, 16, 16]         --
│    └─Clamp: 2-1881                     [16, 128, 16, 16]         --
├─FusedConv2dBNReLU: 1-176               [16, 128, 16, 16]         (recursive)
│    └─OutputShiftSqueeze: 2-1882        --                        --
│    └─One: 2-1883                       [1]                       --
│    └─OutputScale: 2-1884               --                        --
│    └─Empty: 2-1885                     [128, 128, 1, 1]          --
│    └─Empty: 2-1886                     [128, 128, 1, 1]          --
│    └─Empty: 2-1887                     [128]                     --
│    └─Empty: 2-1888                     [128]                     --
│    └─BatchNorm2d: 2-1889               [16, 128, 16, 16]         --
│    └─Scaler: 2-1890                    [16, 128, 16, 16]         --
│    └─ReLU: 2-1891                      [16, 128, 16, 16]         --
│    └─Empty: 2-1892                     [16, 128, 16, 16]         --
│    └─Clamp: 2-1893                     [16, 128, 16, 16]         --
├─FusedMaxPoolConv2dBNReLU: 1-177        [16, 128, 16, 16]         (recursive)
│    └─MaxPool2d: 2-1894                 [16, 128, 16, 16]         --
│    └─Empty: 2-1895                     [16, 128, 16, 16]         --
│    └─Empty: 2-1896                     [16, 128, 16, 16]         --
│    └─OutputShiftSqueeze: 2-1897        --                        --
│    └─One: 2-1898                       [1]                       --
│    └─OutputScale: 2-1899               --                        --
│    └─Empty: 2-1900                     [128, 128, 3, 3]          --
│    └─Empty: 2-1901                     [128, 128, 3, 3]          --
│    └─Empty: 2-1902                     [128]                     --
│    └─Empty: 2-1903                     [128]                     --
│    └─BatchNorm2d: 2-1904               [16, 128, 16, 16]         --
│    └─Scaler: 2-1905                    [16, 128, 16, 16]         --
│    └─ReLU: 2-1906                      [16, 128, 16, 16]         --
│    └─Empty: 2-1907                     [16, 128, 16, 16]         --
│    └─Clamp: 2-1908                     [16, 128, 16, 16]         --
├─Dropout2d: 1-178                       [16, 128, 16, 16]         --
├─FusedMaxPoolConv2dBNReLU: 1-179        [16, 128, 8, 8]           (recursive)
│    └─MaxPool2d: 2-1909                 [16, 128, 8, 8]           --
│    └─Empty: 2-1910                     [16, 128, 8, 8]           --
│    └─Empty: 2-1911                     [16, 128, 8, 8]           --
│    └─OutputShiftSqueeze: 2-1912        --                        --
│    └─One: 2-1913                       [1]                       --
│    └─OutputScale: 2-1914               --                        --
│    └─Empty: 2-1915                     [128, 128, 3, 3]          --
│    └─Empty: 2-1916                     [128, 128, 3, 3]          --
│    └─Empty: 2-1917                     [128]                     --
│    └─Empty: 2-1918                     [128]                     --
│    └─BatchNorm2d: 2-1919               [16, 128, 8, 8]           --
│    └─Scaler: 2-1920                    [16, 128, 8, 8]           --
│    └─ReLU: 2-1921                      [16, 128, 8, 8]           --
│    └─Empty: 2-1922                     [16, 128, 8, 8]           --
│    └─Clamp: 2-1923                     [16, 128, 8, 8]           --
├─FusedConv2dBNReLU: 1-180               [16, 16, 8, 8]            (recursive)
│    └─OutputShiftSqueeze: 2-1924        --                        --
│    └─One: 2-1925                       [1]                       --
│    └─OutputScale: 2-1926               --                        --
│    └─Empty: 2-1927                     [16, 128, 1, 1]           --
│    └─Empty: 2-1928                     [16, 128, 1, 1]           --
│    └─Empty: 2-1929                     [16]                      --
│    └─Empty: 2-1930                     [16]                      --
│    └─BatchNorm2d: 2-1931               [16, 16, 8, 8]            --
│    └─Scaler: 2-1932                    [16, 16, 8, 8]            --
│    └─ReLU: 2-1933                      [16, 16, 8, 8]            --
│    └─Empty: 2-1934                     [16, 16, 8, 8]            --
│    └─Clamp: 2-1935                     [16, 16, 8, 8]            --
├─FusedMaxPoolConv2dBNReLU: 1-181        [16, 16, 8, 8]            (recursive)
│    └─MaxPool2d: 2-1936                 [16, 128, 8, 8]           --
│    └─Empty: 2-1937                     [16, 128, 8, 8]           --
│    └─Empty: 2-1938                     [16, 128, 8, 8]           --
│    └─OutputShiftSqueeze: 2-1939        --                        --
│    └─One: 2-1940                       [1]                       --
│    └─OutputScale: 2-1941               --                        --
│    └─Empty: 2-1942                     [16, 128, 3, 3]           --
│    └─Empty: 2-1943                     [16, 128, 3, 3]           --
│    └─Empty: 2-1944                     [16]                      --
│    └─Empty: 2-1945                     [16]                      --
│    └─BatchNorm2d: 2-1946               [16, 16, 8, 8]            --
│    └─Scaler: 2-1947                    [16, 16, 8, 8]            --
│    └─ReLU: 2-1948                      [16, 16, 8, 8]            --
│    └─Empty: 2-1949                     [16, 16, 8, 8]            --
│    └─Clamp: 2-1950                     [16, 16, 8, 8]            --
├─Dropout2d: 1-182                       [16, 16, 8, 8]            --
├─FusedConv2dBNReLU: 1-183               [16, 128, 64, 64]         (recursive)
│    └─OutputShiftSqueeze: 2-1951        --                        --
│    └─One: 2-1952                       [1]                       --
│    └─OutputScale: 2-1953               --                        --
│    └─Empty: 2-1954                     [128, 48, 1, 1]           --
│    └─Empty: 2-1955                     [128, 48, 1, 1]           --
│    └─Empty: 2-1956                     [128]                     --
│    └─Empty: 2-1957                     [128]                     --
│    └─BatchNorm2d: 2-1958               [16, 128, 64, 64]         --
│    └─Scaler: 2-1959                    [16, 128, 64, 64]         --
│    └─ReLU: 2-1960                      [16, 128, 64, 64]         --
│    └─Empty: 2-1961                     [16, 128, 64, 64]         --
│    └─Clamp: 2-1962                     [16, 128, 64, 64]         --
├─FusedConv2dBNReLU: 1-184               [16, 128, 64, 64]         (recursive)
│    └─OutputShiftSqueeze: 2-1963        --                        --
│    └─One: 2-1964                       [1]                       --
│    └─OutputScale: 2-1965               --                        --
│    └─Empty: 2-1966                     [128, 128, 3, 3]          --
│    └─Empty: 2-1967                     [128, 128, 3, 3]          --
│    └─Empty: 2-1968                     [128]                     --
│    └─Empty: 2-1969                     [128]                     --
│    └─BatchNorm2d: 2-1970               [16, 128, 64, 64]         --
│    └─Scaler: 2-1971                    [16, 128, 64, 64]         --
│    └─ReLU: 2-1972                      [16, 128, 64, 64]         --
│    └─Empty: 2-1973                     [16, 128, 64, 64]         --
│    └─Clamp: 2-1974                     [16, 128, 64, 64]         --
├─FusedMaxPoolConv2dBNReLU: 1-185        [16, 128, 32, 32]         (recursive)
│    └─MaxPool2d: 2-1975                 [16, 128, 32, 32]         --
│    └─Empty: 2-1976                     [16, 128, 32, 32]         --
│    └─Empty: 2-1977                     [16, 128, 32, 32]         --
│    └─OutputShiftSqueeze: 2-1978        --                        --
│    └─One: 2-1979                       [1]                       --
│    └─OutputScale: 2-1980               --                        --
│    └─Empty: 2-1981                     [128, 128, 3, 3]          --
│    └─Empty: 2-1982                     [128, 128, 3, 3]          --
│    └─Empty: 2-1983                     [128]                     --
│    └─Empty: 2-1984                     [128]                     --
│    └─BatchNorm2d: 2-1985               [16, 128, 32, 32]         --
│    └─Scaler: 2-1986                    [16, 128, 32, 32]         --
│    └─ReLU: 2-1987                      [16, 128, 32, 32]         --
│    └─Empty: 2-1988                     [16, 128, 32, 32]         --
│    └─Clamp: 2-1989                     [16, 128, 32, 32]         --
├─FusedConv2dBNReLU: 1-186               [16, 128, 32, 32]         (recursive)
│    └─OutputShiftSqueeze: 2-1990        --                        --
│    └─One: 2-1991                       [1]                       --
│    └─OutputScale: 2-1992               --                        --
│    └─Empty: 2-1993                     [128, 128, 1, 1]          --
│    └─Empty: 2-1994                     [128, 128, 1, 1]          --
│    └─Empty: 2-1995                     [128]                     --
│    └─Empty: 2-1996                     [128]                     --
│    └─BatchNorm2d: 2-1997               [16, 128, 32, 32]         --
│    └─Scaler: 2-1998                    [16, 128, 32, 32]         --
│    └─ReLU: 2-1999                      [16, 128, 32, 32]         --
│    └─Empty: 2-2000                     [16, 128, 32, 32]         --
│    └─Clamp: 2-2001                     [16, 128, 32, 32]         --
├─FusedMaxPoolConv2dBNReLU: 1-187        [16, 128, 32, 32]         (recursive)
│    └─MaxPool2d: 2-2002                 [16, 128, 32, 32]         --
│    └─Empty: 2-2003                     [16, 128, 32, 32]         --
│    └─Empty: 2-2004                     [16, 128, 32, 32]         --
│    └─OutputShiftSqueeze: 2-2005        --                        --
│    └─One: 2-2006                       [1]                       --
│    └─OutputScale: 2-2007               --                        --
│    └─Empty: 2-2008                     [128, 128, 3, 3]          --
│    └─Empty: 2-2009                     [128, 128, 3, 3]          --
│    └─Empty: 2-2010                     [128]                     --
│    └─Empty: 2-2011                     [128]                     --
│    └─BatchNorm2d: 2-2012               [16, 128, 32, 32]         --
│    └─Scaler: 2-2013                    [16, 128, 32, 32]         --
│    └─ReLU: 2-2014                      [16, 128, 32, 32]         --
│    └─Empty: 2-2015                     [16, 128, 32, 32]         --
│    └─Clamp: 2-2016                     [16, 128, 32, 32]         --
├─Dropout2d: 1-188                       [16, 128, 32, 32]         --
├─FusedMaxPoolConv2dBNReLU: 1-189        [16, 128, 16, 16]         (recursive)
│    └─MaxPool2d: 2-2017                 [16, 128, 16, 16]         --
│    └─Empty: 2-2018                     [16, 128, 16, 16]         --
│    └─Empty: 2-2019                     [16, 128, 16, 16]         --
│    └─OutputShiftSqueeze: 2-2020        --                        --
│    └─One: 2-2021                       [1]                       --
│    └─OutputScale: 2-2022               --                        --
│    └─Empty: 2-2023                     [128, 128, 3, 3]          --
│    └─Empty: 2-2024                     [128, 128, 3, 3]          --
│    └─Empty: 2-2025                     [128]                     --
│    └─Empty: 2-2026                     [128]                     --
│    └─BatchNorm2d: 2-2027               [16, 128, 16, 16]         --
│    └─Scaler: 2-2028                    [16, 128, 16, 16]         --
│    └─ReLU: 2-2029                      [16, 128, 16, 16]         --
│    └─Empty: 2-2030                     [16, 128, 16, 16]         --
│    └─Clamp: 2-2031                     [16, 128, 16, 16]         --
├─FusedConv2dBNReLU: 1-190               [16, 128, 16, 16]         (recursive)
│    └─OutputShiftSqueeze: 2-2032        --                        --
│    └─One: 2-2033                       [1]                       --
│    └─OutputScale: 2-2034               --                        --
│    └─Empty: 2-2035                     [128, 128, 1, 1]          --
│    └─Empty: 2-2036                     [128, 128, 1, 1]          --
│    └─Empty: 2-2037                     [128]                     --
│    └─Empty: 2-2038                     [128]                     --
│    └─BatchNorm2d: 2-2039               [16, 128, 16, 16]         --
│    └─Scaler: 2-2040                    [16, 128, 16, 16]         --
│    └─ReLU: 2-2041                      [16, 128, 16, 16]         --
│    └─Empty: 2-2042                     [16, 128, 16, 16]         --
│    └─Clamp: 2-2043                     [16, 128, 16, 16]         --
├─FusedMaxPoolConv2dBNReLU: 1-191        [16, 128, 16, 16]         (recursive)
│    └─MaxPool2d: 2-2044                 [16, 128, 16, 16]         --
│    └─Empty: 2-2045                     [16, 128, 16, 16]         --
│    └─Empty: 2-2046                     [16, 128, 16, 16]         --
│    └─OutputShiftSqueeze: 2-2047        --                        --
│    └─One: 2-2048                       [1]                       --
│    └─OutputScale: 2-2049               --                        --
│    └─Empty: 2-2050                     [128, 128, 3, 3]          --
│    └─Empty: 2-2051                     [128, 128, 3, 3]          --
│    └─Empty: 2-2052                     [128]                     --
│    └─Empty: 2-2053                     [128]                     --
│    └─BatchNorm2d: 2-2054               [16, 128, 16, 16]         --
│    └─Scaler: 2-2055                    [16, 128, 16, 16]         --
│    └─ReLU: 2-2056                      [16, 128, 16, 16]         --
│    └─Empty: 2-2057                     [16, 128, 16, 16]         --
│    └─Clamp: 2-2058                     [16, 128, 16, 16]         --
├─Dropout2d: 1-192                       [16, 128, 16, 16]         --
├─FusedMaxPoolConv2dBNReLU: 1-193        [16, 128, 8, 8]           (recursive)
│    └─MaxPool2d: 2-2059                 [16, 128, 8, 8]           --
│    └─Empty: 2-2060                     [16, 128, 8, 8]           --
│    └─Empty: 2-2061                     [16, 128, 8, 8]           --
│    └─OutputShiftSqueeze: 2-2062        --                        --
│    └─One: 2-2063                       [1]                       --
│    └─OutputScale: 2-2064               --                        --
│    └─Empty: 2-2065                     [128, 128, 3, 3]          --
│    └─Empty: 2-2066                     [128, 128, 3, 3]          --
│    └─Empty: 2-2067                     [128]                     --
│    └─Empty: 2-2068                     [128]                     --
│    └─BatchNorm2d: 2-2069               [16, 128, 8, 8]           --
│    └─Scaler: 2-2070                    [16, 128, 8, 8]           --
│    └─ReLU: 2-2071                      [16, 128, 8, 8]           --
│    └─Empty: 2-2072                     [16, 128, 8, 8]           --
│    └─Clamp: 2-2073                     [16, 128, 8, 8]           --
├─FusedConv2dBNReLU: 1-194               [16, 16, 8, 8]            (recursive)
│    └─OutputShiftSqueeze: 2-2074        --                        --
│    └─One: 2-2075                       [1]                       --
│    └─OutputScale: 2-2076               --                        --
│    └─Empty: 2-2077                     [16, 128, 1, 1]           --
│    └─Empty: 2-2078                     [16, 128, 1, 1]           --
│    └─Empty: 2-2079                     [16]                      --
│    └─Empty: 2-2080                     [16]                      --
│    └─BatchNorm2d: 2-2081               [16, 16, 8, 8]            --
│    └─Scaler: 2-2082                    [16, 16, 8, 8]            --
│    └─ReLU: 2-2083                      [16, 16, 8, 8]            --
│    └─Empty: 2-2084                     [16, 16, 8, 8]            --
│    └─Clamp: 2-2085                     [16, 16, 8, 8]            --
├─FusedMaxPoolConv2dBNReLU: 1-195        [16, 16, 8, 8]            (recursive)
│    └─MaxPool2d: 2-2086                 [16, 128, 8, 8]           --
│    └─Empty: 2-2087                     [16, 128, 8, 8]           --
│    └─Empty: 2-2088                     [16, 128, 8, 8]           --
│    └─OutputShiftSqueeze: 2-2089        --                        --
│    └─One: 2-2090                       [1]                       --
│    └─OutputScale: 2-2091               --                        --
│    └─Empty: 2-2092                     [16, 128, 3, 3]           --
│    └─Empty: 2-2093                     [16, 128, 3, 3]           --
│    └─Empty: 2-2094                     [16]                      --
│    └─Empty: 2-2095                     [16]                      --
│    └─BatchNorm2d: 2-2096               [16, 16, 8, 8]            --
│    └─Scaler: 2-2097                    [16, 16, 8, 8]            --
│    └─ReLU: 2-2098                      [16, 16, 8, 8]            --
│    └─Empty: 2-2099                     [16, 16, 8, 8]            --
│    └─Clamp: 2-2100                     [16, 16, 8, 8]            --
├─Dropout2d: 1-196                       [16, 16, 8, 8]            --
├─FusedConv2dBNReLU: 1-197               [16, 128, 64, 64]         (recursive)
│    └─OutputShiftSqueeze: 2-2101        --                        --
│    └─One: 2-2102                       [1]                       --
│    └─OutputScale: 2-2103               --                        --
│    └─Empty: 2-2104                     [128, 48, 1, 1]           --
│    └─Empty: 2-2105                     [128, 48, 1, 1]           --
│    └─Empty: 2-2106                     [128]                     --
│    └─Empty: 2-2107                     [128]                     --
│    └─BatchNorm2d: 2-2108               [16, 128, 64, 64]         --
│    └─Scaler: 2-2109                    [16, 128, 64, 64]         --
│    └─ReLU: 2-2110                      [16, 128, 64, 64]         --
│    └─Empty: 2-2111                     [16, 128, 64, 64]         --
│    └─Clamp: 2-2112                     [16, 128, 64, 64]         --
├─FusedConv2dBNReLU: 1-198               [16, 128, 64, 64]         (recursive)
│    └─OutputShiftSqueeze: 2-2113        --                        --
│    └─One: 2-2114                       [1]                       --
│    └─OutputScale: 2-2115               --                        --
│    └─Empty: 2-2116                     [128, 128, 3, 3]          --
│    └─Empty: 2-2117                     [128, 128, 3, 3]          --
│    └─Empty: 2-2118                     [128]                     --
│    └─Empty: 2-2119                     [128]                     --
│    └─BatchNorm2d: 2-2120               [16, 128, 64, 64]         --
│    └─Scaler: 2-2121                    [16, 128, 64, 64]         --
│    └─ReLU: 2-2122                      [16, 128, 64, 64]         --
│    └─Empty: 2-2123                     [16, 128, 64, 64]         --
│    └─Clamp: 2-2124                     [16, 128, 64, 64]         --
├─FusedMaxPoolConv2dBNReLU: 1-199        [16, 128, 32, 32]         (recursive)
│    └─MaxPool2d: 2-2125                 [16, 128, 32, 32]         --
│    └─Empty: 2-2126                     [16, 128, 32, 32]         --
│    └─Empty: 2-2127                     [16, 128, 32, 32]         --
│    └─OutputShiftSqueeze: 2-2128        --                        --
│    └─One: 2-2129                       [1]                       --
│    └─OutputScale: 2-2130               --                        --
│    └─Empty: 2-2131                     [128, 128, 3, 3]          --
│    └─Empty: 2-2132                     [128, 128, 3, 3]          --
│    └─Empty: 2-2133                     [128]                     --
│    └─Empty: 2-2134                     [128]                     --
│    └─BatchNorm2d: 2-2135               [16, 128, 32, 32]         --
│    └─Scaler: 2-2136                    [16, 128, 32, 32]         --
│    └─ReLU: 2-2137                      [16, 128, 32, 32]         --
│    └─Empty: 2-2138                     [16, 128, 32, 32]         --
│    └─Clamp: 2-2139                     [16, 128, 32, 32]         --
├─FusedConv2dBNReLU: 1-200               [16, 128, 32, 32]         (recursive)
│    └─OutputShiftSqueeze: 2-2140        --                        --
│    └─One: 2-2141                       [1]                       --
│    └─OutputScale: 2-2142               --                        --
│    └─Empty: 2-2143                     [128, 128, 1, 1]          --
│    └─Empty: 2-2144                     [128, 128, 1, 1]          --
│    └─Empty: 2-2145                     [128]                     --
│    └─Empty: 2-2146                     [128]                     --
│    └─BatchNorm2d: 2-2147               [16, 128, 32, 32]         --
│    └─Scaler: 2-2148                    [16, 128, 32, 32]         --
│    └─ReLU: 2-2149                      [16, 128, 32, 32]         --
│    └─Empty: 2-2150                     [16, 128, 32, 32]         --
│    └─Clamp: 2-2151                     [16, 128, 32, 32]         --
├─FusedMaxPoolConv2dBNReLU: 1-201        [16, 128, 32, 32]         (recursive)
│    └─MaxPool2d: 2-2152                 [16, 128, 32, 32]         --
│    └─Empty: 2-2153                     [16, 128, 32, 32]         --
│    └─Empty: 2-2154                     [16, 128, 32, 32]         --
│    └─OutputShiftSqueeze: 2-2155        --                        --
│    └─One: 2-2156                       [1]                       --
│    └─OutputScale: 2-2157               --                        --
│    └─Empty: 2-2158                     [128, 128, 3, 3]          --
│    └─Empty: 2-2159                     [128, 128, 3, 3]          --
│    └─Empty: 2-2160                     [128]                     --
│    └─Empty: 2-2161                     [128]                     --
│    └─BatchNorm2d: 2-2162               [16, 128, 32, 32]         --
│    └─Scaler: 2-2163                    [16, 128, 32, 32]         --
│    └─ReLU: 2-2164                      [16, 128, 32, 32]         --
│    └─Empty: 2-2165                     [16, 128, 32, 32]         --
│    └─Clamp: 2-2166                     [16, 128, 32, 32]         --
├─Dropout2d: 1-202                       [16, 128, 32, 32]         --
├─FusedMaxPoolConv2dBNReLU: 1-203        [16, 128, 16, 16]         (recursive)
│    └─MaxPool2d: 2-2167                 [16, 128, 16, 16]         --
│    └─Empty: 2-2168                     [16, 128, 16, 16]         --
│    └─Empty: 2-2169                     [16, 128, 16, 16]         --
│    └─OutputShiftSqueeze: 2-2170        --                        --
│    └─One: 2-2171                       [1]                       --
│    └─OutputScale: 2-2172               --                        --
│    └─Empty: 2-2173                     [128, 128, 3, 3]          --
│    └─Empty: 2-2174                     [128, 128, 3, 3]          --
│    └─Empty: 2-2175                     [128]                     --
│    └─Empty: 2-2176                     [128]                     --
│    └─BatchNorm2d: 2-2177               [16, 128, 16, 16]         --
│    └─Scaler: 2-2178                    [16, 128, 16, 16]         --
│    └─ReLU: 2-2179                      [16, 128, 16, 16]         --
│    └─Empty: 2-2180                     [16, 128, 16, 16]         --
│    └─Clamp: 2-2181                     [16, 128, 16, 16]         --
├─FusedConv2dBNReLU: 1-204               [16, 128, 16, 16]         (recursive)
│    └─OutputShiftSqueeze: 2-2182        --                        --
│    └─One: 2-2183                       [1]                       --
│    └─OutputScale: 2-2184               --                        --
│    └─Empty: 2-2185                     [128, 128, 1, 1]          --
│    └─Empty: 2-2186                     [128, 128, 1, 1]          --
│    └─Empty: 2-2187                     [128]                     --
│    └─Empty: 2-2188                     [128]                     --
│    └─BatchNorm2d: 2-2189               [16, 128, 16, 16]         --
│    └─Scaler: 2-2190                    [16, 128, 16, 16]         --
│    └─ReLU: 2-2191                      [16, 128, 16, 16]         --
│    └─Empty: 2-2192                     [16, 128, 16, 16]         --
│    └─Clamp: 2-2193                     [16, 128, 16, 16]         --
├─FusedMaxPoolConv2dBNReLU: 1-205        [16, 128, 16, 16]         (recursive)
│    └─MaxPool2d: 2-2194                 [16, 128, 16, 16]         --
│    └─Empty: 2-2195                     [16, 128, 16, 16]         --
│    └─Empty: 2-2196                     [16, 128, 16, 16]         --
│    └─OutputShiftSqueeze: 2-2197        --                        --
│    └─One: 2-2198                       [1]                       --
│    └─OutputScale: 2-2199               --                        --
│    └─Empty: 2-2200                     [128, 128, 3, 3]          --
│    └─Empty: 2-2201                     [128, 128, 3, 3]          --
│    └─Empty: 2-2202                     [128]                     --
│    └─Empty: 2-2203                     [128]                     --
│    └─BatchNorm2d: 2-2204               [16, 128, 16, 16]         --
│    └─Scaler: 2-2205                    [16, 128, 16, 16]         --
│    └─ReLU: 2-2206                      [16, 128, 16, 16]         --
│    └─Empty: 2-2207                     [16, 128, 16, 16]         --
│    └─Clamp: 2-2208                     [16, 128, 16, 16]         --
├─Dropout2d: 1-206                       [16, 128, 16, 16]         --
├─FusedMaxPoolConv2dBNReLU: 1-207        [16, 128, 8, 8]           (recursive)
│    └─MaxPool2d: 2-2209                 [16, 128, 8, 8]           --
│    └─Empty: 2-2210                     [16, 128, 8, 8]           --
│    └─Empty: 2-2211                     [16, 128, 8, 8]           --
│    └─OutputShiftSqueeze: 2-2212        --                        --
│    └─One: 2-2213                       [1]                       --
│    └─OutputScale: 2-2214               --                        --
│    └─Empty: 2-2215                     [128, 128, 3, 3]          --
│    └─Empty: 2-2216                     [128, 128, 3, 3]          --
│    └─Empty: 2-2217                     [128]                     --
│    └─Empty: 2-2218                     [128]                     --
│    └─BatchNorm2d: 2-2219               [16, 128, 8, 8]           --
│    └─Scaler: 2-2220                    [16, 128, 8, 8]           --
│    └─ReLU: 2-2221                      [16, 128, 8, 8]           --
│    └─Empty: 2-2222                     [16, 128, 8, 8]           --
│    └─Clamp: 2-2223                     [16, 128, 8, 8]           --
├─FusedConv2dBNReLU: 1-208               [16, 16, 8, 8]            (recursive)
│    └─OutputShiftSqueeze: 2-2224        --                        --
│    └─One: 2-2225                       [1]                       --
│    └─OutputScale: 2-2226               --                        --
│    └─Empty: 2-2227                     [16, 128, 1, 1]           --
│    └─Empty: 2-2228                     [16, 128, 1, 1]           --
│    └─Empty: 2-2229                     [16]                      --
│    └─Empty: 2-2230                     [16]                      --
│    └─BatchNorm2d: 2-2231               [16, 16, 8, 8]            --
│    └─Scaler: 2-2232                    [16, 16, 8, 8]            --
│    └─ReLU: 2-2233                      [16, 16, 8, 8]            --
│    └─Empty: 2-2234                     [16, 16, 8, 8]            --
│    └─Clamp: 2-2235                     [16, 16, 8, 8]            --
├─FusedMaxPoolConv2dBNReLU: 1-209        [16, 16, 8, 8]            (recursive)
│    └─MaxPool2d: 2-2236                 [16, 128, 8, 8]           --
│    └─Empty: 2-2237                     [16, 128, 8, 8]           --
│    └─Empty: 2-2238                     [16, 128, 8, 8]           --
│    └─OutputShiftSqueeze: 2-2239        --                        --
│    └─One: 2-2240                       [1]                       --
│    └─OutputScale: 2-2241               --                        --
│    └─Empty: 2-2242                     [16, 128, 3, 3]           --
│    └─Empty: 2-2243                     [16, 128, 3, 3]           --
│    └─Empty: 2-2244                     [16]                      --
│    └─Empty: 2-2245                     [16]                      --
│    └─BatchNorm2d: 2-2246               [16, 16, 8, 8]            --
│    └─Scaler: 2-2247                    [16, 16, 8, 8]            --
│    └─ReLU: 2-2248                      [16, 16, 8, 8]            --
│    └─Empty: 2-2249                     [16, 16, 8, 8]            --
│    └─Clamp: 2-2250                     [16, 16, 8, 8]            --
├─Dropout2d: 1-210                       [16, 16, 8, 8]            --
├─FusedConv2dBNReLU: 1-211               [16, 128, 64, 64]         (recursive)
│    └─OutputShiftSqueeze: 2-2251        --                        --
│    └─One: 2-2252                       [1]                       --
│    └─OutputScale: 2-2253               --                        --
│    └─Empty: 2-2254                     [128, 48, 1, 1]           --
│    └─Empty: 2-2255                     [128, 48, 1, 1]           --
│    └─Empty: 2-2256                     [128]                     --
│    └─Empty: 2-2257                     [128]                     --
│    └─BatchNorm2d: 2-2258               [16, 128, 64, 64]         --
│    └─Scaler: 2-2259                    [16, 128, 64, 64]         --
│    └─ReLU: 2-2260                      [16, 128, 64, 64]         --
│    └─Empty: 2-2261                     [16, 128, 64, 64]         --
│    └─Clamp: 2-2262                     [16, 128, 64, 64]         --
├─FusedConv2dBNReLU: 1-212               [16, 128, 64, 64]         (recursive)
│    └─OutputShiftSqueeze: 2-2263        --                        --
│    └─One: 2-2264                       [1]                       --
│    └─OutputScale: 2-2265               --                        --
│    └─Empty: 2-2266                     [128, 128, 3, 3]          --
│    └─Empty: 2-2267                     [128, 128, 3, 3]          --
│    └─Empty: 2-2268                     [128]                     --
│    └─Empty: 2-2269                     [128]                     --
│    └─BatchNorm2d: 2-2270               [16, 128, 64, 64]         --
│    └─Scaler: 2-2271                    [16, 128, 64, 64]         --
│    └─ReLU: 2-2272                      [16, 128, 64, 64]         --
│    └─Empty: 2-2273                     [16, 128, 64, 64]         --
│    └─Clamp: 2-2274                     [16, 128, 64, 64]         --
├─FusedMaxPoolConv2dBNReLU: 1-213        [16, 128, 32, 32]         (recursive)
│    └─MaxPool2d: 2-2275                 [16, 128, 32, 32]         --
│    └─Empty: 2-2276                     [16, 128, 32, 32]         --
│    └─Empty: 2-2277                     [16, 128, 32, 32]         --
│    └─OutputShiftSqueeze: 2-2278        --                        --
│    └─One: 2-2279                       [1]                       --
│    └─OutputScale: 2-2280               --                        --
│    └─Empty: 2-2281                     [128, 128, 3, 3]          --
│    └─Empty: 2-2282                     [128, 128, 3, 3]          --
│    └─Empty: 2-2283                     [128]                     --
│    └─Empty: 2-2284                     [128]                     --
│    └─BatchNorm2d: 2-2285               [16, 128, 32, 32]         --
│    └─Scaler: 2-2286                    [16, 128, 32, 32]         --
│    └─ReLU: 2-2287                      [16, 128, 32, 32]         --
│    └─Empty: 2-2288                     [16, 128, 32, 32]         --
│    └─Clamp: 2-2289                     [16, 128, 32, 32]         --
├─FusedConv2dBNReLU: 1-214               [16, 128, 32, 32]         (recursive)
│    └─OutputShiftSqueeze: 2-2290        --                        --
│    └─One: 2-2291                       [1]                       --
│    └─OutputScale: 2-2292               --                        --
│    └─Empty: 2-2293                     [128, 128, 1, 1]          --
│    └─Empty: 2-2294                     [128, 128, 1, 1]          --
│    └─Empty: 2-2295                     [128]                     --
│    └─Empty: 2-2296                     [128]                     --
│    └─BatchNorm2d: 2-2297               [16, 128, 32, 32]         --
│    └─Scaler: 2-2298                    [16, 128, 32, 32]         --
│    └─ReLU: 2-2299                      [16, 128, 32, 32]         --
│    └─Empty: 2-2300                     [16, 128, 32, 32]         --
│    └─Clamp: 2-2301                     [16, 128, 32, 32]         --
├─FusedMaxPoolConv2dBNReLU: 1-215        [16, 128, 32, 32]         (recursive)
│    └─MaxPool2d: 2-2302                 [16, 128, 32, 32]         --
│    └─Empty: 2-2303                     [16, 128, 32, 32]         --
│    └─Empty: 2-2304                     [16, 128, 32, 32]         --
│    └─OutputShiftSqueeze: 2-2305        --                        --
│    └─One: 2-2306                       [1]                       --
│    └─OutputScale: 2-2307               --                        --
│    └─Empty: 2-2308                     [128, 128, 3, 3]          --
│    └─Empty: 2-2309                     [128, 128, 3, 3]          --
│    └─Empty: 2-2310                     [128]                     --
│    └─Empty: 2-2311                     [128]                     --
│    └─BatchNorm2d: 2-2312               [16, 128, 32, 32]         --
│    └─Scaler: 2-2313                    [16, 128, 32, 32]         --
│    └─ReLU: 2-2314                      [16, 128, 32, 32]         --
│    └─Empty: 2-2315                     [16, 128, 32, 32]         --
│    └─Clamp: 2-2316                     [16, 128, 32, 32]         --
├─Dropout2d: 1-216                       [16, 128, 32, 32]         --
├─FusedMaxPoolConv2dBNReLU: 1-217        [16, 128, 16, 16]         (recursive)
│    └─MaxPool2d: 2-2317                 [16, 128, 16, 16]         --
│    └─Empty: 2-2318                     [16, 128, 16, 16]         --
│    └─Empty: 2-2319                     [16, 128, 16, 16]         --
│    └─OutputShiftSqueeze: 2-2320        --                        --
│    └─One: 2-2321                       [1]                       --
│    └─OutputScale: 2-2322               --                        --
│    └─Empty: 2-2323                     [128, 128, 3, 3]          --
│    └─Empty: 2-2324                     [128, 128, 3, 3]          --
│    └─Empty: 2-2325                     [128]                     --
│    └─Empty: 2-2326                     [128]                     --
│    └─BatchNorm2d: 2-2327               [16, 128, 16, 16]         --
│    └─Scaler: 2-2328                    [16, 128, 16, 16]         --
│    └─ReLU: 2-2329                      [16, 128, 16, 16]         --
│    └─Empty: 2-2330                     [16, 128, 16, 16]         --
│    └─Clamp: 2-2331                     [16, 128, 16, 16]         --
├─FusedConv2dBNReLU: 1-218               [16, 128, 16, 16]         (recursive)
│    └─OutputShiftSqueeze: 2-2332        --                        --
│    └─One: 2-2333                       [1]                       --
│    └─OutputScale: 2-2334               --                        --
│    └─Empty: 2-2335                     [128, 128, 1, 1]          --
│    └─Empty: 2-2336                     [128, 128, 1, 1]          --
│    └─Empty: 2-2337                     [128]                     --
│    └─Empty: 2-2338                     [128]                     --
│    └─BatchNorm2d: 2-2339               [16, 128, 16, 16]         --
│    └─Scaler: 2-2340                    [16, 128, 16, 16]         --
│    └─ReLU: 2-2341                      [16, 128, 16, 16]         --
│    └─Empty: 2-2342                     [16, 128, 16, 16]         --
│    └─Clamp: 2-2343                     [16, 128, 16, 16]         --
├─FusedMaxPoolConv2dBNReLU: 1-219        [16, 128, 16, 16]         (recursive)
│    └─MaxPool2d: 2-2344                 [16, 128, 16, 16]         --
│    └─Empty: 2-2345                     [16, 128, 16, 16]         --
│    └─Empty: 2-2346                     [16, 128, 16, 16]         --
│    └─OutputShiftSqueeze: 2-2347        --                        --
│    └─One: 2-2348                       [1]                       --
│    └─OutputScale: 2-2349               --                        --
│    └─Empty: 2-2350                     [128, 128, 3, 3]          --
│    └─Empty: 2-2351                     [128, 128, 3, 3]          --
│    └─Empty: 2-2352                     [128]                     --
│    └─Empty: 2-2353                     [128]                     --
│    └─BatchNorm2d: 2-2354               [16, 128, 16, 16]         --
│    └─Scaler: 2-2355                    [16, 128, 16, 16]         --
│    └─ReLU: 2-2356                      [16, 128, 16, 16]         --
│    └─Empty: 2-2357                     [16, 128, 16, 16]         --
│    └─Clamp: 2-2358                     [16, 128, 16, 16]         --
├─Dropout2d: 1-220                       [16, 128, 16, 16]         --
├─FusedMaxPoolConv2dBNReLU: 1-221        [16, 128, 8, 8]           (recursive)
│    └─MaxPool2d: 2-2359                 [16, 128, 8, 8]           --
│    └─Empty: 2-2360                     [16, 128, 8, 8]           --
│    └─Empty: 2-2361                     [16, 128, 8, 8]           --
│    └─OutputShiftSqueeze: 2-2362        --                        --
│    └─One: 2-2363                       [1]                       --
│    └─OutputScale: 2-2364               --                        --
│    └─Empty: 2-2365                     [128, 128, 3, 3]          --
│    └─Empty: 2-2366                     [128, 128, 3, 3]          --
│    └─Empty: 2-2367                     [128]                     --
│    └─Empty: 2-2368                     [128]                     --
│    └─BatchNorm2d: 2-2369               [16, 128, 8, 8]           --
│    └─Scaler: 2-2370                    [16, 128, 8, 8]           --
│    └─ReLU: 2-2371                      [16, 128, 8, 8]           --
│    └─Empty: 2-2372                     [16, 128, 8, 8]           --
│    └─Clamp: 2-2373                     [16, 128, 8, 8]           --
├─FusedConv2dBNReLU: 1-222               [16, 16, 8, 8]            (recursive)
│    └─OutputShiftSqueeze: 2-2374        --                        --
│    └─One: 2-2375                       [1]                       --
│    └─OutputScale: 2-2376               --                        --
│    └─Empty: 2-2377                     [16, 128, 1, 1]           --
│    └─Empty: 2-2378                     [16, 128, 1, 1]           --
│    └─Empty: 2-2379                     [16]                      --
│    └─Empty: 2-2380                     [16]                      --
│    └─BatchNorm2d: 2-2381               [16, 16, 8, 8]            --
│    └─Scaler: 2-2382                    [16, 16, 8, 8]            --
│    └─ReLU: 2-2383                      [16, 16, 8, 8]            --
│    └─Empty: 2-2384                     [16, 16, 8, 8]            --
│    └─Clamp: 2-2385                     [16, 16, 8, 8]            --
├─FusedMaxPoolConv2dBNReLU: 1-223        [16, 16, 8, 8]            (recursive)
│    └─MaxPool2d: 2-2386                 [16, 128, 8, 8]           --
│    └─Empty: 2-2387                     [16, 128, 8, 8]           --
│    └─Empty: 2-2388                     [16, 128, 8, 8]           --
│    └─OutputShiftSqueeze: 2-2389        --                        --
│    └─One: 2-2390                       [1]                       --
│    └─OutputScale: 2-2391               --                        --
│    └─Empty: 2-2392                     [16, 128, 3, 3]           --
│    └─Empty: 2-2393                     [16, 128, 3, 3]           --
│    └─Empty: 2-2394                     [16]                      --
│    └─Empty: 2-2395                     [16]                      --
│    └─BatchNorm2d: 2-2396               [16, 16, 8, 8]            --
│    └─Scaler: 2-2397                    [16, 16, 8, 8]            --
│    └─ReLU: 2-2398                      [16, 16, 8, 8]            --
│    └─Empty: 2-2399                     [16, 16, 8, 8]            --
│    └─Clamp: 2-2400                     [16, 16, 8, 8]            --
├─Dropout2d: 1-224                       [16, 16, 8, 8]            --
├─Linear: 1-225                          [16, 5]                   5,126
│    └─OutputShiftSqueeze: 2-2401        --                        --
│    └─One: 2-2402                       [1]                       --
│    └─OutputScale: 2-2403               --                        --
│    └─Empty: 2-2404                     [5, 1024]                 --
│    └─Empty: 2-2405                     [5, 1024]                 --
│    └─Empty: 2-2406                     [16, 5]                   --
│    └─Empty: 2-2407                     [16, 5]                   --
│    └─Clamp: 2-2408                     [16, 5]                   --
├─Linear: 1-226                          [16, 5]                   (recursive)
│    └─OutputShiftSqueeze: 2-2409        --                        --
│    └─One: 2-2410                       [1]                       --
│    └─OutputScale: 2-2411               --                        --
│    └─Empty: 2-2412                     [5, 1024]                 --
│    └─Empty: 2-2413                     [5, 1024]                 --
│    └─Empty: 2-2414                     [16, 5]                   --
│    └─Empty: 2-2415                     [16, 5]                   --
│    └─Clamp: 2-2416                     [16, 5]                   --
├─Linear: 1-227                          [16, 5]                   (recursive)
│    └─OutputShiftSqueeze: 2-2417        --                        --
│    └─One: 2-2418                       [1]                       --
│    └─OutputScale: 2-2419               --                        --
│    └─Empty: 2-2420                     [5, 1024]                 --
│    └─Empty: 2-2421                     [5, 1024]                 --
│    └─Empty: 2-2422                     [16, 5]                   --
│    └─Empty: 2-2423                     [16, 5]                   --
│    └─Clamp: 2-2424                     [16, 5]                   --
├─Linear: 1-228                          [16, 5]                   (recursive)
│    └─OutputShiftSqueeze: 2-2425        --                        --
│    └─One: 2-2426                       [1]                       --
│    └─OutputScale: 2-2427               --                        --
│    └─Empty: 2-2428                     [5, 1024]                 --
│    └─Empty: 2-2429                     [5, 1024]                 --
│    └─Empty: 2-2430                     [16, 5]                   --
│    └─Empty: 2-2431                     [16, 5]                   --
│    └─Clamp: 2-2432                     [16, 5]                   --
├─Linear: 1-229                          [16, 5]                   (recursive)
│    └─OutputShiftSqueeze: 2-2433        --                        --
│    └─One: 2-2434                       [1]                       --
│    └─OutputScale: 2-2435               --                        --
│    └─Empty: 2-2436                     [5, 1024]                 --
│    └─Empty: 2-2437                     [5, 1024]                 --
│    └─Empty: 2-2438                     [16, 5]                   --
│    └─Empty: 2-2439                     [16, 5]                   --
│    └─Clamp: 2-2440                     [16, 5]                   --
├─Linear: 1-230                          [16, 5]                   (recursive)
│    └─OutputShiftSqueeze: 2-2441        --                        --
│    └─One: 2-2442                       [1]                       --
│    └─OutputScale: 2-2443               --                        --
│    └─Empty: 2-2444                     [5, 1024]                 --
│    └─Empty: 2-2445                     [5, 1024]                 --
│    └─Empty: 2-2446                     [16, 5]                   --
│    └─Empty: 2-2447                     [16, 5]                   --
│    └─Clamp: 2-2448                     [16, 5]                   --
├─Linear: 1-231                          [16, 5]                   (recursive)
│    └─OutputShiftSqueeze: 2-2449        --                        --
│    └─One: 2-2450                       [1]                       --
│    └─OutputScale: 2-2451               --                        --
│    └─Empty: 2-2452                     [5, 1024]                 --
│    └─Empty: 2-2453                     [5, 1024]                 --
│    └─Empty: 2-2454                     [16, 5]                   --
│    └─Empty: 2-2455                     [16, 5]                   --
│    └─Clamp: 2-2456                     [16, 5]                   --
├─Linear: 1-232                          [16, 5]                   (recursive)
│    └─OutputShiftSqueeze: 2-2457        --                        --
│    └─One: 2-2458                       [1]                       --
│    └─OutputScale: 2-2459               --                        --
│    └─Empty: 2-2460                     [5, 1024]                 --
│    └─Empty: 2-2461                     [5, 1024]                 --
│    └─Empty: 2-2462                     [16, 5]                   --
│    └─Empty: 2-2463                     [16, 5]                   --
│    └─Clamp: 2-2464                     [16, 5]                   --
├─Linear: 1-233                          [16, 5]                   (recursive)
│    └─OutputShiftSqueeze: 2-2465        --                        --
│    └─One: 2-2466                       [1]                       --
│    └─OutputScale: 2-2467               --                        --
│    └─Empty: 2-2468                     [5, 1024]                 --
│    └─Empty: 2-2469                     [5, 1024]                 --
│    └─Empty: 2-2470                     [16, 5]                   --
│    └─Empty: 2-2471                     [16, 5]                   --
│    └─Clamp: 2-2472                     [16, 5]                   --
├─Linear: 1-234                          [16, 5]                   (recursive)
│    └─OutputShiftSqueeze: 2-2473        --                        --
│    └─One: 2-2474                       [1]                       --
│    └─OutputScale: 2-2475               --                        --
│    └─Empty: 2-2476                     [5, 1024]                 --
│    └─Empty: 2-2477                     [5, 1024]                 --
│    └─Empty: 2-2478                     [16, 5]                   --
│    └─Empty: 2-2479                     [16, 5]                   --
│    └─Clamp: 2-2480                     [16, 5]                   --
├─Linear: 1-235                          [16, 5]                   (recursive)
│    └─OutputShiftSqueeze: 2-2481        --                        --
│    └─One: 2-2482                       [1]                       --
│    └─OutputScale: 2-2483               --                        --
│    └─Empty: 2-2484                     [5, 1024]                 --
│    └─Empty: 2-2485                     [5, 1024]                 --
│    └─Empty: 2-2486                     [16, 5]                   --
│    └─Empty: 2-2487                     [16, 5]                   --
│    └─Clamp: 2-2488                     [16, 5]                   --
├─Linear: 1-236                          [16, 5]                   (recursive)
│    └─OutputShiftSqueeze: 2-2489        --                        --
│    └─One: 2-2490                       [1]                       --
│    └─OutputScale: 2-2491               --                        --
│    └─Empty: 2-2492                     [5, 1024]                 --
│    └─Empty: 2-2493                     [5, 1024]                 --
│    └─Empty: 2-2494                     [16, 5]                   --
│    └─Empty: 2-2495                     [16, 5]                   --
│    └─Clamp: 2-2496                     [16, 5]                   --
├─Linear: 1-237                          [16, 5]                   (recursive)
│    └─OutputShiftSqueeze: 2-2497        --                        --
│    └─One: 2-2498                       [1]                       --
│    └─OutputScale: 2-2499               --                        --
│    └─Empty: 2-2500                     [5, 1024]                 --
│    └─Empty: 2-2501                     [5, 1024]                 --
│    └─Empty: 2-2502                     [16, 5]                   --
│    └─Empty: 2-2503                     [16, 5]                   --
│    └─Clamp: 2-2504                     [16, 5]                   --
├─Linear: 1-238                          [16, 5]                   (recursive)
│    └─OutputShiftSqueeze: 2-2505        --                        --
│    └─One: 2-2506                       [1]                       --
│    └─OutputScale: 2-2507               --                        --
│    └─Empty: 2-2508                     [5, 1024]                 --
│    └─Empty: 2-2509                     [5, 1024]                 --
│    └─Empty: 2-2510                     [16, 5]                   --
│    └─Empty: 2-2511                     [16, 5]                   --
│    └─Clamp: 2-2512                     [16, 5]                   --
├─Linear: 1-239                          [16, 5]                   (recursive)
│    └─OutputShiftSqueeze: 2-2513        --                        --
│    └─One: 2-2514                       [1]                       --
│    └─OutputScale: 2-2515               --                        --
│    └─Empty: 2-2516                     [5, 1024]                 --
│    └─Empty: 2-2517                     [5, 1024]                 --
│    └─Empty: 2-2518                     [16, 5]                   --
│    └─Empty: 2-2519                     [16, 5]                   --
│    └─Clamp: 2-2520                     [16, 5]                   --
├─Linear: 1-240                          [16, 5]                   (recursive)
│    └─OutputShiftSqueeze: 2-2521        --                        --
│    └─One: 2-2522                       [1]                       --
│    └─OutputScale: 2-2523               --                        --
│    └─Empty: 2-2524                     [5, 1024]                 --
│    └─Empty: 2-2525                     [5, 1024]                 --
│    └─Empty: 2-2526                     [16, 5]                   --
│    └─Empty: 2-2527                     [16, 5]                   --
│    └─Clamp: 2-2528                     [16, 5]                   --
==========================================================================================
Total params: 950,504
Trainable params: 950,432
Non-trainable params: 72
Total mult-adds (M): 0.00
==========================================================================================
Input size (MB): 201.33
Forward/backward pass size (MB): 0.00
Params size (MB): 0.00
Estimated Total Size (MB): 201.33
…
