…
I - Batch size:  8  tensor shape:  torch.Size([10, 12, 128, 128])  data min-max:  tensor(-1.) tensor(0.9922)
I - Label min-max:  tensor(0) tensor(3) data number in dataset:  tensor([158706, 184007,  22303, 151560,  84363,  77285,  48180,  38607])
I - Initializing model TCNv5
I - Number of Model Parameters: 563744
I - Model output shape:  torch.Size([8, 4])
I - Model summary
==========================================================================================
Layer (type:depth-idx)                   Output Shape              Param #
==========================================================================================
TCNv5                                    [8, 4]                    --
├─FusedConv2dBNReLU: 1-1                 [8, 64, 128, 128]         838
│    └─OutputShiftSqueeze: 2-1           --                        --
│    └─One: 2-2                          [1]                       --
│    └─OutputScale: 2-3                  --                        --
│    └─Empty: 2-4                        [64, 12, 1, 1]            --
│    └─Empty: 2-5                        [64, 12, 1, 1]            --
│    └─Empty: 2-6                        [64]                      --
│    └─Empty: 2-7                        [64]                      --
│    └─BatchNorm2d: 2-8                  [8, 64, 128, 128]         --
│    └─Scaler: 2-9                       [8, 64, 128, 128]         --
│    └─ReLU: 2-10                        [8, 64, 128, 128]         --
│    └─Empty: 2-11                       [8, 64, 128, 128]         --
│    └─Clamp: 2-12                       [8, 64, 128, 128]         --
├─FusedConv2dBNReLU: 1-2                 [8, 64, 128, 128]         36,934
│    └─OutputShiftSqueeze: 2-13          --                        --
│    └─One: 2-14                         [1]                       --
│    └─OutputScale: 2-15                 --                        --
│    └─Empty: 2-16                       [64, 64, 3, 3]            --
│    └─Empty: 2-17                       [64, 64, 3, 3]            --
│    └─Empty: 2-18                       [64]                      --
│    └─Empty: 2-19                       [64]                      --
│    └─BatchNorm2d: 2-20                 [8, 64, 128, 128]         --
│    └─Scaler: 2-21                      [8, 64, 128, 128]         --
│    └─ReLU: 2-22                        [8, 64, 128, 128]         --
│    └─Empty: 2-23                       [8, 64, 128, 128]         --
│    └─Clamp: 2-24                       [8, 64, 128, 128]         --
├─FusedConv2dBNReLU: 1-3                 [8, 64, 128, 128]         4,166
│    └─OutputShiftSqueeze: 2-25          --                        --
│    └─One: 2-26                         [1]                       --
│    └─OutputScale: 2-27                 --                        --
│    └─Empty: 2-28                       [64, 64, 1, 1]            --
│    └─Empty: 2-29                       [64, 64, 1, 1]            --
│    └─Empty: 2-30                       [64]                      --
│    └─Empty: 2-31                       [64]                      --
│    └─BatchNorm2d: 2-32                 [8, 64, 128, 128]         --
│    └─Scaler: 2-33                      [8, 64, 128, 128]         --
│    └─ReLU: 2-34                        [8, 64, 128, 128]         --
│    └─Empty: 2-35                       [8, 64, 128, 128]         --
│    └─Clamp: 2-36                       [8, 64, 128, 128]         --
├─FusedConv2dBNReLU: 1-4                 [8, 64, 128, 128]         36,934
│    └─OutputShiftSqueeze: 2-37          --                        --
│    └─One: 2-38                         [1]                       --
│    └─OutputScale: 2-39                 --                        --
│    └─Empty: 2-40                       [64, 64, 3, 3]            --
│    └─Empty: 2-41                       [64, 64, 3, 3]            --
│    └─Empty: 2-42                       [64]                      --
│    └─Empty: 2-43                       [64]                      --
│    └─BatchNorm2d: 2-44                 [8, 64, 128, 128]         --
│    └─Scaler: 2-45                      [8, 64, 128, 128]         --
│    └─ReLU: 2-46                        [8, 64, 128, 128]         --
│    └─Empty: 2-47                       [8, 64, 128, 128]         --
│    └─Clamp: 2-48                       [8, 64, 128, 128]         --
├─FusedMaxPoolConv2dBNReLU: 1-5          [8, 64, 64, 64]           36,934
│    └─MaxPool2d: 2-49                   [8, 64, 64, 64]           --
│    └─Empty: 2-50                       [8, 64, 64, 64]           --
│    └─Empty: 2-51                       [8, 64, 64, 64]           --
│    └─OutputShiftSqueeze: 2-52          --                        --
│    └─One: 2-53                         [1]                       --
│    └─OutputScale: 2-54                 --                        --
│    └─Empty: 2-55                       [64, 64, 3, 3]            --
│    └─Empty: 2-56                       [64, 64, 3, 3]            --
│    └─Empty: 2-57                       [64]                      --
│    └─Empty: 2-58                       [64]                      --
│    └─BatchNorm2d: 2-59                 [8, 64, 64, 64]           --
│    └─Scaler: 2-60                      [8, 64, 64, 64]           --
│    └─ReLU: 2-61                        [8, 64, 64, 64]           --
│    └─Empty: 2-62                       [8, 64, 64, 64]           --
│    └─Clamp: 2-63                       [8, 64, 64, 64]           --
├─FusedConv2dBNReLU: 1-6                 [8, 64, 64, 64]           36,934
│    └─OutputShiftSqueeze: 2-64          --                        --
│    └─One: 2-65                         [1]                       --
│    └─OutputScale: 2-66                 --                        --
│    └─Empty: 2-67                       [64, 64, 3, 3]            --
│    └─Empty: 2-68                       [64, 64, 3, 3]            --
│    └─Empty: 2-69                       [64]                      --
│    └─Empty: 2-70                       [64]                      --
│    └─BatchNorm2d: 2-71                 [8, 64, 64, 64]           --
│    └─Scaler: 2-72                      [8, 64, 64, 64]           --
│    └─ReLU: 2-73                        [8, 64, 64, 64]           --
│    └─Empty: 2-74                       [8, 64, 64, 64]           --
│    └─Clamp: 2-75                       [8, 64, 64, 64]           --
├─FusedMaxPoolConv2dBNReLU: 1-7          [8, 64, 32, 32]           36,934
│    └─MaxPool2d: 2-76                   [8, 64, 32, 32]           --
│    └─Empty: 2-77                       [8, 64, 32, 32]           --
│    └─Empty: 2-78                       [8, 64, 32, 32]           --
│    └─OutputShiftSqueeze: 2-79          --                        --
│    └─One: 2-80                         [1]                       --
│    └─OutputScale: 2-81                 --                        --
│    └─Empty: 2-82                       [64, 64, 3, 3]            --
│    └─Empty: 2-83                       [64, 64, 3, 3]            --
│    └─Empty: 2-84                       [64]                      --
│    └─Empty: 2-85                       [64]                      --
│    └─BatchNorm2d: 2-86                 [8, 64, 32, 32]           --
│    └─Scaler: 2-87                      [8, 64, 32, 32]           --
│    └─ReLU: 2-88                        [8, 64, 32, 32]           --
│    └─Empty: 2-89                       [8, 64, 32, 32]           --
│    └─Clamp: 2-90                       [8, 64, 32, 32]           --
├─FusedConv2dBNReLU: 1-8                 [8, 64, 32, 32]           36,934
│    └─OutputShiftSqueeze: 2-91          --                        --
│    └─One: 2-92                         [1]                       --
│    └─OutputScale: 2-93                 --                        --
│    └─Empty: 2-94                       [64, 64, 3, 3]            --
│    └─Empty: 2-95                       [64, 64, 3, 3]            --
│    └─Empty: 2-96                       [64]                      --
│    └─Empty: 2-97                       [64]                      --
│    └─BatchNorm2d: 2-98                 [8, 64, 32, 32]           --
│    └─Scaler: 2-99                      [8, 64, 32, 32]           --
│    └─ReLU: 2-100                       [8, 64, 32, 32]           --
│    └─Empty: 2-101                      [8, 64, 32, 32]           --
│    └─Clamp: 2-102                      [8, 64, 32, 32]           --
├─FusedMaxPoolConv2dBNReLU: 1-9          [8, 64, 16, 16]           36,934
│    └─MaxPool2d: 2-103                  [8, 64, 16, 16]           --
│    └─Empty: 2-104                      [8, 64, 16, 16]           --
│    └─Empty: 2-105                      [8, 64, 16, 16]           --
│    └─OutputShiftSqueeze: 2-106         --                        --
│    └─One: 2-107                        [1]                       --
│    └─OutputScale: 2-108                --                        --
│    └─Empty: 2-109                      [64, 64, 3, 3]            --
│    └─Empty: 2-110                      [64, 64, 3, 3]            --
│    └─Empty: 2-111                      [64]                      --
│    └─Empty: 2-112                      [64]                      --
│    └─BatchNorm2d: 2-113                [8, 64, 16, 16]           --
│    └─Scaler: 2-114                     [8, 64, 16, 16]           --
│    └─ReLU: 2-115                       [8, 64, 16, 16]           --
│    └─Empty: 2-116                      [8, 64, 16, 16]           --
│    └─Clamp: 2-117                      [8, 64, 16, 16]           --
├─FusedConv2dBNReLU: 1-10                [8, 64, 16, 16]           4,166
│    └─OutputShiftSqueeze: 2-118         --                        --
│    └─One: 2-119                        [1]                       --
│    └─OutputScale: 2-120                --                        --
│    └─Empty: 2-121                      [64, 64, 1, 1]            --
│    └─Empty: 2-122                      [64, 64, 1, 1]            --
│    └─Empty: 2-123                      [64]                      --
│    └─Empty: 2-124                      [64]                      --
│    └─BatchNorm2d: 2-125                [8, 64, 16, 16]           --
│    └─Scaler: 2-126                     [8, 64, 16, 16]           --
│    └─ReLU: 2-127                       [8, 64, 16, 16]           --
│    └─Empty: 2-128                      [8, 64, 16, 16]           --
│    └─Clamp: 2-129                      [8, 64, 16, 16]           --
├─FusedMaxPoolConv2dBNReLU: 1-11         [8, 64, 16, 16]           36,934
│    └─MaxPool2d: 2-130                  [8, 64, 16, 16]           --
│    └─Empty: 2-131                      [8, 64, 16, 16]           --
│    └─Empty: 2-132                      [8, 64, 16, 16]           --
│    └─OutputShiftSqueeze: 2-133         --                        --
│    └─One: 2-134                        [1]                       --
│    └─OutputScale: 2-135                --                        --
│    └─Empty: 2-136                      [64, 64, 3, 3]            --
│    └─Empty: 2-137                      [64, 64, 3, 3]            --
│    └─Empty: 2-138                      [64]                      --
│    └─Empty: 2-139                      [64]                      --
│    └─BatchNorm2d: 2-140                [8, 64, 16, 16]           --
│    └─Scaler: 2-141                     [8, 64, 16, 16]           --
│    └─ReLU: 2-142                       [8, 64, 16, 16]           --
│    └─Empty: 2-143                      [8, 64, 16, 16]           --
│    └─Clamp: 2-144                      [8, 64, 16, 16]           --
├─FusedMaxPoolConv2dBNReLU: 1-12         [8, 64, 8, 8]             36,934
│    └─MaxPool2d: 2-145                  [8, 64, 8, 8]             --
│    └─Empty: 2-146                      [8, 64, 8, 8]             --
│    └─Empty: 2-147                      [8, 64, 8, 8]             --
│    └─OutputShiftSqueeze: 2-148         --                        --
│    └─One: 2-149                        [1]                       --
│    └─OutputScale: 2-150                --                        --
│    └─Empty: 2-151                      [64, 64, 3, 3]            --
│    └─Empty: 2-152                      [64, 64, 3, 3]            --
│    └─Empty: 2-153                      [64]                      --
│    └─Empty: 2-154                      [64]                      --
│    └─BatchNorm2d: 2-155                [8, 64, 8, 8]             --
│    └─Scaler: 2-156                     [8, 64, 8, 8]             --
│    └─ReLU: 2-157                       [8, 64, 8, 8]             --
│    └─Empty: 2-158                      [8, 64, 8, 8]             --
│    └─Clamp: 2-159                      [8, 64, 8, 8]             --
├─FusedConv2dBNReLU: 1-13                [8, 64, 8, 8]             4,166
│    └─OutputShiftSqueeze: 2-160         --                        --
│    └─One: 2-161                        [1]                       --
│    └─OutputScale: 2-162                --                        --
│    └─Empty: 2-163                      [64, 64, 1, 1]            --
│    └─Empty: 2-164                      [64, 64, 1, 1]            --
│    └─Empty: 2-165                      [64]                      --
│    └─Empty: 2-166                      [64]                      --
│    └─BatchNorm2d: 2-167                [8, 64, 8, 8]             --
│    └─Scaler: 2-168                     [8, 64, 8, 8]             --
│    └─ReLU: 2-169                       [8, 64, 8, 8]             --
│    └─Empty: 2-170                      [8, 64, 8, 8]             --
│    └─Clamp: 2-171                      [8, 64, 8, 8]             --
├─FusedMaxPoolConv2dBNReLU: 1-14         [8, 64, 8, 8]             36,934
│    └─MaxPool2d: 2-172                  [8, 64, 8, 8]             --
│    └─Empty: 2-173                      [8, 64, 8, 8]             --
│    └─Empty: 2-174                      [8, 64, 8, 8]             --
│    └─OutputShiftSqueeze: 2-175         --                        --
│    └─One: 2-176                        [1]                       --
│    └─OutputScale: 2-177                --                        --
│    └─Empty: 2-178                      [64, 64, 3, 3]            --
│    └─Empty: 2-179                      [64, 64, 3, 3]            --
│    └─Empty: 2-180                      [64]                      --
│    └─Empty: 2-181                      [64]                      --
│    └─BatchNorm2d: 2-182                [8, 64, 8, 8]             --
│    └─Scaler: 2-183                     [8, 64, 8, 8]             --
│    └─ReLU: 2-184                       [8, 64, 8, 8]             --
│    └─Empty: 2-185                      [8, 64, 8, 8]             --
│    └─Clamp: 2-186                      [8, 64, 8, 8]             --
├─FusedMaxPoolConv2dBNReLU: 1-15         [8, 64, 4, 4]             4,166
│    └─MaxPool2d: 2-187                  [8, 64, 4, 4]             --
│    └─Empty: 2-188                      [8, 64, 4, 4]             --
│    └─Empty: 2-189                      [8, 64, 4, 4]             --
│    └─OutputShiftSqueeze: 2-190         --                        --
│    └─One: 2-191                        [1]                       --
│    └─OutputScale: 2-192                --                        --
│    └─Empty: 2-193                      [64, 64, 1, 1]            --
│    └─Empty: 2-194                      [64, 64, 1, 1]            --
│    └─Empty: 2-195                      [64]                      --
│    └─Empty: 2-196                      [64]                      --
│    └─BatchNorm2d: 2-197                [8, 64, 4, 4]             --
│    └─Scaler: 2-198                     [8, 64, 4, 4]             --
│    └─ReLU: 2-199                       [8, 64, 4, 4]             --
│    └─Empty: 2-200                      [8, 64, 4, 4]             --
│    └─Clamp: 2-201                      [8, 64, 4, 4]             --
├─FusedConv2dBNReLU: 1-16                [8, 64, 4, 4]             4,166
│    └─OutputShiftSqueeze: 2-202         --                        --
│    └─One: 2-203                        [1]                       --
│    └─OutputScale: 2-204                --                        --
│    └─Empty: 2-205                      [64, 64, 1, 1]            --
│    └─Empty: 2-206                      [64, 64, 1, 1]            --
│    └─Empty: 2-207                      [64]                      --
│    └─Empty: 2-208                      [64]                      --
│    └─BatchNorm2d: 2-209                [8, 64, 4, 4]             --
│    └─Scaler: 2-210                     [8, 64, 4, 4]             --
│    └─ReLU: 2-211                       [8, 64, 4, 4]             --
│    └─Empty: 2-212                      [8, 64, 4, 4]             --
│    └─Clamp: 2-213                      [8, 64, 4, 4]             --
├─FusedMaxPoolConv2dBNReLU: 1-17         [8, 64, 4, 4]             36,934
│    └─MaxPool2d: 2-214                  [8, 64, 4, 4]             --
│    └─Empty: 2-215                      [8, 64, 4, 4]             --
│    └─Empty: 2-216                      [8, 64, 4, 4]             --
│    └─OutputShiftSqueeze: 2-217         --                        --
│    └─One: 2-218                        [1]                       --
│    └─OutputScale: 2-219                --                        --
│    └─Empty: 2-220                      [64, 64, 3, 3]            --
│    └─Empty: 2-221                      [64, 64, 3, 3]            --
│    └─Empty: 2-222                      [64]                      --
│    └─Empty: 2-223                      [64]                      --
│    └─BatchNorm2d: 2-224                [8, 64, 4, 4]             --
│    └─Scaler: 2-225                     [8, 64, 4, 4]             --
│    └─ReLU: 2-226                       [8, 64, 4, 4]             --
│    └─Empty: 2-227                      [8, 64, 4, 4]             --
│    └─Clamp: 2-228                      [8, 64, 4, 4]             --
├─FusedConv2dBNReLU: 1-18                [8, 64, 128, 128]         (recursive)
│    └─OutputShiftSqueeze: 2-229         --                        --
│    └─One: 2-230                        [1]                       --
│    └─OutputScale: 2-231                --                        --
│    └─Empty: 2-232                      [64, 12, 1, 1]            --
│    └─Empty: 2-233                      [64, 12, 1, 1]            --
│    └─Empty: 2-234                      [64]                      --
│    └─Empty: 2-235                      [64]                      --
│    └─BatchNorm2d: 2-236                [8, 64, 128, 128]         --
│    └─Scaler: 2-237                     [8, 64, 128, 128]         --
│    └─ReLU: 2-238                       [8, 64, 128, 128]         --
│    └─Empty: 2-239                      [8, 64, 128, 128]         --
│    └─Clamp: 2-240                      [8, 64, 128, 128]         --
├─FusedConv2dBNReLU: 1-19                [8, 64, 128, 128]         (recursive)
│    └─OutputShiftSqueeze: 2-241         --                        --
│    └─One: 2-242                        [1]                       --
│    └─OutputScale: 2-243                --                        --
│    └─Empty: 2-244                      [64, 64, 3, 3]            --
│    └─Empty: 2-245                      [64, 64, 3, 3]            --
│    └─Empty: 2-246                      [64]                      --
│    └─Empty: 2-247                      [64]                      --
│    └─BatchNorm2d: 2-248                [8, 64, 128, 128]         --
│    └─Scaler: 2-249                     [8, 64, 128, 128]         --
│    └─ReLU: 2-250                       [8, 64, 128, 128]         --
│    └─Empty: 2-251                      [8, 64, 128, 128]         --
│    └─Clamp: 2-252                      [8, 64, 128, 128]         --
├─FusedConv2dBNReLU: 1-20                [8, 64, 128, 128]         (recursive)
│    └─OutputShiftSqueeze: 2-253         --                        --
│    └─One: 2-254                        [1]                       --
│    └─OutputScale: 2-255                --                        --
│    └─Empty: 2-256                      [64, 64, 1, 1]            --
│    └─Empty: 2-257                      [64, 64, 1, 1]            --
│    └─Empty: 2-258                      [64]                      --
│    └─Empty: 2-259                      [64]                      --
│    └─BatchNorm2d: 2-260                [8, 64, 128, 128]         --
│    └─Scaler: 2-261                     [8, 64, 128, 128]         --
│    └─ReLU: 2-262                       [8, 64, 128, 128]         --
│    └─Empty: 2-263                      [8, 64, 128, 128]         --
│    └─Clamp: 2-264                      [8, 64, 128, 128]         --
├─FusedConv2dBNReLU: 1-21                [8, 64, 128, 128]         (recursive)
│    └─OutputShiftSqueeze: 2-265         --                        --
│    └─One: 2-266                        [1]                       --
│    └─OutputScale: 2-267                --                        --
│    └─Empty: 2-268                      [64, 64, 3, 3]            --
│    └─Empty: 2-269                      [64, 64, 3, 3]            --
│    └─Empty: 2-270                      [64]                      --
│    └─Empty: 2-271                      [64]                      --
│    └─BatchNorm2d: 2-272                [8, 64, 128, 128]         --
│    └─Scaler: 2-273                     [8, 64, 128, 128]         --
│    └─ReLU: 2-274                       [8, 64, 128, 128]         --
│    └─Empty: 2-275                      [8, 64, 128, 128]         --
│    └─Clamp: 2-276                      [8, 64, 128, 128]         --
├─FusedMaxPoolConv2dBNReLU: 1-22         [8, 64, 64, 64]           (recursive)
│    └─MaxPool2d: 2-277                  [8, 64, 64, 64]           --
│    └─Empty: 2-278                      [8, 64, 64, 64]           --
│    └─Empty: 2-279                      [8, 64, 64, 64]           --
│    └─OutputShiftSqueeze: 2-280         --                        --
│    └─One: 2-281                        [1]                       --
│    └─OutputScale: 2-282                --                        --
│    └─Empty: 2-283                      [64, 64, 3, 3]            --
│    └─Empty: 2-284                      [64, 64, 3, 3]            --
│    └─Empty: 2-285                      [64]                      --
│    └─Empty: 2-286                      [64]                      --
│    └─BatchNorm2d: 2-287                [8, 64, 64, 64]           --
│    └─Scaler: 2-288                     [8, 64, 64, 64]           --
│    └─ReLU: 2-289                       [8, 64, 64, 64]           --
│    └─Empty: 2-290                      [8, 64, 64, 64]           --
│    └─Clamp: 2-291                      [8, 64, 64, 64]           --
├─FusedConv2dBNReLU: 1-23                [8, 64, 64, 64]           (recursive)
│    └─OutputShiftSqueeze: 2-292         --                        --
│    └─One: 2-293                        [1]                       --
│    └─OutputScale: 2-294                --                        --
│    └─Empty: 2-295                      [64, 64, 3, 3]            --
│    └─Empty: 2-296                      [64, 64, 3, 3]            --
│    └─Empty: 2-297                      [64]                      --
│    └─Empty: 2-298                      [64]                      --
│    └─BatchNorm2d: 2-299                [8, 64, 64, 64]           --
│    └─Scaler: 2-300                     [8, 64, 64, 64]           --
│    └─ReLU: 2-301                       [8, 64, 64, 64]           --
│    └─Empty: 2-302                      [8, 64, 64, 64]           --
│    └─Clamp: 2-303                      [8, 64, 64, 64]           --
├─FusedMaxPoolConv2dBNReLU: 1-24         [8, 64, 32, 32]           (recursive)
│    └─MaxPool2d: 2-304                  [8, 64, 32, 32]           --
│    └─Empty: 2-305                      [8, 64, 32, 32]           --
│    └─Empty: 2-306                      [8, 64, 32, 32]           --
│    └─OutputShiftSqueeze: 2-307         --                        --
│    └─One: 2-308                        [1]                       --
│    └─OutputScale: 2-309                --                        --
│    └─Empty: 2-310                      [64, 64, 3, 3]            --
│    └─Empty: 2-311                      [64, 64, 3, 3]            --
│    └─Empty: 2-312                      [64]                      --
│    └─Empty: 2-313                      [64]                      --
│    └─BatchNorm2d: 2-314                [8, 64, 32, 32]           --
│    └─Scaler: 2-315                     [8, 64, 32, 32]           --
│    └─ReLU: 2-316                       [8, 64, 32, 32]           --
│    └─Empty: 2-317                      [8, 64, 32, 32]           --
│    └─Clamp: 2-318                      [8, 64, 32, 32]           --
├─FusedConv2dBNReLU: 1-25                [8, 64, 32, 32]           (recursive)
│    └─OutputShiftSqueeze: 2-319         --                        --
│    └─One: 2-320                        [1]                       --
│    └─OutputScale: 2-321                --                        --
│    └─Empty: 2-322                      [64, 64, 3, 3]            --
│    └─Empty: 2-323                      [64, 64, 3, 3]            --
│    └─Empty: 2-324                      [64]                      --
│    └─Empty: 2-325                      [64]                      --
│    └─BatchNorm2d: 2-326                [8, 64, 32, 32]           --
│    └─Scaler: 2-327                     [8, 64, 32, 32]           --
│    └─ReLU: 2-328                       [8, 64, 32, 32]           --
│    └─Empty: 2-329                      [8, 64, 32, 32]           --
│    └─Clamp: 2-330                      [8, 64, 32, 32]           --
├─FusedMaxPoolConv2dBNReLU: 1-26         [8, 64, 16, 16]           (recursive)
│    └─MaxPool2d: 2-331                  [8, 64, 16, 16]           --
│    └─Empty: 2-332                      [8, 64, 16, 16]           --
│    └─Empty: 2-333                      [8, 64, 16, 16]           --
│    └─OutputShiftSqueeze: 2-334         --                        --
│    └─One: 2-335                        [1]                       --
│    └─OutputScale: 2-336                --                        --
│    └─Empty: 2-337                      [64, 64, 3, 3]            --
│    └─Empty: 2-338                      [64, 64, 3, 3]            --
│    └─Empty: 2-339                      [64]                      --
│    └─Empty: 2-340                      [64]                      --
│    └─BatchNorm2d: 2-341                [8, 64, 16, 16]           --
│    └─Scaler: 2-342                     [8, 64, 16, 16]           --
│    └─ReLU: 2-343                       [8, 64, 16, 16]           --
│    └─Empty: 2-344                      [8, 64, 16, 16]           --
│    └─Clamp: 2-345                      [8, 64, 16, 16]           --
├─FusedConv2dBNReLU: 1-27                [8, 64, 16, 16]           (recursive)
│    └─OutputShiftSqueeze: 2-346         --                        --
│    └─One: 2-347                        [1]                       --
│    └─OutputScale: 2-348                --                        --
│    └─Empty: 2-349                      [64, 64, 1, 1]            --
│    └─Empty: 2-350                      [64, 64, 1, 1]            --
│    └─Empty: 2-351                      [64]                      --
│    └─Empty: 2-352                      [64]                      --
│    └─BatchNorm2d: 2-353                [8, 64, 16, 16]           --
│    └─Scaler: 2-354                     [8, 64, 16, 16]           --
│    └─ReLU: 2-355                       [8, 64, 16, 16]           --
│    └─Empty: 2-356                      [8, 64, 16, 16]           --
│    └─Clamp: 2-357                      [8, 64, 16, 16]           --
├─FusedMaxPoolConv2dBNReLU: 1-28         [8, 64, 16, 16]           (recursive)
│    └─MaxPool2d: 2-358                  [8, 64, 16, 16]           --
│    └─Empty: 2-359                      [8, 64, 16, 16]           --
│    └─Empty: 2-360                      [8, 64, 16, 16]           --
│    └─OutputShiftSqueeze: 2-361         --                        --
│    └─One: 2-362                        [1]                       --
│    └─OutputScale: 2-363                --                        --
│    └─Empty: 2-364                      [64, 64, 3, 3]            --
│    └─Empty: 2-365                      [64, 64, 3, 3]            --
│    └─Empty: 2-366                      [64]                      --
│    └─Empty: 2-367                      [64]                      --
│    └─BatchNorm2d: 2-368                [8, 64, 16, 16]           --
│    └─Scaler: 2-369                     [8, 64, 16, 16]           --
│    └─ReLU: 2-370                       [8, 64, 16, 16]           --
│    └─Empty: 2-371                      [8, 64, 16, 16]           --
│    └─Clamp: 2-372                      [8, 64, 16, 16]           --
├─FusedMaxPoolConv2dBNReLU: 1-29         [8, 64, 8, 8]             (recursive)
│    └─MaxPool2d: 2-373                  [8, 64, 8, 8]             --
│    └─Empty: 2-374                      [8, 64, 8, 8]             --
│    └─Empty: 2-375                      [8, 64, 8, 8]             --
│    └─OutputShiftSqueeze: 2-376         --                        --
│    └─One: 2-377                        [1]                       --
│    └─OutputScale: 2-378                --                        --
│    └─Empty: 2-379                      [64, 64, 3, 3]            --
│    └─Empty: 2-380                      [64, 64, 3, 3]            --
│    └─Empty: 2-381                      [64]                      --
│    └─Empty: 2-382                      [64]                      --
│    └─BatchNorm2d: 2-383                [8, 64, 8, 8]             --
│    └─Scaler: 2-384                     [8, 64, 8, 8]             --
│    └─ReLU: 2-385                       [8, 64, 8, 8]             --
│    └─Empty: 2-386                      [8, 64, 8, 8]             --
│    └─Clamp: 2-387                      [8, 64, 8, 8]             --
├─FusedConv2dBNReLU: 1-30                [8, 64, 8, 8]             (recursive)
│    └─OutputShiftSqueeze: 2-388         --                        --
│    └─One: 2-389                        [1]                       --
│    └─OutputScale: 2-390                --                        --
│    └─Empty: 2-391                      [64, 64, 1, 1]            --
│    └─Empty: 2-392                      [64, 64, 1, 1]            --
│    └─Empty: 2-393                      [64]                      --
│    └─Empty: 2-394                      [64]                      --
│    └─BatchNorm2d: 2-395                [8, 64, 8, 8]             --
│    └─Scaler: 2-396                     [8, 64, 8, 8]             --
│    └─ReLU: 2-397                       [8, 64, 8, 8]             --
│    └─Empty: 2-398                      [8, 64, 8, 8]             --
│    └─Clamp: 2-399                      [8, 64, 8, 8]             --
├─FusedMaxPoolConv2dBNReLU: 1-31         [8, 64, 8, 8]             (recursive)
│    └─MaxPool2d: 2-400                  [8, 64, 8, 8]             --
│    └─Empty: 2-401                      [8, 64, 8, 8]             --
│    └─Empty: 2-402                      [8, 64, 8, 8]             --
│    └─OutputShiftSqueeze: 2-403         --                        --
│    └─One: 2-404                        [1]                       --
│    └─OutputScale: 2-405                --                        --
│    └─Empty: 2-406                      [64, 64, 3, 3]            --
│    └─Empty: 2-407                      [64, 64, 3, 3]            --
│    └─Empty: 2-408                      [64]                      --
│    └─Empty: 2-409                      [64]                      --
│    └─BatchNorm2d: 2-410                [8, 64, 8, 8]             --
│    └─Scaler: 2-411                     [8, 64, 8, 8]             --
│    └─ReLU: 2-412                       [8, 64, 8, 8]             --
│    └─Empty: 2-413                      [8, 64, 8, 8]             --
│    └─Clamp: 2-414                      [8, 64, 8, 8]             --
├─FusedMaxPoolConv2dBNReLU: 1-32         [8, 64, 4, 4]             (recursive)
│    └─MaxPool2d: 2-415                  [8, 64, 4, 4]             --
│    └─Empty: 2-416                      [8, 64, 4, 4]             --
│    └─Empty: 2-417                      [8, 64, 4, 4]             --
│    └─OutputShiftSqueeze: 2-418         --                        --
│    └─One: 2-419                        [1]                       --
│    └─OutputScale: 2-420                --                        --
│    └─Empty: 2-421                      [64, 64, 1, 1]            --
│    └─Empty: 2-422                      [64, 64, 1, 1]            --
│    └─Empty: 2-423                      [64]                      --
│    └─Empty: 2-424                      [64]                      --
│    └─BatchNorm2d: 2-425                [8, 64, 4, 4]             --
│    └─Scaler: 2-426                     [8, 64, 4, 4]             --
│    └─ReLU: 2-427                       [8, 64, 4, 4]             --
│    └─Empty: 2-428                      [8, 64, 4, 4]             --
│    └─Clamp: 2-429                      [8, 64, 4, 4]             --
├─FusedConv2dBNReLU: 1-33                [8, 64, 4, 4]             (recursive)
│    └─OutputShiftSqueeze: 2-430         --                        --
│    └─One: 2-431                        [1]                       --
│    └─OutputScale: 2-432                --                        --
│    └─Empty: 2-433                      [64, 64, 1, 1]            --
│    └─Empty: 2-434                      [64, 64, 1, 1]            --
│    └─Empty: 2-435                      [64]                      --
│    └─Empty: 2-436                      [64]                      --
│    └─BatchNorm2d: 2-437                [8, 64, 4, 4]             --
│    └─Scaler: 2-438                     [8, 64, 4, 4]             --
│    └─ReLU: 2-439                       [8, 64, 4, 4]             --
│    └─Empty: 2-440                      [8, 64, 4, 4]             --
│    └─Clamp: 2-441                      [8, 64, 4, 4]             --
├─FusedMaxPoolConv2dBNReLU: 1-34         [8, 64, 4, 4]             (recursive)
│    └─MaxPool2d: 2-442                  [8, 64, 4, 4]             --
│    └─Empty: 2-443                      [8, 64, 4, 4]             --
│    └─Empty: 2-444                      [8, 64, 4, 4]             --
│    └─OutputShiftSqueeze: 2-445         --                        --
│    └─One: 2-446                        [1]                       --
│    └─OutputScale: 2-447                --                        --
│    └─Empty: 2-448                      [64, 64, 3, 3]            --
│    └─Empty: 2-449                      [64, 64, 3, 3]            --
│    └─Empty: 2-450                      [64]                      --
│    └─Empty: 2-451                      [64]                      --
│    └─BatchNorm2d: 2-452                [8, 64, 4, 4]             --
│    └─Scaler: 2-453                     [8, 64, 4, 4]             --
│    └─ReLU: 2-454                       [8, 64, 4, 4]             --
│    └─Empty: 2-455                      [8, 64, 4, 4]             --
│    └─Clamp: 2-456                      [8, 64, 4, 4]             --
├─FusedConv2dBNReLU: 1-35                [8, 64, 128, 128]         (recursive)
│    └─OutputShiftSqueeze: 2-457         --                        --
│    └─One: 2-458                        [1]                       --
│    └─OutputScale: 2-459                --                        --
│    └─Empty: 2-460                      [64, 12, 1, 1]            --
│    └─Empty: 2-461                      [64, 12, 1, 1]            --
│    └─Empty: 2-462                      [64]                      --
│    └─Empty: 2-463                      [64]                      --
│    └─BatchNorm2d: 2-464                [8, 64, 128, 128]         --
│    └─Scaler: 2-465                     [8, 64, 128, 128]         --
│    └─ReLU: 2-466                       [8, 64, 128, 128]         --
│    └─Empty: 2-467                      [8, 64, 128, 128]         --
│    └─Clamp: 2-468                      [8, 64, 128, 128]         --
├─FusedConv2dBNReLU: 1-36                [8, 64, 128, 128]         (recursive)
│    └─OutputShiftSqueeze: 2-469         --                        --
│    └─One: 2-470                        [1]                       --
│    └─OutputScale: 2-471                --                        --
│    └─Empty: 2-472                      [64, 64, 3, 3]            --
│    └─Empty: 2-473                      [64, 64, 3, 3]            --
│    └─Empty: 2-474                      [64]                      --
│    └─Empty: 2-475                      [64]                      --
│    └─BatchNorm2d: 2-476                [8, 64, 128, 128]         --
│    └─Scaler: 2-477                     [8, 64, 128, 128]         --
│    └─ReLU: 2-478                       [8, 64, 128, 128]         --
│    └─Empty: 2-479                      [8, 64, 128, 128]         --
│    └─Clamp: 2-480                      [8, 64, 128, 128]         --
├─FusedConv2dBNReLU: 1-37                [8, 64, 128, 128]         (recursive)
│    └─OutputShiftSqueeze: 2-481         --                        --
│    └─One: 2-482                        [1]                       --
│    └─OutputScale: 2-483                --                        --
│    └─Empty: 2-484                      [64, 64, 1, 1]            --
│    └─Empty: 2-485                      [64, 64, 1, 1]            --
│    └─Empty: 2-486                      [64]                      --
│    └─Empty: 2-487                      [64]                      --
│    └─BatchNorm2d: 2-488                [8, 64, 128, 128]         --
│    └─Scaler: 2-489                     [8, 64, 128, 128]         --
│    └─ReLU: 2-490                       [8, 64, 128, 128]         --
│    └─Empty: 2-491                      [8, 64, 128, 128]         --
│    └─Clamp: 2-492                      [8, 64, 128, 128]         --
├─FusedConv2dBNReLU: 1-38                [8, 64, 128, 128]         (recursive)
│    └─OutputShiftSqueeze: 2-493         --                        --
│    └─One: 2-494                        [1]                       --
│    └─OutputScale: 2-495                --                        --
│    └─Empty: 2-496                      [64, 64, 3, 3]            --
│    └─Empty: 2-497                      [64, 64, 3, 3]            --
│    └─Empty: 2-498                      [64]                      --
│    └─Empty: 2-499                      [64]                      --
│    └─BatchNorm2d: 2-500                [8, 64, 128, 128]         --
│    └─Scaler: 2-501                     [8, 64, 128, 128]         --
│    └─ReLU: 2-502                       [8, 64, 128, 128]         --
│    └─Empty: 2-503                      [8, 64, 128, 128]         --
│    └─Clamp: 2-504                      [8, 64, 128, 128]         --
├─FusedMaxPoolConv2dBNReLU: 1-39         [8, 64, 64, 64]           (recursive)
│    └─MaxPool2d: 2-505                  [8, 64, 64, 64]           --
│    └─Empty: 2-506                      [8, 64, 64, 64]           --
│    └─Empty: 2-507                      [8, 64, 64, 64]           --
│    └─OutputShiftSqueeze: 2-508         --                        --
│    └─One: 2-509                        [1]                       --
│    └─OutputScale: 2-510                --                        --
│    └─Empty: 2-511                      [64, 64, 3, 3]            --
│    └─Empty: 2-512                      [64, 64, 3, 3]            --
│    └─Empty: 2-513                      [64]                      --
│    └─Empty: 2-514                      [64]                      --
│    └─BatchNorm2d: 2-515                [8, 64, 64, 64]           --
│    └─Scaler: 2-516                     [8, 64, 64, 64]           --
│    └─ReLU: 2-517                       [8, 64, 64, 64]           --
│    └─Empty: 2-518                      [8, 64, 64, 64]           --
│    └─Clamp: 2-519                      [8, 64, 64, 64]           --
├─FusedConv2dBNReLU: 1-40                [8, 64, 64, 64]           (recursive)
│    └─OutputShiftSqueeze: 2-520         --                        --
│    └─One: 2-521                        [1]                       --
│    └─OutputScale: 2-522                --                        --
│    └─Empty: 2-523                      [64, 64, 3, 3]            --
│    └─Empty: 2-524                      [64, 64, 3, 3]            --
│    └─Empty: 2-525                      [64]                      --
│    └─Empty: 2-526                      [64]                      --
│    └─BatchNorm2d: 2-527                [8, 64, 64, 64]           --
│    └─Scaler: 2-528                     [8, 64, 64, 64]           --
│    └─ReLU: 2-529                       [8, 64, 64, 64]           --
│    └─Empty: 2-530                      [8, 64, 64, 64]           --
│    └─Clamp: 2-531                      [8, 64, 64, 64]           --
├─FusedMaxPoolConv2dBNReLU: 1-41         [8, 64, 32, 32]           (recursive)
│    └─MaxPool2d: 2-532                  [8, 64, 32, 32]           --
│    └─Empty: 2-533                      [8, 64, 32, 32]           --
│    └─Empty: 2-534                      [8, 64, 32, 32]           --
│    └─OutputShiftSqueeze: 2-535         --                        --
│    └─One: 2-536                        [1]                       --
│    └─OutputScale: 2-537                --                        --
│    └─Empty: 2-538                      [64, 64, 3, 3]            --
│    └─Empty: 2-539                      [64, 64, 3, 3]            --
│    └─Empty: 2-540                      [64]                      --
│    └─Empty: 2-541                      [64]                      --
│    └─BatchNorm2d: 2-542                [8, 64, 32, 32]           --
│    └─Scaler: 2-543                     [8, 64, 32, 32]           --
│    └─ReLU: 2-544                       [8, 64, 32, 32]           --
│    └─Empty: 2-545                      [8, 64, 32, 32]           --
│    └─Clamp: 2-546                      [8, 64, 32, 32]           --
├─FusedConv2dBNReLU: 1-42                [8, 64, 32, 32]           (recursive)
│    └─OutputShiftSqueeze: 2-547         --                        --
│    └─One: 2-548                        [1]                       --
│    └─OutputScale: 2-549                --                        --
│    └─Empty: 2-550                      [64, 64, 3, 3]            --
│    └─Empty: 2-551                      [64, 64, 3, 3]            --
│    └─Empty: 2-552                      [64]                      --
│    └─Empty: 2-553                      [64]                      --
│    └─BatchNorm2d: 2-554                [8, 64, 32, 32]           --
│    └─Scaler: 2-555                     [8, 64, 32, 32]           --
│    └─ReLU: 2-556                       [8, 64, 32, 32]           --
│    └─Empty: 2-557                      [8, 64, 32, 32]           --
│    └─Clamp: 2-558                      [8, 64, 32, 32]           --
├─FusedMaxPoolConv2dBNReLU: 1-43         [8, 64, 16, 16]           (recursive)
│    └─MaxPool2d: 2-559                  [8, 64, 16, 16]           --
│    └─Empty: 2-560                      [8, 64, 16, 16]           --
│    └─Empty: 2-561                      [8, 64, 16, 16]           --
│    └─OutputShiftSqueeze: 2-562         --                        --
│    └─One: 2-563                        [1]                       --
│    └─OutputScale: 2-564                --                        --
│    └─Empty: 2-565                      [64, 64, 3, 3]            --
│    └─Empty: 2-566                      [64, 64, 3, 3]            --
│    └─Empty: 2-567                      [64]                      --
│    └─Empty: 2-568                      [64]                      --
│    └─BatchNorm2d: 2-569                [8, 64, 16, 16]           --
│    └─Scaler: 2-570                     [8, 64, 16, 16]           --
│    └─ReLU: 2-571                       [8, 64, 16, 16]           --
│    └─Empty: 2-572                      [8, 64, 16, 16]           --
│    └─Clamp: 2-573                      [8, 64, 16, 16]           --
├─FusedConv2dBNReLU: 1-44                [8, 64, 16, 16]           (recursive)
│    └─OutputShiftSqueeze: 2-574         --                        --
│    └─One: 2-575                        [1]                       --
│    └─OutputScale: 2-576                --                        --
│    └─Empty: 2-577                      [64, 64, 1, 1]            --
│    └─Empty: 2-578                      [64, 64, 1, 1]            --
│    └─Empty: 2-579                      [64]                      --
│    └─Empty: 2-580                      [64]                      --
│    └─BatchNorm2d: 2-581                [8, 64, 16, 16]           --
│    └─Scaler: 2-582                     [8, 64, 16, 16]           --
│    └─ReLU: 2-583                       [8, 64, 16, 16]           --
│    └─Empty: 2-584                      [8, 64, 16, 16]           --
│    └─Clamp: 2-585                      [8, 64, 16, 16]           --
├─FusedMaxPoolConv2dBNReLU: 1-45         [8, 64, 16, 16]           (recursive)
│    └─MaxPool2d: 2-586                  [8, 64, 16, 16]           --
│    └─Empty: 2-587                      [8, 64, 16, 16]           --
│    └─Empty: 2-588                      [8, 64, 16, 16]           --
│    └─OutputShiftSqueeze: 2-589         --                        --
│    └─One: 2-590                        [1]                       --
│    └─OutputScale: 2-591                --                        --
│    └─Empty: 2-592                      [64, 64, 3, 3]            --
│    └─Empty: 2-593                      [64, 64, 3, 3]            --
│    └─Empty: 2-594                      [64]                      --
│    └─Empty: 2-595                      [64]                      --
│    └─BatchNorm2d: 2-596                [8, 64, 16, 16]           --
│    └─Scaler: 2-597                     [8, 64, 16, 16]           --
│    └─ReLU: 2-598                       [8, 64, 16, 16]           --
│    └─Empty: 2-599                      [8, 64, 16, 16]           --
│    └─Clamp: 2-600                      [8, 64, 16, 16]           --
├─FusedMaxPoolConv2dBNReLU: 1-46         [8, 64, 8, 8]             (recursive)
│    └─MaxPool2d: 2-601                  [8, 64, 8, 8]             --
│    └─Empty: 2-602                      [8, 64, 8, 8]             --
│    └─Empty: 2-603                      [8, 64, 8, 8]             --
│    └─OutputShiftSqueeze: 2-604         --                        --
│    └─One: 2-605                        [1]                       --
│    └─OutputScale: 2-606                --                        --
│    └─Empty: 2-607                      [64, 64, 3, 3]            --
│    └─Empty: 2-608                      [64, 64, 3, 3]            --
│    └─Empty: 2-609                      [64]                      --
│    └─Empty: 2-610                      [64]                      --
│    └─BatchNorm2d: 2-611                [8, 64, 8, 8]             --
│    └─Scaler: 2-612                     [8, 64, 8, 8]             --
│    └─ReLU: 2-613                       [8, 64, 8, 8]             --
│    └─Empty: 2-614                      [8, 64, 8, 8]             --
│    └─Clamp: 2-615                      [8, 64, 8, 8]             --
├─FusedConv2dBNReLU: 1-47                [8, 64, 8, 8]             (recursive)
│    └─OutputShiftSqueeze: 2-616         --                        --
│    └─One: 2-617                        [1]                       --
│    └─OutputScale: 2-618                --                        --
│    └─Empty: 2-619                      [64, 64, 1, 1]            --
│    └─Empty: 2-620                      [64, 64, 1, 1]            --
│    └─Empty: 2-621                      [64]                      --
│    └─Empty: 2-622                      [64]                      --
│    └─BatchNorm2d: 2-623                [8, 64, 8, 8]             --
│    └─Scaler: 2-624                     [8, 64, 8, 8]             --
│    └─ReLU: 2-625                       [8, 64, 8, 8]             --
│    └─Empty: 2-626                      [8, 64, 8, 8]             --
│    └─Clamp: 2-627                      [8, 64, 8, 8]             --
├─FusedMaxPoolConv2dBNReLU: 1-48         [8, 64, 8, 8]             (recursive)
│    └─MaxPool2d: 2-628                  [8, 64, 8, 8]             --
│    └─Empty: 2-629                      [8, 64, 8, 8]             --
│    └─Empty: 2-630                      [8, 64, 8, 8]             --
│    └─OutputShiftSqueeze: 2-631         --                        --
│    └─One: 2-632                        [1]                       --
│    └─OutputScale: 2-633                --                        --
│    └─Empty: 2-634                      [64, 64, 3, 3]            --
│    └─Empty: 2-635                      [64, 64, 3, 3]            --
│    └─Empty: 2-636                      [64]                      --
│    └─Empty: 2-637                      [64]                      --
│    └─BatchNorm2d: 2-638                [8, 64, 8, 8]             --
│    └─Scaler: 2-639                     [8, 64, 8, 8]             --
│    └─ReLU: 2-640                       [8, 64, 8, 8]             --
│    └─Empty: 2-641                      [8, 64, 8, 8]             --
│    └─Clamp: 2-642                      [8, 64, 8, 8]             --
├─FusedMaxPoolConv2dBNReLU: 1-49         [8, 64, 4, 4]             (recursive)
│    └─MaxPool2d: 2-643                  [8, 64, 4, 4]             --
│    └─Empty: 2-644                      [8, 64, 4, 4]             --
│    └─Empty: 2-645                      [8, 64, 4, 4]             --
│    └─OutputShiftSqueeze: 2-646         --                        --
│    └─One: 2-647                        [1]                       --
│    └─OutputScale: 2-648                --                        --
│    └─Empty: 2-649                      [64, 64, 1, 1]            --
│    └─Empty: 2-650                      [64, 64, 1, 1]            --
│    └─Empty: 2-651                      [64]                      --
│    └─Empty: 2-652                      [64]                      --
│    └─BatchNorm2d: 2-653                [8, 64, 4, 4]             --
│    └─Scaler: 2-654                     [8, 64, 4, 4]             --
│    └─ReLU: 2-655                       [8, 64, 4, 4]             --
│    └─Empty: 2-656                      [8, 64, 4, 4]             --
│    └─Clamp: 2-657                      [8, 64, 4, 4]             --
├─FusedConv2dBNReLU: 1-50                [8, 64, 4, 4]             (recursive)
│    └─OutputShiftSqueeze: 2-658         --                        --
│    └─One: 2-659                        [1]                       --
│    └─OutputScale: 2-660                --                        --
│    └─Empty: 2-661                      [64, 64, 1, 1]            --
│    └─Empty: 2-662                      [64, 64, 1, 1]            --
│    └─Empty: 2-663                      [64]                      --
│    └─Empty: 2-664                      [64]                      --
│    └─BatchNorm2d: 2-665                [8, 64, 4, 4]             --
│    └─Scaler: 2-666                     [8, 64, 4, 4]             --
│    └─ReLU: 2-667                       [8, 64, 4, 4]             --
│    └─Empty: 2-668                      [8, 64, 4, 4]             --
│    └─Clamp: 2-669                      [8, 64, 4, 4]             --
├─FusedMaxPoolConv2dBNReLU: 1-51         [8, 64, 4, 4]             (recursive)
│    └─MaxPool2d: 2-670                  [8, 64, 4, 4]             --
│    └─Empty: 2-671                      [8, 64, 4, 4]             --
│    └─Empty: 2-672                      [8, 64, 4, 4]             --
│    └─OutputShiftSqueeze: 2-673         --                        --
│    └─One: 2-674                        [1]                       --
│    └─OutputScale: 2-675                --                        --
│    └─Empty: 2-676                      [64, 64, 3, 3]            --
│    └─Empty: 2-677                      [64, 64, 3, 3]            --
│    └─Empty: 2-678                      [64]                      --
│    └─Empty: 2-679                      [64]                      --
│    └─BatchNorm2d: 2-680                [8, 64, 4, 4]             --
│    └─Scaler: 2-681                     [8, 64, 4, 4]             --
│    └─ReLU: 2-682                       [8, 64, 4, 4]             --
│    └─Empty: 2-683                      [8, 64, 4, 4]             --
│    └─Clamp: 2-684                      [8, 64, 4, 4]             --
├─FusedConv2dBNReLU: 1-52                [8, 64, 128, 128]         (recursive)
│    └─OutputShiftSqueeze: 2-685         --                        --
│    └─One: 2-686                        [1]                       --
│    └─OutputScale: 2-687                --                        --
│    └─Empty: 2-688                      [64, 12, 1, 1]            --
│    └─Empty: 2-689                      [64, 12, 1, 1]            --
│    └─Empty: 2-690                      [64]                      --
│    └─Empty: 2-691                      [64]                      --
│    └─BatchNorm2d: 2-692                [8, 64, 128, 128]         --
│    └─Scaler: 2-693                     [8, 64, 128, 128]         --
│    └─ReLU: 2-694                       [8, 64, 128, 128]         --
│    └─Empty: 2-695                      [8, 64, 128, 128]         --
│    └─Clamp: 2-696                      [8, 64, 128, 128]         --
├─FusedConv2dBNReLU: 1-53                [8, 64, 128, 128]         (recursive)
│    └─OutputShiftSqueeze: 2-697         --                        --
│    └─One: 2-698                        [1]                       --
│    └─OutputScale: 2-699                --                        --
│    └─Empty: 2-700                      [64, 64, 3, 3]            --
│    └─Empty: 2-701                      [64, 64, 3, 3]            --
│    └─Empty: 2-702                      [64]                      --
│    └─Empty: 2-703                      [64]                      --
│    └─BatchNorm2d: 2-704                [8, 64, 128, 128]         --
│    └─Scaler: 2-705                     [8, 64, 128, 128]         --
│    └─ReLU: 2-706                       [8, 64, 128, 128]         --
│    └─Empty: 2-707                      [8, 64, 128, 128]         --
│    └─Clamp: 2-708                      [8, 64, 128, 128]         --
├─FusedConv2dBNReLU: 1-54                [8, 64, 128, 128]         (recursive)
│    └─OutputShiftSqueeze: 2-709         --                        --
│    └─One: 2-710                        [1]                       --
│    └─OutputScale: 2-711                --                        --
│    └─Empty: 2-712                      [64, 64, 1, 1]            --
│    └─Empty: 2-713                      [64, 64, 1, 1]            --
│    └─Empty: 2-714                      [64]                      --
│    └─Empty: 2-715                      [64]                      --
│    └─BatchNorm2d: 2-716                [8, 64, 128, 128]         --
│    └─Scaler: 2-717                     [8, 64, 128, 128]         --
│    └─ReLU: 2-718                       [8, 64, 128, 128]         --
│    └─Empty: 2-719                      [8, 64, 128, 128]         --
│    └─Clamp: 2-720                      [8, 64, 128, 128]         --
├─FusedConv2dBNReLU: 1-55                [8, 64, 128, 128]         (recursive)
│    └─OutputShiftSqueeze: 2-721         --                        --
│    └─One: 2-722                        [1]                       --
│    └─OutputScale: 2-723                --                        --
│    └─Empty: 2-724                      [64, 64, 3, 3]            --
│    └─Empty: 2-725                      [64, 64, 3, 3]            --
│    └─Empty: 2-726                      [64]                      --
│    └─Empty: 2-727                      [64]                      --
│    └─BatchNorm2d: 2-728                [8, 64, 128, 128]         --
│    └─Scaler: 2-729                     [8, 64, 128, 128]         --
│    └─ReLU: 2-730                       [8, 64, 128, 128]         --
│    └─Empty: 2-731                      [8, 64, 128, 128]         --
│    └─Clamp: 2-732                      [8, 64, 128, 128]         --
├─FusedMaxPoolConv2dBNReLU: 1-56         [8, 64, 64, 64]           (recursive)
│    └─MaxPool2d: 2-733                  [8, 64, 64, 64]           --
│    └─Empty: 2-734                      [8, 64, 64, 64]           --
│    └─Empty: 2-735                      [8, 64, 64, 64]           --
│    └─OutputShiftSqueeze: 2-736         --                        --
│    └─One: 2-737                        [1]                       --
│    └─OutputScale: 2-738                --                        --
│    └─Empty: 2-739                      [64, 64, 3, 3]            --
│    └─Empty: 2-740                      [64, 64, 3, 3]            --
│    └─Empty: 2-741                      [64]                      --
│    └─Empty: 2-742                      [64]                      --
│    └─BatchNorm2d: 2-743                [8, 64, 64, 64]           --
│    └─Scaler: 2-744                     [8, 64, 64, 64]           --
│    └─ReLU: 2-745                       [8, 64, 64, 64]           --
│    └─Empty: 2-746                      [8, 64, 64, 64]           --
│    └─Clamp: 2-747                      [8, 64, 64, 64]           --
├─FusedConv2dBNReLU: 1-57                [8, 64, 64, 64]           (recursive)
│    └─OutputShiftSqueeze: 2-748         --                        --
│    └─One: 2-749                        [1]                       --
│    └─OutputScale: 2-750                --                        --
│    └─Empty: 2-751                      [64, 64, 3, 3]            --
│    └─Empty: 2-752                      [64, 64, 3, 3]            --
│    └─Empty: 2-753                      [64]                      --
│    └─Empty: 2-754                      [64]                      --
│    └─BatchNorm2d: 2-755                [8, 64, 64, 64]           --
│    └─Scaler: 2-756                     [8, 64, 64, 64]           --
│    └─ReLU: 2-757                       [8, 64, 64, 64]           --
│    └─Empty: 2-758                      [8, 64, 64, 64]           --
│    └─Clamp: 2-759                      [8, 64, 64, 64]           --
├─FusedMaxPoolConv2dBNReLU: 1-58         [8, 64, 32, 32]           (recursive)
│    └─MaxPool2d: 2-760                  [8, 64, 32, 32]           --
│    └─Empty: 2-761                      [8, 64, 32, 32]           --
│    └─Empty: 2-762                      [8, 64, 32, 32]           --
│    └─OutputShiftSqueeze: 2-763         --                        --
│    └─One: 2-764                        [1]                       --
│    └─OutputScale: 2-765                --                        --
│    └─Empty: 2-766                      [64, 64, 3, 3]            --
│    └─Empty: 2-767                      [64, 64, 3, 3]            --
│    └─Empty: 2-768                      [64]                      --
│    └─Empty: 2-769                      [64]                      --
│    └─BatchNorm2d: 2-770                [8, 64, 32, 32]           --
│    └─Scaler: 2-771                     [8, 64, 32, 32]           --
│    └─ReLU: 2-772                       [8, 64, 32, 32]           --
│    └─Empty: 2-773                      [8, 64, 32, 32]           --
│    └─Clamp: 2-774                      [8, 64, 32, 32]           --
├─FusedConv2dBNReLU: 1-59                [8, 64, 32, 32]           (recursive)
│    └─OutputShiftSqueeze: 2-775         --                        --
│    └─One: 2-776                        [1]                       --
│    └─OutputScale: 2-777                --                        --
│    └─Empty: 2-778                      [64, 64, 3, 3]            --
│    └─Empty: 2-779                      [64, 64, 3, 3]            --
│    └─Empty: 2-780                      [64]                      --
│    └─Empty: 2-781                      [64]                      --
│    └─BatchNorm2d: 2-782                [8, 64, 32, 32]           --
│    └─Scaler: 2-783                     [8, 64, 32, 32]           --
│    └─ReLU: 2-784                       [8, 64, 32, 32]           --
│    └─Empty: 2-785                      [8, 64, 32, 32]           --
│    └─Clamp: 2-786                      [8, 64, 32, 32]           --
├─FusedMaxPoolConv2dBNReLU: 1-60         [8, 64, 16, 16]           (recursive)
│    └─MaxPool2d: 2-787                  [8, 64, 16, 16]           --
│    └─Empty: 2-788                      [8, 64, 16, 16]           --
│    └─Empty: 2-789                      [8, 64, 16, 16]           --
│    └─OutputShiftSqueeze: 2-790         --                        --
│    └─One: 2-791                        [1]                       --
│    └─OutputScale: 2-792                --                        --
│    └─Empty: 2-793                      [64, 64, 3, 3]            --
│    └─Empty: 2-794                      [64, 64, 3, 3]            --
│    └─Empty: 2-795                      [64]                      --
│    └─Empty: 2-796                      [64]                      --
│    └─BatchNorm2d: 2-797                [8, 64, 16, 16]           --
│    └─Scaler: 2-798                     [8, 64, 16, 16]           --
│    └─ReLU: 2-799                       [8, 64, 16, 16]           --
│    └─Empty: 2-800                      [8, 64, 16, 16]           --
│    └─Clamp: 2-801                      [8, 64, 16, 16]           --
├─FusedConv2dBNReLU: 1-61                [8, 64, 16, 16]           (recursive)
│    └─OutputShiftSqueeze: 2-802         --                        --
│    └─One: 2-803                        [1]                       --
│    └─OutputScale: 2-804                --                        --
│    └─Empty: 2-805                      [64, 64, 1, 1]            --
│    └─Empty: 2-806                      [64, 64, 1, 1]            --
│    └─Empty: 2-807                      [64]                      --
│    └─Empty: 2-808                      [64]                      --
│    └─BatchNorm2d: 2-809                [8, 64, 16, 16]           --
│    └─Scaler: 2-810                     [8, 64, 16, 16]           --
│    └─ReLU: 2-811                       [8, 64, 16, 16]           --
│    └─Empty: 2-812                      [8, 64, 16, 16]           --
│    └─Clamp: 2-813                      [8, 64, 16, 16]           --
├─FusedMaxPoolConv2dBNReLU: 1-62         [8, 64, 16, 16]           (recursive)
│    └─MaxPool2d: 2-814                  [8, 64, 16, 16]           --
│    └─Empty: 2-815                      [8, 64, 16, 16]           --
│    └─Empty: 2-816                      [8, 64, 16, 16]           --
│    └─OutputShiftSqueeze: 2-817         --                        --
│    └─One: 2-818                        [1]                       --
│    └─OutputScale: 2-819                --                        --
│    └─Empty: 2-820                      [64, 64, 3, 3]            --
│    └─Empty: 2-821                      [64, 64, 3, 3]            --
│    └─Empty: 2-822                      [64]                      --
│    └─Empty: 2-823                      [64]                      --
│    └─BatchNorm2d: 2-824                [8, 64, 16, 16]           --
│    └─Scaler: 2-825                     [8, 64, 16, 16]           --
│    └─ReLU: 2-826                       [8, 64, 16, 16]           --
│    └─Empty: 2-827                      [8, 64, 16, 16]           --
│    └─Clamp: 2-828                      [8, 64, 16, 16]           --
├─FusedMaxPoolConv2dBNReLU: 1-63         [8, 64, 8, 8]             (recursive)
│    └─MaxPool2d: 2-829                  [8, 64, 8, 8]             --
│    └─Empty: 2-830                      [8, 64, 8, 8]             --
│    └─Empty: 2-831                      [8, 64, 8, 8]             --
│    └─OutputShiftSqueeze: 2-832         --                        --
│    └─One: 2-833                        [1]                       --
│    └─OutputScale: 2-834                --                        --
│    └─Empty: 2-835                      [64, 64, 3, 3]            --
│    └─Empty: 2-836                      [64, 64, 3, 3]            --
│    └─Empty: 2-837                      [64]                      --
│    └─Empty: 2-838                      [64]                      --
│    └─BatchNorm2d: 2-839                [8, 64, 8, 8]             --
│    └─Scaler: 2-840                     [8, 64, 8, 8]             --
│    └─ReLU: 2-841                       [8, 64, 8, 8]             --
│    └─Empty: 2-842                      [8, 64, 8, 8]             --
│    └─Clamp: 2-843                      [8, 64, 8, 8]             --
├─FusedConv2dBNReLU: 1-64                [8, 64, 8, 8]             (recursive)
│    └─OutputShiftSqueeze: 2-844         --                        --
│    └─One: 2-845                        [1]                       --
│    └─OutputScale: 2-846                --                        --
│    └─Empty: 2-847                      [64, 64, 1, 1]            --
│    └─Empty: 2-848                      [64, 64, 1, 1]            --
│    └─Empty: 2-849                      [64]                      --
│    └─Empty: 2-850                      [64]                      --
│    └─BatchNorm2d: 2-851                [8, 64, 8, 8]             --
│    └─Scaler: 2-852                     [8, 64, 8, 8]             --
│    └─ReLU: 2-853                       [8, 64, 8, 8]             --
│    └─Empty: 2-854                      [8, 64, 8, 8]             --
│    └─Clamp: 2-855                      [8, 64, 8, 8]             --
├─FusedMaxPoolConv2dBNReLU: 1-65         [8, 64, 8, 8]             (recursive)
│    └─MaxPool2d: 2-856                  [8, 64, 8, 8]             --
│    └─Empty: 2-857                      [8, 64, 8, 8]             --
│    └─Empty: 2-858                      [8, 64, 8, 8]             --
│    └─OutputShiftSqueeze: 2-859         --                        --
│    └─One: 2-860                        [1]                       --
│    └─OutputScale: 2-861                --                        --
│    └─Empty: 2-862                      [64, 64, 3, 3]            --
│    └─Empty: 2-863                      [64, 64, 3, 3]            --
│    └─Empty: 2-864                      [64]                      --
│    └─Empty: 2-865                      [64]                      --
│    └─BatchNorm2d: 2-866                [8, 64, 8, 8]             --
│    └─Scaler: 2-867                     [8, 64, 8, 8]             --
│    └─ReLU: 2-868                       [8, 64, 8, 8]             --
│    └─Empty: 2-869                      [8, 64, 8, 8]             --
│    └─Clamp: 2-870                      [8, 64, 8, 8]             --
├─FusedMaxPoolConv2dBNReLU: 1-66         [8, 64, 4, 4]             (recursive)
│    └─MaxPool2d: 2-871                  [8, 64, 4, 4]             --
│    └─Empty: 2-872                      [8, 64, 4, 4]             --
│    └─Empty: 2-873                      [8, 64, 4, 4]             --
│    └─OutputShiftSqueeze: 2-874         --                        --
│    └─One: 2-875                        [1]                       --
│    └─OutputScale: 2-876                --                        --
│    └─Empty: 2-877                      [64, 64, 1, 1]            --
│    └─Empty: 2-878                      [64, 64, 1, 1]            --
│    └─Empty: 2-879                      [64]                      --
│    └─Empty: 2-880                      [64]                      --
│    └─BatchNorm2d: 2-881                [8, 64, 4, 4]             --
│    └─Scaler: 2-882                     [8, 64, 4, 4]             --
│    └─ReLU: 2-883                       [8, 64, 4, 4]             --
│    └─Empty: 2-884                      [8, 64, 4, 4]             --
│    └─Clamp: 2-885                      [8, 64, 4, 4]             --
├─FusedConv2dBNReLU: 1-67                [8, 64, 4, 4]             (recursive)
│    └─OutputShiftSqueeze: 2-886         --                        --
│    └─One: 2-887                        [1]                       --
│    └─OutputScale: 2-888                --                        --
│    └─Empty: 2-889                      [64, 64, 1, 1]            --
│    └─Empty: 2-890                      [64, 64, 1, 1]            --
│    └─Empty: 2-891                      [64]                      --
│    └─Empty: 2-892                      [64]                      --
│    └─BatchNorm2d: 2-893                [8, 64, 4, 4]             --
│    └─Scaler: 2-894                     [8, 64, 4, 4]             --
│    └─ReLU: 2-895                       [8, 64, 4, 4]             --
│    └─Empty: 2-896                      [8, 64, 4, 4]             --
│    └─Clamp: 2-897                      [8, 64, 4, 4]             --
├─FusedMaxPoolConv2dBNReLU: 1-68         [8, 64, 4, 4]             (recursive)
│    └─MaxPool2d: 2-898                  [8, 64, 4, 4]             --
│    └─Empty: 2-899                      [8, 64, 4, 4]             --
│    └─Empty: 2-900                      [8, 64, 4, 4]             --
│    └─OutputShiftSqueeze: 2-901         --                        --
│    └─One: 2-902                        [1]                       --
│    └─OutputScale: 2-903                --                        --
│    └─Empty: 2-904                      [64, 64, 3, 3]            --
│    └─Empty: 2-905                      [64, 64, 3, 3]            --
│    └─Empty: 2-906                      [64]                      --
│    └─Empty: 2-907                      [64]                      --
│    └─BatchNorm2d: 2-908                [8, 64, 4, 4]             --
│    └─Scaler: 2-909                     [8, 64, 4, 4]             --
│    └─ReLU: 2-910                       [8, 64, 4, 4]             --
│    └─Empty: 2-911                      [8, 64, 4, 4]             --
│    └─Clamp: 2-912                      [8, 64, 4, 4]             --
├─FusedConv2dBNReLU: 1-69                [8, 64, 128, 128]         (recursive)
│    └─OutputShiftSqueeze: 2-913         --                        --
│    └─One: 2-914                        [1]                       --
│    └─OutputScale: 2-915                --                        --
│    └─Empty: 2-916                      [64, 12, 1, 1]            --
│    └─Empty: 2-917                      [64, 12, 1, 1]            --
│    └─Empty: 2-918                      [64]                      --
│    └─Empty: 2-919                      [64]                      --
│    └─BatchNorm2d: 2-920                [8, 64, 128, 128]         --
│    └─Scaler: 2-921                     [8, 64, 128, 128]         --
│    └─ReLU: 2-922                       [8, 64, 128, 128]         --
│    └─Empty: 2-923                      [8, 64, 128, 128]         --
│    └─Clamp: 2-924                      [8, 64, 128, 128]         --
├─FusedConv2dBNReLU: 1-70                [8, 64, 128, 128]         (recursive)
│    └─OutputShiftSqueeze: 2-925         --                        --
│    └─One: 2-926                        [1]                       --
│    └─OutputScale: 2-927                --                        --
│    └─Empty: 2-928                      [64, 64, 3, 3]            --
│    └─Empty: 2-929                      [64, 64, 3, 3]            --
│    └─Empty: 2-930                      [64]                      --
│    └─Empty: 2-931                      [64]                      --
│    └─BatchNorm2d: 2-932                [8, 64, 128, 128]         --
│    └─Scaler: 2-933                     [8, 64, 128, 128]         --
│    └─ReLU: 2-934                       [8, 64, 128, 128]         --
│    └─Empty: 2-935                      [8, 64, 128, 128]         --
│    └─Clamp: 2-936                      [8, 64, 128, 128]         --
├─FusedConv2dBNReLU: 1-71                [8, 64, 128, 128]         (recursive)
│    └─OutputShiftSqueeze: 2-937         --                        --
│    └─One: 2-938                        [1]                       --
│    └─OutputScale: 2-939                --                        --
│    └─Empty: 2-940                      [64, 64, 1, 1]            --
│    └─Empty: 2-941                      [64, 64, 1, 1]            --
│    └─Empty: 2-942                      [64]                      --
│    └─Empty: 2-943                      [64]                      --
│    └─BatchNorm2d: 2-944                [8, 64, 128, 128]         --
│    └─Scaler: 2-945                     [8, 64, 128, 128]         --
│    └─ReLU: 2-946                       [8, 64, 128, 128]         --
│    └─Empty: 2-947                      [8, 64, 128, 128]         --
│    └─Clamp: 2-948                      [8, 64, 128, 128]         --
├─FusedConv2dBNReLU: 1-72                [8, 64, 128, 128]         (recursive)
│    └─OutputShiftSqueeze: 2-949         --                        --
│    └─One: 2-950                        [1]                       --
│    └─OutputScale: 2-951                --                        --
│    └─Empty: 2-952                      [64, 64, 3, 3]            --
│    └─Empty: 2-953                      [64, 64, 3, 3]            --
│    └─Empty: 2-954                      [64]                      --
│    └─Empty: 2-955                      [64]                      --
│    └─BatchNorm2d: 2-956                [8, 64, 128, 128]         --
│    └─Scaler: 2-957                     [8, 64, 128, 128]         --
│    └─ReLU: 2-958                       [8, 64, 128, 128]         --
│    └─Empty: 2-959                      [8, 64, 128, 128]         --
│    └─Clamp: 2-960                      [8, 64, 128, 128]         --
├─FusedMaxPoolConv2dBNReLU: 1-73         [8, 64, 64, 64]           (recursive)
│    └─MaxPool2d: 2-961                  [8, 64, 64, 64]           --
│    └─Empty: 2-962                      [8, 64, 64, 64]           --
│    └─Empty: 2-963                      [8, 64, 64, 64]           --
│    └─OutputShiftSqueeze: 2-964         --                        --
│    └─One: 2-965                        [1]                       --
│    └─OutputScale: 2-966                --                        --
│    └─Empty: 2-967                      [64, 64, 3, 3]            --
│    └─Empty: 2-968                      [64, 64, 3, 3]            --
│    └─Empty: 2-969                      [64]                      --
│    └─Empty: 2-970                      [64]                      --
│    └─BatchNorm2d: 2-971                [8, 64, 64, 64]           --
│    └─Scaler: 2-972                     [8, 64, 64, 64]           --
│    └─ReLU: 2-973                       [8, 64, 64, 64]           --
│    └─Empty: 2-974                      [8, 64, 64, 64]           --
│    └─Clamp: 2-975                      [8, 64, 64, 64]           --
├─FusedConv2dBNReLU: 1-74                [8, 64, 64, 64]           (recursive)
│    └─OutputShiftSqueeze: 2-976         --                        --
│    └─One: 2-977                        [1]                       --
│    └─OutputScale: 2-978                --                        --
│    └─Empty: 2-979                      [64, 64, 3, 3]            --
│    └─Empty: 2-980                      [64, 64, 3, 3]            --
│    └─Empty: 2-981                      [64]                      --
│    └─Empty: 2-982                      [64]                      --
│    └─BatchNorm2d: 2-983                [8, 64, 64, 64]           --
│    └─Scaler: 2-984                     [8, 64, 64, 64]           --
│    └─ReLU: 2-985                       [8, 64, 64, 64]           --
│    └─Empty: 2-986                      [8, 64, 64, 64]           --
│    └─Clamp: 2-987                      [8, 64, 64, 64]           --
├─FusedMaxPoolConv2dBNReLU: 1-75         [8, 64, 32, 32]           (recursive)
│    └─MaxPool2d: 2-988                  [8, 64, 32, 32]           --
│    └─Empty: 2-989                      [8, 64, 32, 32]           --
│    └─Empty: 2-990                      [8, 64, 32, 32]           --
│    └─OutputShiftSqueeze: 2-991         --                        --
│    └─One: 2-992                        [1]                       --
│    └─OutputScale: 2-993                --                        --
│    └─Empty: 2-994                      [64, 64, 3, 3]            --
│    └─Empty: 2-995                      [64, 64, 3, 3]            --
│    └─Empty: 2-996                      [64]                      --
│    └─Empty: 2-997                      [64]                      --
│    └─BatchNorm2d: 2-998                [8, 64, 32, 32]           --
│    └─Scaler: 2-999                     [8, 64, 32, 32]           --
│    └─ReLU: 2-1000                      [8, 64, 32, 32]           --
│    └─Empty: 2-1001                     [8, 64, 32, 32]           --
│    └─Clamp: 2-1002                     [8, 64, 32, 32]           --
├─FusedConv2dBNReLU: 1-76                [8, 64, 32, 32]           (recursive)
│    └─OutputShiftSqueeze: 2-1003        --                        --
│    └─One: 2-1004                       [1]                       --
│    └─OutputScale: 2-1005               --                        --
│    └─Empty: 2-1006                     [64, 64, 3, 3]            --
│    └─Empty: 2-1007                     [64, 64, 3, 3]            --
│    └─Empty: 2-1008                     [64]                      --
│    └─Empty: 2-1009                     [64]                      --
│    └─BatchNorm2d: 2-1010               [8, 64, 32, 32]           --
│    └─Scaler: 2-1011                    [8, 64, 32, 32]           --
│    └─ReLU: 2-1012                      [8, 64, 32, 32]           --
│    └─Empty: 2-1013                     [8, 64, 32, 32]           --
│    └─Clamp: 2-1014                     [8, 64, 32, 32]           --
├─FusedMaxPoolConv2dBNReLU: 1-77         [8, 64, 16, 16]           (recursive)
│    └─MaxPool2d: 2-1015                 [8, 64, 16, 16]           --
│    └─Empty: 2-1016                     [8, 64, 16, 16]           --
│    └─Empty: 2-1017                     [8, 64, 16, 16]           --
│    └─OutputShiftSqueeze: 2-1018        --                        --
│    └─One: 2-1019                       [1]                       --
│    └─OutputScale: 2-1020               --                        --
│    └─Empty: 2-1021                     [64, 64, 3, 3]            --
│    └─Empty: 2-1022                     [64, 64, 3, 3]            --
│    └─Empty: 2-1023                     [64]                      --
│    └─Empty: 2-1024                     [64]                      --
│    └─BatchNorm2d: 2-1025               [8, 64, 16, 16]           --
│    └─Scaler: 2-1026                    [8, 64, 16, 16]           --
│    └─ReLU: 2-1027                      [8, 64, 16, 16]           --
│    └─Empty: 2-1028                     [8, 64, 16, 16]           --
│    └─Clamp: 2-1029                     [8, 64, 16, 16]           --
├─FusedConv2dBNReLU: 1-78                [8, 64, 16, 16]           (recursive)
│    └─OutputShiftSqueeze: 2-1030        --                        --
│    └─One: 2-1031                       [1]                       --
│    └─OutputScale: 2-1032               --                        --
│    └─Empty: 2-1033                     [64, 64, 1, 1]            --
│    └─Empty: 2-1034                     [64, 64, 1, 1]            --
│    └─Empty: 2-1035                     [64]                      --
│    └─Empty: 2-1036                     [64]                      --
│    └─BatchNorm2d: 2-1037               [8, 64, 16, 16]           --
│    └─Scaler: 2-1038                    [8, 64, 16, 16]           --
│    └─ReLU: 2-1039                      [8, 64, 16, 16]           --
│    └─Empty: 2-1040                     [8, 64, 16, 16]           --
│    └─Clamp: 2-1041                     [8, 64, 16, 16]           --
├─FusedMaxPoolConv2dBNReLU: 1-79         [8, 64, 16, 16]           (recursive)
│    └─MaxPool2d: 2-1042                 [8, 64, 16, 16]           --
│    └─Empty: 2-1043                     [8, 64, 16, 16]           --
│    └─Empty: 2-1044                     [8, 64, 16, 16]           --
│    └─OutputShiftSqueeze: 2-1045        --                        --
│    └─One: 2-1046                       [1]                       --
│    └─OutputScale: 2-1047               --                        --
│    └─Empty: 2-1048                     [64, 64, 3, 3]            --
│    └─Empty: 2-1049                     [64, 64, 3, 3]            --
│    └─Empty: 2-1050                     [64]                      --
│    └─Empty: 2-1051                     [64]                      --
│    └─BatchNorm2d: 2-1052               [8, 64, 16, 16]           --
│    └─Scaler: 2-1053                    [8, 64, 16, 16]           --
│    └─ReLU: 2-1054                      [8, 64, 16, 16]           --
│    └─Empty: 2-1055                     [8, 64, 16, 16]           --
│    └─Clamp: 2-1056                     [8, 64, 16, 16]           --
├─FusedMaxPoolConv2dBNReLU: 1-80         [8, 64, 8, 8]             (recursive)
│    └─MaxPool2d: 2-1057                 [8, 64, 8, 8]             --
│    └─Empty: 2-1058                     [8, 64, 8, 8]             --
│    └─Empty: 2-1059                     [8, 64, 8, 8]             --
│    └─OutputShiftSqueeze: 2-1060        --                        --
│    └─One: 2-1061                       [1]                       --
│    └─OutputScale: 2-1062               --                        --
│    └─Empty: 2-1063                     [64, 64, 3, 3]            --
│    └─Empty: 2-1064                     [64, 64, 3, 3]            --
│    └─Empty: 2-1065                     [64]                      --
│    └─Empty: 2-1066                     [64]                      --
│    └─BatchNorm2d: 2-1067               [8, 64, 8, 8]             --
│    └─Scaler: 2-1068                    [8, 64, 8, 8]             --
│    └─ReLU: 2-1069                      [8, 64, 8, 8]             --
│    └─Empty: 2-1070                     [8, 64, 8, 8]             --
│    └─Clamp: 2-1071                     [8, 64, 8, 8]             --
├─FusedConv2dBNReLU: 1-81                [8, 64, 8, 8]             (recursive)
│    └─OutputShiftSqueeze: 2-1072        --                        --
│    └─One: 2-1073                       [1]                       --
│    └─OutputScale: 2-1074               --                        --
│    └─Empty: 2-1075                     [64, 64, 1, 1]            --
│    └─Empty: 2-1076                     [64, 64, 1, 1]            --
│    └─Empty: 2-1077                     [64]                      --
│    └─Empty: 2-1078                     [64]                      --
│    └─BatchNorm2d: 2-1079               [8, 64, 8, 8]             --
│    └─Scaler: 2-1080                    [8, 64, 8, 8]             --
│    └─ReLU: 2-1081                      [8, 64, 8, 8]             --
│    └─Empty: 2-1082                     [8, 64, 8, 8]             --
│    └─Clamp: 2-1083                     [8, 64, 8, 8]             --
├─FusedMaxPoolConv2dBNReLU: 1-82         [8, 64, 8, 8]             (recursive)
│    └─MaxPool2d: 2-1084                 [8, 64, 8, 8]             --
│    └─Empty: 2-1085                     [8, 64, 8, 8]             --
│    └─Empty: 2-1086                     [8, 64, 8, 8]             --
│    └─OutputShiftSqueeze: 2-1087        --                        --
│    └─One: 2-1088                       [1]                       --
│    └─OutputScale: 2-1089               --                        --
│    └─Empty: 2-1090                     [64, 64, 3, 3]            --
│    └─Empty: 2-1091                     [64, 64, 3, 3]            --
│    └─Empty: 2-1092                     [64]                      --
│    └─Empty: 2-1093                     [64]                      --
│    └─BatchNorm2d: 2-1094               [8, 64, 8, 8]             --
│    └─Scaler: 2-1095                    [8, 64, 8, 8]             --
│    └─ReLU: 2-1096                      [8, 64, 8, 8]             --
│    └─Empty: 2-1097                     [8, 64, 8, 8]             --
│    └─Clamp: 2-1098                     [8, 64, 8, 8]             --
├─FusedMaxPoolConv2dBNReLU: 1-83         [8, 64, 4, 4]             (recursive)
│    └─MaxPool2d: 2-1099                 [8, 64, 4, 4]             --
│    └─Empty: 2-1100                     [8, 64, 4, 4]             --
│    └─Empty: 2-1101                     [8, 64, 4, 4]             --
│    └─OutputShiftSqueeze: 2-1102        --                        --
│    └─One: 2-1103                       [1]                       --
│    └─OutputScale: 2-1104               --                        --
│    └─Empty: 2-1105                     [64, 64, 1, 1]            --
│    └─Empty: 2-1106                     [64, 64, 1, 1]            --
│    └─Empty: 2-1107                     [64]                      --
│    └─Empty: 2-1108                     [64]                      --
│    └─BatchNorm2d: 2-1109               [8, 64, 4, 4]             --
│    └─Scaler: 2-1110                    [8, 64, 4, 4]             --
│    └─ReLU: 2-1111                      [8, 64, 4, 4]             --
│    └─Empty: 2-1112                     [8, 64, 4, 4]             --
│    └─Clamp: 2-1113                     [8, 64, 4, 4]             --
├─FusedConv2dBNReLU: 1-84                [8, 64, 4, 4]             (recursive)
│    └─OutputShiftSqueeze: 2-1114        --                        --
│    └─One: 2-1115                       [1]                       --
│    └─OutputScale: 2-1116               --                        --
│    └─Empty: 2-1117                     [64, 64, 1, 1]            --
│    └─Empty: 2-1118                     [64, 64, 1, 1]            --
│    └─Empty: 2-1119                     [64]                      --
│    └─Empty: 2-1120                     [64]                      --
│    └─BatchNorm2d: 2-1121               [8, 64, 4, 4]             --
│    └─Scaler: 2-1122                    [8, 64, 4, 4]             --
│    └─ReLU: 2-1123                      [8, 64, 4, 4]             --
│    └─Empty: 2-1124                     [8, 64, 4, 4]             --
│    └─Clamp: 2-1125                     [8, 64, 4, 4]             --
├─FusedMaxPoolConv2dBNReLU: 1-85         [8, 64, 4, 4]             (recursive)
│    └─MaxPool2d: 2-1126                 [8, 64, 4, 4]             --
│    └─Empty: 2-1127                     [8, 64, 4, 4]             --
│    └─Empty: 2-1128                     [8, 64, 4, 4]             --
│    └─OutputShiftSqueeze: 2-1129        --                        --
│    └─One: 2-1130                       [1]                       --
│    └─OutputScale: 2-1131               --                        --
│    └─Empty: 2-1132                     [64, 64, 3, 3]            --
│    └─Empty: 2-1133                     [64, 64, 3, 3]            --
│    └─Empty: 2-1134                     [64]                      --
│    └─Empty: 2-1135                     [64]                      --
│    └─BatchNorm2d: 2-1136               [8, 64, 4, 4]             --
│    └─Scaler: 2-1137                    [8, 64, 4, 4]             --
│    └─ReLU: 2-1138                      [8, 64, 4, 4]             --
│    └─Empty: 2-1139                     [8, 64, 4, 4]             --
│    └─Clamp: 2-1140                     [8, 64, 4, 4]             --
├─FusedConv2dBNReLU: 1-86                [8, 64, 128, 128]         (recursive)
│    └─OutputShiftSqueeze: 2-1141        --                        --
│    └─One: 2-1142                       [1]                       --
│    └─OutputScale: 2-1143               --                        --
│    └─Empty: 2-1144                     [64, 12, 1, 1]            --
│    └─Empty: 2-1145                     [64, 12, 1, 1]            --
│    └─Empty: 2-1146                     [64]                      --
│    └─Empty: 2-1147                     [64]                      --
│    └─BatchNorm2d: 2-1148               [8, 64, 128, 128]         --
│    └─Scaler: 2-1149                    [8, 64, 128, 128]         --
│    └─ReLU: 2-1150                      [8, 64, 128, 128]         --
│    └─Empty: 2-1151                     [8, 64, 128, 128]         --
│    └─Clamp: 2-1152                     [8, 64, 128, 128]         --
├─FusedConv2dBNReLU: 1-87                [8, 64, 128, 128]         (recursive)
│    └─OutputShiftSqueeze: 2-1153        --                        --
│    └─One: 2-1154                       [1]                       --
│    └─OutputScale: 2-1155               --                        --
│    └─Empty: 2-1156                     [64, 64, 3, 3]            --
│    └─Empty: 2-1157                     [64, 64, 3, 3]            --
│    └─Empty: 2-1158                     [64]                      --
│    └─Empty: 2-1159                     [64]                      --
│    └─BatchNorm2d: 2-1160               [8, 64, 128, 128]         --
│    └─Scaler: 2-1161                    [8, 64, 128, 128]         --
│    └─ReLU: 2-1162                      [8, 64, 128, 128]         --
│    └─Empty: 2-1163                     [8, 64, 128, 128]         --
│    └─Clamp: 2-1164                     [8, 64, 128, 128]         --
├─FusedConv2dBNReLU: 1-88                [8, 64, 128, 128]         (recursive)
│    └─OutputShiftSqueeze: 2-1165        --                        --
│    └─One: 2-1166                       [1]                       --
│    └─OutputScale: 2-1167               --                        --
│    └─Empty: 2-1168                     [64, 64, 1, 1]            --
│    └─Empty: 2-1169                     [64, 64, 1, 1]            --
│    └─Empty: 2-1170                     [64]                      --
│    └─Empty: 2-1171                     [64]                      --
│    └─BatchNorm2d: 2-1172               [8, 64, 128, 128]         --
│    └─Scaler: 2-1173                    [8, 64, 128, 128]         --
│    └─ReLU: 2-1174                      [8, 64, 128, 128]         --
│    └─Empty: 2-1175                     [8, 64, 128, 128]         --
│    └─Clamp: 2-1176                     [8, 64, 128, 128]         --
├─FusedConv2dBNReLU: 1-89                [8, 64, 128, 128]         (recursive)
│    └─OutputShiftSqueeze: 2-1177        --                        --
│    └─One: 2-1178                       [1]                       --
│    └─OutputScale: 2-1179               --                        --
│    └─Empty: 2-1180                     [64, 64, 3, 3]            --
│    └─Empty: 2-1181                     [64, 64, 3, 3]            --
│    └─Empty: 2-1182                     [64]                      --
│    └─Empty: 2-1183                     [64]                      --
│    └─BatchNorm2d: 2-1184               [8, 64, 128, 128]         --
│    └─Scaler: 2-1185                    [8, 64, 128, 128]         --
│    └─ReLU: 2-1186                      [8, 64, 128, 128]         --
│    └─Empty: 2-1187                     [8, 64, 128, 128]         --
│    └─Clamp: 2-1188                     [8, 64, 128, 128]         --
├─FusedMaxPoolConv2dBNReLU: 1-90         [8, 64, 64, 64]           (recursive)
│    └─MaxPool2d: 2-1189                 [8, 64, 64, 64]           --
│    └─Empty: 2-1190                     [8, 64, 64, 64]           --
│    └─Empty: 2-1191                     [8, 64, 64, 64]           --
│    └─OutputShiftSqueeze: 2-1192        --                        --
│    └─One: 2-1193                       [1]                       --
│    └─OutputScale: 2-1194               --                        --
│    └─Empty: 2-1195                     [64, 64, 3, 3]            --
│    └─Empty: 2-1196                     [64, 64, 3, 3]            --
│    └─Empty: 2-1197                     [64]                      --
│    └─Empty: 2-1198                     [64]                      --
│    └─BatchNorm2d: 2-1199               [8, 64, 64, 64]           --
│    └─Scaler: 2-1200                    [8, 64, 64, 64]           --
│    └─ReLU: 2-1201                      [8, 64, 64, 64]           --
│    └─Empty: 2-1202                     [8, 64, 64, 64]           --
│    └─Clamp: 2-1203                     [8, 64, 64, 64]           --
├─FusedConv2dBNReLU: 1-91                [8, 64, 64, 64]           (recursive)
│    └─OutputShiftSqueeze: 2-1204        --                        --
│    └─One: 2-1205                       [1]                       --
│    └─OutputScale: 2-1206               --                        --
│    └─Empty: 2-1207                     [64, 64, 3, 3]            --
│    └─Empty: 2-1208                     [64, 64, 3, 3]            --
│    └─Empty: 2-1209                     [64]                      --
│    └─Empty: 2-1210                     [64]                      --
│    └─BatchNorm2d: 2-1211               [8, 64, 64, 64]           --
│    └─Scaler: 2-1212                    [8, 64, 64, 64]           --
│    └─ReLU: 2-1213                      [8, 64, 64, 64]           --
│    └─Empty: 2-1214                     [8, 64, 64, 64]           --
│    └─Clamp: 2-1215                     [8, 64, 64, 64]           --
├─FusedMaxPoolConv2dBNReLU: 1-92         [8, 64, 32, 32]           (recursive)
│    └─MaxPool2d: 2-1216                 [8, 64, 32, 32]           --
│    └─Empty: 2-1217                     [8, 64, 32, 32]           --
│    └─Empty: 2-1218                     [8, 64, 32, 32]           --
│    └─OutputShiftSqueeze: 2-1219        --                        --
│    └─One: 2-1220                       [1]                       --
│    └─OutputScale: 2-1221               --                        --
│    └─Empty: 2-1222                     [64, 64, 3, 3]            --
│    └─Empty: 2-1223                     [64, 64, 3, 3]            --
│    └─Empty: 2-1224                     [64]                      --
│    └─Empty: 2-1225                     [64]                      --
│    └─BatchNorm2d: 2-1226               [8, 64, 32, 32]           --
│    └─Scaler: 2-1227                    [8, 64, 32, 32]           --
│    └─ReLU: 2-1228                      [8, 64, 32, 32]           --
│    └─Empty: 2-1229                     [8, 64, 32, 32]           --
│    └─Clamp: 2-1230                     [8, 64, 32, 32]           --
├─FusedConv2dBNReLU: 1-93                [8, 64, 32, 32]           (recursive)
│    └─OutputShiftSqueeze: 2-1231        --                        --
│    └─One: 2-1232                       [1]                       --
│    └─OutputScale: 2-1233               --                        --
│    └─Empty: 2-1234                     [64, 64, 3, 3]            --
│    └─Empty: 2-1235                     [64, 64, 3, 3]            --
│    └─Empty: 2-1236                     [64]                      --
│    └─Empty: 2-1237                     [64]                      --
│    └─BatchNorm2d: 2-1238               [8, 64, 32, 32]           --
│    └─Scaler: 2-1239                    [8, 64, 32, 32]           --
│    └─ReLU: 2-1240                      [8, 64, 32, 32]           --
│    └─Empty: 2-1241                     [8, 64, 32, 32]           --
│    └─Clamp: 2-1242                     [8, 64, 32, 32]           --
├─FusedMaxPoolConv2dBNReLU: 1-94         [8, 64, 16, 16]           (recursive)
│    └─MaxPool2d: 2-1243                 [8, 64, 16, 16]           --
│    └─Empty: 2-1244                     [8, 64, 16, 16]           --
│    └─Empty: 2-1245                     [8, 64, 16, 16]           --
│    └─OutputShiftSqueeze: 2-1246        --                        --
│    └─One: 2-1247                       [1]                       --
│    └─OutputScale: 2-1248               --                        --
│    └─Empty: 2-1249                     [64, 64, 3, 3]            --
│    └─Empty: 2-1250                     [64, 64, 3, 3]            --
│    └─Empty: 2-1251                     [64]                      --
│    └─Empty: 2-1252                     [64]                      --
│    └─BatchNorm2d: 2-1253               [8, 64, 16, 16]           --
│    └─Scaler: 2-1254                    [8, 64, 16, 16]           --
│    └─ReLU: 2-1255                      [8, 64, 16, 16]           --
│    └─Empty: 2-1256                     [8, 64, 16, 16]           --
│    └─Clamp: 2-1257                     [8, 64, 16, 16]           --
├─FusedConv2dBNReLU: 1-95                [8, 64, 16, 16]           (recursive)
│    └─OutputShiftSqueeze: 2-1258        --                        --
│    └─One: 2-1259                       [1]                       --
│    └─OutputScale: 2-1260               --                        --
│    └─Empty: 2-1261                     [64, 64, 1, 1]            --
│    └─Empty: 2-1262                     [64, 64, 1, 1]            --
│    └─Empty: 2-1263                     [64]                      --
│    └─Empty: 2-1264                     [64]                      --
│    └─BatchNorm2d: 2-1265               [8, 64, 16, 16]           --
│    └─Scaler: 2-1266                    [8, 64, 16, 16]           --
│    └─ReLU: 2-1267                      [8, 64, 16, 16]           --
│    └─Empty: 2-1268                     [8, 64, 16, 16]           --
│    └─Clamp: 2-1269                     [8, 64, 16, 16]           --
├─FusedMaxPoolConv2dBNReLU: 1-96         [8, 64, 16, 16]           (recursive)
│    └─MaxPool2d: 2-1270                 [8, 64, 16, 16]           --
│    └─Empty: 2-1271                     [8, 64, 16, 16]           --
│    └─Empty: 2-1272                     [8, 64, 16, 16]           --
│    └─OutputShiftSqueeze: 2-1273        --                        --
│    └─One: 2-1274                       [1]                       --
│    └─OutputScale: 2-1275               --                        --
│    └─Empty: 2-1276                     [64, 64, 3, 3]            --
│    └─Empty: 2-1277                     [64, 64, 3, 3]            --
│    └─Empty: 2-1278                     [64]                      --
│    └─Empty: 2-1279                     [64]                      --
│    └─BatchNorm2d: 2-1280               [8, 64, 16, 16]           --
│    └─Scaler: 2-1281                    [8, 64, 16, 16]           --
│    └─ReLU: 2-1282                      [8, 64, 16, 16]           --
│    └─Empty: 2-1283                     [8, 64, 16, 16]           --
│    └─Clamp: 2-1284                     [8, 64, 16, 16]           --
├─FusedMaxPoolConv2dBNReLU: 1-97         [8, 64, 8, 8]             (recursive)
│    └─MaxPool2d: 2-1285                 [8, 64, 8, 8]             --
│    └─Empty: 2-1286                     [8, 64, 8, 8]             --
│    └─Empty: 2-1287                     [8, 64, 8, 8]             --
│    └─OutputShiftSqueeze: 2-1288        --                        --
│    └─One: 2-1289                       [1]                       --
│    └─OutputScale: 2-1290               --                        --
│    └─Empty: 2-1291                     [64, 64, 3, 3]            --
│    └─Empty: 2-1292                     [64, 64, 3, 3]            --
│    └─Empty: 2-1293                     [64]                      --
│    └─Empty: 2-1294                     [64]                      --
│    └─BatchNorm2d: 2-1295               [8, 64, 8, 8]             --
│    └─Scaler: 2-1296                    [8, 64, 8, 8]             --
│    └─ReLU: 2-1297                      [8, 64, 8, 8]             --
│    └─Empty: 2-1298                     [8, 64, 8, 8]             --
│    └─Clamp: 2-1299                     [8, 64, 8, 8]             --
├─FusedConv2dBNReLU: 1-98                [8, 64, 8, 8]             (recursive)
│    └─OutputShiftSqueeze: 2-1300        --                        --
│    └─One: 2-1301                       [1]                       --
│    └─OutputScale: 2-1302               --                        --
│    └─Empty: 2-1303                     [64, 64, 1, 1]            --
│    └─Empty: 2-1304                     [64, 64, 1, 1]            --
│    └─Empty: 2-1305                     [64]                      --
│    └─Empty: 2-1306                     [64]                      --
│    └─BatchNorm2d: 2-1307               [8, 64, 8, 8]             --
│    └─Scaler: 2-1308                    [8, 64, 8, 8]             --
│    └─ReLU: 2-1309                      [8, 64, 8, 8]             --
│    └─Empty: 2-1310                     [8, 64, 8, 8]             --
│    └─Clamp: 2-1311                     [8, 64, 8, 8]             --
├─FusedMaxPoolConv2dBNReLU: 1-99         [8, 64, 8, 8]             (recursive)
│    └─MaxPool2d: 2-1312                 [8, 64, 8, 8]             --
│    └─Empty: 2-1313                     [8, 64, 8, 8]             --
│    └─Empty: 2-1314                     [8, 64, 8, 8]             --
│    └─OutputShiftSqueeze: 2-1315        --                        --
│    └─One: 2-1316                       [1]                       --
│    └─OutputScale: 2-1317               --                        --
│    └─Empty: 2-1318                     [64, 64, 3, 3]            --
│    └─Empty: 2-1319                     [64, 64, 3, 3]            --
│    └─Empty: 2-1320                     [64]                      --
│    └─Empty: 2-1321                     [64]                      --
│    └─BatchNorm2d: 2-1322               [8, 64, 8, 8]             --
│    └─Scaler: 2-1323                    [8, 64, 8, 8]             --
│    └─ReLU: 2-1324                      [8, 64, 8, 8]             --
│    └─Empty: 2-1325                     [8, 64, 8, 8]             --
│    └─Clamp: 2-1326                     [8, 64, 8, 8]             --
├─FusedMaxPoolConv2dBNReLU: 1-100        [8, 64, 4, 4]             (recursive)
│    └─MaxPool2d: 2-1327                 [8, 64, 4, 4]             --
│    └─Empty: 2-1328                     [8, 64, 4, 4]             --
│    └─Empty: 2-1329                     [8, 64, 4, 4]             --
│    └─OutputShiftSqueeze: 2-1330        --                        --
│    └─One: 2-1331                       [1]                       --
│    └─OutputScale: 2-1332               --                        --
│    └─Empty: 2-1333                     [64, 64, 1, 1]            --
│    └─Empty: 2-1334                     [64, 64, 1, 1]            --
│    └─Empty: 2-1335                     [64]                      --
│    └─Empty: 2-1336                     [64]                      --
│    └─BatchNorm2d: 2-1337               [8, 64, 4, 4]             --
│    └─Scaler: 2-1338                    [8, 64, 4, 4]             --
│    └─ReLU: 2-1339                      [8, 64, 4, 4]             --
│    └─Empty: 2-1340                     [8, 64, 4, 4]             --
│    └─Clamp: 2-1341                     [8, 64, 4, 4]             --
├─FusedConv2dBNReLU: 1-101               [8, 64, 4, 4]             (recursive)
│    └─OutputShiftSqueeze: 2-1342        --                        --
│    └─One: 2-1343                       [1]                       --
│    └─OutputScale: 2-1344               --                        --
│    └─Empty: 2-1345                     [64, 64, 1, 1]            --
│    └─Empty: 2-1346                     [64, 64, 1, 1]            --
│    └─Empty: 2-1347                     [64]                      --
│    └─Empty: 2-1348                     [64]                      --
│    └─BatchNorm2d: 2-1349               [8, 64, 4, 4]             --
│    └─Scaler: 2-1350                    [8, 64, 4, 4]             --
│    └─ReLU: 2-1351                      [8, 64, 4, 4]             --
│    └─Empty: 2-1352                     [8, 64, 4, 4]             --
│    └─Clamp: 2-1353                     [8, 64, 4, 4]             --
├─FusedMaxPoolConv2dBNReLU: 1-102        [8, 64, 4, 4]             (recursive)
│    └─MaxPool2d: 2-1354                 [8, 64, 4, 4]             --
│    └─Empty: 2-1355                     [8, 64, 4, 4]             --
│    └─Empty: 2-1356                     [8, 64, 4, 4]             --
│    └─OutputShiftSqueeze: 2-1357        --                        --
│    └─One: 2-1358                       [1]                       --
│    └─OutputScale: 2-1359               --                        --
│    └─Empty: 2-1360                     [64, 64, 3, 3]            --
│    └─Empty: 2-1361                     [64, 64, 3, 3]            --
│    └─Empty: 2-1362                     [64]                      --
│    └─Empty: 2-1363                     [64]                      --
│    └─BatchNorm2d: 2-1364               [8, 64, 4, 4]             --
│    └─Scaler: 2-1365                    [8, 64, 4, 4]             --
│    └─ReLU: 2-1366                      [8, 64, 4, 4]             --
│    └─Empty: 2-1367                     [8, 64, 4, 4]             --
│    └─Clamp: 2-1368                     [8, 64, 4, 4]             --
├─FusedConv2dBNReLU: 1-103               [8, 64, 128, 128]         (recursive)
│    └─OutputShiftSqueeze: 2-1369        --                        --
│    └─One: 2-1370                       [1]                       --
│    └─OutputScale: 2-1371               --                        --
│    └─Empty: 2-1372                     [64, 12, 1, 1]            --
│    └─Empty: 2-1373                     [64, 12, 1, 1]            --
│    └─Empty: 2-1374                     [64]                      --
│    └─Empty: 2-1375                     [64]                      --
│    └─BatchNorm2d: 2-1376               [8, 64, 128, 128]         --
│    └─Scaler: 2-1377                    [8, 64, 128, 128]         --
│    └─ReLU: 2-1378                      [8, 64, 128, 128]         --
│    └─Empty: 2-1379                     [8, 64, 128, 128]         --
│    └─Clamp: 2-1380                     [8, 64, 128, 128]         --
├─FusedConv2dBNReLU: 1-104               [8, 64, 128, 128]         (recursive)
│    └─OutputShiftSqueeze: 2-1381        --                        --
│    └─One: 2-1382                       [1]                       --
│    └─OutputScale: 2-1383               --                        --
│    └─Empty: 2-1384                     [64, 64, 3, 3]            --
│    └─Empty: 2-1385                     [64, 64, 3, 3]            --
│    └─Empty: 2-1386                     [64]                      --
│    └─Empty: 2-1387                     [64]                      --
│    └─BatchNorm2d: 2-1388               [8, 64, 128, 128]         --
│    └─Scaler: 2-1389                    [8, 64, 128, 128]         --
│    └─ReLU: 2-1390                      [8, 64, 128, 128]         --
│    └─Empty: 2-1391                     [8, 64, 128, 128]         --
│    └─Clamp: 2-1392                     [8, 64, 128, 128]         --
├─FusedConv2dBNReLU: 1-105               [8, 64, 128, 128]         (recursive)
│    └─OutputShiftSqueeze: 2-1393        --                        --
│    └─One: 2-1394                       [1]                       --
│    └─OutputScale: 2-1395               --                        --
│    └─Empty: 2-1396                     [64, 64, 1, 1]            --
│    └─Empty: 2-1397                     [64, 64, 1, 1]            --
│    └─Empty: 2-1398                     [64]                      --
│    └─Empty: 2-1399                     [64]                      --
│    └─BatchNorm2d: 2-1400               [8, 64, 128, 128]         --
│    └─Scaler: 2-1401                    [8, 64, 128, 128]         --
│    └─ReLU: 2-1402                      [8, 64, 128, 128]         --
│    └─Empty: 2-1403                     [8, 64, 128, 128]         --
│    └─Clamp: 2-1404                     [8, 64, 128, 128]         --
├─FusedConv2dBNReLU: 1-106               [8, 64, 128, 128]         (recursive)
│    └─OutputShiftSqueeze: 2-1405        --                        --
│    └─One: 2-1406                       [1]                       --
│    └─OutputScale: 2-1407               --                        --
│    └─Empty: 2-1408                     [64, 64, 3, 3]            --
│    └─Empty: 2-1409                     [64, 64, 3, 3]            --
│    └─Empty: 2-1410                     [64]                      --
│    └─Empty: 2-1411                     [64]                      --
│    └─BatchNorm2d: 2-1412               [8, 64, 128, 128]         --
│    └─Scaler: 2-1413                    [8, 64, 128, 128]         --
│    └─ReLU: 2-1414                      [8, 64, 128, 128]         --
│    └─Empty: 2-1415                     [8, 64, 128, 128]         --
│    └─Clamp: 2-1416                     [8, 64, 128, 128]         --
├─FusedMaxPoolConv2dBNReLU: 1-107        [8, 64, 64, 64]           (recursive)
│    └─MaxPool2d: 2-1417                 [8, 64, 64, 64]           --
│    └─Empty: 2-1418                     [8, 64, 64, 64]           --
│    └─Empty: 2-1419                     [8, 64, 64, 64]           --
│    └─OutputShiftSqueeze: 2-1420        --                        --
│    └─One: 2-1421                       [1]                       --
│    └─OutputScale: 2-1422               --                        --
│    └─Empty: 2-1423                     [64, 64, 3, 3]            --
│    └─Empty: 2-1424                     [64, 64, 3, 3]            --
│    └─Empty: 2-1425                     [64]                      --
│    └─Empty: 2-1426                     [64]                      --
│    └─BatchNorm2d: 2-1427               [8, 64, 64, 64]           --
│    └─Scaler: 2-1428                    [8, 64, 64, 64]           --
│    └─ReLU: 2-1429                      [8, 64, 64, 64]           --
│    └─Empty: 2-1430                     [8, 64, 64, 64]           --
│    └─Clamp: 2-1431                     [8, 64, 64, 64]           --
├─FusedConv2dBNReLU: 1-108               [8, 64, 64, 64]           (recursive)
│    └─OutputShiftSqueeze: 2-1432        --                        --
│    └─One: 2-1433                       [1]                       --
│    └─OutputScale: 2-1434               --                        --
│    └─Empty: 2-1435                     [64, 64, 3, 3]            --
│    └─Empty: 2-1436                     [64, 64, 3, 3]            --
│    └─Empty: 2-1437                     [64]                      --
│    └─Empty: 2-1438                     [64]                      --
│    └─BatchNorm2d: 2-1439               [8, 64, 64, 64]           --
│    └─Scaler: 2-1440                    [8, 64, 64, 64]           --
│    └─ReLU: 2-1441                      [8, 64, 64, 64]           --
│    └─Empty: 2-1442                     [8, 64, 64, 64]           --
│    └─Clamp: 2-1443                     [8, 64, 64, 64]           --
├─FusedMaxPoolConv2dBNReLU: 1-109        [8, 64, 32, 32]           (recursive)
│    └─MaxPool2d: 2-1444                 [8, 64, 32, 32]           --
│    └─Empty: 2-1445                     [8, 64, 32, 32]           --
│    └─Empty: 2-1446                     [8, 64, 32, 32]           --
│    └─OutputShiftSqueeze: 2-1447        --                        --
│    └─One: 2-1448                       [1]                       --
│    └─OutputScale: 2-1449               --                        --
│    └─Empty: 2-1450                     [64, 64, 3, 3]            --
│    └─Empty: 2-1451                     [64, 64, 3, 3]            --
│    └─Empty: 2-1452                     [64]                      --
│    └─Empty: 2-1453                     [64]                      --
│    └─BatchNorm2d: 2-1454               [8, 64, 32, 32]           --
│    └─Scaler: 2-1455                    [8, 64, 32, 32]           --
│    └─ReLU: 2-1456                      [8, 64, 32, 32]           --
│    └─Empty: 2-1457                     [8, 64, 32, 32]           --
│    └─Clamp: 2-1458                     [8, 64, 32, 32]           --
├─FusedConv2dBNReLU: 1-110               [8, 64, 32, 32]           (recursive)
│    └─OutputShiftSqueeze: 2-1459        --                        --
│    └─One: 2-1460                       [1]                       --
│    └─OutputScale: 2-1461               --                        --
│    └─Empty: 2-1462                     [64, 64, 3, 3]            --
│    └─Empty: 2-1463                     [64, 64, 3, 3]            --
│    └─Empty: 2-1464                     [64]                      --
│    └─Empty: 2-1465                     [64]                      --
│    └─BatchNorm2d: 2-1466               [8, 64, 32, 32]           --
│    └─Scaler: 2-1467                    [8, 64, 32, 32]           --
│    └─ReLU: 2-1468                      [8, 64, 32, 32]           --
│    └─Empty: 2-1469                     [8, 64, 32, 32]           --
│    └─Clamp: 2-1470                     [8, 64, 32, 32]           --
├─FusedMaxPoolConv2dBNReLU: 1-111        [8, 64, 16, 16]           (recursive)
│    └─MaxPool2d: 2-1471                 [8, 64, 16, 16]           --
│    └─Empty: 2-1472                     [8, 64, 16, 16]           --
│    └─Empty: 2-1473                     [8, 64, 16, 16]           --
│    └─OutputShiftSqueeze: 2-1474        --                        --
│    └─One: 2-1475                       [1]                       --
│    └─OutputScale: 2-1476               --                        --
│    └─Empty: 2-1477                     [64, 64, 3, 3]            --
│    └─Empty: 2-1478                     [64, 64, 3, 3]            --
│    └─Empty: 2-1479                     [64]                      --
│    └─Empty: 2-1480                     [64]                      --
│    └─BatchNorm2d: 2-1481               [8, 64, 16, 16]           --
│    └─Scaler: 2-1482                    [8, 64, 16, 16]           --
│    └─ReLU: 2-1483                      [8, 64, 16, 16]           --
│    └─Empty: 2-1484                     [8, 64, 16, 16]           --
│    └─Clamp: 2-1485                     [8, 64, 16, 16]           --
├─FusedConv2dBNReLU: 1-112               [8, 64, 16, 16]           (recursive)
│    └─OutputShiftSqueeze: 2-1486        --                        --
│    └─One: 2-1487                       [1]                       --
│    └─OutputScale: 2-1488               --                        --
│    └─Empty: 2-1489                     [64, 64, 1, 1]            --
│    └─Empty: 2-1490                     [64, 64, 1, 1]            --
│    └─Empty: 2-1491                     [64]                      --
│    └─Empty: 2-1492                     [64]                      --
│    └─BatchNorm2d: 2-1493               [8, 64, 16, 16]           --
│    └─Scaler: 2-1494                    [8, 64, 16, 16]           --
│    └─ReLU: 2-1495                      [8, 64, 16, 16]           --
│    └─Empty: 2-1496                     [8, 64, 16, 16]           --
│    └─Clamp: 2-1497                     [8, 64, 16, 16]           --
├─FusedMaxPoolConv2dBNReLU: 1-113        [8, 64, 16, 16]           (recursive)
│    └─MaxPool2d: 2-1498                 [8, 64, 16, 16]           --
│    └─Empty: 2-1499                     [8, 64, 16, 16]           --
│    └─Empty: 2-1500                     [8, 64, 16, 16]           --
│    └─OutputShiftSqueeze: 2-1501        --                        --
│    └─One: 2-1502                       [1]                       --
│    └─OutputScale: 2-1503               --                        --
│    └─Empty: 2-1504                     [64, 64, 3, 3]            --
│    └─Empty: 2-1505                     [64, 64, 3, 3]            --
│    └─Empty: 2-1506                     [64]                      --
│    └─Empty: 2-1507                     [64]                      --
│    └─BatchNorm2d: 2-1508               [8, 64, 16, 16]           --
│    └─Scaler: 2-1509                    [8, 64, 16, 16]           --
│    └─ReLU: 2-1510                      [8, 64, 16, 16]           --
│    └─Empty: 2-1511                     [8, 64, 16, 16]           --
│    └─Clamp: 2-1512                     [8, 64, 16, 16]           --
├─FusedMaxPoolConv2dBNReLU: 1-114        [8, 64, 8, 8]             (recursive)
│    └─MaxPool2d: 2-1513                 [8, 64, 8, 8]             --
│    └─Empty: 2-1514                     [8, 64, 8, 8]             --
│    └─Empty: 2-1515                     [8, 64, 8, 8]             --
│    └─OutputShiftSqueeze: 2-1516        --                        --
│    └─One: 2-1517                       [1]                       --
│    └─OutputScale: 2-1518               --                        --
│    └─Empty: 2-1519                     [64, 64, 3, 3]            --
│    └─Empty: 2-1520                     [64, 64, 3, 3]            --
│    └─Empty: 2-1521                     [64]                      --
│    └─Empty: 2-1522                     [64]                      --
│    └─BatchNorm2d: 2-1523               [8, 64, 8, 8]             --
│    └─Scaler: 2-1524                    [8, 64, 8, 8]             --
│    └─ReLU: 2-1525                      [8, 64, 8, 8]             --
│    └─Empty: 2-1526                     [8, 64, 8, 8]             --
│    └─Clamp: 2-1527                     [8, 64, 8, 8]             --
├─FusedConv2dBNReLU: 1-115               [8, 64, 8, 8]             (recursive)
│    └─OutputShiftSqueeze: 2-1528        --                        --
│    └─One: 2-1529                       [1]                       --
│    └─OutputScale: 2-1530               --                        --
│    └─Empty: 2-1531                     [64, 64, 1, 1]            --
│    └─Empty: 2-1532                     [64, 64, 1, 1]            --
│    └─Empty: 2-1533                     [64]                      --
│    └─Empty: 2-1534                     [64]                      --
│    └─BatchNorm2d: 2-1535               [8, 64, 8, 8]             --
│    └─Scaler: 2-1536                    [8, 64, 8, 8]             --
│    └─ReLU: 2-1537                      [8, 64, 8, 8]             --
│    └─Empty: 2-1538                     [8, 64, 8, 8]             --
│    └─Clamp: 2-1539                     [8, 64, 8, 8]             --
├─FusedMaxPoolConv2dBNReLU: 1-116        [8, 64, 8, 8]             (recursive)
│    └─MaxPool2d: 2-1540                 [8, 64, 8, 8]             --
│    └─Empty: 2-1541                     [8, 64, 8, 8]             --
│    └─Empty: 2-1542                     [8, 64, 8, 8]             --
│    └─OutputShiftSqueeze: 2-1543        --                        --
│    └─One: 2-1544                       [1]                       --
│    └─OutputScale: 2-1545               --                        --
│    └─Empty: 2-1546                     [64, 64, 3, 3]            --
│    └─Empty: 2-1547                     [64, 64, 3, 3]            --
│    └─Empty: 2-1548                     [64]                      --
│    └─Empty: 2-1549                     [64]                      --
│    └─BatchNorm2d: 2-1550               [8, 64, 8, 8]             --
│    └─Scaler: 2-1551                    [8, 64, 8, 8]             --
│    └─ReLU: 2-1552                      [8, 64, 8, 8]             --
│    └─Empty: 2-1553                     [8, 64, 8, 8]             --
│    └─Clamp: 2-1554                     [8, 64, 8, 8]             --
├─FusedMaxPoolConv2dBNReLU: 1-117        [8, 64, 4, 4]             (recursive)
│    └─MaxPool2d: 2-1555                 [8, 64, 4, 4]             --
│    └─Empty: 2-1556                     [8, 64, 4, 4]             --
│    └─Empty: 2-1557                     [8, 64, 4, 4]             --
│    └─OutputShiftSqueeze: 2-1558        --                        --
│    └─One: 2-1559                       [1]                       --
│    └─OutputScale: 2-1560               --                        --
│    └─Empty: 2-1561                     [64, 64, 1, 1]            --
│    └─Empty: 2-1562                     [64, 64, 1, 1]            --
│    └─Empty: 2-1563                     [64]                      --
│    └─Empty: 2-1564                     [64]                      --
│    └─BatchNorm2d: 2-1565               [8, 64, 4, 4]             --
│    └─Scaler: 2-1566                    [8, 64, 4, 4]             --
│    └─ReLU: 2-1567                      [8, 64, 4, 4]             --
│    └─Empty: 2-1568                     [8, 64, 4, 4]             --
│    └─Clamp: 2-1569                     [8, 64, 4, 4]             --
├─FusedConv2dBNReLU: 1-118               [8, 64, 4, 4]             (recursive)
│    └─OutputShiftSqueeze: 2-1570        --                        --
│    └─One: 2-1571                       [1]                       --
│    └─OutputScale: 2-1572               --                        --
│    └─Empty: 2-1573                     [64, 64, 1, 1]            --
│    └─Empty: 2-1574                     [64, 64, 1, 1]            --
│    └─Empty: 2-1575                     [64]                      --
│    └─Empty: 2-1576                     [64]                      --
│    └─BatchNorm2d: 2-1577               [8, 64, 4, 4]             --
│    └─Scaler: 2-1578                    [8, 64, 4, 4]             --
│    └─ReLU: 2-1579                      [8, 64, 4, 4]             --
│    └─Empty: 2-1580                     [8, 64, 4, 4]             --
│    └─Clamp: 2-1581                     [8, 64, 4, 4]             --
├─FusedMaxPoolConv2dBNReLU: 1-119        [8, 64, 4, 4]             (recursive)
│    └─MaxPool2d: 2-1582                 [8, 64, 4, 4]             --
│    └─Empty: 2-1583                     [8, 64, 4, 4]             --
│    └─Empty: 2-1584                     [8, 64, 4, 4]             --
│    └─OutputShiftSqueeze: 2-1585        --                        --
│    └─One: 2-1586                       [1]                       --
│    └─OutputScale: 2-1587               --                        --
│    └─Empty: 2-1588                     [64, 64, 3, 3]            --
│    └─Empty: 2-1589                     [64, 64, 3, 3]            --
│    └─Empty: 2-1590                     [64]                      --
│    └─Empty: 2-1591                     [64]                      --
│    └─BatchNorm2d: 2-1592               [8, 64, 4, 4]             --
│    └─Scaler: 2-1593                    [8, 64, 4, 4]             --
│    └─ReLU: 2-1594                      [8, 64, 4, 4]             --
│    └─Empty: 2-1595                     [8, 64, 4, 4]             --
│    └─Clamp: 2-1596                     [8, 64, 4, 4]             --
├─FusedConv2dBNReLU: 1-120               [8, 64, 128, 128]         (recursive)
│    └─OutputShiftSqueeze: 2-1597        --                        --
│    └─One: 2-1598                       [1]                       --
│    └─OutputScale: 2-1599               --                        --
│    └─Empty: 2-1600                     [64, 12, 1, 1]            --
│    └─Empty: 2-1601                     [64, 12, 1, 1]            --
│    └─Empty: 2-1602                     [64]                      --
│    └─Empty: 2-1603                     [64]                      --
│    └─BatchNorm2d: 2-1604               [8, 64, 128, 128]         --
│    └─Scaler: 2-1605                    [8, 64, 128, 128]         --
│    └─ReLU: 2-1606                      [8, 64, 128, 128]         --
│    └─Empty: 2-1607                     [8, 64, 128, 128]         --
│    └─Clamp: 2-1608                     [8, 64, 128, 128]         --
├─FusedConv2dBNReLU: 1-121               [8, 64, 128, 128]         (recursive)
│    └─OutputShiftSqueeze: 2-1609        --                        --
│    └─One: 2-1610                       [1]                       --
│    └─OutputScale: 2-1611               --                        --
│    └─Empty: 2-1612                     [64, 64, 3, 3]            --
│    └─Empty: 2-1613                     [64, 64, 3, 3]            --
│    └─Empty: 2-1614                     [64]                      --
│    └─Empty: 2-1615                     [64]                      --
│    └─BatchNorm2d: 2-1616               [8, 64, 128, 128]         --
│    └─Scaler: 2-1617                    [8, 64, 128, 128]         --
│    └─ReLU: 2-1618                      [8, 64, 128, 128]         --
│    └─Empty: 2-1619                     [8, 64, 128, 128]         --
│    └─Clamp: 2-1620                     [8, 64, 128, 128]         --
├─FusedConv2dBNReLU: 1-122               [8, 64, 128, 128]         (recursive)
│    └─OutputShiftSqueeze: 2-1621        --                        --
│    └─One: 2-1622                       [1]                       --
│    └─OutputScale: 2-1623               --                        --
│    └─Empty: 2-1624                     [64, 64, 1, 1]            --
│    └─Empty: 2-1625                     [64, 64, 1, 1]            --
│    └─Empty: 2-1626                     [64]                      --
│    └─Empty: 2-1627                     [64]                      --
│    └─BatchNorm2d: 2-1628               [8, 64, 128, 128]         --
│    └─Scaler: 2-1629                    [8, 64, 128, 128]         --
│    └─ReLU: 2-1630                      [8, 64, 128, 128]         --
│    └─Empty: 2-1631                     [8, 64, 128, 128]         --
│    └─Clamp: 2-1632                     [8, 64, 128, 128]         --
├─FusedConv2dBNReLU: 1-123               [8, 64, 128, 128]         (recursive)
│    └─OutputShiftSqueeze: 2-1633        --                        --
│    └─One: 2-1634                       [1]                       --
│    └─OutputScale: 2-1635               --                        --
│    └─Empty: 2-1636                     [64, 64, 3, 3]            --
│    └─Empty: 2-1637                     [64, 64, 3, 3]            --
│    └─Empty: 2-1638                     [64]                      --
│    └─Empty: 2-1639                     [64]                      --
│    └─BatchNorm2d: 2-1640               [8, 64, 128, 128]         --
│    └─Scaler: 2-1641                    [8, 64, 128, 128]         --
│    └─ReLU: 2-1642                      [8, 64, 128, 128]         --
│    └─Empty: 2-1643                     [8, 64, 128, 128]         --
│    └─Clamp: 2-1644                     [8, 64, 128, 128]         --
├─FusedMaxPoolConv2dBNReLU: 1-124        [8, 64, 64, 64]           (recursive)
│    └─MaxPool2d: 2-1645                 [8, 64, 64, 64]           --
│    └─Empty: 2-1646                     [8, 64, 64, 64]           --
│    └─Empty: 2-1647                     [8, 64, 64, 64]           --
│    └─OutputShiftSqueeze: 2-1648        --                        --
│    └─One: 2-1649                       [1]                       --
│    └─OutputScale: 2-1650               --                        --
│    └─Empty: 2-1651                     [64, 64, 3, 3]            --
│    └─Empty: 2-1652                     [64, 64, 3, 3]            --
│    └─Empty: 2-1653                     [64]                      --
│    └─Empty: 2-1654                     [64]                      --
│    └─BatchNorm2d: 2-1655               [8, 64, 64, 64]           --
│    └─Scaler: 2-1656                    [8, 64, 64, 64]           --
│    └─ReLU: 2-1657                      [8, 64, 64, 64]           --
│    └─Empty: 2-1658                     [8, 64, 64, 64]           --
│    └─Clamp: 2-1659                     [8, 64, 64, 64]           --
├─FusedConv2dBNReLU: 1-125               [8, 64, 64, 64]           (recursive)
│    └─OutputShiftSqueeze: 2-1660        --                        --
│    └─One: 2-1661                       [1]                       --
│    └─OutputScale: 2-1662               --                        --
│    └─Empty: 2-1663                     [64, 64, 3, 3]            --
│    └─Empty: 2-1664                     [64, 64, 3, 3]            --
│    └─Empty: 2-1665                     [64]                      --
│    └─Empty: 2-1666                     [64]                      --
│    └─BatchNorm2d: 2-1667               [8, 64, 64, 64]           --
│    └─Scaler: 2-1668                    [8, 64, 64, 64]           --
│    └─ReLU: 2-1669                      [8, 64, 64, 64]           --
│    └─Empty: 2-1670                     [8, 64, 64, 64]           --
│    └─Clamp: 2-1671                     [8, 64, 64, 64]           --
├─FusedMaxPoolConv2dBNReLU: 1-126        [8, 64, 32, 32]           (recursive)
│    └─MaxPool2d: 2-1672                 [8, 64, 32, 32]           --
│    └─Empty: 2-1673                     [8, 64, 32, 32]           --
│    └─Empty: 2-1674                     [8, 64, 32, 32]           --
│    └─OutputShiftSqueeze: 2-1675        --                        --
│    └─One: 2-1676                       [1]                       --
│    └─OutputScale: 2-1677               --                        --
│    └─Empty: 2-1678                     [64, 64, 3, 3]            --
│    └─Empty: 2-1679                     [64, 64, 3, 3]            --
│    └─Empty: 2-1680                     [64]                      --
│    └─Empty: 2-1681                     [64]                      --
│    └─BatchNorm2d: 2-1682               [8, 64, 32, 32]           --
│    └─Scaler: 2-1683                    [8, 64, 32, 32]           --
│    └─ReLU: 2-1684                      [8, 64, 32, 32]           --
│    └─Empty: 2-1685                     [8, 64, 32, 32]           --
│    └─Clamp: 2-1686                     [8, 64, 32, 32]           --
├─FusedConv2dBNReLU: 1-127               [8, 64, 32, 32]           (recursive)
│    └─OutputShiftSqueeze: 2-1687        --                        --
│    └─One: 2-1688                       [1]                       --
│    └─OutputScale: 2-1689               --                        --
│    └─Empty: 2-1690                     [64, 64, 3, 3]            --
│    └─Empty: 2-1691                     [64, 64, 3, 3]            --
│    └─Empty: 2-1692                     [64]                      --
│    └─Empty: 2-1693                     [64]                      --
│    └─BatchNorm2d: 2-1694               [8, 64, 32, 32]           --
│    └─Scaler: 2-1695                    [8, 64, 32, 32]           --
│    └─ReLU: 2-1696                      [8, 64, 32, 32]           --
│    └─Empty: 2-1697                     [8, 64, 32, 32]           --
│    └─Clamp: 2-1698                     [8, 64, 32, 32]           --
├─FusedMaxPoolConv2dBNReLU: 1-128        [8, 64, 16, 16]           (recursive)
│    └─MaxPool2d: 2-1699                 [8, 64, 16, 16]           --
│    └─Empty: 2-1700                     [8, 64, 16, 16]           --
│    └─Empty: 2-1701                     [8, 64, 16, 16]           --
│    └─OutputShiftSqueeze: 2-1702        --                        --
│    └─One: 2-1703                       [1]                       --
│    └─OutputScale: 2-1704               --                        --
│    └─Empty: 2-1705                     [64, 64, 3, 3]            --
│    └─Empty: 2-1706                     [64, 64, 3, 3]            --
│    └─Empty: 2-1707                     [64]                      --
│    └─Empty: 2-1708                     [64]                      --
│    └─BatchNorm2d: 2-1709               [8, 64, 16, 16]           --
│    └─Scaler: 2-1710                    [8, 64, 16, 16]           --
│    └─ReLU: 2-1711                      [8, 64, 16, 16]           --
│    └─Empty: 2-1712                     [8, 64, 16, 16]           --
│    └─Clamp: 2-1713                     [8, 64, 16, 16]           --
├─FusedConv2dBNReLU: 1-129               [8, 64, 16, 16]           (recursive)
│    └─OutputShiftSqueeze: 2-1714        --                        --
│    └─One: 2-1715                       [1]                       --
│    └─OutputScale: 2-1716               --                        --
│    └─Empty: 2-1717                     [64, 64, 1, 1]            --
│    └─Empty: 2-1718                     [64, 64, 1, 1]            --
│    └─Empty: 2-1719                     [64]                      --
│    └─Empty: 2-1720                     [64]                      --
│    └─BatchNorm2d: 2-1721               [8, 64, 16, 16]           --
│    └─Scaler: 2-1722                    [8, 64, 16, 16]           --
│    └─ReLU: 2-1723                      [8, 64, 16, 16]           --
│    └─Empty: 2-1724                     [8, 64, 16, 16]           --
│    └─Clamp: 2-1725                     [8, 64, 16, 16]           --
├─FusedMaxPoolConv2dBNReLU: 1-130        [8, 64, 16, 16]           (recursive)
│    └─MaxPool2d: 2-1726                 [8, 64, 16, 16]           --
│    └─Empty: 2-1727                     [8, 64, 16, 16]           --
│    └─Empty: 2-1728                     [8, 64, 16, 16]           --
│    └─OutputShiftSqueeze: 2-1729        --                        --
│    └─One: 2-1730                       [1]                       --
│    └─OutputScale: 2-1731               --                        --
│    └─Empty: 2-1732                     [64, 64, 3, 3]            --
│    └─Empty: 2-1733                     [64, 64, 3, 3]            --
│    └─Empty: 2-1734                     [64]                      --
│    └─Empty: 2-1735                     [64]                      --
│    └─BatchNorm2d: 2-1736               [8, 64, 16, 16]           --
│    └─Scaler: 2-1737                    [8, 64, 16, 16]           --
│    └─ReLU: 2-1738                      [8, 64, 16, 16]           --
│    └─Empty: 2-1739                     [8, 64, 16, 16]           --
│    └─Clamp: 2-1740                     [8, 64, 16, 16]           --
├─FusedMaxPoolConv2dBNReLU: 1-131        [8, 64, 8, 8]             (recursive)
│    └─MaxPool2d: 2-1741                 [8, 64, 8, 8]             --
│    └─Empty: 2-1742                     [8, 64, 8, 8]             --
│    └─Empty: 2-1743                     [8, 64, 8, 8]             --
│    └─OutputShiftSqueeze: 2-1744        --                        --
│    └─One: 2-1745                       [1]                       --
│    └─OutputScale: 2-1746               --                        --
│    └─Empty: 2-1747                     [64, 64, 3, 3]            --
│    └─Empty: 2-1748                     [64, 64, 3, 3]            --
│    └─Empty: 2-1749                     [64]                      --
│    └─Empty: 2-1750                     [64]                      --
│    └─BatchNorm2d: 2-1751               [8, 64, 8, 8]             --
│    └─Scaler: 2-1752                    [8, 64, 8, 8]             --
│    └─ReLU: 2-1753                      [8, 64, 8, 8]             --
│    └─Empty: 2-1754                     [8, 64, 8, 8]             --
│    └─Clamp: 2-1755                     [8, 64, 8, 8]             --
├─FusedConv2dBNReLU: 1-132               [8, 64, 8, 8]             (recursive)
│    └─OutputShiftSqueeze: 2-1756        --                        --
│    └─One: 2-1757                       [1]                       --
│    └─OutputScale: 2-1758               --                        --
│    └─Empty: 2-1759                     [64, 64, 1, 1]            --
│    └─Empty: 2-1760                     [64, 64, 1, 1]            --
│    └─Empty: 2-1761                     [64]                      --
│    └─Empty: 2-1762                     [64]                      --
│    └─BatchNorm2d: 2-1763               [8, 64, 8, 8]             --
│    └─Scaler: 2-1764                    [8, 64, 8, 8]             --
│    └─ReLU: 2-1765                      [8, 64, 8, 8]             --
│    └─Empty: 2-1766                     [8, 64, 8, 8]             --
│    └─Clamp: 2-1767                     [8, 64, 8, 8]             --
├─FusedMaxPoolConv2dBNReLU: 1-133        [8, 64, 8, 8]             (recursive)
│    └─MaxPool2d: 2-1768                 [8, 64, 8, 8]             --
│    └─Empty: 2-1769                     [8, 64, 8, 8]             --
│    └─Empty: 2-1770                     [8, 64, 8, 8]             --
│    └─OutputShiftSqueeze: 2-1771        --                        --
│    └─One: 2-1772                       [1]                       --
│    └─OutputScale: 2-1773               --                        --
│    └─Empty: 2-1774                     [64, 64, 3, 3]            --
│    └─Empty: 2-1775                     [64, 64, 3, 3]            --
│    └─Empty: 2-1776                     [64]                      --
│    └─Empty: 2-1777                     [64]                      --
│    └─BatchNorm2d: 2-1778               [8, 64, 8, 8]             --
│    └─Scaler: 2-1779                    [8, 64, 8, 8]             --
│    └─ReLU: 2-1780                      [8, 64, 8, 8]             --
│    └─Empty: 2-1781                     [8, 64, 8, 8]             --
│    └─Clamp: 2-1782                     [8, 64, 8, 8]             --
├─FusedMaxPoolConv2dBNReLU: 1-134        [8, 64, 4, 4]             (recursive)
│    └─MaxPool2d: 2-1783                 [8, 64, 4, 4]             --
│    └─Empty: 2-1784                     [8, 64, 4, 4]             --
│    └─Empty: 2-1785                     [8, 64, 4, 4]             --
│    └─OutputShiftSqueeze: 2-1786        --                        --
│    └─One: 2-1787                       [1]                       --
│    └─OutputScale: 2-1788               --                        --
│    └─Empty: 2-1789                     [64, 64, 1, 1]            --
│    └─Empty: 2-1790                     [64, 64, 1, 1]            --
│    └─Empty: 2-1791                     [64]                      --
│    └─Empty: 2-1792                     [64]                      --
│    └─BatchNorm2d: 2-1793               [8, 64, 4, 4]             --
│    └─Scaler: 2-1794                    [8, 64, 4, 4]             --
│    └─ReLU: 2-1795                      [8, 64, 4, 4]             --
│    └─Empty: 2-1796                     [8, 64, 4, 4]             --
│    └─Clamp: 2-1797                     [8, 64, 4, 4]             --
├─FusedConv2dBNReLU: 1-135               [8, 64, 4, 4]             (recursive)
│    └─OutputShiftSqueeze: 2-1798        --                        --
│    └─One: 2-1799                       [1]                       --
│    └─OutputScale: 2-1800               --                        --
│    └─Empty: 2-1801                     [64, 64, 1, 1]            --
│    └─Empty: 2-1802                     [64, 64, 1, 1]            --
│    └─Empty: 2-1803                     [64]                      --
│    └─Empty: 2-1804                     [64]                      --
│    └─BatchNorm2d: 2-1805               [8, 64, 4, 4]             --
│    └─Scaler: 2-1806                    [8, 64, 4, 4]             --
│    └─ReLU: 2-1807                      [8, 64, 4, 4]             --
│    └─Empty: 2-1808                     [8, 64, 4, 4]             --
│    └─Clamp: 2-1809                     [8, 64, 4, 4]             --
├─FusedMaxPoolConv2dBNReLU: 1-136        [8, 64, 4, 4]             (recursive)
│    └─MaxPool2d: 2-1810                 [8, 64, 4, 4]             --
│    └─Empty: 2-1811                     [8, 64, 4, 4]             --
│    └─Empty: 2-1812                     [8, 64, 4, 4]             --
│    └─OutputShiftSqueeze: 2-1813        --                        --
│    └─One: 2-1814                       [1]                       --
│    └─OutputScale: 2-1815               --                        --
│    └─Empty: 2-1816                     [64, 64, 3, 3]            --
│    └─Empty: 2-1817                     [64, 64, 3, 3]            --
│    └─Empty: 2-1818                     [64]                      --
│    └─Empty: 2-1819                     [64]                      --
│    └─BatchNorm2d: 2-1820               [8, 64, 4, 4]             --
│    └─Scaler: 2-1821                    [8, 64, 4, 4]             --
│    └─ReLU: 2-1822                      [8, 64, 4, 4]             --
│    └─Empty: 2-1823                     [8, 64, 4, 4]             --
│    └─Clamp: 2-1824                     [8, 64, 4, 4]             --
├─FusedConv2dBNReLU: 1-137               [8, 64, 128, 128]         (recursive)
│    └─OutputShiftSqueeze: 2-1825        --                        --
│    └─One: 2-1826                       [1]                       --
│    └─OutputScale: 2-1827               --                        --
│    └─Empty: 2-1828                     [64, 12, 1, 1]            --
│    └─Empty: 2-1829                     [64, 12, 1, 1]            --
│    └─Empty: 2-1830                     [64]                      --
│    └─Empty: 2-1831                     [64]                      --
│    └─BatchNorm2d: 2-1832               [8, 64, 128, 128]         --
│    └─Scaler: 2-1833                    [8, 64, 128, 128]         --
│    └─ReLU: 2-1834                      [8, 64, 128, 128]         --
│    └─Empty: 2-1835                     [8, 64, 128, 128]         --
│    └─Clamp: 2-1836                     [8, 64, 128, 128]         --
├─FusedConv2dBNReLU: 1-138               [8, 64, 128, 128]         (recursive)
│    └─OutputShiftSqueeze: 2-1837        --                        --
│    └─One: 2-1838                       [1]                       --
│    └─OutputScale: 2-1839               --                        --
│    └─Empty: 2-1840                     [64, 64, 3, 3]            --
│    └─Empty: 2-1841                     [64, 64, 3, 3]            --
│    └─Empty: 2-1842                     [64]                      --
│    └─Empty: 2-1843                     [64]                      --
│    └─BatchNorm2d: 2-1844               [8, 64, 128, 128]         --
│    └─Scaler: 2-1845                    [8, 64, 128, 128]         --
│    └─ReLU: 2-1846                      [8, 64, 128, 128]         --
│    └─Empty: 2-1847                     [8, 64, 128, 128]         --
│    └─Clamp: 2-1848                     [8, 64, 128, 128]         --
├─FusedConv2dBNReLU: 1-139               [8, 64, 128, 128]         (recursive)
│    └─OutputShiftSqueeze: 2-1849        --                        --
│    └─One: 2-1850                       [1]                       --
│    └─OutputScale: 2-1851               --                        --
│    └─Empty: 2-1852                     [64, 64, 1, 1]            --
│    └─Empty: 2-1853                     [64, 64, 1, 1]            --
│    └─Empty: 2-1854                     [64]                      --
│    └─Empty: 2-1855                     [64]                      --
│    └─BatchNorm2d: 2-1856               [8, 64, 128, 128]         --
│    └─Scaler: 2-1857                    [8, 64, 128, 128]         --
│    └─ReLU: 2-1858                      [8, 64, 128, 128]         --
│    └─Empty: 2-1859                     [8, 64, 128, 128]         --
│    └─Clamp: 2-1860                     [8, 64, 128, 128]         --
├─FusedConv2dBNReLU: 1-140               [8, 64, 128, 128]         (recursive)
│    └─OutputShiftSqueeze: 2-1861        --                        --
│    └─One: 2-1862                       [1]                       --
│    └─OutputScale: 2-1863               --                        --
│    └─Empty: 2-1864                     [64, 64, 3, 3]            --
│    └─Empty: 2-1865                     [64, 64, 3, 3]            --
│    └─Empty: 2-1866                     [64]                      --
│    └─Empty: 2-1867                     [64]                      --
│    └─BatchNorm2d: 2-1868               [8, 64, 128, 128]         --
│    └─Scaler: 2-1869                    [8, 64, 128, 128]         --
│    └─ReLU: 2-1870                      [8, 64, 128, 128]         --
│    └─Empty: 2-1871                     [8, 64, 128, 128]         --
│    └─Clamp: 2-1872                     [8, 64, 128, 128]         --
├─FusedMaxPoolConv2dBNReLU: 1-141        [8, 64, 64, 64]           (recursive)
│    └─MaxPool2d: 2-1873                 [8, 64, 64, 64]           --
│    └─Empty: 2-1874                     [8, 64, 64, 64]           --
│    └─Empty: 2-1875                     [8, 64, 64, 64]           --
│    └─OutputShiftSqueeze: 2-1876        --                        --
│    └─One: 2-1877                       [1]                       --
│    └─OutputScale: 2-1878               --                        --
│    └─Empty: 2-1879                     [64, 64, 3, 3]            --
│    └─Empty: 2-1880                     [64, 64, 3, 3]            --
│    └─Empty: 2-1881                     [64]                      --
│    └─Empty: 2-1882                     [64]                      --
│    └─BatchNorm2d: 2-1883               [8, 64, 64, 64]           --
│    └─Scaler: 2-1884                    [8, 64, 64, 64]           --
│    └─ReLU: 2-1885                      [8, 64, 64, 64]           --
│    └─Empty: 2-1886                     [8, 64, 64, 64]           --
│    └─Clamp: 2-1887                     [8, 64, 64, 64]           --
├─FusedConv2dBNReLU: 1-142               [8, 64, 64, 64]           (recursive)
│    └─OutputShiftSqueeze: 2-1888        --                        --
│    └─One: 2-1889                       [1]                       --
│    └─OutputScale: 2-1890               --                        --
│    └─Empty: 2-1891                     [64, 64, 3, 3]            --
│    └─Empty: 2-1892                     [64, 64, 3, 3]            --
│    └─Empty: 2-1893                     [64]                      --
│    └─Empty: 2-1894                     [64]                      --
│    └─BatchNorm2d: 2-1895               [8, 64, 64, 64]           --
│    └─Scaler: 2-1896                    [8, 64, 64, 64]           --
│    └─ReLU: 2-1897                      [8, 64, 64, 64]           --
│    └─Empty: 2-1898                     [8, 64, 64, 64]           --
│    └─Clamp: 2-1899                     [8, 64, 64, 64]           --
├─FusedMaxPoolConv2dBNReLU: 1-143        [8, 64, 32, 32]           (recursive)
│    └─MaxPool2d: 2-1900                 [8, 64, 32, 32]           --
│    └─Empty: 2-1901                     [8, 64, 32, 32]           --
│    └─Empty: 2-1902                     [8, 64, 32, 32]           --
│    └─OutputShiftSqueeze: 2-1903        --                        --
│    └─One: 2-1904                       [1]                       --
│    └─OutputScale: 2-1905               --                        --
│    └─Empty: 2-1906                     [64, 64, 3, 3]            --
│    └─Empty: 2-1907                     [64, 64, 3, 3]            --
│    └─Empty: 2-1908                     [64]                      --
│    └─Empty: 2-1909                     [64]                      --
│    └─BatchNorm2d: 2-1910               [8, 64, 32, 32]           --
│    └─Scaler: 2-1911                    [8, 64, 32, 32]           --
│    └─ReLU: 2-1912                      [8, 64, 32, 32]           --
│    └─Empty: 2-1913                     [8, 64, 32, 32]           --
│    └─Clamp: 2-1914                     [8, 64, 32, 32]           --
├─FusedConv2dBNReLU: 1-144               [8, 64, 32, 32]           (recursive)
│    └─OutputShiftSqueeze: 2-1915        --                        --
│    └─One: 2-1916                       [1]                       --
│    └─OutputScale: 2-1917               --                        --
│    └─Empty: 2-1918                     [64, 64, 3, 3]            --
│    └─Empty: 2-1919                     [64, 64, 3, 3]            --
│    └─Empty: 2-1920                     [64]                      --
│    └─Empty: 2-1921                     [64]                      --
│    └─BatchNorm2d: 2-1922               [8, 64, 32, 32]           --
│    └─Scaler: 2-1923                    [8, 64, 32, 32]           --
│    └─ReLU: 2-1924                      [8, 64, 32, 32]           --
│    └─Empty: 2-1925                     [8, 64, 32, 32]           --
│    └─Clamp: 2-1926                     [8, 64, 32, 32]           --
├─FusedMaxPoolConv2dBNReLU: 1-145        [8, 64, 16, 16]           (recursive)
│    └─MaxPool2d: 2-1927                 [8, 64, 16, 16]           --
│    └─Empty: 2-1928                     [8, 64, 16, 16]           --
│    └─Empty: 2-1929                     [8, 64, 16, 16]           --
│    └─OutputShiftSqueeze: 2-1930        --                        --
│    └─One: 2-1931                       [1]                       --
│    └─OutputScale: 2-1932               --                        --
│    └─Empty: 2-1933                     [64, 64, 3, 3]            --
│    └─Empty: 2-1934                     [64, 64, 3, 3]            --
│    └─Empty: 2-1935                     [64]                      --
│    └─Empty: 2-1936                     [64]                      --
│    └─BatchNorm2d: 2-1937               [8, 64, 16, 16]           --
│    └─Scaler: 2-1938                    [8, 64, 16, 16]           --
│    └─ReLU: 2-1939                      [8, 64, 16, 16]           --
│    └─Empty: 2-1940                     [8, 64, 16, 16]           --
│    └─Clamp: 2-1941                     [8, 64, 16, 16]           --
├─FusedConv2dBNReLU: 1-146               [8, 64, 16, 16]           (recursive)
│    └─OutputShiftSqueeze: 2-1942        --                        --
│    └─One: 2-1943                       [1]                       --
│    └─OutputScale: 2-1944               --                        --
│    └─Empty: 2-1945                     [64, 64, 1, 1]            --
│    └─Empty: 2-1946                     [64, 64, 1, 1]            --
│    └─Empty: 2-1947                     [64]                      --
│    └─Empty: 2-1948                     [64]                      --
│    └─BatchNorm2d: 2-1949               [8, 64, 16, 16]           --
│    └─Scaler: 2-1950                    [8, 64, 16, 16]           --
│    └─ReLU: 2-1951                      [8, 64, 16, 16]           --
│    └─Empty: 2-1952                     [8, 64, 16, 16]           --
│    └─Clamp: 2-1953                     [8, 64, 16, 16]           --
├─FusedMaxPoolConv2dBNReLU: 1-147        [8, 64, 16, 16]           (recursive)
│    └─MaxPool2d: 2-1954                 [8, 64, 16, 16]           --
│    └─Empty: 2-1955                     [8, 64, 16, 16]           --
│    └─Empty: 2-1956                     [8, 64, 16, 16]           --
│    └─OutputShiftSqueeze: 2-1957        --                        --
│    └─One: 2-1958                       [1]                       --
│    └─OutputScale: 2-1959               --                        --
│    └─Empty: 2-1960                     [64, 64, 3, 3]            --
│    └─Empty: 2-1961                     [64, 64, 3, 3]            --
│    └─Empty: 2-1962                     [64]                      --
│    └─Empty: 2-1963                     [64]                      --
│    └─BatchNorm2d: 2-1964               [8, 64, 16, 16]           --
│    └─Scaler: 2-1965                    [8, 64, 16, 16]           --
│    └─ReLU: 2-1966                      [8, 64, 16, 16]           --
│    └─Empty: 2-1967                     [8, 64, 16, 16]           --
│    └─Clamp: 2-1968                     [8, 64, 16, 16]           --
├─FusedMaxPoolConv2dBNReLU: 1-148        [8, 64, 8, 8]             (recursive)
│    └─MaxPool2d: 2-1969                 [8, 64, 8, 8]             --
│    └─Empty: 2-1970                     [8, 64, 8, 8]             --
│    └─Empty: 2-1971                     [8, 64, 8, 8]             --
│    └─OutputShiftSqueeze: 2-1972        --                        --
│    └─One: 2-1973                       [1]                       --
│    └─OutputScale: 2-1974               --                        --
│    └─Empty: 2-1975                     [64, 64, 3, 3]            --
│    └─Empty: 2-1976                     [64, 64, 3, 3]            --
│    └─Empty: 2-1977                     [64]                      --
│    └─Empty: 2-1978                     [64]                      --
│    └─BatchNorm2d: 2-1979               [8, 64, 8, 8]             --
│    └─Scaler: 2-1980                    [8, 64, 8, 8]             --
│    └─ReLU: 2-1981                      [8, 64, 8, 8]             --
│    └─Empty: 2-1982                     [8, 64, 8, 8]             --
│    └─Clamp: 2-1983                     [8, 64, 8, 8]             --
├─FusedConv2dBNReLU: 1-149               [8, 64, 8, 8]             (recursive)
│    └─OutputShiftSqueeze: 2-1984        --                        --
│    └─One: 2-1985                       [1]                       --
│    └─OutputScale: 2-1986               --                        --
│    └─Empty: 2-1987                     [64, 64, 1, 1]            --
│    └─Empty: 2-1988                     [64, 64, 1, 1]            --
│    └─Empty: 2-1989                     [64]                      --
│    └─Empty: 2-1990                     [64]                      --
│    └─BatchNorm2d: 2-1991               [8, 64, 8, 8]             --
│    └─Scaler: 2-1992                    [8, 64, 8, 8]             --
│    └─ReLU: 2-1993                      [8, 64, 8, 8]             --
│    └─Empty: 2-1994                     [8, 64, 8, 8]             --
│    └─Clamp: 2-1995                     [8, 64, 8, 8]             --
├─FusedMaxPoolConv2dBNReLU: 1-150        [8, 64, 8, 8]             (recursive)
│    └─MaxPool2d: 2-1996                 [8, 64, 8, 8]             --
│    └─Empty: 2-1997                     [8, 64, 8, 8]             --
│    └─Empty: 2-1998                     [8, 64, 8, 8]             --
│    └─OutputShiftSqueeze: 2-1999        --                        --
│    └─One: 2-2000                       [1]                       --
│    └─OutputScale: 2-2001               --                        --
│    └─Empty: 2-2002                     [64, 64, 3, 3]            --
│    └─Empty: 2-2003                     [64, 64, 3, 3]            --
│    └─Empty: 2-2004                     [64]                      --
│    └─Empty: 2-2005                     [64]                      --
│    └─BatchNorm2d: 2-2006               [8, 64, 8, 8]             --
│    └─Scaler: 2-2007                    [8, 64, 8, 8]             --
│    └─ReLU: 2-2008                      [8, 64, 8, 8]             --
│    └─Empty: 2-2009                     [8, 64, 8, 8]             --
│    └─Clamp: 2-2010                     [8, 64, 8, 8]             --
├─FusedMaxPoolConv2dBNReLU: 1-151        [8, 64, 4, 4]             (recursive)
│    └─MaxPool2d: 2-2011                 [8, 64, 4, 4]             --
│    └─Empty: 2-2012                     [8, 64, 4, 4]             --
│    └─Empty: 2-2013                     [8, 64, 4, 4]             --
│    └─OutputShiftSqueeze: 2-2014        --                        --
│    └─One: 2-2015                       [1]                       --
│    └─OutputScale: 2-2016               --                        --
│    └─Empty: 2-2017                     [64, 64, 1, 1]            --
│    └─Empty: 2-2018                     [64, 64, 1, 1]            --
│    └─Empty: 2-2019                     [64]                      --
│    └─Empty: 2-2020                     [64]                      --
│    └─BatchNorm2d: 2-2021               [8, 64, 4, 4]             --
│    └─Scaler: 2-2022                    [8, 64, 4, 4]             --
│    └─ReLU: 2-2023                      [8, 64, 4, 4]             --
│    └─Empty: 2-2024                     [8, 64, 4, 4]             --
│    └─Clamp: 2-2025                     [8, 64, 4, 4]             --
├─FusedConv2dBNReLU: 1-152               [8, 64, 4, 4]             (recursive)
│    └─OutputShiftSqueeze: 2-2026        --                        --
│    └─One: 2-2027                       [1]                       --
│    └─OutputScale: 2-2028               --                        --
│    └─Empty: 2-2029                     [64, 64, 1, 1]            --
│    └─Empty: 2-2030                     [64, 64, 1, 1]            --
│    └─Empty: 2-2031                     [64]                      --
│    └─Empty: 2-2032                     [64]                      --
│    └─BatchNorm2d: 2-2033               [8, 64, 4, 4]             --
│    └─Scaler: 2-2034                    [8, 64, 4, 4]             --
│    └─ReLU: 2-2035                      [8, 64, 4, 4]             --
│    └─Empty: 2-2036                     [8, 64, 4, 4]             --
│    └─Clamp: 2-2037                     [8, 64, 4, 4]             --
├─FusedMaxPoolConv2dBNReLU: 1-153        [8, 64, 4, 4]             (recursive)
│    └─MaxPool2d: 2-2038                 [8, 64, 4, 4]             --
│    └─Empty: 2-2039                     [8, 64, 4, 4]             --
│    └─Empty: 2-2040                     [8, 64, 4, 4]             --
│    └─OutputShiftSqueeze: 2-2041        --                        --
│    └─One: 2-2042                       [1]                       --
│    └─OutputScale: 2-2043               --                        --
│    └─Empty: 2-2044                     [64, 64, 3, 3]            --
│    └─Empty: 2-2045                     [64, 64, 3, 3]            --
│    └─Empty: 2-2046                     [64]                      --
│    └─Empty: 2-2047                     [64]                      --
│    └─BatchNorm2d: 2-2048               [8, 64, 4, 4]             --
│    └─Scaler: 2-2049                    [8, 64, 4, 4]             --
│    └─ReLU: 2-2050                      [8, 64, 4, 4]             --
│    └─Empty: 2-2051                     [8, 64, 4, 4]             --
│    └─Clamp: 2-2052                     [8, 64, 4, 4]             --
├─FusedConv2dBNReLU: 1-154               [8, 64, 128, 128]         (recursive)
│    └─OutputShiftSqueeze: 2-2053        --                        --
│    └─One: 2-2054                       [1]                       --
│    └─OutputScale: 2-2055               --                        --
│    └─Empty: 2-2056                     [64, 12, 1, 1]            --
│    └─Empty: 2-2057                     [64, 12, 1, 1]            --
│    └─Empty: 2-2058                     [64]                      --
│    └─Empty: 2-2059                     [64]                      --
│    └─BatchNorm2d: 2-2060               [8, 64, 128, 128]         --
│    └─Scaler: 2-2061                    [8, 64, 128, 128]         --
│    └─ReLU: 2-2062                      [8, 64, 128, 128]         --
│    └─Empty: 2-2063                     [8, 64, 128, 128]         --
│    └─Clamp: 2-2064                     [8, 64, 128, 128]         --
├─FusedConv2dBNReLU: 1-155               [8, 64, 128, 128]         (recursive)
│    └─OutputShiftSqueeze: 2-2065        --                        --
│    └─One: 2-2066                       [1]                       --
│    └─OutputScale: 2-2067               --                        --
│    └─Empty: 2-2068                     [64, 64, 3, 3]            --
│    └─Empty: 2-2069                     [64, 64, 3, 3]            --
│    └─Empty: 2-2070                     [64]                      --
│    └─Empty: 2-2071                     [64]                      --
│    └─BatchNorm2d: 2-2072               [8, 64, 128, 128]         --
│    └─Scaler: 2-2073                    [8, 64, 128, 128]         --
│    └─ReLU: 2-2074                      [8, 64, 128, 128]         --
│    └─Empty: 2-2075                     [8, 64, 128, 128]         --
│    └─Clamp: 2-2076                     [8, 64, 128, 128]         --
├─FusedConv2dBNReLU: 1-156               [8, 64, 128, 128]         (recursive)
│    └─OutputShiftSqueeze: 2-2077        --                        --
│    └─One: 2-2078                       [1]                       --
│    └─OutputScale: 2-2079               --                        --
│    └─Empty: 2-2080                     [64, 64, 1, 1]            --
│    └─Empty: 2-2081                     [64, 64, 1, 1]            --
│    └─Empty: 2-2082                     [64]                      --
│    └─Empty: 2-2083                     [64]                      --
│    └─BatchNorm2d: 2-2084               [8, 64, 128, 128]         --
│    └─Scaler: 2-2085                    [8, 64, 128, 128]         --
│    └─ReLU: 2-2086                      [8, 64, 128, 128]         --
│    └─Empty: 2-2087                     [8, 64, 128, 128]         --
│    └─Clamp: 2-2088                     [8, 64, 128, 128]         --
├─FusedConv2dBNReLU: 1-157               [8, 64, 128, 128]         (recursive)
│    └─OutputShiftSqueeze: 2-2089        --                        --
│    └─One: 2-2090                       [1]                       --
│    └─OutputScale: 2-2091               --                        --
│    └─Empty: 2-2092                     [64, 64, 3, 3]            --
│    └─Empty: 2-2093                     [64, 64, 3, 3]            --
│    └─Empty: 2-2094                     [64]                      --
│    └─Empty: 2-2095                     [64]                      --
│    └─BatchNorm2d: 2-2096               [8, 64, 128, 128]         --
│    └─Scaler: 2-2097                    [8, 64, 128, 128]         --
│    └─ReLU: 2-2098                      [8, 64, 128, 128]         --
│    └─Empty: 2-2099                     [8, 64, 128, 128]         --
│    └─Clamp: 2-2100                     [8, 64, 128, 128]         --
├─FusedMaxPoolConv2dBNReLU: 1-158        [8, 64, 64, 64]           (recursive)
│    └─MaxPool2d: 2-2101                 [8, 64, 64, 64]           --
│    └─Empty: 2-2102                     [8, 64, 64, 64]           --
│    └─Empty: 2-2103                     [8, 64, 64, 64]           --
│    └─OutputShiftSqueeze: 2-2104        --                        --
│    └─One: 2-2105                       [1]                       --
│    └─OutputScale: 2-2106               --                        --
│    └─Empty: 2-2107                     [64, 64, 3, 3]            --
│    └─Empty: 2-2108                     [64, 64, 3, 3]            --
│    └─Empty: 2-2109                     [64]                      --
│    └─Empty: 2-2110                     [64]                      --
│    └─BatchNorm2d: 2-2111               [8, 64, 64, 64]           --
│    └─Scaler: 2-2112                    [8, 64, 64, 64]           --
│    └─ReLU: 2-2113                      [8, 64, 64, 64]           --
│    └─Empty: 2-2114                     [8, 64, 64, 64]           --
│    └─Clamp: 2-2115                     [8, 64, 64, 64]           --
├─FusedConv2dBNReLU: 1-159               [8, 64, 64, 64]           (recursive)
│    └─OutputShiftSqueeze: 2-2116        --                        --
│    └─One: 2-2117                       [1]                       --
│    └─OutputScale: 2-2118               --                        --
│    └─Empty: 2-2119                     [64, 64, 3, 3]            --
│    └─Empty: 2-2120                     [64, 64, 3, 3]            --
│    └─Empty: 2-2121                     [64]                      --
│    └─Empty: 2-2122                     [64]                      --
│    └─BatchNorm2d: 2-2123               [8, 64, 64, 64]           --
│    └─Scaler: 2-2124                    [8, 64, 64, 64]           --
│    └─ReLU: 2-2125                      [8, 64, 64, 64]           --
│    └─Empty: 2-2126                     [8, 64, 64, 64]           --
│    └─Clamp: 2-2127                     [8, 64, 64, 64]           --
├─FusedMaxPoolConv2dBNReLU: 1-160        [8, 64, 32, 32]           (recursive)
│    └─MaxPool2d: 2-2128                 [8, 64, 32, 32]           --
│    └─Empty: 2-2129                     [8, 64, 32, 32]           --
│    └─Empty: 2-2130                     [8, 64, 32, 32]           --
│    └─OutputShiftSqueeze: 2-2131        --                        --
│    └─One: 2-2132                       [1]                       --
│    └─OutputScale: 2-2133               --                        --
│    └─Empty: 2-2134                     [64, 64, 3, 3]            --
│    └─Empty: 2-2135                     [64, 64, 3, 3]            --
│    └─Empty: 2-2136                     [64]                      --
│    └─Empty: 2-2137                     [64]                      --
│    └─BatchNorm2d: 2-2138               [8, 64, 32, 32]           --
│    └─Scaler: 2-2139                    [8, 64, 32, 32]           --
│    └─ReLU: 2-2140                      [8, 64, 32, 32]           --
│    └─Empty: 2-2141                     [8, 64, 32, 32]           --
│    └─Clamp: 2-2142                     [8, 64, 32, 32]           --
├─FusedConv2dBNReLU: 1-161               [8, 64, 32, 32]           (recursive)
│    └─OutputShiftSqueeze: 2-2143        --                        --
│    └─One: 2-2144                       [1]                       --
│    └─OutputScale: 2-2145               --                        --
│    └─Empty: 2-2146                     [64, 64, 3, 3]            --
│    └─Empty: 2-2147                     [64, 64, 3, 3]            --
│    └─Empty: 2-2148                     [64]                      --
│    └─Empty: 2-2149                     [64]                      --
│    └─BatchNorm2d: 2-2150               [8, 64, 32, 32]           --
│    └─Scaler: 2-2151                    [8, 64, 32, 32]           --
│    └─ReLU: 2-2152                      [8, 64, 32, 32]           --
│    └─Empty: 2-2153                     [8, 64, 32, 32]           --
│    └─Clamp: 2-2154                     [8, 64, 32, 32]           --
├─FusedMaxPoolConv2dBNReLU: 1-162        [8, 64, 16, 16]           (recursive)
│    └─MaxPool2d: 2-2155                 [8, 64, 16, 16]           --
│    └─Empty: 2-2156                     [8, 64, 16, 16]           --
│    └─Empty: 2-2157                     [8, 64, 16, 16]           --
│    └─OutputShiftSqueeze: 2-2158        --                        --
│    └─One: 2-2159                       [1]                       --
│    └─OutputScale: 2-2160               --                        --
│    └─Empty: 2-2161                     [64, 64, 3, 3]            --
│    └─Empty: 2-2162                     [64, 64, 3, 3]            --
│    └─Empty: 2-2163                     [64]                      --
│    └─Empty: 2-2164                     [64]                      --
│    └─BatchNorm2d: 2-2165               [8, 64, 16, 16]           --
│    └─Scaler: 2-2166                    [8, 64, 16, 16]           --
│    └─ReLU: 2-2167                      [8, 64, 16, 16]           --
│    └─Empty: 2-2168                     [8, 64, 16, 16]           --
│    └─Clamp: 2-2169                     [8, 64, 16, 16]           --
├─FusedConv2dBNReLU: 1-163               [8, 64, 16, 16]           (recursive)
│    └─OutputShiftSqueeze: 2-2170        --                        --
│    └─One: 2-2171                       [1]                       --
│    └─OutputScale: 2-2172               --                        --
│    └─Empty: 2-2173                     [64, 64, 1, 1]            --
│    └─Empty: 2-2174                     [64, 64, 1, 1]            --
│    └─Empty: 2-2175                     [64]                      --
│    └─Empty: 2-2176                     [64]                      --
│    └─BatchNorm2d: 2-2177               [8, 64, 16, 16]           --
│    └─Scaler: 2-2178                    [8, 64, 16, 16]           --
│    └─ReLU: 2-2179                      [8, 64, 16, 16]           --
│    └─Empty: 2-2180                     [8, 64, 16, 16]           --
│    └─Clamp: 2-2181                     [8, 64, 16, 16]           --
├─FusedMaxPoolConv2dBNReLU: 1-164        [8, 64, 16, 16]           (recursive)
│    └─MaxPool2d: 2-2182                 [8, 64, 16, 16]           --
│    └─Empty: 2-2183                     [8, 64, 16, 16]           --
│    └─Empty: 2-2184                     [8, 64, 16, 16]           --
│    └─OutputShiftSqueeze: 2-2185        --                        --
│    └─One: 2-2186                       [1]                       --
│    └─OutputScale: 2-2187               --                        --
│    └─Empty: 2-2188                     [64, 64, 3, 3]            --
│    └─Empty: 2-2189                     [64, 64, 3, 3]            --
│    └─Empty: 2-2190                     [64]                      --
│    └─Empty: 2-2191                     [64]                      --
│    └─BatchNorm2d: 2-2192               [8, 64, 16, 16]           --
│    └─Scaler: 2-2193                    [8, 64, 16, 16]           --
│    └─ReLU: 2-2194                      [8, 64, 16, 16]           --
│    └─Empty: 2-2195                     [8, 64, 16, 16]           --
│    └─Clamp: 2-2196                     [8, 64, 16, 16]           --
├─FusedMaxPoolConv2dBNReLU: 1-165        [8, 64, 8, 8]             (recursive)
│    └─MaxPool2d: 2-2197                 [8, 64, 8, 8]             --
│    └─Empty: 2-2198                     [8, 64, 8, 8]             --
│    └─Empty: 2-2199                     [8, 64, 8, 8]             --
│    └─OutputShiftSqueeze: 2-2200        --                        --
│    └─One: 2-2201                       [1]                       --
│    └─OutputScale: 2-2202               --                        --
│    └─Empty: 2-2203                     [64, 64, 3, 3]            --
│    └─Empty: 2-2204                     [64, 64, 3, 3]            --
│    └─Empty: 2-2205                     [64]                      --
│    └─Empty: 2-2206                     [64]                      --
│    └─BatchNorm2d: 2-2207               [8, 64, 8, 8]             --
│    └─Scaler: 2-2208                    [8, 64, 8, 8]             --
│    └─ReLU: 2-2209                      [8, 64, 8, 8]             --
│    └─Empty: 2-2210                     [8, 64, 8, 8]             --
│    └─Clamp: 2-2211                     [8, 64, 8, 8]             --
├─FusedConv2dBNReLU: 1-166               [8, 64, 8, 8]             (recursive)
│    └─OutputShiftSqueeze: 2-2212        --                        --
│    └─One: 2-2213                       [1]                       --
│    └─OutputScale: 2-2214               --                        --
│    └─Empty: 2-2215                     [64, 64, 1, 1]            --
│    └─Empty: 2-2216                     [64, 64, 1, 1]            --
│    └─Empty: 2-2217                     [64]                      --
│    └─Empty: 2-2218                     [64]                      --
│    └─BatchNorm2d: 2-2219               [8, 64, 8, 8]             --
│    └─Scaler: 2-2220                    [8, 64, 8, 8]             --
│    └─ReLU: 2-2221                      [8, 64, 8, 8]             --
│    └─Empty: 2-2222                     [8, 64, 8, 8]             --
│    └─Clamp: 2-2223                     [8, 64, 8, 8]             --
├─FusedMaxPoolConv2dBNReLU: 1-167        [8, 64, 8, 8]             (recursive)
│    └─MaxPool2d: 2-2224                 [8, 64, 8, 8]             --
│    └─Empty: 2-2225                     [8, 64, 8, 8]             --
│    └─Empty: 2-2226                     [8, 64, 8, 8]             --
│    └─OutputShiftSqueeze: 2-2227        --                        --
│    └─One: 2-2228                       [1]                       --
│    └─OutputScale: 2-2229               --                        --
│    └─Empty: 2-2230                     [64, 64, 3, 3]            --
│    └─Empty: 2-2231                     [64, 64, 3, 3]            --
│    └─Empty: 2-2232                     [64]                      --
│    └─Empty: 2-2233                     [64]                      --
│    └─BatchNorm2d: 2-2234               [8, 64, 8, 8]             --
│    └─Scaler: 2-2235                    [8, 64, 8, 8]             --
│    └─ReLU: 2-2236                      [8, 64, 8, 8]             --
│    └─Empty: 2-2237                     [8, 64, 8, 8]             --
│    └─Clamp: 2-2238                     [8, 64, 8, 8]             --
├─FusedMaxPoolConv2dBNReLU: 1-168        [8, 64, 4, 4]             (recursive)
│    └─MaxPool2d: 2-2239                 [8, 64, 4, 4]             --
│    └─Empty: 2-2240                     [8, 64, 4, 4]             --
│    └─Empty: 2-2241                     [8, 64, 4, 4]             --
│    └─OutputShiftSqueeze: 2-2242        --                        --
│    └─One: 2-2243                       [1]                       --
│    └─OutputScale: 2-2244               --                        --
│    └─Empty: 2-2245                     [64, 64, 1, 1]            --
│    └─Empty: 2-2246                     [64, 64, 1, 1]            --
│    └─Empty: 2-2247                     [64]                      --
│    └─Empty: 2-2248                     [64]                      --
│    └─BatchNorm2d: 2-2249               [8, 64, 4, 4]             --
│    └─Scaler: 2-2250                    [8, 64, 4, 4]             --
│    └─ReLU: 2-2251                      [8, 64, 4, 4]             --
│    └─Empty: 2-2252                     [8, 64, 4, 4]             --
│    └─Clamp: 2-2253                     [8, 64, 4, 4]             --
├─FusedConv2dBNReLU: 1-169               [8, 64, 4, 4]             (recursive)
│    └─OutputShiftSqueeze: 2-2254        --                        --
│    └─One: 2-2255                       [1]                       --
│    └─OutputScale: 2-2256               --                        --
│    └─Empty: 2-2257                     [64, 64, 1, 1]            --
│    └─Empty: 2-2258                     [64, 64, 1, 1]            --
│    └─Empty: 2-2259                     [64]                      --
│    └─Empty: 2-2260                     [64]                      --
│    └─BatchNorm2d: 2-2261               [8, 64, 4, 4]             --
│    └─Scaler: 2-2262                    [8, 64, 4, 4]             --
│    └─ReLU: 2-2263                      [8, 64, 4, 4]             --
│    └─Empty: 2-2264                     [8, 64, 4, 4]             --
│    └─Clamp: 2-2265                     [8, 64, 4, 4]             --
├─FusedMaxPoolConv2dBNReLU: 1-170        [8, 64, 4, 4]             (recursive)
│    └─MaxPool2d: 2-2266                 [8, 64, 4, 4]             --
│    └─Empty: 2-2267                     [8, 64, 4, 4]             --
│    └─Empty: 2-2268                     [8, 64, 4, 4]             --
│    └─OutputShiftSqueeze: 2-2269        --                        --
│    └─One: 2-2270                       [1]                       --
│    └─OutputScale: 2-2271               --                        --
│    └─Empty: 2-2272                     [64, 64, 3, 3]            --
│    └─Empty: 2-2273                     [64, 64, 3, 3]            --
│    └─Empty: 2-2274                     [64]                      --
│    └─Empty: 2-2275                     [64]                      --
│    └─BatchNorm2d: 2-2276               [8, 64, 4, 4]             --
│    └─Scaler: 2-2277                    [8, 64, 4, 4]             --
│    └─ReLU: 2-2278                      [8, 64, 4, 4]             --
│    └─Empty: 2-2279                     [8, 64, 4, 4]             --
│    └─Clamp: 2-2280                     [8, 64, 4, 4]             --
├─Conv1d: 1-171                          [8, 64, 10]               65,606
│    └─OutputShiftSqueeze: 2-2281        --                        --
│    └─One: 2-2282                       [1]                       --
│    └─OutputScale: 2-2283               --                        --
│    └─Empty: 2-2284                     [64, 1024, 1]             --
│    └─Empty: 2-2285                     [64, 1024, 1]             --
│    └─Empty: 2-2286                     [64]                      --
│    └─Empty: 2-2287                     [64]                      --
│    └─Scaler: 2-2288                    [8, 64, 10]               --
│    └─Empty: 2-2289                     [8, 64, 10]               --
│    └─Empty: 2-2290                     [8, 64, 10]               --
│    └─Clamp: 2-2291                     [8, 64, 10]               --
├─FusedConv1dBNReLU: 1-172               [8, 64, 10]               12,358
│    └─OutputShiftSqueeze: 2-2292        --                        --
│    └─One: 2-2293                       [1]                       --
│    └─OutputScale: 2-2294               --                        --
│    └─Empty: 2-2295                     [64, 64, 3]               --
│    └─Empty: 2-2296                     [64, 64, 3]               --
│    └─Empty: 2-2297                     [64]                      --
│    └─Empty: 2-2298                     [64]                      --
│    └─BatchNorm1d: 2-2299               [8, 64, 10]               --
│    └─Scaler: 2-2300                    [8, 64, 10]               --
│    └─ReLU: 2-2301                      [8, 64, 10]               --
│    └─Empty: 2-2302                     [8, 64, 10]               --
│    └─Clamp: 2-2303                     [8, 64, 10]               --
├─Conv1d: 1-173                          [8, 64, 10]               4,166
│    └─OutputShiftSqueeze: 2-2304        --                        --
│    └─One: 2-2305                       [1]                       --
│    └─OutputScale: 2-2306               --                        --
│    └─Empty: 2-2307                     [64, 64, 1]               --
│    └─Empty: 2-2308                     [64, 64, 1]               --
│    └─Empty: 2-2309                     [64]                      --
│    └─Empty: 2-2310                     [64]                      --
│    └─Scaler: 2-2311                    [8, 64, 10]               --
│    └─Empty: 2-2312                     [8, 64, 10]               --
│    └─Empty: 2-2313                     [8, 64, 10]               --
│    └─Clamp: 2-2314                     [8, 64, 10]               --
├─FusedConv1dBNReLU: 1-174               [8, 64, 10]               12,358
│    └─OutputShiftSqueeze: 2-2315        --                        --
│    └─One: 2-2316                       [1]                       --
│    └─OutputScale: 2-2317               --                        --
│    └─Empty: 2-2318                     [64, 64, 3]               --
│    └─Empty: 2-2319                     [64, 64, 3]               --
│    └─Empty: 2-2320                     [64]                      --
│    └─Empty: 2-2321                     [64]                      --
│    └─BatchNorm1d: 2-2322               [8, 64, 10]               --
│    └─Scaler: 2-2323                    [8, 64, 10]               --
│    └─ReLU: 2-2324                      [8, 64, 10]               --
│    └─Empty: 2-2325                     [8, 64, 10]               --
│    └─Clamp: 2-2326                     [8, 64, 10]               --
├─Conv1d: 1-175                          [8, 64, 10]               4,166
│    └─OutputShiftSqueeze: 2-2327        --                        --
│    └─One: 2-2328                       [1]                       --
│    └─OutputScale: 2-2329               --                        --
│    └─Empty: 2-2330                     [64, 64, 1]               --
│    └─Empty: 2-2331                     [64, 64, 1]               --
│    └─Empty: 2-2332                     [64]                      --
│    └─Empty: 2-2333                     [64]                      --
│    └─Scaler: 2-2334                    [8, 64, 10]               --
│    └─Empty: 2-2335                     [8, 64, 10]               --
│    └─Empty: 2-2336                     [8, 64, 10]               --
│    └─Clamp: 2-2337                     [8, 64, 10]               --
├─FusedConv1dBNReLU: 1-176               [8, 64, 6]                12,358
│    └─OutputShiftSqueeze: 2-2338        --                        --
│    └─One: 2-2339                       [1]                       --
│    └─OutputScale: 2-2340               --                        --
│    └─Empty: 2-2341                     [64, 64, 3]               --
│    └─Empty: 2-2342                     [64, 64, 3]               --
│    └─Empty: 2-2343                     [64]                      --
│    └─Empty: 2-2344                     [64]                      --
│    └─BatchNorm1d: 2-2345               [8, 64, 6]                --
│    └─Scaler: 2-2346                    [8, 64, 6]                --
│    └─ReLU: 2-2347                      [8, 64, 6]                --
│    └─Empty: 2-2348                     [8, 64, 6]                --
│    └─Clamp: 2-2349                     [8, 64, 6]                --
├─Conv1d: 1-177                          [8, 64, 6]                4,166
│    └─OutputShiftSqueeze: 2-2350        --                        --
│    └─One: 2-2351                       [1]                       --
│    └─OutputScale: 2-2352               --                        --
│    └─Empty: 2-2353                     [64, 64, 1]               --
│    └─Empty: 2-2354                     [64, 64, 1]               --
│    └─Empty: 2-2355                     [64]                      --
│    └─Empty: 2-2356                     [64]                      --
│    └─Scaler: 2-2357                    [8, 64, 6]                --
│    └─Empty: 2-2358                     [8, 64, 6]                --
│    └─Empty: 2-2359                     [8, 64, 6]                --
│    └─Clamp: 2-2360                     [8, 64, 6]                --
├─FusedConv1dBNReLU: 1-178               [8, 64, 2]                12,358
│    └─OutputShiftSqueeze: 2-2361        --                        --
│    └─One: 2-2362                       [1]                       --
│    └─OutputScale: 2-2363               --                        --
│    └─Empty: 2-2364                     [64, 64, 3]               --
│    └─Empty: 2-2365                     [64, 64, 3]               --
│    └─Empty: 2-2366                     [64]                      --
│    └─Empty: 2-2367                     [64]                      --
│    └─BatchNorm1d: 2-2368               [8, 64, 2]                --
│    └─Scaler: 2-2369                    [8, 64, 2]                --
│    └─ReLU: 2-2370                      [8, 64, 2]                --
│    └─Empty: 2-2371                     [8, 64, 2]                --
│    └─Clamp: 2-2372                     [8, 64, 2]                --
├─Conv1d: 1-179                          [8, 64, 2]                4,166
│    └─OutputShiftSqueeze: 2-2373        --                        --
│    └─One: 2-2374                       [1]                       --
│    └─OutputScale: 2-2375               --                        --
│    └─Empty: 2-2376                     [64, 64, 1]               --
│    └─Empty: 2-2377                     [64, 64, 1]               --
│    └─Empty: 2-2378                     [64]                      --
│    └─Empty: 2-2379                     [64]                      --
│    └─Scaler: 2-2380                    [8, 64, 2]                --
│    └─Empty: 2-2381                     [8, 64, 2]                --
│    └─Empty: 2-2382                     [8, 64, 2]                --
│    └─Clamp: 2-2383                     [8, 64, 2]                --
├─FusedLinearReLU: 1-180                 [8, 32]                   4,134
│    └─OutputShiftSqueeze: 2-2384        --                        --
│    └─One: 2-2385                       [1]                       --
│    └─OutputScale: 2-2386               --                        --
│    └─Empty: 2-2387                     [32, 128]                 --
│    └─Empty: 2-2388                     [32, 128]                 --
│    └─Empty: 2-2389                     [32]                      --
│    └─Empty: 2-2390                     [32]                      --
│    └─Scaler: 2-2391                    [8, 32]                   --
│    └─ReLU: 2-2392                      [8, 32]                   --
│    └─Empty: 2-2393                     [8, 32]                   --
│    └─Clamp: 2-2394                     [8, 32]                   --
├─Linear: 1-181                          [8, 4]                    134
│    └─OutputShiftSqueeze: 2-2395        --                        --
│    └─One: 2-2396                       [1]                       --
│    └─OutputScale: 2-2397               --                        --
│    └─Empty: 2-2398                     [4, 32]                   --
│    └─Empty: 2-2399                     [4, 32]                   --
│    └─Empty: 2-2400                     [8, 4]                    --
│    └─Empty: 2-2401                     [8, 4]                    --
│    └─Clamp: 2-2402                     [8, 4]                    --
==========================================================================================
Total params: 563,912
Trainable params: 563,744
Non-trainable params: 168
Total mult-adds (M): 0.00
==========================================================================================
Input size (MB): 62.91
Forward/backward pass size (MB): 0.00
Params size (MB): 0.00
Estimated Total Size (MB): 62.91
==========================================================================================
…
